model_training/trained_models/old_1_dim_regression/model_400.pth (torch, 453160 bytes, 18 tensors)

pos_embedding f4 [1, 1025, 64]
00000000: db2a f13f 3700 b73f 0df9 603f 5771 0fc0
00000010: acfa 203f f70f 96bf c8fd 7fbd 453a cbbf
00000020: 0e78 2ebf cace c73f e4a2 d1be 50ed b5bf
00000030: 6ea0 25bf 974a 0fbf 1798 4ebf d7e0 473f
00000040: 0603 d93f cc44 adbd ca20 98be fdd5 f63e
00000050: b9c0 45bf d4d2 7f3f 8208 553f 5da6 da3f
00000060: 1dc0 933f ff25 a13f e63a 183f bef9 a23f
00000070: cfe9 84be b761 273d 391c 70be baa8 4a3f
00000080: 1959 b4bf b27c 62bf dc55 49be ae8f d63f
00000090: 95b1 823e 3860 fdbe f2fe a83e 9d66 55bf
000000a0: 5002 bebf 287d 7f3f bcbc 68bf 4aab 16bf
000000b0: 9ba7 9ebf 0f2e 0440 608f 9fbf b0c1 f1be
000000c0: 0410 5abf ff4b 28bf d4dc 183d edba 063f
000000d0: 95d4 f4be b493 9c3f b79e 5ebf a005 45bf
000000e0: a32e aebf 0fb3 c63c fd17 a23b 6277 253f
000000f0: c805 dabc e3f1 ef3f a8b6 95bf e8b8 af3f
00000100: a506 bc3f e05f 613f ba91 1440 40a3 013f
00000110: e9ba ad3e 9609 65be d809 89bf af05 a93f
00000120: eb46 40be 7ad6 063f 6697 473d 6068 e43e
00000130: a839 1e3f 6a0a 37bf 081f 16c0 b9f8 48bf
00000140: 3c83 b83c 15e6 bebe 0d71 b6bf 9aae 16bf
00000150: 2175 143f c15d 0a3f 7021 963f f917 723d
00000160: 1bb3 463f 5e58 07bf 162c 88bf 183e 1c3f
00000170: 55f6 ddbf b79c 68bf af2a b43f 95a5 ff3e
00000180: 02ec 29c0 cf97 003f 235d 513f 5273 cebb
00000190: 85cb 243f e942 1b3f d8a3 8c3f b5b6 e8be
000001a0: e8f2 3ebe 026b 4c3f 674a d33e fa5a 323e
000001b0: f3f3 933e abfc a83f 7ef6 8fbc 5a5e 9cbe
000001c0: 3efd c3bf 6b2a 0abe 28f0 23bf bf87 fb3e
000001d0: 7b03 393f 4ef4 ee3d 886d c7be afa8 0d3f
000001e0: e132 cabc f834 6f3e 46b4 f13d c743 4a3f
000001f0: c972 953f 5b09 ab3e 2654 363f 8a54 d73e
00000200: 2072 f93f 56a8 863f 8258 babf 927d 97bf
00000210: 9255 05be 0df2 d53f ac44 2c3f 1157 113f
00000220: b109 963f e6a5 f8b9 b847 f2bf bd2c 793f
00000230: a182 bcbe 46d5 843f 06ac 30bf e8d1 263f
00000240: 0857 84bf e644 7f3f f09b d43f 8b4b bf3f
00000250: e11b 9a3e c344 4fbe bc2f 45bf 326c 123e
00000260: c446 b33e e8fc 7e3f e5af f0be e1a8 d13f
00000270: 48a2 1fc0 0c6c e3be 096b 9dbf 1364 553f
00000280: 6a10 f8bf 6e1b 753e c29e 693c 1441 b8be
00000290: faa7 903e 2b74 3bbf 8de1 3f3e b319 8fbf
000002a0: 8314 d1bf eceb b03f e601 ac3f d9dc 573d
000002b0: d77b d0bf 4f8b 443f 94b1 4a3f fbd5 0340
000002c0: 09e2 563d 8b9a da3d e3fb 5abf 1ab6 61be
000002d0: a0f8 79bf ef10 d2bf b73d 92bf 488b 0bbf
000002e0: 8e37 06bf ccf3 c8bf 9a3b ffbf 2a11 033e
000002f0: 928f 8e3f abb0 0fbf 26ef 333f 0bd3 383f
00000300: c695 ea3f d232 7abf dbd5 793f 058c c1be
00000310: 9826 9fbf c09e b53e 3d58 fd3e ed78 b43f
00000320: 7d93 0b3f 3841 0a40 58ea 0cbf c1c4 76bf
00000330: 5111 253e 4ee7 8a3f 0f3f ae3f a3a2 f83e
00000340: fb0e 57bf 05f6 85bf a56a 0abf e903 1abf
00000350: 9186 2a3e 0095 e83e 9f4c 3ebe 4744 1ec0
00000360: 5e84 d9be 1d8f 8e3f 3fe4 e7bf eaea c43f
00000370: c438 a63e 9bc7 0dbf b501 883f 03bf dd3f
00000380: 9b7e cc3a 4f47 db3f 6701 213e 6333 92bf
00000390: 5879 1bbf dc8b b13d d549 cd3e ba35 0540
000003a0: cc52 aabd a862 75bf 0abe 05c0 de31 91bf
000003b0: 645b 8a3b ce26 bc3d 24aa 423e 9450 dc3e
000003c0: b515 78bf 7ab9 863e 6644 0fbf e9f2 f43e
000003d0: f049 65bf 1aa8 c5bc a27e c7be cfba c33f
000003e0: 93c8 a63f 478a 3dbf 416a 5e3f 2719 063f
000003f0: 4473 123f 599c 153f 6252 003f 0827 6d3e
1.8841203 1.429694 0.8788002 -2.2412927 0.62882495 -1.1723622 -0.062497884 -1.5877157
-0.6815194 1.5609982 -0.40944588 -1.4213047 -0.6469792 -0.5597319 -0.8070082 0.78077453
1.6954048 -0.084603876 -0.29712516 0.48210135 -0.77247196 0.99931073 0.83216107 1.708202
1.1543003 1.258972 0.5946487 1.2732465 -0.25959632 0.040864673 -0.23448266 0.79163706
-1.408969 -0.8847152 -0.19661659 1.6762598 0.2552611 -0.49487472 0.33007008 -0.833597
-1.4844456 0.9980035 -0.90912986 -0.58855116 -1.2394899 2.0653112 -1.246563 -0.47218084
-0.8518069 -0.6574096 0.037319973 0.52628976 -0.47818437 1.2232575 -0.8696093 -0.7696171
-1.3607982 0.024255304 0.0049467073 0.6463529 -0.026614085 1.8745693 -1.1696367 1.3728304
1.4689528 0.8803692 2.3213944 0.50639725 0.33931664 -0.22366938 -1.0706129 1.320486
-0.18777053 0.52671015 0.04872837 0.44610882 0.61806726 -0.71500266 -2.345644 -0.7850452
0.022523515 -0.37284914 -1.425325 -0.5886017 0.57991225 0.5404931 1.1728954 0.059104893
0.77617043 -0.5286921 -1.0638454 0.6103225 -1.73408 -0.9086413 1.4075526 0.49931017
-2.6550298 0.5023164 0.8178274 -0.0063003683 0.64373046 0.6064897 1.0987501 -0.45451894
-0.18647349 0.7985078 0.41267702 0.17417517 0.28897056 1.3202108 -0.017573591 -0.30540735
-1.5311658 -0.13492744 -0.64038324 0.49127004 0.72270936 0.11667691 -0.38950753 0.55335516
-0.024682464 0.2336005 0.118019626 0.7900967 1.1675655 0.33405575 0.7122215 0.42056686
1.9487953 1.0520122 -1.455826 -1.1835196 -0.13020924 1.6714493 0.67292285 0.5677348
1.1721708 -0.0004742585 -1.8928137 0.9733389 -0.36818412 1.0377586 -0.69012487 0.6516404
-1.033906 0.99714506 1.6610088 1.4944929 0.30099395 -0.20241074 -0.7702596 0.14299086
0.35014927 0.99604654 -0.47009197 1.6379663 -2.4942799 -0.4441837 -1.229829 0.83355826
-1.9380009 0.23936245 0.014259042 -0.3598715 0.28253156 -0.73224133 0.18738385 -1.1179718
-1.6334385 1.3821998 1.3438079 0.05270085 -1.6287793 0.7677507 0.7917721 2.0599353
0.052461658 0.10674008 -0.855406 -0.22042122 -0.97644997 -1.6411418 -1.1425084 -0.545094
-0.5242852 -1.5699401 -1.9940064 0.12799516 1.1137564 -0.5612895 0.70286787 0.72197026
1.8326957 -0.97733796 0.9759194 -0.3780214 -1.2433653 0.3547268 0.49481383 1.4099404
0.54521924 2.1602306 -0.5504508 -0.9639397 0.16119887 1.0851839 1.3612994 0.48561582
-0.84007233 -1.0465704 -0.54068977 -0.60162216 0.16652896 0.45426178 -0.18583916 -2.4729173
-0.424838 1.1137425 -1.811653 1.538419 0.32465184 -0.553827 1.0625521 1.7323917
0.0015601696 1.7131137 0.15723191 -1.1421932 -0.6073203 0.08669254 0.40095392 2.0814042
-0.083165735 -0.9585366 -2.089724 -1.1343343 0.0042223204 0.09187089 0.19010216 0.43030226
-0.9690812 0.26313382 -0.5596374 0.47841576 -0.89565945 -0.024128009 -0.389638 1.5291384
1.302996 -0.7403912 0.8688088 0.5238213 0.5720713 0.5844169 0.50125706 0.2315942

cls_token f4 [1, 1, 64]
00000000: 8326 2bbf 4c3f c13f 45ce 743f 90f9 893e
00000010: 13e7 ccbe 390d b1be bc31 e43f aca4 b73f
00000020: 674b b9bf ae37 2fbe 4b5e 293f 7cd0 3e3f
00000030: 829d 5f3e 3ff3 d0bf c161 32bf 118b c83b
00000040: a1d0 ad3f 7e90 b3bf 3f77 f6bf b899 aabf
00000050: 79f7 e63e 4b10 133f dab7 6cbf 05fd 8a3f
00000060: 6de3 8a3d 4af7 4cbf 3597 98bf 709a 7a3f
00000070: 7d05 7f3f 915a 0c3f d1ec 9c3d c7e0 1240
00000080: 6ceb c43f 0a92 b6be a894 59bf be36 00bf
00000090: 52ee b03f 9094 f43f e9be babf c2f7 f63e
000000a0: 4a4a d63d 6e9c ca3e 3338 e9be 4a8b 73bf
000000b0: 5b1f 0cbf e404 8a3e 0740 ff3f 16ca 8cbf
000000c0: b523 e43f 8c79 dd39 7ed4 66bf 4be3 843f
000000d0: 46c5 80bf b0eb 07bf 9951 903f 6e68 64bd
000000e0: 5111 9c3d b625 62bf b1f3 89bf ba49 c23f
000000f0: 9320 03bf e608 783f 6358 e5be ac58 513f
-0.6685564 1.5097442 0.9562724 0.26948214 -0.40020046 -0.345804 1.7827678 1.4347129
-1.4476136 -0.17111084 0.66159505 0.7453687 0.21837428 -1.6324233 -0.6968041 0.0061200936
1.3579293 -1.402847 -1.9255141 -1.3328161 0.45110682 0.57446736 -0.92468035 1.0858465
0.06781659 -0.80064833 -1.1921145 0.978919 0.9961775 0.54825693 0.07662357 2.2949693
1.5384345 -0.35658294 -0.84992456 -0.5008353 1.382273 1.9107838 -1.4589511 0.482359
0.10463388 0.3957247 -0.4555069 -0.95134413 -0.54735345 0.26956856 1.9941415 -1.0999172
1.7823397 0.00042242964 -0.9016799 1.0381864 -1.0060203 -0.53094006 1.1274902 -0.055763654
0.0762049 -0.8833879 -1.0777494 1.517875 -0.5122158 0.9688858 -0.44793996 0.8177593

patch_to_embedding.weight f4 [64, 64]
00000000: 1d0f 9c3c 0d0f 0cbd 048f 37bd e831 53bc
00000010: 5b4e 0fbd 4c8e c0bd 3d8e febd 12c6 c6bd
00000020: c2cc e53d fbe6 b83d 3bca 0d3d 0a52 cb3c
00000030: 473d af3d 94ce b13d 66cb 4e3d 8652 7abc
00000040: 6d91 303d 134a 96bd 6c88 463d 02ea ac3d
00000050: 183f 973c ae14 a6bd 22ad 933c 1a64 be3d
00000060: b8f4 88bc 26af 3b3d 6054 d33b d77a 573d
00000070: ae2f 173d db4e c53b be0e fbbd 79af c53d
00000080: e030 f9bd 8198 e6bd b870 d23d 2969 1bbd
00000090: 039e fbbd 4b77 b23d 0b3e 4ebd 75d6 a83d
000000a0: ee3c b43d 05be 01be 57b9 07be b7b5 d5bb
000000b0: 8d0c 39bd bc10 05be 8441 afbd e45f 993d
000000c0: 2b7f 433d e365 173d 1772 4b3d 4556 4a3d
000000d0: 32ee 933d ea76 c2bc 8139 80bc 4819 e73d
000000e0: 48bd ca3a e2e9 e7bc 5a3a af3d 8a5d 7e3d
000000f0: c32d 22b9 38ac 6b3d ef6d d53d 691c 78bc
00000100: f900 86bd a9dc b73c 78fe dc3d 4d58 9cbd
00000110: d721 eebd f518 5cbd ec95 483c 429c d9bd
00000120: c3d3 aabd a4d1 c03b f98a c63d 4c1d 5f3d
00000130: 8251 933d 2756 2e3d c541 e63c 81ca e03d
00000140: 7ad6 3dbd b242 91bc 2c37 593c 7ac5 8f3b
00000150: dfa0 c3bb cf0b 6fbd e049 cc3d 61f0 833d
00000160: 33d1 d8bd 1ba8 893c 4ced fdbd 0964 d53d
00000170: 814c 223d 8c98 703d 20a1 ef3d f0a1 c83d
00000180: bdcd 853d c5cf 3dbd b0e3 a2bc ffc3 933d
00000190: 5693 b93d e58a 30bd 4875 cd3d c6f2 9b3d
000001a0: 207d cc3d de97 88bc a92e 46ba 2b47 9abd
000001b0: d8de fabd 4937 c3bc 947e 983c d08a c4bd
000001c0: 5020 eb3c 6df3 f0bd 31b8 f6bd 6f8d dd3d
000001d0: 6d33 ccbd 2175 26bc 5755 2dbd f646 443d
000001e0: 1715 273c a56b 6cbd b4aa 9abd dfaf dabd
000001f0: adde 16bd d0cf 633d 833a e9bc ad14 d8bd
00000200: d1ce eb3c 792e 01be f6be e6bd 0afe 8c3d
00000210: 5a5b fabd 0cc6 fbbb 25e7 bebd 3873 b23d
00000220: e765 aebd ec3c ffbd 6921 b23d 4d2f 9f3b
00000230: f31f d2bd 9c6a 6b3d d53c e6bd 0208 103d
00000240: b0b9 63bd d18d 7b3d a663 9b3d 3170 b5bc
00000250: f474 c43d b00b 773c 53a2 35bc 945a d43d
00000260: 884f 843d 9e4d 84bd 46cc 3c3d 3ac6 9cbd
00000270: 5851 2b3b 3b74 dbbd 5761 973d cc88 fdbd
00000280: 23a9 f7bc c6ca 863d 662a 4abd a4c2 f03d
00000290: 574a 023d 504d 0bbc ee25 5e3d ff97 bfbd
000002a0: 2ab3 6e3d d536 03be f450 063d 83e4 b9bc
000002b0: 78a9 ca3d 74f1 f9bc a1fe 103c 430a f3bd
000002c0: 3fc3 a03d a7b1 ffbd 3341 7d3d 3c73 023d
000002d0: 0c4c c33d 7f80 e03d 52c7 b63b ec1a dabd
000002e0: 1f99 d33d 3a63 94bd b2e5 e0bd 8ee9 5b3d
000002f0: a7f4 82bd 3e9b a93d af1a ac3d 98db 37bd
00000300: e1f4 88bc 194e 17bd 8be5 39bd 2ac7 d2bd
00000310: 73af 22bd 1a19 ec3d 396f 893d 81d3 dc3c
00000320: 594e c8bd 8aee 293d 863b abbc d76c 85bd
00000330: 8f04 2c3d 3e45 96bd f222 ad3b b7c4 33bd
00000340: 5c6f edbd 4210 783d 6eed b83a a256 8d3d
00000350: 67ad 38bd 32ab f83a bc64 9dbd 8d59 943d
00000360: f1d4 8cbd 88e4 673c a41f da3d 0a9c f2bd
00000370: 19eb 8cbd 552b 5d3d b9bb edbc 8e8e 73bd
00000380: 8152 06be 07fe da3d 4239 4b3d 71fe 50bc
00000390: bcf4 ae3c e682 a13d fc8b e23d 8ca1 8dbd
000003a0: 7aec b1bd b23b d2bd 80c6 d7bd 3a93 783d
000003b0: 26b8 f7bd 0731 b83d aa0c d13d 1d5c d9bd
000003c0: 34da bf3d 1b0f a03d c43f 05be 42a9 52bd
000003d0: 0276 6e3d c41b 23bd 1dea 45bd 30d9 07bd
000003e0: 3e04 a03d 3e25 cabd dae8 44bd 90e9 41bd
000003f0: 8f34 b03c b129 9dbd 0b50 9cbd e0d4 1dbd
0.019050175 -0.03419404 -0.044814125 -0.012890317 -0.034986835 -0.09402141 -0.124294735 -0.09705748
0.11220695 0.09028431 0.03461669 0.024819393 0.085566096 0.0868198 0.050486945 -0.015278464
0.04310744 -0.07338347 0.048469946 0.08443071 0.018462703 -0.08109413 0.018026892 0.092964366
-0.016718253 0.04582133 0.0064492673 0.052607384 0.036910705 0.006021363 -0.12258671 0.096526094
-0.12167525 -0.112595566 0.10275406 -0.037942085 -0.12285998 0.087141596 -0.050352138 0.082440294
0.08800684 -0.12670143 -0.13254295 -0.0065219062 -0.045177985 -0.12994665 -0.08557418 0.07488993
0.0477287 0.0369624 0.04966935 0.04939868 0.072231665 -0.023738343 -0.01565242 0.11284119
0.0015467787 -0.028309766 0.085560516 0.062100925 -0.00015466571 0.057537287 0.10421359 -0.015143492
-0.06543154 0.022444086 0.107907236 -0.076340295 -0.11627548 -0.05373474 0.012242775 -0.10625507
-0.083411716 0.005884366 0.09694476 0.0544713 0.07193281 0.04256263 0.028107533 0.109761246
-0.04634712 -0.017731998 0.013257783 0.0043875547 -0.005970105 -0.05836087 0.09975028 0.06442333
-0.105867766 0.016803792 -0.123987764 0.10419471 0.03962374 0.05873923 0.11700654 0.09796512
0.06533382 -0.046340723 -0.01988396 0.07215118 0.09061305 -0.04310121 0.10032135 0.07614665
0.09984803 -0.016673978 -0.00075600535 -0.075331055 -0.12249535 -0.023830073 0.018615045 -0.09596789
0.028701931 -0.1176518 -0.120468505 0.10817992 -0.09970746 -0.010159762 -0.042317715 0.047919236
0.010197899 -0.057719845 -0.0755209 -0.10678076 -0.036833454 0.055618107 -0.028470283 -0.105508186
0.028785141 -0.12615384 -0.11266892 0.068843916 -0.12224455 -0.007683521 -0.09321431 0.087133825
-0.0851553 -0.12462792 0.08697779 0.0048579336 -0.1026 0.057474717 -0.112420715 0.035163887
-0.055597007 0.061414544 0.07587366 -0.022148224 0.095926195 0.01507847 -0.011086064 0.10368839
0.06460482 -0.06460117 0.046093248 -0.07654996 0.0026141014 -0.107155286 0.07391613 -0.123796076
-0.030232018 0.06581645 -0.04935684 0.11755875 0.031809177 -0.008502319 0.05423539 -0.09355163
0.058276333 -0.12813886 0.032792047 -0.02269197 0.09895605 -0.030510642 0.008849771 -0.11867192
0.0784974 -0.12485056 0.061829757 0.031848177 0.09535989 0.10962009 0.00557796 -0.10649666
0.1033194 -0.072454885 -0.10981311 0.053689532 -0.0639432 0.08281563 0.08403527 -0.044887155
-0.01671833 -0.036939714 -0.045384925 -0.10291894 -0.039718103 0.11528225 0.06710667 0.026956322
-0.09780569 0.041487254 -0.020902406 -0.065149 0.041996535 -0.07337426 0.005283707 -0.043888774
-0.11593506 0.06056238 0.0014108845 0.069012895 -0.045087244 0.0018971919 -0.07685229 0.07243643
-0.06876553 0.014153607 0.10650566 -0.11846168 -0.06880779 0.053996403 -0.029020177 -0.059462123
-0.1311741 0.10692983 0.049615152 -0.012755976 0.021356933 0.07886295 0.11061856 -0.06915578
-0.086876824 -0.10265292 -0.10535908 0.06068728 -0.120956704 0.08993726 0.102074936 -0.10613272
0.09367791 0.07815381 -0.13012606 -0.051430948 0.05821801 -0.0398214 -0.04831897 -0.03316611
0.07813309 -0.09870385 -0.048073627 -0.047341883 0.021509437 -0.07673968 -0.076324545 -0.03853309

patch_to_embedding.bias f4 [64]
00000000: 7873 b3bd 7756 e13d 8885 d03d b980 e43d
00000010: 445a a73d 8667 283d 192c 0e3d b3f1 323c
00000020: 1d9a d73d a049 d03d 582c d8bc c0df b0bd
00000030: 00ab 533d 97d9 213d f66b 0ebc ba0b af3d
00000040: 105c 8e3d a492 74bd 7465 dd3d 5efb c7bd
00000050: 7d57 4dbb afed a9bd 83c3 7f3d bcfd 81bd
00000060: 4aea fa3c df30 0abd 1383 79bd 02fb cb3d
00000070: 3390 77bd 70c1 ae3d e586 c9bd 839f debd
00000080: 79e6 d1bd b25c 0a3d 1f73 ddbb c273 34bd
00000090: dd01 413c b540 b6bd 0042 cabd 5dbc c53c
000000a0: 3c20 a4bd e605 a3bd 0c57 043a 7f4f 5bbd
000000b0: 4164 e0bc 9a03 583d 6ba7 933d 9556 013d
000000c0: 8cc7 75bd 1b78 483c fb83 a53d 17c5 88bd
000000d0: 00d8 823d 68fc 0d3d 3264 e0bd d9c1 f83c
000000e0: 11af fa3c 3c95 9bbd 1b17 6dbd 77d6 433d
000000f0: 9cd1 383d d104 e63d ea09 6ebd 301e f23d
-0.08762258 0.1100282 0.10181719 0.111573644 0.08171514 0.041114353 0.034710024 0.010921883
0.10527442 0.10170293 -0.026388332 -0.08636427 0.05167675 0.03951415 -0.008692732 0.085471585
0.06951153 -0.05971016 0.10810366 -0.09764741 -0.0031332665 -0.08297288 0.062442314 -0.06347224
0.030629296 -0.033738013 -0.060916018 0.09959985 -0.060440253 0.08532989 -0.09840182 -0.10870268
-0.10249037 0.033779807 -0.0067581083 -0.044055708 0.011780229 -0.08899061 -0.0987587 0.02413767
-0.08013961 -0.079601094 0.00050483714 -0.05354261 -0.027391555 0.05273781 0.07209667 0.03157671
-0.060004756 0.012235667 0.08081814 -0.06678217 0.06388855 0.03466454 -0.10956611 0.030365871
0.030601056 -0.075968236 -0.057883363 0.04781195 0.045121774 0.112313874 -0.058114924 0.11822164

transformer.layers.0.0.fn.norm.weight f4 [64]
00000000: b099 5d3f 3c7e 5f3f cee0 543f 02bf 423f
00000010: 9125 193f 52ee 2e3f 42ce 733f be26 523f
00000020: 8e8b 623f a67e 443f f50f 343f 802c 633f
00000030: 9269 3b3f 260f 653f fedb 383f b16d 5f3f
00000040: eaf3 443f dec3 583f c869 453f d42a 733f
00000050: 9dca 323f 504d 643f 6b4d 513f 4b94 1f3f
00000060: d6a6 3e3f 911b 443f d799 6a3f f007 573f
00000070: 64f0 713f b766 453f cdb7 593f 7e0d 5e3f
00000080: 3273 4d3f 2dab 573f d6ba 623f f947 543f
00000090: f276 723f f0ee 4a3f c85c 6d3f ee01 2f3f
000000a0: 1142 613f 3409 443f c5d7 6c3f 2ee7 3b3f
000000b0: bb54 2f3f 2c7a 6c3f d331 233f 94ef 653f
000000c0: 051c 4a3f 65a1 473f 4b50 5d3f b4c6 673f
000000d0: 731f 6d3f c6d2 503f 00d9 4f3f 6f19 453f
000000e0: 754f 4d3f 6725 273f 4f77 503f 8675 433f
000000f0: 7dd1 1e3f 282c 543f ce46 5f3f 6a74 523f
0.86562634 0.87301993 0.83155525 0.76072705 0.59822947 0.683324 0.952366 0.82090366
0.88494194 0.7675575 0.7033685 0.88739777 0.7320796 0.8947624 0.7221068 0.8727675
0.76934683 0.8467387 0.77114534 0.94987226 0.69840413 0.8918047 0.81758755 0.6233565
0.7447332 0.76604563 0.9164099 0.83996487 0.9450743 0.77109855 0.8504608 0.8673934
0.802539 0.8424557 0.8856634 0.8292232 0.94712746 0.7927084 0.927197 0.6836232
0.87991434 0.7657654 0.9251674 0.7339963 0.68488663 0.9237392 0.637479 0.8981869
0.78949004 0.77980644 0.8645064 0.9053757 0.9262611 0.81571615 0.8119049 0.76991934
0.80199367 0.65291446 0.8143205 0.763512 0.62038404 0.8287988 0.87217414 0.82208884

transformer.layers.0.0.fn.norm.bias f4 [64]
00000000: f065 94bc da73 8e3b b62d c4bb d4ac f23c
00000010: bf92 b83c e6c0 7a3c 3eb7 833c 4eb8 5ebb
00000020: 8933 69bc 0c32 bcbb 67da 893b cde1 ef3c
00000030: 3acd 2b3c 53b1 83bc 12bc 3e3c 7a00 d4bb
00000040: 8971 103c a1e0 173d 390c b1bb b793 2d3c
00000050: 9684 0bbc e100 593c db04 a03b 0cb1 c7bc
00000060: 7002 bd3a bb59 1bbb 237c 9f3b a676 173c
00000070: 829c b43c 4a1b 62bc 4fa8 4d3c e8b5 523c
00000080: 868f 9f3c 1603 f63b cd30 2b3c d833 8538
00000090: 3137 54bb 4355 563c 5c65 0e3c 300b 8f3b
000000a0: 925f 833b f919 3f3c f7eb a73c 6d33 843c
000000b0: c1fd b63b 935d efbb a2a6 35bb 91c9 24bb
000000c0: 5be4 953c 5a68 af3b 5b45 b83c 3e18 24bc
000000d0: 17a5 0dbc 1dac 9b3a 7390 873c 465a c13c
000000e0: 4f83 8e3c bd9b 823c b54a e13b 5621 02bc
000000f0: c5e7 923c 4fbc 2f3c 2f04 3cbb 245e f4ba
-0.018115014 0.0043473067 -0.0059868945 0.029623426 0.022530911 0.01530478 0.016078588 -0.0033984366
-0.014233478 -0.0057432707 0.004206944 0.029282475 0.010485942 -0.016075766 0.011641519 -0.0064697834
0.008816131 0.037079457 -0.0054030684 0.0105943 -0.008515498 0.013244838 0.0048833913 -0.024376415
0.0014420282 -0.0023704607 0.004867093 0.009244597 0.022047285 -0.0138004515 0.012552335 0.012860753
0.019477617 0.007507692 0.010448647 6.351591e-05 -0.003238153 0.013081851 0.008691158 0.0043653473
0.0040091956 0.011663907 0.020498259 0.016137803 0.005584449 -0.007304856 -0.002771773 -0.0025144557
0.018297365 0.005353016 0.022494009 -0.010015545 -0.0086453175 0.0011876855 0.016548371 0.023602616
0.017396597 0.015943402 0.006875361 -0.007942518 0.017932782 0.010726049 -0.0028689017 -0.0018643779

transformer.layers.0.0.fn.fn.to_qkv.weight f4 [192, 64]
00000000: b3bb fb3d 52fc 823d d456 d53c fed3 b73c
00000010: 62ec e43c f72e 683d eb69 39bd c134 41bd
00000020: f166 90bd 4967 113d 9593 60bd 1fd8 603d
00000030: f68f 15bd 0a05 e23d c8dc 0d3d a16f d4bd
00000040: f11f fc3c 7c96 173d be4c bebd 7b39 cf3b
00000050: a8ad 0a3d d099 dbbd 630e 00be 337b c13b
00000060: 6c6d 6d3d 030d 6dbd 063d a0bd 71fb 55bd
00000070: 7904 223d c3da 09bd b585 8fbd 4dbe b73c
00000080: 21f1 de3c b92e f1bc 2e1a 883d 97d5 b4bd
00000090: faeb 03bb bdb9 b3ba 5561 143d f1ea adbd
000000a0: f6ea d83b f54e d8bd 6cdb b33d eea6 3f3c
000000b0: a0e0 e2bc a0e7 c4bd 76ef d63d cc8e 973d
000000c0: 9723 ca3d bf16 bfbd 940a 4fbc 3d9d 85bd
000000d0: ea14 b0bd 3695 adbd 5f2c b33d 670b 14bd
000000e0: c692 583d fa8a 10bd e6ba b2bc 70fd 2e3c
000000f0: 1fe6 dbbd 09f6 cebd 74b8 1b3d b43d 043c
00000100: 52ce 4c3c 35dc ab3c 1338 be3c cc42 6b3d
00000110: 4162 2cbc 290e 44bd 7e35 b6bd 789c b13b
00000120: 4fb3 833d b4a0 52bd c8ad f5bc 024c a3bd
00000130: 2f4e d33d 03bd 05be 240c 533d 1d24 5cbd
00000140: 84f7 aebd 91f5 bf3d e7f1 2c3c abda 293d
00000150: 0499 49bd 413c c3bd d474 ed3a 7ac0 833d
00000160: 51ba ff3d 64c9 58bd f192 d73d 6ade 0b3e
00000170: 2a95 73bd af17 d8bc ffbc b93d 740f 7e3d
00000180: a520 6abd 341e 02be c77a 0bbe c1cd 54bd
00000190: 88f1 893d 79e8 3ebd acea dc3d 508c 1fbd
000001a0: 09bc 793d c075 71bd ad84 c53d 2799 9c3c
000001b0: 234b 9d3d 721d 953d 11fb aebd 76fe 883d
000001c0: 8244 a6bc 37b8 bbbd 2519 873d 6a94 b0bd
000001d0: aec4 c23c 3593 bdbd fd0e b5bd 8734 303d
000001e0: 3e10 7f3c d5ba c73d 4c29 a03d 71a9 afbd
000001f0: 073d b53d bbff 053e 943e 40bc 9f2d ab3d
00000200: 2c1b d63d cc33 afbd 37fc af3d 0d71 853d
00000210: 3e87 cebd 5a48 a33c ad35 953d bfd9 c03c
00000220: 5f5a 46bd 27b2 133d 72f1 bf3d b430 133d
00000230: 192e dabd abf8 4cbd 0d63 dd3d 779f bc3d
00000240: c1a9 48bd 0616 e8bd 346d 943d 1ce0 d33d
00000250: cc4a b9bd ddd2 a8bd 61f9 20bd 4609 3cba
00000260: e114 383d f810 ae3d 75b6 61bd b7a8 c03d
00000270: 915f 9cbd 86fd a53d aba2 90ba 9663 2ebd
00000280: 862d 653d d433 793c 0735 343d 6136 f9bc
00000290: e54b de3c d29c 63bd 6d87 afbd a404 d9bd
000002a0: b48d e83c 68a4 e3b8 104e 293c 169d 95bd
000002b0: f608 0c3d 2cfa bcbd 4276 283d ebcc debd
000002c0: 4870 e6bd 67e3 e1bd 00e0 cf3d 6315 003e
000002d0: 7f1e 3c3d 3da1 343d b0b8 003e c8ce a0bd
000002e0: 6002 963d 8211 223d 4e5f 9a3d a902 933d
000002f0: d8c2 ddbc 7604 b6bd ec37 8abd 9560 5c3c
00000300: ceed 8b3d 64ec 25bd f660 ca3d 4d13 92bb
00000310: d073 d4bd ec92 c4bd a5ae 1fbc f2dd a33d
00000320: c8ae c3bc 83b8 d13d 739f b73d 0116 e93d
00000330: a378 543d 6201 2a3c 861c 72bd 8654 93bd
00000340: 6d94 cebd f3d7 a9bd 77ba 803d 7f0d fa3c
00000350: 65c1 ccbd 6b80 f73c aa95 d53d c9ae abbd
00000360: b561 993d b581 c5bc 72dd dbbd cb70 063d
00000370: 831c 8a3c 4790 c5bd 2d79 bb3d 1719 b8bd
00000380: 668f cebc d7a2 eabc 1b3e 9ebd 71d9 003d
00000390: 9fef 4c3d 074c 9ebd 87bb 08bd e57a a93d
000003a0: 0519 c0bd 4ee7 493d 1b2b 8e3d 3167 b3bd
000003b0: f932 a3bd 514a ae3d c529 4abc d8ea ab3d
000003c0: 46df 563d 16d6 4dbc ba71 78bc 6ed4 a6bd
000003d0: 7e64 30bc f755 94bd 5331 d4bd be85 babd
000003e0: 3434 eebb 6cde 2ebd d425 83bd 1e2c 39bd
000003f0: fb46 0bbd 1119 95bd df3f 22bd 4130 ab3b
0.1229166 0.063957825 0.02604238 0.022439953 0.027944747 0.056685414 -0.045267027 -0.04716945
-0.070508845 0.03549889 -0.054828245 0.05489361 -0.036514245 0.110361174 0.03463438 -0.10372854
0.03077695 0.037008747 -0.09291981 0.006323991 0.033857018 -0.10722697 -0.12505488 0.005904579
0.05796568 -0.057873737 -0.07824139 -0.052241746 0.039555047 -0.033655893 -0.070079245 0.02242961
0.027214589 -0.029441224 0.066456184 -0.088298015 -0.0020129667 -0.001371197 0.036225636 -0.08492077
0.0066198064 -0.10561935 0.08782086 0.011697514 -0.027695 -0.096144915 0.10494892 0.07400283
0.098700695 -0.0933051 -0.012636799 -0.065241314 -0.08597739 -0.08475725 0.087486975 -0.036143687
0.05287435 -0.03528879 -0.021817636 0.010680541 -0.107372515 -0.10105521 0.038017705 0.008071352
0.0125003625 0.020979026 0.023220098 0.05743675 -0.010521472 -0.047865067 -0.088969216 0.005420264
0.06430685 -0.05142279 -0.029990092 -0.07973482 0.10317647 -0.13060383 0.05152525 -0.053745378
-0.085433036 0.0937301 0.010555721 0.041468304 -0.049218193 -0.09532977 0.0018116483 0.06433196
0.12486709 -0.052926436 0.10526074 0.13659063 -0.059468426 -0.02637848 0.09069251 0.062026456
-0.05716004 -0.12706834 -0.13621055 -0.051954035 0.067355216 -0.046608422 0.107869476 -0.03895217
0.06097034 -0.058950186 0.096444465 0.019115997 0.07680347 0.07281007 -0.08543981 0.066891596
-0.020296339 -0.091659956 0.06596593 -0.08622058 0.023775425 -0.09256593 -0.088407494 0.043018844
0.015567837 0.09752432 0.07820377 -0.0857724 0.08849531 0.13085835 -0.01173367 0.08358311
0.104544014 -0.08554801 0.08593028 0.06515703 -0.10084389 0.01993196 0.072856285 0.02354133
-0.04842603 0.03605857 0.09372224 0.03593512 -0.10653324 -0.050041836 0.10809908 0.09210103
-0.048990015 -0.11332326 0.07247391 0.1034548 -0.090474695 -0.08243344 -0.039300326 -0.0007173013
0.044941787 0.0849933 -0.055105645 0.0940718 -0.07635415 0.081049964 -0.0011034807 -0.04257544
0.055951618 0.015210111 0.043995883 -0.030421438 0.027135799 -0.055569477 -0.08570752 -0.10596588
0.028387882 -0.000108548265 0.010333553 -0.073053524 0.034188233 -0.09227404 0.041128404 -0.10878929
-0.11251885 -0.11029702 0.101501465 0.12508158 0.04592752 0.04409908 0.12570453 -0.078519404
0.07324672 0.039567478 0.07537709 0.07178242 -0.027070448 -0.088875696 -0.067489475 0.013450761
0.06832467 -0.040508643 0.09881775 -0.0044578672 -0.10373652 -0.095983356 -0.009746228 0.08001317
-0.023887053 0.10240271 0.089659594 0.1138115 0.05187286 0.010376306 -0.059109233 -0.07193856
-0.10086904 -0.08293142 0.06285565 0.030524014 -0.099978246 0.030212602 0.10428937 -0.08382947
0.07489339 -0.0241097 -0.10735597 0.03282241 0.016859299 -0.09646659 0.09153972 -0.089891605
-0.025214862 -0.028642101 -0.077266894 0.03145737 0.050033208 -0.07729345 -0.033381965 0.082753934
-0.09379772 0.049292855 0.069418155 -0.087599166 -0.07968707 0.085102685 -0.01233906 0.08394402
0.052459024 -0.012563249 -0.015163833 -0.081459865 -0.010766147 -0.07242959 -0.1036097 -0.091075405
-0.0072694067 -0.042692587 -0.064036995 -0.04520809 -0.03400324 -0.07280172 -0.039611693 0.005224258

transformer.layers.0.0.fn.fn.to_out.weight f4 [64, 64]
00000000: 8b33 393d 905e e1bd de25 ee3c 666c d2bc
00000010: 6b36 23b8 db40 8d3d a891 18bd 54f6 16bd
00000020: 7859 62bd bdda dbba 1465 0f3d d799 89bd
00000030: 8b61 1dbd 328b a73d ff8b 593d 264c e63d
00000040: 47a3 21bd fed4 09bd 5ad5 093a ed1d c0bd
00000050: 0653 bebd e8a5 98bd 126e bcbc 8615 e7bd
00000060: d1a0 953d 27a4 183d 24e2 aa3d b27f 1c3c
00000070: 0df8 813d 4b92 17bd b745 febd fd26 43bd
00000080: 5ef6 3bbd da75 863c af0c 873d 157a 1abe
00000090: 786d f4bc c168 19bd 112e 5d3c e576 f83c
000000a0: 62c6 4db8 c0a3 c2bd 9ee8 d43d 5f4b cabd
000000b0: 2676 8bbd 9291 e83c 168d 57bc cb6f efbd
000000c0: 0204 a03d 34d2 b83a d00c 693d ea70 7c3d
000000d0: 9499 a53d 6f3d 2dbd 931a d9bd 96a5 06bd
000000e0: 1647 943d bfbc c93b f431 95bd aa37 dabd
000000f0: 3859 dc3b a13e a33c 3303 36ba 5c70 033e
00000100: 3d22 f23d 88b7 87bc e6e4 b8b9 a487 bc3d
00000110: 3951 303d 2bb3 5ebd b8c3 cf3c ab47 58bc
00000120: 5f17 ccbc c5ad 513d 74ae fd3d 76e9 f53d
00000130: bf12 193d e3b3 173b 1c4d 97bd 6b75 043e
00000140: 4b5d a2bd 42d8 f2bc 9d79 87bd 5592 65bd
00000150: 9340 cdbd b61f 123d 5320 af3d 02db 1ebc
00000160: 8650 8b3c 0977 083d 3f12 d6bd 62cc d23c
00000170: 4373 e23d c5af ca3c a8e3 90bc 056a 6e3c
00000180: 115e 02be 0c6b 173d 5c4e b23d dbe6 0fbe
00000190: 70c3 c5bc 65a8 fa3d 9f27 33be b708 9fba
000001a0: d35d d9bc 10f2 933d 499f 01bd 93bd febd
000001b0: 2eaa b2bd 310b 81bd b2e8 853b 18f8 02be
000001c0: 72a7 3ebc 8db9 0a3c 4dce c1bc 1c70 16bd
000001d0: 55f9 233e 0d9b 853d 9be8 38be c756 7bbd
000001e0: 5d13 173d 9753 f7bd e1fd d8bd 1248 24bb
000001f0: fe66 d1bc b983 80bc 89a8 18bd c8fa 1fbd
00000200: d058 95bd 5c0c 8a3d 9f93 0c3c 1833 9bbd
00000210: 8748 e0bc 5410 b13d 9441 3cbd eb80 7b3d
00000220: 9507 e1bd 9248 013e 77df 2bbc 7248 84bc
00000230: 9a4a cc3d 8d21 dbbd 405b 7bbd 4565 19bd
00000240: b462 e63d 1bfd 40bd 8e9c 68bd d629 39be
00000250: 2240 a13d b332 d9bd 6b7b 2bbd 4257 0c3d
00000260: b3ed 753b ba28 ed3d 95b8 46bd 5f74 333d
00000270: 48fe 063e acd5 c4bd ec98 1ebd 4e3b 07be
00000280: 7068 30bd 39c0 393c 8356 adbd 9af0 e5bd
00000290: 0529 ff3c 9ae7 033e 10e9 edbd 06f1 953c
000002a0: 1393 8abd e0c5 af3c 6b95 b33d 1dde c13d
000002b0: 99b4 0e3e 4134 8b3d e901 8bbd 2364 20bc
000002c0: 44b5 7d3d 459a 1dbd d63f e53d a82b 95bd
000002d0: a4c6 c43c 8c76 ff3a 3dc8 cc3a cb6a c2bc
000002e0: 75c8 a5bd b491 a7bc 6daf 793d 0f5a 083d
000002f0: 8d8f cd3d 67c4 5dbd 01b1 5dbb c7e4 973d
00000300: 2986 b73d 90c4 a53d 46ec cabd c3da d9bc
00000310: 171c 5f3b 389a 8e3d c04b d1bc c8a7 babc
00000320: 95b2 0e3d 4f3c cfbc 59f0 cb3d 5ae8 ab3c
00000330: b94a 7ebd 15d0 5a3c a37f 883d 25bd 8abc
00000340: d7cd 553d 39bf 97bb 424a c7bd b97f 153d
00000350: 0178 9d3c adf5 39bc c3dc 87bb a73a 013d
00000360: 8181 b33c b39d 29bd 0bf4 8a3d 7bbe babd
00000370: 9261 783d 29ed d4bc 2272 053c 2b8d 80bc
00000380: 71c7 513d d533 a7bc c909 5c3d eabb 803d
00000390: 12dd 1f3d 03d0 32bd 0f65 913b 58db 15ba
000003a0: 7bd6 48bd 5444 8c3d 68a2 e93d 4d1f e9bc
000003b0: 8954 e63c 31ad c5bd e34d e3bd abaf 0c3e
000003c0: 513b 793d f3a9 17bb 5204 a0bb 73aa 31bc
000003d0: db9d 843d 5fb1 933d 68aa d13b 8de4 b3bc
000003e0: c3ef 0fbe ef93 74bb ed40 13bd 815b cebc
000003f0: 3f8f fbbc 7e7f 913d 3ca1 523c 6b63 903d
0.04521517 -0.110043645 0.02907079 -0.025686454 -3.891291e-05 0.06897136 -0.037248284 -0.03685601
-0.055261105 -0.0016773563 0.035008505 -0.06718796 -0.038423102 0.08180846 0.053112026 0.11244993
-0.039462354 -0.03365039 0.0005257927 -0.09380708 -0.09293179 -0.07453519 -0.023001704 -0.11283402
0.07306064 0.037265923 0.08343914 0.009551929 0.0634614 -0.03700475 -0.12415641 -0.047644604
-0.04588925 0.016413618 0.06594216 -0.15085633 -0.029837355 -0.037453417 0.013499753 0.03033013
-4.9060567e-05 -0.09503889 0.10395931 -0.09877657 -0.068096444 0.028389726 -0.013156196 -0.11691245
0.078132644 0.0014100731 0.056896985 0.06163112 0.08085933 -0.042294916 -0.10600772 -0.03287276
0.07240121 0.0061565335 -0.072849184 -0.10655148 0.006724503 0.019927325 -0.0006943226 0.1283583
0.11822937 -0.016567007 -0.00035265757 0.09205559 0.04304621 -0.054370087 0.02536188 -0.013200681
-0.024913488 0.05119111 0.1238679 0.1200742 0.037371393 0.0023147992 -0.07387754 0.12935416
-0.079279505 -0.029644135 -0.06614993 -0.056047756 -0.10022082 0.035674773 0.08551087 -0.00969577
0.01700617 0.033316646 -0.10452699 0.025732223 0.11057141 0.024742017 -0.01768668 0.014551644
-0.12731196 0.036967322 0.08706352 -0.14052908 -0.024141043 0.1223915 -0.17495583 -0.0012133335
-0.026533997 0.07223904 -0.031646047 -0.12438502 -0.087238654 -0.06300963 0.0040865773 -0.12789953
-0.011636602 0.00846709 -0.023657942 -0.03672801 0.16013081 0.06523714 -0.18057482 -0.061362054
0.0368837 -0.1207649 -0.105952986 -0.0025067371 -0.025561806 -0.01568781 -0.037270103 -0.039057523
-0.0729233 0.067406386 0.0085801175 -0.07578105 -0.027378334 0.086456925 -0.045960978 0.061402243
-0.10987774 0.1262534 -0.01049029 -0.016147826 0.099751666 -0.10699759 -0.06136632 -0.037450094
0.11249295 -0.04711638 -0.056789927 -0.18082365 0.078735605 -0.10605373 -0.041865747 0.034262903
0.0037525713 0.115800336 -0.048515875 0.043812152 0.13182938 -0.09611067 -0.038720056 -0.13206217
-0.04306835 0.011337333 -0.084637664 -0.11227532 0.03114749 0.12881318 -0.11616719 0.018303405
-0.067663334 0.021456659 0.087687336 0.09466193 0.1393608 0.06797076 -0.06787474 -0.009789499
0.061940446 -0.0384772 0.11193816 -0.072837174 0.0240205 0.0019490286 0.001562364 -0.023732563
-0.08094875 -0.020455219 0.060958315 0.03328901 0.10037146 -0.054142382 -0.0033827426 0.07416683
0.08961136 0.08094132 -0.09908347 -0.026593572 0.0034043842 0.06963009 -0.025548816 -0.022785082
0.034838278 -0.025297312 0.09957952 0.020984817 -0.06208298 0.013355275 0.0666497 -0.016935894
0.052198257 -0.00463095 -0.097309604 0.03649876 0.019222261 -0.011350078 -0.00414619 0.031550076
0.021912338 -0.04141016 0.06784829 -0.091183625 0.060639925 -0.025991993 0.008144887 -0.015692314
0.051215593 -0.020410458 0.05372027 0.06285842 0.03902919 -0.043655407 0.004437096 -0.00057165837
-0.04903267 0.0684897 0.1140793 -0.028457308 0.028116481 -0.09652174 -0.1109884 0.13738887
0.060847584 -0.002314207 -0.0048833275 -0.010843861 0.06475421 0.07211565 0.006398488 -0.021959567
-0.14056306 -0.003731962 -0.03595059 -0.025190117 -0.030707953 0.07104395 0.012855824 0.070502125

transformer.layers.0.0.fn.fn.to_out.bias f4 [64]
00000000: cec3 a13d fd9b 8bbc 2003 13be aef3 15be
00000010: 11c7 5d3d bcec 5fbd 7d7a 33bd 9e3d a1bd
00000020: d923 02bd f792 14be 94f9 443d b922 e63c
00000030: 782a a93d f775 babd e25c ad3c 356e 323d
00000040: efa0 083e c784 003e d741 913e 0bc3 733d
00000050: b9b6 da3d 87db 06be 2211 9cbd 4ad6 fc3d
00000060: 49c5 c0bd 763b 9abd b017 db3d 5427 f93c
00000070: a16d eb3c 01c5 25bd 0c3a 913d 3d97 f2bd
00000080: 99be cb3d 4997 08be 6197 b1bc 0e7d 013d
00000090: 1f6d 65bd 1d1b b1bc ba5f 323d f938 863d
000000a0: fb7a 803d 607b b83d 8b51 98bb 80ad 803d
000000b0: e06e ce3d 1e9f 08be 562e d3bc d1b0 a7bd
000000c0: efa8 033e d131 bbbd 03ce 2b3d 1f74 db3c
000000d0: 229f d33d 98fb a9bd 4933 583d 90bc b3bd
000000e0: 701c 3a3c 6be9 c0bd e5a6 273d 27fc 74bc
000000f0: a979 363e 08d4 a1bc 3230 92bb 2696 e6bb
0.07898675 -0.017042154 -0.14356661 -0.14643738 0.054144923 -0.054669127 -0.043817986 -0.07873081
-0.03177247 -0.14509188 0.04808958 0.028092729 0.082600534 -0.09104531 0.021162454 0.043562133
0.13342641 0.1255065 0.28370544 0.05951218 0.10679383 -0.1316968 -0.07620455 0.1234556
-0.09412629 -0.075308725 0.106978774 0.03041426 0.028738799 -0.04047108 0.0709115 -0.11845253
0.09948463 -0.1333896 -0.021678628 0.031613402 -0.05601227 -0.021619374 0.043548323 0.065538354
0.06273457 0.09007907 -0.0046483926 0.062830925 0.100797415 -0.13341948 -0.02577893 -0.08188022
0.12857412 -0.09140361 0.041944515 0.02678877 0.103330866 -0.08299941 0.052783284 -0.087762
0.011359319 -0.09419521 0.040930647 -0.014952696 0.17819847 -0.019754425 -0.0044613117 -0.007036942

transformer.layers.0.1.fn.norm.weight f4 [64]
00000000: c7f6 703f 0b3c 5e3f 7d71 5d3f 5738 753f
00000010: f88b 773f 4638 603f 596f 693f 4ac7 693f
00000020: 2696 713f 3000 7a3f cb32 813f 363e 763f
00000030: 6e09 733f 9421 733f 23f3 693f e1f1 683f
00000040: a9d6 673f 3f34 773f b54d 783f 95c9 743f
00000050: b0cd 7a3f ebbf 713f 9184 733f 3e5b 673f
00000060: 753d 773f 6520 7e3f 79c6 6b3f 6ddc 6d3f
00000070: dc2b 753f 4842 763f 22d9 853f 29a0 633f
00000080: 3ba7 703f d353 733f 2a89 6a3f 5761 783f
00000090: 19bb 6d3f 94ec 713f d5c4 763f 9897 753f
000000a0: a40c 6e3f 5adb 763f 0639 623f 68d9 753f
000000b0: b0a8 643f dad2 713f 3952 703f 1f58 783f
000000c0: 247c 693f 07f3 6b3f ef96 6c3f ab68 723f
000000d0: 56ce 653f 3db4 713f b55f 803f 9036 613f
000000e0: 1d01 6e3f 2b94 623f 6657 6b3f 194b 6b3f
000000f0: 0625 6c3f b521 703f 7c1f 6d3f 22c1 683f
0.9412655 0.8681037 0.86501294 0.9578909 0.9669795 0.87585866 0.9118553 0.91319716
0.94369733 0.97656536 1.0093626 0.96188676 0.94936264 0.9497311 0.9138662 0.9099408
0.9056192 0.96564096 0.9699357 0.9562009 0.97970104 0.9443347 0.95124155 0.903736
0.9657815 0.9926818 0.9209972 0.9291447 0.9577005 0.9619489 1.0456889 0.8891626
0.94005173 0.9504978 0.91615546 0.9702353 0.92863613 0.94501615 0.9639409 0.9593444
0.9298804 0.96428454 0.8836826 0.9603486 0.89319897 0.9446236 0.9387546 0.9700946
0.9120505 0.92167705 0.92417806 0.9469096 0.8976797 0.94415647 1.0029207 0.8797388
0.9297045 0.88507336 0.91930234 0.91911465 0.92243993 0.9380143 0.92626166 0.909197

transformer.layers.0.1.fn.norm.bias f4 [64]
00000000: cbcc 85bd 878e 04be 1d05 00be 7f36 1f3d
00000010: c4c2 5bbd a88c 003e e790 9ebd e36f c23d
00000020: 5a15 733d 8dfd 0bbd a608 5dbd f43b 5c3d
00000030: cd4f 543d a16e 483d 7f01 b93d 2eb3 b0bd
00000040: 68d8 b3bd 8a47 333d acca 1e3d 38a7 363d
00000050: 8669 dc3c 1b82 86bd 0f90 8b3d 0b8d afbd
00000060: e083 52bd 5567 16bd 88ef ad3d 408c 8bbd
00000070: e208 46bd 7ea5 9cbd 0bc2 4f3d 3c8c e7bd
00000080: 745c 4fbd 67e9 3c3d 001d dc3d 8edf 16bd
00000090: a468 9fbd 9960 49bd 7eb0 1e3d b5c7 2e3d
000000a0: 398f 953d 8749 0cbd f572 ee3d 7f28 1c3d
000000b0: 9a14 da3d b9fc 6bbd e63f 68bd 3f78 e63c
000000c0: 421c dbbd e94f 8b3d 1be3 933d c7ce 30bd
000000d0: df4a d23d a89c 87bd f1d3 43bd a895 f13d
000000e0: 12c8 9e3d 21fa d73d 5da0 9d3d 051e babd
000000f0: 6809 c53d 32b4 70bd 8c07 943d a6db b2bd
-0.06533202 -0.12944995 -0.1250195 0.03887033 -0.05365254 0.12553656 -0.07742482 0.09493997
0.059346534 -0.03417735 -0.053963326 0.053768113 0.051833916 0.04893363 0.090334885 -0.08627926
-0.087815106 0.043769397 0.0387675 0.044593066 0.026905786 -0.065677844 0.06814586 -0.08571824
-0.051395297 -0.03671964 0.084929526 -0.0681386 -0.048348315 -0.07648753 0.050722163 -0.113060445
-0.05062528 0.046121027 0.10747719 -0.036834292 -0.077836305 -0.04916439 0.038742535 0.042670924
0.07302708 -0.03424981 0.1164302 0.038124558 0.10648461 -0.057614062 -0.056701563 0.02813351
-0.10698749 0.06802351 0.07221051 -0.04316595 0.10268187 -0.06621677 -0.047809545 0.11796123
0.07753004 0.10545755 0.076966025 -0.09087757 0.09620935 -0.058765598 0.07228002 -0.08733301

transformer.layers.0.1.fn.fn.net.0.weight f4 [128, 64]
00000000: c328 423d 18e2 20be f8a8 23be 52da a23d
00000010: 339c 613d b95a 953c d6fc d0bd ba3c 9d3d
00000020: 7770 1e3e 9fe2 12be 370d 913c f2cb 153e
00000030: 6068 3e3d 5d11 a8bc f9c0 0a3d 5270 34be
00000040: d897 36be a586 283d b43d b83d b9c4 e03d
00000050: 14ad 2f3e 71bf 6ebd fbcb c7bb bc34 febd
00000060: aae6 81bd a43e 583c 2da6 bf3a fd94 11be
00000070: e7a7 1abe 2aa0 20be e940 173e b3fa 91bb
00000080: 4a20 803d 4683 403d ded8 803d 8e19 84bd
00000090: 8ad6 3a3c b437 5bbd 4b46 3dbd 20ca 273e
000000a0: 9a8f ff3d c20e 69bd 203a 903d 25a3 4bbc
000000b0: 156b 493d 9100 2ebd edde 923c e930 063e
000000c0: df1f a3bd aef5 5a3d ad7f 4b3d a2ad afbc
000000d0: 9120 c23c d7c9 0ebe adf8 29bd df98 2ebd
000000e0: 1a24 b53d 69bc 223e 3a3f bbbb 04f2 a3bd
000000f0: 1577 1a3e 1564 01be 3c32 c63c b172 e7bd
00000100: b5bf edbd 0acf 00be 4b93 b13d 7186 05bb
00000110: 5143 f7bd 3180 97bd 0cb7 823d 09b4 d8bb
00000120: fc64 80bd 3137 283c 9e32 6ebd 5683 333d
00000130: cd29 5e3d 807c 6bbd 2647 8bbd 619f a23d
00000140: 737c bebd cc27 90ba a04e a93d 6c92 3ebd
00000150: d815 06bd 4fb4 ceba 1e00 973d c482 af3c
00000160: d233 a63d d802 963d 56e7 54bc 073c 39bd
00000170: 5b0c f93c 59a9 92bd a69b 993d c86b e43d
00000180: fa6e 23bb 8069 bb3d b21e dcbd 392c f4bd
00000190: 1337 c63d 4cf5 b7bc 6bf5 043d e871 2cbc
000001a0: 4362 863d 3a51 a8bd 420d 6bbd 6bcc 943d
000001b0: a188 d4ba d13c 96bd 05d5 be3d c250 bd3d
000001c0: df4c a13c bb88 253c a6f2 093e f154 38bd
000001d0: 1a63 3f3d 7199 0b3d d77a c03b 17aa c43d
000001e0: f2e1 df3d fa9f 24bd b984 933d 030c 693d
000001f0: b281 083e a31b edbd 5af7 a53c 7cfd 4cbd
00000200: bbbb 51bd 0aec 09bd 6d75 13be b842 1c3d
00000210: 475e 51bd 3a93 2d3d 5cda 4bbd d983 34bd
00000220: 8f62 11bd ba11 1f3c d14a a13d 7d95 c4bc
00000230: cdcb bd3d b0d4 8c3c d9f1 d53d 928a cabb
00000240: d95a 1bbe 1111 85bd dc03 813d acc0 f83c
00000250: db14 0a3e 4f79 6dbd 6f19 233e 888c 2cbd
00000260: 5e90 ab3d 14a9 81bd 89ac d33d a414 e7bc
00000270: bbf5 6fbd 0d2d 79bd fb46 223c 8a8e 433c
00000280: 8d1a df3d cd3b ff3d 6c34 233d 096d af3d
00000290: e4e6 0fbe 787c ab3d b3c0 cebc 763a fa3d
000002a0: eafe 803d c30a 0ebd d281 243e ccc1 633d
000002b0: 954c 0ebc 4a59 723d e862 ebbc 25dc b83d
000002c0: 862b 94bb 4120 113d 2a5b e63d e6e1 20be
000002d0: 7fdc a03d 8ec7 b8bd c0ee b9bd cb7d 423c
000002e0: 4c80 053c 7b4c f83d 7cb0 1e3e 86af 0bbe
000002f0: f0e6 c23d 0905 fbbd 6193 f93d 4553 56bd
00000300: 0e5c 853d 01fb 9d3d 00d8 d3bd 8f73 aebd
00000310: a57a 843d 0e84 7fbd 63f9 c03d 7114 873d
00000320: 020a b13d 5da0 41bd c78c d43d 93ac 4fbd
00000330: 8884 323d a527 b9bc 5e5a b53d 2e6a 92bd
00000340: 46e3 ad3d cdee f1bd 7aa6 d2bd 9d1e 0dbd
00000350: 3f71 f43d 6fb9 09bd cc6a abbc 6900 bfbd
00000360: cae9 b93d c00d 543e d2c2 6f3d d752 e7bd
00000370: cc73 ec3d 037d 55bd f3de 763d 434e 8e3d
00000380: be66 b8bd 239d 0bbb e3c8 d93c dddf 65bd
00000390: a02e 2f3d bcff 8dbc 53c5 afbd 68c7 f93d
000003a0: 73fc cd3d 1cf0 d53d 6e4f 613d b3a2 4fbd
000003b0: 01ee 9b3d 9c59 b6bd d7d1 df3c 5500 a13d
000003c0: 0324 5fbd cddf 903b 311a 053d 2e81 9e3d
000003d0: 95c9 463c acc1 a63d 1ae2 f4bc e7eb 5c3d
000003e0: 8d96 38bd 92f2 9e3d b02a cc3d aef9 8f3d
000003f0: 31b6 f53d fa8b 93bd c044 a13d fc68 f3bd
0.047402155 -0.15711248 -0.15982425 0.079517975 0.055080604 0.018231736 -0.10204475 0.07677598
0.1547259 -0.14344262 0.017706497 0.1462858 0.04648626 -0.020516092 0.03387544 -0.17620972
-0.17831361 0.041144032 0.08996144 0.10975022 0.17155868 -0.05828804 -0.0060973144 -0.12412402
-0.06342824 0.013198528 0.0014621668 -0.14216991 -0.15103112 -0.15686098 0.14770855 -0.0044549345
0.06256159 0.047000192 0.06291364 -0.06450187 0.011403689 -0.05351992 -0.046209615 0.16385698
0.12478562 -0.05689884 0.070423365 -0.012429033 0.049174387 -0.04248101 0.017928565 0.13104595
-0.07965063 0.053456955 0.049682308 -0.0214451 0.02369717 -0.13944183 -0.04149692 -0.042626258
0.088447765 0.15892185 -0.0057143243 -0.08005145 0.15084489 -0.12635835 0.024193875 -0.113011725
-0.11608831 -0.12578979 0.08670672 -0.0020374323 -0.120733865 -0.073974974 0.0638257 -0.0066132587
-0.06269261 0.010267065 -0.05815374 0.043826424 0.054239083 -0.05749178 -0.0680068 0.07940555
-0.093010806 -0.0010998189 0.0826695 -0.046526358 -0.032735676 -0.0015770289 0.07373069 0.021424659
0.08115353 0.07324761 -0.012994608 -0.045223262 0.0304014 -0.07161207 0.07500391 0.1115337
-0.0024937973 0.09150982 -0.10748042 -0.11922497 0.09678473 -0.022455834 0.03246061 -0.010525204
0.06561711 -0.08218618 -0.05738569 0.07265552 -0.0016215035 -0.073358186 0.09317974 0.09243919
0.019689975 0.0101034 0.1347147 -0.04500288 0.04672537 0.03408188 0.0058740187 0.096027546
0.109317675 -0.040191628 0.07203049 0.05689622 0.13330725 -0.11577537 0.020259548 -0.05004643
-0.051204424 -0.03367237 -0.14400263 0.038149565 -0.0511153 0.042376734 -0.04976879 -0.044071052
-0.035494383 0.009708816 0.07875598 -0.023997063 0.092673875 0.017191261 0.104465194 -0.0061810696
-0.15171374 -0.06497396 0.06299564 0.03036531 0.13484518 -0.057977017 0.15927671 -0.04212621
0.08377145 -0.06331077 0.10335643 -0.028208084 -0.058583956 -0.06083398 0.009904618 0.011935839
0.10893736 0.12462578 0.039844915 0.08565719 -0.14052922 0.0837335 -0.02523837 0.12218182
0.06298621 -0.034678232 0.16065148 0.05560474 -0.008685251 0.059167184 -0.028733686 0.09026364
-0.00452179 0.03543115 0.11247857 -0.15711173 0.07854556 -0.09022437 -0.09078741 0.011870812
0.008148264 0.121239625 0.15497011 -0.13641176 0.09516704 -0.1225682 0.121863134 -0.052325506
0.06511699 0.07713891 -0.10343933 -0.08518135 0.06468705 -0.062381797 0.09422567 0.06595696
0.08644487 -0.047272075 0.10378414 -0.05070169 0.043583423 -0.022601912 0.08855127 -0.071491584
0.084906146 -0.11813126 -0.10285659 -0.034453023 0.119356625 -0.03362411 -0.020924948 -0.0932625
0.09077795 0.2070837 0.058535405 -0.11295097 0.11545524 -0.052121174 0.060271215 0.06948521
-0.090039715 -0.0021303378 0.026585048 -0.056121696 0.042769074 -0.017333858 -0.085825585 0.12196237
0.100579165 0.10446188 0.05500739 -0.05069227 0.07613755 -0.089038104 0.02732174 0.078613915
-0.054477703 0.0044212104 0.03249568 0.07739483 0.012133022 0.08142409 -0.02989297 0.05393591
-0.04506545 0.0776111 0.099690795 0.070300445 0.11997641 -0.07204433 0.07874441 -0.118852586

transformer.layers.0.1.fn.fn.net.0.bias f4 [128]
00000000: 192e 7a3d 6f9e 093d b62f 78bc 78eb d7bd
00000010: 325d 59bc 82ec b5bd 1609 dcbd a548 743d
00000020: c66f adbd cb19 b53d 1d42 d6bc 2826 87bd
00000030: cfe2 f8bc dfdc 0fbd 01ff e6bd 1a96 79bd
00000040: b9c0 fcbd 3e4b 5ebd 9bfd 07be 7b7e 9c3d
00000050: 80e9 a63b 9d1a e3bd 10ca cfbd 34b7 3dbd
00000060: d53d 87bd 4a70 eabd 99fe 0b3d 6bc7 85bd
00000070: e126 ae3d 0bd4 933c ae56 a8bd e56e 323d
00000080: 8241 f9bd a99c cb3d 6e05 6abd 0c87 2bbd
00000090: 8f9a b0bd a991 bfbd b60c 18be 0c56 b33d
000000a0: 27fe e83d 207b c4bd 9f4a 6d3c ec51 a8bd
000000b0: 91e0 1bbd fe54 88bd da8d 4ebd cac7 933d
000000c0: 99b7 073d 93d5 1fbe 7ea6 1d3d 3552 8abd
000000d0: 1019 a03b 6449 88bc 5ce6 a1bd 1475 a7bd
000000e0: 8ca2 c1bd b1d6 b1bd 1ff9 f6bd d40e 5c3d
000000f0: 36ec c73d 456d ddbd ba7e 0bbd fe29 8dbd
00000100: ab85 ecbd 8a35 cc3a 5d67 f4bc 8d52 24bc
00000110: 1329 8f3d 801b d43c 6ffd aabd 31b8 d2bd
00000120: 6f57 373c 0e59 86bb b1b0 353d 0fe9 f23a
00000130: d7ac efbd 6b2a c03d 2f4a 353d 07dd abbc
00000140: 2600 b23b 1521 883d 86c0 1e3d d39d b93d
00000150: 0226 25bd 1ecc 333d e45e c9bd b011 8ebb
00000160: f24b 923d 9572 0ebe 2291 243d ef26 d0bd
00000170: b8d3 2cbe ac4b a03c 9682 cd3c 6e8f d33d
00000180: 8c79 053d 3865 503d c8d4 cbbc 2b41 c8bd
00000190: 565e 1fbc 3362 84bd 43fa 08be 00c4 1f3c
000001a0: f922 acbd fecf 28be 92fb f0bc 635f 00bb
000001b0: 9f53 8ebc 5cca 0abe ddcf e1bd 28e3 ff3b
000001c0: af06 ae3c 5298 af3b bdb2 5fbd 148d a33d
000001d0: 6437 883d 615c d53c fdca 98bd c2dc b0bd
000001e0: 44f6 613d 0d93 f2bd ec87 d3bd bfc2 8a3c
000001f0: 466f 69bc f6dc f2bd 888e d83d 8601 9fbb
0.06107912 0.03359836 -0.015148094 -0.10542959 -0.013266848 -0.08883001 -0.107439205 0.05963959
-0.08468585 0.0884281 -0.026154572 -0.065990746 -0.030381588 -0.03512275 -0.11279107 -0.060934164
-0.123414464 -0.054270975 -0.13280337 0.07641312 0.0050937533 -0.110890605 -0.10145962 -0.046317294
-0.066035904 -0.11447199 0.03417835 -0.065321766 0.08503509 0.018045446 -0.08219658 0.04356279
-0.12170698 0.0994199 -0.057134084 -0.041876838 -0.0862323 -0.09353954 -0.14848599 0.087566465
0.11376601 -0.09593797 0.014483123 -0.0821875 -0.03805596 -0.06656836 -0.05042825 0.07215841
0.033134077 -0.15608816 0.038488857 -0.06753961 0.0048858 -0.016636558 -0.07905266 -0.08176628
-0.094548315 -0.08683527 -0.12059235 0.05372508 0.097618505 -0.10811857 -0.034056403 -0.06892775
-0.11548933 0.0015579921 -0.029834444 -0.010029447 0.06990256 0.02589202 -0.0834912 -0.10289038
0.011190279 -0.0040999716 0.04435796 0.0018532592 -0.117028885 0.093830906 0.0442602 -0.020979417
0.0054321466 0.06646935 0.038757823 0.09063306 -0.04031945 0.043895833 -0.09832552 -0.0043356046
0.07143392 -0.13910897 0.040177472 -0.10163676 -0.1687764 0.019567333 0.025086682 0.103300914
0.03258662 0.05087778 -0.024881735 -0.09778055 -0.009727081 -0.064640425 -0.13376717 0.00975132
-0.08405108 -0.16485593 -0.029416833 -0.0019588105 -0.017373858 -0.13553756 -0.11025975 0.0078090616
0.021243421 0.005358734 -0.054613817 0.07985893 0.0665119 0.026045026 -0.07460592 -0.08635856
0.055166498 -0.11844454 -0.103286594 0.016938565 -0.014247721 -0.11858551 0.10574061 -0.0048524765
