model_training/trained_models/old_1_dim_regression/model_20_ViT.pth (torch, 222954 bytes, 16 tensors)

patch_to_embedding.weight f4 [64, 192]
00000000: 65cf 2c3c 86f4 c8bc a43f 0fbd e3a5 09bc
00000010: 8e1c d2bc 9ee4 83bd 7b42 96bd 7dfa 7ebd
00000020: 9e57 5b3d a7d5 433d d0db 4f3c 6b2a ff3a
00000030: 38ae 2d3d df17 2a3d f41b 8c3c c3ea 96bc
00000040: e394 4b3c 541e 63bd f527 813c 7861 113d
00000050: 1578 8ebb d5d4 72bd af20 97ba 15e9 1e3d
00000060: 5bd1 33bc 62cf b23c 9bd2 bebb e986 f63c
00000070: 672f 883c 2819 b8bb 8931 93bd ebfe 503d
00000080: ded7 a1bd d240 8dbd a3c8 5a3d bec7 01bd
00000090: 62be 9bbd 53b6 323d 4921 20bd fe11 2e3d
000000a0: 7ad6 303d bb0e abbd ecbb abbd 35b1 41bc
000000b0: 78a0 18bd e35e a9bd 37af 6cbd d6bd 023d
000000c0: 5de7 c93c 3e22 813c fef0 953c 76b0 e03c
000000d0: c928 1b3d 94d7 acbc 0f5a 39bc bfac 783d
000000e0: 9f64 c3bb 27e4 a2bc 3bd4 373d 5d4e e83c
000000f0: 70b9 7fbb 715f eb3c 7131 583d ba5e 4dbc
00000100: d80a 3abd fa40 043b 7cfd 613d eaf9 59bd
00000110: 94c4 a1bd aae6 15bd 105b e5b9 bb7f 93bd
00000120: 6161 5fbd 97b2 b0bb ce96 333d 91ff d13c
00000130: 89a1 0d3d fd5e 733c be66 1a3c d50a 633d
00000140: fcbf 18bd 4b32 94bc 0deb 97b9 640a 04bc
00000150: 7bbd 34bc 0576 27bd 7036 413d 246f f53c
00000160: d054 8cbd edeb 8dba 91be a1bd ce2d 553d
00000170: d5b6 393c 12f3 de3c 253f 763d c3d5 393d
00000180: 3adc 043d cc4a 0dbd 22d9 b7bc 0f44 153d
00000190: b017 3c3d a4ac 0cbd 2244 553d 94e6 183d
000001a0: 800b 423d 686a 84bc f44e eebb 66b6 5dbd
000001b0: d850 9ebd 365d a3bc c20b 5f38 1ea6 7abd
000001c0: 1182 2b3c 8ef9 a0bd 14bd 99bd 78ab 673d
000001d0: 8cde 8abd b618 36bc 043d fdbc e0b4 863c
000001e0: 4603 a33b 9e5b 13bd f8ac 50bd e9bf 82bd
000001f0: 5845 c9bc 9d8e c53c 586a 9dbc fd0f 83bd
00000200: 1866 e53b 4a9e 9ebd 68a1 8cbd 0792 f23c
00000210: 4a57 9cbd 3e01 14bc a025 85bd 2f9e 343d
00000220: 7074 5fbd 3897 abbd e82c 343d ffc1 31bb
00000230: 8374 90bd 9e31 e33c 2f59 91bd 57f8 013c
00000240: 17fa 04bd 62e7 ff3c 2437 1a3d 2cf2 6bbc
00000250: 67b1 513d 3019 033b 64f6 f3bb f692 623d
00000260: f674 f63c 2eeb 1abd 14d7 c23c 28c9 51bd
00000270: 3902 93b9 5acc 84bd 91a9 0e3d cd2e 95bd
00000280: f6b2 a1bc d942 f53c ca33 ecbc b3e3 873d
00000290: b9a8 323c fc60 6bbb d269 fe3c 10e9 76bd
000002a0: 1346 0d3d eae8 9dbd efbc 523c 8dc9 4bbc
000002b0: 4f68 643d 8270 c1bc 0c63 d63b fec5 8cbd
000002c0: 9daf 253d 7b8f 8fbd c4a7 173d 6ba3 5f3c
000002d0: f7cb 663d 5247 833d 1ae4 03bb 9f24 71bd
000002e0: 0909 7a3d 4169 3ebd f720 77bd 9683 033d
000002f0: fb7f 27bd 102c 583d 0810 4d3d 8959 f6bc
00000300: fb22 4abd b8b9 21bd 02c6 c4bd 03d0 eabd
00000310: 24a5 63bd bbe2 a0bc 6fbc bfbc 7c40 f2bc
00000320: d2e5 1cbe 0c68 7ebd 9a13 85bd 7cd8 0dbe
00000330: aff8 aebd fc93 cfbd 52f5 bdbd 6f22 19be
00000340: 7a13 1abe ecee 96bd 07da eabd eb57 0ebd
00000350: 839b 08be d050 d8bd 8365 e0bd d537 74bd
00000360: 1b65 a0bd 46c0 e2ba 3908 9bba b0c5 e6bd
00000370: ac8f 7dbd df49 2dbd aa36 93bd 0543 8fbd
00000380: 8719 1bbe 5b51 a7bc 1844 8dbc acb0 b8bd
00000390: f6c1 a5bd 1516 31bc 3bd2 a6bc d964 07be
000003a0: 938f d6bd 2876 0bbe 71e8 21be 509c 24bc
000003b0: b0e4 11be 27e8 1fbd b420 c33b ffb6 05be
000003c0: d11c 9639 45f9 b53c 506e 15be c405 9ebd
000003d0: c7d4 723c 553f a3bd 9992 b0bd 461a 43bd
000003e0: 2aec 20bc abf1 fcbd d253 6abd 2241 a5bd
000003f0: 0c72 5fbd e6df 9cbd 2b48 c7bd fb18 b3bd
0.010547494 -0.02453066 -0.0349728 -0.008401367 -0.025648382 -0.0644009 -0.07336899 -0.062250603
0.053550355 0.047811177 0.012686685 0.0019467598 0.042402476 0.04152667 0.017103173 -0.01842249
0.012425634 -0.055448845 0.015766123 0.035493344 -0.004347811 -0.059285004 -0.0011530126 0.038796503
-0.010975207 0.021827403 -0.005823446 0.030093627 0.016624166 -0.0056182332 -0.071871825 0.05102436
-0.079025015 -0.06897129 0.053414 -0.03168463 -0.07604672 0.04363091 -0.039094243 0.042497627
0.04317329 -0.08352419 -0.08385453 -0.011822035 -0.03726241 -0.08270051 -0.057784285 0.031919323
0.024646455 0.015763398 0.01830339 0.027427893 0.037880693 -0.02109889 -0.011312976 0.06071162
-0.0059629227 -0.019884182 0.044880133 0.028357679 -0.0039020441 0.028732033 0.052781526 -0.012534792
-0.045420498 0.002018033 0.055173382 -0.053216852 -0.078988224 -0.03659693 -0.0004374613 -0.07202097
-0.054536227 -0.0053923833 0.04384499 0.025634559 0.03457788 0.01485419 0.00942391 0.055430252
-0.037292466 -0.018090388 -0.0002897609 -0.008059118 -0.011031504 -0.040884037 0.047171056 0.029960223
-0.06852114 -0.0010827758 -0.07897676 0.052045636 0.011335094 0.027215514 0.060118813 0.045369875
0.032436587 -0.03449516 -0.022442404 0.03644186 0.045921028 -0.03434433 0.05206693 0.03732927
0.04737425 -0.01616402 -0.0072725955 -0.054129027 -0.077302635 -0.019941907 5.3178293e-05 -0.061193578
0.010468022 -0.07860099 -0.07506767 0.05656001 -0.06780729 -0.01111429 -0.030912884 0.01644367
0.0049747555 -0.035976045 -0.050946206 -0.0638426 -0.024569198 0.024115855 -0.019215748 -0.06399534
0.007000696 -0.07745035 -0.06866723 0.029610647 -0.076338366 -0.009033499 -0.06501317 0.044096168
-0.054554403 -0.08378452 0.04398814 -0.0027123687 -0.07053473 0.02773362 -0.070970885 0.007932744
-0.032465067 0.031238262 0.037650242 -0.014401 0.051194575 0.0020004027 -0.0074451435 0.055315934
0.030085068 -0.03782194 0.023784198 -0.05121723 -0.0002803968 -0.064842895 0.03482968 -0.07284317
-0.019738656 0.029939102 -0.028833289 0.06635227 0.010904484 -0.0035915961 0.031056318 -0.06028086
0.034490656 -0.077104405 0.012862428 -0.01243819 0.05576354 -0.023613218 0.006542569 -0.068737015
0.04045068 -0.070097886 0.03702523 0.013649802 0.05634686 0.06410088 -0.0020124973 -0.058872815
0.061043773 -0.046487097 -0.060334172 0.032107912 -0.040893536 0.052776396 0.050064117 -0.03007199
-0.049349766 -0.039483756 -0.096080795 -0.11465456 -0.055577412 -0.019639364 -0.023405282 -0.029571764
-0.15322044 -0.062110946 -0.06497879 -0.13852113 -0.085435264 -0.10135648 -0.09275307 -0.14954542
-0.15046492 -0.073697895 -0.11467367 -0.034751814 -0.13340573 -0.10562289 -0.10956862 -0.059623558
-0.07831784 -0.0017299734 -0.0011828012 -0.11268175 -0.061904594 -0.042306777 -0.07188161 -0.06995205
-0.15146457 -0.020424535 -0.017244384 -0.090180725 -0.08093636 -0.010808487 -0.020363918 -0.13222064
-0.10476603 -0.13619292 -0.15811326 -0.010047033 -0.14247394 -0.039039757 0.0059548263 -0.13058089
0.000286317 0.022213588 -0.14592862 -0.077159435 0.014821238 -0.07971064 -0.08621711 -0.04763248
-0.009821931 -0.12350782 -0.057208844 -0.08069064 -0.054552123 -0.07659893 -0.09730562 -0.08744999

patch_to_embedding.bias f4 [64]
00000000: 62f4 24bd 77a9 8e3c 45c1 513d c6ca 8f3d
00000010: 49a2 bbba 7091 273d 1786 4dbd 80d1 d0bc
00000020: dfde 9a3c 96b9 70bd cda3 19bd ad6b 12bc
00000030: 5ae9 5cbd de0f 8c3d e7a1 50bd 9720 003d
00000040: 4c8b a53c 5340 a43c 9fc9 70bd c346 82bd
00000050: 9486 34bc 475f 40bd 5561 963d 7faa c73a
00000060: 6650 09bc ba78 7c3d d81b 8bbd 0e6f 0a3d
00000070: eac2 b5bd 6d2b dcbc 8883 abbc 8f65 9c3b
00000080: cf58 c4bd f404 8e3d 31ef 77bd 450c 38bc
00000090: d5bc cdbb e6ee 8cbd b2e3 52bd 979f 413c
000000a0: 8d49 83bc cb3a 26bc 80c3 68bc 1d63 883c
000000b0: e4e7 783c 0473 263d 3343 313d ee91 d63b
000000c0: 02c4 353d 6e36 343d a437 3b3d 0db0 0abd
000000d0: c955 03bd d795 853c 1af8 713c 3bdb 2d3d
000000e0: 6347 8a3d 556b 4bbb fc27 a7bd 321f 0fbd
000000f0: 3d18 f6bb 48e4 35bd ccd5 8139 0288 443c
-0.040272124 0.017414792 0.051209707 0.07021098 -0.0014315333 0.040910184 -0.050176706 -0.025490522
0.018905101 -0.05877074 -0.03750973 -0.008936805 -0.05393348 0.06838964 -0.050935652 0.03128108
0.020208023 0.020050203 -0.05878603 -0.06361153 -0.011018414 -0.046965864 0.07342783 0.0015233307
-0.008380985 0.06163857 -0.0679242 0.033797316 -0.088750675 -0.026876176 -0.020936742 0.004772849
-0.095872514 0.069345385 -0.060530845 -0.011233394 -0.006278614 -0.06881504 -0.05148668 0.011817834
-0.016026283 -0.010145853 -0.014206767 0.016648823 0.015192006 0.04063703 0.043276977 0.006548158
0.04437638 0.04399722 0.04570736 -0.0338593 -0.032064233 0.0163068 0.014768625 0.042445403
0.06751897 -0.0031039317 -0.08161923 -0.03494186 -0.0075102136 -0.04440716 0.00024764088 0.011995317

transformer.layers.0.0.fn.norm.weight f4 [64]
00000000: 234b 643f 75eb 6f3f 5f3e 673f 7694 7a3f
00000010: 4818 6d3f 9c45 683f 59df 5e3f e804 513f
00000020: dab0 723f f6fb 743f 482a 7c3f 5418 673f
00000030: 1e65 673f 909f 713f daf8 623f 80eb 823f
00000040: 6682 5b3f 69ae 743f 8f41 753f 45ab 713f
00000050: 3c3a 703f d731 843f 2877 5c3f 0ecc 973f
00000060: 0472 6c3f f67f 623f 76d7 813f 063d 4a3f
00000070: 1549 6f3f e22d 7a3f c458 6a3f 6755 593f
00000080: eb59 643f d9d4 663f cb94 593f 0895 5b3f
00000090: 43d4 783f fa75 7b3f cea6 693f 70ee 693f
000000a0: 5c69 3c3f dabc 853f 2867 913f 2386 693f
000000b0: bdc3 6b3f 94e1 683f 8684 743f 53d8 703f
000000c0: f428 663f 47dc 633f eeff 6a3f 7e30 4b3f
000000d0: c541 763f 894b 6c3f 1571 5b3f 6190 723f
000000e0: f90e 6e3f 3b5b 753f a2ca 8c3f dcce 4a3f
000000f0: 853c 7e3f 67d2 483f ba0c 7a3f 9181 593f
0.8917715 0.93718654 0.90329546 0.97882783 0.92615175 0.90731215 0.8705955 0.8164811
0.94801104 0.9569696 0.98502016 0.90271497 0.9038867 0.943841 0.8866097 1.0228119
0.8574585 0.9557863 0.9580316 0.9440196 0.9383886 1.032771 0.8611932 1.1859148
0.92361474 0.884765 1.0143878 0.78999364 0.9347089 0.9772626 0.91541696 0.8489594
0.89199704 0.9016853 0.84992665 0.8577428 0.97198886 0.9822689 0.9127015 0.9137945
0.73598266 1.0448258 1.1359606 0.912203 0.9209555 0.90969205 0.95514715 0.94080085
0.8990624 0.8900799 0.9179677 0.7937087 0.96194106 0.9230276 0.85719424 0.94751555
0.92991596 0.9584233 1.0999339 0.7922189 0.99311095 0.7844605 0.9767567 0.8496333

transformer.layers.0.0.fn.norm.bias f4 [64]
00000000: 9414 e8bc d5c7 c73b 9e13 64bd 731e 29bb
00000010: 32a8 69bb c2fb f8bb 9267 d53b fe1f 123d
00000020: 09d6 c33c e705 f8bc f33c fd3c d347 853c
00000030: 9a16 08bc 4c55 32bc e459 0a3d d29c 133c
00000040: b96f 63bc 5e73 a2bc f350 083d 020e 47bc
00000050: 88f9 80b9 b9d1 8cba 69fb 0bbc fbe7 f3bb
00000060: ff4e c4b9 8e44 fbbc 044f 30bb cade ef39
00000070: 7d89 5db9 8ce1 94bb 9add 153c ca32 673d
00000080: 9907 e23c 56b7 9d3c 495e fbbb f645 3cbd
00000090: 2b37 653c 03cc 1a3d 0877 af3a 97ec 8d3c
000000a0: 3524 053c 87cd 053d 39a3 57bd 3aff e6bc
000000b0: 6b7b e4bb f4d3 9fbc 46fb 823c 7c87 253c
000000c0: aa5c b63b a2e6 03bd f558 dc3b 4152 0abe
000000d0: 1c17 593d 4e25 a9bb bbfd bbbb 3232 4dbc
000000e0: 5e05 ad3c adc0 0a3c b49a 403c 800a 2a3c
000000f0: e2b2 1e3c f246 9fbd 5631 1e3c 604b c2bc
-0.028330125 0.00609682 -0.05568277 -0.0025805503 -0.003565323 -0.0075983712 0.0065125907 0.03567504
0.02390577 -0.030276252 0.030912852 0.0162696 -0.00830617 -0.010884594 0.033777133 0.009009557
-0.013881617 -0.019830402 0.033280324 -0.012149336 -0.00024599978 -0.0010743655 -0.008543828 -0.0074434257
-0.0003744289 -0.030672338 -0.0026902566 0.00045751623 -0.00021127421 -0.004543489 0.009147072 0.05644492
0.027591513 0.01925246 -0.007671152 -0.045965157 0.013990204 0.037792217 0.0013386915 0.017324729
0.008126308 0.03266671 -0.052645896 -0.028197873 -0.0069727204 -0.019510247 0.015988957 0.010103103
0.0055652456 -0.03220237 0.0067244717 -0.1350794 0.053000554 -0.005161918 -0.005737034 -0.0125241745
0.021120723 0.008468789 0.011755634 0.01037848 0.009686204 -0.077772036 0.009655317 -0.023717582

transformer.layers.0.0.fn.fn.to_qkv.weight f4 [192, 64]
00000000: 62e5 a6bd 7f20 543d 97ad cabb 9210 b3bd
00000010: 5d01 c43d 7b70 4fbd dff1 e93d c803 d23d
00000020: 1752 e33d a961 c53d 63ea 38bd 6d31 093e
00000030: 8ae5 c53d 3c18 023e 6c93 7bbd b9cf fd3d
00000040: 9aaa 723c b3e6 9dbd 4aeb a6bd e4e4 0cbd
00000050: 50b2 83bd 639b a13a 651f dcbd 2fc5 87bd
00000060: 1145 9f3d 93b5 bbbd 1a16 0abd cc3d 26bc
00000070: b6ef 2ebc f3ed e6bd 1ed2 483d 7807 6f3d
00000080: c0b8 ef3d 58bf 49bd b8a8 7e3d 26f9 ce3d
00000090: 6bf3 fe3c ab88 64bb 9d52 953c a944 b33c
000000a0: ae76 d0bd b083 7b3c cb49 3f3a ab01 fbbd
000000b0: 2f7a 9539 cde9 d83b 97e9 f43d f34c 6bbd
000000c0: 41e8 863d 4306 a5bd bed0 b53c d6d1 a2bc
000000d0: 8c72 4a3d c8ce 903d 5057 ec3d ce7b 70bd
000000e0: 70bb 76bd 639c dc3d b77e 9c3d 6560 eb3d
000000f0: 5e33 853d a88c f2bd fdef 7d3d 7886 32bc
00000100: 3c2f 49bd f176 b33d 16f0 183d 57ff 2b3d
00000110: c319 7bbd b336 13bd da1f db3d 5fcc 973d
00000120: e999 443d 3a3a a23d 7586 163d 0fa6 ba3d
00000130: 3d1f c63c c407 023e 4644 5bbd ff36 c23d
00000140: 7ef6 c9bc ba47 883d ae58 e0bd 3221 6f3d
00000150: 3da6 7abc 1408 d7bd 0345 df3d fdce 04be
00000160: b934 c13d dfeb 153d b8b2 a3bc c0b7 9a3d
00000170: e220 8abd f0fe dd3c 5334 a5bd 1e77 ebbd
00000180: e668 e43d 7d7b 5d3d 9758 f33c ade1 c73d
00000190: d48e 77bd 3729 123d 540e 093e 0e8b d6bd
000001a0: 7c2e 2fbd 57b6 123d cfa2 bb3d bdbc c03c
000001b0: c19a 063e f78c 073d 6a37 b53d 76ad ec3c
000001c0: 2966 cdbb ba64 c73d f2b7 923d 7680 d3bc
000001d0: fc9b ac3d 2061 09be a678 823c 1275 0d3c
000001e0: 7c23 f53d ed94 5f3d 8430 c63d fd61 5e3d
000001f0: ac4e 50bc bf21 1a3d 9da4 bdbc 1fc1 9abc
00000200: 30a7 503d 2a7b b6bc eaf6 e13d 9f51 18bd
00000210: a36c b23c e56f a23d 1cb4 cebd afbe da3d
00000220: 4787 e7bc 6365 3a3d 66ed 763d 6fa4 753d
00000230: d3d4 de3c 9085 8e3d 7cc6 82bd 1c32 ae3d
00000240: 9bf9 7dbd 6b16 943c 1b44 ff3d 7536 a5bd
00000250: 2c5f 9dbd 550f 853d 85c8 b03d 247d 4bbc
00000260: af81 f4bd b708 b8bc 83f3 bcbd 2298 ef3d
00000270: b320 ec3d 3c95 073b 218b 713c c1e5 5bbd
00000280: 0087 893d c273 aabd 8266 d93c 4766 c83d
00000290: 5694 94bd 2019 b1bd 07a7 203d 9b12 d43a
000002a0: c572 0fbd 93a7 aabd 3609 223d 4782 603c
000002b0: 0b69 133d a52f 61bd e30b bfbd 88a7 273d
000002c0: 1150 80bd 0361 d13d 24ec cebd c2dd 5cbd
000002d0: d872 f93c fbb5 be3d 3853 cdbd 60c9 0a3d
000002e0: 69f8 3bbd 4279 7e3c f8be 523d f544 803d
000002f0: fe8a 5e3d de33 b3bd b58f 6dbd bc91 883d
00000300: 70a5 bbbd 239f 043e bf91 99bd bd09 6c3d
00000310: ec60 ecbb baf5 27bc bfe8 993d ad1c 3d3d
00000320: 50d5 b33d dfc9 103e cf8d 553c d719 7cbc
00000330: f025 94bc 8196 32bd b085 db3d ded2 c83d
00000340: 4565 6abd d6c7 733d 8e82 b8bd 855f 0e3e
00000350: fde8 973d 557d 053e d103 46bd d6dc 08bb
00000360: 94bb 4e3d b6eb 10bd c59f f23d d30e d3bd
00000370: 534a cc3d c337 d93b ec76 6fbd 67eb c5bd
00000380: 2cfc d33d 4e34 14bd 0353 b63d 13e3 9d3d
00000390: f4fc 103c ad2e 8a3d d174 87bd 7c78 19bd
000003a0: ada8 fbbd 8b86 cdbd 76c6 803d 6cf5 01bb
000003b0: 3062 7b3d ba94 dcb8 997d 56bd 4c36 f9bd
000003c0: 7b10 c53d 67ce a13d fac3 f1bd 740d c4bd
000003d0: 84db a93d 865c cebd f1a7 a93d e07b 1e3c
000003e0: 0184 893d 94d8 ac3d c5aa b0bd 922e 2cbd
000003f0: 7405 e23b 5893 9b3d b63e b7bc 2aa4 e2ba
-0.0814922 0.051788803 -0.0061852443 -0.08743395 0.095705725 -0.05064438 0.114230864 0.102546275
0.11099642 0.09637768 -0.045145404 0.1339776 0.09662922 0.12704557 -0.06141989 0.123931356
0.014811182 -0.07710018 -0.081503466 -0.034397975 -0.06430495 0.0012329634 -0.107481755 -0.06629407
0.07776845 -0.09165492 -0.033712484 -0.010146569 -0.010677269 -0.11275854 0.04902851 0.058356732
0.1170516 -0.049254745 0.06217262 0.10106115 0.03112193 -0.00348715 0.01822787 0.021883326
-0.10178886 0.015351221 0.0007297068 -0.122561775 0.00028510529 0.006619668 0.11958616 -0.05744643
0.06587268 -0.08057835 0.022194263 -0.019875448 0.049425647 0.070706904 0.11540091 -0.05871182
-0.060237348 0.10772016 0.076413564 0.11492995 0.06503938 -0.11843234 0.06199645 -0.010896318
-0.04911731 0.08762921 0.03733834 0.041991558 -0.061303865 -0.035940837 0.106994346 0.074120276
0.047998343 0.07921262 0.036749322 0.091137044 0.024184817 0.12698275 -0.053531907 0.09483146
-0.02465367 0.06654306 -0.10954414 0.058381267 -0.015298423 -0.10499588 0.10901835 -0.12969585
0.09433884 0.036601897 -0.01998268 0.07554579 -0.06744553 0.027099103 -0.08066621 -0.11497329
0.1115282 0.054072846 0.029705329 0.09759841 -0.060438946 0.035683837 0.13384372 -0.10475741
-0.04276894 0.035818424 0.09161913 0.023527497 0.13144971 0.03309342 0.0884846 0.028891306
-0.006268282 0.09736009 0.07163991 -0.02581809 0.08428189 -0.13415956 0.01592667 0.008633869
0.11969659 0.054585386 0.09677222 0.054292668 -0.012714069 0.03762984 -0.023149783 -0.018890915
0.050940692 -0.022275526 0.11033423 -0.037187215 0.021780318 0.079314984 -0.10092947 0.10680901
-0.028262747 0.045506846 0.060284995 0.05997127 0.027201092 0.06959069 -0.06385514 0.08505651
-0.06200562 0.018077096 0.12464162 -0.080670275 -0.07684168 0.06497065 0.08631996 -0.012419973
-0.11938798 -0.022465093 -0.09226134 0.11698939 0.115296744 0.0020688316 0.014742644 -0.053685907
0.06715202 -0.0832286 0.026538137 0.09785133 -0.07254855 -0.0864737 0.03922179 0.0016179861
-0.035021562 -0.083327435 0.039559565 0.013702936 0.03598885 -0.054977078 -0.09328439 0.040931255
-0.062652715 0.10223582 -0.10103634 -0.053922422 0.03045027 0.09312054 -0.10025638 0.033883452
-0.0458912 0.01553184 0.051451653 0.062631525 0.054331772 -0.08750127 -0.057998378 0.066684216
-0.09162414 0.12951331 -0.07498502 0.057626475 -0.0072137024 -0.010251457 0.07515096 0.046169925
0.087809205 0.14139508 0.013034298 -0.01538702 -0.018084496 -0.043600563 0.10718858 0.09805845
-0.057225484 0.05951675 -0.09009276 0.13903625 0.07417486 0.13036092 -0.048343483 -0.0020883582
0.050471857 -0.03538104 0.1184688 -0.10305562 0.09975114 0.006628962 -0.058463022 -0.0966404
0.10350832 -0.036182694 0.08902552 0.077093266 0.008849371 0.06747184 -0.06614078 -0.03746842
-0.12288032 -0.10035428 0.062878534 -0.001983012 0.061372936 -0.0001051812 -0.052365873 -0.121685594
0.09622284 0.07900696 -0.11804958 -0.095728785 0.082938224 -0.10076241 0.082839854 0.009673089
0.06714631 0.084397465 -0.08626322 -0.0420366 0.0068976227 0.07596463 -0.02236877 -0.0017291356

transformer.layers.0.0.fn.fn.to_out.weight f4 [64, 64]
00000000: e157 cabd fdb2 40bc 4499 463d 78c9 573d
00000010: dd8e 683c d134 3bbc 6465 0ebe 4895 c2bd
00000020: b31c 003d d417 d6bd 6fea 3f3b d3e6 c8bc
00000030: 8992 50bd 718b 2dbd 2ccf 08bd 9b80 abbd
00000040: 1f1e 65bb 8a66 a33d a06c 36bc 133f 1f3d
00000050: 6e97 993d 2c69 a1bd 988a 593c 9513 b8bc
00000060: 5143 4d39 9183 6bbd f93b 89bd 2b2d 15be
00000070: 2294 0f3b 0799 05bd fc38 21be 49d6 083e
00000080: 27fe 883c b51b 8d3a 4a73 b0bd 27e1 c2bd
00000090: 08bc ccbd ab58 853d 9275 35bc b679 05bd
000000a0: 0dd3 57bd 539e f43d 2580 b7bd abdb a6bd
000000b0: b249 603c d15e 93bd fa2e 1d3d f54f 853c
000000c0: 9ef2 553d 1067 753d ec18 223d 77ea e2bc
000000d0: 8409 1ebe e130 ba3c ab07 e1bc eb39 b2bc
000000e0: 34d7 4ebd fe35 3ebd f30f 13bd 273c 25bd
000000f0: a59a fdbb 9562 2ebd 8c15 be3d 46c0 d2bd
00000100: c8be 96bd 2508 06be 79b6 a63c 292c 503c
00000110: d99a dd3c 75bd 723d 2bf6 b1bc 0f63 203e
00000120: ce02 a13d 914c 6e3d 2ae4 873c 7426 1a3c
00000130: 8207 30bd 41c1 053c 114e a9bd 4266 b2bd
00000140: 1a6b 653d b43d f4bc 4efa 11bd a7d5 493d
00000150: 2b41 bebd 2166 94bd 61eb 6b3d 40c0 64bc
00000160: f058 83bc 7cec 1abe a977 15be 07f2 56bd
00000170: 6db4 24bd d02a 61bb b6f9 993c 7e31 553d
00000180: 378d e33d b2bb b73c 4e57 e2bc 8bf0 1fbd
00000190: 8618 1f3d d6a4 abbb 59bf a9bd be42 eabd
000001a0: b0a1 403d 87ab 153d 9447 633b ebcd dbbc
000001b0: 4b8e 0c3e b16d 963c fbe8 ac3d e10e acbd
000001c0: 750a 123e 29c7 bd3d dbda 00be 186f 073d
000001d0: a70b 98ba 19cd cf3c b451 e7bd ccae d6bc
000001e0: 6b12 39bd 42f7 82bd f609 0abd e828 b33c
000001f0: 3137 c93d 7d97 48bd 365c 82bd be65 1c3e
00000200: 7641 acbd 1728 f93d 10c6 aebc e3b6 98bd
00000210: 081a ee3d 0129 83bb 6521 71bd a4a8 c23d
00000220: cc78 30bd e806 cf3d 3c1e 823d eb65 bbbd
00000230: 1db8 933d 4bb0 043d 57b0 ab3b e207 69bd
00000240: 8717 a0bc 6140 81bd d089 813d 0de5 163e
00000250: e20e 413d 7129 cc3d 6e5d 89bd 0ae5 02be
00000260: 465b 143d 931c 523d 3b3f 5abd 0fcb b8bd
00000270: 4ec4 b5bd a66e 043d 2dc0 71bc ba87 b03d
00000280: 404f 113d 073b 763d 5323 523d fb93 ac3d
00000290: 6df8 ebbd ef7b ba3b 81ae 56bd 53a0 a13d
000002a0: 48ab 81bd 2920 ccbd a15f 8e3d bb7e b2bd
000002b0: 71ce 7d3c 36c4 3f3d d2ab c8bd 42d3 86bc
000002c0: 3219 863d 66cd f93c 958a d0bc 2ba3 84bd
000002d0: 42cf 8c3d f9ab 97bd 1d2d 083e c200 cabd
000002e0: c3e4 bf3d 087b 7fbd 5313 8fbd fe0b d93d
000002f0: 74d1 2ebe e9af ba3d 8cd5 153d 74a9 10be
00000300: 2cef 38bd 17f6 c03d 9de8 6d3d ddc9 083e
00000310: 2aff 993d afa0 23bd f723 c83d 6aac 0dbd
00000320: e547 dbbd b2a4 75bd 6dc4 5dbd b555 a7bc
00000330: 9805 debd 524e 61bd 3291 b23d 2826 89bd
00000340: 7334 febd 130f da3c 395d c7bc 59e2 95bc
00000350: 960f 08be 811d c43d 35cd bcbb 981f a7bd
00000360: 0ed0 fc3c 643d 123e 7b8d 3c3c e88d b73d
00000370: 0b1a 713c d539 fcbb af51 5e3d ccc2 afbd
00000380: d550 3b3d 54ef 11bd 7d19 11be 38fd d4bc
00000390: aef5 113e b02a 4cbe 7c7d 8cbd 09d6 3cbd
000003a0: 80e4 f3bd 9f50 31bd c2d1 973d c7ec b43d
000003b0: 333c 073e 427d 303c 9707 d13c f22a 133d
000003c0: 2edd c0bc 3c61 02be e88b 0dbc 46a6 43bd
000003d0: fe61 013d 6161 d0bd c13b 8f3c 1455 a2bb
000003e0: 946d b8bd c04c f8bc 92d4 af3d 6b7b 833d
000003f0: 4eca 253e aaac 813c 0b7e 3b3e afe6 76bc
-0.09880043 -0.011761424 0.04848601 0.05268237 0.0141942175 -0.011426167 -0.13905865 -0.095011294
0.03127737 -0.104537636 0.002928402 -0.024524128 -0.050920997 -0.04236931 -0.0334007 -0.08374139
-0.003496058 0.07978542 -0.011134297 0.03887851 0.07499586 -0.07881388 0.013277672 -0.022470275
0.00019575401 -0.05749852 -0.06700892 -0.14568011 0.0021908362 -0.03261664 -0.15744394 0.13362993
0.016722752 0.0010765704 -0.0861574 -0.09515601 -0.099968016 0.06511053 -0.011075394 -0.032586776
-0.052691508 0.119442604 -0.089599885 -0.08147367 0.013689445 -0.07195819 0.03837488 0.016273478
0.05223333 0.05991274 0.03957455 -0.027699692 -0.15433317 0.022728385 -0.027469477 -0.021756133
-0.050498202 -0.04643821 -0.035903882 -0.04034057 -0.0077393823 -0.042574484 0.092814535 -0.102905795
-0.073606074 -0.13089044 0.020350682 0.012705841 0.027051376 0.05926271 -0.021723827 0.15662788
0.07861863 0.05817849 0.01658829 0.009408582 -0.04297591 0.008163751 -0.08266843 -0.087109104
0.056010343 -0.029814579 -0.0356391 0.04927602 -0.092897736 -0.07246042 0.05759752 -0.013961852
-0.01603362 -0.15129274 -0.14596428 -0.05247691 -0.04021113 -0.0034357794 0.01879583 0.052049153
0.11110919 0.022428367 -0.02762952 -0.03904776 0.038841747 -0.005238156 -0.0828845 -0.11438511
0.047029197 0.036540534 0.0034680115 -0.026831588 0.13726155 0.018362852 0.08442875 -0.084012754
0.14261802 0.092665024 -0.12583487 0.03306493 -0.0011600152 0.025366353 -0.112948805 -0.026206397
-0.04518358 -0.06394817 -0.033700906 0.021870092 0.0982498 -0.048972595 -0.06365244 0.15273187
-0.08410923 0.1216585 -0.021334678 -0.07456758 0.11626059 -0.004002691 -0.058869738 0.09504822
-0.04308395 0.10108739 0.06353423 -0.09150299 0.07212851 0.03239469 0.005239527 -0.056892283
-0.019542469 -0.063111074 0.06325114 0.14735813 0.047133334 0.09968842 -0.067072734 -0.12782684
0.036219858 0.05129678 -0.053282958 -0.09023105 -0.08875333 0.032332085 -0.014755291 0.08619638
0.03547597 0.060114887 0.05130322 0.084266625 -0.11521993 0.0056910436 -0.052412514 0.078919075
-0.063314974 -0.099670716 0.069518335 -0.08715578 0.015491114 0.04681798 -0.09798397 -0.016458157
0.065477744 0.03049345 -0.025456706 -0.06476434 0.06875469 -0.07405848 0.1329846 -0.09863426
0.09369805 -0.06237319 -0.06986108 0.105979905 -0.17072088 0.091155834 0.036580607 -0.14127141
-0.045149967 0.09421938 0.058083165 0.13358255 0.07519372 -0.03994816 0.09772485 -0.034588255
-0.10707072 -0.05997152 -0.054142404 -0.02042661 -0.10840911 -0.055006333 0.087191 -0.06696731
-0.12412348 0.026618516 -0.024336444 -0.018296408 -0.13287196 0.0957594 -0.0057617673 -0.08160323
0.030860927 0.14281231 0.011508341 0.08962613 0.014715682 -0.007697324 0.05427712 -0.085820764
0.045731384 -0.03562863 -0.1416988 -0.02599965 0.14253876 -0.19938159 -0.06859872 -0.046102557
-0.11908817 -0.043289777 0.07413055 0.08834224 0.13206558 0.010772051 0.025516314 0.035929628
-0.023542967 -0.12732404 -0.008639313 -0.047765993 0.031587593 -0.101748236 0.017484548 -0.0049539898
-0.09005275 -0.030310035 0.085854664 0.064200245 0.16190454 0.015829403 0.183098 -0.015069648

transformer.layers.0.0.fn.fn.to_out.bias f4 [64]
00000000: 8972 9fbd d11b a7bd 69d1 623d cdff 35bd
00000010: d0fb 1dbb 2d2a a1bd 82f1 67bd 7de3 103d
00000020: 1573 3ebc 7214 b5bd 554a 9b3d 529b 83bd
00000030: bcbb 9c3d 7918 4dbd 5988 693d f93a c83d
00000040: bb5a a7bd a573 f13d db57 c9bc 2b06 34bd
00000050: b8b2 db3d 5120 583d 0dbe afbc 13b7 0a3c
00000060: 3cab 04be 04a2 03bd 7b26 b23d 3b58 df3d
00000070: 0ec5 9b3c 1b51 063e 17b6 3abc 6c9f e8bd
00000080: cc13 803c a50b 75bd e2c0 6c3d 3169 9ebd
00000090: 3d1f 5ebb 9112 6c3b 9776 d43d e704 bf3c
000000a0: 58c0 783d 39c3 15bc b7f3 bf3d 225c f63c
000000b0: afbc 8c3c 959c c93d 3e99 b6bb 95a4 f13d
000000c0: b949 b23d 74d8 a1bc f2c9 9b3d 0108 5abc
000000d0: 95c7 bb3d 571f 283d 1146 d6bd 3b51 843d
000000e0: 578b 873d d9ab d9bc c608 ee3d cd91 d8bd
000000f0: 871a 0e3e e9d6 aa3d 7f01 563d 38cd e83c
-0.07785518 -0.081596024 0.05537549 -0.044433404 -0.002410639 -0.078693725 -0.056626804 0.0353732
-0.011624117 -0.0884179 0.07582537 -0.064261094 0.07652995 -0.050072167 0.057014797 0.09776873
-0.08171602 0.117896356 -0.024578026 -0.043951195 0.10727447 0.052765194 -0.021452928 0.0084665
-0.12955946 -0.032136932 0.08698746 0.109055005 0.019014861 0.13116877 -0.011395953 -0.11358532
0.01563444 -0.05982556 0.057801135 -0.077349074 -0.0033893131 0.0036021809 0.10374182 0.023317767
0.06073031 -0.009140783 0.09372657 0.03007323 0.017179815 0.09844319 -0.005572467 0.1179897
0.08705468 -0.019756533 0.076068774 -0.013307572 0.091689266 0.041045513 -0.10462583 0.06460806
0.06618374 -0.026571201 0.11622767 -0.10574684 0.13877307 0.08341772 0.05224752 0.028418168

transformer.layers.0.1.fn.norm.weight f4 [64]
00000000: 2540 783f 4dea 5e3f 2f30 843f 9ee4 7b3f
00000010: c10c 803f 3759 763f 08a7 7b3f e727 7b3f
00000020: 5f34 783f 6ba2 793f 7d15 803f 6252 673f
00000030: 5182 753f 4d07 6d3f 1353 5d3f 90d7 7c3f
00000040: 1e58 7a3f 52cc 7b3f 9ced 6b3f 10c3 773f
00000050: 0908 723f 7854 803f 4dad 813f 76ee 7a3f
00000060: 6d82 773f 1e18 7f3f 6ba6 733f b2da 6a3f
00000070: e265 743f b184 7d3f 4030 743f 3e42 7f3f
00000080: 5fba 7b3f d83e 853f efe2 7e3f 9c83 803f
00000090: be57 713f 586b 7a3f 0acf 7c3f c13d 783f
000000a0: 34fb 743f 7d32 733f 07e5 453f bda3 733f
000000b0: 4d84 6a3f f22f 703f 2f7f 773f 512d 803f
000000c0: 47f7 803f 12e5 773f 9f4a 6b3f 3b5f 793f
000000d0: 24e4 7a3f 1c28 723f ffa1 663f e205 7f3f
000000e0: 9b11 803f 0303 723f 8923 793f e5fc 693f
000000f0: 09cb 663f f3a2 7b3f 3726 7f3f 3455 813f
0.96972877 0.87076265 1.0327204 0.9839572 1.0003892 0.9622988 0.98301744 0.9810776
0.9695491 0.97513455 1.0006558 0.9036008 0.9590197 0.92589265 0.86454886 0.9876642
0.97790706 0.98358643 0.9215944 0.96782017 0.9454351 1.0025778 1.0131012 0.9802011
0.9668339 0.99646175 0.9517581 0.9173995 0.9546796 0.99030596 0.95386124 0.9971045
0.98331255 1.0409803 0.99565023 1.0040164 0.9427451 0.97820044 0.98753417 0.9696923
0.95695806 0.94998914 0.77302593 0.9517172 0.91608125 0.9382316 0.9667844 1.001383
1.0075463 0.9683391 0.9191074 0.97410935 0.98004365 0.9459245 0.90090936 0.9961835
1.0005373 0.94535846 0.9731985 0.9140151 0.9015356 0.98295516 0.99667686 1.0104127

transformer.layers.0.1.fn.norm.bias f4 [64]
00000000: 27c5 02bd 2e1d 883c 436d bb3b 41cd 983c
00000010: e670 7dbd b46b 103d 3274 e8bc 5f53 953c
00000020: b607 fd3c 0f2b 2cbc 42d6 ba3c a03c 833d
00000030: cb43 983a 482a 123d 1873 44bd 7a4f 663b
00000040: 5a9e aebc b466 1f3b 01a3 833d 161b 47bd
00000050: d8b9 533d 9f04 273d 29a9 373a 0155 4c3b
00000060: ce94 34bd ed90 c5bb 1070 1fbd 9509 a9bd
00000070: f0b3 833d c226 7d3c d5c1 3d3d 1cea d0bb
00000080: b36b 97ba 687d eabc 7606 3f3c 7694 12bb
00000090: 9a95 1fbd 2cd9 c53c 5d25 3d3c aaf8 013d
000000a0: 2b76 303d 0c6a ba3c fa18 ebbd fcdf 42bd
000000b0: 3442 893c 2bf9 60bd 5f61 f83c 40c9 2b3b
000000c0: 7885 c8bc 3c88 0bbd f5b9 6d3d d59c c8bc
000000d0: 3632 403d 29e6 32bd 9792 8cb8 8945 cabc
000000e0: 60d7 3ebc 306c 52bd 59ab 063c c6c5 93bd
000000f0: b1f1 babd 6871 1fbd 7faa 9b3b 8785 24bd
-0.0319263 0.016615476 0.005719812 0.01865256 -0.061875246 0.035258964 -0.028375719 0.018228231
0.030887466 -0.010508313 0.022807244 0.06408048 0.0011616884 0.035684854 -0.047961324 0.0035142587
-0.021315742 0.002432269 0.06427575 -0.048609816 0.051690906 0.04077589 0.0007006103 0.0031178596
-0.044087224 -0.0060292394 -0.03892523 -0.08253781 0.06430805 0.015451135 0.04632743 -0.0063755643
-0.0011552483 -0.028624251 0.011659255 -0.0022366322 -0.03896103 0.024151407 0.011544553 0.031731285
0.043081444 0.022755645 -0.11479373 -0.04757689 0.0167552 -0.054925125 0.030319868 0.0026212484
-0.024477705 -0.03406547 0.05803867 -0.024488846 0.046922885 -0.04367653 -6.703025e-05 -0.02469136
-0.011648029 -0.051372707 0.008219563 -0.07215457 -0.0912813 -0.038926512 0.0047505493 -0.040166404

transformer.layers.0.1.fn.fn.net.0.weight f4 [128, 64]
00000000: 1efc c73d 9f5b 3a3c c4e0 d1bd 9941 bfbd
00000010: a4b3 05bd 33b2 adbd e473 00be 144a 993d
00000020: 17d7 0dbd c56a c33d cf66 133d 68fc c63b
00000030: 6812 123e 1b78 9d3c 3cf5 e1bd db8c 833c
00000040: 520f fbbd ed77 89bb 9862 c5bd b44b c83c
00000050: 0137 023c 601c 6fbe 1dac bcbd f17a 2dbe
00000060: 5394 8abc cd15 d4bd 4ab3 bb3d e5dd 95bd
00000070: ce48 023e db84 7b3d bbe0 8abc 9916 da3c
00000080: 3687 3abe 15d4 0f3e 9428 753c fcd4 67bd
00000090: b22e 9fbd 5f3f b2bd 40ca ccbd 6fc7 e63d
000000a0: d6e6 083e 87bd 9ebc 52d2 e63d 5a69 6abd
000000b0: 5585 c43d 9dd6 8dbd 7b43 25bd a774 103e
000000c0: eb77 083e 54e0 0cbe c1a8 a13d 851d 7dbd
000000d0: 1e94 88bd a692 d5bc 3c51 96bc 409c efbd
000000e0: 17ae 16bd e537 18bd d188 d8bd 31a4 c83d
000000f0: d267 1b3e 23c1 b1bd a6a5 903c fcff 0abd
00000100: e1c3 02be 1cc7 b9bd 1878 89bd 6655 113d
00000110: 03cd ae3d 52df ba3d 2ae6 bfbd 2366 99bd
00000120: 7050 113d 657c 1cbc b6ef da3d 7053 783c
00000130: 2617 9abd e10a 023e 57ab f33c 60ad d4bc
00000140: 0ba5 dc3c e6f5 d33d 0129 7e3d ed2d ca3d
00000150: d86a 143c e3e7 f03c 0fbf dcbd bf36 163d
00000160: 26ef d33d 53b1 ffbd a835 133d b757 ecbd
00000170: 8acd c0bd f09c 253d fe1e 483d 591b b73d
00000180: f30c d3bc 5c5f 9d3d 4f96 2b3d 1e9f a0bd
00000190: d25b 5ebc 5897 c8ba f99d ccbd 05c7 0c3d
000001a0: 6581 eabc 66a0 d5bd 7dc4 a8bc 60a3 09bc
000001b0: 3ccd 803d 5940 f0bd e37b a4bd e16d 143d
000001c0: 347d 913d 2e66 123b 5c52 33bc 85d7 943d
000001d0: 0fb4 d23d 9620 ca3c 1e32 34bd 8db1 b2bd
000001e0: 965e db3d 62cd e9bd d16e 79bd 483e 033d
000001f0: 1576 053d 5f83 06be 4447 0e3e d14c 28bb
00000200: e0d8 c43d 19bd eebd 15e2 4fbe 16a1 dabc
00000210: f035 b0bc a6f9 843b 8820 febd 9a5d 8f3b
00000220: 3faf d73d ccb6 a7bd 6208 c33d 5cf7 06be
00000230: 8c15 b93d 4430 5bbd 020f c0bd 5862 87bd
00000240: 6311 ff3d 5553 51bb b92b f13d 0a08 67bc
00000250: df55 d6bd f6a9 d93b 6cbd f63d 39b0 8a3d
00000260: ff60 0b3d 1337 1fbe 49a4 81bd 523a 12bd
00000270: c8ed 213d 49d8 eabd 6ab0 da3d 024d 7a3d
00000280: ba6d 1abc 962e b03d 3606 0c3d 2882 28bb
00000290: 98ca ee3d 78a0 e9bd f5dc c83d c42f 063e
000002a0: 97f0 f03c d4ac db3c 392a 78bd e586 903d
000002b0: e30f 643e e295 91bd 3336 a53d d7ff fabc
000002c0: ffff bd3c 16c3 dabd dc66 68bd 400f 833b
000002d0: 76cf ccbd be54 c9bd 5ade 2fbe 0902 cabd
000002e0: 5ac4 a5bc 4ab5 25bd cb8c 5d3d d4a3 05bd
000002f0: f0cb 483e e2c1 a73d 5617 1bbe 4a94 803d
00000300: c299 b63d 809a d2bc fd34 ab3d b276 963d
00000310: d10c 96bd 56bc 99b9 b736 323d 25a3 d4bd
00000320: 3331 0abd a663 13bc 16cf 8b3d 8f0f d4bc
00000330: 49b8 cdbd 10a9 7cbd b24f 003c 0cc2 f23d
00000340: 4e67 d1bc bee6 b7bc 86e1 073d f897 ec3c
00000350: 955e 67bd 379e bfbc b536 133d 341b bfbd
00000360: 5b00 bf3d c321 173d ba61 d3bd 429f 103c
00000370: f039 97bd 3e8f 16bd 5117 263c 8744 833c
00000380: a89f f53d 2200 cebd f9ff 4c3d 68f3 9cbd
00000390: 48e2 6d3c 9a26 ad3d 9602 6c3d 7b6d eb3d
000003a0: c75d ef3d f262 9fbd 6b73 813d 94c8 f73c
000003b0: a90a b43c 489f 21bd 3f6f fa3d cf9e 3f3d
000003c0: c122 883c f66d e03d 5bf4 dc3c b760 e5bd
000003d0: 8433 cc3c 9347 8abb e83f 88bd e6e4 03be
000003e0: abc0 f73d 30be dcbd 4ec0 23bc 565c cabd
000003f0: d289 4bbd 0b55 90bd a00a c0bd 1f02 a4bd
0.097648844 0.011374383 -0.10247949 -0.09338684 -0.03264202 -0.084812544 -0.12544209 0.074848324
-0.034628954 0.09541849 0.035986718 0.0060725696 0.14264834 0.01922231 -0.11033103 0.016058376
-0.122587815 -0.0041952045 -0.09637946 0.02445016 0.007947684 -0.23350668 -0.092125155 -0.1694143
-0.01691643 -0.10355721 0.09165056 -0.07317714 0.12723085 0.061405998 -0.016952863 0.026622104
-0.18215641 0.14045747 0.014963288 -0.056599602 -0.07772578 -0.08703493 -0.099995136 0.11268508
0.13369307 -0.019377483 0.11270584 -0.057229377 0.095957436 -0.069257 -0.040347558 0.14107
0.13326995 -0.1375745 0.078935154 -0.06179573 -0.06668876 -0.026070904 -0.018349282 -0.11699724
-0.03678712 -0.03716268 -0.10572971 0.09796942 0.15176323 -0.08679416 0.017657112 -0.033935532
-0.12770034 -0.0907118 -0.06712359 0.035481833 0.08535197 0.09124626 -0.09370072 -0.07490184
0.0354771 -0.009551142 0.106902525 0.015156612 -0.075239465 0.12699462 0.029744787 -0.025961578
0.026934167 0.10349636 0.062050823 0.09872041 0.009058677 0.029407447 -0.10778629 0.036673304
0.10348348 -0.12484994 0.035939842 -0.11540168 -0.094142035 0.04043287 0.04885768 0.08940763
-0.02576301 0.07684204 0.041891392 -0.07842849 -0.013571696 -0.0015303893 -0.099910684 0.034369487
-0.028626153 -0.10430984 -0.020601505 -0.008400768 0.06289145 -0.11731023 -0.08031442 0.0362376
0.07103959 0.0022338736 -0.010944929 0.072676696 0.1028825 0.024673741 -0.043993108 -0.087252714
0.107114 -0.11416127 -0.0608967 0.032041818 0.032583315 -0.13136052 0.13894373 -0.0025680552
0.09611678 -0.11657161 -0.20301087 -0.02668814 -0.021510094 0.0040580807 -0.124085486 0.004375172
0.105314724 -0.081891626 0.09523083 -0.13180298 0.09037313 -0.053512827 -0.093778625 -0.066105545
0.12454488 -0.003194054 0.117759176 -0.014101038 -0.10465597 0.0066425754 0.12047848 0.06771893
0.03402805 -0.15548353 -0.06330163 -0.03570015 0.039533406 -0.11467034 0.106781796 0.061108597
-0.009425575 0.086026356 0.03418561 -0.0025712345 0.116597354 -0.1140756 0.09807769 0.13104159
0.029411597 0.02681581 -0.06058714 0.07056979 0.22271685 -0.07108666 0.08066978 -0.030639572
0.023193358 -0.10681741 -0.05673872 0.0039996207 -0.100005075 -0.098306164 -0.17174664 -0.098636694
-0.02023523 -0.040456094 0.05408935 -0.03262694 0.19609046 0.08191277 -0.1514562 0.06278284
0.08916046 -0.025708437 0.08359716 0.07346858 -0.07326663 -0.00029322755 0.04350921 -0.1038268
-0.033738326 -0.008995926 0.06826608 -0.025886325 -0.10044915 -0.061684668 0.007831501 0.11853418
-0.025561955 -0.022448894 0.03317406 0.028881058 -0.056486685 -0.023390872 0.035940845 -0.093313605
0.0932624 0.036897432 -0.10321374 0.0088270325 -0.073840976 -0.0367577 0.010137395 0.016023887
0.11993343 -0.10058619 0.050048802 -0.076636136 0.014519282 0.08454628 0.057619654 0.11495491
0.116878085 -0.07782544 0.06320842 0.03024701 0.02197774 -0.039458543 0.1222825 0.04678231
0.016618134 0.109584734 0.026971987 -0.112000875 0.024926908 -0.004219958 -0.06652814 -0.12880287
0.120972954 -0.10778463 -0.0099945795 -0.09880893 -0.049691983 -0.07047471 -0.093770266 -0.08008217

transformer.layers.0.1.fn.fn.net.0.bias f4 [128]
00000000: ac59 65bc 6845 02bd 0db8 9fba 2bb0 0bbe
00000010: 6a14 f63d 85e0 10bd d02e ddbd b36e 163c
00000020: bb48 00be 59b6 843d a5a7 22bc 0008 25be
00000030: da91 6bba c106 67bc 8123 d4bc 807f a33d
00000040: 33e1 60bd 991b b7bc a23b ab3d 5441 c23d
00000050: 2564 f1bd 0b7d 5fbd 634e 25bd 887b efbd
00000060: c8da afbd 1daf a53d 7bc4 e8bc 435c dabd
00000070: 33f5 de3d 632d 36bd 408c 18bd a9ff d03d
00000080: 2796 703d e346 bdbd 1e3d b3bb 98a9 1a3c
00000090: a620 803d dcaf 753d b3ba 9bbb 691c 91bc
000000a0: ff03 e7bd 4fba f3bb d15f ca3d cf21 8b3c
000000b0: 31bc be3d 5ff7 873d e8c1 193d c834 643d
000000c0: e208 473d c9b1 a83d 3646 eabd f2f9 7e3d
000000d0: 1124 a83d ef49 86bd 5386 3c3c aee4 10bb
000000e0: 91c7 ab3d d30a 06bd 1b86 d13d d32f a6bd
000000f0: 9ad3 d03c 4e40 0cbd 920e b7bd c389 b2bd
00000100: 4790 9d3d f532 12be ef92 71bd 4063 0b3e
00000110: 0f57 cfbd f349 2c3d 25a3 bfbd d0be 973d
00000120: be00 d33d 9389 9bbd ab7c 2dbc bf1f 9b3d
00000130: 7318 d83d e8f0 fabd f1b0 9fbc 47ee e83b
00000140: 5a3c 683d 2746 0abd ff37 44bd 91f7 69bd
00000150: 9a25 0cbd 76d7 8d3d ca30 cb3b e261 f23d
00000160: 53d6 d83d 9835 d9bd 4988 bf3d 4108 10bc
00000170: a81f 6aba 89c7 d8ba 1ee5 2cbd 5631 003c
00000180: 8c0f 563d afeb ff3c 30f5 f8bd 4280 81bd
00000190: 6741 adbd dcc3 48bd cdc9 953d 0ae3 b63d
000001a0: 3aff e33c 7274 3d3d 762b 01bd 07be 62bd
000001b0: e6fc ba3d e496 d73c 55f1 b03d 346f c73d
000001c0: b0b4 01be 9d83 98bb b5ef b2bb 27d1 b2bd
000001d0: 30e7 a7bc 92b4 93bc 3092 03be 338b 11bb
000001e0: a67f 973d 1802 cebd 7c30 5ebd 4625 5ebd
000001f0: adf9 0abd 23d3 c83d 3b20 843d 1ba5 e3bd
-0.01399843 -0.031804472 -0.0012185589 -0.13641421 0.120156124 -0.03537037 -0.107999444 0.009181666
-0.12527744 0.064800926 -0.009927665 -0.16116333 -0.0008986272 -0.014100731 -0.025895836 0.07983303
-0.054902267 -0.022352027 0.083609834 0.094851166 -0.11786679 -0.05456261 -0.04035796 -0.116934836
-0.08586651 0.08090041 -0.028414002 -0.10662129 0.10886612 -0.044476878 -0.037243128 0.10205013
0.058736946 -0.09242036 -0.005469932 0.009439848 0.06256227 0.059982166 -0.004752481 -0.017713742
-0.11280059 -0.007437981 0.09881557 0.016983895 0.093132384 0.06638979 0.03753844 0.0557144
0.048592456 0.08237035 -0.11439173 0.062250085 0.08210004 -0.065570705 0.011506635 -0.002210896
0.08387674 -0.032725167 0.10230657 -0.081145905 0.025491524 -0.034241013 -0.08938326 -0.08717682
0.07693534 -0.14277251 -0.058978017 0.1361208 -0.10124027 0.04206271 -0.09357289 0.074094415
0.10302876 -0.075945996 -0.010588805 0.075744145 0.10551538 -0.122529805 -0.019493552 0.007108483
0.05669818 -0.03375831 -0.047904965 -0.057120863 -0.034215547 0.069258615 0.0062008845 0.11835076
0.10587754 -0.10605925 0.09352166 -0.00879103 -0.0008931109 -0.0016538958 -0.04221069 0.007824263
0.05226092 0.031240312 -0.12156141 -0.06323291 -0.0845974 -0.04901491 0.07313881 0.08930023
0.027831662 0.04625363 -0.03153559 -0.055357005 0.09130268 0.026317067 0.086397804 0.09738007
-0.12666583 -0.0046543614 -0.005460704 -0.08731299 -0.020495981 -0.018030439 -0.12848735 -0.0022208213
0.07397394 -0.10058993 -0.054245457 -0.054234765 -0.033929516 0.09805896 0.0645146 -0.11115476

transformer.layers.0.1.fn.fn.net.2.weight f4 [64, 128]
00000000: ecd5 c33d 81b9 0e3d c95a cc3d 292e 393c
00000010: a096 323d 85f2 4dbd 67ed 91bd 655d a83d
00000020: 79a2 5cbc 50d1 2b3d ad2b a63c 994d 11bd
00000030: 0b82 843d bd89 6a3c 0138 5f3d 92a5 8bbb
00000040: 22fe f23c e607 82bd c723 383c 0a5f 003d
00000050: 2e94 ae3c 767f 3ebd 074a 9ebc 6a94 353d
00000060: 5f79 48bd 8fbc 7e3d 18ad e0bc 1da6 3d3d
00000070: cfda 683d cf2d 36bd 128f 50bd cf8a ab3d
00000080: 7b28 163d 1499 cabd ea69 2dbd 0b7b b6bc
00000090: 1f0c 95bc 75b3 2d3c 59a8 47bd edc5 1c3d
000000a0: c48a 7a3d 0246 3a3d c2af d43d d769 ae3d
000000b0: b488 b9ba 9abb 3c3c ac58 ae3c 8760 a0bd
000000c0: 583b a3bc 426c 83bd 32ed 803d 8d97 afbc
000000d0: d3d4 1c3e ca72 433c 7719 70bd 6382 c93d
000000e0: 0230 b0bc 7689 983c ca37 a03d 1412 86bc
000000f0: cf8d 603c f533 bfbd bbcf 9fbd 713b 273d
00000100: 2158 aebc 2ed9 a3bd c854 e7bd 6541 9abd
00000110: 3c14 833d 70bc 8ebc 1228 5cbc 3659 a5bb
00000120: f861 da3c 2c2e 2ebd 39ce d53d a29d f73d
00000130: 5934 e43c 4bbd 1e3d 6c57 a03c 56e3 9cbd
00000140: bddf 4ebd 9291 70bd 703b c3bc 40db b03d
00000150: 03d3 95bc 8fde af3d 900a 39bd 66b2 703c
00000160: 521d 833d 5e47 183b bea5 243d 6bdd c63b
00000170: 69b5 6f3d 009d 833d 0661 0fbd bcec 273d
00000180: 8944 a13c 2aaa a8bd 3723 34bd 3f72 763c
00000190: 9559 ac3d 87e5 8c3d 539a 4cbd b6b8 0cbd
000001a0: b887 c93c 8006 72bc 225f e0bc 77d3 be3d
000001b0: 8939 bfbd 4063 b13c 4289 acbc 2529 bebd
000001c0: a8e7 2cbd 6b74 b43d dd38 cabd d072 1abc
000001d0: 57ff b6bc 16ac ffba 90c9 91bd 88df 133d
000001e0: f452 aebc 7907 de3c d27b 89bd 8e02 21bc
000001f0: 050e 003e 049a 26bd 590d 643d e685 a23d
00000200: 644f fbbc fd46 71bd 4c78 243d 50e6 783c
00000210: 6e85 2abc b765 28bd 2267 37bd c081 8c3d
00000220: 5da6 253d 961e 523d 15f2 34bd ac61 8a3c
00000230: 69c6 b23d 40f7 793d 441f a33c 6eab ab3d
00000240: 4b29 7e3a 89e2 61bd a35d dfbc ded8 fb3d
00000250: 633f 41bd 8140 583d f296 94bc 4c7a a83d
00000260: 5fe7 cebc 8afa 943d 9307 e93a fba1 e73c
00000270: 078a 0cbd 0ffd 9bbb fae4 a0bc bc5f 3f3d
00000280: 5546 e3bc ecd1 81bd 7cb1 ca3b 1588 653d
00000290: e300 60bd 9735 423d 9418 f23a ccfb abba
000002a0: 73f4 cc3c 37da acbc 1734 713d 4079 c33b
000002b0: 2ba9 1bbd 469c 64bc bbaa 9f3d 6315 6ebd
000002c0: 8d35 35bd 534e ce3d c135 e23d 86c1 e2bb
000002d0: c0a6 043d fae3 123d a574 2abd e44a c73c
000002e0: 9a17 f3bc f6fc 873a 7bf4 5f3d be52 a5bd
000002f0: 8aa5 c3bc 56a9 d23c 5261 d0bc 2c94 803d
00000300: d7aa 91bd adbd 39bc b3a1 1e3d 42ba e6bc
00000310: b63d 923d d9e2 c53d 4d60 b13d e9c7 cc3c
00000320: 296e d7bd 5dfb d9bc 428e 1fbd 0f09 663d
00000330: a45c 8ebc c690 a43c 8523 ab3d 89b6 0e3d
00000340: 1732 763d ac5b 843d 3523 eebc 74c6 023d
00000350: da98 a53c cd8a ebbc 60e3 91bd ef8d 93bb
00000360: 5164 ce3c a06f 303c bcd2 1f3c e670 25bd
00000370: 9fb2 c4bd 1ac3 b73d 267b e0bc f822 c7bd
00000380: 8ec6 4bbd 100a cebc e366 3d3d e1ae d2bc
00000390: 68ed fa3c 48d7 4bbd 3f12 a0bd 6f08 2b3b
000003a0: eeb8 69bd a387 62bd a5a7 c03c 04e1 e33d
000003b0: f31b a4bd 6159 86bd fd14 b23d c15b 0a3d
000003c0: f840 1ebc 8831 73bd de3a 76bd 9295 f3bc
000003d0: c56e 5d3d 0410 25bd 7180 4b3d ba53 07bd
000003e0: 5243 c8bd fd7b 5abc bcdf 41bd 7cc3 56bd
000003f0: 539f a73c 6f30 763c 15de 843c 74d0 88bd
0.09562287 0.03484488 0.099782534 0.011302509 0.04360068 -0.050280113 -0.07125359 0.082209386
-0.013466471 0.041947663 0.020284498 -0.035474394 0.06470116 0.014315066 0.05449677 -0.004261681
0.029662196 -0.06349163 0.011238999 0.031340636 0.021310892 -0.046508275 -0.019322408 0.04433099
-0.048943873 0.062191542 -0.027426288 0.046300996 0.056849297 -0.04447728 -0.050917692 0.08376085
0.0366597 -0.098924786 -0.042337336 -0.022275468 -0.018194256 0.010601868 -0.048744533 0.038274694
0.061167493 0.04547692 0.10385086 0.08516281 -0.0014155121 0.011519337 0.021282516 -0.07830911
-0.019925758 -0.06417133 0.062952414 -0.02143457 0.15315561 0.011929223 -0.058618035 0.098393224
-0.021507267 0.018620234 0.07823141 -0.016366042 0.013705685 -0.09336082 -0.07803293 0.040828172
-0.021282258 -0.08000408 -0.112954676 -0.07532004 0.06400344 -0.017423838 -0.013437288 -0.005046035
0.026658043 -0.0425245 0.104397245 0.12090613 0.027856993 0.038754743 0.019572936 -0.076605484
-0.050506342 -0.058732577 -0.023832053 0.086355686 -0.018289095 0.085873716 -0.04517609 0.014690971
0.06402077 0.0023235898 0.040197127 0.0060688755 0.058522616 0.0642643 -0.035004638 0.040997252
0.019686 -0.08235581 -0.043978896 0.015041887 0.08415524 0.06879716 -0.049951863 -0.03435584
0.024600849 -0.0147720575 -0.027389113 0.093176775 -0.09337146 0.021653771 -0.021061543 -0.092851914
-0.042213112 0.088112675 -0.09874127 -0.0094267875 -0.022338552 -0.0019506242 -0.07118523 0.036101848
-0.02127979 0.027103173 -0.0671307 -0.009827269 0.12505348 -0.040674224 0.05567679 0.07935695
-0.030677505 -0.05890559 0.040153787 0.0151916295 -0.010407789 -0.041112628 -0.04477609 0.06860685
0.04044186 0.0512987 -0.04417618 0.016892277 0.0872925 0.06102681 0.01991237 0.08382307
0.0009695484 -0.05514768 -0.02726633 0.122972235 -0.04717959 0.05279589 -0.018138383 0.08226451
-0.02525681 0.07274349 0.0017778747 0.02827548 -0.03431132 -0.0047603915 -0.019640435 0.04672216
-0.027743498 -0.063388675 0.0061857086 0.05603798 -0.054688346 0.04741439 0.001847046 -0.0013121306
0.025018906 -0.021100147 0.058887567 0.005965382 -0.038003128 -0.013953274 0.07796236 -0.058125865
-0.044240523 0.10073533 0.11045409 -0.0069200424 0.032385588 0.035861947 -0.041615147 0.024327703
-0.02967434 0.0010375071 0.054676514 -0.080724224 -0.023882646 0.025715511 -0.025437031 0.062782615
-0.07112663 -0.011336726 0.038728427 -0.028164987 0.07140677 0.096624084 0.08660946 0.024997668
-0.10519058 -0.026609117 -0.038954027 0.056160983 -0.017378159 0.020088565 0.08356384 0.034842048
0.060106363 0.064627975 -0.029069522 0.03192754 0.020214487 -0.028752709 -0.071234465 -0.004503004
0.025194319 0.010768801 0.009754833 -0.04039087 -0.09604382 0.089727595 -0.027402472 -0.09723467
-0.049749903 -0.025151283 0.0462407 -0.025718154 0.030630782 -0.049765855 -0.0781598 0.0026097556
-0.05706113 -0.055305135 0.02351744 0.11126903 -0.080131434 -0.065600164 0.086954094 0.03377891
-0.009659044 -0.05937341 -0.060114734 -0.029734407 0.054060716 -0.040298477 0.04968304 -0.033038832
-0.09778465 -0.013335225 -0.04733251 -0.052432522 0.020461714 0.015026196 0.016219178 -0.06680384

transformer.layers.0.1.fn.fn.net.2.bias f4 [64]
00000000: e92f 1f3d 72a8 8d3d ef43 6d3c cf4c d53d
00000010: adc9 2f3d d9f7 6d3d 159d 8c3d e9f8 62bc
00000020: fd51 a63d f939 0e3c 98f7 323d bfe7 313d
00000030: 9aaa 0abd b93d 4bbd 9d6f 07bd 8e6f 19bd
00000040: cf9c c5bc ac83 93bc 0054 753c 2688 2dbd
00000050: 4709 e9bc 048c 10bd ba0d 0bbd 2171 243c
00000060: 0dd4 dabd 4a72 903c 8514 2ebd 459a 893d
00000070: 828a d63d 7cd1 f9bc 61f3 db3d 1dfb d6bd
00000080: 0584 8f3d 604c ab3d 0140 963c a39d 30bd
00000090: a8df 33bd 68be a8bc 7ced 933d 2c89 ecbc
000000a0: 7f7d d9bb c9db 94bc 340e 583d 3f46 053c
000000b0: 0e00 d03d 6b53 1b3d 8b26 293d c301 edbc
000000c0: 3387 643d c274 7fbd 597c 7d3c ac31 cb3b
000000d0: 3964 a2bb 7e5f 97bc 599e 62bd d3fd 51bd
000000e0: c5c4 ef3b 543d 45bc 8d8d e23d 8436 bebd
000000f0: 6eb0 14bc c821 09bc 8bf8 cbbb 3648 503d
0.03886405 0.06916894 0.014481529 0.10415041 0.042916942 0.058097694 0.068658985 -0.01385329
0.08121107 0.008680814 0.043693155 0.0434339 -0.033854105 -0.04961941 -0.033065427 -0.037459902
-0.024122624 -0.018007122 0.01497364 -0.04236617 -0.028446807 -0.03528978 -0.033948638 0.010036738
-0.10684977 0.017632622 -0.042500038 0.06718878 0.10475637 -0.030495398 0.1073978 -0.10497115
0.070076026 0.08364177 0.018341066 -0.043119084 -0.043914467 -0.020598605 0.07223031 -0.028874002
-0.0066372748 -0.018171208 0.05274792 0.008134424 0.101562604 0.03792135 0.041296523 -0.028931504
0.055793 -0.06236721 0.015471541 0.0062009897 -0.004955795 -0.018478151 -0.055326793 -0.051267456
0.007317158 -0.012038548 0.11062155 -0.09287742 -0.009075267 -0.0083698705 -0.006224697 0.050850116
