model_training/trained_models/multicolor_data/old_1_dim_regression/10_10_model.pth (torch, 453160 bytes, 18 tensors)

pos_embedding f4 [1, 1025, 64]
1.9034597 1.4602743 0.8845419 -2.095693 0.6653176 -1.2063701 -0.050688654 -1.6029774
-0.7288111 1.6219313 -0.402404 -1.3908409 -0.7085859 -0.51247615 -0.743026 0.76091975
1.6236398 -0.14662628 -0.46326822 0.4508738 -0.75724053 1.0614308 0.80235326 1.664328
1.2611951 1.2865436 0.6304627 1.3040464 -0.237785 0.040559605 -0.27176547 0.8426215
-1.3873509 -0.84460676 -0.21539572 1.6961776 0.2840392 -0.43697956 0.3511165 -0.76666725
-1.5307163 0.98862016 -0.8617237 -0.5949904 -1.2402366 2.1012037 -1.2524813 -0.46100828
-0.9619657 -0.6462307 0.07691096 0.4896816 -0.48036563 1.188481 -0.81664526 -0.7310664
-1.3844949 0.04259905 -0.05283994 0.6655792 -0.09165482 1.8410903 -1.1735255 1.3655218
1.2166417 0.5206457 2.2078478 0.78320986 0.5361983 -0.025633708 -1.0253533 1.2605981
-0.30635607 0.53032345 0.2477633 0.61061555 0.539626 -0.77851033 -2.3597686 -0.8672823
0.07328895 -0.4178892 -1.4410934 -0.6261957 0.5264802 0.6043242 1.376901 -0.12704338
0.81320935 -0.5179772 -1.0957417 0.7473466 -1.6668937 -0.7471397 1.4720819 0.4162791
-2.5092995 0.641119 0.9268219 -0.2525902 0.58185947 0.45563796 1.0259192 -0.28687456
-0.30251223 0.75068873 0.49172112 0.09544161 0.2965362 1.0018324 0.14333732 -0.46321964
-1.5060269 0.13190936 -0.44569883 0.16621417 0.5942756 0.2836637 -0.30691308 0.7772444
0.17262457 0.10111118 0.3324138 0.65941656 1.2354289 0.5466166 0.48026943 0.26748025
1.8778021 0.8995198 -1.4829329 -1.0245339 -0.044613402 1.7056738 0.7070433 0.46462113
1.0122075 0.07661016 -1.7178539 1.0504664 -0.37046072 0.9302354 -0.75381905 0.5354082
-1.0277318 0.9228475 1.6573114 1.5063455 0.26690966 -0.14809772 -0.6458226 -0.00086843356
0.34332046 1.0564903 -0.45414016 1.6786697 -2.4683528 -0.38322386 -1.1846626 0.824743
-1.9390036 0.3196112 0.08885373 -0.46354073 0.24304163 -0.82311606 0.18259157 -1.0958757
-1.6673502 1.3943236 1.3706288 -0.0024982314 -1.6331104 0.6656183 0.8488558 1.9368668
0.16301453 0.18611474 -0.77005833 -0.2954555 -1.0264728 -1.5685302 -1.0254767 -0.49118885
-0.49365607 -1.6113915 -1.8729608 0.03639298 1.0516968 -0.51075214 0.6542074 0.70662975
1.5616984 -1.0296972 0.9278642 -0.13302171 -1.0103217 0.363647 0.4750361 1.2908356
0.4401375 2.0595818 -0.3333646 -0.77352774 0.021065658 0.9612027 1.1074414 0.33723405
-0.77324814 -0.9954454 -0.5273742 -0.5943765 0.07925093 0.4674322 0.0071905465 -2.380599
-0.30784366 0.9687715 -1.8005089 1.5934079 0.37185648 -0.45755583 1.1155765 1.652341
0.08311998 1.7209742 0.25529778 -1.2145758 -0.6287323 0.04736217 0.3374027 2.0541253
-0.15041298 -0.8197788 -1.9857877 -1.0961195 0.12868662 -0.05550011 0.28298634 0.30963126
-0.9655094 0.38426143 -0.41119123 0.229588 -0.9278403 0.062233623 -0.3620286 1.5404985
1.3561968 -0.78735375 0.9520239 0.41214657 0.6652248 0.7102927 0.36558726 0.06809985
00000000: 91a4 f33f 45ea ba3f 5771 623f d61f 06c0
00000010: 4152 2a3f 566a 9abf e89e 4fbd 5d2e cdbf
00000020: 5d93 3abf 729b cf3f e607 cebe 1307 b2bf
00000030: e365 35bf a331 03bf f436 3ebf a3cb 423f
00000040: 6ed3 cf3f 3325 16be 7e31 edbe eed8 e63e
00000050: 84da 41bf f7dc 873f 0667 4d3f b308 d53f
00000060: d76e a13f 76ad a43f 0166 213f feea a63f
00000070: e97d 73be d421 263d d824 8bbe 0bb6 573f
00000080: b794 b1bf 2638 58bf b290 5cbe 591c d93f
00000090: 966d 913e c9bb dfbe 8bc5 b33e 4e44 44bf
000000a0: 83ee c3bf 3616 7d3f ed99 5cbf 4a51 18bf
000000b0: 13c0 9ebf 1f7a 0640 4f51 a0bf 4709 ecbe
000000c0: 6243 76bf 606f 25bf 7e83 9d3d 8cb7 fa3e
000000d0: 7cf2 f5be 2520 983f aa0f 51bf 2b27 3bbf
000000e0: 2137 b1bf 577c 2e3d b16e 58bd 6663 2a3f
000000f0: 86b5 bbbd d9a8 eb3f 1536 96bf 6bc9 ae3f
00000100: eaba 9b3f 0949 053f 614d 0d40 7180 483f
00000110: 4b44 093f c8fd d1bc c73e 83bf 475b a13f
00000120: b4da 9cbe 47c3 073f aab5 7d3e 4d51 1c3f
00000130: ee24 0a3f 744c 47bf 7306 17c0 3606 5ebf
00000140: 8418 963d 93f5 d5be c075 b8bf 5d4e 20bf
00000150: 68c7 063f feb4 1a3f 4b3e b03f a917 02be
00000160: 7d2e 503f 279a 04bf 4441 8cbf 1b52 3f3f
00000170: c65c d5bf 8c44 3fbf 2e6d bc3f 8922 d53e
00000180: 5d98 20c0 6020 243f 3344 6d3f 8153 81be
00000190: bef4 143f 6149 e93e 5251 833f 39e1 92be
000001a0: e2e2 9abe 232d 403f dfc2 fb3e e476 c33d
000001b0: 98d3 973e 0b3c 803f 05c7 123e 202b edbe
000001c0: 7dc5 c0bf 3f13 073e a332 e4be 0c34 2a3e
000001d0: 7222 183f 5e3c 913e b623 9dbe 7df9 463f
000001e0: 7fc4 303e 6113 cf3d 2432 aa3e 86cf 283f
000001f0: 8922 9e3f 11ef 0b3f e0e5 f53e 2cf3 883e
00000200: d25b f03f ee46 663f bfd0 bdbf ed23 83bf
00000210: 8bbc 36bd 8553 da3f ca00 353f d2e2 ed3e
00000220: 0490 813f cae5 9c3d a3e2 dbbf af75 863f
00000230: 07ad bdbe e823 6e3f 49fa 40bf 8310 093f
00000240: b78c 83bf bc3f 6c3f c822 d43f eecf c03f
00000250: 62a8 883e eea6 17be a154 25bf 97a7 63ba
00000260: b3c7 af3e 133b 873f 0f85 e8be a6de d63f
00000270: 7ef9 1dc0 eb35 c4be 06a3 97bf 5b22 533f
00000280: 4531 f8bf 14a4 a33e f2f8 b53d 3655 edbe
00000290: e8df 783e bcb7 52bf 49f9 3a3e a845 8cbf
000002a0: bb6b d5bf 3279 b23f c470 af3f 5eb9 23bb
000002b0: c309 d1bf f665 2a3f 9d4e 593f 40eb f73f
000002c0: 48ed 263e dd94 3e3e 8b22 45bf f145 97be
000002d0: 7663 83bf 99c5 c8bf d242 83bf 1b7d fbbe
000002e0: 7dc0 fcbe 1442 cebf 2ebd efbf ce10 153d
000002f0: 009e 863f a7c0 02bf 237a 273f b0e5 343f
00000300: bce5 c73f 1ecd 83bf 8288 6d3f d836 08be
00000310: 3952 81bf f12f ba3e ef37 f33e 1a3a a53f
00000320: b459 e13e 30d0 0340 c4ae aabe ea05 46bf
00000330: e391 ac3c 6111 763f a4c0 8d3f f1a9 ac3e
00000340: 97f3 45bf 82d5 7ebf ff01 07bf 0f29 18bf
00000350: 504e a23d 4653 ef3e ad9e eb3b bc5b 18c0
00000360: af9d 9dbe 6901 783f 1377 e6bf caf4 cb3f
00000370: f963 be3e c244 eabe 36cb 8e3f e97f d33f
00000380: cf3a aa3d e248 dc3f 64b6 823e 3877 9bbf
00000390: 9af4 20bf d6fe 413d 0cc0 ac3e ca76 0340
000003a0: dc05 1abe 06dd 51bf 4b2e febf a54d 8cbf
000003b0: 6dc6 033e 1554 63bd 96e3 903e fd87 9e3e
000003c0: a02b 77bf eabd c43e a887 d2be 1e19 6b3e
000003d0: f186 6dbf afe8 7e3d d05b b9be 0e2f c53f
000003e0: db97 ad3f 0490 49bf d7b7 733f e004 d33e
000003f0: 2c4c 2a3f bed5 353f 412e bb3e ef77 8b3d

cls_token f4 [1, 1, 64]
-0.6492143 1.5403244 0.96201414 0.4150832 -0.36371017 -0.37981057 1.794578 1.4194512
-1.4949085 -0.110179186 0.6686388 0.7758314 0.15676847 -1.5851709 -0.63282186 -0.013733699
1.2861644 -1.464868 -2.0916636 -1.364043 0.4663382 0.6365911 -0.95448816 1.0419725
0.17471111 -0.77307355 -1.1562996 1.009718 1.0179869 0.5479497 0.039340597 2.345958
1.5600526 -0.31647447 -0.8687049 -0.48091775 1.4110552 1.968685 -1.4379047 0.54928994
0.058363106 0.38634157 -0.40810102 -0.95778334 -0.54810226 0.30546534 1.9882247 -1.0887457
1.6721798 0.0116014145 -0.8620888 1.0015763 -1.008203 -0.5657184 1.1804521 -0.017213026
0.05250789 -0.86504614 -1.1355333 1.5371023 -0.5772576 0.9354067 -0.45183071 0.81044847
00000000: e932 26bf 5a29 c53f 8f46 763f c985 d43e
00000010: 3838 babe 8876 c2be bbb4 e53f 94b0 b53f
00000020: 2959 bfbf a0a5 e1bd ea2b 2b3f e39c 463f
00000030: ea87 203e e1e6 cabf 9d00 22bf 4f03 61bc
00000040: 09a1 a43f cb80 bbbf d1dd 05c0 f698 aebf
00000050: e1c3 ee3e a2f7 223f 5659 74bf 5b5f 853f
00000060: 78e7 323e 26e8 45bf a001 94bf 703e 813f
00000070: 654d 823f 6e46 0c3f 9b23 213d 2d24 1640
00000080: ceaf c73f f108 a2be 7263 5ebf da3a f6be
00000090: 759d b43f dffd fb3f 430d b8bf 449e 0c3f
000000a0: 270e 6f3d 90ce c53e 9ef2 d0be 4a31 75bf
000000b0: 6e50 0cbf f465 9c3e 267e fe3f 055c 8bbf
000000c0: fd09 d63f dc13 3e3c dab1 5cbf a733 803f
000000d0: cc0c 81bf ecd2 10bf 0e19 973f 5502 8dbc
000000e0: 8312 573d aa73 5dbf 2859 91bf c5bf c43f
000000f0: 27c7 13bf d076 6f3f 5b56 e7be 8d79 4f3f

patch_to_embedding.weight f4 [64, 64]
0.050658442 -0.002693881 -0.013652497 0.01704459 -0.0050557717 -0.063069366 -0.09303916 -0.06569099
0.14379357 0.12165238 0.06561031 0.054364413 0.11502459 0.11752852 0.08161597 0.016013741
0.075605765 -0.04096122 0.08062687 0.11533307 0.049376965 -0.049035985 0.050334934 0.12532574
0.015165083 0.07769833 0.03791819 0.08282949 0.067136236 0.037358414 -0.09077216 0.12840234
-0.090984605 -0.08193365 0.13324665 -0.0084898565 -0.09329047 0.11764822 -0.019618988 0.1132479
0.11827338 -0.09640872 -0.10242437 0.022385327 -0.016198466 -0.099913985 -0.055327225 0.10521386
0.0811202 0.07034573 0.0826858 0.08125585 0.10413731 0.009219045 0.017685493 0.14626986
0.035495576 0.0055960785 0.11907107 0.094491586 0.032329865 0.091030926 0.13811255 0.01890799
-0.026113223 0.06165332 0.14677233 -0.039004765 -0.07899209 -0.015110986 0.051394735 -0.06699541
-0.043844957 0.045211185 0.13582535 0.09161637 0.10902492 0.08133976 0.06759528 0.14948668
-0.006385581 0.02220115 0.052908566 0.042488936 0.03208656 -0.018728599 0.13994333 0.10474451
-0.0669269 0.05576695 -0.0854735 0.14119542 0.076569006 0.09716226 0.15613998 0.13716045
0.10349829 -0.008162312 0.018113177 0.10884586 0.12734975 -0.005056354 0.13869976 0.11457391
0.13780074 0.021278704 0.036877904 -0.039174642 -0.086324066 0.013862899 0.056642074 -0.057859056
0.071684025 -0.074648336 -0.07802675 0.14918427 -0.058730487 0.032230183 0.0006067881 0.09091142
0.05408373 -0.01392283 -0.032343104 -0.06500016 0.004927214 0.098749325 0.015290474 -0.06164395
0.04632624 -0.10852053 -0.095042564 0.08599188 -0.105074465 0.010115819 -0.07505591 0.10539755
-0.06726939 -0.10678358 0.10469736 0.02190516 -0.08547938 0.075459376 -0.094004326 0.05375488
-0.0384985 0.078541026 0.09289441 -0.0057940334 0.11226262 0.032232292 0.0065442645 0.121454954
0.080967076 -0.048211914 0.062263984 -0.061031654 0.018081572 -0.09106777 0.09041635 -0.107239425
-0.014231012 0.08188339 -0.033436324 0.13285923 0.047026366 0.007272585 0.07023673 -0.0775316
0.07378417 -0.112572744 0.048218608 -0.0079395985 0.11362803 -0.015197819 0.02450501 -0.10296899
0.09349018 -0.10993089 0.07644611 0.04583542 0.10930598 0.12420951 0.020641347 -0.09130874
0.11800761 -0.057781592 -0.09538819 0.067529745 -0.05021906 0.097161844 0.09883296 -0.029981557
-0.044981763 -0.064940184 -0.07275999 -0.12833987 -0.065069094 0.088486545 0.03984822 -0.0005818756
-0.12609823 0.013571424 -0.04822894 -0.09021305 0.017160965 -0.100059874 -0.021984696 -0.07146649
-0.14635214 0.030380722 -0.028275039 0.041319128 -0.07273344 -0.02746605 -0.10653284 0.04257914
-0.09868928 -0.01562044 0.0773989 -0.14556889 -0.09573094 0.02545391 -0.058158904 -0.08880583
-0.15853576 0.07962727 0.022646414 -0.03793271 -0.003716992 0.052365974 0.0837864 -0.09625082
-0.11344347 -0.12925084 -0.13162847 0.036365107 -0.14506021 0.0642263 0.07601615 -0.1324162
0.061483804 0.045930624 -0.16175443 -0.08118331 0.02864865 -0.07100815 -0.08007199 -0.06509248
0.04489123 -0.13179785 -0.08044277 -0.07786276 -0.008960163 -0.10884159 -0.10904899 -0.07160119
00000000: 3a7f 4f3d d38b 30bb b9ae 5fbc 19a1 8b3c
00000010: e3aa a5bb 832a 81bd 518b bebd ff88 86bd
00000020: 9f3e 133e e224 f93d b35e 863d 38ad 5e3d
00000030: 0392 eb3d cbb2 f03d 4626 a73d 402f 833c
00000040: 32d7 9a3d f4c6 27bd b31f a53d bf33 ec3d
00000050: 803f 4a3d f5d9 48bd 012c 4e3d 6455 003e
00000060: f876 783c 4d20 9f3d 1b50 1b3d 82a2 a93d
00000070: b97e 893d 2305 193d c1e6 b9bd e77b 033e
00000080: 2356 babd d4cc a7bd cf71 083e 0a19 0bbc
00000090: 130f bfbd 8df1 f03d 00b8 a0bc 84ee e73d
000000a0: 5039 f23d ef71 c5bd dec3 d1bd 6f61 b73c
000000b0: a5b2 84bc b49f ccbd cd9e 62bd 5d7a d73d
000000c0: 5922 a63d 6c11 903d 2c57 a93d 7869 a63d
000000d0: f145 d53d 7a0b 173c 2be1 903c c4c7 153e
000000e0: cf63 113d 4f5f b73b 88db f33d ce84 c13d
000000f0: 526c 043d 6c6e ba3d 606d 0d3e eee4 9a3c
00000100: 66eb d5bc 3188 7c3d 7c4b 163e 76c3 1fbd
00000110: 9bc6 a1bd 1294 77bc 4983 523d e434 89bd
00000120: c596 33bd 5d2f 393d cd15 0b3e 5da1 bb3d
00000130: 7548 df3d 7695 a63d 656f 8a3d 0913 193e
00000140: 233e d1bb 30df b53c a7b6 583d e108 2e3d
00000150: 326d 033d b86c 99bc 4e4d 0f3e 4a84 d63d
00000160: f810 89bd e36b 643d bb0c afbd 8895 103e
00000170: 36d0 9c3d 02fd c63d 29e3 1f3e ca73 0c3e
00000180: e9f6 d33d 38bb 05bc 1662 943c 94ea de3d
00000190: f967 023e c6af a5bb 4f07 0e3e baa5 ea3d
000001a0: a31b 0d3e ad50 ae3c 490d 173d 9775 20bd
000001b0: acca b0bd 3621 633c 8501 683d 9efd 6cbd
000001c0: 13cf 923d 3ae1 98bd 7dcc 9fbd c3c3 183e
000001d0: 618f 70bd cc03 043d dc10 1f3a c42f ba3d
000001e0: e786 5d3d 951c 64bc 347a 04bd ce1e 85bd
000001f0: 7774 a13b 163d ca3d e584 7a3c 5e7e 7cbd
00000200: 95c0 3d3d 0340 debd ada5 c2bd 831c b03d
00000210: 4831 d7bd d2bc 253c eab6 99bd acda d73d
00000220: 89c4 89bd 59b1 dabd 926b d63d 7372 b33c
00000230: d00f afbd 728a 9a3d 5785 c0bd 142e 5c3d
00000240: 9ab0 1dbd 1eda a03d 6d3f be3d e0db bdbb
00000250: f2e9 e53d 0206 043d 4571 d63b 60bd f83d
00000260: 11d2 a53d db79 45bd 8508 7f3d 54fc 79bd
00000270: ce1f 943c bd81 babd 352c b93d 58a0 dbbd
00000280: 3129 69bc 7bb2 a73d 87f4 08bd 400c 083e
00000290: b89e 403d dd4e ee3b 46d8 8f3d e3c8 9ebd
000002a0: 281c 973d 8a8c e6bd e080 453d 1715 02bc
000002b0: d0b5 e83d 4600 79bc bbbe c83c 68e1 d2bd
000002c0: c877 bf3d 7223 e1bd c78f 9c3d ecbd 3b3d
000002d0: d0db df3d 8e61 fe3d 0b18 a93c 1400 bbbd
000002e0: f9ad f13d 64ac 6cbd e25a c3bd 094d 8a3d
000002f0: 80b2 4dbd cafc c63d ef68 ca3d e29b f5bc
00000300: cc3e 38bd 5cff 84bd 3103 95bd 876b 03be
00000310: f242 85bd 6f38 b53d e337 233d 0389 18ba
00000320: e51f 01be ae5a 5e3c b68b 45bd 9fc1 b8bd
00000330: 2795 8c3c 31ec ccbd 4019 b4bc 065d 92bd
00000340: 56dd 15be fee0 f83c 0ea1 e7bc 3f3e 293d
00000350: 45f5 94bd 7b00 e1bc e42d dabd 7767 2e3d
00000360: 9b1d cabd e0ec 7fbc 5183 9e3d 0310 15be
00000370: 950e c4bd b884 d03c 0838 6ebd d5df b5bd
00000380: 3357 22be 9f13 a33d f984 b93c 545f 1bbd
00000390: c798 73bb b47d 563d 3498 ab3d 261f c5bd
000003a0: 0d55 e8bd 555a 04be 9dc9 06be 94f3 143d
000003b0: aa8a 14be 1489 833d 5bae 9b3d 1d98 07be
000003c0: 71d6 7b3d c021 3c3d f4a2 25be 6f43 a6bd
000003d0: 93b0 ea3c b96c 91bd c9fc a3bd 354f 85bd
000003e0: dedf 373d 04f6 06be 2ebf a4bd 8376 9fbd
000003f0: a6cd 12bc 57e8 debd 1455 dfbd a5a3 92bd

patch_to_embedding.bias f4 [64]
-0.14800072 0.020046363 0.062469937 0.19142781 0.13648057 0.11182825 0.06447227 -0.074696235
0.03067619 0.12815599 0.07833763 -0.031816274 0.044205785 -0.028153403 -0.07690263 0.0049594017
0.035112284 -0.12189283 0.11887531 -0.07967755 -0.040501982 -0.040047806 0.14608634 -0.11298369
0.021493237 0.04055761 -0.051766124 0.15335943 -0.042674106 0.10602263 -0.062915415 -0.10835611
-0.11070121 0.10347978 0.045519903 -0.13325971 -0.0028498364 -0.15564717 -0.106682226 0.05164543
-0.10762992 -0.048679065 0.023981908 -0.120188564 -0.029153643 -0.017622266 0.12549232 -0.051074814
-0.003990889 0.07808782 0.1276161 -0.13923705 0.019433385 0.095406614 -0.0377035 0.08700879
0.062388904 -0.11977544 0.015451752 -0.023326503 0.012894062 0.15980013 -0.10576384 0.087736346
00000000: 808d 17be 4538 a43c 7ae0 7f3d a705 443e
00000010: 90c1 0b3e 3606 e53d 0a0a 843d 57fa 98bd
00000020: a24c fb3c 533b 033e 7b6f a03d c851 02bd
00000030: 2011 353d f7a1 e6bc 207f 9dbd 7a82 a23b
00000040: e6d1 0f3d f3a2 f9bd e674 f33d fc2d a3bd
00000050: 68e5 25bd 2b09 24bd a897 153e fe63 e7bd
00000060: 9612 b03c bd1f 263d b708 54bd 410a 1d3e
00000070: 0bcb 2ebd 6522 d93d ccd9 80bd cfe9 ddbd
00000080: 51b7 e2bd 35ed d33d 1473 3a3d 3c75 08be
00000090: 52c4 3abb f961 1fbe 367c dabd 298a 533d
000000a0: 136d dcbd b363 47bd b575 c43c 6c25 f6bd
000000b0: 9fd3 eebc 925c 90bc 0f81 003e d333 51bd
000000c0: 01c6 82bb 82ec 9f3d cbad 023e 2894 0ebe
000000d0: c332 9f3c 8b64 c33d fc6e 1abd aa31 b23d
000000e0: 828b 7f3d d34c f5bd 5829 7d3c 3917 bfbc
000000f0: 9e41 533c a5a2 233e b69a d8bd 1daf b33d

transformer.layers.0.0.fn.norm.weight f4 [64]
1.0123388 0.9623771 0.9323185 1.0151814 0.84587914 0.85244906 0.969173 0.9310547
0.973104 0.93556356 0.96281844 0.97934455 0.9298709 0.9532649 0.92401797 0.9480828
0.94340295 0.9231446 0.887521 0.96363294 0.884587 0.9583982 1.010821 0.9093875
0.92829055 0.9529968 0.96576583 1.0072637 0.9753539 0.9292855 0.95551807 0.9350304
0.94171184 0.97132915 0.9590183 1.0003867 0.9732995 0.9500403 0.9830978 0.93678755
0.9513401 0.9021983 0.96201885 0.8763489 0.94778967 0.99215186 0.8748661 1.0110584
0.91254383 0.8773369 0.94033116 0.964555 0.9765585 0.9364547 0.9229646 0.9669006
0.92352694 0.91873145 0.9452133 0.89983433 0.97647107 0.9693475 0.9705528 0.9826306
00000000: 5194 813f 585e 763f 6dac 6e3f 77f1 813f
00000010: 898b 583f 1a3a 5a3f b91b 783f 9a59 6e3f
00000020: 581d 793f 1881 6f3f 457b 763f 53b6 7a3f
00000030: 050c 6e3f 2b09 743f 718c 6c3f 8eb5 723f
00000040: db82 713f 3453 6c3f 9434 633f a6b0 763f
00000050: 4b74 623f 9659 753f 9562 813f 9fcd 683f
00000060: 73a4 6d3f 99f7 733f 6e3c 773f 04ee 803f
00000070: cbb0 793f a8e5 6d3f d59c 743f 275e 6f3f
00000080: 0714 713f 07a9 783f 3982 753f ac0c 803f
00000090: 282a 793f d735 733f 4cac 7b3f 4fd1 6f3f
000000a0: 068b 733f 78f6 663f de46 763f 6758 603f
000000b0: 58a2 723f aafd 7d3f 3af7 5f3f 5d6a 813f
000000c0: 799c 693f 2799 603f 8bb9 703f 14ed 763f
000000d0: bdff 793f 7fbb 6f3f 6847 6c3f cc86 773f
000000e0: 436c 6c3f fc31 6b3f 80f9 713f 8b5b 663f
000000f0: 02fa 793f 2827 783f 2676 783f ae8d 7b3f

transformer.layers.0.0.fn.norm.bias f4 [64]
-0.071362436 -0.06508851 -0.038990412 0.0816921 0.07770716 0.07409449 0.04783125 -0.09208208
-0.06688108 0.02791704 0.07620596 0.06667556 0.014771023 -0.061831318 -0.059538327 -0.07329213
-0.013365229 -0.023662698 0.013769474 0.026905837 -0.031986777 0.051070843 0.06888555 -0.085661374
-0.013874513 0.048859213 0.014017029 0.0521547 0.037488576 0.00918631 0.03819137 0.011740374
-0.0011149482 0.06252397 0.06075393 -0.072006926 -0.016066356 -0.06287585 -0.0003587901 0.043108076
-0.030002803 0.037397873 0.04445019 -0.040382948 0.004104891 -0.0576803 0.040865082 -0.053024154
0.058459472 0.06274072 0.05824921 -0.061806146 -0.04305709 0.050283223 0.08586578 0.06393034
0.040207982 -0.03348001 0.052326027 -0.08108783 -0.017382681 0.045631163 -0.05152265 -0.025928574
00000000: 7826 92bd 204d 85bd 69b4 1fbd 304e a73d
00000010: ee24 9f3d dabe 973d b3ea 433d 8895 bcbd
00000020: f3f8 88bd 47b2 e43c df11 9c3d 328d 883d
00000030: 2902 723c d642 7dbd 76de 73bd 2f1a 96bd
00000040: d5f9 5abc 46d8 c1bc 5c99 613c a169 dc3c
00000050: 9104 03bd a92f 513d de13 8d3d 3b6f afbd
00000060: ed51 63bc 9920 483d aea7 653c 2ba0 553d
00000070: 9f8d 193d 2d82 163c 8e6e 1c3d b35a 403c
00000080: 7423 92ba 910c 803d 1dd9 783d 5e78 93bd
00000090: 979d 83bc 0ec5 80bd fe1b bcb9 1892 303d
000000a0: 70c8 f5bc 832e 193d 6711 363d 9768 25bd
000000b0: 5282 863b 2e42 6cbd 2562 273d db2f 59bd
000000c0: 3373 6f3d 357e 803d b996 6e3d 7128 7dbd
000000d0: a25c 30bd c8f5 4d3d 66da af3d e9ed 823d
000000e0: 20b1 243d 5622 09bd d153 563d 6011 a6bd
000000f0: 2066 8ebc bee7 3a3d 6a09 53bd 2968 d4bc

transformer.layers.0.0.fn.fn.to_qkv.weight f4 [192, 64]
0.12789986 0.06808948 0.03002293 0.017971473 0.029674046 0.053652663 -0.04163529 -0.05083719
-0.07497607 0.038715307 -0.059081748 0.05077171 -0.038688015 0.10639992 0.0319056 -0.100539416
0.03491494 0.03351704 -0.096061215 0.00279879 0.02915489 -0.10327648 -0.12673138 0.0094608255
0.060956933 -0.05512155 -0.08238906 -0.048262335 0.042790316 -0.030915573 -0.071051866 0.026199909
0.0074180495 -0.033644814 0.063084565 -0.08372128 0.0016260124 0.0025358235 0.03320832 -0.086586975
0.0029815012 -0.10156249 0.08418991 0.008009125 -0.030355431 -0.09210433 0.10741673 0.069944076
0.101860285 -0.097373106 -0.017021442 -0.061099168 -0.08954632 -0.081051886 0.0921627 -0.040999588
0.04909374 -0.038818777 -0.025768694 0.014313388 -0.11018644 -0.09747788 0.03444301 0.011373346
0.04100632 0.04992411 0.05325196 0.029342735 0.023304882 -0.0751176 -0.058364835 -0.02727401
0.034111522 -0.02173027 -0.0005859412 -0.10681911 0.07665566 -0.15986022 0.022780284 -0.027758397
-0.05456963 0.06343469 -0.01821679 0.013061215 -0.08292735 -0.06478522 -0.021808187 0.09241202
0.15365791 -0.023951156 0.0754219 0.16671272 -0.028768465 0.0031427047 0.066289485 0.09235748
-0.057991993 -0.1554919 -0.16463396 -0.02326489 0.09596817 -0.018038318 0.07600855 -0.06129824
0.031699866 -0.029518787 0.06736017 -0.009593225 0.04803072 0.10240311 -0.057917137 0.037130304
0.0092708245 -0.12019084 0.03784072 -0.05784964 -0.006290199 -0.06232272 -0.052104276 0.013050397
-0.012104243 0.068851195 0.050718818 -0.058185145 0.058955308 0.16026886 -0.0417151 0.11334243
0.1116465 -0.077583455 0.09532278 0.057953477 -0.09382188 0.013282553 0.0829018 0.01619224
-0.05723615 0.044380695 0.10954707 0.02914606 -0.11212255 -0.059231963 0.100096226 0.09960866
-0.03934217 -0.12325115 0.06476 0.09383281 -0.10173991 -0.07282671 -0.043649856 0.006588507
0.053481486 0.09124475 -0.06585409 0.10273323 -0.06609636 0.09269199 -0.0035667554 -0.033184335
0.04121511 0.006429429 0.03641748 -0.022622332 0.036422197 -0.049526826 -0.097470656 -0.11384625
0.020820977 0.0090199765 0.0005241526 -0.08035696 0.025982233 -0.083739385 0.048288677 -0.116947815
-0.10080708 -0.121617116 0.092426606 0.1351578 0.03655231 0.055359345 0.1399987 -0.08857087
0.06448532 0.032503963 0.06780218 0.07910223 -0.035416286 -0.08122007 -0.07639688 0.02265859
0.06827064 -0.040804066 0.09864413 -0.0045819706 -0.102898486 -0.095426425 -0.01026416 0.07982774
-0.024090108 0.10243144 0.08967823 0.11476083 0.052055962 0.01059133 -0.05851747 -0.07273093
-0.10155106 -0.08256329 0.06268797 0.031106805 -0.09871785 0.02998457 0.10328349 -0.08402666
0.0746926 -0.023721907 -0.10640509 0.032991387 0.016745942 -0.0966006 0.09206473 -0.09015885
-0.02378157 -0.028016465 -0.076733075 0.03115514 0.04923205 -0.07731896 -0.032625727 0.08666997
-0.093999736 0.04900045 0.07045491 -0.08833044 -0.079357736 0.084842145 -0.013235308 0.0844504
0.04930972 -0.01232896 -0.01531227 -0.082150966 -0.0103323255 -0.07297591 -0.10125855 -0.09096653
-0.0072537237 -0.043268193 -0.06466003 -0.04540374 -0.034047622 -0.07307977 -0.039714146 0.0049085054
00000000: 2ef8 023e 7f72 8b3d a6f2 f53c e938 933c
00000010: fc16 f33c e5c2 5b3d c489 2abd a83a 50bd
00000020: 0e8d 99bd f193 1e3d b4ff 71bd fff5 4f3d
00000030: 5377 1ebd 34e8 d93d 72af 023d 9ce7 cdbd
00000040: f802 0f3d 2a49 093d bebb c4bd e86b 373b
00000050: 3cd6 ee3c 9f82 d3bd dfc5 01be 9401 1b3c
00000060: faad 793d 22c7 61bd 98bb a8bd baae 45bd
00000070: e644 2f3d a842 fdbc a483 91bd 31a1 d63c
00000080: 1c13 f33b 25cf 09bd 7b32 813d 1076 abbd
00000090: ec1f d53a 0f30 263b 7305 083d 8354 b1bd
000000a0: 4a65 433b ffff cfbd c26b ac3d b438 033c
000000b0: f4ab f8bc 32a1 bcbd 4dfd db3d d73e 8f3d
000000c0: 209c d03d 8d6b c7bd 8d70 8bbc 1f43 7abd
000000d0: 1064 b7bd 88fe a5bd ccbf bc3d 2fef 27bd
000000e0: 8416 493d 7000 1fbd de18 d3bc b382 6a3c
000000f0: 6ea9 e1bd 7ca2 c7bd 1d14 0d3d 4557 3a3c
00000100: 3ef6 273d 397d 4c3d ba1e 5a3d 2d60 f03c
00000110: e1e9 be3c 42d7 99bd f70f 6fbd bf6d dfbc
00000120: 86b8 0b3d ae03 b2bc d999 19ba fac3 dabd
00000130: a5fd 9c3d 66b2 23be b89d ba3c 9465 e3bc
00000140: 6884 5fbd 0cea 813d 613b 95bc b5fe 553c
00000150: d1d5 a9bd 1dae 84bd 15a7 b2bc 8342 bd3d
00000160: 8058 1d3e 3735 c4bc cc76 9a3d bdb6 2a3e
00000170: d8ab ebbc d6f5 4d3b c8c2 873d eb25 bd3d
00000180: 0389 6dbd 4539 1fbe ce95 28be 0396 bebc
00000190: f68a c43d 18c5 93bc 5faa 9b3d dd13 7bbd
000001a0: b8d7 013d 62d1 f1bc 21f4 893d e72c 1dbc
000001b0: dcbb 443d b9b8 d13d 853a 6dbd f215 183d
000001c0: a8e4 173c 9d26 f6bd dffe 1a3d bef3 6cbd
000001d0: 031e cebb 1c46 7fbd 4b6b 55bd 55d1 553c
000001e0: e050 46bc db01 8d3d 89be 4f3d 8c53 6ebd
000001f0: 1f7b 713d 851d 243e 74dd 2abd 1320 e83d
00000200: eca6 e43d 13e4 9ebd 9738 c33d a060 6d3d
00000210: b025 c0bd 119f 593c 6bc8 a93d 97a5 843c
00000220: 7470 6abd 88c8 353d 375a e03d b8c3 ee3c
00000230: 82a0 e5bd 379d 72bd 40ff cc3d a0ff cb3d
00000240: 4125 21bd 196b fcbd e4a0 843d 6b2b c03d
00000250: 045d d0bd 2c26 95bd 31ca 32bd 67e4 d73b
00000260: 670f 5b3d 87de ba3d 82de 86bd cd65 d23d
00000270: 875d 87bd 4cd5 bd3d 3ac0 69bb 4cec 07bd
00000280: 2dd1 283d f6ad d23b 7f2a 153d 7852 b9bc
00000290: 712f 153d a4dc 4abd b29e c7bd 3928 e9bd
000002a0: c190 aa3c 86c8 133c 4967 093a 3192 a4bd
000002b0: b1d8 d43c 8e7f abbd 59ca 453d 5682 efbd
000002c0: f173 cebd 6512 f9bd 294a bd3d ce66 0a3e
000002d0: e0b7 153d 7bc0 623d d25b 0f3e a564 b5bd
000002e0: e110 843d e022 053d dfdb 8a3d 5a00 a23d
000002f0: ab10 11bd b556 a6bd f875 9cbd 829e b93c
00000300: 7ad1 8b3d 2a22 27bd ef05 ca3d 5b24 96bb
00000310: 71bc d2bd ee6e c3bd 022b 28bc ba7c a33d
00000320: 9e58 c5bc 93c7 d13d 38a9 b73d ba07 eb3d
00000330: a238 553d 4287 2d3c 04b0 6fbd f4f3 94bd
00000340: 01fa cfbd f116 a9bd 8d62 803d b3d3 fe3c
00000350: 962c cabd 33a2 f53c 4b86 d33d 2b16 acbd
00000360: 6ff8 983d 7254 c2bc e9ea d9bd fa21 073d
00000370: c92e 893c 89d6 c5bd 6f8c bc3d 34a5 b8bd
00000380: 91d1 c2bc c982 e5bc 3b26 9dbd 1039 ff3c
00000390: 8ca7 493d 6759 9ebd 8ea2 05bd 0680 b13d
000003a0: ef82 c0bd b2b4 483d aa4a 903d 97e6 b4bd
000003b0: 4f86 a2bd b8c1 ad3d e8d8 58bc 55f4 ac3d
000003c0: fdf8 493d 68ff 49bc 51e0 7abc c43e a8bd
000003d0: ea48 29bc 6574 95bd a560 cfbd a94c babd
000003e0: a5b0 edbb fd39 31bd 7a6c 84bd 46f9 39bd
000003f0: 8575 0bbd d9aa 95bd 4dab 22bd 87d7 a03b

transformer.layers.0.0.fn.fn.to_out.weight f4 [64, 64]
-0.08134846 -0.11747914 0.053170722 -0.0548082 -0.013251858 0.13097152 -0.056242507 0.03918427
-0.059313506 -0.027679672 0.032784946 -0.07314092 -0.05320313 0.096904896 0.06282654 0.080359735
-0.031006055 -0.045590546 -0.025812354 -0.07818577 -0.08177691 -0.041153356 -0.017623998 -0.10429421
0.035309296 -0.027851984 0.07773044 0.0023546775 0.08078764 -0.038159084 -0.14579655 -0.047974013
-0.05738126 0.04695786 0.084588245 -0.16602188 -0.05475988 -0.0255758 0.021156194 -0.014199807
-0.022672778 -0.12673393 0.12616201 -0.09975513 -0.078260474 0.023820441 0.044064723 -0.13074736
0.104307495 -0.010291712 0.06260158 0.06331054 0.07561679 -0.08882078 -0.10827038 -0.027989237
0.07459226 0.073034085 -0.09806336 -0.12400125 -0.011744646 0.048083786 0.012461509 0.123606235
0.04348933 -0.010465476 -0.01106302 0.10676597 0.044717316 -0.0072027165 -0.022433667 0.0711565
-0.07581394 0.045468215 0.12780471 0.12354646 0.060360435 0.044003602 -0.059248615 0.101038665
-0.056538783 -0.04507244 -0.08697007 -0.031649187 -0.13340105 0.07977921 0.050724175 -0.029062254
-0.025862781 0.0013856338 -0.14063795 0.029345248 0.115381144 0.038976528 -0.045093287 -0.00529019
-0.1531264 0.052641645 0.089542694 -0.1944623 -0.06323555 0.14307028 -0.18634498 -0.033090528
-0.038026188 -0.003605251 -0.01772267 -0.10077945 -0.066745766 -0.0514217 0.03432996 -0.14413287
0.016969383 -0.016052779 -0.007538156 -0.038149156 0.16691388 0.1254257 -0.18303199 -0.06757033
0.05068074 -0.052001856 -0.13358068 0.02823604 0.0074802157 0.0024890099 -0.042440716 -0.06986637
0.023934638 0.06685567 0.03995283 -0.0862468 -0.026908588 0.11383753 -0.0698235 0.07296615
-0.13067709 0.13949473 -0.0009496676 -0.027539311 0.09142836 -0.07038434 -0.04486969 -0.050860614
0.11685984 -0.021703057 -0.048866775 -0.079342335 0.056100734 -0.100570224 -0.015562687 0.08458677
0.007840581 0.093384884 -0.05225228 0.08531613 0.14227776 -0.14286694 -0.042901058 -0.12651798
-0.06165188 -0.047551826 -0.110292055 -0.17660056 0.06067353 0.12323866 -0.15282156 -0.032543555
-0.046687692 0.027306607 0.095812544 0.09487391 0.14036642 0.07264892 -0.06349633 -0.011292827
0.039291058 -0.08696216 0.11594066 -0.09296854 0.044846814 0.054250438 0.04029185 -0.056847055
-0.103202425 0.015954917 0.08163749 0.09628245 0.066779934 -0.042377252 0.020362409 0.07175675
0.037844915 0.08263009 -0.07987625 -0.015579224 -0.013196052 0.12188781 -0.081632346 0.05983907
-0.010231442 -0.0962237 0.11285734 0.052702848 -0.09097802 0.054723796 0.10496318 -0.030350292
0.104891255 -0.102989465 -0.109196365 0.08738653 0.04036853 0.022145556 0.013306155 0.024919568
-0.084694 -0.06700788 0.08563376 -0.10451467 0.054494224 -0.010275652 0.001338308 -0.021721583
0.0038099058 0.008290652 0.028212706 0.09549999 0.04795431 -0.062955014 0.0211557 -0.063964956
-0.083352685 0.0022889134 0.09032144 -0.0013907354 0.060008332 -0.09989281 -0.050147407 0.1060035
0.13798998 0.035841875 -0.059390426 -0.016304914 0.049901254 -0.069439866 0.055536292 -0.025471153
-0.1299207 0.14637625 -0.037423275 0.009076265 0.06462308 0.117347986 0.0071715508 0.053711165
00000000: 059a a6bd e798 f0bd 8bc9 593d 907e 60bd
00000010: 521e 59bc 661d 063e 8b5e 66bd af7f 203d
00000020: b8f2 72bd 7bc0 e2bc 8249 063d e8ca 95bd
00000030: 86eb 59bd 1376 c63d 33ab 803d a593 a43d
00000040: 6900 febc 27bd 3abd 6e74 d3bc dc1f a0bd
00000050: a77a a7bd 6c90 28bd 3460 90bc 3498 d5bd
00000060: 7ba0 103d d829 e4bc 2331 9f3d ef50 1a3b
00000070: fd73 a53d b34c 1cbd b14b 15be 6680 44bd
00000080: 9d08 6bbd e356 403d 9a3c ad3d a401 2abe
00000090: e54b 60bd 5784 d1bc c14f ad3c 4fa6 68bc
000000a0: 43bc b9bc 8ac6 01be 9d30 013e 6b4c ccbd
000000b0: 0747 a0bd 1623 c33c 367d 343d a3e2 05be
000000c0: 2b9f d53d 929e 28bc 4235 803d f5a8 813d
000000d0: fadc 9a3d abe7 b5bd dcbc ddbd af49 e5bc
000000e0: d4c3 983d e592 953d 71d5 c8bd 5ef4 fdbd
000000f0: 9e6c 40bc 81f3 443d 5b2b 4c3c 4425 fd3d
00000100: de21 323d 6377 2bbc ab41 35bc 1ea8 da3d
00000110: 8129 373d c404 ecbb cfc6 b7bc 80ba 913d
00000120: 5744 9bbd e13c 3a3d 3ddf 023e ed05 fd3d
00000130: 813c 773d 1f3d 343d adae 72bd 5ced ce3d
00000140: 3695 67bd e19d 38bd 5d1d b2bd 94a2 01bd
00000150: 499a 08be 4863 a33d 27c4 4f3d f713 eebc
00000160: 2fde d3bc 289e b53a 6503 10be 7265 f03c
00000170: f34c ec3d daa5 1f3d bdb3 38bd 5559 adbb
00000180: 2bcd 1cbe c49e 573d 2962 b73d 2021 47be
00000190: a481 81bd 0481 123e 38d1 3ebe ef89 07bd
000001a0: 59c1 1bbd 1346 6cbb 222f 91bc 7565 cebd
000001b0: 01b2 88bd 8f9f 52bd 929d 0c3d 9197 13be
000001c0: 6003 8b3c 1e81 83bc a302 f7bb 4a42 1cbd
000001d0: 79eb 2a3e 986f 003e bd6c 3bbe 5062 8abd
000001e0: 9c96 4f3d e6ff 54bd 60c9 08be 454f e73c
000001f0: 991c f53b a81e 233b 51d6 2dbd 1916 8fbd
00000200: 9312 c43c a0eb 883d 94a5 233d 2aa2 b0bd
00000210: 666f dcbc a723 e93d a0ff 8ebd 476f 953d
00000220: 37d0 05be b5d7 0e3e 1df3 78ba 1f9a e1bc
00000230: cb3e bb3d aa25 90bd 48c9 37bd 3853 50bd
00000240: 3654 ef3d 9cca b1bc 8728 48bd 3c7e a2bd
00000250: e2c9 653d c3f7 cdbd a4fa 7ebc d43b ad3d
00000260: c875 003c 9340 bf3d 7d06 56bd 39ba ae3d
00000270: 43b1 113e b64b 12be 05b9 2fbd ee8d 01be
00000280: af86 7cbd b4c5 42bd cde0 e1bd c7d6 34be
00000290: cf84 783d 8d64 fc3d 417d 1cbe 644c 05bd
000002a0: 983b 3fbd 1bb2 df3c 5e39 c43d 414d c23d
000002b0: 37bc 0f3e f5c8 943d 5d0a 82bd 8d05 39bc
000002c0: a9ef 203d 3819 b2bd 4c72 ed3d 4a66 bebd
000002d0: 4bb1 373d b535 5e3d 1109 253d 75d8 68bd
000002e0: cb5b d3bd e3b3 823c 8e31 a73d bc2f c53d
000002f0: ebc3 883d c593 2dbd 11cf a63c 34f5 923d
00000300: 4503 1b3d f739 a93d 2996 a3bd 0040 7fbc
00000310: 4134 58bc 51a0 f93d dc2e a7bd d019 753d
00000320: c7a1 27bc ee10 c5bd c021 e73d f1de 573d
00000330: af52 babd 0f26 603d f0f6 d63d 2da1 f8bc
00000340: 3ad1 d63d 24ec d2bd 58a2 dfbd b6f7 b23d
00000350: 7959 253d 996a b53c 0f02 5a3c 1f24 cc3c
00000360: 0c74 adbd 6d3b 89bd c160 af3d ca0b d6bd
00000370: 5635 5f3d 355b 28bc 2a6a af3a 76f1 b1bc
00000380: 9daf 793b 84d5 073c 551e e73c 8095 c33d
00000390: bd6b 443d 8fee 80bd b84e ad3c 0f00 83bd
000003a0: d0b4 aabd 9801 163b 72fa b83d 5649 b6ba
000003b0: 4ccb 753d 9a94 ccbd 5e67 4dbd 5d18 d93d
000003c0: 3f4d 0d3e eece 123d 6043 73bd e291 85bc
000003d0: 4265 4c3d 7d36 8ebd 067a 633d e1a8 d0bc
000003e0: ef09 05be a8e3 153e 2649 19bd 9db4 143c
000003f0: 1b59 843d 2454 f03d 54ff ea3b 3d00 5c3d

transformer.layers.0.0.fn.fn.to_out.bias f4 [64]
0.09858998 0.013347566 -0.13795507 -0.0008892867 0.09153436 -0.08828341 -0.03213269 -0.09408869
-0.07947638 -0.084114164 0.05458789 0.059412442 0.02125373 -0.043576863 0.08486673 0.023874225
0.06107899 0.06311955 0.11788307 0.027559346 0.121656716 -0.06925666 -0.10695727 0.07960574
0.012820405 -0.047710113 0.14264867 0.06088442 0.050472867 -0.04089024 0.033399038 -0.06735666
0.12110816 -0.09291112 -0.040562373 0.05253486 -0.027800057 0.035784706 0.06340323 0.13247809
0.016729228 0.08065547 0.042325083 0.056506246 0.09979543 -0.09728653 -0.030836238 -0.070592895
0.019488689 -0.08012265 0.08153838 -0.010045269 0.10126925 -0.11779812 0.10562249 -0.049064927
-0.012129392 -0.0758523 -0.016894517 0.004142638 0.112817034 -0.053226613 -0.008200148 -0.014524274
00000000: 8be9 c93d c0af 5a3c 1844 0dbe 051f 69ba
00000010: 5e76 bb3d efcd b4bd 919d 03bd 92b1 c0bd
00000020: 83c4 a2bd 0c44 acbd 8d97 5f3d 765a 733d
00000030: 4d1c ae3c a77d 32bd 9cce ad3d e193 c33c
00000040: f72d 7a3d d344 813d ae6c f13d 23c4 e13c
00000050: 2827 f93d 70d6 8dbd 6a0c dbbd 5608 a33d
00000060: ad0c 523c ae6b 43bd 7e12 123e f161 793d
00000070: a3bc 4e3d 867c 27bd 6ecd 083d 4af2 89bd
00000080: 8e07 f83d 2f48 bebd bb24 26bd cb2e 573d
00000090: f2bc e3bc fc92 123d 8dd9 813d 56a8 073e
000000a0: bc0b 893c b22e a53d 115d 2d3d 1873 673d
000000b0: 8c61 cc3d 293e c7bd 479c fcbc 0293 90bd
000000c0: bea6 9f3c 5817 a4bd 98fd a63d e994 24bc
000000d0: 4166 cf3d 2440 f1bd 9b50 d83d 4ef8 48bd
000000e0: 5bba 46bc 7358 9bbd 5f66 8abc f7be 873b
000000f0: 9e0c e73d 2604 5abd ea59 06bc 38f7 6dbc

transformer.layers.0.1.fn.norm.weight f4 [64]
0.987232 0.9540816 0.9522952 0.9809951 0.9395734 0.9480048 0.98023397 0.9640319
0.99020815 0.9836723 0.9790135 0.99397606 0.9866807 0.98175037 0.971983 0.97599757
0.97166747 0.98855305 0.993697 0.98834956 0.997518 0.98573554 0.9717386 0.9320275
0.9816432 1.0009085 0.90746295 0.9742687 0.99793285 0.9817084 0.9659114 0.97731525
0.9034376 0.9825033 0.9988584 0.98840445 0.96879274 0.9768663 0.98723966 0.9184226
0.9875001 0.9938864 0.9589508 0.9932322 0.96330017 0.9919153 0.98788154 0.99503565
0.8886207 0.98479784 0.9749094 0.9792625 0.97335565 0.93143153 1.002725 0.97127473
0.9836069 0.9389589 0.9736195 0.979311 0.9697057 0.9938877 0.9433231 0.97759926
00000000: 3dbb 7c3f b13e 743f 9ec9 733f 7f22 7b3f
00000010: e287 703f 71b0 723f 9df0 7a3f cbca 763f
00000020: 487e 7d3f f3d1 7b3f a1a0 7a3f 3775 7e3f
00000030: 1b97 7c3f fe53 7b3f e1d3 783f fada 793f
00000040: 33bf 783f d011 7d3f ed62 7e3f 7a04 7d3f
00000050: 575d 7f3f 2a59 7c3f dcc3 783f 5b99 6e3f
00000060: f84c 7b3f c51d 803f 7e4f 683f ac69 793f
00000070: 8778 7f3f 3e51 7b3f f845 773f 5531 7a3f
00000080: b047 673f 5685 7b3f 2fb5 7f3f 1308 7d3f
00000090: cd02 783f e913 7a3f bdbb 7c3f be1d 6b3f
000000a0: cecc 7c3f 576f 7e3f cd7d 753f 7744 7e3f
000000b0: d79a 763f 29ee 7d3f cee5 7c3f a8ba 7e3f
000000c0: a57c 633f b61b 7c3f aa93 793f f2b0 7a3f
000000d0: d62d 793f 4c72 6e3f 4b59 803f 76a5 783f
000000e0: a9cd 7b3f 9c5f 703f 213f 793f 20b4 7a3f
000000f0: a23e 783f 6d6f 7e3f 9f7d 713f f243 7a3f

transformer.layers.0.1.fn.norm.bias f4 [64]
-0.018407252 -0.046037942 -0.04056123 0.013488744 0.022307143 0.042331144 -0.02207111 0.010546493
0.008993704 -0.016362544 -0.0011940917 0.014032973 0.01637837 0.022343801 0.027426137 -0.012800913
-0.034195296 0.0049204533 0.0014206498 0.002997622 0.0009969918 0.019711578 0.0071369144 -0.060920287
-0.0028859333 0.00017604265 0.074265875 -0.003710676 -0.0046333135 0.007315856 -0.02281439 -0.015046532
-0.016476532 0.017630458 0.009471518 -0.011594158 -0.028309597 0.00885803 0.012508889 0.04121149
0.013879829 -0.0057832426 0.047690324 0.0035776338 0.04144188 -0.006109858 -0.014687059 0.005568227
-0.070223905 0.014388218 0.016154673 -0.01862434 0.030680725 -0.044512376 0.032150723 0.0050352453
0.009421896 0.052163556 0.027420964 -0.02272257 -0.009686283 -0.008839724 0.050923306 -0.02198625
00000000: ceca 96bc 4892 3cbd 8823 26bd e5ff 5c3c
00000010: 78bd b63c 6c63 2d3d 79ce b4bc 33cb 2c3c
00000020: 545a 133c be0a 86bc 1283 9cba 8eea 653c
00000030: ee2b 863c 590a b73c c7ac e03c ecba 51bc
00000040: 5e10 0cbd c13b a13b 1935 ba3a c073 443b
00000050: 7ead 823a 2d7a a13c c7dc e93b 8d87 79bd
00000060: ed21 3dbb 1798 3839 b518 983d d02e 73bb
00000070: 0dd3 97bb d9b9 ef3b 3ee5 babc bb85 76bc
00000080: cbf9 86bc c06d 903c 6d2e 1b3c 6cf5 3dbc
00000090: 87e9 e7bc 4521 113c 15f2 4c3c 61cd 283d
000000a0: 3968 633c 5b81 bdbb ee56 433d bc76 6a3b
000000b0: f6be 293d 3435 c8bb fea1 70bc ac75 b63b
000000c0: 8dd1 8fbd 8fbc 6b3c ce56 843c 1292 98bc
000000d0: 2556 fb3c 9c52 36bd 7ab0 033d b3fe a43b
000000e0: 4c5e 1a3c 74a9 553d eea1 e03c af24 babc
000000f0: 37b3 1ebc 7dd4 10bc f594 503d 821c b4bc

transformer.layers.0.1.fn.fn.net.0.weight f4 [128, 64]
0.028060641 -0.17122564 -0.103678495 0.10306277 0.16450925 -0.02606638 -0.11860471 0.015216793
0.1118394 -0.13204 0.067124546 0.15959404 -0.028063286 0.009515424 0.06017087 -0.11323377
-0.20625769 -0.024312561 0.026993621 0.09451789 0.115138724 0.0073652565 -0.092707716 -0.15428263
0.004168772 0.015456591 0.03294284 -0.0814671 -0.14539164 -0.10254159 0.08206578 0.05151691
0.10089121 0.04431033 0.026544387 -0.005753215 0.0558082 0.007148567 -0.083067775 0.19683976
0.12529579 -0.015975296 0.081585534 0.016023612 0.050840992 -0.041300803 0.004053902 0.15531428
-0.10258822 -0.008385552 -0.0140281 -0.05106861 -0.031956725 -0.17596655 0.00955852 -0.09463144
0.025371002 0.19499257 -0.05779711 -0.027025916 0.08592713 -0.1234136 0.051305447 -0.117805034
-0.12611182 -0.13134313 0.049593188 -0.014437958 -0.09897642 -0.04679359 0.05325368 0.02518443
-0.04003156 -0.005477254 -0.057252362 0.05118402 0.05820543 -0.054451417 -0.044140585 0.047451474
-0.093543425 0.03876685 0.12413797 -0.022879228 0.013469789 -0.039965145 0.084602356 0.039827533
0.04425255 0.039825995 -0.036957044 -0.084237464 0.0019531287 -0.12627842 0.12175577 0.082193
-0.045154 0.09967573 -0.07822798 -0.1547339 0.06724366 -0.051163804 0.05127047 -0.05165901
0.08197114 -0.113621496 -0.044570062 0.0702721 0.010982734 -0.09576962 0.09969712 0.09711175
0.051618237 0.008966746 0.15927723 -0.029162405 0.08211883 0.028977249 -0.037738983 0.11502584
0.14608969 -0.039213955 0.102986984 0.023723124 0.17740773 -0.13528481 0.02687733 -0.06678615
-0.031255763 -0.0029237932 -0.10067262 0.004606129 -0.026716016 0.009826437 -0.020845773 -0.0778582
-0.07034121 0.041951705 0.09119653 -0.057138365 0.05248806 -0.017214153 0.076007225 0.03321496
-0.12105346 -0.10315335 0.020543292 0.006679602 0.108573504 -0.02435305 0.1420175 -0.01966129
0.11742187 -0.047793224 0.10539828 0.013632759 -0.029274689 -0.01678662 -0.047795832 0.048137125
0.10983075 0.088755615 0.0072984286 0.112123705 -0.12072131 0.121581376 -0.06674393 0.13421555
0.028679935 -0.00072105095 0.13360922 0.026467936 -0.03793032 0.09266907 0.00019831251 0.06014374
0.009411101 -0.005685292 0.07582241 -0.13655892 0.04379158 -0.083382614 -0.03859555 -0.0075651407
-0.032264646 0.093845926 0.12049463 -0.09224426 0.06990351 -0.08459761 0.09082291 -0.016529761
0.086251475 0.10115678 -0.08183817 -0.10550562 0.070507504 -0.08484399 0.13054082 0.043817043
0.059341032 -0.03340573 0.089703746 -0.08263309 0.014582028 -0.047275603 0.07415766 -0.044833515
0.11218819 -0.13072538 -0.122151434 -0.07025999 0.08595457 -0.015214513 0.001157337 -0.06680464
0.10192271 0.13798541 0.037872653 -0.09119678 0.1420441 -0.05295856 0.08010281 0.08805228
-0.040469833 -0.030027013 0.03191895 -0.049018577 0.06267309 0.0042593093 -0.09878096 0.12374026
0.065298684 0.1323589 0.03420237 -0.07736866 0.053988524 -0.06481594 0.06471312 0.05395914
-0.04132938 -0.010144447 0.009654034 0.11339721 -0.0020570443 0.0925965 -0.070912555 0.043363076
-0.07245337 0.04482686 0.059592813 0.08536212 0.085290134 -0.047222763 0.056628194 -0.09591986
00000000: 6edf e53c c655 2fbe 6455 d4bd 9312 d33d
00000010: 1d75 283e 2989 d5bc 07e7 f2bd db4f 793c
00000020: 0e0c e53d 7e35 07be 9878 893d 9f6c 233e
00000030: fae4 e5bc 95e6 1b3c bb75 763d 1be7 e7bd
00000040: 3735 53be 232b c7bc ba21 dd3c 9892 c13d
00000050: dacd eb3d 4058 f13b 8bdd bdbd 44fc 1dbe
00000060: 329a 883b a43d 7d3c 12ef 063d 39d8 a6bd
00000070: 8ce1 14be 5301 d2bd 1b12 a83d 6503 533d
00000080: 0da0 ce3d c07e 353d 9d73 d93c 7785 bcbb
00000090: 2497 643d 873e ea3b 701f aabd 5d90 493e
000000a0: 8a4d 003e a0de 82bc 5116 a73d f343 833c
000000b0: a53e 503d 082b 29bd 98d6 843b b50a 1f3e
000000c0: c619 d2bd 8e63 09bc 1ed6 65bc 522d 51bd
000000d0: 0ee5 02bd 9330 34be 579b 1c3c 21ce c1bd
000000e0: d9d6 cf3c 22ac 473e aabc 6cbd 7465 ddbc
000000f0: 90fa af3d 45c0 fcbd a925 523d c443 f1bd
00000100: 7523 01be d07e 06be 3a22 4b3d 2f8d 6cbc
00000110: 26b4 cabd a3aa 3fbd 8820 5a3d 944f ce3c
00000120: 22f8 23bd 897a b3bb 7481 6abd 56a6 513d
00000130: d168 6e3d 7308 5fbd c2cc 34bd 7a5c 423d
00000140: b293 bfbd fdc9 1e3d 0c3c fe3d 386d bbbc
00000150: 64b0 5c3c 7eb2 23bd 0044 ad3d 3222 233d
00000160: 2942 353d 9520 233d 4560 17bd b184 acbd
00000170: 1000 003b 214f 01be 175b f93d ce54 a83d
00000180: 67f3 38bd ca22 cc3d fe35 a0bd 9072 1ebe
00000190: 0bb7 893d 2391 51bd fc00 523d 6698 53bd
000001a0: 7ce0 a73d 63b2 e8bd 198f 36bd d2ea 8f3d
000001b0: edf0 333c dd22 c4bd 012e cc3d 86e2 c63d
000001c0: a56d 533d 42e9 123c 9219 233e ffe5 eebc
000001d0: eb2d a83d b261 ed3c 3194 1abd ab92 eb3d
000001e0: 8998 153e d09e 20bd d7ea d23d ff56 c23c
000001f0: 5faa 353e 1a88 0abe d92d dc3c 2dc7 88bd
00000200: 0b06 00bd 1c9d 3fbb 722d cebd 03ef 963b
00000210: 8cdb dabc 10ff 203c c1c4 aabc 1f74 9fbd
00000220: 0d0f 90bd 8dd5 2b3d 3fc5 ba3d eb09 6abd
00000230: b8fd 563d b204 8dbc ada9 9b3d 690c 083d
00000240: e0ea f7bd 1042 d3bd 684a a83c 90e0 da3b
00000250: c95b de3d 0c80 c7bc 096d 113e b710 a1bc
00000260: e17a f03d d4c2 43bd 0edb d73d f05b 5f3c
00000270: 79d1 efbc 1884 89bc 90c5 43bd 6f2b 453d
00000280: f2ee e03d 81c5 b53d a827 ef3b 1da1 e53d
00000290: bc3c f7bd a8ff f83d 0bb1 88bd cd6f 093e
000002a0: 2ff2 ea3c e904 3dba dbd0 083e 49d3 d83c
000002b0: d35c 1bbd 48c9 bd3d 1cf2 4f39 4859 763d
000002c0: 0531 1a3c b04b babb c848 9b3d 1ad6 0bbe
000002d0: cd5e 333d 81c4 aabd 5e16 1ebd 00e5 f7bb
000002e0: ef27 04bd 4b32 c03d e3c5 f63d 8fea bcbd
000002f0: 9229 8f3d 8341 adbd 5d01 ba3d 6c69 87bc
00000300: 9da4 b03d 492b cf3d c59a a7bd 5513 d8bd
00000310: 3d66 903d b0c2 adbd 7eac 053e 8079 333d
00000320: 950f 733d 72d4 08bd 99b6 b73d 8a3b a9bd
00000330: 75e9 6e3c 10a4 41bd f9df 973d 59a3 37bd
00000340: ecc2 e53d e0dc 05be 882a fabd 78e4 8fbd
00000350: f308 b03d 4b46 79bc c9b1 973a dfd0 88bd
00000360: dbbc d03d 0c4c 0d3e 5b20 1b3d 61c5 babd
00000370: 0274 113e 13eb 58bd f10c a43d c154 b43d
00000380: b2c3 25bd 36fb f5bc 72bd 023d b4c7 48bd
00000390: c05a 803d ad91 8b3b ac4d cabd 896b fd3d
000003a0: 51bb 853d 1789 073e c917 0c3d 7673 9ebd
000003b0: 1223 5d3d 38be 84bd 5088 843d 4204 5d3d
000003c0: ff48 29bd e534 26bc f42b 1e3c cc3c e83d
000003d0: 7acf 06bb 3ca3 bd3d 9a3a 91bd 7b9d 313d
000003e0: 6f62 94bd 5f9c 373d 9817 743d 56d2 ae3d
000003f0: 98ac ae3d a86c 41bd f7f2 673d a271 c4bd

transformer.layers.0.1.fn.fn.net.0.bias f4 [128]
0.034860663 0.03586003 0.021657843 -0.08480666 0.035443228 -0.093706094 -0.099006 0.07113047
-0.081395134 0.10721069 0.0010377794 -0.059376124 0.006561438 -0.00849706 -0.10651514 -0.017594898
-0.120398656 -0.047963884 -0.13177958 0.07238429 0.0030979267 -0.09692383 -0.083464816 -0.055521157
-0.035679083 -0.057236202 0.04845278 -0.053364508 0.08336895 0.0069605554 -0.056553483 0.05412006
-0.13319917 0.10270056 -0.074302845 -0.01898978 -0.08933086 -0.0815084 -0.11680082 0.0908717
0.102346055 -0.07593668 0.063781284 -0.08709283 -0.021353416 -0.06388009 -0.034826197 0.07667189
0.04092311 -0.14578857 0.051584113 -0.06104694 0.0057582827 -0.0005871318 -0.045188278 -0.02776986
-0.054947853 -0.07630331 -0.15118477 0.0896292 0.10984986 -0.06029372 0.015933711 -0.086469814
-0.120347984 0.01752581 -0.021002991 0.013453395 0.0952658 0.051982135 -0.08720778 -0.0946716
0.015520571 0.016983472 0.05036093 0.016811483 -0.10529225 0.12338133 0.041808717 -0.02017008
0.036086395 0.08447406 0.048917755 0.12973467 -0.048171103 0.044555154 -0.0878672 0.051429603
0.11498394 -0.102251776 0.048395768 -0.09843064 -0.12399582 0.0092998 0.032775864 0.11230106
0.038140852 0.05001198 -0.010551932 -0.07946579 -0.008339915 -0.07657707 -0.13334912 0.023933535
-0.041769337 -0.124994814 -0.02066615 0.0035338353 -0.0073236884 -0.102697335 -0.10540696 0.010204357
0.034935754 0.0053430237 -0.050998848 0.08378379 0.06666094 0.031092057 -0.060588125 -0.08526899
0.059099916 -0.11481871 -0.08292046 0.022561468 -0.033617083 -0.11632706 0.1277452 0.00256875
00000000: 0eca 0e3d f8e1 123d ca6b b13c 1daf adbd
00000010: eb2c 113d fbe8 bfbd a8c3 cabd daac 913d
00000020: 7eb2 a6bd 4791 db3d 1906 883a 6134 73bd
00000030: 5501 d73b 4137 0bbc 9c24 dabd 2d23 90bc
00000040: 9293 f6bd c775 44bd 3af1 06be 373e 943d
00000050: 9606 4b3b 0080 c6bd 9aef aabd 276a 63bd
00000060: 3b24 12bd 8270 6abd 6c76 463d be94 5abd
00000070: 57bd aa3d 5f15 e43b a0a4 67bd ffac 5d3d
00000080: 5d65 08be ac54 d23d 172c 98bd 7590 9bbc
00000090: 19f3 b6bd e0ed a6bd 4535 efbd f11a ba3d
000000a0: cf9a d13d b184 9bbd c39f 823d ba5d b2bd
000000b0: 5ced aebc 91d3 82bd eaa5 0ebd 2706 9d3d
000000c0: fe9e 273d 9949 15be dd49 533d 5b0c 7abd
000000d0: faaf bc3b c0e9 19ba 5817 39bd 9e7d e3bc
000000e0: 0011 61bd e944 9cbd 2ed0 1abe 848f b73d
000000f0: f7f8 e03d 8cf6 76bd 6a87 823c 1617 b1bd
00000100: 0179 f6bd 4a92 8f3c 770e acbc a16b 5c3c
00000110: b71a c33d 38eb 543d fe99 b2bd 2fe3 c1bd
00000120: fe49 7e3c ec20 8b3c 4347 4e3d 3cb8 893c
00000130: 77a3 d7bd 5aaf fc3d 9e3f 2b3d b93b a5bc
00000140: 54cf 133d bc00 ad3d fc5d 483d 2ad9 043e
00000150: 104f 45bd 777f 363d b8f3 b3bd d9a7 523d
00000160: b37c eb3d 6169 d1bd a43a 463d 0196 c9bd
00000170: 85f1 fdbd 305e 183c fc3f 063d 19fe e53d
00000180: 9539 1c3d 5dd9 4c3d 03e2 2cbc f6be a2bd
00000190: 24a4 08bc 70d4 9cbd ac8c 08be 4310 c43c
000001a0: 5316 2bbd 48fd ffbd 0f4c a9bc eb97 673b
000001b0: 8dfb efbb fb52 d2bd 9bdf d7bd 2d30 273c
000001c0: cb18 0f3d 8814 af3b 2be4 50bd d696 ab3d
000001d0: 8885 883d c5b4 fe3c 412b 78bd 82a1 aebd
000001e0: c112 723d 1226 ebbd 34d2 a9bd d4d2 b83c
000001f0: 11b2 09bd e23c eebd a3cf 023e 7958 283b
