model_training/trained_models/multicolor_data/old_1_dim_regression/model_5.pth (torch, 453160 bytes, 18 tensors)

pos_embedding f4 [1, 1025, 64]
1.9149203 1.4621333 0.8865899 -2.1053412 0.6519088 -1.195687 -0.051883 -1.6020285
-0.70644665 1.6304396 -0.40595862 -1.3935763 -0.71102107 -0.52708787 -0.74519074 0.75849986
1.6285843 -0.14109851 -0.46231967 0.45461398 -0.7465974 1.0435975 0.81210697 1.6742318
1.2599989 1.2904769 0.6212768 1.2932476 -0.23886943 0.035772435 -0.26139998 0.8440381
-1.3924049 -0.84003067 -0.21559054 1.690991 0.27719197 -0.44111285 0.3471546 -0.77404255
-1.5337948 0.9860992 -0.8692906 -0.5982992 -1.2360661 2.1096144 -1.2394222 -0.47019076
-0.9221098 -0.6363443 0.08355018 0.50136137 -0.47734246 1.1860125 -0.82470244 -0.72324544
-1.3700378 0.040403362 -0.04282363 0.6576902 -0.085267395 1.8378491 -1.1776549 1.3669412
1.4517097 0.87571025 2.2398832 0.51193976 0.3379865 -0.1683478 -1.0502658 1.2803519
-0.16363774 0.52254087 0.047443505 0.42396507 0.5869302 -0.64505637 -2.2241085 -0.7398005
0.035517924 -0.32379097 -1.3592044 -0.5891243 0.5529806 0.52470136 1.1374377 0.052483685
0.73671985 -0.5099265 -1.0523466 0.6011198 -1.7149812 -0.8450133 1.3420471 0.49088725
-2.5208485 0.47811854 0.78083485 0.030627327 0.6319535 0.59662336 1.0765599 -0.43927217
-0.17915526 0.7444514 0.40740094 0.16797362 0.26550123 1.2807915 0.0019090294 -0.2615282
-1.4711413 -0.118414804 -0.6138616 0.46445695 0.7262428 0.08796961 -0.41263378 0.5434743
-0.0249816 0.2389109 0.09649731 0.7781413 1.1013315 0.33523592 0.7065781 0.4218933
1.9350119 1.038396 -1.432017 -1.1443816 -0.12459817 1.6471418 0.6580461 0.57642955
1.1485738 0.01458416 -1.8312898 0.9294471 -0.3471507 1.0352341 -0.67702746 0.65258634
-0.97553337 0.9852457 1.6195319 1.4449424 0.28290722 -0.21270457 -0.74761665 0.12623319
0.34280038 0.93757683 -0.4651308 1.6085675 -2.469076 -0.4264366 -1.1966653 0.8161541
-1.8948025 0.213268 0.00649102 -0.34300157 0.27461085 -0.72129166 0.17970154 -1.0884705
-1.6013399 1.3347486 1.3067608 0.045721833 -1.5586607 0.7613984 0.7741721 2.0401628
0.02488766 0.10835577 -0.8279955 -0.21849681 -0.9337571 -1.6071582 -1.147847 -0.5080207
-0.5208785 -1.5117674 -1.9591908 0.13374156 1.0429038 -0.5577603 0.6924113 0.7207567
1.7835615 -0.9173254 0.97231007 -0.35706544 -1.1861798 0.35922286 0.4843422 1.3533481
0.53344506 2.1132374 -0.53424233 -0.94495016 0.17296633 1.0737658 1.3165005 0.46971437
-0.80695504 -1.0025088 -0.5071149 -0.5932086 0.1652147 0.43218425 -0.16946375 -2.338357
-0.3968515 1.0482777 -1.783399 1.5053365 0.31533608 -0.5253967 1.0333675 1.6988047
-0.0049343393 1.6541551 0.14107203 -1.0758655 -0.58716404 0.09755758 0.40887356 2.0060441
-0.0676827 -0.9053686 -2.050144 -1.0984762 0.013542769 0.08769421 0.19372803 0.4550724
-0.93774015 0.26044074 -0.5560959 0.4630696 -0.87138736 -0.03039952 -0.40681157 1.4763066
1.2443874 -0.71150285 0.8243964 0.5282784 0.5471493 0.56103516 0.49532226 0.23380263
00000000: 1c1c f53f 2f27 bb3f 8ef7 623f e9bd 06c0
00000010: 7fe3 263f 460c 99bf 4583 54bd 450f cdbf
00000020: b0d9 34bf 3fb2 d03f cfd9 cfbe b560 b2bf
00000030: 7a05 36bf 3bef 06bf d2c4 3ebf 0c2d 423f
00000040: 7375 d03f 217c 10be 2ab5 ecbe 2ac3 e83e
00000050: 0221 3fbf 9a94 853f 3ee6 4f3f 3a4d d63f
00000060: a547 a13f 592e a53f ff0b 1f3f 2389 a53f
00000070: 309a 74be 1e86 123d 38d6 85be e212 583f
00000080: 533a b2bf 400c 57bf c4c3 5cbe 6572 d83f
00000090: 1bec 8d3e 8bd9 e1be 3fbe b13e a727 46bf
000000a0: 6353 c4bf ff70 7c3f d489 5ebf 232a 19bf
000000b0: 6a37 9ebf ec03 0740 63a5 9ebf d8bc f0be
000000c0: 630f 6cbf 76e7 22bf 5b1c ab3d 3859 003f
000000d0: 3b66 f4be 42cf 973f b31f 53bf 9d26 39bf
000000e0: 665d afbf ff7d 253d d567 2fbd 635e 283f
000000f0: aca0 aebd a43e eb3f 65bd 96bf eef7 ae3f
00000100: a0d1 b93f 8c2e 603f 3f5a 0f40 7c0e 033f
00000110: 910c ad3e 5e63 2cbe 1c6f 86bf 92e2 a33f
00000120: a790 27be 3dc5 053f 1f54 423d f311 d93e
00000130: 0f41 163f 6a22 25bf cb57 0ec0 9163 3dbf
00000140: 3e7b 113d eec7 a5be 69fa adbf dad0 16bf
00000150: 2390 0d3f d452 063f 8f97 913f 22f9 563d
00000160: ac99 3c3f 8b8a 02bf 4bb3 86bf fde2 193f
00000170: 8184 dbbf cb52 58bf 33c8 ab3f 9355 fb3e
00000180: 9555 21c0 f4cb f43e cbe4 473f 29e6 fa3c
00000190: b4c7 213f 4fbc 183f b7cc 893f 48e8 e0be
000001a0: 7a74 37be 5e94 3e3f db96 d03e 4701 2c3e
000001b0: c7ef 873e faf0 a33f 6638 fa3a 06e7 85be
000001c0: 5c4e bcbf 7683 f2bd 0926 1dbf 4dcd ed3e
000001d0: 0ceb 393f 6929 b43d bc44 d3be 2221 0b3f
000001e0: 36a6 ccbc 0fa5 743e 62a0 c53d 4534 473f
000001f0: 6ef8 8c3f 0ba4 ab3e 4de2 343f 6602 d83e
00000200: 78ae f73f 29ea 843f 554c b7bf 197b 92bf
00000210: 532d ffbd 8bd5 d23f b675 283f e390 133f
00000220: 7704 933f 67f2 6e3c b467 eabf 3ff0 6d3f
00000230: bdbd b1be 8d82 843f ac51 2dbf e60f 273f
00000240: 8ebc 79bf 1039 7c3f d24c cf3f dff3 b83f
00000250: 37d9 903e 3acf 59be ce63 3fbf 4643 013e
00000260: 8883 af3e 0905 703f a025 eebe 8ae5 cd3f
00000270: 5705 1ec0 e655 dabe 542c 99bf 7aef 503f
00000280: e388 f2bf ed62 5a3e 9fb2 d43b e79d afbe
00000290: cb99 8c3e 92a6 38bf ae03 383e 0053 8bbf
000002a0: b5f8 ccbf 0bd9 aa3f f043 a73f d146 3b3d
000002b0: 3282 c7bf 01eb 423f 2530 463f 0792 0240
000002c0: 35e1 cb3c a1e9 dd3d 83f7 53bf a1bd 5fbe
000002d0: b50a 6fbf 5cb7 cdbf a7ec 92bf a50d 02bf
000002e0: 4b58 05bf 9881 c1bf c4c6 fabf 8cf3 083e
000002f0: df7d 853f 61c9 0ebf de41 313f 8383 383f
00000300: be4b e43f d6d5 6abf 50e9 783f 48d1 b6be
00000310: bdd4 97bf 0fec b73e b3fb f73e 833a ad3f
00000320: db8f 083f 483f 0740 1bc4 08bf 41e8 71bf
00000330: 161e 313e 2871 893f 1783 a83f 677e f03e
00000340: 9b94 4ebf 3552 80bf 48d2 01bf 85dc 17bf
00000350: 0b2e 293e 4147 dd3e e887 2dbe a4a7 15c0
00000360: 1f30 cbbe f72d 863f 6b46 e4bf deae c03f
00000370: bb73 a13e 6680 06bf 6345 843f 6f72 d93f
00000380: 3db0 a1bb 5bbb d33f 3075 103e f6b5 89bf
00000390: 6250 16bf 45cc c73d e057 d13e 0763 0040
000003a0: 3a9d 8abd 3dc6 67bf 8f35 03c0 de9a 8cbf
000003b0: 7de2 5d3c 0699 b33d a460 463e 40ff e83e
000003c0: bd0f 70bf 7d58 853e 4d5c 0ebf 7517 ed3e
000003d0: 3e13 5fbf 6a08 f9bc 9b49 d0be 9df7 bc3f
000003e0: 1648 9f3f 0d25 36bf a40b 533f 413d 073f
000003f0: fa11 0c3f 00a0 0f3f e19a fd3e f569 6f3e

cls_token f4 [1, 1, 64]
-0.6377536 1.5421834 0.9640621 0.40543297 -0.37711856 -0.36912727 1.7933834 1.4204001
-1.4725449 -0.101671025 0.66508406 0.773097 0.1543335 -1.5997819 -0.6349866 -0.016154468
1.2911088 -1.4593396 -2.0907133 -1.3603033 0.47698203 0.61875653 -0.94473445 1.0518763
0.17351577 -0.76913905 -1.1654853 0.9989191 1.016903 0.5431627 0.04970611 2.3473723
1.5549986 -0.31189802 -0.86889964 -0.48610297 1.4042064 1.9645507 -1.4418676 0.54191464
0.055283643 0.38381994 -0.4156681 -0.9610922 -0.54393077 0.31387612 2.0012844 -1.0979273
1.712038 0.021487888 -0.8554493 1.0132575 -1.005181 -0.5681872 1.1723957 -0.009391664
0.06696436 -0.8672419 -1.1255167 1.5292131 -0.5708706 0.9321674 -0.45596159 0.81186885
00000000: d243 23bf 4466 c53f c6cc 763f e994 cf3e
00000010: af15 c1be 40fe bcbe 968d e53f accf b53f
00000020: 5a7c bcbf e638 d0bd f342 2a3f afe9 453f
00000030: 9a09 1e3e a7c5 ccbf 7b8e 22bf 6056 84bc
00000040: 0e43 a53f a4cb babf 3fce 05c0 6b1e aebf
00000050: fd36 f43e d466 1e3f 1eda 71bf e2a3 863f
00000060: 1eae 313e 4ce6 44bf 9f2e 95bf 2ab9 7f3f
00000070: e129 823f b60c 0b3f a298 4b3d 593b 1640
00000080: 320a c73f 19b1 9fbe 3570 5ebf 7de2 f8be
00000090: 09bd b33f 6676 fb3f 1e8f b8bf ebba 0a3f
000000a0: 1a71 623d 0c84 c43e 73d2 d4be 230a 76bf
000000b0: 0c3f 0bbf 5fb4 a03e 0b15 0040 e288 8cbf
000000c0: 1024 db3f 5e07 b03c bafe 5abf 6cb2 813f
000000d0: c5a9 80bf b774 11bf 1011 963f 7edf 19bc
000000e0: 9c24 893d 9103 5ebf ee10 90bf 41bd c33f
000000f0: 9324 12bf 86a2 6e3f cc73 e9be a3d6 4f3f

patch_to_embedding.weight f4 [64, 64]
0.035110593 -0.018251583 -0.028977545 0.0029523948 -0.019156713 -0.0780626 -0.108208746 -0.08100052
0.12816459 0.10612174 0.050383948 0.040541735 0.101260476 0.10266802 0.06646449 0.00063693454
0.059247904 -0.05736796 0.0644025 0.10035376 0.034359187 -0.065070055 0.034135602 0.10900967
-0.0005381913 0.06188562 0.022461832 0.06860056 0.052859716 0.022083905 -0.10636868 0.11270829
-0.1055516 -0.09659534 0.11873534 -0.021980321 -0.10686439 0.10328451 -0.034095448 0.0986006
0.10395834 -0.110837385 -0.11669751 0.009301434 -0.029331453 -0.11398108 -0.06949046 0.09092578
0.06363064 0.05272781 0.06535643 0.065099016 0.08795252 -0.007880492 0.00033460752 0.12877731
0.017501175 -0.012478635 0.1013175 0.07785238 0.015605191 0.07343345 0.12020954 0.0008000654
-0.038723134 0.049112447 0.13466789 -0.049510684 -0.089494586 -0.026861599 0.039256506 -0.07939987
-0.056760583 0.03253445 0.12370896 0.081284605 0.09867988 0.06941974 0.055135712 0.13664481
-0.019739185 0.008886843 0.03995217 0.031133926 0.020698713 -0.03156808 0.12671217 0.091269776
-0.07928753 0.0434011 -0.09725721 0.13099518 0.06637008 0.085555844 0.1439644 0.12480729
0.0922824 -0.019401187 0.0072223805 0.09931641 0.11774191 -0.01583517 0.12768713 0.10338144
0.12697358 0.010425038 0.026427135 -0.048073653 -0.09526791 0.0034706572 0.046006896 -0.0686769
0.055826336 -0.0905641 -0.093323484 0.13540341 -0.07251441 0.017129233 -0.014913861 0.075242795
0.03744305 -0.030548679 -0.048319224 -0.07952744 -0.009617548 0.08292636 -0.0010414452 -0.07814314
0.042043943 -0.11289185 -0.09943889 0.08205854 -0.10904231 0.0054919636 -0.08001632 0.10035667
-0.07177161 -0.11126803 0.10035212 0.018203957 -0.08927606 0.070802115 -0.099073105 0.048518606
-0.04205175 0.074932635 0.08939725 -0.008652779 0.10939842 0.028558401 0.002421983 0.11720352
0.07817576 -0.05107046 0.059608053 -0.06304352 0.01609836 -0.09367949 0.08743653 -0.11024444
-0.016702646 0.07934626 -0.035821304 0.13105671 0.0452544 0.004972388 0.067718536 -0.08003672
0.07179719 -0.114622965 0.04631816 -0.009179325 0.11243343 -0.01704893 0.022324728 -0.10517327
0.091831535 -0.111536704 0.07510359 0.04511826 0.10861972 0.122869514 0.018879544 -0.09317248
0.11654044 -0.0592581 -0.09664095 0.06683894 -0.05079503 0.095970385 0.097212195 -0.031685814
-0.026211653 -0.046249576 -0.054480523 -0.11195697 -0.04875518 0.10605582 0.05759113 0.01726347
-0.107280076 0.032208953 -0.030054083 -0.07414675 0.033020105 -0.08259531 -0.004182101 -0.053465378
-0.12610473 0.05064581 -0.008288897 0.05939307 -0.0547304 -0.007990571 -0.08697794 0.062199906
-0.07896307 0.0042049144 0.09672493 -0.12817855 -0.07848373 0.044160705 -0.039152395 -0.06978222
-0.14053942 0.0976795 0.040448546 -0.021792388 0.012335754 0.06958518 0.10107649 -0.07877384
-0.09569513 -0.11138398 -0.11400126 0.052132156 -0.12949596 0.08116447 0.093000926 -0.11533832
0.08492644 0.0695538 -0.1385738 -0.059837006 0.0498173 -0.048480436 -0.0573183 -0.042256054
0.06925745 -0.10737777 -0.056583013 -0.055739064 0.013117955 -0.08543887 -0.08532734 -0.04768945
00000000: 20d0 0f3d 5884 95bc 5162 edbc f77c 413b
00000010: 8aee 9cbc 49df 9fbd 8c9c ddbd 9ae3 a5bd
00000020: 943d 033e 5b56 d93d 665f 4e3d 170f 263d
00000030: a761 cf3d 9c43 d23d 891e 883d f4f7 263a
00000040: eead 723d abfa 6abd 75e5 833d 4686 cd3d
00000050: 38bc 0c3d 7343 85bd c6d1 0b3d 7640 df3d
00000060: 6815 0dba c77b 7d3d e001 b83c 737e 8c3d
00000070: 6e83 583d 4ee9 b43c d3d7 d9bd 9bd3 e63d
00000080: 702b d8bd c7d3 c5bd 842b f33d 1310 b4bc
00000090: b8db dabd d486 d33d aba7 0bbd 1def c93d
000000a0: 1ce8 d43d b6fe e2bd 1bff eebd 0b65 183c
000000b0: 8448 f0bc ea6e e9bd 0451 8ebd 4c37 ba3d
000000c0: c850 823d 1ef9 573d 98d9 853d a252 853d
000000d0: 7320 b43d 2e1d 01bc 436e af39 33de 033e
000000e0: a05e 8f3c 3073 4cbc 8d7f cf3d 1271 9f3d
000000f0: eaac 7f3c 4764 963d 6b30 f63d 7bbb 513a
00000100: 269c 1ebd 222a 493d 61e6 093e b7cb 4abd
00000110: f048 b7bd db0c dcbc 6ecb 203d 669c a2bd
00000120: c97d 68bd d842 053d 205b fd3d 8b78 a63d
00000130: ad18 ca3d f02b 8e3d fcd5 613d 9eec 0b3e
00000140: 12b4 a1bc 1f9a 113c e3a4 233d 930c ff3c
00000150: 5990 a93c 884d 01bd d6c0 013e a6eb ba3d
00000160: 8061 a2bd 5ac5 313d ca2e c7bd 9a23 063e
00000170: 09ed 873d e737 af3d 676b 133e f79a ff3d
00000180: 8efe bc3d 3def 9ebc b8a9 ec3b 6766 cb3d
00000190: ac22 f13d c2b8 81bc 6ac0 023e a6b9 d33d
000001a0: 5d05 023e c7cd 2a3c b87d d83c e1e8 44bd
000001b0: d21b c3bd f773 633b ba71 3c3d 79a6 8cbd
000001c0: 28aa 643d ac79 b9bd 6220 bfbd 31a7 0a3e
000001d0: 6f82 94bd 9b52 8c3c 4459 74bc e518 9a3d
000001e0: e25d 193d 3941 fabc 61ea 45bd 48df a2bd
000001f0: ec92 1dbc 4cd5 a93d 1a81 88ba 8309 a0bd
00000200: 4536 2c3d d833 e7bd 9ea6 cbbd 4f0e a83d
00000210: 9351 dfbd eef5 b33b 99df a3bd cc87 cd3d
00000220: fefc 92bd 7ee0 e3bd 6a85 cd3d 7720 953c
00000230: 5ed6 b6bd b300 913d d7e6 cabd 72bb 463d
00000240: 753e 2cbd 4876 993d e815 b73d 63c4 0dbc
00000250: 470c e03d 4ff3 e93c 22ba 1e3b 6608 f03d
00000260: 9d1a a03d 422f 51bd 9327 743d f61c 81bd
00000270: b5e0 833c 08db bfbd ec11 b33d d6c7 e1bd
00000280: fdd3 88bc 4b80 a23d 5cb9 12bd bb33 063e
00000290: ae5c 393d 6aef a23b 04b0 8a3d 4bea a3bd
000002a0: 680a 933d 72bf eabd 1cb8 3d3d e164 16bc
000002b0: 8043 e63d 33aa 8bbc 59e2 b63c 1565 d7bd
000002c0: 2c12 bc3d 5b6d e4bd e9cf 993d edcd 383d
000002d0: 0474 de3d 03a3 fb3d 46a9 9a3c 37d1 bebd
000002e0: c1ac ee3d 9fb8 72bd b1eb c5bd dbe2 883d
000002f0: 730e 50bd 1f8c c43d 3017 c73d fcc8 01bd
00000300: d2b9 d6bc 3270 3dbd f826 5fbd b249 e5bd
00000310: 83b3 47bd cb33 d93d ade4 6b3d 1f6c 8d3c
00000320: a8b5 dbbd 89ed 033d fb33 f6bc 40da 97bd
00000330: 1740 073d bb27 a9bd 020a 89bb 83fe 5abd
00000340: 9921 01be fb71 4f3d 27ce 07bc 2646 733d
00000350: fc2c 60bd e2ea 02bc 7d21 b2bd 54c5 7e3d
00000360: 64b7 a1bd 61c9 893b b817 c63d 3d41 03be
00000370: 14bc a0bd dbe1 343d 435e 20bd fbe9 8ebd
00000380: 91e9 0fbe 310c c83d 60ad 253d f385 b2bc
00000390: e71b 4a3c ad82 8e3d 3101 cf3d 2e54 a1bd
000003a0: cffb c3bd 491d e4bd 7e79 e9bd 8788 553d
000003b0: 979a 04be 8f39 a63d 4577 be3d 7f36 ecbd
000003c0: eaed ad3d 3972 8e3d 4ae6 0dbe a617 75bd
000003d0: 3a0d 4c3d 6c93 46bd 98c6 6abd af14 2dbd
000003e0: dad6 8d3d e0e8 dbbd 97c3 67bd a54e 64bd
000003f0: b1ec 563c 93fa aebd 1ac0 aebd 0356 43bd

patch_to_embedding.bias f4 [64]
-0.07037825 0.13143516 0.116590835 0.08970323 0.069533564 0.044308446 0.029424641 0.008609864
0.12456754 0.10554918 -0.034065865 -0.09984143 0.058987442 0.055352457 -0.0049705934 0.10314562
0.077909306 -0.056213237 0.11982348 -0.103767864 0.015733298 -0.091573015 0.05146232 -0.048486013
0.02825486 -0.045327567 -0.062307145 0.09091834 -0.06865066 0.08839818 -0.10526912 -0.1093893
-0.10718317 0.023671951 -0.027234921 -0.012955332 0.010772187 -0.08045674 -0.09354357 0.027155578
-0.07389248 -0.09566671 -0.0055363276 -0.062277645 -0.020442953 0.05773059 0.07693235 0.068984695
-0.0759637 0.0053738505 0.06023592 -0.06541966 0.073147684 0.03241191 -0.13442287 0.035425432
0.012074064 -0.0728544 -0.07781451 0.0646607 0.04000704 0.10173249 -0.058867764 0.13116652
00000000: 7922 90bd f096 063e 2dc7 ee3d 54b6 b73d
00000010: 9d67 8e3d c67c 353d f20b f13c 6310 0d3c
00000020: 441d ff3d 2b2a d83d a688 0bbd aa79 ccbd
00000030: d19c 713d 42b9 623d 5ce0 a2bb 033e d33d
00000040: ea8e 9f3d da3f 66bd 0366 f53d 3f84 d4bd
00000050: 1ee3 803c a28a bbbd 27ca 523d 4599 46bd
00000060: bc76 e73c 66a9 39bd c735 7fbd 6533 ba3d
00000070: b898 8cbd 1b0a b53d 5697 d7bd 7f07 e0bd
00000080: da82 dbbd aeeb c13c c51b dfbc 9a42 54bc
00000090: d47d 303c 81c6 a4bd c593 bfbd 6075 de3c
000000a0: f154 97bd e8ec c3bd 156a b5bb d816 7fbd
000000b0: fb77 a7bc e976 6c3d b58e 9d3d d947 8d3d
000000c0: db92 9bbd 2017 b03b f1b9 763d befa 85bd
000000d0: 74ce 953d 5ac2 043d 26a6 09be 421a 113d
000000e0: 4cd2 453c b034 95bd 375d 9fbd d46c 843d
000000f0: 6cde 233d 2059 d03d 531f 71bd 8450 063e

transformer.layers.0.0.fn.norm.weight f4 [64]
0.99814117 1.0024624 0.9972241 0.99656504 0.98680216 0.96997595 0.9863877 0.9807149
0.9940022 0.97172874 0.98442113 0.9944726 0.9617795 0.98892456 0.9750686 0.98953974
0.9723485 0.959485 0.958373 0.9931734 0.9718959 0.9972433 0.9869058 0.982611
0.96355134 0.97448206 0.9867513 0.97533244 0.98349243 0.97351694 0.98483 0.9796562
0.97707236 0.9970673 1.0119003 0.99677265 0.9896053 0.9817905 0.9856278 0.965708
0.9859965 0.95326257 0.9824692 0.97104377 0.94973034 0.9944492 0.97062117 1.03026
0.9893695 0.9538732 0.9683091 0.9876339 0.99452305 0.98636353 1.0047634 0.97698885
0.9705775 0.95683867 0.9791985 0.9798302 0.97064734 0.9758981 0.961137 0.97046137
00000000: 2e86 7f3f b050 803f 144a 7f3f e31e 7f3f
00000010: 119f 7c3f 5850 783f e883 7c3f 2210 7b3f
00000020: ee76 7e3f 37c3 783f 0603 7c3f c295 7e3f
00000030: 2e37 763f 292a 7d3f 199e 793f 7a52 7d3f
00000040: d5eb 783f cfa0 753f ef57 753f 9d40 7e3f
00000050: 2bce 783f 564b 7f3f dca5 7c3f 658c 7b3f
00000060: 4dab 763f a877 793f bc9b 7c3f 63af 793f
00000070: 29c6 7b3f 6838 793f d21d 7c3f c0ca 7a3f
00000080: 6a21 7a3f cd3f 7f3f f385 813f 7e2c 7f3f
00000090: c656 7d3f 9f56 7b3f 1a52 7c3f a438 773f
000000a0: 446a 7c3f 0409 743f 1a83 7b3f 5396 783f
000000b0: 8721 733f 3994 7e3f a17a 783f 8fdf 833f
000000c0: 5247 7d3f 0931 743f 1be3 773f 93d5 7c3f
000000d0: 1099 7e3f 5282 7c3f 169c 803f f11b 7a3f
000000e0: c477 783f 61f3 743f c1ac 7a3f 27d6 7a3f
000000f0: 587c 783f 75d4 793f 130d 763f 2870 783f

transformer.layers.0.0.fn.norm.bias f4 [64]
0.004071515 0.027526285 0.00600746 -0.0049678567 -0.009259426 0.008734847 0.006050069 -0.0132578
0.0020093322 -0.0030484302 -0.010989973 -0.0024767255 0.0151103875 -0.0018768697 0.0012035598 0.007340054
0.014705754 0.03167457 -0.0031556636 -0.0015987545 0.00049391645 -0.005565344 -0.017041873 -0.009820246
-0.0036532083 -0.025352875 0.0005771177 -0.0013743892 0.008275198 -0.016721578 -0.00071846694 0.007875487
0.0054631806 -0.017474385 -0.023493765 0.032630146 -0.006059413 0.018145477 0.008278698 0.0030888517
0.005795714 -0.009182034 0.0062876013 -0.003830857 0.0050766706 0.0013755265 -0.0020100235 0.044003632
-0.0027635538 -0.014598306 -0.0065248804 -0.006775819 0.0005327447 -0.0025122287 -0.027589105 0.008626704
-0.0072769606 0.0054137316 -0.028017754 0.0055846884 -0.0018939796 -0.00482581 -0.011464025 0.008184127
00000000: 586a 853b ce7e e13c 3ada c43b 67c9 a2bb
00000010: d9b4 17bc 9b1c 0f3c a83f c63b 3e37 59bc
00000020: 00af 033b 2cc8 47bb 4a0f 34bc 8f50 22bb
00000030: 8f91 773c 4c01 f6ba c4c0 9d3a d684 f03b
00000040: 67f0 703c 32bd 013d 40cf 4ebb 4d8d d1ba
00000050: 2c7a 013a 7d5d b6bb 669b 8bbc 19e5 20bc
00000060: aa6a 6fbb d5b0 cfbc b749 173a d924 b4ba
00000070: b294 073c b1fb 88bc 8057 3cba 3008 013c
00000080: 7b04 b33b 7126 8fbc ff75 c0bc 30a7 053d
00000090: 0a8e c6bb d3a5 943c 60a3 073c 556e 4a3b
000000a0: f9e9 bd3b 3e70 16bc 3908 ce3b 1e0f 7bbb
000000b0: 335a a63b 034b b43a 99ba 03bb 273d 343d
000000c0: bd1c 35bb bc2d 6fbc aace d5bb b107 debb
000000d0: e4a7 0b3a 34a4 24bb 8c02 e2bc 0557 0d3c
000000e0: 9273 eebb ac65 b13b 7d85 e5bc c3ff b63b
000000f0: 693f f8ba d421 9ebb 9bd3 3bbc b716 063c

transformer.layers.0.0.fn.fn.to_qkv.weight f4 [192, 64]
0.115835115 0.05631966 0.018427901 0.030031374 0.021827523 0.06487368 -0.052955914 -0.039397944
-0.06360391 0.02765188 -0.06648509 0.062670834 -0.027693747 0.11776408 0.04309854 -0.11221081
0.023623578 0.044570424 -0.08498985 0.014147438 0.040250853 -0.114469096 -0.114438415 -0.0022829433
0.05012909 -0.06528841 -0.07116111 -0.059710473 0.031601097 -0.04119899 -0.059414532 0.014886434
-0.0042360197 -0.021955222 0.07477619 -0.0954479 -0.009301653 -0.009420669 0.04398341 -0.07527212
0.014158758 -0.1126426 0.095564164 0.019417785 -0.01953702 -0.10389539 0.09635622 0.081542775
0.090836264 -0.08601319 -0.005382308 -0.07249406 -0.07807397 -0.091827005 0.08291647 -0.029548015
0.060458213 -0.0276867 -0.014140784 0.002916582 -0.099140786 -0.10893941 0.045643803 0.00016274143
0.030736463 0.039145973 0.04251156 0.039619956 0.009854268 -0.0655993 -0.07009212 -0.014522301
0.04556204 -0.032392405 -0.016507072 -0.09664617 0.08691007 -0.14867486 0.033897955 -0.03718543
-0.06611512 0.0748606 -0.007759829 0.024193592 -0.070065625 -0.076568194 -0.013865623 0.082432084
0.14224267 -0.03604387 0.086958654 0.15546885 -0.04088364 -0.008479068 0.07622982 0.08116703
-0.07003104 -0.1450115 -0.15424845 -0.033523683 0.08464196 -0.028048273 0.08787588 -0.051222388
0.042736508 -0.041317098 0.07835201 0.0008342335 0.058992486 0.091352925 -0.06915101 0.04902026
-0.0020524557 -0.111240745 0.0477514 -0.06860434 0.005379865 -0.07441797 -0.066319264 0.023539424
-0.0018352187 0.07957511 0.0609164 -0.068320796 0.06974236 0.14935492 -0.030272946 0.10230325
0.129375 -0.0604906 0.11202774 0.039871804 -0.08282472 -0.003559052 0.099168085 -0.0006852936
-0.073601715 0.060850196 0.120466605 0.012086498 -0.12782313 -0.07567227 0.0837102 0.11675332
-0.023311917 -0.1387291 0.04852455 0.07766098 -0.11704157 -0.056997087 -0.063132405 0.024248803
0.06890676 0.10624326 -0.081444316 0.11962551 -0.0502313 0.1073411 -0.021486312 -0.01690127
0.054867283 -0.010471163 0.019183233 -0.0051768967 0.052107453 -0.0318428 -0.11215924 -0.13071992
0.0045417347 0.02430221 -0.015685126 -0.097567655 0.010372156 -0.06673184 0.0644888 -0.1335922
-0.08484471 -0.1385947 0.075405814 0.1512252 0.020041471 0.071267515 0.15216346 -0.104733765
0.047895778 0.0157921 0.05059291 0.09582317 -0.05159345 -0.06404768 -0.09262195 0.038961098
0.06742431 -0.041549634 0.09777445 -0.0035627265 -0.1060087 -0.09529112 -0.011168089 0.08169785
-0.023044705 0.10158884 0.08649755 0.11536066 0.053388424 0.011575307 -0.057538543 -0.073478326
-0.10192846 -0.081883304 0.06333313 0.031902965 -0.0987285 0.029237181 0.10328528 -0.084520094
0.0746234 -0.024856908 -0.10589508 0.031931806 0.015758147 -0.098056406 0.093279324 -0.09099443
-0.025435569 -0.027301714 -0.07614498 0.03033923 0.048434675 -0.078258485 -0.031900644 0.085198924
-0.09315679 0.04823832 0.07131045 -0.08720362 -0.07908146 0.0839409 -0.013831568 0.08537735
0.049360897 -0.01141303 -0.014341031 -0.08283472 -0.009349361 -0.07390741 -0.10437814 -0.08999155
-0.0065220734 -0.041976746 -0.06370029 -0.046120934 -0.03297417 -0.07415915 -0.03855375 0.004373451
00000000: f63a ed3d 72af 663d 1cf6 963c 5b04 f63c
00000010: a2cf b23c 7edc 843d 4de8 58bd bd5f 21bd
00000020: c442 82bd 3286 e23c 5629 88bd 9159 803d
00000030: ffdd e2bc 4b2e f13d 1888 303d c8ce e5bd
00000040: 3c86 c13c 7a8f 363d 290f aebd a8ca 673c
00000050: 14de 243d c66e eabd b05e eabd 6f9d 15bb
00000060: 2954 4d3d eeb5 85bd ebbc 91bd f892 74bd
00000070: 2770 013d 46c0 28bd a75c 73bd 3be6 733c
00000080: 4fce 8abb 70db b3bc 4224 993d 307a c3bd
00000090: f665 18bc 2659 1abc f327 343d 4528 9abd
000000a0: 23fa 673c 2ab1 e6bd 25b7 c33d 0c12 9f3c
000000b0: 1a0c a0bc 1bc7 d4bd 6956 c53d e6ff a63d
000000c0: 5d08 ba3d af27 b0bd 125e b0bb c477 94bd
000000d0: 3fe5 9fbd cc0f bcbd 1cd0 a93d ae0e f2bc
000000e0: 08a3 773d 38cf e2bc bfae 67bc 2024 3f3b
000000f0: 530a cbbd a01b dfbd fff4 3a3d 92a5 2a39
00000100: 09cb fb3c 8757 203d 9a20 2e3d 8948 223d
00000110: cc73 213c ed58 86bd 758c 8fbd f2ee 6dbc
00000120: 439f 3a3d e6ad 04bd d739 87bc 6dee c5bd
00000130: e8fd b13d 393e 18be 95d8 0a3d c04f 18bd
00000140: 5d67 87bd 8450 993d 2a46 febb a431 c63c
00000150: 917e 8fbd c9cf 9cbd a32c 63bc 27d2 a83d
00000160: 10a8 113e bda2 13bd 6117 b23d 3a33 1f3e
00000170: 9b75 27bd caeb 0abc 611e 9c3d e63a a63d
00000180: 6f6c 8fbd e57d 14be 4ef3 1dbe 2150 09bd
00000190: c458 ad3d 7ec5 e5bc 45f8 b33d 91ce 51bd
000001a0: 7a0c 2f3d 1e3c 29bd 0577 a03d 76b0 5a3a
000001b0: 1ba2 713d 3e17 bb3d 0b9f 8dbd 78c9 483d
000001c0: 7e82 06bb 30d2 e3bd f996 433d 6f80 8cbd
000001d0: 9449 b03b 7368 98bd 65d2 87bd c0d5 c03c
000001e0: b98b f0ba 46f8 a23d 7a83 793d c6eb 8bbd
000001f0: 15d5 8e3d 7ff0 183e f8fe f7bc 5e84 d13d
00000200: e17a 043e fec4 77bd cd6e e53d 9e50 233d
00000210: 02a0 a9bd fc3e 69bb a318 cb3d 46a5 33ba
00000220: 7fbc 96bd 0e3e 793d 32b7 f63d 7206 463c
00000230: 11e4 02be 10fa 9abd 4170 ab3d 5d1c ef3d
00000240: a2f8 bebc 000f 0ebe aec1 463d b80c 9f3d
00000250: 7eb3 efbd c775 69bd 904b 81bd 6da5 c63c
00000260: fd1e 8d3d 1196 d93d 47cc a6bd 38fe f43d
00000270: 56bf 4dbd a7d5 db3d 1004 b0bc 8874 8abc
00000280: 84bc 603d 3e8f 2bbc 2826 9d3c f5a2 a9bb
00000290: a06e 553d 996d 02bd beb3 e5bd 71db 05be
000002a0: d5d2 943b 6e15 c73c 187e 80bc 8dd1 c7bd
000002b0: faef 293c b4aa 88bd b412 843d 65cc 08be
000002c0: 10c3 adbd c5eb 0dbe 5d6e 9a3d c7da 1a3e
000002d0: 032e a43c b4f4 913d bdd0 1b3e a87e d6bd
000002e0: 5d2e 443d 6f5e 813c 833a 4f3d f03e c43d
000002f0: a753 53bd 6e2b 83bd 94b0 bdbd ac95 1f3d
00000300: c215 8a3d f32f 2abd f93d c83d a27c 69bb
00000310: 171b d9bd fe27 c3bd 5cfa 36bc 3451 a73d
00000320: 40c8 bcbc cf0d d03d a125 b13d 3642 ec3d
00000330: d2ad 5a3d 5ba6 3d3c 89ad 6bbd ce7b 96bd
00000340: debf d0bd 6fb2 a7bd cdb4 813d afac 023d
00000350: 2b32 cabd d082 ef3c 3c87 d33d df18 adbd
00000360: 27d4 983d b7a0 cbbc 85df d8bd edca 023d
00000370: 3b17 813c ccd1 c8bd 3b09 bf3d 4a5b babd
00000380: 415e d0bc d8a7 dfbc e6f1 9bbd fa89 f83c
00000390: 7063 463d fc45 a0bd 40aa 02bd c67c ae3d
000003a0: fdc8 bebd 8b95 453d 370b 923d d097 b2bd
000003b0: 76f5 a1bd 35e9 ab3d cd9d 62bc 52da ae3d
000003c0: a72e 4a3d b8fd 3abc a5f6 6abc 40a5 a9bd
000003d0: 102e 19bc c55c 97bd 35c4 d5bd 7d4d b8bd
000003e0: 1eb7 d5bb cfef 2bbd 4c75 82bd 4ee9 3cbd
000003f0: ec0f 07bd c1e0 97bd 89ea 1dbd 2b4f 8f3b

transformer.layers.0.0.fn.fn.to_out.weight f4 [64, 64]
-0.054649953 -0.11633082 0.07763507 -0.07165701 0.004371542 0.118407354 -0.027055401 0.03513426
-0.03570637 -0.01920567 0.012448277 -0.095522724 -0.038726673 0.093960285 0.05246214 0.078062885
-0.035399113 -0.029363487 -0.0110342 -0.048764583 -0.057611216 -0.053519335 -0.03786783 -0.099822365
0.057737507 -0.033868182 0.095013216 -0.015650908 0.06464906 -0.01825221 -0.120424114 -0.02774973
-0.041408695 0.034669854 0.07885403 -0.13736452 -0.06600185 -0.027320934 0.047285013 0.015742166
-0.011944394 -0.10161109 0.11027421 -0.09176119 -0.060332466 0.006410028 0.031671237 -0.11495437
0.09350785 0.0006359851 0.054627705 0.079201125 0.054721422 -0.09709164 -0.08282488 -0.0024200021
0.090601355 0.11607913 -0.10105933 -0.13867688 -0.011882546 0.05518393 0.017882723 0.099722125
0.10033657 -0.01240043 0.025201192 0.079427764 0.07610635 -0.05225022 0.034691676 0.056638546
-0.038195513 0.052621506 0.0937888 0.094727084 0.09424861 0.061598293 -0.065482564 0.09788593
-0.062388632 -0.0431792 -0.07682791 -0.014714513 -0.069905646 0.084593184 0.015612471 -0.007998296
-0.008638173 -0.015038692 -0.109195225 -0.0050561074 0.08746627 0.0744217 -0.0024006213 0.0409743
-0.10440188 0.080987215 0.09310534 -0.14306036 -0.051953454 0.14070652 -0.14146148 0.015276435
-0.04120034 0.063815914 -0.056493137 -0.10420671 -0.064260624 -0.0914855 -0.0040503 -0.12511842
0.0008847181 -0.015421057 -0.020525131 -0.009132972 0.1286381 0.070330285 -0.1542847 -0.027540892
0.075988375 -0.080868885 -0.13626784 -0.012430453 -0.011545893 -0.002956956 -0.035559222 -0.09096831
-0.017553784 0.079096995 0.04239609 -0.085664645 -0.00072564033 0.11440833 -0.039011985 0.08610496
-0.11594977 0.13789627 -0.027294531 -0.044039093 0.110350214 -0.087316774 -0.040150642 -0.0502902
0.12283151 -0.034879945 -0.04444128 -0.08480377 0.101883784 -0.1057707 0.04901988 0.092462845
-0.0038069712 0.1124712 -0.04080333 0.06526912 0.119785644 -0.1305242 -0.013470385 -0.10797907
-0.03453915 -0.035598498 -0.11094482 -0.12425729 0.07354331 0.12780963 -0.11718045 -0.006880301
-0.047482796 0.056814633 0.10248174 0.103115454 0.11244375 0.0679594 -0.055881925 -0.0045022382
0.039141744 -0.09269815 0.114255086 -0.08992479 0.018677022 0.015390566 0.057264414 -0.031262953
-0.08614409 0.008421692 0.0860331 0.08241219 0.080173284 -0.035923168 0.017144982 0.063054845
0.059526153 0.08327446 -0.05932229 -0.033004276 0.008372106 0.1079638 -0.044648986 0.030739259
0.0050119315 -0.10713503 0.095682 0.042144116 -0.067282595 0.06473198 0.12255376 -0.030027362
0.10290223 -0.12334472 -0.1131091 0.068377584 0.07831293 0.02648331 0.036654126 0.05992122
-0.09736736 -0.08470718 0.10833541 -0.12784655 0.03558375 0.01352463 0.030067079 0.00041715812
0.04786333 0.077115566 0.031486034 0.13602276 0.12251327 -0.06921263 0.046423834 -0.0543307
-0.11399279 0.040002525 0.06264133 -0.019732771 0.020041808 -0.13810547 -0.09084572 0.12287934
0.12903953 0.023819946 -0.07194936 0.0056972182 0.022598833 -0.13510522 0.06304339 -0.0061730556
-0.11857052 0.106195934 -0.03855174 -0.025417257 0.06427159 0.1088774 0.00200944 0.045624264
00000000: a1d8 5fbd da3e eebd 23ff 9e3d e9c0 92bd
00000010: 273f 8f3b 8e7f f23d 4aa3 ddbc f1e8 0f3d
00000020: d840 12bd 3655 9dbc dcf3 4b3c 6ba1 c3bd
00000030: dc9f 1ebd 406e c03d 8ae2 563d 6fdf 9f3d
00000040: a9fe 10bd b28b f0bc cac8 34bc 5fbd 47bd
00000050: bdf9 6bbd 1737 5bbd 4c1b 1bbd ab6f ccbd
00000060: 2a7e 6c3d 5db9 0abd 4a96 c23d 5536 80bc
00000070: ba66 843d a985 95bc eba0 f6bd 6753 e3bc
00000080: 2a9c 29bd fa01 0e3d 397e a13d 49a9 0cbe
00000090: fa2b 87bd 27d0 dfbc eead 413d b7f5 803c
000000a0: 6bb2 43bc 7a19 d0bd 72d7 e13d 4aed bbbd
000000b0: 2d1f 77bd 360b d23b b3b9 013d 326d ebbd
000000c0: 0b81 bf3d 3db8 263a 4dc1 5f3d 3334 a23d
000000d0: 9223 603d fbd7 c6bd 17a0 a9bd e698 1ebb
000000e0: 348d b93d e5ba ed3d 32f8 cebd 5001 0ebe
000000f0: 03af 42bc 8b08 623d ca7e 923c 1d3b cc3d
00000100: 427d cd3d 2c2b 4bbc bb72 ce3c 06ab a23d
00000110: a5dd 9b3d 5404 56bd dc18 0e3d d2fd 673d
00000120: e672 1cbd a689 573d 5814 c03d 4600 c23d
00000130: 6a05 c13d 7e4e 7c3d b91b 86bd 6b78 c83d
00000140: 398b 7fbd acdc 30bd f457 9dbd 2415 71bc
00000150: b12a 8fbd 313f ad3d 73cb 7f3c 490b 03bc
00000160: 2087 0dbc d964 76bc bfa1 dfbd b4ad a5bb
00000170: 8421 b33d 676a 983d be53 1dbb abd4 273d
00000180: a7d0 d5bd a0dc a53d 03ae be3d 6a7e 12be
00000190: 25cd 54bd 5f15 103e 47db 10be 034a 7a3c
000001a0: b0c1 28bd ebb1 823d 5965 67bd 546a d5bd
000001b0: 139b 83bd c05c bbbd 61b8 84bb 0b1f 00be
000001c0: 6dec 673a 9aa8 7cbc 5224 a8bc 76a2 15bc
000001d0: b5b9 033e 5309 903d cffc 1dbe 709d e1bc
000001e0: cb9f 9b3d 969e a5bd cc89 0bbe 19a9 4bbc
000001f0: fc2a 3dbc 7dc9 41bb 8ca6 11bd 984d babd
00000200: f4cc 8fbc 9bfd a13d 86a7 2d3d f270 afbd
00000210: e638 3eba ea4e ea3d 08cb 1fbd cc57 b03d
00000220: 1377 edbd ae34 0d3e c898 dfbc 5662 34bd
00000230: 4bff e13d 23d3 b2bd 0075 24bd 19fd 4dbd
00000240: 168f fb3d 46de 0ebd 0f08 36bd 99ad adbd
00000250: 72a8 d03d 4f9e d8bd 12c9 483d 295d bd3d
00000260: 617e 79bb 4d57 e63d 6421 27bd d1ab 853d
00000270: 2d52 f53d 23a8 05be e4b2 5cbc 2124 ddbd
00000280: ec78 0dbd bbcf 11bd 0a37 e3bd 9b7a febd
00000290: e09d 963d 87e0 023e 4efc efbd 2674 e1bb
000002a0: 527d 42bd 76b6 683d f2e1 d13d 322e d33d
000002b0: e948 e63d 4c2e 8b3d 72e4 64bd 8387 93bb
000002c0: 1853 203d 87d8 bdbd 92fe e93d 7d2a b8bd
000002d0: 8e00 993c b628 7c3c 178e 6a3d 950d 00bd
000002e0: 506c b0bd 23fb 093c 1f32 b03d b9c7 a83d
000002f0: e431 a43d 2c24 13bd a273 8c3c e622 813d
00000300: b2d1 733d cd8b aa3d eefb 72bd 7e2f 07bd
00000310: 282b 093c 201c dd3d dbe1 36bd e6d0 fb3c
00000320: 213b a43b 9c69 dbbd edf4 c33d 4f9f 2c3d
00000330: 75cb 89bd 3392 843d 77fd fa3d f1fb f5bc
00000340: 68be d23d 289c fcbd bea5 e7bd 8c09 8c3d
00000350: 8862 a03d 87f3 d83c a322 163d f46f 753d
00000360: 8a68 c7bd f57a adbd f5de dd3d 35ea 02be
00000370: 44c0 113d 6996 5d3c 3c4f f63c 04b6 da39
00000380: 570c 443d c4ee 9d3d 80f7 003d 8d49 0b3e
00000390: 3de8 fa3d 5abf 8dbd eb26 3e3d de89 5ebd
000003a0: 0d75 e9bd b0d9 233d 194a 803d 9fa6 a1bc
000003b0: b82e a43c 856b 0dbe 520d babd 2aa8 fb3d
000003c0: f022 043e 0c22 c33c 305a 93bd bbaf ba3b
000003d0: 3021 b93c 0659 0abe e51c 813d 5847 cabb
000003e0: 1ad5 f2bd 417d d93d 6ee8 1dbd da37 d0bc
000003f0: d3a0 833d 1dfb de3d cfb0 033b 82e0 3a3d

transformer.layers.0.0.fn.fn.to_out.bias f4 [64]
0.109480634 0.015841387 -0.13583565 -0.010006711 0.077094324 -0.07834332 -0.033303786 -0.09290859
-0.057014287 -0.07586425 0.050876457 0.056383617 0.019077934 -0.058674775 0.08312236 0.021141378
0.066987656 0.068829946 0.11847711 0.032374308 0.13297887 -0.0877446 -0.09587075 0.08970546
0.011133418 -0.04398576 0.1338779 0.050538782 0.049130566 -0.04579494 0.044683933 -0.06574922
0.11576775 -0.088369615 -0.040586688 0.045501325 -0.034288596 0.031731747 0.061070897 0.12546249
0.013741478 0.07810573 0.035189368 0.05305679 0.104151234 -0.08896392 -0.01890799 -0.07991448
0.057139874 -0.06980208 0.08826031 0.001326464 0.10427477 -0.1205966 0.09728162 -0.04147802
0.0021640928 -0.07802084 -0.006517385 -0.0033591688 0.11945364 -0.05636079 -0.012463694 -0.012712451
00000000: 6237 e03d ccc5 813c 8018 0bbe 30f3 23bc
00000010: a1e3 9d3d 7672 a0bd 8d69 08bd dc46 bebd
00000020: d087 69bd b75e 9bbd d563 503d 82f2 663d
00000030: 5449 9c3c f654 70bd 0e3c aa3d af30 ad3c
00000040: d330 893d b7f6 8c3d 21a4 f23d ec9a 043d
00000050: 9d2b 083e 71b3 b3bd e257 c4bd 7fb7 b73d
00000060: f168 363c 6a2a 34bd 4a17 093e c101 4f3d
00000070: 223d 493d 7a93 3bbd 8006 373d 87a7 86bd
00000080: a417 ed3d 21fb b4bd 3a3e 26bd 995f 3a3d
00000090: 3372 0cbd 26f9 013d 7a25 7a3d 3d79 003e
000000a0: f023 613c e6f5 9f3d ba22 103d 1452 593d
000000b0: 3e4d d53d b732 b6bd eee4 9abc 34aa a3bd
000000c0: 800b 6a3d 65f4 8ebd d2c1 b43d bfdc ad3a
000000d0: 038e d53d 5afb f6bd 963b c73d dbe4 29bd
000000e0: 74d3 0d3b 64c9 9fbd ca8f d5bb 8025 5cbb
000000f0: 1ca4 f43d 92da 66bd 8634 4cbc e247 50bc

transformer.layers.0.1.fn.norm.weight f4 [64]
1.0031495 0.9709366 0.9831187 0.9934191 0.9865329 0.9630978 1.0233532 0.99208844
0.99565715 0.9888042 1.0018435 0.9954645 0.99441886 1.0223038 0.985947 0.9815661
1.0022167 0.99511343 0.99804604 0.9930566 1.0007157 0.9959044 0.9933101 0.98763543
0.9925888 1.0044594 0.9760349 0.9801482 0.9996584 1.0118593 1.0135686 0.99112755
0.953793 0.9871316 1.0002353 0.9911768 0.9721335 1.0033244 0.99926263 0.9867644
0.99000484 0.99577254 0.973446 1.0134102 0.97486246 0.9944436 1.0053602 0.99755573
0.98047686 1.001911 0.98471683 1.0062506 0.9833969 0.9747972 1.0040632 0.9945265
0.9955098 0.97585744 0.9741594 0.9937602 0.98835623 0.997395 0.96307904 0.9909703
00000000: 3467 803f 4d8f 783f abad 7b3f b750 7e3f
00000010: 6c8d 7c3f 948d 763f 3dfd 823f 82f9 7d3f
00000020: 63e3 7e3f 4622 7d3f 683c 803f c3d6 7e3f
00000030: 3c92 7e3f dada 823f 0667 7c3f ea47 7b3f
00000040: a348 803f c1bf 7e3f f27f 7f3f f538 7e3f
00000050: 7417 803f 97f3 7e3f 9249 7e3f add5 7c3f
00000060: 4d1a 7e3f 2092 803f 6cdd 793f feea 7a3f
00000070: 9de9 7f3f 9b84 813f 9ebc 813f 89ba 7d3f
00000080: c72b 743f a8b4 7c3f b607 803f c3bd 7d3f
00000090: bedd 783f ef6c 803f adcf 7f3f 979c 7c3f
000000a0: f570 7d3f f3ea 7e3f c233 793f 6db7 813f
000000b0: 9690 793f db93 7e3f a5af 803f d05f 7f3f
000000c0: 8800 7b3f 9f3e 803f 6716 7c3f d2cc 803f
000000d0: e6bf 7b3f 4f8c 793f 2585 803f 4a99 7e3f
000000e0: bbd9 7e3f cbd1 793f 8362 793f 1267 7e3f
000000f0: ea04 7d3f 4755 7f3f 598c 763f 3bb0 7d3f

transformer.layers.0.1.fn.norm.bias f4 [64]
0.0034239732 -0.029320681 -0.015664108 0.0060085487 -0.012849156 0.036400132 0.021632535 0.00873447
0.004177829 -0.01169631 -0.006343734 0.0027603048 0.00584233 -0.022395669 0.012929943 -0.018920954
0.0023831138 0.0040960824 0.0022441992 0.006160433 0.00079916214 -0.004820295 0.008856722 -0.014281401
-0.006549186 0.0015830061 0.023173342 -0.019942649 -0.0012047 -0.0027229502 -0.009743987 -0.008635295
-0.046755087 0.012251746 0.0006512622 -0.008290979 -0.028087927 0.003490127 0.00025241417 0.014417828
0.009461941 -0.0048889 0.027166856 -0.013183146 0.025547437 -0.004414905 0.006853521 0.0019695824
-0.016609628 0.00067501795 0.015389843 0.0062727095 0.016677639 -0.03523818 0.0021551335 0.00409238
0.0055235405 0.025324939 0.025810359 -0.0069352975 0.014246568 -0.0029848986 0.037118625 -0.0079667745
00000000: bd64 603b ed31 f0bc 0452 80bc 5ce3 c43b
00000010: 4485 52bc 4e18 153d b736 b13c 061b 0f3c
00000020: 2be6 883b e1a1 3fbc 19df cfbb 3be6 343b
00000030: 0471 bf3b 1f77 b7bc 1dd8 533c 1e00 9bbc
00000040: 042e 1c3b 6e38 863b 6a13 133b 75dd c93b
00000050: dd7e 513a 91f3 9dbb c91b 113c 8afc 69bc
00000060: 8e9a d6bb df7c cf3a 05d6 bd3c c45e a3bc
00000070: 06e7 9dba 8673 32bb 3ea5 1fbc 0d7b 0dbc
00000080: 4382 3fbd 8cbb 483c 77b9 2a3a e3d6 07bc
00000090: a718 e6bc 9dba 643b 7556 8439 c138 6c3c
000000a0: 4206 1b3c 1133 a0bb 078d de3c 1ffe 57bc
000000b0: dc48 d13c e8aa 90bb 8093 e03b 1c14 013b
000000c0: ea10 88bc b0f3 303a ae25 7c3c 4d8b cd3b
000000d0: 8b9f 883c e955 10bd 243d 0d3b 5f19 863b
000000e0: d1fe b43b 3f76 cf3c 3f70 d33c 7e41 e3bb
000000f0: 706a 693c 4a9e 43bb b309 183d 1387 02bc

transformer.layers.0.1.fn.fn.net.0.weight f4 [128, 64]
0.064602554 -0.13940577 -0.1410523 0.057663515 0.057182465 -0.00088307296 -0.082074426 0.059870616
0.13524608 -0.12545562 0.012991217 0.12372227 0.02709308 -0.038643572 0.015890555 -0.15593654
-0.15902388 0.022730326 0.07130145 0.092185006 0.15722728 -0.039417814 -0.026261501 -0.10522967
-0.04524824 0.027663324 -0.011950962 -0.12341046 -0.13568704 -0.14415742 0.1235888 0.015177424
0.064493865 0.024974603 0.04585959 -0.045213442 0.03004438 -0.034634285 -0.0643373 0.15438053
0.106781766 -0.03458783 0.05297458 -0.033828806 0.030872019 -0.02311483 0.034477945 0.1096202
-0.062269498 0.0349517 0.031097418 -0.00323843 0.0075536002 -0.1234437 -0.031935167 -0.06057701
0.070122756 0.14086948 -0.02318757 -0.060592577 0.13274063 -0.10545314 0.0046007917 -0.09436865
-0.11724722 -0.127307 0.08427263 0.00028338135 -0.124297395 -0.07150898 0.06311713 -0.005354434
-0.060870007 0.007500103 -0.059326828 0.04541361 0.05302624 -0.055613354 -0.065422855 0.07818561
-0.094733976 0.001597998 0.08405503 -0.045100022 -0.029823115 -0.0032037806 0.07844504 0.020832764
0.07967317 0.067808144 -0.012975441 -0.047510445 0.029332396 -0.07365253 0.07405495 0.10929626
-0.0036198066 0.09311747 -0.103984825 -0.122768566 0.09447341 -0.022859553 0.03510612 -0.0076500187
0.06722936 -0.08562326 -0.054256245 0.07366305 -5.388527e-06 -0.07433555 0.091185085 0.09463119
0.016684623 0.0127363615 0.13703308 -0.046101667 0.048590858 0.027131487 0.00037065908 0.09975989
0.11112691 -0.038190875 0.071503974 0.05405769 0.13463417 -0.11779451 0.022552209 -0.05151204
-0.018142581 0.0036295948 -0.10280746 -0.011392588 -0.029556468 0.0034842186 -0.013003957 -0.07100152
-0.07181742 0.0451525 0.108470835 -0.05932452 0.06431235 -0.025663905 0.064944245 0.027362978
-0.10971012 -0.10155754 0.027089007 -0.000853731 0.10263194 -0.024284644 0.12421543 -0.00080457533
0.11529768 -0.035637368 0.08017923 0.013351859 -0.022375071 -0.028844008 -0.019662574 0.05079992
0.08718793 0.083360605 0.0017644591 0.121783584 -0.1143792 0.11868567 -0.06994876 0.09160188
0.025890239 0.006153984 0.12142216 0.01461075 -0.046329595 0.09865085 0.0033417025 0.04875286
0.038090818 -0.006358012 0.06510923 -0.118906036 0.041353524 -0.048822463 -0.068514094 -0.020089805
-0.02695809 0.08491043 0.121717826 -0.0951934 0.07256854 -0.07876244 0.079478435 -0.013100623
0.09832913 0.11093957 -0.071545176 -0.120813705 0.0768201 -0.09445923 0.14319506 0.044461895
0.05235584 -0.022787668 0.0861002 -0.082610294 0.0020273402 -0.05476008 0.06216489 -0.03267657
0.12323923 -0.14275095 -0.12946498 -0.07386075 0.080707684 -0.0065142037 -0.036938302 -0.050792735
0.111448795 0.14384861 0.018143455 -0.08612949 0.14166291 -0.03868353 0.05067464 0.09869581
-0.036985017 -0.03956483 0.023247665 -0.030906364 0.07256208 0.01446011 -0.11282725 0.10308835
0.06725162 0.13505922 0.025492918 -0.08958251 0.04129611 -0.05585697 0.083459616 0.043464433
-0.029523438 -0.037643157 0.0002706692 0.119566694 -0.010328591 0.10748242 -0.08324298 0.028011806
-0.07585708 0.037836146 0.05713451 0.09270138 0.07909631 -0.037451513 0.049046446 -0.085914
00000000: 584e 843d 63c0 0ebe 0470 10be 9430 6c3d
00000010: 2938 6a3d 067e 67ba a316 a8bd e43a 753d
00000020: f37d 0a3e 7077 00be 1dd9 543c 1a62 fd3d
00000030: 4ff2 dd3c b948 1ebd e92c 823c d4ad 1fbe
00000040: 28d7 22be f334 ba3c 7f06 923d 7ecb bc3d
00000050: 3000 213e 9374 21bd 5c22 d7bc a782 d7bd
00000060: 3856 39bd 329e e23c f8cd 43bc a0be fcbd
00000070: 8bf1 0abe 019e 13be 201c fd3d bbaa 783c
00000080: 5c15 843d 8a97 cc3c 44d7 3b3d bb31 39bd
00000090: a21f f63c aedc 0dbd 46c3 83bd ee15 1e3e
000000a0: 66b0 da3d f8ab 0dbd e0fb 583d 1390 0abd
000000b0: 51e7 fc3c 505b bdbc bf38 0d3d 8e80 e03d
000000c0: 4d0e 7fbd 8429 0f3d 03c0 fe3c d73b 54bb
000000d0: 3184 f73b 0dd0 fcbd 73ce 02bd 991f 78bd
000000e0: 859c 8f3d 1740 103e dcf3 bdbc ec2f 78bd
000000f0: 29ed 073e d1f7 d7bd 3dc2 963b 5a44 c1bd
00000100: 4f1f f0bd c45c 02be 2197 ac3d cd92 9439
00000110: a28f febd 4d73 92bd 8e43 813d 3f74 afbb
00000120: d452 79bd 6dc3 f53b b000 73bd 9f03 3a3d
00000130: 0b32 593d d4ca 63bd 6bfc 85bd c71f a03d
00000140: e303 c2bd ea73 d13a 0b25 ac3d cdba 38bd
00000150: 9b4f f4bc 85f6 51bb cba7 a03d 79a9 aa3c
00000160: b02b a33d ffde 8a3d f296 54bc 509a 42bd
00000170: 7e4a f03c 23d7 96bd 1faa 973d b8d6 df3d
00000180: 473a 6dbb 5fb4 be3d fff5 d4bd 166e fbbd
00000190: 467b c13d f543 bbbc 6fcb 0f3d 02ad fabb
000001a0: 8caf 893d 3f5b afbd cc3b 5ebd a7dc 963d
000001b0: 18cf b4b6 3d3d 98bd 3fbf ba3d ffcd c13d
000001c0: 31ae 883c 2cac 503c 6652 0c3e 1ad5 3cbd
000001d0: 3507 473d da42 de3c 0555 c239 ea4e cc3d
000001e0: 8196 e33d 096e 1cbd ad70 923d 996b 5d3d
000001f0: 8add 093e 403e f1bd 69bf b83c 4afe 52bd
00000200: c09f 94bc 7fde 6d3b b88c d2bd faa7 3abc
00000210: 6820 f2bc 7d57 643b 8d0e 55bc 3f69 91bd
00000220: 0315 93bd d4f1 383d f525 de3d 45fe 72bd
00000230: 31b6 833d 1c3d d2bc 7d01 853d 5328 e03c
00000240: b3af e0bd 66fd cfbd c4e9 dd3c ebcc 5fba
00000250: b230 d23d 97f0 c6bc a964 fe3d 23ea 52ba
00000260: 3121 ec3d 7df8 11bd 0235 a43d c1c1 5a3c
00000270: ed4b b7bc 454a ecbc 6813 a1bc 9413 503d
00000280: 968f b23d f7b8 aa3d 6c45 e73a ac69 f93d
00000290: a43f eabd 7911 f33d 4c41 8fbd c499 bb3d
000002a0: c417 d43c 5ca7 c93b 2eac f83d ed61 6f3c
000002b0: 1ac4 3dbd 7509 ca3d 7700 5b3b 14b1 473d
000002c0: 1e05 1c3d df56 d0bb fd57 853d 0285 f3bd
000002d0: 5062 293d 10fa 47bd 1e51 8cbd 6093 a4bc
000002e0: 36d7 dcbc 85e5 ad3d 3247 f93d c2f4 c2bd
000002f0: d19e 943d 344e a1bd 97c5 a23d ffa3 56bc
00000300: c860 c93d 4934 e33d 4786 92bd 2d6d f7bd
00000310: db53 9d3d d773 c1bd baa1 123e ad1d 363d
00000320: 1473 563d 34ad babc 4d55 b03d 962f a9bd
00000330: 20dd 043b 1b4c 60bd 9da0 7e3d ded7 05bd
00000340: d964 fc3d 4e2d 12be 7892 04be 4e44 97bd
00000350: 124a a53d 1a75 d5bb 9e4c 17bd 0b0c 50bd
00000360: 443f e43d 0d4d 133e 95a1 943c a864 b0bd
00000370: 1510 113e 9f72 1ebd 3690 4f3d 0721 ca3d
00000380: 9a7d 17bd bb0e 22bd e371 be3c 582f fdbc
00000390: 6e9b 943d 19ea 6c3c f911 e7bd fc1f d33d
000003a0: 38bb 893d f74c 0a3e 86d6 d03c 0977 b7bd
000003b0: 1c26 293d 47ca 64bd e0ec aa3d c307 323d
000003c0: 23db f1bc b62f 1abd 9be8 8d39 62df f43d
000003d0: 4039 29bc be1f dc3d 4c7b aabd 0479 e53c
000003e0: f55a 9bbd 13fa 1a3d e005 6a3d 39da bd3d
000003f0: 3ffd a13d c266 19bd ede4 483d aef3 afbd

transformer.layers.0.1.fn.fn.net.0.bias f4 [128]
0.08154041 0.03171131 0.028472668 -0.07187569 0.03271325 -0.08821947 -0.0945422 0.063377306
-0.08058317 0.1155865 0.036136568 -0.0511732 0.027628245 0.009206471 -0.10578448 -0.022943506
-0.11985222 -0.041072503 -0.13485181 0.07070469 0.008993035 -0.09340663 -0.08759856 -0.037274428
-0.007953118 -0.06283158 0.056442354 -0.05672418 0.08911845 0.026577642 -0.06530618 0.051780224
-0.12254844 0.10518888 -0.03797727 -0.013407789 -0.08451829 -0.08327806 -0.11566652 0.08779043
0.12489099 -0.063519344 0.073500454 -0.082752995 -0.009924503 -0.066670835 -0.02340638 0.077093184
0.042593352 -0.12905394 0.046159383 -0.06364641 0.005388528 0.010489011 -0.03764669 -0.025875382
-0.07604089 -0.0806001 -0.12540711 0.10949421 0.110883944 -0.052045535 0.024589913 -0.070134245
-0.11362046 0.021778397 -0.027523592 0.03951701 0.10434667 0.0682579 -0.078754 -0.10383361
0.012630101 0.014477783 0.06280156 0.03663247 -0.1108324 0.11914895 0.04470727 -0.022906788
0.0352573 0.09041536 0.037926596 0.14118038 -0.0340523 0.0419939 -0.10046922 0.058395546
0.13734828 -0.094538406 0.046695475 -0.09667612 -0.12772568 0.020836776 0.036453735 0.12139406
0.040418226 0.05104626 0.025833832 -0.074143484 -0.0016827639 -0.016340422 -0.1256178 0.037011873
-0.0353198 -0.12638858 -0.024779685 0.0016240006 -0.0015626856 -0.09814549 -0.104814716 0.011600026
0.05034338 0.004980512 -0.051439352 0.08389851 0.07727725 0.04780993 -0.04991796 -0.07905717
0.06391413 -0.1174659 -0.09164287 0.02229475 -0.014172113 -0.11836635 0.1347026 0.012390873
00000000: a9fe a63d b8e3 013d 833f e93c 9033 93bd
00000010: 54fe 053d 69ac b4bd 579f c1bd f6cb 813d
00000020: ca08 a5bd 9db8 ec3d f003 143d fd9a 51bd
00000030: a154 e23c bdd6 163c 89a5 d8bd 05f4 bbbc
00000040: 1575 f5bd a43b 28bd 9816 0abe 9fcd 903d
00000050: 8657 133c fa4b bfbd e066 b3bd 12ad 18bd
00000060: cb4d 02bc d8ad 80bd 1930 673d 9d57 68bd
00000070: bc83 b63d 5bb9 d93c 3fbf 85bd 8017 543d
00000080: adfa fabd 446d d73d 0e8e 1bbd 58ac 5bbc
00000090: ed17 adbd b08d aabd 92e2 ecbd 78cb b33d
000000a0: d9c6 ff3d 6e16 82bd 6887 963d 677a a9bd
000000b0: 629a 22bc b88a 88bd bdbe bfbc 08e3 9d3d
000000c0: 5e76 2e3d b726 04be 9f11 3d3d 0d59 82bd
000000d0: 4092 b03b 1ada 2b3c 6a33 1abd 9cf8 d3bc
000000e0: 53bb 9bbd aa11 a5bd b96a 00be 803e e03d
000000f0: 1f17 e33d b32d 55bd c970 c93c 8ba2 8fbd
00000100: d8b1 e8bd 9c68 b23c 2879 e1bc 97dc 213d
00000110: b5b3 d53d ccca 8b3d c749 a1bd b7a6 d4bd
00000120: 7cee 4e3c 3934 6d3c 1b9e 803d ee0b 163d
00000130: 19fc e2bd 5d04 f43d f81e 373d 04a7 bbbc
00000140: f569 103d b02b b93d eb58 1b3d 9791 103e
00000150: 6d7a 0bbd cc01 2c3d cec2 cdbd 2b30 6f3d
00000160: 07a5 0c3e 5a9d c1bd c143 3f3d 21fe c5bd
00000170: 85ca 02be e3b1 aa3c 8350 153d 739d f83d
00000180: 958d 253d e215 513d 79a1 d33c 8ad8 97bd
00000190: 3090 dcba 59dc 85bc f4a1 00be c399 173d
000001a0: 7fab 10bd 026c 01be c4fe cabc 6bdc d43a
000001b0: 07d3 ccba 8100 c9bd 19a9 d6bd 090e 3e3c
000001c0: dc34 4e3d 9033 a33b 12b2 52bd fbd2 ab3d
000001d0: 8943 9e3d 58d4 433d c676 4cbd bae8 a1bd
000001e0: 69e5 823d f691 f0bd 42af bbbd 7ba3 b63c
000001f0: 2632 68bc 0f6a f2bd 7aef 093e 1703 4b3c
