model_training/trained_models/multicolor_data/old_1_dim_regression/model_50.pth (torch, 453160 bytes, 18 tensors)

pos_embedding f4 [1, 1025, 64]
1.9118258 1.4615191 0.8867877 -2.1022065 0.65478706 -1.2020919 -0.051403005 -1.6027223
-0.7190419 1.6289283 -0.4067823 -1.3945843 -0.7082596 -0.5188671 -0.74710965 0.7590191
1.6288434 -0.14410636 -0.4665457 0.45384377 -0.7535158 1.0551008 0.811687 1.6713645
1.2603226 1.2882715 0.6239901 1.3005849 -0.23832823 0.037410766 -0.26077056 0.84485084
-1.3914065 -0.8432891 -0.21607974 1.6922697 0.28000847 -0.43975013 0.34745288 -0.77278996
-1.5351886 0.98848265 -0.867595 -0.5977872 -1.2388377 2.1085315 -1.2429656 -0.46893078
-0.94057053 -0.6370369 0.08198096 0.501238 -0.47805998 1.1864972 -0.82334363 -0.7276426
-1.3798327 0.04066865 -0.046500888 0.66230094 -0.08830936 1.8394371 -1.1775014 1.3668158
1.4348292 0.82130337 2.2243004 0.54418975 0.36467937 -0.15316615 -1.0411611 1.2527169
-0.1977468 0.5226055 0.08164341 0.44959402 0.5748901 -0.6806654 -2.2483706 -0.7725485
0.03161941 -0.34282097 -1.3654633 -0.58412874 0.5438258 0.5342795 1.172209 0.035583336
0.7389264 -0.49067804 -1.0486962 0.61207247 -1.7081934 -0.8362513 1.3626682 0.49375868
-2.520575 0.50142056 0.803846 -0.027613416 0.62831384 0.57991767 1.0730983 -0.42411733
-0.18702927 0.76659477 0.41338986 0.15874678 0.26320395 1.2436711 0.012745119 -0.32186088
-1.456641 -0.089090005 -0.60081565 0.4403636 0.7148967 0.11161862 -0.37375996 0.5498249
-0.010050986 0.23194613 0.13684957 0.7537143 1.1020626 0.34984565 0.69132483 0.40648547
1.9261352 1.0010166 -1.442522 -1.1215203 -0.092911676 1.6555015 0.66433334 0.5542223
1.1197248 0.011427262 -1.8010017 0.96335316 -0.3679982 1.0124898 -0.6965201 0.62502545
-0.993588 0.96418023 1.6194444 1.458741 0.27155915 -0.19842876 -0.7201437 0.101051085
0.34418806 0.9647451 -0.45969924 1.6210239 -2.4697688 -0.42372802 -1.1820067 0.8158022
-1.8986304 0.23862416 0.027798085 -0.37400413 0.26977172 -0.73965627 0.1761363 -1.0758624
-1.6145715 1.3520662 1.3171139 0.045589462 -1.5717026 0.7409953 0.7872684 2.0144284
0.06460471 0.12925835 -0.81648993 -0.2315118 -0.9543618 -1.5972914 -1.1071701 -0.51050055
-0.5131032 -1.5306306 -1.9354795 0.10826699 1.0513542 -0.5483347 0.682399 0.71011174
1.7522618 -0.9456404 0.9546332 -0.30473697 -1.1569399 0.36434427 0.4896969 1.3212351
0.5084026 2.1045084 -0.49758902 -0.91485924 0.1517718 1.0473579 1.2904938 0.4345477
-0.8057805 -1.0063623 -0.51730186 -0.58819515 0.14292207 0.4441942 -0.1309906 -2.343804
-0.38969865 1.0671536 -1.777264 1.5179114 0.32362667 -0.5172855 1.0508404 1.698829
0.0011205637 1.6732308 0.16909494 -1.1225867 -0.59333056 0.08522819 0.40238082 2.0094898
-0.07644391 -0.8772362 -2.0423167 -1.0945927 0.014310442 0.056799777 0.20455435 0.40021035
-0.9141126 0.28988454 -0.53423476 0.41775414 -0.8801933 -0.01817991 -0.365325 1.4817001
1.2613838 -0.7183159 0.8543441 0.4932341 0.54300225 0.5795188 0.47885755 0.21346645
00000000: b5b6 f43f 0f13 bb3f 8504 633f 8d8a 06c0
00000010: 20a0 273f 26de 99bf f58b 52bd 0126 cdbf
00000020: 2113 38bf b980 d03f c545 d0be bd81 b2bf
00000030: 8050 35bf 79d4 04bf 9442 3fbf 134f 423f
00000040: f17d d03f 9e90 13be 14df eebe 365e e83e
00000050: 69e6 40bf 8b0d 873f b8ca 4f3f 46ef d53f
00000060: 4052 a13f 15e6 a43f d1bd 1f3f 9179 a63f
00000070: 510c 74be 083c 193d b883 85be 2548 583f
00000080: 9c19 b2bf cbe1 57bf 0244 5dbe 4b9c d83f
00000090: 455d 8f3e ee26 e1be 58e5 b13e 90d5 45bf
000000a0: 0f81 c4bf 330d 7d3f b51a 5ebf 9508 19bf
000000b0: 3c92 9ebf 2ef2 0640 7f19 9fbf b217 f0be
000000c0: 3bc9 70bf da14 23bf a2e5 a73d 2251 003f
000000d0: 47c4 f4be 24df 973f a6c6 52bf c946 3abf
000000e0: 5c9e b0bf 2c94 263d b777 3ebd 8e8c 293f
000000f0: 8adb b4bd ad72 eb3f 5eb8 96bf d2f3 ae3f
00000100: 7ca8 b73f f040 523f f05a 0e40 0550 0b3f
00000110: 41b7 ba3e 96d7 1cbe c444 85bf 0759 a03f
00000120: 237e 4abe 79c9 053f a934 a73d 3031 e63e
00000130: ff2b 133f 1640 2ebf 4ee5 0fc0 bdc5 45bf
00000140: 5b83 013d 3b86 afbe 80c7 aebf 7689 15bf
00000150: 2b38 0b3f 8bc6 083f f20a 963f d5bf 113d
00000160: 482a 3d3f 273a fbbe ad3b 86bf c8b0 1c3f
00000170: 15a6 dabf 9114 56bf e96b ae3f f0cd fc3e
00000180: 1a51 21c0 195d 003f dac8 4d3f 8835 e2bc
00000190: 2dd9 203f 7c75 143f 495b 893f e825 d9be
000001a0: 9a84 3fbe 8e3f 443f d6a7 d33e 848e 223e
000001b0: abc2 863e 9d30 9f3f e7d0 503c f3ca a4be
000001c0: 3673 babf d274 b6bd 0ecf 19bf 5677 e13e
000001d0: 7803 373f 4e98 e43d 775d bfbe 53c1 0c3f
000001e0: e4ac 24bc 4983 6d3e 4b22 0c3e 6cf3 403f
000001f0: 6310 8d3f f81e b33e aafa 303f dd1e d03e
00000200: 998b f63f 5021 803f 90a4 b8bf fa8d 8fbf
00000210: 7a48 bebd 79e7 d33f c011 2a3f 83e1 0d3f
00000220: 2453 8f3f 6939 3b3c 3987 e6bf 509e 763f
00000230: 436a bcbe 4499 813f 244f 32bf ab01 203f
00000240: c85b 7ebf 84d4 763f f449 cf3f 06b8 ba3f
00000250: cd09 8b3e e930 4bbe 565b 38bf dff3 ce3d
00000260: 6b39 b03e 89f9 763f b35d ebbe b67d cf3f
00000270: b110 1ec0 e1f2 d8be ff4b 97bf 6ad8 503f
00000280: 5206 f3bf e459 743e cfb8 e33c 787d bfbe
00000290: 851f 8a3e 1d5a 3dbf 135d 343e dcb5 89bf
000002a0: 47aa cebf 8110 ad3f 3097 a83f 04bc 3a3d
000002b0: 8d2d c9bf deb1 3d3f 6c8a 493f 65ec 0040
000002c0: 794f 843d 4d5c 043e 7c05 51bf 6e11 6dbe
000002d0: 0e51 74bf 0b74 ccbf c0b7 8dbf 2ab0 02bf
000002e0: bb5a 03bf b4eb c3bf cbbd f7bf 15bb dd3d
000002f0: c692 863f aa5f 0cbf b3b1 2e3f e2c9 353f
00000300: 1d4a e03f 7d15 72bf d762 743f 7c06 9cbe
00000310: 9b16 94bf 558b ba3e 8db9 fa3e 3b1e a93f
00000320: ac26 023f 44b0 0640 fdc3 febe 3734 6abf
00000330: 116a 1b3e d30f 863f e72e a53f 097d de3e
00000340: a147 4ebf 7bd0 80bf e56d 04bf f593 16bf
00000350: 2a5a 123e 6c6d e33e 6622 06be e200 16c0
00000360: 9586 c7be 7d98 883f 637d e3bf ec4a c23f
00000370: 65b2 a53e d36c 04bf f081 863f 3b73 d93f
00000380: e1df 923a 6d2c d63f 3927 2d3e ecb0 8fbf
00000390: 83e4 17bf 1e8c ae3d dc04 ce3e 7b9b 0040
000003a0: a08e 9cbd 8d92 60bf 51b5 02c0 9d1b 8cbf
000003b0: 5876 6a3c e2a6 683d b276 513e 5fe8 cc3e
000003c0: 4903 6abf bf6b 943e 9cc3 08bf dfe3 d53e
000003d0: 5954 61bf 09ee 94bc e10b bbbe 59a8 bd3f
000003e0: 0675 a13f 8de3 37bf 4cb6 5a3f 2e89 fc3e
000003f0: 3202 0b3f 585b 143f d12c f53e f396 5a3e

cls_token f4 [1, 1, 64]
-0.64084965 1.5415692 0.9642599 0.4085681 -0.3742404 -0.37553295 1.7938645 1.4197063
-1.4851394 -0.1031823 0.66426045 0.7720877 0.15709475 -1.5915614 -0.6369055 -0.015634796
1.291368 -1.4623483 -2.0949404 -1.3610734 0.4700631 0.63026017 -0.9451544 1.0490091
0.1738383 -0.77134424 -1.1627712 1.0062565 1.0174439 0.54480064 0.050335538 2.3481867
1.555997 -0.31515664 -0.8693896 -0.48482612 1.4070244 1.9659137 -1.4415674 0.54316723
0.053890225 0.3862039 -0.4139721 -0.96058017 -0.5467034 0.31279355 1.9977405 -1.096668
1.6935756 0.020795517 -0.8570184 1.0131339 -1.0058982 -0.5677022 1.1737539 -0.013788925
0.057169132 -0.86697674 -1.1291938 1.533824 -0.5739121 0.93375474 -0.45580626 0.8117432
00000000: b90e 24bf 2452 c53f bdd9 763f d72f d13e
00000010: 709c bfbe db45 c0be 5a9d e53f f0b8 b53f
00000020: 0c19 bebf 3e51 d3bd f90c 2a3f 8aa7 453f
00000030: 72dd 203e 49b8 cbbf 3d0c 23bf 8b14 80bc
00000040: 8c4b a53f 3b2e bbbf 8113 06c0 a737 aebf
00000050: 1cac f03e bb58 213f a4f5 71bf ee45 863f
00000060: ab02 323e d176 45bf b0d5 94bf 03cd 803f
00000070: 9a3b 823f 0e78 0b3f a32c 4e3d b148 1640
00000080: e92a c73f 365c a1be 5190 5ebf 213b f8be
00000090: 6019 b43f 0fa3 fb3f 4885 b8bf 020d 0b3f
000000a0: ffbb 5c3d 85bc c53e 27f4 d3be 95e8 75bf
000000b0: c1f4 0bbf 7a26 a03e f6b5 ff3f 9e5f 8cbf
000000c0: 16c7 d83f 5c5b aa3c 8f65 5bbf 5fae 813f
000000d0: 46c1 80bf ee54 11bf 913d 963f f1ea 61bc
000000e0: 2e2a 6a3d 30f2 5dbf 6c89 90bf 5854 c43f
000000f0: e7eb 12bf 8d0a 6f3f 705f e9be 67ce 4f3f

patch_to_embedding.weight f4 [64, 64]
0.041461382 -0.011893929 -0.022693021 0.008883001 -0.0132212695 -0.07177283 -0.10180443 -0.07458814
0.13469969 0.11262602 0.05676982 0.046494916 0.10720608 0.109030105 0.072976224 0.00720578
0.065689445 -0.05092384 0.07077139 0.106340885 0.040351253 -0.058689967 0.040645845 0.11553555
0.0055929543 0.06803585 0.028477872 0.074247256 0.05852269 0.028121835 -0.10017509 0.11890508
-0.0996905 -0.09071764 0.12454004 -0.01648512 -0.10135167 0.10911609 -0.028174743 0.10451861
0.109674275 -0.10510041 -0.11104623 0.014577563 -0.024031786 -0.10830383 -0.06371701 0.096692726
0.069362216 0.058478683 0.070986144 0.07036562 0.09324306 -0.00221821 0.006160896 0.13460158
0.023184009 -0.006777851 0.10688779 0.08308085 0.020865483 0.07904444 0.12599729 0.006604198
-0.029473914 0.058322024 0.14369221 -0.04117974 -0.08115708 -0.017811188 0.048540723 -0.070080176
-0.04716618 0.042006083 0.13290532 0.08967219 0.107083015 0.07868166 0.06471831 0.14633885
-0.010352747 0.018224958 0.049117424 0.039588053 0.029174423 -0.022287335 0.13623871 0.10082563
-0.07054566 0.05211077 -0.08884099 0.13870874 0.074087225 0.094051346 0.15279624 0.13364011
0.10058648 -0.011115963 0.0153080085 0.10677682 0.12522097 -0.0076875407 0.13601144 0.11167746
0.13496615 0.01839297 0.03416574 -0.041063253 -0.08823238 0.0113262 0.054079033 -0.060607146
0.06407607 -0.0823299 -0.08542599 0.14262496 -0.06525812 0.025146648 -0.0065866783 0.083541416
0.045646776 -0.022371225 -0.04048448 -0.07233803 -0.002430818 0.09081561 0.007192394 -0.069928266
0.045773502 -0.109183274 -0.0958027 0.085400805 -0.10573133 0.009100736 -0.0762845 0.10409672
-0.0679908 -0.10752539 0.103990085 0.021490268 -0.08601202 0.07445419 -0.09527797 0.052346162
-0.03835364 0.0786176 0.09299286 -0.005383722 0.112649046 0.032182865 0.0061660307 0.12095932
0.08168226 -0.0475759 0.062978014 -0.059999585 0.019116078 -0.09031554 0.09093605 -0.10679049
-0.013316979 0.08273206 -0.032523274 0.1340568 0.048226614 0.008237536 0.071055904 -0.076749325
0.07501835 -0.111401945 0.049455006 -0.006380259 0.1151826 -0.01395021 0.025527237 -0.101990215
0.09511109 -0.10827416 0.07824434 0.047930676 0.1113884 0.12598076 0.022157641 -0.08989535
0.11983677 -0.055954732 -0.09345694 0.06972485 -0.047960978 0.09913613 0.10055288 -0.028354801
-0.030276185 -0.050271414 -0.05837413 -0.11520786 -0.051997993 0.102191955 0.053534463 0.013215646
-0.1115594 0.02803196 -0.034030635 -0.07737016 0.029831938 -0.08655856 -0.008396714 -0.057744548
-0.13023464 0.046555582 -0.012249361 0.056133248 -0.05795444 -0.011925404 -0.091100335 0.058065526
-0.08273169 0.00045803795 0.0932099 -0.1309693 -0.08120679 0.040757377 -0.0427592 -0.07335457
-0.14374334 0.09450814 0.037414085 -0.024203738 0.009986908 0.06666439 0.09803476 -0.081803195
-0.09870143 -0.11438465 -0.11687111 0.049977995 -0.13154928 0.07846509 0.09017906 -0.11811409
0.08185862 0.06647588 -0.14143972 -0.0620089 0.047719132 -0.051235024 -0.06028013 -0.045185443
0.0663161 -0.11029942 -0.05924317 -0.057756305 0.011127844 -0.088071905 -0.08820687 -0.050582804
00000000: 69d3 293d c1de 42bc b7e6 b9bc 028a 113c
00000010: 069e 58bc a2fd 92bd d77e d0bd abc1 98bd
00000020: b7ee 093e 79a8 e63d 7987 683d 7471 3e3d
00000030: dc8e db3d 2d4b df3d 8f74 953d 771e ec3b
00000040: 3088 863d 8495 50bd 97f0 903d 40c9 d93d
00000050: 5b47 253d e464 70bd 427c 263d e79d ec3d
00000060: 1a45 b73b 6156 8b3d 6d4a e93c f20e 983d
00000070: 7db5 6f3d c35f e63c 9928 cdbd 8284 f33d
00000080: 882a ccbd 2cca b9bd d90e ff3d cd0b 87bc
00000090: 7791 cfbd 4278 df3d b8ce e6bc da0d d63d
000000a0: e89c e03d e23e d7bd 356c e3bd bbd6 6e3c
000000b0: 4fde c4bc 66ce ddbd 107e 82bd d606 c63d
000000c0: c70d 8e3d 5887 6f3d 2f61 913d da1b 903d
000000d0: 38f6 be3d 635f 11bb 57e1 c93b ffd4 093e
000000e0: 64ec bd3c bc18 debb fce7 da3d 4b26 aa3d
000000f0: 17ee aa3c 0de2 a13d 6f05 013e 0768 d83b
00000100: 4773 f1bc 13e3 6e3d 0d24 133e 16ac 28bd
00000110: af35 a6bd c5e8 91bc a3d2 463d 3286 8fbd
00000120: 5331 41bd 920e 2c3d 5518 083e 0ea6 b73d
00000130: 574e db3d da23 a13d 098b 843d dad9 153e
00000140: 919e 29bc 824c 953c 5a2f 493d 1527 223d
00000150: 33ff ee3c ee93 b6bc 2982 0b3e ab7d ce3d
00000160: 3e7a 90bd 1a72 553d 44f2 b5bd aa09 0e3e
00000170: 0bbb 973d fe9d c03d 9e76 1c3e f4d8 083e
00000180: 4900 ce3d ba1f 36bc 71ce 7a3c cead da3d
00000190: ed39 003e c4e7 fbbb 9546 0b3e 27b7 e43d
000001a0: 9134 0a3e dbac 963c 60f1 0b3d f131 28bd
000001b0: 2eb3 b4bd 8791 393c fa81 5d3d 333f 78bd
000001c0: 513a 833d 949c a8bd d2f3 aebd 470c 123e
000001d0: 0da6 85bd 5800 ce3c 10d5 d7bb c317 ab3d
000001e0: 1df8 3a3d dc43 b7bc 0ed3 25bd f625 94bd
000001f0: 5c4e 1fbb 89fd b93d 2dae eb3b 8d36 8fbd
00000200: ff7c 3b3d 7b9b dfbd 3534 c4bd 9ee6 ae3d
00000210: ab89 d8bd 411b 153c 0c3b 9cbd a930 d53d
00000220: c33e 8bbd 4636 dcbd c1f8 d43d 5c0c b03c
00000230: 1227 b0bd 707b 983d 1921 c3bd ee68 563d
00000240: b518 1dbd 4402 a13d 0a73 be3d ef69 b0bb
00000250: 8bb4 e63d 2ed2 033d 6a0c ca3b 85b9 f73d
00000260: 0749 a73d f2de 42bd 9efa 803d 20c2 75bd
00000270: 5299 9c3c 5bf7 b8bd ae3c ba3d f9b4 dabd
00000280: 752f 5abc 6d6f a93d 2037 05bd 3046 093e
00000290: 4589 453d bbf6 063c c285 913d c02e 9dbd
000002a0: 38a3 993d b426 e4bd 5591 4a3d 7e11 d1bb
000002b0: dbe4 eb3d 6c8f 64bc 7f1e d13c 3fe0 d0bd
000002c0: 9ac9 c23d d8be ddbd 923e a03d f552 443d
000002d0: 9a1f e43d 1a01 013e f183 b53c 0e1b b8bd
000002e0: fb6c f53d ca30 65bd 5a66 bfbd e7cb 8e3d
000002f0: bb72 44bd e207 cb3d abee cd3d 5448 e8bc
00000300: c305 f8bc 66e9 4dbd b619 6fbd 19f2 ebbd
00000310: d9fb 54bd 044a d13d f446 5b3d 7086 583c
00000320: 4179 e4bd 48a3 e53c b563 0bbd 3f74 9ebd
00000330: 1c62 f43c 9d45 b1bd 5f92 09bc 8c85 6cbd
00000340: 3b5c 05be 11b1 3e3d 8bb1 48bc faeb 653d
00000350: a361 6dbd c562 43bc d092 babd 1ed6 6d3d
00000360: 3b6f a9bd d024 f039 d5e4 be3d d11c 06be
00000370: bf4f a6bd 35f1 263d 4524 2fbd ec3a 96bd
00000380: 7431 13be 7c8d c13d 833f 193d eb46 c6bc
00000390: 21a0 233c 5787 883d 73c6 c83d 6f88 a7bd
000003a0: fa23 cabd 8042 eabd 1f5a efbd bab5 4c3d
000003b0: dbb4 06be 4eb2 a03d cdaf b83d cde5 f1bd
000003c0: 7ea5 a73d 8224 883d 93d5 10be 0bfd 7dbd
000003d0: 2375 433d d1db 51bd 4ce8 76bd 5f14 39bd
000003e0: bcd0 873d aae4 e1bd f7a8 72bd e091 6cbd
000003f0: 9051 363c 0b5f b4bd cea5 b4bd ea2f 4fbd

patch_to_embedding.bias f4 [64]
-0.085616186 0.09601742 0.103218876 0.117958605 0.089564614 0.058518037 0.033807542 -0.011494754
0.10077718 0.10344449 -0.001326342 -0.08352032 0.04477622 0.034755826 -0.025361497 0.075691156
0.06966991 -0.06958927 0.11003645 -0.09756233 0.0018736619 -0.081334576 0.07810748 -0.061341498
0.029734055 -0.025851622 -0.058070857 0.10049684 -0.06408116 0.0906815 -0.091118015 -0.10917714
-0.10623091 0.04272852 -0.0059897215 -0.05607979 0.0066437256 -0.093228854 -0.09653781 0.041121952
-0.079520725 -0.07992261 -0.0022610747 -0.071513385 -0.022461038 0.04031141 0.08659789 0.029082792
-0.056198027 0.027038544 0.07486917 -0.08191034 0.0638239 0.045886334 -0.10324551 0.041625
0.02443236 -0.080790505 -0.048566174 0.037227973 0.032770894 0.11298898 -0.067523435 0.11729085
00000000: 8a57 afbd c8a4 c43d 6b64 d33d 4894 f13d
00000010: a76d b73d 9cb0 6f3d c779 0a3d 7e54 3cbc
00000020: 4464 ce3d b4da d33d a7d8 adba b40c abbd
00000030: 4567 373d 205c 0e3d eac2 cfbc f703 9b3d
00000040: 19af 8e3d d284 8ebd ca5a e13d c2ce c7bd
00000050: a995 f53a be92 a6bd d1f6 9f3d 3941 7bbd
00000060: d594 f33c c8c6 d3bc b5db 6dbd 4ad1 cd3d
00000070: fc3c 83bd 39b7 b93d 159c babd 4498 dfbd
00000080: 978f d9bd 1a04 2f3d 6d45 c4bb ecb3 65bd
00000090: 9cb3 d93b c5ee bebd 9eb5 c5bd 7e6f 283d
000000a0: c3db a2bd 77ae a3bd 8a2e 14bb 9c75 92bd
000000b0: 3600 b8bc 941d 253d 3c5a b13d 093f ee3c
000000c0: e72f 66bd f07f dd3c 0255 993d 9cc0 a7bd
000000d0: 1bb6 823d 4ff3 3b3d 6272 d3bd fa7e 2a3d
000000e0: 5f26 c83c 7e75 a5bd 53ed 46bd 5c7c 183d
000000f0: c63a 063d c466 e73d ba49 8abd 2f36 f03d

transformer.layers.0.0.fn.norm.weight f4 [64]
1.0211233 1.0008752 0.98830885 1.0076883 0.9620488 0.9648075 0.9882385 0.97924036
1.0017931 0.9693027 0.9867941 1.0013509 0.9502699 0.9877745 0.9762503 0.9872953
0.9709748 0.9668595 0.9442132 0.98945874 0.9537266 0.9969789 1.0055035 0.97877765
0.95988816 0.97473395 0.98359317 1.0006831 0.9860163 0.9690204 0.9764524 0.9777028
0.97589725 0.99945045 1.001052 1.0077301 0.98985845 0.9963179 0.9871865 0.9587926
0.9894541 0.95281434 0.9842325 0.9813202 0.9482108 1.0065458 0.97534055 1.0274639
0.97866344 0.9498285 0.97485256 0.99070007 0.99932724 0.9800933 0.97684425 0.980599
0.9677025 0.96654844 0.9711291 0.96506596 0.9716175 0.99224705 0.9659768 0.97086805
00000000: 2bb4 823f ae1c 803f cf01 7d3f eefb 803f
00000010: d548 763f a0fd 763f 33fd 7c3f 7faf 7a3f
00000020: c23a 803f 3924 783f 8a9e 7c3f 442c 803f
00000030: e344 733f cade 7c3f 8aeb 793f 63bf 7c3f
00000040: ce91 783f 1b84 773f f5b7 713f 2b4d 7d3f
00000050: 6d27 743f 023a 7f3f 57b4 803f 2c91 7a3f
00000060: 3bbb 753f 2a88 793f c3cc 7b3f 6216 803f
00000070: 906b 7c3f b911 783f c9f8 793f bb4a 7a3f
00000080: 67d4 793f fcdb 7f3f 7922 803f 4dfd 803f
00000090: 5d67 7d3f b10e 7f3f 41b8 7c3f 6f73 753f
000000a0: dd4c 7d3f a4eb 733f a9f6 7b3f cd37 7b3f
000000b0: f1bd 723f 7ed6 803f ebaf 793f f083 833f
000000c0: b089 7a3f f627 733f f08f 793f 859e 7d3f
000000d0: e9d3 7f3f 65e7 7a3f 7712 7a3f 8908 7b3f
000000e0: 5abb 773f b86f 773f eb9b 783f 900e 773f
000000f0: edbb 783f e703 7e3f 414a 773f cf8a 783f

transformer.layers.0.0.fn.norm.bias f4 [64]
-0.011095779 0.00128396 -0.0037971935 0.016379004 0.020318778 0.017749509 0.010431324 -0.033485107
-0.012964874 -0.0063385125 0.009758892 0.0141533455 -0.0012461059 -0.014209423 -0.014744415 -0.012103029
0.009343855 0.019578917 -0.012875027 0.0036644707 -0.011302686 0.004849879 0.0062260744 -0.025711037
-0.00371444 -0.011730431 0.0043466226 0.0061505474 0.012611142 -0.015056412 0.0100868195 0.007834722
0.0077586193 0.0016602469 -0.0036276393 -0.005606521 -0.0088898605 0.0049950755 0.0047934293 0.017027099
0.00015851433 0.0041581844 0.00983127 -0.0067175617 0.0032825174 -0.010203048 0.00525925 0.010232455
0.0100349905 0.0056268144 0.004477109 -0.017175877 -0.005981983 0.00746826 0.013382135 0.0140393805
0.002507766 -0.00035901935 -0.006134002 -0.020867733 -0.009354379 0.003526597 -0.018449215 -0.0021109958
00000000: 12cb 35bc 8c4a a83a 56da 78bb 432d 863c
00000010: 9173 a63c 6b67 913c 25e8 2a3c ae27 09bd
00000020: 9f6a 54bc 4cb3 cfbb c2e3 1f3c 6fe3 673c
00000030: 6054 a3ba a4ce 68bc 8f92 71bc c84b 46bc
00000040: f816 193c f763 a03c c7f1 52bc 9e27 703b
00000050: e72e 39bc bceb 9e3b 1904 cc3b f49f d2bc
00000060: f66d 73bb fe30 40bc 1d6e 8e3b 888a c93b
00000070: f79e 4e3c 2baf 76bc 3043 253c 355d 003c
00000080: 043c fe3b a49c d93a b0bd 6dbb e8b6 b7bb
00000090: c7a6 11bc bbad a33b 3312 9d3b 6a7c 8b3c
000000a0: de36 2639 6141 883b 5613 213c fe1e dcbb
000000b0: 811f 573b af2a 27bc c955 ac3b 07a6 273c
000000c0: cd69 243c 2461 b83b b6b4 923b 6db4 8cbc
000000d0: 8304 c4bb 4eb8 f43b be40 5b3c 6e05 663c
000000e0: 5559 243b c33a bcb9 bdff c8bb cff2 aabc
000000f0: 1c43 19bc 7b1e 673b cf22 97bc a258 0abb

transformer.layers.0.0.fn.fn.to_qkv.weight f4 [192, 64]
0.1215919 0.06208087 0.024110036 0.02426904 0.025858404 0.05942431 -0.047313225 -0.045052506
-0.06920692 0.033136863 -0.061734337 0.056927744 -0.03315667 0.11215746 0.03756305 -0.10664339
0.029220816 0.039021946 -0.09043298 0.008526549 0.034567293 -0.10887778 -0.12033152 0.0034058464
0.055581737 -0.059945777 -0.07674861 -0.054142177 0.037224483 -0.036128465 -0.06509799 0.020490283
6.464224e-05 -0.027662324 0.0691771 -0.0897856 -0.0038191057 -0.0036880889 0.038574383 -0.08094986
0.008612188 -0.10710031 0.08999669 0.013830823 -0.025029248 -0.098145716 0.101809 0.07584284
0.0963797 -0.09157905 -0.010970502 -0.06693769 -0.08374227 -0.086300775 0.087704524 -0.035133142
0.054861374 -0.03322712 -0.019782832 0.008478406 -0.104681484 -0.103304386 0.040052913 0.005759358
0.03179036 0.040094446 0.04345715 0.038689476 0.010051399 -0.06642277 -0.069142476 -0.015571266
0.044593915 -0.031638447 -0.015038431 -0.09768797 0.085882805 -0.14957751 0.033005282 -0.03652121
-0.06521374 0.07398763 -0.008529823 0.023280594 -0.07123065 -0.07563738 -0.014867095 0.083390065
0.14307335 -0.03505044 0.08609889 0.15650503 -0.03994643 -0.0077451915 0.075627804 0.082066506
-0.07057848 -0.14597696 -0.15499061 -0.03269613 0.08546756 -0.027051825 0.08705029 -0.051883686
0.041857146 -0.04034553 0.07745206 -6.432038e-05 0.058117036 0.092378445 -0.0683623 0.047925796
-0.0012114812 -0.11202389 0.04692657 -0.067662805 0.0044155437 -0.073551565 -0.065638386 0.02258961
-0.0028173067 0.07867885 0.060010802 -0.067514 0.06887611 0.15033843 -0.031173442 0.10320515
0.12148017 -0.06850574 0.104177125 0.04789116 -0.08629352 0.0037381682 0.091563664 0.0065083904
-0.066214904 0.053314403 0.11629176 0.020015799 -0.12087733 -0.0679646 0.091210745 0.108767726
-0.030939013 -0.13153942 0.055825196 0.08529579 -0.110029675 -0.06430097 -0.05433715 0.016341751
0.06159038 0.099490255 -0.07375295 0.11232549 -0.05776948 0.10058488 -0.013104226 -0.024502706
0.048740126 -0.0027144607 0.027330603 -0.01344298 0.044752974 -0.03964187 -0.105032384 -0.122509785
0.0119722085 0.017119098 -0.008148649 -0.09001025 0.01756236 -0.07461645 0.057227775 -0.1259957
-0.092471294 -0.13078022 0.08311198 0.14376454 0.027724337 0.06392211 0.14762229 -0.09727597
0.05522704 0.023141507 0.058557637 0.08795121 -0.04446836 -0.071548715 -0.08510163 0.031301416
0.06558844 -0.043413047 0.09598679 -0.0017420598 -0.10638508 -0.09376329 -0.012878416 0.08341741
-0.02135619 0.09997781 0.08571492 0.117226206 0.0548785 0.013283093 -0.055872157 -0.07516337
-0.10361465 -0.08027086 0.06486255 0.033580385 -0.09702896 0.027567374 0.1051749 -0.08630566
0.07308435 -0.026292523 -0.10423679 0.030307863 0.014051044 -0.09919602 0.095097065 -0.0926826
-0.025994096 -0.025556704 -0.07434447 0.02854815 0.046867233 -0.08006506 -0.030407783 0.08692727
-0.09150342 0.046639238 0.07296651 -0.08551273 -0.07752631 0.08209075 -0.015433002 0.08713327
0.04769181 -0.009772637 -0.0126707405 -0.08446778 -0.0076069133 -0.07557885 -0.10525142 -0.08833248
-0.004904429 -0.040374372 -0.061957847 -0.047793508 -0.031358197 -0.07587132 -0.036881123 0.0026884354
00000000: 2d05 f93d 8348 7e3d 6982 c53c decf c63c
00000010: 01d5 d33c e866 733d 83cb 41bd fa88 38bd
00000020: 5cbc 8dbd 85ba 073d 25dd 7cbd 112d 693d
00000030: 4acf 07bd cfb2 e53d b6db 193d da67 dabd
00000040: 7e60 ef3c 7ad5 1f3d ed34 b9bd f0b2 0b3c
00000050: 6f96 0d3d 50fb debd 5f70 f6bd 9f34 5f3b
00000060: ada9 633d b489 75bd 602e 9dbd 30c4 5dbd
00000070: b378 183d 71fb 13bd 1852 85bd 3ddb a73c
00000080: 8a90 8738 199c e2bc b9ac 8d3d 83e1 b7bd
00000090: f649 7abb ddb3 71bb 2c00 1e3d 0ac9 a5bd
000000a0: 221a 0d3c 6857 dbbd 2f50 b83d ad9a 623c
000000b0: 230a cdbc 9f00 c9bd 3d81 d03d 7e53 9b3d
000000c0: b862 c53d cc8d bbbd 9fbd 33bc a116 89bd
000000d0: 1181 abbd 76be b0bd 6e9e b33d c5e7 0fbd
000000e0: 52b6 603d 2919 08bd 9b0f a2bc 03e9 0a3c
000000f0: 3f63 d6bd 4091 d3bd 860e 243d ffb8 bc3b
00000100: 9c36 023d 133a 243d 2000 323d db78 1e3d
00000110: 9fae 243c a908 88bd 929a 8dbd a01e 7fbc
00000120: 1ca8 363d 5197 01bd c063 76bc a110 c8bd
00000130: 53e3 af3d d92a 19be 8c30 073d 4497 15bd
00000140: c88e 85bd d486 973d acc0 0bbc f2b6 be3c
00000150: 60e1 91bd c5e7 9abd 1e95 73bc 69c8 aa3d
00000160: d281 123e 0d91 0fbd 9d54 b03d db42 203e
00000170: de9e 23bd 60cb fdbb c0e2 9a3d 7c12 a83d
00000180: 738b 90bd fc7a 15be dcb5 1ebe 61ec 05bd
00000190: 9e09 af3d ca9b ddbc 6c47 b23d fd83 54bd
000001a0: 6672 2b3d 5b41 25bd 309f 9e3d bee3 86b8
000001b0: 210c 6e3d e930 bd3d 8901 8cbd d74d 443d
000001c0: 90ca 9eba c86c e5bd 1336 403d cc92 8abd
000001d0: 44b0 903b 34a2 96bd 6b6d 86bd d90d b93c
000001e0: 90a2 38bb 6022 a13d e3cd 753d c844 8abd
000001f0: eb0e 8d3d 51f2 193e 725f ffbc 395d d33d
00000200: 98ca f83d bd4c 8cbd d15a d53d 8529 443d
00000210: a8ba b0bd 0efc 743b bb85 bb3d 5644 d53b
00000220: ae9b 87bd 3460 5a3d 602a ee3d 2cf8 a33c
00000230: 898e f7bd 0631 8bbd b3cc ba3d 9dc1 de3d
00000240: d073 fdbc 45b2 06be f6a8 643d 8faf ae3d
00000250: 3d57 e1bd 3ab0 83bd a290 5ebd 23df 853c
00000260: 3246 7c3d 8cc1 cb3d c90b 97bd e80a e63d
00000270: b19f 6cbd 72ff cd3d 1cb3 56bc e6b9 c8bc
00000280: baa3 473d 18e5 31bb 6ee4 df3c f23f 5cbc
00000290: e54e 373d 835f 22bd 381b d7bd 69e6 fabd
000002a0: 1527 443c 5a3d 8c3c e981 05bc 4b57 b8bd
000002b0: f0de 8f3c 82d0 98bd ac67 6a3d 0405 01be
000002c0: 9761 bdbd 40eb 05be 9d36 aa3d 0337 133e
000002d0: 261e e33c 98e9 823d 4c2a 173e a038 c7bd
000002e0: c035 623d 4293 bd3c 22da 6f3d c41f b43d
000002f0: 7424 36bd 2288 92bd c349 aebd ea35 003d
00000300: 3b53 863d e1d1 31bd b994 c43d d455 e4ba
00000310: 6ce0 d9bd f806 c0bd feff 52bc bfd6 aa3d
00000320: 2df3 aebc 2bc1 cc3d 4e8b af3d 4b14 f03d
00000330: 47c8 603d 55a1 593c 34da 64bd 41ef 99bd
00000340: eb33 d4bd 0c65 a4bd a8d6 843d 968b 093d
00000350: 1fb7 c6bd f9d4 e13c f065 d73d 06c1 b0bd
00000360: 3fad 953d 6b63 d7bc 197a d5bd 3248 f83c
00000370: 5a36 663c 4827 cbbd 40c2 c23d 60d0 bdbd
00000380: 92f1 d4bc 4b5c d1bc ea41 98bd cfdd e93c
00000390: dbf7 3f3d 26f9 a3bd be19 f9bc ed06 b23d
000003a0: 2566 bbbd c908 3f3d 776f 953d 4c21 afbd
000003b0: 1dc6 9ebd 321f a83d b4da 7cbc ee72 b23d
000003c0: 7d58 433d 691d 20bc f098 4fbc 72fd acbd
000003d0: 6a43 f9bb 16c9 9abd 0e8e d7bd a9e7 b4bd
000003e0: 55b5 a0bb 995f 25bd 83c7 7dbd 20c3 43bd
000003f0: 7471 00bd 6c62 9bbd a910 17bd 7630 303b

transformer.layers.0.0.fn.fn.to_out.weight f4 [64, 64]
-0.04380519 -0.1187947 0.07128377 -0.06952673 0.0046587544 0.12071998 -0.025172804 0.033941925
-0.035228927 -0.022919588 0.012713848 -0.088960044 -0.03694813 0.09730445 0.052005284 0.07527955
-0.03433295 -0.02457599 -0.011461596 -0.04862862 -0.056089867 -0.04712287 -0.044172466 -0.10080125
0.05655588 -0.036265504 0.094522916 -0.015671888 0.06494054 -0.02125946 -0.120765835 -0.024199871
-0.034522224 0.0309709 0.075842634 -0.13437209 -0.07625091 -0.02883495 0.047571525 0.017829925
-0.013162659 -0.09023079 0.106469 -0.09422405 -0.054818265 0.0056578205 0.032597065 -0.11538962
0.092114955 0.0018570607 0.054041214 0.077288546 0.053193733 -0.107325375 -0.08757835 -0.0038718802
0.09043995 0.12569393 -0.09873308 -0.14054655 -0.012895602 0.057391755 0.015307755 0.10270949
0.08478388 -0.017025607 0.01118627 0.08514007 0.065784186 -0.036972176 0.00999445 0.061138816
-0.056236584 0.052260697 0.11277722 0.1116395 0.078877024 0.063970536 -0.06271797 0.09482865
-0.0625252 -0.04252161 -0.08136969 -0.021442547 -0.10441606 0.09013157 0.013463359 -0.016664678
-0.011638133 -0.018207833 -0.12374816 0.00576933 0.10184478 0.061147984 -0.016320677 0.023654133
-0.12290866 0.06372251 0.09379641 -0.16253823 -0.062108576 0.13926211 -0.16004041 -0.025560679
-0.04206241 0.02904247 -0.054675017 -0.10633491 -0.05469682 -0.08580409 0.0090103205 -0.1300652
0.0045960513 -0.02328762 -0.016744398 -0.01944032 0.1401475 0.086334735 -0.17269395 -0.04252743
0.06674415 -0.06933558 -0.13842736 0.0015692052 -0.010093317 -0.005807025 -0.03776833 -0.08017276
-0.015502195 0.07753485 0.03386268 -0.08528835 -0.0058358614 0.11742098 -0.05293996 0.08483276
-0.12379058 0.14359635 -0.018816851 -0.041749436 0.10301901 -0.081810415 -0.038493846 -0.050481386
0.122230574 -0.02687245 -0.046904955 -0.09706021 0.08718127 -0.10452993 0.038286235 0.088676155
-0.008203536 0.107677534 -0.04918114 0.07099594 0.12551683 -0.13659768 -0.016592208 -0.11222379
-0.050861605 -0.035944346 -0.11029598 -0.14017215 0.07097696 0.12609103 -0.12759247 -0.01949789
-0.049743365 0.03667626 0.107288204 0.10072475 0.11402352 0.075336814 -0.047966506 -0.0065585184
0.04128353 -0.10059284 0.11716406 -0.09606518 0.025987737 0.035813645 0.053768087 -0.039230485
-0.09055866 0.011544614 0.08622306 0.09814436 0.08050152 -0.037238315 0.015610591 0.06588063
0.055986725 0.086746216 -0.063987084 -0.036292814 0.0059551196 0.11284315 -0.05429317 0.035566796
-7.290757e-05 -0.10357884 0.101329945 0.044370282 -0.06950632 0.054944474 0.11704832 -0.027930105
0.09794914 -0.12388853 -0.112822756 0.0892893 0.06504749 0.03178979 0.03338547 0.048444796
-0.098449945 -0.08817485 0.095976226 -0.1232195 0.041149 0.0082731275 0.023873456 -0.0053412234
0.040656216 0.07348953 0.02751707 0.12156603 0.12069579 -0.07061005 0.036743544 -0.058209106
-0.10885948 0.029434936 0.06938716 -0.020529885 0.023957787 -0.12399295 -0.0808567 0.122227915
0.12463999 0.015818387 -0.07577902 0.0007609701 0.0292902 -0.118973926 0.05642202 -0.009844911
-0.12214482 0.1038174 -0.038548622 -0.011662284 0.05553775 0.107763745 0.00866776 0.052245434
00000000: 126d 33bd a34a f3bd 3afd 913d 0864 8ebd
00000010: 77a8 983b 093c f73d 3237 cebc b006 0b3d
00000020: 354c 10bd dcc1 bbbc be4d 503c af30 b6bd
00000030: ec56 17bd 8e47 c73d 7e03 553d 2a2c 9a3d
00000040: b5a0 0cbd 9653 c9bc 6bc9 3bbc ce2e 47bd
00000050: 7dbe 65bd e903 41bd 30ee 34bd e370 cebd
00000060: 23a7 673d 238b 14bd 3b95 c13d 5562 80bc
00000070: 8cff 843d 5228 aebc 1454 f7bd cf3e c6bc
00000080: 2d67 0dbd afb6 fd3c 6253 9b3d d698 09be
00000090: 7029 9cbd 4637 ecbc 5cda 423d 1010 923c
000000a0: 31a8 57bc ecca b8bd 6b0c da3d 8af8 c0bd
000000b0: 1e89 60bd 3d65 b93b 8084 053d 6551 ecbd
000000c0: c4a6 bc3d 9e68 f33a 525a 5d3d 7549 9e3d
000000d0: ace1 593d 68cd dbbd 475c b3bd 5fbf 7dbb
000000e0: 9538 b93d e9b5 003e 9234 cabd 6feb 0fbe
000000f0: 1348 53bc 9e13 6b3d 61cd 7a3c 5a59 d23d
00000100: 2ca3 ad3d 4979 8bbc 9e46 373c eb5d ae3d
00000110: dcb9 863d 2370 17bd c3bf 233c b26c 7a3d
00000120: 5558 66bd 500f 563d bef7 e63d 40a3 e43d
00000130: 478a a13d fc02 833d 4772 80bd 8635 c23d
00000140: 360d 80bd 242b 2ebd 27a5 a6bd 48a8 afbc
00000150: 16d8 d5bd e796 b83d 6c95 5c3c 5d84 88bc
00000160: dead 3ebc 9828 95bc ad6f fdbd a60c bd3b
00000170: ff93 d03d 4f76 7a3d f1b2 85bc 50c6 c13c
00000180: 89b7 fbbd f380 823d 5518 c03d 6c70 26be
00000190: 9065 7ebd ba9a 0e3e a2e1 23be a164 d1bc
000001a0: a249 2cbd 79ea ed3c e9f2 5fbd 1ec6 d9bd
000001b0: c609 60bd 0eba afbd 06a0 133c d02f 05be
000001c0: 799a 963b aec5 bebc 8c2b 89bc 4e41 9fbc
000001d0: d482 0f3e 44d0 b03d afd6 30be 3e31 2ebd
000001e0: 28b1 883d d0ff 8dbd e7bf 0dbe caad cd3a
000001f0: 715e 25bc db48 bebb f7b2 1abd 9e31 a4bd
00000200: ebfc 7dbc 97ca 9e3d 98b3 0a3d a9ab aebd
00000210: c13a bfbb 697a f03d 92d7 58bd ccbc ad3d
00000220: ea85 fdbd ec0a 133e cc25 9abc 7501 2bbd
00000230: a1fb d23d 388c a7bd b9ab 1dbd 92c5 4ebd
00000240: 0654 fa3d 9d23 dcbc 691f 40bd 81c7 c6bd
00000250: 188c b23d ca13 d6bd 07d2 1c3d d89b b53d
00000260: 2068 06bc 0a86 dc3d 2a72 49bd 5266 913d
00000270: 7c87 003e 43e0 0bbe 62ec 87bc 96d5 e5bd
00000280: 4254 50bd 613a 13bd dce2 e1bd 4a89 0fbe
00000290: 5e5c 913d 021e 013e 9aa7 02be 0aba 9fbc
000002a0: b3bf 4bbd d939 163d ebb9 db3d c748 ce3d
000002b0: 2a85 e93d 304a 9a3d 8778 44bd d7e8 d6bb
000002c0: eb18 293d 9e03 cebd b6f3 ef3d d2bd c4bd
000002d0: 3ce4 d43c 54b1 123d ed3b 5c3d 25b0 20bd
000002e0: d276 b9bd 9f25 3d3c b795 b03d e9ff c83d
000002f0: fbdd a43d 3487 18bd 90c3 7f3c 6cec 863d
00000300: 5652 653d 00a8 b13d a90b 83bd c6a7 14bd
00000310: 2a23 c33b 4f1a e73d 8462 5ebd 7dae 113d
00000320: f4e5 98b8 2521 d4bd 1386 cf3d 9dbd 353d
00000330: 5459 8ebd 750d 613d 08b7 ef3d adcd e4bc
00000340: 8f99 c83d 45b9 fdbd 9e0f e7bd 4fdd b63d
00000350: 9e37 853d 0336 023d 34bf 083d 0d6e 463d
00000360: 20a0 c9bd 0495 b4bd 2f8f c43d 815a fcbd
00000370: db8b 283d 038c 073c 4492 c33c 6e05 afbb
00000380: 2287 263d ae81 963d 7a6b e13c 9cf7 f83d
00000390: 5b2f f73d 009c 90bd 6680 163d ac6c 6ebd
000003a0: b8f1 debd 8921 f13c db1a 8e3d 4a2e a8bc
000003b0: 1f43 c43c 04f0 fdbd 3398 a5bd a152 fa3d
000003c0: 4043 ff3d 9095 813c 0832 9bbd d77b 473a
000003d0: 00f2 ef3c 9aa8 f3bd c71a 673d 8d4c 21bc
000003e0: 1027 fabd 389e d43d 29e5 1dbd 2a13 3fbc
000003f0: 8d7b 633d 3db3 dc3d 3803 0e3c 4fff 553d

transformer.layers.0.0.fn.fn.to_out.bias f4 [64]
0.10641549 0.015147952 -0.13566367 -0.0069382843 0.07986493 -0.08474108 -0.03281685 -0.09358918
-0.06987817 -0.077343486 0.050092455 0.055446524 0.021715483 -0.050769523 0.08105433 0.021717515
0.06720694 0.065768495 0.11428918 0.03150261 0.12602814 -0.076258324 -0.096219465 0.086831816
0.011486723 -0.046187993 0.13656193 0.057846718 0.049710914 -0.044148684 0.045198776 -0.06495184
0.11672016 -0.091504276 -0.041090026 0.047176454 -0.031312037 0.03305446 0.06144612 0.12669244
0.012240218 0.08046899 0.036946714 0.053577237 0.101236776 -0.090058796 -0.022388011 -0.07861033
0.039630514 -0.07045098 0.086709395 0.0014362559 0.1035915 -0.12010593 0.09870206 -0.04580332
-0.007551909 -0.07773744 -0.010238898 0.0011596279 0.1163955 -0.054804914 -0.012304251 -0.012932087
00000000: 5df0 d93d 1e2f 783c 6beb 0abe 8c5a e3bb
00000010: 3990 a33d bb8c adbd f66a 06bd afab bfbd
00000020: 491c 8fbd 4366 9ebd bf2d 4d3d e51b 633d
00000030: abe4 b13c b4f3 4fbd d0ff a53d eee8 b13c
00000040: cba3 893d a2b1 863d 7210 ea3d e108 013d
00000050: 850d 013e 532d 9cbd b60e c5bd e1d4 b13d
00000060: cf32 3c3c 9f2f 3dbd e4d6 0b3e aef0 6c3d
00000070: ac9d 4b3d 40d5 34bd 5a22 393d 7805 85bd
00000080: fb0a ef3d 9866 bbbd 044e 28bd 193c 413d
00000090: 0d41 00bd 1d64 073d edae 7b3d aabb 013e
000000a0: 328b 483c edcc a43d 7055 173d ce73 5b3d
000000b0: 3a55 cf3d bf70 b8bd 1067 b7bc 74fe a0bd
000000c0: 9b53 223d 9a48 90bd b294 b13d c040 bc3a
000000d0: c827 d43d 19fa f5bd 4e24 ca3d 439c 3bbd
000000e0: 0176 f7bb cf34 9fbd 0dc1 27bc a8fe 973a
000000f0: c460 ee3d 1e7b 60bd c597 49bc 1be1 53bc

transformer.layers.0.1.fn.norm.weight f4 [64]
1.0023963 0.9680352 0.97426623 0.9926719 1.0013127 0.9643389 1.0017538 0.9826228
0.9931115 0.9882038 0.9981029 0.9950391 0.9921982 1.0095761 0.9829342 0.982152
0.9899298 0.99400485 0.99519587 0.99184585 1.0005183 0.99651235 0.9910752 0.9770043
0.9913985 1.0033141 0.97225803 0.9806518 0.9980057 0.9929059 1.0109648 0.98692095
0.95123833 0.98744255 0.9944789 0.9909998 0.97155684 0.99011016 0.995673 0.9815362
0.9894364 0.9954315 0.9706475 1.009799 0.97066563 0.99453497 0.9967936 0.9972915
0.9698766 0.99747455 0.9865331 1.0023448 0.9758596 0.9696007 1.0135235 0.9964771
0.983426 0.9758162 0.9758887 0.9855811 0.99194556 0.99678856 0.9622828 0.98683286
00000000: 864e 803f 28d1 773f 8369 793f bf1f 7e3f
00000010: 042b 803f eade 763f 7839 803f 2b8d 7b3f
00000020: 8e3c 7e3f edfa 7c3f ac83 7f3f e2ba 7e3f
00000030: b400 7e3f ca39 813f 93a1 7b3f 506e 7b3f
00000040: 0a6c 7d3f 1a77 7e3f 28c5 7e3f 9ce9 7d3f
00000050: fc10 803f 6f1b 7f3f 1bb7 7d3f f41c 7a3f
00000060: 4bcc 7d3f 996c 803f e7e5 783f ff0b 7b3f
00000070: 4d7d 7f3f 152f 7e3f 4b67 813f daa6 7c3f
00000080: 5b84 733f 09c9 7c3f 2b96 7e3f 2ab2 7d3f
00000090: f3b7 783f dc77 7d3f 6de4 7e3f f545 7b3f
000000a0: b44b 7d3f 99d4 7e3f 5b7c 783f 1841 813f
000000b0: 8b7d 783f d899 7e3f de2d 7f3f 7f4e 7f3f
000000c0: d549 783f 7e5a 7f3f 6f8d 7c3f d64c 803f
000000d0: efd1 793f c037 783f 23bb 813f 2019 7f3f
000000e0: cec1 7b3f 17cf 793f d8d3 793f 0b4f 7c3f
000000f0: 25f0 7d3f 892d 7f3f 2a58 763f 14a1 7c3f

transformer.layers.0.1.fn.norm.bias f4 [64]
0.0015157404 -0.031632297 -0.024830138 0.006779473 -0.0037166001 0.034858394 -0.00086033705 0.013665246
0.0072158743 -0.012676855 -0.007487999 0.0050630355 0.007961776 -0.010327222 0.01604657 -0.017984167
-0.01024624 0.004871429 0.0042476836 0.0077228053 0.00042763274 -0.0036903434 0.010080704 -0.023011576
-0.007264857 -0.00069886487 0.028277963 -0.019479066 -0.0032457307 -0.008693245 -0.0058245244 -0.0123008
-0.042495947 0.012406783 0.0059396033 -0.008015789 -0.028581887 -0.0075792107 0.004040024 0.017011292
0.010220665 -0.0048400876 0.028862862 -0.009270205 0.029819347 -0.0044238227 -0.004385026 0.0021578146
-0.024551043 0.0038438353 0.013492553 0.0011340636 0.021489097 -0.02952523 0.0008191056 0.002046698
0.015720436 0.025526883 0.024121327 -0.013773723 0.01651119 -0.003502842 0.037561256 -0.011764821
00000000: cfab c63a de90 01bd 9368 cbbc 5726 de3b
00000010: 3492 73bb adc7 0e3d 3e88 61ba 32e4 5f3c
00000020: 2473 ec3b 95b2 4fbc e35d f5bb d2e7 a53b
00000030: 1c72 023c 8233 29bc 1974 833c 8853 93bc
00000040: d8df 27bc 82a0 9f3b 2730 8b3b 960f fd3b
00000050: e533 e039 b0d9 71bb 8a29 253c c682 bcbc
00000060: 0a0e eebb 0734 37ba 30a7 e73c 9092 9fbc
00000070: 53b6 54bb 1d6e 0ebc a7db bebb 4b89 49bc
00000080: 3b10 2ebd d245 4b3c 01a1 c23b a854 03bc
00000090: 9024 eabc 075b f8bb 2d62 843b 445b 8b3c
000000a0: 9374 273c 9999 9ebb cf71 ec3c 0fe2 17bc
000000b0: b447 f43c b7f5 90bb 44b0 8fbb 1f6a 0d3b
000000c0: 451f c9bc dbe8 7b3b de0f 5d3c dca4 943a
000000d0: e709 b03c e5de f1bc 3fb9 563a e521 063b
000000e0: 25c8 803c c11d d13c 179a c53c 2eab 61bc
000000f0: 7a42 873c f08f 65bb d5d9 193d 3cc1 40bc

transformer.layers.0.1.fn.fn.net.0.weight f4 [128, 64]
0.0649543 -0.1391417 -0.14129986 0.058300912 0.05820344 -0.0006775441 -0.08260393 0.06048192
0.13558953 -0.12567535 0.0109238075 0.12342652 0.02698158 -0.0383647 0.016958166 -0.15603596
-0.15973395 0.023046138 0.07153523 0.092776164 0.15531509 -0.039945528 -0.02677602 -0.10552508
-0.044418305 0.028938675 -0.01258259 -0.1239222 -0.13525887 -0.14539963 0.12499578 0.014911428
0.058014836 0.024684237 0.045714922 -0.045333393 0.029964175 -0.034168996 -0.06473491 0.15411247
0.106866516 -0.035491977 0.052845627 -0.03407653 0.03115214 -0.022841113 0.03467981 0.10959989
-0.060649794 0.03626993 0.031641524 -0.0031478745 0.008093453 -0.12519701 -0.029133648 -0.06003351
0.06992718 0.14226218 -0.022957262 -0.06095865 0.1319048 -0.1057577 0.0044228532 -0.09487015
-0.12021696 -0.13037822 0.08076713 0.0024441506 -0.13009992 -0.068479806 0.0607396 -8.885115e-05
-0.057869848 0.004790118 -0.06511604 0.046739966 0.055913713 -0.052126 -0.062683225 0.074308515
-0.097188145 0.005829192 0.088778324 -0.042840652 -0.02776939 -0.006678715 0.08275556 0.01937779
0.075017266 0.06492815 -0.0124830855 -0.050999623 0.024008945 -0.08055553 0.07841317 0.10581616
-0.005872076 0.09608805 -0.099538155 -0.12682287 0.091859885 -0.026621198 0.03839296 -0.0090354895
0.07042802 -0.088357456 -0.050804846 0.07650933 0.002394053 -0.07772834 0.0886954 0.09779003
0.014634456 0.015576543 0.13941602 -0.04795198 0.053046342 0.026967878 -0.0089215385 0.10303371
0.11520491 -0.036349904 0.07456243 0.050398193 0.13792862 -0.12081435 0.025236964 -0.054419465
-0.015121848 0.0065212306 -0.099754706 -0.013979588 -0.02500365 0.00047068816 -0.0109487325 -0.07617975
-0.074861564 0.04808689 0.11483048 -0.061173346 0.061961588 -0.028696945 0.062038634 0.030874515
-0.107397914 -0.10564766 0.022934252 -0.0033151407 0.1011482 -0.020753907 0.12039926 0.0008801479
0.11944158 -0.032213707 0.07922529 0.016567677 -0.01796839 -0.023410514 -0.025821121 0.05421448
0.08991287 0.08054879 -0.002433076 0.12549247 -0.11147964 0.12202053 -0.072939165 0.0909929
0.023037728 0.009103118 0.11800767 0.011642639 -0.048621032 0.10181521 0.005676822 0.045965932
0.040583335 -0.009295297 0.062615424 -0.116983734 0.03728842 -0.047694292 -0.05918082 -0.023057787
-0.030598644 0.082674734 0.118971124 -0.09175647 0.069416635 -0.0756776 0.076750025 -0.0102838315
0.09284003 0.10466858 -0.078569286 -0.11551567 0.06723049 -0.08859488 0.13545644 0.054734677
0.05873756 -0.027345942 0.07675325 -0.0760175 0.009004212 -0.048179187 0.067478724 -0.03874474
0.11756067 -0.13569054 -0.121512234 -0.06639641 0.08477243 -0.013961216 -0.026839266 -0.055154733
0.10312016 0.14163902 0.021445796 -0.09349728 0.13351324 -0.05740257 0.05757853 0.09174679
-0.05606661 -0.031783003 0.030614186 -0.03855298 0.06736464 0.006299253 -0.107402675 0.1035251
0.07369718 0.12824585 0.032808036 -0.08346829 0.048143875 -0.06203873 0.078286335 0.050021987
-0.030712916 -0.029604843 0.0057994854 0.113574795 -0.0029957753 0.10338219 -0.090097755 0.033345982
-0.066896856 0.04241824 0.06427884 0.084834896 0.085020415 -0.04375387 0.054954596 -0.09251188
00000000: c306 853d 297b 0ebe e9b0 10be f0cc 6e3d
00000010: bb66 6e3d 379d 31ba 402c a9bd e4bb 773d
00000020: fbd7 0a3e 0ab1 00be c5f9 323c 0bc7 fc3d
00000030: 7908 dd3c 4e24 1dbd daeb 8a3c e4c7 1fbe
00000040: 4c91 23be 41cb bc3c 1081 923d 6e01 be3d
00000050: eb0a 1f3e ec9d 23bd 6259 dbbc 881d d8bd
00000060: f8ef 35bd cd10 ed3c 3527 4ebc ecca fdbd
00000070: 4d81 0abe a4e3 14be cafd ff3d 104f 743c
00000080: f7a0 6d3d 9936 ca3c 923f 3b3d 82af 39bd
00000090: 6e77 f53c caf4 0bbd bd93 84bd a9cf 1d3e
000000a0: d5dc da3d 0960 11bd a874 583d d593 0bbd
000000b0: c632 ff3c 491d bbbc 6b0c 0e3d e875 e03d
000000c0: eb6b 78bd c78f 143d 8b9a 013d 924c 4ebb
000000d0: 679a 043c a533 00be b0a9 eebc b3e5 75bd
000000e0: fb35 8f3d 2dad 113e de10 bcbc c7af 79bd
000000f0: 0d12 073e 7e97 d8bd 95ed 903b 484b c2bd
00000100: 4f34 f6bd de81 05be 3d69 a53d 0b2e 203b
00000110: ea38 05be 243f 8cbd 16ca 783d 9955 bab8
00000120: ef08 6dbd 6cf6 9c3b 8f5b 85bd 6872 3f3d
00000130: c705 653d 1382 55bd 1060 80bd 102f 983d
00000140: 940a c7bd cf02 bf3b 69d1 b53d ae79 2fbd
00000150: a27c e3bc 1fd9 dabb bf7b a93d 2cbe 9e3c
00000160: a7a2 993d 0df9 843d db85 4cbc fbe4 50bd
00000170: 68ae c43c 4cfa a4bd 1697 a03d 25b6 d83d
00000180: 8b6a c0bb d0c9 c43d a9da cbbd dbdd 01be
00000190: 0921 bc3d b314 dabc f041 1d3d 9709 14bc
000001a0: 913c 903d c1f4 b4bd be18 50bd ecb0 9c3d
000001b0: 8be5 1c3b 0930 9fbd efa5 b53d 2446 c83d
000001c0: 5bc5 6f3c c234 7f3c 13c3 0e3e 4c69 44bd
000001d0: 1f47 593d bdeb dc3c a52b 12bc 5603 d33d
000001e0: 8df0 eb3d a3e3 14bd 30b4 983d 566e 4e3d
000001f0: 293d 0d3e 846d f7bd c0bd ce3c f2e6 5ebd
00000200: a1c1 77bc 0cb0 d53b 324c ccbd a40a 65bc
00000210: 74d4 ccbc b2c6 f639 5062 33bc 2104 9cbd
00000220: 0551 99bd c2f6 443d 3e2c eb3d e790 7abd
00000230: 6fcb 7d3d db15 ebbc 391c 7e3d 8dec fc3c
00000240: 70f3 dbbd cd5d d8bd 9de0 bb3c d542 59bb
00000250: ca26 cf3d 1904 aabc e393 f63d bab9 663a
00000260: c99d f43d 85f2 03bd de40 a23d f0b8 873c
00000270: 7232 93bc 68c7 bfbc d186 d3bc 0110 5e3d
00000280: 3d24 b83d c4f6 a43d 3e74 1fbb 1981 003e
00000290: 704f e4bd e6e5 f93d 2161 95bd 7c5a ba3d
000002a0: 9eb9 bc3c 3f25 153c 01ae f13d c4c0 3e3c
000002b0: d926 47bd 7e84 d03d a204 ba3b c646 3c3d
000002c0: b63a 263d 4d4b 18bc 843c 803d 2b95 efbd
000002d0: bebb 183d 175b 43bd 9667 72bd afe3 bcbc
000002e0: 02aa fabc 5f51 a93d 22a7 f33d d1ea bbbd
000002f0: 4f2a 8e3d dcfc 9abd 1e2f 9d3d 847d 28bc
00000300: ea22 be3d 7b5c d63d efe8 a0bd 7b93 ecbd
00000310: 24b0 893d 3c71 b5bd 18b5 0a3e 7831 603d
00000320: cc96 703d 9904 e0bc cf30 9d3d 10af 9bbd
00000330: 6786 133c 8a57 45bd 4932 8a3d ceb2 1ebd
00000340: a6c3 f03d 76f2 0abe 68db f8bd d7fa 87bd
00000350: 2b9d ad3d 96bd 64bc 05de dbbc eee9 61bd
00000360: aa30 d33d d209 113e 18af af3c 807b bfbd
00000370: b2b7 083e f51e 6bbd 77d7 6b3d bee5 bb3d
00000380: 1aa6 65bd e52e 02bd 9aca fa3c bbe9 1dbd
00000390: 79f6 893d f769 ce3b eff5 dbbd f804 d43d
000003a0: 8cee 963d e152 033e b861 063d 6cf1 aabd
000003b0: 8332 453d 531c 7ebd 9654 a03d dbe3 4c3d
000003c0: a799 fbbc db85 f2bc 9c09 be3b e799 e83d
000003d0: c554 44bb 0bba d33d 2c85 b8bd cc95 083d
000003e0: 3801 89bd c0be 2d3d a0a4 833d ebbd ad3d
000003f0: 2f1f ae3d 4237 33bd 1218 613d de76 bdbd

transformer.layers.0.1.fn.fn.net.0.bias f4 [128]
0.081290856 0.028672582 0.031382807 -0.07830755 0.03057785 -0.090165704 -0.096457995 0.06293518
-0.08111864 0.11518502 0.017097961 -0.0532272 0.021091718 -0.00082497974 -0.10565732 -0.018386416
-0.12207949 -0.043291215 -0.13281117 0.07090892 0.0068499376 -0.09441068 -0.087297805 -0.037724182
-0.018997539 -0.056251798 0.055283334 -0.057224467 0.08887719 0.02611227 -0.061705466 0.053830504
-0.12160394 0.104232565 -0.03588645 -0.010840855 -0.084514 -0.081904314 -0.114925124 0.08922026
0.119997516 -0.06041204 0.06765457 -0.083595954 -0.0008465316 -0.06545224 -0.031834636 0.076140784
0.042211793 -0.13073352 0.05436012 -0.062315587 0.0054249377 -0.004017198 -0.04598042 -0.02584368
-0.054434948 -0.077824995 -0.12509987 0.10298316 0.11064711 -0.056302886 0.01632598 -0.070927985
-0.11510871 0.010686071 -0.024468102 0.023567017 0.10126354 0.0714693 -0.079060525 -0.10511037
0.015643522 0.0150137115 0.06060708 0.025360288 -0.108305395 0.11667793 0.045753244 -0.023542047
0.035496145 0.08748846 0.035291295 0.13634162 -0.032800104 0.04327676 -0.09511349 0.053971894
0.11831705 -0.099257514 0.04698149 -0.09922494 -0.107651345 0.02270111 0.03262807 0.11558866
0.03963015 0.051034402 0.023825612 -0.077320546 -0.0033456134 -0.02170355 -0.12648828 0.031931058
-0.040758163 -0.124786735 -0.026269495 0.0049467073 -0.005576302 -0.1014997 -0.105797514 0.010969815
0.04596577 0.006150335 -0.052154236 0.08393439 0.07532274 0.043772798 -0.05362293 -0.07842401
0.05974261 -0.11525016 -0.08700434 0.024761187 -0.01363505 -0.1180615 0.1317388 0.0125237275
00000000: d27b a63d c3e2 ea3c 428b 003d b55f a0bd
00000010: 667e fa3c cca8 b8bd c58b c5bd 29e4 803d
00000020: 8821 a6bd 20e6 eb3d 0611 8c3c c404 5abd
00000030: 8ac8 ac3c 7443 58ba dd62 d8bd 1c9f 96bc
00000040: d004 fabd 2152 31bd a7ff 07be b238 913d
00000050: 7175 e03b 635a c1bd 31c9 b2bd ac84 1abd
00000060: baa0 9bbc 4968 66bd c770 623d 3464 6abd
00000070: 3f05 b63d 66e9 d53c dfbe 7cbd 607d 5c3d
00000080: 7d0b f9bd e277 d53d acfd 12bd d79d 31bc
00000090: ad15 adbd 73bd a7bd dd5d ebbd 1db9 b63d
000000a0: 42c1 f53d 9e72 77bd 7b8e 8a3d 5b34 abbd
000000b0: c6e9 5dba d30b 86bd 0965 02bd b3ef 9b3d
000000c0: 46e6 2c3d 02df 05be b8a8 5e3d a13e 7fbd
000000d0: adc3 b13b b3a2 83bb f755 3cbd 20b6 d3bc
000000e0: 2ef7 5ebd b662 9fbd 2e1a 00be d6e8 d23d
000000f0: f49a e23d db9d 66bd 10be 853c b142 91bd
00000100: 1ebe ebbd a114 2f3c 5471 c8bc 9e0f c13c
00000110: 4263 cf3d 7f5e 923d 7cea a1bd 1b44 d7bd
00000120: d826 803c 12fc 753c 213f 783d 61c0 cf3c
00000130: 38cf ddbd d7f4 ee3d c167 3b3d 40db c0bc
00000140: 6864 113d 262d b33d 9b8d 103d 239d 0b3e
00000150: 6759 06bd f942 313d ddca c2bd a211 5d3d
00000160: 3650 f23d 8647 cbbd aa6f 403d 7236 cbbd
00000170: 4f78 dcbd aef7 b93c 03a5 053d bfb9 ec3d
00000180: 3953 223d 7309 513d ee2d c33c 3c5a 9ebd
00000190: 1442 5bbb a5cb b1bc 2586 01be 24ca 023d
000001a0: 08f2 26bd 3090 ffbd 2033 d7bc fd17 a23b
000001b0: 69b9 b6bb 13df cfbd 5eac d8bd bdba 333c
000001c0: 9a46 3c3d c088 c93b ae9f 55bd cbe5 ab3d
000001d0: cf42 9a3d 1b4b 333d b8a3 5bbd c49c a0bd
000001e0: abb4 743d 4708 ecbd 552f b2bd f9d7 ca3c
000001f0: 8b65 5fbc 3aca f1bd 89e6 063e 5230 4d3c
