model_training/trained_models/multicolor_data/old_1_dim_regression/model_2.pth (torch, 453421 bytes, 18 tensors)

pos_embedding f4 [1, 1025, 64]
0	0x3ff5395f	1.9158133
1	0x3fbae818	1.4602079
2	0x3f633791	0.8875666
3	0xc006c1d8	-2.1055813
4	0x3f28de9b	0.6596467
5	0xbf99b135	-1.2007204
6	0xbd5232c2	-0.051317938
7	0xbfcd02d2	-1.6016486
8	0xbf349d0d	-0.7055214
9	0x3fd07ff3	1.6289047
10	0xbecc1faf	-0.39867923
11	0xbfb31a8b	-1.3992475
12	0xbf37420d	-0.7158516
13	0xbf07351a	-0.528154
14	0xbf407625	-0.75180274
15	0x3f41b793	0.7567074
16	0x3fd0d2eb	1.6314367
17	0xbe1424ba	-0.14467135
18	0xbef072eb	-0.46962675
19	0x3ee7a9ab	0.45246634
20	0xbf40baf8	-0.7528529
21	0x3f86b2fa	1.0523369
22	0x3f4f3d1e	0.8095263
23	0x3fd65b96	1.67467
24	0x3fa17a17	1.2615384
25	0x3fa544f0	1.2911663
26	0x3f1edec4	0.62058663
27	0x3fa619a9	1.2976581
28	0xbe727a42	-0.2367945
29	0x3d1676b4	0.036734298
30	0xbe840ca3	-0.2579089
31	0x3f585e01	0.8451844
32	0xbfb20353	-1.3907264
33	0xbf5a2689	-0.8521505
34	0xbe5e4062	-0.21704248
35	0x3fd8161f	1.6881751
36	0x3e919cc6	0.2843992
37	0xbee08cc5	-0.438574
38	0x3eb3ae28	0.35093808
39	0xbf458b03	-0.7716524
40	0xbfc4bd42	-1.5370257
41	0x3f7cc603	0.9873964
42	0xbf5ebd10	-0.87007236
43	0xbf192f75	-0.5983804
44	0xbf9f053d	-1.2423474
45	0x400719ad	2.1109421
46	0xbf9ed8e3	-1.2409939
47	0xbef33b7d	-0.47506323
48	0xbf6c2497	-0.9224333
49	0xbf25062d	-0.6446255
50	0x3daa4b63	0.0831516
51	0x3f029051	0.5100146
52	0xbef4c5cf	-0.47807166
53	0x3f9818b8	1.1882544
54	0xbf529622	-0.82260334
55	0xbf3a0e0e	-0.72677696
56	0xbfb078e1	-1.3786889
57	0x3d27109b	0.04078732
58	0xbd3c48ee	-0.04596799
59	0x3f2922c7	0.6606869
60	0xbdb55025	-0.08853177
61	0x3feb5b05	1.8387152
62	0xbf96fbfd	-1.1795651
63	0x3faf3e15	1.3690821
64	0x3fb971d1	1.4487859
65	0x3f5f3041	0.87183005
66	0x400ed698	2.2318478
67	0x3f03c8e7	0.5147843
68	0x3eaf50c5	0.3424131
69	0xbe3ff931	-0.18747403
70	0xbf86bde2	-1.0526698
71	0x3fa3456f	1.2755564
72	0xbe2d4cf1	-0.16923882
73	0x3f05f726	0.52330244
74	0x3d459707	0.048239734
75	0x3eda44b0	0.4263053
76	0x3f14c9c4	0.5812037
77	0xbf26ddda	-0.6518227
78	0xc00e4a42	-2.2232823
79	0xbf4026e5	-0.7505935
80	0x3cd63a33	0.026150798
81	0xbea8be43	-0.32957658
82	0xbfadbee7	-1.3573884
83	0xbf15d6de	-0.58530986
84	0x3f0bee62	0.5466062
85	0x3f0627f8	0.5240474
86	0x3f91f43b	1.1402658
87	0x3d463c6e	0.048397474
88	0x3f3dcd2e	0.74141204
89	0xbf006b40	-0.5016365
90	0xbf8649b3	-1.0491241
91	0x3f1a70e9	0.6032854
92	0xbfdbd658	-1.7174788
93	0xbf573da4	-0.8407843
94	0x3fac2a3d	1.345039
95	0x3efa2803	0.48858652
96	0xc0217ca6	-2.523233
97	0x3ef6faac	0.48238122
98	0x3f492d82	0.78585064
99	0x3c93943a	0.018015016
100	0x3f22b87c	0.6356275
101	0x3f172aa5	0.59049445
102	0x3f8960d0	1.073267
103	0xbee0863d	-0.43852416
104	0xbe3c0abd	-0.18363471
105	0x3f41af73	0.7565834
106	0x3ecfbce2	0.40573794
107	0x3e339904	0.1753884
108	0x3e89cf3e	0.26915926
109	0x3fa3c28e	1.2793748
110	0xb7c2379a	-2.3152494e-05
111	0xbe868280	-0.2627144
112	0xbfbb541e	-1.4635046
113	0xbde586ef	-0.11207377
114	0xbf1b70b8	-0.6071887
115	0x3ef169a6	0.47150916
116	0x3f39f978	0.72646284
117	0x3db5f4aa	0.088845566
118	0xbeccd8f5	-0.40009275
119	0x3f08e8cd	0.53480226
120	0xbca64b17	-0.020299478
121	0x3e7747df	0.2414851
122	0x3ddf36a1	0.108990915
123	0x3f446ba5	0.7672675
124	0x3f8d095b	1.101848
125	0x3eacf79c	0.3378266
126	0x3f3544ab	0.70807904
127	0x3ed5bb80	0.41744614
128	0x3ff76d20	1.9330177
129	0x3f83d3ca	1.0299008
130	0xbfb787b5	-1.433829
131	0xbf921598	-1.141284
132	0xbe00d87d	-0.12582584
133	0x3fd213c1	1.6412278
134	0x3f27f914	0.6561444
135	0x3f12927c	0.5725477
136	0x3f92c11a	1.146518
137	0x3c874330	0.01651153
138	0xbfe9f262	-1.8277094
139	0x3f6eca99	0.9327789
140	0xbeb72a18	-0.35774302
141	0x3f843b20	1.0330544
142	0xbf2dd9c6	-0.6791042
143	0x3f24e11c	0.6440599
144	0xbf7a6c52	-0.97821534
145	0x3f7a52aa	0.97782385
146	0x3fcf299f	1.6184577
147	0x3fb9b358	1.4507856
148	0x3e8df4ac	0.27725732
149	0xbe5988c8	-0.21243584
150	0xbf3ddffc	-0.741699
151	0x3df99025	0.121856965
152	0x3eb159e3	0.3463889
153	0x3f72da25	0.9486411
154	0xbeed52fd	-0.46352378
155	0x3fcde7d5	1.6086375
156	0xc01e283d	-2.471206
157	0xbed98482	-0.42483908
158	0xbf98f1ec	-1.1948829
159	0x3f5074dc	0.81428313
160	0xbff325ea	-1.8995945
161	0x3e61e31c	0.22059292
162	0x3c88f0df	0.016716419
163	0xbeb318df	-0.34979913
164	0x3e8db15c	0.27674377
165	0xbf3a733e	-0.72832096
166	0x3e367c9a	0.17820969
167	0xbf8b44d1	-1.0880376
168	0xbfcd4fe0	-1.6040001
169	0x3fac3ce0	1.3456078
170	0x3fa6c948	1.3030176
171	0x3d512e9c	0.05106984
172	0xbfc6e6a0	-1.5539131
173	0x3f42a4d1	0.7603274
174	0x3f46bf30	0.7763548
175	0x400207d9	2.031729
176	0x3d1fc147	0.039002683
177	0x3de9e4e2	0.11420609
178	0xbf5265ae	-0.821864
179	0xbe5b1061	-0.21392967
180	0xbf6f6427	-0.93512195
181	0xbfcd05ce	-1.6017396
182	0xbf921850	-1.141367
183	0xbf047816	-0.51745737
184	0xbf04cd84	-0.5187609
185	0xbfc143d1	-1.5098821
186	0xbff9a1b1	-1.9502469
187	0x3e019f65	0.1265846
188	0x3f857130	1.0425167
189	0xbf0e5bf1	-0.5560904
190	0x3f31d7fe	0.694702
191	0x3f374b5c	0.71599364
192	0x3fe3c166	1.7793396
193	0xbf6c7362	-0.9236356
194	0x3f77f23e	0.9685401
195	0xbeb4ccf8	-0.3531263
196	0xbf97a663	-1.1847652
197	0x3eb700c1	0.35742763
198	0x3ef6e6c4	0.48222935
199	0x3facd5c0	1.3502731
200	0x3f07a3a7	0.5298409
201	0x40074538	2.1135998
202	0xbf07fbdc	-0.5311868
203	0xbf70684f	-0.9390916
204	0x3e310561	0.17287208
205	0x3f88e01f	1.0693396
206	0x3fa833dd	1.3140827
207	0x3eed331d	0.4632806
208	0xbf4f92b2	-0.81083214
209	0xbf816865	-1.0109984
210	0xbf0127b5	-0.50451213
211	0xbf173737	-0.59068626
212	0x3e1fe1a8	0.15613425
213	0x3ede9d27	0.43479273
214	0xbe289071	-0.1646135
215	0xc01541f9	-2.3321517
216	0xbeccc28c	-0.39992177
217	0x3f8852a9	1.0650226
218	0xbfe3ef7e	-1.7807462
219	0x3fc0f720	1.5075417
220	0x3ea1406b	0.3149446
221	0xbf04dc77	-0.518989
222	0x3f84c048	1.037118
223	0x3fd91f17	1.6962613
224	0xbbcfebcc	-0.006345248
225	0x3fd433ee	1.6578348
226	0x3e1af4a2	0.15132383
227	0xbf8a6132	-1.0810912
228	0xbf158cf5	-0.5841821
229	0x3db848a0	0.08998227
230	0x3ecfae6b	0.40562758
231	0x40002f86	2.0029006
232	0xbd92138b	-0.07132634
233	0xbf66e619	-0.9019485
234	0xc0034a79	-2.0514205
235	0xbf8b2252	-1.0869849
236	0x3c8a5e41	0.016890647
237	0x3daca783	0.08430388
238	0x3e47a088	0.19494832
239	0x3ee10c0d	0.43954507
240	0xbf6ebd2e	-0.93257415
241	0x3e8a3c26	0.26999015
242	0xbf0c9c64	-0.54926133
243	0x3eed9a04	0.46406567
244	0xbf5efe94	-0.87107205
245	0xbcde89ef	-0.027165381
246	0xbec8adba	-0.39195043
247	0x3fbc9861	1.4734002
248	0x3f9ffed6	1.2499645
249	0xbf35e9ff	-0.71060175
250	0x3f5527e3	0.8326399
251	0x3f04ea87	0.5192036
252	0x3f0c65fa	0.54843104
253	0x3f106b09	0.5641332
254	0x3efcd4f0	0.49381208
255	0x3e6bbe73	0.2302187

cls_token f4 [1, 1, 64]
0	0xbf230962	-0.6368619
1	0x3fc5272d	1.540258
2	0x3f770cc9	0.96503884
3	0x3ecf75ea	0.4051965
4	0xbebd1f89	-0.36938122
5	0xbebf91e8	-0.37416005
6	0x3fe5a020	1.7939491
7	0x3fb5dc1f	1.4207801
8	0xbfbc5e09	-1.4716197
9	0xbdd35dd8	-0.10320634
10	0x3f2c2000	0.6723633
11	0x3f4475fa	0.7674252
12	0x3e19175a	0.14950314
13	0xbfcce89c	-1.6008487
14	0xbf243fce	-0.6415986
15	0xbc9304c1	-0.017946603
16	0x3fa5a086	1.2939613
17	0xbfbb40b8	-1.4629126
18	0xc00645f7	-2.0980203
19	0xbfae64c3	-1.36245
20	0x3ef10312	0.47072655
21	0x3f20a38b	0.62749547
22	0xbf72833e	-0.9473151
23	0x3f86b23e	1.0523145
24	0x3e334180	0.17505455
25	0xbf44b923	-0.76844996
26	0xbf954538	-1.1661749
27	0x3f806d1b	1.0033296
28	0x3f826dd8	1.0189772
29	0x3f0b4bb3	0.5441238
30	0x3d59e57f	0.05319738
31	0x40164e24	2.3485193
32	0x3fc74132	1.5566771
33	0xbea5e5ae	-0.32401794
34	0xbf5ecf60	-0.8703518
35	0xbefa537f	-0.48891827
36	0x3fb4a945	1.4114157
37	0x3ffbc98f	1.9670886
38	0xbfb81318	-1.4380827
39	0x3f0b578f	0.5443048
40	0x3d5535be	0.052053206
41	0x3ec52e1a	0.38511735
42	0xbed538e3	-0.41644964
43	0xbf760f75	-0.96117336
44	0xbf0cdabb	-0.55021256
45	0x3ea16238	0.31520247
46	0x3ffff68e	1.9997118
47	0xbf8d2886	-1.1027992
48	0x3fdb1971	1.7117139
49	0x3c5861e4	0.013206933
50	0xbf5b18d0	-0.85584736
51	0x3f82cdf8	1.0219107
52	0xbf80c1af	-1.0059108
53	0xbf10e1d6	-0.565946
54	0x3f9655e7	1.1744965
55	0xbc53bbd9	-0.012923204
56	0x3d6eda3e	0.0583136
57	0xbf5dea64	-0.86685777
58	0xbf9077f8	-1.1286612
59	0x3fc41f74	1.5322099
60	0xbf12fa82	-0.57413495
61	0x3f6edb34	0.9330323
62	0xbeea6dde	-0.45786947
63	0x3f5062e8	0.8140092

patch_to_embedding.weight f4 [64, 64]
0	0x3d00e13a	0.031464793
1	0xbcb37b43	-0.021909362
2	0xbd05a889	-0.03263143
3	0xba3a612e	-0.0007109818
4	0xbcbae876	-0.022815924
5	0xbda75d4d	-0.081720926
6	0xbde51f4c	-0.1118761
7	0xbdad64d7	-0.08466499
8	0x3dff21b1	0.12457598
9	0x3dd1f3a0	0.10251546
10	0x3d3f9c68	0.04678002
11	0x3d174071	0.03692669
12	0x3dc7fd1a	0.09765072
13	0x3dcae0c9	0.099061556
14	0x3d80b80c	0.06285104
15	0xbb42c33b	-0.0029718417
16	0x3d641194	0.055680826
17	0xbd79a707	-0.060950305
18	0x3d791d0d	0.06081872
19	0x3dc626f8	0.096754014
20	0x3cfbfc7a	0.030760039
21	0xbd8c9f87	-0.06866365
22	0x3cfa378c	0.030544065
23	0x3dd7e8bb	0.10542437
24	0xbb86aca2	-0.004109935
25	0x3d6ecc2e	0.05830019
26	0x3c9aa5cc	0.018877886
27	0x3d852046	0.06500296
28	0x3d49c866	0.04926338
29	0x3c977a57	0.018490953
30	0xbde13787	-0.10996919
31	0x3ddf776a	0.10911448
32	0xbddf8af0	-0.10915172
33	0xbdcd3912	-0.10020651
34	0x3debc886	0.11512856
35	0xbcd1b41c	-0.025598578
36	0xbde244ac	-0.11048254
37	0x3dcc1c36	0.09966318
38	0xbd1a83af	-0.03772324
39	0x3dc284d6	0.09497993
40	0x3dcd7c73	0.100335024
41	0xbdea6e52	-0.11446823
42	0xbdf66e91	-0.120328076
43	0x3bb9796b	0.005660226
44	0xbd0708c0	-0.03296733
45	0xbdf0df8e	-0.1176139
46	0xbd95c3b9	-0.07312722
47	0x3db2c8b2	0.08729686
48	0x3d75b44f	0.05998641
49	0x3d490027	0.04907241
50	0x3d7cb7a3	0.061698567
51	0x3d7b9b4a	0.061427392
52	0x3dac9df8	0.08428568
53	0xbc3d1b22	-0.0115421135
54	0xbb5aedcf	-0.0033405905
55	0x3e001bc1	0.12510587
56	0x3c62ab07	0.013834721
57	0xbc8465df	-0.016161857
58	0x3dc7f717	0.097639255
59	0x3d97e202	0.074161544
60	0x3c433dd3	0.0119165955
61	0x3d8ed64d	0.069744684
62	0x3dee9ac2	0.116506115
63	0xbb3e4ad2	-0.0029036296
64	0xbd2ac796	-0.041694246
65	0x3d3ca9c1	0.046060327
66	0x3e06b7fe	0.13156125
67	0xbd573ab8	-0.052546233
68	0xbdbd7bd5	-0.09252135
69	0xbcf53121	-0.029930653
70	0x3d13ec79	0.03611419
71	0xbda918d5	-0.082566895
72	0xbd744c01	-0.059642795
73	0x3cf238a7	0.02956803
74	0x3df73114	0.12069908
75	0x3da0730d	0.07834444
76	0x3dc41804	0.09574893
77	0x3d8819ab	0.06645521
78	0x3d556864	0.052101508
79	0x3e08c790	0.13357377
80	0xbcb88c77	-0.022527916
81	0x3bc5b3ef	0.0060334126
82	0x3d17ce99	0.03706226
83	0x3ce7e035	0.028305152
84	0x3c92614e	0.017868664
85	0xbd0d1a06	-0.034448646
86	0x3dfd81b5	0.12378255
87	0x3db4db95	0.088309444
88	0xbda7a4bc	-0.081857175
89	0x3d26faa4	0.040766373
90	0xbdccac11	-0.099937566
91	0x3e037a9a	0.12839738
92	0x3d829c3f	0.06377458
93	0x3da9d311	0.08292211
94	0x3e10a807	0.14126597
95	0x3dfa039d	0.122077204
96	0x3db7bbaf	0.08971345
97	0xbcb48202	-0.022034649
98	0x3b95a51c	0.0045668017
99	0x3dc618cd	0.09672699
100	0x3debd02f	0.11514317
101	0xbc9735d5	-0.018458286
102	0x3e0005f7	0.12502275
103	0x3dce2e1b	0.10067388
104	0x3dfe9544	0.12430814
105	0x3bfccf44	0.0077151377
106	0x3cc1fe8a	0.023680944
107	0xbd4fdc35	-0.050747115
108	0xbdc890d6	-0.0979325
109	0x3a4a1324	0.00077085407
110	0x3d31351a	0.043263532
111	0xbd92562b	-0.071453415
112	0x3d59b474	0.05315061
113	0xbdbf13ae	-0.093299255
114	0xbdc4c974	-0.09608737
115	0x3e07e533	0.13271026
116	0xbd9a0a1a	-0.07521458
117	0x3c6b8be5	0.014376615
118	0xbc913272	-0.01772425
119	0x3d9443a3	0.07239463
120	0x3d0da865	0.03458442
121	0xbd0917a6	-0.03346982
122	0xbd520a46	-0.05127933
123	0xbda8cfbf	-0.082427494
124	0xbc4d4979	-0.012529724
125	0x3da3cb86	0.079978034
126	0xbb84c784	-0.0040521044
127	0xbda64dbd	-0.08120296
128	0x3d1edf16	0.03878697
129	0xbdeddd79	-0.11614508
130	0xbdd2608f	-0.10272323
131	0x3da1421a	0.07873936
132	0xbde62b44	-0.11238721
133	0x3b0d0dae	0.0021523046
134	0xbdaab4c3	-0.08335259
135	0x3dc6b42d	0.097023346
136	0xbd99d065	-0.07510451
137	0xbdeaad0d	-0.11458788
138	0x3dc6aa2e	0.09700428
139	0x3c72eeb1	0.014827416
140	0xbdbdcc8d	-0.092675306
141	0x3d8a0ae0	0.067403555
142	0xbdd1df26	-0.1024764
143	0x3d38c86a	0.045113005
144	0xbd39b036	-0.045334063
145	0x3d92c385	0.07166199
146	0x3db0577d	0.08610437
147	0xbc4431cf	-0.011974766
148	0x3dd931b0	0.1060518
149	0x3cce8222	0.025208537
150	0xba747108	-0.00093247043
151	0x3de92cd1	0.11385501
152	0x3d9985f8	0.07496256
153	0xbd5e5583	-0.05428077
154	0x3d66ed5b	0.056378704
155	0xbd87c4a6	-0.066293046
156	0x3c523645	0.012830322
157	0xbdc68a65	-0.096943654
158	0x3dac64ac	0.08417639
159	0xbde87609	-0.113506384
160	0xbca2ceaa	-0.019873936
161	0x3d9bfdfd	0.07616804
162	0xbd1fd8ef	-0.039025243
163	0x3e02e577	0.12782846
164	0x3d2c141e	0.042011373
165	0x3ae42be4	0.00174081
166	0x3d8412ca	0.06448896
167	0xbdaa8a15	-0.08327118
168	0x3d8c826e	0.06860815
169	0xbdf1496e	-0.11781584
170	0x3d30875b	0.043097835
171	0xbc4bb0da	-0.012432301
172	0x3ddf8dc5	0.10915712
173	0xbca67c47	-0.020322932
174	0x3c9c03af	0.019044725
175	0xbdde1b23	-0.1084502
176	0x3db5835e	0.08862947
177	0xbdeafe5e	-0.11474298
178	0x3d9331ff	0.071872704
179	0x3d2b691c	0.041848287
180	0x3dd7b0d0	0.10531771
181	0x3df4dcc1	0.11956168
182	0x3c7f3f68	0.015579082
183	0xbdc58b7c	-0.09645745
184	0x3de81186	0.11331467
185	0xbd7fec06	-0.06248095
186	0xbdcc97f7	-0.099899225
187	0x3d8221a4	0.06354073
188	0xbd5da90f	-0.054116305
189	0x3dbdc134	0.09265366
190	0x3dc04d47	0.093897395
191	0xbd0f56e3	-0.03499497
192	0xbc8657d3	-0.0163993
193	0xbd1525f7	-0.03641316
194	0xbd36b450	-0.044605553
195	0xbdd0e87e	-0.10200594
196	0xbd1ee062	-0.038788207
197	0x3ded9390	0.11600411
198	0x3d8a5921	0.06755281
199	0x3cdf17ee	0.02723309
200	0xbdc79000	-0.09744263
201	0x3d2c5ab8	0.042078704
202	0xbca50c3e	-0.02014744
203	0xbd836bd9	-0.06417055
204	0x3d3027f0	0.043006837
205	0xbd94bd15	-0.07262627
206	0x3bbdfadd	0.0057977275
207	0xbd3219bc	-0.043481573
208	0xbdee4411	-0.116340764
209	0x3d77941f	0.060443994
210	0x3acc1eca	0.0015573141
211	0x3d8df10e	0.06930743
212	0xbd378686	-0.044806026
213	0x3afba66d	0.0019199379
214	0xbd9dcfe0	-0.07705665
215	0x3d93b0e7	0.07211476
216	0xbd8dd0e8	-0.06924611
217	0x3c64bef3	0.0139615415
218	0x3dda24c1	0.106515415
219	0xbdf251ca	-0.11832006
220	0xbd8c81d0	-0.06860697
221	0x3d5d4721	0.054022912
222	0xbcefba15	-0.029263536
223	0xbd755485	-0.059895057
224	0xbe05e365	-0.13075025
225	0x3ddc2da2	0.10750891
226	0x3d4e1c80	0.05032015
227	0xbc426452	-0.011864739
228	0x3cb68376	0.022279482
229	0x3da2df00	0.0795269
230	0x3de36cc6	0.11104731
231	0xbd8cec81	-0.06881047
232	0xbdafe245	-0.08588079
233	0xbdcff48a	-0.10154064
234	0xbdd53bc3	-0.10411789
235	0x3d7e4b37	0.06208345
236	0xbdf4c8c7	-0.11952358
237	0x3dbaa555	0.09113566
238	0x3dd2f0e9	0.10299856
239	0xbdd7bfe3	-0.10534646
240	0x3dc210c5	0.09475855
241	0x3da2a1f9	0.0794105
242	0xbe03c412	-0.12867764
243	0xbd4c3d96	-0.04986342
244	0x3d750079	0.059814904
245	0xbd1db0cb	-0.03849868
246	0xbd41cf4a	-0.047316827
247	0xbd04255c	-0.03226219
248	0x3da21136	0.07913439
249	0xbdc7a3e8	-0.097480595
250	0xbd3f1953	-0.04665501
251	0xbd3b55b4	-0.04573603
252	0x3cbd9588	0.023142591
253	0xbd9a788f	-0.07542526
254	0xbd9a2f40	-0.075285435
255	0xbd1a43c4	-0.037662283

patch_to_embedding.bias f4 [64]
0	0xbd95a5b4	-0.07306996
1	0x3dfded0f	0.12398731
2	0x3de69370	0.1125859
3	0x3dc48449	0.09595544
4	0x3d91da88	0.0712176
5	0x3d05567d	0.032553185
6	0x3cd87a00	0.026425362
7	0x3c35a892	0.011087554
8	0x3dfbb97c	0.12291238
9	0x3dd6e785	0.104933776
10	0xbcda50e8	-0.026649907
11	0xbdcb9648	-0.09940773
12	0x3d53eccd	0.051739503
13	0x3d5e1a87	0.054224517
14	0xbbcd8d9d	-0.006272985
15	0x3dbaf9bd	0.09129665
16	0x3d8e49e7	0.069476895
17	0xbd7f95ff	-0.062398907
18	0x3df0b686	0.117535636
19	0xbdcdb28d	-0.100438215
20	0x3c5491e5	0.012974237
21	0xbdba2e85	-0.09090904
22	0x3d6d5840	0.05794549
23	0xbd436e33	-0.047712516
24	0x3cff9472	0.031198714
25	0xbd18273e	-0.0371468
26	0xbd7683cd	-0.06018429
27	0x3dbdc9ee	0.09267031
28	0xbd903925	-0.070421495
29	0x3dba8f4e	0.091093644
30	0xbdcf853a	-0.10132833
31	0xbde4bbaa	-0.111686066
32	0xbde1b8db	-0.110215865
33	0x3cefa76d	0.02925464
34	0xbc89756a	-0.01677962
35	0xbcdc3d46	-0.026884686
36	0x3c52f046	0.012874668
37	0xbdb2f2fd	-0.087377526
38	0xbdc5fd80	-0.09667492
39	0x3ce7bb29	0.028287487
40	0xbd9d47e7	-0.0767973
41	0xbdb1493f	-0.08656549
42	0xbc117770	-0.008878574
43	0xbd6d14a4	-0.057881013
44	0xbc99925c	-0.018746547
45	0x3d6a917c	0.05726765
46	0x3da3863c	0.079845876
47	0x3d86ad4d	0.06576023
48	0xbd8e98b3	-0.06962719
49	0x3c60e21f	0.0137257865
50	0x3d8b921c	0.068149775
51	0xbd7baf84	-0.06144668
52	0x3d980409	0.07422645
53	0x3d167c91	0.03673989
54	0xbe02e145	-0.12781246
55	0x3cf739e9	0.03017898
56	0x3c88267e	0.016619917
57	0xbd9690b6	-0.0735182
58	0xbd8bb64f	-0.06821882
59	0x3d66a90b	0.056313556
60	0x3d2b33aa	0.041797318
61	0x3dd910ed	0.105989315
62	0xbd690a06	-0.056894325
63	0x3e00df36	0.12585148

transformer.layers.0.0.fn.norm.weight f4 [64]
0	0x3f7ef4c9	0.9959226
1	0x3f8035f8	1.001647
2	0x3f7eb978	0.9950175
3	0x3f7a559f	0.977869
4	0x3f7c657b	0.98592347
5	0x3f766c83	0.96259326
6	0x3f7e0392	0.992242
7	0x3f7bea2d	0.984042
8	0x3f7f629e	0.9975985
9	0x3f7bf5fc	0.9842222
10	0x3f7b4b66	0.98161924
11	0x3f7f043e	0.9961585
12	0x3f766086	0.96241033
13	0x3f7d04a4	0.98835206
14	0x3f7c63b3	0.9858963
15	0x3f7bd2ab	0.9836833
16	0x3f7ae4e8	0.98005533
17	0x3f775752	0.96617615
18	0x3f7775df	0.9666423
19	0x3f7e210c	0.99269176
20	0x3f787455	0.9705251
21	0x3f7fea4e	0.99966896
22	0x3f7a7b0d	0.9784401
23	0x3f7ab87b	0.97937745
24	0x3f776200	0.9663391
25	0x3f7aadfd	0.97921735
26	0x3f7dbed8	0.9911933
27	0x3f7a343f	0.9773597
28	0x3f7d40a0	0.98926735
29	0x3f79809a	0.97461855
30	0x3f7cc839	0.98743016
31	0x3f7bd56e	0.9837254
32	0x3f7c892a	0.98646796
33	0x3f7fe17c	0.99953437
34	0x3f806089	1.002946
35	0x3f797df5	0.9745782
36	0x3f7e6ec5	0.9938777
37	0x3f7c2a1d	0.9850176
38	0x3f7e0a26	0.99234235
39	0x3f79ed5c	0.97627807
40	0x3f7db8aa	0.991099
41	0x3f74f5bd	0.95687467
42	0x3f7d2ae4	0.9889357
43	0x3f7adf23	0.9799673
44	0x3f729b3e	0.9476813
45	0x3f7f944b	0.9983565
46	0x3f7aac62	0.97919285
47	0x3f8658ad	1.0495812
48	0x3f7cba0b	0.9872138
49	0x3f75ce72	0.96018136
50	0x3f7a30ac	0.9773052
51	0x3f7e2558	0.9927573
52	0x3f7fa570	0.9986181
53	0x3f7a1e05	0.97702056
54	0x3f806b1d	1.0032688
55	0x3f7cc39a	0.98735964
56	0x3f794c42	0.97381985
57	0x3f791ddf	0.97311205
58	0x3f7c6226	0.9858726
59	0x3f7896f5	0.9710534
60	0x3f79635e	0.9741725
61	0x3f7c058c	0.98445964
62	0x3f776bfa	0.96649134
63	0x3f7a74e9	0.9783464

transformer.layers.0.0.fn.norm.bias f4 [64]
0	0x3a928991	0.0011179914
1	0x3c6b1fe0	0.014350861
2	0x3b40ba7a	0.0029408024
3	0xb916bc8d	-0.00014375355
4	0xbb9b715c	-0.004743738
5	0x3b625e2b	0.0034540992
6	0x3b3a7c2e	0.0028455365
7	0xbc22ccbd	-0.009936509
8	0x3ab089f0	0.0013468843
9	0xbb68713f	-0.003546789
10	0xbb9a009a	-0.0046997787
11	0xbad80060	-0.0016479604
12	0x3be6b6d1	0.0070408364
13	0xbb175d0f	-0.0023096239
14	0x3b5637db	0.00326871
15	0xb6a7d1f0	-5.001428e-06
16	0x3c0caa1b	0.008585478
17	0x3cdc9102	0.026924614
18	0xbb8e9a5f	-0.0043518986
19	0x3ab25ad4	0.0013607391
20	0xbaacb05f	-0.0013175121
21	0xbb9ac87c	-0.0047236066
22	0xbc4729d9	-0.012155973
23	0xbbec675c	-0.00721447
24	0xbb0bd5f4	-0.0021337243
25	0xbc8ef9f1	-0.017453166
26	0x3b2633d1	0.0025360475
27	0x39b53a48	0.00034566433
28	0x3bdabf5b	0.0066756434
29	0xbc83db64	-0.016095825
30	0x3b2c77f2	0.002631661
31	0x3bafff97	0.005371045
32	0x3b1a63cb	0.0023558016
33	0xbc3b2a92	-0.011423724
34	0xbc684a24	-0.014177833
35	0x3c847c0b	0.01617243
36	0xbb7eb17d	-0.0038863115
37	0x3c2958b7	0.010336093
38	0x3b977eff	0.0046232934
39	0x3bab09ab	0.0052196584
40	0x3b1815cd	0.0023206354
41	0xbaafd4b1	-0.0013414827
42	0x3b44330b	0.002993765
43	0xba287297	-0.00064257666
44	0x3bc89f66	0.0061225174
45	0x3ad38493	0.0016137533
46	0x3a09df33	0.00052593945
47	0x3d12a4ee	0.03580182
48	0x3af16c5b	0.0018419133
49	0xbc0306a8	-0.007997192
50	0x39aa465f	0.00032477357
51	0xbb6c37f9	-0.0036044104
52	0x3ac81510	0.0015265066
53	0x39840c1b	0.0002518602
54	0xbca5e09a	-0.0202487
55	0x3b8b25d8	0.0042464547
56	0xbb4ed3fa	-0.0031559453
57	0x3b9b50f9	0.0047398773
58	0xbca25a52	-0.019818459
59	0xbac34a92	-0.0014899543
60	0x3a95659a	0.0011398077
61	0xbaa499d1	-0.0012558048
62	0xbc259e99	-0.010108613
63	0x3b9409a2	0.00451775

transformer.layers.0.0.fn.fn.to_qkv.weight f4 [192, 64]
0	0x3df103d7	0.117683105
1	0x3d6e2106	0.058136962
2	0x3ca6c71f	0.02035862
3	0x3ce81be1	0.028333606
4	0x3cbdda3f	0.023175357
5	0x3d810a7c	0.06300828
6	0xbd51807e	-0.05114793
7	0xbd279018	-0.040908903
8	0xbd85fa09	-0.06541831
9	0x3cf0b200	0.029381752
10	0xbd82d88c	-0.06388959
11	0x3d784b07	0.060618427
12	0xbcf4f30b	-0.029901048
13	0x3ded83e1	0.115974195
14	0x3d2903c9	0.041263375
15	0xbde28cfc	-0.11062047
16	0x3cd07ea0	0.025451005
17	0x3d2f5ad7	0.04281124
18	0xbdb1e3a8	-0.08686
19	0x3c4a31a3	0.012340936
20	0x3d1c069e	0.03809225
21	0xbde691e8	-0.11258298
22	0xbdeeb8ce	-0.116563424
23	0xb9db2551	-0.00041798738
24	0x3d55191d	0.052025903
25	0xbd8141e8	-0.06311399
26	0xbd9556e3	-0.07291963
27	0xbd6cdf5c	-0.0578302
28	0x3d08eed6	0.033430897
29	0xbd221d6e	-0.039578848
30	0xbd7a18a2	-0.061058648
31	0x3c88ddc2	0.016707305
32	0xbbca631c	-0.0061763655
33	0xbcc39a66	-0.023877334
34	0x3d95d568	0.07316095
35	0xbdc03e1d	-0.09386847
36	0xbbf2ae95	-0.0074060657
37	0xbbf7ae4e	-0.0075586205
38	0x3d2c4016	0.042053305
39	0xbd9cf990	-0.07664788
40	0x3c490f6d	0.012271744
41	0xbde2e6ae	-0.11079155
42	0x3dbfcc04	0.09365085
43	0x3c903588	0.01760365
44	0xbcaf9bb8	-0.021436557
45	0xbdd0ee15	-0.102016605
46	0x3dc95710	0.09831059
47	0x3da2e02e	0.07952915
48	0x3dbdd9ad	0.09270034
49	0xbdb43e05	-0.08800892
50	0xbbe4e7f7	-0.00698566
51	0xbd906bfd	-0.07051847
52	0xbda3941c	-0.07987234
53	0xbdb83d26	-0.08996038
54	0x3dac987e	0.08427523
55	0xbd0127ea	-0.031532206
56	0x3d6f843b	0.058475714
57	0xbcf19932	-0.029491995
58	0xbc83185c	-0.016002826
59	0x3b9b06c8	0.004731033
60	0xbdcf37a8	-0.101180375
61	0xbddb47f1	-0.10707081
62	0x3d335b06	0.04378798
63	0x3b00f6a7	0.0019678266
64	0x3ca6b627	0.020350529
65	0x3ceb5b13	0.028729951
66	0x3d038d43	0.03211714
67	0x3d4d4488	0.050114185
68	0xba4cda23	-0.00078144873
69	0xbd6275c5	-0.055288095
70	0xbda4dd78	-0.08050054
71	0xbb81c94f	-0.0039607654
72	0x3d652360	0.05594194
73	0xbd2f5f36	-0.04281541
74	0xbcd6e051	-0.02623001
75	0xbdb10949	-0.08644349
76	0x3dc6a2a6	0.096989915
77	0xbe0d8e5d	-0.13823839
78	0x3d355304	0.044268623
79	0xbd43acf4	-0.047772363
80	0xbd9ca825	-0.076492585
81	0x3daea6ad	0.08527885
82	0x3b27d4ae	0.0025608945
83	0x3d0ddd1d	0.0346347
84	0xbd76267d	-0.0600953
85	0xbdb1cc46	-0.0868154
86	0xbb6080e9	-0.0034256524
87	0x3d9398f1	0.07206906
88	0x3e06fe21	0.1318288
89	0xbd3ce253	-0.046114277
90	0x3dc7886b	0.097428165
91	0x3e14a5f0	0.14516425
92	0xbd51e913	-0.051247668
93	0xbc9bd467	-0.01902218
94	0x3db1975f	0.0867145
95	0x3d90f42f	0.07077824
96	0xbda8250a	-0.0821019
97	0xbe09f284	-0.13471419
98	0xbe13182b	-0.14364688
99	0xbd3556a9	-0.0442721
100	0x3d981e7b	0.07427689
101	0xbd1d787f	-0.038444992
102	0x3dc95e39	0.09832425
103	0xbd26ae7f	-0.040693756
104	0x3d593fd1	0.053039376
105	0xbd537c6a	-0.051632322
106	0x3db5c292	0.08875002
107	0x3c37eb16	0.011225482
108	0x3d8defbd	0.06930492
109	0x3da5dad0	0.08098376
110	0xbda2a268	-0.07941133
111	0x3d72c733	0.059272002
112	0xbc4a6793	-0.012353796
113	0xbdce991c	-0.10087797
114	0x3d6ecd84	0.058301464
115	0xbda17f0c	-0.078855604
116	0x3c816dae	0.01579937
117	0xbdad7f90	-0.08471596
118	0xbd9d7daf	-0.07689988
119	0x3d0a9919	0.03383741
120	0x3c0997df	0.008398025
121	0x3db840f6	0.08996765
122	0x3d923796	0.071395084
123	0xbda15638	-0.07877773
124	0x3da3c7f5	0.07997123
125	0x3e0e5621	0.13900043
126	0xbca34cf4	-0.019934155
127	0x3dbc344a	0.09189661
128	0x3deeb4cf	0.1165558
129	0xbd963cd1	-0.073358186
130	0x3dcb19bd	0.099170186
131	0x3d588cf5	0.052868802
132	0xbdc07d49	-0.09398896
133	0x3c13f644	0.009030882
134	0x3db0d99c	0.08635256
135	0x3c47825d	0.012177077
136	0xbd7993d8	-0.06093201
137	0x3d45bd8a	0.04827646
138	0x3ddf3f79	0.10900778
139	0x3ccab889	0.024746196
140	0xbdebbdaf	-0.11510789
141	0xbd80d4e9	-0.062906094
142	0x3dc55b04	0.096365005
143	0x3dd4d622	0.10392405
144	0xbd13b8cb	-0.036064904
145	0xbe010ebe	-0.1260328
146	0x3d7a64da	0.061131336
147	0x3db9616f	0.09051787
148	0xbdd6331c	-0.10458967
149	0xbd8e659c	-0.06952974
150	0xbd4acacd	-0.049509812
151	0x3c3cb743	0.011518302
152	0x3d65ec9d	0.056133855
153	0x3dc0252a	0.093820885
154	0xbd8c7ddb	-0.068599425
155	0x3ddb000e	0.1069337
156	0xbd80cf3a	-0.06289525
157	0x3dc1f324	0.094702035
158	0xbc0b378f	-0.008497133
159	0xbcf30075	-0.029663304
160	0x3d304c89	0.04304174
161	0x3b17fd2c	0.0023191674
162	0x3d032d60	0.032025695
163	0xbc9571ae	-0.018242683
164	0x3d21c59f	0.039495107
165	0xbd3704e0	-0.044682384
166	0xbdcb7f20	-0.099363565
167	0xbdf24c50	-0.11830962
168	0x3c8c3b5a	0.017118145
169	0x3c3f1b20	0.011664182
170	0xbb3b9f42	-0.002862886
171	0xbdade542	-0.08490993
172	0x3cbdbc01	0.023160936
173	0xbda2c875	-0.079483904
174	0x3d550ebf	0.052016016
175	0xbdf75cb2	-0.12078227
176	0xbdc727ce	-0.09724389
177	0xbe00df5b	-0.12585203
178	0x3db481da	0.0881383
179	0x3e0de742	0.13857749
180	0x3d068898	0.03284511
181	0x3d708947	0.058724668
182	0x3e0fc72a	0.14040819
183	0xbdbc8b77	-0.09206288
184	0x3d7828b8	0.060585707
185	0x3ce946c9	0.028476136
186	0x3d822794	0.06355205
187	0x3daa0bfa	0.083030656
188	0xbd1f79ad	-0.0389344
189	0xbd9d4313	-0.07678809
190	0xbda3b2bc	-0.07993075
191	0x3cd6d391	0.02622393
192	0x3d8e975f	0.069624655
193	0xbd20b8d8	-0.03923878
194	0x3dcccecf	0.10000383
195	0xbbc05702	-0.005869747
196	0xbdd6587b	-0.10466095
197	0xbdc76d3f	-0.09737634
198	0xbc123e91	-0.00892605
199	0x3da21507	0.07914167
200	0xbccf3890	-0.025295526
201	0x3dd4a1bf	0.10382413
202	0x3db4477f	0.08802699
203	0x3de7cfda	0.113189414
204	0x3d536522	0.05161012
205	0x3c193d8d	0.009353054
206	0xbd74b56a	-0.059743322
207	0xbd918c12	-0.071067944
208	0xbdcc3e44	-0.09972814
209	0xbdabfa7f	-0.08397388
210	0x3d7aa75d	0.061194766
211	0x3cf38dd3	0.029730713
212	0xbdce6ee5	-0.10079745
213	0x3d00be26	0.03143134
214	0x3dcf4550	0.10120642
215	0xbda890c0	-0.08230734
216	0x3d9d1e69	0.07671816
217	0xbcbd997a	-0.023144472
218	0xbddd4b53	-0.108053826
219	0x3d0b835e	0.03406083
220	0x3c93eaa6	0.018056225
221	0xbdc4a0fe	-0.09601019
222	0x3dba05dc	0.09083149
223	0xbdb5c71c	-0.08875868
224	0xbcb83c97	-0.022489829
225	0xbcf14c39	-0.029455291
226	0xbda11cd2	-0.07866825
227	0x3d0601b9	0.032716487
228	0x3d4f2ceb	0.050579946
229	0xbd9bcd5e	-0.0760753
230	0xbd0ae10b	-0.033906024
231	0x3da98284	0.08276847
232	0xbdc35946	-0.09538512
233	0x3d4dfd56	0.050290428
234	0x3d8da5cd	0.069163896
235	0xbdb7470e	-0.089490995
236	0xbda61b81	-0.08110715
237	0x3db086f4	0.0861949
238	0xbc3ecde0	-0.011645764
239	0x3daa9745	0.083296336
240	0x3d52dc56	0.05147966
241	0xbc5ad2d7	-0.013355932
242	0xbc892707	-0.016742243
243	0xbda55b3b	-0.080740415
244	0xbc3e1f53	-0.011604148
245	0xbd9294b1	-0.07157267
246	0xbdd2221c	-0.10260412
247	0xbdbc9326	-0.09207754
248	0xbc0be07d	-0.008537409
249	0xbd34b47d	-0.04411744
250	0xbd8710d8	-0.065950096
251	0xbd33d8e3	-0.04390801
252	0xbd0f96ac	-0.0350558
253	0xbd93549d	-0.07193873
254	0xbd271528	-0.04079166
255	0x3bd7a4d5	0.006580929

transformer.layers.0.0.fn.fn.to_out.weight f4 [64, 64]
0	0xbd458bfd	-0.048229206
1	0xbdee5fcb	-0.11639365
2	0x3d745809	0.05965427
3	0xbd906230	-0.07049978
4	0x3b0b4d51	0.00212558
5	0x3deb18b9	0.11479325
6	0xbc947c57	-0.018125696
7	0x3d0fcc96	0.035107218
8	0xbd0dd618	-0.034628004
9	0xbcb6bb02	-0.02230597
10	0x3c80ebd1	0.015737446
11	0xbdb7ba73	-0.08971109
12	0xbd1f51e6	-0.038896464
13	0x3dd432aa	0.10361226
14	0x3d4e7421	0.050403718
15	0x3da54e1a	0.08071537
16	0xbd1ac48c	-0.037785098
17	0xbcc0022f	-0.023438541
18	0xbc4280e4	-0.01187155
19	0xbc53d866	-0.012930011
20	0xbd892bd2	-0.06697811
21	0xbd48e942	-0.049050577
22	0xbd634526	-0.055485867
23	0xbdde6ebb	-0.10860964
24	0x3d4def60	0.050277114
25	0xbd3981aa	-0.045289673
26	0x3db12954	0.08650461
27	0xbc728b99	-0.0148037905
28	0x3d89bf71	0.06725968
29	0xbca0b706	-0.019618522
30	0xbdf53ca5	-0.11974458
31	0xbcbebc61	-0.023283185
32	0xbd4ad3e6	-0.04951849
33	0x3d0d9e4a	0.034574784
34	0x3d97f20e	0.07419215
35	0xbe13ca28	-0.14432585
36	0xbd89f93f	-0.06736993
37	0xbd00d6d2	-0.03145487
38	0x3d2371ff	0.039903637
39	0x3b8c714d	0.0042859674
40	0xbc40fba1	-0.011778743
41	0xbdefe3e6	-0.1171339
42	0x3dea8734	0.11451569
43	0xbdcb5974	-0.09929171
44	0xbd7d2b69	-0.061808977
45	0x3c87e05b	0.016586473
46	0x3d5dc283	0.05414058
47	0xbde7ac04	-0.11312106
48	0x3dbbc6e5	0.091687955
49	0xbb5116ff	-0.0031904576
50	0x3d551401	0.05202103
51	0x3d8d62bd	0.069035985
52	0x3d7917db	0.060813766
53	0xbdcafeb9	-0.09911866
54	0xbd9f5af6	-0.07781021
55	0xbbcffa3c	-0.006346969
56	0x3db53fdf	0.08850073
57	0x3df2214d	0.11822758
58	0xbdc8b584	-0.09800246
59	0xbdf77f2e	-0.120848045
60	0xbc93caaf	-0.018040983
61	0x3d68995a	0.056786872
62	0x3c9764ba	0.018480647
63	0x3dd767fa	0.10517879
64	0x3df61166	0.12015037
65	0xbc847268	-0.016167834
66	0xbbaacc84	-0.0052123684
67	0x3db068d4	0.086137444
68	0x3d64f5f7	0.055898633
69	0xbd186f1b	-0.037215333
70	0x3c4a001a	0.012329126
71	0x3d82e5bb	0.06391474
72	0xbd827886	-0.06370644
73	0x3d437d96	0.04772719
74	0x3df0e427	0.117622666
75	0x3df0823f	0.117435925
76	0x3dabc722	0.08387591
77	0x3dafc5e3	0.08582666
78	0xbd8c215b	-0.068422996
79	0x3dc757b3	0.09733524
80	0xbd81a47e	-0.063302025
81	0xbd42954f	-0.047505673
82	0xbdad7bbc	-0.08470866
83	0x3d9f4a14	0.07777801
84	0xbde53027	-0.11190825
85	0x3dc975ed	0.09836946
86	0xbc5bb215	-0.013409157
87	0xbcac7c18	-0.021055266
88	0xbc30508f	-0.010761394
89	0xbd1574de	-0.036488406
90	0xbdfb3428	-0.122658074
91	0x3c021cc4	0.007941429
92	0x3dd837d5	0.10557524
93	0x3d5b7a16	0.053583227
94	0xbcbf657a	-0.023363817
95	0x3c79a1b7	0.01523631
96	0xbdf27a5a	-0.11839743
97	0x3dc76653	0.09736314
98	0x3dba6652	0.09101547
99	0xbe40d988	-0.18832982
100	0xbd918807	-0.07106023
101	0x3e0ed8ea	0.13949934
102	0xbe2cb1c8	-0.16864693
103	0xbd2c652d	-0.042088676
104	0xbd28f6bc	-0.04125093
105	0x3bbd244e	0.00577215
106	0xbd3ddad0	-0.046351254
107	0xbde9d006	-0.114166304
108	0xbd8ae2e8	-0.0678156
109	0xbd925eed	-0.07147012
110	0x3d012e81	0.03153849
111	0xbe05c414	-0.13063079
112	0x3b9fa931	0.004872464
113	0xbc5b00a2	-0.01336685
114	0xbcaca143	-0.02107299
115	0xbcb9072f	-0.022586433
116	0x3e183afa	0.14866248
117	0x3db9f59a	0.09080048
118	0xbe3a8d07	-0.1821786
119	0xbd3dec7c	-0.046368107
120	0x3d838891	0.06422532
121	0xbd8f1588	-0.06986529
122	0xbe0f839b	-0.14015047
123	0x3cb763b5	0.022386411
124	0xbca0ee1a	-0.019644786
125	0xba8b7ca7	-0.0010642008
126	0xbd0db466	-0.03459587
127	0xbd80f129	-0.06295998
128	0x3c710452	0.014710503
129	0x3da7a81a	0.0818636
130	0x3cfe416d	0.031037057
131	0xbdb1c8c9	-0.08680875
132	0xbb6f92e8	-0.0036556069
133	0x3de71716	0.112837
134	0xbcf07d25	-0.029356549
135	0x3da9b0ba	0.08285661
136	0xbdea126b	-0.11429294
137	0x3e09a014	0.13439971
138	0xbcd38ac9	-0.025823014
139	0xbd2cf393	-0.042224478
140	0x3de1fdff	0.11034774
141	0xbda69abf	-0.08134984
142	0xbd33bdc5	-0.04388215
143	0xbd42c6ff	-0.04755306
144	0x3df7b7f5	0.12095634
145	0xbce69a73	-0.028149819
146	0xbd350e63	-0.044203173
147	0xbd84452e	-0.064585075
148	0x3dcd2dda	0.10018511
149	0xbdcf37a3	-0.10118034
150	0x3cf0448b	0.029329559
151	0x3da92894	0.08259693
152	0xbc167a45	-0.009184425
153	0x3dd068b0	0.101762176
154	0xbd4795ee	-0.04872697
155	0x3d8675b3	0.06565418
156	0x3df53acb	0.119741045
157	0xbe0d742c	-0.13813847
158	0xbc7d7b54	-0.015471298
159	0xbdcccb6f	-0.099997394
160	0xbd2041a2	-0.039125092
161	0xbd391988	-0.045190364
162	0xbdef3b8e	-0.11681281
163	0xbe00bed8	-0.12572801
164	0x3d804d72	0.062647715
165	0x3dfce39f	0.12348103
166	0xbdfc16d5	-0.12309042
167	0xbc3147c4	-0.010820333
168	0xbd3bbf21	-0.04583657
169	0x3d5880b6	0.052857123
170	0x3dd49ed8	0.103818595
171	0x3dc51a84	0.09624198
172	0x3df1e4e6	0.11811237
173	0x3da352af	0.07974755
174	0xbd3d824d	-0.046266843
175	0xbb8c025c	-0.004272742
176	0x3d197321	0.03746331
177	0xbdcd3902	-0.10020639
178	0x3de63f74	0.112425715
179	0xbdc74e62	-0.09731747
180	0x3cc0f0e7	0.023552371
181	0x3c6aaeed	0.014323932
182	0x3d6fecbd	0.05857538
183	0xbd145fef	-0.036224302
184	0xbdb69a48	-0.089161456
185	0x3b0dfd8c	0.0021666018
186	0x3db97e17	0.09057253
187	0x3ddaee0d	0.10689936
188	0x3d9345e3	0.07191064
189	0xbd0af869	-0.03392831
190	0x3c9559e5	0.018231342
191	0x3d88a339	0.06671757
192	0x3d464fd2	0.048415966
193	0x3db21b1b	0.08696576
194	0xbdadba20	-0.08482766
195	0xbd12e509	-0.035862956
196	0xbab1120e	-0.0013509409
197	0x3de96244	0.11395696
198	0xbd84edac	-0.06490645
199	0x3d34d947	0.044152524
200	0xbbabda76	-0.0052445484
201	0xbdf6bba5	-0.12047509
202	0x3ddb8f15	0.1072065
203	0x3d4a862d	0.049444366
204	0xbd98c5d8	-0.07459611
205	0x3d873bb0	0.06603181
206	0x3dced291	0.10098756
207	0xbce46a44	-0.027882703
208	0x3dc53878	0.09629911
209	0xbdd60b59	-0.10451383
210	0xbde22fcb	-0.11044272
211	0x3daa3b05	0.08312038
212	0x3d1bbff8	0.038024873
213	0x3d396222	0.045259602
214	0x3d043495	0.03227671
215	0x3cff8ece	0.031196024
216	0xbdc1f946	-0.09471373
217	0xbddb13f2	-0.10697164
218	0x3dac00ca	0.08398588
219	0xbdf141b9	-0.11780114
220	0x3d478ab2	0.048716255
221	0x3a694d4c	0.0008899763
222	0x3c47dded	0.012198907
223	0xbbdd0951	-0.0067454954
224	0x3d088fc4	0.03334023
225	0x3d4869b2	0.048928924
226	0x3ca928c1	0.020649316
227	0x3dc3fa8d	0.09569273
228	0x3dc03c7c	0.093865365
229	0xbd97e86a	-0.07417376
230	0x3d00f73c	0.03148578
231	0xbd891df0	-0.06695163
232	0xbdc4887f	-0.09596347
233	0x3cd0ae2b	0.025473675
234	0x3d9f34b2	0.07773723
235	0xbce55a05	-0.027997026
236	0x3d270eae	0.040785484
237	0xbdd7ebf3	-0.105430506
238	0xbda47790	-0.08030617
239	0x3df62523	0.12018802
240	0x3deaf366	0.11472206
241	0x3ca204a0	0.019777596
242	0xbda136de	-0.07871793
243	0xbc59be67	-0.013290024
244	0x3cf960e0	0.030441701
245	0xbd578434	-0.052616313
246	0x3d43b6ad	0.047781635
247	0xbc89e881	-0.0168345
248	0xbdfcf0e1	-0.123506315
249	0x3dd8b3d8	0.105811775
250	0xbd08694f	-0.033303555
251	0x3c3337ec	0.010938626
252	0x3d511861	0.05104864
253	0x3de45d3b	0.11150595
254	0x3c2a2642	0.010385098
255	0x3d649820	0.05580914

transformer.layers.0.0.fn.fn.to_out.bias f4 [64]
0	0x3de21573	0.11039247
1	0x3c63c9e5	0.013903116
2	0xbe0a1795	-0.13485558
3	0xbc28dfc5	-0.010307257
4	0x3dad7e52	0.08471359
5	0xbdaac18d	-0.08337698
6	0xbd062e99	-0.032759283
7	0xbdbd728c	-0.09250364
8	0xbd6b7a43	-0.057489645
9	0xbd9e76f3	-0.077375315
10	0x3d6df6cf	0.058096703
11	0x3d4fb91b	0.05071364
12	0x3c692b14	0.014231462
13	0xbd6fe544	-0.058568254
14	0x3d9c882d	0.07643161
15	0x3c9e7a10	0.019345313
16	0x3d8ef28d	0.06979857
17	0x3d858e7b	0.065213166
18	0x3de3bdee	0.111202106
19	0x3cf804c5	0.030275712
20	0x3e01c72c	0.12673634
21	0xbda1ea4e	-0.07906018
22	0xbdc98821	-0.09840418
23	0x3db8acf4	0.09017363
24	0x3c4fc4f6	0.0126812365
25	0xbd316b94	-0.043315485
26	0x3e086673	0.13320331
27	0x3d6100cb	0.054932397
28	0x3d51c0b3	0.051209163
29	0xbd378cdb	-0.044812065
30	0x3d45001f	0.04809582
31	0xbd844a85	-0.06459526
32	0x3df05a95	0.11736027
33	0xbdce2a88	-0.10066706
34	0xbd2c28fe	-0.04203128
35	0x3d2ba64b	0.041906636
36	0xbcdb10d1	-0.026741417
37	0x3d0c49cb	0.034250062
38	0x3d83ec7b	0.064415894
39	0x3e02f0ee	0.1278722
40	0x3c2c1f60	0.010505527
41	0x3da280c8	0.07934719
42	0x3d0d3331	0.034472648
43	0x3d58f297	0.052965727
44	0x3dc85f43	0.09783795
45	0xbdb37fbc	-0.08764598
46	0xbca8144a	-0.020517487
47	0xbdadbe1b	-0.08483525
48	0x3d69d662	0.057089217
49	0xbda0095a	-0.07814284
50	0x3db400fd	0.08789251
51	0x3c248fa8	0.010044016
52	0x3dd437af	0.10362183
53	0xbdf26aa8	-0.11836749
54	0x3dcb948c	0.099404424
55	0xbd38687e	-0.045021527
56	0xbbd4af3f	-0.0064906175
57	0xbd9ef070	-0.077607036
58	0xbc1ef2d5	-0.00970145
59	0xb9c588ac	-0.00037676597
60	0x3dedfd2d	0.11620555
61	0xbd635167	-0.055497553
62	0xbc6b83e8	-0.014374711
63	0xbc2dbb1d	-0.010603693

transformer.layers.0.1.fn.norm.weight f4 [64]
0	0x3f810f01	1.0082704
1	0x3f7b4941	0.9815865
2	0x3f7cc480	0.98737335
3	0x3f7e9aed	0.9945515
4	0x3f803c66	1.0018432
5	0x3f787143	0.97047824
6	0x3f8462c7	1.0342644
7	0x3f7dc4fd	0.99128705
8	0x3f7f07a7	0.9962105
9	0x3f7e60b7	0.99366325
10	0x3f802e5c	1.0014148
11	0x3f801207	1.0005502
12	0x3f7f26ee	0.99668777
13	0x3f82bce7	1.0213898
14	0x3f7debf1	0.99188143
15	0x3f7bd2c9	0.9836851
16	0x3f7f4159	0.9970909
17	0x3f7f5781	0.99742895
18	0x3f7ffc44	0.999943
19	0x3f7de017	0.9917006
20	0x3f8041bf	1.0020064
21	0x3f7ef5f5	0.9959405
22	0x3f7e466a	0.99326193
23	0x3f7ca936	0.98695695
24	0x3f7f3dc4	0.9970362
25	0x3f8047fc	1.0021968
26	0x3f7b7fe8	0.98242044
27	0x3f7ba1a5	0.98293525
28	0x3f7fc5bd	0.999111
29	0x3f7f3a71	0.9969855
30	0x3f80db4a	1.0066922
31	0x3f7e6487	0.9937214
32	0x3f75cdff	0.9601745
33	0x3f7da97f	0.99086756
34	0x3f8040c9	1.0019771
35	0x3f7eab7d	0.9948042
36	0x3f7a449a	0.9776093
37	0x3f80249f	1.0011176
38	0x3f7f54b9	0.9973865
39	0x3f7c1352	0.9846698
40	0x3f7e7fa8	0.9941354
41	0x3f7f3a3a	0.9969822
42	0x3f7b95c0	0.98275375
43	0x3f80b607	1.005555
44	0x3f7a4f0e	0.9777688
45	0x3f7f4ee3	0.99729747
46	0x3f7db22e	0.99100006
47	0x3f7fd33e	0.99931705
48	0x3f7e5624	0.9935019
49	0x3f7fb8e0	0.9989147
50	0x3f7cb6bf	0.9871635
51	0x3f80fe9c	1.0077701
52	0x3f7b11a6	0.98073804
53	0x3f77d928	0.9681573
54	0x3f80d9d6	1.0066478
55	0x3f7ecbfa	0.99529994
56	0x3f7f48ea	0.99720633
57	0x3f7c2a3b	0.9850194
58	0x3f7aa46b	0.9790713
59	0x3f7faf86	0.998772
60	0x3f7eb75e	0.99498546
61	0x3f80013b	1.0000376
62	0x3f77d43a	0.9680821
63	0x3f7cf989	0.9881826

transformer.layers.0.1.fn.norm.bias f4 [64]
0	0x3c05b1cd	0.008160067
1	0xbc98d43a	-0.018655885
2	0xbc425306	-0.011860615
3	0x3ba81a0e	0.005130059
4	0x3a691f2f	0.00088928913
5	0x3cf33920	0.029690325
6	0x3d08050d	0.03320794
7	0x3c037273	0.008022892
8	0x3b87c678	0.0041435324
9	0xbbefe361	-0.007320807
10	0xbbc26a2e	-0.0059330678
11	0xba2763c5	-0.0006385411
12	0x3b8c7599	0.0042864797
13	0xbca63084	-0.020286806
14	0x3c044597	0.008073232
15	0xbc88d1cf	-0.016701607
16	0xbb271f23	-0.0025500737
17	0x3b13529c	0.002247966
18	0x3a089b92	0.000521117
19	0x3c01bbf3	0.007918346
20	0xbabd522a	-0.0014444042
21	0xbb5d0073	-0.0033722192
22	0x3c05a26e	0.008156402
23	0xbc56e509	-0.01311613
24	0xbb0e552e	-0.0021718252
25	0xbab3625b	-0.0013685928
26	0x3c815d14	0.015791453
27	0xbc901e3e	-0.017592546
28	0xbb01f3be	-0.001982912
29	0xbbbabefc	-0.0056990366
30	0xbbc009a4	-0.0058605243
31	0xbbca5381	-0.006174505
32	0xbd438531	-0.047734443
33	0x3c194406	0.009354597
34	0xb9cb3cef	-0.00038764576
35	0xbb9225b1	-0.0044600596
36	0xbcb96b6f	-0.022634236
37	0x3b7f2a56	0.0038935146
38	0x3b143524	0.0022614682
39	0x3c604dca	0.013690421
40	0x3bc39273	0.005968386
41	0xbb5f0025	-0.0034027186
42	0x3c81ba16	0.015835803
43	0xbba48e20	-0.0050218254
44	0x3cb3e454	0.021959461
45	0xbaff61da	-0.0019484118
46	0xbba464bb	-0.005016891
47	0x392e3e6a	0.00016617184
48	0xbc01e365	-0.00792775
49	0x3a5e235b	0.00084738963
50	0x3c46c229	0.012131252
51	0x3bf50110	0.0074769333
52	0x3ca16338	0.019700631
53	0xbd177dac	-0.036985084
54	0x3bc30eb8	0.0059526823
55	0x3b915821	0.0044355546
56	0xb8dd766e	-0.000105601604
57	0x3c800368	0.015626624
58	0x3ca90e01	0.02063656
59	0xbaf9f570	-0.0019070338
60	0x3bee097c	0.007264314
61	0xb9549e02	-0.00020276758
62	0x3d00e77d	0.031470764
63	0xbc2974e5	-0.010342811

transformer.layers.0.1.fn.fn.net.0.weight f4 [128, 64]
0	0x3d900e9e	0.07034038
1	0xbe08b6ca	-0.13350978
2	0xbe0b264e	-0.13588831
3	0x3d603ae7	0.054743674
4	0x3d81b7b6	0.06333868
5	0xbbe700a5	-0.0070496374
6	0xbda19935	-0.0789055
7	0x3d59edee	0.053205423
8	0x3e04a0f3	0.12952022
9	0xbdf274d6	-0.11838691
10	0x3b879349	0.004137431
11	0x3df371eb	0.118869625
12	0x3cb33774	0.021877028
13	0xbd338468	-0.043827444
14	0x3c34688e	0.011011256
15	0xbe1932f3	-0.14960842
16	0xbe1f30d7	-0.15545975
17	0x3c8c5e46	0.017134797
18	0x3d86a7d3	0.06574979
19	0x3db27eec	0.08715615
20	0x3e18e86b	0.1493241
21	0xbd0c6b9c	-0.03428231
22	0xbcfa0d20	-0.030523837
23	0xbdcf03af	-0.101081245
24	0xbd1af701	-0.037833218
25	0x3d2dc24b	0.04242162
26	0xbc900271	-0.01757929
27	0xbdf0e488	-0.11762339
28	0xbe03e3fb	-0.12879936
29	0xbe12166a	-0.14266363
30	0x3df72182	0.12066938
31	0x3ca8e3f5	0.02061651
32	0x3d45e3a4	0.0483128
33	0x3c96eaab	0.018422445
34	0x3d1f3c43	0.03887583
35	0xbd1e25d7	-0.038610306
36	0x3d17cd71	0.03706116
37	0xbce755bf	-0.02823913
38	0xbd954422	-0.07288386
39	0x3e1944f7	0.14967714
40	0x3dd03aab	0.1016744
41	0xbcf9194b	-0.030407568
42	0x3d4109b8	0.04712841
43	0xbd221e19	-0.039579485
44	0x3cd6e8c9	0.026234047
45	0xbc8e7fbe	-0.017394897
46	0x3d1e29e9	0.038614187
47	0x3dd74138	0.10510486
48	0xbd5faef8	-0.054610223
49	0x3cfb580a	0.030681629
50	0x3ce47b52	0.027890835
51	0x3afe7890	0.0019414593
52	0x3ae438fd	0.0017412003
53	0xbdf5e7c4	-0.120070964
54	0xbc7252ce	-0.01479025
55	0xbd859ec9	-0.065244265
56	0x3d845b4f	0.06462728
57	0x3e0c78df	0.13717984
58	0xbcec89ee	-0.028874364
59	0xbd6520bd	-0.055939425
60	0x3dfe2dd0	0.12411082
61	0xbdce9d0c	-0.10088548
62	0xba8f6f05	-0.001094312
63	0xbdb86259	-0.09003133
64	0xbdea117c	-0.11429116
65	0xbdfe7b2b	-0.12425836
66	0x3db2e7aa	0.08735593
67	0xbb313848	-0.0027041603
68	0xbdf0cfa3	-0.117583536
69	0xbd99527e	-0.07486437
70	0x3d85f4a1	0.065408
71	0xbc0d455b	-0.008622493
72	0xbd838568	-0.064219296
73	0x3c379abe	0.011206327
74	0xbd6832e9	-0.056689177
75	0x3d292dda	0.041303493
76	0x3d4e3ffd	0.050353993
77	0xbd6f7b54	-0.058467224
78	0xbd8bcdd0	-0.06826365
79	0x3da63cdd	0.081170775
80	0xbdbd00df	-0.09228682
81	0xbaf993bb	-0.001904122
82	0x3da5ed5e	0.08101915
83	0xbd43e2eb	-0.047823828
84	0xbd09dfab	-0.033660572
85	0x39437a7f	0.00018642283
86	0x3d9aa408	0.07550818
87	0x3cc00e18	0.02344422
88	0x3dab23a7	0.083564095
89	0x3d9706ad	0.0737432
90	0xbc83047d	-0.015993351
91	0xbd35b1a5	-0.04435887
92	0x3d0654ea	0.032795824
93	0xbd918582	-0.07105543
94	0x3d9149ee	0.07094179
95	0x3de6383f	0.11241197
96	0x3aaeadce	0.0013326944
97	0x3db81c2d	0.08989749
98	0xbddc4e8c	-0.10757169
99	0xbdf36bb2	-0.118857756
100	0x3dc8ec84	0.09810737
101	0xbca12687	-0.019671692
102	0x3d0017b0	0.03127259
103	0xbc3abba9	-0.011397281
104	0x3d838491	0.064217694
105	0xbda9aaa5	-0.08284501
106	0xbd6af8d6	-0.057366215
107	0x3d8fcee5	0.07021884
108	0xbb3d7cf6	-0.0028913594
109	0xbd913d2f	-0.07091748
110	0x3dc16f00	0.09445
111	0x3dbc2190	0.09186089
112	0x3ca679b8	0.020321712
113	0x3c2a49b7	0.010393552
114	0x3e0987a8	0.13430655
115	0xbd324f00	-0.04353237
116	0x3d3b1c39	0.045681212
117	0x3d039efd	0.032134045
118	0x3be998cb	0.00712881
119	0x3dc76379	0.0973577
120	0x3ddcea24	0.10786846
121	0xbd277b85	-0.04088928
122	0x3d8c09a1	0.06837774
123	0x3d6a1ee2	0.05715836
124	0x3e05329a	0.13007584
125	0xbdeb4dfd	-0.114894845
126	0x3c9ca46c	0.019121371
127	0xbd47ba2a	-0.048761524
128	0xbc8f7459	-0.017511534
129	0x3b5e2ee6	0.0033902465
130	0xbdd2ad54	-0.10286966
131	0xbc2d75a3	-0.010587129
132	0xbcf1cbc2	-0.029516105
133	0x3b664451	0.0035135935
134	0xbc6c639e	-0.014428047
135	0xbd942c6a	-0.07235034
136	0xbd926bb8	-0.07149452
137	0x3d3e26e9	0.046423826
138	0x3dee0b33	0.1162323
139	0xbd759c50	-0.059963524
140	0x3d813517	0.06308954
141	0xbccdc928	-0.025120333
142	0x3d84335a	0.06455107
143	0x3cdb0459	0.026735472
144	0xbde254e6	-0.11051349
145	0xbdd09e07	-0.10186391
146	0x3cde49f8	0.02713488
147	0xba2720a3	-0.00063754077
148	0x3dcdd7db	0.10050937
149	0xbcc8479a	-0.024448205
150	0x3df877b3	0.12132206
151	0xbaae5126	-0.0013299331
152	0x3dece05c	0.11566231
153	0xbd0201ae	-0.031739883
154	0x3da43a02	0.080188766
155	0x3c5823cb	0.013192127
156	0xbcb6f53d	-0.022333736
157	0xbcd80f1e	-0.026374396
158	0xbcb7cfb9	-0.022437917
159	0x3d5120ec	0.051056787
160	0x3db4f73d	0.088362195
161	0x3da997d3	0.08280911
162	0x3a850479	0.0010148428
163	0x3df9ebfe	0.12203215
164	0xbde969d5	-0.11397139
165	0x3df313a4	0.118689805
166	0xbd8e08b4	-0.06935254
167	0x3dbc2f09	0.09188659
168	0x3cd84727	0.026401116
169	0x3bb90c7b	0.0056472397
170	0x3df90433	0.12159004
171	0x3c68d2be	0.014210401
172	0xbd3b9fcd	-0.045806695
173	0x3dca4dcc	0.0987812
174	0x3b784dbe	0.0037888135
175	0x3d48f6c9	0.049063478
176	0x3d274c80	0.04084444
177	0xbbe8e9e7	-0.0071079615
178	0x3d894591	0.06702722
179	0xbdf2ff9b	-0.11865159
180	0x3d2aaa61	0.041666392
181	0xbd51fa45	-0.051264066
182	0xbd830e83	-0.06399252
183	0xbc9bd836	-0.019023996
184	0xbcde9a7e	-0.027173277
185	0x3dada07e	0.08477877
186	0x3df9103b	0.12161299
187	0xbdc3f03f	-0.09567308
188	0x3d91c702	0.07118036
189	0xbda1e955	-0.07905833
190	0x3da25cd7	0.07927864
191	0xbc650c66	-0.013980007
192	0x3dc57635	0.09641687
193	0x3de0a1f3	0.10968389
194	0xbd954012	-0.07287611
195	0xbdfa0ec1	-0.12209845
196	0x3d94f909	0.07274062
197	0xbdc01509	-0.09379012
198	0x3e113ca3	0.14183287
199	0x3d4b30b1	0.049606983
200	0x3d5b2573	0.05350251
201	0xbcc1c120	-0.02365166
202	0x3d7f1cec	0.06228344
203	0xbda668c4	-0.08125451
204	0x3bdd48cf	0.006753064
205	0xbd618def	-0.055067
206	0x3d7e2bde	0.062053554
207	0xbd028ed2	-0.031874485
208	0x3dfe8b29	0.124288864
209	0xbe1176ed	-0.14205523
210	0xbe02a192	-0.12756947
211	0xbd927d02	-0.071527496
212	0x3daa4c15	0.08315293
213	0xbbf70ff3	-0.007539743
214	0xbcc32b72	-0.023824427
215	0xbd4ac66c	-0.049505636
216	0x3ddd199c	0.107959
217	0x3e1488e9	0.14505352
218	0x3c952d76	0.018210154
219	0xbdb4e5b8	-0.08832878
220	0x3e0ed3b8	0.13947952
221	0xbd4b8bbd	-0.04969381
222	0x3d20b5fd	0.039236058
223	0x3dc60dd2	0.09670605
224	0xbd8de5a6	-0.069285676
225	0xbd179185	-0.037004013
226	0x3cd56a71	0.026051732
227	0xbd138c3a	-0.036022402
228	0x3d94a02b	0.07257112
229	0x3c30d70f	0.010793461
230	0xbde40ce5	-0.11135272
231	0x3dc426c1	0.09577704
232	0x3d8b1c68	0.067925274
233	0x3e09305d	0.13397355
234	0x3cdfdbe6	0.027326535
235	0xbdb3c173	-0.08777132
236	0x3d33395e	0.04375588
237	0xbd66e02b	-0.056366127
238	0x3daae9f4	0.08345404
239	0x3d3cb4c7	0.04607084
240	0xbcba7974	-0.022762991
241	0xbd0c14fc	-0.0341997
242	0xbb041e25	-0.002015957
243	0x3df1d4b9	0.11808152
244	0xbc2a5f1c	-0.010398652
245	0x3ddd8487	0.10816293
246	0xbd959c99	-0.07305259
247	0x3ce0a436	0.027422052
248	0xbd92c432	-0.071663275
249	0x3d0fe052	0.035126038
250	0x3d7261b4	0.05917521
251	0x3db9e863	0.090775274
252	0x3da407e4	0.080093175
253	0xbd1c01a2	-0.038087495
254	0x3d5126c9	0.05106238
255	0xbdb0e235	-0.086368956

transformer.layers.0.1.fn.fn.net.0.bias f4 [128]
0	0x3db184fa	0.086679414
1	0x3d0e0c34	0.034679607
2	0x3ce72b77	0.028218968
3	0xbd957b9e	-0.07298969
4	0x3d066bf1	0.032817785
5	0xbdb504e3	-0.08838823
6	0xbdc30848	-0.09523064
7	0x3d7b9335	0.061419684
8	0xbda15e42	-0.078793064
9	0x3df0d9e8	0.11760312
10	0x3c88e665	0.016711423
11	0xbd31d024	-0.04341139
12	0x3cfb90ee	0.030708756
13	0x3a8f818f	0.0010948646
14	0xbdd8ed3a	-0.105921224
15	0xbc995b1a	-0.018720198
16	0xbdf5762b	-0.119854294
17	0xbd2d8526	-0.04236331
18	0xbe02152e	-0.12703392
19	0x3d9d3618	0.07676333
20	0x3bc226dd	0.005925043
21	0xbdb56db7	-0.08858817
22	0xbdae3f42	-0.08508159
23	0xbd1a32ed	-0.037646223
24	0xbca8b386	-0.020593416
25	0xbd83c63b	-0.06434294
26	0x3d6a2877	0.057167497
27	0xbd68580b	-0.05672459
28	0x3dbab539	0.09116597
29	0x3d088dd6	0.03333839
30	0xbd6a96b0	-0.057272613
31	0x3d623699	0.05522785
32	0xbdf2dd77	-0.11858647
33	0x3dda2c9c	0.1065304
34	0xbcebcdaf	-0.028784601
35	0xbc12beb9	-0.008956605
36	0xbdab76f3	-0.08372297
37	0xbda21e37	-0.07915919
38	0xbdecb0cd	-0.115571596
39	0x3db9f871	0.090805896
40	0x3dfc8604	0.12330249
41	0xbd2df673	-0.04247136
42	0x3d8dfa1a	0.06932469
43	0xbda2fab5	-0.07957975
44	0xbae23bdf	-0.0017260275
45	0xbd7f48b9	-0.062325213
46	0xbd0c1381	-0.034198288
47	0x3d9c6007	0.07635503
48	0x3d58a464	0.05289115
49	0xbdf55b36	-0.11980288
50	0x3d49a34f	0.04922801
51	0xbd70478b	-0.05866198
52	0x3ba4f93e	0.005034595
53	0xb9d927da	-0.00041419157
54	0xbd45680c	-0.04819493
55	0xbcd5b090	-0.026085168
56	0xbd621a31	-0.05520076
57	0xbd9ae314	-0.07562843
58	0xbdf97a78	-0.12181562
59	0x3ddbb150	0.10727179
60	0x3de67049	0.112518854
61	0xbd5799a2	-0.05263675
62	0x3c55387b	0.013013954
63	0xbd8a94aa	-0.06766637
64	0xbde70c77	-0.11281674
65	0x3c7b1bdc	0.015326466
66	0xbcc70a04	-0.024296768
67	0x3cd5409c	0.026031785
68	0x3dd38f81	0.103301056
69	0x3d899d3a	0.06719442
70	0xbd9b936d	-0.075964786
71	0xbdca716e	-0.09884916
72	0x3c765d0c	0.015036833
73	0x3c945ec6	0.018111598
74	0x3d828f76	0.06375019
75	0x3ccbf1bf	0.024895547
76	0xbdd5c3c7	-0.10437732
77	0x3df5f00f	0.12008678
78	0x3d3e534a	0.04646615
79	0xbc9b325c	-0.018944912
80	0x3d147397	0.036243048
81	0x3db17877	0.08665555
82	0x3d31b095	0.043381292
83	0x3e120941	0.14261343
84	0xbcd828e0	-0.026386678
85	0x3d3af587	0.04564431
86	0xbdbf8394	-0.093512684
87	0x3d706f6a	0.058700003
88	0x3ddf67da	0.1090848
89	0xbdce0445	-0.10059408
90	0x3d47dd9d	0.04879533
91	0xbdcbe55f	-0.099558584
92	0xbe0e9c0d	-0.13926716
93	0x3caea76f	0.021320073
94	0x3d0dc188	0.034608394
95	0x3defda40	0.1171155
96	0x3d2c91cb	0.042131227
97	0x3d5a1a43	0.0532477
98	0x3cbfe7ac	0.0234259
99	0xbd9fbeb5	-0.07800046
100	0xb9e81d7a	-0.0004427245
101	0xbc66f1ee	-0.0140957665
102	0xbdffc7a4	-0.1248925
103	0x3cf75707	0.030192865
104	0xbd21d3d3	-0.039508652
105	0xbdff2057	-0.1245734
106	0xbcc08dea	-0.02350517
107	0x3b4675da	0.0030282647
108	0xbb9a5e15	-0.0047109225
109	0xbdcf78a4	-0.10130432
110	0xbdd2db06	-0.10295682
111	0x3c59799a	0.013273621
112	0x3d4da302	0.050204284
113	0x3c21d353	0.009877044
114	0xbd471d8e	-0.04861217
115	0x3daff0d6	0.08590858
116	0x3d9e2c42	0.07723285
117	0x3d3b1693	0.045675825
118	0xbd51cdf4	-0.051221803
119	0xbd9c5b7f	-0.07634639
120	0x3d89a0a3	0.06720092
121	0xbde12a5e	-0.10994409
122	0xbdad575d	-0.08463929
123	0x3cd4b1b4	0.025963642
124	0xbc39586b	-0.011312584
125	0xbdf273d8	-0.11838502
126	0x3e08e761	0.13369514
127	0x3bc6f628	0.0060718246
