tests/test_model_60epochs.pth (torch, 453160 bytes, 18 tensors)

pos_embedding f4 [1, 1025, 64]
00000000: fae8 f43f cd3c bb3f 8682 623f ed1d 07c0
00000010: 52f5 253f 0b00 98bf e194 61bd e1b6 ccbf
00000020: b576 31bf 572d d03f 3947 d1be c26d b2bf
00000030: f77d 33bf 5d6d 08bf dd5b 41bf ce29 423f
00000040: 981e d03f 3164 07be 660d e7be 57b1 ea3e
00000050: 540f 3fbf 8f97 843f 3de8 4f3f 1079 d63f
00000060: 3f0f a03f cfde a43f aace 1e3f 7852 a43f
00000070: be97 76be 69f4 003d 4d14 82be 84a9 563f
00000080: 8d71 b2bf 9c83 59bf cbd6 5cbe 70a9 d83f
00000090: 1431 873e a45a e4be 0e8d b33e 9ba4 45bf
000000a0: 0da1 c3bf 141b 7b3f 42c6 5dbf bf10 19bf
000000b0: ffb9 9ebf 10a6 0640 f01d 9fbf 051c edbe
000000c0: a7bc 6fbf 2614 24bf 6e77 aa3d 4807 fe3e
000000d0: 9647 f4be 5e5e 983f fc44 55bf f4c4 39bf
000000e0: d3f3 aebf a379 243d 090b 33bd cadd 273f
000000f0: 42d4 a1bd 6c0b eb3f f893 96bf 004d ae3f
00000100: 6928 ba3f f0b6 5e3f 4f7d 0f40 c61a 023f
00000110: 4e0d b03e a997 3bbe ea49 86bf b90d a33f
00000120: 3ab6 35be f0ce 053f 0bcf 293d b393 db3e
00000130: b498 163f 495e 29bf cd86 0ec0 cd15 3cbf
00000140: 59d8 033d b615 a3be 0acd adbf 2139 17bf
00000150: 531a 0c3f 09f3 063f d9bd 923f 0a07 673d
00000160: a6da 3b3f a925 03bf bbb4 86bf 341e 1a3f
00000170: fc3c dbbf 1392 58bf f750 ac3f 7778 fa3e
00000180: ba55 21c0 c01f f63e 65fa 453f d146 2b3d
00000190: d178 223f 33ff 193f fb6f 8a3f 9777 e3be
000001a0: 5d10 37be 5d92 3e3f 8c07 d53e 4839 2d3e
000001b0: ec6f 8b3e 828e a43f 375f a6bb ebda 8cbe
000001c0: 63ab bbbf 6940 f6bd fd6a 1dbf 1149 ec3e
000001d0: 3a2f 393f 6f21 c83d b16b d2be 493c 0c3f
000001e0: 0ad9 c8bc a460 753e 8824 c03d 0b32 443f
000001f0: c179 8d3f ee7a a83e 01b4 323f 9141 d63e
00000200: d839 f83f 6fee 843f 24a6 b7bf df7a 92bf
00000210: b99b edbd 3c0d d33f cc82 283f 27ca 123f
00000220: d0e7 913f dfe7 213c 14c9 eabf a6f3 6f3f
00000230: 3c9c b2be d033 833f 4e38 2fbf 1be0 283f
00000240: acf5 7abf c8d3 7d3f e5d6 cf3f 3c19 b93f
00000250: ce5a 8f3e a869 55be 7993 3dbf 7f97 023e
00000260: bc51 ad3e 19e8 6f3f 7be5 edbe 2f61 ce3f
00000270: 42d2 1dc0 be79 d9be 34f4 98bf 15b1 503f
00000280: 6374 f2bf a57d 5a3e 2812 983b 29ce b1be
00000290: 1b18 8f3e 6e6e 38bf ae20 3c3e 7d63 8bbf
000002a0: 77fc ccbf 5dc5 aa3f 9ea0 a83f f0dd 433d
000002b0: f722 c7bf ef7d 433f 7033 453f 5669 0240
000002c0: d8bd 253d fd4e e03d 6dc5 51bf e2d7 62be
000002d0: fd17 71bf 6d5d cdbf 1d7a 93bf 0b9d 01bf
000002e0: 42fb 04bf 01ca c2bf 934f fbbf 9058 f43d
000002f0: 56d0 853f 0bd5 0fbf b642 2f3f 091f 383f
00000300: aceb e63f 5b83 6dbf 4878 783f 1ed2 b7be
00000310: d882 98bf f98b b53e d53b fa3e 0144 ac3f
00000320: 51ae 053f c134 0740 be41 0abf 82ff 71bf
00000330: a199 2f3e 5026 873f adc8 a83f e89b f63e
00000340: c7d8 4dbf 87ed 7fbf f007 ffbe ca85 18bf
00000350: 3a21 183e a87a e13e 2f2a 31be 831d 16c0
00000360: fc7a d2be f56c 883f 5354 e4bf 6822 c13f
00000370: a865 a53e 5f06 08bf ab84 853f 7e31 da3f
00000380: df81 10bc 1cd0 d43f 5eb1 093e 968e 8cbf
00000390: d4b4 12bf c674 c73d dabd d33e aaff 0040
000003a0: 30ac 7abd 1022 68bf 6204 03c0 52e6 8cbf
000003b0: 1cca 943c 8b7d c13d adc5 403e 1694 e03e
000003c0: 8cad 68bf f049 843e 2c95 0bbf ab68 f43e
000003d0: 8992 62bf 6c11 a2bc d698 c9be 2e79 be3f
000003e0: f646 a03f bd53 3abf 3918 533f 96cb fd3e
000003f0: 2dcc 0b3f 4b03 0e3f 5863 f53e f209 643e
1.9133599 1.462793 0.8848041 -2.1112015 0.64827454 -1.1875013 -0.055073623 -1.599331
-0.6932176 1.6263837 -0.4087465 -1.3939745 -0.7011408 -0.53291875 -0.755308 0.7584504
1.6259336 -0.13221814 -0.4512741 0.45838425 -0.74632764 1.0358752 0.8121374 1.6755695
1.2504653 1.2880496 0.62034094 1.2837667 -0.24081323 0.031483088 -0.25406113 0.8385241
-1.3940903 -0.84966445 -0.21566312 1.6926708 0.2640463 -0.44600403 0.35068554 -0.77204293
-1.5283524 0.9808819 -0.8663064 -0.5979118 -1.2400512 2.1038857 -1.2431011 -0.4631044
-0.93647236 -0.64093244 0.08323561 0.4961493 -0.47710866 1.1903799 -0.83308387 -0.7256615
-1.3668159 0.040155064 -0.043711696 0.655728 -0.07901813 1.8362861 -1.1763906 1.3617249
1.4543582 0.8699789 2.2420232 0.50822103 0.3438515 -0.18319573 -1.0491307 1.2738563
-0.17745295 0.52268887 0.041457217 0.42886123 0.58826756 -0.6615949 -2.2269776 -0.73470765
0.032188747 -0.31852502 -1.3578198 -0.59071547 0.5472767 0.5271459 1.1464187 0.056403197
0.73380506 -0.5122934 -1.0523905 0.60202336 -1.7127986 -0.8459789 1.3462209 0.48920032
-2.5208573 0.48071098 0.77335197 0.041815583 0.634656 0.6015503 1.0815424 -0.44427177
-0.17877336 0.7444208 0.4160732 0.16916382 0.27233827 1.285599 -0.0050772685 -0.2751077
-1.4661678 -0.12024004 -0.61491376 0.46149495 0.72337687 0.09772002 -0.41097787 0.5477949
-0.024517555 0.23962647 0.09381968 0.7663886 1.1052781 0.32906288 0.69805914 0.41846898
1.9392653 1.0385264 -1.4347577 -1.1443747 -0.11601967 1.6488414 0.6582458 0.5733971
1.1398869 0.0098819425 -1.8342614 0.93731153 -0.34884822 1.0250187 -0.6844529 0.6596696
-0.98031116 0.9915128 1.6237456 1.4460826 0.27998966 -0.20841086 -0.7405315 0.12753104
0.3385142 0.9371353 -0.46464142 1.6123408 -2.465958 -0.42475694 -1.1949525 0.81520206
-1.8941768 0.21336992 0.0046408363 -0.347276 0.2794808 -0.720435 0.18371841 -1.0889736
-1.6014546 1.334148 1.3174016 0.047819078 -1.5557545 0.76364034 0.7703161 2.0376792
0.040464252 0.10952566 -0.8194187 -0.22152665 -0.9417723 -1.6044136 -1.1521641 -0.50630254
-0.5194589 -1.5217897 -1.9633659 0.119309545 1.0454204 -0.5618445 0.6846117 0.71922356
1.8040671 -0.9277856 0.97058535 -0.35902494 -1.191493 0.35458353 0.48873773 1.3458253
0.5221911 2.1125948 -0.54006565 -0.945305 0.17148449 1.0558567 1.3186241 0.48165822
-0.804089 -0.9997181 -0.49810743 -0.59579146 0.14856425 0.44038892 -0.17301248 -2.3455513
-0.41109455 1.0658251 -1.7838234 1.5088625 0.3230412 -0.5313472 1.0431112 1.7046354
-0.008820026 1.662601 0.13446566 -1.0981014 -0.5730717 0.0973907 0.41355783 2.0156045
-0.061199367 -0.90676975 -2.0471425 -1.1007788 0.01816278 0.094477735 0.18825407 0.4386298
-0.9088981 0.2583766 -0.54524493 0.47736105 -0.88504845 -0.019783698 -0.39374417 1.4880731
1.2521656 -0.72784024 0.82458836 0.49569386 0.5460842 0.55473775 0.47927356 0.22269419

cls_token f4 [1, 1, 64]
00000000: 18aa 23bf e17b c53f be57 763f da94 cc3e
00000010: 0bf2 c2be 43cd b8be 0a25 e53f 1028 b63f
00000020: d3ca babf f487 d8bd 3b8c 293f 91cf 453f
00000030: 9327 283e c784 cdbf 8625 25bf 99bd 84bc
00000040: 33ec a43f a6a8 b9bf 3e19 05c0 d3a2 adbf
00000050: 625a f43e f56c 1c3f 1fd8 71bf b8cf 863f
00000060: d0ea 273e 6185 45bf 454d 95bf e74b 7d3f
00000070: 21ea 813f 96f3 093f a8a7 693d ffe0 1540
00000080: f8d2 c63f d99f a4be 0375 5ebf 7b06 f8be
00000090: 5b0e b23f 19d6 fa3f 611b b8bf f73d 0b3f
000000a0: e0b9 783d 40d8 c13e 364b d3be bff0 75bf
000000b0: 4644 0cbf 88c5 9d3e 80b1 ff3f b7a0 8bbf
000000c0: 724d d93f e870 8a3c 5713 5bbf a207 813f
000000d0: 24a2 80bf 7d56 10bf 74fe 943f 6b78 41bc
000000e0: 0dbe 8f3d d813 5ebf 072e 90bf f17c c33f
000000f0: 0d8b 10bf f13b 6e3f 0ece e8be c580 4e3f
-0.6393142 1.542843 0.96227634 0.39957315 -0.3807529 -0.36094102 1.7901928 1.4230976
-1.4593147 -0.10572806 0.662296 0.77269846 0.16421346 -1.6056145 -0.6451038 -0.016203688
1.2884582 -1.4504592 -2.0796657 -1.3565315 0.47725207 0.61103755 -0.944704 1.0532141
0.16398168 -0.77156645 -1.1664206 0.9894394 1.0149575 0.5388731 0.057044655 2.3418577
1.5533133 -0.32153204 -0.86897296 -0.48442444 1.3910631 1.9596587 -1.4383355 0.54391426
0.06072414 0.37860298 -0.4126832 -0.96070474 -0.54791677 0.30814767 1.9976044 -1.0908421
1.697676 0.016899541 -0.85576385 1.0080454 -1.0049481 -0.5638197 1.1640153 -0.011808495
0.07018671 -0.8674903 -1.1264046 1.5272504 -0.56462175 0.93060213 -0.45469707 0.80665237

patch_to_embedding.weight f4 [64, 64]
00000000: 3a9a af3d 2845 243d c0e9 1f3d 574e 933d
00000010: fbaf 463d cbad 26bb 7a72 abbc 38f1 fd3b
00000020: a8e1 183e 55f2 093e a947 af3d 6339 993d
00000030: a99b 093e 631f 123e 667b ee3d 3f59 653d
00000040: 1ded 863d 5e25 2ebd 64b6 b03d 02e7 f73d
00000050: b0bc 643d d335 1fbd 2f24 813d 6069 123e
00000060: bcd9 3e3c 7989 ac3d c216 563d f9d1 c83d
00000070: 4ddb a73d 5f5e 603d 16e3 93bd 1ae5 1b3e
00000080: 3c10 a8bd d415 82bd 62b7 223e d13d 873c
00000090: ad2d 92bd 0700 153e 73ed 453c 16a8 193e
000000a0: 45a4 063e 1b03 9bbd 1453 99bd 6dc5 413d
000000b0: 3aae 963b 8b66 96bd 3e93 cebc 4ab1 0e3e
000000c0: 5ea0 b83d 9079 ad3d ebc7 d73d aac1 d03d
000000d0: 00f4 f83d 2cac e43c 77e1 283d 44f2 313e
000000e0: c54c 313d fa88 9a3c 6221 103e 8c35 e83d
000000f0: 9e65 433d 22e5 da3d aaf3 213e 4d46 2f3d
00000100: 41f5 063d 8b89 0d3e 61ee 713e 75da 5b3d
00000110: 637c 713c c4ea c03d 27d4 363e 8b14 7c3d
00000120: bbb1 04bd 6a91 933d bf2b 2d3e 652c 003e
00000130: 6094 123e bfc4 013e d971 033e 3be1 5e3e
00000140: 8b3b cbbc 875f 9e3c 2261 683d 5b3f 3d3d
00000150: 5d73 213d 0ba6 9cbb 7dc9 223e 98d5 073e
00000160: 49ec 9abd 53cf 853d 5884 8cbd 8f41 233e
00000170: 9c8c c63d 2ef6 f83d 0f99 3b3e 6f0d 323e
00000180: 7749 ea3d 2525 ae3c 75e5 5f3d 01e0 133e
00000190: 9c21 233e be33 0a3d 976c 3b3e 3160 2d3e
000001a0: a562 213e f2ad 5d3d 377e 9b3d 25e2 7bbb
000001b0: c858 67bd 6668 553d 2f17 ce3d 001a b6bb
000001c0: e55a b03d 2095 57bd df72 48bd 66ad 333e
000001d0: 7bef 15bd 4d7f 653d a1a9 093d 3b55 073e
000001e0: 2291 853d 20da ba3b b5bf b9bb 35de 2bbd
000001f0: 0762 c23c f03e f23d c479 353d e04f cdbc
00000200: 92ba 923d 3a10 9ebd 8373 78bd 00e3 f63d
00000210: 277c 8dbd c794 493d 767d 15bd 63ef 113e
00000220: 9708 46bd 0d9d a5bd 17d2 073e c6c1 4b3d
00000230: e413 69bd 1f70 d93d 7e40 82bd 806a ac3d
00000240: ea0a c3bc 88d9 cd3d f3d7 ee3d 011c 903c
00000250: 461c 0b3e 430c 663d 64b4 f53c 9224 163e
00000260: e8fa ca3d c16e b8bc d52b b93d 24b2 07bd
00000270: 5454 3a3d 534e 80bd 2cbb f33d f2e0 9dbd
00000280: 1148 033c fefc e33d 1984 fdba f304 283e
00000290: 18b6 9e3d 2487 1e3d c89e cf3d 43f6 37bd
000002a0: 615f ca3d 434b aabd 46fd a13d 9a8c b73c
000002b0: f982 123e 6f0c 783c be75 5f3d 9b85 92bd
000002c0: de9e f53d 26fe a5bd 1d4e dc3d 13af 9d3d
000002d0: dba0 0f3e 3155 1f3e a80a 553d 3697 72bd
000002e0: d153 143e 7211 ebbc e167 82bd 9605 cb3d
000002f0: 4cde 9abc d953 033e 6108 053e 1a98 cb3a
00000300: 98bc ffbd 2bba 1ebe bde6 2dbe fda4 5fbe
00000310: e456 25be 8841 acbc 22b9 9cbd 087b eebd
00000320: 0454 27be 6e65 09bd fe61 c4bd 036b 01be
00000330: 6da0 c1bc 25fa 1abe 8e9f a6bd 3ad8 0bbe
00000340: 7d2f 1cbe b47f 5d3c aebb 39bd a11b 1b3d
00000350: 065c a6bd 662d 1bbd b065 f6bd 17d7 893c
00000360: 64d8 f1bd cf4f 43bd 22b9 363d fc17 29be
00000370: 818c efbd 0227 32ba fa0c babd 2c12 09be
00000380: 47ce 44be 76fa 0a3d 7a74 bebc a4c3 92bd
00000390: 72ea 14bd e975 843c 9480 313d d214 19be
000003a0: 2d66 1cbe 0847 32be ac67 33be 7595 ad3b
000003b0: ac9e 32be c64e eb3c a788 153d 90e5 3bbe
000003c0: ce78 e63c 30e1 403c 534c 4abe 3520 dabd
000003d0: 589d 733b fea4 c8bd 3b88 eabd 6df5 e0bd
000003e0: 2e1e 3e3c f2e3 2abe 6ade f1bd bab5 d4bd
000003f0: 3f74 0bbd 6ad6 0abe c3dd 12be 4ddb e9bd
0.08574338 0.040105015 0.03904128 0.071926765 0.04850767 -0.0025433179 -0.02092861 0.007749703
0.14929831 0.13471349 0.0855859 0.07481649 0.13438286 0.14269786 0.1164463 0.055993315
0.065881945 -0.042516105 0.08628538 0.12104608 0.05584401 -0.03886969 0.063057296 0.1429801
0.011648592 0.08424658 0.052267797 0.09805674 0.08196125 0.0547775 -0.072210476 0.15224114
-0.082062215 -0.0635182 0.15890267 0.016508969 -0.07137618 0.14550792 0.012080538 0.15005526
0.13148601 -0.07568952 -0.07486549 0.04730742 0.004598406 -0.07343777 -0.025216695 0.13934818
0.090149626 0.08470452 0.10536178 0.101931885 0.12155914 0.02791413 0.041230645 0.17377573
0.043286104 0.018864144 0.14075235 0.11338338 0.04770433 0.10688235 0.15815607 0.042791653
0.032948736 0.13822 0.2362609 0.053675134 0.014739129 0.09419778 0.17854367 0.06154303
-0.03239606 0.0720547 0.16911219 0.12516935 0.14314413 0.12672709 0.12836398 0.21765606
-0.024808666 0.01933266 0.056733258 0.046203 0.03941666 -0.004780536 0.15897174 0.13265073
-0.07564599 0.065336846 -0.0686118 0.15942977 0.09694788 0.1215633 0.18320106 0.17387937
0.114397936 0.021257946 0.054662187 0.1444092 0.1593079 0.03374075 0.18303142 0.16931225
0.15760286 0.054120965 0.07592433 -0.0038434353 -0.056481153 0.052101515 0.10063016 -0.0055572987
0.08611087 -0.05263245 -0.048937675 0.17546615 -0.03660534 0.056029607 0.033609036 0.13216107
0.065218225 0.005702272 -0.005668605 -0.04195996 0.023728384 0.118284106 0.044305578 -0.025062501
0.07164492 -0.07717939 -0.060657036 0.120550156 -0.06908446 0.04921415 -0.036496602 0.14251475
-0.048348036 -0.08086596 0.13263737 0.049745344 -0.056903735 0.106170885 -0.06359957 0.08418751
-0.023808915 0.100512564 0.11662283 0.017591478 0.13585004 0.056164037 0.029993244 0.14662388
0.09911138 -0.02251375 0.090415634 -0.033128873 0.045490578 -0.06264939 0.119009346 -0.077089205
0.008012787 0.11132239 -0.0019341736 0.16408138 0.077495754 0.0387031 0.10137707 -0.044912588
0.09881473 -0.08315136 0.07909636 0.022405911 0.14307775 0.015139683 0.054555647 -0.071543895
0.11993192 -0.081051156 0.107570864 0.076994084 0.14026205 0.15559842 0.052012116 -0.059226237
0.14485098 -0.028694842 -0.063674696 0.09913175 -0.018904828 0.12824954 0.12991478 0.0015533001
-0.12487143 -0.15500705 -0.16982551 -0.21840282 -0.16146427 -0.021027341 -0.07652499 -0.1164456
-0.16340643 -0.033543997 -0.09589003 -0.12638478 -0.023636067 -0.15134485 -0.081359014 -0.13656703
-0.1525249 0.013519216 -0.045345 0.037868146 -0.08123021 -0.037885092 -0.12031114 0.016826196
-0.11808851 -0.047683533 0.04461015 -0.16513056 -0.11696721 -0.0006795974 -0.09084506 -0.13385838
-0.19219314 0.033930264 -0.0232489 -0.07166222 -0.036356397 0.016169505 0.043335512 -0.14949349
-0.15273352 -0.17409909 -0.17520016 0.0052973577 -0.17443341 0.028724086 0.036507275 -0.1834929
0.028133776 0.011772439 -0.19755678 -0.10650674 0.0037172642 -0.09797095 -0.11451765 -0.10984311
0.011603875 -0.16688517 -0.1181 -0.10386224 -0.034046408 -0.13558355 -0.14342408 -0.114187814

patch_to_embedding.bias f4 [64]
00000000: b1af aabd e34f ca3d 4109 003e 2025 e53d
00000010: f957 9b3d 4214 823d 5642 d63c 7514 93bc
00000020: 3f97 123e 189c d23d b22f c3bc 05a0 b8bd
00000030: bf36 203d eb58 353d 7570 0cbd 6a74 d43d
00000040: 151d 9f3d d5e2 a6bd 58a1 c13d 6a11 b8bd
00000050: e7ad 693c add3 abbd 41a7 583d e15a 53bd
00000060: 42ff 70bb 3dc3 f2bc ea6e 1bbd d20e d03d
00000070: 791d 60bd 8de2 d33d 075c c0bd e841 f4bd
00000080: a177 e4bd 699e 103d 3f21 44bb d6be 34bd
00000090: 099b 403c 6ff1 a1bd bc14 adbd 5c6b 843c
000000a0: d5a3 9fbd 8420 efbd 9c7d 503c 156a 28bd
000000b0: 84b1 283b 95a3 473d a409 b43d eb42 0d3d
000000c0: 6c18 40bd 7aa0 e4bb dfd9 d33d a7f1 8ebd
000000d0: a4f3 9d3d 4e1f 2f3d 97e4 fabd 45f6 c73c
000000e0: a917 7f3c 31d5 b6bd 73fc 80bd 4a29 9c3c
000000f0: 96e3 17bc 91f9 cd3d 8e73 85bd c686 f83d
-0.08334292 0.098785184 0.1250353 0.11188722 0.07585139 0.0635152 0.026154678 -0.01795409
0.14315508 0.10283679 -0.023826454 -0.09014896 0.03911471 0.044274252 -0.034286935 0.10373767
0.07769219 -0.081487335 0.09454602 -0.089876965 0.014262653 -0.08389983 0.05289388 -0.05160034
-0.003677324 -0.029634112 -0.037947573 0.10159077 -0.054715607 0.103459455 -0.09392553 -0.11926633
-0.1115563 0.03530732 -0.0029927043 -0.044127308 0.011755713 -0.07907378 -0.084512204 0.016164474
-0.0779492 -0.11676124 0.01272526 -0.041116793 0.0025740573 0.04873999 0.08790901 0.034487646
-0.04689829 -0.006977138 0.1034429 -0.06979685 0.077124864 0.042754464 -0.12250631 0.024409423
0.015569606 -0.08927382 -0.06298151 0.019062657 -0.009270569 0.10057367 -0.06516181 0.12135081

transformer.layers.0.0.fn.norm.weight f4 [64]
00000000: d6e8 893f 63a7 843f 4d2a 6d3f cac6 8b3f
00000010: cfee 6a3f e5c0 653f 9359 703f 875c 7c3f
00000020: 9498 613f 2453 693f 95b7 863f 5e8c 683f
00000030: 89a8 593f 21c9 713f 90df 6a3f 23b6 863f
00000040: 7cf1 733f 1c99 773f 7807 4d3f 7c4a 803f
00000050: 236a 5c3f 64ba 743f 2b46 803f 2e99 8b3f
00000060: 75ad 523f 0a3a 693f ea1d 643f 495d 773f
00000070: e36f 763f 8fad 693f 2096 723f 34ca 823f
00000080: 6837 603f 5c0c 8b3f 7aae 7f3f e43e 793f
00000090: e1bd 7d3f 9bed 8c3f 79de 773f f8de 603f
000000a0: 91e7 7d3f f4b7 843f fcb8 683f a501 6b3f
000000b0: 2d65 643f 593f 7d3f 2a72 633f 5cbd 823f
000000c0: c26a 543f 5fbb 7b3f 1df7 5d3f 6d93 823f
000000d0: 4ee0 7b3f cbb8 6d3f 4433 863f 3fcc 773f
000000e0: 23e7 743f 4171 673f f7fa 863f bd43 6a3f
000000f0: 7981 523f 0393 693f cd4b 813f 0a4c 613f
1.0774181 1.0363582 0.9264267 1.0920041 0.91770643 0.8974746 0.9388668 0.98578686
0.8812344 0.9114249 1.0524775 0.90839183 0.8502279 0.94447523 0.9174738 1.0524334
0.9529035 0.96718 0.8008952 1.0022731 0.8609945 0.9559691 1.0021414 1.0906122
0.82295924 0.91104186 0.89108145 0.96626717 0.96264476 0.91280454 0.9476032 1.0217957
0.87584543 1.0863147 0.99875605 0.9736159 0.9911786 1.1010011 0.9682384 0.87840223
0.9918147 1.0368638 0.90907264 0.91799384 0.8921688 0.98924786 0.88846076 1.0214038
0.829754 0.9833278 0.8670519 1.0201241 0.98389137 0.92860097 1.0484395 0.9679603
0.95665187 0.90407187 1.0545338 0.9150961 0.8222881 0.9123995 1.0101258 0.8800665

transformer.layers.0.0.fn.norm.bias f4 [64]
00000000: ee26 613a 0a6e 88bb 818e 003b c2ad 413c
00000010: 0a71 313c 1cd2 da3c 1325 2f3c 127e 01bd
00000020: 2561 52bb 9308 57bb 2020 15bc 9d68 6e3c
00000030: cf76 173c 6829 5fbc 4b65 06bd a67d b43c
00000040: 610b 983c 3255 eb3c b844 69bc 7727 123b
00000050: f626 d5bb bbaa bd3b 0bdf 55bc 5a0b 81bc
00000060: 1a09 38bc 338b 2cbc 4553 7b3c 292e 6f3b
00000070: c799 cf3c 5ab3 8fbc 0528 0f3c 8a65 943c
00000080: ccaa 383c eb75 68bc b589 4abc 1655 003a
00000090: 4487 b3bb d8a6 263d 8b1b bf3c 1e20 07bc
000000a0: b7e3 bc3c 71c0 b9bc 2b20 603c 5766 063d
000000b0: ae8a aa3c 7914 e7bb 17ed ba3b 1d0c 613c
000000c0: a23f 513c 881e e3bc 3233 223d e632 3d3b
000000d0: 5caf 05b9 9a1c 263c a477 28bc 336f 0ebb
000000e0: 60f8 1ebc 506c 053c 4936 90bc 9fe4 57bd
000000f0: 107e 23bd 319c 9cbc fc22 0abd f31b 0cbc
0.000858887 -0.0041635083 0.001961619 0.011821212 0.010830173 0.026711516 0.0106899915 -0.03161437
-0.003210136 -0.0032811507 -0.0091018975 0.014551309 0.009244635 -0.013620712 -0.032811444 0.02203257
0.018560113 0.028727148 -0.014237575 0.0022301355 -0.0065048886 0.005788175 -0.013053666 -0.015752483
-0.011232639 -0.010531235 0.015339677 0.003649602 0.025341881 -0.017541576 0.008737569 0.018114824
0.01127119 -0.01418827 -0.0123619335 0.00048954913 -0.0054787714 0.04068646 0.023328563 -0.008247403
0.023057802 -0.022674771 0.013679544 0.032812443 0.02081808 -0.007052001 0.005704533 0.013735798
0.012771519 -0.02772452 0.039599605 0.002886945 -0.00012749195 0.010138655 -0.010282431 -0.002173376
-0.009702772 0.0081434995 -0.01760401 -0.052708264 -0.039915144 -0.019117447 -0.03372477 -0.0085515855

transformer.layers.0.0.fn.fn.to_qkv.weight f4 [192, 64]
00000000: 0f56 ef3d ae08 6b3d f919 9e3c b986 f33c
00000010: 2f31 c43c 3a7f 853d 5dfc 55bd cf22 25bd
00000020: 685b 84bd 1650 e23c 69b7 89bd 92f6 7a3d
00000030: 5efe e8bc ada5 ef3d 08ec 2d3d c559 e4bd
00000040: 33a2 bd3c 0a7f 353d c879 b0bd 6bbd 4d3c
00000050: e6a8 243d 2e97 e8bd 1d0b eabd 46af f3ba
00000060: 3495 4f3d b697 85bd 1cdd 94bd 8102 70bd
00000070: 9263 033d d6c7 22bd 03b3 79bd c983 7b3c
00000080: 7dc6 99ba 4e1b bdbc 4ad6 963d a823 c1bd
00000090: e95a 13bc 1c9e 1bbc d1f3 303d 4792 9abd
000000a0: 0311 523c 522b e8bd 0d51 c13d 0321 9c3c
000000b0: ac67 a6bc 0c7b d2bd c75f c63d edec a43d
000000c0: 30df b93d a94c aebd 6a58 c2bb ae46 94bd
000000d0: d42e a1bd 2ff3 bcbd 48b0 a73d 1b2f fbbc
000000e0: 1006 733d 8cd7 eabc 71c7 70bc e8d8 0f3b
000000f0: 94d8 cabd 7fd6 debd 9663 3c3d 1ec3 b03a
00000100: 6485 5f3d d9dc 7c3d 92fc 833d 2de4 893c
00000110: 8c17 bb3c 0069 b0bd f05d 42bd 80ee 16bd
00000120: f249 c03c 1864 47bc 905a eebb d06e f4bd
00000130: a706 883d 488d 2ebe df99 463c 38af 6dbc
00000140: 7e67 35bd bcbc 593d 4431 ecbc fe6c c93a
00000150: 90ee b9bd 6558 5ebd 94d8 16bd 8d24 d53d
00000160: c0ca 273e 923d 73bc 5f85 843d 27dc 363e
00000170: b3e5 94bc e24f 593c 9c1f 5b3d be16 d33d
00000180: 0299 5ebd 6384 2cbe 6e24 35be a8a5 2abc
00000190: 4874 d93d a0f6 a0bb 389c 893d b6a0 97bd
000001a0: 740f a83c 869c a9bc 9c4e 613d d6e2 a9bc
000001b0: df8b 1a3d cf02 ea3d fd53 42bd e068 d53c
000001c0: a0cd 9f3c c2a1 08be 031a d63c 1206 3cbd
000001d0: a2cf 8ebc a9b4 55bd 068a 56bd 20d6 b53a
000001e0: 21fd c5bc e6c7 653d 5e74 1c3d a594 3dbd
000001f0: 1ad1 473d 572e 2f3e 22b5 51bd 6abf fd3d
00000200: a185 393e e767 27bc f728 253e efde 2abc
00000210: 5f57 38bd a476 53bd 1bd0 183e 0b29 4bbd
00000220: 6439 fbbd 95be de3d c923 1f3e 8198 1bbd
00000230: b72e 34be 1402 00be 2434 0e3d d6fe 2b3e
00000240: 90a8 d33c 7e8a 40be 2073 d5b8 d38e dd3c
00000250: a5b2 27be c28d ecbb 213a ecbd feda 963d
00000260: 55a9 f03d fd0e 203e 227d 06be d42e 2e3e
00000270: b885 b239 70fd 1f3e c2ad 96bd b01c 043d
00000280: ed0b d83d 59f7 7ebd 7492 00bd 9c72 3d3d
00000290: b475 cf3d bb37 9c3c 08a4 24be 8374 39be
000002a0: fb53 39bd 0e10 943d 07c5 88bd e447 17be
000002b0: 79aa 1dbd d61a 84bc cc76 e93d a532 3cbe
000002c0: b690 15bd 9fa5 41be cf83 d33c ca0e 4f3e
000002d0: 6d1d f8bc c5da f73d 2c78 423e 0c1b 1fbe
000002e0: 79b3 17bb 90ac 0dbd 60ee a6b9 d3f2 143e
000002f0: 1e7e cebd 45c4 71bc 7657 10be b585 b63d
00000300: a835 323d 52c7 83bd 3b4e 9a3d 3505 a83c
00000310: 77c5 f3bd 6658 97bd 0a4c 0cbd 3777 d63d
00000320: f5fd 97ba 33fc a13d d86d 8f3d be8c 0d3e
00000330: c745 9a3d 31bf 0b3d 97c5 10bd 9b71 c8bd
00000340: 5858 ffbd 4e83 72bd 575e ae3d 8946 613d
00000350: 6054 9ebd 67a6 d43b e08d 023e bd70 ddbd
00000360: a1ca 573d 5145 44bd f59e aabd 4819 163c
00000370: 03d1 05bc 9273 f4bd 3852 f23d c6ac e7bd
00000380: acd7 59bd ea8e 62bb 94f5 58bd 16bf d53b
00000390: 74fc d73c bf34 d1bd 3ae0 22bc b1fb dc3d
000003a0: 0424 91bd 02a5 d53c cfe7 c03d 93a8 82bd
000003b0: 6d08 6abd 6c8b 783d a679 13bd a24e de3d
000003c0: f545 da3c 4d78 493c 4ddf 123c 3618 d9bd
000003d0: e47a 6a3c 30e5 c5bd 5617 f4bd ee48 89bd
000003e0: b116 853c 6f24 a8bc df90 23bd 227e 8dbd
000003f0: e4f4 26bc 5b35 c6bd db21 85bc 4af2 91bc
0.11686336 0.057381324 0.019299494 0.029727327 0.023949234 0.06518407 -0.052242626 -0.0403164
-0.06462747 0.027626079 -0.06724436 0.061270304 -0.028441604 0.11701522 0.042461425 -0.11149935
0.023148632 0.044310607 -0.08616978 0.012557368 0.040200137 -0.1135696 -0.11427901 -0.0018591664
0.0506794 -0.06523077 -0.07268736 -0.058596138 0.03207738 -0.03974136 -0.060961735 0.015351244
-0.0011732128 -0.023084309 0.07365091 -0.09430629 -0.008993843 -0.009498145 0.04320127 -0.075474314
0.012821439 -0.11336388 0.09439287 0.01905871 -0.020313106 -0.102773756 0.09686237 0.080530025
0.09075773 -0.085107155 -0.00593095 -0.072400436 -0.0787026 -0.09226071 0.0818792 -0.03066211
0.059331954 -0.028667234 -0.014695988 0.0021949355 -0.0990459 -0.10880756 0.04599341 0.0013485884
0.05457057 0.061734054 0.06444658 0.016832436 0.022838376 -0.08613777 -0.047452867 -0.036848545
0.02347276 -0.01216986 -0.0072739795 -0.11935198 0.06641894 -0.17046082 0.012121647 -0.014507107
-0.04428815 0.053158507 -0.028832085 0.0015367565 -0.09078705 -0.05428352 -0.03682764 0.10407362
0.16385937 -0.0148462225 0.06470751 0.17857419 -0.018175935 0.013263674 0.053496942 0.10307072
-0.05434514 -0.16847377 -0.17689678 -0.010415472 0.10617882 -0.0049122125 0.067192495 -0.074037
0.020515181 -0.020704519 0.05500661 -0.020738047 0.037731048 0.11426317 -0.04744338 0.026050985
0.01950723 -0.13342956 0.02613545 -0.045904227 -0.017432991 -0.052174244 -0.052377723 0.0013873018
-0.024168553 0.05609884 0.038196914 -0.046284337 0.0487834 0.17107521 -0.051198132 0.12390025
0.18117382 -0.010217643 0.16128908 -0.010429128 -0.0450052 -0.051626816 0.14923136 -0.04959969
-0.12266806 0.108761944 0.15540995 -0.037987236 -0.17595945 -0.12500793 0.034717694 0.16796431
0.025837213 -0.1880283 -0.00010178075 0.027045643 -0.16376741 -0.0072190473 -0.11534525 0.07365988
0.117510475 0.15630718 -0.13133672 0.17010051 0.00034050434 0.15624022 -0.073573604 0.03225392
0.1054915 -0.062247608 -0.03138967 0.04625188 0.10129872 0.019069543 -0.16078198 -0.18110852
-0.045246106 0.07229625 -0.06678205 -0.14773518 -0.038492654 -0.016126078 0.11399612 -0.18378694
-0.03651496 -0.18910836 0.025819687 0.20220485 -0.030287469 0.12102274 0.18991154 -0.15537661
-0.0023147746 -0.034588397 -0.0003183959 0.14545755 -0.10082649 -0.014756267 -0.14095864 0.08912221
0.0435082 -0.06434502 0.075344525 0.020510295 -0.11902898 -0.073899075 -0.034252204 0.10471957
-0.0011596071 0.07909431 0.07003373 0.1382322 0.0753284 0.03411788 -0.035344686 -0.097872935
-0.12468022 -0.059207253 0.08514088 0.05499891 -0.07730937 0.0064895633 0.12749434 -0.10812519
0.052683476 -0.047917668 -0.083311 0.009161301 -0.008167508 -0.11936106 0.11832088 -0.11312251
-0.053184196 -0.0034570047 -0.052968577 0.0065230234 0.026365496 -0.10215139 -0.009941155 0.10790194
-0.070869476 0.026079658 0.09419214 -0.06379809 -0.05713694 0.060679838 -0.036004685 0.10854842
0.026644686 0.012296748 0.008964372 -0.10600321 0.014311526 -0.09662855 -0.119185135 -0.06703363
0.016246172 -0.020525185 -0.03993308 -0.069088235 -0.010190222 -0.096781455 -0.016251495 -0.017815728

transformer.layers.0.0.fn.fn.to_out.weight f4 [64, 64]
00000000: 1871 8c3d e594 d4bd 9636 c13d 2120 58bc
00000010: 307d debc 35de 043e 22d8 a8bd 4142 973d
00000020: a830 6ebd a256 4ebd 47fa a93c fbee 80bd
00000030: 0139 96bd 36da 233e 0b96 103d 3d42 883d
00000040: dcb2 88bc 17e0 8bbd 7c62 f0ba ae7d 1c3d
00000050: 41dd b4bd 0cc8 54bd a596 213d 9a76 0bbe
00000060: df51 623d 8c72 15bd 763b 023e a8c9 353c
00000070: e0cd 973d 5a2f 88bd 5226 49be 9ed8 8ebd
00000080: 08bf 8cbd 44c9 49bb 8747 9c3d c005 20be
00000090: 44ab 11bd b3c4 59bc fc15 733d 9421 a63c
000000a0: 7aa8 ebbc 1564 03be 4b57 133e 9fc1 cbbd
000000b0: 93ff f5bd 9bbb 8cbc 6da3 383d 4c8a debd
000000c0: 086c c63d 5b49 c9bc 581b 973d 6ae8 b93d
000000d0: c31f 553d c8be 3fbd 9cd6 b4bd 5cef 0d3b
000000e0: cf04 cb3d c8c9 c73d 894f d6bd 2027 37be
000000f0: 727e 58ba 407b 433d b281 663c c016 e13d
00000100: f9ee 393e fe09 e0bb c648 cf3c f6d3 1c3e
00000110: b944 813c a4a4 81bd ac91 75bd 643c 9c3d
00000120: b478 a2bd d396 4cbb 5dff dc3d e4a2 023e
00000130: 36db 8c3d 0a8e 093e f8d1 a9bd 7bf6 e53d
00000140: 5da3 aabd 2449 aebd baad 8fbd e27f 26bd
00000150: 3b6d f6bd 7754 b93d 4cf8 523d e8b7 66ba
00000160: 2cc1 a13a 2c71 283d c64f 6bbd 03f1 df3c
00000170: 9e14 053e 7d79 903d 7cbe 83bd e0a7 03bd
00000180: 65c3 17be f1bd 023e 6173 8d3d 4618 59be
00000190: ffdc 48bd a6df 293e c30c 01be e72e 113c
000001a0: 05d3 83bd 5797 cd3c 972b 5cbc b11e e6bd
000001b0: 52e9 cdbd 7755 adbd e5e3 15ba b250 0bbe
000001c0: f32d 263d 40e5 743d 3d82 fdbb 1e9b 0cbc
000001d0: 50b3 213e 6ce7 5a3e 2a91 35be cd0e 0abd
000001e0: c74f bf3d 9a3b a2bd 2688 22be 7f78 debc
000001f0: 0c95 7d3c f461 a0bc 406a 41bd e96f a6bd
00000200: 62f8 2fbc 4c66 8a3d 46cd 7d3d c4dd d1bd
00000210: 90b1 c73b 14e6 d13d f12f 63bc 2d28 c63d
00000220: c3fc 07be 50e7 163e 707f c3bc cdc3 70bd
00000230: 9866 c33d f2e9 dcbd dde8 4dbd 6285 7abd
00000240: 071d fa3d 1aa7 0cbd a2e6 6cbd b3e0 d3bd
00000250: faeb a03d c55a c2bd 19b9 393d 2af1 cf3d
00000260: bb10 d03c e532 8f3d f2f0 79bd 2618 773d
00000270: 249a 093e f0c6 f2bd 47a5 58bc fd88 e1bd
00000280: b419 f2bc 2e8f 7ebc a277 debd 850a 2cbe
00000290: 5014 823d a5e1 033e 7aaa 02be fe75 d2bc
000002a0: a5a8 4cbd d6be 103d 0bca e43d 51bc ae3d
000002b0: 609d 503d 47d2 8f3d 0500 3fbc 29e0 203c
000002c0: 914d 553d e772 1dbe 2db1 d23d 9434 5bbd
000002d0: 9453 0a3d 3803 ed3c a858 613d 5657 17bd
000002e0: 395f bbbd 596d e7bc dff4 933d 8fae e83c
000002f0: 61d7 833d fb55 f7bc 8025 3d3d 5376 c23d
00000300: 92d9 793d 67d9 993d 4627 95bd a4d4 17bd
00000310: b385 c33b 0e71 853d 2ae3 79bd 4ddf c33d
00000320: 6554 02bd 6720 1fbe eed2 e43d 2696 833d
00000330: 5a58 febc 339c 993d 3aad c43d 7682 80bd
00000340: 9246 e23d 6c55 b4bd d661 d8bd 5396 863d
00000350: 24c7 1d3d 08fd 5c3d 5e12 39bc f010 923d
00000360: 4c7a 89bd 02ee 38be d108 2c3e 2408 dbbd
00000370: 2064 753d 252e afbb cd9f 893c 5d05 2abd
00000380: bfa2 833d 80f2 b23c fd77 363d da66 063e
00000390: 3410 b03d b593 b2bd c796 843d 7964 38bd
000003a0: 4bd9 02be e531 f6bc d27b 573d cd42 81bd
000003b0: 65ee 5e3c 80fb 30be c0a5 84bd aa20 1b3e
000003c0: a966 0e3e e920 87bd 8c62 94bd b1b6 983c
000003d0: e3e2 de3c ef72 b1bd 7845 8d3d 2c81 98bb
000003e0: ad6a ebbd 5641 c93d 9665 30bd cdea aabd
000003f0: e443 703d c37c 1d3e e5d1 f2bb 4dfd 903d
0.068575084 -0.10379962 0.094342396 -0.013191254 -0.027159303 0.1297539 -0.08244349 0.07385684
-0.05815187 -0.05037559 0.020749224 -0.06295582 -0.073350914 0.1600121 0.035299342 0.06653259
-0.01668685 -0.06829851 -0.0018339898 0.038205795 -0.08831263 -0.051948592 0.039450306 -0.13619462
0.05525386 -0.036486194 0.12717995 0.011095442 0.074123144 -0.066496566 -0.19643524 -0.0697491
-0.06872374 -0.003079013 0.0763083 -0.15627193 -0.035563722 -0.013291526 0.059347138 0.020279683
-0.02876686 -0.12831147 0.14388768 -0.0994904 -0.120116375 -0.017179301 0.04507773 -0.10866222
0.09688574 -0.024571111 0.07378262 0.090775326 0.052032243 -0.046812803 -0.08829996 0.0021657562
0.099130265 0.097552836 -0.10464389 -0.17886019 -0.0008258588 0.047724962 0.014069008 0.10990667
0.18157567 -0.0068371287 0.025303256 0.15315232 0.01577984 -0.06330231 -0.059953377 0.07628706
-0.079331785 -0.0031217828 0.10790894 0.1275745 0.06877749 0.1343309 -0.082920015 0.11228653
-0.0833194 -0.08510044 -0.070155576 -0.040649302 -0.12032553 0.090493135 0.051506326 -0.0008801208
0.0012340895 0.041123554 -0.057449125 0.027336603 0.12996146 0.07054422 -0.064328164 -0.03214252
-0.14820631 0.1276777 0.069067724 -0.21200666 -0.049038883 0.16589221 -0.12602524 0.00886128
-0.06436733 0.025096579 -0.013438127 -0.11236323 -0.10054268 -0.08463567 -0.0005717858 -0.13605002
0.040571164 0.059788942 -0.007736473 -0.008581905 0.15791059 0.21377343 -0.17731157 -0.03370552
0.09341388 -0.07921524 -0.15872249 -0.027157066 0.01547743 -0.019577958 -0.04722047 -0.08126814
-0.010740371 0.06757793 0.061963342 -0.102473766 0.006094165 0.10248962 -0.013866411 0.09675632
-0.13280015 0.14736676 -0.023864478 -0.05878048 0.095410526 -0.10786809 -0.050270904 -0.06116236
0.12212568 -0.034339048 -0.057837136 -0.10345592 0.07857509 -0.09489969 0.04534254 0.1015342
0.025398603 0.06992129 -0.0610208 0.060325764 0.13437706 -0.118543506 -0.013222999 -0.110124566
-0.029553272 -0.015537066 -0.10862662 -0.16800888 0.063515306 0.12879045 -0.12760344 -0.025691029
-0.04996552 0.035338245 0.11171349 0.08532012 0.050931334 0.07022529 -0.0116577195 0.009819069
0.052075926 -0.15375863 0.102877 -0.05351694 0.033771113 0.028932199 0.05501619 -0.036948524
-0.09149022 -0.028250383 0.0722444 0.028403549 0.06437565 -0.030192366 0.04617834 0.09495225
0.060998507 0.07512169 -0.072828814 -0.037068024 0.005966866 0.06515704 -0.061007656 0.095640756
-0.031818766 -0.15539704 0.11173044 0.06425123 -0.031047989 0.07500496 0.09603353 -0.062748834
0.110486165 -0.088053554 -0.10565536 0.06571641 0.038519993 0.053952247 -0.011295883 0.07132137
-0.067127794 -0.18059543 0.16800238 -0.10694912 0.05990994 -0.005346077 0.016799832 -0.04150902
0.06427526 0.021844149 0.044548023 0.13125172 0.085968405 -0.08719579 0.06474071 -0.045017693
-0.12778203 -0.030053088 0.05260832 -0.06311569 0.013606642 -0.1728344 -0.06476927 0.15149179
0.13906349 -0.06598074 -0.07245359 0.018641802 0.027207797 -0.086645 0.06898016 -0.0046540704
-0.11494956 0.09826915 -0.04306563 -0.08345566 0.058658496 0.15379624 -0.0074102753 0.07079563

transformer.layers.0.0.fn.fn.to_out.bias f4 [64]
00000000: 364b d93d d995 733c 2945 0dbe 0289 83bc
00000010: 9e1c 9c3d 9253 91bd 213b 13bd e722 babd
00000020: 954e 41bd 28a6 a3bd 8d52 4d3d bc37 6b3d
00000030: 78e2 ec3c 22db 84bd e40a 943d 4d86 a23c
00000040: a8c7 843d 2f9a 9c3d 6555 053e 44a6 1a3d
00000050: e159 073e 879e c6bd 6155 c4bd 4b72 bb3d
00000060: 4337 e93a 28dc 3abd 2ddd 083e ac73 303d
00000070: 2ac4 3f3d 2b23 4cbd 8550 523d 736a 94bd
00000080: 9fd3 e93d 969f babd e728 25bd ae4a 3d3d
00000090: c9fa 3ebd f603 e13c 8335 773d 7ebc 003e
000000a0: 6d7c 863c ad11 993d a02c 1e3d b34a 5c3d
000000b0: 4eb2 d13d d6cc c2bd 0a50 b2bc ee43 9bbd
000000c0: f2d6 2d3d 1379 9bbd 13de b13d c780 abbb
000000d0: 848d d73d ecff ecbd 5a77 b93d 2a2b 32bd
000000e0: 0abd a93b 090e a0bd 0899 c8bb 2e7d 90bb
000000f0: b819 003e a3e5 6bbd b34c 33bc 3a63 8bbc
0.106100485 0.014867269 -0.13795914 -0.016056541 0.07622646 -0.07096018 -0.03594506 -0.09088688
-0.047194082 -0.07990676 0.050127555 0.0574262 0.028916582 -0.06487109 0.0722864 0.01983943
0.06483394 0.07646596 0.13020857 0.03775622 0.1321788 -0.096982054 -0.09586597 0.09152659
0.0017792959 -0.045620114 0.13365622 0.043079063 0.046817936 -0.049838226 0.05134632 -0.07246866
0.11417317 -0.0911247 -0.04032221 0.0462138 -0.046625886 0.027467709 0.060353767 0.12571904
0.016416753 0.074740745 0.038616776 0.053782176 0.10239087 -0.095117256 -0.021766681 -0.07581316
0.042441316 -0.075914524 0.086849354 -0.0052338573 0.10525039 -0.11572251 0.09055968 -0.043498196
0.005180006 -0.07815177 -0.0061217584 -0.004409454 0.12509811 -0.057592046 -0.0109435795 -0.017015088

transformer.layers.0.1.fn.norm.weight f4 [64]
00000000: 3ac7 7c3f 4156 743f 0f83 763f 0715 7e3f
00000010: 5ac0 693f ecfe 703f d4c7 753f 2dd7 833f
00000020: 0a30 7d3f 5e78 7c3f 4141 823f d451 803f
00000030: ae97 7c3f f04c 813f 35d8 7a3f c1ac 763f
00000040: adeb 783f 9bf1 7d3f c1c1 7e3f c04a 7b3f
00000050: 6829 7b3f 4854 7b3f 8f0c 7e3f 0db6 773f
00000060: 0a77 7e3f 7353 7c3f fae8 713f 6a83 783f
00000070: 481d 7d3f f02d 7f3f dafc 833f bfdd 7a3f
00000080: 6d75 6a3f 43df 793f d5a9 7d3f 178f 7d3f
00000090: 810b 773f 97a9 793f 7275 7e3f d4f5 783f
000000a0: 5703 7c3f 0a12 7d3f 9b0e 723f 5def 803f
000000b0: 79c7 723f fafe 7c3f 8a23 803f 7c71 7e3f
000000c0: ac56 6e3f 479e 7d3f 39da 763f a280 753f
000000d0: 60a3 773f 7b3b 763f 38ca 793f ebd8 773f
000000e0: 3b40 743f 9fc9 753f aef3 763f 03ec 7a3f
000000f0: 8eab 7b3f 9824 7d3f e319 743f 9821 7a3f
0.98741496 0.95444113 0.9629373 0.99250835 0.9130913 0.9413898 0.9600804 1.0300041
0.98901427 0.98621166 1.0176164 1.0024972 0.98668945 1.0101604 0.97986156 0.9635735
0.9723461 0.99196786 0.99514395 0.98160934 0.98110056 0.9817548 0.9923791 0.9676216
0.9940039 0.98564833 0.9449612 0.9707552 0.98872805 0.9967947 1.0311539 0.9799461
0.9158543 0.97606295 0.9908727 0.9904646 0.9650193 0.975244 0.9939796 0.97250104
0.98442596 0.9885565 0.94553536 1.0073048 0.9483562 0.98826563 1.0010846 0.99391913
0.93101 0.9906964 0.9642673 0.95899403 0.96733665 0.9618451 0.97574186 0.96815366
0.9541051 0.96010774 0.96465576 0.98016375 0.98308647 0.9888396 0.95352 0.9770751

transformer.layers.0.1.fn.norm.bias f4 [64]
00000000: 3a92 4cbc 5d0c 57bd f922 fabc 2e30 1b3c
00000010: fde4 b5bb 94f8 5b3d 143f 6fbc 6baf 263d
00000020: 6c36 5b3c a9bc 7abc 02d6 32bc 6c8d 363c
00000030: 51d6 853c 795d c43b 4ef7 cb3c 67d1 e9bc
00000040: 3653 c6bc 9b07 0e3c ca74 0d3c 13b2 623c
00000050: 4803 033c 368d 99bc b932 a23c 658a 04bd
00000060: ee95 35bc c692 9539 9a26 303d 210a d5bc
00000070: 3bfa 16bc 12ec cabc da8e d63a 7219 d2bc
00000080: 2b73 69bd a286 a53c a2f9 313c bd87 3bbc
00000090: 7ecb 17bd 9594 a8bc 064c e53b 9a6c bc3c
000000a0: 5a43 843c 3aa2 2bbc b5b1 4c3d 7d3a 4cbb
000000b0: 008b 533d 72ac 51bc 3c65 3dbc 934f ad3b
000000c0: 4df1 41bd 7376 1e3c b138 be3c cb42 35bc
000000d0: 3bd8 273d d259 77bc 9af4 7e39 6b73 963c
000000e0: 4c55 1b3d 572f 1b3d fe74 0b3d 1913 dcbc
000000f0: f3a8 d63c 3c73 45bc a4ed 263d a99a c4bc
-0.012486035 -0.052502025 -0.030534254 0.009471936 -0.005550979 0.05370386 -0.014602441 0.040694635
0.013379674 -0.015303769 -0.010915281 0.011142116 0.016337546 0.005992588 0.024898198 -0.028542234
-0.0242096 0.0086688055 0.008633802 0.0138364015 0.007996388 -0.018744092 0.019799577 -0.032358546
-0.011083109 0.0002852885 0.043005563 -0.026005806 -0.009214933 -0.02477077 0.0016369477 -0.025646899
-0.0569946 0.0202058 0.01086274 -0.011445937 -0.0370593 -0.020578662 0.006997588 0.023001004
0.016145397 -0.01047569 0.049974162 -0.0031162791 0.051646233 -0.012797462 -0.011559781 0.005289027
-0.047349263 0.009671795 0.023220392 -0.011063288 0.040977698 -0.015097098 0.00024314449 0.018365582
0.037923142 0.037886944 0.03404712 -0.026864575 0.026203608 -0.0120514 0.040753976 -0.023999529

transformer.layers.0.1.fn.fn.net.0.weight f4 [128, 64]
00000000: 1ee5 783d ef94 15be 0aa8 1abe 5c53 8e3d
00000010: cc87 8d3c e0e4 5c3c c9ba c4bd 3a2a 473d
00000020: 7297 193e 120f fbbd ce28 f23c 7854 0c3e
00000030: 5ca4 563d 3b4b 11bd f365 6e3c c1f7 37be
00000040: 6f9a 33be b347 da3c e738 a83d 4d44 d63d
00000050: 51de 2b3e 08d8 6ebd 8ee8 3dbd 6490 f3bd
00000060: 08f6 22bd 20e4 833d c1f0 8ab9 9dbd 0fbe
00000070: 9792 02be 9632 ddbd fe8a c13d 0932 0b3c
00000080: aa5d a23d ce39 113d 18ae 3a3d ec7e 35bd
00000090: 26e8 f53c 832b 0ebd a1cb 62bd f06f 163e
000000a0: b15c fd3d 330a 6bbd 80ad 783d 112d f5bc
000000b0: 5610 553d 340f f5bc f234 a63c 0b95 043e
000000c0: b234 91bd fd71 1b3d 9c20 2e3d 7d54 b9bc
000000d0: 0b2d 8a3c 63a7 f6bd e30b cbbc b3c3 14bd
000000e0: f832 ae3d ffee 103e eb02 a8bc ac17 8cbd
000000f0: b418 053e 5c6e f9bd 407e 133c 4d55 dcbd
00000100: 6623 e6bd 492d 00be ea60 af3d 32f3 c9b9
00000110: 6f94 07be 3b3b 93bd c705 873d d8f9 33bc
00000120: 0285 82bd cd19 443c 05d8 f0bc 1172 2f3d
00000130: 66ae 593d 8f29 74bd 841e 8fbd 8bb4 a03d
00000140: 8795 c0bd c0ae f1ba 33d3 a93d cf5a 3fbd
00000150: 9f63 bfbc 0398 67bb 1673 a13d c258 af3c
00000160: 50de a83d 197e 993d c26f 2abc 4878 3dbd
00000170: 59ba 163d b170 8ebd 7d74 793d d855 e43d
00000180: 2894 cfb8 f79a b73d 4633 e0bd cdce f1bd
00000190: 8c50 cd3d 5cd3 a2bc 5226 053d 4734 30bc
000001a0: 1909 863d 6571 aebd 28fd 6dbd bcd6 8e3d
000001b0: cbcb 583a 9944 92bd 4dc1 b53d 7c7a be3d
000001c0: fb9b a53c 3135 ed3b a7ab 0e3e cadb 30bd
000001d0: bc35 363d bcd9 3c3d 91d9 d93b 385e cf3d
000001e0: dec2 e03d d5e5 31bd 25c4 8a3d dfab 6a3d
000001f0: a20e 063e 39a5 f0bd 84da 943c b0a8 53bd
00000200: 55c9 84bc 871a daba f974 bcbd a028 67bc
00000210: 2b6a 9cbb 7a38 013c 1774 87bc 0ea4 bbbd
00000220: 6fc9 98bd 48de 463d d56d 2e3e f781 92bd
00000230: a979 773d 5dba bfbc 99ef 9a3d 21a1 563c
00000240: 8739 eabd c76d d6bd 0da8 fe3c fe8e 603c
00000250: 2446 fd3d 76e4 87bc 69f0 eb3d bf49 28bc
00000260: 2fc2 ed3d 8624 9bbc 992a d03d ad91 793c
00000270: e86e c4bb 7507 a73c dc29 f3bd fdb0 4b3d
00000280: 6a7a ac3d 25ac 8a3d a09d 813b e0cd d93d
00000290: 941f f1bd d2fe dc3d e813 83bd 5a58 c33d
000002a0: d4e9 d83c 1266 943b 83c1 093e 5c1d 663c
000002b0: 6101 1ebd e3f6 d43d 27cd 373b f3d4 203d
000002c0: 4a72 963d 016e 9dbb a36f a13d 0f0d f0bd
000002d0: f9da 1c3d 0b4e 8abd 47b0 40bd f327 e6bc
000002e0: a760 edbc cab4 983d 5e00 ed3d a007 c6bd
000002f0: fa80 803d 1f92 a9bd c64f aa3d 613d b0bc
00000300: 80cc a53d c550 d33d 57c3 afbd 5c05 e3bd
00000310: e896 363d 688e b6bd ba15 fc3d 2e9a 0a3d
00000320: e80f 7d3d 5397 87bc 36f8 273e 46f8 a7bd
00000330: 62fb 0e3c fce7 41bd 09dc 8c3d 2385 4dbd
00000340: 2fee e33d bc3b 0abe dcf2 ffbd a0a4 80bd
00000350: 6f57 bc3d a9b4 85bc 4ec9 ffbb bed0 7abd
00000360: 57cb e43d 3f91 2a3e 6be9 273d 6a90 bebd
00000370: c815 f13d a31e 99bd ff8d ab3d 72e5 bb3d
00000380: f649 a0bd 6612 aabc 07e0 eb3c 7913 afbc
00000390: 9080 8a3d e1ee cb3b 90b0 d6bd 97a9 e03d
000003a0: a5b3 963d a71d fc3d 4c0d 073d 9e71 a4bd
000003b0: 228e 573d 2bdd 84bd 7100 a53d 8b35 643d
000003c0: be90 3ebd 41ec bdbc 4129 4d3c 9566 be3d
000003d0: c241 5bba fe9e be3d 8424 60bd cae3 f63c
000003e0: b16f 78bd d8cb 5e3d ba66 963d f741 af3d
000003f0: 4117 933d 8d24 3ebd da48 5e3d f8bd c0bd
0.06076538 -0.14607595 -0.15103164 0.06949493 0.017276667 0.013482302 -0.09605939 0.048624255
0.14999178 -0.12258734 0.029560473 0.13704097 0.05240284 -0.035472136 0.014550674 -0.17965604
-0.1753938 0.026645517 0.08213978 0.10462246 0.16784026 -0.058311492 -0.04636436 -0.11892775
-0.039785415 0.06439996 -0.00026500787 -0.14037175 -0.12751232 -0.10800664 0.09450339 0.008495816
0.07928021 0.035455517 0.045576185 -0.044310495 0.030017924 -0.034709465 -0.055369977 0.14691138
0.12371195 -0.057382774 0.060712337 -0.029928716 0.052017532 -0.029914476 0.020288918 0.1294748
-0.07090129 0.037950505 0.042511567 -0.022623295 0.016867181 -0.12043645 -0.024785941 -0.036319446
0.08505815 0.1415367 -0.020509204 -0.068404526 0.12997705 -0.121792525 0.009002268 -0.10758457
-0.112372205 -0.12517275 0.08563407 -0.00038518902 -0.13240217 -0.07189032 0.06592899 -0.01098486
-0.063730255 0.011969042 -0.029399881 0.04283339 0.053144835 -0.059609946 -0.06988242 0.07846936
-0.0940352 -0.001843892 0.08292236 -0.04671746 -0.023362933 -0.0035338409 0.07883279 0.021404628
0.08245528 0.07494754 -0.010402622 -0.046257287 0.03679881 -0.06955088 0.060902108 0.11149186
-9.8981254e-05 0.08965104 -0.1094728 -0.11807022 0.10025129 -0.019876175 0.03250725 -0.010754651
0.06544704 -0.08517722 -0.058102757 0.06974551 0.00082701136 -0.0714199 0.0887476 0.09300706
0.020215979 0.007239007 0.13932668 -0.043178357 0.04448484 0.046106085 0.0066482504 0.10125393
0.10974668 -0.043432076 0.06775693 0.057292815 0.1309152 -0.11750264 0.018170603 -0.051674545
-0.016209284 -0.0016639986 -0.09201998 -0.014108807 -0.0047733984 0.007887 -0.016534848 -0.0916215
-0.074602954 0.048551828 0.17034085 -0.07153695 0.06041876 -0.023404295 0.07565231 0.01309994
-0.11436754 -0.10470157 0.031085992 0.013705967 0.12366894 -0.01658843 0.11520464 -0.010271489
0.11609303 -0.018938314 0.10164375 0.015232486 -0.0059946664 0.020389298 -0.118732184 0.049729336
0.08421786 0.06771115 0.003955558 0.10634971 -0.11773601 0.107907906 -0.06400281 0.09538336
0.026478685 0.0045287693 0.13452725 0.014045086 -0.038575534 0.103986524 0.0028045864 0.039265584
0.07346018 -0.0048043733 0.07882621 -0.11721241 0.038294766 -0.06753167 -0.04704311 -0.028095221
-0.028976751 0.07456358 0.11572336 -0.09669423 0.062746 -0.082798235 0.08315997 -0.021513643
0.08095646 0.1031814 -0.0858218 -0.110850066 0.04457751 -0.089138806 0.123088315 0.033838443
0.061782748 -0.01655165 0.16403279 -0.08201651 0.0087269265 -0.04734038 0.06877906 -0.050175797
0.11129414 -0.1349935 -0.124974936 -0.062814 0.09196364 -0.016321497 -0.00780598 -0.06123423
0.111715965 0.1665697 0.04099409 -0.093048885 0.117717326 -0.074765466 0.08376693 0.091746226
-0.07826607 -0.020760726 0.028793348 -0.02137159 0.067628026 0.006223545 -0.104828954 0.10969847
0.07358483 0.12310343 0.032971665 -0.08029483 0.052625783 -0.06487497 0.08056725 0.055715125
-0.046524756 -0.023183944 0.012522043 0.0929691 -0.00083639857 0.09307669 -0.054722324 0.030137915
-0.060653392 0.05439362 0.07343812 0.08557504 0.0718217 -0.046421576 0.054268695 -0.09411234

transformer.layers.0.1.fn.fn.net.0.bias f4 [128]
00000000: 2886 853d fec0 083d 3b37 dd3c 4d38 afbd
00000010: 4d74 083d 0d82 b8bd fdc7 c7bd 961f 373d
00000020: ac1f a6bd d004 e73d 5af6 593c 489b 71bd
00000030: 1639 d73c 52e6 03bc e67a d8bd cede 9cbc
00000040: 1f01 fbbd ab42 28bd 195a 03be 610e 8f3d
00000050: c2be e63b a421 c9bd 1fa9 b2bd 0a48 11bd
00000060: 787a 06bd 9c94 91bd 2b7e 583d 29ab 6dbd
00000070: 7ff0 b23d 79a4 bd3c a2b8 8bbd 90ba 3a3d
00000080: ebdc fcbd 9b8a d43d 1160 25bd 575f efbb
00000090: a816 adbd dcbe aebd 9926 e9bd 49f2 a13d
000000a0: deb0 f13d d36e 95bd 39fa 773d 671b aabd
000000b0: 790c b1bc 17fd 87bd 55d3 43bd c947 9b3d
000000c0: 6f48 423d ddcb 02be d18c 2a3d cbc4 8cbd
000000d0: 3ef9 a43b c83e 6ebb a7f0 5ebd 731e b5bc
000000e0: af3b 91bd 92fa a7bd 9cdd 06be d1de c83d
000000f0: ee52 df3d 49e1 9fbd 42ab 013c 2074 89bd
00000100: 20ce e9bd c412 9fbb f7cf d7bc 1b5c b23c
00000110: 5783 c93d 4d35 193d 4e46 a8bd a614 d3bd
00000120: 0033 3d3c ef34 2b3c b9c0 613d 0b98 843c
00000130: 27ea debd c232 f43d e560 553d e7c6 3bbc
00000140: b7ce 253d 4ed0 a63d ba72 0e3d 5805 063e
00000150: 810b 06bd a85f 2c3d d49b ddbd 2579 503d
00000160: cdab dd3d 6403 d3bd c157 2f3d 1b73 c9bd
00000170: dcfe 23be b278 313b 1508 c13c ff55 d83d
00000180: ea75 243d 109f 513d b4ec be3c b393 94bd
00000190: a985 12ba 7020 84bd b6be 01be dc7b ff3c
000001a0: 7d86 31bd 29c8 01be 0bba c5bc 167b 78bb
000001b0: b00b 1cbb 3445 cbbd 5179 d8bd 7684 4a3c
000001c0: 95f1 303d ac38 713b 990e 5dbd f5fe a83d
000001d0: 9836 9a3d 76fe 1b3d 8c50 69bd 9d7d 9fbd
000001e0: 122d 793d cfcd f5bd 5664 c4bd 862b c23c
000001f0: e48a 0ebc 454d f5bd ef6c 043e 5aec da3a
0.06519729 0.033387177 0.027003875 -0.085556604 0.033314038 -0.0900918 -0.097549416 0.044707857
-0.0811151 0.11280215 0.013303364 -0.05898598 0.026272338 -0.008050518 -0.10570316 -0.01914921
-0.12256073 -0.041079205 -0.12827338 0.069851644 0.007041783 -0.098208696 -0.087236635 -0.035469092
-0.03283164 -0.07108423 0.0528547 -0.05802456 0.08737277 0.023149716 -0.06822325 0.045588076
-0.12346824 0.103779994 -0.04037482 -0.0073050666 -0.08451587 -0.08532497 -0.11384315 0.0790754
0.11801313 -0.07296529 0.060541365 -0.08306008 -0.021612393 -0.0664007 -0.047808964 0.07582051
0.04743236 -0.1277308 0.0416382 -0.06873473 0.005034595 -0.0036353339 -0.054428723 -0.022109246
-0.07091462 -0.08202089 -0.13170475 0.09808124 0.109044895 -0.078066416 0.007914366 -0.06711602
-0.11416268 -0.004854532 -0.026344283 0.021772435 0.09839504 0.037404347 -0.082165346 -0.10306673
0.011547804 0.010449632 0.055115435 0.016185781 -0.10884505 0.11923744 0.05209436 -0.011460996
0.04048034 0.081452 0.03477738 0.13087976 -0.032725815 0.042083412 -0.108207375 0.050896782
0.10823784 -0.10303381 0.042808298 -0.09836408 -0.1601519 0.0027079997 0.023563424 0.105632775
0.040151514 0.051177084 0.023306228 -0.07254734 -0.0005589375 -0.064514995 -0.12670407 0.03118699
-0.04334115 -0.12674011 -0.024136564 -0.0037915162 -0.0023810677 -0.09925309 -0.10570014 0.012360683
0.04319914 0.003680746 -0.053969 0.08251754 0.07529944 0.03808447 -0.05696158 -0.07787631
0.060833998 -0.120021455 -0.0958945 0.023702394 -0.008700106 -0.119776286 0.1293218 0.0016702518
