model_training/trained_models/multicolor_data/check_theese_models/model_1000_ViT.pth (torch, 223624 bytes, 17 tensors)

patch_to_embedding.weight f4 [64, 192]
0	0xbe621e8b	-0.22081964
1	0xbf166963	-0.5875456
2	0xbd9b5a27	-0.075855546
3	0xbed6442f	-0.41848895
4	0xbf07e993	-0.5309078
5	0xbe9191fa	-0.28431684
6	0xbec3c7a0	-0.3823824
7	0xbe905bb0	-0.28194952
8	0xbda55e0a	-0.08074577
9	0x3e19fb7b	0.15037338
10	0x3c89a064	0.016800113
11	0x3de44c73	0.11147394
12	0x3f8619d4	1.0476632
13	0x3f38f42c	0.72247577
14	0x3f762126	0.9614433
15	0x3f20f21d	0.62869436
16	0x3f3b7d6e	0.73238266
17	0x3f9d8776	1.2306964
18	0x3e85b51e	0.26114744
19	0x3eaca394	0.3371855
20	0x3ec407bf	0.3828716
21	0x3eda6ea6	0.42662543
22	0x3ed75693	0.42058238
23	0x3f1ec646	0.6202129
24	0xbf125df5	-0.5717462
25	0xbecd959f	-0.40153214
26	0xbea54e7c	-0.3228644
27	0xbf059459	-0.52179486
28	0xbee12739	-0.43975237
29	0xbdf8b66e	-0.12144171
30	0x3e290cc0	0.1650877
31	0x3ec9b68c	0.39397085
32	0x3ee83120	0.4534998
33	0x3ee44ada	0.44588357
34	0x3f6c8482	0.9238969
35	0x3f316e32	0.6930877
36	0x3eb530cb	0.3538879
37	0xbe41503d	-0.18878265
38	0xbe42ab4b	-0.19010656
39	0xbe772f07	-0.24139033
40	0xbf30fdf4	-0.691375
41	0xbf781ac3	-0.96915835
42	0xbea0128d	-0.31264153
43	0xbe405089	-0.18780722
44	0xbe5532bd	-0.20820136
45	0x3e738780	0.23782158
46	0x3e174e34	0.14775926
47	0x3f479679	0.7796398
48	0x3e7feb51	0.2499211
49	0x3deac952	0.1146418
50	0xbed05292	-0.40687996
51	0xbf08c919	-0.5343185
52	0xbf1d94aa	-0.6155497
53	0xbf09b1ac	-0.5378673
54	0x3dfa27b7	0.12214606
55	0xbe8b5bf7	-0.272186
56	0x3daa2123	0.083071016
57	0x3eb3370f	0.35002944
58	0x3eb6ca53	0.35701236
59	0x3ed042b9	0.40675905
60	0xbdab97b0	-0.083785415
61	0xbe43d727	-0.19125043
62	0x3c26eab1	0.010187791
63	0xbf79d754	-0.9759419
64	0xbf9fed17	-1.2494229
65	0xbfc86c85	-1.5658118
66	0xbf785bab	-0.97014874
67	0xbf73cb94	-0.9523251
68	0xbfaceeff	-1.3510436
69	0xbe1eabfb	-0.15495293
70	0xbe41b917	-0.18918262
71	0xbcd8536c	-0.026406966
72	0x3f0405f9	0.51571614
73	0x3f2094c8	0.6272702
74	0x3c797418	0.015225433
75	0x3f4a43e1	0.79009825
76	0x3f36ad54	0.7135823
77	0x3f5a06e2	0.8516675
78	0x3ed073dc	0.40713394
79	0x3e96b406	0.29434222
80	0x3e9cea59	0.30647543
81	0x3f230b1f	0.63688844
82	0x3d8051fc	0.06265637
83	0x3ec8fc55	0.39255014
84	0x3f02b90f	0.51063627
85	0x3e864c65	0.2623016
86	0x3ed62cb3	0.41830978
87	0x3eaa6a4c	0.33284223
88	0xbdbaa76d	-0.09113965
89	0xbeeec947	-0.46637937
90	0x3ec85b7b	0.39132294
91	0x3dd6d4e0	0.104898214
92	0xbe875b56	-0.2643687
93	0xbc622d1d	-0.013804701
94	0xbea216c2	-0.31657988
95	0xbeaf5859	-0.3424709
96	0x3de9bdea	0.11413176
97	0x3ece83e2	0.40334994
98	0xbe842b72	-0.25814396
99	0x3f89cfdb	1.0766557
100	0x3f4170ce	0.7556275
101	0x3ece7a06	0.40327471
102	0x3eb72e42	0.3577748
103	0x3df41c11	0.11919416
104	0x3e12f806	0.14352426
105	0x3e86e118	0.26343608
106	0x3e42d516	0.19026598
107	0xbeeda4e3	-0.4641486
108	0x3f03051f	0.5117969
109	0x3ec4191c	0.38300407
110	0xbd97b31e	-0.07407211
111	0x3e8b5605	0.27214065
112	0x3ce8ba65	0.028409192
113	0x3e00ad84	0.12566191
114	0x3f0884b9	0.5332752
115	0x3eadf41a	0.33975297
116	0x3d333edd	0.043761123
117	0x3f432cae	0.7624005
118	0x3ed88e7c	0.42296207
119	0x3e902cbd	0.28159133
120	0xbe85d4a9	-0.2613881
121	0xbde9c727	-0.114149384
122	0xbeadc035	-0.33935705
123	0x3e1dfd04	0.15428549
124	0xbf03abff	-0.5143432
125	0xbecc8d4e	-0.39951557
126	0x3e7230de	0.23651454
127	0x3d7327fd	0.059364308
128	0x3ef819a7	0.4845707
129	0xbf30d675	-0.69077235
130	0xbf32ef25	-0.69896156
131	0xbf0727cb	-0.52795094
132	0x3d817c11	0.06322492
133	0x3d17ba68	0.037043005
134	0xbe4071b9	-0.18793382
135	0xbdf9150d	-0.12162218
136	0xbea0abc5	-0.3138105
137	0x3ee30222	0.44337565
138	0xbebe75e1	-0.3719931
139	0xbd39b951	-0.045342747
140	0x3f7ad592	0.9798213
141	0xbf2a6910	-0.6656656
142	0xbeef7840	-0.4677143
143	0xbcb5a205	-0.022171983
144	0xbed7287b	-0.42023072
145	0x3d55ff2a	0.052245297
146	0xbe12e606	-0.1434556
147	0xbaab5737	-0.0013072257
148	0xbe78c717	-0.24294697
149	0xbf0bcc14	-0.54608274
150	0x3f22b190	0.6355219
151	0x3eb30753	0.34966525
152	0x3f89be28	1.0761156
153	0xbeecdfab	-0.46264395
154	0xbf0e6fbc	-0.55639243
155	0xbdf78306	-0.120855376
156	0x3e96fd75	0.29490247
157	0xbe3c016d	-0.18359919
158	0xbcfed407	-0.031106962
159	0xbd4476c6	-0.047964834
160	0x3e10e6c1	0.14150526
161	0x3d8c04d3	0.06836858
162	0xbeb54fca	-0.35412437
163	0xbd094867	-0.033516314
164	0x3ea7591b	0.3268517
165	0xbe82330f	-0.2542958
166	0x3dce8a52	0.10084976
167	0x3e8889f4	0.2666775
168	0xbccf34c2	-0.025293712
169	0x3e3cde3c	0.1844415
170	0x3f357bd5	0.7089208
171	0x3e29ca8a	0.16581169
172	0x3f036b38	0.5133548
173	0x3cdddc53	0.027082598
174	0x3f1cfe20	0.61325264
175	0xbdd49451	-0.103798516
176	0xbe4ad107	-0.198063
177	0x3ed6ba87	0.41939184
178	0x3ef8e5db	0.48612866
179	0xbe390114	-0.18066818
180	0x3eccb491	0.3998151
181	0x3e856087	0.26050207
182	0x3cbd4740	0.023105264
183	0xbe689c32	-0.22715834
184	0xbcf5f5ef	-0.030024497
185	0x3f2836c1	0.6570855
186	0xbd17b889	-0.03704122
187	0xbcd677bb	-0.026180139
188	0x3f055ec1	0.5209771
189	0xb72c6e76	-1.0277718e-05
190	0x3d257450	0.040394127
191	0x3ec22b61	0.3792372
192	0xbf330bf3	-0.6994011
193	0xbf0ce360	-0.55034447
194	0xbe9e159d	-0.30875865
195	0xbf1fc6e8	-0.6241288
196	0xbe7fe072	-0.24987963
197	0x3e721509	0.23640837
198	0xbf397eb2	-0.72458947
199	0xbf0d6723	-0.552355
200	0xbef5f3da	-0.48037606
201	0xbe9ff9e2	-0.31245333
202	0x3de17a60	0.11009669
203	0xbf2c16c6	-0.6722225
204	0x3eb08a3c	0.34480464
205	0x3e7413b9	0.23835649
206	0x3caf3820	0.021389067
207	0x3f89e728	1.0773668
208	0x3f4fcd31	0.8117247
209	0x3fdf2bcf	1.7435244
210	0x3f0a5195	0.54030734
211	0x3e9e766a	0.30949718
212	0x3e7ea05e	0.24865863
213	0x3ed0c150	0.40772486
214	0xbdabe7f7	-0.08393853
215	0xbeb1a48f	-0.3469586
216	0xbe221148	-0.15826905
217	0x3e7f6f08	0.24944699
218	0xbc5e8694	-0.013581891
219	0xbc351f93	-0.011054891
220	0x3dd1dd5b	0.10247298
221	0x3e911477	0.28335926
222	0xbed5798e	-0.416943
223	0xbf024375	-0.5088418
224	0xbdd3a44a	-0.1033407
225	0x3f13b902	0.57704175
226	0x3f425864	0.75916123
227	0x3f011abc	0.5043142
228	0x3f61a6e6	0.8814529
229	0x3f13e20b	0.5776679
230	0x3f5a2a7d	0.8522108
231	0x3f17b227	0.59256214
232	0x3e8accdb	0.27109417
233	0x3d806513	0.062692784
234	0x3eac3bf9	0.33639506
235	0x3ec10912	0.37702233
236	0x3ea4a167	0.3215439
237	0x3f51ba5a	0.81924975
238	0x3f3b49da	0.73159564
239	0x3f129854	0.57263684
240	0x3cc774ca	0.024347682
241	0x3cb87780	0.02251792
242	0xbedf88e5	-0.4365913
243	0xbeed81db	-0.46388134
244	0xbf036955	-0.513326
245	0xbf42a278	-0.7602916
246	0xbecaaf1e	-0.3958673
247	0xbf42bdcc	-0.7607086
248	0xbf72f760	-0.94908714
249	0xbee75096	-0.4517867
250	0xbdfedd82	-0.12444593
251	0xbeb4c331	-0.3530517
252	0xbe1aac80	-0.15104866
253	0xbeefaaa7	-0.46809885
254	0x3e0ecb0e	0.13944647
255	0x3eb57441	0.35440257

patch_to_embedding.bias f4 [64]
0	0x3d02853f	0.031865355
1	0xbb949b13	-0.004535088
2	0x3f6fd936	0.9369081
3	0x3eb4c163	0.35303792
4	0x3e715815	0.23568757
5	0xbf3be57e	-0.7339705
6	0xbe98ca30	-0.29841757
7	0xbedf8f98	-0.4366424
8	0x3ff1aeb0	1.8881435
9	0x3f52087d	0.820442
10	0x3e78979d	0.24276586
11	0xbe8344b1	-0.25638345
12	0x3f9437e4	1.1579556
13	0x3f214563	0.629965
14	0x3f029699	0.51011044
15	0xbe932c04	-0.2874452
16	0xbf86158c	-1.0475326
17	0xbfc79767	-1.5593079
18	0x3f2506d0	0.6446352
19	0xbf885920	-1.0652199
20	0x3fe2e388	1.7725687
21	0x3fcf648a	1.6202557
22	0xbddeeeec	-0.108854145
23	0x3f8c66a5	1.0968825
24	0x3fca3489	1.5797282
25	0x3dc222cb	0.094792925
26	0xbedd3fbf	-0.43212697
27	0xbea67206	-0.32508868
28	0xbefe755b	-0.4969891
29	0xbfcba4ad	-1.590963
30	0x3c890388	0.016725317
31	0xbe2f56ac	-0.17122906
32	0x3e2defe4	0.16986042
33	0xbeaca5ac	-0.33720148
34	0xc00ba2ba	-2.181807
35	0xbf909cf6	-1.1297901
36	0xbec839f3	-0.39106712
37	0xbf14fb0d	-0.58195573
38	0x3f1f2484	0.62165093
39	0xbe81f4a4	-0.25381958
40	0x3f768b17	0.96305984
41	0xbf163f20	-0.5869007
42	0xbf6b19e2	-0.9183637
43	0xbf59d303	-0.85087603
44	0x3ed4083c	0.41412532
45	0xbd921ed1	-0.07134784
46	0xbfeb2279	-1.8369895
47	0x3ff415aa	1.9069111
48	0x3f00f70c	0.50376964
49	0x3f243ef9	0.6415859
50	0x3f06128e	0.5237206
51	0x3e6ed833	0.23324661
52	0x3ee4656e	0.44608635
53	0xbe06f163	-0.13178019
54	0x3f7ac56d	0.979575
55	0x3e5bdc76	0.21470818
56	0xbf236a41	-0.63834006
57	0xbedc0b86	-0.42977542
58	0xbe48f5cc	-0.19625014
59	0x3dbcfb79	0.09227652
60	0xbe359821	-0.17733814
61	0xbd768479	-0.06018493
62	0x3e8e14e4	0.27750313
63	0xbf86ac26	-1.0521286

transformer.layers.0.0.fn.norm.weight f4 [64]
0	0x3f324ff9	0.6965328
1	0x3efda5be	0.49540514
2	0x3f30917b	0.68971986
3	0x3ce6f5e4	0.028193422
4	0x3edb8c21	0.42880347
5	0x3ee3c7bf	0.44488332
6	0x3eaaeadc	0.33382308
7	0x3ea25aa5	0.3170978
8	0x3ea782c1	0.32716945
9	0x3ec79ac4	0.38985264
10	0x3f0dde14	0.5541699
11	0xbd391edc	-0.045195445
12	0x3efdc4a8	0.495641
13	0x3efc649c	0.4929551
14	0x3bd7bb12	0.00658358
15	0x3e90744f	0.28213736
16	0x3ef223ad	0.47292843
17	0x3e2df3e4	0.16987568
18	0x3f13e3db	0.57769555
19	0x3e2ab1b7	0.16669355
20	0x3eec5b76	0.4616353
21	0x3f3eedb6	0.7458147
22	0x3eb10198	0.34571528
23	0x3f1b2d0e	0.60615623
24	0x3f3bc826	0.7335228
25	0x3e3b5efc	0.18297952
26	0x3ed5adc5	0.41734138
27	0x3e85ac6d	0.26108113
28	0xbc5c530e	-0.013447536
29	0x3ee98d74	0.45615733
30	0x3e9253e1	0.2857962
31	0x3efba8c3	0.49152192
32	0x3ecf25d5	0.4045855
33	0x3eb1cb51	0.3472543
34	0x3ecc00bb	0.39844307
35	0x3f489d68	0.7836518
36	0x3f0e45ff	0.55575556
37	0x3e8e78b3	0.2782646
38	0x3f0e1ff9	0.55517536
39	0x3ec62f08	0.38707757
40	0x3ed99bae	0.42501587
41	0x3ebbd9e6	0.3668968
42	0x3f43bf5c	0.76463866
43	0x3ee01d9a	0.43772584
44	0x3f80ed3e	1.00724
45	0x3f0e6e85	0.5563739
46	0x3f379413	0.7171032
47	0x3f0f38ac	0.5594585
48	0x3f7a47c1	0.9776574
49	0x3e84b0ed	0.25916234
50	0x3f13c011	0.57714945
51	0x3eb26957	0.34845993
52	0x3e53be1a	0.20677987
53	0x3eeac1e2	0.45851046
54	0x3edc4310	0.43019915
55	0x3f16ed4c	0.58955836
56	0x3d790611	0.0607968
57	0x3f45f6c1	0.7732964
58	0x3e4186b8	0.18899047
59	0x3b102ed0	0.0022000559
60	0x3f1f221a	0.6216141
61	0x3e663a76	0.22483239
62	0xbc4d22a5	-0.012520467
63	0xbaf5a9fa	-0.0018742674

transformer.layers.0.0.fn.norm.bias f4 [64]
0	0xbe954f63	-0.2916213
1	0x3d10efcb	0.035384934
2	0xbf14c82d	-0.58117944
3	0xbc4a437a	-0.012345189
4	0xbdf0f1a2	-0.11764838
5	0x3e81564b	0.2526115
6	0x3e1c736d	0.15278406
7	0x3dfc5400	0.12320709
8	0xbf0880d1	-0.5332156
9	0xbedf3420	-0.43594456
10	0xbd832e30	-0.06405294
11	0x3d370369	0.044680987
12	0xbe810136	-0.25196236
13	0x3ddb3c50	0.10704863
14	0xbc9445bb	-0.018099656
15	0xbc7db6a4	-0.015485439
16	0x3e5f7002	0.21820071
17	0x3e962b50	0.2932992
18	0xbe050c34	-0.12992936
19	0xbaab89a9	-0.001308729
20	0xbf3f4f0a	-0.7472998
21	0xbf8922fc	-1.0713801
22	0xbd991425	-0.074745454
23	0xbeed9d1a	-0.4640892
24	0xbf770c86	-0.96503484
25	0xbd506a38	-0.050882548
26	0x3e8e8552	0.2783609
27	0x3d727c18	0.059200376
28	0x3c4847db	0.012224163
29	0x3f403639	0.7508274
30	0x3d030fca	0.03199748
31	0xbe15087b	-0.14554016
32	0x3e185a8c	0.14878291
33	0x3df449fa	0.119281724
34	0x3f3d045f	0.73834795
35	0x3e289455	0.16462834
36	0x3d24933e	0.040179484
37	0x3e436ade	0.19083735
38	0xbdfec896	-0.124406025
39	0x3ecdc105	0.40186325
40	0xbd1e1bb3	-0.038600635
41	0x3ea9b7d9	0.33148077
42	0x3da099a4	0.078418046
43	0x3e9cc993	0.3062254
44	0x3d0fce9d	0.03510915
45	0xbe43990f	-0.19101356
46	0x3f93e804	1.155518
47	0xbeecfc77	-0.46286365
48	0xbdbebce7	-0.09313374
49	0xbe2a93c5	-0.16657932
50	0xbd407dee	-0.046995096
51	0xbde5bd3e	-0.11217736
52	0x3d909bcd	0.07060967
53	0x3d509505	0.050923366
54	0xbe9ad035	-0.30236974
55	0xbc2de1d5	-0.010612925
56	0x3d52d7d7	0.051475372
57	0x3f0f21c0	0.55910873
58	0x3d5667ec	0.0523452
59	0x3b375ae3	0.0027977757
60	0xbd256292	-0.040377207
61	0xbb747b51	-0.0037304948
62	0x3a722903	0.00092376786
63	0xbb8e6f8d	-0.004346794

transformer.layers.0.0.fn.fn.to_qkv.weight f4 [192, 64]
0	0x3cb819d7	0.022473259
1	0x3e3d524f	0.1848843
2	0xbda15731	-0.078779586
3	0xbe9d109a	-0.30676728
4	0x3e72f12e	0.23724815
5	0xbe229248	-0.15876114
6	0x3e5081cf	0.20362018
7	0x3d4e5897	0.050377455
8	0xbd5352b1	-0.051592533
9	0x3e7374be	0.23775002
10	0xbe36933f	-0.17829607
11	0x3f2661e9	0.6499315
12	0xbce5ad8d	-0.028036857
13	0x3e4f0632	0.20217207
14	0xbddbbcc3	-0.10729363
15	0xbe2b9c99	-0.16758956
16	0x3dfc5c08	0.12322241
17	0x3d83aeec	0.06429848
18	0xbe552197	-0.20813595
19	0x3d863126	0.06552343
20	0xbe4784a7	-0.19484197
21	0xbe3d5485	-0.18489273
22	0xbd3cb903	-0.04607488
23	0xbec9b756	-0.39397687
24	0x3d5eff83	0.054442894
25	0xbcc4d683	-0.024028068
26	0x3dad67db	0.084670745
27	0x3dafe546	0.08588652
28	0x3e25fcaf	0.16209672
29	0x3e918014	0.28418028
30	0xbcdbbb46	-0.026822697
31	0x3e2d7e78	0.16942775
32	0x3e80004d	0.2500023
33	0xbc593646	-0.013257569
34	0x3e3a81c3	0.18213563
35	0x3e68db41	0.22739889
36	0x3e034b07	0.1282159
37	0x3d9dcbc5	0.077048816
38	0xbda7277d	-0.08161829
39	0x3f2a1923	0.66444606
40	0xbe68570e	-0.22689459
41	0xbdb1e271	-0.086857684
42	0x3dffbb18	0.12486857
43	0xbbe9e25c	-0.00713758
44	0x3e9036dd	0.28166857
45	0x3d6f1216	0.058366857
46	0x3ecbdecf	0.39818427
47	0xbe2f5815	-0.17123444
48	0xbd8ac0c6	-0.0677505
49	0xbe401dbd	-0.18761344
50	0xbdb099a6	-0.08623056
51	0x3db89458	0.09012669
52	0x3e43f7f0	0.1913755
53	0x3e413241	0.18866827
54	0x3d90f55c	0.070780486
55	0x3dca6184	0.09881881
56	0x3e8e93fa	0.27847272
57	0x3e73b3d8	0.23799074
58	0x3e3cce39	0.18438043
59	0x3e5dbe51	0.21654631
60	0xbdaf6476	-0.08564083
61	0xbce71d7d	-0.028212303
62	0xbc40c9b3	-0.011766839
63	0xbe5e363a	-0.21700373
64	0xbd515d61	-0.051114444
65	0x3e163d1d	0.1467175
66	0x3e22ef29	0.15911545
67	0xbe30f949	-0.17282595
68	0x3c91cbea	0.01779743
69	0xbd9de875	-0.07710353
70	0x3e03c2db	0.128673
71	0x3dd0d7e5	0.101974286
72	0x3c91c111	0.017792257
73	0x3e8eaae9	0.2786477
74	0x3d8d5365	0.06900672
75	0x3b84764f	0.004042424
76	0xbcad06ab	-0.021121344
77	0x3e6d0315	0.23145707
78	0x3ebfa55e	0.37430853
79	0xbe69e78c	-0.22842234
80	0x3bc01130	0.005861424
81	0x3d9ea7a1	0.077468164
82	0xbe00269d	-0.1251473
83	0x3dbc0b25	0.09181813
84	0xbd701fe5	-0.058624167
85	0xbe26baea	-0.1628224
86	0x3e18e424	0.14930779
87	0xbea1dd91	-0.31614354
88	0x3d1a04e1	0.03760231
89	0xbecd64f7	-0.40116093
90	0xbc08a9b4	-0.008341242
91	0x3e04f8b5	0.12985499
92	0x3d63372a	0.05547253
93	0xbe63b4ff	-0.22237013
94	0xbd3ed3dd	-0.046588767
95	0xbdf6d7f7	-0.12052911
96	0xbd57539b	-0.052569967
97	0x3d5309e4	0.051523104
98	0xbcd44775	-0.02591298
99	0x3dd660ae	0.10467659
100	0xbd6ceed6	-0.05784496
101	0x3dcd3a7d	0.100209214
102	0x3ddd1683	0.107953094
103	0x3f85704c	1.0424895
104	0xbdb39c11	-0.08770002
105	0xbe5b08cc	-0.21390074
106	0x3dd86441	0.10565997
107	0x3cef211f	0.029190598
108	0xbdd10a8a	-0.10207088
109	0x3d8a420a	0.06750877
110	0xbf01c2c5	-0.5068782
111	0x3cf0b1b4	0.02938161
112	0xb95c6f6f	-0.00021022347
113	0xbd9cb9f5	-0.07652656
114	0x3d4651a9	0.04841772
115	0xbbc50f14	-0.0060137603
116	0x3e5d9ee0	0.21642637
117	0xbdc5edd6	-0.09664504
118	0x3e40e4c9	0.18837275
119	0xbac9b6f0	-0.0015389603
120	0x3ebbb7d2	0.3666368
121	0x3d6a025b	0.057131153
122	0x3ec2f284	0.3807565
123	0xbdc52d75	-0.09627811
124	0x3cb878ab	0.022518476
125	0xbba6a62f	-0.0050857286
126	0xbecd6bee	-0.40121406
127	0x3db7b8de	0.089708075
128	0x3d843727	0.06455832
129	0xbc7b556c	-0.01534019
130	0x3db5ec99	0.08883018
131	0x3e127e31	0.1430595
132	0xbd3e291c	-0.046425924
133	0x3df88abb	0.12135836
134	0xbd409e7c	-0.047026142
135	0x3db24bdb	0.087058745
136	0xbce67a13	-0.028134381
137	0x3e0893cd	0.13337632
138	0x3dd8cf50	0.10586417
139	0xbed70315	-0.4199454
140	0xb9ff8e43	-0.00048743383
141	0x3ea4c802	0.32183844
142	0x3e6afa7c	0.22947115
143	0xbeb82591	-0.3596616
144	0xbd776219	-0.060396288
145	0x3dcaeeeb	0.09908851
146	0x3da32300	0.0796566
147	0xbeee4fd5	-0.46545282
148	0xbdca37d7	-0.09873932
149	0x3d15759c	0.036489114
150	0x3d3c4bf1	0.04597086
151	0xbd890395	-0.06690136
152	0xbc69cb67	-0.014269686
153	0xbef2225a	-0.47291833
154	0xbdd89b00	-0.10576439
155	0x3e491dd9	0.19640292
156	0x3eabfc29	0.3359082
157	0xbe33294e	-0.17496225
158	0x3e09112d	0.13385458
159	0xbde3c6d8	-0.11121911
160	0xbd94d766	-0.072676465
161	0xbe95138c	-0.29116476
162	0x3d1abf36	0.03778001
163	0x3dc18efb	0.094510995
164	0xbdbbf9ed	-0.09178529
165	0xbaa8d01a	-0.0012879402
166	0x3d090b95	0.03345831
167	0x3f98e09f	1.1943549
168	0xbd838e0d	-0.064235784
169	0xbf45deca	-0.77293074
170	0x3dc686e3	0.09693696
171	0x3ca33f9c	0.019927792
172	0xbe8cf1e7	-0.27528307
173	0x3bd21d57	0.006412189
174	0xbeb0988c	-0.34491384
175	0x3d973fb2	0.07385196
176	0xbdbf813f	-0.093508236
177	0x3e30b1ea	0.17255369
178	0xbe12b236	-0.14325795
179	0xbd25c389	-0.04046968
180	0xbe0d1064	-0.13775784
181	0x3e0d20e1	0.13782074
182	0x3b747053	0.0037298396
183	0x39d6d8d4	0.0004097881
184	0xbdbe9fd7	-0.09307831
185	0xbd1d189f	-0.03835356
186	0x3f2c09dc	0.67202544
187	0xbe3205c4	-0.17385012
188	0x3d86d4d8	0.065835655
189	0x3c7283ee	0.014801962
190	0xbf136121	-0.5757008
191	0x3f0a82bf	0.5410575
192	0xbf076261	-0.5288449
193	0xbeb215f6	-0.3478238
194	0x3e2ce52c	0.16884297
195	0x3f08c436	0.53424394
196	0xbec3f3c5	-0.3827192
197	0x3eade288	0.33961892
198	0xbeb4eed0	-0.3533845
199	0x3ed4c5ab	0.4155706
200	0x3efb15b8	0.49040008
201	0x3e9e93e7	0.30972216
202	0x3eec34b3	0.46133956
203	0xbf1a828a	-0.60355437
204	0x3e9fa44e	0.31180042
205	0x3f144bed	0.57928354
206	0xbcb7070e	-0.022342231
207	0x3ebbdb34	0.36690676
208	0xbf03692a	-0.5133234
209	0x3ec3f1f3	0.3827053
210	0x3e965683	0.29362878
211	0x3ea7891b	0.3272179
212	0x3f037b1c	0.51359725
213	0xbe02d820	-0.12777758
214	0xbeb5ecbe	-0.35532182
215	0xbe5bcf4d	-0.21465798
216	0xbe97d444	-0.29654133
217	0xbd5f34d4	-0.05449374
218	0xbea47723	-0.32122144
219	0xbf072820	-0.527956
220	0xbe1d4d6b	-0.15361564
221	0x3e9465e4	0.28983986
222	0x3ef9c663	0.4878417
223	0xbefe6b45	-0.49691215
224	0x3ed2fca8	0.41208386
225	0x3dd25332	0.102697745
226	0x3ef06374	0.46950877
227	0xbebd52c6	-0.36977214
228	0xbeec884c	-0.46197736
229	0x3ec5178d	0.3849453
230	0x3ec8289b	0.3909348
231	0x3f0f1a34	0.5589936
232	0x3e5cccf1	0.21562554
233	0xbf5079a9	-0.8143564
234	0xbe6dea8d	-0.23234005
235	0xbecec3c1	-0.40383723
236	0xbf801c07	-1.0008553
237	0xbec0d6d4	-0.376639
238	0x3ddc8a61	0.10768581
239	0x3e7b62e9	0.2454945
240	0x3ee7bcf4	0.45261347
241	0xbe1d8f32	-0.15386656
242	0x3e882a29	0.26594666
243	0xbed3b66c	-0.41350114
244	0x3eae00de	0.33985037
245	0xbf0d53cf	-0.55206007
246	0x3e549026	0.20758113
247	0xbee5b21e	-0.44862455
248	0xbf08dd19	-0.5346237
249	0xbed77990	-0.42084932
250	0x3f051f74	0.5200112
251	0xbeceb487	-0.40372106
252	0x3f29cd9f	0.6632938
253	0xbe77ff6a	-0.24218526
254	0xbde804e1	-0.113290556
255	0xbea1a0ea	-0.3156808

transformer.layers.0.0.fn.fn.to_out.weight f4 [64, 64]
0	0xbd4354a8	-0.047688156
1	0x3d84d421	0.06485773
2	0x3d397eed	0.04528706
3	0xbe8c0a9a	-0.27351838
4	0x3c4fdfc8	0.012687631
5	0x3c354806	0.011064535
6	0xbbd4a211	-0.0064890464
7	0xbde7ac31	-0.1131214
8	0xbd6b5a1c	-0.057458982
9	0xbd49928e	-0.04921203
10	0xbd7acf15	-0.061232645
11	0xbdbb065b	-0.091320716
12	0xbd07febf	-0.03320193
13	0x3da09e5d	0.078427054
14	0x3d21659b	0.03940354
15	0xbdd426fe	-0.10359
16	0xbcb45f80	-0.022018194
17	0x3d981317	0.07425516
18	0x3d767698	0.060171694
19	0x3d827d8b	0.06371602
20	0x3d96ecfe	0.073694214
21	0xbd07ccf1	-0.03315443
22	0xbc153b41	-0.0091083655
23	0xbc6e47ee	-0.014543517
24	0x3da4bd47	0.08043914
25	0x3d4ecff2	0.05049128
26	0xbb0d97bb	-0.002160533
27	0xbdf4e732	-0.119581595
28	0xbc781af5	-0.015143146
29	0xbdbb763d	-0.091534115
30	0xbd7729c3	-0.06034256
31	0x3dec0568	0.11524469
32	0x3d99a135	0.07501451
33	0x3ca03602	0.019557003
34	0xbdd79b8a	-0.105277136
35	0xbd8fd496	-0.070229694
36	0xbddd9c0b	-0.108207785
37	0x3cb8ff9d	0.022582823
38	0xbdbb9d5a	-0.09160872
39	0x3ce3ffe7	0.027831985
40	0xbdcfda74	-0.101490885
41	0x3df8ef03	0.12154963
42	0xbc8ff634	-0.017573453
43	0x3d7e31dc	0.06205927
44	0x3dfc9db2	0.123347655
45	0xbb2049d0	-0.0024458058
46	0x3d532960	0.05155313
47	0xbce83e12	-0.02834991
48	0xbddfaf45	-0.10922102
49	0xbcefbc07	-0.029264463
50	0x3da64fe6	0.08120708
51	0xbd0f38db	-0.03496633
52	0xbd1a89bc	-0.03772901
53	0x3d424d45	0.04743697
54	0xbd8af4bb	-0.0678496
55	0xbd940ace	-0.07228623
56	0xbc52d184	-0.012867335
57	0xbd9bd0b0	-0.07608163
58	0x3e21a301	0.15784837
59	0xbd053b4f	-0.032527264
60	0x3eb870cd	0.3602356
61	0xbe1d5730	-0.1536529
62	0x3d24eae3	0.040263068
63	0x3c80496d	0.015660012
64	0xbc99e0fe	-0.018784042
65	0x3e0923bc	0.13392538
66	0xbdf742a1	-0.12073255
67	0xbe0b7014	-0.13616973
68	0xbda4af2e	-0.080412254
69	0x3e58f8fc	0.2118873
70	0x3aaaf720	0.001304362
71	0x3dfbb99a	0.1229126
72	0xbdbddeb0	-0.0927099
73	0x3df3fb3c	0.119131535
74	0x3b66b761	0.0035204517
75	0x3d94d920	0.07267976
76	0xbd78be9a	-0.060728647
77	0x3e90c0b9	0.28272036
78	0x3dc8e800	0.098098755
79	0x3e8a657b	0.27030548
80	0xbcbc0718	-0.022952601
81	0xbe5706e6	-0.20998725
82	0x3c4f4c1a	0.012652421
83	0x3dc8c2b1	0.098027594
84	0x3dd57642	0.104229465
85	0x3c9fb79e	0.019496735
86	0x3e363548	0.17793763
87	0x3e1e36e3	0.15450625
88	0x3dafb4d2	0.085794106
89	0x3e080912	0.1328471
90	0xbf4c2fe1	-0.7976056
91	0x3e6425b7	0.22280012
92	0xbc02ca77	-0.007982842
93	0x3e3636f7	0.17794405
94	0x3e82444f	0.2544274
95	0xbe31baa1	-0.1735635
96	0xbd1a1113	-0.03761394
97	0x3d27c97e	0.040963642
98	0x3dcdd3e1	0.10050178
99	0xbc799a6b	-0.01523457
100	0xbcdd76da	-0.027034212
101	0x3d08d0d2	0.03340227
102	0xbeacd6bc	-0.3375758
103	0xbc4bffcd	-0.012451124
104	0x3c8f69a5	0.01750643
105	0x3de9eeb3	0.114224814
106	0x3e547c05	0.20750435
107	0x3d9674f0	0.07346523
108	0xbd1c69ea	-0.038186945
109	0xbe20b1b4	-0.15692788
110	0x3e6ecf11	0.23321177
111	0x3da2c3d7	0.0794751
112	0x3e9e22e0	0.30885983
113	0x3d64663d	0.055761565
114	0x3e07fc7e	0.13279912
115	0x3d8831c2	0.066501155
116	0xbd533e2e	-0.05157297
117	0xbe4418b6	-0.19150051
118	0xbe7f31de	-0.24921367
119	0xbe11dc47	-0.14244185
120	0x3e03595a	0.12827054
121	0xbe611c12	-0.21983364
122	0x3deb1122	0.11477877
123	0xbdb0bdd7	-0.08629959
124	0xbb93fc35	-0.0045161494
125	0x3e2b021e	0.16700026
126	0xbe2bd055	-0.16778691
127	0x3db578dc	0.08860943
128	0xbe2ea271	-0.17054154
129	0x3db16810	0.086624265
130	0xbd4d4cb9	-0.050121997
131	0x3f596c20	0.8493061
132	0x3e55f407	0.2089387
133	0xbeb9251a	-0.3616112
134	0xbeae705d	-0.340701
135	0x3e26d9a1	0.16293956
136	0x3caa22c2	0.020768527
137	0x3e017f03	0.12646107
138	0x3cae731d	0.021295125
139	0xbc803baf	-0.01565346
140	0x3c994301	0.018708708
141	0x3f02c9b0	0.51089
142	0xbd8cef30	-0.06881559
143	0xbe8a2368	-0.26980138
144	0x3dc53762	0.09629704
145	0xbe50738d	-0.20356579
146	0xbd1dca3e	-0.03852295
147	0x3ea6cd81	0.32578662
148	0x3e16129a	0.14655533
149	0x3d26e841	0.04074884
150	0x3db4a0a7	0.088197045
151	0xbe63ea06	-0.22257242
152	0xbdd1189d	-0.10209773
153	0x3d71f399	0.059070203
154	0xbe52b4fc	-0.20576853
155	0x3dd106a6	0.10206346
156	0x3df99ae0	0.12187743
157	0x3e25d65e	0.16195056
158	0x3de7536a	0.11295207
159	0xbd9f5a07	-0.07780843
160	0x3ee3dc04	0.44503796
161	0x3d456c00	0.0481987
162	0xbd8a5af2	-0.06755628
163	0xbe33cda6	-0.17558917
164	0xbe0fed8d	-0.14055462
165	0x3da9d383	0.08292296
166	0xbda7913c	-0.08181998
167	0x3dec06a3	0.11524703
168	0x3d976a54	0.07393327
169	0x3d7b3b3e	0.061335795
170	0x3c6d0594	0.014466662
171	0x3d81898a	0.063250616
172	0x3bcd27c7	0.0062608453
173	0xbd121abb	-0.035670023
174	0xbb20c6cb	-0.0024532552
175	0x3cf14aed	0.029454673
176	0x3eee7ab4	0.4657799
177	0x3c73c456	0.014878353
178	0x3dc689f3	0.096942805
179	0x3cbfe03e	0.023422357
180	0x3e449cf2	0.19200495
181	0x3d223dab	0.039609592
182	0xbd3cb96b	-0.046075266
183	0xbde534ec	-0.11191735
184	0x3d8cacdf	0.0686891
185	0xbe6e5a0b	-0.23276536
186	0xbe4c9b22	-0.19981053
187	0x3d5d8ecf	0.05409127
188	0xbf651700	-0.8948822
189	0x3d8ffa58	0.07030171
190	0xbda597d1	-0.08085597
191	0x3e13bcb4	0.14427453
192	0xbdc6a710	-0.096998334
193	0x3d991327	0.07474356
194	0x3c64d687	0.013967163
195	0x3efbfd85	0.49216858
196	0x3dd2f4a2	0.10300566
197	0xbd49a11b	-0.049225908
198	0xbe01ae0b	-0.12664048
199	0xbd929881	-0.07157994
200	0xbd43ad4c	-0.04777269
201	0xbced3ddc	-0.02896016
202	0xbc8bad68	-0.01705046
203	0x3c52d891	0.012869016
204	0xbdd5e4fe	-0.104440674
205	0xbd81df47	-0.06341415
206	0xbc6bd3ff	-0.0143938055
207	0xbce7dbb3	-0.028303003
208	0xbdd34690	-0.10316193
209	0xbc088ef8	-0.008334868
210	0x3d1d2b7f	0.03837156
211	0xbdbbebda	-0.091758445
212	0xbd8a1550	-0.06742346
213	0x3ce709b9	0.028202878
214	0x3d70626f	0.058687624
215	0xbdf25ed9	-0.11834497
216	0xbdacfae5	-0.08446292
217	0x3d0248c7	0.031807687
218	0xbb527e00	-0.003211856
219	0x3da70422	0.08155085
220	0x3dc1e8a7	0.09468203
221	0x3d213894	0.039360598
222	0xbbd453f5	-0.006479735
223	0xbd97d445	-0.07413534
224	0xbdfbb505	-0.12290386
225	0xbd9aeda3	-0.07564857
226	0xbdd4afc4	-0.10385087
227	0xbb7afee0	-0.003829889
228	0x3d43d173	0.04780717
229	0xbd485c1e	-0.048915975
230	0x3caf7eb2	0.021422718
231	0x3d4ca517	0.04996213
232	0x3b602b36	0.0034205443
233	0x3d9a2793	0.075270794
234	0xbcd9d4a6	-0.026590656
235	0x3cd37326	0.025811743
236	0x3d83f052	0.06442322
237	0xbd624fbb	-0.05525182
238	0xbcb2d63e	-0.021830674
239	0x3cd2b861	0.025722684
240	0xbc255d3a	-0.010093028
241	0x3cc58119	0.02410941
242	0x3cb77e87	0.0223992
243	0xbda77e05	-0.08178333
244	0xbd13e8d9	-0.036110733
245	0xbc528576	-0.012849202
246	0xbc8dafca	-0.017295737
247	0x3d1dfa80	0.038568974
248	0xbd543e3c	-0.051817164
249	0xbd954b3a	-0.07289739
250	0x3ac01d47	0.0014657163
251	0x3dd3b793	0.103377484
252	0xbe960b16	-0.29305333
253	0x3dbc9c38	0.09209484
254	0x3d4b3d7f	0.049619194
255	0xbdbe631a	-0.09296246

transformer.layers.0.0.fn.fn.to_out.bias f4 [64]
0	0x3f33f8e0	0.7030163
1	0xbcc7356f	-0.024317471
2	0x3ed1ad03	0.4095231
3	0xbf433321	-0.7624989
4	0xbefe1af2	-0.49629933
5	0x3e4b9fcb	0.19885175
6	0xbebc19b5	-0.36738363
7	0xbda088d4	-0.07838598
8	0x3e22151b	0.15828364
9	0xbeb2eef5	-0.34947935
10	0x3e501d5c	0.203237
11	0x3e508990	0.20364976
12	0x3ecd6c56	0.40121716
13	0x3ee93157	0.45545456
14	0xbe9a8da5	-0.3018619
15	0x3c790863	0.015199753
16	0xbf459779	-0.77184254
17	0x3f1ba1e9	0.6079393
18	0x3f741552	0.9534503
19	0xbd6f94c3	-0.05849148
20	0xbd83dd92	-0.064387456
21	0xbe9cfb8a	-0.3066066
22	0x3e09eb91	0.13468768
23	0xbced2502	-0.02894831
24	0xbf01cca3	-0.50702876
25	0xbe8b105e	-0.27160925
26	0xbd85ba58	-0.06529683
27	0x3f573524	0.8406546
28	0xbe8223b1	-0.25417855
29	0x3ef6706d	0.4813265
30	0x3ed22575	0.41044202
31	0x3ef4e4f5	0.4783093
32	0x3eb42809	0.35186794
33	0x3ece86fe	0.40337366
34	0xbf163b03	-0.58683795
35	0xbeb07d78	-0.34470725
36	0xbe3b0a24	-0.18265587
37	0x3f0ea007	0.5571293
38	0x3f3cb36a	0.73711264
39	0x3f0a313c	0.53981376
40	0xbf20ed84	-0.6286242
41	0x3f4e4674	0.8057625
42	0x3c5cb42a	0.013470689
43	0xbf1f83db	-0.6231057
44	0x3f00fe97	0.50388473
45	0xbe776163	-0.24158244
46	0x3f500312	0.81254685
47	0x3eced2fc	0.40395343
48	0x3ef60029	0.48046997
49	0xbcacce26	-0.021094393
50	0x3f03417f	0.51271814
51	0x3f315846	0.6927532
52	0x3f1d86b1	0.6153365
53	0xbeae9df4	-0.34104884
54	0x3e157c83	0.14598279
55	0xbf28f40b	-0.6599738
56	0x3e19a4ac	0.15004224
57	0x3e2de8e5	0.16983373
58	0x3ed906e9	0.42388085
59	0xbe8f1f9b	-0.279538
60	0x3f08b415	0.53399783
61	0xbdd1d353	-0.10245385
62	0xbe474c2a	-0.19462648
63	0xbc1f89b4	-0.009737421

transformer.layers.0.1.fn.norm.weight f4 [64]
0	0x3f7a109c	0.97681594
1	0x3e484f1b	0.19561426
2	0x3e31e9ca	0.1737434
3	0x3f4982fc	0.7871549
4	0x3e9efe2a	0.31053287
5	0x3de62e70	0.11239326
6	0x3e436e87	0.19085132
7	0x3f120db5	0.57052165
8	0x3eae4fd9	0.34045294
9	0x3eace20b	0.33766207
10	0x3e1763af	0.1478412
11	0x3e964fe5	0.2935783
12	0x3e532a48	0.20621598
13	0x3df185dc	0.1179311
14	0x3e6e3428	0.23262084
15	0x3d1454ca	0.036213674
16	0x3ed5cc71	0.4175754
17	0xbc666b1a	-0.014063621
18	0x3f1fa72c	0.6236446
19	0x3e8b2bba	0.27181798
20	0x3f318fb9	0.6935993
21	0x3eeba42e	0.46023697
22	0x3ebf7fbb	0.37402138
23	0x3eeff3b1	0.4686561
24	0x3ec5dc10	0.38644457
25	0x3e873eec	0.26415193
26	0x3e846372	0.2585712
27	0x3f0ef782	0.55846417
28	0x3fdd0dc6	1.7269828
29	0x3e8c1b19	0.27364424
30	0x3ee49b00	0.44649506
31	0x3f6c7e5c	0.9238031
32	0x3dae046b	0.084969364
33	0x3e8047fd	0.25054923
34	0x3fccccd9	1.6000015
35	0x3f002768	0.5006013
36	0x3df80c85	0.12111763
37	0x3ef827f0	0.4846797
38	0x3ef84bc1	0.48495296
39	0xbd9fdb59	-0.07805509
40	0x3f698439	0.9121738
41	0x3ec6732e	0.3875975
42	0x3d72f745	0.059317846
43	0x3f55ce1c	0.8351762
44	0x3d96561c	0.07340643
45	0x3ea0e16e	0.3142199
46	0x3eea7d0a	0.45798522
47	0x3ee19194	0.4405638
48	0x3ca98f98	0.020698354
49	0x3ea6a74b	0.3254951
50	0xbd19ca26	-0.0375463
51	0x3f3c740f	0.7361459
52	0x3d1f6e1a	0.03892336
53	0x3eba87fd	0.36431876
54	0x3c802c10	0.01564601
55	0x3f097618	0.5369582
56	0x3f2f6a81	0.6852189
57	0x3c054c52	0.008135872
58	0x3e4d04f7	0.20021425
59	0x3ee43f78	0.44579673
60	0xbe06a748	-0.1314975
61	0x3e9df7f0	0.30853224
62	0x3f01a559	0.50642926
63	0xbcdd8555	-0.027041117

transformer.layers.0.1.fn.norm.bias f4 [64]
0	0xbe66528c	-0.22492427
1	0x3e9f25ec	0.3108362
2	0xbe513d42	-0.20433524
3	0x3e9557ea	0.29168636
4	0xbe3db1f1	-0.1852491
5	0x3ec2b31e	0.3802728
6	0xbd1364ef	-0.03598493
7	0x3ea40f27	0.3204281
8	0xbe0302f3	-0.12794094
9	0xbe1d936d	-0.1538827
10	0x3da69712	0.08134283
11	0xbda82f29	-0.0821212
12	0xbdc09ae5	-0.09404544
13	0x39fb9d6a	0.00047991733
14	0xbbf15a07	-0.0073654684
15	0xbc9f2683	-0.019427544
16	0xbeb9fb2e	-0.36324447
17	0x3b9756a8	0.0046184845
18	0x3e189389	0.1490003
19	0x3d8231a0	0.063571215
20	0x3e88ed0d	0.26743355
21	0xbdaeb520	-0.085306406
22	0xbef78105	-0.48340622
23	0x3fc28905	1.5198065
24	0xbefab033	-0.48962554
25	0xbd934a3e	-0.07191895
26	0xbc9cf38e	-0.019159105
27	0xbeac5655	-0.33659616
28	0xbfa1581e	-1.2605016
29	0x3dc7dd50	0.09759009
30	0x3deecb61	0.11659885
31	0x3ffea6dd	1.9894673
32	0xbcb23a47	-0.021756304
33	0x3d6b8e4a	0.057508744
34	0xbf1decad	-0.61689264
35	0xbe023f40	-0.1271944
36	0xbdae278a	-0.08503635
37	0x3d9ed2f6	0.07755081
38	0x3e32bc59	0.17454661
39	0xbc3ad980	-0.011404395
40	0x3e0e77b1	0.13912846
41	0xbc856702	-0.01628447
42	0xbc5b7ede	-0.013396947
43	0xbe6ebcf7	-0.23314272
44	0x3c6cc9a3	0.014452371
45	0xbe977864	-0.29584038
46	0x3e88318c	0.266003
47	0xbdb3d78c	-0.08781347
48	0x3baa1011	0.0051899035
49	0xbe594e65	-0.21221311
50	0x3e46f685	0.19429977
51	0xbeac5999	-0.33662108
52	0x3ccd898a	0.025089998
53	0x3e9c6714	0.30547392
54	0xbba2b090	-0.0049648955
55	0xbe09e629	-0.13466705
56	0xbf7f497d	-0.9972151
57	0xbb4e0e13	-0.0031441494
58	0x3d72e75c	0.059302673
59	0xbe39a316	-0.18128619
60	0x3bdfa785	0.00682539
61	0xbea58748	-0.32329774
62	0xbf7451b9	-0.954372
63	0x3b0a73cf	0.0021126156

transformer.layers.0.1.fn.fn.net.0.weight f4 [128, 64]
0	0xbcea6f80	-0.02861762
1	0xbed51040	-0.4161396
2	0xbd06f8de	-0.032952182
3	0x3cc6df9d	0.024276549
4	0xbdfaeccf	-0.12252199
5	0xbe9f529f	-0.31117722
6	0xbe1c0154	-0.15234882
7	0x3d6fdf9a	0.058562852
8	0x3df52656	0.119702026
9	0x3eaa2fee	0.33239692
10	0xb990942b	-0.00027576214
11	0x3e0275af	0.12740205
12	0x3f060b45	0.52360946
13	0x3e66fd8c	0.22557658
14	0xbdf573a4	-0.11984947
15	0xbeb313c1	-0.3497601
16	0x3d351cdf	0.044216987
17	0x3d2411bd	0.04005598
18	0x3e22fc50	0.15916562
19	0x3d22e6ce	0.039770894
20	0x3e08ccf9	0.13359441
21	0x3e9eae31	0.30992272
22	0xbd8d0003	-0.06884768
23	0xbf0717c1	-0.5277062
24	0xbe55c565	-0.20876081
25	0x3d510af6	0.051035844
26	0x3cc3cfb4	0.023902752
27	0xbdff8ddb	-0.12478229
28	0x3f1dd9a6	0.6166023
29	0x3e09dc02	0.13462833
30	0x3f1406bf	0.57822794
31	0xbf1ab8c4	-0.6043818
32	0xbec2c2e0	-0.38039303
33	0x3ec6c8d2	0.3882509
34	0x3e4ec740	0.20193195
35	0xbcfddd1f	-0.030989228
36	0x3e291ea7	0.16515599
37	0xbc1b2948	-0.009470291
38	0xbdbcf8c6	-0.09227137
39	0x3ded88fa	0.11598392
40	0x3e4ef178	0.202093
41	0x3ea28268	0.31740117
42	0x3eab6ddf	0.33482262
43	0xbed12270	-0.40846586
44	0xbe1d40f8	-0.15356815
45	0xbde56448	-0.11200768
46	0xbda631f6	-0.08114998
47	0x3eaa58d1	0.33270887
48	0xbd53b8ce	-0.051689915
49	0x3e70475c	0.23464721
50	0x3e175ff0	0.14782691
51	0xbe0064e9	-0.12538494
52	0xbc0521b6	-0.008125713
53	0xbebd1e91	-0.36937383
54	0xbe8feaee	-0.28108925
55	0x3dc6b888	0.09703165
56	0x3f4d2ef8	0.80149794
57	0x3bb0c571	0.0053946306
58	0xbd866b0a	-0.06563385
59	0x3d329efd	0.043608654
60	0x3eff08fb	0.4981154
61	0xbde33186	-0.1109343
62	0x3d529429	0.051410828
63	0xbeb7b71f	-0.35881898
64	0xbe6b4048	-0.2297374
65	0xbcb5989c	-0.022167496
66	0xbf6fe5c5	-0.93709975
67	0x3e497945	0.19675167
68	0x3c55db68	0.013052799
69	0x3f0bf017	0.54663223
70	0xbf1de010	-0.6167002
71	0x3dfd86f1	0.12379254
72	0x3f4cc3ce	0.79986274
73	0xbe311991	-0.17294909
74	0x3ea715bf	0.32633778
75	0x3ea09dc4	0.31370366
76	0xbe2a51b8	-0.16632736
77	0x3f09058b	0.5352408
78	0xbec5eaa6	-0.38655585
79	0x3d570ef7	0.052504506
80	0xbf36d9a4	-0.71425843
81	0x3e7a5024	0.24444634
82	0x3f8f229c	1.1182437
83	0xbf09da45	-0.5384868
84	0x3eac1b06	0.33614367
85	0xbc593796	-0.013257882
86	0xbe6f09bf	-0.23343562
87	0xbe804c3e	-0.25058168
88	0xbf9bf3a0	-1.2183723
89	0xbec72b7b	-0.3890036
90	0x3d456c0b	0.04819874
91	0xbe9aa438	-0.30203414
92	0x3ed09fff	0.40747067
93	0x3f484d42	0.78242886
94	0x3fb86dd3	1.4408516
95	0x3e45272a	0.19253221
96	0x3ee5aff2	0.44860798
97	0x3e9bf355	0.30459085
98	0x3e63c105	0.222416
99	0xbe8abece	-0.27098697
100	0xbe28fbd1	-0.1650231
101	0x3f8f97f6	1.121825
102	0x3f4e7071	0.8064032
103	0x3e6f5f9f	0.2337632
104	0x3ddb7375	0.10715381
105	0x3e9698bc	0.29413402
106	0xbe92d83c	-0.286806
107	0xbf8b0e78	-1.086379
108	0xbd14e021	-0.03634656
109	0xbf0b5961	-0.54433256
110	0x3f7f15a2	0.99642384
111	0x3e8448f4	0.2583691
112	0xbe89fce4	-0.26950753
113	0x3aeb5095	0.0017953092
114	0xbeae8a5c	-0.34089935
115	0xbe07a223	-0.13245444
116	0x3f060a89	0.52359825
117	0xbe3ec53f	-0.18629931
118	0x3e884e03	0.26622018
119	0xbf15336b	-0.5828158
120	0x3e6f14cb	0.23347776
121	0x3e251e8e	0.16124937
122	0xbbe7a574	-0.007069284
123	0xbed8da7b	-0.42354187
124	0xbd170308	-0.036868125
125	0xbf49b5df	-0.7879314
126	0xbd5490b0	-0.051895797
127	0xbd840862	-0.064469114
128	0xbe989585	-0.29801574
129	0xbf0a73d7	-0.5408301
130	0x3ecaa1f2	0.3957668
131	0x3e8b669a	0.27226716
132	0xbee06d96	-0.43833607
133	0x3d66c79a	0.0563427
134	0xbe184a4b	-0.1487209
135	0x3ebbbca8	0.3666737
136	0x3ef1c72d	0.47222272
137	0x3deab56c	0.11460385
138	0xbec2a80e	-0.3801884
139	0xbe4a2f32	-0.19744566
140	0x3bcee80d	0.0063142837
141	0x3e8fbca0	0.28073597
142	0x3da1094b	0.078631006
143	0xbd53138d	-0.051532317
144	0x3e965a59	0.29365805
145	0xbc071bf6	-0.0082464125
146	0x3ca1e721	0.019763531
147	0xbee70c38	-0.4512651
148	0x3e3f5342	0.18684104
149	0x3e2eb2a7	0.17060338
150	0xbe65b277	-0.2243136
151	0xbe59b1ce	-0.21259233
152	0x3da4f5e4	0.080547124
153	0xbe2e3b76	-0.1701487
154	0xbe9d43eb	-0.3071588
155	0xbecf8a24	-0.4053508
156	0x3ea1b55c	0.3158368
157	0xbcce2c43	-0.02516759
158	0x3eaca7fb	0.3372191
159	0xbe175648	-0.14779007
160	0x3eb3d6e9	0.351249
161	0x3e2b1b13	0.16709547
162	0x3ed66ac8	0.41878343
163	0x3e66f060	0.22552633
164	0xbd8e0cf5	-0.06936065
165	0xbe6cd607	-0.2312852
166	0x3c935de3	0.017989105
167	0x3d92f4c0	0.071755886
168	0x3eadf975	0.33979383
169	0x3ed6243b	0.41824517
170	0xbe2f8fd8	-0.17144716
171	0xbf0468bf	-0.5172233
172	0xbe1a6000	-0.15075684
173	0x3e42c3fb	0.19020073
174	0x3de151ff	0.11001968
175	0x3d6ad684	0.057333484
176	0xbf097a5d	-0.53702337
177	0x3dc98161	0.0983913
178	0xbcde13eb	-0.027109107
179	0xbe968c27	-0.29403803
180	0x3dce2bff	0.10066985
181	0xbea8793d	-0.32904997
182	0x3e3db800	0.18527222
183	0xbecc2f96	-0.39880055
184	0x3e464533	0.19362335
185	0x3db12fee	0.0865172
186	0xbea17f7a	-0.3154257
187	0xbebdcf91	-0.37072423
188	0x3d8352e2	0.06412293
189	0xbd950989	-0.07277209
190	0x3e7844cf	0.24244998
191	0xbe4bbfb6	-0.1989735
192	0x3d8a0c9b	0.067406856
193	0xbf171a0e	-0.5902413
194	0xbc6c4832	-0.01442151
195	0x3dfe4e30	0.12417257
196	0xbf5ebf49	-0.8701063
197	0xbd42f536	-0.047597133
198	0x3ee92ff4	0.45544398
199	0xbe3ed1d4	-0.1863473
200	0x3d40ffe7	0.047119047
201	0x3dd824b6	0.10553877
202	0x3e8594af	0.2609
203	0xbd9f8425	-0.077888764
204	0x3e5023cd	0.20326157
205	0xbc60c488	-0.013718732
206	0x3ac304ef	0.001487879
207	0xbf08ed5a	-0.5348717
208	0x3e349820	0.17636156
209	0x3e9c3254	0.30507147
210	0xbf2038d5	-0.6258672
211	0x3e32670d	0.17422123
212	0xbd2cbe66	-0.042173766
213	0x3ee25088	0.44202065
214	0x3e1279bd	0.14304252
215	0xbf15c6ba	-0.5850636
216	0xbe940be7	-0.2891533
217	0x3e72c3b1	0.23707463
218	0xbe956acb	-0.2918304
219	0xbd268e4c	-0.04066305
220	0x3ea81ccf	0.3283448
221	0x3e3becf3	0.18352108
222	0x3f0ac976	0.54213655
223	0xbf734574	-0.9502785
224	0x3de3081d	0.11085532
225	0x3e1766ea	0.14785352
226	0x3e8f5800	0.27996826
227	0x3e80ef9f	0.25182816
228	0x3eb5b086	0.3548624
229	0xbda3497b	-0.07973
230	0xbea76d0e	-0.3270039
231	0x3e6f2214	0.23352844
232	0x3e1e5e78	0.15465724
233	0xbe21944a	-0.15779224
234	0x3cbf9d78	0.023390517
235	0xbe011567	-0.1260582
236	0xbe6d0bb8	-0.23149002
237	0xbe7ea9ff	-0.24869536
238	0x3d331686	0.043722652
239	0x3eb09a7c	0.34492862
240	0xbc9b8966	-0.018986415
241	0x3ec18c2c	0.37802255
242	0xbd5e16d7	-0.054221
243	0xbdeb943e	-0.11502884
244	0xbc2f9b99	-0.01071825
245	0xbeea51b8	-0.4576547
246	0xbe60cb60	-0.21952581
247	0xbe8d5d08	-0.2761004
248	0x3f2e67fd	0.68127424
249	0x3e1cda78	0.15317714
250	0x3e1f05e4	0.15529591
251	0x3eaff48c	0.34366262
252	0x3d9d908c	0.07693586
253	0xbdb16001	-0.086608894
254	0x3ecb56f6	0.39714783
255	0x3dbfadee	0.09359346

transformer.layers.0.1.fn.fn.net.0.bias f4 [128]
0	0xbd816da3	-0.0631974
1	0xbdaa29e6	-0.08308773
2	0xbe951bcc	-0.2912277
3	0xbe25af30	-0.1618011
4	0x3b0ff3ae	0.0021965313
5	0xbb0413ea	-0.0020153471
6	0xbece252e	-0.4026274
7	0x3e2d35e1	0.16915084
8	0xbb4bf1d5	-0.0031119485
9	0xbd30d6ed	-0.04317372
10	0xbdcb41c8	-0.09924656
11	0xbe11eebe	-0.14251229
12	0xbde48ba5	-0.111594476
13	0xbe3708ba	-0.17874423
14	0xbdc855e3	-0.097820066
15	0x3e23e48c	0.16005152
16	0xbbebef83	-0.007200183
17	0x3cb8bda4	0.022551365
18	0x3d59a53a	0.053136088
19	0x3e4977a2	0.19674543
20	0xbe82ea09	-0.2556918
21	0xbcd12438	-0.025529966
22	0xbe8b2e4c	-0.2718376
23	0x3cb2fbe1	0.02184862
24	0xbe0bd80a	-0.13656631
25	0x3e34c7f6	0.17654404
26	0x3c4f0722	0.012635978
27	0xbe7fa572	-0.24965456
28	0x3e2a1eef	0.16613363
29	0xbd10fb93	-0.03539617
30	0xb92b168d	-0.00016316232
31	0xbdf1bcfc	-0.11803624
32	0xbdf44d73	-0.11928835
33	0xbd03e4cc	-0.03220062
34	0x3e970e50	0.29503107
35	0xbe2ce12d	-0.16882773
36	0xbd6c568d	-0.05769973
37	0xbd91a761	-0.07112003
38	0xbeae7953	-0.34076938
39	0x3dc10b57	0.09425991
40	0xbe1d8f1f	-0.15386628
41	0x3baea407	0.005329612
42	0x3d25720d	0.04039197
43	0xbcbfd784	-0.023418196
44	0x3db6c831	0.08924902
45	0x3dddced8	0.10830468
46	0x3cb5b2f9	0.022180067
47	0x3e567f04	0.2094689
48	0xbeab4f4c	-0.33458936
49	0x3d84dedb	0.06487819
50	0xbe35e269	-0.1776215
51	0xbd9f1079	-0.07766814
52	0x3cd128dc	0.025532179
53	0xbdc26e9a	-0.09493752
54	0x3de55e02	0.11199571
55	0x3d8c2d17	0.06844538
56	0x3e0c7741	0.13717367
57	0xbda522dc	-0.080632895
58	0xbdc6080b	-0.09669503
59	0xbe41a445	-0.1891032
60	0xba18ced5	-0.000582916
61	0xbe713c74	-0.23558217
62	0xbe12a9de	-0.14322612
63	0x3dc7c29e	0.09753917
64	0x3c9a7536	0.018854719
65	0xbedc232a	-0.42995578
66	0xbd467d4a	-0.04845933
67	0x3d2c631a	0.042086698
68	0x3df7589a	0.12077446
69	0x3caa3aeb	0.020780047
70	0xbc5c38b8	-0.013441257
71	0xbc8b56b6	-0.01700912
72	0xbe31d2cf	-0.17365573
73	0xbe1644bb	-0.14674656
74	0x3d2a782e	0.04161852
75	0xbcbc12d9	-0.022958206
76	0x3d90166e	0.07035528
77	0xbe1ed60e	-0.15511343
78	0x3e076334	0.13221437
79	0xbb1b2a29	-0.0023676252
80	0xbd03244c	-0.032017037
81	0x3e316877	0.17325006
82	0x3d15568b	0.036459487
83	0xbe26449f	-0.16237114
84	0xb9adcc03	-0.00033149132
85	0x3dd7bf9a	0.10534592
86	0x3d0d7864	0.03453864
87	0x3e8dfb2a	0.27730685
88	0xbbdb84a6	-0.0066991625
89	0xbdbc9edd	-0.09209988
90	0x3d20d015	0.039260942
91	0x3d6c36d1	0.057669464
92	0xbec7c105	-0.3901445
93	0x3e486bfb	0.19572441
94	0xbd87fc5c	-0.066399306
95	0xbe3cbd5e	-0.18431613
96	0xbddb1891	-0.10698045
97	0xbe77869e	-0.24172446
98	0xbe59769b	-0.2123665
99	0xbe736d53	-0.23772173
100	0xbe06b015	-0.13153107
101	0xbddf871f	-0.10914444
102	0x3d957fbd	0.07299755
103	0x3da44f3c	0.08022925
104	0xbe92a5f6	-0.28642243
105	0xbe7f540b	-0.24934404
106	0x3e026336	0.12733158
107	0xbd334c34	-0.043773845
108	0xbd4ff2b4	-0.05076857
109	0x3dd69c89	0.104790755
110	0x3e6eae20	0.23308611
111	0x3d317800	0.04332733
112	0xbe423753	-0.18966417
113	0x3be933b0	0.0071167573
114	0x3dbb8752	0.0915667
115	0xbebd4c71	-0.36972383
116	0x3dc34e46	0.09536414
117	0xbca3945e	-0.019968208
118	0x3d87f190	0.06637871
119	0x3cbb5eff	0.022872446
120	0xbdc5986c	-0.09648213
121	0xbdd5de1f	-0.10442757
122	0xbdafa503	-0.08576395
123	0xbe584e55	-0.21123631
124	0xbcc30bee	-0.0238094
125	0xbe9b2c74	-0.30307353
126	0x3e7bade1	0.24578048
127	0xbe1670a8	-0.14691412

transformer.layers.0.1.fn.fn.net.2.weight f4 [64, 128]
0	0xbe4496e4	-0.19198185
1	0x3e503509	0.20332731
2	0xbd3c9c5d	-0.046047557
3	0xbe259554	-0.16170245
4	0x3dbcf40f	0.09226238
5	0xbea1d3f6	-0.31607026
6	0xbe11d5d3	-0.14241724
7	0xbe16f09e	-0.14740226
8	0xbeb247f1	-0.34820512
9	0xbe507343	-0.20356469
10	0xbd26919e	-0.040666215
11	0x3c80c50b	0.015718957
12	0xbe799cd0	-0.24376225
13	0xbdf909a8	-0.12160045
14	0xbe8cb748	-0.27483582
15	0xbe5cf0fb	-0.21576302
16	0xbc875c9c	-0.016523652
17	0xbdf3d820	-0.11906457
18	0xbe2c8101	-0.16846086
19	0xbbed0e9f	-0.007234409
20	0xbe95aa91	-0.29231694
21	0xbeb0e380	-0.3454857
22	0xbe335fb7	-0.17516981
23	0x3d6ec7c3	0.058295976
24	0xbe973a83	-0.29536828
25	0xbe023f34	-0.12719423
26	0xbe876ea4	-0.264516
27	0x3c18c3df	0.009324043
28	0x3d4ed2a0	0.050493836
29	0xbeba3ef1	-0.36376145
30	0xbe4f131f	-0.20222138
31	0xbe88297c	-0.2659415
32	0x3c92ab40	0.017903924
33	0xbf0c156b	-0.5472018
34	0x3dc4dd8c	0.09612569
35	0xbe8d03e6	-0.27542037
36	0xbe289564	-0.16463238
37	0xbd7aed0b	-0.061261218
38	0xbf1d29c6	-0.61391866
39	0xbe17308d	-0.14764614
40	0xbd9de249	-0.07709176
41	0xbebe3121	-0.37146857
42	0x3cc2a4f9	0.023760306
43	0xbec8622b	-0.39137396
44	0xbe2b4512	-0.16725567
45	0xbe31f7f3	-0.17379741
46	0xbe6c44f2	-0.23073176
47	0xbe9fa68e	-0.3118176
48	0xbd4bcf1f	-0.049758073
49	0xbed4945f	-0.41519448
50	0xbe7dbc3e	-0.2477884
51	0xbe45670b	-0.19277589
52	0xbe54620d	-0.20740528
53	0xbecd8ad1	-0.4014497
54	0xbd04356e	-0.032277517
55	0xbe852b34	-0.26009524
56	0xbe1190cb	-0.1421539
57	0x3d2caa22	0.04215444
58	0xbe8c7f89	-0.27441052
59	0xbe854627	-0.26030084
60	0x3e241a85	0.16025741
61	0xbe89f6e9	-0.2694619
62	0xbeadab54	-0.33919775
63	0x3e1f2390	0.1554091
64	0xbd9dff0f	-0.07714664
65	0xbd65b9e8	-0.056085497
66	0xbda4e435	-0.080513395
67	0x3ab32ce6	0.0013669997
68	0x3dc3ed44	0.09566739
69	0xbe152c81	-0.14567758
70	0xbebcc16d	-0.36866322
71	0xbddc49b7	-0.107562475
72	0x3ee9a935	0.45636907
73	0x3cd05906	0.025433075
74	0xbe714fc5	-0.23565586
75	0xbe3e2c07	-0.18571483
76	0xbd37b0a4	-0.044846192
77	0xbe798c27	-0.2436987
78	0xbda04aa2	-0.07826735
79	0xbd226b84	-0.039653316
80	0xbe5d76f5	-0.2162741
81	0xbf125ffb	-0.57177705
82	0xbe633af2	-0.22190455
83	0xbcaec57e	-0.021334406
84	0x3ca8d0a5	0.020607302
85	0xbe3db31d	-0.18525358
86	0xbde46c53	-0.11153474
87	0xbe1b7bbb	-0.15183918
88	0xbdb680e0	-0.089113
89	0xbea2006d	-0.3164095
90	0xbddbba70	-0.107289195
91	0xbe000404	-0.12501532
92	0xbc10b4cf	-0.008832171
93	0x3dcdaf4a	0.10043199
94	0xbc8f06e8	-0.017459348
95	0xbc8fe105	-0.017563352
96	0xbe867374	-0.2625996
97	0xbe344ad2	-0.17606667
98	0xbee09d29	-0.43869904
99	0x3cf3571a	0.02970462
100	0x3eb2a5c6	0.348921
101	0xbe7db240	-0.24775028
102	0xbed7b3d8	-0.42129397
103	0xbdec9d33	-0.11553421
104	0x3dee8a8a	0.11647518
105	0xbd7d0480	-0.06177187
106	0xbe82283d	-0.25421324
107	0xbe656fad	-0.22405882
108	0xbe363fa2	-0.17797711
109	0xbe0c2e1e	-0.13689467
110	0xbe832da6	-0.25620764
111	0xbda8b5a6	-0.08237772
112	0x3d739314	0.059466437
113	0xbdc4eb64	-0.0961521
114	0x3b89c4e1	0.004204378
115	0xbcde3c03	-0.027128225
116	0xbe0cfe28	-0.13768828
117	0xbe7b585a	-0.24545422
118	0xbea2b8c3	-0.31781587
119	0xbe005cc0	-0.12535381
120	0xbc15a10d	-0.009132636
121	0xbd814b5f	-0.06313204
122	0xbebbf28d	-0.3670849
123	0x3f28d688	0.6595235
124	0xbe57ac26	-0.21061763
125	0xbd524a75	-0.05134054
126	0xbd211dc7	-0.03933504
127	0xbe084a5f	-0.1330962
128	0xbece8af0	-0.40340376
129	0xbe6e0d98	-0.23247373
130	0xbeb7d778	-0.35906577
131	0xbee01563	-0.43766317
132	0x3d89da27	0.067310624
133	0xbf2314ee	-0.6370381
134	0x3ab6742e	0.0013920122
135	0xbf3b374b	-0.73131245
136	0xbda7583d	-0.08171127
137	0xbe659e64	-0.22423702
138	0xbe218bc4	-0.15775973
139	0xbcfb7099	-0.03069334
140	0xbe8b811c	-0.2724694
141	0xbd6deae6	-0.058085345
142	0xbe9ae5ca	-0.3025344
143	0xbf5e17b0	-0.86754894
144	0xbdc58167	-0.09643822
145	0xbe3e26af	-0.18569444
146	0xbf5c21e0	-0.8598919
147	0xbf41047a	-0.75397456
148	0xbedfb98e	-0.43696254
149	0x3de88565	0.11353568
150	0xbe3a50b8	-0.18194854
151	0xbf637ec2	-0.8886529
152	0xbdacc78d	-0.08436499
153	0xbf5b25a8	-0.85604334
154	0xbedc60fe	-0.4304275
155	0x3d93a325	0.07208852
156	0xbf7227bb	-0.94591874
157	0xbfbf4098	-1.4941587
158	0xbf4b5ed1	-0.79441553
159	0xbe9fc52e	-0.31205124
160	0xbd029468	-0.031879812
161	0xbf2ec364	-0.6826689
162	0xbfc8285b	-1.5637316
163	0xbe429124	-0.19000679
164	0xbe6f644a	-0.23378101
165	0xbe3f8a58	-0.18705118
166	0xbee85cf2	-0.45383412
167	0xbf3e26cf	-0.7427797
168	0xbe64a502	-0.2232857
169	0xbf882339	-1.0635749
170	0xbc9acec1	-0.018897416
171	0xbe1366ac	-0.14394635
172	0xbf3ca905	-0.73695403
173	0xc000272b	-2.0023906
174	0xbf682b95	-0.906915
175	0xbe88fa1c	-0.26753318
176	0xbd218b9a	-0.039439775
177	0xbf03385a	-0.5125786
178	0xbe95a4f3	-0.2922741
179	0xbdd373c9	-0.10324819
180	0xbea913d4	-0.3302294
181	0xbed77b6b	-0.42086348
182	0xbe981d84	-0.2971002
183	0xbf38744c	-0.72052455
184	0xbf67a8c4	-0.9049189
185	0xbe9309b4	-0.2871834
186	0xbe2a8b90	-0.16654801
187	0xbeca8bbe	-0.3955974
188	0xbf72657e	-0.94686115
189	0xbef92b03	-0.48665628
190	0xbf058455	-0.5215505
191	0xbf2ee810	-0.6832285
192	0xbf2e4030	-0.6806669
193	0x3d25c92d	0.04047506
194	0xbf1bbee7	-0.6083817
195	0xbe48d6a5	-0.1961313
196	0xbf1a5b36	-0.60295427
197	0xbde016f6	-0.109418795
198	0xbe58d1d7	-0.21173798
199	0x3d8d454b	0.06897982
200	0xbe16ae14	-0.14714843
201	0x3e9e15ed	0.30876103
202	0xbd077be7	-0.033077147
203	0xbc71c5b7	-0.014756612
204	0xbfc31976	-1.5242145
205	0x3d60a9f9	0.0548496
206	0xbf31a50c	-0.69392467
207	0x3e34da4a	0.17661396
208	0x3d8f9d16	0.07012384
209	0xbed5891e	-0.41706175
210	0xbf10f366	-0.56621397
211	0xbe8ae54f	-0.27128074
212	0xbe20b4d4	-0.1569398
213	0xbf483704	-0.7820895
214	0xbf5aaae6	-0.8541702
215	0xbdc138a5	-0.09434632
216	0xbf98a4b4	-1.1925263
217	0x3d64c02f	0.055847343
218	0xbe86ea9c	-0.26350868
219	0xbf1b05f5	-0.60555965
220	0x3ca6590e	0.020306136
221	0xbf46ede8	-0.77706766
222	0xbe725145	-0.23663814
223	0xbd45eb4d	-0.048320103
224	0xbe7b0921	-0.24515201
225	0xbe429da5	-0.19005449
226	0xbeadd07c	-0.33948123
227	0xbca5a4b3	-0.020220136
228	0xbe995dc2	-0.29954344
229	0xbf4b12cc	-0.79325557
230	0xbdff982c	-0.12480196
231	0xbeb3aa82	-0.35091025
232	0x3e75df05	0.24010856
233	0xbe8e4b7a	-0.2779196
234	0xbe916617	-0.283982
235	0x3ec02d49	0.3753455
236	0xbe85b382	-0.26113516
237	0xbf4302c8	-0.7617612
238	0xbd2326b8	-0.039831847
239	0xbf679dc8	-0.9047513
240	0x3c5ef20d	0.013607514
241	0xbf471e81	-0.7778092
242	0xbf342199	-0.70363766
243	0x3e21382e	0.15744087
244	0xbd10022f	-0.035158332
245	0xbf079d04	-0.5297396
246	0xbeb04636	-0.34428567
247	0xbe3484a7	-0.17628728
248	0x3dd4da9e	0.103932604
249	0xbef9ca1f	-0.4878702
250	0xbeed48f1	-0.46344712
251	0xbfd2eb0e	-1.6477983
252	0xbed2bee5	-0.41161266
253	0xbe090902	-0.13382342
254	0xbf0404db	-0.5156991
255	0xbeae0649	-0.3398917

transformer.layers.0.1.fn.fn.net.2.bias f4 [64]
0	0x3f19f109	0.60133415
1	0xbe94cbec	-0.2906183
2	0x3e1e6a3e	0.15470216
3	0xbef6c71c	-0.48198783
4	0xbf133013	-0.5749523
5	0x3f11a17a	0.5688702
6	0xbe903e8b	-0.28172716
7	0xbda29c09	-0.079399176
8	0x3f3cf555	0.73811847
9	0xbf2d3563	-0.67659587
10	0x3f32826a	0.69730246
11	0x3eaed9a6	0.34150428
12	0x3efcbf98	0.49364924
13	0x3ec07538	0.3758943
14	0xbd90897a	-0.070574716
15	0xbe4bf3ab	-0.1991717
16	0xbf842554	-1.0323892
17	0x3dea410e	0.114381894
18	0x3f9400f1	1.1562787
19	0xbd42df0b	-0.04757599
20	0x3cc2e323	0.023789948
21	0xbebf452a	-0.37357455
22	0xbd9dec59	-0.07711095
23	0xbf789519	-0.97102505
24	0xbfb38166	-1.4023864
25	0xbef2182b	-0.47284064
26	0xbee379ac	-0.44428766
27	0x3f25314a	0.64528334
28	0x3f546dd7	0.829801
29	0x3f992ba7	1.1966447
30	0x3f802166	1.0010192
31	0xbefbadcf	-0.49156043
32	0x3e40951d	0.18806882
33	0x3f7c7597	0.9861693
34	0xbeae62d0	-0.34059763
35	0xbee5631a	-0.4480217
36	0xbe29fb74	-0.16599828
37	0x3f2ae73a	0.66759074
38	0x3f36f3de	0.7146586
39	0x3f044dc7	0.5168118
40	0xbf0c428a	-0.5478903
41	0x3f7d447a	0.9893261
42	0xbe100bf9	-0.14067067
43	0xbf4b8881	-0.79505163
44	0x3e9b7bbd	0.30367842
45	0xbf413766	-0.75475156
46	0x3f9ee794	1.2414422
47	0x3f0fc4a9	0.56159455
48	0x3e6ccd0a	0.23125091
49	0xbf0d0ff4	-0.5510247
50	0x3ed5f617	0.41789314
51	0x3f079104	0.5295565
52	0x3eaa2d06	0.33237475
53	0xbf3f0d97	-0.7463011
54	0x3d10e3dc	0.035373554
55	0xbf33f94b	-0.70302266
56	0x3f787501	0.97053534
57	0xbd305fc2	-0.04306007
58	0x3ec450e9	0.3834298
59	0xbf41d7bb	-0.75719804
60	0x3de38602	0.11109544
61	0xbf89a813	-1.0754417
62	0x3c52148c	0.012822282
63	0x3dbe2859	0.092850395
