model_training/trained_models/model_1000_ViT_from_sweeps_0.pth (torch, 223624 bytes, 17 tensors)

patch_to_embedding.weight f4 [64, 192]
0	0x3f89a243	1.0752643
1	0x3fbc85a3	1.4728283
2	0x3fdf8a54	1.7464089
3	0x3f8019f2	1.0007918
4	0x3fc9d14e	1.5767
5	0x3fcb2faa	1.5873921
6	0x3f6b4ac6	0.9191097
7	0x3fc4b309	1.5367137
8	0x3fc531e2	1.5405848
9	0x3f5db061	0.8659726
10	0x3fc583b1	1.5430814
11	0x3fbf495e	1.4944265
12	0x3f70b0d8	0.9401984
13	0x3fcbd80c	1.5925307
14	0x3fdc183b	1.7194895
15	0x3f6dd94b	0.9290969
16	0x3fc74a9e	1.5569646
17	0x3fd9fc09	1.703004
18	0x3fb899e2	1.4421961
19	0x3fe57526	1.7926376
20	0x40031154	2.0479326
21	0x3fc6c8c1	1.5530015
22	0x3ff7d563	1.9361995
23	0x4011da4a	2.2789483
24	0x3ec19032	0.37805325
25	0x3f8bc0bd	1.0918194
26	0x3fbbb83d	1.46656
27	0x3db08b78	0.086203516
28	0x3f5ef90a	0.87098753
29	0x3f98eaed	1.1946694
30	0x3de85cf1	0.11345852
31	0x3f6a80c6	0.9160274
32	0x3f9a7c28	1.206914
33	0x3e9d1b46	0.3068487
34	0x3f80ab45	1.0052267
35	0x3f929ee6	1.1454742
36	0x3e9f95bd	0.3116893
37	0x3f7693c2	0.9631921
38	0x3f97ba35	1.1853701
39	0x3eb1152d	0.34586468
40	0x3f77eee4	0.96848893
41	0x3f92d238	1.1470404
42	0x3edee477	0.4353368
43	0x3fb207aa	1.3908589
44	0x3f96c19d	1.1777836
45	0x3fb04197	1.3770016
46	0x3fc7c878	1.5608053
47	0x3fe4213f	1.7822646
48	0xb5db3d06	-1.6334532e-06
49	0x3f26bedc	0.6513498
50	0x3f340f7a	0.70336115
51	0xb68b6e93	-4.1553953e-06
52	0x3f072758	0.5279441
53	0x3f05a630	0.52206707
54	0xb73cd069	-1.12541975e-05
55	0x3edbe20a	0.42945892
56	0x3f18ee71	0.5973883
57	0xb45707c0	-2.0026255e-07
58	0x3f1126fc	0.5670011
59	0x3f5f43d4	0.8721287
60	0x3b80ca55	0.00393037
61	0x3f1c26d1	0.6099673
62	0x3f855644	1.0416951
63	0x3b8d23a4	0.004307227
64	0x3f19e190	0.60109806
65	0x3f51ba1e	0.8192462
66	0x3ba5c79e	0.0050591966
67	0x3f280ebc	0.6564748
68	0x3f56342d	0.83673364
69	0x3d09b576	0.03362032
70	0x3f68f6d1	0.9100161
71	0x3f4cd3a0	0.80010414
72	0x3ca904f4	0.020632245
73	0x3f2bcd11	0.6710978
74	0x3e9b9718	0.30388713
75	0x3c4ef2cb	0.012631129
76	0x3f3207fe	0.69543445
77	0x3e6afe62	0.22948602
78	0x3b3b4061	0.0028572308
79	0x3f2324af	0.6372785
80	0x3e82e457	0.25564834
81	0x3b70e87b	0.0036759663
82	0x3efef1eb	0.49793944
83	0x3f05dc0d	0.52288896
84	0x3b7b51f8	0.0038348418
85	0x3ee05166	0.43812102
86	0x3f08e6e0	0.5347729
87	0x3ba17cff	0.004928231
88	0x3ee0c53e	0.43900484
89	0x3f0945af	0.53621954
90	0x3b2e8252	0.002662797
91	0x3ede8866	0.4346344
92	0x3f138a18	0.5763259
93	0x3b62d1cb	0.003460991
94	0x3ed6723f	0.41884038
95	0x3f23baaa	0.639567
96	0xb847a36b	-4.7597492e-05
97	0x3cfa0b3c	0.030522935
98	0x3d9aa36b	0.07550701
99	0xb9e6b820	-0.00044006202
100	0x3cdfb287	0.027306808
101	0x3d9b99f7	0.07597726
102	0xbc41c009	-0.01182557
103	0x3c386eb6	0.011256864
104	0x3ccef1cd	0.025261784
105	0xbbca64a3	-0.0061765476
106	0x3c9f5f0c	0.019454502
107	0x3d838b47	0.064230494
108	0xbc682f50	-0.014171436
109	0x3cf71358	0.030160591
110	0x3d7859bd	0.060632456
111	0xbc40c321	-0.011765272
112	0x3c29afe9	0.010356882
113	0x3c367704	0.011136774
114	0xb69ee9a3	-4.735966e-06
115	0x3ca7eacb	0.0204977
116	0x3d17548b	0.03694586
117	0xb78176f2	-1.5433387e-05
118	0x3c847001	0.016166689
119	0x3cb396c9	0.021922486
120	0xbafb9b46	-0.0019196055
121	0xbb153b22	-0.0022770842
122	0x39af7ca3	0.00033471463
123	0xb9c1fc26	-0.00036999694
124	0xbb4466d3	-0.0029968515
125	0x3a927d41	0.0011176245
126	0xb999fe1f	-0.0002937177
127	0xbbbe61ac	-0.0058099832
128	0x3b44832e	0.0029985416
129	0xba04bf58	-0.0005063913
130	0xbba0ddc5	-0.0049092495
131	0x3bc73514	0.0060793255
132	0xbb3fee98	-0.00292865
133	0xbaa92fce	-0.0012907924
134	0x3b6c85a1	0.0036090391
135	0xbb07a4cb	-0.002069759
136	0xba383db1	-0.00070282357
137	0x3b65d363	0.0035068623
138	0xba896402	-0.0010482075
139	0x3b18f772	0.0023340848
140	0x3b1ca667	0.0023902894
141	0xba544f4f	-0.0008098976
142	0x3a121790	0.0005572969
143	0x3a9ac4c2	0.0011807906
144	0xba6a628a	-0.0008941075
145	0xb8a5b19d	-7.900896e-05
146	0xb9963f2f	-0.00028657305
147	0xbb401e07	-0.0029314773
148	0xb93c498a	-0.00017956473
149	0xb9885ed8	-0.00026010606
150	0xbe45d8a3	-0.19320922
151	0xbe425869	-0.18979038
152	0xb905f149	-0.00012773754
153	0xbe4b3eab	-0.19848125
154	0xbe45853a	-0.19289103
155	0xb997b960	-0.0002893908
156	0xbb7129b6	-0.0036798543
157	0xb8eaf562	-0.000112036956
158	0xb9c7e867	-0.0003812939
159	0xbb4c66cf	-0.0031189208
160	0xb8a41dd9	-7.825689e-05
161	0xba8f916f	-0.0010953377
162	0xbd44c76a	-0.04804174
163	0xbd0eb096	-0.034836374
164	0x3a15f640	0.0005720593
165	0xbd347e8c	-0.044065997
166	0xbd0fb9e4	-0.03508939
167	0x3aa9834c	0.0012932806
168	0xbed530a8	-0.41638684
169	0xbec97acd	-0.39351502
170	0xb8110e5d	-3.458407e-05
171	0xbede2a0d	-0.43391457
172	0xbece6029	-0.4030774
173	0xb8425352	-4.6330802e-05
174	0xbedfb3e5	-0.43691936
175	0xbed41d4c	-0.41428602
176	0xb862e660	-5.4097152e-05
177	0xbc7b07ca	-0.015321681
178	0xbb050248	-0.002029555
179	0xb8957786	-7.1271366e-05
180	0xbbdad28d	-0.0066779316
181	0xb962dba5	-0.00021634864
182	0xb96ae4ca	-0.0002240121
183	0xbbd91a5d	-0.006625457
184	0xb9834de3	-0.00025044297
185	0xb919cd7b	-0.00014667764
186	0xbbc31eff	-0.0059546228
187	0xb960d4fc	-0.00021441648
188	0xb8489708	-4.7824375e-05
189	0xbb7238d1	-0.0036960135
190	0xb840c63b	-4.5960984e-05
191	0xb8ad766c	-8.2713406e-05
192	0x3f99d210	1.2017231
193	0x3f96838a	1.1758893
194	0x3ff780d7	1.9336194
195	0x3fa15868	1.2605104
196	0x3fb12efd	1.3842465
197	0x3fe73ea6	1.8065994
198	0x3fc03698	1.5016661
199	0x3fcdf0b0	1.6089077
200	0x400637b8	2.0971508
201	0x3fdbef48	1.7182398
202	0x3fe995e8	1.8248873
203	0x4016a053	2.3535354
204	0x3fef6945	1.8704001
205	0x3ffbe4ce	1.9679201
206	0x402b78ac	2.6792402
207	0x3fddcb5f	1.7327689
208	0x40025601	2.0364993
209	0x402c8b54	2.696004
210	0x40095990	2.1460915
211	0x400f9fbe	2.244125
212	0x4043db2a	3.0602517
213	0x4015a214	2.3380175
214	0x400eafc2	2.2294774
215	0x4059d8bb	3.4038532
216	0x3efacbc3	0.48983583
217	0x3f2bf0eb	0.67164487
218	0x3fba50c2	1.4555895
219	0x3ea78148	0.3271582
220	0x3ef461ba	0.4773081
221	0x3fac1b84	1.3445897
222	0x3f4e50cb	0.8059203
223	0x3f311dbd	0.69186
224	0x3fb3a00e	1.403322
225	0x3f5b277c	0.85607123
226	0x3f612ede	0.8796214
227	0x3fa5075c	1.2892871
228	0x3f330c41	0.6994057
229	0x3f313f63	0.69237345
230	0x3fa10f4a	1.2582791
231	0x3f394d7d	0.7238386
232	0x3f1cf3b5	0.6130937
233	0x3f97057f	1.1798552
234	0x3f66fdb8	0.90230894
235	0x3f8971e3	1.073788
236	0x3fa6a1f1	1.301817
237	0x3fb76748	1.4328394
238	0x3f738de2	0.9513837
239	0x3fb4b6bc	1.4118266
240	0x3e90f9b4	0.28315508
241	0x3f00a949	0.5025831
242	0x3f8882fc	1.0664973
243	0x3e6f5128	0.23370802
244	0x3ec131ac	0.3773321
245	0x3f3410bb	0.7033803
246	0x3e60f20c	0.21967334
247	0x3e43119d	0.19049688
248	0x3f4d85b6	0.8028215
249	0x3e830be2	0.25595003
250	0x3eba218b	0.36353716
251	0x3f78e60a	0.9722601
252	0x3df231bf	0.118258946
253	0x3eb51b29	0.35372284
254	0x3f8933b8	1.0718908
255	0x3e12b97b	0.14328568

patch_to_embedding.bias f4 [64]
0	0x40150c83	2.3288887
1	0x40189656	2.3841758
2	0x3f8f0771	1.1174146
3	0x3fb218c7	1.3913811
4	0x4029abed	2.6511185
5	0xbef91f9d	-0.48656932
6	0xbfc09328	-1.5044909
7	0x405e954b	3.4778621
8	0x4058b167	3.3858278
9	0xc01139a7	-2.2691438
10	0x3fc07ffd	1.5039059
11	0xc08acd34	-4.337549
12	0x3ed132f9	0.40859202
13	0xc019113b	-2.3916767
14	0x40aae225	5.3401055
15	0xc0663339	-3.5968764
16	0x40aaec8f	5.341377
17	0xbe84e2bc	-0.25954235
18	0xbf94a516	-1.161288
19	0xbd4efe06	-0.050535224
20	0xc090c65a	-4.524213
21	0xc0463781	-3.0971377
22	0x3f659fd9	0.89697033
23	0x40aa3e61	5.3201146
24	0x40b485f6	5.6413527
25	0xbfbd919e	-1.4810064
26	0xc01ef432	-2.4836545
27	0x405278c0	3.28862
28	0x3f423dbe	0.7587546
29	0xc0aceb57	-5.403728
30	0xbf5e3ef6	-0.8681482
31	0xc0193e43	-2.3944252
32	0xc02f1bd8	-2.7360744
33	0x3fd5ec57	1.671275
34	0x3fd3cf38	1.6547613
35	0x40c01551	6.002602
36	0x3f949400	1.1607666
37	0xc0183a0a	-2.3785424
38	0x3f478ad7	0.7794623
39	0x3f2d0905	0.6759189
40	0xbe698a9a	-0.22806779
41	0xc0b15212	-5.5412683
42	0x3f799db8	0.97506285
43	0x40b9e3fd	5.8090806
44	0xbf02bd06	-0.51069677
45	0x4100c5c2	8.048281
46	0xbf225cc5	-0.63422805
47	0xbfebcb6f	-1.8421458
48	0xbfe14f2f	-1.760229
49	0x3fb118a0	1.383564
50	0xc00ad22f	-2.1690786
51	0x400f7c0e	2.2419467
52	0x3fed01ea	1.8516209
53	0xc06278e3	-3.5386283
54	0xbf2741e0	-0.6533489
55	0x40a07a97	5.0149646
56	0xc00f65cf	-2.240589
57	0x40cdf975	6.4367013
58	0x3f113c73	0.56732863
59	0xbf8eea7d	-1.116531
60	0x3e927b6b	0.28609785
61	0x3ebf717c	0.3739127
62	0x3c94a518	0.01814513
63	0xc054c075	-3.3242466

transformer.layers.0.0.fn.norm.weight f4 [64]
0	0x401f30cc	2.4873533
1	0xbfc8cb66	-1.5687072
2	0x402b81c6	2.6797957
3	0x3ec5f8ca	0.38666373
4	0x3db14476	0.08655636
5	0x3f59ef19	0.8513046
6	0x3ef64eab	0.48106894
7	0x403aa53f	2.9163358
8	0xbfce368c	-1.6110396
9	0x3ff3cc51	1.9046727
10	0x400ccb15	2.1998951
11	0x409d888a	4.9229174
12	0x4018b11f	2.3858106
13	0x3ff1fe6b	1.8905767
14	0x40927b8b	4.577581
15	0xbea00fdd	-0.31262103
16	0xc05cd782	-3.4506536
17	0xbfb36bdc	-1.4017291
18	0xc0642b04	-3.5651255
19	0xbe9514e5	-0.29117504
20	0xc01990f1	-2.3994715
21	0x403a6daf	2.9129446
22	0x3e09836c	0.1342904
23	0xc01d1627	-2.454477
24	0x406ca656	3.6976523
25	0xc032e954	-2.7954912
26	0xc0570f7d	-3.3603203
27	0xbec2ae96	-0.38023823
28	0xbfe482b9	-1.7852393
29	0xc06e5119	-3.7236998
30	0xc0684db1	-3.629742
31	0x4020cfe0	2.5126877
32	0x4081e433	4.0591063
33	0xbd52831f	-0.051394578
34	0xc007eb40	-2.1237335
35	0xc042b578	-3.042326
36	0x3ee9a758	0.45635486
37	0x4074f5a0	3.8274918
38	0x405323f6	3.29907
39	0xc0093970	-2.1441307
40	0xbfaddfbf	-1.3583907
41	0xc09bd6a3	-4.869951
42	0x3f5f8b48	0.873219
43	0xbfe7b549	-1.8102199
44	0x3e4389b6	0.19095501
45	0x40892126	4.2852964
46	0x3fa6b346	1.302346
47	0xbf32b313	-0.69804496
48	0x401539bb	2.3316486
49	0x3fbc56f9	1.4714042
50	0x3ed68976	0.4190175
51	0x40163b4b	2.347369
52	0xbff67eab	-1.9257406
53	0xbf2d9848	-0.6781049
54	0xc04338ad	-3.0503342
55	0x3f2e68e0	0.68128777
56	0x3fd3bc75	1.6541888
57	0x409ee253	4.9651275
58	0xbf989352	-1.1919959
59	0xc0118c90	-2.2742043
60	0x3ea848cd	0.32868043
61	0xbfaae6c3	-1.3351673
62	0xbff8cc00	-1.9437256
63	0xc0333d54	-2.8006182

transformer.layers.0.0.fn.norm.bias f4 [64]
0	0x4059ddfb	3.4041736
1	0xc0895a3b	-4.2922645
2	0x400f1c6d	2.23611
3	0xbeabbbd5	-0.33541742
4	0x3fa51ee4	1.2900052
5	0x3ee82d5e	0.45347112
6	0x3f452433	0.7700836
7	0x3f6dd385	0.9290088
8	0xbe648b2b	-0.22318713
9	0x408b7cc7	4.3589816
10	0xc06c6117	-3.693426
11	0x3f4dcc68	0.80390024
12	0xc0868c57	-4.2046313
13	0x406a2acf	3.6588628
14	0x403cd30f	2.950382
15	0x3e2cd971	0.16879822
16	0xc08ee6d2	-4.4656763
17	0xbf02de0c	-0.51120067
18	0x40a29cc8	5.0816383
19	0x3f7ff749	0.999867
20	0x3f8a836b	1.0821356
21	0x40633bb1	3.5505183
22	0x3efc1584	0.49235165
23	0xbf844ad6	-1.0335338
24	0x3fdb67c2	1.7141039
25	0x402ba4a6	2.6819243
26	0x4088ccc3	4.2749953
27	0x3f76412b	0.9619319
28	0x407ca625	3.9476407
29	0x40a286ab	5.078939
30	0x409bc8b7	4.8682513
31	0xc06d71d3	-3.7100723
32	0xc039ec86	-2.9050612
33	0x40739ee0	3.806572
34	0xbe1fe30b	-0.15613954
35	0xc02d3aae	-2.7067065
36	0x40525739	3.2865736
37	0xc0855c18	-4.167492
38	0xc0b14f34	-5.5409184
39	0x4080a1f5	4.01977
40	0x405f5bda	3.4899812
41	0x40941920	4.628067
42	0xbf70ae18	-0.94015646
43	0xbf2a8e42	-0.6662332
44	0x40945d59	4.636395
45	0x402d0a32	2.7037473
46	0xc033c785	-2.8090527
47	0x409de626	4.9343443
48	0xc096f7fa	-4.7177706
49	0x408bcc7c	4.3687115
50	0xc05b0f8f	-3.4228246
51	0x407217b3	3.7826965
52	0x400c0057	2.1875207
53	0xbf02b2a0	-0.5105381
54	0x3f07b90b	0.5301673
55	0xbd427976	-0.047479115
56	0xc08f0271	-4.469048
57	0x4066962d	3.602916
58	0x409efca1	4.9683385
59	0xc0a22870	-5.067436
60	0xc0a2bbb0	-5.085411
61	0xbf950335	-1.1641604
62	0x40966245	4.699496
63	0xc04ad8df	-3.1694868

transformer.layers.0.0.fn.fn.to_qkv.weight f4 [192, 64]
0	0x3e958d30	0.2920928
1	0xbcd234fb	-0.025660029
2	0x3306808b	3.1316215e-08
3	0xb4c62c8f	-3.6912795e-07
4	0x3ba188e1	0.0049296473
5	0xbdf5d7b0	-0.1200403
6	0x38893b7d	6.5437496e-05
7	0xbdfa224b	-0.12213572
8	0xa4ea1f04	-1.01533866e-16
9	0x3e4d2d20	0.20036745
10	0xbd8401cb	-0.064456545
11	0x390a832f	0.00013209575
12	0xbca434c2	-0.020044688
13	0x391339d6	0.00014040558
14	0x3d2907dd	0.041267265
15	0x26210330	5.5862416e-16
16	0x3d0ae5c7	0.03391054
17	0x3c0bdaff	0.008536099
18	0xbcfb6450	-0.030687481
19	0x37d5aa95	2.5471012e-05
20	0x3e3740e5	0.17895849
21	0x3e0b7eca	0.13622585
22	0x3df7452f	0.120737426
23	0xbd02b1c0	-0.031907797
24	0x3e276c85	0.1634999
25	0xac47dd9e	-2.8402623e-12
26	0x39cb4acc	0.00038774905
27	0x3afc7699	0.0019261419
28	0x3e00a24d	0.12561913
29	0xbd3344f8	-0.043766946
30	0x3b376400	0.0027983189
31	0xbad00ba0	-0.0015872605
32	0xbc18c288	-0.009323724
33	0x3c4f4b5f	0.012652247
34	0x3d8d8e86	0.0691195
35	0xbbf39caf	-0.0074344496
36	0x3cd2cd4a	0.025732655
37	0x3aaeb43b	0.0013328859
38	0xbcb1b7b9	-0.021694051
39	0x3e146b71	0.1449411
40	0x3e0bc39c	0.13648838
41	0xbcfb4c7c	-0.030676119
42	0x3c298eee	0.0103490185
43	0xbdfb0ae1	-0.12257934
44	0x3cafa20f	0.02143958
45	0x3da13d6c	0.078730434
46	0xbd88260d	-0.066478826
47	0x3c46e197	0.012138746
48	0xbc0cfee8	-0.008605696
49	0x3c3aa27d	0.011391279
50	0xbd4f68e8	-0.050637156
51	0x3e6a80e7	0.22900735
52	0x3c24a622	0.010049375
53	0xb808f3a3	-3.265183e-05
54	0xb97a149e	-0.00023849538
55	0x3da2eda8	0.079554856
56	0x3b82d95d	0.003993197
57	0x3c012d93	0.007884401
58	0x3c04507a	0.008075828
59	0x3cd84f8c	0.026405118
60	0xb9fe63c1	-0.00048520978
61	0x3a4b8710	0.00077639613
62	0xbb2574a2	-0.002524652
63	0xbc61d727	-0.0137842065
64	0xbf78fa7a	-0.97257197
65	0x3e917557	0.28409836
66	0xb75d171b	-1.3178006e-05
67	0x3a532fe0	0.0008056145
68	0xbc898cbd	-0.016790742
69	0x3dbd142a	0.092323616
70	0xbb0a5f04	-0.0021113763
71	0x3e022318	0.127087
72	0x2d4c9155	1.1628328e-11
73	0xbf10bc2f	-0.56537145
74	0x3eb86cc5	0.36020485
75	0xbb2c3449	-0.0026276282
76	0x3eef3242	0.4671803
77	0xbb40b2b1	-0.0029403383
78	0xbe819c64	-0.2531463
79	0xaf813261	-2.350076e-10
80	0x3f741292	0.95340836
81	0xbd491570	-0.04909271
82	0xbf851f9d	-1.0400273
83	0xbaa27a90	-0.0012396146
84	0xbeb413f1	-0.35171464
85	0xbf287cee	-0.6581563
86	0xbf61a21d	-0.8813799
87	0x3e1c829b	0.15284197
88	0xbeae00f5	-0.33985105
89	0x31b660eb	5.3079154e-09
90	0xbdb5e2d4	-0.08881155
91	0xbf2267c2	-0.6343957
92	0xbf3088b4	-0.6895859
93	0xbf5bef78	-0.85912275
94	0xbf34b08b	-0.70581883
95	0x3cf39ef0	0.029738873
96	0x3d5643c3	0.052310716
97	0xbeab6264	-0.33473504
98	0xbdbaac7e	-0.091149315
99	0x3d35e8e8	0.04441157
100	0xbdcc5031	-0.09976233
101	0x3f0c76b0	0.548686
102	0x3f8a8e2c	1.0824637
103	0xbf432d76	-0.7624124
104	0xbf5480e9	-0.830092
105	0xbf6edc56	-0.93304956
106	0xbd034bd9	-0.032054756
107	0x3e8a315a	0.26990777
108	0xbe8fe2c8	-0.28102708
109	0xbea81c05	-0.32833877
110	0x3d85d0fd	0.06534002
111	0xbf05c7ac	-0.522578
112	0x3eb55a3f	0.35420415
113	0xbf023004	-0.50854516
114	0x3e21c4ea	0.15797773
115	0xbf8ffa0e	-1.1248186
116	0xbd6b73c0	-0.057483435
117	0x3aa5f65a	0.001266192
118	0x3bd543ac	0.0065083113
119	0xbe2b8974	-0.16751653
120	0x3ed3b1fc	0.4134673
121	0xbe0be511	-0.136616
122	0xbf0322a0	-0.5122471
123	0x3f776526	0.96638715
124	0x3ecb81c6	0.39747447
125	0x3e10f61b	0.14156382
126	0xbf54b207	-0.8308415
127	0x3db5f8c0	0.08885336
128	0xbe92c048	-0.28662324
129	0x3c96ebfc	0.018423073
130	0xb29985a9	-1.7872326e-08
131	0xb644e29d	-2.9338182e-06
132	0xbb89e357	-0.004208009
133	0x3ddf0260	0.10889125
134	0xb83bdf9b	-4.4792523e-05
135	0x3de3bf9b	0.1112053
136	0x24b49a5a	7.832404e-17
137	0xbe2ad2e9	-0.16682018
138	0x3d6f4ef8	0.05842492
139	0xb8cf1c3e	-9.87579e-05
140	0x3c29620d	0.0103383185
141	0xb8da9c25	-0.00010424134
142	0xbd15bb83	-0.03655578
143	0xa5326bfb	-1.5475624e-16
144	0xbd12eecd	-0.03587227
145	0xbbea39dc	-0.0071480107
146	0x3d210d4d	0.039319325
147	0xb78af6c9	-1.65658e-05
148	0xbe456e48	-0.1928035
149	0xbe016b1a	-0.12638512
150	0xbdee9955	-0.116503395
151	0x3ce76bc9	0.028249638
152	0xbe348f4f	-0.17632793
153	0x2c4a8781	2.8781146e-12
154	0x3966111e	0.00021940886
155	0x3c9da258	0.01924245
156	0xbdf1af07	-0.11800962
157	0x3d4ffaf8	0.05077645
158	0x3c42591a	0.011862064
159	0x3aad8d6d	0.0013241001
160	0x3c02f794	0.007993598
161	0xbc097279	-0.008389109
162	0xbd7ea77d	-0.062171448
163	0x3bc2604d	0.00593189
164	0xbcb85c94	-0.022505082
165	0xbba01a8d	-0.0048859776
166	0x3abe9865	0.0014541267
167	0xbe0d685d	-0.13809343
168	0xbe095e9c	-0.13414997
169	0x3d3aed7f	0.04563665
170	0xbc1283f5	-0.008942594
171	0x3e041945	0.12900265
172	0xbc7417aa	-0.01489822
173	0xbd93dae5	-0.07219485
174	0x3d74f4e2	0.05980385
175	0xbaa3fe17	-0.0012511638
176	0x3b5aa963	0.0033365123
177	0xba61ea54	-0.00086179865
178	0x3d363707	0.044486072
179	0xbe64b9ac	-0.22336453
180	0xbc0c7c49	-0.008574554
181	0x37bd78e5	2.2586852e-05
182	0x394129a0	0.00018421421
183	0xbd9dc1e6	-0.07702999
184	0xbbc21090	-0.0059223846
185	0xbbb3307c	-0.0054684263
186	0xb9c4687f	-0.0003746189
187	0xbd0e88d5	-0.034798462
188	0xbbba9ad1	-0.005694725
189	0xba9a1107	-0.0011754342
190	0x3c5ce006	0.013481146
191	0x3c4215f8	0.011846058
192	0x3f8102f2	1.0079024
193	0xbe921079	-0.28528193
194	0x373cfa2a	1.1263919e-05
195	0xba44ce4e	-0.00075075484
196	0x3c6c4b9e	0.014422325
197	0xbd9df6d0	-0.077130914
198	0x3afbdc18	0.0019215373
199	0xbde0a234	-0.10968438
200	0xad103261	-8.196639e-12
201	0x3f0fe257	0.5620474
202	0xbebbfd47	-0.36716673
203	0x3b1a090e	0.0023503932
204	0xbef0de8e	-0.47044796
205	0x3b2fa7a9	0.0026802814
206	0x3e842a16	0.2581336
207	0x2f3ca4fa	1.7157112e-10
208	0xbf754eb4	-0.95823216
209	0x3d3fc9ac	0.04682319
210	0x3f86eefd	1.0541683
211	0x3a941e57	0.0011300546
212	0x3eb119a9	0.3458989
213	0x3f2d330c	0.67656016
214	0x3f66165b	0.8987786
215	0xbe1d6a2e	-0.15372536
216	0x3eab2f44	0.33434498
217	0xb19798a0	-4.41203e-09
218	0x3db35cf8	0.08757967
219	0x3f245f38	0.6420779
220	0x3f34af8a	0.7058035
221	0x3f5dad99	0.86593014
222	0x3f36df9e	0.7143496
223	0xbcf1b886	-0.029506933
224	0xbd4c3e48	-0.049864084
225	0x3eac03a1	0.3359652
226	0x3dad8f5f	0.084746115
227	0xbd2f65e9	-0.0428218
228	0x3dc7b66c	0.09751591
229	0xbf0cbe6d	-0.54978067
230	0xbf8c0563	-1.0939144
231	0x3f48fa92	0.7850734
232	0x3f5a13a4	0.8518622
233	0x3f71bc34	0.944278
234	0x3cf15f69	0.02946444
235	0xbe8779a7	-0.2646
236	0x3e8ff784	0.28118527
237	0x3eac072f	0.3359923
238	0xbd5ee242	-0.054414995
239	0x3f070cfb	0.5275418
240	0xbeb5560b	-0.35417208
241	0x3f03562e	0.51303375
242	0xbe1f5788	-0.15560734
243	0x3f94d861	1.1628534
244	0x3d60ee57	0.0549148
245	0xba96de0b	-0.0011510266
246	0xbbcd4c36	-0.0062651886
247	0x3e24d0a7	0.1609522
248	0xbed2c9db	-0.41169629
249	0x3e0aefb0	0.13567996
250	0x3f03bac6	0.5145687
251	0xbf7a55b5	-0.9778703
252	0xbecc4db6	-0.3990304
253	0xbe0f824d	-0.1401455
254	0x3f56f4de	0.8396739
255	0xbdb5b4d5	-0.088723816

transformer.layers.0.0.fn.fn.to_out.weight f4 [64, 64]
0	0x40529368	3.290247
1	0x3e59d9b5	0.21274455
2	0xc04d1410	-3.2043495
3	0x4039e9a7	2.904886
4	0xc02bd644	-2.6849527
5	0x3e47ef5e	0.19524905
6	0xc052d7e7	-3.2944276
7	0xc048aa2f	-3.1353872
8	0xc04b750d	-3.1790192
9	0x3f9afce5	1.2108427
10	0xc040438a	-3.0041223
11	0xc052ec53	-3.295674
12	0xbfe15c45	-1.7606283
13	0xc0534ea9	-3.301676
14	0xbfe7b084	-1.8100743
15	0x4016da6b	2.3570812
16	0xc0013e42	-2.019425
17	0xc053685a	-3.303244
18	0x404ec0c2	3.230515
19	0xbe3f04ba	-0.18654147
20	0xc04922db	-3.1427524
21	0xc0555e6c	-3.333888
22	0x40556ec1	3.334885
23	0xc04cb815	-3.1987355
24	0xbfa40c60	-1.2816277
25	0x4055ad3a	3.338698
26	0xbe571575	-0.21004279
27	0x404c3fc1	3.1913912
28	0x401a09a6	2.406839
29	0xc0516096	-3.2715201
30	0x404dbc39	3.2146132
31	0xc0501fe1	-3.2519457
32	0x3dda9fa5	0.10674981
33	0x40056e11	2.084843
34	0x40087d4b	2.1326473
35	0x3f24d79b	0.6439149
36	0x3fe4a20b	1.7861952
37	0x3f97cfde	1.1860311
38	0x3fcb37a0	1.587635
39	0x3fd8bede	1.6933248
40	0xc012bb81	-2.2926943
41	0x3eecdf9e	0.46264356
42	0x3f80eee1	1.00729
43	0x40009541	2.0091097
44	0xbe485554	-0.195638
45	0x3f0e4924	0.55580354
46	0x3e958c08	0.29208398
47	0x3e8b34e7	0.271888
48	0x3ff81fd1	1.938471
49	0x3ffd9eda	1.9814103
50	0x3c98eb75	0.018666962
51	0xbfc5374f	-1.5407504
52	0xc006b6bb	-2.104903
53	0xbec3565a	-0.3815182
54	0xbefbcc7d	-0.4917945
55	0xc002d775	-2.0444005
56	0xbefe1f17	-0.49633095
57	0xbc47d016	-0.012195608
58	0xc004a772	-2.07272
59	0x3fd39bf5	1.6531969
60	0x4001a1dc	2.025504
61	0xc00daeb9	-2.2137892
62	0x3fa2220f	1.2666644
63	0x3fde6da0	1.7377205
64	0xc0110164	-2.2657099
65	0x40012466	2.0178466
66	0x4006020c	2.093875
67	0xc00274d3	-2.0383804
68	0x3fea83da	1.8321488
69	0x4002ce54	2.0438433
70	0x40106d97	2.2566888
71	0x400ea859	2.2290251
72	0x400ef208	2.2335224
73	0x3f6edfaf	0.93310064
74	0x40072a2c	2.111949
75	0x4013d0b3	2.309613
76	0x3fae63e1	1.3624231
77	0x40170a51	2.3600047
78	0x3f86ae31	1.0521909
79	0xbf579611	-0.8421336
80	0x3fb8ef4b	1.4448026
81	0x4017a6bb	2.3695514
82	0xc00fce65	-2.2469723
83	0xbfdc44d3	-1.7208503
84	0x400e636a	2.2248178
85	0x40192e8e	2.3934665
86	0xc0153d6e	-2.3318744
87	0x400deaa0	2.2174454
88	0x3f8839f5	1.0642687
89	0xc0189b97	-2.3844965
90	0xbfec5f06	-1.8466499
91	0xc00d9a7f	-2.2125547
92	0xbfd3d6e2	-1.6549952
93	0x40137251	2.3038523
94	0xc01041a5	-2.2540066
95	0x400f8348	2.2423878
96	0x40035e8e	2.0526462
97	0xbedf8484	-0.4365579
98	0xbeef1de6	-0.46702498
99	0x3fda75d5	1.706721
100	0x3c63318f	0.013866796
101	0x3fad09f3	1.3518661
102	0x3ed8c05a	0.42334253
103	0x3e5e656c	0.21718377
104	0x3f1ef543	0.6209299
105	0xc007f029	-2.1240332
106	0x3f303c47	0.68841976
107	0xbeab4ad1	-0.33455518
108	0xbf0afce2	-0.5429212
109	0x3fe0d00c	1.7563491
110	0x3fc1fdb9	1.5155555
111	0xbff524eb	-1.9151891
112	0xbe7441a6	-0.23853168
113	0xbe98d776	-0.29851884
114	0x3fe03fd6	1.7519481
115	0xbf0dc6b0	-0.553813
116	0x3ee79e07	0.45237753
117	0xbfed7659	-1.8551742
118	0x400ba17d	2.1817315
119	0x3ec5962b	0.38591132
120	0x4004ea77	2.0768106
121	0x40093b73	2.1442535
122	0x3ed82c68	0.4222138
123	0x3e920dfe	0.285263
124	0xbe9b2474	-0.3030125
125	0x3f18165d	0.59409124
126	0xbf03f3a3	-0.51543635
127	0x3e98b4cb	0.29825434
128	0x40592bbe	3.3932948
129	0xbf69b157	-0.91286224
130	0xc055b759	-3.3393157
131	0x40450eae	3.079021
132	0xc039f09d	-2.9053109
133	0xbf719c98	-0.9437957
134	0xc05964e5	-3.396783
135	0xc050ec66	-3.2644286
136	0xc0536a9f	-3.3033826
137	0x3dc0ff66	0.094237134
138	0xc04aba14	-3.1676073
139	0xc0593266	-3.393701
140	0xbfaa3557	-1.3297528
141	0xc059298f	-3.3931615
142	0xbfb4f98c	-1.4138656
143	0x4036fef1	2.8593104
144	0xbffba8b8	-1.9660864
145	0xc0591f34	-3.3925295
146	0x40566835	3.3501103
147	0x3f46c4a3	0.77643794
148	0xc051b113	-3.2764328
149	0xc05a88ff	-3.4146116
150	0x405b2a53	3.4244583
151	0xc054ca77	-3.3248575
152	0xbf05eef5	-0.52317744
153	0x405a9527	3.4153535
154	0x3f59c65f	0.85068315
155	0x405470f3	3.3193939
156	0x4025f0e2	2.5928273
157	0xc057dbea	-3.3727975
158	0x405592bf	3.3370817
159	0xc05767e2	-3.3657155
160	0xbf6e5f6b	-0.93114346
161	0x400a5074	2.1611605
162	0x400ddabd	2.2164757
163	0xbebb59be	-0.36591905
164	0x3fb77f69	1.4335757
165	0x3d13bfbb	0.03607152
166	0x3f5f5c17	0.8724989
167	0x3f9dcb9f	1.2327765
168	0xc0193526	-2.393869
169	0x3ffe5ea3	1.9872631
170	0xbefb56e2	-0.49089724
171	0x3ffda747	1.9816674
172	0x3f5aeba3	0.85515803
173	0xbee65521	-0.44986823
174	0xbfc9b87b	-1.5759424
175	0x3ff7d480	1.9361725
176	0x3fe70ae5	1.80502
177	0x3ff22ab1	1.8919278
178	0xbfe7b5b4	-1.8102326
179	0xbf3aa3bb	-0.7290608
180	0xc00c3f0b	-2.1913478
181	0x3f101ba9	0.56292206
182	0xbfe656ff	-1.7995299
183	0xc000f223	-2.0147789
184	0xbfe3c965	-1.7795836
185	0xbf86de5f	-1.0536612
186	0xc007d6f5	-2.122495
187	0x3f8557ce	1.0417421
188	0x4001cd8d	2.0281708
189	0xc012fc68	-2.2966557
190	0x3eb3f3b3	0.35146865
191	0x3f9a7787	1.2067727
192	0xc091b800	-4.553711
193	0xbea54886	-0.32281893
194	0x408e72f2	4.4515314
195	0xc081721c	-4.0451794
196	0x40720882	3.7817693
197	0xbe9a7115	-0.301644
198	0x4091d3b2	4.5570917
199	0x408b6250	4.355751
200	0x408d2436	4.4106703
201	0xbf891ac2	-1.0711291
202	0x4085eb55	4.184977
203	0x4091d290	4.5569534
204	0x4025548d	2.5832856
205	0x4091e52b	4.5592246
206	0x40088ba7	2.1335237
207	0xc04af50a	-3.171206
208	0x40391ee1	2.8925097
209	0x4091ec51	4.560097
210	0xc08f6a3f	-4.4817195
211	0x3e8bb0c4	0.272833
212	0x408bae76	4.3650465
213	0x40932d5a	4.599286
214	0xc0935356	-4.603923
215	0x408e3405	4.44385
216	0x3ff1ebb3	1.8900055
217	0xc0936edd	-4.607283
218	0x3eabb988	0.33539987
219	0xc08df505	-4.4361596
220	0xc05aea36	-3.420545
221	0x4090de1c	4.527113
222	0xc08e6c63	-4.450731
223	0x409040a6	4.5078917
224	0x3e5a3449	0.21309008
225	0xc040b16a	-3.0108285
226	0xc04426c9	-3.0648673
227	0xbc21b121	-0.009868891
228	0xc019cbba	-2.4030595
229	0xbf3a7fa0	-0.7285099
230	0xbff93663	-1.9469723
231	0xc00b8a68	-2.1803226
232	0x4051c8e0	3.2778854
233	0xbf61194b	-0.8792922
234	0xbd5f5cd0	-0.054531872
235	0xc036b792	-2.8549542
236	0xbdac9b93	-0.08428111
237	0x3d07353f	0.033009764
238	0x3ef9b85c	0.48773468
239	0xbf7464a0	-0.9546604
240	0xc02e11fc	-2.7198477
241	0xc03318c3	-2.7983863
242	0x3f48b620	0.784029
243	0x3fe6bff9	1.8027335
244	0x404231ad	3.034282
245	0xbd726875	-0.05918165
246	0x3f5355f5	0.82553035
247	0x403a57ec	2.9116163
248	0x3f6a74c7	0.9158444
249	0x3e5806c1	0.21096326
250	0x403f6917	2.9907892
251	0xc00631c5	-2.0967877
252	0xc036efdc	-2.8583899
253	0x404c8572	3.1956449
254	0xbfb474f7	-1.4098195
255	0xc0074fc2	-2.114243

transformer.layers.0.0.fn.fn.to_out.bias f4 [64]
0	0xa63356af	-6.222058e-16
1	0xa5b60907	-3.1578084e-16
2	0x28ae4974	1.9349736e-14
3	0xa64a1650	-7.011307e-16
4	0xabb34811	-1.2738717e-12
5	0xaa96305f	-2.6678917e-13
6	0xa9cccecf	-9.0952955e-14
7	0x24b02e0d	7.6405846e-17
8	0x2e84e096	6.0425595e-11
9	0xa612e197	-5.0959657e-16
10	0x2addff26	3.943453e-13
11	0x2ffda922	4.6140608e-10
12	0x262380c1	5.672648e-16
13	0x288156b0	1.4359472e-14
14	0xb1a01f15	-4.6601465e-09
15	0x308f6beb	1.0435292e-09
16	0x25aa51a2	2.9545616e-16
17	0x292c9757	3.832294e-14
18	0xabc1af46	-1.3762123e-12
19	0xa626b0b2	-5.7832286e-16
20	0x2516613f	1.3043374e-16
21	0xabffd6cc	-1.8178458e-12
22	0xa68ed33c	-9.910485e-16
23	0xb1362ee9	-2.651115e-09
24	0xae99223a	-6.963714e-11
25	0xb321ad45	-3.764332e-08
26	0xa9b43121	-8.002128e-14
27	0xa5124ee5	-1.2690212e-16
28	0x25e8fcb7	4.041683e-16
29	0x25a43b28	2.848955e-16
30	0x2a55d155	1.8990827e-13
31	0xa609247c	-4.758087e-16
32	0x24d9aadd	9.43982e-17
33	0x25c0924e	3.340583e-16
34	0xa62d4aeb	-6.0122965e-16
35	0xafdb30f8	-3.9870662e-10
36	0xb21e598a	-9.217169e-09
37	0x2d65e848	1.306872e-11
38	0x32c9a464	2.3474236e-08
39	0x2d2a8a00	9.694023e-12
40	0xa64e4013	-7.1557444e-16
41	0xa405d73f	-2.9022098e-17
42	0xa5b5ad67	-3.1515997e-16
43	0xa9ee990f	-1.05958746e-13
44	0x25b42904	3.1252816e-16
45	0xa7b79f16	-5.0965185e-15
46	0xaa103677	-1.2808666e-13
47	0x2cfc8198	7.1766586e-12
48	0x25d4726e	3.6853678e-16
49	0xa4f6536f	-1.06826836e-16
50	0x2c205b56	2.278807e-12
51	0xa6041646	-4.5826886e-16
52	0x330a9612	3.2267117e-08
53	0xb2096319	-7.996982e-09
54	0x2f27e32f	1.5269273e-10
55	0xa617ebcb	-5.270821e-16
56	0x2a0e1283	1.2618556e-13
57	0x2c010693	1.8335652e-12
58	0x2f105f3b	1.3130556e-10
59	0xa9f7049f	-1.0969805e-13
60	0x2646e784	6.900881e-16
61	0xa6438de2	-6.78465e-16
62	0x25f3f3ab	4.2318896e-16
63	0xa96a0f9c	-5.1971977e-14

transformer.layers.0.1.fn.norm.weight f4 [64]
0	0xbf8ef6cd	-1.1169068
1	0xbe9ea35b	-0.30984005
2	0xbfa6c073	-1.3027481
3	0xbfe9580e	-1.8229997
4	0x3f4321bd	0.76223356
5	0xbf4eb8e2	-0.8075086
6	0xbcea9bd2	-0.028638754
7	0x3fb4e354	1.4131875
8	0xbea53573	-0.3226734
9	0xc00a0277	-2.1564004
10	0xbf1df5a3	-0.61702937
11	0xbef06e16	-0.4695899
12	0x3e655cfe	0.22398755
13	0xbf417492	-0.755685
14	0xbd820267	-0.063481145
15	0xbfb20f11	-1.3910848
16	0xbf293283	-0.660927
17	0x3f456327	0.7710442
18	0x3e41b4ff	0.18916701
19	0x3f0e1af3	0.5550987
20	0x3fe296a8	1.7702227
21	0x4006959e	2.102882
22	0x3f744ccd	0.9542969
23	0x3d9a58a7	0.0753644
24	0x3f882b43	1.0638202
25	0x3f3f9079	0.7482982
26	0xbfcbf011	-1.5932637
27	0x3fcc57c8	1.5964289
28	0xc016d860	-2.3569565
29	0x3f2ef6b2	0.6834518
30	0xbf011f88	-0.5043874
31	0x3e1c0c4c	0.15239066
32	0xbd76cb13	-0.06025226
33	0x3e1a8b14	0.15092117
34	0xc0027f92	-2.0390363
35	0x3d92162e	0.07133137
36	0xbfc80900	-1.5627747
37	0xbf796b54	-0.97429395
38	0xbf727db4	-0.9472306
39	0x3fa2989b	1.2702821
40	0xbfa2e459	-1.2725936
41	0xbd575854	-0.05257447
42	0xbf298e68	-0.6623292
43	0x3f7c049d	0.9844454
44	0xbd4bb239	-0.049730513
45	0x3e343b96	0.17600855
46	0x3f912e4b	1.1342252
47	0x40244281	2.566559
48	0x3f21c13d	0.63185483
49	0xbf11a1ca	-0.56887496
50	0x3d608794	0.054816797
51	0x3fa0dbf4	1.2567124
52	0xbf10fd6a	-0.5663668
53	0x3f919f6b	1.1376776
54	0x3f2ddc2d	0.67914087
55	0xbf627d47	-0.8847241
56	0xbf051c81	-0.5199662
57	0xbe29271c	-0.16518825
58	0xbde88456	-0.11353366
59	0xc00fdd97	-2.2478998
60	0xbe9cc42a	-0.3061841
61	0x3eaf17f6	0.34197968
62	0xbf0cc4f8	-0.5498805
63	0xbf3b50bf	-0.73170084

transformer.layers.0.1.fn.norm.bias f4 [64]
0	0xc0115e0a	-2.2713647
1	0x3e25c6d2	0.16189125
2	0xbfbf70db	-1.4956316
3	0x3f9f5c06	1.2449958
4	0xbdade137	-0.08490222
5	0xbd82944d	-0.063759424
6	0x4006fcd2	2.109181
7	0xbfad6343	-1.3545917
8	0xbe9a349a	-0.30118257
9	0x3f8367a8	1.0266008
10	0xbe498d2f	-0.19682764
11	0xbdee58fb	-0.116380654
12	0xbed069e7	-0.40705797
13	0x3f2e43bc	0.68072104
14	0xbf47c739	-0.78038365
15	0xbe46c5a8	-0.19411337
16	0x3f8d5b55	1.1043497
17	0x3ebcc8bb	0.36871895
18	0xbdda59cb	-0.10661658
19	0xc03a304e	-2.9091983
20	0x3e182be2	0.1486049
21	0xbfdb0675	-1.7111346
22	0x40078732	2.1176267
23	0x3e302721	0.17202426
24	0x3f34f83a	0.70691264
25	0x3fb86bd7	1.440791
26	0x40082c41	2.127701
27	0x4013b595	2.307958
28	0xbeda8224	-0.42677414
29	0xbd2a69aa	-0.041604675
30	0xbf498633	-0.78720397
31	0x3fa4a3ee	1.2862527
32	0x3feb3d1f	1.8378028
33	0xc011d539	-2.278639
34	0x3f91a686	1.1378944
35	0x3fb1168c	1.3835006
36	0x3f025c66	0.5092224
37	0xc0139565	-2.3059933
38	0x3f67ec8f	0.90595335
39	0xbee39e64	-0.4445678
40	0x3fef1a66	1.8679931
41	0x4001a166	2.025476
42	0x3faab460	1.3336296
43	0xbcc3d5bd	-0.02390563
44	0x3da13c2b	0.07872804
45	0x40169b37	2.3532236
46	0xc00513ab	-2.0793254
47	0x3f9c7f47	1.2226342
48	0x3fd902bd	1.6953961
49	0xbfd679a5	-1.6755873
50	0x3f294b56	0.6613058
51	0x40071689	2.1107504
52	0x3fbbf8e0	1.4685326
53	0x3fbb91ca	1.4653866
54	0x3ef475f3	0.47746238
55	0x4017918f	2.3682592
56	0xbe4d7765	-0.20065077
57	0x3eb2b8b4	0.34906542
58	0xbd9395c4	-0.072063
59	0x3f5877cb	0.8455779
60	0xbe30c369	-0.17262043
61	0xbfda5f50	-1.7060337
62	0xbf937c0e	-1.1522233
63	0xbedbdbc9	-0.4294112

transformer.layers.0.1.fn.fn.net.0.weight f4 [128, 64]
0	0xb7bae883	-2.22812e-05
1	0xbddacf04	-0.10684016
2	0xbe283cce	-0.16429445
3	0xbb8b6aae	-0.0042546606
4	0xbe365a0f	-0.17807792
5	0xbecbee3b	-0.39830193
6	0xbe7fe38e	-0.24989149
7	0xbc876f8c	-0.016532682
8	0x3e4de2ba	0.2010602
9	0xbef3de23	-0.47630414
10	0x3eb4ec36	0.35336465
11	0xbe7c7f73	-0.24657993
12	0xbe15cac3	-0.14628129
13	0x3eb3935c	0.35073364
14	0xbd8fef94	-0.07028118
15	0x3d77b281	0.06047297
16	0xbf1ffd59	-0.6249595
17	0xbdf9d06e	-0.12197958
18	0x3ef97e46	0.4872915
19	0x3ef87934	0.4852997
20	0xbea139d4	-0.31489432
21	0x3d6130fd	0.05497836
22	0x3d18aec0	0.03727603
23	0xbe570c16	-0.21000704
24	0xbe707471	-0.23481919
25	0xbde9a2c4	-0.11407998
26	0xbecde89b	-0.40216526
27	0xbec14695	-0.37749162
28	0x3d2e835d	0.042605747
29	0x3ec0f52b	0.37687048
30	0x3e83386e	0.2562899
31	0x3df50807	0.11964422
32	0xbd21b4e0	-0.039479136
33	0x3ea31d9a	0.31858522
34	0xbd5910dc	-0.052994594
35	0xbcd58a47	-0.026066912
36	0xbdef6f93	-0.11691203
37	0x3eab1251	0.33412412
38	0xbdf885b7	-0.12134879
39	0xbe4edbe7	-0.20201074
40	0x3bbb7de1	0.005721793
41	0xbdfa97ea	-0.122360066
42	0xbe2136c7	-0.15743552
43	0x3ee6c511	0.45072225
44	0x3dd09488	0.1018458
45	0xbecb9b6a	-0.3976701
46	0xba11ae1c	-0.00055572554
47	0xbd539d03	-0.05166341
48	0xbe0dd014	-0.13848907
49	0x3a64f3db	0.0008733847
50	0x3e75c917	0.24002491
51	0xb885a142	-6.371971e-05
52	0x3bb86ecd	0.005628443
53	0x3d2ca097	0.042145338
54	0xbe810dce	-0.25205845
55	0xbeab78ac	-0.33490503
56	0x3e8ce4e5	0.27518383
57	0xbea0e824	-0.3142711
58	0x3eaa2fbe	0.3323955
59	0x3c2d2b46	0.010569399
60	0xbe5979fc	-0.2123794
61	0x3d3a165b	0.045431476
62	0x3dbc7581	0.092020996
63	0xbef1420f	-0.4712071
64	0xba981ec9	-0.0011605854
65	0x3239709d	1.0794023e-08
66	0xa2fcff0f	-6.857479e-18
67	0x3b5e5145	0.0033922952
68	0xbaa18946	-0.0012324236
69	0x38ea706c	0.0001117893
70	0x1f61bfb9	4.7804193e-20
71	0xbbd7a747	-0.0065812203
72	0xb40cfbf3	-1.3130175e-07
73	0x3aaf8432	0.0013390838
74	0xbaaf709c	-0.0013385001
75	0x3b70fb51	0.003677089
76	0x3a3b6a78	0.0007149349
77	0xb952e4b7	-0.00020112364
78	0x3ce2e462	0.027696792
79	0xacf41772	-6.9375e-12
80	0xbbb76973	-0.0055972873
81	0x335b2469	5.1023026e-08
82	0x3c1bd121	0.009510309
83	0xafa25cec	-2.9533653e-10
84	0xbde6d30b	-0.11270722
85	0xb4d5a6d4	-3.9795725e-07
86	0x3a864653	0.0010244347
87	0x3b5b1fa0	0.0033435598
88	0x3ae9b71a	0.0017831058
89	0x3254ba87	1.23824355e-08
90	0x37f325a4	2.8985385e-05
91	0x3614cebf	2.217406e-06
92	0x33cf0630	9.640314e-08
93	0x368319b8	3.9070983e-06
94	0xb9d0fd02	-0.00039861357
95	0xae96745a	-6.8418785e-11
96	0x1f34f0a7	3.8315546e-20
97	0xb08ca78a	-1.0233958e-09
98	0x39c23460	0.00037041586
99	0x2683bac5	9.140575e-16
100	0x299aa695	6.867871e-14
101	0xab2b021c	-6.075433e-13
102	0x3c045118	0.008075975
103	0x3628367b	2.5065663e-06
104	0x3c08b318	0.0083434805
105	0x2c34a77b	2.5672509e-12
106	0x1f2fb4cc	3.7207243e-20
107	0x35051261	4.9573106e-07
108	0xb0139e00	-5.370282e-10
109	0x2be9003c	1.6555711e-12
110	0xba89be00	-0.0010508895
111	0x2c581e73	3.0712349e-12
112	0x1f5b90b1	4.649474e-20
113	0xb7672e50	-1.3779456e-05
114	0x34f7076f	4.6012744e-07
115	0x39f28366	0.00046255736
116	0x24d9124b	9.413974e-17
117	0x9cb3f390	-1.1908186e-21
118	0x325866ed	1.2596257e-08
119	0x281a73b1	8.573804e-15
120	0xb7dfe7b5	-2.6691569e-05
121	0xbc1a60ac	-0.009422462
122	0xb9838e23	-0.00025092167
123	0x3a210064	0.0006141721
124	0x359a9009	1.1515814e-06
125	0xa91efc3d	-3.530183e-14
126	0x9f63db0f	-4.825032e-20
127	0x39d1cefa	0.00040017796
128	0x3e73ea5a	0.23819867
129	0xbf32419f	-0.6963138
130	0xbf9a45ed	-1.205259
131	0xbef93c28	-0.48678708
132	0xbd892947	-0.06697326
133	0xbfaa7534	-1.3317018
134	0x3f56cf67	0.8391022
135	0xbd22c29c	-0.039736375
136	0x3e7b7cfa	0.24559394
137	0xbff27d1c	-1.894443
138	0x3f145d23	0.57954615
139	0x3ed6a788	0.4192469
140	0xbf28e7b3	-0.65978545
141	0x3fa8f615	1.3200098
142	0xbf60a099	-0.8774505
143	0x3e230dbe	0.15923211
144	0xc0193355	-2.393758
145	0xbf9d885f	-1.2307242
146	0xbe679866	-0.22616729
147	0xbed178eb	-0.40912566
148	0x3e8c8520	0.27445316
149	0xbe56e8a1	-0.20987178
150	0xbe5fe22e	-0.21863624
151	0xbf37771d	-0.7166613
152	0xbf4538a4	-0.7703955
153	0xbe3a82ba	-0.1821393
154	0x3f07a814	0.5299084
155	0xbe355933	-0.17709808
156	0x3f90f798	1.132556
157	0x3fe085ff	1.7540892
158	0x3f06f00d	0.5271004
159	0x3f68f2c9	0.9099546
160	0x3e866b77	0.26253864
161	0xbf2a566c	-0.6653812
162	0x3e82e881	0.2556801
163	0x3f35d435	0.7102693
164	0xbe0b38a5	-0.13595827
165	0xbd655ca0	-0.055996537
166	0xbee2c58a	-0.44291335
167	0xbf026b17	-0.50944656
168	0xbed5bc73	-0.41745338
169	0x3d89fef8	0.067380846
170	0x3e2f6ece	0.17132112
171	0x3fa86b01	1.3157655
172	0x3f879a20	1.059391
173	0x3ec2ae73	0.3802372
174	0x3e4cd1da	0.20001927
175	0xbab0f0f9	-0.001349955
176	0x3f007786	0.5018238
177	0xbdae04ac	-0.08496985
178	0x3ecf4f5f	0.40490243
179	0xbe854de9	-0.26036003
180	0xbe530ead	-0.20611067
181	0xbe2ce261	-0.16883232
182	0xbf01f807	-0.50769085
183	0x3d511330	0.05104369
184	0x3fc098c7	1.5046624
185	0xbf760ce5	-0.96113425
186	0x3ecaa853	0.39581546
187	0x3f7178db	0.94325036
188	0xbf8cd731	-1.1003171
189	0x3d11da37	0.035608497
190	0xbf004b98	-0.50115347
191	0xbf3e870a	-0.74424803
192	0x3bdd6e0e	0.0067575043
193	0x3f0ed161	0.55788237
194	0x3fb290be	1.3950422
195	0x3dd28188	0.102786124
196	0xbfcf6621	-1.6203042
197	0xbf0341ac	-0.5127208
198	0x3ea806b5	0.32817617
199	0x3ce53f88	0.027984396
200	0xbf040d9c	-0.51583266
201	0x4009e9f9	2.1549056
202	0xbe2fa0b8	-0.17151153
203	0xbfcf0b3a	-1.6175301
204	0xc01a0b67	-2.406946
205	0x3ec946a2	0.393117
206	0xc002b95b	-2.0425632
207	0x3e6491e3	0.22321276
208	0x3ff52575	1.9152056
209	0xbeb8a800	-0.36065674
210	0x40033e9e	2.0506968
211	0xbf10b237	-0.56521934
212	0x3dd4430d	0.103643514
213	0xbe5d17d7	-0.21591125
214	0xbd503b9d	-0.0508381
215	0xbf06a88b	-0.52600926
216	0xbea5a16a	-0.32349712
217	0xbf8d7915	-1.1052576
218	0x3edb5810	0.42840624
219	0x3e5d8f0f	0.21636604
220	0xc00b446f	-2.1760519
221	0xbfcf25a3	-1.6183361
222	0xbe8f863f	-0.2803211
223	0x3e5dd7d2	0.2166436
224	0x3d0b8bb4	0.03406878
225	0xbed86eb2	-0.42271954
226	0x3ebb93d5	0.36636224
227	0x3e801ee6	0.25023574
228	0xbe4ccfef	-0.20001195
229	0xbbc76935	-0.0060855397
230	0xbf0240d8	-0.50880194
231	0xc013bea4	-2.3085108
232	0xbc71fafe	-0.014769314
233	0x3e328da2	0.17436841
234	0x3e431d41	0.19054128
235	0xc0057331	-2.0851557
236	0x3eb4494d	0.35212174
237	0x3ec96ccd	0.3934082
238	0x3c3dcc35	0.011584331
239	0x3ea38b25	0.31942096
240	0x3d6fd648	0.058553964
241	0xbce3f3cd	-0.027826214
242	0x3f015271	0.5051642
243	0x3cc4a636	0.024005037
244	0xbf906c2d	-1.1283013
245	0xbf2df0c2	-0.6794549
246	0x3f0c54a5	0.5481666
247	0xbcef44ed	-0.029207671
248	0x3ee2c6bd	0.4429225
249	0x40652892	3.5806012
250	0x3f104e26	0.56369245
251	0x3d0e11de	0.03468501
252	0x3d644f74	0.055739835
253	0x3bea5a83	0.007151903
254	0xbebee78a	-0.37286025
255	0xc05850c0	-3.3799286

transformer.layers.0.1.fn.fn.net.0.bias f4 [128]
0	0xbe2d8ebc	-0.1694898
1	0xb90c777e	-0.00013395955
2	0xbf955f11	-1.1669637
3	0xbf102b81	-0.5631638
4	0x3e5a129a	0.21296158
5	0x3f5c5ce3	0.86079234
6	0x0000009a	2.16e-43
7	0xbda427ed	-0.08015428
8	0x3e61e128	0.22058547
9	0xbe051e80	-0.12999916
10	0xb255ff49	-1.2456277e-08
11	0x80000044	-9.5e-44
12	0x3e0336f6	0.12813935
13	0xbeec5c2e	-0.46164078
14	0x00000021	4.6e-44
15	0x00000021	4.6e-44
16	0x80b69581	-1.6767692e-38
17	0xbef288c4	-0.4736997
18	0x80000024	-5e-44
19	0x3f111212	0.566682
20	0x3cedccf8	0.0290284
21	0x80000013	-2.7e-44
22	0x3ee9c6fb	0.45659623
23	0xbf6894e1	-0.9085217
24	0xbfd59293	-1.6685356
25	0x80000019	-3.5e-44
26	0xbf5f8f75	-0.87328273
27	0x3cbd5bce	0.023115065
28	0xbff91742	-1.9460223
29	0x3df5c3b9	0.12000222
30	0x3eb881da	0.3603657
31	0x3c9b3791	0.018947395
32	0x00000004	6e-45
33	0xbfcfb866	-1.6228149
34	0xbfa14e86	-1.2602088
35	0x3fa8ebbf	1.3196944
36	0xa1a39773	-1.1085398e-18
37	0xbc68ce19	-0.014209294
38	0xacb55ac0	-5.1544047e-12
39	0x3e3cdcf3	0.1844366
40	0x00000024	5e-44
41	0x19eb89bc	2.4354061e-23
42	0x80000046	-9.8e-44
43	0x3c9ea8d2	0.01936761
44	0x80000043	-9.4e-44
45	0xbfded096	-1.7407405
46	0xbfe3f56e	-1.7809274
47	0x28eb3ff0	2.611797e-14
48	0xb9a27805	-0.0003098847
49	0xbf3a20d0	-0.7270632
50	0x0000003c	8.4e-44
51	0xb94a6578	-0.00019302021
52	0xbda076f9	-0.07835192
53	0xb7495ec5	-1.2002599e-05
54	0x00000034	7.3e-44
55	0x3ca2f200	0.019890785
56	0x3d9d2f6f	0.07675063
57	0x3ebd652f	0.3699126
58	0xbec909c4	-0.39265263
59	0xb88aca85	-6.618075e-05
60	0x3d938a96	0.072041675
61	0x9b999768	-2.540957e-22
62	0xbf7e33b5	-0.9929765
63	0x3b297a02	0.0025860076
64	0x3e7b9cde	0.24571559
65	0x3fd942db	1.6973528
66	0x3f288388	0.658257
67	0x3f0401ee	0.51565444
68	0xbe924957	-0.2857158
69	0xb93e042e	-0.00018121369
70	0x80000036	-7.6e-44
71	0xad7b0dfa	-1.42708016e-11
72	0x00000004	6e-45
73	0x3f141d58	0.57857275
74	0xbd135a87	-0.035975005
75	0xc000a2b6	-2.009931
76	0x3f9f3c9d	1.2440373
77	0xbfcdf1b3	-1.6089386
78	0x994f1cd7	-1.0707473e-23
79	0x3bdf13ff	0.0068078036
80	0x2df36cdc	2.7674245e-11
81	0xbf323185	-0.6960681
82	0x3f6c6173	0.92336196
83	0x80000033	-7.1e-44
84	0x873f7e92	-1.4406439e-34
85	0x00000042	9.2e-44
86	0xba0c1224	-0.00053432793
87	0x0000004f	1.11e-43
88	0xc06fa6f4	-3.744565
89	0x3e72eb09	0.23722471
90	0xbde9475d	-0.113905646
91	0x3fab7f06	1.339814
92	0x3f196853	0.5992481
93	0x3aff0ab4	0.0019458146
94	0xbe1ba55e	-0.15199801
95	0xc0046c0f	-2.0690954
96	0x1545a3d7	3.991308e-26
97	0x0000001e	4.2e-44
98	0x0000009c	2.19e-43
99	0x80000000	-0.0
100	0x1c02dc8a	4.329843e-22
101	0xbfb03e2c	-1.3768973
102	0xbf07f1a6	-0.531031
103	0x0000001d	4e-44
104	0x2e6dd8ac	5.4080004e-11
105	0x00000031	6.9e-44
106	0x3ff65970	1.9246044
107	0x80000044	-9.5e-44
108	0x0000004d	1.08e-43
109	0xb052f5a4	-7.674663e-10
110	0x3f4e0f52	0.80492127
111	0xbfd64969	-1.6741153
112	0x3fc5a979	1.5442344
113	0x0000000d	1.8e-44
114	0x32f86740	2.8917952e-08
115	0x3eb7aa13	0.35871944
116	0xbf97fa0c	-1.1873183
117	0x00000041	9.1e-44
118	0xc06e4a1d	-3.7232735
119	0x890d392f	-1.6999145e-33
120	0x80000064	-1.4e-43
121	0xbebbdbbe	-0.36691087
122	0xba703cae	-0.00091643154
123	0xb5ada29f	-1.2936833e-06
124	0x3f4ca420	0.79937935
125	0xc0067e93	-2.1014755
126	0xbe3e30b1	-0.18573262
127	0x4001f70e	2.030704

transformer.layers.0.1.fn.fn.net.2.weight f4 [64, 128]
0	0xbfe75753	-1.8073524
1	0x3040a2d7	7.00806e-10
2	0x3ef895af	0.485517
3	0x3dc90804	0.09815982
4	0x3d50a866	0.050941847
5	0xbf0fd9e5	-0.56191856
6	0x00000094	2.07e-43
7	0x3e828652	0.25493103
8	0x3ea9abcb	0.3313888
9	0xbb004eb3	-0.0019578158
10	0x36dcf27e	6.5847407e-06
11	0x00000074	1.63e-43
12	0x3c2eddfa	0.0106730405
13	0xbf11d9e0	-0.56973076
14	0x00000010	2.2e-44
15	0x8000007f	-1.78e-43
16	0x16c9768a	3.254811e-25
17	0xbf521fcd	-0.82079774
18	0x80000056	-1.2e-43
19	0xbf32f40b	-0.6990363
20	0x3e9a034e	0.30080646
21	0x0000002a	5.9e-44
22	0xbd17d5c8	-0.037069112
23	0xbe30f231	-0.17279889
24	0x3de43ad5	0.11144034
25	0x00000020	4.5e-44
26	0xbf5afa77	-0.8553843
27	0x3ed91e6d	0.42406026
28	0xbdf9dce6	-0.12200336
29	0xbd970c3a	-0.07375379
30	0x3bebff4f	0.007202066
31	0x3b29da5c	0.0025917506
32	0x00000071	1.58e-43
33	0x3f612552	0.8794757
34	0xbf3e2622	-0.74276936
35	0xbf5bf0dd	-0.85914403
36	0x314300a5	2.83766e-09
37	0x396233f5	0.00021572395
38	0x3573375e	9.0605124e-07
39	0xbe80f06a	-0.2518342
40	0x00006332	3.5585e-41
41	0x29e380f7	1.0103197e-13
42	0x80000034	-7.3e-44
43	0x3e8670c3	0.26257905
44	0x00000093	2.06e-43
45	0x3f811c9d	1.0086857
46	0x3c89d9a0	0.016827404
47	0x379a7be3	1.841592e-05
48	0xb419cabb	-1.4322988e-07
49	0xbcea3310	-0.028588802
50	0x0000002c	6.2e-44
51	0xbf13b788	-0.5770192
52	0xbe7dd70a	-0.24789062
53	0xbe007105	-0.12543114
54	0x8319518b	-4.5056266e-37
55	0x3ed05845	0.40692344
56	0x3c8340c7	0.0160221
57	0xbf26f018	-0.65210104
58	0xbe206bef	-0.15666173
59	0xbf31af04	-0.6940768
60	0x3e8a707e	0.2703895
61	0x8366771a	-6.7727647e-37
62	0xbece9614	-0.40348876
63	0xbdb5d7ce	-0.08879052
64	0xbf0a93a9	-0.5413156
65	0x3d8bf5fb	0.068340264
66	0xbf315634	-0.6927216
67	0xbe2b309c	-0.16717762
68	0x3e1f8f8a	0.155821
69	0xbdf4d60d	-0.119548894
70	0x8000003f	-8.8e-44
71	0x334ea50f	4.8113233e-08
72	0x00000029	5.7e-44
73	0xbf1b00dd	-0.6054819
74	0x3dbcbc6d	0.09215627
75	0xbe9c9639	-0.3058336
76	0xbe8f85d0	-0.28031778
77	0x3e1e543e	0.15461823
78	0x0a776196	1.1910971e-32
79	0x3ee4919d	0.44642344
80	0x36a18575	4.8137103e-06
81	0x3e0d8d89	0.13823523
82	0x3c0f6beb	0.008753757
83	0x00000048	1.01e-43
84	0x1cd23d1b	1.391243e-21
85	0x0000005d	1.3e-43
86	0x3d2c249f	0.042027112
87	0x80000041	-9.1e-44
88	0xbf011011	-0.5041514
89	0x36570e57	3.2045843e-06
90	0xbe7bae34	-0.24578172
91	0xbe8fb34c	-0.2806648
92	0x3e36f5a8	0.17867148
93	0xb6cff210	-6.1972605e-06
94	0xb4a2be83	-3.0313467e-07
95	0xbf842370	-1.0323315
96	0x1dff00cd	6.7498766e-21
97	0x0000004a	1.04e-43
98	0x00000070	1.57e-43
99	0x800002e6	-1.04e-42
100	0x29ed8ce7	1.0549357e-13
101	0x3e47572d	0.19466849
102	0xb91d1501	-0.00014980511
103	0x00000037	7.7e-44
104	0x3c6b0ed0	0.014346793
105	0x00000042	9.2e-44
106	0xbe10e280	-0.14148903
107	0x8000006a	-1.49e-43
108	0x80000035	-7.4e-44
109	0xb8a2e970	-7.768243e-05
110	0x38623160	5.3928583e-05
111	0x3e475563	0.19466166
112	0xbe8256fe	-0.25456995
113	0x00000045	9.7e-44
114	0x34c54f07	3.675161e-07
115	0x3b0e6f7f	0.0021733937
116	0xbeee35c4	-0.46525395
117	0x00001d63	1.0542e-41
118	0xbf190be1	-0.5978375
119	0x1e3820ce	9.747663e-21
120	0x80000051	-1.14e-43
121	0xbe184a86	-0.14872178
122	0xbee20f4b	-0.44152293
123	0x240c660f	3.0444108e-17
124	0x3e8c34d2	0.2738405
125	0xbe0afac3	-0.1357222
126	0xbda73e3b	-0.081661664
127	0xbd12a185	-0.03579857
128	0x3f5247c3	0.8214075
129	0xb3c96206	-9.377622e-08
130	0xbf00affc	-0.5026853
131	0x3d133a87	0.035944488
132	0xbf987890	-1.1911793
133	0x3f2dfd76	0.67964876
134	0x0000009d	2.2e-43
135	0xbf0587da	-0.5216042
136	0x3eee2534	0.4651276
137	0x3dde34a5	0.10849885
138	0xb6ad225a	-5.159801e-06
139	0x80000178	-5.27e-43
140	0x3b1159c2	0.0022178744
141	0x3dcd4386	0.10022645
142	0x000000d4	2.97e-43
143	0x80000025	-5.2e-44
144	0x1698c34f	2.4680181e-25
145	0x3f7f6ec9	0.9977842
146	0x00000047	1e-43
147	0x3f31ab8e	0.69402397
148	0xbf90d285	-1.1314245
149	0x00000024	5e-44
150	0xbcf807cd	-0.030277157
151	0x3f39a594	0.7251828
152	0xbfa8051a	-1.3126557
153	0x0000008b	1.95e-43
154	0x3f0c1950	0.54726124
155	0xbee0be36	-0.4389512
156	0x3dbfe754	0.09370294
157	0x3e1006c4	0.14065081
158	0xbf87e559	-1.0616866
159	0x390b18d2	0.0001326532
160	0x8000003f	-8.8e-44
161	0xbf1f311b	-0.62184304
162	0xc01f97e8	-2.4936466
163	0x3f50b0c1	0.81519705
164	0xb38af0c4	-6.469921e-08
165	0xb9ed6563	-0.00045279702
166	0xb7646ac2	-1.36147155e-05
167	0xbfd0fcf7	-1.6327199
168	0x80000b9c	-4.165e-42
169	0xaf8deb2f	-2.5814859e-10
170	0x00000060	1.35e-43
171	0xbfa0fc4b	-1.2576994
172	0x8000002a	-5.9e-44
173	0xbf0f2d5e	-0.559286
174	0xbed09a52	-0.40742737
175	0xb96a4326	-0.00022340994
176	0x246547ef	4.971739e-17
177	0xbf7f1093	-0.99634665
178	0x00000046	9.8e-44
179	0x3d153c70	0.03643459
180	0x3e2d8b66	0.16947708
181	0xbc530b54	-0.012881119
182	0x01e7d569	8.5162227e-38
183	0xbf73ced8	-0.95237494
184	0xbc9757cc	-0.018474482
185	0x3f22702e	0.6345242
186	0x3dd1b2c5	0.10239176
187	0x3d086ccf	0.033306893
188	0xbfb2dd3e	-1.3973768
189	0x028dc689	2.0832042e-37
190	0xbfb51fd4	-1.4150338
191	0xb97e3ea0	-0.00024246657
192	0x3f126e69	0.5719972
193	0x3b9f3dc7	0.0048596594
194	0x3f2fff1a	0.6874863
195	0xbf8320ba	-1.0244362
196	0xbf8eb049	-1.1147548
197	0x3f8ccdea	1.100034
198	0x800000ab	-2.4e-43
199	0xb57251b8	-9.027094e-07
200	0x00000008	1.1e-44
201	0xbf832bef	-1.0247782
202	0x3eee8d20	0.46592045
203	0x3dc3521e	0.09537147
204	0x3f34ac1b	0.7057511
205	0xbd8d7fc0	-0.06909132
206	0x09fd2b56	6.0948287e-33
207	0xbf9ab9ac	-1.2087913
208	0xb8b5ba72	-8.665481e-05
209	0x3c529179	0.012852066
210	0x39d3c64f	0.00040392808
211	0x8000005e	-1.32e-43
212	0x1d3c5589	2.4925813e-21
213	0x00000061	1.36e-43
214	0x3dc2ab4a	0.09505327
215	0x8000002d	-6.3e-44
216	0x3ef2a4c9	0.47391346
217	0xb3703fb5	-5.5937296e-08
218	0x3db31faa	0.08746274
219	0x3e934b06	0.28768176
220	0x3dc54af7	0.09633439
221	0xb88da281	-6.753673e-05
222	0x1b349cc0	1.49399e-22
223	0x3e2010d3	0.15631418
224	0x1db0fdaa	4.6849095e-21
225	0x80000017	-3.2e-44
226	0x8000000c	-1.7e-44
227	0x0000004f	1.11e-43
228	0xa3433fdb	-1.0584493e-17
229	0xbf7b63b6	-0.9819902
230	0x298804f9	6.040476e-14
231	0x0000000f	2.1e-44
232	0xbb512cfd	-0.0031917684
233	0x80000014	-2.8e-44
234	0x3ea59c45	0.32345787
235	0x800000bf	-2.68e-43
236	0x8000003a	-8.1e-44
237	0x27b91e2e	5.1380536e-15
238	0xb9c97e96	-0.0003843202
239	0xbf9892d6	-1.1919811
240	0x3e466aca	0.19376674
241	0x00000068	1.46e-43
242	0xb753d203	-1.2625477e-05
243	0xbbee9ce6	-0.0072818873
244	0x3ee4ad30	0.44663382
245	0x00006967	3.7811e-41
246	0xbdb71fc5	-0.089416064
247	0x1e0f4ad7	7.5858335e-21
248	0x00000025	5.2e-44
249	0xbcc7fdc3	-0.024412995
250	0x3dc507ea	0.0962065
251	0x23e463da	2.4762098e-17
252	0xb8127006	-3.4913443e-05
253	0x3e02d005	0.12774666
254	0x3e681e22	0.22667745
255	0x3ec22bb6	0.37923974

transformer.layers.0.1.fn.fn.net.2.bias f4 [64]
0	0xa633cd36	-6.2381213e-16
1	0xa5c0da49	-3.3454607e-16
2	0x26ff5e85	1.7719799e-15
3	0xa64d1b0d	-7.1160323e-16
4	0xa912ff46	-3.2639927e-14
5	0xa6334293	-6.2193325e-16
6	0xab0fa6ae	-5.103512e-13
7	0x24cc216e	8.852753e-17
8	0x29fdb329	1.12665363e-13
9	0xa94c57dc	-4.5373305e-14
10	0x2916d163	3.3488305e-14
11	0x2cd52f9e	6.0591107e-12
12	0x292c57f6	3.8267966e-14
13	0x2bb04818	1.2525562e-12
14	0xa636e12f	-6.3449115e-16
15	0x264d904f	7.1319237e-16
16	0x25a43ea3	2.849191e-16
17	0x2669d837	8.113114e-16
18	0xa5df6e29	-3.875898e-16
19	0xa62d05e5	-6.002942e-16
20	0x250ff3c9	1.248587e-16
21	0xa989da71	-6.121916e-14
22	0xa6904acf	-1.0012284e-15
23	0xaca6e66e	-4.7435866e-12
24	0xa5c64140	-3.439174e-16
25	0xab0bd44a	-4.967733e-13
26	0xa663d780	-7.9048503e-16
27	0xa5213f6a	-1.398601e-16
28	0x29cda670	9.132701e-14
29	0x26e9267b	1.6178053e-15
30	0x28ab1710	1.8994815e-14
31	0xa7dc8ddd	-6.1216075e-15
32	0x261f9782	5.536954e-16
33	0x2b3a0a20	6.6094526e-13
34	0xa62d25e5	-6.007279e-16
35	0xa9d7cbde	-9.583283e-14
36	0xa6635b48	-7.8880155e-16
37	0x29cb1555	9.0187115e-14
38	0x26431359	6.7680437e-16
39	0x2b990481	1.0872554e-12
40	0xa64a9bdf	-7.0294073e-16
41	0x2a39212a	1.6442807e-13
42	0xa5b84f93	-3.1972834e-16
43	0xa891cb89	-1.6186503e-14
44	0x25b4200e	3.1246744e-16
45	0xab1d85f5	-5.596351e-13
46	0x25ba19db	3.2283377e-16
47	0x293df38b	4.217767e-14
48	0x2622ba1d	5.645727e-16
49	0xa907d581	-3.0161207e-14
50	0x2c217167	2.2942427e-12
51	0xa6093c1d	-4.761289e-16
52	0x2b6d2c53	8.4260826e-13
53	0xab4d43e0	-7.2924826e-13
54	0x270f2763	1.9866588e-15
55	0xa996adcb	-6.6914864e-14
56	0x290b65b9	3.095243e-14
57	0x270da4f6	1.9657106e-15
58	0x2d046cfd	7.5275315e-12
59	0xa929e0b9	-3.7720454e-14
60	0x26573e78	7.467777e-16
61	0xa93519f3	-4.021258e-14
62	0x272ec185	2.4252258e-15
63	0xa6689f34	-8.070693e-16
