model_training/trained_models/model_10.pth (torch, 190116 bytes, 16 tensors)

patch_to_embedding.weight f4 [64, 64]
00000000: 52fc 123d 784c 8fbc c951 e7bc 95af 713b
00000010: 0a01 97bc 3173 9ebd b02f dcbd 257d a4bd
00000020: 390c 043e 45ec da3d 4e7a 513d 3320 293d
00000030: a2e4 d03d c0b7 d33d d494 893d c05d af3a
00000040: dece 753d 07e9 67bd 8766 853d 6303 cf3d
00000050: e9ab 0f3d 64da 83bd ada3 0e3d 9ca1 e03d
00000060: a868 3f39 6631 803d 23a9 bd3c 23e3 8d3d
00000070: 6d41 5b3d 872d ba3c a986 d8bd 381c e83d
00000080: dbbb d6bd f567 c4bd 2690 f43d 1c99 aebc
00000090: 5e82 d9bd e7d2 d43d 840e 09bd 0732 cb3d
000000a0: 5a5d d63d 2d8f e1bd d997 edbd 8a81 233c
000000b0: b7c9 eabc ab1a e8bd 70ff 8cbd b27d bb3d
000000c0: 0cd0 833d abea 5a3d d14a 873d 1cc1 863d
000000d0: b589 b53d 3166 ecbb 79a0 833a 1e89 043e
000000e0: 2e7f 953c 9d6b 40bc b1fa d03d 46eb a03d
000000f0: 5baf 853c f7cd 973d df9d f73d bd30 c23a
00000100: 9f95 26bd d10d 413d 01cd 073e fd4a 53bd
00000110: 118e bbbd 857e edbc b417 183d 9e01 a7bd
00000120: 666d 70bd ee6b fa3c 402e f93d f635 a23d
00000130: 3cd2 c53d 52cb 893d 1226 593d efbb 093e
00000140: e0ba b1bc 1afb e13b 8535 1b3d cf03 ee3c
00000150: ef7b 983c 9911 0abd 0721 ff3d 067f b63d
00000160: 569b a6bd a22f 293d 90a2 cbbd 24e3 033e
00000170: c368 833d 8398 aa3d cc1b 113e d7ec fa3d
00000180: bfba b83d 5328 b0bc f98f a53b 55e1 c63d
00000190: da9c ec3d 2e3b 94bc 6c71 003e 6a09 cf3d
000001a0: 53da ff3d 6bd5 083c f9e6 c63c 8fcb 4dbd
000001b0: c18c c7bd 07a4 a63a 3868 333d e041 91bd
000001c0: 2861 5c3d 5eb0 bdbd 9f79 c3bd 7f75 083e
000001d0: 0aeb 98bd 4cf6 743c 59ed 8bbc 0195 953d
000001e0: 4342 113d 7961 05bd e762 4ebd 8323 a7bd
000001f0: 14c5 3fbc d47c a53d e3eb 4dbb 7f68 a4bd
00000200: 2f65 273d 64a5 e9bd de27 cebd 6d85 a53d
00000210: dbe7 e1bd 7013 8a3b ec7b a6bd a2e7 ca3d
00000220: 7a64 95bd 5e51 e6bd c704 cb3d a4f8 8a3c
00000230: 126d b9bd 4a62 8e3d 9582 cdbd 4980 413d
00000240: df11 31bd de02 973d 9895 b43d e6ff 21bc
00000250: bd79 dd3d 147c df3c eb53 963a 606a ed3d
00000260: c692 9d3d 5750 56bd 0ee9 6e3d 27c5 83bd
00000270: 8036 723c 7e96 c2bd e755 b03d 9b87 e4bd
00000280: aff6 92bc f7f1 9f3d 18f4 17bd 2fe0 043e
00000290: 81fd 333d cc0c 6f3b c5fa 873d 4ba7 a6bd
000002a0: 0b81 903d 384e edbd b479 383d 988f 2bbc
000002b0: 0e95 e33d f36d 96bc d320 ac3c 2f1f dabd
000002c0: 4b8d b93d 51f6 e6bd c139 973d 0b94 333d
000002d0: f6cd db3d c7f8 f83d 8b02 903c 1682 c1bd
000002e0: 713e ec3d 2da4 77bd 146d c8bd 485e 863d
000002f0: 8f2d 55bd d1f5 c13d ef83 c43d 6efd 06bd
00000300: c14a cfbc 1698 39bd 911b 5bbd 393c e3bd
00000310: 1d7a 43bd ba6b db3d 4c50 703d 506b 963c
00000320: 58e7 d9bd 86a5 073d cc6f eebc f6de 95bd
00000330: 945a 0b3d 7fff a6bd d6a9 4dbb 26a8 56bd
00000340: fb33 00be c045 533d 56f9 efbb 9f4a 773d
00000350: b107 5cbd a2e9 e2bb 09f6 afbd e195 813d
00000360: 24af 9fbd df0a ab3b cd40 c83d d827 02be
00000370: 1b7e 9ebd 648e 393d 93b1 1bbd 5988 8cbd
00000380: b7de 0ebe 9125 ca3d 8003 2a3d 99b2 a9bc
00000390: d712 5c3c a0d5 903d fa54 d13d 6eef 9ebd
000003a0: 53e6 c1bd 3a00 e2bd 1147 e7bd 47f7 593d
000003b0: 2479 03be 2d8c a83d 4fcb c03d f9d0 e9bd
000003c0: d5f5 af3d 6a81 903d 56d5 0cbe 24c9 70bd
000003d0: 4675 503d a307 42bd 4d3c 66bd 916c 28bd
000003e0: 1ac5 8f3d 11f0 d9bd e1b2 63bd b93d 60bd
000003f0: f592 673c 3ed3 acbd 3f9d acbd a5f3 3ebd
0.035885163 -0.017492518 -0.02823724 0.0036878337 -0.018433113 -0.07736815 -0.10751283 -0.08031682
0.12895288 0.10689596 0.05114203 0.041290473 0.10199858 0.10337782 0.0671784 0.001337938
0.060011737 -0.056618717 0.06513696 0.10108068 0.035076056 -0.06438139 0.034824062 0.109683245
0.00018254167 0.06259422 0.02315194 0.069280885 0.05352919 0.022726787 -0.105725594 0.11333507
-0.10485049 -0.09590141 0.11941557 -0.021313243 -0.10620569 0.10391789 -0.03346111 0.09921651
0.10467024 -0.11013637 -0.11601228 0.009979615 -0.028660638 -0.113332115 -0.06884658 0.09154834
0.06436166 0.053446453 0.06606067 0.065798014 0.08864156 -0.0072143306 0.0010042331 0.12942931
0.01824912 -0.011744407 0.102040656 0.07857375 0.016318968 0.074123316 0.120906584 0.001481555
-0.040670034 0.047132317 0.13261797 -0.051585186 -0.091579564 -0.028990993 0.03713198 -0.08154605
-0.05869808 0.030569043 0.121670246 0.079204485 0.0965924 0.067282334 0.053014822 0.13450597
-0.021695554 0.0068963887 0.037892837 0.02905455 0.018613784 -0.03370819 0.12457471 0.089109465
-0.08135097 0.04130519 -0.09943116 0.12879616 0.06416466 0.083298706 0.1417076 0.12252205
0.09019994 -0.021503603 0.0050525633 0.097109474 0.115533546 -0.018094625 0.12543267 0.101092175
0.12492814 0.008351664 0.024280058 -0.050242957 -0.097436436 0.0012713679 0.043800563 -0.07092643
0.053803593 -0.09262155 -0.09544682 0.13326071 -0.07466705 0.0149513 -0.01708095 0.07303811
0.035463583 -0.03256366 -0.05038729 -0.0816107 -0.011704702 0.0808045 -0.0031421117 -0.080277435
0.04086798 -0.11408499 -0.10066198 0.080820896 -0.11030551 0.004213743 -0.08129105 0.09907462
-0.07294555 -0.11245988 0.099130206 0.016964264 -0.09054007 0.06952341 -0.10034672 0.047241483
-0.043229934 0.07373594 0.08817595 -0.009887671 0.10814235 0.027280845 0.0011469101 0.11592555
0.076940104 -0.05232271 0.058327727 -0.06434088 0.014783502 -0.0950136 0.086101346 -0.11158677
-0.017939894 0.07809823 -0.03709802 0.12976144 0.043942932 0.0036476133 0.06639627 -0.08137377
0.07055863 -0.11587185 0.04503794 -0.010471247 0.11112414 -0.018362975 0.021011746 -0.10650479
0.090601526 -0.1127745 0.073840626 0.043842357 0.10732643 0.121568255 0.017579338 -0.0944864
0.11535347 -0.060459305 -0.0978643 0.065609515 -0.0520454 0.09470714 0.09595477 -0.032956533
-0.0253042 -0.045311056 -0.053493086 -0.11095471 -0.04772388 0.107139066 0.058670327 0.018361717
-0.106398284 0.03311684 -0.029106043 -0.07317917 0.03402193 -0.08154201 -0.0031381748 -0.052406453
-0.12519829 0.05158019 -0.0073234243 0.0603739 -0.053718273 -0.006924824 -0.08591849 0.06327415
-0.07797077 0.005219802 0.09777985 -0.12710512 -0.077388965 0.04530181 -0.038011145 -0.06861944
-0.13952146 0.098704465 0.041507244 -0.020715045 0.013432226 0.07071996 0.10221286 -0.07760511
-0.09467759 -0.110351995 -0.11292852 0.053214338 -0.1283918 0.082298614 0.09413778 -0.114168115
0.085918106 0.07055934 -0.13753256 -0.058785573 0.05089309 -0.047370564 -0.05620985 -0.041119162
0.07020016 -0.10641492 -0.055590514 -0.054746363 0.014134158 -0.08438729 -0.0842843 -0.046619076

patch_to_embedding.bias f4 [64]
00000000: 0daf 93bd 394b fb3d 86d7 e73d 2860 c33d
00000010: 9925 9e3d 901c 1e3d 517a f13c 6348 033c
00000020: f857 f93d 2da2 d23d 37b5 c5bc 9c97 ccbd
00000030: 5631 5d3d abc3 613d 5266 d5bb 37b3 c13d
00000040: 7587 9c3d b029 6dbd d547 f93d 7ad5 d2bd
00000050: 2f6e 233c 957c babd b4e2 6a3d ee7f 61bd
00000060: d484 e63c e119 2fbd c05c 78bd be5c bf3d
00000070: f985 8fbd 6260 b63d a2bf d0bd e55f e2bd
00000080: 4de6 ddbd 0b65 e33c 751b c9bc da75 c5bc
00000090: 32e2 3c3c 5ff6 aabd bfb5 bfbd cbc1 c63c
000000a0: c3a7 9cbd 6cf7 bdbd df8a e7bb 86a8 6cbd
000000b0: bca0 afbc 4ce9 6c3d 4da1 a03d 51e1 773d
000000c0: aec1 8ebd 5d9d 103c f0e9 833d 89a3 7fbd
000000d0: 014b 943d ed51 0f3d 6b47 02be 4876 0a3d
000000e0: 8fbe 8c3c 76d0 96bd 766b 94bd 80ec 703d
000000f0: 33f0 393d 52ba ce3d db5f 67bd 4e9b 023e
-0.07211123 0.12270207 0.11320405 0.09539825 0.07722015 0.038601458 0.02947727 0.008012864
0.12174982 0.10284839 -0.024134262 -0.09989855 0.05400213 0.055118244 -0.0065124417 0.09458011
0.07643024 -0.057901084 0.12171904 -0.10294624 0.009975 -0.091057934 0.057345107 -0.055053644
0.02813951 -0.04274929 -0.06063533 0.09343861 -0.07007975 0.08905102 -0.10192801 -0.11053447
-0.10834942 0.027758142 -0.024549225 -0.024104048 0.011528539 -0.08347773 -0.09360837 0.02426233
-0.076491855 -0.092757076 -0.0070661153 -0.057777904 -0.021438949 0.057839677 0.07843266 0.060517613
-0.06970535 0.008826581 0.064411044 -0.06241182 0.07240868 0.03499024 -0.12722556 0.033804208
0.01718071 -0.073639795 -0.07247059 0.058819294 0.045395087 0.100941315 -0.0564879 0.12754557

transformer.layers.0.0.fn.norm.weight f4 [64]
00000000: 3a0f 7f3f 5a2d 7c3f 1c9d 7b3f 4491 7a3f
00000010: 73b3 733f c66b 703f 0637 7c3f 4c18 773f
00000020: 5559 7d3f cb52 763f 18ff 733f d41b 7d3f
00000030: 9eaf 723f 6ab6 7a3f 6071 783f c132 7b3f
00000040: 91e7 773f c385 743f f2c4 743f c873 7d3f
00000050: 411a 713f 41ed 7d3f 2471 783f db45 773f
00000060: 3eea 743f 46a1 763f 4bf3 7b3f 93d3 783f
00000070: 7b92 7b3f a4c6 783f c100 793f e61a 7a3f
00000080: a0a5 783f 10c8 7a3f b3a6 803f 39da 773f
00000090: 74b4 7c3f 950e 793f 8336 7c3f 80eb 743f
000000a0: da43 7b3f 5e19 713f 7ffe 7a3f 5482 753f
000000b0: abb3 6d3f 7b12 7e3f 2bc6 763f a041 803f
000000c0: 1a56 793f 51d7 723f a183 763f 7dda 7b3f
000000d0: cf10 7e3f 64d4 783f c439 783f ce61 793f
000000e0: 1964 733f efe3 713f 2bbc 743f 590c 763f
000000f0: 80e1 743f ca34 793f 3ab9 743f 3d74 763f
0.9963261 0.985067 0.98286605 0.9787791 0.9519569 0.9391445 0.9852146 0.9652145
0.98964435 0.9622008 0.9531112 0.9887059 0.9479922 0.9793459 0.97047997 0.9812432
0.9683772 0.95516604 0.95613015 0.99004793 0.94180685 0.99190146 0.9704764 0.96590966
0.95669925 0.96339834 0.9841811 0.97197837 0.98270386 0.971781 0.97266775 0.97697294
0.97127724 0.9796152 1.0050873 0.96817356 0.9871285 0.97287875 0.9852068 0.95671844
0.9815041 0.9417933 0.9804458 0.9590199 0.92852277 0.9924695 0.9639613 1.0020027
0.97397006 0.94859797 0.962946 0.9838026 0.992444 0.9719908 0.96963143 0.97414863
0.9507461 0.94488424 0.9559962 0.9611259 0.95656586 0.97346175 0.95595133 0.96271116

transformer.layers.0.0.fn.norm.bias f4 [64]
00000000: 2028 f43a 4318 933c 0b94 433b edfd bb3a
00000010: e448 053c 8918 d83b f9fb d93b c1ce 60bc
00000020: 143c 97b8 e270 cdbb 2498 56bb 6783 e6b9
00000030: a578 223c 2099 0bbb 0785 ef3a fdfc 8eb7
00000040: 5b67 633c ff68 fe3c d63e 1839 7fc8 aab8
00000050: 91a6 bebb b648 6fbb 16ca 16bc 3649 acbc
00000060: 2d48 6bbb 67bb b0bc 224f 283b 6c54 a83a
00000070: 56da e83b 3f68 80bc 968b 523b 4aa3 e13b
00000080: 09bb a93b c2e6 32bc ec2b 98bc 50e0 a83c
00000090: 052e aabb 4508 693c db20 113c 3bf0 ca3a
000000a0: 7887 553b 0e5c abbb 29c6 b13b 24ba ac3a
000000b0: c88c bb3b 4aa6 973a abcd b6b9 d92e 093d
000000c0: f68b 5d3b 6b5f 17bc abfe deba 544f a7bb
000000d0: aff1 65b9 1e91 223a 9676 5fbc e139 0b3c
000000e0: 0b9a ddba c269 b23b 9360 abbc 8cf8 c3b9
000000f0: de7c 023c 414d a8bb 2bb3 0abc b15e ac3b
0.0018627681 0.017955905 0.002984288 0.0014342644 0.008135054 0.0065947217 0.006652352 -0.013721169
-7.2114315e-05 -0.00626956 -0.0032744491 -0.0004396692 0.009916459 -0.0021300986 0.0018273898 -1.7045526e-05
0.013879622 0.031055925 0.00014519258 -8.143577e-05 -0.005818196 -0.0036511845 -0.0092034545 -0.021031003
-0.0035901174 -0.021573735 0.0025681932 0.0012842542 0.007106106 -0.015674708 0.0032126657 0.0068859207
0.005179767 -0.010919275 -0.018575631 0.020614773 -0.0051934742 0.014223163 0.008857931 0.0015482971
0.0032581966 -0.0052294796 0.005425234 0.0013178033 0.0057235695 0.0011569944 -0.0003486698 0.033491943
0.0033805347 -0.009239058 -0.0017013153 -0.005105892 -0.00021929176 0.0006201434 -0.013639113 0.008497686
-0.001690687 0.005444736 -0.020920074 -0.0003737848 0.007964341 -0.0051361625 -0.008465569 0.0052603115

transformer.layers.0.0.fn.fn.to_qkv.weight f4 [192, 64]
00000000: 0783 f83d 28da 7c3d 35e7 c23c bb8c cc3c
00000010: 5851 eb3c ad44 743d 1aa0 43bd bd79 35bd
00000020: bb40 8dbd 2ed9 063d 1d27 73bd 605c 6a3d
00000030: 8765 07bd 1861 e63d 877d 1b3d 7566 dbbd
00000040: 6485 eb3c 4c50 223d 9f9f b8bd 8ee7 0f3c
00000050: cb22 0e3d 2c46 dfbd 76b0 f7bd e817 3d3b
00000060: 4007 633d 360f 76bd 9161 9cbd bfa9 5ebd
00000070: 782c 183d 4286 14bd 5f65 83bd d52a a43c
00000080: 9ddd 023b 66fd e1bc 02fe 8d3d 5515 b8bd
00000090: 7c74 81bb ee5e 87bb 8ebb 1d3d 615b a3bd
000000a0: 5742 113c 3d7f dcbd 773d b93d 7e6e 6a3c
000000b0: 64a0 cabc 89e7 c9bd bdf5 cf3d ee0a 9c3d
000000c0: 2c54 c53d 2a95 bbbd ce6b 29bc bb57 89bd
000000d0: 6286 aabd d048 b1bd d077 b33d 0ec4 0ebd
000000e0: d660 613d 3c6d 05bd ae07 a1bc e911 043c
000000f0: 60de d5bd dcba d4bd 64d2 253d f42e ae3b
00000100: 049a ec3c 8873 183d 7ceb 253d 0d67 2b3d
00000110: 9e46 1e3c b17a 82bd fdbc 93bd 6c2b 45bc
00000120: 0b75 423d 827c 0cbd 4496 88bc 7333 c2bd
00000130: 5e75 b53d 992f 16be ba3d 133d d392 20bd
00000140: 929b 8bbd 3b58 9d3d a892 bfbb 0329 d63c
00000150: 3c3d 8cbd c89c a0bd 8e27 51bc 648a a43d
00000160: 06af 0f3e 4ca7 1abd 7a41 b63d 974f 1d3e
00000170: 2f2b 2fbd 1ec9 29bc f000 a13d de0e a23d
00000180: 2eba 93bd 5cd4 12be a8d3 1bbe 926f 11bd
00000190: 5490 a93d e19e f6bc a78c b73d 0faf 48bd
000001a0: 55f0 363d d074 31bd a5a2 a43d 9909 413b
000001b0: 8a77 793d 7823 b73d dea6 91bd 61fd 503d
000001c0: 8a97 76bb 4870 e0bd df69 4c3d a015 90bd
000001d0: a44a f33b 6b86 9cbd d442 8bbd 2b6e d03c
000001e0: a37f 85b8 9440 a73d 1f72 803d 1335 90bd
000001f0: 4510 933d 46d8 163e 27e5 e7bc cc75 cd3d
00000200: 6b38 e83d 24f3 9cbd dda2 c43d 7cae 653d
00000210: e30d c1bd 151f 3f3c b9a3 aa3d 4285 7c3c
00000220: d44b 6dbd 31a6 393d ba92 dc3d 8085 e53c
00000230: 9284 e7bd e696 75bd 454b cb3d 256d ce3d
00000240: dafa 1fbd 2e12 fdbd cae4 823d 39a4 bf3d
00000250: 7df3 d0bd d5b1 94bd e3c1 3fbd 1974 093c
00000260: 360d 5b3d ff35 bc3d caa2 86bd 943a d53d
00000270: 212b 87bd 7f6e bd3d f9b4 a2bb 00c5 05bd
00000280: ed06 263d 0626 b33b cedc 113d 4606 afbc
00000290: 2e36 163d 2895 43bd 50a4 c6bd bf4f ecbd
000002a0: 61c9 a43c 8036 143c e88f 6bb8 1c84 a7bd
000002b0: 2f65 d13c a538 a9bd 5771 493d ae15 f1bd
000002c0: b3d4 ccbd e539 fcbd 8797 ba3d 69ff 0a3e
000002d0: 3d1c 133d 99b2 643d 1091 0f3e 7eb7 b6bd
000002e0: efe0 813d d564 ff3c 406e 883d e7dd a33d
000002f0: beac 13bd 5237 a3bd 11aa 9dbd 7cac be3c
00000300: 9f39 833d 8efe 37bd 5f7b c13d 4375 b8b9
00000310: b585 e3bd 5963 bcbd d9fd 6cbc 7141 ae3d
00000320: d0a3 a1bc 477f c93d 47fb a63d 6d01 f33d
00000330: f5c9 683d c343 743c da8f 5ebd f470 9dbd
00000340: 134b d7bd 7b5e a1bd 6c4e 883d cbd2 103d
00000350: 10e6 c3bd 58d2 d33c e1bd dc3d fe93 b3bd
00000360: 7e40 923d 2b46 e3bc e7fa d1bd e8ec e93c
00000370: 5e35 4c3c 7894 cfbd 90a4 c43d 1ff7 c0bd
00000380: bd45 0dbd 3ea1 c1bc 4717 95bd adce da3c
00000390: 9955 383d 7034 a7bd a125 e8bc 2a51 b43d
000003a0: 522b b8bd 82c0 383d f4ae 983d 9749 acbd
000003b0: 3543 9bbd 4641 a53d b30a 8abc 427f b53d
000003c0: 969e 3b3d 3499 febb 6cf8 36bc edb7 b0bd
000003d0: c7b0 c6bb d98c 9dbd 40b3 dcbd a3e1 b1bd
000003e0: b108 48bb 5140 1fbd 9108 77bd e63e 4abd
000003f0: 52e1 f3bc c45f 9ebd 3521 11bd f80d 943a
0.121343665 0.061731488 0.023791889 0.02496945 0.028725311 0.059635807 -0.047760107 -0.04430555
-0.06897112 0.032921962 -0.059363473 0.057217002 -0.03305581 0.11248988 0.03796151 -0.107129015
0.028750129 0.03962736 -0.0901482 0.008783234 0.03470115 -0.10902056 -0.12094204 0.002885336
0.055426836 -0.0600731 -0.07635797 -0.0543611 0.037151784 -0.03626085 -0.064158194 0.020039955
0.0019968518 -0.02758665 0.06933214 -0.08988444 -0.0039506536 -0.0041311895 0.038508944 -0.079764135
0.008865914 -0.10766456 0.090449266 0.01430857 -0.024734683 -0.09858615 0.10154293 0.07619272
0.09635195 -0.0915931 -0.010340644 -0.067061864 -0.08326413 -0.08656466 0.08763087 -0.03485494
0.05502399 -0.032574877 -0.019656982 0.008060911 -0.10442805 -0.10387203 0.040483847 0.005315656
0.028882034 0.037219554 0.04050778 0.041846324 0.009660391 -0.06371058 -0.07213781 -0.012034278
0.047474902 -0.034298427 -0.016673215 -0.094824694 0.08860277 -0.14666595 0.03594754 -0.039202522
-0.06816782 0.07682844 -0.00584634 0.026142603 -0.06847617 -0.07842404 -0.012765778 0.080342084
0.1403161 -0.037757203 0.088992074 0.15362392 -0.042765792 -0.0103628915 0.07861507 0.07912992
-0.07213245 -0.14338821 -0.15217459 -0.035506792 0.082794815 -0.030105056 0.08962374 -0.048995074
0.044662792 -0.04332429 0.080388345 0.0029455184 0.060905017 0.08942312 -0.071119055 0.05102289
-0.0037626945 -0.10958916 0.049905654 -0.07035375 0.0074246693 -0.07642826 -0.06799856 0.025443157
-6.3657084e-05 0.08166614 0.06271767 -0.07041373 0.071808375 0.1473094 -0.02830751 0.100322336
0.11338886 -0.07663563 0.09601376 0.056074604 -0.09426477 0.011665125 0.08332009 0.0154126305
-0.057933643 0.045324508 0.10770173 0.02801776 -0.11304583 -0.05995836 0.09926466 0.100794114
-0.03905759 -0.12356983 0.06391294 0.09357495 -0.10202692 -0.07260481 -0.046815764 0.008389496
0.053479396 0.091899864 -0.06574018 0.104115635 -0.06600023 0.09249591 -0.0049654213 -0.032658577
0.04053395 0.005467179 0.035610966 -0.021365296 0.036672764 -0.04774967 -0.09699309 -0.11538648
0.020115556 0.009046197 -5.616239e-05 -0.08179495 0.025560943 -0.08262757 0.049180355 -0.11771713
-0.10001507 -0.1231573 0.09110933 0.13573994 0.035915602 0.055834386 0.1402018 -0.08921717
0.06341731 0.03117601 0.066616535 0.08001309 -0.03605341 -0.07969536 -0.07698453 0.023275606
0.06407475 -0.044920497 0.09447359 -0.00035182582 -0.11109487 -0.091986366 -0.014464819 0.08508576
-0.019731432 0.09838729 0.08153396 0.11865506 0.056833226 0.014908734 -0.054336406 -0.0768756
-0.10512366 -0.07879349 0.06655583 0.035357278 -0.09565365 0.025857136 0.10778404 -0.08768462
0.07141207 -0.02774342 -0.10252934 0.028555349 0.012463896 -0.1013574 0.096017 -0.094221346
-0.034490336 -0.023636457 -0.072798304 0.026709879 0.045003507 -0.081642985 -0.028338255 0.08804543
-0.08992638 0.045105465 0.07455245 -0.08412474 -0.07581178 0.080690905 -0.016850805 0.08862163
0.045805536 -0.007769728 -0.011167627 -0.08628831 -0.006063554 -0.0769288 -0.10776377 -0.08685615
-0.0030522759 -0.038879696 -0.060310904 -0.04937639 -0.029770527 -0.077331096 -0.03543206 0.0011295667

transformer.layers.0.0.fn.fn.to_out.weight f4 [64, 64]
00000000: 8427 70bd c219 eebd 9749 973d 01b3 8dbd
00000010: f1be 84bb d3dc fa3d 6357 15bd d024 1a3d
00000020: 6ada 3dbd 567c 86bc c51a 8e3c 8757 b9bd
00000030: 8788 25bd 1f48 be3d 8d49 613d 0d23 a13d
00000040: 71f6 15bd 1667 15bd 1b37 61bc 0a18 87bd
00000050: 44e3 90bd 4964 4fbd 5009 1abd f5ae c8bd
00000060: cd89 683d 2f53 0abd fcd9 be3d e839 06bc
00000070: 85de 8b3d 3c62 a5bc 7734 03be 94c8 20bd
00000080: cb39 43bd 6159 1a3d 5083 a03d 3837 1ebe
00000090: e455 79bd a223 cebc bdc0 1a3d 2e53 273c
000000a0: 642f 51bc 0029 ecbd e9fa fa3d 77a8 bfbd
000000b0: fe58 86bd 42fe 213c e0ca 133d 5d18 f1bd
000000c0: 007d c43d 126d 3a3b b502 663d 669c 993d
000000d0: 0994 7d3d 640d bbbd 44a5 bcbd e006 22bc
000000e0: d021 b43d a32e f13d e3a7 d1bd 3131 0cbe
000000f0: 7ada 42bc b6aa 613d 914e 9e3c 011c d23d
00000100: 964d ce3d 982c 57bc 1cfc 913c 17e8 bb3d
00000110: 037e 7e3d 015d 4fbd 8dd3 4d3c 9d7c 733d
00000120: 70b5 41bd e997 4e3d 211e d23d 6b13 e23d
00000130: fa3c ba3d 62f3 693d fb67 8abd 361e c93d
00000140: 435b 82bd 44a7 59bd c6c1 a3bd ede7 27bc
00000150: bf60 b9bd c0af b93d ad4d b53c 2db0 34bc
00000160: 06da b5bb df7b 49bc 3999 e4bd 92bf 0a3c
00000170: 73e3 ca3d 58d6 873d 99b1 c0bc 69c0 ca3c
00000180: aed1 dfbd 9657 983d 2b71 b73d e08d 29be
00000190: cfb9 6ebd 8489 143e e33e 20be 6222 a436
000001a0: 8c56 20bd fc5f 723d 38e8 35bd 0ee1 dcbd
000001b0: 8e8c 81bd a2ac 9fbd f6d8 7f3b c1a6 07be
000001c0: a473 8c3b c229 15bc 25cf a0bc 3ee9 88bc
000001d0: 1bd1 103e 5eb8 ab3d 5a7f 2ebe c0db 23bd
000001e0: f896 8f3d bb34 a8bd f4ce 0dbe 9537 10bc
000001f0: 6505 84bc 1075 79bb 9ef3 06bd 1164 a8bd
00000200: 5de3 31bc 29eb 9d3d a8f1 123d ebdd 9fbd
00000210: a71d 55bc a2f9 f53d 9564 4dbd 3c03 ab3d
00000220: cc2c 00be 7a72 0e3e 8bb9 a9bc 18f3 09bd
00000230: 02f4 d53d 1832 a3bd 166e 30bd d96b 47bd
00000240: a3cb f93d 00c9 14bd af74 42bd 41b4 6dbd
00000250: a5b9 ba3d 2cfd cfbd 8f42 393d 7164 b43d
00000260: 03e8 53bb 3844 d73d da28 29bd ec4e 933d
00000270: ae85 033e f4e0 0cbe 44ca d8bc 838d f6bd
00000280: bda6 1dbd 6ab5 24bd 45c5 e5bd 207c 0dbe
00000290: 2320 783d 21d3 033e d773 01be 81a6 52bc
000002a0: 027a 48bd 17e4 4c3d c237 df3d 2f4c d13d
000002b0: 2aa2 f33d b582 a73d fc31 5bbd 143d 22bc
000002c0: 3a9a 2e3d 5121 bcbd 66bf ea3d 9d73 b8bd
000002d0: ea42 e23c 8646 e63c b981 2b3d 35f6 2abd
000002e0: 88e1 babd bebe 623c a731 aa3d 22ee c53d
000002f0: 6815 983d a944 12bd d990 9a3c d27b 963d
00000300: 54fb 333d 70de ac3d 3b47 5bbd 3d99 0abd
00000310: 500d a33c ecf2 bb3d 6b1b 30bd 6cb4 cd3c
00000320: 4503 b83c a163 e3bd 620a b63d 1c0a 163d
00000330: e747 87bd 9bc9 583d bae5 df3d a023 01bd
00000340: 5641 d83d a836 cfbd b4fe d8bd e3d1 cf3d
00000350: df2f b43d 934a 823c 3278 3c3d caef 453d
00000360: bd72 b6bd fcec b0bd 3815 d23d c807 0cbe
00000370: 230c 033d 6db7 103c cb6c 093d c3e0 493c
00000380: cd00 763d 0e04 533d 1db1 e73c b6bc 173e
00000390: b499 ca3d 3350 99bd c77d 613d 0ab9 28bd
000003a0: d95c d7bd cc0f 8f3d 8d1a 2f3d b09c 69bc
000003b0: 4af3 093d 4ca0 0bbe 4404 c0bd c1ce 003e
000003c0: 1da3 f83d 7d1c 9f3c aa4a 9abd fd17 1c3c
000003d0: ec04 513c b9df 05be 3ed2 8e3d fc9d 9e3b
000003e0: a89a edbd b55c d33d 669a 09bd 5586 dbbc
000003f0: e653 713d f775 de3d 05e8 3739 fecb 303d
-0.058631435 -0.11626007 0.07387083 -0.06918908 -0.0040510823 0.1224915 -0.03646029 0.037632763
-0.046350874 -0.01641671 0.01734675 -0.09049898 -0.040413406 0.092911 0.055001784 0.078680135
-0.036611978 -0.036475264 -0.013746048 -0.06596382 -0.070745975 -0.05063275 -0.037606537 -0.097989954
0.056772042 -0.033770736 0.09318921 -0.008192517 0.068295516 -0.020188443 -0.12812982 -0.039253786
-0.047662538 0.037682895 0.07837546 -0.15450752 -0.060872927 -0.025163475 0.037781466 0.010212703
-0.012767646 -0.11531258 0.122548886 -0.09358304 -0.06559943 0.00988728 0.03608215 -0.11772225
0.09594154 0.0028446359 0.056154925 0.07500534 0.061908755 -0.091334134 -0.092112094 -0.009889334
0.08795512 0.117764734 -0.102371 -0.1369064 -0.011892909 0.055094443 0.019324573 0.102592476
0.10073392 -0.013133191 0.01782041 0.09175127 0.062131893 -0.050625805 0.012562645 0.059445012
-0.047292173 0.05043784 0.10259653 0.1103886 0.090936616 0.057116874 -0.06758114 0.098202154
-0.06365063 -0.053138033 -0.07995944 -0.0102481665 -0.09051656 0.09066725 0.022131765 -0.011028332
-0.005549672 -0.0122976 -0.111620374 0.0084685255 0.09906664 0.0663268 -0.023522185 0.024749951
-0.10928665 0.07438581 0.08957132 -0.16558027 -0.05828267 0.14505583 -0.1564899 4.8915836e-06
-0.039145038 0.05917357 -0.044410914 -0.10785113 -0.06325637 -0.07796599 0.003903923 -0.13247205
0.0042862464 -0.009104194 -0.019630024 -0.016712781 0.14142267 0.083847746 -0.17040768 -0.04000449
0.07011217 -0.082131825 -0.13848478 -0.008802314 -0.016115854 -0.003806416 -0.032947175 -0.08222211
-0.01085743 0.07710869 0.035874993 -0.07805999 -0.013007558 0.12010504 -0.05014475 0.08350226
-0.12517089 0.13910857 -0.020718357 -0.033679098 0.104469314 -0.07968539 -0.043073736 -0.048686836
0.12197044 -0.0363245 -0.04747456 -0.05803323 0.0911744 -0.101557106 0.04522949 0.0880822
-0.0032334335 0.105110586 -0.041298725 0.071927875 0.12843964 -0.13757688 -0.026463635 -0.1203871
-0.038489092 -0.040212072 -0.11219267 -0.13816881 0.060577523 0.12873508 -0.12641846 -0.01285708
-0.04894448 0.05002221 0.10899307 0.10219609 0.11896165 0.08179227 -0.053514466 -0.0099022575
0.04262755 -0.09186042 0.114622876 -0.090064265 0.027619798 0.0281098 0.04187176 -0.041738708
-0.09125048 0.013839422 0.08310252 0.09664561 0.07425958 -0.03571001 0.018867897 0.073478356
0.043940857 0.08440864 -0.053534728 -0.033837546 0.019903809 0.09177193 -0.042994898 0.025110446
0.022462497 -0.11102987 0.08888699 0.036630735 -0.06605511 0.05292664 0.10932489 -0.031528115
0.10559337 -0.10117847 -0.10595456 0.101474546 0.08798193 0.0159047 0.046013065 0.048324384
-0.08908603 -0.08638951 0.102579534 -0.13674843 0.031993996 0.008832795 0.03355102 0.012321654
0.060059357 0.05151754 0.028282696 0.14818081 0.09892598 -0.07486 0.05505159 -0.041192092
-0.10515756 0.06985435 0.04274993 -0.014258549 0.033679284 -0.13635367 -0.093758136 0.1257887
0.121404864 0.019422764 -0.07533772 0.009527204 0.012757521 -0.13073625 0.06973694 0.0048406105
-0.11601764 0.10320417 -0.03359451 -0.026797453 0.058917902 0.10862344 0.00017538674 0.043163292

transformer.layers.0.0.fn.fn.to_out.bias f4 [64]
00000000: 5e9f db3d 7284 273c e97b 0ebe b961 a9bb
00000010: 26e5 9d3d 28f8 9bbd 7bea 0ebd f59d bebd
00000020: fe9b 56bd 5178 a4bd f5ae 4e3d 8557 733d
00000030: e774 b13c 4749 62bd b9ab bc3d 0b3b 953c
00000040: 112f 803d 313a 943d 8371 fd3d 5d49 093d
00000050: d2dc 083e 3d16 bebd 3ef1 c3bd 562c b33d
00000060: d361 073c 6382 38bd 790e 0b3e 6d37 423d
00000070: f6cb 463d 9e84 41bd 8400 443d babb 8ebd
00000080: 7501 ec3d 64d8 b9bd 787c 1fbd 118d 283d
00000090: 7cd4 2bbd 76d5 f03c 9ea4 743d 9db7 063e
000000a0: df6b 923c 301d 973d 14cf 193d b2a8 5b3d
000000b0: 1215 de3d 574b bfbd b229 a0bc 71c9 a0bd
000000c0: 75c5 4d3d 7975 97bd 2bd5 b83d d9f3 02bb
000000d0: 2fbd d93d acef f9bd b7d7 c73d e8ab 1cbd
000000e0: f42e 873b 94ce 9ebd a355 f0bb 3803 09bc
000000f0: c5be f53d c4fd 75bd dce1 2dbc e88c 93bc
0.10723756 0.0102244485 -0.13914455 -0.00516912 0.07709722 -0.076156914 -0.034891587 -0.09307472
-0.05239486 -0.08030761 0.05045982 0.059409637 0.021662189 -0.055245664 0.09212441 0.01821663
0.06258977 0.07237662 0.12375166 0.03351723 0.13365486 -0.09281585 -0.09567498 0.08748691
0.008263069 -0.04504622 0.1357974 0.04741614 0.048534356 -0.047245614 0.047852054 -0.069694
0.115237154 -0.09074476 -0.038937062 0.041150156 -0.041950688 0.029398661 0.059727304 0.1315598
0.017873703 0.07378614 0.037551 0.053627677 0.108438626 -0.09340542 -0.019551132 -0.07850922
0.050237138 -0.07395453 0.090250336 -0.001998177 0.10631787 -0.12203917 0.09757941 -0.03824988
0.0041254703 -0.077542454 -0.0073344274 -0.008362584 0.11999277 -0.060056463 -0.010612931 -0.018011525

transformer.layers.0.1.fn.norm.weight f4 [64]
00000000: f303 803f 2da7 763f 006e 783f 0add 7d3f
00000010: b5a1 783f 7bab 743f 87ce 803f 6564 7b3f
00000020: 4db5 7d3f d8ad 7c3f 2f0e 7f3f 43c3 7e3f
00000030: c595 7d3f 61b6 813f c764 7b3f 69d7 793f
00000040: 93ea 7d3f 6be2 7e3f b27e 7f3f 95fb 7c3f
00000050: d224 7f3f 1748 7d3f 3c4b 7d3f 28d6 793f
00000060: b344 7e3f 58b9 803f 6712 783f 446f 793f
00000070: 45f7 7e3f 8f0a 803f 4343 833f b445 7c3f
00000080: e3c8 703f 260b 7c3f beaf 7f3f c282 7d3f
00000090: 69b9 783f f5ea 7c3f 5965 7f3f fa5e 7b3f
000000a0: a689 7c3f fb50 7e3f 8a40 783f 476d 813f
000000b0: 7d2a 773f abe5 7d3f 9d32 7d3f 8f03 7f3f
000000c0: f7ef 7a3f 8425 7f3f 1566 7a3f 8256 803f
000000d0: 390f 7b3f 1cdd 763f 0e9f 803f a1f3 7c3f
000000e0: 0868 7b3f 380b 783f 7a53 783f 508d 7d3f
000000f0: 3611 7c3f 6b97 7e3f c12f 753f ecd6 7a3f
1.0001205 0.9634884 0.97042847 0.99165404 0.97121745 0.9557416 1.0063027 0.98200065
0.9910477 0.98702765 0.9963102 0.99516696 0.99056655 1.0133783 0.9820065 0.97594315
0.99186057 0.99564236 0.99802697 0.98821384 0.9966556 0.98938125 0.98942924 0.975924
0.99323577 1.0056562 0.9690308 0.974354 0.99596053 1.0003222 1.0254902 0.9854386
0.9405653 0.9845451 0.99877536 0.99027646 0.97157913 0.98796016 0.9976402 0.981918
0.98647535 0.99342316 0.9697348 1.0111474 0.96549207 0.9917857 0.98905355 0.99614805
0.9802241 0.9966662 0.97812015 1.00264 0.980701 0.96431136 1.004854 0.9880925
0.98205614 0.9689212 0.97002375 0.9904375 0.9846376 0.99449795 0.9577599 0.97984195

transformer.layers.0.1.fn.norm.bias f4 [64]
00000000: 97c8 54ba 0e69 0fbd bbf7 d2bc fcb5 fc3b
00000010: 0d62 99bc 2428 323d 10fb 423c cd1d 823c
00000020: 29c8 183c 3f2f 68bc 025f c4bb 9c3d ab3b
00000030: 5d63 043c 77d8 4abc 420d 9b3c 0b26 c3bc
00000040: 3445 a9bb 6757 9b3b f8ed 443b 1c95 313c
00000050: ac45 9a3b 1d6a 5dbc 4741 6f3c f0fc b4bc
00000060: 2480 efbb 3e7b 263a c163 e43c a6cb d0bc
00000070: 6b1a aebb 960d 22bc 4042 0dbc 23ab 81bc
00000080: 70e8 62bd 1f5b 753c 9baf de3b 4113 1cbc
00000090: 59a3 02bd e191 16bc 8d7c 2d3b 7bb5 9c3c
000000a0: ec34 543c a203 e7bb 5da5 fa3c 6bf3 29bc
000000b0: 595d 063d bc14 f4bb 56df 0dbb e845 5a3b
000000c0: 5eac abbc bcf8 aa3b 632c ab3c 34fe 6f3b
000000d0: efff 9f3c 308f 1ebd f047 8c3b 81ca 263c
000000e0: 94f3 823c 1222 fa3c 17a5 ee3c b9ba 35bc
000000f0: 7489 d83c a2ed c1bb d664 2c3d 483f 94bc
-0.00081170484 -0.035012297 -0.025752893 0.007712124 -0.018723512 0.043495312 0.011900678 0.01588335
0.009325066 -0.014171421 -0.005992771 0.0052258503 0.008080331 -0.012380711 0.01892722 -0.023821851
-0.0051657204 0.004740644 0.0030049067 0.010838773 0.0047080126 -0.013514069 0.014602966 -0.022093266
-0.0073089767 0.0006350762 0.027879598 -0.025487732 -0.005313208 -0.009890934 -0.008621752 -0.015828675
-0.05539745 0.014975338 0.006795836 -0.009526075 -0.03189406 -0.009190054 0.0026471943 0.019129505
0.012952071 -0.0070499936 0.03059643 -0.010372977 0.032803867 -0.007448761 -0.0021648011 0.0033305828
-0.020956215 0.0052176397 0.020895189 0.0036620023 0.019531218 -0.038710773 0.0042810366 0.010180117
0.015985288 0.030533824 0.029131455 -0.011091881 0.02643273 -0.0059182206 0.042088352 -0.018096581

transformer.layers.0.1.fn.fn.net.0.weight f4 [128, 64]
00000000: 418b 813d 4320 10be 82b6 11be bbc1 723d
00000010: bd64 693d 51a1 1b3a f13c acbd 8428 743d
00000020: e9db 0b3e 336d 01be a2b4 493c 43b8 003e
00000030: cd6b ed3c da23 19bd 480b 8c3c 998c 20be
00000040: ba88 24be 6d5a c43c bc92 943d f9ee c03d
00000050: dfe3 223e d39d 28bd a805 bfbc bc9e dabd
00000060: acef 3dbd 579c eb3c 38b2 2bbc 8914 00be
00000070: 81ed 0bbe 541b 15be fc1d fb3d 869d 613c
00000080: 5301 793d fdae da3c 54c2 3f3d b85e 3ebd
00000090: 75ae ed3c 5f91 13bd 96b1 82bd 8428 203e
000000a0: 27ad dd3d 2c50 16bd 833e 5e3d 04eb 03bd
000000b0: df9c 063d 2116 c8bc 52b1 093d f8a2 e33d
000000c0: 0873 80bd 6a18 153d 5f28 053d ee42 b5bb
000000d0: 5658 0a3c d50a 00be ba28 e9bc 616e 73bd
000000e0: 4f9b 933d 867c 113e ae8b b0bc 1d2e 7ebd
000000f0: dfe9 083e cb2a dbbd 8ee4 c73b 105a c4bd
00000100: 383f edbd 57f0 00be 3fc9 af3d 0807 d3ba
00000110: 8825 fabd 1ca4 96bd d561 843d 2333 bbbb
00000120: 86c3 80bd a82d 1a3c 060c 6cbd 42a3 303d
00000130: 05e7 543d 32f4 6abd ea09 8abd e539 a23d
00000140: 5491 bebd a953 f3b9 e551 a83d 4eab 3fbd
00000150: 628e febc 3a93 43ba eb8e 9d3d 67dd b53c
00000160: d41e a73d cdfb 8d3d 0a33 5fbc 7881 39bd
00000170: 2b8f fb3c 8adb 94bd d9c8 923d 3e68 e33d
00000180: 50a4 8cba 2324 bb3d b9b0 d8bd 8624 f6bd
00000190: 0feb c53d 2371 b1bc 119d 093d 0303 0fbc
000001a0: 3af6 853d e3ed a9bd 047c 63bd 9166 933d
000001b0: 4767 f6ba 39e5 94bd 5c99 bc3d aae8 bd3d
000001c0: 246b 933c 750e 373c ca31 0a3e 1275 36bd
000001d0: 2fa8 403d 5491 ff3c cfc8 c23a 8c72 c73d
000001e0: 151a e03d 315e 22bd 5f0e 8f3d 4c4d 653d
000001f0: fddc 073e 5e6d edbd 408f a93c 2875 4bbd
00000200: 4f72 8dbc 8a1a a53b f9e4 d0bd 147d 59bc
00000210: 2355 dabc 6747 f63a 5a8f 22bc cf4c 8dbd
00000220: 522e 96bd 2ab0 393d fe82 d43d 3214 79bd
00000230: c64e 813d ad6d ddbc e170 823d 3e14 e73c
00000240: 8097 dbbd 558e d1bd cb1c d53c 4ea6 5abb
00000250: e125 cc3d 95d0 bbbc 82df fe3d 5239 a33a
00000260: 19cc ec3d 43cb 23bd 4171 9f3d 978b 763c
00000270: 9a46 b5bc 0d2d f0bc e552 6abc 2380 543d
00000280: 1fd4 b83d d4d0 a73d 88ec f63a 0917 fc3d
00000290: 9231 e8bd 749f f53d bc9f 90bd 19ad b33d
000002a0: 00c0 c63c a96f 113c 19b7 f53d 5856 5b3c
000002b0: 9cf7 48bd 00a9 cb3d 3461 983b d030 413d
000002c0: 9460 1c3d b099 fbbb 9cc1 803d 0076 edbd
000002d0: b447 273d b6ed 3ebd b1f7 99bd 1338 aebc
000002e0: 3796 ecbc 65c9 aa3d f14b f53d 140e c0bd
000002f0: c473 943d fd74 9dbd 9703 a03d 9a0c 35bc
00000300: ceb7 c83d a41e e13d c64f 95bd 7aea f5bd
00000310: d8e4 9b3d 0103 c4bd d932 0f3e b2a1 353d
00000320: da67 563d 257a a5bc 241b cb3d 7181 a9bd
00000330: 6fea 863b 2182 62bd 54fe 743d 7abb 09bd
00000340: ee9c f83d 7a7b 14be 7fb9 05be 1570 95bd
00000350: bd94 ae3d 9656 babb fcc7 17bd 52fb 58bd
00000360: 7da2 e93d 8292 1c3e 4c87 b03c 9f8d aebd
00000370: fd84 103e 78f2 28bd 64dd 293d bb70 cb3d
00000380: c03d 10bd 5770 1fbd 8ca7 a43c 57b9 ddbc
00000390: e970 9e3d d0d8 553c 9dc2 e8bd c4be d53d
000003a0: 0ad7 8a3d a85d 0c3e e763 cf3c 5ac2 b6bd
000003b0: b950 303d d81d 65bd bcc8 a33d 0ec4 333d
000003c0: 9c2e cebc 7d36 15bd c855 a7b9 bf75 f03d
000003d0: 496e 3cbc d902 e23d c662 8bbd 1c8d d33c
000003e0: 195e 97bd 2bd9 1f3d 653f 703d 4bd8 bd3d
000003f0: 8c1a 9c3d f170 19bd b73d 463d 2dd7 b0bd
0.06325389 -0.14074807 -0.14229777 0.059266787 0.056980837 0.0005936819 -0.08410061 0.05960895
0.13658108 -0.12639312 0.012311133 0.1257029 0.028982067 -0.037387706 0.017095223 -0.15678634
-0.16067782 0.0239689 0.0725455 0.094205804 0.15907238 -0.041166138 -0.023318127 -0.106748074
-0.046371147 0.028761072 -0.010479502 -0.12507834 -0.1366482 -0.14561206 0.122615784 0.013770467
0.06079228 0.026694769 0.046816185 -0.04647705 0.029013852 -0.03602731 -0.06381528 0.15640455
0.10824042 -0.03669755 0.054258835 -0.03220655 0.032864448 -0.024424614 0.03361637 0.11115068
-0.062719405 0.036400236 0.032509204 -0.0055316603 0.0084439125 -0.12504132 -0.028461803 -0.059431437
0.07207357 0.14207658 -0.02155098 -0.062055696 0.13370465 -0.107015215 0.006100244 -0.095874906
-0.11584324 -0.12591682 0.085833065 -0.0016100118 -0.1221419 -0.0735552 0.064639725 -0.005712883
-0.06287293 0.009410299 -0.057628654 0.043124445 0.05197813 -0.05736179 -0.06740172 0.07921199
-0.09305063 -0.00046410903 0.08218745 -0.04679423 -0.031073753 -0.0007460598 0.07693275 0.0222003
0.08160177 0.06932793 -0.0136230085 -0.045289487 0.030707916 -0.07268436 0.07167215 0.11103867
-0.0010730121 0.09137752 -0.10580582 -0.12018685 0.096639745 -0.021660393 0.033597056 -0.008728745
0.065411046 -0.082973264 -0.055538192 0.07197297 -0.001879909 -0.07270283 0.092089385 0.09272893
0.017995425 0.01117288 0.13495556 -0.04454524 0.047035392 0.031197228 0.0014860871 0.09738645
0.10942475 -0.03964061 0.06985163 0.05598192 0.13267894 -0.11593126 0.02069819 -0.049672276
-0.01726642 0.005038564 -0.10199923 -0.01327445 -0.026651924 0.001878959 -0.009921873 -0.06899416
-0.07333054 0.04533402 0.10376547 -0.060810275 0.06313853 -0.027029837 0.06369186 0.028207894
-0.10722256 -0.10232226 0.026014706 -0.0033363285 0.09968162 -0.022926608 0.124449745 0.0012452996
0.11562366 -0.039988767 0.07785273 0.015047929 -0.022128392 -0.029318357 -0.01430199 0.051880013
0.09024834 0.08194128 0.0018838802 0.12309081 -0.1133758 0.11993304 -0.07061717 0.0877325
0.024261475 0.0088767195 0.11997814 0.013387285 -0.049064264 0.099443436 0.0046502594 0.04716569
0.03817804 -0.007678233 0.06286928 -0.11594772 0.040839866 -0.046613418 -0.075179465 -0.021266973
-0.028880222 0.08339194 0.11977375 -0.09377685 0.07248643 -0.07688329 0.07813185 -0.011050368
0.09800683 0.10992172 -0.07290606 -0.120076135 0.07612008 -0.095708854 0.1398424 0.044343658
0.052345134 -0.020199845 0.09917286 -0.08276642 0.004117302 -0.05529988 0.05981286 -0.033626057
0.12139307 -0.14500228 -0.13059042 -0.072967686 0.08524463 -0.0056865914 -0.037055954 -0.052974053
0.11407945 0.15290263 0.02154889 -0.08523106 0.14113231 -0.04124686 0.0414709 0.09933611
-0.03521514 -0.038925495 0.020099424 -0.027065916 0.0773638 0.01305218 -0.113652445 0.10436776
0.06779297 0.13707602 0.025316192 -0.08923788 0.043045733 -0.055936664 0.079972714 0.043888144
-0.02516871 -0.036428917 -0.00031916634 0.11741208 -0.011500903 0.110356994 -0.06805949 0.025824122
-0.073909946 0.039025467 0.058654208 0.0926977 0.07622251 -0.037461225 0.0483987 -0.086347915

transformer.layers.0.1.fn.fn.net.0.bias f4 [128]
00000000: 30f6 a33d 6f49 093d 437d f63c 4281 93bd
00000010: 98ad 003d d337 b7bd 5710 c5bd 896d 803d
00000020: dd4f a3bd b1f7 ed3d 3012 c23c d009 53bd
00000030: 0aeb 073d fea8 053c 205a d7bd ba51 bcbc
00000040: 23be f9bd a059 23bd 4204 0abe 86b2 923d
00000050: 6ec5 1c3c ab78 c1bd b983 b1bd 2180 1fbd
00000060: 2917 f1bb 77da 8bbd 8d91 6b3d c619 6cbd
00000070: 3be5 b63d c63f e03c 0707 87bd c293 533d
00000080: a69c f9bd a0e2 d73d d2b3 23bd 9085 6bbc
00000090: 6aaa aabd 11b6 a8bd f76a ebbd 1c17 b53d
000000a0: 3675 fd3d a823 82bd 9728 8c3d 8093 a8bd
000000b0: ebb6 8bbb 2ccd 87bd 9563 f9bc 84ac 9c3d
000000c0: 7dda 383d b38e 04be b77a 483d d403 83bd
000000d0: 92cd cc3b 2063 653b 61ac 43bd 5061 e3bc
000000e0: 4ce3 a3bd 1c6f a5bd 66b9 fbbd 3ec3 d73d
000000f0: 6455 e23d 73b2 5cbd 7b74 8a3c 5282 8abd
00000100: 7530 e7bd ec70 b33c ab44 d0bc cae9 073d
00000110: 88b2 d43d 2bf5 983d cfa3 9dbd 0bc1 d2bd
00000120: ea6c 553c a96b 7a3c 31be 813d 71dd eb3c
00000130: c1b8 e3bd 2dcf f13d 4247 3b3d 8980 b7bc
00000140: d50b 133d dc57 b83d a2cb 233d bfa0 143e
00000150: 8778 0abd 420e 2c3d 8949 c3bd 89c3 663d
00000160: 52ed fd3d 55a9 c7bd 8cac 473d 32f8 c6bd
00000170: 0b67 0cbe 9a22 ae3c c25f 0e3d 6fb5 ee3d
00000180: afdb 253d e8dc 4b3d 1d27 bb3c 9bfc 99bd
00000190: a126 ecba eae9 86bc d832 02be 9618 1e3d
000001a0: 6d36 1cbd 047c febd fc5c d0bc b313 fbb9
000001b0: 416a 6ebb b3a9 cebd 7ae8 d7bd b774 4c3c
000001c0: 99aa 4d3d e6e1 8e3b 5c03 57bd df9f aa3d
000001d0: a391 9a3d 4131 3d3d a828 5cbd c1b2 a1bd
000001e0: 39eb 7f3d ef47 f0bd da6f bbbd f160 bc3c
000001f0: 450b 51bc 29e5 f4bd 0175 0c3e 8037 033c
0.08005941 0.033517297 0.030089026 -0.07202388 0.031415552 -0.089461945 -0.09622257 0.06270892
-0.07974217 0.11619509 0.023690313 -0.05152303 0.033183135 0.008157967 -0.10515237 -0.022988189
-0.12194469 -0.039880395 -0.13478187 0.07162957 0.009568555 -0.09446844 -0.08667702 -0.038940553
-0.0073574972 -0.06828778 0.057511855 -0.057641767 0.08930441 0.02737416 -0.06593137 0.051654585
-0.121880814 0.10541272 -0.039966412 -0.0143751055 -0.08333285 -0.082378514 -0.11495011 0.088422984
0.12375872 -0.06354457 0.068436794 -0.082312584 -0.004263749 -0.0663093 -0.030442992 0.07650092
0.04513024 -0.1294506 0.048945155 -0.063972145 0.006250092 0.003500171 -0.047771815 -0.027756363
-0.08002338 -0.08077833 -0.12291221 0.10535286 0.11051443 -0.05388112 0.016901245 -0.06763138
-0.11288539 0.021904431 -0.025423368 0.033181943 0.10385615 0.07468637 -0.0769726 -0.10290726
0.013026455 0.015284457 0.06335104 0.028792115 -0.111192234 0.11807094 0.045722254 -0.022400158
0.035899956 0.09001133 0.03998912 0.14514445 -0.03380635 0.042005785 -0.0953551 0.05633882
0.12398781 -0.097490944 0.048748538 -0.09715308 -0.13711183 0.021256734 0.03475929 0.116556995
0.04049271 0.04977122 0.0228458 -0.07518884 -0.0018016883 -0.01646896 -0.12714708 0.038597666
-0.038137842 -0.12425998 -0.025434963 -0.00047889128 -0.003637925 -0.10090961 -0.10542388 0.012478999
0.050211523 0.0043604253 -0.052493438 0.08331274 0.07547309 0.04618955 -0.05374971 -0.07895423
0.062480185 -0.1173247 -0.09152193 0.022995444 -0.0127590345 -0.11957771 0.13716508 0.008008838

transformer.layers.0.1.fn.fn.net.2.weight f4 [64, 128]
00000000: 1017 9b3d 81d9 6ebc 1316 a4bc e9fd 8cbd
00000010: 4ec6 b3bc 00d5 2c3d 0a3b 90bd 8063 e63c
00000020: d2cd 8d3d 5501 74bd 2c36 ccbc e4ab b6bc
00000030: ec5a 803c 3cb4 02bd e85b 1abd b248 173d
00000040: a111 b03d 6f7c 2dbc 0279 e53d 0eb5 243d
00000050: 5ccf a2bd 386f 093d 7904 8f3d f31d bd3d
00000060: 1f22 483c 2529 80bd 8029 d1bd 9134 0abd
00000070: 77eb 283c 1772 a4bd e589 9b3d 9d1f e73d
00000080: 53e2 393d 12a4 b93c 2d4a 2a3d e9a4 4e3d
00000090: 43cd 933d 30b0 acbd 86e9 843d 85e3 ce3d
000000a0: 98bd 2d3c 803a d63c 1b02 adbd b942 b33c
000000b0: a167 b03d 646d 98bd 141d 023d 59d5 61bd
000000c0: 735e bc3b 583f 80bd a35a 25bd b7bc 353c
000000d0: fb02 7bbd 43ee 99bd 764e 5aba d500 b2bd
000000e0: 49f8 71bc fd14 83bd 7ab3 573d b78a 50bd
000000f0: 0ab3 3a3d 5e4f 873d 3c0f c9bd c390 85bb
00000100: ac02 693d cd7f 88bd 1062 683d 2919 693b
00000110: 9ede 89bd 6e0f df3b 00e8 243d 66fc 8cbd
00000120: 4cec 8dbc 39f3 6cbc b409 313d 9ee5 74bd
00000130: fcb0 78bd 1e37 48bd e0a2 2f3d 180f 6e3d
00000140: f33f 2f3c 8ce7 383c 79b2 fe3c 48dc e33b
00000150: c580 01bd 4b2b ebbc fc01 4b3d 7343 95bd
00000160: 3346 6c3d eb54 193d 2e12 acbd db5a 9a3c
00000170: f8b2 1ebd bbb9 9cbc 56e8 6b3c b0e5 cf3a
00000180: 26d7 813d 3854 c5bd 3c2a 3e3d f818 15bd
00000190: b888 313d c527 913d 8907 5d3d 6cbf 2e3d
000001a0: c0da 0d3d 876e 3ebd 2cad ae3d 83f2 1b3d
000001b0: 34d9 adbc 7a2f 1dbd 9978 cc3d 09c3 5e3d
000001c0: 57e8 b2ba bcb0 8d3d 5e84 b3bb a68f adbd
000001d0: 7d92 033c d965 90bb af23 3ebd c887 60bd
000001e0: baa4 a13d 97f3 b3bd 8c34 fabc e767 92bd
000001f0: 8ddf 6f3c 17d3 a0bc 9254 b8bd a194 e0bc
00000200: 128b 753c d961 6a3d cff1 a8bc d514 fabd
00000210: d050 8f3d 9888 79bd a111 1ebd 3f06 833d
00000220: d934 55bd a1b6 6cbd 8960 33bc 45f6 1abd
00000230: 9c10 2a3d 4818 e43c 2bb5 613d 63f1 233d
00000240: cd1d aa3d e79b 93bd 723d c53d d9d5 023e
00000250: 1cdd 02be e952 49bd 1c43 b1bc 1612 8a3d
00000260: 4ce0 aabd c4f7 a03c 6e7e a1bd e00e 503d
00000270: 5508 793d 773e af3c 583e 43bd fba5 943d
00000280: f134 4d3d 3dde 723d 5d9c 403d b645 913c
00000290: 7079 833d 4f9e 593d 23ae e63c 4acb 083d
000002a0: 091b d7bc 1843 393d d938 73bd 3001 f3bc
000002b0: 802f d13d 21c4 dcba 273f d2bd 6b67 85bd
000002c0: 6b53 a13d 3e24 9c3c a2e9 59bd 466c a23d
000002d0: 4209 d7bd 5780 98bd c71f deba fa69 ff3c
000002e0: 3738 033d 4c09 023d 3d1d ed3d 05ac 653c
000002f0: 29ef cc3c 67c2 c23d baa7 3abb 5e80 e73c
00000300: 4d3e 8cbd 8a10 823d 187d a43a bbc8 bebc
00000310: 0a7e f0bc c1fc 63bd 628f 29bc a292 ee3c
00000320: cd7f a93d 72d5 72bd 1206 87bd a3a5 d6bb
00000330: a304 90bc 4aa5 45bd 66d9 e53d aa2f f73d
00000340: 8a5b 8d3c 8378 363c c324 e53c 95d3 053d
00000350: 73cd 16bd 4622 60bd fe5e 44bd f289 79bd
00000360: d1c6 593c 58af 71bd 2fc2 0bbd 35f6 ee3b
00000370: e15f adbc 583e 64bd d08a 41bd ee78 3dbd
00000380: 5bbe acbd 207d fd3c 65c6 03bd 6011 893d
00000390: 6ae1 4ebd 1266 5d3d 3112 40bc 00ae 9c3c
000003a0: 6582 c2bc 8ef4 cb3c 0477 54bc a42d b13d
000003b0: b3b7 2b3d 606e 593d 5b27 743d 1da5 0a3e
000003c0: 2d9d 4c3d 74f8 963d 5f93 55bd ea63 973b
000003d0: ca3c 0ebd 137b eebd 5c8b 44bd 6760 903d
000003e0: eb59 8b3d 68aa a3bd 0664 62bd 9b07 39b8
000003f0: a9bb 9b3d d18b 8e3d 3d36 d7bd 7b1d 973d
0.07572758 -0.014578224 -0.020030057 -0.06884367 -0.021945145 0.04219532 -0.07042511 0.028123617
0.06924023 -0.059571583 -0.024928175 -0.02229876 0.015668355 -0.031910166 -0.037685305 0.036934562
0.085971124 -0.010588749 0.11204721 0.04021173 -0.07949707 0.033553332 0.06983275 0.09234228
0.012215166 -0.06257848 -0.102129936 -0.033741537 0.010310045 -0.080295734 0.07594661 0.11285327
0.045381855 0.022661243 0.041574646 0.05045024 0.07216885 -0.084320426 0.064898536 0.1010199
0.010604285 0.026150942 -0.08447667 0.021882402 0.08613516 -0.074427396 0.031766012 -0.055135105
0.005748564 -0.06262082 -0.04036964 0.011092356 -0.06128214 -0.07516148 -0.00083277316 -0.08691565
-0.014768668 -0.064004876 0.052661397 -0.05091354 0.0455809 0.06606935 -0.09817359 -0.004076095
0.056887314 -0.06665001 0.056734145 0.0035567975 -0.06731914 0.0068072593 0.040260315 -0.06884079
-0.01732459 -0.014462286 0.043222144 -0.059789293 -0.06071566 -0.04888069 0.04287994 0.058119863
0.010696399 0.011285674 0.031090962 0.00695375 -0.031616945 -0.028707167 0.04956244 -0.072882555
0.057684135 0.0374345 -0.08401905 0.018842151 -0.038744897 -0.019131532 0.014398655 0.0015861299
0.063398644 -0.09635204 0.046426997 -0.036400765 0.043343276 0.070876636 0.053962264 0.042663023
0.034632444 -0.046492126 0.08529124 0.038073074 -0.021221735 -0.038375355 0.0998394 0.05438522
-0.0013649565 0.06918475 -0.005478426 -0.084746644 0.008030531 -0.0044066724 -0.04642075 -0.05481699
0.07892747 -0.087866955 -0.030542634 -0.07148724 0.014640701 -0.019631905 -0.090005055 -0.027414622
0.01498677 0.05722222 -0.020623116 -0.12211005 0.06997836 -0.06092128 -0.03859103 0.06397676
-0.052052353 -0.057791356 -0.010948309 -0.037832517 0.041519746 0.02784361 0.055104416 0.040025126
0.08306465 -0.072074704 0.096308604 0.12776889 -0.12779659 -0.049151335 -0.021638446 0.06741731
-0.083435625 0.019649394 -0.07885443 0.050795436 0.06079896 0.02139209 -0.047666878 0.07258221
0.050099317 0.059293974 0.04702412 0.017733436 0.06419647 0.05312949 0.028159207 0.033396997
-0.026258009 0.04523 -0.059380386 -0.029663652 0.10214138 -0.0016843119 -0.102659516 -0.06513866
0.07877239 0.01906025 -0.053201325 0.07930808 -0.10499813 -0.07446354 -0.0016946726 0.031178463
0.032036033 0.031747147 0.115778424 0.014018063 0.025016384 0.095097356 -0.002848132 0.028259452
-0.068478204 0.06350811 0.0012549488 -0.023289075 -0.029356975 -0.055660967 -0.0103491265 0.029122654
0.08276329 -0.05928559 -0.06592955 -0.006550507 -0.017580336 -0.048253335 0.11223106 0.12069638
0.017255563 0.011137131 0.02797163 0.032672483 -0.036817025 -0.054720186 -0.047942154 -0.06092257
0.01329203 -0.05900511 -0.034120735 0.0072925338 -0.021163883 -0.055723518 -0.047251523 -0.046257906
-0.08434745 0.030943453 -0.032171626 0.06692767 -0.05050794 0.05405242 -0.011723087 0.019125938
-0.023743818 0.024896886 -0.012967829 0.086512834 0.041923236 0.053083777 0.059607845 0.13539548
0.049954582 0.073716074 -0.052142497 0.004620065 -0.03472594 -0.11644568 -0.047984466 0.07049637
0.0680426 -0.07991487 -0.05527117 -4.411452e-05 0.07604153 0.069602616 -0.10508392 0.0737867

transformer.layers.0.1.fn.fn.net.2.bias f4 [64]
00000000: 0cd7 013d 2b05 03bd 8e6a 283d f008 2cbb
00000010: cd92 3e3d 4819 6bbb 7f76 99bd 2040 883d
00000020: a539 0fbc 8985 7d3a 8a99 34bc 9a1a 95bc
00000030: a125 1f3d b90a 473d e69c c43c 7f10 e8bc
00000040: c36d 57bc 8ef9 05bd d225 fc3c 4c95 1cbc
00000050: 64b5 bf3c b90a bfbd 0b6a 3d3c 607d 013d
00000060: 7a0b d0bd 818f a73d f598 39bd 8d96 febc
00000070: 39ff 92b8 fc51 8abd cb26 61bd 1a9d 8b3c
00000080: 4269 2c3d 0416 a7bc 20eb 28bd d1d5 883c
00000090: 32ca 8bbd 41ff 713b 5baa 4ebd c9ad fd3b
000000a0: 6e15 803d 9774 aabc da0b bc3d f3ca 8e3d
000000b0: 90e6 033d dc0a 06bd ade8 68bd 502d 28bd
000000c0: 529c 08bd 8236 68bd 1be3 6a3d c32f bc3c
000000d0: 0b60 c43d 69da 0abb 8e58 a7bd 8bac c73d
000000e0: 333a e1bc 285f 593c 9f9e b73d e5ea 56bd
000000f0: fd2a 1f3d 5862 18bd 36f7 ccbc 8c32 333a
0.031699225 -0.03198735 0.041117243 -0.0026250444 0.04652672 -0.0035873223 -0.074933045 0.06652856
-0.008741771 0.00096710824 -0.011022935 -0.018201161 0.038854245 0.04859421 0.024000596 -0.028328178
-0.013148728 -0.032708697 0.030779753 -0.0095570795 0.023401923 -0.09328217 0.011560927 0.031613708
-0.10158439 0.08181668 -0.045311887 -0.031077648 -7.0093614e-05 -0.067539185 -0.054968636 0.017042685
0.04209257 -0.02039624 -0.041239858 0.016703518 -0.06825675 0.0036925825 -0.050455432 0.007741664
0.062540874 -0.020807547 0.09181948 0.06972303 0.032202303 -0.0327252 -0.056862522 -0.04105884
-0.033352204 -0.056692608 0.05734549 0.022971993 0.09588631 -0.0021187312 -0.08171187 0.09749707
-0.027493572 0.013267316 0.089658014 -0.052470107 0.038859356 -0.037203163 -0.025020223 0.000683584
