model_training/trained_models/model_145_ViT_300_early_stopping.pth (torch, 173192 bytes, 16 tensors)

patch_to_embedding.weight f4 [64, 192]
00000000: f52b 652d cfdb 06ad e494 a025 e94d f6ba
00000010: 4707 6dab 5d8f 2a2c 20ff a01f 1477 cfae
00000020: 3118 a91e aa1d 901e f5df 7cb4 9750 1eb1
00000030: 5047 8c1e af67 e21e b833 2ea7 8c85 0b3a
00000040: 64df 5db9 72d6 68b6 981e 41b9 cf17 b31e
00000050: ed88 8daf d1e2 6ca5 e350 652e 36f5 d49e
00000060: ed84 4cb9 689b 143b 5084 f49e e61f f6ad
00000070: 2aec 2836 a525 039f 163b 3ca0 9592 109f
00000080: a3e3 2d21 c97b 12ba 9111 f89d 19f8 bf2b
00000090: e31a b89f 5544 d31e 61cc d0a9 39fc 159e
000000a0: 4e2d ba1e e8e4 dd9e 54a2 511f 9bab f41c
000000b0: 5e7c dfa4 1593 a51e 6e7d 2e26 f333 d09e
000000c0: 5853 95ba d717 12b6 a9d3 3b2b 1c71 c73a
000000d0: 7bd2 4c1f 5985 26b5 006f 0f3a 175c ba1e
000000e0: dfd7 221f 22ad 4aaf b0ba dc1e ac55 6b1c
000000f0: bcd1 379f 4261 8520 3706 041e 085d 463a
00000100: 76b4 2828 ae48 67af eb54 6b9e 9b1b c224
00000110: 4f2a 4422 b418 5f36 bdc8 099f ddc5 ab38
00000120: 63c6 d228 034b 5f1f a99e b29e 8f9b 87bb
00000130: b962 cb9e b990 d0b6 74c5 afae 484e d51d
00000140: c823 19a9 20f5 7433 26c3 ef9e 2790 4a1f
00000150: 4c57 b9aa 2772 2d28 559a 099f ca51 2a20
00000160: 4d1b de38 197d cb1e 979d f39e 43d9 ed9e
00000170: 5248 9135 7f2a d629 d460 c11e 2630 e39e
00000180: c86c 38a0 2364 e734 5c0c f2b4 2686 6b9f
00000190: 7dd7 e51e 5b1e 1926 0363 e99e cb74 611f
000001a0: 67af 099f 3759 2135 9d25 a31f 5dd7 25a8
000001b0: f9ae 3d9f 1cdf bf30 a7c8 b61e 6856 c5b0
000001c0: 563e 26b0 5d4f 121f fb6e 861f f478 659d
000001d0: bdc7 abb3 3dcb 2bb9 1d43 43a9 c83b 6cb9
000001e0: 70dc b51e f337 00b0 8d5f 8326 b96f 1739
000001f0: 685d 40a7 36c9 e5a7 fd28 44ab 9630 bcb7
00000200: 71b2 9bb0 bfa5 4e1f 4153 0d24 bb13 631d
00000210: f677 fa9e 8517 243c 2a1a 1830 233c 049f
00000220: e17d 0b2b b72c d81e 3802 049f 6625 609f
00000230: e91f ea36 ca2f cf3a ff2c 5424 36e9 60b3
00000240: 1d0b 7aba 27b9 0e24 52dc 4c1f 1768 712e
00000250: 753f 851e 1e70 889e 1dd6 63b7 b0a2 0b9f
00000260: 4f68 0da0 5916 fbb2 f310 ec36 6b00 a7a5
00000270: 4ad1 dc1e 1fb7 0b3b 414a 691e 6419 7b1e
00000280: 4c41 c9a9 0694 971e 45fd 093a 8c90 c61e
00000290: a4fb 3e30 173c 9239 57a4 843b 439e c32f
000002a0: e394 2038 dabb ba1e 6e54 5232 854d 082e
000002b0: 20c4 229e d223 1cab 8ba2 e01e 64c0 951f
000002c0: edd3 0f1f 4fec 421f 8d1a 0b24 474b c631
000002d0: 13e5 dd1e d234 359e 5401 131d 8729 8c3a
000002e0: e3ec 069f fe11 0ea7 ed1d 8dae 3e12 d1b9
000002f0: 9ddb 0525 cac0 b31e 8bb7 df9e 6701 eb34
00000300: f530 51b6 8a43 153a 4cdd 2f3b 9c81 899e
00000310: 8ebb 0f3a cb6d 961e 5c10 d227 a02b 861e
00000320: dba8 e39e 31d9 729c 0a26 f9ba ac16 dd23
00000330: 1517 901d 6a39 de9f f58c 0f1f 5764 e238
00000340: a53e a59e 99bc 789e 5ca7 0c1f fde0 42a5
00000350: dfd9 123b 18be a41e 936f 491f 509f 48a8
00000360: d9ef 3322 38f7 719e a38a 179e 974f c99e
00000370: bdac 4d21 68fd 4f1c f554 2939 e88a 8c27
00000380: b51a 061e 56d5 f29d 3d09 a51e 4a2b 3d23
00000390: 82ee 471e 0ccd 41af 79be e79d 0ca0 8f22
000003a0: 6ccf 1c1f 4b39 0a9e d5b3 581d 52b5 889e
000003b0: 96dd f99e 12cc 2fb6 b2bd e39d 5a99 8d1e
000003c0: 7fa0 3a23 81c9 c22e 3a64 099d e752 c3ba
000003d0: 221a 559e 0552 79ba 66f4 1039 1f37 ef39
000003e0: 9649 0431 6952 e09e 6d7c e53a c299 07bb
000003f0: 7bea 951e 6e05 951f 8b65 871f 1752 3539
1.3026903e-11 -7.6658254e-12 2.7856468e-16 -0.001879153 -8.4209414e-13 2.4238036e-12 6.8184705e-20 -9.434423e-11
1.7903576e-20 1.5258862e-20 -2.3550804e-07 -2.3037836e-09 1.485257e-20 2.3971563e-20 -2.4175388e-15 0.0005322329
-0.00021159422 -3.4695518e-06 -0.00018417311 1.896221e-20 -2.5745042e-10 -2.0546585e-16 5.2140414e-11 -2.254779e-20
-0.00019504475 0.0022675637 -2.5889228e-20 -2.7981128e-11 2.5171416e-06 -2.7771468e-20 -1.5943769e-19 -3.0614436e-20
5.8915955e-19 -0.00055879034 -6.5663217e-21 1.3640227e-12 -7.797151e-20 2.2368755e-20 -9.2725097e-14 -7.940153e-21
1.9712254e-20 -2.3493959e-20 4.4391746e-20 1.6190925e-21 -9.692152e-17 1.7530886e-20 6.0538366e-16 -2.2044342e-20
-0.0011392636 -2.1769572e-06 6.6729483e-13 0.0015216204 4.3372786e-20 -6.2033865e-07 0.00054715574 1.9731603e-20
3.44834e-20 -1.8433302e-10 2.3370618e-20 7.7865706e-22 -3.8925246e-20 2.2595436e-19 6.989307e-21 0.00075669633
9.365005e-15 -2.1035149e-10 -1.2458357e-20 8.4180854e-17 2.6585351e-18 3.3243969e-06 -2.9176925e-20 8.19077e-05
2.340072e-14 4.7284135e-20 -1.8912103e-20 -0.004138417 -2.1534292e-20 -6.215731e-06 -7.9931534e-11 5.646157e-21
-3.400386e-14 5.7033617e-08 -2.538582e-20 4.2894404e-20 -3.2923176e-13 9.628182e-15 -2.913854e-20 1.4426622e-19
0.0001059087 2.15452e-20 -2.5793803e-20 -2.5183208e-20 1.082439e-06 9.510881e-14 2.0474717e-20 -2.4054474e-20
-1.5621399e-19 4.3099962e-07 -4.5085005e-07 -4.987415e-20 2.4335442e-20 5.312368e-16 -2.4710785e-20 4.7742212e-20
-2.9155968e-20 6.0107e-07 6.909541e-20 -9.206039e-15 -4.016704e-20 1.396049e-09 1.9352987e-20 -1.4358195e-09
-6.0479033e-10 3.098235e-20 5.693481e-20 -3.0370429e-21 -7.99914e-08 -0.00016383543 -4.335691e-14 -0.00022528984
1.9255291e-20 -4.664564e-10 9.11585e-16 0.00014442102 -2.6695988e-15 -6.377842e-15 -6.969007e-13 -2.2433971e-05
-1.132845e-09 4.37593e-20 3.064502e-17 3.00534e-21 -2.6519394e-20 0.010015373 5.533446e-10 -2.800183e-20
4.955741e-13 2.2888383e-20 -2.7953923e-20 -4.746478e-20 6.9774583e-06 0.0015807089 4.6008285e-17 -5.236617e-08
-0.0009538399 3.0948172e-17 4.3380925e-20 5.4889506e-11 1.4108168e-20 -1.444593e-20 -1.35801065e-05 -2.9568967e-20
-1.1977677e-19 -2.9230408e-08 7.0353212e-06 -2.8970165e-16 2.3379966e-20 0.0021318865 1.2350273e-20 1.329308e-20
-8.93752e-14 1.6048968e-20 0.00052638754 2.1023849e-20 6.94792e-10 0.0002789206 0.004047911 3.5582745e-10
3.8285634e-05 1.977121e-20 1.2242806e-08 3.099167e-11 -8.616766e-21 -5.5472044e-13 2.3784149e-20 6.342224e-20
3.045673e-20 4.1276568e-20 3.016331e-17 5.7711165e-09 2.3494028e-20 -9.592983e-21 1.9455975e-21 0.0010693528
-2.8571552e-20 -1.9716212e-15 -6.4172535e-11 -0.00039877178 1.1610319e-16 1.9032098e-20 -2.3686955e-20 4.377318e-07
-3.1171924e-06 0.0005693963 0.0026834784 -1.4559044e-20 0.0005482965 1.5927277e-20 5.8304446e-15 1.4205845e-20
-2.4104397e-20 -8.0351797e-22 -0.0019008529 2.397047e-17 3.814035e-21 -9.411564e-20 3.0398025e-20 0.000107952095
-1.7495964e-20 -1.3168012e-20 2.978459e-20 -1.6903047e-16 0.0022407693 1.7442796e-20 4.2655698e-20 -1.1136776e-14
2.4385998e-18 -1.28095574e-20 -8.022543e-21 -2.131462e-20 6.968532e-19 6.8818075e-22 0.00016148745 3.900841e-15
7.099424e-21 -6.427745e-21 1.7473875e-20 1.0254877e-17 1.05842945e-20 -1.7626095e-10 -6.1342135e-21 3.8929684e-18
3.320586e-20 -7.317507e-21 2.8680333e-21 -1.4474552e-20 -2.6455546e-20 -2.6195817e-06 -6.028254e-21 1.499238e-20
1.01170666e-17 8.857893e-11 -1.8183615e-21 -0.0014902026 -1.128153e-20 -0.0009510818 0.00013823956 0.000456267
1.9250357e-09 -2.3751007e-20 0.0017508395 -0.0020691012 1.5872967e-20 6.311294e-20 5.734271e-20 0.00017292086

patch_to_embedding.bias f4 [64]
00000000: 862f 149f 85bd 361e 8078 1821 0cc2 629f
00000010: e7e3 38a2 1986 dc1e aee6 651e 9b09 492c
00000020: 22cf 82a1 70e0 4e9f 8cb4 09a2 ed65 4221
00000030: 58d6 b31e 3089 0e1f 7be0 aba0 774d 059f
00000040: 840c 5723 7e61 0024 887b a02f 2fc8 3021
00000050: 4491 869f 91de 86b8 3370 3ca0 5659 6eb3
00000060: e962 11a2 7971 58b6 33f6 452f 5115 7ca0
00000070: bc96 3d1c e0e8 3d20 538f 013b 3367 ab1f
00000080: f6e1 ac9f 518d 1720 52cb 11a0 6a4e 361f
00000090: 6d85 591f a210 081f a401 1c22 8891 0535
000000a0: 7d05 051f 4e21 d99e dac2 a6ab 9ede 19a0
000000b0: 2010 3220 c7b9 b19e 32a3 e733 ab3e 5c9e
000000c0: 686b 9335 2225 c91c 5977 09b1 b876 a627
000000d0: 21a1 9dba 0757 fa23 19f7 1a1f 3482 16a0
000000e0: 260e e69e 092e 602c 2a9a 591e 9c42 dc3a
000000f0: b19e fb1e efb6 c09e 3210 7aa9 ffb7 43ad
-3.137953e-20 9.6741915e-21 5.1659084e-19 -4.8017873e-20 -2.50573e-18 2.3348868e-20 1.21708625e-20 2.856915e-12
-8.86397e-19 -4.3807847e-20 -1.8662543e-18 6.5864654e-19 1.9041013e-20 3.018315e-20 -2.9117076e-19 -2.8227923e-20
1.1657824e-17 2.7838155e-17 2.9191605e-10 5.989606e-19 -5.699153e-20 -6.431074e-05 -1.5961343e-19 -5.5494944e-08
-1.9703527e-18 -3.2252558e-06 1.8004513e-10 -2.1352283e-19 6.2729674e-22 1.6085975e-19 0.0019769266 7.2592046e-20
-7.3218654e-20 1.2836955e-19 -1.2349251e-19 3.8604862e-20 4.6061905e-20 2.881288e-20 2.114281e-18 4.9758137e-07
2.8168385e-20 -2.2989543e-20 -1.1849092e-12 -1.3033262e-19 1.5082522e-19 -1.881744e-20 1.0786461e-07 -1.16596625e-20
1.0983613e-06 1.3310663e-21 -2.0003965e-09 4.620297e-15 -0.001202617 2.7141912e-17 3.2815163e-20 -1.2748575e-19
-2.4358049e-20 3.185787e-12 1.1519765e-20 0.0016804519 2.6641292e-20 -2.040445e-20 -5.55252e-14 -1.1125322e-11

transformer.layers.0.0.fn.norm.weight f4 [64]
00000000: 8ce8 052c 3843 ed0b 68a6 572c 0bdf e7ac
00000010: adf7 d72e d226 092c d43c f927 b424 84ad
00000020: 9165 39ae ffc3 81ae 7499 8aad 66a3 782e
00000030: 2478 bf2c 040a 32aa e410 332c 4be2 f7a8
00000040: 6570 b72b aeb2 eb2c 62fb 632c ce7a 042e
00000050: 781b 9f2c 4aa2 55aa e497 d9ad 5c9f 1a2b
00000060: b024 9aad 37d3 5d2d 4a6e 76ac b767 d3ad
00000070: 2efb cfac c34e 292e 6b22 f62c a5d1 202c
00000080: 0993 b9ab 9cd1 082f d9bd c42d ce6f 972d
00000090: e406 9f2b d555 e22d 37d6 9eaf 2bb0 4d2d
000000a0: 3ed1 2f2b afcd 96ad 02b2 212b 14f8 3c2e
000000b0: b548 c12b f162 782b 561e e229 1374 51ad
000000c0: aaab 95aa 7dac c42b f364 8a2d 1ca1 e1ad
000000d0: ffbe a7ac 4a77 96ad 4cc0 3aa3 f904 94ae
000000e0: 1fa6 d02c 5e04 43ac 350a b5aa edaa 722b
000000f0: 1d6d 9aa8 fe18 972a a6e0 05ad caef 082e
1.9029526e-12 9.139022e-32 3.0645712e-12 -6.5901776e-12 9.821064e-11 1.949042e-12 6.9177333e-15 -1.5022962e-11
-4.215434e-11 -5.901057e-11 -1.575693e-11 5.65338e-11 5.441885e-12 -1.5813051e-13 2.5446806e-12 -2.7520648e-14
1.3034128e-12 6.698939e-12 3.2398186e-12 3.0122398e-11 4.5221014e-12 -1.8974506e-13 -2.4737497e-11 5.4932946e-13
-1.7524066e-11 1.2609295e-11 -3.5019925e-12 -2.4033981e-11 -5.9111804e-12 3.8496106e-11 6.9955617e-12 2.2853744e-12
-1.3185851e-12 1.2443596e-10 2.236693e-11 1.7216364e-11 1.1299542e-12 2.5731342e-11 -2.889224e-10 1.1692018e-11
6.246287e-13 -1.7144368e-11 5.7445726e-13 4.296659e-11 1.3733655e-12 8.824461e-13 1.00416786e-13 -1.1906048e-11
-2.6586833e-13 1.3974513e-12 1.5733614e-11 -2.5651085e-11 -4.7676303e-12 -1.7106e-11 -1.0123801e-17 -6.731144e-11
5.9301587e-12 -2.771359e-12 -3.215914e-13 8.621288e-13 -1.7144755e-14 2.684033e-13 -7.610057e-12 3.1135795e-11

transformer.layers.0.0.fn.norm.bias f4 [64]
00000000: 6cd8 31af 87a5 318d d560 e631 0495 91b1
00000010: 652e afb2 74c7 3a30 6d48 4d30 a499 d731
00000020: 7130 a8b2 b98d 9e32 38b0 aa32 4aec 5e32
00000030: ea66 9ab1 959a 5daf 2a05 3731 f237 5caf
00000040: bcd5 baba f121 0d32 7b2d 69b0 80d5 ec32
00000050: e94f ba30 693f ce30 30ce 42b1 e811 1cae
00000060: a50c bcb1 e56b 1832 1e2c 63b0 9314 e6b1
00000070: 0279 14b1 ced4 a932 874b 80b0 e319 9136
00000080: aef3 d931 3867 8932 2c1b 8831 b230 b62e
00000090: 3f57 37b0 d2eb 39b2 c1c0 5134 ba1f 1c30
000000a0: cda1 a830 2814 ddb1 9d76 01b5 e069 0fb2
000000b0: f0c8 eeaf a5ef e430 bab4 f937 d3b1 89b0
000000c0: 5c62 9e30 254b 6d31 9d96 4f33 4298 30b7
000000d0: b807 4e38 e371 7738 0230 16a6 ae61 cdb2
000000e0: 5e2d 4233 9dbe 98b3 23ce f92c 66cc e336
000000f0: 9265 0bab 953b 1d2f 8fbb 5839 58aa 1335
-1.6174945e-10 -5.474158e-31 6.7048895e-09 -4.2369965e-09 -2.0393779e-08 6.7949846e-10 7.468149e-10 6.2747905e-09
-1.9579803e-08 1.8458069e-08 1.987074e-08 1.2975827e-08 -4.49369e-09 -2.0154751e-10 2.663294e-09 -2.0028759e-10
-0.0014254372 8.214998e-09 -8.482954e-10 2.7571105e-08 1.3555993e-09 1.5006495e-09 -2.834792e-09 -3.5486197e-11
-5.4729576e-09 8.872097e-09 -8.2644813e-10 -6.69622e-09 -2.160562e-09 1.9770962e-08 -9.334692e-10 4.3243504e-06
6.3432344e-09 1.5995838e-08 3.96121e-09 8.285052e-11 -6.6698996e-10 -1.0822037e-08 1.9534765e-07 5.6797556e-10
1.2269595e-09 -6.434238e-09 -4.822885e-07 -8.347769e-09 -4.3434722e-10 1.6657294e-09 2.976727e-05 -1.0018603e-09
1.1523968e-09 3.4530754e-09 4.8332925e-08 -1.0525868e-05 4.9121416e-05 5.8995454e-05 -5.2106767e-16 -2.390956e-08
4.5210406e-08 -7.112724e-08 7.0998914e-12 6.7889223e-06 -4.9523677e-13 1.4300235e-10 0.00020669236 5.500965e-07

transformer.layers.0.0.fn.fn.to_qkv.weight f4 [192, 64]
00000000: 2030 3000 8200 0080 067d c09f ea9e 2180
00000010: 7474 c902 871a 1d81 061e 1000 9eaa 2e82
00000020: adb3 d481 7c10 d200 586e e785 f4d7 8080
00000030: 97c7 b701 00c9 0080 1fbf 1da4 8357 0700
00000040: 43cf 3b27 7a6d d681 69c5 ce80 fb11 969e
00000050: 2735 1c01 2f80 a524 8db1 af00 be53 dc00
00000060: a77f 2802 12d3 6402 9b7c da31 4d8a 289e
00000070: ce53 dcb1 a619 1f81 3f82 2a2d b295 f506
00000080: 7d4f c400 9ec5 6f83 c4ba 6094 28e3 0180
00000090: e5ae c830 0629 c9ae de65 8aae 8134 99a6
000000a0: 29e5 2280 a07a d935 9b31 57a5 505f 6c01
000000b0: 4924 1225 4ff3 dc28 a318 2406 992b 4d01
000000c0: 3008 7180 0b67 0d82 4b2a 4e25 388f 95ac
000000d0: b87f 4eae e475 c408 698e 0000 1411 8bba
000000e0: 5c0b 3f08 70f5 eb05 c67a 0580 e841 8506
000000f0: 0859 2180 4732 0680 9bd5 9622 a45d 4a9b
00000100: 54d2 afa5 5b02 0080 bd6c 8eae 3ad6 1d3a
00000110: 3d20 d3b5 92ad 4313 471b 6e84 35e7 8f07
00000120: f4fd aca0 725f c806 bc6e b7b0 da57 7287
00000130: 4e34 e9a4 9999 1805 fa61 cb2c 8ef7 8002
00000140: d730 2c2e 66d0 3cb8 2dc9 d204 3b0c 1d08
00000150: 59a5 eba3 6251 0086 a39f 1984 c77d 2984
00000160: 210f da07 526b c33a a223 cfa8 2ce2 c204
00000170: d858 5385 44d3 2f28 fa08 5386 4bba e787
00000180: 12b1 b204 4603 062d f6c1 22a6 9a18 7205
00000190: 2fd7 adb1 62ae a036 0d64 7c06 3457 3683
000001a0: 3953 af0a 1423 98ac 3c29 b805 81eb 972e
000001b0: 698f 5b06 a87c 9935 c14e fc8c 4ce7 7b2f
000001c0: 5651 6c2d 95e5 e403 3f6c 4f0a 28b1 9d39
000001d0: 3afd ac8e c6dc 008e 0147 759a 9929 1e32
000001e0: f61c a488 e8c1 4509 99bc 8102 92b7 d20c
000001f0: 7dfe 373a 214b 02b8 7208 ceac 6b95 08b3
00000200: 2ec2 0cac 082a 8e2d 7018 f180 36c6 93ad
00000210: 8404 ba3a a3f9 1500 6595 0d80 d2fe 1100
00000220: a596 849e def0 9631 70eb 3e81 35c3 fe80
00000230: e601 0e1a 6b7f 0000 2d70 0080 79c8 0100
00000240: f03a c087 f1eb 49a8 4ffc 0100 6c40 a480
00000250: 286c 1300 e062 3900 e71f 0380 018a 1b2d
00000260: a61a 5701 d387 13ba 1f3b 1000 ac87 0000
00000270: 4b56 4700 823f 881b 34e0 6dae a32a 5790
00000280: c674 a500 009f ac80 4563 4118 680f 0d80
00000290: 6cae 2a80 e46c 3800 cf36 2fac 6d42 8d19
000002a0: ad22 7227 b738 1600 aebb 9b30 32ab bc26
000002b0: 3939 07a6 8ae0 b280 b65b 3486 17f1 15ae
000002c0: ceec 2600 a0a2 0580 10d4 db84 bc0f 3f88
000002d0: dac6 9720 2b3f 7807 8b0e 0000 455a 76a4
000002e0: 4ae6 9fb7 1061 9726 1bb8 2db9 bda6 dc86
000002f0: 2316 0080 006f 0180 e578 8f88 80b7 6184
00000300: a521 0b00 6d01 0000 3e76 5881 8ce6 7c03
00000310: cdeb 1717 176a 15ab f0df b903 6884 2a04
00000320: d7ac 1c84 caa0 b403 7eba 7d23 c45d 8496
00000330: 22c4 0820 c3cf a33b 253e f301 b87c 9c00
00000340: 97be 4706 a28a e702 7b69 0482 9447 1784
00000350: d9e4 b782 88e6 fb01 3d0d f281 9c3f 89b7
00000360: a8fe 6824 71a4 358d 9c2e 3301 52e5 b080
00000370: e3a6 2b83 23b2 1017 5ecc 892e dad0 a505
00000380: 2721 6d03 2895 4027 df99 a902 d15b 5202
00000390: 506a 88a4 225d 9202 144b 8b37 07ea a12e
000003a0: 507c 8a02 0902 8e82 a571 9431 bc0e 7d32
000003b0: 8226 ad03 13c4 8028 0044 b0a4 ca55 2080
000003c0: 3dd0 9001 0a42 2482 46f8 6006 aca4 850c
000003d0: 4789 130b a126 d40a bc8e 0180 4284 122e
000003e0: 2f3f b188 ab16 5188 8cac e700 ecc8 908d
000003f0: 16d4 87b9 0514 6701 312d d396 c9aa f42f
4.425368e-39 -1.82e-43 -8.1522e-20 -3.087579e-39 2.9601136e-37 -2.8855378e-38 1.480138e-39 -1.2832466e-37
-7.8134323e-38 1.9291368e-38 -2.176367e-35 -1.1832413e-38 6.750998e-38 -7.2105e-41 -3.4205834e-17 6.74242e-40
2.606382e-15 -7.8768276e-38 -1.898893e-38 -1.5889304e-20 2.869081e-38 7.1774495e-17 1.6134905e-38 2.023385e-38
1.2379325e-37 1.6811369e-37 6.358801e-09 -8.922446e-21 -6.41237e-09 -2.922209e-38 9.692302e-12 9.2378715e-35
1.8028272e-38 -7.046264e-37 -1.1345943e-26 -1.73324e-40 1.4601623e-09 -9.147709e-11 -6.293609e-11 -1.0630739e-15
-3.204614e-39 1.6203448e-06 -1.8665084e-16 4.3414738e-38 1.2675775e-16 2.4530425e-14 3.0863072e-35 3.7683833e-38
-1.0380348e-38 -1.0388616e-37 1.7881981e-16 -4.250735e-12 -4.6952414e-11 1.1824037e-33 5.1087e-41 -0.0010609948
5.7490325e-34 2.2189453e-35 -5.0322e-40 5.012588e-35 -3.06251e-39 -5.69049e-40 4.0883745e-18 -1.6739305e-22
-3.0500185e-16 -8.45e-43 -6.476728e-11 0.0006020997 -1.5730108e-06 2.4698037e-27 -2.798929e-36 2.165214e-34
-2.9305985e-19 7.537188e-35 -1.3346475e-09 -1.8231874e-34 -1.0113625e-16 7.175217e-36 5.7804846e-12 1.895e-37
3.915165e-11 -4.501678e-05 4.9555514e-36 4.7259846e-34 -2.5548779e-17 -2.4133915e-35 -1.8058365e-36 -1.9923609e-36
3.2809886e-34 0.0014909303 -2.299707e-14 4.5816887e-36 -9.93749e-36 9.760262e-15 -3.9691284e-35 -3.486651e-34
4.2010212e-36 7.617745e-12 -5.6467907e-16 1.1383304e-35 -5.059426e-09 4.7886724e-06 4.7469438e-35 -5.3585097e-37
1.6883192e-32 -4.3239943e-12 1.7318424e-35 6.908519e-11 4.1294683e-35 1.1435668e-06 -3.8874146e-31 2.291049e-10
1.3433107e-11 1.3453345e-36 9.987046e-33 0.00030077365 -4.2645122e-30 -1.5883517e-30 -5.072217e-23 9.206269e-09
-9.8772e-34 2.3804187e-33 1.9063096e-37 3.2466105e-31 0.00070188177 -3.1064385e-05 -5.8558098e-12 -3.1800862e-08
-2.0002988e-12 1.6162197e-11 -2.2141121e-38 -1.6799988e-11 0.001419202 2.018098e-39 -1.247454e-39 1.652616e-39
-1.4038349e-20 4.392958e-09 -3.5066407e-38 -2.3396243e-38 2.9366445e-23 4.5709e-41 -4.0241e-41 1.63752e-40
-2.892359e-34 -1.1208903e-14 1.82347e-40 -1.5084132e-38 1.783674e-39 5.270093e-39 -2.86951e-40 8.841373e-12
3.9508383e-38 -0.00056278444 1.490577e-39 4.867e-41 6.551276e-39 2.2540354e-22 -5.4086693e-11 -4.243412e-29
1.5194747e-38 -1.5852744e-38 2.4994784e-24 -1.199388e-39 -3.919662e-39 5.18185e-39 -2.489942e-12 1.4605887e-23
3.3603044e-15 2.040726e-39 1.1331076e-09 1.3091523e-15 -4.6915085e-16 -1.6427268e-38 -3.3921616e-35 -3.409281e-11
3.574698e-39 -5.17516e-40 -5.16814e-36 -5.7495467e-34 2.5711984e-19 1.867601e-34 5.217e-42 -5.3419208e-17
-1.9061514e-05 1.0504039e-15 -0.0001656715 -8.29998e-35 -7.941e-42 -1.31655e-40 -8.634922e-34 -2.6532882e-36
1.02226e-39 5.11e-43 -3.975777e-38 7.43208e-37 4.9088354e-25 -5.3082663e-13 1.0924736e-36 2.0044202e-36
-1.8417076e-36 1.06163645e-36 1.3754649e-17 -2.1384925e-25 1.1584543e-19 0.0049991324 8.9353275e-38 1.4371078e-38
3.7567763e-35 3.402197e-37 -9.7281e-38 -1.7782832e-36 -2.7020785e-37 9.2533634e-38 -8.8915756e-38 -1.6361293e-05
5.0522683e-17 -5.597287e-31 3.2910548e-38 -1.6245312e-38 -5.044396e-37 4.675375e-25 6.2663416e-11 1.5593245e-35
6.9686097e-37 2.672621e-15 2.4920636e-37 1.5454713e-37 -5.91607e-17 2.1506228e-37 1.6605052e-05 7.363004e-11
2.034863e-37 -2.0866193e-37 4.320287e-09 1.4729888e-08 1.0176867e-36 1.4295888e-14 -7.644303e-17 -2.969511e-39
5.3196053e-38 -1.2067769e-37 4.231212e-35 2.0591003e-31 2.8414446e-32 2.0429388e-32 -1.43039e-40 3.3314025e-11
-1.0667654e-33 -6.2920296e-34 2.1275898e-38 -8.923055e-31 -0.00025907223 4.2442363e-38 -3.4117408e-25 4.4504692e-10

transformer.layers.0.0.fn.fn.to_out.weight f4 [64, 64]
00000000: 4c6e 0aad dab5 0134 dfc7 2aaa 1740 8a23
00000010: 6ca2 b12b 5bec e936 1207 e72e 9217 8229
00000020: f102 f237 5ee3 e42f 816d 832f e1ff 8227
00000030: 42c2 ae26 7075 a7b2 3555 862a b185 9aab
00000040: f31c 3c2f f209 74a5 d114 3c2d d38a dcb0
00000050: 8d1a 682b 4204 ad2c 878b cf2f 771c 9db2
00000060: efed 3733 0963 f4af 29ae 3caf 278e 702f
00000070: 0993 0e32 3150 0f27 4010 c9a7 1120 112b
00000080: 8bb1 2730 23bb 4ab0 7cc8 812d 7b2d 4b2f
00000090: 2d83 ac2f 81c7 303b b7d8 8935 ea4f a639
000000a0: 0ca4 1c2b 69b5 86ab ac60 1c2d 7495 aa2f
000000b0: a31c c730 5203 aa2e a0dc 1fa9 3fa1 0bae
000000c0: 2dd8 0faf 6739 f329 6851 0e2c 1c01 1435
000000d0: 6e2b 1b2d 47b8 cc2a 860e c32d efa3 5fa7
000000e0: d941 e82c 2490 28ae 3ea8 82ad f9c0 3ead
000000f0: 9781 baaf 8322 462e 8b77 d92e 0910 86b6
00000100: a291 e12b 45b8 d52d 2129 8b28 11a9 3e26
00000110: 04fb 9228 0bb1 3aaa f8ac cf2c e6eb 87a8
00000120: 4c75 7dac 7a2d 5bac 4347 1932 95f6 f2a7
00000130: d418 0824 0511 46a9 3f4a f227 45fd de26
00000140: f090 813a 804a cda6 92e4 d62a 5db3 a735
00000150: d146 6ca9 1b96 d12a 793d 8e2d 6006 d9ae
00000160: 5579 aead 1aa8 5daa 319e ea2c df31 3bad
00000170: d046 942b b9f7 5db2 3e4a a7a6 00fe b229
00000180: 8ebc 09a9 dd63 7aae d185 562a 346a 80b2
00000190: 642c ae2d 874e 0123 ac62 57ae 56e8 4a26
000001a0: ac6c b6a9 a697 e02a f773 4a33 a423 4e2c
000001b0: 1746 01af 646d 972d 6f06 c825 dda5 7eae
000001c0: 608b 012c 35c8 4e27 6e34 89b0 1cb7 bbb2
000001d0: 927c 222c 1037 62a5 c060 20ab 593e a9a7
000001e0: ae83 142c 8450 c2ac 56b2 4a2d 1f84 da2c
000001f0: 3d08 b62d 6c55 29ac ce82 db2c 43b1 0ea9
00000200: fd97 6a2a b0be f7ab e953 be35 6409 58a5
00000210: b789 05a8 7804 572a c8b4 00ad 4299 1227
00000220: 7e41 57ba aabd bcad e9ce 9029 184c d5a5
00000230: 3e44 be24 bb89 41a8 9fdc a3ac 7a1f 802a
00000240: 59c6 fbac e99a caa5 6d16 edaa b134 962e
00000250: efe9 8fb1 484a 0e2a 3761 3e2c 99e6 c82c
00000260: 1866 922d 3ab6 242a 0a81 ddac 4f67 0cad
00000270: 8456 152b 8552 64a4 684f 87a5 10db 0928
00000280: 8248 94ae 16c9 04ba 3ccb 1b2c 398d e12d
00000290: 07ad 62ad cbe0 cc23 e3a1 dc2e 8a3d 3c27
000002a0: c235 23b0 6ec2 1d2a bf59 2d2b 3fa4 952c
000002b0: eeb8 912f 6cf8 5a2c 93ce 9ba5 b053 19ad
000002c0: 1c3d 8b2a d647 16a8 d367 142e 17fa 4e37
000002d0: ab3f 8fab d9aa 9326 6b31 0b2c 8dfd 0927
000002e0: 66a1 cbaa 3a1c 122c fa6f e6aa 1e0b 172b
000002f0: 7205 4424 5e4a 67ae d39e 8a2d 54ee f5aa
00000300: 4b25 82ae a5ac 4c30 2ebf 6da9 f081 3127
00000310: c4eb c1a9 8a9b d0aa bbaa ed2e 4cd1 9a29
00000320: 23aa ea2d 68f3 b9b5 e3da 66ab e5f1 d0a8
00000330: 031f 9626 08ee 0f2b 19e6 3aaa 03b1 8629
00000340: babd bc2e cced 1f26 ca54 fb2c 9489 ff34
00000350: 0b21 2bab f3de 972c fba3 ccaf 1e7d 70b0
00000360: e630 a72e 8562 082c 030f 47ac 90f3 2c2f
00000370: c5d3 442e 9b67 c9ae 5131 2aa8 8990 f4aa
00000380: 6814 8d2a e0ba 45b8 28a1 56ac da42 41b0
00000390: 1a3f e7af cfd5 06a4 2d2d 79af 0530 9fa9
000003a0: 1494 a72b cda9 1cb0 f9fa 332d 099d bc2d
000003b0: 78a8 b930 097b 8bab 9468 92a8 2dac 222d
000003c0: 8099 3fad 599e 62a8 319f 9aac a94d 2930
000003d0: f05c cfaf 7278 6b28 5ae4 7a2e 05e4 e033
000003e0: 52c3 9933 2ed1 a6ae c0a6 fb2d 0811 52ad
000003f0: c034 2927 0f8e 0eae 6a34 d92c 74bb 612c
-7.868883e-12 1.2080218e-07 -1.5168377e-13 1.4989133e-17 1.2621688e-12 6.9714565e-06 1.050592e-10 5.7772485e-14
2.8850018e-05 4.1634513e-10 2.3906568e-10 3.6359673e-15 1.2126329e-15 -1.9494763e-08 2.3862306e-13 -1.0979465e-12
1.7108785e-10 -2.1166996e-16 1.0691185e-11 -1.6046563e-09 8.2459804e-13 4.9174284e-12 3.775222e-10 -1.829015e-08
4.2824407e-08 -4.445371e-10 -1.7160375e-10 2.1878376e-10 8.29892e-09 1.9888708e-15 -5.5806325e-15 5.155885e-13
6.100655e-10 -7.375311e-10 1.4754635e-11 1.84789e-10 3.1379824e-10 0.0026974382 1.0270368e-06 0.00031721528
5.5649994e-13 -9.571624e-13 8.889039e-12 3.1029013e-10 1.4487295e-09 7.731295e-11 -3.5496454e-14 -3.1748156e-11
-1.3082575e-10 1.08013255e-13 2.0224603e-12 5.513591e-07 8.820373e-12 3.6365548e-13 2.2175383e-11 -3.1036335e-15
6.601147e-12 -3.83268e-11 -1.4854003e-11 -1.0843098e-11 -3.3925282e-10 4.505064e-11 9.8892526e-11 -3.995378e-06
1.6027633e-12 2.4297129e-11 1.5449937e-14 6.614862e-16 1.6318117e-14 -1.6581543e-13 5.9024972e-12 -1.5090315e-14
-3.6018575e-12 -3.1147016e-12 8.921975e-09 -6.7435838e-15 2.951133e-17 -4.3979594e-14 6.724899e-15 1.5472993e-15
0.0009885114 -1.4244926e-15 3.817264e-13 1.2494671e-06 -5.246395e-14 3.7230015e-13 1.617083e-11 -9.86915e-11
-1.9835392e-11 -1.9687065e-13 6.6682428e-12 -1.0640793e-11 1.0535687e-12 -1.2920219e-08 -1.1608076e-15 7.94885e-14
-3.0583656e-14 -5.6932115e-11 1.9053445e-13 -1.4949457e-08 1.9801223e-11 7.009733e-18 -4.897298e-11 7.03977e-16
-8.101275e-14 3.989562e-13 4.713726e-08 2.9294145e-12 -1.1757383e-10 1.7215292e-11 3.469883e-16 -5.790023e-11
1.8409371e-12 2.8696775e-15 -9.982963e-10 -2.1852934e-08 2.3090735e-12 -1.9621031e-16 -5.6977686e-13 -4.697452e-15
2.1105162e-12 -5.5227507e-12 1.1521969e-11 6.210601e-12 2.0694663e-11 -2.4063763e-12 6.2388766e-12 -3.1684084e-14
2.0836107e-13 -1.7603332e-12 1.4180524e-06 -1.8738195e-16 -7.412845e-15 1.9097386e-13 -7.316099e-12 2.0344651e-15
-0.0008211358 -2.1457353e-11 6.430778e-14 -3.7001173e-16 8.251497e-17 -1.0743518e-14 -4.6572325e-12 2.275921e-13
-7.15587e-12 -3.5146385e-16 -4.2115218e-13 6.83057e-11 -4.188443e-09 1.2637905e-13 2.705459e-12 5.7099434e-12
1.6643617e-11 1.4629349e-13 -6.295524e-12 -7.981018e-12 5.30555e-13 -4.9509516e-17 -2.3472575e-16 7.652529e-15
-6.743141e-11 -0.00050653645 2.2139643e-12 2.5642254e-11 -1.28850325e-11 2.2212928e-17 1.00331986e-10 2.6123601e-15
-5.937545e-10 1.4011858e-13 6.1586494e-13 4.2530697e-12 2.6506747e-10 3.1117565e-12 -2.7028194e-16 -8.7156254e-12
2.4733763e-13 -8.34225e-15 3.374352e-11 1.2336785e-05 -1.0178433e-12 1.0246482e-15 1.978052e-12 1.915002e-15
-3.6172037e-13 2.0763517e-12 -4.0933907e-13 5.3661405e-13 4.2505338e-17 -5.258937e-11 1.5759316e-11 -4.3686116e-13
-5.91834e-11 7.446011e-10 -5.2790393e-14 2.4634124e-15 -8.6118206e-14 -3.705615e-13 1.080784e-10 6.875281e-14
2.6678276e-11 -1.3854415e-06 -8.201618e-13 -2.3197544e-14 1.0416747e-15 5.113414e-13 -1.659995e-13 5.981502e-14
8.5829524e-11 5.548648e-16 7.1432625e-12 4.7597553e-07 -6.079726e-13 4.3164305e-12 -3.72239e-10 -8.7489294e-10
7.602967e-11 1.9381452e-12 -2.8287934e-12 1.572984e-10 4.475333e-11 -9.158826e-11 -9.4475895e-15 -4.3443398e-13
2.506079e-13 -4.71425e-05 -3.0500689e-12 -7.030799e-10 -4.2063492e-10 -2.923772e-17 -2.2662468e-10 -7.0693485e-14
1.1907164e-12 -5.699377e-10 1.0230699e-11 2.1442863e-11 1.3508403e-09 -9.910693e-13 -1.625461e-14 9.2468646e-12
-1.0891177e-11 -1.2579856e-14 -4.394617e-12 6.1592204e-10 -3.7719117e-10 1.3071238e-14 5.7046236e-11 1.0472289e-07
7.160146e-08 -7.585964e-11 2.8609448e-11 -1.19409e-11 2.3482057e-15 -3.2413235e-11 6.17333e-12 3.207848e-12

transformer.layers.0.0.fn.fn.to_out.bias f4 [64]
00000000: 9cbc f738 0d00 7237 ebb9 b036 5cff 1439
00000010: fe2c 4ab8 6c73 2b39 3337 fdb7 22ba 2039
00000020: 7ebe 2038 ac51 10b8 62d0 1438 6932 0638
00000030: b9ac 0e38 79f8 c237 8db7 d7b4 a054 55b7
00000040: 9a93 14b9 15e6 bbb6 0794 2a39 8368 3238
00000050: a38a 0139 2a3d 14b8 7a8d 9db8 09a4 19b8
00000060: 7f70 f5b8 6580 0cb8 2f8c 96b6 1bcb 0439
00000070: c781 c038 2237 de38 8c0e 7538 ec80 72b8
00000080: ede3 eeb5 b159 4d38 b257 2639 bc20 22b8
00000090: 4050 2c38 09b3 2e38 010c cc38 f167 e638
000000a0: 69ea 22b8 9b9e d738 91f3 9a37 e6fb 8cb8
000000b0: fad1 10b8 c192 0ab8 e805 2b39 e6bd 2238
000000c0: c528 c7b6 b8a4 17b8 7a5a 1738 b300 1d39
000000d0: d29b 1638 8511 30b8 33fe 1c37 7759 7ab8
000000e0: 807e 5738 ef4c 23b6 4ec9 1538 3a11 1cb8
000000f0: bc2f 27b8 3146 0fb8 3602 a038 a126 9736
0.00011813009 1.4424336e-05 5.2668524e-06 0.00014209509 -4.8202455e-05 0.00016350829 -3.0185654e-05 0.00015328129
3.8324382e-05 -3.440834e-05 3.548002e-05 3.1995038e-05 3.40163e-05 2.3242306e-05 -4.0180421e-07 -1.2715493e-05
-0.00014169366 -5.5998194e-06 0.00016267608 4.253584e-05 0.00012354045 -3.5342913e-05 -7.5126954e-05 -3.6630812e-05
-0.000117034644 -3.3498178e-05 -4.486668e-06 0.00012664164 9.179446e-05 0.00010596054 5.84261e-05 -5.7817364e-05
-1.7798717e-06 4.895934e-05 0.00015863663 -3.8654296e-05 4.1082734e-05 4.1651572e-05 9.729714e-05 0.00010986615
-3.884212e-05 0.000102815415 1.847165e-05 -6.72264e-05 -3.452783e-05 -3.303844e-05 0.00016310031 3.8800667e-05
-5.9354084e-06 -3.615461e-05 3.608547e-05 0.00014972947 3.5907906e-05 -4.1977986e-05 9.35751e-06 -5.9687965e-05
5.1377807e-05 -2.4333674e-06 3.5711848e-05 -3.7209342e-05 -3.986036e-05 -3.4159228e-05 7.629806e-05 4.5046477e-06

transformer.layers.0.1.fn.norm.weight f4 [64]
00000000: fc47 b32f 6d1f e62b be1b d82c 9213 3ca6
00000010: b900 85b0 badc 9bac e36a 5daf 6672 bf2f
00000020: b421 10b0 412d 84af d5a0 862e 9834 032f
00000030: 44ad d32c 41d8 a12c 00d6 8eae 08af 6aaf
00000040: 5ca4 f3ad cc5b 422d ca1d 042b 5c11 04ae
00000050: 7283 83ae 6613 a9af fa40 9dad d37a 922d
00000060: fcd1 ed2f 6eb7 882f 44c0 1730 33ca 5430
00000070: 3e49 e8ae 49a6 0330 21b7 7eaf 1887 1eb0
00000080: 0b7a 522d f602 a7ab 02f4 d42c 2936 a6ad
00000090: f4d9 b42c 538f 2930 d66c 5830 df00 acaf
000000a0: 0e59 86a7 0805 8d2f 3503 ec2e ca93 cc2b
000000b0: 5df5 aead eaf2 21af b32d 03ab b9ed 242e
000000c0: 69b7 1b2f 0f1c 4fab a443 372f af4b 0231
000000d0: 6ec1 312c 444e 37b0 e0d0 25ae 243f c6af
000000e0: 6431 c2ae 12f2 3fae 00a0 db2c 9397 be30
000000f0: 634b 6dae 4b55 83af 9689 972e 0589 9a2e
3.2611058e-10 1.6351205e-12 6.1421692e-12 -6.5252125e-16 -9.677229e-10 -4.4298705e-12 -2.0137807e-10 3.4823983e-10
-5.243479e-10 -2.4042815e-10 6.122184e-11 1.1933066e-10 6.016217e-12 4.5999042e-12 -6.4954264e-11 -2.134436e-10
-2.7698892e-11 1.1048006e-11 4.693716e-13 -3.0028743e-11 -5.98054e-11 -3.0754704e-10 -1.7877689e-11 1.6652823e-11
4.3259252e-10 2.486859e-10 5.5206706e-10 7.7412493e-10 -1.0563149e-10 4.789383e-10 -2.3166226e-10 -5.7672045e-10
1.1964217e-11 -1.1866886e-12 6.0524927e-12 -1.8896067e-11 5.1401054e-12 6.168552e-10 7.873501e-10 -3.1287237e-10
-3.7289025e-15 2.5651326e-10 1.0732607e-10 1.4536092e-12 -1.9890473e-11 -1.4729165e-10 -4.660397e-13 3.7500423e-11
1.4162328e-10 -7.358011e-13 1.6667784e-10 1.896051e-09 2.5260588e-12 -6.6686234e-10 -3.7702175e-11 -3.6060854e-10
-8.830872e-11 -4.3643374e-11 6.242118e-12 1.38674e-09 -5.3954518e-11 -2.3889365e-10 6.891125e-11 7.027449e-11

transformer.layers.0.1.fn.norm.bias f4 [64]
00000000: 1647 cdb0 25f8 34b1 2ad0 74b4 23a5 12a6
00000010: 8b14 2232 adf3 202d dcd0 d236 47ae 0c31
00000020: b486 f3b7 fed0 1cbb 2af2 83b7 7e1b 6535
00000030: d2ec adb2 586b 7eb2 dc4a b034 6850 6832
00000040: 3df5 e5ae befe c2b3 2192 852b 1b1f e5b3
00000050: ba0f d2b7 8c24 4a38 3910 56b2 7999 f2ba
00000060: 5bd2 06b1 d07b d9b1 0fa0 2932 f3fc e730
00000070: 8814 2132 db21 28b2 51df 3fb1 aabf b232
00000080: e95e ae38 9821 e2ad 36b6 beae df0c 0837
00000090: 1bb2 413a 3c9d d238 6074 5fb2 7ec8 d039
000000a0: 3df4 ea27 21cc 2fb1 a87f f32e b371 aaac
000000b0: 4039 6132 8a84 8030 7e1e 42bb 3047 f638
000000c0: 3a54 9bae d82b 7fb2 b90b 54b3 dfae 9532
000000d0: ed52 14b1 23ee 49ba 52c0 f235 3371 a032
000000e0: ff4b 38b3 88c0 d2b1 b0e6 0934 0a19 ceb1
000000f0: 308a 8db5 ec2a 66af ecdd 58ba 741f 5d36
-1.4935917e-09 -2.6334501e-09 -2.28e-07 -5.087773e-16 9.434312e-09 9.149054e-12 6.282802e-06 2.0471747e-09
-2.9030583e-05 -0.002392828 -1.5729183e-05 8.5349154e-07 -2.0247544e-08 -1.4809153e-08 3.2837022e-07 1.352246e-08
-1.04572774e-10 -9.080166e-08 9.490777e-13 -1.06693015e-07 -2.5041274e-05 4.819459e-05 -1.2460128e-08 -0.0018508873
-1.961914e-09 -6.329607e-09 9.873488e-09 1.6879355e-09 9.376102e-09 -9.786585e-09 -2.7921099e-09 2.0809086e-08
8.314645e-05 -2.5708144e-11 -8.672567e-11 8.1092285e-06 0.00073889055 0.000100428675 -1.3006769e-08 0.0003982223
6.521285e-15 -2.5581885e-09 1.1073037e-10 -4.8443138e-12 1.3109741e-08 9.350896e-10 -0.0029620226 0.00011743454
-7.0635456e-11 -1.48529224e-08 -4.9370758e-08 1.7425405e-08 -2.1583972e-09 -0.00077030266 1.8086378e-06 1.8677929e-08
-4.2909956e-08 -6.1336927e-09 1.2843043e-07 -5.9982357e-09 -1.0545536e-06 -2.0933627e-10 -0.0008272815 3.2949874e-06

transformer.layers.0.1.fn.fn.net.0.weight f4 [64, 64]
00000000: 76a8 5526 98e2 9336 c462 11b1 4a7b 499f
00000010: ce98 86a7 6d6c eea3 af25 b4a9 4d6f 2cb9
00000020: 4d39 022e aff0 a5b0 450e 8234 5c1a e0ba
00000030: 7216 8a32 3c67 972f 7d5b 5127 db70 94ad
00000040: 2a7c 0fa4 c00e 38ae d90b c8a1 5516 8ba8
00000050: 49d4 00b0 9bc3 042f 70e9 9ba7 fed3 32b1
00000060: 7158 9b39 9d29 07b0 3d5c 1e28 8300 9c25
00000070: 9b09 bda7 d366 82b7 41d0 e8a6 b30a 3c28
00000080: 5d85 012b 34f0 3b23 6360 77a4 814a 56ae
00000090: 1451 0431 a15b 52ae 6f33 1ba4 6b87 84af
000000a0: 250b 939c 6e75 54a4 1f22 0fa8 2e43 1123
000000b0: 848b b8ad 85be 6130 7edb e62d 4e7a efad
000000c0: 5109 783b 6ba3 ce28 d3f7 9cb6 9ab8 8e28
000000d0: 3429 4cab b24c 7fad d05d a7b7 f74f 0733
000000e0: d0f5 6728 f9c8 1ca7 aa4e 6027 2bfa ff26
000000f0: 9997 64a9 5551 0aba 7180 1b34 5fea 23ad
00000100: 7d73 0aa7 2b02 762d 32a9 88ba 082c 921f
00000110: 2e01 7c28 0f17 92a5 f41e 372b 2f19 dfa6
00000120: d7f0 a6b3 5b15 1bb2 43c2 d22e a870 2439
00000130: 9f37 0229 77c8 8fa8 d419 24b5 17e8 cd2b
00000140: eaf0 19a5 7d3c 522a a2a0 c4ad 0df2 cc28
00000150: cb3a 5f31 f755 742e 5bd2 3aa9 9ba1 aab0
00000160: a24f 4728 0a5c eb25 0160 f4a7 149f 4d27
00000170: 7a58 ff27 37dc ad39 53cc 103a 2432 27a7
00000180: 7327 8d2c c3fb 30b5 9a8b ad30 bbe1 a7b5
00000190: a30d d7b2 19e1 84b8 5a91 36a7 fb05 2432
000001a0: c43a 681e 9bb4 bba4 f780 3834 956d f6a8
000001b0: ca4f 1db4 ae01 de24 d13f ce2d a447 11af
000001c0: 2407 9233 8f6a c731 9272 14aa 3369 24a8
000001d0: 2455 0da6 9a05 54ae 5ef6 82ba 73e8 5fbb
000001e0: 1ffb 3229 0dc8 c526 6f91 2728 bbbd 9aa8
000001f0: d1d2 cf2e 204b b6a5 7840 8cb0 61a2 d037
00000200: a488 1726 2f0a 24b8 f971 442b a591 a81f
00000210: 52c7 8cb9 e551 1db3 334b 41ab 1e7e 02a8
00000220: 189e a42d 9763 d531 3bf6 6cb5 06b3 57b6
00000230: 5fa5 2729 4aa3 5435 1488 be29 5235 48aa
00000240: 1e50 73a3 f9db 6c2d 4622 9621 ff23 2fab
00000250: fe72 c0ae fcc8 db2e 2d7f 5aa9 9d5d bf2e
00000260: 9043 7a27 ff07 f0a7 f0fd 9127 e968 9b26
00000270: 6dc9 4bac 5bc1 fba3 d641 e8a6 054f 4a28
00000280: 8e8c 16ad 7a56 5024 f6af 8eac 1402 b32c
00000290: 0098 c32f 80e5 a42d 598f a328 7d4f 56af
000002a0: 6a5c e41e 07a5 1e2f 929f a4a6 2278 07a2
000002b0: fa64 24a8 0292 4325 e03c 9d2f 9f40 6fae
000002c0: f99c 98b4 6a60 ca28 2398 0f29 0601 3428
000002d0: cc53 ce24 1237 5834 4cf7 4132 58a4 d4a7
000002e0: 7f7f 1c2a d1e6 5127 de87 abaa 411d 58b8
000002f0: 13ea 8e2a 1a50 8e26 3baa c7b0 6861 44b2
00000300: 92cf dd26 c8aa 1027 b644 142c ba56 f21d
00000310: 068f 99a8 6874 9b2a 89bb 0b2c 1eaf 8ea5
00000320: a409 32b1 3537 63b4 a0f6 f62e 8bc4 ac39
00000330: 961c 57a8 6a51 99a7 e97f 182e 1aa8 0528
00000340: e149 e434 2349 89b0 4fb3 1ab5 c4c3 983a
00000350: 1a0c 3e2d 02a0 3c2f 5788 52a7 da53 23b1
00000360: 10b3 dda6 71e9 8827 6761 7aa6 011f 6834
00000370: ad9a 51a8 3f53 25a8 b440 682f ebc1 3fba
00000380: 7b26 1c2b 8e08 9c23 d56c 61b3 a99d 1e2e
00000390: b4b9 cf32 3a1f 582f ecdc 3e33 137e 32b0
000003a0: f8af ea9b 98d5 9c24 9cd7 21a7 08d8 2ab5
000003b0: fef5 8439 7312 37ac a71a 08ad 8461 b0ae
000003c0: 6541 0531 89f4 74a9 2749 8ab1 0eff 3fa8
000003d0: 0db1 c1b7 c1d7 693b 8faa c9a9 8ab6 1027
000003e0: 6f24 aaa8 9f9a 53a6 b02a b42f a6b2 0e27
000003f0: b7bf cbb4 52e2 be2d 3296 5330 0c95 ca37
7.4127527e-16 4.4073204e-06 -2.1156419e-09 -4.2665388e-20 -3.7358142e-15 -2.5849932e-17 -8.000143e-14 -0.00016444661
2.960947e-11 -1.2073736e-09 2.422477e-07 -0.00170977 1.6075521e-08 2.7540092e-10 2.9054172e-15 -1.687577e-11
-3.1113353e-17 -4.1849857e-11 -1.3555663e-18 -1.5441785e-14 -4.6867804e-10 1.2074823e-10 -4.3274236e-15 -2.6022913e-09
0.00029629798 -4.917185e-10 8.790763e-15 2.7062033e-16 -5.2468452e-15 -1.5545089e-05 -1.6154681e-15 1.04384165e-14
4.6015085e-13 1.0188155e-17 -5.364123e-17 -4.872414e-11 1.9254616e-09 -4.7829855e-11 -3.3653833e-17 -2.410688e-10
-9.730525e-22 -4.606964e-17 -7.9454935e-15 7.874692e-18 -2.0980336e-11 8.212527e-10 2.6245447e-11 -2.7225468e-11
0.003784735 2.2941466e-14 -4.678013e-06 1.5845225e-14 -7.253254e-13 -1.4512102e-11 -1.9951636e-05 3.1504864e-08
1.2876378e-14 -2.1758296e-15 3.1128889e-15 1.7761988e-15 -5.075766e-14 -0.00052764016 1.4482227e-07 -9.317518e-12
-1.9213953e-15 1.3983962e-11 -0.0010426401 6.190625e-20 1.3989066e-14 -2.5342588e-16 6.5057616e-13 -1.5480559e-15
-7.773786e-08 -9.027043e-09 9.584202e-11 0.00015682227 2.8914042e-14 -1.5963127e-14 -6.1132346e-07 1.4630544e-12
-1.335226e-16 1.8672733e-13 -2.2353955e-11 2.2753522e-14 3.248419e-09 5.555553e-11 -4.148275e-14 -1.2415059e-09
1.1063987e-14 4.082837e-16 -6.7827692e-15 2.8535701e-15 7.0872644e-15 0.00033161204 0.0005523611 -2.3203087e-15
4.0118408e-12 -6.593147e-07 1.2627084e-09 -1.2508166e-06 -2.5035495e-08 -6.336178e-05 -2.533637e-15 9.547416e-09
1.229413e-20 -8.140428e-17 1.7183253e-07 -2.735901e-14 -1.4650792e-07 9.628e-17 2.3447829e-11 -1.3213125e-10
6.799954e-08 5.8037766e-09 -1.318479e-13 -9.12664e-15 -4.903459e-16 -4.8208194e-11 -0.0009991636 -0.003416565
3.9741753e-14 1.3723845e-15 9.301898e-15 -1.7179717e-14 9.450719e-11 -3.1622874e-16 -1.0204664e-09 2.4871146e-05
5.257383e-16 -3.911013e-05 6.9791357e-13 7.1391716e-20 -0.00026851386 -3.6628894e-08 -6.8671734e-13 -7.243797e-15
1.8714849e-11 6.210438e-09 -8.8275164e-07 -3.2141702e-06 3.7224886e-14 7.921377e-07 8.461301e-14 -1.7782068e-13
-1.3190022e-17 1.3463891e-11 1.0173467e-18 -6.2222444e-13 -8.751576e-11 9.994669e-11 -4.851603e-14 8.7023035e-11
3.4731095e-15 -6.662205e-15 4.0520904e-15 1.0783722e-15 -2.8959849e-12 -2.7295364e-17 -1.6116079e-15 1.1230387e-14
-8.557722e-12 4.517606e-17 -4.0554183e-12 5.0877167e-12 3.5578296e-10 1.874656e-11 1.8158802e-14 -1.9491427e-10
2.417866e-20 1.4428646e-10 -1.1423038e-15 -1.835951e-18 -9.125725e-15 1.6963023e-16 2.8601388e-10 -5.4399703e-11
-2.842642e-07 2.2468318e-14 3.1884336e-14 9.992229e-15 8.9480216e-17 2.0136602e-07 1.1290307e-08 -5.9020002e-15
1.3899817e-13 2.9129702e-15 -3.046998e-13 -5.1525658e-05 2.538669e-13 9.874941e-16 -1.4527538e-09 -1.1430849e-08
1.5391218e-15 2.0076595e-15 2.1070207e-12 6.414654e-21 -1.7048439e-14 2.7614304e-13 1.985719e-12 -2.4751737e-16
-2.590789e-09 -2.1161107e-07 1.1230594e-10 0.00032952832 -1.1941096e-14 -4.25543e-15 3.4674406e-11 7.419434e-15
4.2522063e-07 -9.988849e-10 -5.76304e-07 0.0011655022 1.0802937e-11 1.7155347e-10 -2.9217264e-15 -2.3767286e-09
-1.538349e-15 3.800068e-15 -8.686818e-16 2.1617963e-07 -1.16353706e-14 -9.177391e-15 2.1123264e-10 -0.0007314968
5.5475736e-13 1.6917177e-17 -5.2485877e-08 3.606507e-11 2.418242e-08 1.965618e-10 4.443875e-08 -6.4935185e-10
-3.882577e-22 6.801606e-17 -2.246012e-15 -6.36443e-07 0.0002536028 -2.6016106e-12 -7.736623e-12 -8.0208756e-11
1.939122e-09 -5.4390984e-14 -4.024645e-09 -1.0657936e-14 -2.3089839e-05 0.0035681578 -8.95578e-14 2.008297e-15
-1.8889592e-14 -7.341488e-16 3.277214e-10 1.9803304e-15 -3.7951187e-07 2.1701006e-11 7.6974793e-10 2.4149682e-05

transformer.layers.0.1.fn.fn.net.0.bias f4 [64]
00000000: 849f d036 f948 0033 a05c a6b4 cca9 96b9
00000010: 3d3e 11b0 8ce2 d7a1 aebb fbba 98e7 3bb1
00000020: 5b6e 97ad f223 3034 bdc6 4e36 e899 5ab6
00000030: b1fb bf34 fa1d bf33 a70c 2db4 9b86 43b5
00000040: 34cd 7933 4c52 92b5 33b3 f634 d4b5 0b36
00000050: 388c e137 8500 8222 8f33 a9b2 d5d0 eeb8
00000060: 13ac 1cb3 e380 1ab4 bb30 c933 8407 343b
00000070: 8731 2d25 e576 46b5 5921 769b 3672 2135
00000080: ed3d 31ba 0608 01a2 3e3f 94b5 2191 a4b4
00000090: 390c 8132 d0ce efb1 773e c237 0c70 6fb5
000000a0: f83b 39b5 bad8 7d35 7a8b 42b5 5f76 e0b5
000000b0: 3c68 eeb6 1a20 99b6 67b7 d7b4 43f1 11b4
000000c0: 77d4 d2a5 f359 7235 849e 8433 289a dab3
000000d0: 5100 4636 ec2c 30a2 dec8 fa34 1b29 892d
000000e0: 66bc 1aa2 6ecc bf35 6c71 21b3 e313 9cb5
000000f0: f4c5 0631 4fe4 5f35 a3b3 f2b4 babb 1435
6.217453e-06 2.986869e-08 -3.0987303e-07 -0.00028736738 -5.283914e-10 -1.4628933e-18 -0.0019205713 -2.7343727e-09
-1.721572e-11 1.6404354e-07 3.0812073e-06 -3.2574117e-06 3.5759652e-07 8.899583e-08 -1.6116483e-07 -7.283904e-07
5.816146e-08 -1.0901799e-06 4.5951455e-07 2.0818452e-06 2.6887385e-05 3.523712e-18 -1.9697636e-08 -0.00011387622
-3.647808e-08 -1.4389256e-07 9.368656e-08 0.00274703 1.5022139e-16 -7.393376e-07 -2.0359418e-22 6.014337e-07
-0.0006761242 -1.7487008e-18 -1.1045265e-06 -3.0652976e-07 1.5023135e-08 -6.9793273e-09 2.315569e-05 -8.919749e-07
-6.9005137e-07 9.4565223e-07 -7.2473597e-07 -1.6723751e-06 -7.105087e-06 -4.5634924e-06 -4.0180313e-07 -1.3591948e-07
-3.6573165e-16 9.028292e-07 6.175563e-08 -1.0179457e-07 2.9504483e-06 -2.387623e-18 4.671228e-07 1.5593351e-11
-2.097063e-18 1.4290106e-06 -3.758889e-08 -1.1628694e-06 1.961209e-09 8.3406206e-07 -4.5206716e-07 5.5407475e-07

transformer.layers.0.1.fn.fn.net.2.weight f4 [64, 64]
00000000: 5388 74b2 4f30 60b0 44f7 162e f9fb 4d31
00000010: 751b 80aa 4861 dc24 16da 16b3 4294 8da9
00000020: 1592 82ae 04e3 3731 0cd8 4c3a a2ab 7b38
00000030: 27a7 8daf 099a 2f30 f301 aead 001d c6b0
00000040: 01c1 872e d027 0a37 e6c4 1aae 9942 b3b7
00000050: 7198 5636 8d3e 70a4 c332 d92d e807 b4b2
00000060: 7209 8b34 66c9 d0ad 42af b82e 6118 9935
00000070: b0f4 0929 247e c1b0 754b 5c1f 59e6 23b8
00000080: f81d fb3a deb4 4c27 a425 a730 9315 90b5
00000090: c640 87ac d8cd 79ac b5bd d030 0075 8aad
000000a0: 5b4b 0032 8940 642f 08dd c4b5 4110 2639
000000b0: 65e3 a9ba ec1c 7bb7 397c 1e32 5d79 2b2f
000000c0: 2c8f 3c26 4113 5db4 cc13 d12d e9ef b52d
000000d0: 4b48 9130 5f57 3926 50f5 c334 df9e 37b4
000000e0: cc09 8ea4 21a4 08ad ba69 de30 4e69 fdaf
000000f0: 6dba e9ab d033 a131 3064 9634 c963 e531
00000100: 2aa4 f031 9a8d bf2e 22e4 472e 8851 01b0
00000110: 8c62 d4a8 7ab0 1e23 d452 6431 bfd7 27ae
00000120: 743a 502f dbe1 13b0 0ba1 1e2f 0c23 8db0
00000130: fce5 a4b3 e48d 76ae dde7 b9ab d2a8 8a2e
00000140: 422c 5fab 3374 d63a 6106 11ad 1d6a 97af
00000150: b228 e0b1 321b 9b24 0edd cb2c c72e abb1
00000160: da16 a9ab 0ccc 97ab c14c bfab e383 5033
00000170: df06 7ea6 a4f2 e6af b9df 919c 2bb4 bbad
00000180: bd96 e72e e1c0 dfa0 c6eb af2e 8f5f 2eb0
00000190: 060e 8927 38fb 9d2a 306f 2334 dfd9 f82d
000001a0: e823 27b9 8d1c b52c 15a4 8dad 42f0 fbab
000001b0: 5502 0e30 d04f 66af fd9b 302f 2f46 292e
000001c0: 7b39 90a6 5133 d72d 0ceb c0ac 486f 932e
000001d0: 5bd4 4038 09d5 64a4 fc2f 13af 9a60 01af
000001e0: f02a 0c24 fc2e 5d2f 08cb 402e ff55 1d2e
000001f0: e41b 702a c8b8 3830 6da0 2934 516b c6ad
00000200: 51a4 22b1 666e e7ad 67e4 95ad d4c8 43b9
00000210: bdc7 b428 9c6b 9124 2d3e 42b1 af64 4529
00000220: 9599 9aac 786c e92e b5d6 53af e584 1aaf
00000230: ede0 67ad 4efa d62d 460e 82ab 9f75 7bba
00000240: a13d 312c fa8a af2d b723 e22c a840 da33
00000250: db20 9ab0 9512 be23 71a6 8f2c 64c0 4f32
00000260: d6d2 ccac 503f 80ac 8df1 ab2c e6ed 1bb2
00000270: 4f80 0326 1721 ebae e822 ae99 c0fe 982d
00000280: b4b6 ca34 7f0d efa4 3d08 29ae ba39 b92d
00000290: 7820 302b b93d 162b ee92 6fb0 a49f 90ae
000002a0: b151 0030 aa1b 26ae ef8c 49ad 3df4 96ae
000002b0: e958 93ae 61df 0f2e 027e 722d 51be 4fac
000002c0: 664d 8825 6732 8ead 82cc 3c2b ed43 00a9
000002d0: 17b2 832e 7ed8 44a4 1a4d 7139 4ee2 c9af
000002e0: 7db9 46a4 cc9e 03ae 9192 5f2e 042f 50ae
000002f0: d44d bba9 332e 822f 5abf 2330 3d94 8e2d
00000300: 3da8 1634 9f8a 78af 019b 2a2f 7e46 e732
00000310: adba 72ab d4a2 4ea5 cf96 adb2 bcc7 082b
00000320: 9f5a 91b0 ae02 6f31 299f 6a2f 255b 7532
00000330: 681d 8d31 63ee 9ab0 de9c 402c 4a00 19b0
00000340: a4f5 09af ac3a 7b30 99c6 d32d 685f 8fb1
00000350: b04f 4833 7775 cd25 2ac4 47ae ba06 29b6
00000360: 9df7 652d f95f d02d b03e a2ae 02bc 9334
00000370: e683 d628 b745 612f 66ce cc9f d411 a3b0
00000380: a647 0ab4 12a1 67a6 5cc3 5eb0 d6bb 03af
00000390: 72f0 10aa 18ae 89ac 4b9e 44b1 ed2d e8af
000003a0: 1fc5 f331 ec4e 06b0 0075 07b0 eb0a 9c30
000003b0: fc50 e9b1 0a07 b3b1 f554 7331 6d5f f7ae
000003c0: 2ed4 8628 2ed3 27ae 504a 84af 7f19 29b0
000003d0: 3131 09b1 7343 2626 6a90 ebb0 d1c1 8831
000003e0: 23e7 86a6 f03b 882f 4ab1 71b1 687c d52f
000003f0: 857b b52b 94ba b6b2 9be9 4f33 6620 8c2f
-1.4233666e-08 -8.1559376e-10 3.4325667e-11 2.9974656e-09 -2.275642e-13 9.557459e-17 -3.5122945e-08 -6.2873765e-14
-5.937665e-11 2.6759048e-09 0.0007814176 6.000291e-05 -2.576652e-10 6.3883526e-10 -1.9782375e-11 -1.4414638e-09
6.1733736e-11 8.234711e-06 -3.5190427e-11 -2.1369475e-05 3.1977218e-06 -5.2094687e-17 2.4692587e-11 -2.0958353e-08
2.589764e-07 -2.3736301e-11 8.398483e-11 1.1406484e-06 3.0632343e-14 -1.407845e-09 4.664923e-20 -3.9076756e-05
0.0019158712 2.8408735e-15 1.2161547e-09 -1.0735115e-06 -3.844122e-12 -3.5499294e-12 1.518791e-09 -1.5740742e-11
7.4677144e-09 2.0759407e-10 -1.4667467e-06 0.00015837049 -0.0012961446 -1.49675e-05 9.225055e-09 1.5595476e-10
6.5419637e-16 -2.0589233e-07 2.376934e-11 2.068386e-11 1.0570685e-09 6.430318e-16 3.650007e-07 -1.7101e-07
-6.159928e-17 -7.767149e-12 1.6182675e-09 -4.6095255e-10 -1.6607389e-12 4.691607e-09 2.8012573e-07 6.6761214e-09
7.0035826e-09 8.710828e-11 4.5449984e-11 -4.704579e-10 -2.3579466e-14 8.6025675e-18 3.322545e-09 -3.8163025e-11
1.8938257e-10 -5.379925e-10 1.442723e-10 -1.0269061e-09 -7.678679e-08 -5.605995e-11 -1.3209396e-12 6.305502e-11
-7.9286935e-13 0.0016361534 -8.243712e-12 -2.7542138e-10 -6.5238845e-09 6.7266605e-17 5.794149e-12 -4.982073e-09
-1.2014515e-12 -1.078583e-12 -1.359267e-12 4.8548724e-08 -8.8133265e-16 -4.2009163e-10 -9.653126e-22 -2.133945e-11
1.053144e-10 -3.7905306e-19 7.9999604e-11 -6.343663e-10 3.8040343e-15 2.806312e-13 1.5221008e-07 2.829109e-11
-0.00015939737 5.147499e-12 -1.6102711e-11 -1.7901308e-12 5.1662613e-10 -2.0946733e-10 1.6062525e-10 3.8488487e-11
-1.0007587e-15 2.446546e-11 -5.4830637e-12 6.7045536e-11 4.597414e-05 -4.9620067e-17 -1.338662e-10 -1.1766801e-10
3.039403e-17 2.0116525e-10 4.3836074e-11 3.5774047e-11 2.1325959e-13 6.72014e-10 1.5797714e-07 -2.2557652e-11
-2.3667506e-09 -2.6310686e-11 -1.704077e-11 -0.00018671463 2.0070637e-14 6.3066023e-17 -2.8266058e-09 4.3830116e-14
-4.3939943e-12 1.0614881e-10 -1.9266617e-10 -1.4053432e-10 -1.3180773e-11 2.4440141e-11 -9.241017e-13 -0.0009592417
2.5187424e-12 1.9956915e-11 6.4272715e-12 1.0163177e-07 -1.1214313e-09 2.0607711e-17 4.082783e-12 1.209273e-08
-5.821436e-12 -3.645008e-12 4.88693e-12 -9.076279e-09 4.5623646e-16 -1.0692441e-10 -1.8005277e-23 1.7393531e-11
3.7758366e-07 -1.0367259e-16 -3.8433468e-11 2.10577e-11 6.257282e-13 5.337636e-13 -8.7156493e-10 -6.57672e-11
4.668222e-10 -3.77686e-11 -1.1456821e-11 -6.864596e-11 -6.70058e-11 3.2712836e-11 1.3784087e-11 -2.9522116e-12
2.3644686e-16 -1.6165914e-11 6.707483e-13 -2.8480626e-14 5.9888254e-11 -4.26841e-17 0.00023012274 -3.6722486e-10
-4.309152e-17 -2.992699e-11 5.0834507e-11 -4.7335483e-11 -8.317969e-14 2.367969e-10 5.957098e-10 1.6209362e-11
1.4031043e-07 -2.2604717e-10 1.5516478e-10 2.6923995e-08 -8.6234736e-13 -1.792282e-16 -2.020843e-08 4.8594093e-13
-1.0575895e-09 3.47806e-09 2.1338721e-10 1.4281601e-08 4.106983e-09 -1.1272728e-09 2.737192e-12 -5.5661487e-10
-1.2547346e-10 9.1396646e-10 2.4076118e-11 -4.172694e-09 4.6638604e-08 3.5641429e-16 -4.542159e-11 -2.5186878e-06
1.3072124e-11 2.3689483e-11 -7.3780426e-11 2.7517677e-07 2.3815975e-14 2.0488398e-10 -8.673882e-20 -1.1864878e-09
-1.2878317e-07 -8.0362516e-16 -8.104075e-10 -1.1981113e-10 -1.287319e-13 -3.9131025e-12 -2.8611733e-09 -4.2233186e-10
7.094641e-09 -4.886107e-10 -4.927898e-10 1.1353597e-09 -6.7903994e-09 -5.210386e-09 3.5409446e-09 -1.12492106e-10
1.4969007e-14 -3.815897e-11 -2.4063462e-10 -6.1518074e-10 -1.9964086e-09 5.768423e-16 -1.7139545e-09 3.9801553e-09
-9.360768e-16 2.4780844e-10 -3.5170893e-09 3.883287e-10 1.2895107e-12 -2.1272434e-08 4.8408406e-08 2.5488872e-10

transformer.layers.0.1.fn.fn.net.2.bias f4 [64]
00000000: 488b ed38 fdcb 7137 feb9 b036 5050 1139
00000010: 0423 4bb8 b779 2b39 8d03 fdb7 82b7 2039
00000020: b13d 2138 7780 10b8 8d52 1438 373d 0638
00000030: e074 0e38 ae65 c337 86c9 97b3 3deb 55b7
00000040: c580 14b9 fb41 b7b6 c787 2a39 c40e 3338
00000050: 3d1f fe38 2b6a 14b8 b13b a8b8 573a 19b8
00000060: 6d01 f4b8 7563 0cb8 0b71 94b6 0aa7 2e39
00000070: 8be2 c038 ef00 de38 1854 7538 839a 70b8
00000080: 2de9 efb5 64c4 4d38 1e4f 2639 9055 22b8
00000090: fda9 2c38 bec2 2e38 cb0c cc38 0f76 e638
000000a0: 6210 0cb8 a0bd d738 3778 9f37 ae50 8db8
000000b0: 81f5 10b8 9662 0db8 1c09 2b39 4ae3 2238
000000c0: 211e acb6 c666 17b8 9c64 1638 9b5c 0b39
000000d0: 647b 1638 2b33 30b8 da04 1d37 f426 7bb8
000000e0: c85f 5738 4eb8 22b6 d39f 1538 e628 1cb8
000000f0: 745b 27b8 e523 10b8 0727 a038 fc22 9736
0.00011326984 1.4412214e-05 5.266861e-06 0.00013858196 -4.8431582e-05 0.00016353173 -3.0161604e-05 0.00015327151
3.8442846e-05 -3.4451918e-05 3.536283e-05 3.20051e-05 3.3964287e-05 2.329316e-05 -7.068142e-08 -1.275056e-05
-0.0001416235 -5.461506e-06 0.00016263044 4.2690677e-05 0.000121174824 -3.5384826e-05 -8.021983e-05 -3.6532376e-05
-0.00011635092 -3.3471228e-05 -4.4239036e-06 0.0001665616 9.19747e-05 0.00010585959 5.849087e-05 -5.736436e-05
-1.7874751e-06 4.905871e-05 0.00015860467 -3.8703496e-05 4.116631e-05 4.16662e-05 9.729861e-05 0.00010989245
-3.339386e-05 0.00010287319 1.9010256e-05 -6.738432e-05 -3.456092e-05 -3.3708835e-05 0.00016311224 3.883549e-05
-5.129507e-06 -3.609692e-05 3.5856487e-05 0.00013290571 3.5877703e-05 -4.2009324e-05 9.359059e-06 -5.987934e-05
5.1349198e-05 -2.424716e-06 3.5673216e-05 -3.7231388e-05 -3.9901075e-05 -3.4365705e-05 7.636664e-05 4.5042234e-06
