model_training/trained_models/model_100_ViT.pth (torch, 173040 bytes, 16 tensors)

patch_to_embedding.weight f4 [64, 192]
00000000: e584 8cab d89d 00ac 780e acac c178 f3ab
00000010: 9206 f0ab 2f0e b7ac 7eb4 0e2b 2d51 16ac
00000020: c72f c0ac 0b45 0aaa 59d3 2fac 5978 d0ac
00000030: 5a5f 64ac 8747 b7ab 037f a2ac be4c 3eac
00000040: afd5 13ab 57c3 1cac ca42 8d2b 8aa1 ddaa
00000050: 4fd7 81ac e14d 2a2a 72eb 092a 9dd8 6aaa
00000060: 4398 8aac cc7b 31ac 3f91 c9ac 42e9 82ac
00000070: 7f7c 3fac 55d4 d9ac da94 8fac 53d4 b7ab
00000080: bc95 c8ac a0e8 8dac 7090 c5ab 483e caac
00000090: c94d fcab bd2e 97ab 5abe d2ac 022a 6429
000000a0: 519a b9ab 8942 d1ac 0855 d6ab c878 d8a9
000000b0: 4951 8eac abd3 ceab c7f9 29ab 1799 90ac
000000c0: 85ab 05ad 6044 772a e9ed dcaa a0eb e9ac
000000d0: 7b34 93ab 2435 d52c c02d 70ac ce78 08ac
000000e0: a59b 0a2d 496f 0b2b a6b6 2aac 5de7 0b2d
000000f0: 93f2 c32c b6cc 77ac ad0f 102d b5ec 002d
00000100: 1905 15ac 9872 4c2c e5ac 96ab a4cf dcab
00000110: b4d0 75ac eeb0 b0ac dc7e efa9 4e66 c6ac
00000120: 9563 982c 9306 73ac a647 2e2d ee73 222d
00000130: eae4 90ac d9f7 472d b0a0 532d 24b2 b3ac
00000140: 286a 552d fafc 512d a2af d9ac 5fda 542d
00000150: dc58 522d 2218 e1ac 52fd 532d b671 2d2d
00000160: 8208 e0ac 150a 3b2d 316b 522d 3626 4bac
00000170: ff1d 0e2d e0a6 c32b 8fb5 e829 4fb5 c2ac
00000180: 381b 00ad a624 ba29 3ca3 89ac ce78 fdac
00000190: e6bb d6aa 2a4c b0ac 680b a7ac 5ecd 8aab
000001a0: c353 2ea9 29b1 7aac 1d11 18ab a4d6 db2a
000001b0: c654 f6ab 36eb 93a9 182c 01ac 6e4e c52a
000001c0: 16e7 e929 b9ce fbaa 0b9a 9bac 9f97 6329
000001d0: 36d0 b7ac 8593 f4ac c0f7 e8ab 6603 beac
000001e0: b83d a5ab 043d 42ac 3e83 5bac c9c9 19ac
000001f0: 4579 9eab b566 acac d7b5 aeac 7add c8a9
00000200: 0b2f cfac db43 c1ac baeb a629 f82d cbac
00000210: f991 95ac 83f9 c0aa f3d1 b9ac b104 74ac
00000220: 217a c9ab b2e1 afac ac13 aeac 2860 20ac
00000230: 735a b9ac 3d8a 7aac 6e85 44ac 09b7 94ac
00000240: 73d1 71ab 378e c42c 9b52 e02a 5e04 5d2b
00000250: bd08 b32b 42a5 15aa ce88 782b faf6 92ab
00000260: b7ad f3ab b64d d32a bd66 23ac e580 ebab
00000270: d594 be2a 75ce 16ac 7ff6 bfab 73eb 39aa
00000280: 97f5 2eac a42f b1ab f10f bf2a 9d64 33ac
00000290: 12a5 89ab e0f3 242b b0ab 74ab c70d 81aa
000002a0: 5438 cf2b c90c d72c d627 43ac b54f c4ab
000002b0: 0c5d cc2c f373 f5ab 4c50 f7ab 20cb cb2c
000002c0: a2a0 b2aa e2f2 18ab d181 bd2c ece8 b82a
000002d0: fcb7 17ab 6eec c22c 741e fa2a 91a0 542b
000002e0: c495 b62c e777 062b 21ac 1d2b d869 622c
000002f0: de43 ae28 bdfd 692b 7922 da2b 0193 a5aa
00000300: 1de9 49ab 7699 2dab 4a61 d0aa e473 47ab
00000310: 413f 27ab eae2 ceaa 9eb1 82aa 8025 35ab
00000320: 8167 ccaa c1a0 a3aa b5d5 3eab 9ba5 d1aa
00000330: f164 56ab 2993 1cab 5bdd cbaa 9012 53ab
00000340: 2fce 03ab 5ed8 deaa acb2 01ab b4bc 02ab
00000350: 49fb ceaa 9eb6 04ab e1a7 e9aa 994e ebaa
00000360: d8cd 58ab 90ed 3bab fadd 14ab 14db 59ab
00000370: 4827 48ab 81cc ffaa 9a0c 59ab 199e 20ab
00000380: 3d2d d1aa a037 58ab 7c50 24ab 909c d1aa
00000390: 0c37 30ab 8b48 1bab 873c dbaa f328 8faa
000003a0: 7950 22ab 11aa d9aa 9844 0fab 2b6e f7aa
000003b0: 98ce cbaa 4da8 07ab 54f3 0cab 19d3 c9aa
000003c0: d6d5 f9aa 33b3 f0aa fc3f f8aa c5ae eeaa
000003d0: e4a3 33ab 8453 21ab 6814 0cab 2b38 49ab
000003e0: 6194 27ab 0678 24ab e4fc 4eab 8fac 26ab
000003f0: c262 39ab 3a21 4cab b4ef 26ab 42d0 3cab
-9.984484e-13 -1.8277515e-12 -4.8901404e-12 -1.7299704e-12 -1.7054849e-12 -5.2027475e-12 5.069902e-13 -2.1361344e-12
-5.4622726e-12 -1.2280816e-13 -2.4986317e-12 -5.925077e-12 -3.245368e-12 -1.3022785e-12 -4.618418e-12 -2.7043224e-12
-5.2521437e-13 -2.2277369e-12 1.003719e-12 -3.9369576e-13 -3.6903046e-12 1.5126053e-13 1.2249731e-13 -2.0858528e-13
-3.9391003e-12 -2.5221934e-12 -5.728889e-12 -3.720719e-12 -2.7211842e-12 -6.1910845e-12 -4.0808303e-12 -1.3061864e-12
-5.7009657e-12 -4.0332876e-12 -1.4037781e-12 -5.7481e-12 -1.7927267e-12 -1.0742168e-12 -5.9896922e-12 5.0662606e-14
-1.3187872e-12 -5.947524e-12 -1.5229215e-12 -9.613279e-14 -4.044907e-12 -1.469593e-12 -6.0387497e-13 -4.1097225e-12
-7.59826e-12 2.1961729e-13 -3.9244934e-13 -6.648418e-12 -1.0459544e-12 6.059724e-12 -3.4131448e-12 -1.9393822e-12
7.878952e-12 4.953716e-13 -2.4259843e-12 7.952608e-12 5.5691645e-12 -3.5214449e-12 8.188933e-12 7.328517e-12
-2.1177003e-12 2.9053756e-12 -1.0706129e-12 -1.5689572e-12 -3.4932448e-12 -5.021864e-12 -1.0635739e-13 -5.6388566e-12
4.3311557e-12 -3.4536026e-12 9.906664e-12 9.234375e-12 -4.1181407e-12 1.1366874e-11 1.2029641e-11 -5.1072636e-12
1.213122e-11 1.1936447e-11 -6.18701e-12 1.2099293e-11 1.1956849e-11 -6.397564e-12 1.205021e-11 9.85916e-12
-6.3674075e-12 1.0631958e-11 1.1960919e-11 -2.8869246e-12 8.078426e-12 1.39019e-12 1.0334365e-13 -5.533941e-12
-7.282001e-12 8.266417e-14 -3.911897e-12 -7.2041045e-12 -3.8144417e-13 -5.0106768e-12 -4.747692e-12 -9.862491e-13
-3.8708413e-14 -3.562548e-12 -5.4025e-13 3.9051152e-13 -1.7502881e-12 -6.568914e-14 -1.835648e-12 3.504865e-13
1.03873656e-13 -4.473e-13 -4.422467e-12 5.0535636e-14 -5.224289e-12 -6.951275e-12 -1.6553356e-12 -5.400502e-12
-1.1741086e-12 -2.7602929e-12 -3.1194626e-12 -2.185462e-12 -1.1260234e-12 -4.899937e-12 -4.9655657e-12 -8.920204e-14
-5.8885167e-12 -5.4929234e-12 7.412773e-14 -5.7747106e-12 -4.251041e-12 -3.4279185e-13 -5.2813253e-12 -3.467709e-12
-1.4315807e-12 -4.9988564e-12 -4.9475615e-12 -2.2790745e-12 -5.268058e-12 -3.5603874e-12 -2.7927344e-12 -4.226734e-12
-8.591107e-13 5.586444e-12 3.9847712e-13 7.8521033e-13 1.272114e-12 -1.3291194e-13 8.8297154e-13 -1.0442474e-12
-1.7314404e-12 3.7535052e-13 -2.3220724e-12 -1.673353e-12 3.3854053e-13 -2.1430889e-12 -1.3639783e-12 -1.6512989e-13
-2.4863217e-12 -1.2589829e-12 3.3939477e-13 -2.5493282e-12 -9.780252e-13 5.860295e-13 -8.692448e-13 -2.2924563e-13
1.4723869e-12 6.112087e-12 -2.773328e-12 -1.3948761e-12 5.808359e-12 -1.7440479e-12 -1.7572692e-12 5.7921584e-12
-3.1730613e-13 -5.4338316e-13 5.3861156e-12 3.2846588e-13 -5.3901306e-13 5.5400606e-12 4.4430052e-13 7.554036e-13
5.1893784e-12 4.777276e-13 5.601648e-13 3.2175287e-12 1.9347313e-14 8.313036e-13 1.54994e-12 -2.9411892e-13
-7.1733055e-13 -6.1674916e-13 -3.701573e-13 -7.0859833e-13 -5.94181e-13 -3.6750404e-13 -2.3215886e-13 -6.435616e-13
-3.63095e-13 -2.9066162e-13 -6.779814e-13 -3.724077e-13 -7.6168157e-13 -5.562656e-13 -3.621364e-13 -7.498802e-13
-4.6826686e-13 -3.9585257e-13 -4.6077963e-13 -4.6447156e-13 -3.6767315e-13 -4.7149253e-13 -4.1505604e-13 -4.1798924e-13
-7.702428e-13 -6.676543e-13 -5.2888217e-13 -7.739792e-13 -7.1108787e-13 -4.5439002e-13 -7.7111375e-13 -5.7062823e-13
-3.7157248e-13 -7.681581e-13 -5.83762e-13 -3.7234495e-13 -6.2604154e-13 -5.5167736e-13 -3.8944214e-13 -2.5430317e-13
-5.766564e-13 -3.866495e-13 -5.0899e-13 -4.3952458e-13 -3.6203397e-13 -4.81952e-13 -5.0075677e-13 -3.585125e-13
-4.4379664e-13 -4.2756909e-13 -4.4098048e-13 -4.2398564e-13 -6.382102e-13 -5.731459e-13 -4.976631e-13 -7.1487494e-13
-5.9536236e-13 -5.843107e-13 -7.353686e-13 -5.921452e-13 -6.5862257e-13 -7.252147e-13 -5.93077e-13 -6.7080033e-13

patch_to_embedding.bias f4 [64]
00000000: d3be 2dbc bfb6 653d e811 acba 313b c039
00000010: 8de5 10bc 146f 8439 0b4a 033c e3fe 49aa
00000020: f158 92bd 36c3 57ab 9a20 e1ae d601 8228
00000030: b2a1 0f2c 8eec 2cbc 0275 982f b630 52bb
00000040: f244 98b9 6cbc fabb 49d3 6eab a522 22b9
00000050: d426 96ac df7c 0dab ec80 702f 74ee d73a
00000060: 8709 283c a52a b5ab 318d 1b3c 5fd3 aeb9
00000070: b115 8e2c 6d6e 7238 0421 332b dde5 50bb
00000080: 9780 593b d7dc 9836 7021 1cbc 40c7 5eab
00000090: 5afb 36af 29ed 9c2b 5b8c 062c 6ce9 0db4
000000a0: e36b 2f2d 78c2 173d 841a 0bb0 233e 8431
000000b0: ac58 8838 4e9b 033d 6b88 ea39 c41c d4af
000000c0: e9d8 b134 5a1a 71bc f1e9 9639 0bdf a5b9
000000d0: 48c7 062c dcb5 87b6 d890 70bd f0de 0bb9
000000e0: b906 b1ab 3dd0 983b bda3 682b 511a ba30
000000f0: d587 60ab 3d0d fa3c 7e11 1c36 a856 23ac
-0.010604578 0.056082483 -0.0013127895 0.00036665195 -0.008843792 0.00025259762 0.008013259 -1.7940818e-13
-0.071458705 -7.6654254e-13 -1.02376066e-10 1.4433696e-14 2.0411281e-12 -0.010554446 2.7731778e-10 -0.003207249
-0.00029043067 -0.007651856 -8.48478e-13 -0.0001546243 -4.267567e-12 -5.0266556e-13 2.1873675e-10 0.0016474263
0.010256178 -1.287266e-12 0.009494112 -0.0003334535 4.038291e-12 5.7800138e-05 6.3639393e-13 -0.003187529
0.0033188218 4.555662e-06 -0.0095294565 -7.914676e-13 -1.6642102e-10 1.1150292e-12 1.9120458e-12 -1.3216567e-07
9.971554e-12 0.037050694 -5.0605586e-10 3.8487697e-09 6.501502e-05 0.032130532 0.00044733597 -3.8583015e-10
3.3126642e-07 -0.014715755 0.0002878453 -0.00031637432 1.9153169e-12 -4.0444847e-06 -0.058731884 -0.00013339124
-1.2578472e-12 0.004663496 8.265019e-13 1.3540761e-09 -7.976929e-13 0.03052389 2.3255993e-06 -2.3211797e-12

transformer.layers.0.0.fn.norm.weight f4 [64]
00000000: cbd2 223f 9f8e cf3c 9ddf c2b4 4a28 0f3f
00000010: 78e1 de3e 608f d93e fbe0 be3c 5eca c43e
00000020: a688 6e3e 0422 703a 17d0 fc3a c5b6 9d39
00000030: b3a0 203d ed96 0b3d f7f4 eb3c d9fa 113c
00000040: 592a 9c3e b2ea 313c 963e a73e e9c4 f3b8
00000050: 0768 af3e 289a 463b 47b3 6b3e 631f 17b7
00000060: 7087 8a3d 2fa0 333b a746 993d 101b ef3e
00000070: e5c8 d03c 8014 a53e 7f16 d73d de1d bc3e
00000080: 0b6e c033 8ebb 993d 29aa 3b3d 5a6c f13a
00000090: 1c7c 7236 fec2 653d 4c27 493e 80bc 813d
000000a0: af0c a33e ba54 273f e328 e4bc 2eb3 843e
000000b0: 32ef 7eb9 bcc7 663e d65d e43e 876f ef3b
000000c0: 11f7 07b6 d5fc 663e 2c8c 213e 0004 ea3e
000000d0: 4ee7 1d3d 9661 383e a111 ae3d 15e4 8c3e
000000e0: d12a da3d 9ad5 843c 7047 1e3b cb07 e03d
000000f0: 7fad 232b 7b87 593e 84eb 5f3e 494b af35
0.63602895 0.025336562 -3.6298016e-07 0.5592085 0.43531394 0.424922 0.023300638 0.38435644
0.23294315 0.0009160342 0.001928809 0.00030081547 0.039215755 0.03407948 0.028803332 0.008909904
0.3050106 0.010859178 0.32664937 -0.0001162382 0.34259054 0.0030304287 0.23017608 -9.007609e-06
0.06764114 0.002740871 0.07484179 0.46700335 0.025486419 0.32242203 0.10502338 0.36741537
8.9607134e-08 0.07506476 0.045816574 0.0018419132 3.6133051e-06 0.056094162 0.19643897 0.06334782
0.31845614 0.6536366 -0.027851528 0.25917953 -0.00024312435 0.2253713 0.4460284 0.0073069963
-2.026038e-06 0.22557385 0.15776128 0.45706177 0.038550667 0.18005976 0.08499456 0.27517763
0.10652698 0.016215134 0.0024151467 0.109389864 5.8150007e-13 0.21243088 0.21867186 1.3060427e-06

transformer.layers.0.0.fn.norm.bias f4 [64]
00000000: 6b45 bc3d ce07 5fba c327 8cbb cd1b 0a3a
00000010: e2ca dcbc 768d 0c3b 9275 26bc 6e06 96bd
00000020: 332b 9abb dfea 53bd f03f 263a c55d 023b
00000030: 9bb1 c9bc a167 fa39 f30d 9a3b e2c3 f93a
00000040: 3e3c c4ba f1ab 3e3b 89a5 97bd ee83 b2bc
00000050: ab31 21bd ba75 ccbc 056c 2abd 1cb8 f3bc
00000060: 0ee7 893c 6b92 d0bc b997 4a3b de79 97bd
00000070: 5e2b 343d f2c6 553d eebd 1fbd e6c0 3c3d
00000080: 9c6a 4b3a 89d3 743c 9396 97bc 85a4 07bd
00000090: e00a 8abc d26d 403d 9b1c c03c 9416 e03b
000000a0: 9b7a 32bc 044f a23c 25d9 86bb 8d4d e73c
000000b0: ae5c 9aba 5424 503c 5bdd 323d ac2c 8f3c
000000c0: a0e8 e63b 16cc c3bc 8cd4 7a3c 0c76 86bd
000000d0: f999 43bd b427 103b df94 bfb8 5676 91bc
000000e0: 5cda 2ebd ad73 8239 5eca 133c 6d79 e23c
000000f0: f50e bf3b 9d45 5d3b 0619 8b3c 69e6 b2bc
0.09192928 -0.0008507938 -0.004277201 0.0005268425 -0.02695221 0.0021446622 -0.010159867 -0.07325445
-0.004704857 -0.051737662 0.0006341925 0.0019892317 -0.024620822 0.00047760925 0.00470137 0.001905557
-0.0014971567 0.0029094184 -0.0740462 -0.021791425 -0.039354008 -0.02495848 -0.04160692 -0.029750876
0.016833808 -0.025460443 0.0030913188 -0.07396291 0.04398667 0.052191682 -0.03899949 0.0460824
0.00077597215 0.014943012 -0.018504417 -0.033115882 -0.016850889 0.046979733 0.02345114 0.006838629
-0.010893489 0.019813068 -0.004115241 0.028235221 -0.0011776888 0.012703974 0.043668132 0.017477356
0.007046774 -0.023901027 0.015309464 -0.065654844 -0.04775426 0.002199632 -9.135319e-05 -0.017756622
-0.042688712 0.00024881717 0.009020416 0.027645791 0.0058306404 0.0033763417 0.016979706 -0.021838384

transformer.layers.0.0.fn.fn.to_qkv.weight f4 [192, 64]
00000000: 3f97 d231 486d 6329 4629 60a8 f86a 06ae
00000010: 3166 34a9 7058 4f2a bf7f 3729 d95b 482d
00000020: eee5 9729 e433 4aaa e5a9 0029 c84c 6929
00000030: 23e4 b0a9 ab52 9029 f0d1 3929 755d 21a9
00000040: 3afc 2caa 53f6 7da9 72e3 502b d4a1 4b29
00000050: 2212 f52b 7dc4 8029 c231 2c27 d7aa c9a9
00000060: d866 9e2b 77d8 dfa9 0b33 fc28 e76b af27
00000070: ce0c 35a8 f040 6729 671a b4a8 af23 2b2a
00000080: cd39 caa7 f254 a6a7 d12a f42b 9cc5 6829
00000090: 206d 85a9 2396 f6a9 d658 02a9 0982 0ba9
000000a0: b4c3 1a29 d64e 9929 a41a 1fa9 ddac 99a6
000000b0: c64c a8a9 1664 1daa f3d0 fda8 53e1 7929
000000c0: c414 1929 5c4b 5529 ba1a 41a9 cf72 3caa
000000d0: 0a78 312a 4b1d e6a8 22d5 08a9 84a6 5628
000000e0: 3b40 49a9 15df 9da8 2a6c 9d29 99b0 7a29
000000f0: ce7d 7e29 2527 2aaa 25b5 01a9 a968 5828
00000100: d1f9 b9ae b708 71a9 d692 40a9 2493 712d
00000110: 3c00 eba8 8c1f 312a f339 a3a7 e248 7fac
00000120: 49d8 9329 f97a 3c2a 667c e8a8 7779 d0a7
00000130: 924c a0a9 5fe8 6ca9 f7b9 e6a7 fa70 d428
00000140: dea6 64a9 3d09 0ca9 a7f1 79ab d440 bea9
00000150: a3ea 6dab 1856 d7a9 f50f 04a9 68ae a7a9
00000160: 545b e3aa 29d9 ac29 7bfb bea9 0f76 10a9
00000170: dc64 e1a9 11b7 71a8 165a 9929 6dc3 aba7
00000180: 3288 cf29 9e49 a5a8 1591 83ab 4ce0 212a
00000190: a0bb d529 8aea 022a a6d5 bc28 b5c4 68a8
000001a0: 7e25 92a9 dc75 0baa 9864 1f2a d9b3 b4a8
000001b0: 6ffb 97a8 0432 32aa 8d62 8729 2667 b9a9
000001c0: 7ce7 1fa8 d988 0829 1342 022a e0ec eea9
000001d0: db2f 16aa 3058 ad28 7048 81a8 e971 ffa8
000001e0: b0c1 08a8 7323 c2a9 26e5 87a9 6b13 a329
000001f0: ab14 1b29 73bf 5e29 56c1 d4a8 2f5c 83a8
00000200: f195 a32a c55c 8c28 207f 13a7 10d4 20aa
00000210: 08c0 0829 fb75 31a9 a859 9628 e19b e1a9
00000220: 3ed3 a528 b9c7 75a9 5b23 fea8 e26a 11a9
00000230: 5fca 3729 bf46 e426 50d1 96a8 31ec bb28
00000240: f0a6 9e28 3fb8 2f29 599c df28 ce1c fc28
00000250: 51b7 a929 09e1 4fa8 42ef 45a9 a0de 8828
00000260: 4e8b f929 9f7f 0028 210a 8628 e8a6 b4a8
00000270: 2f94 f228 5191 01a9 6504 4829 b8e4 7f29
00000280: d054 84a9 ce53 8d28 1772 b5a8 9d9f 4d28
00000290: bb76 f7a8 f82a 9fa9 938c 63a7 469c c6a7
000002a0: 42b8 1029 9e9e 89a9 f949 9929 e198 03a9
000002b0: 1ca9 3029 75d7 d2a8 63f5 82a8 968e 46a9
000002c0: 05ea 0da9 2414 3727 1b79 8c29 cf6e dfa8
000002d0: a8e3 6329 1ad8 4a28 2a21 aca8 155f bca7
000002e0: 4fd4 c928 b4d9 8129 622d 2029 5a7e eba8
000002f0: 5d71 3928 d4b3 6e27 e513 bda8 2bbb 8028
00000300: a8f0 2baa a440 1b27 d114 87a9 29f2 092a
00000310: fdec 61a6 098f f1a8 60ad 8b28 e0ac 052a
00000320: d3d8 57a9 995c 6129 4c02 f2a8 0af8 fd28
00000330: 6b24 1d28 5d3c 8c28 e1dc f5a8 8cf0 01a9
00000340: ce79 9b28 b0e1 51a8 01c6 53a8 9f5a 2f29
00000350: 2246 5ca9 c2fc 8029 641e 05a9 b6cc 13a9
00000360: 48d5 f9a8 d2f8 4ca9 4661 35a9 510c f5a8
00000370: b1e9 65a9 d4cb 11a9 a334 3c28 f48b e8a8
00000380: 435b 74a9 166f fea6 c68c 8129 5c61 bd29
00000390: 342e 1ca9 d2b5 afa8 dc57 d427 8701 01a8
000003a0: 70db 3e29 9b3e 0a29 6bd6 8f29 d2fd c8a8
000003b0: 0691 0ea9 b983 aba8 ce2b afa7 f047 2029
000003c0: 2a11 04a9 9b67 6fa8 bba1 7129 d108 f8a8
000003d0: e5b2 b328 6acc 8d28 d45e 86a8 22f9 74a8
000003e0: 5006 50a9 d3aa 8f29 e571 bfa7 5808 99a8
000003f0: 72d0 8da8 a028 1f29 2cb4 e1a8 ae55 f5a7
6.128999e-09 5.049891e-14 -1.2443448e-14 -3.056308e-11 -4.0056666e-14 1.8415976e-13 4.0744965e-14 1.1389078e-11
6.7456335e-14 -1.7959207e-13 2.856907e-14 5.180299e-14 -7.8555455e-14 6.409225e-14 4.1260344e-14 -3.5830242e-14
-1.5364177e-13 -5.6390937e-14 7.421209e-13 4.521542e-14 1.741333e-12 5.718427e-14 2.3896769e-15 -8.955829e-14
1.125512e-12 -9.94074e-14 2.7999757e-14 4.8689245e-15 -1.0050295e-14 5.1348628e-14 -1.9995465e-14 1.5200231e-13
-5.612893e-15 -4.6166353e-15 1.7349127e-12 5.1685747e-14 -5.9253167e-14 -1.0950639e-13 -2.894285e-14 -3.0976988e-14
3.4364615e-14 6.808241e-14 -3.53282e-14 -1.0663362e-15 -7.474017e-14 -1.3979125e-13 -2.817926e-14 5.5484544e-14
3.3990836e-14 4.7360865e-14 -4.287779e-14 -1.6737587e-13 1.5762405e-13 -2.5547833e-14 -3.038293e-14 1.1915494e-14
-4.4686677e-14 -1.7527248e-14 6.990964e-14 5.5664325e-14 5.6508448e-14 -1.5112614e-13 -2.8800872e-14 1.2013103e-14
-8.457202e-11 -5.352031e-14 -4.2759924e-14 1.3731936e-11 -2.6090343e-14 1.5731703e-13 -4.5304417e-15 -3.6278138e-12
6.565631e-14 1.6740419e-13 -2.5811123e-14 -5.786329e-15 -7.11871e-14 -5.2604077e-14 -6.4039447e-15 2.3585724e-14
-5.0770904e-14 -3.1094258e-14 -8.879793e-13 -8.448941e-14 -8.452494e-13 -9.562853e-14 -2.932373e-14 -7.4465445e-14
-4.0386672e-13 7.676006e-14 -8.48132e-14 -3.2076823e-14 -1.00095035e-13 -1.3417884e-14 6.810192e-14 -4.7673915e-15
9.216273e-14 -1.8350606e-14 -9.348378e-13 1.4377491e-13 9.491648e-14 1.1627692e-13 2.0964848e-14 -1.2921241e-14
-6.490206e-14 -1.2386571e-13 1.4156937e-13 -2.0062011e-14 -1.687341e-14 -1.5826929e-13 6.0123e-14 -8.233544e-14
-8.876468e-15 3.0316763e-14 1.1569244e-13 -1.06104145e-13 -1.333928e-13 1.9245104e-14 -1.4353292e-14 -2.8360088e-14
-7.591516e-15 -8.62148e-14 -6.034955e-14 7.2420226e-14 3.443484e-14 4.9459958e-14 -2.3620574e-14 -1.45839e-14
2.905866e-13 1.5583355e-14 -2.0469263e-15 -1.4284429e-13 3.0364627e-14 -3.9404227e-14 1.6692228e-14 -1.0019048e-13
1.8410292e-14 -5.457416e-14 -2.8214998e-14 -3.2289174e-14 4.080969e-14 1.5839854e-15 -1.674412e-14 2.0863602e-14
1.7613921e-14 3.9017614e-14 2.4825778e-14 2.7990112e-14 7.536908e-14 -1.1539605e-14 -4.395031e-14 1.5195581e-14
1.1081987e-13 7.133101e-15 1.4881381e-14 -2.0056398e-14 2.6931662e-14 -2.8769796e-14 4.4412733e-14 5.6819756e-14
-5.87669e-14 1.5690489e-14 -2.0144515e-14 1.1414397e-14 -2.7474e-14 -7.068472e-14 -3.1578784e-15 -5.512547e-15
3.213424e-14 -6.111538e-14 6.807397e-14 -2.9220445e-14 3.922653e-14 -2.3408123e-14 -1.4539319e-14 -4.4088505e-14
-3.151127e-14 2.540727e-15 6.2382574e-14 -2.4806029e-14 5.0601586e-14 1.1260112e-14 -1.9110219e-14 -5.228357e-15
2.2407557e-14 5.766516e-14 3.55665e-14 -2.6145037e-14 1.0294145e-14 3.312662e-15 -2.0991843e-14 1.4292026e-14
-1.5271345e-13 2.1545613e-15 -5.9988154e-14 1.225206e-13 -7.8383735e-16 -2.6818407e-14 1.550729e-14 1.1872751e-13
-4.7927655e-14 5.0040352e-14 -2.6868393e-14 2.8196212e-14 8.723148e-15 1.55693e-14 -2.7296255e-14 -2.8852395e-14
1.7261281e-14 -1.1650769e-14 -1.1755788e-14 3.8936407e-14 -4.8910644e-14 5.7281884e-14 -2.9558292e-14 -3.2818115e-14
-2.773705e-14 -4.5512917e-14 -4.0274445e-14 -2.7205805e-14 -5.105091e-14 -3.237326e-14 1.044751e-14 -2.581787e-14
-5.425804e-14 -1.76549e-15 5.753171e-14 8.410175e-14 -3.4679033e-14 -1.9507755e-14 5.8937078e-15 -7.16127e-15
4.2378807e-14 3.0696457e-14 6.387671e-14 -2.2314538e-14 -3.165612e-14 -1.904194e-14 -4.861975e-15 3.5589533e-14
-2.9324775e-14 -1.3289631e-14 5.365303e-14 -2.7537355e-14 1.9950575e-14 1.5742795e-14 -1.4918114e-14 -1.3598743e-14
-4.6190753e-14 6.380109e-14 -5.3136634e-15 -1.699003e-14 -1.5744543e-14 3.534033e-14 -2.5058155e-14 -6.8094054e-15

transformer.layers.0.0.fn.fn.to_out.weight f4 [64, 64]
00000000: 0b78 36af 0473 acae d548 4732 bd78 9d2f
00000010: c6c0 6eae 6edb 59b1 a3d5 9ab0 fb57 ca2e
00000020: 7cf8 6b34 5c5c 1ab2 bdb1 dfb1 b0d3 3330
00000030: 7c33 2ab0 2d2b 1f30 786f 3db0 aac4 94b0
00000040: bebb 6630 92c0 a3b0 73dd b131 1ec2 bf2f
00000050: 61a0 dbb4 0c3c 8fb2 c14a 27b3 5b30 3331
00000060: 5adb 0b2f b090 22ad 320d 6e32 a83f fcb0
00000070: a85c 6db4 821e 9330 557e 0e33 5f53 50b0
00000080: aeb2 b630 d79a 95b2 48fa 6d30 31e2 0531
00000090: f916 bbb2 5cbd a1b0 79a8 1cb2 6c8f 14b0
000000a0: f5fd cab1 b80a feb1 659f 27b2 4254 25b1
000000b0: 4447 b130 02c6 15b1 8f62 fdaf d7c8 ca31
000000c0: 5d4a 9ab1 96cc 4b30 b1f9 9830 5a8d 2a31
000000d0: 33d7 6b31 600c 99b1 6568 82b2 8c39 efb1
000000e0: 6753 3a30 fc8a a230 b494 8f31 aedf 47b1
000000f0: 04da 3a31 d5d2 9b31 d647 d8b0 93a5 3231
00000100: 2697 c2b1 9838 56ae 32b3 34b3 89ca a8ae
00000110: 925f d6ab f11e ebb1 87c5 b2b2 ef54 4433
00000120: 920b 4e31 ee8a b231 a6e3 c4b4 6249 e632
00000130: 8614 beaf 6728 40ae 6e6f c530 8b3d 4cb0
00000140: 0332 c8af ba51 b830 29a4 9d33 957d c6b0
00000150: f7ca 32b0 a3af 8033 0b28 1e33 ed5b 3234
00000160: 5859 73ae 4cef 00ab a25b 05b2 580b f7b3
00000170: 94b9 7d31 2e35 c22f 96ca 3db1 2088 a330
00000180: fc90 44b0 d1d7 85b4 add3 8c32 70df 6634
00000190: 43ac 4a32 d509 3ab3 0d8d 3131 0ab3 49ae
000001a0: d064 cf31 00e5 7131 6815 b7b3 e058 a0b2
000001b0: 0c4d c1b2 a8c2 9cb4 8778 79b1 a9e8 ea31
000001c0: f4fb bab2 3d6d 11b1 1002 5730 0581 89b0
000001d0: fbb9 9530 1abd 5933 70ed 1eb4 bda2 54b2
000001e0: bc25 dab0 461c 7bb2 fb3d ceae 915d 8033
000001f0: f26f 9e2f c149 0faf 9d14 f730 5eb0 9032
00000200: be99 a42f 2770 622d 924d 02b2 be1f f32e
00000210: e830 edaa 6152 5d30 3cab 0130 7a7e d5ad
00000220: bfde ceb1 0970 7831 f0be 1231 c550 a5af
00000230: 5403 91ae 4d4a ce2c 69b0 802e f544 b02e
00000240: d5cb 20ae 12b6 922f f72f b0b0 08a8 b7af
00000250: 71f6 2a30 8663 bc31 cda7 7032 d495 98b0
00000260: 22df adac 980a c7aa 1b59 53b1 ea77 5530
00000270: a6b6 90b2 97b4 3aaf 054a 3fb2 cd36 98ae
00000280: 619e c1af a64d 9831 f5d9 50af 3e09 15b0
00000290: e8fa 0732 c1e6 ab2f 40d8 6931 69c7 a02e
000002a0: 41b1 8430 fb91 0531 a783 9131 c98d 8630
000002b0: 5363 28ae 3ee4 c72f e620 752f 7cff 20b1
000002c0: e4f5 3831 c342 aab0 4495 92af 81a5 d430
000002d0: 8442 acb1 842b 8530 e117 d931 c66c 4d31
000002e0: c28c 3eb0 6b01 c3ae d9f4 ffb0 0817 3430
000002f0: ee1d 3db1 a168 8a30 76e7 ee2f 113a a0b0
00000300: 6cb8 3232 3853 1530 423f adb4 2c82 3631
00000310: 8029 242f f8f6 0a33 285d 8532 3598 45b0
00000320: fc36 82b6 e55d 3534 526a 9d33 7d06 3bb2
00000330: 3876 d6b0 2fb6 c7b3 366b e531 6a98 a431
00000340: dc74 dfb2 6ed9 4032 f385 51b3 eeba 2bb2
00000350: b151 9935 1ff0 6f34 28f9 1035 b4a7 1fb3
00000360: 0d04 3caf 5e6a 67ae ba88 03b4 a536 d932
00000370: 70f2 1eb5 645d 08b2 afbc f8b4 56d2 a9b0
00000380: eba4 70b2 0824 2c34 120f d8b1 b633 98b2
00000390: d39a 9934 c2e7 3e32 23db 3034 c7e9 6f31
000003a0: 4cd1 3133 a9c9 bb33 f62f 1734 acdd 1033
000003b0: 8e76 81b1 615d 8832 52ff 0b32 2949 aeb3
000003c0: 24a6 b533 949e 1bb3 1caa 91b2 f0d5 8a33
000003d0: c870 7cb4 0aca 2333 c10a 5f34 316a dc33
000003e0: 12f7 b1b2 913d b8b1 3925 d0b3 69a9 0a33
000003f0: 758d b5b3 43b3 1932 5cb8 9e32 82d3 23b3
-1.6595451e-10 -7.842085e-11 1.1599885e-08 2.8643923e-10 -5.4286152e-11 -3.1702387e-09 -1.1265694e-09 9.201525e-11
2.1976479e-07 -8.98498e-09 -6.5103607e-09 6.5420647e-10 -6.1918803e-10 5.790522e-10 -6.8916206e-10 -1.0824313e-09
8.394031e-10 -1.1914543e-09 5.176554e-09 3.4880626e-10 -4.090862e-07 -1.6674697e-08 -3.8950706e-08 2.6075415e-09
1.2719906e-10 -9.240761e-12 1.3856424e-08 -1.8353505e-09 -2.2106053e-07 1.0704329e-09 3.317685e-08 -7.5788437e-10
1.3293027e-09 -1.7416296e-08 8.657577e-10 1.9482622e-09 -2.1780112e-08 -1.1768111e-09 -9.118701e-09 -5.40459e-10
-5.9078453e-09 -7.3935915e-09 -9.7569215e-09 -2.4058555e-09 1.28987e-09 -2.1794908e-09 -4.6090462e-10 5.9018066e-09
-4.490444e-09 7.4141704e-10 1.1130422e-09 2.4818605e-09 3.4319327e-09 -4.454293e-09 -1.5181465e-08 -6.962358e-09
6.778493e-10 1.1826553e-09 4.1787533e-09 -2.9085458e-09 2.719049e-09 4.5350625e-09 -1.5736485e-09 2.5996527e-09
-5.6633267e-09 -4.8708232e-11 -4.2072493e-08 -7.675733e-11 -1.5232141e-12 -6.842918e-09 -2.0811752e-08 4.5712053e-08
2.9983522e-09 5.1962763e-09 -3.667348e-07 2.6808895e-08 -3.4575381e-10 -4.369163e-11 1.4365307e-09 -7.4302225e-10
-3.6415324e-10 1.341099e-09 7.340743e-08 -1.4442089e-09 -6.5044453e-10 5.9924126e-08 3.682366e-08 1.6610984e-07
-5.5331156e-11 -4.5806826e-13 -7.762454e-09 -1.1503897e-07 3.6921834e-09 3.532618e-10 -2.7618277e-09 1.18985e-09
-7.151042e-10 -2.4930208e-07 1.6394404e-08 2.1501705e-07 1.1797115e-08 -4.3315442e-08 2.5837068e-09 -4.5861127e-11
6.035954e-09 3.5200287e-09 -8.525495e-08 -1.8666867e-08 -2.2503194e-08 -2.9198895e-07 -3.630278e-09 6.8367467e-09
-2.1767825e-08 -2.1162372e-09 7.8219475e-10 -1.0004731e-09 1.0894036e-09 5.0696237e-08 -1.4801276e-07 -1.23770265e-08
-1.5872312e-09 -1.46165515e-08 -9.3788054e-11 5.977484e-08 2.8819575e-10 -1.3031977e-10 1.7977474e-09 1.6844009e-08
2.9940667e-10 1.28715155e-11 -7.584633e-09 1.1055999e-10 -4.2133593e-13 8.05164e-10 4.7173265e-10 -2.4271463e-11
-6.0207124e-09 3.6152434e-09 2.1354332e-09 -3.0070715e-10 -6.594428e-11 5.863121e-12 5.852103e-11 8.0158026e-11
-3.6560827e-11 2.6686614e-10 -1.2819318e-09 -3.34069e-10 6.2195854e-10 5.4828346e-09 1.4007992e-08 -1.1102039e-09
-4.9417285e-12 -3.5356852e-13 -3.0755192e-09 7.7659357e-10 -1.6846865e-08 -1.698076e-10 -1.1134493e-08 -6.921894e-11
-3.521903e-10 4.43261e-09 -1.8994924e-10 -5.421902e-10 7.915084e-09 3.126868e-10 3.4028886e-09 7.31138e-11
9.654643e-10 1.9437028e-09 4.2350226e-09 9.790081e-10 -3.8286995e-11 3.6360065e-10 2.2294308e-10 -2.342829e-09
2.6915297e-09 -1.2388103e-09 -2.6663305e-10 1.5472069e-09 -5.013421e-09 9.689392e-10 6.318246e-09 2.9893257e-09
-6.9321626e-10 -8.867825e-11 -1.8623282e-09 6.551635e-10 -2.7520133e-09 1.0070559e-09 4.345641e-10 -1.1658036e-09
1.0402896e-08 5.4324145e-10 -3.2269787e-07 2.655848e-09 1.4930457e-10 3.2355246e-08 1.55256e-08 -7.188448e-10
-3.880703e-06 1.6891097e-07 7.330222e-08 -1.0886308e-08 -1.5604149e-09 -9.2997986e-08 6.6769656e-09 4.7903557e-09
-2.6013758e-08 1.1225309e-08 -4.878343e-08 -9.996013e-09 1.1423164e-06 2.2345965e-07 5.400675e-07 -3.7172597e-08
-1.709994e-10 -5.2617792e-11 -1.2250067e-07 2.5286974e-08 -5.921238e-07 -7.9374765e-09 -4.6330885e-07 -1.2356149e-09
-1.4007337e-08 1.6031856e-07 -6.2881407e-09 -1.7718644e-08 2.861112e-07 1.1112151e-08 1.6470999e-07 3.4911964e-09
4.140138e-08 8.744548e-08 1.4080419e-07 3.3729222e-08 -3.7678722e-09 1.5874948e-08 8.148918e-09 -8.115814e-08
8.45869e-08 -3.6232976e-08 -1.6957578e-08 6.465041e-08 -2.3510358e-07 3.813515e-08 2.0772406e-07 1.02638644e-07
-2.0717867e-08 -5.362104e-09 -9.6925255e-08 3.2284706e-08 -8.4542e-08 8.9465315e-09 1.8477458e-08 -3.814376e-08

transformer.layers.0.0.fn.fn.to_out.bias f4 [64]
00000000: 8755 1938 029a 8037 508d e8b7 d4fe b6ba
00000010: 5f93 91b7 56fd 183a 03d6 b9b8 7ee4 9e3a
00000020: 394c 92b9 56a5 ad36 6122 e639 fc27 3fb8
00000030: 6133 8db8 5b9a aeb8 2d92 ea37 5d3b 85b8
00000040: e9eb 82ba 5ad5 bdb8 4634 813a 1c7b 8038
00000050: 88dd 4dba 5078 a3b8 a0fe 4639 5e79 3639
00000060: 92a9 3bb9 f9dd bc38 5240 4b37 8028 7b3a
00000070: 786c b3b8 78de 7738 f6b3 72b8 072c 19ba
00000080: 7298 7cb8 a9e8 a8b9 8166 13ba f6e3 2639
00000090: 29c5 0238 743b 8838 df5f e2b7 a2d1 3e39
000000a0: 8730 b539 b033 3cb9 bda0 89b8 421f d939
000000b0: 8a7b 7135 24ab c6b7 b020 2ab9 fa4a b6b8
000000c0: 1af5 82b8 bf8c e3b9 f5be d636 6394 293a
000000d0: dc17 cfb8 d287 8638 2d9a 78b8 3691 ae38
000000e0: 6551 cd38 177c 83b6 b324 14b9 fed3 2e39
000000f0: d090 f0b8 5d8b a738 9511 72b9 5c9b 1538
3.6557696e-05 1.5330505e-05 -2.7722359e-05 -0.0013961443 -1.7353972e-05 0.000583609 -8.86135e-05 0.0012122539
-0.0002790408 5.1750494e-06 0.00043894633 -4.5575187e-05 -6.732974e-05 -8.3257175e-05 2.7963042e-05 -6.3529915e-05
-0.000998852 -9.051962e-05 0.0009857498 6.1264465e-05 -0.000785314 -7.7948556e-05 0.00018977607 0.00017402085
-0.0001789688 9.005884e-05 1.2114719e-05 0.0009580925 -8.555589e-05 5.909658e-05 -5.7864898e-05 -0.00058430474
-6.0223458e-05 -0.00032216802 -0.0005622879 0.00015915916 3.1178035e-05 6.496059e-05 -2.6985943e-05 0.00018197906
0.00034559166 -0.00017948332 -6.562609e-05 0.00041412754 8.995927e-07 -2.3683133e-05 -0.0001622464 -8.692402e-05
-6.244537e-05 -0.00043401678 6.3999273e-06 0.000646895 -9.874973e-05 6.4149164e-05 -5.9271395e-05 8.324014e-05
9.790323e-05 -3.91855e-06 -0.00014128051 0.00016672906 -0.00011471065 7.989139e-05 -0.00023085468 3.5669058e-05

transformer.layers.0.1.fn.norm.weight f4 [64]
00000000: 37d5 823c 9986 3a3d 71b6 6d3c f673 bd3c
00000010: 8bd9 363b 06df cda9 b41d d932 9b90 893a
00000020: f651 903c 0ba6 b63b 1ce7 fe3c 9baf 253a
00000030: 0d00 df39 e98a 983b cba6 0939 8a6d 0aba
00000040: f2ba 96aa 2bad 393c 86cf 1938 c1e8 013d
00000050: d60c 7938 d39a 453a 8000 f337 cd4e c538
00000060: 1341 a13d ed27 6e3d d4e8 99b5 b120 133c
00000070: 98d9 713b b68e 3434 77ae 513c 7428 ee35
00000080: 1789 9c3d ece1 f938 855e 0b3c 6d28 483c
00000090: ad10 9939 e1d3 a235 f439 913a 6585 5436
000000a0: 0b8b 193c 1368 dc36 169e c63b bf1f f93c
000000b0: 14ce 97b9 6501 383a e813 fb30 ed82 103b
000000c0: f536 9f3d 8f49 3a3c b726 c237 1697 9839
000000d0: d81a 373a 9a80 4338 d9ab 983b 74b0 1bb1
000000e0: 12ca 25b1 66e3 c4b8 1bca 8f3a 920d 463a
000000f0: ddc3 69bc 2589 823b 807b c736 07ac aa39
0.01597081 0.04553852 0.014508829 0.023126584 0.0027900662 -9.142517e-14 2.5275632e-08 0.0010495366
0.017617207 0.005573993 0.03111606 0.0006320418 0.00042533912 0.0046552313 0.00013127473 -0.0005280605
-2.6775072e-13 0.01133279 3.6671314e-05 0.031716112 5.937818e-05 0.0007538024 2.896809e-05 9.40837e-05
0.0787374 0.058143545 -1.146715e-06 0.008979962 0.0036903378 1.6815724e-07 0.012797943 1.7744155e-06
0.07643335 0.000119153265 0.008506422 0.0122166695 0.00029194859 1.2131605e-06 0.0011079893 3.1668108e-06
0.009371529 6.5686268e-06 0.006061326 0.030410646 -0.00028954505 0.0007019251 1.8268311e-09 0.0022050694
0.07774154 0.011370077 2.314463e-05 0.00029104267 0.0006984896 4.6611392e-05 0.0046591577 -2.265577e-09
-2.4125524e-09 -9.3883646e-05 0.0010970266 0.0007555123 -0.014267889 0.003983634 5.9450394e-06 0.00032553097

transformer.layers.0.1.fn.norm.bias f4 [64]
00000000: d4b0 f83b 8911 4d3c f4e7 29bb d916 29bc
00000010: 2996 55bb 4e4c 4d39 397a ba38 4b48 993a
00000020: 3c16 bc3b 6068 abbb 4580 adbb cca9 aa3b
00000030: 74e6 d83b 9ca9 f13b 26f5 c8bb fa25 9cb9
00000040: 2aa2 ceba 45f2 233c cc7e c03a 059e 99bc
00000050: 0e75 bebb 0bb5 c8bb f1d8 f138 0705 4eba
00000060: e01a 49bc b84d bbbb ad7e 9039 2dac ac3b
00000070: b2ac 9b3a 558b 053a 5aaf 7b3b 852f 55bb
00000080: 2742 a73c 7bbb 123b 04c1 843b f251 2fbc
00000090: eb83 0bbc eff1 173b 797e 4c3b b699 773a
000000a0: 94b8 dfbb 467c 9039 174b 68bb dd3b 15bc
000000b0: bb51 52ba 3472 b0bb 64e2 a5b5 9a34 c63b
000000c0: 1018 683c aa8d b9bb 5741 aa3b 3357 913b
000000d0: 4002 043c 3c2f b1bb 2b4a aaba 91d4 b1ba
000000e0: 64d1 c5b7 9c20 9539 8071 9f3b 9bee a9bb
000000f0: 8ead 243b 9ca6 5abc 4ac5 ea3a ea02 8a3a
0.007589439 0.012516388 -0.0025925608 -0.010320389 -0.0032590723 0.00019578749 8.891937e-05 0.0011694519
0.005739955 -0.0052309483 -0.005294832 0.0052082296 0.006619269 0.0073749553 -0.0061327396 -0.00029782933
-0.0015764881 0.010006492 0.0014686226 -0.018752107 -0.005812294 -0.0061250976 0.00011532184 -0.00078590255
-0.012274474 -0.005716052 0.000275602 0.0052695484 0.0011877029 0.00050943095 0.0038404078 -0.0032529545
0.020417286 0.002238958 0.0040513296 -0.01070069 -0.008515338 0.0023184975 0.0031203313 0.0009445207
-0.0068274233 0.0002755841 -0.0035445148 -0.009108511 -0.0008023043 -0.005384708 -1.2359346e-06 0.006048751
0.014165893 -0.0056626396 0.0051957774 0.004435444 0.008057177 -0.005407242 -0.0012992074 -0.0013567378
-2.3581735e-05 0.0002844379 0.004865825 -0.0051859147 0.002512786 -0.013345387 0.001791158 0.0010529433

transformer.layers.0.1.fn.fn.net.0.weight f4 [64, 64]
00000000: 2b31 0838 0b5c bead 4f08 012c 6a9c 6eb9
00000010: d616 e7a8 e96d 8ca8 6776 3bab bbe4 81ac
00000020: 858e d82e 3431 af29 c008 95ab 0448 e1a8
00000030: a8c9 e32b 750e cf2b 118f b3aa 6dbd 1c2d
00000040: 2e72 c5aa 8bc6 dea9 00e0 0b2b cd42 8eab
00000050: 9498 e3b6 a4dd 3eab 6680 8a2d c90a c3aa
00000060: 869d 3eae b17b 18b3 faa4 332c 59e0 9c39
00000070: 7864 50ab 729c c829 a03a 082e ef30 2dab
00000080: 742b e938 0210 2c2b 2474 612c 9806 e2aa
00000090: fc85 ceab ad3d 6a2b 59eb 132b 0443 c129
000000a0: 0a87 9ab7 48d4 94a9 9e73 46aa afe9 58b5
000000b0: f9b5 232d ab88 23ab e41f 00ae e48e bbab
000000c0: af5e b1b3 c5c4 8929 6c9c a6ab 0964 aa37
000000d0: 67fe a12c 0b05 4dac 7511 0f37 9ad9 b8ab
000000e0: f3c2 7c2b b503 76ac 9767 352c 4eae 68ab
000000f0: 0ccb c2b6 d48e 842c e890 0f2b 2a19 b02a
00000100: 27a4 06aa d667 5f29 9b84 98a9 7619 8b2b
00000110: 9549 bf28 061c 3e29 b1cc eaa9 1653 67a8
00000120: d6f7 2e2a fe61 7029 1019 2faa a8ae 2ca9
00000130: effd 9429 f16e 8ca9 1b41 ae29 c3f0 1e29
00000140: 0ba4 bf28 a82f 44a9 a9b1 61a9 6e75 9629
00000150: 8509 abaa f7fe f728 6003 712a a8b5 0029
00000160: 8ea8 9729 40e1 b5a9 b258 8529 58e9 85ac
00000170: f7b2 8929 c46d 53a8 fe1f 8b29 96c9 a729
00000180: ad0c 87a9 d7e1 8ba8 d7b3 322a c6f7 9528
00000190: f774 69a9 d7d8 d3a9 91ab 6a29 cf38 12aa
000001a0: f505 102a 43d6 dfa7 b29a 5aa9 f89a f4aa
000001b0: cb38 3ca9 c1f7 9929 4263 0b2a 504a bca9
000001c0: 5141 a2aa d390 be29 5eb9 63a9 cdfa 3ba9
000001d0: bbee 4c29 e17c 65a9 cc9d e127 dcc3 e6a8
000001e0: d505 132a bf1a 8da9 efb2 9929 1bdb 6b29
000001f0: 3777 2ca7 0ee5 30aa 65fe c3a8 ece0 76aa
00000200: e08e c9a9 eee3 552a 479c 0dac 66e6 2faa
00000210: d9cf 022a a334 5128 8168 2b2a e609 35aa
00000220: f90f 4fa8 1d79 052a 735e 052a 1c13 ea28
00000230: 5a4c d227 ecba 6fa9 e0b8 aa28 b8ac 76ac
00000240: b274 b127 b6ee e329 f47d a4a8 5879 97aa
00000250: 89d8 c8a8 1b58 9ca9 6105 cea9 a459 2129
00000260: bdc2 9baa 9b10 b328 47d9 9eab 29c7 9329
00000270: fe17 1f27 1508 48a8 8210 86aa 89fd bb28
00000280: 49db b62a 4d47 9e29 d759 9c28 5620 0128
00000290: fa6b 5328 d27e 3ea9 3285 1da9 167d 3229
000002a0: cbf1 3229 7b44 3327 e4c0 5f29 1125 d528
000002b0: 8537 86ab 8a9d 4129 d529 9ea8 5ed0 1429
000002c0: 9acd 7eab 083a a929 4bcd f0a8 d528 1629
000002d0: 517a 3829 023b 2c29 5fd6 c6b0 c349 efa8
000002e0: a279 a6a8 5861 b5ab bcb1 4329 38c4 9ea9
000002f0: 2bd9 232f 2339 88a8 57eb cca8 0ce9 8027
00000300: 0833 6637 d9b6 31ad 07fb ad2b 4c84 0fb9
00000310: 74bc 83a9 6f5a 5129 a583 fa2a 17ef cb2b
00000320: d55c e5ad 089b afa8 1147 96ab fcf1 d729
00000330: 2012 022c c88e fc2b d82a 0aab 6ce5 a82c
00000340: 193c 29aa bf40 072b 1887 a12a d900 9dab
00000350: b5dc d8b5 5a3e 98ab eeb1 25ac ef6d 9eaa
00000360: 948f adad 793f 3f31 f909 8c2b 15b6 0a39
00000370: d7d3 48aa 727d caaa 557f 1a2d 139d 04ab
00000380: a855 0438 3fa9 582b 35dc d42c 31ef 1d2d
00000390: 9e70 d2ab 00d0 5f2a 6a9f 992a ef84 1629
000003a0: 10e3 18b7 e80e f0a8 6df8 71a9 8c1f 0eb4
000003b0: fb68 062d d907 53ab 4c85 b62c cbf7 1faa
000003c0: b3a6 4a30 c729 3925 1044 282a 5463 e536
000003d0: 3477 712c d4fd 02ac 76f7 8036 5248 70ab
000003e0: db9f 432b 0602 ec2a d8d1 112c 497d fcaa
000003f0: 9082 05b6 6de6 bd2c 01f3 f92a 8955 1e2a
3.2470718e-05 -2.1641374e-11 1.8336615e-12 -0.00022755718 -2.5656055e-14 -1.5590788e-14 -6.660006e-13 -3.6917947e-12
9.847859e-11 7.7800966e-14 -1.0589515e-12 -2.501125e-14 1.6185291e-12 1.4712247e-12 -3.189606e-13 8.909634e-12
-3.5073458e-13 -9.893222e-14 4.969358e-13 -1.0108248e-12 -6.7828896e-06 -6.780915e-13 1.5745804e-11 -3.4646442e-13
-4.3340907e-11 -3.5502755e-08 2.552901e-12 0.0002992179 -7.4035873e-13 8.908923e-14 3.097489e-11 -6.1529856e-13
0.000111183996 6.112889e-13 3.2038894e-12 -4.015024e-13 -1.4674368e-12 8.321909e-13 5.25515e-13 8.582547e-14
-1.8421113e-05 -6.609345e-14 -1.7626045e-13 -8.0806325e-07 9.305883e-12 -5.80989e-13 -2.9132155e-11 -1.3326809e-12
-8.2594276e-08 6.118156e-14 -1.1838425e-12 2.0312162e-05 4.6041396e-12 -2.9135052e-12 8.527529e-06 -1.3134383e-12
8.979893e-13 -3.496076e-12 2.577915e-12 -8.2664854e-13 -5.8052883e-06 3.7675228e-12 5.1004903e-13 3.1281341e-13
-1.1958543e-13 4.960601e-14 -6.7731594e-14 9.883611e-13 2.1237171e-14 4.221278e-14 -1.0427196e-13 -1.2841092e-14
1.554029e-13 5.33757e-14 -1.5551818e-13 -3.8343162e-14 6.616571e-14 -6.236494e-14 7.738446e-14 3.5291875e-14
2.1276402e-14 -4.3562078e-14 -5.0114132e-14 6.681709e-14 -3.0382307e-13 2.7533082e-14 2.1406271e-13 2.857927e-14
6.7349866e-14 -8.0770893e-14 5.921773e-14 -3.8059937e-12 6.1150676e-14 -1.17366545e-14 6.17839e-14 7.4512594e-14
-5.997403e-14 -1.5530042e-14 1.587197e-13 1.6649778e-14 -5.1837844e-14 -9.407898e-14 5.2107248e-14 -1.2987114e-13
1.2791836e-13 -6.2127237e-15 -4.85399e-14 -4.3450638e-13 -4.1793646e-14 6.8375434e-14 1.2380117e-13 -8.361768e-14
-2.8822303e-13 8.462818e-14 -5.0564906e-14 -4.1739876e-14 4.5504165e-14 -5.095653e-14 6.262113e-15 -2.562007e-14
1.3058246e-13 -6.2662976e-14 6.825605e-14 5.2370526e-14 -2.3934422e-15 -1.571141e-13 -2.1759675e-14 -2.1927225e-13
-8.950978e-14 1.899728e-13 -2.0124057e-12 -1.5623058e-13 1.1618431e-13 1.1613244e-14 1.5224108e-13 -1.6079464e-13
-1.1494272e-14 1.1854793e-13 1.1845542e-13 2.5987506e-14 5.836949e-15 -5.323079e-14 1.8953968e-14 -3.505458e-12
4.925389e-15 1.0122235e-13 -1.8262281e-14 -2.6907187e-13 -2.2298368e-14 -6.9430755e-14 -9.149171e-14 3.5826932e-14
-2.7668658e-13 1.9880194e-14 -1.1286882e-12 6.56266e-14 2.2078689e-15 -1.1103983e-14 -2.3814636e-13 2.0871124e-14
3.2481854e-13 7.028978e-14 1.7358441e-14 7.16795e-15 1.1736267e-14 -4.2298474e-14 -3.497653e-14 3.9632434e-14
3.973366e-14 2.4878364e-15 4.9683253e-14 2.3663825e-14 -9.536682e-13 4.2991252e-14 -1.7559666e-14 3.304333e-14
-9.0524257e-13 7.5151745e-14 -2.6734384e-14 3.3342107e-14 4.09623e-14 3.8242853e-14 -1.4467324e-09 -2.656632e-14
-1.8482452e-14 -1.2887842e-12 4.3452858e-14 -7.050648e-14 1.4901917e-10 -1.5123812e-14 -2.2750612e-14 3.5779807e-15
1.372095e-05 -1.01018855e-11 1.2362063e-12 -0.00013686827 -5.85026e-14 4.648576e-14 4.4500268e-13 1.4490378e-12
-2.6075512e-11 -1.9496137e-14 -1.0677866e-12 9.5898956e-14 1.8484173e-12 1.7945307e-12 -4.9086906e-13 4.800318e-12
-1.5031066e-13 4.805149e-13 2.8693085e-13 -1.1155756e-12 -1.6157488e-06 -1.0817556e-12 -2.3546681e-12 -2.814272e-13
-1.9731584e-11 2.7830238e-09 9.950366e-13 0.00013228536 -1.7837065e-13 -3.5969453e-13 8.78216e-12 -4.7113805e-13
3.1551026e-05 7.697349e-13 6.0498503e-12 8.977528e-12 -1.4952655e-12 1.9878543e-13 2.7288875e-13 3.3421992e-14
-9.112773e-06 -2.6651817e-14 -5.3728225e-14 -1.3236257e-07 7.6403285e-12 -7.497315e-13 5.18755e-12 -1.4208007e-13
7.3724066e-10 1.6060347e-16 1.4945011e-13 6.836295e-06 3.431433e-12 -1.8615014e-12 3.8435055e-06 -8.5365493e-13
6.949976e-13 4.1923425e-13 2.0722226e-12 -4.4851126e-13 -1.9894542e-06 5.3972855e-12 4.4399903e-13 1.4062895e-13

transformer.layers.0.1.fn.fn.net.0.bias f4 [64]
00000000: cce7 a330 d78e 60aa d967 0d2a ffbf cab0
00000010: a6f2 1ea9 fbeb 6a2e 15c1 0f2a f5fb 3fa9
00000020: 9aa5 5ab7 27ac a22a 9e98 34af 7023 eaa9
00000030: 7540 112b cf80 93aa 19eb 942d d9a4 842b
00000040: 687b 1b2d 1ed8 c3aa bad4 9628 618c f42d
00000050: 502f e2aa 355c a12b 009e 04ac 5398 b22d
00000060: 16f2 81b7 2520 0bb4 564d d0aa c563 3fb3
00000070: 4d98 76b4 1828 d72d 5c46 6cab 0377 2f2d
00000080: d7c9 3aab 221b 1db8 eaa8 8229 1dab 9e2c
00000090: 99a3 9530 fc4c 7529 9cfc 87a9 9ef2 e630
000000a0: 39b2 6032 e2eb 4c2b 5d2c 7e31 bdca a22c
000000b0: 2ad4 7ead a192 ed29 e058 f6b6 9cbc ff28
000000c0: 81e1 dbb4 cf65 afa9 13a1 a7ab b8dc 4926
000000d0: 499b 9129 8f0d 2fb7 d762 972f bf9c c4af
000000e0: 661d 7d31 b87e 95aa 457a cab5 5029 122f
000000f0: b40b e029 2f2a 122d faf6 2e2a c742 c3aa
1.1925692e-09 -1.9944754e-13 1.2559345e-13 -1.4752003e-09 -3.529351e-14 5.3415033e-11 1.276794e-13 -4.2629057e-14
-1.303237e-05 2.8896435e-13 -1.6425125e-10 -1.0397835e-13 5.16038e-13 -2.6201824e-13 1.6930056e-11 9.424919e-13
8.838132e-12 -3.478892e-13 1.67456e-14 2.780193e-11 -4.0178494e-13 1.1465331e-12 -1.8846036e-12 2.0303903e-11
-1.5490728e-05 -1.2957078e-07 -3.7001885e-13 -4.4561393e-08 -2.2965942e-07 2.4460475e-11 -8.3941686e-13 9.974024e-12
-6.6360583e-13 -3.7456986e-05 5.8024616e-14 4.5096275e-12 1.0887674e-09 5.44677e-14 -6.039025e-14 1.6803658e-09
1.3079039e-08 7.280271e-13 3.6987082e-09 4.6268254e-12 -1.4485338e-11 1.055035e-13 -7.3417177e-06 2.8392483e-14
-4.0956004e-07 -7.789222e-14 -1.1910771e-12 7.0035013e-16 6.466231e-14 -1.043397e-05 2.753697e-10 -3.5763567e-10
3.6833057e-09 -2.6555646e-13 -1.5085758e-06 1.32933e-10 9.9496285e-14 8.308506e-12 1.5539992e-13 -3.4685294e-13

transformer.layers.0.1.fn.fn.net.2.weight f4 [64, 64]
00000000: 4b4d 6831 78dc c4a8 8d13 872a 72ca 25b0
00000010: e27b 97a8 3050 272a 5cb0 9da9 b602 3928
00000020: 9cc3 0531 d0a7 e927 2227 3f2d 5336 2428
00000030: d7dd 472e e0a8 8229 cd45 c02c a763 a8a8
00000040: 4a3e 3cae 91f8 bda9 01ef 8929 44ef 63ac
00000050: 1d60 dea9 fc78 8a2b f291 0a2c 505d 202d
00000060: 112f e530 d91b b630 c31a 66a8 23a8 6db0
00000070: 417d e6b0 059d 6daf 3726 b22d b0a0 e7aa
00000080: ed13 3f2a 2cef c632 4eb2 9a28 ec54 04ab
00000090: 6f59 ea2c b5d7 86a7 2354 f2a6 35ea 4bad
000000a0: 1581 17b1 bd46 e0ac ec7d bbad b3cb ceaa
000000b0: 8ca1 2fac f601 84a8 f65a 0330 fa02 ac29
000000c0: b39a a1b0 7ca0 232a e051 152c 2524 6ca8
000000d0: 9b6f 88a8 cf0e 9f32 9ef0 a0b0 410b 21ad
000000e0: 25a7 f82d bc9a e52c d94e b1b1 a6c1 28ad
000000f0: 3ddc e329 72a5 382d b56e 3e2a a1b8 a42a
00000100: f3a5 e72f abaf 4b29 3de9 85a8 3767 5d2f
00000110: 23e8 8527 71ef 97aa 6fe2 c728 6770 d327
00000120: ab75 ca38 7e19 96a9 a1dc c9aa ed21 6fa9
00000130: d183 feaa 1513 6fa8 387a feac 6c67 caa8
00000140: 63d0 822b 08ed b229 eaf2 7528 3dac 812a
00000150: d6cf a528 4f0e 6629 7e88 d4a6 aafc f62b
00000160: a390 bd38 48f1 edae 5dd7 79a9 3e69 4c38
00000170: ba34 1e37 f54e 90ab 5d36 b1aa ee9f 79aa
00000180: 830e d2a9 a8d8 1939 6d5e 37a8 1011 9125
00000190: 86de 65ab 8716 5626 9329 3da9 a9fe 6d2b
000001a0: 26b9 0730 2a93 4a2b 5a17 6f27 74e2 e928
000001b0: 0134 ac29 4120 f029 b821 1539 f7c7 2929
000001c0: 7bd9 1eb5 da5b 122a 1301 53ab 869a 5729
000001d0: 089b e228 25c4 3539 4403 0f2e ff64 822a
000001e0: 7c8e b334 8dda a828 1a3b 4d37 9dfc 1c2b
000001f0: 6057 02aa 8d8b 8e2a 5be4 8e2a 8b81 1baa
00000200: 2f0b 56b0 5bff 4f2a ca29 afa9 c2c9 e7af
00000210: bcad 1fa8 cf61 d7a9 f472 8c29 df1f de28
00000220: e9e5 b430 4338 0b2a 1848 69ab 2bc9 46a9
00000230: 1fd7 c22b 1832 78a9 bb1e be2a 58d6 af28
00000240: ba61 842c 944d 23aa 28df de28 58c0 ea2a
00000250: 4a84 aaa8 d4d0 e6aa 2883 be29 05c1 dd2a
00000260: 2042 b430 6ee3 662c 2cf4 0da9 b4c9 952d
00000270: 17fb 022e a290 22ac ba25 31ab 11ea 2a2b
00000280: 9ce5 b2a8 13a3 3f31 8d31 1c27 638f 44a9
00000290: 6ce0 0d2c 9535 0b29 c79b 2ca9 2702 acab
000002a0: e337 8cb0 b2dd e42a 6083 c72b 0c63 e8a9
000002b0: 741e 41a9 fc67 4c29 498a 5730 6f80 a8a8
000002c0: 4bc6 252e bd26 e3a9 d8ff 5bac 8e5f 4d28
000002d0: 1e05 41a9 97f2 cf30 b2ce 54ae 2f9e b2a8
000002e0: a5fc 96ac c2fb 65ab 51a4 1230 24ee e2ab
000002f0: df86 beaa 3fc2 232b 15f8 8daa b1ff 7f2a
00000300: 0783 87b2 3810 5faa 4b8f 41a9 a215 01b2
00000310: 2aa5 a927 0809 8eac f69a 6329 a8a3 9727
00000320: bd2b 9333 0057 98a7 09c4 b1ad 4d86 cf29
00000330: 6036 10ad da2e b3a8 c66c 32ad 59e1 d3a7
00000340: 57c0 522d a473 b1a9 7db0 5229 a34b 052d
00000350: f069 66a9 f30a 89ac 0084 25ac 3be9 51ad
00000360: 4d7a 9933 b720 f930 f89f f6a8 9efd c830
00000370: 528b 0331 3ba6 4ead 244c 3bae 5ef5 742b
00000380: a274 b6a9 d44b 1734 a78a b726 e9f9 c42a
00000390: 8afd a6ad cf3c 8427 48dc 85a8 ce6d b9ad
000003a0: ae15 acb2 11ad b4ac 55a7 beac 023e 852a
000003b0: c52a 632c 3394 bb28 9276 3c33 48e9 cb28
000003c0: 60d0 9830 c637 6529 97a7 14ae 8fcc 3d29
000003d0: 488e 9da9 9e92 ab33 a53b a2b0 75e5 de2d
000003e0: 505e a2af 5346 0f2d 84d7 0333 4b12 842d
000003f0: 61af 672a a456 8aad 966e f2aa 25ef 272a
3.380438e-09 -2.1855984e-14 2.3994383e-13 -6.031434e-10 -1.6818093e-14 1.48604e-13 -7.002794e-14 1.0270151e-14
1.9465238e-09 6.4852434e-15 1.0865782e-11 9.1156085e-15 4.5444395e-11 5.802455e-14 5.4647177e-12 -1.8694964e-14
-4.2801575e-11 -8.4364055e-14 6.125483e-14 -3.239146e-12 -9.8754535e-14 9.83907e-13 1.9691995e-12 9.1156666e-12
1.667532e-09 1.3250158e-09 -1.2773368e-14 -8.6459034e-10 -1.6770302e-09 -2.1610809e-10 2.0253228e-11 -4.1145342e-13
1.6971121e-13 2.3158996e-08 1.7174762e-14 -4.7013673e-13 6.660609e-12 -3.742634e-15 -1.6814929e-15 -1.15912184e-11
-2.2046767e-09 -6.3743164e-12 -2.131536e-11 -3.6734296e-13 -2.4958672e-12 -1.4655794e-14 4.7786786e-10 7.638851e-14
-1.175826e-09 1.4532987e-13 2.1219623e-12 -1.3108469e-14 -1.5147434e-14 1.851677e-08 -1.170992e-09 -9.154289e-12
2.8268563e-11 6.5257504e-12 -5.160342e-09 -9.592693e-12 1.011903e-13 1.0495925e-11 1.6913799e-13 2.9260364e-13
4.213657e-10 4.5227422e-14 -1.4867117e-14 2.0136502e-10 3.71666e-15 -2.6989134e-13 2.2191638e-14 5.868613e-15
9.654028e-05 -6.66576e-14 -3.5857865e-13 -5.3098087e-14 -4.521093e-13 -1.3271303e-14 -7.232683e-12 -2.2471357e-14
9.294894e-13 7.945906e-14 1.3652906e-14 2.3034518e-13 1.8408814e-14 5.108267e-14 -1.4747451e-15 1.754948e-12
9.039163e-05 -1.08203724e-10 -5.5475904e-14 4.8735405e-05 9.42981e-06 -1.025373e-12 -3.1479238e-13 -2.217113e-13
-9.328391e-14 0.00014671928 -1.0179016e-14 2.5165052e-16 -8.1665957e-13 7.4276695e-16 -4.200249e-14 8.4552726e-13
4.9375826e-10 7.196905e-13 3.3180572e-15 2.5966405e-14 7.6473556e-14 1.0663736e-13 0.00014222309 3.769898e-14
-5.917606e-07 1.2999272e-13 -7.496375e-13 4.7873618e-14 2.5158274e-14 0.00017334575 3.2517336e-11 2.316272e-13
3.344502e-07 1.8746528e-14 1.2232713e-05 5.5772905e-13 -1.1576634e-13 2.53211e-13 2.538272e-13 -1.381171e-13
-7.786864e-10 1.8473888e-13 -7.7788104e-14 -4.2162013e-10 -8.863946e-15 -9.564885e-14 6.23719e-14 2.4660773e-14
1.3162068e-09 1.23652e-13 -8.287828e-13 -4.4139317e-14 1.3844237e-12 -5.511051e-14 3.3772103e-13 1.952186e-14
3.7625155e-12 -1.4504224e-13 2.474373e-14 4.1700215e-13 -1.8931163e-14 -4.100111e-13 8.460447e-14 3.939142e-13
1.3115518e-09 3.2811215e-12 -3.1520075e-14 1.7028913e-11 2.978159e-11 -2.3101872e-12 -6.293539e-13 6.0720965e-13
-1.9861547e-14 2.7886855e-09 2.167621e-15 -4.364511e-14 2.0161884e-12 3.0910675e-14 -3.8326787e-14 -1.2221932e-12
-1.0202225e-09 4.0654768e-13 1.4176264e-12 -1.03200516e-13 -4.2881023e-14 4.538729e-14 7.841306e-10 -1.8707446e-14
3.7692776e-11 -1.0087545e-13 -3.1263794e-12 1.1400506e-14 -4.2859047e-14 1.513018e-09 -4.83868e-11 -1.9830571e-14
-4.2913056e-12 -8.170653e-13 5.3348e-10 -1.6124363e-12 -3.3844366e-13 5.8178804e-13 -2.5218773e-13 2.273726e-13
-1.5775653e-08 -1.9812006e-13 -4.2978896e-14 -7.513707e-09 4.7085994e-15 -4.0368854e-12 5.0538533e-14 4.2088356e-15
6.853177e-08 -4.22828e-15 -2.0209627e-11 9.215944e-14 -8.197526e-12 -1.989331e-14 -1.0142281e-11 -5.8808587e-15
1.1979826e-11 -7.8804395e-14 4.6782446e-14 7.5769694e-12 -5.1162145e-14 -3.89499e-12 -2.3521185e-12 -1.1932062e-11
7.146864e-08 1.8126433e-09 -2.7380862e-14 1.4623998e-09 1.9142203e-09 -1.1746655e-11 -4.2586504e-11 8.702673e-13
-8.102656e-14 1.4090557e-07 1.2735758e-15 3.4990004e-13 -1.8984609e-11 3.670329e-15 -1.4861498e-14 -2.1080828e-11
-2.0033294e-08 -5.135122e-12 -5.4187024e-12 2.3668573e-13 3.2282382e-12 2.0825442e-14 4.388e-08 2.2638697e-14
1.1118679e-09 5.089659e-14 -3.3800154e-11 4.2143857e-14 -6.9968825e-14 7.9894775e-08 -1.1804003e-09 2.5340377e-11
-2.9534641e-10 8.144224e-12 3.0696825e-08 1.5014786e-11 2.0577768e-13 -1.572726e-11 -4.306457e-13 1.491555e-13

transformer.layers.0.1.fn.fn.net.2.bias f4 [64]
00000000: 996c 54b8 1a7b 8337 bd12 0736 68c0 82ba
00000010: 62da 65b7 1b9d 443a dc51 2cb8 f2cf 903a
00000020: 2f31 89b9 bf94 2c38 0efc c539 4ff7 18b8
00000030: aedf acb8 edd4 a3b8 9150 5637 0940 85b8
00000040: d5d2 7eba a025 89b8 178a 813a 4f07 1338
00000050: ff68 cfb9 2c58 46b8 a5ef 0e39 efa7 3439
00000060: 1961 08b9 7907 f237 2a10 4337 9f8a 1c3a
00000070: 620f 32b8 c095 9637 c9f0 02b9 ec47 1aba
00000080: 7adc d6b8 7a24 8eb9 f147 edb9 8af2 1b39
00000090: 32f4 df37 839c 0039 d9a7 6eb8 a095 1439
000000a0: 1dd7 ad39 ecff 35b9 974a 7ab8 0f5b ac39
000000b0: 8a7a a934 2549 02b8 4c58 19b9 4f6d 97b8
000000c0: c56c 11b8 32e5 beb9 c001 aab6 2091 8b39
000000d0: cd69 a1b8 8dc3 6d38 e903 c736 f5a5 8f38
000000e0: 050c e838 8d1b 84b6 6089 0ab9 4811 1839
000000f0: ee1a 69b9 09ff 7e38 5f6c 4fb9 ca1f f837
-5.064588e-05 1.567374e-05 2.0127475e-06 -0.0009975554 -1.370031e-05 0.0007500217 -4.1084233e-05 0.0011048301
-0.0002616732 4.1146526e-05 0.00037762563 -3.6469948e-05 -8.243263e-05 -7.812106e-05 1.2774152e-05 -6.353862e-05
-0.00097207475 -6.539677e-05 0.0009883073 3.5054338e-05 -0.00039560345 -4.7288995e-05 0.0001363145 0.00017228698
-0.00013006142 2.8852128e-05 1.1626669e-05 0.0005971584 -4.2452833e-05 1.7951126e-05 -0.00012487466 -0.0005885351
-0.00010245382 -0.00027111528 -0.00045257763 0.00014872305 2.6697384e-05 0.00012265336 -5.6899942e-05 0.0001417012
0.00033157403 -0.00017356843 -5.9674112e-05 0.0003287424 3.1567862e-07 -3.1062536e-05 -0.0001462411 -7.2206014e-05
-3.4671993e-05 -0.00036410388 -5.0665985e-06 0.00026620273 -7.696785e-05 5.6687324e-05 5.9311174e-06 6.849683e-05
0.00011064861 -3.937114e-06 -0.00013211882 0.00014502287 -0.00022230644 6.079584e-05 -0.0001978143 2.9578707e-05
