model_training/trained_models/model_700_ViT_white_cars_dataset_3.pth (torch, 173192 bytes, 16 tensors)

patch_to_embedding.weight f4 [64, 192]
00000000: 3c48 230c 84de 9b0c 76f3 480c 9db8 4a0c
00000010: a967 9f0c 84ba 090c 8111 2c0c 4ff5 9b0c
00000020: 6efa 130c 0407 150c bf63 9b0c beaf 060c
00000030: ac4b 670c 7a0e 9e0c eaea 0e0c 6cfd 6f0c
00000040: 0daa 9f0c b99e 510c 5fbd 9c0c 5175 a00c
00000050: 17e1 5d0c b0f6 9e0c 24c8 840c 59ce 980c
00000060: f530 060c 9efe 9c0c 3534 c10b 2a6a fe0b
00000070: cbb3 9d0c f52f 0a0c 7996 550c 9110 9d0c
00000080: bdda 060c 49d7 500c b9ca 9c0c 0b31 0c0c
00000090: 971b 9d0c ee18 a30c 3851 170c bde2 930c
000000a0: 62dd a60c f306 250c 3233 980c d491 870c
000000b0: 5170 250c 658e 9f0c c51c 650c 7fa4 520c
000000c0: 2a52 2d8b 2bb3 8a0c b2ca 9b0b 7578 b00b
000000d0: 61d9 880c 13e0 830b 712a a30b c1bb 890c
000000e0: 74b6 200b 1dfb 0e0c 1b0d 850c 7326 ff0a
000000f0: 7250 220c 189a 9a0c efac 1e89 3316 f50b
00000100: 99c6 6f0c 5a12 f98a f1db ad0b ad47 8a0c
00000110: 683b 290b ef7a 0d0c 54d5 9a0c c565 df0b
00000120: 4d26 7b8c 25f8 528b d134 5f8c 787b 1f8c
00000130: 0574 cf09 98ad 2f8c 816c 408c e146 928b
00000140: c035 3c8c 56ce 2a8c d3ea 938b 4847 2b8c
00000150: eb09 6c8b 5e8b 930a 7ddd 048c fc3b 118c
00000160: 148e 5f8b 5703 808c da74 978b ec5b 2909
00000170: 2a74 298c 1c19 f689 a633 8e0b dd53 898b
00000180: 3a4b 018d 217f ea8c 8a56 fb8c 38df d28c
00000190: 862f 9c8c 171f 928c 7838 f58c 1986 e78c
000001a0: f86c be8c c790 fd8c 68c4 008d ca46 e08c
000001b0: db2f ff8c 62b8 ec8c 34c0 c58c aea3 078d
000001c0: 1ac1 fb8c 43f1 048d 7014 f98c c26f 008d
000001d0: efa3 fb8c 52c6 008d 8305 e18c 56d2 c48c
000001e0: 78df c88c 1414 058d 4b01 098d b947 c58c
000001f0: 0e5e f28c e655 058d 41ae 988c 8178 ca8c
00000200: f6e1 028d f5e2 5f8c 933c 848c fdfb db8c
00000210: 2c5d 2e8c d7e4 878c 24d5 db8c 3e15 d18b
00000220: 60ae 478c 4574 de8c 3d62 328c e882 5b8c
00000230: 079c d98c 8c59 708c bcbe c28c 71c0 0a8d
00000240: bbd3 f28c e767 fe8c e7df 018d af13 fa8c
00000250: 2232 fb8c 84ba 0a8d aae6 e38c e24a 018d
00000260: c46c f08c e4ed dc8c f2d9 f68c 5449 d28c
00000270: a9f1 918c 8c0b 038d dae3 e08c ade5 5f8c
00000280: 09bd c98c 446d bc8c 3787 348c 2a7f c48c
00000290: 6acf 988c 45e3 c98c dbfd f98c 1cc9 028d
000002a0: d5d0 270c 14ed a90b df25 e00b 7ddf 6d8c
000002b0: 622f ca8c 58cf 558c 89a8 f78c f06e fb8c
000002c0: effb ff8c 41be f28c 778f f38c e12e e98c
000002d0: 1158 e88c 0e83 fa8c 0c98 d08c a53e c28c
000002e0: e3fd f28c c7a1 d88c 6aae ca8c 6208 f68c
000002f0: a718 ff8c 52ad f98c 1d2e 918c ce28 788c
00000300: 34e8 fd0b a571 140c fbda 080c 30cd 000c
00000310: ce74 0f0c df33 040c 6f10 020c b796 0e0c
00000320: b3ea 030c 6ad6 020c 04fb 050c 6be9 030c
00000330: 7ac3 010c b00e 0f0c de9c 030c 956f f90b
00000340: 6d32 060c aa1e 0b0c cc9c ff0b 8bc3 040c
00000350: 74d1 130c e61f 0e0c 4e40 eb0b 89ee 150c
00000360: e7f8 fe0b 00a8 140c 1332 070c 9190 050c
00000370: 39b0 fc0b 311b 0c0c b5f6 060c 768e fc0b
00000380: 4343 0d0c 9184 060c 6359 fb0b 3256 0d0c
00000390: ae5a 060c 4471 fa0b 4661 0d0c 38bc 050c
000003a0: 9a4d fc0b ebb4 0c0c 232f 030c 487d f70b
000003b0: e4ed 0a0c 23ba f70b c7db 100c d209 040c
000003c0: 2644 030c 11bb fb0b 976c 0b0c ac19 050c
000003d0: 94d4 fd0b 7394 0c0c 2167 070c 7a3d 020c
000003e0: 47b0 0c0c 6991 060c d2c2 010c 5a9d 0c0c
000003f0: f851 060c 0e93 000c d343 0c0c 0e04 050c
1.25788e-31 2.4015453e-31 1.5480703e-31 1.5617069e-31 2.4560217e-31 1.0610224e-31 1.3255665e-31 2.402917e-31
1.1399829e-31 1.1480654e-31 2.3941564e-31 1.037587e-31 1.7818364e-31 2.4352467e-31 1.1009974e-31 1.8488152e-31
2.4600174e-31 1.6148538e-31 2.414958e-31 2.472251e-31 1.7092956e-31 2.4492224e-31 2.0458275e-31 2.35435e-31
1.0337717e-31 2.4188848e-31 7.441945e-32 9.799698e-32 2.429789e-31 1.0645565e-31 1.6454204e-31 2.419965e-31
1.0388809e-31 1.6088522e-31 2.4157615e-31 1.0799966e-31 2.4206285e-31 2.512913e-31 1.1657058e-31 2.27854e-31
2.570959e-31 1.2713229e-31 2.345012e-31 2.088781e-31 1.2744937e-31 2.458353e-31 1.7650176e-31 1.6227313e-31
-3.33804e-32 2.13701e-31 6.000881e-32 6.797398e-32 2.1084948e-31 5.0796514e-32 6.2849175e-32 2.1221192e-31
3.0952142e-32 1.1014849e-31 2.0499782e-31 2.457007e-32 1.2504234e-31 2.3820199e-31 -1.9099871e-33 9.440397e-32
1.8471654e-31 -2.3984731e-32 6.696811e-32 2.1305405e-31 3.2592908e-32 1.0899239e-31 2.385585e-31 8.60496e-32
-1.9347862e-31 -4.0631212e-32 -1.7195189e-31 -1.228607e-31 4.994254e-33 -1.3533749e-31 -1.4823794e-31 -5.63438e-32
-1.4499168e-31 -1.3158416e-31 -5.6975665e-32 -1.3194811e-31 -4.5459408e-32 1.4208009e-32 -1.0235562e-31 -1.1188445e-31
-4.3055125e-32 -1.9723533e-31 -5.8338903e-32 2.0385856e-33 -1.3054243e-31 -5.924596e-33 5.477412e-32 -5.2896664e-32
-3.9841745e-31 -3.6129921e-31 -3.8724757e-31 -3.2489968e-31 -2.4064208e-31 -2.2513573e-31 -3.7782213e-31 -3.5671892e-31
-2.9339718e-31 -3.9067957e-31 -3.967946e-31 -3.455527e-31 -3.9317773e-31 -3.6472529e-31 -3.0468334e-31 -4.179711e-31
-3.8788892e-31 -4.096605e-31 -3.8376825e-31 -3.957757e-31 -3.8771337e-31 -3.9681765e-31 -3.4670056e-31 -3.0325173e-31
-3.0949374e-31 -4.1007957e-31 -4.221794e-31 -3.0395822e-31 -3.734261e-31 -4.1087186e-31 -2.3524183e-31 -3.1195554e-31
-4.0331333e-31 -1.7247593e-31 -2.0374277e-31 -3.3893953e-31 -1.343251e-31 -2.0937771e-31 -3.3870572e-31 -8.0535833e-32
-1.5382876e-31 -3.4274493e-31 -1.3742184e-31 -1.691054e-31 -3.352805e-31 -1.8515874e-31 -3.0005227e-31 -4.2756176e-31
-3.7413434e-31 -3.919743e-31 -4.0020707e-31 -3.8530446e-31 -3.8702846e-31 -4.2749043e-31 -3.5113714e-31 -3.984133e-31
-3.7043316e-31 -3.4039542e-31 -3.8033472e-31 -3.2399756e-31 -2.2486231e-31 -4.038139e-31 -3.4649798e-31 -1.7248411e-31
-3.1082725e-31 -2.9031748e-31 -1.3907385e-31 -3.0275116e-31 -2.354414e-31 -3.1105736e-31 -3.8517308e-31 -4.030142e-31
1.2928055e-31 6.545315e-32 8.6338644e-32 -1.832507e-31 -3.1151545e-31 -1.6471318e-31 -3.815781e-31 -3.8739441e-31
-3.9440598e-31 -3.7400509e-31 -3.7526423e-31 -3.5927548e-31 -3.5798263e-31 -3.8597475e-31 -3.2138984e-31 -2.9928136e-31
-3.7438806e-31 -3.3377436e-31 -3.1228e-31 -3.7907347e-31 -3.9303808e-31 -3.8468838e-31 -2.236854e-31 -1.9117504e-31
9.7801436e-32 1.1435704e-31 1.0542956e-31 9.922508e-32 1.1051469e-31 1.018452e-31 1.0019781e-31 1.0984636e-31
1.01625e-31 1.0079359e-31 1.0321485e-31 1.0162115e-31 9.996623e-32 1.1020739e-31 1.0139078e-31 9.60792e-32
1.0338159e-31 1.0717398e-31 9.845835e-32 1.0227754e-31 1.1387498e-31 1.0948881e-31 9.061546e-32 1.1550324e-31
9.821175e-32 1.1452061e-31 1.041509e-31 1.0289451e-31 9.733202e-32 1.079339e-31 1.0397225e-31 9.728122e-32
1.0882486e-31 1.0362877e-31 9.681618e-32 1.0888183e-31 1.0350272e-31 9.646692e-32 1.0891517e-31 1.0302587e-31
9.718363e-32 1.0839651e-31 1.0106058e-31 9.532944e-32 1.0702721e-31 9.5421007e-32 1.1159493e-31 1.0171865e-31
1.011238e-31 9.696315e-32 1.0740848e-31 1.0253673e-31 9.777191e-32 1.082988e-31 1.0431056e-31 1.0033336e-31
1.0838254e-31 1.0366742e-31 9.996425e-32 1.0832559e-31 1.0347651e-31 9.905014e-32 1.0805618e-31 1.0247167e-31

patch_to_embedding.bias f4 [64]
00000000: 3934 050c a595 6d8f 7479 770c 5867 7c0c
00000010: 5437 280c 5b6f 1f0c eaed 3b0c 7cec 040c
00000020: 33b3 330c 9eef 0b0c 9b9f 100c 6403 9118
00000030: b538 220c 289a 310c e2bb 250c 1a09 370c
00000040: cd19 250c 9099 2c0c fa16 140c d3cb 0b0c
00000050: 77e5 2d0c 74eb 3a0c af8a 380c 4c46 070c
00000060: 39c4 1b0c 229e 090c ebea 210c 93f9 210c
00000070: 193f b40c 6efb 460c a878 140c 3faa 370c
00000080: f46f 5829 5457 010c b511 330c cb22 080c
00000090: 3922 070c f97d 0c0c 4207 330c b630 950c
000000a0: f4ef 170c 3a47 0f0c 80e0 500c 362e 3c0c
000000b0: c1eb 470c 02f0 a80c c37e 0a0c c8c3 340c
000000c0: 9819 330c 1134 caa4 31e8 200c 0879 360c
000000d0: 06c5 760c 5e01 050c c11f 900c f00b 090c
000000e0: 289d 030c b17a 230c 46fa 0f0c cc87 3c0c
000000f0: 5677 0a0c e2e1 150c 1056 1c0c 5350 0b0c
1.0261662e-31 -1.1713823e-29 1.9064736e-31 1.9444473e-31 1.2958899e-31 1.2282424e-31 1.4477551e-31 1.0240075e-31
1.3843584e-31 1.0780278e-31 1.1141386e-31 3.7485045e-24 1.2497091e-31 1.3681974e-31 1.2767677e-31 1.4100546e-31
1.2718902e-31 1.3296609e-31 1.140842e-31 1.0769507e-31 1.3396487e-31 1.4399773e-31 1.4216578e-31 1.0421176e-31
1.1999814e-31 1.0601682e-31 1.2473682e-31 1.2478092e-31 2.7771367e-31 1.5329027e-31 1.1437814e-31 1.4149039e-31
4.805874e-14 9.964078e-32 1.3794987e-31 1.0487529e-31 1.041032e-31 1.0823116e-31 1.3791842e-31 2.2986402e-31
1.1704825e-31 1.1037753e-31 1.6091295e-31 1.4496899e-31 1.5401347e-31 2.6028948e-31 1.0669279e-31 1.3925611e-31
1.379736e-31 -8.769174e-17 1.2395824e-31 1.4057192e-31 1.901044e-31 1.0246359e-31 2.2205824e-31 1.0557688e-31
1.0139165e-31 1.2593984e-31 1.1091633e-31 1.4523858e-31 1.0667045e-31 1.1546517e-31 1.2043701e-31 1.0732342e-31

transformer.layers.0.0.fn.norm.weight f4 [64]
00000000: 828f 74b7 98ce 7ab6 f389 6133 68f6 02bb
00000010: 9634 ab36 194b bcb5 d3d5 14b3 1c7a 42b9
00000020: bdd3 bbb0 c094 f4b9 ca30 f12d 612f 9c34
00000030: 36aa 8b2f cc96 8c2b 2dbc 89b0 f403 a79d
00000040: 8d32 84b8 a05b 5d27 0215 38ba 45b6 152b
00000050: a069 7a3a 7c6a 67b5 ef80 4cb7 7f60 16b2
00000060: 4cc0 d7b7 734f 6035 aa4a c92b bec3 993b
00000070: 6e78 fbb9 4e50 9737 02d7 3330 003a 9035
00000080: a0f5 1fbd 0d7b 5d36 5f1d 96b9 d320 1132
00000090: c269 132c f3a8 d937 56b1 0436 3383 2e33
000000a0: 8a86 f23a fa66 5139 b15b 2327 46d8 2eb4
000000b0: d239 8fb6 e0c7 1e34 1f99 b338 aa31 0136
000000c0: 76d3 f12b 628e a1b8 4346 9eae 65a3 1bbb
000000d0: aa31 812d e8f9 ffb7 1500 0000 0ba8 44b9
000000e0: ea55 3c37 7ea1 26ae 422a a4af c728 9bb5
000000f0: 717f 9bb4 ee96 5e35 309a a237 9271 7e2c
-1.4576946e-05 -3.7373156e-06 5.251236e-08 -0.0019983295 5.102319e-06 -1.4028948e-06 -3.4653407e-08 -0.00018546771
-1.366622e-09 -0.00046650134 2.7420195e-11 2.9091737e-07 2.5404895e-10 9.989453e-13 -1.0021545e-09 -4.420862e-21
-6.303666e-05 3.0719581e-15 -0.00070221734 5.3188384e-13 0.00095524825 -8.620916e-07 -1.2189367e-05 -8.75309e-09
-2.5719542e-05 8.3562117e-07 1.4302632e-12 0.0046925237 -0.00047964178 1.8037998e-05 6.5425365e-10 1.0745716e-06
-0.039052606 3.3003191e-06 -0.00028632113 8.447574e-09 2.0948664e-12 2.5947089e-05 1.9772756e-06 4.0631857e-08
0.001850323 0.00019970155 2.26705e-15 -1.6283693e-07 -4.2684633e-06 1.4787611e-07 8.563906e-05 1.9251406e-06
1.7182772e-12 -7.703599e-05 -7.197489e-11 -0.0023748514 1.4687657e-11 -3.051474e-05 3e-44 -0.00018754617
1.1225677e-05 -3.7887464e-11 -2.9861452e-10 -1.1560268e-06 -2.8963726e-07 8.2921076e-07 1.9383704e-05 3.6158615e-12

transformer.layers.0.0.fn.norm.bias f4 [64]
00000000: 0aea e132 06f9 bcb7 c3b0 6737 5bcf 9136
00000010: eb68 d737 9fb9 8735 300d d3b7 729f 6235
00000020: 06d2 70b6 05de a8b9 4b48 5233 27ad bab9
00000030: 6de4 40b7 07c4 b8b6 55db 33b7 fbd0 7437
00000040: 016f 55b5 34d3 6837 391c 4139 1f23 a637
00000050: 3d97 13ba 991a e233 4b21 2431 d728 a8b7
00000060: 2326 4032 5f5d ed39 12a6 2d35 547e 7634
00000070: 81e7 b639 90a5 6b35 3101 0f35 ca03 3a36
00000080: aa7a 06b9 83ff 2fb7 953a 7837 d440 0f36
00000090: 2425 8136 f45e bdb6 49ae 7637 0a9b bbae
000000a0: 5051 aab6 7d9d 5fb6 be0b 7d37 f9df 09b7
000000b0: 3f4b cc39 2929 c036 d8ca 3fb5 9358 0937
000000c0: d250 b9b7 0c98 753b 4fe7 3bb6 5414 2bb5
000000d0: 64b1 1ab6 62d5 d5b7 526b ec36 91bf 79b9
000000e0: ebee 0eb8 c3c2 e0b7 02cc f2b4 a2ad eab5
000000f0: 43da 9e37 0f69 19b5 8680 bdb9 bcb1 aa32
2.6299876e-08 -2.2527307e-05 1.38098285e-05 4.345476e-06 2.5678853e-05 1.0112307e-06 -2.5159301e-05 8.4423584e-07
-3.5885037e-06 -0.00032208874 4.8960185e-08 -0.00035605693 -1.1497276e-05 -5.506448e-06 -1.0720299e-05 1.459219e-05
-7.9510215e-07 1.3877452e-05 0.00018416428 1.9805097e-05 -0.0005630141 1.0528783e-07 2.3884066e-09 -2.0046178e-05
1.1184542e-08 0.0004527373 6.4689186e-07 2.2956493e-07 0.0003488623 8.778525e-07 5.3273385e-07 2.7718365e-06
-0.00012824932 -1.0490304e-05 1.4795592e-05 2.1346395e-06 3.8488233e-06 -5.643693e-06 1.47033215e-05 -8.531316e-11
-5.075861e-06 -3.332126e-06 1.5082709e-05 -8.217984e-06 0.00038965975 5.7268376e-06 -7.144822e-07 8.186459e-06
-2.2091353e-05 0.003747466 -2.799981e-06 -6.3732045e-07 -2.3051043e-06 -2.5490943e-05 7.045842e-06 -0.00023817855
-3.4077948e-05 -2.6793574e-05 -4.5224448e-07 -1.7484892e-06 1.8936704e-05 -5.714982e-07 -0.00036144647 1.9871429e-08

transformer.layers.0.0.fn.fn.to_qkv.weight f4 [192, 64]
00000000: 6d00 0000 4701 0000 ac01 0000 9001 0000
00000010: 2400 0000 3a00 0080 0100 0080 3400 0080
00000020: 8800 0000 0700 0000 0413 f01b 0200 0000
00000030: 1600 0080 4c00 0000 0300 0000 1500 0080
00000040: 0e00 0000 5c00 0080 8000 0080 4300 0080
00000050: 3c00 0000 3100 0000 2f00 0080 1400 0080
00000060: 0700 0080 6a00 0000 5600 0080 2e00 0080
00000070: 2b00 0000 6000 0000 2b00 0080 1900 0080
00000080: fb69 9f2a 2c00 0000 0400 0000 1100 0080
00000090: 0200 0000 1e00 0000 7701 0080 3800 0080
000000a0: 2200 0000 2f00 0080 1b00 0080 3b00 0080
000000b0: 3600 0080 3c00 0000 1900 0080 1a00 0080
000000c0: 1400 0000 4900 0000 0800 0080 3b00 0080
000000d0: 3900 0000 1800 0000 2c00 0080 1600 0000
000000e0: 2600 0080 3a00 0000 6e00 0000 3600 0000
000000f0: cb00 0000 1f00 0080 3300 0080 3c00 0000
00000100: 5800 0080 0601 0000 f000 0080 e900 0080
00000110: 2600 0080 9600 0000 4a00 0080 2000 0000
00000120: 2600 0000 1300 0000 7902 0000 2e00 0000
00000130: 1800 0080 0101 0080 3500 0000 0600 0080
00000140: 2e00 0000 2b00 0080 7000 0000 2800 0000
00000150: 1700 0000 4d00 0000 2900 0000 5300 0000
00000160: 4000 0080 0b00 0000 6300 0080 1200 0000
00000170: 3400 0000 5600 0000 6100 0000 c700 0000
00000180: f045 3907 5c00 0080 0800 0000 4c00 0000
00000190: 5500 0000 3c00 0000 0500 0000 1700 0000
000001a0: 0400 0080 1300 0080 4100 0000 3100 0080
000001b0: 2700 0080 5900 0080 4200 0000 4700 0080
000001c0: b400 0080 7700 0000 2d00 0080 1800 0080
000001d0: 3400 0080 2600 0080 3e00 0080 1f00 0000
000001e0: 3100 0080 0c00 0000 3100 0080 2d00 0000
000001f0: b000 0080 8c00 0000 0400 0000 6c00 0000
00000200: 5400 0080 0000 0000 a301 0080 f000 0080
00000210: 4a00 0080 5e00 0000 4a00 0000 2b00 0080
00000220: 0900 0000 1700 0080 bea5 76aa 8800 0000
00000230: 1000 0080 3f00 0080 1000 0080 0000 0000
00000240: 2b00 0000 1d00 0000 1300 0000 2f00 0080
00000250: 1f00 0000 2800 0000 4f00 0000 2700 0000
00000260: 4600 0080 1500 0080 4f00 0080 1d00 0000
00000270: 2300 0000 8000 0080 6e00 0000 2b00 0080
00000280: f197 f102 3d00 0080 3000 0080 0800 0000
00000290: 2600 0080 1200 0080 5a01 0000 1500 0080
000002a0: 1500 0080 1400 0080 2600 0080 1900 0000
000002b0: 4800 0000 0d00 0000 7700 0080 2400 0000
000002c0: 7500 0000 1a00 0000 3d00 0000 2500 0000
000002d0: 6e00 0000 3900 0080 2b00 0000 1800 0080
000002e0: 2700 0080 4c00 0080 5100 0080 3a00 0000
000002f0: 7400 0000 6300 0080 3000 0000 4300 0000
00000300: 3900 0000 2901 0080 0001 0080 0800 0000
00000310: 0200 0080 6a00 0000 0300 0080 2400 0000
00000320: 2001 0080 0f00 0080 e600 0000 5700 0000
00000330: 2300 0000 3d00 0080 0100 0080 0f00 0000
00000340: 2e00 0000 3d00 0080 7b00 0000 2400 0000
00000350: 3f00 0080 5000 0080 6000 0080 3b00 0000
00000360: 3600 0000 4600 0080 5f00 0000 2900 0080
00000370: 3200 0080 3800 0080 4800 0000 b600 0000
00000380: 4701 0000 4b00 0080 2700 0080 5a00 0000
00000390: 2800 0080 3800 0000 3c00 0080 2c00 0080
000003a0: 1400 0000 4900 0080 4200 0080 2800 0000
000003b0: 0200 0080 0700 0080 5200 0080 0d00 0000
000003c0: 6b00 0000 6500 0000 0700 0000 2b00 0000
000003d0: 5b00 0080 3300 0000 0000 0080 1a00 0080
000003e0: 0800 0080 1000 0080 6b00 0080 3600 0080
000003f0: 0700 0080 4b00 0000 3d00 0000 3d00 0000
1.53e-43 4.58e-43 6e-43 5.6e-43 5e-44 -8.1e-44 -1e-45 -7.3e-44
1.9e-43 1e-44 3.9716958e-22 3e-45 -3.1e-44 1.06e-43 4e-45 -3e-44
2e-44 -1.29e-43 -1.8e-43 -9.4e-44 8.4e-44 6.9e-44 -6.6e-44 -2.8e-44
-1e-44 1.49e-43 -1.2e-43 -6.4e-44 6e-44 1.35e-43 -6e-44 -3.5e-44
2.8317612e-13 6.2e-44 6e-45 -2.4e-44 3e-45 4.2e-44 -5.25e-43 -7.8e-44
4.8e-44 -6.6e-44 -3.8e-44 -8.3e-44 -7.6e-44 8.4e-44 -3.5e-44 -3.6e-44
2.8e-44 1.02e-43 -1.1e-44 -8.3e-44 8e-44 3.4e-44 -6.2e-44 3.1e-44
-5.3e-44 8.1e-44 1.54e-43 7.6e-44 2.84e-43 -4.3e-44 -7.1e-44 8.4e-44
-1.23e-43 3.67e-43 -3.36e-43 -3.27e-43 -5.3e-44 2.1e-43 -1.04e-43 4.5e-44
5.3e-44 2.7e-44 8.87e-43 6.4e-44 -3.4e-44 -3.6e-43 7.4e-44 -8e-45
6.4e-44 -6e-44 1.57e-43 5.6e-44 3.2e-44 1.08e-43 5.7e-44 1.16e-43
-9e-44 1.5e-44 -1.39e-43 2.5e-44 7.3e-44 1.2e-43 1.36e-43 2.79e-43
1.3938406e-34 -1.29e-43 1.1e-44 1.06e-43 1.19e-43 8.4e-44 7e-45 3.2e-44
-6e-45 -2.7e-44 9.1e-44 -6.9e-44 -5.5e-44 -1.25e-43 9.2e-44 -1e-43
-2.52e-43 1.67e-43 -6.3e-44 -3.4e-44 -7.3e-44 -5.3e-44 -8.7e-44 4.3e-44
-6.9e-44 1.7e-44 -6.9e-44 6.3e-44 -2.47e-43 1.96e-43 6e-45 1.51e-43
-1.18e-43 0.0 -5.87e-43 -3.36e-43 -1.04e-43 1.32e-43 1.04e-43 -6e-44
1.3e-44 -3.2e-44 -2.1906692e-13 1.9e-43 -2.2e-44 -8.8e-44 -2.2e-44 0.0
6e-44 4e-44 2.7e-44 -6.6e-44 4.3e-44 5.6e-44 1.11e-43 5.5e-44
-9.8e-44 -3e-44 -1.11e-43 4e-44 4.9e-44 -1.8e-43 1.54e-43 -6e-44
3.5498977e-37 -8.5e-44 -6.7e-44 1.1e-44 -5.3e-44 -2.5e-44 4.85e-43 -3e-44
-3e-44 -2.8e-44 -5.3e-44 3.5e-44 1.01e-43 1.8e-44 -1.67e-43 5e-44
1.64e-43 3.6e-44 8.5e-44 5.2e-44 1.54e-43 -8e-44 6e-44 -3.4e-44
-5.5e-44 -1.06e-43 -1.14e-43 8.1e-44 1.63e-43 -1.39e-43 6.7e-44 9.4e-44
8e-44 -4.16e-43 -3.59e-43 1.1e-44 -3e-45 1.49e-43 -4e-45 5e-44
-4.04e-43 -2.1e-44 3.22e-43 1.22e-43 4.9e-44 -8.5e-44 -1e-45 2.1e-44
6.4e-44 -8.5e-44 1.72e-43 5e-44 -8.8e-44 -1.12e-43 -1.35e-43 8.3e-44
7.6e-44 -9.8e-44 1.33e-43 -5.7e-44 -7e-44 -7.8e-44 1.01e-43 2.55e-43
4.58e-43 -1.05e-43 -5.5e-44 1.26e-43 -5.6e-44 7.8e-44 -8.4e-44 -6.2e-44
2.8e-44 -1.02e-43 -9.2e-44 5.6e-44 -3e-45 -1e-44 -1.15e-43 1.8e-44
1.5e-43 1.42e-43 1e-44 6e-44 -1.28e-43 7.1e-44 -0.0 -3.6e-44
-1.1e-44 -2.2e-44 -1.5e-43 -7.6e-44 -1e-44 1.05e-43 8.5e-44 8.5e-44

transformer.layers.0.0.fn.fn.to_out.weight f4 [64, 64]
00000000: 2100 0080 0d00 0080 1700 0000 1c00 0080
00000010: 1100 0000 2800 0080 0100 0080 0000 0000
00000020: 2100 0080 0e00 0080 1200 0080 1400 0000
00000030: 0300 0000 1800 0000 1300 0080 1600 0000
00000040: 2100 0000 2900 0000 0500 0000 0700 0080
00000050: 0d00 0000 0f00 0080 1400 0080 1900 0080
00000060: 0600 0000 2300 0000 1a00 0000 1e00 0080
00000070: 0e00 0000 0c00 0080 1100 0000 1900 0000
00000080: aec6 2a84 f6b5 3690 8649 19a4 219f 2088
00000090: 3cba ce8d 673a 0080 d39f 0a8a f7eb 409d
000000a0: 420f e999 2100 0000 efc7 6891 e203 d289
000000b0: ec88 0396 97b3 a69b 0b00 0080 5dcb 671e
000000c0: 3d9f a51a 993c ed1e 0a00 0000 4e3a 480a
000000d0: c5dd c818 6448 0d8e 9129 8b9c cc10 c00a
000000e0: a6bf 5f0d 5c04 2516 312c ce9d d8f1 800e
000000f0: 828a 1c93 2c0b 0280 165e 021e 4ac8 a50f
00000100: 2300 0080 0800 0000 2c00 0000 1100 0080
00000110: 2000 0000 2c00 0080 1600 0000 0500 0000
00000120: 0300 0080 2600 0000 2c00 0080 0e00 0000
00000130: 1d00 0080 1100 0080 0500 0080 0900 0080
00000140: 0200 0000 0700 0080 1500 0000 2c00 0080
00000150: 0b00 0080 0c00 0080 2c00 0080 2b00 0000
00000160: 1000 0000 2900 0000 2600 0000 1400 0000
00000170: 2600 0000 1900 0000 0b00 0000 0200 0000
00000180: 2f3e 2404 8546 b68e 3188 a9a2 7e21 ce87
00000190: 7bd9 f18c 9509 0080 e4b9 0d89 b555 d09b
000001a0: e66b 9698 2100 0000 3fe3 d28f 0ce4 0989
000001b0: d1c3 ba94 c851 609a 0800 0080 662c 061d
000001c0: 5a25 5119 2b94 981d 0a00 0000 25fc 0f09
000001d0: e609 8f17 c7d8 908c 1497 3c9b be74 0b0a
000001e0: 0107 8d0c 50d9 df14 8342 899c 10b5 6e0d
000001f0: 5558 9e91 9e2d 0080 d510 881c 6186 b40e
00000200: 2700 0000 0200 0080 0c00 0080 1100 0080
00000210: 1400 0080 0600 0080 1000 0080 2000 0080
00000220: 1100 0080 1a00 0000 0b00 0000 0f00 0000
00000230: 0a00 0080 0d00 0000 1f00 0000 2600 0080
00000240: 2300 0000 1100 0000 0200 0080 0500 0080
00000250: 2200 0000 0a00 0000 1100 0000 0900 0000
00000260: 1b00 0080 2100 0000 0200 0000 0b00 0080
00000270: 1700 0080 0500 0000 0600 0000 2a00 0080
00000280: 0824 5380 7b1f 770d bd85 3321 46eb 2306
00000290: 1684 4d0b 4400 0080 717c 0407 be2b 831a
000002a0: 2507 1f17 0c00 0080 5be7 9b0e 5527 9d07
000002b0: 5d27 5313 0a7f e618 2400 0080 0bb8 9e9b
000002c0: 6c0a f897 9da4 249c 2700 0080 da5b ab86
000002d0: af5e 1496 cc8a 340b 0f7d c619 4720 8188
000002e0: bf25 ef8a 6e13 5893 af49 0d1b e2e0 da8b
000002f0: a481 5110 3218 0000 525f 319b 0582 3f8d
00000300: 0e00 0000 1900 0080 1900 0000 1b00 0080
00000310: 1400 0000 2200 0000 1800 0080 0600 0000
00000320: 2100 0080 0500 0000 1000 0080 0d00 0080
00000330: 1a00 0000 1b00 0080 2000 0000 1800 0000
00000340: 1d00 0000 2300 0080 1b00 0080 0a00 0080
00000350: 1800 0080 0100 0000 1700 0080 1f00 0000
00000360: 2300 0000 2000 0000 0900 0000 1300 0000
00000370: 1200 0000 0600 0080 0c00 0000 2100 0080
00000380: fca7 b884 4684 3310 0225 0d24 c15d 0209
00000390: 771a 180e 23e3 0000 d25c fb09 5b2a 3d1d
000003a0: c6ad f119 2c00 0080 3653 5c11 67f9 0e0a
000003b0: 2229 1f16 8c9f b41b 0800 0080 1c59 6b9e
000003c0: bd2c b29a 8445 f99e 1000 0000 8ab0 628a
000003d0: 46b2 e398 93bc b70d 9049 981c 81a6 428b
000003e0: 1143 b28d a869 3496 ce5a da1d 4eb6 958e
000003f0: a96a 1a13 0edc 0200 3143 fc9d 9ff4 0990
-4.6e-44 -1.8e-44 3.2e-44 -3.9e-44 2.4e-44 -5.6e-44 -1e-45 0.0
-4.6e-44 -2e-44 -2.5e-44 2.8e-44 4e-45 3.4e-44 -2.7e-44 3.1e-44
4.6e-44 5.7e-44 7e-45 -1e-44 1.8e-44 -2.1e-44 -2.8e-44 -3.5e-44
8e-45 4.9e-44 3.6e-44 -4.2e-44 2e-44 -1.7e-44 2.4e-44 3.5e-44
-2.0074633e-36 -3.603335e-29 -3.3238863e-17 -4.8335304e-34 -1.27405645e-30 -2.0951e-41 -6.674518e-33 -2.553298e-21
-2.4097798e-23 4.6e-44 -1.8363182e-28 -5.0559312e-33 -1.0625301e-25 -2.7578454e-22 -1.5e-44 1.2271093e-20
6.8499664e-23 2.5118414e-20 1.4e-44 9.6406156e-33 5.192272e-24 -1.7414447e-30 -9.208993e-22 1.8495246e-32
6.894787e-31 1.332997e-25 -5.457344e-21 3.1787323e-30 -1.9758258e-27 -1.87679e-40 6.901599e-21 1.6347405e-29
-4.9e-44 1.1e-44 6.2e-44 -2.4e-44 4.5e-44 -6.2e-44 3.1e-44 7e-45
-4e-45 5.3e-44 -6.2e-44 2e-44 -4e-44 -2.4e-44 -7e-45 -1.3e-44
3e-45 -1e-44 3e-44 -6.2e-44 -1.5e-44 -1.7e-44 -6.2e-44 6e-44
2.2e-44 5.7e-44 5.3e-44 2.8e-44 5.3e-44 3.5e-44 1.5e-44 3e-45
1.930666e-36 -4.493437e-30 -4.595174e-18 -3.101512e-34 -3.726282e-31 -3.437e-42 -1.7059663e-33 -3.44661e-22
-3.888304e-24 4.6e-44 -2.0795131e-29 -1.6598002e-33 -1.8858436e-26 -4.6388177e-23 -1.1e-44 1.7757706e-21
1.081259e-23 4.0387267e-21 1.4e-44 1.7331557e-33 9.243657e-25 -2.231718e-31 -1.5599811e-22 6.714563e-33
2.1728705e-31 2.260296e-26 -9.083092e-22 7.355736e-31 -2.4982443e-28 -1.6364e-41 9.004076e-22 4.4502828e-30
5.5e-44 -3e-45 -1.7e-44 -2.4e-44 -2.8e-44 -8e-45 -2.2e-44 -4.5e-44
-2.4e-44 3.6e-44 1.5e-44 2.1e-44 -1.4e-44 1.8e-44 4.3e-44 -5.3e-44
4.9e-44 2.4e-44 -3e-45 -7e-45 4.8e-44 1.4e-44 2.4e-44 1.3e-44
-3.8e-44 4.6e-44 3e-45 -1.5e-44 -3.2e-44 7e-45 8e-45 -5.9e-44
-7.635272e-39 7.6150645e-31 6.082456e-19 3.0829744e-35 3.9580934e-32 -9.5e-44 9.967146e-35 5.4251e-23
5.138469e-25 -1.7e-44 3.8433237e-30 2.3645852e-34 2.6651352e-27 5.9581883e-24 -5e-44 -2.6257842e-22
-1.6029255e-24 -5.4475806e-22 -5.5e-44 -6.4458015e-35 -1.1985222e-25 3.4771158e-32 2.0523231e-23 -7.771493e-34
-2.3029061e-32 -2.7272612e-27 1.1687055e-22 -8.430891e-32 4.1317854e-29 8.68e-42 -1.4671896e-22 -5.9012924e-31
2e-44 -3.5e-44 3.5e-44 -3.8e-44 2.8e-44 4.8e-44 -3.4e-44 8e-45
-4.6e-44 7e-45 -2.2e-44 -1.8e-44 3.6e-44 -3.8e-44 4.5e-44 3.4e-44
4e-44 -4.9e-44 -3.8e-44 -1.4e-44 -3.4e-44 1e-45 -3.2e-44 4.3e-44
4.9e-44 4.5e-44 1.3e-44 2.7e-44 2.5e-44 -8e-45 1.7e-44 -4.6e-44
-4.341246e-36 3.5403425e-29 3.0605848e-17 1.5692264e-33 1.8748189e-30 8.1481e-41 6.051334e-33 2.5035839e-21
2.4989002e-23 -6.2e-44 1.7380581e-28 6.883959e-33 1.2856897e-25 2.9881607e-22 -1.1e-44 -1.2459224e-20
-7.369135e-23 -2.6392651e-20 2.2e-44 -1.09147075e-32 -5.8858135e-24 1.1323643e-30 1.0077532e-21 -3.7488305e-32
-1.0986243e-30 -1.4573623e-25 5.779801e-21 -3.690689e-30 1.949012e-27 2.62612e-40 -6.677332e-21 -2.7206935e-29

transformer.layers.0.0.fn.fn.to_out.bias f4 [64]
00000000: 7fa8 78b8 92cd 35b7 6aa5 de35 d2a8 7038
00000010: aa27 e8b8 0722 9d38 143e 1eb8 e025 3939
00000020: de60 7739 9072 38b8 7d34 6639 c347 8b38
00000030: e54b 8039 e7c4 2838 36b3 4eb8 cc4f ac38
00000040: 9af5 98b8 db0e 9c37 484e 9f38 fc95 95b7
00000050: f6fc 8738 9e9d 34b8 1d50 3cb9 5158 8ab8
00000060: fcf3 49b9 52c0 bbb8 2c89 47b8 b1de 1eb9
00000070: 643a 1039 361f a338 ab99 1339 d963 ddb8
00000080: 64a6 b437 04b3 3839 0a4c 9a38 adc6 b7b8
00000090: 8d57 92b8 07ff 2f39 82b4 f538 e56b 2439
000000a0: a7f7 1839 6550 a338 37c0 85b8 cce0 ccb8
000000b0: 8e9c 1937 5f8b 60b8 dc33 3939 a20b 9638
000000c0: 60e3 e937 70e3 47b8 e00e c539 1a40 6ab8
000000d0: 83ff 8838 74b1 e9b8 de55 8d36 909b 09b9
000000e0: 225d c338 24b2 5336 6600 c738 2803 9ab8
000000f0: dbaa 3737 908b 18b9 7a0d 2039 5428 2bb7
-5.9284732e-05 -1.0836304e-05 1.6588431e-06 5.7377685e-05 -0.0001107001 7.4926815e-05 -3.772795e-05 0.00017657084
0.00023591841 -4.3975713e-05 0.00021954063 6.641403e-05 0.00024470608 4.02377e-05 -4.928113e-05 8.2164624e-05
-7.293672e-05 1.8603567e-05 7.596292e-05 -1.7832026e-05 6.484419e-05 -4.3062137e-05 -0.00017958922 -6.596803e-05
-0.00019259745 -8.952677e-05 -4.757305e-05 -0.00015151013 0.00013754662 7.778259e-05 0.00014076258 -0.00010556699
2.1535154e-05 0.00017614296 7.3574556e-05 -8.763126e-05 -6.97813e-05 0.00016784306 0.000117161326 0.00015680453
0.00014588107 7.78742e-05 -6.377737e-05 -9.76935e-05 9.155961e-06 -5.353556e-05 0.00017662294 7.154724e-05
2.7881644e-05 -4.7657115e-05 0.0003758585 -5.5849647e-05 6.532578e-05 -0.00011143359 4.2121237e-06 -0.0001312329
9.315672e-05 3.1545142e-06 9.489134e-05 -7.34388e-05 1.094743e-05 -0.0001454784 0.0001526381 -1.0201784e-05

transformer.layers.0.1.fn.norm.weight f4 [64]
00000000: d24f 7b96 4f91 c6a6 0915 5037 4576 b3ad
00000010: f665 26b5 b825 932c 1dea ec26 e179 b136
00000020: 26fc f898 fa82 a62e 862a 9f22 074d 4cb1
00000030: a407 7717 6eb5 852d 9916 a524 e369 8ea3
00000040: a7a0 df07 5254 0000 0f5e 6b27 ddda 03a9
00000050: 3cf7 f523 f905 a528 5cad 99b7 5a6b 4f9c
00000060: a406 63a8 a8bb c199 76a8 ee18 184e 8c38
00000070: 7703 8c32 e363 6425 f592 73b0 fce7 c5b4
00000080: 04ab 7332 df2b d628 2a0a 432b 81cc 0296
00000090: 0b44 242b efdb e02f ab7e 0b1e dbc8 1232
000000a0: 97c1 2f38 7cc9 08ac ce2f a030 15a2 0032
000000b0: 9c43 602b 1d8d cb18 4d8f 2736 ce1b b1b3
000000c0: ac24 ea2e 35b9 f32f a4c6 8099 0492 a117
000000d0: 23c5 83b2 e042 6cae 56bb 02b8 7fd1 3da7
000000e0: 1128 6ab0 4ff1 d0ad 1d00 0080 a2a8 7201
000000f0: 4573 5fb0 071e 2389 529c 85af 31e2 32a7
-2.0300805e-25 -1.3778396e-15 1.2402664e-05 -2.0402466e-11 -6.198819e-07 4.182179e-12 1.6439246e-15 5.2891996e-06
-6.4361102e-24 7.572072e-11 4.314206e-18 -2.9729692e-09 7.981965e-25 1.520092e-11 7.1595625e-17 -1.5440516e-17
3.3647734e-34 3.0248e-41 3.266379e-15 -2.9277677e-14 2.6667661e-17 1.832127e-14 -1.8319748e-05 -6.8629303e-22
-1.2602471e-14 -2.0031526e-23 6.169166e-24 6.690266e-05 1.629972e-08 1.980969e-16 -8.8611724e-10 -3.68629e-07
1.4183346e-08 2.3777799e-14 6.929202e-13 -1.0565846e-25 5.8358933e-13 4.0901635e-10 7.384793e-21 8.543988e-09
4.1903546e-05 -1.9438609e-12 1.1655119e-09 7.487434e-09 7.9674613e-13 5.261676e-24 2.4968351e-06 -8.2472624e-08
1.0647602e-10 4.433304e-10 -1.331512e-23 1.0441241e-24 -1.5340055e-08 -5.3719584e-11 -3.1168885e-05 -2.6342587e-15
-8.518564e-10 -2.3754025e-11 -4e-44 4.4569368e-38 -8.1290735e-10 -1.963453e-33 -2.430363e-10 -2.482508e-15

transformer.layers.0.1.fn.norm.bias f4 [64]
00000000: efef 982e 8d26 13b3 15d1 59b5 90ff b7b4
00000010: 4f14 f5b2 f24c 2d32 b7c4 11a9 693e f435
00000020: 06c1 ab1d 9bc1 9ab1 9634 9527 22f4 0ab1
00000030: c78b a230 cf26 6fb4 caff cbb3 62d5 8732
00000040: 19b6 cd80 b18a 4609 cfc1 a135 4430 3fb4
00000050: 0408 8034 f7a4 f4ae d702 7e36 4612 3924
00000060: 11d8 822f fe25 5125 c58d 56b2 53c9 3cb7
00000070: 18e5 c2a5 9af9 6d34 4bcb 29b4 31fa 1634
00000080: 95bc c5b3 98ac ab99 8e07 1f33 39ac 0422
00000090: 25d3 242b 2d62 e62d 5f08 b534 72f9 ba34
000000a0: b972 5937 46c6 d4b2 1d4d 1eb0 2517 0c32
000000b0: d1d8 e1af 5e33 6f9b c6c4 0136 2102 09b3
000000c0: 06bd f5b3 b24c dc31 240c a5b2 b758 5d0f
000000d0: 1110 4a35 7fa3 baa3 a010 cdb6 57ff b0a1
000000e0: 23af 08b0 9038 0829 1b00 0000 b023 3003
000000f0: bdc8 c734 317a d811 c6eb 76b3 d631 9f2b
6.9547805e-11 -3.4261166e-08 -8.1143054e-07 -3.4272352e-07 -2.853099e-08 1.0087421e-08 -3.236709e-14 1.819758e-06
4.5462905e-21 -4.5040003e-09 4.141282e-15 -2.0220416e-09 1.1826778e-09 -2.2272728e-07 -9.499452e-08 1.5813104e-08
-1.8891601e-38 2.3898595e-33 1.205184e-06 -1.780582e-07 2.384769e-07 -1.1125139e-10 3.7850602e-06 4.013096e-17
2.3800387e-10 1.8140733e-16 -1.2488674e-08 -1.1252548e-05 -3.3808875e-16 2.216315e-07 -1.5813309e-07 1.4060858e-07
-9.20783e-08 -1.7750696e-23 3.7026943e-08 1.798051e-18 5.8557526e-13 2.6191571e-11 3.3719968e-07 3.4826695e-07
1.2960919e-05 -2.4770213e-08 -5.758965e-10 8.154335e-09 -4.108132e-10 -1.9786214e-22 1.9337035e-06 -3.1899734e-08
-1.1443085e-07 6.411562e-09 -1.9214049e-08 1.0913227e-29 7.5274244e-07 -2.0235404e-17 -6.1114115e-06 -1.1993812e-18
-4.9725396e-10 3.0247126e-14 3.8e-44 5.176272e-37 3.7212695e-07 3.4154097e-28 -5.7490773e-08 1.1311462e-12

transformer.layers.0.1.fn.fn.net.0.weight f4 [64, 64]
00000000: 0bdd 0b00 95db af84 ed9f 6e05 2a74 f28f
00000010: a4b3 4f85 6b99 0903 6a05 0080 f5ad 2387
00000020: 1800 0000 649c 020a 8100 0000 9255 4281
00000030: fce9 9e00 68ae d184 7a06 9d83 e587 aa02
00000040: 0b00 0080 1300 0000 9002 2106 44ee 7a84
00000050: cf6b 2b05 1193 1880 ce2c d588 0600 0080
00000060: 05ca 2888 2100 0000 1855 e582 b918 2091
00000070: 7b48 bfa8 1e89 ac04 1d64 3784 78f6 a084
00000080: db54 5c84 cb01 0080 07df fc03 1800 0000
00000090: d354 0000 5126 7380 a276 3905 6540 ba04
000000a0: be09 3c0b 9c90 a483 9141 2a80 9ce0 c002
000000b0: 25b8 7680 1300 0080 7009 0586 c608 b302
000000c0: 615b 4f84 e5ca dd01 25b8 0f83 0a00 0080
000000d0: 3f53 ba05 9c38 0200 4975 ad87 2f00 0080
000000e0: 0901 d609 2b31 0080 0a00 0000 1e00 0080
000000f0: 2098 2405 0f00 0000 bbc6 9383 0929 0000
00000100: 1d00 0000 2200 0000 0600 0000 2300 0080
00000110: 1400 0080 2b00 0000 2800 0000 0a00 0000
00000120: 3600 0080 2700 0080 1e00 0080 3600 0000
00000130: 3400 0000 0a00 0000 1000 0000 2b00 0080
00000140: 2e00 0080 1000 0000 2000 0000 0e00 0000
00000150: 0d00 0080 2400 0000 2f00 0080 1600 0080
00000160: 0d00 0000 2c00 0000 3b00 0080 1d00 0080
00000170: 0400 0000 0200 0000 2800 0000 3500 0080
00000180: 2e00 0000 3b00 0000 2c00 0080 3500 0000
00000190: 1600 0000 2c00 0080 2b00 0080 3100 0000
000001a0: 1b00 0000 2700 0080 1f00 0080 3100 0080
000001b0: 2200 0000 0900 0080 1b00 0000 0b00 0080
000001c0: 2500 0000 3100 0000 2800 0000 0000 0000
000001d0: 3300 0000 3700 0080 1a00 0000 1400 0080
000001e0: 2700 0080 0800 0080 3f00 0080 3d00 0080
000001f0: 3900 0000 2f00 0000 2800 0080 2100 0080
00000200: 2f00 0080 2c00 0000 1200 0080 2100 0080
00000210: 1200 0000 2600 0000 4100 0080 2400 0000
00000220: 0f00 0000 2a00 0000 0100 0000 1c00 0000
00000230: 1300 0000 3200 0080 0600 0080 0a00 0080
00000240: 1d00 0000 1f00 0000 1b00 0000 0800 0000
00000250: 0700 0000 2c00 0000 1c00 0000 1900 0080
00000260: 2800 0000 0400 0080 1600 0080 2300 0000
00000270: 1400 0000 1200 0000 0600 0000 2200 0000
00000280: 3800 0080 1d00 0080 2700 0000 0800 0000
00000290: 2e00 0080 3100 0080 0d00 0080 2600 0000
000002a0: 0e00 0000 2900 0080 1600 0000 2300 0080
000002b0: 2800 0080 0b00 0080 2000 0080 1a00 0080
000002c0: 3000 0000 1400 0000 0400 0000 0f00 0080
000002d0: 2700 0080 0a00 0000 0c00 0080 0d00 0080
000002e0: 2700 0000 2a00 0000 2f00 0080 2300 0000
000002f0: 0e00 0080 3a00 0000 2900 0000 0700 0000
00000300: 2000 0000 2600 0080 1500 0080 2600 0080
00000310: 2300 0000 1200 0080 1b00 0080 1e00 0080
00000320: 1f00 0080 2500 0080 2d00 0000 2c00 0000
00000330: 2800 0000 1300 0000 2f00 0000 1400 0080
00000340: 1f00 0000 3600 0080 0e00 0080 2500 0000
00000350: 2d00 0080 2b00 0080 2700 0000 2c00 0000
00000360: 2400 0000 0800 0000 3d00 0080 2d00 0080
00000370: 4500 0000 2900 0080 0200 0080 0d00 0000
00000380: 3300 0080 2600 0080 1d00 0080 0000 0000
00000390: 2500 0080 1100 0000 1e00 0000 1100 0000
000003a0: 2500 0080 0f00 0080 2800 0000 2f00 0000
000003b0: 0b00 0080 1e00 0080 2a00 0000 1d00 0080
000003c0: 0a00 0080 0400 0000 1b00 0000 2500 0000
000003d0: 2d00 0080 0c00 0000 2300 0080 0900 0000
000003e0: 2500 0080 2a00 0080 4300 0080 0a00 0000
000003f0: 1900 0000 2700 0080 2b00 0080 2400 0000
1.089486e-39 -4.1343957e-36 1.122008e-35 -2.3907787e-29 -9.766088e-36 4.0436797e-37 -1.942e-42 -1.2313878e-34
3.4e-44 6.288686e-33 1.81e-43 -3.5693566e-38 1.4593946e-38 -4.929583e-36 -9.229118e-37 2.5057255e-37
-1.5e-44 2.7e-44 3.0282617e-35 -2.9496765e-36 8.060183e-36 -2.25681e-39 -1.2830005e-33 -8e-45
-5.0793134e-34 4.6e-44 -3.3697367e-37 -1.2629393e-28 -2.1236693e-14 4.0562928e-36 -2.1557516e-36 -3.7842165e-36
-2.589984e-36 -6.43e-43 1.4862433e-36 3.4e-44 3.0429e-41 -1.0574827e-38 8.7204476e-36 4.3787527e-36
3.6214812e-32 -9.672254e-37 -3.880612e-39 2.8340784e-37 -1.0902647e-38 -2.7e-44 -2.5021453e-35 2.6306722e-37
-2.4374692e-36 8.147372e-38 -4.223531e-37 -1.4e-44 1.7521936e-35 2.03979e-40 -2.609908e-34 -6.6e-44
5.15196e-33 -1.7638e-41 1.4e-44 -4.2e-44 7.739184e-36 2.1e-44 -8.68551e-37 1.472e-41
4e-44 4.8e-44 8e-45 -4.9e-44 -2.8e-44 6e-44 5.6e-44 1.4e-44
-7.6e-44 -5.5e-44 -4.2e-44 7.6e-44 7.3e-44 1.4e-44 2.2e-44 -6e-44
-6.4e-44 2.2e-44 4.5e-44 2e-44 -1.8e-44 5e-44 -6.6e-44 -3.1e-44
1.8e-44 6.2e-44 -8.3e-44 -4e-44 6e-45 3e-45 5.6e-44 -7.4e-44
6.4e-44 8.3e-44 -6.2e-44 7.4e-44 3.1e-44 -6.2e-44 -6e-44 6.9e-44
3.8e-44 -5.5e-44 -4.3e-44 -6.9e-44 4.8e-44 -1.3e-44 3.8e-44 -1.5e-44
5.2e-44 6.9e-44 5.6e-44 0.0 7.1e-44 -7.7e-44 3.6e-44 -2.8e-44
-5.5e-44 -1.1e-44 -8.8e-44 -8.5e-44 8e-44 6.6e-44 -5.6e-44 -4.6e-44
-6.6e-44 6.2e-44 -2.5e-44 -4.6e-44 2.5e-44 5.3e-44 -9.1e-44 5e-44
2.1e-44 5.9e-44 1e-45 3.9e-44 2.7e-44 -7e-44 -8e-45 -1.4e-44
4e-44 4.3e-44 3.8e-44 1.1e-44 1e-44 6.2e-44 3.9e-44 -3.5e-44
5.6e-44 -6e-45 -3.1e-44 4.9e-44 2.8e-44 2.5e-44 8e-45 4.8e-44
-7.8e-44 -4e-44 5.5e-44 1.1e-44 -6.4e-44 -6.9e-44 -1.8e-44 5.3e-44
2e-44 -5.7e-44 3.1e-44 -4.9e-44 -5.6e-44 -1.5e-44 -4.5e-44 -3.6e-44
6.7e-44 2.8e-44 6e-45 -2.1e-44 -5.5e-44 1.4e-44 -1.7e-44 -1.8e-44
5.5e-44 5.9e-44 -6.6e-44 4.9e-44 -2e-44 8.1e-44 5.7e-44 1e-44
4.5e-44 -5.3e-44 -3e-44 -5.3e-44 4.9e-44 -2.5e-44 -3.8e-44 -4.2e-44
-4.3e-44 -5.2e-44 6.3e-44 6.2e-44 5.6e-44 2.7e-44 6.6e-44 -2.8e-44
4.3e-44 -7.6e-44 -2e-44 5.2e-44 -6.3e-44 -6e-44 5.5e-44 6.2e-44
5e-44 1.1e-44 -8.5e-44 -6.3e-44 9.7e-44 -5.7e-44 -3e-45 1.8e-44
-7.1e-44 -5.3e-44 -4e-44 0.0 -5.2e-44 2.4e-44 4.2e-44 2.4e-44
-5.2e-44 -2.1e-44 5.6e-44 6.6e-44 -1.5e-44 -4.2e-44 5.9e-44 -4e-44
-1.4e-44 6e-45 3.8e-44 5.2e-44 -6.3e-44 1.7e-44 -4.9e-44 1.3e-44
-5.2e-44 -5.9e-44 -9.4e-44 1.4e-44 3.5e-44 -5.5e-44 -6e-44 5e-44

transformer.layers.0.1.fn.fn.net.0.bias f4 [64]
00000000: ac49 9e0f 2000 0000 1e00 0000 3500 0000
00000010: c0bb bb97 3700 0080 0000 0000 2500 0080
00000020: 0f00 0000 2d00 0000 5200 0000 6de6 0c17
00000030: 5b4d 3625 1b00 0080 1000 0080 0100 0080
00000040: 9405 0080 3100 0000 7f00 0000 3500 0080
00000050: 8800 0080 1800 0080 0800 0080 2000 0000
00000060: 0800 0080 1100 0000 8a80 2d11 3100 0080
00000070: 0500 0000 4d00 0080 1800 0000 dadc 5332
00000080: 8b41 1224 1d6a 4703 1500 0000 3100 0000
00000090: 0300 0000 5800 0080 4b00 0080 2600 0000
000000a0: 1400 0000 0800 0080 1d00 0000 0f00 0000
000000b0: 1500 0000 1a00 0000 1b3a da19 1400 0000
000000c0: 2700 0080 1a00 0080 0300 0080 0a00 0000
000000d0: 2500 0080 2e00 0080 e834 0f93 5900 0000
000000e0: 0f00 0080 0a00 0000 2500 0000 2300 0080
000000f0: 0900 0080 3138 4622 2d00 0080 c3ab a595
1.560838e-29 4.5e-44 4.2e-44 7.4e-44 -1.2131987e-24 -7.7e-44 0.0 -5.2e-44
2.1e-44 6.3e-44 1.15e-43 4.552728e-25 1.5812193e-16 -3.8e-44 -2.2e-44 -1e-45
-2.001e-42 6.9e-44 1.78e-43 -7.4e-44 -1.9e-43 -3.4e-44 -1.1e-44 4.5e-44
-1.1e-44 2.4e-44 1.3686903e-28 -6.9e-44 7e-45 -1.08e-43 3.4e-44 1.2332032e-08
3.171422e-17 5.8602656e-37 3e-44 6.9e-44 4e-45 -1.23e-43 -1.05e-43 5.3e-44
2.8e-44 -1.1e-44 4e-44 2.1e-44 3e-44 3.6e-44 2.256414e-23 2.8e-44
-5.5e-44 -3.6e-44 -4e-45 1.4e-44 -5.2e-44 -6.4e-44 -1.8075222e-27 1.25e-43
-2.1e-44 1.4e-44 5.2e-44 -4.9e-44 -1.3e-44 2.6863751e-18 -6.3e-44 -6.691396e-26

transformer.layers.0.1.fn.fn.net.2.weight f4 [64, 64]
00000000: d1b2 4894 0800 0080 3900 0000 2500 0000
00000010: 61e2 289e 5c00 0000 2700 0000 1a00 0000
00000020: 3300 0000 6200 0080 5a00 0080 debf 249b
00000030: fe0f b1a0 1900 0080 2a00 0000 0800 0080
00000040: bdad 1201 1c00 0080 a800 0080 0800 0080
00000050: 5500 0080 0700 0000 2800 0000 2500 0000
00000060: 1300 0000 0700 0080 e505 7895 2c00 0000
00000070: 0400 0080 0a00 0000 0400 0080 7dd8 0d2c
00000080: b56b 0da8 ec92 e886 2800 0000 2a00 0000
00000090: 0800 0080 0100 0080 0400 0080 0900 0000
000000a0: 3400 0080 5c01 0000 1d00 0080 0200 0080
000000b0: 1900 0080 1900 0080 2f00 031c 2800 0000
000000c0: 1c00 0080 1200 0080 0a00 0000 2700 0080
000000d0: 2d00 0000 0100 0080 b441 050b 0100 0080
000000e0: 4300 0080 2e00 0080 0800 0000 0900 0000
000000f0: 2e00 0000 bef6 b1a6 0400 0000 0614 ce19
00000100: d920 b092 1a00 0080 2500 0080 3000 0080
00000110: a4bd 961a 0200 0000 3800 0000 2300 0080
00000120: 5600 0080 4800 0080 3700 0080 46af 6799
00000130: bc94 381e 0f00 0000 4300 0000 2a00 0000
00000140: 9466 1b80 0200 0000 4800 0080 3e01 0080
00000150: 2100 0000 1300 0080 0f00 0000 0e00 0080
00000160: 1a00 0080 1500 0080 ecee c793 1700 0080
00000170: 1a00 0080 4500 0080 1100 0080 dc67 95a9
00000180: 48ac 2826 bd7b 2286 0c00 0000 0f00 0000
00000190: d000 0080 5c00 0000 9700 0080 1700 0080
000001a0: 6600 0080 4d00 0000 2100 0080 0500 0080
000001b0: 1b00 0080 1e00 0080 f17a f19b 4a00 0000
000001c0: 2100 0000 0e00 0080 0f00 0000 2800 0080
000001d0: 1d00 0000 3b00 0080 9b9c 508a 4700 0080
000001e0: 4900 0000 0300 0000 2000 0000 2400 0000
000001f0: 4600 0080 e4f9 1925 3a00 0080 3aec 3118
00000200: 0a4e a411 0300 0000 2700 0000 1b00 0000
00000210: d688 b59c 0500 0000 4e00 0080 1400 0000
00000220: 3900 0000 c700 0000 3f00 0000 3b4d c418
00000230: 642b f91b 1700 0000 1300 0000 3e00 0000
00000240: 624c 0680 4d00 0080 7100 0080 4d00 0080
00000250: 1c00 0080 2800 0000 2400 0000 2200 0000
00000260: 0f00 0080 2700 0000 7550 1813 0700 0000
00000270: 1500 0000 2e00 0080 1f00 0080 f7ca 86a9
00000280: b2cb f2a4 d500 3886 2400 0000 2b00 0080
00000290: 4b00 0000 6000 0000 0e00 0080 1800 0080
000002a0: 0200 0080 1b00 0080 b400 0000 2100 0080
000002b0: 0700 0000 1b00 0080 9aba ae1b 0f00 0080
000002c0: 3900 0000 1800 0080 0800 0080 2c00 0000
000002d0: 2c00 0000 bd00 0000 6264 4f88 0a00 0000
000002e0: 5400 0080 4700 0080 0800 0080 2100 0000
000002f0: 2900 0080 d7e5 e323 6500 0080 2416 3d97
00000300: 8b36 3e14 1200 0000 2200 0000 0a00 0080
00000310: e926 309f 8700 0000 4500 0000 1700 0080
00000320: 1600 0000 3600 0080 0600 0080 4e8f 601b
00000330: 99a0 229f 1900 0080 4c00 0080 1200 0000
00000340: 1fb9 a880 1300 0080 7e00 0080 2e00 0080
00000350: 4300 0080 0600 0000 2400 0000 0e00 0080
00000360: 1b00 0080 2f00 0000 fff0 a715 3700 0000
00000370: 2d00 0000 3a00 0000 1b00 0080 d254 48aa
00000380: f0b4 2228 8c26 8388 0400 0080 2c00 0080
00000390: 1100 0080 0d00 0080 5000 0000 1500 0080
000003a0: 1900 0000 1b00 0000 0a00 0000 1200 0080
000003b0: 1a00 0080 0300 0080 af45 4a9c 1e00 0000
000003c0: 0b00 0000 0400 0080 0700 0080 0200 0080
000003d0: 2a00 0000 1e00 0080 6bc0 e389 2800 0080
000003e0: 2a00 0000 1f00 0080 1a00 0000 0f00 0000
000003f0: 2500 0080 186c 6126 0d00 0080 19db 039a
-1.0132685e-26 -1.1e-44 8e-44 5.2e-44 -8.94066e-21 1.29e-43 5.5e-44 3.6e-44
7.1e-44 -1.37e-43 -1.26e-43 -1.3627758e-22 -2.999555e-19 -3.5e-44 5.9e-44 -1.1e-44
2.6940616e-38 -3.9e-44 -2.35e-43 -1.1e-44 -1.19e-43 1e-44 5.6e-44 5.2e-44
2.7e-44 -1e-44 -5.008785e-26 6.2e-44 -6e-45 1.4e-44 -6e-45 2.015748e-12
-7.8504276e-15 -8.7484583e-35 5.6e-44 5.9e-44 -1.1e-44 -1e-45 -6e-45 1.3e-44
-7.3e-44 4.88e-43 -4e-44 -3e-45 -3.5e-44 -3.5e-44 4.33445e-22 5.6e-44
-3.9e-44 -2.5e-44 1.4e-44 -5.5e-44 6.3e-44 -1e-45 2.5664298e-32 -1e-45
-9.4e-44 -6.4e-44 1.1e-44 1.3e-44 6.4e-44 -1.2348722e-15 6e-45 2.1307988e-23
-1.1115259e-27 -3.6e-44 -5.2e-44 -6.7e-44 6.234493e-23 3e-45 7.8e-44 -4.9e-44
-1.2e-43 -1.01e-43 -7.7e-44 -1.1977816e-23 9.7716364e-21 2.1e-44 9.4e-44 5.9e-44
-2.516356e-39 3e-45 -1.01e-43 -4.46e-43 4.6e-44 -2.7e-44 2.1e-44 -2e-44
-3.6e-44 -3e-44 -5.0470258e-27 -3.2e-44 -3.6e-44 -9.7e-44 -2.4e-44 -6.634946e-14
5.8520193e-16 -3.0559722e-35 1.7e-44 2.1e-44 -2.91e-43 1.29e-43 -2.12e-43 -3.2e-44
-1.43e-43 1.08e-43 -4.6e-44 -7e-45 -3.8e-44 -4.2e-44 -3.9949555e-22 1.04e-43
4.6e-44 -2e-44 2.1e-44 -5.6e-44 4e-44 -8.3e-44 -1.004429e-32 -1e-43
1.02e-43 4e-45 4.5e-44 5e-44 -9.8e-44 1.3355301e-16 -8.1e-44 2.2995978e-24
2.5922733e-28 4e-45 5.5e-44 3.8e-44 -1.2012947e-21 7e-45 -1.1e-43 2.8e-44
8e-44 2.79e-43 8.8e-44 5.0742795e-24 4.1221635e-22 3.2e-44 2.7e-44 8.7e-44
-5.78414e-40 -1.08e-43 -1.58e-43 -1.08e-43 -3.9e-44 5.6e-44 5e-44 4.8e-44
-2.1e-44 5.5e-44 1.9224766e-27 1e-44 3e-44 -6.4e-44 -4.3e-44 -5.986004e-14
-1.05295844e-16 -3.4607165e-35 5e-44 -6e-44 1.05e-43 1.35e-43 -2e-44 -3.4e-44
-3e-45 -3.8e-44 2.52e-43 -4.6e-44 1e-44 -3.8e-44 2.8906474e-22 -2.1e-44
8e-44 -3.4e-44 -1.1e-44 6.2e-44 6.2e-44 2.65e-43 -6.2409796e-34 1.4e-44
-1.18e-43 -1e-43 -1.1e-44 4.6e-44 -5.7e-44 2.470873e-17 -1.42e-43 -6.109714e-25
9.603305e-27 2.5e-44 4.8e-44 -1.4e-44 -3.7301635e-20 1.89e-43 9.7e-44 -3.2e-44
3.1e-44 -7.6e-44 -8e-45 1.857515e-22 -3.4437678e-20 -3.5e-44 -1.06e-43 2.5e-44
-1.5494772e-38 -2.7e-44 -1.77e-43 -6.4e-44 -9.4e-44 8e-45 5e-44 -2e-44
-3.8e-44 6.6e-44 6.783099e-26 7.7e-44 6.3e-44 8.1e-44 -3.8e-44 -1.7792996e-13
9.032041e-15 -7.893338e-34 -6e-45 -6.2e-44 -2.4e-44 -1.8e-44 1.12e-43 -3e-44
3.5e-44 3.8e-44 1.4e-44 -2.5e-44 -3.6e-44 -4e-45 -6.6926257e-22 4.2e-44
1.5e-44 -6e-45 -1e-44 -3e-45 5.9e-44 -4.2e-44 -5.482921e-33 -5.6e-44
5.9e-44 -4.3e-44 3.6e-44 2.1e-44 -5.2e-44 7.820905e-16 -1.8e-44 -2.726715e-23

transformer.layers.0.1.fn.fn.net.2.bias f4 [64]
00000000: 13ce d2b8 87e2 c3b7 6d12 b936 c2bd 7838
00000010: dbb8 86b9 773e 8339 ea21 71b8 8bc5 103a
00000020: c8de 8f39 af4b 3eb9 556a 7439 2818 0039
00000030: ab30 8339 4d73 7f38 3889 a7b8 0ae1 fc38
00000040: 1a18 81b9 3518 9b38 6193 8139 d2fc e3b7
00000050: 7ab5 3539 76ef 29b9 8071 01ba 893e 21b9
00000060: 3c1f 3bb9 8dce 16b9 f7cf b7b8 7e07 c1b9
00000070: 412e 2639 b9e6 8739 b1fc e139 f916 bcb9
00000080: b343 9d38 409f 3f39 b4a8 8239 8ade 24b9
00000090: 5bbf d4b8 8cd6 8239 074e 9539 9362 0e3a
000000a0: 55d7 9f39 0df9 8739 0766 84b8 d689 9ab9
000000b0: bb29 0b38 5515 4cb9 c4b3 103a 209f 6439
000000c0: 34b1 d338 0de8 40b9 9a26 c539 cc59 aeb8
000000d0: cd86 2339 8819 7db9 f1dd 1037 f186 1eb9
000000e0: a2d4 6e39 173a a636 b550 eb38 d030 6db9
000000f0: 8a34 3f38 1bcb 95b9 6aa4 f739 ca49 1bb7
-0.00010051965 -2.3351296e-05 5.5155747e-06 5.9304533e-05 -0.000256962 0.00025032807 -5.7490462e-05 0.00055226
0.0002744107 -0.00018148006 0.00023309265 0.0001221603 0.00025022528 6.090412e-05 -7.9887395e-05 0.00012058213
-0.00024622754 7.395485e-05 0.00024714603 -2.7178237e-05 0.0001732911 -0.00016206302 -0.0004937872 -0.00015377453
-0.00017845345 -0.00014382061 -8.7648565e-05 -0.0003681741 0.00015848225 0.00025921108 0.00043103614 -0.0003587527
7.498953e-05 0.00018274505 0.00024921226 -0.00015723161 -0.000101445905 0.00024955382 0.0002847763 0.0005431559
0.00030487278 0.00025934764 -6.3132546e-05 -0.00029475865 3.3179047e-05 -0.00019462903 0.0005519951 0.00021803053
0.00010094271 -0.00018396993 0.00037603528 -8.3136925e-05 0.00015595109 -0.00024137471 8.634744e-06 -0.00015118324
0.0002277666 4.953948e-06 0.00011220706 -0.00022620265 4.558688e-05 -0.0002857082 0.0004723401 -9.2559e-06

mlp_head.0.weight f4 [64, 64]
00000000: 397c 8db7 9951 69b6 40ee 8c35 9922 dc37
00000010: 2707 37b7 19f6 ae37 d5f6 f0b5 4c94 b738
00000020: 8bbf d339 6ff4 c9b7 9d1f 7c39 9d30 1337
00000030: 9df8 0339 3554 1336 0d7f f3b6 9eff c536
00000040: c572 b7b7 93a6 ca36 1c2e ca37 16ca a7b5
00000050: dcaa 9f37 cc7d a5b7 ca5a 7fb8 022b d6b7
00000060: 3728 34b7 90c8 5eb8 4aa3 0cb7 c23e 5ab8
00000070: ea80 fc36 a46e b637 24bc e838 f880 e3b7
00000080: fdeb a236 eaa7 2438 1243 ad37 4f0a 1eb8
00000090: 5d5c deb6 fc29 be39 f239 ee37 c734 8138
000000a0: e19b 3138 dda0 ab37 6493 96b7 b73d 66b7
000000b0: b95d 1736 6cbe 11b8 6817 ca38 4166 5b38
000000c0: 66b5 3237 3eff 66b7 8838 9738 a1a5 90b7
000000d0: f32f 0a37 8b89 0bb9 6fd0 0935 876e 92b6
000000e0: 8db8 1b39 b14e 6a34 7ea7 9236 782e e8b8
000000f0: a83e 9936 380e ceb9 1281 0f38 2a2d acb5
00000100: 2c37 75b9 ffec 84b7 03f7 6b36 a7e9 8c39
00000110: 9c64 42b9 a210 6d39 2040 88b8 2432 8239
00000120: 6617 e338 42d2 09b9 30db c838 27d8 eb38
00000130: d576 0f39 3384 7438 709d 9ab8 9bbf 9938
00000140: ef9c 69b9 3d41 8d38 b301 7439 5083 f8b7
00000150: f3dd 6f39 7a8a dfb8 d809 7fb9 b1fd c6b8
00000160: 7181 50b9 9a8f abb8 07d5 99b8 f4c4 77b9
00000170: 3f69 1839 90ba 5439 de23 3639 6ffd 38b9
00000180: 60ad e138 40aa 1739 363a 6939 6b18 c8b8
00000190: 3ff8 f7b7 8621 1539 7cb5 5739 b064 5e39
000001a0: 33ff 7f39 1554 5139 5312 0fb8 70ff 51b9
000001b0: 33e5 4b38 9c72 f5b8 2c5f 8139 9ec6 1439
000001c0: 7ac0 f038 2662 18b9 961f 5339 248c 75b9
000001d0: 668c 2039 3b3c 16b9 88cf 3137 8f05 1ab9
000001e0: d5c8 1939 a8fd ad36 6ac3 ae38 501c 12b9
000001f0: ccfc 1e38 33c1 0eb9 d45e 4639 a354 adb6
00000200: e0b2 8132 c17e 6d31 8bbd 5db0 d29f 69b2
00000210: ca08 0733 af72 fdb2 e966 ba30 ddeb 80b4
00000220: cf24 3eb3 687e 0a33 8877 2ab3 f676 05b3
00000230: 33a9 3ab3 7f3f 46b1 c7d0 b332 6caa b7b2
00000240: 9b13 2133 c5a0 8eb2 365d 09b3 727d 2731
00000250: bec9 b7b2 93fc 0533 c703 b933 e806 0b33
00000260: 5b1b 0133 ba08 0933 c939 ba32 63af 5f33
00000270: 7842 aab2 a6f3 17b3 bc06 31b4 d94c b633
00000280: 1358 9fb2 d900 3bb3 8663 02b3 d637 1233
00000290: d6fb a332 a97b 1cb3 68dc 3cb3 3f8f 8fb4
000002a0: dc06 17b3 e5b6 11b3 78ac 3432 32a5 4833
000002b0: d959 f4b1 c76d 1733 6453 3fb4 c4dd bab3
000002c0: 0e62 feb2 5b4f 0933 3561 68b3 c226 7232
000002d0: 0ea1 ffb2 4f80 5233 65ae 70b0 3204 a931
000002e0: 40de 11b3 474f 14b0 cb55 05b2 3270 2c33
000002f0: 3666 0bb2 9e16 4933 4dcc 11b4 2e55 3831
00000300: 0097 35b9 a834 bdb6 0b13 8a36 e9c4 6339
00000310: 0214 41b9 7570 3339 9f3b 65b8 c243 e839
00000320: f0e3 bd38 1b1d b6b8 8f8a a338 c19d b038
00000330: a477 f638 500d 7638 9026 39b8 7124 6138
00000340: 7ffc 20b9 f010 0d38 7887 5139 65db fdb7
00000350: 30a5 3939 30ba 8db8 4a9b edb9 0126 77b8
00000360: f257 4ab9 ce5f 5db8 eca6 3bb8 3945 c3b9
00000370: 0671 3b39 080d 2f39 8310 6d39 efa2 66b9
00000380: 98d3 2738 31ef fa38 010f 3139 c002 7bb8
00000390: 57e5 44b8 170a f738 f4f8 4539 a8a5 a339
000003a0: ad81 c439 7fb0 2439 0d69 9cb7 003b 64b9
000003b0: 97bb a737 f108 9ab8 ebae e439 2452 0839
000003c0: 6e86 2238 515a a6b8 0674 1939 ac7e 37b9
000003d0: 1806 cb38 ff9b cbb8 38fc 3137 f149 1eb9
000003e0: e624 f238 46c3 9e36 f24a c138 eccd c1b8
000003f0: 62a3 cf37 dd2e c3b8 365d 7539 32ea 3db6
-1.6866356e-05 -3.4767202e-06 1.0500153e-06 2.6242154e-05 -1.0909315e-05 2.0857015e-05 -1.7953231e-06 8.7537424e-05
0.00040387767 -2.407489e-05 0.0002404437 8.773201e-06 0.00012585749 2.1953722e-06 -7.256755e-06 5.9008153e-06
-2.1868744e-05 6.039461e-06 2.4101748e-05 -1.2501284e-06 1.903384e-05 -1.9728112e-05 -6.088129e-05 -2.5530815e-05
-1.0738199e-05 -5.3115713e-05 -8.382669e-06 -5.2033698e-05 7.525193e-06 2.1747612e-05 0.00011097666 -2.7120564e-05
4.855449e-06 3.925703e-05 2.065444e-05 -3.7679736e-05 -6.626868e-06 0.00036270905 2.8398794e-05 6.16103e-05
4.2345262e-05 2.0459696e-05 -1.7950028e-05 -1.3723437e-05 2.2555307e-06 -3.4748038e-05 9.63647e-05 5.23089e-05
1.0651862e-05 -1.37684965e-05 7.210771e-05 -1.7243265e-05 8.236605e-06 -0.00013307312 5.133979e-07 -4.364006e-06
0.00014850702 2.1821576e-07 4.3706377e-06 -0.000110712775 4.5670495e-06 -0.00039301976 3.4214063e-05 -1.2828143e-06
-0.00023385574 -1.5845986e-05 3.5161509e-06 0.00026876965 -0.00018538762 0.00022608278 -6.4969296e-05 0.0002483289
0.00010828562 -0.00013143665 9.57757e-05 0.00011245935 0.00013681811 5.8297253e-05 -7.372617e-05 7.331298e-05
-0.00022279074 6.7355555e-05 0.00023270286 -2.9625051e-05 0.00022875499 -0.00010659262 -0.00024322362 -9.4886294e-05
-0.00019884646 -8.180663e-05 -7.335288e-05 -0.00023629126 0.00014535057 0.00020287395 0.00017370234 -0.00017642019
0.0001076113 0.00014463905 0.00022242297 -9.5412914e-05 -2.9560293e-05 0.00014222236 0.00020571606 0.00021209079
0.00024413764 0.00019963116 -3.4110923e-05 -0.00020026951 4.861243e-05 -0.00011703858 0.00024675706 0.0001418837
0.00011479943 -0.00014532413 0.00020134295 -0.00023417227 0.00015311092 -0.00014327552 1.0598342e-05 -0.00014688655
0.00014666033 5.1853312e-06 8.333365e-05 -0.00013934192 3.790557e-05 -0.00013614148 0.00018918078 -5.165655e-06
1.509892e-08 3.456009e-09 -8.066869e-10 -1.3598724e-08 3.144013e-08 -2.9505228e-08 1.356253e-09 -2.401347e-07
-4.42713e-08 3.2245595e-08 -3.9689922e-08 -3.107467e-08 -4.3460386e-08 -2.8848886e-09 2.0933284e-08 -2.1381503e-08
3.7503565e-08 -1.6604085e-08 -3.1982573e-08 2.4373006e-09 -2.1395746e-08 3.119619e-08 8.615421e-08 3.236974e-08
3.0060033e-08 3.1905735e-08 2.1679528e-08 5.2080747e-08 -1.9820831e-08 -3.5379024e-08 -1.648686e-07 8.489014e-08
-1.8550088e-08 -4.35401e-08 -3.03585e-08 3.4044056e-08 1.909022e-08 -3.643405e-08 -4.397262e-08 -2.674005e-07
-3.5163666e-08 -3.3926785e-08 1.0516594e-08 4.6716373e-08 -7.111549e-09 3.525727e-08 -1.7818599e-07 -8.701639e-08
-2.9614082e-08 3.196997e-08 -5.410512e-08 1.40950664e-08 -2.9759146e-08 4.901113e-08 -8.755932e-10 4.9190243e-09
-3.396258e-08 -5.3954746e-10 -7.761126e-09 4.014891e-08 -8.114105e-09 4.681953e-08 -1.3578502e-07 2.6823943e-09
-0.00017317757 -5.638769e-06 4.1149374e-06 0.00021721762 -0.00018413368 0.00017112664 -5.465338e-05 0.00044300972
9.054679e-05 -8.6838576e-05 7.798254e-05 8.421718e-05 0.00011752479 5.866337e-05 -4.414335e-05 5.367812e-05
-0.00015352851 3.3632794e-05 0.00019982259 -3.0262114e-05 0.00017704512 -6.758084e-05 -0.00045319862 -5.8924783e-05
-0.00019296983 -5.277973e-05 -4.4739732e-05 -0.00037244873 0.00017875814 0.00016694155 0.00022608232 -0.00021995207
4.0012965e-05 0.00011965482 0.00016885625 -5.9845624e-05 -4.694363e-05 0.00011779757 0.00018880126 0.00031213206
0.0003748065 0.00015706009 -1.8645567e-05 -0.00021765754 1.9995305e-05 -7.344958e-05 0.00043617873 0.0001300057
3.8749007e-05 -7.9323196e-05 0.00014634439 -0.00017499429 9.680929e-05 -9.708851e-05 1.0608746e-05 -0.000150956
0.00011546332 4.7314998e-06 9.216917e-05 -9.241313e-05 2.4752404e-05 -9.3070536e-05 0.00023399745 -2.8299514e-06
