model_training/trained_models/model_700_ViT_white_cars_dataset_2.pth (torch, 173192 bytes, 16 tensors)

patch_to_embedding.weight f4 [64, 192]
00000000: 249c a636 feaa 1235 1ccb 0aaa 2a61 a3b0
00000010: ed27 ddb4 307d 0c2a 8ccf 5caa a6e4 3b2c
00000020: b566 272e c9d1 2231 c818 a832 7c1c 16b5
00000030: d0ca b0b0 9090 f2b0 330b 3230 8eab 862c
00000040: a3fe d92c dfad 0833 0f0c 912f e29f 92b0
00000050: e312 1536 ad97 9cb5 d07b 8636 8cb2 d4b1
00000060: 1d11 ef1e abf1 3baf 8469 9eaf 7a29 2730
00000070: 5035 3431 082f af30 f6da c929 6b6f 3230
00000080: b4ef b5b8 92bc e5b5 ead9 a636 9bea 73b2
00000090: 8c69 ba29 f132 02b1 21ae 2da9 be45 cb30
000000a0: 8fd2 ea30 55d9 522c c022 9e30 1b7c 74b3
000000b0: 330c ce2a 31cd 752e 218d 432c 9577 9eb6
000000c0: a9fc 022f ff70 8422 ca32 7ab0 8d4e 8cb0
000000d0: 2c27 1334 55a2 60a9 a0df 562c 6439 912d
000000e0: 7056 d2b1 51b5 ebb6 a5e0 2431 ff85 0332
000000f0: affb acb4 114f e52f 0925 4a36 b11f 36ad
00000100: 77e8 97b4 8cd1 70b6 00fc 1935 4a25 92b3
00000110: 3a92 d1aa 097b 1a38 d75b e931 b9aa 2f32
00000120: ebe9 de28 9867 f133 51ab b131 0973 4b30
00000130: 47e7 9433 3d6b f630 ef6c dbb3 3158 213c
00000140: ef3c ca29 8e08 b928 3d7a 2433 6c55 d8b3
00000150: ccf1 aab1 ef98 bd32 f1bb 4730 d92c 1f32
00000160: ee92 dab2 7326 3635 268c 629d 025f 9aac
00000170: 98b5 87b1 e91d b8ae 0e08 39ad 3ad1 0830
00000180: c8d9 d930 cbe7 8028 fa28 49a7 9b63 ee32
00000190: ec14 0f31 25ba 0eaf 5ec3 67b0 749f d9b3
000001a0: 3e3e 3930 e913 21a9 7cb5 79b3 e11e e7b2
000001b0: 1f36 46ac d6e2 dfb9 b0da c4b4 36fb 9cbb
000001c0: 9b84 c733 fbfe 20a9 1d6f 06ae 5d23 eebb
000001d0: bf8a 0b2f 67c0 ba2d 62ed cf2c 494e 37b0
000001e0: 38dc 62b0 9f04 7b33 45c5 2b32 9880 ad32
000001f0: c25a 3eb9 6167 ab9f 9b26 4634 662e acb2
00000200: 71e7 a0b4 f94f 27ae f55b 8aaa d2e4 3331
00000210: 8f27 f02d d062 46ad c034 33ac 35f3 f9b2
00000220: 4235 972b ab9b 082f 5d30 a3b2 2c3c 0e38
00000230: c0d1 8f36 10f5 0120 fd6e a3a8 8dc7 ae32
00000240: f021 8f32 e52f e731 640c 372e 17a9 ca34
00000250: 511b 2531 4008 4836 85d4 302a b9b6 dab0
00000260: ef0b ef2f 2afc 98b4 db64 a92f 25b4 e3b5
00000270: 16b4 52b4 aa15 f736 179b 3032 0362 ef2e
00000280: a92b 5830 903d 7d31 7293 0bba 07cc 912c
00000290: da7a 94b3 e8fd 6dad 3465 64b0 f902 5f39
000002a0: 3f1b 6c2f 9857 c6b1 06e9 cd32 8465 98b0
000002b0: df05 5cb1 e416 5fb3 9489 80b1 924b 012c
000002c0: d937 68b5 5751 a4ae ae5e e1af 33e1 11b3
000002d0: b464 6730 419f e72f 9d19 7bb5 ebc0 0635
000002e0: 5852 dbaf 1c51 19b2 3944 9839 4fc2 80ad
000002f0: f9a4 56b6 5d3c 08b6 7aaf 3936 d66c c8a8
00000300: e3db 4d33 ad8e 3c37 2b06 ddb5 c7fa c235
00000310: 2891 4235 c1f9 f935 422f 97bb 64d6 ceb0
00000320: 0584 abb0 fca9 5e2a 42f0 8137 e8be ebb5
00000330: 039e 552d 457d 02a9 bb8a 092e 025f d035
00000340: 120a b2b0 b138 6aac ee48 b62c 590b 1d2c
00000350: c320 7bb6 f9c0 f42b 214f 1da9 04de 8639
00000360: 5e5f 863a 003c 3db2 87e2 a7af b924 93b1
00000370: 0d17 a33b 02d5 1fb1 f4fc 8ab7 f296 5835
00000380: 2733 08b7 fc96 13b1 a7d2 2e32 f6d7 88ba
00000390: 8541 26b2 db00 f8ac 3c02 78b2 20e3 b039
000003a0: 519f e3ad 584c 9bb0 bd76 1db5 d9d8 2b35
000003b0: 11f0 3531 1b74 4c35 8f8b caaa 74b5 4a36
000003c0: 2b6e c8a8 ab43 f62e ff82 4dab 358e 0e36
000003d0: cbb3 172b bbb6 0735 e17c d3b6 9010 b1b4
000003e0: 015b 92af e699 3932 5f16 cdb4 62a4 ea34
000003f0: cdb7 39b1 1e49 19ba 89f5 65a8 defa b833
4.9653627e-06 5.4638065e-07 -1.232733e-13 -1.1887427e-09 -4.1193508e-07 1.2477931e-13 -1.9611933e-13 2.6701224e-12
3.8062626e-11 2.3693352e-09 1.9569043e-08 -5.5920805e-07 -1.2863328e-09 -1.7648905e-09 6.477194e-10 3.8275555e-12
6.1957813e-12 3.1823102e-08 2.6383914e-10 -1.066834e-09 2.2213724e-06 -1.1667049e-06 4.007925e-06 -6.1903105e-09
2.5312187e-20 -1.7093409e-10 -2.8815006e-10 6.081319e-10 2.6223752e-09 1.2746293e-09 8.964177e-14 6.4914357e-10
-8.675401e-05 -1.7116711e-06 4.972554e-06 -1.4197805e-08 8.278369e-14 -1.8946447e-09 -3.856475e-14 1.4790016e-09
1.7085585e-09 2.9963438e-12 1.150589e-09 -5.692355e-08 3.6601416e-13 5.5888797e-11 2.778951e-12 -4.722688e-06
1.1913194e-10 3.589831e-18 -9.1021646e-10 -1.0208666e-09 1.3704692e-07 -4.9878792e-14 3.0535366e-12 1.6510078e-11
-6.121631e-09 -7.0246538e-06 2.3992837e-09 7.655671e-09 -3.222062e-07 4.1711037e-10 3.0121903e-06 -1.0352539e-11
-2.8295082e-07 -3.588476e-06 5.736365e-07 -6.8054376e-08 -3.7227323e-13 3.6831047e-05 6.7916335e-09 1.02251585e-08
2.4748397e-14 1.12412806e-07 5.1708544e-09 7.4014445e-10 6.933856e-08 1.7929335e-09 -1.0217797e-07 0.009847687
8.981172e-14 2.0542836e-14 3.82954e-08 -1.0073822e-07 -4.9751403e-09 2.2072042e-08 7.266286e-10 9.265215e-09
-2.5445356e-08 6.7856234e-07 -2.9983306e-21 -4.3874912e-12 -3.949662e-09 -8.3726644e-11 -1.0517821e-11 4.977384e-10
1.5850725e-09 1.4311379e-14 -2.7916567e-15 2.7752142e-08 2.0821131e-09 -1.2980957e-10 -8.4314944e-10 -1.0133854e-07
6.739106e-10 -3.576645e-14 -5.813989e-08 -2.6905981e-08 -2.8167536e-12 -0.0004270288 -3.666696e-07 -0.004790689
9.2907804e-08 -3.5748297e-14 -3.056676e-11 -0.007267399 1.2691269e-10 2.1231196e-11 5.9096486e-12 -6.668626e-10
-8.253127e-10 5.8444694e-08 9.998364e-09 2.0198328e-08 -0.00018153622 -7.259234e-20 1.8454232e-07 -2.0044535e-08
-2.9970718e-07 -3.8042434e-11 -2.4577532e-13 2.6177998e-09 2.7302409e-11 -1.1276938e-11 -2.5466712e-12 -2.9098013e-08
1.0743977e-12 1.2424432e-10 -1.899769e-08 3.3911478e-05 4.28615e-06 1.100781e-19 -1.8144769e-14 2.0347011e-08
1.6662824e-08 6.72843e-09 4.1620388e-11 3.774846e-07 2.4026188e-09 2.9807125e-06 1.5705673e-13 -1.591352e-09
4.3482326e-10 -2.849568e-07 3.0812583e-10 -1.6965247e-06 -1.9623289e-07 7.3636957e-06 1.0279812e-08 1.0885872e-10
7.8642387e-10 3.685134e-09 -0.00053244 4.1437995e-12 -6.9141336e-08 -1.3528269e-11 -8.3089735e-10 0.00021268045
2.1473755e-10 -5.7725167e-09 2.3971108e-08 -1.1088308e-09 -3.201755e-09 -5.1942052e-08 -3.740931e-09 1.8373953e-12
-8.6508004e-07 -7.4723054e-11 -4.0994536e-10 -3.396526e-08 8.418042e-10 4.2131812e-10 -9.354206e-07 5.019962e-07
-3.9894377e-10 -8.924214e-09 0.0002904253 -1.4638206e-11 -3.1984512e-06 -2.0300715e-06 2.766929e-06 -2.225166e-14
4.7930268e-08 1.12388925e-05 -1.6467578e-06 1.4527112e-06 7.248186e-07 1.8624634e-06 -0.004613788 -1.5049406e-09
-1.247941e-09 1.9776536e-13 1.5489877e-05 -1.7564425e-06 1.2142734e-11 -2.8974453e-14 3.127341e-11 1.5524859e-06
-1.2954067e-09 -3.328487e-12 5.180848e-12 2.2317341e-12 -3.7420984e-06 1.7390803e-12 -3.4929636e-14 0.00025723886
0.001025181 -1.101489e-08 -3.053808e-10 -4.282438e-09 0.004977113 -2.3258626e-09 -1.6568672e-05 8.0685925e-07
-8.1181415e-06 -2.147714e-09 1.017603e-08 -0.0010440338 -9.677369e-09 -7.048679e-12 -1.4436008e-08 0.00033738557
-2.5877663e-11 -1.1299433e-09 -5.8659845e-07 6.401802e-07 2.6475429e-09 7.616488e-07 -3.5979246e-13 3.0205965e-06
-2.2252238e-14 1.1198805e-10 -7.3012424e-13 2.1242424e-06 5.389549e-13 5.0557327e-07 -6.302828e-06 -3.298087e-07
-2.6621907e-10 1.080341e-08 -3.8200503e-07 4.37055e-07 -2.7025522e-09 -0.0005847382 -1.2765296e-14 8.6138e-08

patch_to_embedding.bias f4 [64]
00000000: c217 2229 46d8 5729 a5e3 d5ab df1e df2f
00000010: 8b29 83b4 0925 d82e 858d fd33 74d1 562d
00000020: 44b2 88ad 88ec 0536 a8de bcac 793b 272c
00000030: 6b48 5231 5d75 b82c 6260 0129 e734 1ab6
00000040: 28d5 fb3a 9a39 a5b7 1991 792d efcb e1b3
00000050: 1a53 8c30 27d6 fb2e 13d5 7fad 47f4 9d2f
00000060: 9739 8db0 c7cf 833a e749 48a9 cf82 07b3
00000070: d104 bfae 04bb 4331 82b3 e0b0 25ee ccb0
00000080: 93cf 0236 f420 082c 5928 1d2a cc32 77b4
00000090: 0a07 3726 190b 4bb5 7a3b 6e33 aeb1 5134
000000a0: d79d 42ae 1b7c 1fb3 791e 4fab 281b ae3b
000000b0: 378e 7235 9d50 18b5 956c d5af bf09 85a9
000000c0: 9700 923b c75b 82b4 25be 1533 e920 8fb2
000000d0: 8399 8fb5 4abc c932 0db4 a7b2 cf2f 96ad
000000e0: 2f09 2fb0 4d42 202c f6ea 542d 074a 1f2c
000000f0: 02b9 a533 e08d 9d32 d695 e936 3f8f e033
3.5991833e-14 4.7927177e-14 -1.5197744e-12 4.05854e-10 -2.4430878e-07 9.8291215e-11 1.1806973e-07 1.2211e-11
-1.5540576e-11 1.9956224e-06 -5.368001e-12 2.3765141e-12 3.0600187e-09 5.2426245e-12 2.8727353e-14 -2.2978581e-06
0.0019213306 -1.9696356e-05 1.41862294e-11 -1.0514474e-07 1.020996e-09 1.14521996e-10 -1.4542384e-11 2.8731703e-10
-1.0275468e-09 0.0010056429 -4.447302e-14 -3.1551107e-08 -8.68653e-11 2.848254e-09 -1.6349164e-09 -1.4910638e-09
1.9492334e-06 1.9345055e-12 1.39584e-13 -2.3022147e-07 6.350042e-16 -7.563954e-07 5.5467787e-08 1.9529281e-07
-4.4250683e-11 -3.7132946e-08 -7.358346e-13 0.005313296 9.0358975e-07 -5.674172e-07 -3.8821626e-10 -5.908077e-14
0.0044556367 -2.4281164e-07 3.48647e-08 -1.6662357e-08 -1.0699008e-06 2.3485104e-08 -1.9523236e-08 -1.7074257e-11
-6.367768e-10 2.2774172e-12 1.2102977e-11 2.2636352e-12 7.717064e-08 1.8341723e-08 6.9613843e-06 1.0456869e-07

transformer.layers.0.0.fn.norm.weight f4 [64]
00000000: cbc6 e328 4ad8 0ea8 9e09 fe2a 2240 2229
00000010: 9d81 7e2b 580f 3a2b cef5 1ba9 7308 072a
00000020: cafd 2aaa f354 72ab 9608 82aa ab69 c82a
00000030: cc45 a728 2e1e 9cab 4d41 b4a8 a6bd b826
00000040: f2c6 fd29 11f8 0aaa 0bc2 4629 c4c3 a528
00000050: 5848 8d2b d518 5aaa 802c 03ab 7d29 8ca9
00000060: 3946 522a 5b1c 142b 126b b1aa c2b9 7829
00000070: 61ea 6729 26a5 a927 0c95 8b2a 120f 15a7
00000080: c002 f929 217c 86aa c0fb 04ab cd96 282b
00000090: d9ba fa29 72ab c529 efeb 302b 6c00 7229
000000a0: feab 4929 703a 5f29 a977 16a7 df69 7b2a
000000b0: 4e79 4ca9 09f5 3c29 46b1 b02a 2458 2f2a
000000c0: 4ea7 75aa 1955 342a 1485 b8aa 3f55 7caa
000000d0: f367 1c29 019d e5a6 8095 93aa 3290 1faa
000000e0: 74f2 91a9 dcfc b7a8 3773 8d2a d84c 9fa8
000000f0: 8f55 5caa 8269 ffaa a27b 0baa a623 87a9
2.5288275e-14 -7.929484e-15 4.5126137e-13 3.6026852e-14 9.04188e-13 6.610177e-13 -3.4630115e-14 1.199334e-13
-1.5187084e-13 -8.609356e-13 -2.3098597e-13 3.560046e-13 1.8570994e-14 -1.1092843e-12 -2.0012334e-14 1.2818969e-15
1.12699685e-13 -1.2342928e-13 4.4133137e-14 1.840358e-14 1.0038732e-12 -1.9370905e-13 -4.6602305e-13 -6.224446e-14
1.867611e-13 5.2619514e-13 -3.151581e-13 5.522818e-14 5.1495595e-14 4.7085977e-15 2.4794782e-13 -2.0686073e-15
1.10582984e-13 -2.3889313e-13 -4.7245194e-13 5.989487e-13 1.1134643e-13 8.7782985e-14 6.2855184e-13 5.373516e-14
4.4780145e-14 4.9566633e-14 -2.088155e-15 2.233001e-13 -4.5402314e-14 4.195692e-14 3.1386889e-13 1.5573702e-13
-2.1818417e-13 1.6016736e-13 -3.2777307e-13 -2.2411672e-13 3.472912e-14 -1.5932623e-15 -2.6216182e-13 -1.4172065e-13
-6.4813525e-14 -2.0426742e-14 2.5126578e-13 -1.7685872e-14 -1.956961e-13 -4.537031e-13 -1.2388574e-13 -6.0013884e-14

transformer.layers.0.0.fn.norm.bias f4 [64]
00000000: 615d 4ab7 96b7 9d37 cf5a 72bb 0df6 a5b0
00000010: 31e2 4ab9 b82e 55b5 eda8 bc3a 27dd abb6
00000020: 1429 a538 74fa 8537 3daf 0736 8883 04b6
00000030: 7d74 deb6 84db e1b6 7c94 39b7 c438 52b7
00000040: 1ca0 af38 6b96 4237 4699 f7b4 d4a6 98b9
00000050: 59bd 63b9 b001 bfb6 8ef1 8db9 611f 0338
00000060: 60b5 de37 bd62 0536 40f1 70ba de9c 993a
00000070: 77d8 3d3a 9e77 9ab6 711e e733 574a b1b5
00000080: 5d9d 8bb9 3345 be3a fb1f cc3a a1c0 4a3b
00000090: a76d 52b6 42c4 d837 e156 fb34 70d4 d637
000000a0: 6d32 2a37 ee1c ec3a 2389 2ab7 05c7 fdb6
000000b0: d777 1438 3230 b638 b2f1 96bb f83c c2b7
000000c0: 9ae2 6d37 6b5a 2035 27a4 d6b9 b714 4237
000000d0: d1a6 9c39 5935 bdb8 57fb a0b9 4919 7cba
000000e0: 012d 6039 7de1 c139 12b3 ac37 c236 18b8
000000f0: 04b0 84ba b7e1 04b6 dd2c 88ba ab5b 8736
-1.206188e-05 1.8801347e-05 -0.0036980396 -1.2075262e-09 -0.00019348484 -7.941667e-07 0.0014393606 -5.1219426e-06
7.8754645e-05 1.5971462e-05 2.021857e-06 -1.9746094e-06 -6.6296766e-06 -6.7310775e-06 -1.1061431e-05 -1.2530192e-05
8.374473e-05 1.1598323e-05 -4.6118856e-07 -0.00029115996 -0.00021718944 -5.69244e-06 -0.00027073588 3.1262058e-05
2.6548922e-05 1.9876018e-06 -0.00091912225 0.0011719724 0.00072420336 -4.603483e-06 1.0762313e-07 -1.3209163e-06
-0.0002662939 0.0014516473 0.0015573496 0.003093757 -3.1356265e-06 2.5840596e-05 4.6815606e-07 2.5609712e-05
1.014453e-05 0.0018013993 -1.0164719e-05 -7.5631565e-06 3.539756e-05 8.687413e-05 -0.004606449 -2.3154993e-05
1.4179061e-05 5.973622e-07 -0.00040939564 1.1568124e-05 0.00029878927 -9.022159e-05 -0.0003070484 -0.0009616805
0.0002137907 0.0003697983 2.0587384e-05 -3.629062e-05 -0.0010123258 -1.9800916e-06 -0.0010389347 4.033985e-06

transformer.layers.0.0.fn.fn.to_qkv.weight f4 [192, 64]
00000000: 04c6 112b 27da 9b36 0b2e e32c d3c4 43a0
00000010: 6c04 2aa9 9146 8533 b551 3134 0e91 8222
00000020: 384e f726 f8db 432a 40b7 99ab 6052 1437
00000030: f2d8 bd9d 4689 63b2 e0ca db3b f224 d52f
00000040: 63e6 182f cbb4 0a28 6a87 c71f d0eb d233
00000050: e400 5bb6 15fc a937 064e 4a26 0b27 462e
00000060: e82f 411c 4471 0bba f5e3 ba2f f8dd 8c39
00000070: de2a 36af 5a0c 0eb5 1a25 b237 69a6 32b8
00000080: 4b4c a8ac 8e83 0531 0707 86ab 6c8a e92d
00000090: e3dc 8a2c 62f9 8c33 62f7 93ad 43ed 93b0
000000a0: 83b4 22ad fcc8 cb2f ede6 90b6 4162 0b30
000000b0: 4fd4 c333 3528 16ab 9e72 a02d c77d 2039
000000c0: 1384 c92e 95af a939 9298 5a32 0cbe 84b6
000000d0: bab3 5939 7733 5136 8576 01b6 1a58 6527
000000e0: 93ac 07ba d7b2 a331 0bf7 9ab8 6f0a d035
000000f0: 3feb f2b0 a67b 07ae 2cb1 7a2a 2175 973a
00000100: f106 b5b6 980d 2a29 1fed 1bbb dd1a be36
00000110: 9a8a aa33 b451 8c9b cbd9 c133 7206 91b4
00000120: 37c6 81ae 394b 01a1 868d e0ab 2b74 8038
00000130: 1695 e734 432b 1d2f 876f a93a 6ff9 b137
00000140: 65f6 9bae 89d2 a227 440e d0b5 46ef 09b4
00000150: 9293 4faa 36a4 0fb1 da12 5e34 decb e32d
00000160: d093 5b2c 6ae4 e925 3667 2432 f320 78a5
00000170: 8fda d3b8 2f91 732e 51d6 ba21 9e06 47a7
00000180: 64b4 90a8 5b93 463b fd04 1c37 4bd2 622d
00000190: 298a 4826 99e4 4bac a082 9433 fbf6 de31
000001a0: 29ae f7aa de1a 6daa 14da 452c d51f b3b9
000001b0: 6f1e 7a32 1a75 d39f 14b6 75bb 8a5c d3ab
000001c0: ce66 adaa 870e f2ac e966 8630 f958 9c31
000001d0: 5caa 3db4 debf fcb2 efdf e4ba a555 a9ab
000001e0: 5668 d8a9 552d ccba 019e b537 0bd8 1a38
000001f0: e8fd e2ad bbb2 0f23 1b95 7338 5d2d 8ba9
00000200: 131e d7a9 7f09 85b7 a314 02a8 5647 732e
00000210: b33b 97b0 52a0 db35 4bd2 6c27 91d0 10ac
00000220: 6292 3a27 fca4 1822 3c95 1433 a781 25b2
00000230: ade6 81ba f1dc 0c11 a5cb d0b5 a085 f620
00000240: 658b be34 18f9 14ae 8a75 cd34 bdea 43b9
00000250: 6924 0a39 33cb fe0d 5904 2d9d c04b 99a6
00000260: fc39 c933 9bdb 9dac 3bbd 9e1e c58c 3d30
00000270: 4fcd ab2d f234 c435 0830 c82a 45e0 fc2d
00000280: f3a1 2436 7a1c a62f fa79 b037 53a7 2fa3
00000290: 7935 12b7 4bb3 c89c 6564 fab8 600e 8b28
000002a0: 9d4b 9237 2148 b523 1912 2a2a 5ecf 0cad
000002b0: 9a1d 02b2 ee8f e52d 8f4f b521 7c15 3fbb
000002c0: 2999 27b3 07de a3a7 29e2 0e27 dcb7 68aa
000002d0: 205f 0eaa 5453 1121 9bf6 7126 4ac0 2c34
000002e0: 2970 b138 203d 97aa d0f1 d1a4 9a61 2537
000002f0: a1c8 73ad 8481 a0a0 8f20 09b1 fa6c bdb7
00000300: fe32 8f2d b7c5 a62d 5cec 699e ebe5 8abb
00000310: 42e3 1b3a df18 203a 5352 e22d 4630 ce36
00000320: f382 1c2c 8bb7 db34 affe 0db1 6c54 7eb6
00000330: b53c 7fb5 9322 72ad a3bf ef9d 2d3d b6b1
00000340: 20e0 ac3a 66ec 30b7 bcab e43a bf39 78b4
00000350: addc ad20 5a7d 022d 0da6 42b9 9c5e f0b2
00000360: 9763 8b27 6f8b b32f cdc4 b4a4 9704 3434
00000370: 31a4 f0b2 6219 abbb 63d5 75b9 dfff 4431
00000380: 9872 2cb4 bb6b abaa b8c0 812b b08a 3731
00000390: 256c d630 faa2 651d 8d78 c32e c716 84b3
000003a0: 489b 9529 609f f938 50b6 e7ab e7dd 7f30
000003b0: 0ae2 4cb7 4479 03ab 4052 0b2c b9c6 0f28
000003c0: b5ca 4c30 d442 13b2 f935 07a5 8376 10af
000003d0: 4fdd e627 a21a 14b4 d144 8c38 75eb 8128
000003e0: 2a2d a89d 2ac0 33b8 b7b8 b0b7 dafd cdb2
000003f0: 3ecc 1630 3348 a433 d883 b6b7 18fa 8eaa
5.178915e-13 4.6447562e-06 6.45684e-12 -1.6582266e-19 -3.7751418e-14 6.206131e-08 1.6514134e-07 3.5390153e-18
1.7160269e-15 1.7395796e-13 -1.0922166e-12 8.840667e-06 -5.02522e-21 -1.3244351e-08 0.006707534 3.8770726e-10
1.3906169e-10 7.699742e-15 8.45038e-20 9.821781e-08 -3.2634061e-06 2.0263755e-05 7.018857e-16 4.5054665e-11
6.392026e-22 -0.0005319307 3.3995176e-10 0.0002686826 -1.6568033e-10 -5.2917096e-07 2.123653e-05 -4.259349e-05
-4.7833174e-12 1.9428827e-09 -9.523223e-13 2.6550505e-11 3.9467193e-12 6.5646205e-08 -1.6821825e-11 -1.0763092e-09
-9.2487155e-12 3.7068293e-10 -4.3184177e-06 5.070753e-10 9.119014e-08 -5.3346504e-13 1.8240794e-11 0.00015305645
9.163883e-11 0.0003236501 1.27239606e-08 -3.956031e-06 0.00020761686 3.1173383e-06 -1.9291485e-06 3.1827894e-15
-0.0005175557 4.764256e-09 -7.3893076e-05 1.5500244e-06 -1.7674678e-09 -3.0805268e-11 2.226593e-13 0.0011555293
-5.3950284e-06 3.7759374e-14 -0.0023792458 5.6655686e-06 7.9414534e-08 -2.3213857e-22 9.026879e-08 -2.7013044e-07
-5.901451e-11 -4.3806456e-19 -1.5955438e-12 6.1251536e-05 4.3135577e-07 1.4294436e-10 0.0012926914 2.1216196e-05
-7.0923524e-11 4.5192295e-15 -1.550136e-06 -1.2846166e-07 -1.8436492e-13 -2.0902582e-09 2.068222e-07 2.5897447e-11
3.1203824e-12 4.0573836e-16 9.569524e-09 -2.1521735e-16 -0.00010101974 5.5380752e-11 1.2660579e-18 -2.7620385e-15
-1.6065444e-14 0.0030300233 9.299486e-06 1.2893307e-11 6.957618e-16 -2.8974932e-12 6.9155476e-08 6.489129e-09
-4.3996862e-13 -2.105915e-13 2.8116441e-12 -0.00034165257 1.4558835e-08 -8.9555704e-20 -0.003749256 -1.5018136e-12
-3.0802308e-13 -6.8796665e-12 9.779032e-10 4.5503126e-09 -1.7663973e-07 -2.9423912e-08 -0.0017461757 -1.2031943e-12
-9.610426e-14 -0.0015577475 2.1650458e-05 3.6917667e-05 -2.5805982e-11 7.789893e-18 5.807458e-05 -6.180709e-14
-9.553135e-14 -1.5859257e-05 -7.2209245e-15 5.5315162e-11 -1.1003664e-09 1.6363431e-06 3.286558e-15 -2.0579408e-12
2.589204e-15 2.0687183e-18 3.4594663e-08 -9.633744e-09 -0.0009910666 1.1112136e-28 -1.5556476e-06 4.1762447e-19
3.549168e-07 -3.3872544e-11 3.8269746e-07 -0.00018684096 0.0001317427 1.5702877e-30 -2.2898607e-21 -1.063704e-15
9.370339e-08 -4.4865895e-12 1.6807165e-20 6.8957845e-10 1.9531625e-11 1.4618547e-06 3.5560465e-13 2.8748679e-11
2.4532171e-06 3.0215458e-10 2.1037635e-05 -9.522201e-18 -8.714728e-06 -1.3281236e-21 -0.00011939629 1.5438334e-14
1.7439766e-05 1.9654607e-17 1.5105312e-13 -8.004123e-12 -7.5737265e-09 2.6098203e-11 1.2286096e-18 -0.0029157093
-3.9022016e-08 -4.548231e-15 1.982906e-15 -2.0669528e-13 -1.2645137e-13 4.9238195e-19 8.3947884e-16 1.6088703e-07
8.460909e-05 -2.6865402e-13 -9.104895e-17 9.857491e-06 -1.3857499e-11 -2.719076e-19 -1.9954631e-09 -2.2581302e-05
1.6279863e-11 1.8959818e-11 -1.2383795e-20 -0.004238834 0.0005946645 0.00061072217 2.5729785e-11 6.144898e-06
2.2241625e-12 4.0925474e-07 -2.0662971e-09 -3.789809e-06 -9.5083243e-07 -1.3763784e-11 -6.346092e-21 -5.303852e-09
0.0013189353 -1.0545458e-05 0.00174462 -2.3117808e-07 2.945337e-19 7.417478e-12 -0.0001856314 -2.79827e-08
3.8688226e-15 3.2658984e-10 -7.839595e-17 1.6765476e-07 -2.8014343e-08 -0.0052215317 -0.00023444513 2.86672e-09
-1.6060437e-07 -3.0450455e-13 9.219491e-13 2.670884e-09 1.5601286e-09 3.0392155e-21 8.8889875e-11 -6.150872e-08
6.643866e-14 0.00011902931 -1.6464139e-12 9.30838e-10 -1.2211976e-05 -4.670884e-13 1.9798746e-12 7.981186e-15
7.450283e-10 -8.571721e-09 -1.172767e-16 -1.3138828e-10 6.4077767e-15 -1.3793263e-07 6.688538e-05 1.442399e-14
-4.451593e-21 -4.2855892e-05 -2.106685e-05 -2.398058e-08 5.485993e-10 7.649978e-08 -2.1757485e-05 -2.5397805e-13

transformer.layers.0.0.fn.fn.to_out.weight f4 [64, 64]
00000000: 27e0 9c34 f276 4139 c3ed bb34 055a 07b9
00000010: dbfd 59bb 8ee7 f6b8 2931 a2b8 4c8e aab7
00000020: 060a cb36 3987 22b9 e878 9bb6 4051 bbbb
00000030: dbe1 0e34 dca9 73b5 ea3f 1036 9c04 1133
00000040: 68ed bdb6 2086 4ead e552 1537 62ad 0eb6
00000050: 39f0 afb8 cfaa 143a 4af4 8034 6a7f 09b6
00000060: 5540 fcb4 a1b6 0abb e5a4 de3a ed8d 323b
00000070: 1beb 6035 72c5 f034 68d2 aeb5 f174 ac3a
00000080: c142 c3b7 9b0e 3238 6696 bfb6 bb3a 2838
00000090: 4d39 5738 62e4 a436 3524 2035 f972 80bb
000000a0: 9766 3835 1dfc a338 c0d0 23b5 ff52 f1b6
000000b0: e97f 0bb7 8c0a 2eb6 a463 5137 2311 42bb
000000c0: a8bb d0b7 a15a 263b 3e6b 4f39 be24 e237
000000d0: a042 81b7 617e 1e3b 1274 19b5 2924 efbb
000000e0: 5724 13b4 dcd9 0cb5 c221 4136 b41b 21bb
000000f0: 8313 0ab4 233e dbb2 2ef8 beb5 8310 b331
00000100: 5b09 5538 dd05 4bb8 ff59 bcb4 4f99 3f33
00000110: 8c21 0eba 28eb f1b9 7213 c43b eca9 b2b7
00000120: 4a32 7e3a e64b ddb4 ec76 8ab3 2e36 1338
00000130: 6d4b 1ba7 607c 4037 2fe8 f8b4 90ac bb37
00000140: eb74 5234 bbd5 1b37 51c8 e534 6733 3ab6
00000150: ea0e 05b9 aa2e 4db8 154e 53b4 4d5b 8cb3
00000160: 248a 7637 d21e d239 6a29 42b4 e812 77b4
00000170: 04ba 34bb dae8 87b3 f739 b8b9 eedd 36ba
00000180: 5b59 6fb6 6899 2eb9 3d21 4537 b8f7 0b37
00000190: 3a0b 0239 8a29 bb37 4145 26b5 ac4f ecb2
000001a0: 6bc6 9bb7 4b10 9932 8c30 9132 fd73 37b8
000001b0: aaa8 83b6 d18d d7ba e355 18b7 f3ef 1937
000001c0: f0ca 903a 8880 9836 6c2c 93bb 25ea c232
000001d0: ea8d 5834 f301 6bb6 a02f f0b7 6488 cdba
000001e0: 7962 1d35 0d03 50b8 0b41 a535 c5e3 9534
000001f0: d9eb 04b4 38ca 1234 f665 32b5 2383 9f35
00000200: 5478 f4b2 c57a 9d3a 88a3 a034 069a 45b3
00000210: 5942 a9ba d97d 1037 676b d13b 5ba3 94b2
00000220: 088c 35b6 40b0 afb6 8811 b133 f74f cfb8
00000230: 6cb6 dcb5 72d0 1bb8 dd36 9438 eade fcb4
00000240: 4724 4ab4 5f9e f036 fbdb 94b2 6b00 2b2d
00000250: a5ff 2c36 cc81 6c3b cadb c3b9 f649 0ebc
00000260: 23a5 db3a c8e9 6b38 5ba9 76b3 674e 283b
00000270: 1bf3 81b8 fe51 ac34 a7a1 f6b3 d96f 3abb
00000280: c26b 2c34 cbf1 cab6 417f abb9 62d0 283b
00000290: 32a0 e235 3c49 003b a6b8 903b 98be b639
000002a0: 9cc3 ca38 f09a feb4 a694 0537 4890 8936
000002b0: 91b2 50b9 91ea 8b38 6ae8 4db3 8ace ee3a
000002c0: d8f9 8c3a baa5 b3b2 54ed f7b4 cfaf 85bb
000002d0: 6fd3 d238 0f9d c1b7 e9ce 86b3 0db0 a1b4
000002e0: 4729 b2b3 2d3f 9f36 10bc 3c36 0103 9db8
000002f0: c0dc 1139 e1f9 ce38 d7cd 20b3 f71b e0b7
00000300: d2f2 a53a ded2 402d 3af1 c7b9 a610 1a29
00000310: a6c4 25b1 dbc0 3bb8 62a8 ef2c 91cb d935
00000320: ef66 0eb2 b6e4 473b bf02 53b5 c388 3a37
00000330: 96b7 b82a b5fc 3bb8 b367 06b6 a345 de2b
00000340: e573 652c f058 fdac 11cd a637 df73 4b36
00000350: a638 9fba 3040 2835 6c51 f4b9 d1e2 dab7
00000360: 0e13 c9b9 ca7d d039 7200 d2b7 4b73 4e37
00000370: a110 9737 f8b5 bdba 7c97 1538 1d34 0b2d
00000380: 1fa5 0cb6 8c53 cb38 a458 a1ad 560f 7fb3
00000390: cef9 6fb5 fab4 7f36 72e5 b02a 98ca c034
000003a0: 969b ee34 4cfd 9bb9 d5de dd35 21a4 2239
000003b0: 8d9b 8cb6 e6cf 633a db5e 9d34 658c a3b4
000003c0: 8fc0 6b36 ee11 e635 1e01 b5b6 7ab4 2db4
000003d0: 9bcb 583a 0bdd d72b a553 48b9 1fb9 d837
000003e0: 9e1d 3a34 c653 08bb 2535 d4b8 ede4 c7b4
000003f0: 0765 89b9 288a 9a37 8d97 71ab 0c47 1737
2.9220357e-07 0.00018450225 3.500446e-07 -0.00012908138 -0.0033262882 -0.000117733245 -7.733919e-05 -2.0331841e-05
6.0510383e-06 -0.00015499898 -4.6334353e-06 -0.005716473 1.3306946e-07 -9.077173e-07 2.1494875e-06 3.3764636e-08
-5.6602767e-06 -1.1739526e-11 8.9003925e-06 -2.126057e-06 -8.389395e-05 0.00056712044 2.4019602e-07 -2.0488756e-06
-4.6985465e-07 -0.0021165984 0.0016986398 0.002724524 8.3788626e-07 4.4847144e-07 -1.3025247e-06 0.001315741
-2.3276896e-05 4.245211e-05 -5.7097523e-06 4.010902e-05 5.131336e-05 4.914168e-06 5.9657333e-07 -0.003919956
6.869463e-07 7.8194054e-05 -6.1026003e-07 -7.1920217e-06 -8.314827e-06 -2.593416e-06 1.248057e-05 -0.0029612265
-2.4882916e-05 0.002538361 0.00019781009 2.6958409e-05 -1.5409023e-05 0.0024184214 -5.7165846e-07 -0.007298012
-1.3703662e-07 -5.247109e-07 2.877889e-06 -0.0024583163 -1.285935e-07 -2.5523212e-08 -1.4228333e-06 5.211463e-09
5.079187e-05 -4.8404432e-05 -3.508321e-07 4.4610086e-08 -0.0005421869 -0.00046142307 0.0059837634 -2.129838e-05
0.00096968247 -4.121968e-07 -6.4477575e-08 3.509799e-05 -2.155146e-15 1.147305e-05 -4.6362535e-07 2.2372493e-05
1.9600309e-07 9.288483e-06 4.2800323e-07 -2.774608e-06 -0.00012689424 -4.8919268e-05 -1.9679312e-07 -6.5358655e-08
1.4694906e-05 0.00040077284 -1.8082724e-07 -2.3010546e-07 -0.0027576694 -6.328783e-08 -0.00035138402 -0.0006975819
-3.5665787e-06 -0.00016651081 1.1749854e-05 8.342722e-06 0.00012401948 2.231148e-05 -6.1940597e-07 -2.7510247e-08
-1.8569835e-05 1.7818953e-08 1.6902298e-08 -4.3738622e-05 -3.9237393e-06 -0.0016445463 -9.079903e-06 9.175378e-06
0.0011046808 4.544916e-06 -0.0044913795 2.2691049e-08 2.0168196e-07 -3.5018863e-06 -2.8632407e-05 -0.0015680906
5.8630354e-07 -4.9593906e-05 1.2312388e-06 2.7919137e-07 -1.2379259e-07 1.3670876e-07 -6.645854e-07 1.1884589e-06
-2.8460057e-08 0.0012014738 2.9921307e-07 -4.600772e-08 -0.001291345 8.61237e-06 0.006390977 -1.7303753e-08
-2.705261e-06 -5.2359246e-06 8.245394e-08 -9.885424e-05 -1.6444369e-06 -3.714901e-05 7.067409e-05 -4.710085e-07
-1.8825914e-07 7.170994e-06 -1.7329503e-08 9.720317e-12 2.5778802e-06 0.0036088107 -0.00037357054 -0.008684626
0.0016757589 5.6246092e-05 -5.7430366e-08 0.0025681497 -6.196481e-05 3.2097154e-07 -1.1484672e-07 -0.0028448014
1.605795e-07 -6.0482175e-06 -0.00032710473 0.0025758971 1.6884935e-06 0.00195749 0.004416543 0.00034855749
9.668546e-05 -4.742392e-07 7.962028e-06 4.0997147e-06 -0.00019902947 6.671728e-05 -4.794166e-08 0.0018219512
0.0010755612 -2.0913706e-08 -4.6180014e-07 -0.004079796 0.00010052963 -2.3080529e-05 -6.277498e-08 -3.011668e-07
-8.296279e-08 4.745924e-06 2.812365e-06 -7.486903e-05 0.00013910513 9.869389e-05 -3.7440113e-08 -2.6715903e-05
0.0012660867 1.0960758e-11 -0.00038135966 3.420931e-14 -2.4122442e-09 -4.4763885e-05 6.811483e-12 1.6227006e-06
-8.288892e-09 0.0030501313 -7.860762e-07 1.1118306e-05 3.2812354e-13 -4.4819626e-05 -2.0027917e-06 1.5793377e-12
3.2607192e-12 -7.2005665e-12 1.9884234e-05 3.0316803e-06 -0.001214762 6.267828e-07 -0.0004659997 -2.6093245e-05
-0.00038351904 0.00039766572 -2.5034158e-05 1.2305401e-05 1.8008346e-05 -0.0014473787 3.566545e-05 7.912807e-12
-2.0957739e-06 9.695356e-05 -1.8342945e-11 -5.9385762e-08 -8.939795e-07 3.8103303e-06 3.142309e-13 3.5910193e-07
4.4444158e-07 -0.00029752625 1.6530636e-06 0.00015510667 -4.1904336e-06 0.0008690342 2.9312545e-07 -3.0463266e-07
3.5129813e-06 1.7141554e-06 -5.3943504e-06 -1.6177538e-07 0.00082700857 1.5338021e-12 -0.00019104646 2.583541e-05
1.7333375e-07 -0.0020801886 -0.00010118847 -3.7233204e-07 -0.00026205948 1.8422565e-05 -8.583072e-13 9.016843e-06

transformer.layers.0.0.fn.fn.to_out.bias f4 [64]
00000000: b118 3f31 3135 b0b2 75bd ba32 8d4f ce31
00000010: f55f 3eb3 6990 83b1 6d85 8c34 20fc e332
00000020: 4e84 1bb3 fdcf 92b2 4227 0432 4db5 ffb3
00000030: 0514 79b1 f22c cdb2 6953 1fb4 3ebc 3932
00000040: 624f c832 4e0c b933 7028 1633 5760 32b3
00000050: 0c55 3e32 7caf 96b1 bb07 80b3 bbe3 6bb3
00000060: 91c4 e132 9e83 fe33 9bed dfb3 a0e8 18b1
00000070: c861 0fb3 6952 88b2 5771 a631 896b 1232
00000080: 0e55 c733 9900 3733 b31b a631 6083 8e33
00000090: 0477 0e33 0021 0233 46ae 1ab2 7912 d7b1
000000a0: c63a 02b4 6f8d b4b2 19d0 7833 cc1f a1b2
000000b0: cf29 c1b3 0789 b831 e2ab 23b3 8824 01b3
000000c0: 6f97 0a34 9c92 59b3 f670 08b0 e449 0db3
000000d0: 862b 752f a4ef c9b1 45ba 7db3 eb2c 1f31
000000e0: ddba 5133 2617 04b4 23a9 88b3 d814 8fb2
000000f0: 75a5 acb2 1ce0 2132 105b 6133 f94e 6db3
2.7808194e-09 -2.0513285e-08 2.1739405e-08 6.004433e-09 -4.4325095e-08 -3.8290193e-09 2.6174112e-07 2.6540931e-08
-3.620908e-08 -1.7091219e-08 7.692337e-09 -1.1907341e-07 -3.6245649e-09 -2.388558e-08 -1.4838373e-07 1.0811219e-08
2.3319163e-08 8.616972e-08 3.4961374e-08 -4.1531475e-08 1.1078793e-08 -4.385525e-09 -5.9618706e-08 -5.492232e-08
2.6282835e-08 1.1851738e-07 -1.0427467e-07 -2.2251143e-09 -3.3383714e-08 -1.586996e-08 4.844121e-09 8.522769e-09
9.282131e-08 4.260855e-08 4.834385e-09 6.636287e-08 3.3170195e-08 3.0297997e-08 -9.003605e-09 -6.2594236e-09
-1.2128575e-07 -2.1019074e-08 5.7931263e-08 -1.8757326e-08 -8.994868e-08 5.370683e-09 -3.810772e-08 -3.0068378e-08
1.2907343e-07 -5.065759e-08 -4.963704e-10 -3.2896324e-08 2.2298083e-10 -5.877114e-09 -5.9075564e-08 2.3163078e-09
4.8831556e-08 -1.230188e-07 -6.363759e-08 -1.665687e-08 -2.0098677e-08 9.42239e-09 5.2469716e-08 -5.5252688e-08

transformer.layers.0.1.fn.norm.weight f4 [64]
00000000: 92e0 0a2d 0d8a 11aa 3c8f 3e2b 9f98 7eac
00000010: bad1 b929 44ac 0f2d f6a0 e62a dece ed2c
00000020: 7899 80a9 a4a7 a3ab 1fd0 f62b c51f 972b
00000030: 3413 ef2b b764 272b 8fa6 aeab 7428 cd29
00000040: 636d baac e6de 37aa b476 582c c6ba b62a
00000050: c769 0b2c af8b 312c bc07 082d 9101 90ab
00000060: 152d acac 9636 942b ff42 7a2b 32f0 e6ac
00000070: b4d1 272c 0d2f b7ab e04b 2d2a d67b bfac
00000080: 13d2 8daa 883d 48ab 49bf 532c 5ff5 012c
00000090: e535 fb29 7e50 4b2c 7747 63ac 9a99 82a9
000000a0: 8e8f fe2c 4822 b02c 22d9 a9ab 8ce0 052c
000000b0: 3060 8fa6 c156 a9aa 9779 38ac 0f02 e32b
000000c0: 2cdb 3a2b 44e8 9c2b 7307 222c 5d5f 5d2a
000000d0: f17c 0f2c 3572 b92c b346 ba29 00ae 10ac
000000e0: 0712 b52b d831 d2aa 1455 212a a970 202c
000000f0: d2a4 9caa 3df9 3cab 9e75 4a2c 7ae9 8b29
7.894256e-12 -1.2926483e-13 6.770034e-13 -3.6180293e-12 8.252032e-14 8.1668595e-12 4.0967896e-13 6.758912e-12
-5.7109645e-14 -1.1628376e-12 1.7537117e-12 1.0738013e-12 1.6987301e-12 5.947009e-13 -1.2409673e-12 9.110846e-14
-5.2985823e-12 -1.6330999e-13 3.076134e-12 3.2459295e-13 1.9811806e-12 2.5230753e-12 7.732422e-12 -1.023225e-12
-4.893539e-12 1.0531183e-12 8.891082e-13 -6.56366e-12 2.3848536e-12 -1.3015991e-12 1.5391811e-13 -5.442295e-12
-2.51924e-13 -7.1139665e-13 3.0091088e-12 1.846821e-12 1.11559884e-13 2.8892717e-12 -3.2298311e-12 -5.7998054e-14
7.235052e-12 5.006027e-12 -1.2068439e-12 1.9025085e-12 -9.94869e-16 -3.0080628e-13 -2.6215469e-12 1.6129891e-12
6.6384637e-13 1.1148933e-12 2.302572e-12 1.9661829e-13 2.0390879e-12 5.2706958e-12 8.272324e-14 -2.056022e-12
1.2865827e-12 -3.733808e-13 1.432919e-13 2.2799906e-12 -2.7825534e-13 -6.7136905e-13 2.8771217e-12 6.213342e-14

transformer.layers.0.1.fn.norm.bias f4 [64]
00000000: ac89 9b39 b0d8 5937 b72a f0b5 ac04 3c39
00000010: be0f 7835 f758 a439 44dc 02b6 ba12 a735
00000020: b8d4 6bb8 13f4 8d39 0cc4 f8ba 0117 dfb6
00000030: 72e4 8538 b129 b138 9537 7c3b d6c6 85b7
00000040: 169d 90b6 cdd7 9239 4286 cb36 8192 6e37
00000050: ed03 3034 326d b338 0368 65ba c0a6 c633
00000060: 4343 2c3b 6d4e 5637 86ad 003b 4572 7539
00000070: 6679 b3b5 9123 99b9 b8c8 8f3a 4beb 7835
00000080: e0db 7534 8b1a 0eb5 f388 893b c42a 4cb6
00000090: 0fe6 5fb8 cd36 fb34 4abe a836 adab 4cb9
000000a0: c73a 1bb7 7cca bdb6 c757 9b37 59ec e635
000000b0: e392 86b5 6ed8 1cb8 29f1 8fb5 db7b 3637
000000c0: b69b 2838 c206 d5b8 607e 3e36 dd52 403b
000000d0: eb92 16b9 77ff 5d39 687b db36 0720 8aba
000000e0: 0e20 543a c7c4 51b9 813d b636 6417 2e3a
000000f0: b93c aeb8 bd22 e8b7 48c4 9538 16e7 4a38
0.00029666477 1.2984659e-05 -1.7893825e-06 0.00017930818 9.241011e-07 0.00031346802 -1.949972e-06 1.244792e-06
-5.6226476e-05 0.00027075465 -0.0018979325 -6.648596e-06 6.3844855e-05 8.447783e-05 0.0038485278 -1.5947426e-05
-4.3098216e-06 0.00028008074 6.065501e-06 1.4220016e-05 1.6392706e-07 8.555724e-05 -0.00087511557 9.250425e-08
0.0026285208 1.2773654e-05 0.0019634678 0.0002340759 -1.3371871e-06 -0.00029208933 0.0010969853 9.2729596e-07
2.2897393e-07 -5.293775e-07 0.004197234 -3.0423262e-06 -5.3381602e-05 4.6792266e-07 5.0289427e-06 -0.0001951891
-9.252405e-06 -5.656211e-06 1.8518314e-05 1.7205122e-06 -1.0026528e-06 -3.7394864e-05 -1.0724517e-06 1.0876883e-05
4.019934e-05 -0.0001015789 2.8385766e-06 0.0029346265 -0.00014359846 0.0002117137 6.541075e-06 -0.0010538109
0.0008091935 -0.00020005098 5.4311827e-06 0.0006641059 -8.308277e-05 -2.7672731e-05 7.141434e-05 4.837577e-05

transformer.layers.0.1.fn.fn.net.0.weight f4 [64, 64]
00000000: 263f 162b 116f 883b f2c5 11b8 f1a0 1cae
00000010: cb27 f338 c978 ba2e 1ca1 4c35 a870 6fba
00000020: 87b2 53b8 ee88 2436 f3f9 1f3b bf90 103a
00000030: add5 ffb4 5485 7b38 3482 c639 fe65 9a38
00000040: 5540 2fb3 3677 1f35 e53b b73a e830 e2ba
00000050: 769d cb35 4691 8bb7 02b4 80b3 730a 0b33
00000060: 5117 47b7 9c18 943a c1cd 83b7 5f0f 3238
00000070: 5578 f1b5 e122 0834 92f2 83bb bae3 fe37
00000080: 50be 2531 1ce4 5fb9 fe0c 95b2 6c65 82b2
00000090: 3e9d 2335 9833 e432 00f1 86b6 d1fe 0a3a
000000a0: 206e 0938 f6c8 a13b 2d5b 7b37 f35b e936
000000b0: 59ce f232 d274 5f3b 316a fb3b e5a9 7236
000000c0: 2fd8 4e36 dc13 bbb9 72ba 1bb6 1d06 28b7
000000d0: 4389 1338 abaa 4bb6 cd66 f434 df62 453b
000000e0: e4f4 1cb7 8b69 af3a 629a 0cbb 3a70 a234
000000f0: 1697 8bbb 673f 1bb8 2277 23bb 5b6b a23b
00000100: da65 5736 f9eb 75b9 ec9f e835 20ab bf37
00000110: c1d0 6c2f 7599 9238 3ce1 0438 2978 62b0
00000120: 9cf7 7b39 8b9d f7b6 fe58 e1b8 bd53 6cb2
00000130: a53d e2b7 0d69 5131 04d5 bc3a 80fd 14ba
00000140: af3c e232 cd7c 55b4 bc77 afb1 a721 a6b5
00000150: 12d8 c835 b300 ad2d a44e bc33 10d1 a8ba
00000160: 2bc5 4331 8e08 59b4 416e ff35 4c15 c737
00000170: a219 d4b6 1c98 65b7 2160 d1b9 df01 97b4
00000180: 2f6d 2438 9ad6 7339 78ab 8337 8d94 a336
00000190: b71a 883a 1a22 b6b3 f23a b0b8 4871 0fb6
000001a0: 6f79 d638 41a3 15bc 6ccf 14b6 cf67 5836
000001b0: 2ece 0837 e08d c5b7 246a ac33 78e4 1732
000001c0: ba7c a3b4 7b8d 8135 bb9d 8535 d330 47b8
000001d0: 4d29 55b6 29eb 9eaf 2b7b e82d 4096 e33b
000001e0: 6e8c 35ac 0030 192f 2eb2 a6b3 83a6 8638
000001f0: 91bd cf38 5f0b 5735 3375 4437 b436 3935
00000200: f1da e1b2 401b 6f34 557f 8839 ce3e 96ae
00000210: 5a10 0ab6 edcc 7eba 1a2f 9535 e2ea b833
00000220: 58e0 32b4 955f 53bb d459 0c31 092b 5932
00000230: f80e 8cb6 465c 813b 743c 94b1 afe9 dbb5
00000240: 1ecd 8db0 162b 0937 d12f e932 6e93 4db4
00000250: 562f b73b 7dcd 8b38 f913 072d 900a 0831
00000260: 446e 8e32 8695 0bb4 3712 ddb9 e88e 23b9
00000270: 1303 0b38 986b 8b36 a63d d6b9 97d9 32b3
00000280: b986 0134 8172 5abb 08c4 7d35 03a0 75bb
00000290: 91c6 113c f9f8 edaf 49ce 6fb0 1ad8 3436
000002a0: d1c6 60b9 b4ee 1d36 af87 1dba c789 5839
000002b0: 3de8 6cb9 dbaa 0cbb f8c0 29b9 c811 10bb
000002c0: 5a08 d136 7dfb a936 6177 2f34 bde0 7234
000002d0: 29f7 0fb7 2430 b7ba de46 192c cb5f 183b
000002e0: 4597 4bb0 f7cf 6e33 e9c5 e13a 2ce9 d2b6
000002f0: 1a9b 06bc bf85 e830 91c7 2534 114b aeb4
00000300: 4968 fd2f b7be 51b9 1b8d a3b3 8533 83b8
00000310: da9c bcb0 7f99 cfbb f3bd 87b4 89d3 c435
00000320: f737 5939 3791 8d2a 29da 5db8 f114 d7b3
00000330: ea45 7238 7555 11b9 91c8 083a 9f5b deb0
00000340: 1393 0ab7 9c06 a332 33e5 3f36 5135 bcb6
00000350: 9506 f839 2b3e 2239 15c9 d3ba 6388 8e3a
00000360: d4d1 9bba c3e0 db34 556e 0cb6 f4c4 f7b2
00000370: beff 8a35 c58f 01b2 0b30 5a2d 4dc7 5d38
00000380: e938 4839 196b bfb3 9da9 8134 3462 cbad
00000390: ae0f 0c36 d398 a2b3 7561 dc30 e287 633a
000003a0: d0de 2a33 3228 40b7 cafe e6b4 cc18 c4b9
000003b0: 9aed f7b8 5ee0 813b 6c90 1db8 9843 b031
000003c0: 714d 01b2 4a2d 742e 962a 9eb8 7ece 16b9
000003d0: 9f30 a637 0e53 bcb4 5b3b f335 0e45 2c39
000003e0: 7ad0 712e 68c5 eeb0 f1ff 4932 8c05 35b9
000003f0: b088 6bb8 fff6 dfb9 01ff 283a c40b 3e39
5.337834e-13 0.004163631 -3.4755045e-05 -3.5613238e-11 0.00011594555 8.4797565e-11 7.6230367e-07 -0.00091339136
-5.0472587e-05 2.4517608e-06 0.0024410456 0.0005514733 -4.765292e-07 5.9967235e-05 0.00037862512 7.36229e-05
-4.0803872e-08 5.940559e-07 0.0013979642 -0.0017257007 1.5170506e-06 -1.663774e-05 -5.993208e-08 3.2372963e-08
-1.1866753e-05 0.0011298838 -1.5712229e-05 4.2452823e-05 -1.799092e-06 1.2678676e-07 -0.0040267194 3.0385203e-05
2.411884e-09 -0.00021351915 -1.7351791e-08 -1.5180113e-08 6.095105e-07 2.6566155e-08 -4.0215673e-06 0.0005302253
3.2765907e-05 0.0049372865 1.4981994e-05 6.9546454e-06 2.8266344e-08 0.003409673 0.007672571 3.6159702e-06
3.0822227e-06 -0.00035682216 -2.3205325e-06 -1.0015004e-05 3.5175366e-05 -3.03487e-06 4.552334e-07 0.0030118746
-9.355343e-06 0.0013382895 -0.0021454324 3.0256507e-07 -0.004259954 -3.7013928e-05 -0.0024942835 0.0049566454
3.2096782e-06 -0.00023452927 1.733189e-06 2.284866e-05 2.1538239e-10 6.990406e-05 3.168102e-05 -8.238908e-10
0.00024029467 -7.379514e-06 -0.00010745412 -1.3756048e-08 -2.6970005e-05 3.0473217e-09 0.0014406745 -0.00056835264
2.6337458e-08 -1.9882573e-07 -5.1067826e-09 -1.2377758e-06 1.4964046e-06 1.9668133e-11 8.768737e-08 -0.0012879688
2.8488312e-09 -2.0212812e-07 1.9031069e-06 2.3732566e-05 -6.3210764e-06 -1.3684879e-05 -0.00039935208 -2.8127303e-07
3.9202332e-05 0.00023254231 1.5696263e-05 4.875072e-06 0.0010383938 -8.4812385e-08 -8.4033134e-05 -2.13746e-06
0.00010226934 -0.009133161 -2.2174454e-06 3.2246933e-06 8.154237e-06 -2.3550296e-05 8.028681e-08 8.841305e-09
-3.0451866e-07 9.652425e-07 9.955178e-07 -4.749077e-05 -3.1763514e-06 -2.8907124e-10 2.6430044e-11 0.0069454014
-2.5799601e-12 1.3932322e-10 -7.762388e-08 6.420633e-05 9.905839e-05 8.011029e-07 1.1709798e-05 6.8997474e-07
-2.629301e-08 2.2268523e-07 0.0002603481 -6.8323666e-11 -2.057312e-06 -0.00097198674 1.1115073e-06 8.6108926e-08
-1.6659158e-07 -0.0032253016 2.0423743e-09 1.26408475e-08 -4.1740677e-06 0.0039477674 -4.3142396e-09 -1.6384782e-06
-1.0317398e-09 8.175868e-06 2.7146514e-08 -1.9145747e-07 0.0055903597 6.666312e-05 7.678296e-12 1.9796609e-09
1.6581119e-08 -1.299978e-07 -0.00042165976 -0.00015598128 3.3143046e-05 4.1550484e-06 -0.00040863192 -4.164175e-08
1.2063073e-07 -0.003333241 9.453511e-07 -0.0037479408 0.00889744 -4.3286955e-10 -8.724084e-10 2.6947878e-06
-0.0002143637 2.3533767e-06 -0.0006009293 0.00020650691 -0.0002259323 -0.0021464142 -0.00016188982 -0.0021983255
6.2296576e-06 5.0658696e-06 1.6341575e-07 2.2619766e-07 -8.581011e-06 -0.0013976139 2.1781947e-12 0.0023250456
-7.4065937e-10 5.5602836e-08 0.001722512 -6.2856325e-06 -0.00821569 1.6918235e-09 1.5439424e-07 -3.2464644e-07
4.609453e-10 -0.0002000284 -7.615946e-08 -6.256163e-05 -1.372338e-09 -0.006335437 -2.5283916e-07 1.4664703e-06
0.00020715581 2.5147394e-13 -5.2893683e-05 -1.0015527e-07 5.776241e-05 -0.00013860113 0.0005217875 -1.6178666e-09
-8.259684e-06 1.8978703e-08 2.859463e-06 -5.6090435e-06 0.0004730715 0.00015472683 -0.001615795 0.0010874387
-0.0011888095 4.0955464e-07 -2.0925847e-06 -2.8844148e-08 1.0356232e-06 -7.541478e-09 1.2402533e-11 5.287612e-05
0.00019094687 -8.9136115e-08 2.4151532e-07 -2.3122039e-11 2.0870752e-06 -7.5715114e-08 1.6034806e-09 0.0008679611
3.9783856e-08 -1.14534505e-05 -4.3026222e-07 -0.00037402508 -0.000118221345 0.003963514 -3.756622e-05 5.1299587e-09
-7.526396e-09 5.55194e-11 -7.541959e-05 -0.00014382039 1.9811383e-05 -3.507816e-07 1.8122186e-06 0.00016428923
5.498222e-11 -1.7372885e-09 1.1757934e-08 -0.00017263571 -5.6155666e-05 -0.000427179 0.000644669 0.00018124195

transformer.layers.0.1.fn.fn.net.0.bias f4 [64]
00000000: 4492 73b0 ff84 952f 657a 42b1 46d9 442d
00000010: eb9a d42f b1af 2cb1 438c ef30 0478 b7af
00000020: b182 75b0 4752 6c30 e5e1 f6ae 5781 c72f
00000030: 2834 ef2e 3ad6 04b0 61e3 0cb1 327c cd30
00000040: 95d7 37b0 290e aeaf 79b9 9fb0 0139 272f
00000050: 55ac eb30 5da7 1f30 7984 e831 c3aa 492f
00000060: 176b 66b1 a2c5 0d31 7450 ab2f e0d0 5030
00000070: fe85 15b0 c7a0 89b0 4a62 dab0 ee90 74af
00000080: 7df3 bcae e447 32b9 aa98 bb2e 484f 1930
00000090: f3c8 2f2e db09 3b30 dae3 96af 1e84 2cb0
000000a0: 2a6b eeae d915 b22f 9cd8 862f dbe2 9fb0
000000b0: 8c3e a4b0 2034 32bb 2508 f22e 821b 582f
000000c0: 5e8e 07b8 eada 2c30 3049 ea30 81cc 54b0
000000d0: 8bdc d630 a406 8b39 593a ccad a167 c1bb
000000e0: 34c8 ac38 6a99 e2b0 4803 06b0 a433 b5ae
000000f0: 66a1 02b0 d2cb 2230 0314 c3b0 14b1 05b0
-8.861074e-10 2.7197442e-10 -2.8300289e-09 1.11895545e-11 3.867265e-10 -2.5129163e-09 1.7429403e-09 -3.3372782e-10
-8.9316204e-10 8.5973223e-10 -1.1226912e-10 3.628979e-10 1.08777265e-10 -4.8325755e-10 -2.0501931e-09 1.4951012e-09
-6.688137e-10 -3.1660477e-10 -1.1621487e-09 1.5208813e-10 1.714748e-09 5.80817e-10 6.767149e-09 1.834151e-10
-3.3530279e-09 2.0630542e-09 3.1161884e-10 7.596679e-10 -5.43963e-10 -1.0013758e-09 -1.5889523e-09 -2.224316e-10
-8.5925024e-11 -0.00017002184 8.530894e-11 5.577374e-10 3.9968872e-11 6.804421e-10 -2.744674e-10 -6.2760985e-10
-1.0842023e-10 3.2393535e-10 2.4528368e-10 -1.1633249e-09 -1.1950347e-09 -0.0027191713 1.10063327e-10 1.9654858e-10
-3.2319098e-05 6.288433e-10 1.7046542e-09 -7.741577e-10 1.5633231e-09 0.00026517094 -2.3218026e-11 -0.005902246
8.23889e-05 -1.6487267e-09 -4.875358e-10 -8.2401e-11 -4.7523085e-10 5.92249e-10 -1.4193805e-09 -4.863676e-10

transformer.layers.0.1.fn.fn.net.2.weight f4 [64, 64]
00000000: d55a eeb5 fe71 5db6 6c4c 1136 18cc 04ba
00000010: 56a1 4db5 dff9 b8b6 029a d62f 2281 72b7
00000020: d056 e2aa 8f5e 03b5 0cab 87b5 ca93 a039
00000030: 45a5 b1b4 8f24 72ba 4367 b4ac 22ef 29b9
00000040: c39b 62b1 ac54 2136 b0e4 0eb7 2481 533b
00000050: 80bd 1e36 eb54 e2b4 7630 3b3a e6f0 3d36
00000060: 28b2 1dbb ffe1 e8ba bed2 853b bb38 8a35
00000070: 1a36 f22c a182 ceb5 02f9 062d 1293 0a31
00000080: 442c fa34 1e69 f239 25b9 00b9 a32e 17b7
00000090: 1967 3e38 029c 10b6 149b 8bbb aa47 1635
000000a0: c3ad de36 ff42 4435 4a16 b333 07c0 e7b7
000000b0: f6f9 9cb4 1be1 48b8 d94d cdba ffcc 1e34
000000c0: a3f2 91af a0e8 08b6 1e16 52b4 cc0f fcb9
000000d0: d261 42b9 fbef f1b0 c2fa 4db7 1a1e d7b5
000000e0: 4e35 8c2e 5ae8 21b4 cd0c 80b6 f41d c7b3
000000f0: 37c4 4e39 c95c 85b7 4e75 01bb 8f31 5334
00000100: f9e9 62b5 d73e f13a af9c a835 2737 3434
00000110: f539 4032 68fa 8ab5 0dd8 f435 bd89 41b6
00000120: f04f 73bb 6f7f 59b3 1b5a e52f 97cd 8eba
00000130: 9ae0 40b5 aef6 cd37 1b2b 89b4 8a11 4fbb
00000140: f2d3 842f 9eb6 2c39 634e 803a e1e7 8b32
00000150: 31ba 01b7 397b d637 7e83 9fb4 bf53 3d3a
00000160: 1236 c82e e711 11b5 642b 4834 9615 04b5
00000170: c1ee b93b cbf1 f639 5c74 83ac 6f5a aeb6
00000180: cd9b bc33 3382 a42c 1d92 9aba 0076 7438
00000190: 355c 8bb7 4ef2 10b9 064a acb5 3730 b139
000001a0: fbeb c4b4 1114 b73b d4ba 30ba a1c1 2db7
000001b0: fc1c 4f35 968c a5b8 baca db3a b8ca 9b38
000001c0: 5924 b83a cac6 1638 1df7 90b1 83df 553a
000001d0: d259 97b7 2626 aa2e 52a7 4733 cecc 4c36
000001e0: ad3f 5f35 a05d b138 cb4c a43a 19d6 44b6
000001f0: 563c 142b bbaa 93ba c752 8634 a03c 87ba
00000200: f43c 5a39 8361 67b5 2aa1 6cb5 58b9 3d39
00000210: 912a 473b 4e17 8b39 ea0d ad33 3c8d 2e2c
00000220: 823f 782b 8d16 682c 6acc dbb0 9b81 2cb4
00000230: ae41 a8b6 b299 b2b9 f024 3c2b 73c4 b2b5
00000240: efd9 b836 2e76 5eb4 9f7a 1db3 bf10 0bba
00000250: ddcb e136 6be5 e4ab e639 1b2e 69a9 413b
00000260: ed79 fa39 962e 50bb 4a15 9db5 0c73 a933
00000270: 79cd f52b c100 b62e 249c d82b 40da 303a
00000280: bc05 a3b5 a838 3e38 442b 9bb5 88a0 7c37
00000290: 9637 e22f 7f83 dd32 bc41 ab38 da76 15b7
000002a0: 6595 63bb ed1b 333b bb81 84b4 7e82 ee33
000002b0: 1f9e f934 2686 8634 f838 2031 ffac c53b
000002c0: cfe4 48ad 7420 9fb8 a274 1634 4e45 2639
000002d0: 823c af36 47e4 9daf 4ca7 84ae 9043 3e37
000002e0: e741 9b2d 6589 3bb1 1d6d ed2b 2fa2 b036
000002f0: ab81 1a31 3849 05b9 0ca9 b8b8 aef2 e4b3
00000300: 70db 13b7 8924 9e34 2af2 ad2c 9003 812d
00000310: be40 3737 2b2f 8d2a 9c25 70ad 625b a52c
00000320: 7bbe 9b3a b815 75aa d789 902c cdac 7dab
00000330: ab33 3c2c c100 4cad e18e 83ab 3fd6 99ac
00000340: fe8b 7639 4e4c 142b ddcb 142c 084b c72c
00000350: f2cd 652b 1202 8b2c 8a40 042f a1f0 2e3a
00000360: 1605 12ac 7cfa 99af 59e8 c8ab cd52 05ac
00000370: 94b9 d8ab 5feb 9d2b b881 72b9 2a65 c129
00000380: 1a47 e7ac ec68 ce2e 1cda 4a2c 59a8 3837
00000390: 488c 6db6 344f 8d2c 299a 7a2c f994 36ac
000003a0: 67b8 b62c b20a ad2b d657 3f2c 55e8 353b
000003b0: 770f efb8 ecd6 dbba f931 a72b ca51 69a9
000003c0: 9fbc 4faf 3a15 aa2c 4634 edb7 2653 822c
000003d0: ec48 272d 297a efaf 9d7a d22c 6d8b 7830
000003e0: 4c7d 9739 3d51 ce3a e48d ee2c b30f b7ac
000003f0: f5a8 b22d 66f2 7dac 0a3b a43a 64a0 1cad
-1.7758817e-06 -3.2997918e-06 2.1651167e-06 -0.0005065813 -7.6603226e-07 -5.512716e-06 3.9035802e-10 -1.445439e-05
-4.0205903e-13 -4.8938904e-07 -1.0108065e-06 0.0003062769 -3.3089069e-07 -0.0009237015 -5.127372e-12 -0.0001620618
-3.2975869e-09 2.4040155e-06 -8.517105e-06 0.0032273019 2.3654138e-06 -4.2157566e-07 0.0007140705 2.8303416e-06
-0.0024062488 -0.0017767547 0.0040839603 1.0298312e-06 6.88406e-12 -1.5386214e-06 7.672309e-12 2.0165243e-09
4.6598336e-07 0.00046236155 -0.00012276003 -9.01116e-06 4.5395547e-05 -2.154848e-06 -0.00426043 5.598364e-07
6.636344e-06 7.311318e-07 8.3393914e-08 -2.7626766e-05 -2.9239135e-07 -4.789336e-05 -0.0015663459 1.4789474e-07
-2.654775e-10 -2.0400985e-06 -1.956582e-07 -0.00048076955 -0.00018537723 -1.7603264e-09 -1.2277336e-05 -1.6027509e-06
6.375932e-11 -1.5078822e-07 -3.8161875e-06 -9.272108e-08 0.00019718787 -1.5898042e-05 -0.0019753757 1.9668936e-07
-8.4532036e-07 0.0018405569 1.2562576e-06 1.678387e-07 1.1189049e-08 -1.0354679e-06 1.8242296e-06 -2.8839415e-06
-0.0037126504 -5.064015e-08 4.171888e-10 -0.0010895011 -7.185241e-07 2.4552774e-05 -2.5549602e-07 -0.0031596147
2.4161256e-10 0.00016471228 0.0009788986 1.6287176e-08 -7.73235e-06 2.5568168e-05 -2.971173e-07 0.0007222257
9.104552e-11 -5.404276e-07 1.8642237e-07 -4.9205244e-07 0.0056742136 0.00047100926 -3.7361624e-12 -5.196132e-06
8.782772e-08 4.6756154e-12 -0.0011792813 5.828403e-05 -1.6613028e-05 -0.00013823176 -1.2836542e-06 0.00033795994
-3.6679543e-07 0.005587109 -0.0006741707 -1.0356686e-05 7.7155687e-07 -7.893999e-05 0.0016768791 7.428735e-05
0.0014048918 3.5947924e-05 -4.219045e-09 0.0008158611 -1.8042429e-05 7.7374815e-11 4.6485475e-08 3.051758e-06
8.3166634e-07 8.457457e-05 0.0012535093 -2.9330897e-06 5.2663895e-13 -0.0011266092 2.5019673e-07 -0.001031775
0.00020812807 -8.6196104e-07 -8.8151376e-07 0.0001809349 0.0030390362 0.0002652951 8.058471e-08 2.4805288e-12
8.8195434e-13 3.2981701e-12 -1.5992445e-09 -1.6065898e-07 -5.0144363e-06 -0.00034065318 6.684228e-13 -1.3319208e-06
5.508998e-06 -2.0718355e-07 -3.6665934e-08 -0.00053049246 6.7292553e-06 -1.6264051e-12 3.5294344e-11 0.002955044
0.00047774558 -0.0031766049 -1.1703607e-06 7.890603e-08 1.7465327e-12 8.276536e-11 1.5391061e-12 0.0006746389
-1.2146115e-06 4.5352295e-05 -1.1560992e-06 1.5057747e-05 4.1148657e-10 2.5787584e-08 8.1661594e-05 -8.908764e-06
-0.0034726497 0.0027329877 -2.4681307e-07 1.1106475e-07 4.6494912e-07 2.505705e-07 2.3315447e-09 0.0060325856
-1.14194895e-11 -7.587756e-05 1.401227e-07 0.00015856812 5.2224505e-06 -2.8720334e-10 -6.032383e-11 1.1340613e-05
1.7650726e-11 -2.7290181e-09 1.6870148e-12 5.2640894e-06 2.2483657e-09 -0.00012711145 -8.805291e-05 -1.06612205e-07
-8.812975e-06 2.9456376e-07 4.9438413e-12 1.4667184e-11 1.0922724e-05 2.507936e-13 -1.36507715e-11 4.6997276e-12
0.0011882329 -2.1767906e-13 4.1080295e-12 -9.0123465e-13 2.6745088e-12 -1.1596225e-11 -9.347767e-13 -4.3723076e-12
0.0002351254 5.2686056e-13 2.1145232e-12 5.6642503e-12 8.164295e-13 3.9508475e-12 1.2028259e-10 0.000667343
-2.0750671e-12 -2.8008518e-10 -1.4275344e-12 -1.89464e-12 -1.5399231e-12 1.122085e-12 -0.00023127242 8.588471e-14
-6.5733087e-12 9.386433e-11 2.8827002e-12 1.1006451e-05 -3.5397406e-06 4.0162543e-12 3.5612713e-12 -2.5946452e-12
5.193224e-12 1.2295358e-12 2.7191491e-12 0.002775689 -0.000113992886 -0.0016772426 1.1879934e-12 -5.1807334e-14
-1.8893552e-10 4.8340472e-12 -2.8276943e-05 3.7040536e-12 9.509043e-12 -4.3560647e-10 5.982172e-12 9.042001e-10
0.00028894318 0.0015740764 6.78012e-12 -5.202916e-12 2.0311289e-11 -3.608802e-12 0.0012529802 -8.903187e-12

transformer.layers.0.1.fn.fn.net.2.bias f4 [64]
00000000: a94f 3f31 50ec bfb2 7931 bd32 d21e ce31
00000010: 0464 3eb3 a62f 85b1 f783 8c34 c411 e432
00000020: f188 1bb3 2ed3 92b2 ace9 0332 9cae ffb3
00000030: 620e 79b1 004b cdb2 c3a7 1fb4 3f25 3a32
00000040: 794f c832 4d54 b933 5c28 1633 d561 32b3
00000050: cd90 3e32 143a 97b1 c2dc 7fb3 47df 6bb3
00000060: b658 e232 aa74 fe33 b9df dfb3 97bf f5b0
00000070: 7a69 0fb3 8c4d 88b2 a779 a631 c359 1232
00000080: b3e8 c733 8301 3733 6dc0 a631 cf7f 8e33
00000090: 7277 0e33 e038 0233 3db7 1ab2 bd1c d7b1
000000a0: 473b 02b4 31ea b4b2 8d79 7933 5719 a1b2
000000b0: ad29 c1b3 f3f6 b831 e7ab 23b3 4a25 01b3
000000c0: d9ce 0934 5e81 59b3 3b4e 07b0 a3df 0bb3
000000d0: 373b 662f c746 c9b1 89a9 7db3 7ac1 1f31
000000e0: bfbd 5133 327b 03b4 0fba 88b3 6b16 8fb2
000000f0: c9a7 acb2 48df 2132 435b 6133 5d6f 6cb3
2.783944e-09 -2.2342789e-08 2.2024993e-08 5.998893e-09 -4.4328786e-08 -3.8762265e-09 2.617305e-07 2.6550772e-08
-3.6213297e-08 -1.709267e-08 7.678334e-09 -1.1906124e-07 -3.6242445e-09 -2.3899247e-08 -1.486906e-07 1.0835094e-08
2.3319204e-08 8.630068e-08 3.4961303e-08 -4.1532832e-08 1.10923795e-08 -4.401281e-09 -5.9572592e-08 -5.491827e-08
2.6350204e-08 1.1849018e-07 -1.04249416e-07 -1.7880549e-09 -3.3390712e-08 -1.5867748e-08 4.845066e-09 8.518728e-09
9.3089874e-08 4.2609383e-08 4.853112e-09 6.6356385e-08 3.3170586e-08 3.031971e-08 -9.005643e-09 -6.2605907e-09
-1.2128758e-07 -2.1061256e-08 5.808538e-08 -1.875439e-08 -8.9948436e-08 5.3831797e-09 -3.810774e-08 -3.0069067e-08
1.283437e-07 -5.064191e-08 -4.9223886e-10 -3.2566856e-08 2.0939415e-10 -5.8579164e-09 -5.9060344e-08 2.3247524e-09
4.8834178e-08 -1.2245144e-07 -6.3668374e-08 -1.6657586e-08 -2.0099735e-08 9.422202e-09 5.2469897e-08 -5.5049316e-08
