model_training/trained_models/model_145_ViT_700_early_stopping.pth (torch, 173192 bytes, 16 tensors)

patch_to_embedding.weight f4 [64, 192]
0.0001389469 -2.782185e-20 1.3352393e-05 7.3937965e-12 -4.454432e-21 -1.1285814e-22 -4.62759e-08 -3.4615837e-21
-8.37947e-31 -5.092606e-08 -7.045745e-08 2.0451737e-06 0.0014116052 0.01263206 1.2914267e-08 -5.2622434e-11
-1.5011148e-08 -3.6062392e-10 -1.5656124e-09 -0.0023775233 -0.005786036 6.371174e-08 -0.0044612205 -2.3653024e-22
-2.4250493e-12 -1.1891812e-08 1.2138455e-14 2.7560336e-09 -8.227293e-08 -1.4698481e-12 -6.291027e-09 -1.6091242e-29
6.8332534e-10 -2.3175762e-13 3.0867748e-30 6.857596e-22 9.853421e-09 -0.00026151672 1.4176408e-05 0.00019839894
6.461219e-06 8.41193e-08 -3.3077438e-06 2.3182314e-07 -5.837026e-07 2.6434702e-07 -0.0005649864 -7.713196e-06
1.5563373e-08 -6.8658764e-08 4.457152e-09 -2.0197963e-09 1.5286444e-07 3.793998e-14 7.520005e-12 -7.682789e-31
-0.0010199402 1.0440133e-17 0.0047515593 5.9366823e-08 1.7035278e-05 -1.9293875e-08 4.546318e-31 8.054432e-11
-1.0389567e-10 0.010405853 5.670322e-30 -9.3093564e-07 3.4124398e-10 -3.0551022e-12 -3.997842e-12 1.3048238e-14
1.7146335e-11 -2.6836058e-05 4.78009e-21 -2.3233935e-09 -1.1477429e-07 4.771435e-08 -8.5669694e-07 1.2460929e-31
-8.70854e-07 1.6900686e-14 -2.1984295e-05 -0.00014217492 9.6932835e-09 6.536443e-11 1.400944e-26 4.285478e-09
1.3874664e-14 -1.14879e-22 9.020235e-08 1.01689244e-29 -7.406338e-08 -1.4878483e-09 -8.389483e-31 -1.1587729e-22
2.2107686e-08 7.559775e-07 -6.2457834e-15 3.3345835e-08 0.006073919 -0.00039188718 -6.8361534e-24 6.7795185e-07
6.470165e-27 5.458885e-14 3.2948952e-07 -3.187087e-08 -1.6980321e-08 4.176834e-17 -1.4999766e-12 3.986913e-19
1.268558e-05 -6.0997374e-10 4.7583768e-08 1.76362e-30 -5.611645e-18 1.0355642e-10 0.000104297425 2.5767537e-08
0.0002256793 -1.5770208e-11 1.0172482e-07 7.4927904e-14 6.5491037e-18 -1.02587e-08 1.9278341e-20 -4.7833433e-15
7.604057e-05 -3.0594529e-06 9.450706e-11 -2.0764025e-08 2.2411484e-07 5.0358023e-10 -4.4327394e-20 2.5550076e-05
-1.8117443e-22 -1.8486828e-08 -3.1030453e-05 1.2211548e-06 6.6982545e-16 -1.6436753e-09 -9.120566e-11 -3.724831e-07
-3.2252478e-13 4.3221963e-08 1.7082814e-07 2.8996064e-18 -5.978226e-10 -0.0056727733 -4.7440887e-13 -5.191311e-29
-3.9791434e-08 2.1325457e-10 -1.7526302e-08 -2.8013023e-05 4.6001978e-07 -2.1036611e-13 2.4236212e-07 -6.951809e-08
-8.885668e-22 -3.1070943e-08 6.930821e-11 -1.0995086e-30 4.2579095e-06 -3.0671226e-11 -4.6243884e-09 -8.407399e-21
-3.3734698e-10 -6.950804e-06 -1.0552542e-06 -2.3274143e-18 1.2003714e-18 1.7213204e-21 -5.0437262e-05 2.4564741e-08
-5.513753e-07 -7.20223e-08 -8.570691e-09 7.4682785e-06 -0.0012467473 3.2880078e-30 -1.2351652e-05 4.954969e-13
1.6731077e-27 -2.7715146e-08 -1.9505736e-11 4.188318e-09 2.3907286e-11 -1.4996747e-06 -1.0770253e-07 4.3482334e-08
2.833584e-15 -3.740515e-18 -1.1750189e-17 -4.3574e-05 -2.0539813e-18 -0.00015507707 -3.083301e-23 -1.6091388e-26
1.5717246e-06 1.1473868e-14 6.965145e-16 -2.7407059e-14 -6.9935962e-12 -3.6691704e-12 -3.6836745e-08 -1.7634515e-18
-2.5253457e-23 -7.22829e-22 -1.2986635e-09 -1.9050297e-23 -1.0915259e-17 -1.824534e-08 8.3218855e-11 1.3432128e-22
-3.252979e-11 -2.6954328e-06 1.10219034e-07 -1.4547466e-26 -3.2653912e-13 -2.619058e-19 -7.856671e-18 -1.2714998e-12
-1.7777929e-31 1.2471794e-07 2.4863739e-17 -2.7894993e-13 -5.2063236e-08 -1.4125057e-20 4.2321685e-07 -3.2655516e-13
2.3086182e-08 -1.0386e-05 0.00018114658 -1.9306928e-22 -1.8076636e-29 1.0748084e-14 -1.2078307e-08 -0.0003856815
3.5063472e-13 7.16476e-21 -1.1964353e-31 -1.461252e-17 1.4217854e-21 4.627564e-18 9.09864e-18 -2.0722219e-18
-2.0299204e-20 1.9821832e-06 1.3070017e-17 1.7084315e-17 1.333189e-11 2.1163418e-11 3.0019282e-11 2.1161578e-18
00000000: 46b2 1139 8e62 039f 1704 6037 b312 022d
00000010: 9f48 a89d e76f 089b e4c0 46b3 62c6 829d
00000020: f5f6 878d ccb9 5ab3 654e 97b3 d13f 0936
00000030: 9c05 b93a b3f6 4e3c 8cdd 5d32 986f 67ae
00000040: ddf1 80b2 4e41 c6af 172d d7b0 39d0 1bbb
00000050: ca98 bdbb e6d1 8833 6e2f 92bb 48f9 8e9b
00000060: cea5 2aac be4c 4cb2 beaa 5a28 a864 3d31
00000070: 06ae b0b3 dcdc ceab 7528 d8b1 412f a38f
00000080: bfd4 3b30 cb77 82aa ce6d 7a0e 1442 4f1c
00000090: ce47 2932 2e1c 89b9 35d7 6d37 4f09 5039
000000a0: 73cd d836 13a5 b433 9bfa 5db6 0feb 7834
000000b0: bdaf 1cb5 94eb 8d34 981b 14ba ed67 01b7
000000c0: 38b0 8532 8e71 93b3 8625 9931 a2cc 0ab1
000000d0: 0f23 2434 d2dd 2a29 174b 042d 1d52 798d
000000e0: 84af 85ba 2296 4023 f8b2 9b3b 83fa 7e33
000000f0: fbe6 8e37 aebb a5b2 5589 130d 6c1e b12e
00000100: 1078 e4ae 507d 2a3c fd03 e60e 69e5 79b5
00000110: d299 bb2f d4fb 56ac 5ca9 8cac 600e 6b28
00000120: 1dd2 962d ff1d e1b7 3296 b41d 92a9 1fb1
00000130: d579 f6b3 7cee 4c33 c4f7 65b5 8ac0 210c
00000140: a2c4 69b5 543a 9828 ea6a b8b7 ca14 15b9
00000150: 8387 2632 e7bc 8f2e 26be 8a14 773f 9331
00000160: 98f1 7928 54e1 0a9b 44b5 c133 1340 4e0f
00000170: c60c 9fb3 027d ccb0 8d20 888d 4916 0c9b
00000180: 51e7 bd32 61ee 4a35 2f07 e1a7 2238 0f33
00000190: ba07 c73b 3576 cdb9 fe3a 0499 7ffc 3535
000001a0: a227 0014 a9d8 7529 b2e4 b034 64e2 08b3
000001b0: 1fdc 91b2 5a9f 4024 5a1a d3ab 8758 eb20
000001c0: 27d4 5437 16ab 27b0 e85e 4c33 f414 0f0e
000001d0: 7d08 cfa2 15b9 e32e 41ba da38 6a57 dd32
000001e0: 53a4 6c39 5ab7 8aad d073 da33 ffb8 a829
000001f0: 899e f122 3d3e 30b2 2b14 b61e 8e56 aca7
00000200: f877 9f38 0051 4db6 bfd2 cf2e 935c b2b2
00000210: 38a4 7034 4f6c 0a30 8854 519f 5f54 d637
00000220: c506 5b9b f7cc 9eb2 b226 02b8 8fe6 a335
00000230: 6510 4126 afe7 e1b0 3990 c8ae b0f9 c7b4
00000240: b890 b5aa 0da3 3933 e26c 3734 04f4 5522
00000250: 0754 24b0 ace2 b9bb c388 05ab 899d 8390
00000260: 25e7 2ab3 d379 6a2f bf8c 96b2 82fd eab7
00000270: a3f8 f634 e7d9 6caa ff1d 8234 f949 95b3
00000280: c346 869c dd72 05b3 0e69 982e cd67 b28d
00000290: 2adf 8e36 bbe4 06ae 8de4 9eb1 b0cf 1e9e
000002a0: 5e75 b9af f43a e9b6 42a2 8db5 9dbb 2ba2
000002b0: c024 b121 2e0f 021d 998c 53b8 7002 d332
000002c0: 3902 14b5 aeaa 9ab3 4c3e 13b2 0698 fa36
000002d0: e669 a3ba a060 850e f139 4fb7 5178 0b2b
000002e0: a88e 0413 4012 eeb2 0393 abad d6e8 8f31
000002f0: 6c4a d22d 6e48 c9b5 184a e7b3 55c1 3a33
00000300: 662e 4c27 2a00 8aa2 b3c0 58a3 3ac3 36b8
00000310: 9c8e 17a2 2f9c 22b9 6b19 159a 845c 9f94
00000320: 0cf4 d235 e0b1 4e28 b3c1 4826 60dc f6a8
00000330: b710 f6ac f318 81ac 6e36 1eb3 a81e 02a2
00000340: 883c f499 2f76 5a9c a97c b2b0 403e b899
00000350: da59 49a3 edb9 9cb2 0d00 b72e 6c62 221b
00000360: 4a11 0fae 2fe3 34b6 8eb1 ec33 3512 9094
00000370: 3fd3 b7aa 169a 9aa0 14ee 10a3 9cf2 b2ab
00000380: 4dc5 668c 35ea 0534 d853 e523 ec08 9daa
00000390: 229c 5fb3 4b68 859e 7b36 e334 8fd5 b7aa
000003a0: 0d4f c632 883f 2eb7 2af2 3d39 0c68 699b
000003b0: a151 b78f ca9e 4128 f580 4fb2 4b35 cab9
000003c0: ca63 c52a a756 071e 624e 1b8c d6c6 86a3
000003d0: a9da d61c 1bba aa22 1dd7 2723 2ae7 18a2
000003e0: 77b8 bf9e a605 0536 6919 7123 3393 9d23
000003f0: 7f89 6a2d c827 ba2d b506 042e 1725 1c22

patch_to_embedding.bias f4 [64]
0.0011765715 2.7872393e-31 -2.5718237e-31 -4.9595855e-07 -1.4659513e-30 2.2943173e-19 -7.043615e-06 -9.200013e-09
-9.099421e-06 -2.0871778e-09 2.402939e-30 -1.1081051e-30 -1.9550013e-30 -1.0258733e-29 3.9703245e-13 1.622496e-20
7.4943296e-10 1.0537826e-21 3.324296e-16 1.4586155e-07 1.7839572e-20 1.5999601e-22 -2.6282411e-08 3.0594257e-22
2.4797902e-25 -2.8625943e-10 6.2034544e-12 0.004473986 -1.02170915e-07 7.466844e-13 3.8786075e-21 -2.9200557e-08
9.267602e-05 -3.0698662e-11 1.8368656e-08 -4.161995e-07 1.1793405e-06 -0.01050266 3.40443e-14 -0.0037446488
-1.3731117e-30 1.5014417e-05 1.7501381e-10 -8.318903e-31 9.005097e-11 -3.3032379e-31 2.4794587e-20 1.1317691e-08
8.929841e-20 -4.257093e-15 -3.812495e-16 -9.495028e-15 -3.433488e-06 1.4063861e-13 -1.28854e-31 -1.855501e-29
-3.6928023e-31 2.8897295e-12 3.6598861e-31 -4.4171293e-09 -4.8371414e-31 -1.9905661e-30 -5.2053285e-14 6.402405e-05
00000000: 3037 9a3a f5e6 b40c c0eb a68c 0322 05b5
00000010: 3cdd ed8d be6e 8720 3158 ecb6 160e 1eb2
00000020: b7a9 18b7 056e 0fb1 17f3 420e e3cc b38d
00000030: ca9b 1e8e 6312 508f 6882 df2a 8c3d 991e
00000040: a800 4e30 3d3e 9f1c f3a1 bf25 1e9e 1c34
00000050: 707d a81e 5e6c 411b a2c3 e1b2 52ee b81b
00000060: d87d 9916 6f5f 9daf c043 da2c 849a 923b
00000070: 0e69 dbb3 482c 522b 9787 921d b4d4 fab2
00000080: 0f5b c238 9f03 07ae 1ac9 9d32 0672 dfb4
00000090: d549 9e35 5913 2cbc 6852 1929 c868 75bb
000000a0: d4cc de8d 6ee6 7b37 026e 402f 5ffb 868d
000000b0: 3006 c62e 7464 d68c a22d ea1e bb6f 4232
000000c0: 94d9 d21f c160 99a7 7fc6 dba5 160c 2ba8
000000d0: e06a 66b6 5258 1e2a 1643 278c 8f2b bc8f
000000e0: 34ad ef8c bd58 4b2c 4a8a ed0c 7bc5 97b1
000000f0: 66f9 1c8d 717e 218e 5a6d 6aa9 a644 8638

transformer.layers.0.0.fn.norm.weight f4 [64]
5.715119e-17 7.8381034e-17 -2.618902e-18 8.45763e-17 9.732338e-18 4.0504073e-16 4.6809576e-18 -2.0632803e-16
3.5826537e-16 -2.6240477e-16 -1.9024652e-16 -3.483428e-18 5.525927e-17 7.3096487e-16 8.842857e-19 -1.3909523e-17
-7.095417e-17 2.5608838e-18 -2.3824477e-16 -2.7403967e-16 -4.0401214e-16 -4.730933e-18 -9.224923e-17 1.2531469e-17
-3.7140693e-16 -3.6795505e-17 -3.162588e-17 1.6247892e-18 -4.6853412e-18 -5.3772666e-17 9.60075e-17 7.8167724e-18
-2.0415278e-16 -3.6395795e-17 -5.969076e-17 -5.6235656e-17 -1.8777423e-17 2.0976795e-16 -2.2289908e-16 -1.9301775e-16
4.8320223e-18 -4.7273283e-17 1.3141346e-16 -8.668572e-17 3.9935486e-18 1.6443173e-17 1.8152938e-16 3.8453966e-17
-4.388706e-17 -1.0011451e-16 1.1187587e-16 8.529849e-16 -1.0278063e-16 1.8903684e-17 -9.353596e-17 -2.0896848e-16
2.548066e-18 -1.5815603e-18 -2.4667864e-17 -1.1038591e-17 4.068805e-17 4.7539817e-17 2.2597145e-16 -5.743864e-17
00000000: 1cc8 8324 ffbb b424 a93d 41a2 0905 c324
00000010: ab87 3323 767d e925 65b2 ac22 49e1 6da5
00000020: a386 ce25 1c44 97a5 dd56 5ba5 0c84 80a2
00000030: a2d6 7e24 b0af 5226 5f7f 8221 ef4a 80a3
00000040: f39b a3a4 baf5 3c22 b956 89a5 1ef9 9da5
00000050: abe5 e8a5 668a aea2 55b6 d4a4 302a 6723
00000060: fd19 d6a5 77b0 29a4 40d9 11a4 cdc6 ef21
00000070: ccdb aca2 8ffb 77a4 d360 dd24 aa31 1023
00000080: 445f 6ba5 92d8 27a4 35a3 89a4 acab 81a4
00000090: f030 ada3 92d8 7125 197e 80a5 c988 5ea5
000000a0: 2945 b222 7102 5aa4 6882 1725 38e2 c7a4
000000b0: 0056 9322 58a9 9723 044a 5125 6e56 3124
000000c0: b264 4aa4 2dd9 e6a4 eefb 0025 2ddb 7526
000000d0: fafe eca4 105b ae23 e3ad d7a4 9cec 70a5
000000e0: 9b03 3c22 a965 e9a1 5985 e3a3 46a0 4ba3
000000f0: f9a3 3b24 1c3d 5b24 8043 8225 ca71 84a4

transformer.layers.0.0.fn.norm.bias f4 [64]
-1.4816478e-14 -9.603562e-15 -4.70575e-15 2.9479061e-09 -2.612655e-14 1.8498626e-13 2.0226012e-13 -1.1784653e-09
-9.92284e-07 1.2826681e-10 -6.872644e-14 -4.5571067e-08 -1.487612e-08 2.594333e-14 -0.0024099816 1.0587662e-05
1.077042e-11 8.072799e-09 6.542079e-14 -9.375211e-05 1.4060499e-05 1.0521149e-14 8.816277e-13 1.7535781e-14
1.3161338e-13 -4.4906098e-13 -3.8206853e-15 4.7325933e-15 7.349907e-15 -8.43131e-07 -2.6017284e-14 -2.131359e-15
0.00056454923 1.0213203e-14 3.6580277e-11 1.2161272e-06 4.5868757e-05 4.0890284e-11 6.35126e-14 -2.5960903e-10
6.2145116e-09 -1.1034062e-07 -2.4787225e-13 0.0080027655 4.308721e-14 -8.374203e-15 -7.7342893e-10 -7.215867e-14
1.511533e-14 1.7843492e-09 5.1897868e-14 8.13067e-06 -4.54892e-13 -0.0029387663 1.5532025e-14 -2.4670297e-13
-3.4313446e-12 7.730621e-12 -9.025468e-14 0.00010105559 3.7366587e-15 3.5432642e-15 2.8937192e-10 6.896085e-13
00000000: 7974 85a8 9d00 2da8 e28a a9a7 1d94 4a31
00000010: b953 eba8 a946 502a 83b9 632a 90f7 a1b0
00000020: 9e2e 85b5 e607 0d2f 18c2 9aa9 ebb9 43b3
00000030: de91 7fb2 3fad e928 c8f0 1dbb a9a1 3137
00000040: a979 3d2d 8cb0 0a32 8550 9329 c89c c4b8
00000050: 62e5 6b37 3c88 3d28 f927 782b c2f2 9d28
00000060: f92e 142a 82cc fcaa 9aa7 89a7 7882 aa27
00000070: 7767 0428 8553 62b5 c657 eaa8 a294 19a7
00000080: 42fe 133a 16fc 3728 bbe1 202e d039 a335
00000090: 3463 4038 5ed6 332e 8504 8f29 b9b8 8eaf
000000a0: 6c87 d531 66f4 ecb3 288a 8baa 081e 033c
000000b0: 2c0c 4229 32db 16a8 3999 54b0 a47c a2a9
000000c0: 9425 8828 353d f530 2bba 6929 f668 0837
000000d0: 6c0a 00ab 5198 40bb 69e6 8b28 a5e1 8aaa
000000e0: 9c75 71ac 9fff 072d 483c cba9 cfed d338
000000f0: 98a0 8627 b051 7f27 7a15 9f2f 881b 422b

transformer.layers.0.0.fn.fn.to_qkv.weight f4 [192, 64]
2.37e-43 0.0004984796 -5.1523988e-20 6.732806e-39 2.19e-43 6.1996802e-06 -1.654e-42 -1.3701912e-38
-3.1154985e-38 -8.7074e-41 6.3970335e-10 -2.351569e-38 2.3466927e-37 4.65e-43 2.0940251e-11 -9.4174044e-36
-1.1075465e-14 8.772622e-38 -1.64496e-40 -7.765437e-12 6.552944e-33 1.2063332e-10 5.6e-44 1.2995128e-08
-6.49e-43 -7.23e-43 3.1608212e-13 2.517075e-21 2.8383049e-14 3.841284e-37 -1.2892716e-20 -4.2954844e-06
1.4604216e-34 4.6990397e-07 -2.1047128e-10 -1.0718488e-36 -4.1042177e-19 -1.695701e-12 -6.310515e-07 -2.8776005e-12
1.238409e-39 3.3435584e-20 -4.3859869e-10 -4.3986466e-33 5.9940026e-12 -8.0066536e-16 2.5566077e-38 1.3619645e-05
7.021743e-10 -2.2779486e-29 -4.3556813e-14 4.848261e-10 2.30722e-20 -2.1990706e-33 -6.29e-43 -5.8707135e-13
-8.896749e-20 -1.11534e-40 -2.9058434e-05 3.9622515e-36 4.0036852e-07 -6.03e-43 -5.911015e-11 1.15027784e-20
3.8101714e-23 5.59e-43 2.633393e-20 4.5754203e-10 4.834255e-16 -3.9529845e-11 2.9178e-41 4.858371e-07
-6.310564e-17 -9.735513e-39 -1.4044939e-16 -1.250165e-37 1.617559e-11 -3.32e-43 7.275325e-21 -1.5074678e-36
-8.243326e-15 -3.0079766e-13 -4.59772e-40 -1.2842272e-25 0.0019919353 2.4e-43 4.75e-43 -2.83e-43
6.91e-43 1.3347673e-13 -8.77338e-25 7.48e-43 -7.89e-43 -1.3037602e-13 -4.1e-43 8.09e-43
-9.839109e-37 2.7345692e-21 -1.5114973e-14 -5.290832e-39 1.7106604e-18 -6.4743162e-15 1.4e-43 -2.2877843e-38
1.9894264e-10 -2.599072e-16 7.55e-43 -1.6815358e-21 1.36e-43 2.9796224e-17 1.31655035e-36 -7.582767e-16
-9.539619e-16 -1.9709353e-37 3.7395995e-07 8.45457e-16 2.9262857e-33 2.0851383e-35 -8.323601e-09 -9.036877e-16
1.06901e-40 9.687941e-09 1.19e-43 0.009644659 6.307025e-15 3.7365427e-15 4.9449765e-22 -0.0010977754
-2.9064617e-09 1.5388802e-15 -5.42e-43 -7.857001e-20 7.327062e-15 2.73e-43 -1.113e-42 -2.857616e-39
-5.9399845e-05 2.1083558e-16 3.8167133e-07 1.3655398e-06 -1.8131121e-08 -3.4229924e-22 1.8798535e-05 -1.0247589e-37
2.8541082e-05 -2.766011e-16 -1.54346e-40 2.4877523e-37 2.083433e-37 0.009410381 1.85e-43 4.6206915e-06
-4.86e-43 2.6013058e-14 -4.34e-43 -7.6e-44 3e-45 6.817551e-22 -7.195829e-16 2.0593119e-10
2.2486356e-28 6.32e-43 -4.5515797e-10 6.044043e-39 -8.587031e-20 9.1058e-41 -1.1486717e-21 -1.7373097e-21
-8.242756e-24 -1.702652e-39 1.4093481e-18 -1.1510664e-15 -1.3789956e-24 -2.1102929e-07 -5.77517e-40 -2.9244305e-20
-9.172793e-06 1.060445e-39 -6.98e-43 -3.0572e-09 0.0035799227 1.9523496e-36 5.9e-44 1.1418343e-24
9.215616e-15 -2.0998249e-16 -1.9916435e-13 -2.079999e-05 6.085748e-09 -1.19e-43 -4.557825e-07 1.2765123e-15
1.9e-43 -2.5e-43 -1.49e-43 1.0264037e-37 -1.8225457e-08 1.9614676e-08 4.3810267e-09 -0.0001181659
1.1254822e-36 -3.682032e-39 -9.1573e-24 -1.8533848e-23 -4.1359373e-20 6.5535807e-15 -1.0068465e-38 1.0425801e-36
-4.34438e-40 1.2266868e-37 2.2660874e-23 2.088882e-38 1.1464365e-37 4.65e-43 1.448053e-07 2.4973066e-12
-0.00025006934 -1.767493e-09 3.53e-43 -1.64e-43 6.91e-43 -6.4716312e-09 7.379178e-21 5.35e-43
9.705773e-39 7.1914e-16 -4.84569e-40 5.205737e-06 6.951285e-13 1.66464e-40 2.2726982e-15 3.6557597e-11
-1.1844619e-37 -3.447324e-37 1.4673653e-18 1.7761045e-15 8.67e-43 -1.7723499e-16 -1.0700004e-12 2.45e-43
2.79e-43 -1.5271553e-06 -5.62e-43 -3.928274e-38 -5.31e-43 -2.725226e-38 -1.8145392e-30 1.5116159e-06
-9.913e-41 -0.00037061807 0.009292055 3.440952e-06 1.3208676e-14 4.776999e-09 1.7598747e-22 -7.963081e-17
00000000: a900 0000 66ac 023a ae50 739f 5350 4900
00000010: 9c00 0000 d906 d036 9c04 0080 5b33 9580
00000020: b69f 2981 baf2 0080 1fd7 2f30 1708 0081
00000030: 27b5 9f02 4c01 0000 4131 b82d 3a49 4885
00000040: 9184 47a8 41d0 ee01 8cca 0180 6b9c 08ad
00000050: 6d19 080a 43a3 042f 2800 0000 2d41 5f32
00000060: cf01 0080 0402 0080 3cf0 b12a 502f 3e1d
00000070: dba6 ff28 4eb6 0203 5989 739e ee21 90b6
00000080: 921f 4207 1c47 fc34 666a 67af 995d b683
00000090: 2f45 f2a0 11a6 eeab 8765 29b5 3e7e 4aac
000000a0: 2e7c 0d00 24e5 1d1f 471f f1af 6fb6 b689
000000b0: 2de5 d22c adc6 66a6 e931 0b01 ee7f 6437
000000c0: 2003 4130 ed02 e78f 9629 44a9 9b44 0530
000000d0: 28e9 d91e 0fb1 3689 c101 0080 f33e 25ab
000000e0: 8c11 d29f e936 0180 83c2 f3b7 1989 a804
000000f0: 3bf2 d634 ae01 0080 0efc 81ae 0648 591e
00000100: a33f 381a 8f01 0000 89b7 f81e 5189 fb2f
00000110: 8256 0b26 a6da 2dae 5651 0000 796a 0235
00000120: ff82 91a4 a602 6a80 58ed 21a5 e429 2a82
00000130: 3148 8e2d ed00 0080 506d 091e be3d 0084
00000140: a27f 14a8 8355 a9aa a801 0580 c9fa 1e96
00000150: 218b 023b ab00 0000 5301 0000 ca00 0080
00000160: ed01 0000 0c48 162a f0c2 8797 1602 0000
00000170: 3302 0080 54ca 12aa 2501 0080 4102 0000
00000180: 5d67 a783 439e 4e1d c124 88a8 b09c 3980
00000190: ec72 fc21 0743 e9a7 6400 0000 1e1e f980
000001a0: 60bd 5a2f 88d3 95a5 1b02 0000 441b fe9c
000001b0: 6100 0000 2c69 0924 dbff df03 f28e 5aa6
000001c0: fb7a 89a6 8922 8682 aac4 c834 b7af 7326
000001d0: 371b 7309 ddba dd05 96ff 0eb2 313c 82a6
000001e0: ff29 0100 0470 2632 5500 0000 a204 1e3c
000001f0: 0a3c e327 869f 8627 e773 151c 3be3 8fba
00000200: 04bb 47b1 a9c6 dd26 8301 0080 a884 b99f
00000210: 1cfe 0328 c300 0000 1a03 0080 df1d 1f80
00000220: 1924 79b8 ae13 7325 82e8 cc34 9747 b735
00000230: c2be 9bb2 3ee8 ce9b 8cb1 9d37 a37b 0b82
00000240: 826b ef37 1e73 9fa5 41ae 0180 c24e a902
00000250: 86ca 8d02 002e 1a3c 8400 0000 700b 9b36
00000260: 5b01 0080 074e ea28 3601 0080 3600 0080
00000270: 0200 0000 3f0c 4e1c d967 4fa6 7a6c 622f
00000280: 3386 8e11 c301 0000 ca39 faaf 55d0 4100
00000290: 6bc1 ca9f d5fd 0000 1695 ad9c 7544 039d
000002a0: 2770 1f99 4d8a 1280 aafb cf21 dbe2 a5a6
000002b0: a563 d597 4a97 62b4 e249 0680 321a 0a9f
000002c0: d9e4 19b7 178c 0b00 f201 0080 d516 52b1
000002d0: 239d 6a3b 6916 2604 2a00 0000 b7b0 b017
000002e0: 8703 2628 e417 72a5 373d 60aa a37b aeb7
000002f0: ce1a d131 5500 0080 45b2 f4b4 fef6 b726
00000300: 8800 0000 b200 0080 6a00 0080 f3b4 0b02
00000310: 348e 9cb2 217d a832 eb87 9631 d6cf f7b8
00000320: aa7d bf03 0218 2880 c120 3199 963f b399
00000330: 6a50 439f 1d1e ec27 c9a2 6d80 c562 b103
00000340: 09bb 0480 ccf7 2602 9b29 db19 8875 e300
00000350: 7b0b 1c02 4c01 0000 c77b 1b34 7abb 2f2c
00000360: bd1b 83b9 22ec f2b0 fc00 0000 7500 0080
00000370: ed01 0000 125d deb1 8463 0b1e 7e01 0000
00000380: bfaf 6900 2b47 4f26 c846 0580 f1ac ae36
00000390: 4aa9 432b 09d0 0100 e2c3 2327 32c8 202e
000003a0: 7938 2182 db9c ea82 7e8b d821 b1f6 ff26
000003b0: 6b02 0000 8956 4ca5 d496 96ab af00 0000
000003c0: c700 0000 a8f8 ccb5 9101 0080 26e0 5581
000003d0: 7b01 0080 1b60 1481 8136 138e bae2 ca35
000003e0: 5614 0180 844f c2b9 b43d 183c 1beb 6636
000003f0: 44f2 6d28 ed22 a431 7cc1 541b bc9d b7a4

transformer.layers.0.0.fn.fn.to_out.weight f4 [64, 64]
-7.22176e-17 -2.3006765e-16 -1.38141305e-17 -2.0364454e-14 6.7714355e-15 4.2224747e-06 6.758456e-17 -3.5482736e-21
3.7245146e-19 -1.2567653e-17 8.195565e-07 -3.944739e-17 -1.6393594e-15 -1.5802879e-16 2.723796e-14 2.2419705e-16
-2.991092e-14 6.350719e-16 2.1608216e-06 -3.628082e-21 -1.516921e-07 1.6390302e-11 -2.4967518e-14 -3.6672973e-05
-1.5397914e-09 6.4095137e-20 -1.383558e-16 -4.0653677e-16 -5.0316976e-14 -6.187601e-20 -1.4258802e-17 -5.9912976e-17
3.1507474e-11 3.744983e-16 -1.6062076e-17 -1.484427e-18 -0.0005242862 2.5263953e-08 -0.00873162 -1.3121791e-13
-3.248171e-13 7.638178e-17 -5.174729e-18 5.871676e-11 3.513237e-19 -4.1122858e-10 1.1893701e-07 0.00021146428
0.00034846485 3.71159e-20 -1.1015539e-17 -5.3749516e-10 -5.2509567e-15 2.9459757e-15 1.4614839e-13 -1.0895457e-12
-4.381947e-18 1.25863306e-17 9.296414e-18 -1.6890302e-17 -1.6147016e-16 -2.846283e-16 -2.3050806e-17 -5.620362e-12
1.0772172e-17 1.6509762e-18 -1.5670852e-18 -2.7732934e-15 2.5622137e-07 -1.2025135e-16 -4.984547e-18 -4.194257e-22
2.4075271e-20 -1.3205686e-20 -2.3033695e-16 3.3378671e-18 -4.4100415e-18 -6.7713088e-18 9.288188e-21 -2.97392e-17
1.6154091e-17 9.5925316e-08 4.6810296e-08 1.649959e-14 7.649124e-19 -3.1983587e-17 -1.5318396e-17 3.3283963e-15
8.905305e-11 -9.58008e-22 1.0365802e-18 -1.2445165e-07 -1.1078757e-18 1.1233443e-06 2.7550953e-10 -9.584162e-19
1.07260206e-19 -8.059778e-17 -1.586326e-19 5.812699e-10 -0.0018591429 -1.7335177e-18 1.7974466e-17 4.080445e-15
8.614602e-17 -9.344387e-10 3.3325176e-10 -2.950372e-07 5.156465e-19 1.3283147e-12 -1.3036857e-15 -7.1302434e-12
-1.687001e-24 9.468291e-07 -0.00022402884 -1.683315e-14 -5.192298e-16 -7.893223e-11 -4.3601813e-15 -3.857821e-05
-1.7797365e-06 -1.1671389e-08 3.8847627e-12 -1.3758773e-15 -2.0323285e-15 3.1042345e-17 1.145528e-19 -1.904944e-18
-1.9284306e-17 2.9715456e-18 4.105826e-06 2.2253778e-13 -8.9635965e-21 -1.617072e-16 1.9905395e-15 -1.7156962e-21
-1.6625324e-20 -1.7554323e-06 -2.3742788e-17 7.720011e-19 6.734145e-17 -1.4243036e-10 2.8224983e-06 -1.0002483e-16
-3.8271282e-05 3.9289104e-17 4.1497435e-12 -3.519657e-23 0.0014740415 1.0059437e-17 -4.5905257e-18 5.5073193e-18
1.4877387e-08 6.219593e-22 1.448433e-17 -5.0379726e-17 -3.3320577e-19 -2.6213678e-20 -1.5507845e-18 0.011391699
-1.7852024e-05 0.0005361488 2.4292364e-19 3.5048043e-19 -1.72762e-20 5.085818e-19 -4.6315845e-06 1.680006e-08
-4.9774814e-14 4.3271042e-18 -2.9558392e-19 -4.3971863e-17 -0.00047351065 -7.9601505e-21 2.1495517e-17 3.1937684e-06
-9.653718e-24 0.00016020106 -1.4971903e-08 -3.0440457e-08 3.0341652e-16 -1.07654746e-20 1.9769673e-14 -5.137977e-20
1.4524419e-19 -4.0431256e-10 -2.5400024e-18 5.121574e-21 -2.2655031e-17 5.033931e-17 2.144622e-06 -5.7006956e-19
2.5825535e-09 -9.67482e-17 -2.288539e-09 -2.9541484e-16 -2.8591372e-18 -4.9592983e-14 -5.3458526e-17 8.429387e-20
-2.1330412e-19 -2.0640934e-18 -2.6532344e-16 0.005175686 9.125612e-16 -1.4971294e-13 1.0518938e-19 -8.3374634e-16
3.3348336e-18 1.0651493e-15 0.0011220176 1.623139e-20 5.987424e-17 1.8216098e-15 -3.8615864e-16 -1.4994152e-15
-1.3518718e-09 4.025407e-20 7.614603e-07 7.059426e-16 1.3600217e-17 -1.2776421e-07 -4.022152e-17 -5.4814698e-17
5.068323e-06 0.0026310557 2.4452069e-18 3.4397745e-19 -2.9241197e-16 1.3123326e-18 -1.7331136e-16 -1.587352e-12
-1.6175631e-16 -8.1062775e-05 1.7436495e-14 4.7423792e-12 -3.7306003e-18 -7.691207e-14 2.2925873e-14 0.0030587541
-3.270926e-23 -8.9090577e-20 -3.6486102e-19 -1.0208218e-15 1.7173915e-14 -6.975733e-18 -6.2938885e-14 -5.7961046e-11
-2.7554915e-08 -4.8821513e-11 -2.953427e-17 -7.3007174e-20 6.930812e-16 4.419594e-11 -2.5924302e-18 -1.4265871e-17
00000000: bf85 a6a4 fe9f 84a5 63d3 7ea3 3c6d b7a8
00000010: 78f7 f327 c8ae 8d36 e2d6 9b24 cc0c 869d
00000020: 46db db20 10d5 67a3 7eff 5b35 42eb 35a4
00000030: b041 eca6 de31 36a5 7656 f528 a53d 8125
00000040: f1b4 06a9 090c 3726 a202 1136 a810 899d
00000050: cfe0 22b4 ae2b 902d 2de3 e0a8 4ed1 19b8
00000060: 98a0 d3b0 2257 971f 6d83 1fa5 3d5a eaa5
00000070: 869b 62a9 c119 929f a583 83a3 6126 8aa4
00000080: 4392 0a2e 32e2 d725 8125 94a3 1110 dba1
00000090: 4070 09ba 0504 d932 120f 0fbc fdbc 13aa
000000a0: 14db b6aa d81f b024 efe9 bea2 991e 812e
000000b0: 8962 cf20 4713 e2af 506a ff33 83bc 5d39
000000c0: 29b2 b639 5f46 2f1f 6a33 4ba3 dcbe 13b0
000000d0: 872f bda7 a947 5427 688c 242a 0557 99ab
000000e0: 52aa a1a2 442d 6823 137d 2b23 19c9 9ba3
000000f0: 9429 3aa5 b913 a4a5 2d9b d4a3 b8bf c5ac
00000100: 25b6 4623 1ea4 f321 ce42 e7a1 3cd6 47a7
00000110: cc8e 8934 efa3 0aa5 b7e5 b7a2 fc86 fd9b
00000120: 6f62 e31e c772 799e bcc7 84a5 874a 7622
00000130: aab3 a2a2 34d1 f9a2 ec72 2f1e da25 09a4
00000140: c5fe 9423 80ff cd33 770c 4933 779d 9428
00000150: 26c3 6121 8e7f 13a4 8a49 8da3 13d6 6f27
00000160: 69d4 c32e 24c5 909c e5f8 9821 02a1 05b4
00000170: 5c7e a3a1 d1c5 9635 8576 972f f16f 8da1
00000180: d142 fd1f 88d8 b9a4 c347 3ba0 3cc7 1f30
00000190: 7cae f3ba 72d2 ffa1 02c9 a523 7603 9327
000001a0: a2a3 c624 a46d 80b0 0435 b72f 9b65 9eb4
000001b0: 2631 1821 95f1 ba2b 83e1 bba6 86df faac
000001c0: 7f86 0298 9a29 7e35 49e9 6ab9 9a9e 97a8
000001d0: 66a8 15a6 e592 adae 9317 9da7 0acf 21b8
000001e0: 48df eeb5 5083 48b2 d5ae 882c ea48 c6a6
000001f0: d871 12a7 5528 0f24 763d 0720 608f 0ca2
00000200: c8dd b1a3 e942 5b22 c7c4 8936 268e 7a2a
00000210: 4b51 299e 8b6f 3aa5 f96e 0f27 64a2 019d
00000220: 9105 9d9e 329c ebb5 13fd daa3 c1da 6321
00000230: 6047 9b24 959a 1caf 276a 3d36 3da4 e6a4
00000240: 7a85 20b8 6330 3524 9101 922c 3e33 2a9a
00000250: a034 c13a 5990 3923 4a5c a9a2 292f cb22
00000260: 7197 7f32 c5f9 3b1c 2898 8523 e255 68a4
00000270: a2b0 c4a0 c994 f79e fbda e4a1 40a4 3a3c
00000280: eec0 95b7 568c 0c3a 9565 8f20 1be3 ce20
00000290: 4a2b a39e 5b1b 1621 0269 9bb6 b94f 9032
000002a0: 742a 60a9 58a4 9f22 617b aea0 d0c8 4aa4
000002b0: 8641 f8b9 ed5c 169e db42 c623 8654 5636
000002c0: e5ba 3a99 a5fb 2739 909b 80b2 a3bd 02b3
000002d0: 60e8 ae25 a45a 4b9e c311 b228 55a2 729f
000002e0: 5d79 2b20 ef45 deaf 4a6b 3ba2 d37c c11d
000002f0: aef4 d0a3 2b26 6824 53ec 0f36 3d41 28a1
00000300: c378 3131 0f16 dfa4 6744 1db1 894b aaa5
00000310: 93f7 52a2 d158 5fa9 b088 76a4 8508 c71f
00000320: 37d3 7ba0 9f4d 18a2 d4f2 98a5 cd98 a93b
00000330: 9183 8326 d18f 28aa 145f f81f 9f4f 70a6
00000340: 3a11 7622 1381 9926 aa10 933a 184d 991e
00000350: 830f 8a24 c542 0327 f59a dea5 a816 d8a6
00000360: c3cc b9b0 2f18 3e1f 2767 4c35 5f79 4b26
00000370: 35e1 7a23 8f2f 09b4 317d 39a4 c6c9 7ca4
00000380: 9010 aa36 ca6d 2c3b a76c 3422 670c cb20
00000390: 6490 a8a5 86aa c121 7cd0 47a5 6266 dfab
000003a0: 097e 3aa5 3f00 aab8 d20d 9d28 8edb a62c
000003b0: 86a2 89a2 ca30 ada9 777f ce28 6175 483b
000003c0: 1a2c 1e9a f35b d29f 3d60 d7a0 ad1d 93a6
000003d0: 5ab0 9a28 f8ad 00a3 ccb9 8da9 56ea 7eae
000003e0: e6b1 ecb2 23b8 56ae e933 08a4 2162 ac9f
000003f0: 5ec4 4726 3460 422e 9f49 3fa2 5694 83a3

transformer.layers.0.0.fn.fn.to_out.bias f4 [64]
1.2275321e-10 1.0341909e-11 -7.998829e-12 2.8222644e-13 -9.211515e-12 -9.3211106e-11 5.6799825e-11 -1.3165145e-10
4.083427e-11 -4.2335844e-12 1.0363845e-11 -2.4210703e-11 5.903199e-12 6.0351754e-12 3.8403513e-11 1.1995459e-10
1.2172073e-10 -7.987473e-11 -1.35874e-10 -2.301437e-12 -1.4040853e-10 -2.4106012e-11 1.1792428e-10 -1.6904467e-11
5.8831225e-11 1.2763325e-10 1.859891e-11 8.202199e-11 -5.645509e-11 -7.27452e-11 -1.9399005e-11 2.2343441e-11
-6.171174e-12 -2.2977464e-12 -1.0238056e-10 5.3905307e-11 4.5345273e-12 1.2759275e-12 -6.523799e-11 -8.158503e-11
-4.4516127e-11 -6.462745e-11 4.0487343e-11 2.9303126e-11 -4.8380227e-11 -3.756002e-11 -1.85329e-10 4.5016695e-11
-6.103343e-11 -1.4130766e-11 2.0408014e-11 1.06799077e-10 2.6482705e-11 1.4817628e-11 2.716737e-11 1.7098649e-11
7.452357e-11 1.0162061e-11 1.2151615e-11 -1.7071476e-11 -2.798933e-11 -2.6255213e-11 -3.3395182e-11 7.340204e-12
00000000: f5f7 062f d1ef 352d 86b7 0cad 1ee1 9e2a
00000010: fa0c 22ad 30f9 ccae ebce 792e 97c0 10af
00000020: 4d97 332e bdf4 94ac 9c52 362d a8f5 d4ad
00000030: 4ab3 cf2c 0758 d42c 83e6 282e 37e4 032f
00000040: 57d5 052f 7aa5 afae 2265 15af 01f3 21ac
00000050: 7d61 1aaf ea09 d4ad bca8 012f 7ab1 94ad
00000060: 095f 812e 9155 0c2f 0699 a32d 475e b42e
00000070: c84a 78ae e8f7 9fae ada2 aaad f588 c42d
00000080: fe20 d9ac 85b0 21ac 2223 e1ae fb13 6d2e
00000090: 648b 9f2c 2292 b32b b975 8fae 4a68 b3ae
000000a0: b4c8 43ae 051e 8eae b210 322e 63e0 002e
000000b0: 4bc7 54ae d330 25ae 7ac5 4baf 4bfc 452e
000000c0: c436 86ae 5097 78ad c382 b32d 89da ea2e
000000d0: c0f1 e82d 5556 822d 7bf7 ee2d bc66 962d
000000e0: 0ae1 a32e dbc5 322d 02c6 552d 8c29 96ad
000000f0: 5e32 f6ad 7cf1 e6ad a2df 12ae 5721 012d

transformer.layers.0.1.fn.norm.weight f4 [64]
7.690126e-15 3.4749654e-16 5.6423214e-17 1.4562179e-14 1.6390115e-16 -2.2326833e-15 -2.6643998e-16 -1.2777507e-16
2.059373e-16 1.6409609e-16 8.516786e-16 -5.5306794e-16 1.456322e-16 -1.14168006e-17 3.6067367e-16 7.270838e-17
1.0236505e-16 -3.0189995e-17 7.524252e-18 7.7263243e-16 1.4814306e-15 -2.4064837e-15 2.868047e-18 -3.5897757e-16
7.246709e-16 3.1371055e-15 -7.537367e-16 1.6906261e-16 6.81686e-18 6.8020335e-16 -1.0068418e-16 2.0431558e-16
7.6644364e-16 -1.1278008e-15 -2.2292242e-16 1.4707355e-16 -7.0349903e-16 -6.9838793e-16 2.6156945e-15 3.4186477e-16
2.2031137e-17 2.0784786e-17 1.8035902e-16 2.237193e-16 -7.74498e-17 -8.6800464e-16 -1.8754053e-15 -3.6818198e-16
-5.0356543e-16 1.0536037e-15 5.7075685e-16 1.4702596e-17 -1.2549021e-15 -9.712461e-16 -7.731843e-17 -9.332053e-16
-6.23879e-16 -4.3358078e-17 -8.0488093e-16 -5.18449e-17 9.811116e-19 -3.5526126e-16 4.4897464e-15 1.9191871e-15
00000000: 7288 0a28 7051 c825 631a 8224 192a 8328
00000010: 15f7 3c25 bde1 20a7 9a97 99a5 8b50 13a5
00000020: f66d 6d25 9e30 3d25 ca7a 7526 3669 1fa6
00000030: 0ae7 2725 519a 52a3 0aea cf25 74a7 a724
00000040: a909 ec24 0e3a 0ba4 47cc 0a23 36b2 5e26
00000050: 247f d526 ca67 2da7 e09f 5322 bdef cea5
00000060: 46df 5026 620d 6227 f43f 59a6 7aea 4225
00000070: 6c7f fb22 260e 4426 7329 e8a4 518f 6b25
00000080: 8fe9 5c26 8188 a2a6 8b81 80a5 7390 2925
00000090: 11c5 4aa6 ef4b 49a6 0c7b 3c27 5612 c525
000000a0: 8d33 cb23 b0b4 bf23 96f0 4f25 24f7 8025
000000b0: 4b96 b2a4 702f 7aa6 1f23 07a7 123e d4a5
000000c0: 9224 11a6 1ed7 9726 6c82 2426 869b 8723
000000d0: b7d9 b4a6 a8f8 8ba6 bf48 b2a4 337d 86a6
000000e0: 25d2 33a6 2ff4 47a4 bbfd 67a6 a817 6fa4
000000f0: 59c9 9021 4fcb cca5 9ac2 a127 c14a 0a27

transformer.layers.0.1.fn.norm.bias f4 [64]
-2.3372984e-06 -3.120678e-11 -1.3948803e-08 -3.6933884e-08 -5.599769e-08 -6.69263e-08 -4.4717412e-13 2.2415228e-11
-2.6152984e-16 1.756934e-13 9.200021e-07 0.010860068 -5.915463e-08 -1.09561476e-07 -1.0067465e-09 -3.181824e-09
-3.4736093e-15 -1.5770795e-14 1.1944302e-17 -4.2432315e-14 1.2038365e-14 -8.9840635e-10 -2.8015792e-16 -1.1665561e-12
-5.321004e-15 -5.1288556e-15 2.078313e-13 1.0656259e-07 -5.4185687e-11 9.534672e-13 3.8557553e-09 -1.2877138e-10
-2.5375248e-13 -6.233046e-13 -1.12595946e-10 -2.5031252e-07 2.9675233e-14 -8.234616e-09 -4.4504927e-13 9.809329e-08
1.1245608e-16 -9.730887e-16 7.512668e-09 7.651073e-08 -7.6139217e-10 1.637815e-14 -3.167102e-09 -2.0258818e-05
0.0026998085 -0.0061501134 2.6053375e-13 -2.9057235e-06 -4.583098e-14 -6.6952466e-15 3.587229e-13 4.4035774e-16
-0.00013154346 4.4705153e-06 -3.0825762e-14 4.4755137e-13 2.2828573e-08 -0.0073271017 1.5915566e-05 1.2277412e-13
00000000: 7bda 1cb6 b63f 09ae 7ca3 6fb2 3ca1 1eb3
00000010: 1c82 70b3 1fb9 8fb3 95bc fbaa 9b2a c52d
00000020: fec2 96a5 2dd0 452a 10f6 7635 6dee 313c
00000030: 3411 7eb3 0f48 ebb3 be5d 8ab0 3da7 5ab1
00000040: c84c 7aa7 fa0c 8ea8 5f55 5c23 2119 3fa9
00000050: 29dd 5828 baf3 76b0 0380 a1a5 9d2d a4ab
00000060: 99b5 bfa7 58c9 b8a7 4bff 692a 67d7 e433
00000070: a94f 6eae 4730 862b 957b 8431 ec95 0daf
00000080: 96d9 8eaa d471 2fab e299 f7ae b162 86b4
00000090: 37a5 0529 3978 0db2 5c8a faaa 5ba7 d233
000000a0: 2da7 0125 a33c 8ca6 1011 0132 384e a433
000000b0: 364a 51b0 7185 9328 3fa4 59b1 7bf1 a9b7
000000c0: 45ef 303b e486 c9bb dfaa 922a f3ff 42b6
000000d0: 8667 4ea9 c038 f1a7 6bf1 c92a 55d9 fd25
000000e0: eeee 09b9 6f01 9636 afd3 0aa9 f3f2 fb2a
000000f0: 9018 c432 2f18 f0bb 6b82 8537 3b3b 0a2a

transformer.layers.0.1.fn.fn.net.0.weight f4 [64, 64]
-8.44904e-18 3.3206452e-12 1.3977399e-16 -8.738443e-20 9.857194e-19 6.17138e-20 3.575496e-23 3.5233387e-20
-9.5434905e-27 -1.2564572e-25 -7.432671e-18 -5.7494096e-11 -0.00011424554 -4.561065e-13 -7.358374e-20 3.790976e-11
3.9401734e-27 -4.6213236e-10 -3.5042244e-29 -1.2175524e-25 -1.0438768e-26 -1.3220852e-08 1.5744984e-08 -2.964576e-13
1.9812336e-17 6.944548e-20 -3.9764916e-05 -3.532481e-08 -2.6943738e-21 3.1218388e-09 5.4114604e-05 -1.1798959e-21
5.0247647e-24 1.293876e-24 1.0613985e-21 -8.994071e-13 2.6049788e-23 -4.0288394e-20 1.9387367e-23 -2.3722726e-19
-8.602411e-28 4.5874096e-25 -4.5061765e-19 -4.4813916e-11 -1.9023454e-06 1.7985488e-20 4.7469453e-20 -0.00013867398
6.078694e-12 -1.9907587e-14 -6.8734496e-15 -1.6311187e-10 9.657162e-15 -3.8120443e-26 2.3741093e-14 -9.359429e-18
-1.9083545e-16 -3.869968e-15 -1.1357516e-25 -4.671094e-25 -9.264923e-21 2.722317e-13 -2.5591408e-12 1.3757188e-05
-8.082357e-17 5.454173e-13 1.8137052e-09 2.1950704e-07 -4.4801504e-20 1.057677e-16 -3.4556011e-09 -3.571296e-23
-1.08438446e-10 -1.4864173e-19 -0.00069580984 1.0013729e-08 -5.8337145e-20 -6.838984e-19 -5.5627907e-12 -2.300737e-13
4.839994e-28 8.7255436e-26 2.8027819e-06 3.8044477e-27 -8.28486e-12 -0.0066038608 -2.1308032e-11 2.6455102e-23
-1.0067959e-26 1.0348975e-26 -1.2904674e-07 -2.7792938e-08 3.0031453e-22 1.3450595e-22 -8.402554e-05 -1.1221136e-22
5.173244e-22 8.889844e-07 1.0894346e-11 1.2245666e-08 6.122111e-10 5.559599e-17 7.575905e-26 4.8157137e-16
4.084393e-28 1.1726293e-26 4.1143471e-16 9.163407e-16 -9.392804e-21 5.6056875e-26 6.007865e-21 4.6546506e-06
-1.0353907e-15 -1.21737845e-14 -1.7926498e-13 -9.062101e-18 -1.2562111e-25 -3.2822495e-15 -7.5324115e-11 2.07564e-20
3.841253e-09 -7.057256e-18 -5.268528e-26 -8.990908e-18 4.1464245e-09 2.417872e-15 1.4862823e-17 6.5183016e-08
1.9057054e-16 2.256067e-12 -2.4447e-18 2.2534858e-19 -2.713933e-07 1.0602849e-14 1.1506344e-22 -3.0219918e-10
3.0055683e-27 -8.0778436e-19 1.4734888e-17 -3.4437308e-13 -1.2595899e-13 -4.658023e-11 -1.1015802e-19 6.2226995e-06
1.5716513e-27 -2.1116848e-11 -1.0338239e-28 1.4623209e-14 -1.2157499e-26 1.1220514e-10 -1.9837808e-29 9.37865e-24
-1.1353195e-25 2.5228121e-26 -1.2280825e-24 3.1052439e-18 2.2275511e-13 6.280378e-25 -2.527622e-20 2.9376998e-22
-5.014187e-24 -2.1193514e-06 -1.9059698e-14 4.1804429e-19 -1.8838019e-25 3.3468933e-20 2.0519477e-05 1.0708434e-19
-6.2452912e-15 0.00015198352 3.520626e-20 -1.6502503e-19 3.445122e-21 -4.4345053e-27 -8.4589305e-20 5.9657643e-18
-2.3221122e-13 4.9925504e-14 1.5307199e-25 1.0383224e-17 -1.8968549e-25 -4.545313e-14 2.3727686e-11 7.213346e-27
-8.110736e-11 3.691004e-17 5.8382985e-21 2.1322527e-10 3.509506e-19 1.5094642e-15 8.572506e-20 -9.706545e-16
2.7193392e-17 3.2472307e-09 1.7242598e-20 3.4892944e-20 -2.5596983e-06 -6.9593755e-20 -4.3710343e-06 -5.165723e-23
2.6754969e-14 9.811707e-24 0.00010448812 -1.1935959e-12 -5.538909e-20 2.0798885e-19 1.7222295e-18 -8.3669484e-08
-7.402324e-27 -5.9131073e-19 5.022588e-29 1.0574606e-05 -4.7711297e-27 1.4966768e-07 -2.9257233e-28 -1.4217157e-23
-3.1011187e-28 -0.00019997876 -2.9718153e-25 -0.0055858837 -1.0801542e-22 -9.216097e-07 8.042226e-11 -4.069092e-11
-8.467687e-25 -4.901112e-25 -1.1123133e-05 -8.248639e-08 1.1771357e-19 -8.682326e-18 -1.0588076e-08 3.3790517e-19
5.1350203e-28 3.222003e-26 -2.337991e-20 3.1616587e-10 3.306731e-06 2.0640234e-06 -2.2193823e-20 -3.6969313e-13
9.641354e-12 -8.410197e-15 2.1314091e-18 -1.04697565e-17 3.4911877e-18 8.2997925e-05 5.226367e-25 -1.0679836e-26
-2.2993687e-18 -4.2401737e-18 -1.9108029e-05 6.832708e-25 -4.436297e-05 -3.363235e-08 1.2441983e-17 2.3682857e-13
00000000: 77db 1ba3 6dab 692c 0026 2125 a654 ce9f
00000010: 6d77 9121 b4b7 911f 7fe6 2c1a 8d62 261f
00000020: 3f07 3d94 b88a 1b96 cc1b 09a3 99dc 7cae
00000030: 1b97 efb8 f061 00ab a4be ad9f 98ba 262e
00000040: 1b16 9c13 590f feaf 6faf 3190 c7b9 1696
00000050: d8c2 4e94 ec21 63b2 963f 8732 0be4 a6aa
00000060: 8ebc b623 38f9 a31f 41c9 26b8 0ab8 17b3
00000070: c594 4b9d f887 5631 1df9 6238 034d b29c
00000080: dc62 c218 b637 c817 de64 a01c 1d29 7dab
00000090: 27f0 fb19 ae41 3e9f cc80 bb19 c508 8ca0
000000a0: 864f 8892 34f9 0d17 b5ff 04a1 fc17 45ae
000000b0: 1754 ffb5 3ede a91e 0c2b 601f 0369 11b9
000000c0: 02e0 d52c c54f b3a8 62a4 f7a7 e957 33af
000000d0: cdf7 2d28 67c3 3c95 3cd7 d528 a7a6 2ca3
000000e0: af04 5ca5 286e 8ba7 6899 0c96 3890 1097
000000f0: 6b02 2f9e b940 992a 6215 34ac acce 6637
00000100: d15d baa4 7585 192b 1446 f930 a3b1 6b34
00000110: b291 539f 3be2 f324 9477 6db1 81b2 2c9a
00000120: 6b75 eeae 357c 2fa0 0267 36ba d908 2c32
00000130: a4be 899f e7d9 49a1 2ab9 c3ac 1d85 81aa
00000140: b262 1912 b408 d815 6d17 3c36 afb5 9613
00000150: b1bf 11ad 3365 d8bb 6c6d bbad a9db ff19
00000160: 9e6a 4794 8afb 4c14 1990 0ab4 51bd eeb2
00000170: 6c87 b51b 939b 221b de36 b0b8 bca7 079b
00000180: 095a 1c1c 8ba2 6e35 c6a7 3f2d 0261 5232
00000190: 8748 2830 1432 8024 0192 bb15 b2cd 0a26
000001a0: 8870 0112 5f43 6814 0c2d ed25 010f 8426
000001b0: d06c 319e 44ca 8a15 81f8 e21d 252f 9c36
000001c0: 2d37 95a6 ac4d 5ba8 9dd5 49aa 902a 27a3
000001d0: eb82 1b96 d182 6ca7 b5a3 a5ae e509 c41e
000001e0: 05fc 8331 f32e 02a3 4371 8295 5dda 25a3
000001f0: 5678 8e31 de39 2e27 d915 8923 befa 8b33
00000200: 7fb6 5b25 b1c1 1e2c 1463 34a2 b705 8520
00000210: 03b4 91b4 0301 3f28 691a 0b1b c122 a6af
00000220: 2b20 6e13 766a 6ea1 c5e7 8723 64dd c1aa
00000230: 35d1 0daa addc 4cae 380d 02a0 95cc d036
00000240: c009 f912 eabe b9ad 810d 0391 d3b6 8328
00000250: d8cd 7094 e1bd f62e e52d c98f d368 3519
00000260: b68b 0c96 e3d8 f914 5c09 be97 6620 6522
00000270: cacc 7a2a 485e 4217 26ba ee9e b492 b11b
00000280: 1afa c198 2e3a 0eb6 acac aba8 11c5 f620
00000290: 1134 6996 750d 1e1f 3e21 ac37 83d8 fc1f
000002a0: a502 e1a7 c45d 1f39 c241 261f c1d3 42a0
000002b0: 2d27 821d 3aab af93 19bb c79f 0d19 dc22
000002c0: 2ab9 82aa 30d8 6029 737e 3d16 6489 3f23
000002d0: bbd1 6a96 e4b3 4ca9 00b6 d02d 02e0 0e14
000002e0: 625b b2ae af37 2a24 8f90 dc1d 9471 6a2f
000002f0: 282a cf20 6689 d926 9f69 ca1f d5e2 8ba6
00000300: 95d0 fa23 e325 5f31 0bda a21e fbc6 241f
00000310: 48c7 2bb6 d852 a49f e6aa 92b6 8ecc 799a
00000320: c2fc f028 38c9 3d19 a220 db38 d3fb a7ab
00000330: a7c8 829f c68c 7520 fe27 fe21 c9ad b3b3
00000340: 3e9e 1294 2d86 2ea1 ebac 7e10 9669 3137
00000350: 0101 bd93 57b4 2034 9370 b991 fa7f 8999
00000360: 878e c491 64b1 51b9 4bf2 b796 ca09 b7bb
00000370: 2795 029b 8964 77b5 b5d9 b02e e7f5 32ae
00000380: f707 8397 9cae 1797 7e9d 3ab7 5f23 b1b3
00000390: bef8 0a20 2029 20a3 dae6 35b2 c976 c720
000003a0: 3cbc 2212 be8b 1f15 27d1 dc9e 64d0 ad2f
000003b0: 35e9 5d36 a783 0a36 5f9d d19e 651e d0aa
000003c0: cc9c 292d 3081 17a8 2e45 1d22 0722 41a3
000003d0: 56cd 8022 2c0f ae38 8cbf 2117 3489 5394
000003e0: d9a9 29a2 4f6f 9ca2 2e4a a0b7 4a76 5317
000003f0: 6012 3ab8 2973 10b3 9a83 6523 9852 852a

transformer.layers.0.1.fn.fn.net.0.bias f4 [64]
-7.876084e-08 -4.1974527e-13 -6.2365044e-13 1.0167511e-09 1.3706346e-12 5.411159e-15 -4.041962e-28 -2.6966628e-12
1.2366013e-13 -2.364709e-11 -8.942272e-08 -4.45096e-08 -5.133326e-12 7.443329e-13 1.4911826e-12 -5.493545e-13
3.8977784e-12 -5.0139556e-07 -5.6453154e-14 6.90655e-12 -1.174209e-08 5.554821e-16 -3.2927065e-13 -3.4618304e-09
1.1315277e-12 -1.4815075e-11 -6.27543e-07 0.0017378703 1.9829003e-15 4.9012633e-13 4.1199073e-14 -3.0998793e-12
-1.6350641e-06 -5.1631127e-27 -4.416867e-12 -1.5942284e-08 -2.1625124e-13 -5.348433e-12 -0.000767485 1.8359205e-12
5.7721373e-13 4.5879716e-07 -6.008921e-12 -7.8464107e-13 -8.49968e-08 2.2669115e-06 -4.6832287e-08 7.354171e-13
3.4513748e-30 -1.15831355e-11 2.4281906e-07 -4.611507e-08 5.85542e-05 -1.06534464e-13 1.6093543e-09 1.2334808e-22
2.4010167e-13 -0.00816985 -2.1655195e-07 -2.5658401e-12 4.2433805e-13 -6.60682e-05 4.5818523e-12 1.5609338e-09
00000000: 3b23 a9b3 ab4b ecaa c08a 2fab c0bd 8b30
00000010: 51e6 c02b 22f5 c227 4b18 0092 c2c2 3dac
00000020: 9b3a 0b2a 8300 d0ad a908 c0b3 d32a 3fb3
00000030: e49c b4ac d782 512b 84dd d12b 2aa1 1aab
00000040: 1124 892c a497 06b5 0e3e 7ea9 ac00 f32c
00000050: 42ba 49b2 581b 2026 e75c b9aa 2ae5 6db1
00000060: 953f 9f2b 9550 82ad 6d74 28b5 40c9 e33a
00000070: 0ee2 0e27 53f5 092b 4c8b 3929 7622 5aac
00000080: 6074 dbb5 2f88 cc93 9a67 9bac 74f1 88b2
00000090: 2d7a 73aa 672e bcac 0c31 49ba 0131 012c
000000a0: a278 222b 9a50 f634 8c6b d3ac 59db 5cab
000000b0: 7c87 b6b3 3e21 1836 a524 49b3 6300 4f2b
000000c0: 2001 8c0e cec5 4bad cc5c 8234 0e10 46b3
000000d0: 1898 7538 f0e4 efa9 1f30 dd30 621e 151b
000000e0: 4c2a 872a d6da 05bc 5985 68b4 118e 34ac
000000f0: 8fe1 ee2a 188e 8ab8 a835 a12c 7a88 d630

transformer.layers.0.1.fn.fn.net.2.weight f4 [64, 64]
4.4490333e-19 -3.2652327e-19 -1.1827047e-21 1.0058616e-18 -3.619416e-18 1.4338031e-21 -4.062625e-19 -4.1833098e-17
-2.8915087e-22 4.9428333e-14 2.2238198e-09 2.0907267e-14 -2.1367048e-17 2.779585e-15 -4.7043345e-20 -3.6949125e-08
2.76691e-15 -9.4510825e-14 3.0978547e-20 -6.638413e-20 0.0020602986 -8.2900837e-19 3.215845e-21 3.889497e-17
1.0688935e-06 1.4984444e-19 2.3141438e-15 -1.3940136e-09 -2.1331463e-16 -5.619068e-19 -2.7751144e-19 1.6638238e-12
-5.43013e-09 2.261728e-18 -5.3683846e-19 -7.820843e-18 -1.6550152e-18 4.111037e-16 5.818914e-13 -1.7672246e-22
-1.6811144e-14 1.04455235e-17 -2.1753312e-15 7.9451166e-07 -5.816673e-11 0.00016105559 -7.465863e-17 -2.6341234e-17
-2.2208373e-22 2.7516014e-06 -9.086574e-18 -1.2966714e-16 5.012937e-15 3.310971e-17 4.73957e-15 1.0406349e-18
-2.6744743e-17 -1.9462693e-12 -2.1671484e-17 -1.3324324e-17 -2.0552264e-21 1.510147e-12 -5.4873017e-09 -2.9686342e-13
3.5690107e-05 -4.5026927e-20 -9.148966e-08 -6.4683514e-20 7.7383864e-20 -2.055899e-23 4.6993168e-20 5.765571e-18
0.0029240688 -8.662856e-10 -2.1260626e-18 5.6812e-18 2.2522479e-12 6.033771e-16 -8.015283e-21 1.1599521e-06
1.5149474e-17 -1.5560827e-17 3.591349e-21 9.712711e-22 -5.6614686e-09 2.799086e-17 2.346656e-22 -4.3005174e-18
-5.1358012e-21 -1.4299052e-22 8.970486e-17 -2.0915724e-12 -1.0287835e-16 -4.771834e-12 1.9327954e-20 2.4097549e-08
-8.181038e-17 4.102956e-19 -0.009080845 1.5715678e-08 -7.349108e-20 -3.3475695e-16 -0.00014115282 2.0438548e-22
2.464527e-07 -2.8819643e-18 -2.4464585e-16 -1.976791e-18 3.483197e-09 -7.162252e-17 9.906636e-18 5.074609e-09
-1.5358654e-22 -5.452852e-21 -1.6654586e-18 1.8798474e-16 -1.316125e-15 3.1782765e-18 -0.00030523833 2.0220605e-19
-1.8814604e-17 -7.448654e-06 1.8133912e-18 -2.6791833e-08 6.705378e-23 5.178176e-15 -7.917487e-06 -6.1544604e-08
-3.036995e-18 1.8868458e-20 2.3505599e-12 4.539392e-06 -0.0029426215 -6.332062e-11 1.5363143e-19 -6.733025e-19
8.515035e-24 -7.86908e-17 1.4057329e-17 -1.2043546e-19 1.6630068e-18 1.0623642e-15 -3.0035936e-21 0.00093001075
7.1057065e-16 4.9237747e-09 -3.473e-21 -9.249121e-22 1.6332267e-16 2.8185362e-20 2.1727163e-22 -3.970103e-18
-1.9929659e-21 7.5139605e-22 -2.3581614e-17 7.652604e-14 -4.7616076e-17 1.816221e-05 9.805756e-22 6.0003975e-09
4.176334e-05 5.4321825e-19 3.5392945e-20 -1.4560545e-18 -5.8409944e-20 8.183993e-18 1.1050599e-14 5.8896273e-07
4.564349e-09 7.840984e-14 -1.7750596e-15 -6.023766e-19 -2.3668644e-18 -1.5452e-17 2.3527806e-18 6.595498e-20
2.2949084e-23 -1.812804e-21 5.6553837e-19 2.409591e-17 7.148466e-16 7.186448e-18 7.9342456e-17 1.6847617e-19
2.4312817e-18 1.9661883e-14 2.6271277e-19 1.8198812e-09 -3.6037564e-24 -0.00011271544 -3.9325562e-20 5.8829817e-05
-1.7110322e-08 1.5612318e-18 -9.447598e-09 -3.801196e-19 7.6918e-18 -1.7482793e-22 1.4244534e-18 6.336227e-17
7.456686e-22 1.94544e-09 2.168244e-18 5.279878e-07 3.0600866e-11 -7.906771e-05 2.0131034e-19 7.2493216e-13
-2.6116926e-14 4.5621396e-16 -1.4854682e-18 4.4624734e-21 -8.010589e-15 3.9839516e-18 1.4165222e-22 1.3601136e-16
-5.604683e-20 -8.7641846e-21 1.665613e-15 4.5551307e-13 1.567276e-16 -2.0613092e-07 9.2048626e-20 -0.0078053484
1.2103262e-15 -1.5726529e-18 -3.5286252e-08 -6.5888774e-18 2.4187038e-18 3.426062e-16 2.2715608e-13 -2.8370682e-22
4.3840016e-14 4.5690456e-17 8.18352e-11 -7.634819e-17 7.398497e-17 1.4127567e-06 -1.442893e-17 -2.278347e-18
4.0989324e-22 -0.00019424756 -4.6378627e-18 -5.337018e-17 -4.2472243e-13 2.6110672e-17 -5.8487214e-15 4.996053e-18
-1.3203462e-16 1.6410325e-12 -5.894391e-19 -1.3003209e-09 -5.3193715e-21 -0.0011276609 1.5189779e-18 -3.1659738e-19
00000000: f24f 0321 cdbe c0a0 acb9 b29c 6070 9421
00000010: 6b88 85a2 92ab d81c a7d0 efa0 ceeb 40a4
00000020: eec7 ae9b fd9a 5e29 dad1 1831 e050 bc28
00000030: 8413 c5a3 4b4a 4827 ea27 5e9f feb1 1eb3
00000040: 7b60 4727 c8d1 d4a9 c44a 121f bfbe 9c9f
00000050: 1306 073b 1aae 74a1 7dfb 721d 135f 3324
00000060: e776 8f35 b4e7 3020 6bc0 2627 7e97 bfb0
00000070: 5eef 75a5 7ad8 25a1 58d0 a3a0 9229 ea2b
00000080: ee93 bab1 d6e2 2622 5e72 1ea1 e344 10a3
00000090: b53c f4a1 33fc ec25 b2c9 232b f4a4 559b
000000a0: dc6b 97a8 97af 4023 c7bf 1ca7 6d46 5535
000000b0: ead1 7fae 08e1 2839 ad26 aca4 7bf4 f2a3
000000c0: cb3d 869b 27a8 3836 229e 27a3 fc7e 15a5
000000d0: 2f9c b427 0cb1 1824 d1c2 aa27 1392 9921
000000e0: 3dad f6a3 dff4 08ac 58e2 c7a3 57ca 75a3
000000f0: dc49 1b9d c888 d42b d18a bcb1 871e a7aa
00000100: f6b1 1538 37a2 549f f978 c4b3 c9ba 989f
00000110: adb7 b61f 98d5 c699 41eb 5d1f 47b6 d422
00000120: bca1 3f3b 6e1f 6eb0 30e0 1ca2 6b99 d122
00000130: e47c 1e2c 5fe9 2d26 8867 179e a7af 9b35
00000140: afba 8b23 f785 8fa3 65ad 871d 3bc6 921c
00000150: ce86 c2b1 c615 0124 bed8 8d1b 3da9 9ea2
00000160: 6c06 c29d 6cdd 2c9b 67d8 ce24 6b2e 13ac
00000170: a938 eda4 dce4 a7ac 208c b61e 12ff ce32
00000180: 53a4 bca4 1e32 f220 d3c7 14bc 24ff 8632
00000190: a286 ad9f 68f9 c0a5 6c02 14b9 3e16 771b
000001a0: 3350 8434 c4a6 54a2 5b07 8da5 87dc 11a2
000001b0: 0d5d 6f31 7926 a5a4 c4be 3623 bc5c ae31
000001c0: bbac 399b c000 ce9d 3fc7 f5a1 4dbb 5825
000001d0: 71ac bda6 f283 6a22 6508 a0b9 07b9 6e20
000001e0: ba88 ada3 73ef f9b6 fecd 0522 dd23 e6b2
000001f0: 4820 a21a 3e90 ba27 59d5 04b7 812a 84b3
00000200: 3717 60a2 2235 b21e ec67 252c 1551 9836
00000210: ffd8 40bb 573e 8bae 4060 3520 4cb9 46a1
00000220: 69b4 2419 d972 b5a4 eea7 8123 622f 0ea0
00000230: 9f6a f521 521a 9926 f3f1 629d f7cb 733a
00000240: dcce 4c26 fb2d a931 cc34 839d cec4 8b9c
00000250: 584c 3c25 031a 051f 2855 831b 9078 92a2
00000260: 9195 169d 7418 631c 8380 d9a3 4252 ac29
00000270: 2497 5ba4 0d5b 9837 2e2e 941c 0e2c ce31
00000280: 0b2b 2f38 6954 2021 7223 271f 2fe0 d6a1
00000290: a5ea 899f d0f7 1623 e511 4728 3619 1e35
000002a0: 70d4 9c31 3290 b029 24d0 ffa6 4aca 31a1
000002b0: cea4 2ea2 0185 8ea3 c59a 2d22 57bb 9b1f
000002c0: 2ef3 dd19 bbf8 089d dfea 2621 dc3e de23
000002d0: 5e0a 4e26 0b91 0423 85f3 b624 cce6 4620
000002e0: 9d65 3322 3719 b128 0814 9b20 611f fa30
000002f0: e069 8b98 a461 ecb8 b0b5 399f 09c0 7638
00000300: fff9 92b2 ab65 e621 fa4e 22b2 0d62 e0a0
00000310: 80e3 0d23 a05a 539b 5436 d221 7c1a 9224
00000320: 505d 611c 8bb0 0531 f9fc 1f22 0cbb 0d35
00000330: 8395 062e 27d1 a5b8 51aa 6d20 de0c 4c2b
00000340: 883d eba8 a67e 0326 6737 dba1 6596 a81d
00000350: 524e 10a8 5cfb 9222 3d3f 2b1b 78cf 1c25
00000360: 3b56 849f ff8c 259e 460a f026 2d37 002b
00000370: d3b1 3425 d654 5db4 fb57 d91f 02c4 ffbb
00000380: 286d ae26 2615 e8a1 a58d 17b3 3016 f3a2
00000390: 0678 3222 c07f c525 48c1 7f2a 817d ab9b
000003a0: 1970 4529 c5b5 5224 1ff5 b32e 040c b0a4
000003b0: 0599 aa24 f39d bd35 5915 85a3 c21c 28a2
000003c0: e8c3 f71b efae 4bb9 601b aba2 6320 76a4
000003d0: f418 efaa 15d4 f023 efb8 d2a7 6352 b822
000003e0: be39 18a5 6df4 e62b c2f8 2da1 f9b6 b2b0
000003f0: cef5 c89d 05ce 93ba 5d29 e021 d8e2 baa0

transformer.layers.0.1.fn.fn.net.2.bias f4 [64]
1.2130748e-10 1.0340395e-11 -7.994316e-12 -2.021157e-13 -8.837309e-12 -9.473024e-11 5.6838277e-11 -1.3240466e-10
4.0542916e-11 -4.263045e-12 1.0417546e-11 -2.422325e-11 5.925285e-12 6.0224985e-12 3.8388046e-11 1.1996107e-10
1.1859429e-10 -7.9895535e-11 -1.3630513e-10 -2.3034703e-12 -1.3905717e-10 -2.4099875e-11 1.1745609e-10 -1.692275e-11
5.8447955e-11 1.2769347e-10 1.8590336e-11 8.386048e-11 -5.6787828e-11 -7.08035e-11 -1.9621374e-11 2.2026148e-11
-6.156195e-12 -2.4379145e-12 -1.00155016e-10 5.4032157e-11 4.534385e-12 9.616289e-13 -6.546211e-11 -8.4611235e-11
-4.431897e-11 -6.5617754e-11 4.0513273e-11 2.9711286e-11 -4.8380907e-11 -3.73415e-11 -1.8316039e-10 4.5013344e-11
-6.1105065e-11 -1.4139033e-11 2.0797314e-11 1.0705408e-10 2.6562212e-11 1.458643e-11 2.7167314e-11 1.7788979e-11
7.460293e-11 1.0149898e-11 1.2179569e-11 -1.6983954e-11 -2.7980576e-11 -2.6213571e-11 -3.4237047e-11 7.339813e-12
00000000: 0561 052f 00e9 352d 33a3 0cad e28f 63aa
00000010: b477 1bad 6250 d0ae 36fa 792e 9994 11af
00000020: 444f 322e 19fe 95ac 7544 372d e911 d5ad
00000030: 397a d02c d8e5 d32c 19d5 282e 0ae6 032f
00000040: 5365 022f 30b1 afae 7cde 15af a217 22ac
00000050: 1de5 18af 18fc d3ad f324 012f a5da 94ad
00000060: 4687 802e 8466 0c2f b785 a32d 4169 b82e
00000070: 69c1 79ae d4b2 9bae 6897 acad 7abe c12d
00000080: 139a d8ac 908d 2bac 433e dcae cda2 6d2e
00000090: 1c8a 9f2c 5556 872b e4f3 8fae e40f baae
000000a0: b9ea 42ae 834b 90ae e42d 322e efab 022e
000000b0: 0fc8 54ae cb3a 24ae 1163 49af 85f8 452e
000000c0: 185f 86ae 8bbc 78ad 63ef b62d 176a eb2e
000000d0: c9a4 e92d b84d 802d 5af7 ee2d 3879 9c2d
000000e0: b70d a42e 148f 322d e743 562d 7764 95ad
000000f0: a81e f6ad b793 e6ad 7d93 16ae 941f 012d
