model_training/trained_models/model_200.pth (torch, 453160 bytes, 18 tensors)

pos_embedding f4 [1, 1025, 64]
000000 0d cc f2 3f 97 2a bb 3f 34 5b 62 3f 4b 91 06 c0
       1.8968521 1.4622372 0.88420415 -2.102618
000010 33 8a 29 3f 85 0a 9a bf 7f 7d 54 bd d7 06 cd bf
       0.662265 -1.203446 -0.051877495 -1.6017712
000020 47 77 35 bf 38 a2 ce 3f 66 43 d3 be 0b 57 b1 bf
       -0.7088513 1.6143255 -0.41262358 -1.3854688
000030 54 d1 30 bf c9 1e 03 bf 65 84 3a bf 89 b3 42 3f
       -0.6906941 -0.5121885 -0.7285827 0.760552
000040 ac d6 d0 3f 50 4f 17 be e8 4b e7 be 84 cd ef 3e
       1.6315513 -0.14776349 -0.451751 0.46836483
000050 a1 01 41 bf 73 6f 87 3f a9 3a 4e 3f 59 15 d5 3f
       -0.7539311 1.0580887 0.8055826 1.664714
000060 49 25 a0 3f 9d 1c a4 3f 8a a3 20 3f 8c 52 a6 3f
       1.2511379 1.2821232 0.6274954 1.2993941
000070 b5 aa 74 be 8f 95 27 3d fb f4 87 be a5 2a 57 3f
       -0.23893245 0.040914115 -0.26554093 0.84049445
000080 7e 65 b2 bf a9 8c 5b bf de c6 5a be 02 5e d8 3f
       -1.3937223 -0.85761505 -0.21364924 1.6903689
000090 2c df 87 3e 0d 11 e3 be f5 a9 ac 3e a2 a0 46 bf
       0.26537454 -0.44348946 0.33723417 -0.77588856
0000a0 6b 9a c1 bf b4 d1 7b 3f 3e a9 5c bf 6f d5 17 bf
       -1.512525 0.98366857 -0.86195743 -0.5931005
0000b0 61 82 9f bf ff 24 06 40 c9 0c a1 bf 75 41 ea be
       -1.2461663 2.096008 -1.2582027 -0.45753065
0000c0 d2 7d 75 bf 17 e3 26 bf 74 16 9b 3d a6 11 fc 3e
       -0.9589511 -0.6519026 0.07572642 0.49232215
0000d0 3b f4 f4 be d4 7d 98 3f f4 0f 53 bf 7d 67 3b bf
       -0.47842583 1.19134 -0.8244622 -0.73204786
0000e0 5d a0 b1 bf 84 a7 36 3d 23 f9 31 bd d0 2f 2a 3f
       -1.3877064 0.04459335 -0.043450486 0.66479206
0000f0 27 8f ab bd 81 75 eb 3f 13 da 95 bf de a4 ae 3f
       -0.083769135 1.8395234 -1.1707176 1.3644063
000100 3a 68 99 3f 2e 08 02 3f df 29 0d 40 5e e7 4d 3f
       1.1984932 0.5079373 2.2056806 0.80431163
000110 a1 94 0b 3f d5 17 2e bc 9a eb 81 bf d9 41 9f 3f
       0.54523665 -0.010625799 -1.0150025 1.244197
000120 4b 6f a3 be a0 b0 0a 3f f3 fe 88 3e 89 1c 20 3f
       -0.31920847 0.5417576 0.2675701 0.6254354
000130 8d 41 0a 3f 63 8a 4a bf 10 ca 17 c0 59 ac 60 bf
       0.5400627 -0.7911741 -2.371708 -0.8776298
000140 48 1b 85 3d 5d 3a db be 9c fe b9 bf ce 47 1f bf
       0.06499344 -0.42817965 -1.4530826 -0.6221894
000150 e6 34 05 3f 15 15 1d 3f 64 fe b1 3f 5d 07 1a be
       0.5203384 0.61360294 1.3905759 -0.15041871
000160 be c7 52 3f ca 63 03 bf 7b 76 8c bf 33 45 43 3f
       0.8233603 -0.5132414 -1.0973657 0.76277465
000170 d5 61 d5 bf 64 20 40 bf 46 4d bd 3f fb 69 d8 3e
       -1.6670481 -0.75049424 1.4789207 0.42268357
000180 d4 2a 21 c0 48 8d 29 3f 40 c6 6f 3f c5 35 89 be
       -2.518239 0.66231203 0.9366188 -0.26798835
000190 90 e6 15 3f 46 76 e3 3e 8d 07 84 3f 15 bb 95 be
       0.58554935 0.44426173 1.0314804 -0.29244295
0001a0 f2 b0 a1 be 21 41 42 3f a3 1f 01 3f 19 de aa 3d
       -0.3158031 0.7588063 0.504389 0.08343143
0001b0 53 72 96 3e 39 3b 7b 3f 9f a4 1d 3e b4 48 f3 be
       0.29384097 0.9813724 0.15394829 -0.47516406
0001c0 eb b1 c0 bf e5 c0 0c 3e 5b cd de be a4 33 18 3e
       -1.5054296 0.13745458 -0.4351605 0.1486345
0001d0 bf 48 14 3f f7 e0 95 3e d1 e0 96 be 94 31 4e 3f
       0.579235 0.29273197 -0.29468396 0.805444
0001e0 2a c7 2f 3e 83 d4 ad 3d 2d 16 b4 3e bb 42 21 3f
       0.17165819 0.08487799 0.3517317 0.6299245
0001f0 5b b3 9f 3f e1 b3 11 3f c1 a7 ee 3e a3 b3 8a 3e
       1.247661 0.569151 0.4661236 0.27090177
000200 67 ad ef 3f b0 20 64 3f bd 89 be bf 41 ab 81 bf
       1.8724793 0.8911238 -1.4885784 -1.0130388
000210 25 2e 3c bd 2f 83 db 3f ab 13 37 3f 01 04 e2 3e
       -0.045942444 1.7149409 0.71514386 0.4414368
000220 24 49 7f 3f 6b cb d1 3d de c5 db bf 48 c2 88 3f
       0.9972098 0.10243877 -1.7169759 1.068429
000230 cf 93 b5 be 3e d6 68 3f a4 63 40 bf 2f 13 06 3f
       -0.35464332 0.9095191 -0.7515204 0.5237302
000240 d5 d5 83 bf 7c 9a 66 3f b3 77 d4 3f 12 a4 c1 3f
       -1.0299631 0.90079474 1.6599029 1.5128195
000250 9a f3 86 3e f0 5a 0f be cb 06 23 bf ed 40 9b bc
       0.26357728 -0.13999534 -0.6368224 -0.018951857
000260 49 04 ad 3e 45 02 89 3f 42 d1 e4 be 56 e2 d7 3f
       0.33792332 1.0703818 -0.446909 1.6865947
000270 83 03 1e c0 e2 a0 bc be 7f 1e 99 bf 04 01 54 3f
       -2.4689643 -0.36841494 -1.1962432 0.8281405
000280 5c f4 f9 bf 25 54 a8 3e 9e 31 c0 3d fa 24 f3 be
       -1.9527698 0.32876697 0.09384464 -0.47489148
000290 e2 cd 72 3e 0a 83 55 bf fb 76 46 3e 30 13 8d bf
       0.2371135 -0.83403075 0.19381325 -1.102148
0002a0 0b bd d6 bf 31 6d b3 3f 45 ff af 3f 6e d6 cf bb
       -1.6776441 1.4017698 1.3749777 -0.0063427007
0002b0 c6 72 d2 bf e0 7d 27 3f f7 ae 59 3f 89 07 f6 3f
       -1.6441276 0.65426445 0.850326 1.922105
0002c0 1e 2a 3b 3e 3c c2 46 3e bd 86 45 bf 9e 68 9b be
       0.18277785 0.19410032 -0.7715872 -0.30353254
0002d0 78 df 84 bf 3d de c8 bf 96 36 80 bf 9c 20 fb be
       -1.0380697 -1.5692822 -1.0016658 -0.49048316
0002e0 a7 04 fe be 3a d6 ce bf 44 c0 ee bf ae 46 b3 3c
       -0.49612924 -1.6159127 -1.8652425 0.021884289
0002f0 b9 38 85 3f a8 8e 02 bf 3b 51 28 3f 8d 04 39 3f
       1.0407935 -0.50998926 0.6574895 0.7227257
000300 07 90 c3 3f 81 d5 87 bf ef 02 6c 3f 99 12 96 bd
       1.5278329 -1.0612031 0.92191976 -0.07327766
000310 d3 4e 7b bf cd bf b7 3e 79 87 fb 3e df 99 a2 3f
       -0.9816715 0.3588852 0.49126795 1.2703208
000320 53 2d d3 3e 4f b7 02 40 07 ec 87 be 6f 5f 3f bf
       0.41245517 2.0424383 -0.26547262 -0.74754995
000330 c2 3c 85 bb 9b c9 70 3f 74 7c 8a 3f 0b 83 99 3e
       -0.004066081 0.94057626 1.081923 0.2998279
000340 25 24 40 bf 7b 98 7c bf 57 21 18 bf 1f 40 1b bf
       -0.7505515 -0.98670167 -0.5942587 -0.60644716
000350 df e3 5a bd 9f 4f e8 3e 2b d3 8f 3d e6 75 1c c0
       -0.05343997 0.45373246 0.07022699 -2.444696
000360 82 75 94 be 32 5d 71 3f cd 3d e6 bf ce 3d cf 3f
       -0.289959 0.9428283 -1.798761 1.6190736
000370 06 bd c3 3e 8f 7b 02 bf 7c c0 93 3f e5 83 d5 3f
       0.3823015 -0.50969785 1.1543117 1.6680876
000380 07 57 1b 3e 90 e3 e3 3f d1 31 9d 3e 29 ec 9f bf
       0.15169917 1.7803822 0.3070207 -1.2493945
000390 7e 87 16 bf b7 d7 27 3d 3b 79 a1 3e 22 40 06 40
       -0.58800495 0.040977206 0.31537804 2.0976644
0003a0 10 f9 1c be f5 6b 5f bf 3e 32 fd bf df 5b 93 bf
       -0.15329385 -0.87274104 -1.9780958 -1.1512412
0003b0 a3 c7 34 3e 8f 81 d1 bd a5 e2 a0 3e 41 2b 96 3e
       0.1765428 -0.102297895 0.31422916 0.29329875
0003c0 d3 3b 85 bf 1f 42 cd 3e d9 8e bb be 81 d1 20 3e
       -1.0408882 0.4008951 -0.36632422 0.1570492
0003d0 56 62 75 bf 5c 08 ea 3d d9 60 b4 be f7 06 cc 3f
       -0.95853174 0.11427376 -0.3523014 1.5939626
0003e0 ce 4a ae 3f 7c 5e 63 bf ea 4c 82 3f c0 c4 b8 3e
       1.3616579 -0.88816047 1.0179722 0.36087608
0003f0 61 84 45 3f 03 11 43 3f a9 4d 9e 3e d4 35 be 3c
       0.7715512 0.7619783 0.30918625 0.023219027

cls_token f4 [1, 1, 64]
000000 d5 e3 27 bf ac 69 c5 3f 6c 30 76 3f 44 fa d0 3e
       -0.6558202 1.5422873 0.96167636 0.40815938
000010 49 c8 bb be 59 f7 c0 be c1 8d e5 3f 1a d8 b5 3f
       -0.36676243 -0.3768871 1.7933885 1.4206574
000020 2e cb bc bf b2 38 f1 bd 1e 8e 28 3f 11 fd 47 3f
       -1.4749506 -0.11778392 0.65841854 0.78120524
000030 1e da 32 3e 67 dd ca bf 0e 4e 1e bf 52 08 67 bc
       0.17466018 -1.5848817 -0.6183785 -0.014101105
000040 47 a4 a5 3f 0f a6 bb bf 20 21 05 c0 dc 5b ac bf
       1.2940758 -1.4660052 -2.0801468 -1.3465533
000050 bd 75 f0 3e 8e 1c 22 3f b3 85 73 bf 01 6c 85 3f
       0.46964827 0.6332482 -0.95125884 1.0423585
000060 15 9b 28 3e cf 09 47 bf e2 62 94 bf fe a5 80 3f
       0.16465409 -0.7774934 -1.1592677 1.0050657
000070 cb 27 82 3f ab 5d 0c 3f 60 a2 3a 3d 57 01 16 40
       1.0168394 0.54830426 0.04556501 2.3438318
000080 07 df c6 3f f7 b1 a8 be 03 f1 5d bf 42 34 f9 be
       1.5536813 -0.32948276 -0.8669588 -0.48672682
000090 da 39 b2 3f 95 28 fb 3f 2e d4 b9 bf f0 41 0a 3f
       1.3923905 1.962176 -1.4517877 0.5400686
0000a0 09 c8 9c 3d 7c 45 c3 3e 1f 11 d1 be 6f b5 74 bf
       0.07655341 0.3813895 -0.40833375 -0.95589346
0000b0 07 d5 0d bf e8 bc 99 3e ac c2 fd 3f 13 ea 8a bf
       -0.5540318 0.30026937 1.9825034 -1.0852684
0000c0 c1 6c d6 3f 80 4c c2 3b 8c ff 5c bf 1c 8a 80 3f
       1.6751939 0.0059295297 -0.86327434 1.0042148
0000d0 38 cd 80 bf 8f 17 10 bf ea 18 96 3f 41 0c 95 bc
       -1.0062628 -0.5628595 1.1726353 -0.01819432
0000e0 e0 e9 49 3d f9 f0 5c bf 73 25 90 bf fa a5 c4 3f
       0.049295306 -0.86305195 -1.1261429 1.5363152
0000f0 69 c2 11 bf 23 10 6f 3f 70 e6 e5 be 8b 30 4f 3f
       -0.5693727 0.93384 -0.44902372 0.80933446

patch_to_embedding.weight f4 [64, 64]
000000 0e 76 b1 3d 1d 8a 02 3d 1f 65 9a 3c 50 a0 3f 3d
       0.08665095 0.031869996 0.018847046 0.046783745
000010 d2 23 b4 3c e4 48 21 bd 67 6f 91 bd 8b bf 32 bd
       0.021989737 -0.039376155 -0.071013264 -0.0436397
000020 2e 4d 2e 3e f3 8c 17 3e cf ed bb 3d 05 a4 a2 3d
       0.17021629 0.14799862 0.09176218 0.079414405
000030 87 ac 0c 3e 9d c8 0c 3e ee 03 c6 3d 12 95 ea 3c
       0.13737689 0.13748403 0.09668718 0.028635535
000040 00 59 b0 3d be 72 f9 bc e4 b4 ba 3d 2a d5 00 3e
       0.086107254 -0.030450221 0.091165334 0.12581316
000050 fd 65 75 3d f2 2d 22 bd 2a d9 55 3d a5 89 fb 3d
       0.059911717 -0.039594598 0.052209057 0.12282113
000060 74 7d d0 3c e6 69 b4 3d 9b e7 45 3d a7 ae be 3d
       0.025450446 0.08809261 0.04831658 0.09310656
000070 d7 bc 9e 3d 54 0e 44 3d bd be ae bd 83 41 05 3e
       0.07750862 0.047865227 -0.08532474 0.13013272
000080 42 8b a5 bd 6d fc 92 bd 5a e0 12 3e ea 88 dc 3a
       -0.08083202 -0.07177053 0.14343396 0.0016825472
000090 f1 e1 a9 bd ed 26 03 3e ea e6 66 bc 68 df ed 3d
       -0.08295048 0.12807818 -0.01409314 0.11614877
0000a0 9e c8 03 3e 4e 1f b0 bd c8 6f bc bd 5f 0d 06 3d
       0.12869498 -0.08599721 -0.09201008 0.032727595
0000b0 7b c7 b9 bb 71 d0 b6 bd c0 3d 4b bd 33 cc dd 3d
       -0.005669532 -0.08926476 -0.049619436 0.108299635
0000c0 f9 b0 c0 3d 30 a2 aa 3d 4d fb c3 3d 9a ee c0 3d
       0.09408755 0.08331716 0.09569416 0.0942051
0000d0 94 04 f0 3d 4e 60 b5 3c a6 2f cf 3c 1e 96 1a 3e
       0.11719623 0.022140648 0.025291275 0.15096328
0000e0 20 08 48 3d 9a 33 9b 3c 74 9c 07 3e 5e ac dc 3d
       0.048835874 0.018945504 0.13243276 0.10775064
0000f0 c3 10 3b 3d a4 21 d5 3d 04 a0 15 3e a2 6f c4 3c
       0.045670282 0.10406807 0.14611822 0.023979012
000100 af 63 0d 3d 7b eb f6 3d 83 ca 4f 3e cb 3c 5e 3c
       0.034518894 0.12056633 0.20292096 0.013564299
000110 ff f1 f8 bc d8 2f e9 3c 55 09 be 3d 16 4b da bc
       -0.03038883 0.028465196 0.09279124 -0.026647132
000120 a3 e3 d7 3b a4 0f c4 3d 6b 6c 3e 3e 50 a6 0f 3e
       0.0065884157 0.09573296 0.18596046 0.14028287
000130 5e c7 1d 3e dc 33 fc 3d 84 9f d1 3d b1 e4 37 3e
       0.15408084 0.12314579 0.10235503 0.17958333
000140 ad 82 db 3c 73 31 63 3d 6c 50 b0 3d e0 b6 9a 3d
       0.02679571 0.05546708 0.08609089 0.07554412
000150 13 40 85 3d cc d0 51 3c 54 d4 24 3e 76 93 f2 3d
       0.06506362 0.012806129 0.16096622 0.11844532
000160 59 a1 0a bd 89 4b b6 3d 56 20 56 bd 78 79 32 3e
       -0.03384528 0.08901126 -0.05227693 0.17429149
000170 5c 9e e0 3d 0a 7c 05 3e a9 5a 3a 3e c7 52 20 3e
       0.10967705 0.13035598 0.18198647 0.15656577
000180 8d d9 0b 3e 2f fe cc 3c cc f7 51 3d 00 5e 11 3e
       0.13657208 0.025023548 0.05126171 0.14196014
000190 f8 58 24 3e 0f 9a e6 3c cc c7 28 3e 50 f4 0a 3e
       0.16049564 0.028149633 0.16482466 0.1356976
0001a0 a5 14 2f 3e 7b 5d 5f 3d 16 6d 8f 3d 83 9b c8 bb
       0.17097719 0.05453251 0.07003228 -0.006122054
0001b0 28 d3 59 bd f4 f3 40 3d 3a 5d a9 3d 04 db 16 bd
       -0.05317989 0.04710765 0.08269735 -0.036829963
0001c0 34 75 d6 3d 61 0a 2a bd 34 fc 37 bd 48 9a 3a 3e
       0.104715735 -0.041513804 -0.044918254 0.18222916
0001d0 8b 4a d2 bc 2a e6 84 3d 17 d3 cf 3c 39 7d e1 3d
       -0.02567031 0.06489213 0.02536921 0.110102125
0001e0 7e bf b1 3d bb 18 9b 3c a6 73 f0 39 e9 59 04 bd
       0.08679102 0.01893269 0.00045862532 -0.032312308
0001f0 dd 96 19 3d 97 de 05 3e 33 7e 23 3d 81 b0 2d bd
       0.03749739 0.13073193 0.039915275 -0.042404655
000200 ee 02 63 3d 76 58 cc bd c2 01 b2 bd bb e4 be 3d
       0.055422716 -0.0997781 -0.086917415 0.093209706
000210 2c 4b cb bd da 54 67 3c a1 35 93 bd a7 2d dd 3d
       -0.09926447 0.014119351 -0.07187963 0.10799723
000220 dd 92 81 bd f1 36 d2 bd ef f3 de 3d f1 83 d4 3c
       -0.0632684 -0.102643855 0.108863704 0.02594182
000230 d6 ad a8 bd 6a d2 9e 3d 40 f0 c1 bd 51 2f 51 3d
       -0.082362816 0.07754977 -0.09469652 0.051070515
000240 e5 8f 32 bd e8 cb 96 3d d0 88 b4 3d 18 e3 2b bc
       -0.04359426 0.07363111 0.088151574 -0.010491155
000250 f2 20 dc 3d f7 dc dc 3c 84 a2 24 bb dd 77 e0 3d
       0.10748471 0.026960833 -0.002512128 0.10960362
000260 77 78 9b 3d 18 e4 59 bd 35 9e 6a 3d 9d 3a 87 bd
       0.07591336 -0.053196043 0.057279784 -0.066029765
000270 9a 1a 56 3c 14 dc c4 bd 41 f1 a8 3d e1 c7 f0 bd
       0.013067866 -0.09612289 0.082491405 -0.11756874
000280 b7 44 9f bc f2 16 9d 3d 4b 15 1e bd 9e ca 02 3e
       -0.019441945 0.07670392 -0.038594525 0.12772605
000290 db 5d 2b 3d 07 f3 05 3b 4a 98 7e 3d f1 59 b3 bd
       0.041837554 0.0020439045 0.062156953 -0.08757389
0002a0 57 8a 8b 3d 6d f6 f1 bd 70 db 2e 3d b3 55 5c bc
       0.068134956 -0.1181458 0.04268974 -0.013448167
0002b0 74 5b dd 3d b8 7e aa bc 09 52 83 3c af 55 e8 bd
       0.10808459 -0.020812377 0.016030328 -0.11344468
0002c0 c7 e9 b4 3d c2 9f eb bd b7 09 92 3d 55 c6 26 3d
       0.08833652 -0.11505081 0.07130759 0.040716488
0002d0 2f 56 d5 3d 5d 14 f3 3d 6a 0c 41 3c a1 f8 d1 bd
       0.10416829 0.11869118 0.011782745 -0.102525
0002e0 73 f5 e6 3d 1e 06 81 bd 0b 0d ce bd 89 46 7f 3d
       0.112772845 -0.06299995 -0.100610815 0.062323127
0002f0 38 b0 63 bd 48 41 bb 3d 54 ad b8 3d 43 c0 26 bd
       -0.055587977 0.09143311 0.09017435 -0.0407107
000300 e4 17 e9 bd 6e 2b 06 be 05 23 0a be d4 a0 3d be
       -0.1138151 -0.13102505 -0.13489921 -0.18518382
000310 d1 61 ee bd 05 38 35 3d ae 03 6f ba c4 e3 28 bd
       -0.11639751 0.044242878 -0.0009117675 -0.04123284
000320 47 11 35 be 9d 12 17 bd 79 40 c9 bd 75 55 0d be
       -0.17682372 -0.036882985 -0.0982675 -0.1380213
000330 4f 4e d0 bc c9 3a 0d be 34 8a 4c bd e6 01 c1 bd
       -0.025427965 -0.13791956 -0.04993649 -0.0942419
000340 5f 8d 2a be d4 a4 28 3c 02 ea 45 bd 82 98 ae 3c
       -0.16655491 0.010293204 -0.04831887 0.021312956
000350 65 f5 bd bd 54 77 39 bd 98 b6 df bd de 48 47 3d
       -0.09275321 -0.045279816 -0.10923499 0.048653476
000360 64 32 f2 bd 2c f0 10 bd a1 cb 6b 3d 92 2e 29 be
       -0.118260175 -0.035385296 0.057567243 -0.16521671
000370 70 77 ec bd a5 d7 b5 3b dc a0 8a bd 0d d4 b9 bd
       -0.115462184 0.0055493885 -0.06768963 -0.090736486
000380 51 45 36 be 87 80 76 3d 0f a2 4d 3b e5 57 6b bd
       -0.1779988 0.060181167 0.0031377112 -0.05745687
000390 ad 7b c0 bc ea 18 05 3d 6d 87 97 3d af bc cd bd
       -0.023496473 0.032494463 0.07398877 -0.10045754
0003a0 6d ab 08 be 9e d0 18 be cd 48 1b be 6a a3 86 3c
       -0.13346644 -0.14923331 -0.1516449 0.016435344
0003b0 3f 3d 29 be bd ea 33 3d 75 28 87 3d 3d 26 0c be
       -0.1652727 0.043925036 0.065995134 -0.13686462
0003c0 d7 d4 1c 3d 1b 45 ba 3c 3f 81 3d be 7c d9 d5 bd
       0.038288917 0.02273803 -0.18506335 -0.104418725
0003d0 01 6a ad 3b 9c 80 bf bd 9d 51 ba bd 0e ed 8d bd
       0.0052921777 -0.09350702 -0.09097598 -0.0692998
0003e0 80 49 b1 3c df c8 1e be 0f 7c d4 bd fa d2 ce bd
       0.021641493 -0.15506314 -0.10375225 -0.10098834
0003f0 aa b3 03 bd 38 f7 05 be ad f3 f6 bd 90 7c 9d bd
       -0.032153763 -0.13082588 -0.12058196 -0.07689774

patch_to_embedding.bias f4 [64]
000000 12 6d 18 be 11 f7 d5 3c a0 92 45 3d b3 39 33 3e
       -0.14885357 0.026118787 0.048235536 0.1750248
000010 99 44 08 3e 1f a4 c8 3d 8e 0f 74 3d 70 ed 58 bd
       0.13307418 0.097969286 0.059585147 -0.052960813
000020 5f 4b 0e 3d 2f 18 1f 3e 00 71 85 3d c6 53 1b bd
       0.03473985 0.15536569 0.06515694 -0.03792169
000030 7e c8 7f 3c 96 86 83 bc 31 2d d1 bd 36 95 8d 3c
       0.015611766 -0.016055387 -0.10213698 0.017283063
000040 e3 c8 dc 3c 40 e7 b0 bd ad 3e 2e 3e f5 8d b5 bd
       0.026951259 -0.086378574 0.17016096 -0.08864967
000050 e5 70 18 3c c9 7d e5 bc d7 8a 0e 3e 01 2b c0 bd
       0.00930426 -0.02801408 0.1392015 -0.09383202
000060 69 68 60 3d 81 d2 82 3d 99 20 87 bd b3 42 19 3e
       0.054787073 0.06387807 -0.065980144 0.1496685
000070 a2 be 3a bd ce db bf 3d 8a 14 42 bd 92 cd f2 bd
       -0.045591958 0.09368096 -0.04738287 -0.11855616
000080 f3 cc 00 be c1 32 ad 3d e1 7e 0e 3d f9 1f 07 be
       -0.12578182 0.08456946 0.03478897 -0.1319579
000090 05 a3 f1 39 5b 89 18 be 32 41 d5 bd 27 f0 77 3c
       0.0004608856 -0.14896147 -0.10412826 0.01513294
0000a0 ad 4f f2 bd 85 42 91 bc 0c 88 04 3d da ad de bd
       -0.11831603 -0.017731914 0.032356307 -0.10873003
0000b0 07 31 c9 bc f2 e5 72 bc 8e d2 04 3e 22 58 43 bd
       -0.02455951 -0.014825331 0.12970945 -0.047691472
0000c0 c9 c9 81 3a bf e4 a5 3d ae 03 16 3e 97 26 06 be
       0.0009902056 0.081002705 0.14649841 -0.13100658
0000d0 2c 5c 43 3d bf b2 c7 3d a6 65 6a bd d1 29 6b 3d
       0.047695324 0.0975089 -0.057225846 0.057412926
0000e0 9b f2 7a 3d 9b f5 cf bd e0 e9 d2 3b ea 45 2c bc
       0.061266523 -0.101542674 0.0064365715 -0.010514716
0000f0 ce fc 1d bd 2f 83 15 3e 58 30 d2 bd 95 ce 9e 3d
       -0.03857117 0.14600824 -0.10263127 0.07754246

transformer.layers.0.0.fn.norm.weight f4 [64]
000000 b4 49 72 3f 85 cf 6c 3f 72 9c 55 3f e3 73 87 3f
       0.9464371 0.9250415 0.8344184 1.0582241
000010 7f fb 2a 3f 7a 4a 1c 3f 07 e9 57 3f 7c cf 58 3f
       0.6679 0.6105114 0.84339947 0.84691596
000020 f5 1a 6c 3f 9f 20 7b 3f 73 ff 74 3f de 20 6e 3f
       0.92228633 0.9809665 0.95702285 0.930189
000030 db ce 46 3f f7 61 66 3f 60 76 3c 3f d2 9f 5c 3f
       0.77659386 0.8999323 0.73618126 0.86181366
000040 5c 38 3a 3f a8 3c 3b 3f 2a ae 38 3f 6d 7c 6b 3f
       0.7274225 0.7313943 0.72140753 0.91986734
000050 bf 4f 57 3f 34 8b 6a 3f b4 6e 87 3f ac 02 5d 3f
       0.8410606 0.9161866 1.0580659 0.863322
000060 e7 d0 3c 3f 5c b0 78 3f f7 03 63 3f 9d 1f 7a 3f
       0.7375626 0.97144103 0.88677925 0.9770449
000070 4c 5a 6a 3f ec 56 5f 3f 5d 0d 50 3f 70 61 46 3f
       0.9154403 0.8724201 0.8127039 0.7749243
000080 70 1e 67 3f ca 95 82 3f 9e de 5c 3f f4 5d 81 3f
       0.9028082 1.0201962 0.86277187 1.0106797
000090 e6 3c 64 3f 31 f9 59 3f 72 ef 70 3f 4b d2 66 3f
       0.89155424 0.8514586 0.94115365 0.9016463
0000a0 ca a3 6e 3f 16 3b 49 3f e4 2f 62 3f d7 91 5d 3f
       0.9321867 0.78605783 0.88354325 0.8655066
0000b0 2d e9 58 3f be 0f 7c 3f 56 a2 39 3f cd 59 80 3f
       0.847308 0.9846152 0.7251333 1.0027405
0000c0 c7 8b 4f 3f 47 0d 4d 3f db 4d 48 3f e4 4f 6c 3f
       0.8107266 0.80098385 0.782438 0.92309403
0000d0 b6 6c 7f 3f d5 e5 52 3f 33 da 59 3f b9 5f 6a 3f
       0.99775255 0.82381946 0.8509857 0.9155231
0000e0 0a 8d 4c 3f 48 71 79 3f 15 85 75 3f bf c6 4a 3f
       0.7990271 0.9743848 0.9590619 0.7920951
0000f0 7b 4f 84 3f 6c d6 67 3f af d5 6e 3f bc 52 65 3f
       1.0336756 0.90561557 0.93294805 0.8957937

transformer.layers.0.0.fn.norm.bias f4 [64]
000000 6f 6f 96 bd 37 d2 9c bd bc 9f 85 bd 73 9d 96 3d
       -0.07345473 -0.07657283 -0.065246075 0.0735425
000010 54 a0 a1 3d 93 2a f6 3d 58 7f 69 3d d2 fc bd bd
       0.07891908 0.12019839 0.05700621 -0.09276737
000020 7a 57 90 bd 3b 16 9a 3d e9 11 92 3d 11 32 aa 3d
       -0.07047935 0.075237714 0.07132322 0.08310331
000030 44 c5 7a 3d ce ab 8a bd bd 0d 64 bd 61 96 b2 bd
       0.061223283 -0.067710504 -0.055677164 -0.08720089
000040 13 a2 81 bd be 25 0c bd 22 22 0d 3d 71 bc b8 3c
       -0.06329741 -0.03421568 0.03445638 0.022550793
000050 52 f7 a2 bc cf 24 79 3d 64 62 91 3d 53 d4 e1 bd
       -0.019893322 0.06082612 0.07098845 -0.11026826
000060 c2 5d f9 bc cc c9 97 3d 09 8e 6c 3c 91 7b 34 3d
       -0.030440215 0.074115366 0.014438161 0.044063155
000070 1b f2 ea 3c 4f df b1 3c 45 6c 43 3d 76 73 b8 3b
       0.028679898 0.021712927 0.047710676 0.0056289984
000080 12 10 3f bd d4 1c 7e 3d 61 25 98 3d f9 6f a4 bd
       -0.046646185 0.06203921 0.074290045 -0.080291696
000090 59 ae 83 bc 80 7e 96 bd 9c 3d e3 3c d1 db c4 3c
       -0.016074346 -0.07348347 0.027739339 0.024030598
0000a0 bb 95 0b bd 48 a1 83 3d f6 4b 67 3d 8f 73 18 bd
       -0.03407834 0.06427246 0.056468926 -0.03721958
0000b0 83 9f d3 bc 95 8b 82 bd bc 85 fb 3c 1c 26 6a bd
       -0.025832897 -0.063742794 0.030703418 -0.05716525
0000c0 81 41 b7 3d fc 27 a4 3d 76 55 b1 3d 40 9a 9e bd
       0.08948041 0.08015439 0.086588785 -0.077442646
0000d0 92 31 f8 bc 3a 12 39 3d e1 4b d9 3d b7 af 6a 3d
       -0.030297074 0.045183398 0.10610176 0.05729648
0000e0 27 63 ee 3c e1 14 8f bc 6e b5 6a 3d 91 e2 d4 bd
       0.029100014 -0.01746601 0.05730193 -0.103947766
0000f0 bd 53 e2 bc bb 7f f0 3c ec ec 1c bd 9c b9 af bc
       -0.02762782 0.029357782 -0.038311884 -0.02145081

transformer.layers.0.0.fn.fn.to_qkv.weight f4 [192, 64]
000000 97 8d 37 3e ea bd f3 3d 5a 20 a6 3d c0 5e 0a bd
       0.17925106 0.119014576 0.08111639 -0.033781767
000010 87 28 a5 3d 61 8b b8 3b 88 80 16 3c 17 9e d0 bd
       0.080643706 0.0056318496 0.009185918 -0.10186403
000020 8b 8d 01 be 63 cc b8 3d 61 d1 05 bc d7 37 3e 3a
       -0.1265165 0.09023359 -0.008167596 0.00072562456
000030 f7 5f b5 bd 8f b0 61 3d 1e 22 9d bc 7f c2 52 bd
       -0.088561945 0.05510002 -0.019181307 -0.051455017
000040 a4 cc ad 3d 3a ae 8d bc 5b 4b 16 be 3b dd 45 bd
       0.08486298 -0.017294992 -0.14677183 -0.048306685
000050 b2 3e b2 bc 18 ee 52 bd 9c 1a 32 be 6d 97 75 3d
       -0.021758411 -0.051496595 -0.17392963 0.059958864
000060 50 b9 e3 3d 72 e5 34 bb 9b b6 09 be 0d 1e 6f 3b
       0.1111933 -0.002760258 -0.13448565 0.0036486418
000070 86 20 c1 3d 8e 0b b6 3c 28 22 f6 bd 97 c7 9d 3d
       0.094300315 0.022222307 -0.120182335 0.07704084
000080 da 47 b7 bb 63 1b af bd 1d 5a 50 3c e7 8e 06 bd
       -0.005593282 -0.085501455 0.012716797 -0.032851126
000090 f4 11 58 3d cb 75 59 3d 38 a3 91 bc 23 a0 0b be
       0.052751496 0.05309085 -0.017778024 -0.13635306
0000a0 fe 6a 48 bd 6c 27 4d bd 23 3d 07 3d 9e 71 31 bd
       -0.04893016 -0.050086424 0.03301729 -0.043321244
0000b0 77 a4 a6 bd fd ee 25 bd 94 a4 22 3e 93 a7 94 3c
       -0.08136838 -0.04051112 0.15883094 0.018146312
0000c0 df b8 1d 3e 01 70 14 be 54 98 89 bd 69 27 31 bc
       0.15402554 -0.14495851 -0.067185074 -0.010812619
0000d0 2e b4 10 be ac 0c f2 bc 43 16 12 3e 85 64 bc bd
       -0.14131233 -0.029547058 0.14266305 -0.0919886
0000e0 61 e0 db ba 1b eb ba bd 57 bc 9d bd 3e 00 84 3d
       -0.0016775244 -0.09126874 -0.077019386 0.06445359
0000f0 24 91 26 be 10 f0 39 bd 79 2f 8e bc b4 95 81 3d
       -0.16266304 -0.045394957 -0.017356621 0.06327382
000100 8a 8d 04 3e 81 ce 10 3e 57 76 0f 3e c4 67 86 bd
       0.12944618 0.14141275 0.14009987 -0.065627605
000110 4d 0b e4 3d 55 f7 24 be 1a 32 06 3d 43 d7 f8 bd
       0.11134968 -0.16109975 0.032762624 -0.12150433
000120 cf 97 6c bd 2c 83 92 3d 74 cb be 3d c0 92 49 be
       -0.057761963 0.07153925 0.09316149 -0.19684887
000130 f4 8c 96 b9 37 a0 80 be c1 94 84 bd 4d 2b 70 3d
       -0.00028715248 -0.25122234 -0.06473685 0.058635045
000140 50 4a 07 3d e1 d9 ba bc 68 05 d5 bd d2 70 9e bd
       0.033029854 -0.02280897 -0.10401422 -0.077363625
000150 aa 2d 35 be 42 2c df 3c c3 23 e1 bd c9 48 39 3e
       -0.176932 0.027242783 -0.10993149 0.18094172
000160 d0 f0 70 3e 36 05 92 3d 50 6e 35 bc 6a 42 84 3e
       0.23529363 0.071299 -0.011073664 0.2583192
000170 b2 e0 80 3d c6 93 b4 3d 96 52 88 bc 04 60 37 3e
       0.06292857 0.08817248 -0.016640943 0.17907721
000180 34 8b 3a be 59 d8 7c be fa 6b 81 be 9b 66 8c 3d
       -0.18217164 -0.24691905 -0.25277692 0.06855508
000190 2c bc 3d 3e a3 cf 90 3d b9 33 69 bc 12 56 19 be
       0.18528813 0.070708536 -0.014233523 -0.1497424
0001a0 3a 78 68 bd c8 0e 74 3d 75 33 b5 bc 26 6c cc bd
       -0.056755282 0.05958441 -0.022119263 -0.09981565
0001b0 2e bb 31 bd 58 98 46 3e 73 c1 c8 3c 66 5c 66 bd
       -0.0433914 0.19394052 0.024506306 -0.05624046
0001c0 ec 93 c6 3d e6 57 58 be 08 89 4c bd 33 46 07 3d
       0.096961826 -0.2112728 -0.04993537 0.03302593
0001d0 e8 ce cb bd f7 e8 e7 3c 41 92 2a 3d 59 02 9e bd
       -0.099515736 0.028309328 0.041643385 -0.077152915
0001e0 64 10 cd bd 68 da b8 bc 8e 03 24 bd 6c 64 fd 3c
       -0.10012892 -0.022565082 -0.040042453 0.030931674
0001f0 65 07 08 bd 22 43 80 3e f8 97 07 be 2e a0 4e 3e
       -0.033210177 0.25051218 -0.13241565 0.20178291
000200 b1 5b de 3d 7c 10 a6 bd 18 62 be 3d 08 cc 78 3d
       0.108573325 -0.08108613 0.09296054 0.060741454
000210 25 74 cc bd 99 e5 71 3c bc 67 a2 3d f2 84 a8 3c
       -0.0998309 0.014764213 0.07929942 0.020571206
000220 4f e7 5b bd ac ce 1e 3d 72 68 d3 3d b0 a4 fd 3c
       -0.05368739 0.038771316 0.10322656 0.030962318
000230 18 04 dc bd a7 84 63 bd 5e 34 d1 3d d8 57 c9 3d
       -0.10742968 -0.05554643 0.102150664 0.09831208
000240 1f 07 2b bd 7c 72 f4 bd a6 b4 88 3d 0d ca c5 3d
       -0.041754838 -0.11935899 0.06675081 0.09657679
000250 a8 42 ce bd 8f 04 9c bd 0c 4f 29 bd e4 9f 4e 3b
       -0.100713074 -0.07618057 -0.04133515 0.0031528408
000260 c1 e1 47 3d a0 49 af 3d da ed 7a bd e1 0b cb 3d
       0.04879928 0.08558965 -0.06126199 0.09914375
000270 67 a6 8e bd 15 90 b2 3d 39 df 84 bb 5b 24 13 bd
       -0.069653325 0.08718888 -0.0040549305 -0.035923343
000280 b2 15 82 3b c0 64 21 3c 76 78 1d 3d 99 13 d2 bc
       0.0039698714 0.009850681 0.03844496 -0.02564411
000290 dc 8f 06 3d d3 f2 53 bd b5 f2 bf bd d0 66 e1 bd
       0.03285204 -0.051745247 -0.093724646 -0.11005938
0002a0 99 41 d2 3c ca 7f b5 3b e7 1b 47 3b c5 3a 9e bd
       0.025666045 0.0055389153 0.0030381621 -0.07726053
0002b0 2e f2 e8 3c 17 62 b2 bd 4e a7 36 3d 30 70 e7 bd
       0.028435793 -0.087101154 0.044593148 -0.11300695
0002c0 4e 8f d8 bd e6 24 f4 bd 59 3a c0 3d c1 40 07 3e
       -0.10574208 -0.119211 0.09386129 0.13208295
0002d0 93 e9 20 3d fa 73 54 3d 11 88 09 3e a4 22 b2 bd
       0.039285254 0.051868416 0.13430811 -0.086980134
0002e0 6a fd 89 3d 0f 10 11 3d 24 c0 90 3d ac db 9e 3d
       0.06737788 0.035415705 0.07067898 0.07756743
0002f0 b6 e1 fa bc 8c fd ab bd 04 de 93 bd 40 06 9a 3c
       -0.030625205 -0.083979696 -0.072200805 0.018801808
000300 dd b7 55 3d 73 ed 61 bd 10 2e aa 3d 95 e2 ff 3b
       0.0521773 -0.05515809 0.08309567 0.007808993
000310 1b 59 f8 bd f8 1a ab bd 27 96 c9 bc 49 21 bf 3d
       -0.121263705 -0.08354753 -0.024607731 0.093325205
000320 b8 4d 1c bc 98 20 b3 3d 3c 93 9d 3d a0 34 03 3e
       -0.009540014 0.08746451 0.07694098 0.12813044
000330 8c 8b 93 3d 90 ae d0 3c 54 e5 37 bd a8 1f b1 bd
       0.07204351 0.025473863 -0.04489644 -0.08648616
000340 19 a6 eb bd 99 bd 86 bd 95 96 9e 3d 5f 1b 39 3d
       -0.1150629 -0.06579132 0.07743565 0.04519212
000350 d6 39 b9 bd 57 7a 7e 3c 95 7c f1 3d 91 0f cc bd
       -0.090442345 0.015532098 0.1179134 -0.099639066
000360 e0 2f 65 3d 2d c0 1e bd f6 71 b4 bd 9d 76 96 3c
       0.05595386 -0.03875749 -0.08810799 0.018367106
000370 6e 09 23 3b fb 58 ed bd 9e 22 d6 3d b6 de d7 bd
       0.0024877447 -0.11589237 0.104558215 -0.105405256
000380 c7 f9 b7 bd c8 41 4a bc 39 0c 80 bd 39 5f 8d 3c
       -0.08983188 -0.012344785 -0.06252331 0.01725732
000390 25 ea 0b 3d 98 8f bb bd be 21 95 bc c7 13 d3 3d
       0.034158845 -0.09158248 -0.018204566 0.103065066
0003a0 8b 70 9c bd c6 60 09 3d 1e 0b ae 3d b3 08 99 bd
       -0.07638653 0.033539556 0.08498214 -0.07472362
0003b0 bf 3c 88 bd b1 d0 8e 3d 22 b1 01 bd ba f6 ca 3d
       -0.066522114 0.069733985 -0.031663068 0.099103406
0003c0 47 93 fa 3c da 93 07 bb f7 b4 da ba 68 b6 c4 bd
       0.030587805 -0.0020687492 -0.0016686012 -0.09605104
0003d0 37 23 44 3b 10 b5 b2 bd 01 1c ef bd b4 e0 9e bd
       0.0029928216 -0.08725941 -0.11675263 -0.077577025
0003e0 9f a2 f2 3b 5e 8e eb bc 99 a9 4c bd a0 d4 6f bd
       0.00740464 -0.02875441 -0.04996643 -0.058552384
0003f0 63 74 8e bc ce f6 b2 bd ed 5b c7 bc f3 11 42 bc
       -0.017389482 -0.087384805 -0.024335826 -0.0118451

transformer.layers.0.0.fn.fn.to_out.weight f4 [64, 64]
000000 06 4c 57 bd fb 31 03 be 71 44 4c 3d 98 4b 77 bd
       -0.052562736 -0.12812035 0.04986996 -0.060374826
000010 26 f0 ad ba 82 77 1e 3e ef c7 5a bd c7 92 1d bc
       -0.0013270422 0.15475276 -0.053413328 -0.009617514
000020 31 51 99 bd 2b 24 80 bc 3c ff eb 3c 5c e4 64 bd
       -0.07486189 -0.015642246 0.028808229 -0.055881843
000030 e0 e6 09 bd ac 76 98 3c 4f f3 87 3d d9 48 5a 3d
       -0.033667445 0.018611275 0.06638204 0.05329213
000040 eb af 16 3c 37 b6 37 3c d0 36 86 bc 97 6f 9d bd
       0.009197216 0.011212877 -0.016383559 -0.076873
000050 42 44 a7 bd 17 0c a1 bc 4b 27 c7 bd 56 5a a1 bd
       -0.08167316 -0.019659085 -0.097242914 -0.07878558
000060 55 8e d0 3c ed 2a b1 bd 53 21 8f 3d f6 a8 3a 3c
       0.025458494 -0.086507656 0.06988778 0.0113928225
000070 74 c6 a2 3d 58 2a 52 bd 37 cf 06 be 8f 8a 7f bd
       0.07948008 -0.051309913 -0.13164984 -0.062388
000080 24 cd 51 bd e9 ea 7d bd 51 7d 64 3d 69 b1 2d be
       -0.051221028 -0.061991606 0.055783574 -0.16962208
000090 78 b7 37 3d eb ab a1 bc 08 20 00 3c 8c a4 69 bc
       0.044852704 -0.019735297 0.007820137 -0.014260422
0000a0 cf b5 db bc 80 a2 0b be d6 6e bc 3d f7 5c 7b bd
       -0.026820092 -0.13636208 0.09200828 -0.061367955
0000b0 47 5e 94 bc e0 4d 86 3c f7 6d 22 bd cb 27 06 be
       -0.018111361 0.016394556 -0.039655652 -0.13101117
0000c0 f2 a8 e5 3d d3 e4 4d 3a a5 b7 89 3d 9d 74 3c 3d
       0.112138644 0.0007854227 0.067244805 0.04600965
0000d0 75 e8 bb 3d 7b d6 ab bd 14 6a dc bd 70 eb 26 bd
       0.09175197 -0.08390518 -0.1076242 -0.040751874
0000e0 8d 4c 71 3d 0a 3a 38 3c bf 9c cc bd 6c 6f ef bd
       0.058910895 0.011244306 -0.099908344 -0.11691174
0000f0 aa 7c f1 bb 28 db 41 bb 73 e7 83 3c 3b 6d 1a 3e
       -0.0073695974 -0.002958009 0.016101575 0.1508073
000100 7a ee c4 3c bb 79 c2 bb a8 58 b8 3a 25 11 c1 3d
       0.024039496 -0.0059349216 0.0014064508 0.09427098
000110 8c f4 e9 3c d4 6c 3d 3b 77 ac 05 bd ee a0 88 3d
       0.028558992 0.0028903978 -0.03263518 0.0667132
000120 f0 11 75 bd 91 8a 49 3d c1 18 0c 3e 4a 29 08 3e
       -0.05983156 0.049204413 0.13681318 0.13297
000130 43 8e 27 3d de f6 b0 3c f2 ac 75 bd 94 56 c3 3d
       0.040907156 0.02160209 -0.059979387 0.09537998
000140 fc df 40 bd 28 b3 6c bc 93 d5 be bd 39 4d e7 bc
       -0.04708861 -0.014447011 -0.0931808 -0.028235065
000150 d1 6d 18 be 01 bc 6f 3d 33 4d 8a 3d 7c 20 e3 bc
       -0.14885642 0.058528904 0.06753006 -0.02772545
000160 9c 18 c1 bb b0 9a ca bb f5 7a 0a be 02 33 0f 3d
       -0.0058928262 -0.006182991 -0.13523467 0.034960754
000170 fc 99 ef 3d 83 39 0a 3d e3 4a 66 bd 0d 13 81 bc
       0.11699292 0.033746254 -0.05622376 -0.015756154
000180 d6 49 48 be 99 2f 4b 3d 4f 7b e1 3d 7e 93 5b be
       -0.19559416 0.04960594 0.110098474 -0.21442983
000190 fe 38 5b bd 05 00 08 3e 7b a5 51 be a1 f4 c3 bd
       -0.05352115 0.13281257 -0.20473282 -0.09568144
0001a0 1f 44 e4 bc be d1 ca bc 04 ec fb bc 7e 3d b0 bd
       -0.027864514 -0.024758216 -0.03075219 -0.08605479
0001b0 09 ab 94 bd 50 cd 64 bd 15 b4 31 3d c9 b0 1f be
       -0.07259185 -0.055859864 0.04338463 -0.15594782
0001c0 6f 36 19 3d 52 cd 81 bb 7a 4d 2e bc 11 87 2e bd
       0.037405428 -0.0039612437 -0.010638589 -0.042609278
0001d0 66 3c 33 3e 40 f9 fd 3d 3c 91 2b be 23 6c ad bd
       0.17503509 0.12401056 -0.16754621 -0.08467891
0001e0 d6 17 38 3d 9b 20 1e bc a7 69 f7 bd bd 7b 4b 3d
       0.044944607 -0.009651328 -0.120806985 0.049678553
0001f0 96 c4 4f 3c 07 91 f4 3b 5e a8 1f bd c9 41 48 bd
       0.012681147 0.0074635777 -0.038978927 -0.048890863
000200 0c ff 0d bc 8c 88 93 3d 70 f5 4a 3d 2e 1c a8 bd
       -0.008666765 0.072037786 0.049550474 -0.082085
000210 ab 4c 45 bd 65 28 a0 3d ee e9 9b bd dc fb d5 3d
       -0.04816882 0.07820205 -0.07612978 0.10448429
000220 d0 f1 c0 bd e4 94 cd 3d 58 32 22 3c d9 85 61 bd
       -0.09421122 0.10038164 0.009899698 -0.055059288
000230 42 b1 85 3d 79 dd 3b bb e5 88 59 bd 37 89 37 bc
       0.0652795 -0.0028665944 -0.05310907 -0.011202148
000240 8c 84 8e 3d be 6e 20 bd 36 11 74 bd 78 56 ac bd
       0.06958875 -0.039168112 -0.059586726 -0.0841493
000250 3c 77 35 3d ca e0 e0 bd ca 5a 3c 3d 5e 42 6b 3d
       0.044303164 -0.10980375 0.04598502 0.05743634
000260 5d 8c 19 3d c0 34 01 3e 28 21 13 bd 58 49 b5 3d
       0.037487376 0.12617779 -0.035920292 0.0885188
000270 23 f7 10 3e 29 f3 01 be cd 7d 7d bd 07 a0 db bd
       0.14156775 -0.12690414 -0.06188755 -0.10723882
000280 5b f5 a8 bd de bf 42 bb bc cf 69 bd c2 ba 3c be
       -0.08249923 -0.0029716413 -0.057082877 -0.18430617
000290 32 de ef 3a a3 47 cb 3d 53 4b 18 be 9f b9 25 bd
       0.0018300472 0.09925773 -0.14872484 -0.040460225
0002a0 2b 20 16 bd 1e 01 08 3c e5 2f 03 3e e1 bf 76 3d
       -0.03665177 0.008301048 0.12811239 0.060241584
0002b0 d0 ae 94 3d 2e d0 96 3d 2f 9a 3f bb eb e0 52 bc
       0.07259905 0.07363926 -0.0029236188 -0.012871007
0002c0 62 5d 30 3d cf 94 eb bd c0 fa e4 3d a3 7e a7 bd
       0.043057807 -0.11502992 0.11180639 -0.08178451
0002d0 6f ac 12 3d 7f 42 57 3d 71 35 18 3d 51 ca 60 bd
       0.035808977 0.05255365 0.03716034 -0.054880444
0002e0 f4 39 ce bd e0 6a 2e 3c 9e b3 dc 3d 10 d0 c9 3d
       -0.100696474 0.010645598 0.10776447 0.09854138
0002f0 1d 8d f9 3c 0c 66 e6 3b b7 3a 14 3c e7 45 2e 3d
       0.030462796 0.007031208 0.009047202 0.042547133
000300 11 e2 16 3d 54 d5 ac 3d 6e 62 7b bd 8c 1d 18 bc
       0.036836687 0.084391266 -0.061373167 -0.009284388
000310 b4 05 fd bc 57 47 d2 3d c2 30 bc bd 12 76 eb 3d
       -0.030886509 0.10267513 -0.09188987 0.114971295
000320 46 35 88 bb ab b7 f1 bd 3e ef f7 3d 23 65 4a 3d
       -0.0041567413 -0.1180261 0.12106179 0.049412858
000330 8d d7 d7 bd 0d db ab 3d b4 41 c8 3d f4 1d 7d ba
       -0.1053916 0.0839139 0.09778157 -0.00096556474
000340 ee ba 5a 3d 9d 93 ae bd 87 f2 ec bd 52 40 b2 3d
       0.053400926 -0.08524249 -0.11569696 0.087036744
000350 e7 70 db 3c 93 14 f8 3b ee 9c 21 3d 99 c6 ae 3b
       0.026787234 0.007570812 0.0394563 0.0053337333
000360 3d 45 68 bd 6d 80 14 bd 58 ba aa 3d db 20 c5 bd
       -0.056706656 -0.03625529 0.083363235 -0.09625407
000370 57 cf 7b 3d a3 de 82 bc b6 c5 71 bc 14 31 9e bc
       0.06147703 -0.015975302 -0.014756611 -0.019310512
000380 4c cc c0 3c 89 8f 9e bc 48 ed a3 3d 4a e5 cb 3d
       0.023534916 -0.019355552 0.08004242 0.09955843
000390 4b 2d 12 3d 04 36 8a bd 5e f0 06 3d 5d b8 89 bd
       0.035687726 -0.06748584 0.032944076 -0.06724618
0003a0 3b 59 69 bd 5f c3 3b bb 8e e4 a7 3d 6f c7 0e bd
       -0.056969862 -0.0028650386 0.0819789 -0.034858163
0003b0 b6 0e 9e 3d f8 92 dd bd ea 37 12 bd a3 a9 f9 3d
       0.0771765 -0.10819048 -0.035697855 0.12190559
0003c0 30 36 f8 3d c2 37 e3 3d d1 ca 82 bd c5 3a b9 ba
       0.121197104 0.11094619 -0.063863404 -0.0014131895
0003d0 45 f0 0b 3d f0 de 9a bd 59 8b 33 3d 02 38 71 bc
       0.034164686 -0.07562053 0.043834064 -0.014722826
0003e0 65 67 f7 bd 7e be e4 3d 1a 37 85 3b 39 ed b6 bb
       -0.12080268 0.11169146 0.0040654065 -0.0055824784
0003f0 9d 0d 59 3d d7 01 00 3e 17 be a8 3c ea 75 81 3d
       0.0529915 0.12500702 0.020598454 0.063213184

transformer.layers.0.0.fn.fn.to_out.bias f4 [64]
000000 92 32 be 3d 7b 3c 48 3c b6 57 0e be 4b 8b fc bb
       0.09286989 0.012221451 -0.13900647 -0.0077070347
000010 f5 28 bf 3d 9c 7a ae bd d4 4d 0a bd 8b 14 c0 bd
       0.09333984 -0.0851948 -0.03376563 -0.09378918
000020 53 01 78 bd f1 62 bb bd 97 6a 3e 3d 02 77 80 3d
       -0.060548138 -0.09149731 0.04648837 0.06272699
000030 d4 dd 14 3d 0d 76 1c bd e2 8a c4 3d 7d cb c9 3c
       0.036344364 -0.03819852 0.09596802 0.024633164
000040 a9 fe 89 3d d3 0e 81 3d a7 bb 06 3e 52 9a 35 3d
       0.06738026 0.063016556 0.13157521 0.044336624
000050 4c 86 fb 3d ee 44 93 bd 3f 4b dd bd 11 c1 a2 3d
       0.122814745 -0.07190882 -0.10805368 0.07946981
000060 db 58 46 3b 98 d8 4e bd d0 93 0d 3e f0 b6 69 3d
       0.0030265364 -0.05049953 0.13825917 0.05705923
000070 4f 99 50 3d 66 6c 24 bd f4 7a 09 3d a3 8e 8f bd
       0.050927456 -0.04014244 0.033564523 -0.07009628
000080 c0 d6 ec 3d 46 3f cd bd b3 e9 20 bd 2e dd 49 3d
       0.11564398 -0.10021834 -0.039285373 0.0492832
000090 15 08 3d bd 13 1b f4 3c e0 85 32 3d 6a cc f9 3d
       -0.046150286 0.029798066 0.043584704 0.12197192
0000a0 cf 96 07 3d ba d2 9b 3d 31 09 30 3d bb 4c 6f 3d
       0.033102807 0.07608552 0.042977516 0.058422785
0000b0 40 ab c0 3d d5 ce d2 bd 71 a9 04 bd af d1 89 bd
       0.09407663 -0.10293356 -0.032388154 -0.06729447
0000c0 09 26 d5 3c 81 9b b4 bd d0 de a3 3d c3 f5 84 bb
       0.026019113 -0.088187225 0.080014825 -0.0040576174
0000d0 2a d5 d2 3d 5f 4c e8 bd ad 44 d1 3d 69 4a 5b bd
       0.10294564 -0.11342692 0.10218177 -0.05353776
0000e0 47 21 6f bc 34 14 9a bd 0e a3 05 bc a6 b5 99 3b
       -0.014595336 -0.07523385 -0.008156551 0.0046908436
0000f0 13 a9 f1 3d 3c 42 65 bd d0 5d a3 bb 4a 4e 7e bc
       0.117998265 -0.05597137 -0.0049855486 -0.015521595

transformer.layers.0.1.fn.norm.weight f4 [64]
000000 a4 b9 7f 3f 56 ea 71 3f 2f 87 77 3f d0 c4 78 3f
       0.9989264 0.94498193 0.9669065 0.9717531
000010 de ae 6b 3f a7 a3 71 3f e4 35 78 3f 63 d7 75 3f
       0.920637 0.9439034 0.9695723 0.9603178
000020 6d 99 7d 3f 70 9e 7d 3f 2f 64 73 3f 22 48 7b 3f
       0.99062234 0.9906988 0.95074743 0.9815694
000030 ae 8b 7b 3f 78 b1 76 3f 93 f6 75 3f 08 5d 76 3f
       0.9826001 0.96364546 0.9607937 0.96235704
000040 49 90 75 3f 2e a4 7b 3f cb a7 7d 3f 72 63 7c 3f
       0.95923287 0.98297393 0.99084157 0.9858924
000050 d1 d2 7a 3f 85 4e 7a 3f 66 0b 79 3f bb fe 6a 3f
       0.9797793 0.9777606 0.9728302 0.9179494
000060 88 99 7b 3f aa 74 80 3f 09 bf 65 3f f5 83 78 3f
       0.98281145 1.0035603 0.8974462 0.9707635
000070 df ff 7d 3f 10 ee 75 3f 87 ae 6d 3f 16 7b 78 3f
       0.99218553 0.9606638 0.9284443 0.97062814
000080 82 8c 64 3f 8f 30 7c 3f 30 ab 7d 3f 15 f0 7c 3f
       0.892769 0.98511595 0.99089336 0.98803836
000090 55 ca 76 3f b4 fc 77 3f d9 47 7c 3f 1c bd 66 3f
       0.96402484 0.9686997 0.9854713 0.9013231
0000a0 91 3f 7c 3f 7e 59 7d 3f 17 1f 74 3f 4d 60 7d 3f
       0.98534495 0.9896468 0.9535994 0.9897507
0000b0 9f 52 75 3f 80 84 7d 3f a4 b1 7f 3f 49 27 7e 3f
       0.95829195 0.99030304 0.99880433 0.99278694
0000c0 48 0f 59 3f c8 6a 7a 3f 1b 4e 78 3f 01 6b 78 3f
       0.8478894 0.97819185 0.9699418 0.97038275
0000d0 f0 99 75 3f d5 0d 6c 3f 2d 74 7e 3f 2a ab 74 3f
       0.95938015 0.92208606 0.9939602 0.95573676
0000e0 65 83 78 3f b1 e8 6d 3f e6 d4 79 3f 84 45 77 3f
       0.9707549 0.92933184 0.9759048 0.9659045
0000f0 32 e8 7b 3f e1 33 7d 3f 58 74 72 3f bc ab 7b 3f
       0.98401177 0.98907286 0.94708776 0.9830892

transformer.layers.0.1.fn.norm.bias f4 [64]
000000 40 42 01 bc 83 2c 68 bd 73 4f 37 bd 71 7f 8d 3c
       -0.00788933 -0.056683075 -0.044753503 0.017272683
000010 68 a2 e4 3c 79 20 61 3d 75 51 ed bc 49 be 35 3c
       0.027909473 0.05496261 -0.028969506 0.011092731
000020 21 27 44 3c ac c1 52 bc 02 ee 8a b9 7f b1 64 3c
       0.01197222 -0.012863558 -0.0002649874 0.013958334
000030 47 af 5b 3c 87 7c 39 3d 7f c9 12 3d 98 8f d0 bc
       0.013408489 0.045284774 0.035836693 -0.025459096
000040 70 3d 33 bd 65 61 86 3b af 60 40 ba e3 c1 cb 3b
       -0.043759763 0.004100966 -0.0007338626 0.0062181815
000050 7f 7f 42 bb b0 d9 63 3c a2 f6 81 3b 3f d6 84 bd
       -0.0029678044 0.013906881 0.0039661685 -0.06486177
000060 5f 80 ac bb 15 ea fe b9 8d 5a b1 3d 63 0f 32 bc
       -0.0052643265 -0.0004862106 0.08659849 -0.010867926
000070 08 f4 3a bc f4 a4 fe 3b 1a de 03 bd 68 1e b6 bc
       -0.011410721 0.007771129 -0.032194234 -0.022231296
000080 03 39 6d bc 7c d8 8b 3c 5f 2d c3 3c 79 fa 61 bc
       -0.014478925 0.017071001 0.023825346 -0.0137926275
000090 47 f3 08 bd 96 06 42 3c 3c 78 54 3c 90 5d 3a 3d
       -0.033435132 0.0118423905 0.012968119 0.045499384
0000a0 77 13 92 3c 39 17 0d bc 1b 83 57 3d c9 e0 d0 3b
       0.017831547 -0.008611494 0.052615266 0.0063744527
0000b0 2e e7 3e 3d 90 b1 ef bb fe 5f 34 bc e3 54 c8 3b
       0.04660719 -0.0073148683 -0.011009214 0.006113635
0000c0 91 8c b0 bd 76 83 a2 3c ed d9 aa 3c ac ab af bc
       -0.08620561 0.019838076 0.020855868 -0.021444164
0000d0 da 91 28 3d e2 7b 48 bd 5f 87 04 3d d9 03 7f 3c
       0.04115472 -0.04894627 0.032355662 0.015564882
0000e0 ed c3 1b 3c 5b 6d 80 3d ba 6d e5 3c 20 f1 1b bd
       0.009507162 0.06270858 0.028006423 -0.03807175
0000f0 95 ba ac bb f3 e7 56 bc 82 8b 48 3d 81 2c 82 bc
       -0.0052712657 -0.013116824 0.04896117 -0.015890362

transformer.layers.0.1.fn.fn.net.0.weight f4 [128, 64]
000000 6c 0b 07 3d f2 e1 29 be ac ea d1 bd 8b 47 ce 3d
       0.032969877 -0.16590098 -0.10249838 0.100722395
000010 d8 fb 35 3e 48 9d f5 bc e2 f9 ea bd 6b 04 6f 3c
       0.17771852 -0.029982224 -0.114734426 0.014588456
000020 4d 0a de 3d 15 5b 03 be a9 56 85 3d 2f ec 21 3e
       0.108418085 -0.12827714 0.0651067 0.15812753
000030 67 d3 dc bc 88 95 e2 3b d1 28 6e 3d 3e 17 e5 bd
       -0.026956273 0.006914798 0.058144394 -0.11186074
000040 25 af 4f be 98 a8 e0 bc 32 13 c6 3c 43 50 b0 3d
       -0.20281656 -0.027424142 0.024179075 0.08609059
000050 85 13 e2 3d 57 5c 17 3c f4 39 c6 bd d7 95 1c be
       0.11038879 0.009238324 -0.096790224 -0.15291534
000060 72 ce d4 3b 6c db ee 3b 2d 84 02 3d ce 6f a1 bd
       0.0064943368 0.0072893407 0.031864334 -0.07882653
000070 28 18 0a be 07 a8 d0 bd 5e 1f a6 3d 10 ea 68 3d
       -0.13485777 -0.10188299 0.081114516 0.056863844
000080 33 8e ce 3d 75 03 20 3d 5e b3 a8 3c 02 b6 7b bb
       0.10085716 0.039065797 0.020593341 -0.0038408046
000090 b4 1b 78 3d d8 fd 26 3c 02 3a b6 bd 09 d4 48 3e
       0.060573295 0.010192357 -0.08897783 0.19612135
0000a0 c0 f6 f2 3d 97 cc 3a bc 8f 83 a1 3d 2e 1f 61 3c
       0.1186347 -0.011401317 0.07886421 0.013740344
0000b0 78 98 39 3d 51 09 0a bd 30 cb ab 3b b3 17 1d 3e
       0.04531142 -0.03370029 0.0052427277 0.15341072
0000c0 c9 78 d1 bd 78 ee 52 bc bf ed a9 bc 0a dc 49 bd
       -0.10228116 -0.012874238 -0.020743249 -0.04928211
0000d0 e6 be 1c bd 12 da 34 be 6d 20 3b 3c 1c 92 c6 bd
       -0.038267992 -0.17661312 0.011421305 -0.09695837
0000e0 d7 0c b4 3c 7a 2d 46 3e 7a 10 7f bd af 70 ba bc
       0.021978779 0.19353285 -0.062271573 -0.02275881
0000f0 e2 57 b1 3d 52 1f ed bd b0 4f 49 3d 88 ab e2 bd
       0.086593404 -0.115782395 0.04914826 -0.11067873
000100 48 67 02 be 0b c2 0a be c6 1c f9 3c ed 99 6d bc
       -0.12734711 -0.13550584 0.030409228 -0.014502031
000110 67 a6 bd bd b2 17 12 bd f2 39 40 3d 04 5e dd 3c
       -0.09260254 -0.03566713 0.04693026 0.02702237
000120 22 57 ec bc d0 b5 a5 bc 0b ac 85 bd c0 9a 16 3d
       -0.028850142 -0.020228297 -0.06526955 0.036768675
000130 99 a9 7c 3d be 07 4d bd ad 78 b1 bc 0c b4 1d 3d
       0.06168518 -0.05005621 -0.021663988 0.038501784
000140 ef ab c9 bd f8 6d 24 3d 99 1d 03 3e 34 8e a8 bc
       -0.09847247 0.040143937 0.1280426 -0.02057562
000150 6c 4d a7 bc 24 d4 31 bd be b0 99 3d 52 51 21 3d
       -0.02042266 -0.043415204 0.07504414 0.039384194
000160 1e c5 24 3d 3a e5 63 3c 33 40 14 bd 00 c7 c8 bd
       0.040227048 0.013909632 -0.036194038 -0.09803581
000170 4d 79 03 3b b9 bc 01 be 63 42 02 3e 14 40 93 3d
       0.0020061315 -0.12669648 0.12720637 0.07189956
000180 9a ac 67 bd 14 91 dc 3d c7 67 80 bd c0 8b 29 be
       -0.05656109 0.10769859 -0.06269794 -0.16557217
000190 27 d6 58 3d 61 28 82 bd 9d 1a 53 3d 11 99 5b bd
       0.052938607 -0.06355358 0.051539052 -0.053612772
0001a0 41 a6 b9 3d fa 70 f7 bd 30 88 03 bd 08 70 8e 3d
       0.090649135 -0.120820954 -0.0321123 0.06954962
0001b0 d2 0f aa 3c d9 4c c2 bd 5c 60 ca 3d 16 34 db 3d
       0.020759497 -0.09487314 0.0988166 0.10703294
0001c0 4e 86 43 3d 82 7d d7 3c 8f ce 33 3e 25 b1 fa bc
       0.047735505 0.026304964 0.17559265 -0.030602047
0001d0 88 69 b0 3d 83 5e 50 3c dd 3b da 3b 67 a0 05 3e
       0.086138785 0.012717846 0.0066599683 0.1304947
0001e0 8f 04 12 3e e9 a1 00 bd 9c f5 d7 3d 48 0f 59 3b
       0.14259551 -0.03140441 0.10544893 0.003312068
0001f0 42 34 3e 3e 64 82 0a be 71 c5 25 3d 80 59 87 bd
       0.18574622 -0.13526303 0.040471498 -0.06608868
000200 b5 1a 18 bd 05 8e a9 bc 8c 21 fa bd 92 3a b0 3c
       -0.037134845 -0.020697603 -0.1221343 0.021512304
000210 47 68 14 bd 02 44 f0 3c 62 be 07 bd 2b 72 8f bd
       -0.03623226 0.029329304 -0.033140548 -0.07004198
000220 0a 2c 66 bd 41 4e 01 3d c4 ad 6f 3d c3 db 21 bd
       -0.056194343 0.03156877 0.058515325 -0.03951622
000230 c6 60 79 3d 3f d7 88 bb a3 d6 c2 3d 91 96 d1 3b
       0.060883306 -0.00417605 0.09513595 0.0063961227
000240 04 9c 0c be 73 ab b7 bd e6 27 07 3d b6 85 ab 3c
       -0.1373139 -0.08968248 0.032997034 0.020937782
000250 c2 54 f5 3d 2c 5e 12 bd ab 94 1d 3e 9e 9b 08 bd
       0.11979057 -0.03573434 0.15388744 -0.033351533
000260 ae e5 d3 3d 08 92 82 bd 5f 35 e4 3d 90 13 61 bb
       0.10346542 -0.063755095 0.11142992 -0.0034343936
000270 1a 57 68 bd 1b c5 66 bd 73 7c 1e bd 8d 03 0b 3d
       -0.05672369 -0.05634032 -0.038692903 0.033938933
000280 3b eb be 3d 9b d4 db 3d 98 14 b8 3c ae 0d c9 3d
       0.093222104 0.10733911 0.022470757 0.09817062
000290 8b 39 0a be ff 5b d4 3d af 92 5c bd c2 22 17 3e
       -0.13498513 0.10369109 -0.053850826 0.14759353
0002a0 f5 5e 0d 3d 9d 51 a4 bc 70 8c 19 3e a7 2e 2a 3d
       0.034514386 -0.020058447 0.14994979 0.041548397
0002b0 a2 a4 ce bc 16 d2 aa 3d 77 5f 13 3b c6 14 96 3d
       -0.025224987 0.08340852 0.0022487321 0.07328181
0002c0 72 b6 1c 3c 65 6f 68 3c 4e 75 d0 3d 31 1d 14 be
       0.009564983 0.014186715 0.10178624 -0.1446426
0002d0 59 99 70 3d a6 b6 d2 bd 5a a0 80 bd 06 4b 8d 3c
       0.058739994 -0.10288744 -0.06280585 0.017247688
0002e0 de ed 8b bc 0b b3 d4 3d 9e 96 09 3e 81 01 e0 bd
       -0.017081197 0.10385712 0.13436362 -0.10937787
0002f0 75 9b ae 3d 6a 92 cb bd fa 5e d5 3d 74 77 dc bc
       0.08525745 -0.09940036 0.10418506 -0.026912428
000300 a6 0f c3 3d 90 3d c7 3d f9 18 ae bd cb 66 bd bd
       0.09524469 0.09728539 -0.08500857 -0.09248122
000310 20 b5 7c 3d 2a 92 a9 bd 09 aa 03 3e d3 40 0f 3d
       0.06169617 -0.08279832 0.12857832 0.03497393
000320 e1 b5 72 3d b5 7b d4 bc ef f0 c3 3d e0 e3 93 bd
       0.059255484 -0.025937894 0.09567439 -0.07221198
000330 0a 54 6d bb 4e fe 37 bd e6 97 9a 3d 2f fc 62 bd
       -0.0036213421 -0.04492026 0.075485036 -0.055416282
000340 ab 1e d8 3d 1a 50 0c be 99 c9 07 be 2a 51 93 bd
       0.105527245 -0.13702431 -0.13260497 -0.07193215
000350 39 84 b4 3d 73 29 f4 bb 4b 16 cf 3a 72 2d 9d bd
       0.08814282 -0.00745123 0.001579949 -0.07674684
000360 99 ae ea 3d 62 46 32 3e 57 96 33 3d 8f 28 b7 bd
       0.11459083 0.17409661 0.043844547 -0.08943283
000370 b6 19 04 3e 77 7e 8e bd b3 64 9a 3d e2 0c b9 3d
       0.12900433 -0.06957715 0.07538738 0.0903566
000380 66 26 0c bd ed 3f cc bc d6 fa c5 3c aa bd 23 bd
       -0.034216307 -0.024932826 0.02416746 -0.0399758
000390 43 d2 83 3d ef 59 0e 3b ee 9c c7 bd 34 f6 13 3e
       0.064365886 0.0021721085 -0.09746729 0.14449388
0003a0 30 70 71 3d 3d 28 02 3e c2 b8 05 3d 77 1b 99 bd
       0.05894488 0.12710662 0.032646902 -0.07475942
0003b0 86 31 69 3d e7 35 79 bd 43 55 a0 3d 0a d3 75 3d
       0.056931995 -0.06084242 0.078287624 0.060015716
0003c0 80 5d 54 bd c6 c5 9b bb b1 d9 c0 3c 92 9f d7 3d
       -0.05184698 -0.004753801 0.023541303 0.105284825
0003d0 6e f2 99 3a f3 44 a1 3d bb aa 9a bd 93 d4 56 3d
       0.0011745223 0.07874479 -0.075520955 0.05244882
0003e0 9e 17 96 bd b2 56 56 3d 85 55 65 3d a3 4b a9 3d
       -0.07328723 0.052328773 0.05598976 0.0826638
0003f0 4c 4f 97 3d cd 65 54 bd f7 18 6f 3d 32 34 c4 bd
       0.073881716 -0.051854897 0.058373418 -0.09580268
