model_training/trained_models/model_20.pth (torch, 190196 bytes, 16 tensors)

patch_to_embedding.weight f4 [64, 64]
0	0x3d083b60	0.03325975
1	0xbca47d5c	-0.020079307
2	0xbcfbd983	-0.030743366
3	0x3aa49dbb	0.0012559214
4	0xbcaafb85	-0.020871887
5	0xbda38d74	-0.079859644
6	0xbde12009	-0.10992438
7	0xbda9611e	-0.08270477
8	0x3e017164	0.12640911
9	0x3dd5cdb9	0.10439629
10	0x3d478d92	0.048718996
11	0x3d1f7154	0.038926437
12	0x3dcc0c29	0.09963257
13	0x3dcec73d	0.100965954
14	0x3d84cbec	0.064842075
15	0xba7f6f63	-0.0009744076
16	0x3d6ac0b2	0.057312675
17	0xbd72d096	-0.059280954
18	0x3d802520	0.06257081
19	0x3dc9e2be	0.09857701
20	0x3d056e9b	0.032576185
21	0xbd890e72	-0.06692208
22	0x3d048713	0.03235538
23	0x3ddb9c2a	0.10723145
24	0xbb29add3	-0.002589096
25	0x3d7536ef	0.059866842
26	0x3ca7f71a	0.02050357
27	0x3d889339	0.066687055
28	0x3d50a534	0.0509388
29	0x3ca4b05d	0.020103628
30	0xbdddb621	-0.10825754
31	0x3de2f703	0.1108227
32	0xbddc8313	-0.10767188
33	0xbdca1246	-0.09866767
34	0x3def1747	0.11674362
35	0xbcc42bdc	-0.023946695
36	0xbddeeb0f	-0.108846776
37	0x3dcf63c0	0.10126448
38	0xbd13aafd	-0.03605174
39	0x3dc5ea67	0.09663849
40	0x3dd09726	0.10185079
41	0xbde73cf0	-0.1129092
42	0xbdf31497	-0.118691616
43	0x3bf0dcac	0.007350525
44	0xbd003ef3	-0.031310033
45	0xbded998b	-0.116015516
46	0xbd925ba2	-0.07146384
47	0x3db62c4b	0.08895167
48	0x3d7c767b	0.06163643
49	0x3d4fe8c2	0.050759085
50	0x3d81f9a1	0.06346441
51	0x3d818c9f	0.063256495
52	0x3db04c4e	0.08608304
53	0xbc20d062	-0.009815307
54	0xbac7d3c9	-0.0015245612
55	0x3e01f841	0.12692358
56	0x3c7fb22b	0.015606443
57	0xbc6b2fa3	-0.014354619
58	0x3dcbcb35	0.09950868
59	0x3d9bd6c9	0.076093264
60	0x3c628360	0.013825268
61	0x3d929bc6	0.07158618
62	0x3df29416	0.118446514
63	0xba78d412	-0.000949205
64	0xbd2e7c41	-0.042598967
65	0x3d393c5a	0.04522357
66	0x3e05f357	0.13081108
67	0xbd5a3617	-0.05327424
68	0xbdbf083d	-0.09327743
69	0xbcfbcc4e	-0.030737069
70	0x3d117118	0.035508245
71	0xbdaa3dca	-0.083125666
72	0xbd77f1d9	-0.06053338
73	0x3cebb962	0.02877492
74	0x3df5b279	0.119969316
75	0x3d9ee6db	0.07758876
76	0x3dc27a0f	0.09495937
77	0x3d865ec2	0.06561042
78	0x3d52b874	0.05144544
79	0x3e082c06	0.13298044
80	0xbcc2ea0c	-0.023793243
81	0x3b9e7249	0.004835401
82	0x3d134c9c	0.035961732
83	0x3cded34b	0.027200362
84	0x3c893ba9	0.016752081
85	0xbd11d69b	-0.035605054
86	0x3dfb771c	0.12278578
87	0x3db2e251	0.08734573
88	0xbdab16f3	-0.083539866
89	0x3d205e47	0.03915241
90	0xbdcfdc1e	-0.10149406
91	0x3e01da95	0.12681039
92	0x3d7ea127	0.062165406
93	0x3da67739	0.08128209
94	0x3e0f2d22	0.1398206
95	0x3df7181b	0.12065145
96	0x3db42fd2	0.087981835
97	0xbcc1f498	-0.023676202
98	0x3b436bc6	0.0029818877
99	0x3dc2bd55	0.095087685
100	0x3de8696e	0.11348234
101	0xbca4e3d3	-0.020128166
102	0x3dfce110	0.12347615
103	0x3dcb1438	0.09915966
104	0x3dfb540f	0.12271892
105	0x3bca2c47	0.006169829
106	0x3cb5e50c	0.022203945
107	0xbd560e22	-0.05225957
108	0xbdcbc34e	-0.09949361
109	0xba534384	-0.0008059072
110	0x3d2b4429	0.04181305
111	0xbd953edc	-0.0728738
112	0x3d53bb9c	0.05169259
113	0xbdc1fe6c	-0.09472355
114	0xbdc78cac	-0.09743628
115	0x3e068356	0.13136038
116	0xbd9ce283	-0.07660391
117	0x3c548adc	0.01297256
118	0xbc9b59d7	-0.018963737
119	0x3d91d013	0.07119765
120	0x3d08f600	0.03343773
121	0xbd0db0e3	-0.03459252
122	0xbd56520e	-0.052324347
123	0xbdaae7f0	-0.0834502
124	0xbc5e5820	-0.013570815
125	0x3da19c71	0.07891167
126	0xbba13a96	-0.004920314
127	0xbda7fb3d	-0.08202217
128	0x3d1c3ba9	0.038142834
129	0xbdef143e	-0.11673783
130	0xbdd36106	-0.1032124
131	0x3da06768	0.07832223
132	0xbde704a4	-0.11280182
133	0x3ae29c07	0.0017288931
134	0xbdab6b8d	-0.08370123
135	0x3dc5f4e3	0.09665849
136	0xbd9ae11b	-0.07562467
137	0xbdeba4c2	-0.115060344
138	0x3dc5e580	0.09662914
139	0x3c6da4ae	0.014504595
140	0xbdbe7649	-0.09299905
141	0x3d8962f7	0.06708329
142	0xbdd25d1f	-0.10271668
143	0x3d37ca3c	0.0448706
144	0xbd3cd3e4	-0.046100512
145	0x3d9148ef	0.07093989
146	0x3daf1e1e	0.08550666
147	0xbc4cf8bf	-0.012510478
148	0x3dd81e7e	0.10552691
149	0x3cca349e	0.024683293
150	0xbab4b898	-0.0013787923
151	0x3de83905	0.113390006
152	0x3d97b607	0.07407766
153	0xbd61bb7a	-0.055110432
154	0x3d63e9fc	0.055643067
155	0xbd892cdf	-0.066980116
156	0x3c472a32	0.012156056
157	0xbdc7eaa0	-0.09761548
158	0x3dab2e55	0.083584465
159	0xbde9b76f	-0.1141194
160	0xbcaabd35	-0.020842174
161	0x3d9a2acc	0.07527694
162	0xbd230b66	-0.039805792
163	0x3e0222a2	0.12708524
164	0x3d29064d	0.041265775
165	0x3a8589b9	0.0010188139
166	0x3d82b416	0.06382005
167	0xbdabf624	-0.08396557
168	0x3d8a84a8	0.067635834
169	0xbdf32601	-0.11872483
170	0x3d2d4269	0.04229966
171	0xbc57a767	-0.01316247
172	0x3dde0917	0.108415775
173	0xbcac574d	-0.021037722
174	0x3c96b88a	0.018398542
175	0xbddf79c1	-0.109118946
176	0x3db3b7fe	0.08775328
177	0xbdeca86b	-0.11555561
178	0x3d91bfb7	0.07116645
179	0x3d28ceac	0.041212723
180	0x3dd667a5	0.104689874
181	0x3df3a113	0.11895957
182	0x3c765a67	0.015036202
183	0xbdc6baf3	-0.097036265
184	0x3de68f87	0.112578444
185	0xbd8160bf	-0.06317281
186	0xbdcdc739	-0.10047764
187	0x3d811982	0.06303693
188	0xbd5fc2c4	-0.054629102
189	0x3dbcb533	0.092142485
190	0x3dbf698b	0.093463026
191	0xbd113006	-0.03544619
192	0xbc821174	-0.015877463
193	0xbd133b22	-0.035945065
194	0xbd351eba	-0.044218756
195	0xbdd069bd	-0.10176418
196	0xbd1decf8	-0.03855607
197	0x3dee2daf	0.11629807
198	0x3d8ac184	0.067751914
199	0x3ce0c062	0.027435485
200	0xbdc6d1c8	-0.09707981
201	0x3d2d91e0	0.042375445
202	0xbca33443	-0.019922381
203	0xbd832be9	-0.064048596
204	0x3d30a7e4	0.043128863
205	0xbd9465bf	-0.07245969
206	0x3bc0a714	0.0058792923
207	0xbd31d07e	-0.043411724
208	0xbdecede1	-0.11568809
209	0x3d7a0ca9	0.06104723
210	0x3b0545c5	0.0020335775
211	0x3d8eb60f	0.06968319
212	0xbd35fe8d	-0.04443221
213	0x3b198e5c	0.00234308
214	0xbd9d1f46	-0.076719806
215	0x3d94632f	0.0724548
216	0xbd8bf192	-0.06833185
217	0x3c7263f5	0.014794339
218	0x3ddbb48c	0.10727796
219	0xbdf0f79f	-0.1176598
220	0xbd8b30b4	-0.06796399
221	0x3d601c37	0.054714408
222	0xbceae712	-0.028674636
223	0xbd72d42e	-0.05928438
224	0xbe04fc59	-0.12986888
225	0x3dddbf7f	0.108275406
226	0x3d50dcbe	0.050991766
227	0xbc389de3	-0.011268112
228	0x3cbb80b3	0.022888517
229	0x3da41a66	0.080128476
230	0x3de483e8	0.111579716
231	0xbd8bba13	-0.068226
232	0xbdae3260	-0.08505702
233	0xbdce696c	-0.100787014
234	0xbdd3e082	-0.10345556
235	0x3d8048d5	0.062638916
236	0xbdf39f63	-0.11895635
237	0x3dbbd3ba	0.09171243
238	0x3dd3f7bb	0.10349985
239	0xbdd6a4b2	-0.10480632
240	0x3dc36a0a	0.0954171
241	0x3da3deb4	0.080014616
242	0xbe033c4f	-0.12815975
243	0xbd4a902c	-0.0494539
244	0x3d76ba52	0.060236283
245	0xbd1bd06c	-0.038040563
246	0xbd4046b1	-0.046942417
247	0xbd027242	-0.031847246
248	0x3da304e5	0.07959918
249	0xbdc6c8ac	-0.09706244
250	0xbd3db01d	-0.046310533
251	0xbd3a7176	-0.04551836
252	0x3cbf7a3e	0.02337372
253	0xbd99e94b	-0.075152
254	0xbd99cc3e	-0.07509659
255	0xbd194d27	-0.037427094

patch_to_embedding.bias f4 [64]
0	0xbd9f6c71	-0.077843554
1	0x3de93195	0.1138641
2	0x3de2d2b2	0.11075343
3	0x3de0173b	0.10941931
4	0x3daedba6	0.08537988
5	0x3d28fd61	0.041257266
6	0x3cea3c3d	0.028593177
7	0x3bbf9762	0.0058469037
8	0x3df08461	0.11743999
9	0x3dc9d30e	0.098547086
10	0xbc892d5d	-0.016745264
11	0xbdd1372b	-0.102156006
12	0x3d3e6a0b	0.04648785
13	0x3d5d6875	0.054054696
14	0xbb9aabee	-0.0047202026
15	0x3dc0aa8c	0.09407529
16	0x3d8904d4	0.06690374
17	0xbd74e82d	-0.059791733
18	0x3e005d8e	0.12535688
19	0xbdccc53e	-0.099985585
20	0xbc2be6b1	-0.010492013
21	0xbdb99905	-0.09062389
22	0x3d8dd2a5	0.06924943
23	0xbd89ea4b	-0.06734141
24	0x3d0e29b0	0.034707725
25	0xbd1b11be	-0.037858717
26	0xbd715abe	-0.05892443
27	0x3dc77936	0.09739916
28	0xbd92d3d7	-0.071693115
29	0x3dba4ab8	0.09096283
30	0xbdccad37	-0.099939756
31	0xbdedf15a	-0.116183
32	0xbdd5f9fe	-0.10448073
33	0x3cf25197	0.02957992
34	0xbc912cd0	-0.017721564
35	0xbd0d18d5	-0.03444751
36	0x3c4d51a8	0.012531675
37	0xbdbc198f	-0.091845624
38	0xbdc48294	-0.09595218
39	0x3c77b337	0.015118412
40	0xbda2d2eb	-0.07950386
41	0xbdbad302	-0.09122278
42	0xbbacda37	-0.0052750367
43	0xbd3876d1	-0.045035187
44	0xbcc3f22a	-0.023919184
45	0x3d76b4c3	0.06023098
46	0x3da8ee8c	0.08248624
47	0x3d643335	0.055712897
48	0xbd9440ec	-0.07238945
49	0x3c794d37	0.015216163
50	0x3d874c95	0.06606404
51	0xbd903b4f	-0.07042562
52	0x3d93326a	0.0718735
53	0x3d28ac81	0.041180138
54	0xbdf6387f	-0.120224945
55	0x3cfa955a	0.030588794
56	0x3ce5005a	0.02795427
57	0xbda89f5e	-0.08233522
58	0xbd8230c5	-0.06356958
59	0x3d6b56df	0.057455894
60	0x3d38ddeb	0.045133512
61	0x3dd9ade7	0.10628872
62	0xbd5f32bb	-0.05449174
63	0x3df43b49	0.1192537

transformer.layers.0.0.fn.norm.weight f4 [64]
0	0x3f7a1d9b	0.97701424
1	0x3f754458	0.9580741
2	0x3f74d4e7	0.95637363
3	0x3f70d382	0.94072735
4	0x3f5cf04b	0.8630416
5	0x3f6ad879	0.9173656
6	0x3f7afeb3	0.9804489
7	0x3f72ea53	0.948888
8	0x3f795ad8	0.9740424
9	0x3f711b18	0.94181967
10	0x3f65e0c8	0.89796114
11	0x3f796bdf	0.97430223
12	0x3f69ed63	0.9137785
13	0x3f75df51	0.9604388
14	0x3f6e36a3	0.9305212
15	0x3f750246	0.95706594
16	0x3f748a1d	0.95523244
17	0x3f71ee16	0.94503915
18	0x3f719832	0.94372857
19	0x3f7ac999	0.97963864
20	0x3f66d75a	0.9017235
21	0x3f7ab972	0.9793922
22	0x3f6e9fb9	0.9321247
23	0x3f6daac0	0.9283867
24	0x3f6f2f30	0.9343138
25	0x3f72bdb3	0.9482071
26	0x3f7aac60	0.97919273
27	0x3f753329	0.9578119
28	0x3f7a421c	0.97757125
29	0x3f76c0f6	0.96388185
30	0x3f70e295	0.94095737
31	0x3f7777be	0.9666709
32	0x3f74fbc8	0.9569669
33	0x3f72807b	0.94727296
34	0x3f7e368d	0.9930199
35	0x3f6d878a	0.9278494
36	0x3f7c4baa	0.98552954
37	0x3f759eb3	0.9594528
38	0x3f7af8d5	0.9803594
39	0x3f72bf84	0.9482348
40	0x3f78cab6	0.9718431
41	0x3f6da8ad	0.92835504
42	0x3f797afa	0.9745327
43	0x3f6caac3	0.9244806
44	0x3f6089f9	0.8771053
45	0x3f7bca2e	0.98355377
46	0x3f728101	0.94728094
47	0x3f7a4ac4	0.97770333
48	0x3f7253d6	0.94659173
49	0x3f6da629	0.92831665
50	0x3f73c996	0.9522947
51	0x3f78c0b1	0.97169024
52	0x3f7c4990	0.9854975
53	0x3f711d48	0.94185305
54	0x3f6cf633	0.9256317
55	0x3f75715e	0.9587611
56	0x3f6ac852	0.91711915
57	0x3f6e6020	0.93115425
58	0x3f6c956f	0.9241552
59	0x3f70eaa1	0.94108015
60	0x3f677b40	0.9042244
61	0x3f7824b8	0.9693103
62	0x3f71fb9a	0.9452454
63	0x3f6f3830	0.9344511

transformer.layers.0.0.fn.norm.bias f4 [64]
0	0xbbb44192	-0.0055009807
1	0x3bdaec0a	0.00668097
2	0x39e354a5	0.0004335988
3	0x3c90f06a	0.017692763
4	0x3cd5277b	0.026019802
5	0x3c6d7856	0.014494022
6	0x3bf09426	0.0073418794
7	0xbc763473	-0.015027153
8	0xbb86ef76	-0.0041179014
9	0xbc2bb32c	-0.01047973
10	0x3bf8a3c1	0.0075878804
11	0x3b26b004	0.0025434503
12	0x3b99675a	0.00468151
13	0xbb833c65	-0.0040050023
14	0x3c189d2e	0.009314818
15	0xba9eb3de	-0.0012108048
16	0x3c04a5cf	0.0080961725
17	0x3d080a8a	0.033213176
18	0x3c13633d	0.008995828
19	0x3ba4adeb	0.0050256154
20	0xbcd16109	-0.025558965
21	0x3a850e71	0.0010151399
22	0x3c14d504	0.00908399
23	0xbd1b166c	-0.03786318
24	0x3bc4dd55	0.00600783
25	0xbc566d86	-0.013087636
26	0x3bab5e32	0.005229735
27	0x3bcf898c	0.0063335355
28	0x3bf08eb2	0.0073412294
29	0xbc343cb2	-0.011000799
30	0x3c0c5c2f	0.0085669
31	0x3ae16316	0.0017195668
32	0x3c62175d	0.013799516
33	0xbb6c6585	-0.0036071253
34	0xbbb851a6	-0.0056249676
35	0x3c0dfdb2	0.008666443
36	0xbb566979	-0.0032716675
37	0x3b976395	0.0046200254
38	0x3c089835	0.00833707
39	0xbb6f1156	-0.003647884
40	0x3a77fc9f	0.0009459946
41	0x3a0a74c8	0.0005281684
42	0x3c286f44	0.010280434
43	0x3c660ca3	0.014041099
44	0x3bc5a631	0.0060317745
45	0x3ae4d101	0.0017457308
46	0x3b95f48a	0.0045762705
47	0x3ccc594e	0.024944928
48	0x3bce7a5d	0.006301208
49	0x3b3f7b90	0.0029217936
50	0x3b48d005	0.0030641567
51	0xbc38e751	-0.011285619
52	0xbaa95281	-0.0012918265
53	0x3c1ebdbf	0.009688794
54	0x3b346c09	0.0027530214
55	0x3c2c8e9e	0.010532049
56	0x3c2d138b	0.010563741
57	0x390b23d0	0.00013269414
58	0xbbd9e305	-0.0066493773
59	0xba4b73aa	-0.0007761071
60	0x3c646eb1	0.0139424065
61	0x3a2f7135	0.00066925894
62	0xbb867b87	-0.004104081
63	0xbacf0d22	-0.001579676

transformer.layers.0.0.fn.fn.to_qkv.weight f4 [192, 64]
0	0x3dfe0b71	0.12404526
1	0x3d83f3f6	0.06443016
2	0x3cd8aade	0.026448663
3	0x3cb75b91	0.02238253
4	0x3d056871	0.032570306
5	0x3d69eb6a	0.057109274
6	0xbd388e45	-0.045057554
7	0xbd40301e	-0.046920888
8	0xbd92c028	-0.07165557
9	0x3d118fdc	0.035537586
10	0xbd68039b	-0.056644063
11	0x3d5f65cb	0.054540437
12	0xbd1220e7	-0.03567591
13	0x3de0e7c5	0.109817065
14	0x3d109f3d	0.03530811
15	0xbdd5cb1f	-0.10439133
16	0x3d00a739	0.031409476
17	0x3d17be88	0.03704694
18	0xbdbdeef0	-0.09274089
19	0x3bc83640	0.0061099827
20	0x3d033bc0	0.032039404
21	0xbdd9c44f	-0.10633146
22	0xbdfcf58d	-0.123515226
23	0x3bb370bf	0.005476087
24	0x3d6dbfba	0.058044173
25	0xbd6be218	-0.057588667
26	0xbda1e239	-0.07904477
27	0xbd53c315	-0.051699717
28	0x3d2345ce	0.039861493
29	0xbd0a046d	-0.033695627
30	0xbd88c24d	-0.06677685
31	0x3cb9f0c9	0.022697823
32	0x3bd46418	0.0064816587
33	0xbcf814c1	-0.030283334
34	0x3d887704	0.066633254
35	0xbdb28ac4	-0.08717874
36	0xbaa90072	-0.001289381
37	0xbac0ac4c	-0.0014699786
38	0x3d12c960	0.035836577
39	0xbda8c4e7	-0.08240681
40	0x3bcb4a2e	0.0062039113
41	0xbdd730ff	-0.10507392
42	0x3db3d613	0.08781066
43	0x3c407757	0.011747203
44	0xbcdfb8e1	-0.027309837
45	0xbdc4592b	-0.0958732
46	0x3dd5647a	0.10419555
47	0x3d969599	0.07352752
48	0x3dcac934	0.09901658
49	0xbdc0e165	-0.094179906
50	0xbc5415b4	-0.012944628
51	0xbd83f9f9	-0.06444163
52	0xbdb00f18	-0.08596629
53	0xbdabd099	-0.08389396
54	0x3db8e7cc	0.09028587
55	0xbd19d774	-0.037558988
56	0x3d56f0eb	0.05247585
57	0xbd0fe1d5	-0.03512748
58	0xbcb66751	-0.022266062
59	0x3c2ef2ae	0.0106779765
60	0xbddb1809	-0.10697944
61	0xbdcf4872	-0.1012124
62	0x3d1affed	0.037841726
63	0x3c01eb52	0.00792964
64	0x3ccf53c4	0.025308497
65	0x3d0a2e5a	0.03373561
66	0x3d172c51	0.036907498
67	0x3d39adb6	0.04533168
68	0x3bb499d3	0.0055115013
69	0xbd7727eb	-0.060340803
70	0xbd9ae1ad	-0.075625755
71	0xbc0f56c6	-0.008748716
72	0x3d50e9df	0.051004287
73	0xbd1b0d71	-0.037854616
74	0xbca2c032	-0.019867036
75	0xbdbabf3b	-0.091185056
76	0x3dbc572a	0.09196313
77	0xbe129453	-0.14314394
78	0x3d2116b8	0.039328307
79	0xbd2ece60	-0.042677283
80	0xbd92b457	-0.07163303
81	0x3da43818	0.080185115
82	0xbb17010b	-0.0023041393
83	0x3cf339d6	0.029690664
84	0xbd84c2f0	-0.06482494
85	0xbda7c7dc	-0.08192417
86	0xbc194389	-0.009354481
87	0x3d9da341	0.07697154
88	0x3e0c0a65	0.1367584
89	0xbd286ab8	-0.0411174
90	0x3dbd704d	0.09249935
91	0x3e19bd29	0.15013565
92	0xbd3d871c	-0.04627143
93	0xbc633e76	-0.013869872
94	0x3da8b56f	0.08237731
95	0x3d9aec68	0.07564622
96	0xbd9f5aef	-0.07781016
97	0xbe0f3694	-0.13985664
98	0xbe1831c0	-0.14862728
99	0xbd200c10	-0.039074004
100	0x3da26f7e	0.07931422
101	0xbd09af23	-0.03361429
102	0x3dbea315	0.09308449
103	0xbd3a32a3	-0.045458447
104	0x3d452287	0.04812863
105	0xbd3f275c	-0.046668395
106	0x3dabd343	0.08389904
107	0x3bd2072b	0.006409546
108	0x3d83d4e4	0.0643709
109	0x3dafd4e8	0.085855305
110	0xbd98d665	-0.074627675
111	0x3d5f32f2	0.054491945
112	0xbbeb491f	-0.0071803476
113	0xbdd9ace1	-0.10628677
114	0x3d5a437d	0.053287018
115	0xbd975297	-0.073888
116	0x3c33710d	0.010952246
117	0xbda39547	-0.07987457
118	0xbd90f657	-0.070782356
119	0x3ced465b	0.028964212
120	0x3b57a6f5	0.003290591
121	0x3dae2b64	0.0850437
122	0x3d87920a	0.066196516
123	0xbd97548d	-0.07389174
124	0x3d993bec	0.07482132
125	0x3e134d37	0.14384924
126	0xbccbb8cb	-0.02486839
127	0x3dc66176	0.09686558
128	0x3dd98683	0.10621359
129	0xbdaae813	-0.08345046
130	0x3db65f52	0.089049
131	0x3d816370	0.06317794
132	0xbdc75328	-0.09732658
133	0x3c96c098	0.018402383
134	0x3d9c4fff	0.076324455
135	0x3cba6455	0.02275292
136	0xbd506ab7	-0.05088302
137	0x3d1da645	0.038488645
138	0x3dd15b22	0.1022246
139	0x3d0f70fb	0.035019856
140	0xbdda62ee	-0.106634006
141	0xbd594e1a	-0.053053
142	0x3dd9397a	0.10606666
143	0x3dc1b3a9	0.094580956
144	0xbd3c71d6	-0.046007
145	0xbdef6f6c	-0.11691174
146	0x3d91093a	0.07081838
147	0x3dce21d2	0.100650445
148	0xbdc2adb3	-0.09505787
149	0xbda300cb	-0.079591356
150	0xbd21dca0	-0.039517045
151	0x3ad1e7fe	0.0016014574
152	0x3d3f11fa	0.046648003
153	0x3daed6ac	0.08537039
154	0xbd70cdf9	-0.05879018
155	0x3dc6ded6	0.09710471
156	0xbd959cc2	-0.0730529
157	0x3dafeffc	0.08590695
158	0x3ae433ea	0.0017410491
159	0xbd225ecd	-0.03964119
160	0x3d1db311	0.03850085
161	0x3c4963ed	0.012291891
162	0x3d2f732b	0.042834442
163	0xbce6541a	-0.028116275
164	0x3cf340f3	0.029694056
165	0xbd6042aa	-0.054751076
166	0xbdb8b2cb	-0.09018477
167	0xbdde35c7	-0.10850101
168	0x3cdd6ba0	0.027028859
169	0x3b179810	0.0023131408
170	0x3be32fd4	0.006933192
171	0xbd991868	-0.07475358
172	0x3d035d91	0.032071654
173	0xbdb78139	-0.08960194
174	0x3d2dc5df	0.042425033
175	0xbde2daa6	-0.1107686
176	0xbddaeae5	-0.10689334
177	0xbdedff8b	-0.116210066
178	0x3dc8e169	0.098086186
179	0x3e03d188	0.12872899
180	0x3d2fd975	0.042931993
181	0x3d48fec2	0.04907108
182	0x3e09648d	0.13417263
183	0xbda9184d	-0.08256588
184	0x3d9065a7	0.07050639
185	0x3d1b81cb	0.037965577
186	0x3d9707ce	0.073745355
187	0x3d95f88f	0.073227994
188	0xbcefcfc3	-0.029273873
189	0xbdb12f47	-0.086515956
190	0xbd8fc063	-0.07019117
191	0x3c85bbaa	0.016324837
192	0x3d8367e3	0.06416299
193	0xbd37f265	-0.0449089
194	0x3dc19a82	0.09453298
195	0xb9d21d02	-0.00040075934
196	0xbde4839c	-0.11157915
197	0xbdbc417a	-0.09192176
198	0xbc6dfb6e	-0.014525278
199	0x3dae96d0	0.08524859
200	0xbca18fa1	-0.019721808
201	0x3dc99c2a	0.09844239
202	0x3da67286	0.08127312
203	0x3df2d543	0.11857083
204	0x3d68c388	0.056827098
205	0x3c747e5d	0.0149227055
206	0xbd5e3725	-0.05425181
207	0xbd9d8127	-0.076906495
208	0xbdd75531	-0.10514296
209	0xbda1411f	-0.07873749
210	0x3d88486b	0.06654438
211	0x3d10d2ba	0.035357215
212	0xbdc43436	-0.09580271
213	0x3cd36e52	0.02580944
214	0x3ddc838b	0.10767277
215	0xbdb39a41	-0.08769656
216	0x3d9248ff	0.07142829
217	0xbce34a24	-0.027745314
218	0xbdd1f41c	-0.10251638
219	0x3ce9fe36	0.0285636
220	0x3c4a7e85	0.012359266
221	0xbdcf7495	-0.10129658
222	0x3dc42f49	0.095793314
223	0xbdc110ad	-0.09427009
224	0xbd0dd80b	-0.034629863
225	0xbcc1cda1	-0.023657622
226	0xbd951494	-0.072793156
227	0x3cdb8f8b	0.026801845
228	0x3d3823d0	0.04495603
229	0xbda739d9	-0.081653304
230	0xbce772ad	-0.028252924
231	0x3db44525	0.08802251
232	0xbdb815f6	-0.08988564
233	0x3d388882	0.04505206
234	0x3d98b778	0.07456869
235	0xbdac42e7	-0.08411198
236	0xbd9b3c52	-0.075798646
237	0x3da54e82	0.08071615
238	0xbc8a4eaf	-0.016883222
239	0x3db58001	0.088623054
240	0x3d3b7ed3	0.045775246
241	0xbbfe4226	-0.0077593504
242	0xbc358620	-0.011079341
243	0xbdb0b969	-0.08629114
244	0xbbc593db	-0.0060295886
245	0xbd9dab6c	-0.07698712
246	0xbddd3da0	-0.1080277
247	0xbdb1d2e5	-0.08682803
248	0xbb47d864	-0.003049397
249	0xbd1f0169	-0.038819704
250	0xbd777b4f	-0.06042033
251	0xbd4a44b1	-0.049381915
252	0xbcf3b0b7	-0.02974735
253	0xbd9e7db9	-0.077388234
254	0xbd10f83d	-0.03539299
255	0x3a919809	0.0011107932

transformer.layers.0.0.fn.fn.to_out.weight f4 [64, 64]
0	0xbd9dbf09	-0.07702453
1	0xbdd9844d	-0.106209375
2	0x3d7a98c8	0.06118086
3	0xbd65cf23	-0.056105744
4	0xbd0963ba	-0.033542372
5	0x3e113cae	0.14183304
6	0xbda07c41	-0.078361996
7	0x3d25f5f5	0.040517766
8	0xbda5e65d	-0.08100579
9	0xbbabb572	-0.005240136
10	0x3ceeaa0c	0.029133819
11	0xbd95a4a8	-0.07306796
12	0xbd29562c	-0.041341946
13	0x3dbef2b6	0.09323637
14	0x3d5eb5bc	0.054372534
15	0x3daf3016	0.085540935
16	0xbd1914dd	-0.037373412
17	0xbce35602	-0.027750973
18	0xbc97b73c	-0.01851999
19	0xbdb393c8	-0.087684214
20	0xbdc24675	-0.09486095
21	0xbd49a25a	-0.049227096
22	0xbc926070	-0.01786825
23	0xbdbff456	-0.09372775
24	0x3d3f4f2f	0.046706375
25	0xbd026689	-0.031836066
26	0x3dc8f1a0	0.09811711
27	0x3c99a1a3	0.018753832
28	0x3da603ab	0.08106168
29	0xbd1d14b2	-0.038349815
30	0xbe244128	-0.1604048
31	0xbda498ec	-0.0803698
32	0xbd42ad05	-0.047528286
33	0x3d2d98ba	0.04238198
34	0x3d9b8e72	0.07595529
35	0xbe482c5c	-0.19548172
36	0xbd8025c8	-0.06257206
37	0xbc9870a8	-0.018608406
38	0x3c2147ad	0.009843749
39	0x3bc2357d	0.0059267865
40	0xbcb4b256	-0.022057693
41	0xbdb806ff	-0.089857094
42	0x3e1f604e	0.15564081
43	0xbdc8a0d1	-0.09796298
44	0xbd8e0dca	-0.06936224
45	0x3d1f20ed	0.03884976
46	0x3d27d79d	0.04097711
47	0xbe0454f3	-0.1292303
48	0x3dd27ff6	0.10278313
49	0xbbedc87d	-0.007256566
50	0x3d7d4875	0.06183668
51	0x3d8b2187	0.06793504
52	0x3da5eb42	0.081015125
53	0xbd8b09ba	-0.067889646
54	0xbe0fe3ab	-0.14051692
55	0xbd127245	-0.035753507
56	0x3d9d3d39	0.07677693
57	0x3dfaa2d6	0.1223809
58	0xbddb293c	-0.10701224
59	0xbdf6ccb8	-0.12050766
60	0xbcac1993	-0.021008288
61	0x3d52c724	0.051459447
62	0x3cb2c946	0.02182449
63	0x3df5d6c3	0.12003853
64	0x3ce844b5	0.028353075
65	0xbb16a3e0	-0.002298586
66	0xbbdf4385	-0.006813469
67	0x3dbe8c0b	0.09304055
68	0x3d671247	0.056413915
69	0xbcfb05c5	-0.0306424
70	0xbc523f41	-0.012832464
71	0x3d9304b7	0.07178634
72	0xbd481d0a	-0.04885582
73	0x3acc7c5b	0.0015601026
74	0x3dd62c9e	0.10457729
75	0x3de55501	0.11197854
76	0x3db037ce	0.08604394
77	0x3cd10295	0.025513927
78	0xbd8a454d	-0.06751499
79	0x3dc572cc	0.096410364
80	0xbd6c47cb	-0.057685655
81	0xbaf538c7	-0.0018708938
82	0xbd987867	-0.0744484
83	0x3d34752c	0.044057056
84	0xbdac3eae	-0.08410393
85	0x3dc233f0	0.094825625
86	0x3cafc1b6	0.021454673
87	0xbd0cf797	-0.034415808
88	0xbc917713	-0.017756974
89	0xbc8b0277	-0.016968949
90	0xbdd5a33f	-0.10431527
91	0x3c9eafcb	0.019370934
92	0x3db9e10a	0.09076126
93	0x3d7e6cf2	0.062115617
94	0xbce0e328	-0.027452067
95	0x3c92d38c	0.017923139
96	0xbdc23195	-0.09482113
97	0x3d852043	0.06500294
98	0x3da41da9	0.0801347
99	0xbe2b0392	-0.1670058
100	0xbda478ca	-0.08030851
101	0x3e0fe15b	0.1405081
102	0xbe22b638	-0.15889823
103	0x3caa5f03	0.020797258
104	0xbd234368	-0.039859205
105	0x3dcf11a3	0.10110786
106	0xbd492792	-0.049110003
107	0xbdcd7fba	-0.100341275
108	0xbccb9253	-0.024850046
109	0xbd9c46e4	-0.07630709
110	0x3d13432b	0.03595273
111	0xbe0706d9	-0.13186206
112	0x3ab9f0ae	0.0014186108
113	0xbcbb7a22	-0.022885386
114	0xbccb6fd0	-0.02483359
115	0xbcd9cb81	-0.026586296
116	0x3e0a5e8a	0.13512626
117	0x3d8f7d0b	0.07006272
118	0xbe3a00d8	-0.18164384
119	0xbd3376d0	-0.04381448
120	0x3d860b87	0.065451674
121	0xbd9a6844	-0.07539418
122	0xbe017275	-0.12641318
123	0xbc45b277	-0.012066475
124	0xbc4d2e0b	-0.0125231845
125	0xbbc96a31	-0.006146692
126	0xbcf06d74	-0.029349066
127	0xbda77abd	-0.08177707
128	0xbba238dc	-0.004950626
129	0x3d90fee8	0.070798695
130	0x3cb215ad	0.021738851
131	0xbd8fdfae	-0.070250854
132	0xbce86515	-0.028368512
133	0x3e05df16	0.13073382
134	0xbd86ef34	-0.06588593
135	0x3dac05be	0.08399533
136	0xbe0bd2e8	-0.13654673
137	0x3ddd54d5	0.10807196
138	0xbbcde51e	-0.0062834164
139	0xbc8f4ecd	-0.01749363
140	0x3dbd397e	0.092394814
141	0xbdb16719	-0.086622424
142	0xbd26e8bf	-0.040749308
143	0xbd53dec8	-0.051726133
144	0x3df15961	0.11784626
145	0xbd3ff302	-0.04686261
146	0xbd5264bf	-0.05136561
147	0xbd2bd724	-0.04195322
148	0x3dabcc23	0.08388545
149	0xbda93e50	-0.08263838
150	0xbb8a934e	-0.004228986
151	0x3d94dfef	0.072692744
152	0x3adfb444	0.0017067273
153	0x3dbbd836	0.09172098
154	0xbd1f1b21	-0.03884423
155	0x3da1d0c6	0.079011485
156	0x3e0b1d48	0.13585389
157	0xbe08e01f	-0.13366745
158	0xbd233b71	-0.03985161
159	0xbe036315	-0.12830766
160	0xbd3bd946	-0.045861505
161	0xbd1ba542	-0.0379994
162	0xbde3a5fa	-0.11115642
163	0xbe1851be	-0.14874932
164	0x3d16503f	0.036697622
165	0x3e0275d2	0.12740257
166	0xbe076778	-0.13223064
167	0xbccfb99b	-0.025357058
168	0xbd5655d2	-0.05232794
169	0x3c842a7a	0.016133536
170	0x3ded0076	0.115723535
171	0x3dcb839d	0.099372126
172	0x3e10d778	0.14144695
173	0x3da66fd7	0.081268005
174	0xbce72efd	-0.028220648
175	0xbc9534a4	-0.018213578
176	0x3d50b5be	0.050954573
177	0xbdc2a505	-0.09504131
178	0x3de9cd84	0.11416152
179	0xbdb9058b	-0.0903426
180	0x3d09590c	0.033532187
181	0x3b0216a6	0.0019849925
182	0x3ccc225f	0.024918733
183	0xbd55c44e	-0.052189164
184	0xbdc3fd4f	-0.09569799
185	0xbc2dad67	-0.010600424
186	0x3da1dbbf	0.07903241
187	0x3da5d4eb	0.080972515
188	0x3d91047a	0.07080932
189	0xbd21ccd9	-0.039502
190	0x3cae8804	0.021305092
191	0x3daa56e1	0.08317352
192	0x3d0ffefe	0.03515529
193	0x3db8ea09	0.09029014
194	0xbd284ef6	-0.041090928
195	0xbce0469b	-0.027377417
196	0x3c2fbae1	0.010725708
197	0x3db23d92	0.0870315
198	0xbd51115a	-0.05104194
199	0x3d044e09	0.032300983
200	0x3cb2e7c0	0.021839023
201	0xbd90d8a0	-0.07072568
202	0x3dbeb04b	0.09310969
203	0x3d0d973b	0.034568053
204	0xbd8f12ba	-0.06985994
205	0x3d81879f	0.06324696
206	0x3dd5a7e4	0.10432413
207	0xbcd2ca55	-0.025731245
208	0x3dcd5f13	0.100278996
209	0xbdd4a39b	-0.10382768
210	0xbddb2e4c	-0.1070219
211	0x3d8fde0b	0.07024773
212	0x3d8e817c	0.06958291
213	0x3c18392a	0.009290973
214	0x3d93772a	0.07200463
215	0x3d8cc036	0.06872599
216	0xbd9414c1	-0.07230521
217	0xbd9cca1f	-0.07655739
218	0x3db8fe2a	0.09032853
219	0xbe06953b	-0.13142864
220	0x3d2ef423	0.042713296
221	0xbba1a013	-0.0049324124
222	0x3cab9e8a	0.02094962
223	0x3aca4553	0.0015432037
224	0x3d597ea9	0.05309931
225	0x3cccee65	0.02501602
226	0x3d19da74	0.03756185
227	0x3e020589	0.12697424
228	0x3dd103cc	0.10205802
229	0xbd92814e	-0.07153569
230	0x3d3497b6	0.044089995
231	0xbd3482c3	-0.044070017
232	0xbdc8e4d1	-0.09809268
233	0x3d7d14bf	0.061787363
234	0x3d5f1166	0.05445995
235	0xbc99126f	-0.018685548
236	0x3c84d260	0.016213596
237	0xbdf0cdfc	-0.117580384
238	0xbde00b67	-0.10939675
239	0x3dfc873c	0.123304814
240	0x3de92c36	0.11385386
241	0x3d01b1bb	0.031663638
242	0xbd8721e8	-0.06598264
243	0x3c1408f8	0.009035341
244	0x3cca8d71	0.024725648
245	0xbdaa6633	-0.08320274
246	0x3d8bc05f	0.06823801
247	0xbb89ee25	-0.0042092972
248	0xbdf75512	-0.12076773
249	0x3df6d2c9	0.12051923
250	0xbd1e385f	-0.03862798
251	0xbbac32b6	-0.0052550687
252	0x3d725152	0.059159584
253	0x3dff287e	0.12458895
254	0x3b59ec91	0.0033252577
255	0x3d5a18b6	0.053246222

transformer.layers.0.0.fn.fn.to_out.bias f4 [64]
0	0x3dc94b47	0.09828811
1	0x3b62bcaa	0.0034597316
2	0xbe1209f9	-0.14261617
3	0xbbcb8a7c	-0.006211577
4	0x3d8f4304	0.06995204
5	0xbd8f731b	-0.070043765
6	0xbd241c01	-0.04006577
7	0xbdbbad0c	-0.091638654
8	0xbcde8860	-0.027164638
9	0xbdc80e31	-0.09768332
10	0x3ccff3de	0.02538484
11	0x3d8cf543	0.068827175
12	0x3d22357d	0.03960179
13	0xbd553d00	-0.052060127
14	0x3dcfec5b	0.10152503
15	0x3c6afcf8	0.014342539
16	0x3d85b45a	0.0652854
17	0x3d9ebaa0	0.0775044
18	0x3e156bb1	0.14591862
19	0x3d3fc9a8	0.046823174
20	0x3e07aa80	0.13248634
21	0xbddbb94b	-0.10728701
22	0xbdda9c7a	-0.10674377
23	0x3db04516	0.08606927
24	0xbc2e52cb	-0.010639857
25	0xbd54fb2e	-0.051997356
26	0x3e0b2c28	0.13591063
27	0x3d0a0982	0.033700474
28	0x3d3a80e5	0.04553308
29	0xbd4fab87	-0.05070069
30	0x3d614f61	0.055007342
31	0xbda42eac	-0.080167145
32	0x3de21648	0.11039406
33	0xbdb3c688	-0.08778101
34	0xbd140ad7	-0.03614315
35	0x3d012e21	0.031538133
36	0xbd88643b	-0.066597424
37	0x3cab6087	0.020920051
38	0x3daeb6f0	0.08530986
39	0x3e009b45	0.1255923
40	0x3d1135b7	0.035451617
41	0x3d8d2ab7	0.06892913
42	0x3d2c1313	0.042010378
43	0x3d78b6e4	0.060721293
44	0x3debfbd8	0.11522645
45	0xbdd354cb	-0.10318907
46	0xbd0ecbae	-0.034862213
47	0xbd93e8c5	-0.07222132
48	0x3cd71527	0.026255203
49	0xbd4b9dec	-0.049711153
50	0x3dbadd19	0.09124202
51	0xbbfd2e20	-0.007726446
52	0x3de8d1bc	0.11368129
53	0xbdfb9915	-0.122850575
54	0x3db9c1c3	0.0907016
55	0xbd2bb7a7	-0.04192319
56	0x3c575bc7	0.01314444
57	0xbd98e55e	-0.07465623
58	0xba96db9f	-0.0011509544
59	0xbcc5c8c6	-0.024143588
60	0x3dfd012b	0.123537384
61	0xbd881e4e	-0.06646405
62	0xbb9eb1aa	-0.0048429566
63	0xbcd6a726	-0.02620275

transformer.layers.0.1.fn.norm.weight f4 [64]
0	0x3f7c8684	0.98642755
1	0x3f6f3ce8	0.9345231
2	0x3f74b042	0.9558145
3	0x3f7a1e34	0.97702336
4	0x3f5f2cf6	0.8717798
5	0x3f687c22	0.9081441
6	0x3f74c563	0.9561369
7	0x3f7936c7	0.9734921
8	0x3f797202	0.9743959
9	0x3f7db77c	0.991081
10	0x3f7b6ea9	0.9821573
11	0x3f81b66e	1.0133798
12	0x3f7c10e2	0.9846326
13	0x3f7e567e	0.99350727
14	0x3f758735	0.95909435
15	0x3f7325e8	0.94979715
16	0x3f7288de	0.9474009
17	0x3f7f6d40	0.9977608
18	0x3f7ebfb3	0.9951126
19	0x3f77797d	0.9666975
20	0x3f7c22de	0.98490703
21	0x3f76ad66	0.96358335
22	0x3f79cbbb	0.97576493
23	0x3f6f7238	0.9353366
24	0x3f7ff8db	0.999891
25	0x3f83f8a5	1.0310255
26	0x3f6d6752	0.9273578
27	0x3f741ed8	0.95359564
28	0x3f7b612a	0.98195136
29	0x3f81769d	1.0114323
30	0x3f85987c	1.043716
31	0x3f751c57	0.9574637
32	0x3f64e515	0.8941205
33	0x3f76ce58	0.96408606
34	0x3f7f7a43	0.9979593
35	0x3f7bb131	0.9831725
36	0x3f75dcde	0.9604014
37	0x3f76fac1	0.9647637
38	0x3f7f29e3	0.9967329
39	0x3f7982bf	0.9746513
40	0x3f777702	0.96665967
41	0x3f7aa8c7	0.97913784
42	0x3f6f2a72	0.9342414
43	0x3f7e46ff	0.9932708
44	0x3f6ed62b	0.93295544
45	0x3f79d6f7	0.97593635
46	0x3f7a8dde	0.9787272
47	0x3f7d37d1	0.98913294
48	0x3f81bf33	1.0136474
49	0x3f7cd267	0.9875855
50	0x3f6f0c91	0.9337855
51	0x3f774170	0.96584225
52	0x3f766407	0.9624638
53	0x3f6cee6b	0.92551297
54	0x3f87b6aa	1.060262
55	0x3f7494c0	0.95539474
56	0x3f752404	0.9575808
57	0x3f6b6f09	0.919663
58	0x3f717da1	0.9433232
59	0x3f78a770	0.9713049
60	0x3f79cda8	0.9757943
61	0x3f798cc0	0.9748039
62	0x3f6dbce7	0.9286637
63	0x3f719c4e	0.9437913

transformer.layers.0.1.fn.norm.bias f4 [64]
0	0xbcb7774b	-0.02239575
1	0xbd758d3e	-0.059949152
2	0xbd3f95ab	-0.046773594
3	0x3ca785ca	0.020449538
4	0xbda81493	-0.08207049
5	0x3daf7461	0.085671194
6	0xbcbbe90d	-0.022938276
7	0x3d4b5c68	0.049648672
8	0x3ce74301	0.028230192
9	0xbcc2a65e	-0.02376097
10	0xbce2b21f	-0.027672825
11	0x3c6a693e	0.014307318
12	0x3caec051	0.021331938
13	0x3c4e4d6c	0.012591701
14	0x3d4222c8	0.04739645
15	0xbd474b70	-0.048655927
16	0xbd20aec4	-0.03922917
17	0x3c759b8e	0.0149907
18	0x3c62fffb	0.013854976
19	0x3cf72bfb	0.030172339
20	0x3ca1cb63	0.019750303
21	0xbd49923b	-0.049211722
22	0x3d248f37	0.040175643
23	0xbd57b1b4	-0.052659705
24	0xbc8c56c2	-0.017131213
25	0xbb24dff0	-0.0025157891
26	0x3d8150ad	0.06314216
27	0xbd323256	-0.043505035
28	0xbcc0badb	-0.0235266
29	0xbcda534e	-0.02665105
30	0xbc54a9a0	-0.012979895
31	0xbd56cc24	-0.052440777
32	0xbd8ba72f	-0.06818997
33	0x3d0f2c5d	0.034954417
34	0x3d06910d	0.032853175
35	0xbca202fb	-0.019776812
36	0xbd69c31d	-0.05707084
37	0xbcff2465	-0.031145284
38	0x3c60b452	0.013714867
39	0x3d25ff1b	0.04052649
40	0x3d083d23	0.03326143
41	0xbca5e2e0	-0.020249784
42	0x3d837823	0.06419399
43	0x3c28fcfd	0.010314223
44	0x3d6d6e91	0.057966772
45	0xbcdf6305	-0.027268896
46	0xbcc95d3c	-0.02458059
47	0x3c41e523	0.011834416
48	0xbd1e819d	-0.038697828
49	0x3cce0d69	0.025152879
50	0x3d684488	0.05670598
51	0xbcae36e1	-0.021266403
52	0x3d304ae8	0.043040186
53	0xbd9e1737	-0.07719272
54	0x3aafa087	0.0013399281
55	0x3d348b51	0.044078175
56	0x3d21630c	0.0394011
57	0x3d992ef6	0.0747966
58	0x3d531ca1	0.051540975
59	0xbd157e46	-0.036497377
60	0x3d553ffe	0.05206298
61	0xbcc5d205	-0.024147997
62	0x3d8d7135	0.06906358
63	0xbd53c46b	-0.05170099

transformer.layers.0.1.fn.fn.net.0.weight f4 [128, 64]
0	0x3d8173a0	0.06320882
1	0xbe1278fd	-0.14303966
2	0xbe13329b	-0.14374773
3	0x3d7cf55d	0.061757434
4	0x3d562b81	0.052287582
5	0x3b51f51b	0.0032036963
6	0xbdb323c6	-0.087470576
7	0x3d6e8fec	0.058242723
8	0x3e0d3ffe	0.13793942
9	0xbe01342b	-0.12617557
10	0x3c34c255	0.0110326605
11	0x3e015859	0.12631358
12	0x3d005eda	0.031340457
13	0xbd12d932	-0.035851665
14	0x3c9896ee	0.018626656
15	0xbe21f132	-0.15814665
16	0xbe27f503	-0.16402058
17	0x3ccfecd0	0.025381476
18	0x3d95c836	0.07313578
19	0x3dc32dda	0.0953023
20	0x3e264b3d	0.16239639
21	0xbd2c6359	-0.042086933
22	0xbc801db3	-0.015639162
23	0xbde0c6e0	-0.109754324
24	0xbd395677	-0.045248475
25	0x3d12e71f	0.035864946
26	0xbbfad138	-0.0076543353
27	0xbe01a0b3	-0.12658958
28	0xbe0cb0a7	-0.13739263
29	0xbe15b959	-0.14621486
30	0x3df4f733	0.11961212
31	0x3c480e8a	0.012210498
32	0x3d80eb45	0.06294874
33	0x3cf40eb5	0.02979217
34	0x3d40200c	0.046905562
35	0xbd41f0f4	-0.04734893
36	0x3ceef60a	0.029170055
37	0xbd1ab283	-0.0377679
38	0xbd83b72e	-0.06431423
39	0x3e2357d0	0.15951467
40	0x3ddfea13	0.10933318
41	0xbd21f1e8	-0.03953734
42	0x3d6ae000	0.05734253
43	0xbcf6f338	-0.030145273
44	0x3d11a240	0.035555124
45	0xbcd6a19a	-0.026200105
46	0x3d068ddc	0.03285013
47	0x3de6979e	0.112593874
48	0xbd7dbfc7	-0.06195047
49	0x3d1db5a8	0.03850332
50	0x3d0fb945	0.035088796
51	0xbc18a046	-0.009315556
52	0x3c135d91	0.008994476
53	0xbe0275c4	-0.12740237
54	0xbcc4bc52	-0.02401558
55	0xbd6b58ed	-0.057457853
56	0x3d97920f	0.07400905
57	0x3e130fc8	0.14361489
58	0xbc977ff4	-0.01849363
59	0xbd835799	-0.06413192
60	0x3e09b986	0.13449678
61	0xbde0779a	-0.10960312
62	0x3c016c0d	0.0078992965
63	0xbdc865be	-0.09785031
64	0xbde951fd	-0.11392591
65	0xbe009f49	-0.12560762
66	0x3db4b4d7	0.08823555
67	0xbb0bf34e	-0.0021354738
68	0xbe00a250	-0.12561917
69	0xbd9ac66d	-0.07557378
70	0x3d81b4e5	0.06333331
71	0xbc126e6a	-0.008937458
72	0xbd85a660	-0.06525874
73	0x3c5eb0d5	0.013591965
74	0xbd61f432	-0.055164523
75	0x3d22538b	0.039630454
76	0x3d4e9704	0.05043699
77	0xbd70f1e9	-0.058824454
78	0xbd8d5edf	-0.06902861
79	0x3da3a413	0.07990279
80	0xbdbee4d3	-0.093209885
81	0xbb637448	-0.003470676
82	0x3da2afc4	0.07943681
83	0xbd46cd66	-0.048535727
84	0xbcec9ecb	-0.028884312
85	0x3af54ba0	0.0018714555
86	0x3da5b19a	0.080905154
87	0x3cb2ba78	0.02181743
88	0x3db044f5	0.086069025
89	0x3da12a18	0.07869357
90	0xbc2edfc3	-0.010673466
91	0xbd2d30ff	-0.042283054
92	0x3d03b33e	0.03215336
93	0xbd90578d	-0.07047949
94	0x3d920994	0.07130733
95	0x3de816e1	0.11332489
96	0x3c047726	0.008085048
97	0x3db88f99	0.09011764
98	0xbde0717b	-0.10959145
99	0xbdf2141c	-0.11820242
100	0x3dcab3cd	0.098975755
101	0xbca96b2b	-0.020680984
102	0x3cf2c166	0.029633235
103	0xbbdc3445	-0.006720098
104	0x3d81782f	0.06321751
105	0xbda689e1	-0.08131767
106	0xbd6734b1	-0.056446735
107	0x3d904cac	0.07045874
108	0xbb0f085f	-0.0021825058
109	0xbd91599a	-0.07097168
110	0x3dc27421	0.09494806
111	0x3db86abb	0.09004732
112	0x3cbeb207	0.02327825
113	0x3be640cd	0.007026768
114	0x3e08be53	0.13353853
115	0xbd382d4d	-0.044965077
116	0x3d38f0e0	0.04515159
117	0x3d0c1412	0.034198828
118	0x3ba64af3	0.0050748526
119	0x3dc58266	0.09644012
120	0x3dde1d35	0.108454145
121	0xbd28b732	-0.041190334
122	0x3d9087d7	0.070571594
123	0x3d6dd6cc	0.058066174
124	0x3e0571bd	0.13031669
125	0xbdeb4ff6	-0.11489861
126	0x3c943abf	0.018094419
127	0xbd46118c	-0.048356578
128	0xbca300af	-0.019897787
129	0x3a0a9661	0.00052866904
130	0xbdd3123c	-0.10306212
131	0xbc1571d0	-0.009121373
132	0xbd200ca6	-0.039074562
133	0x3b49b217	0.0030776316
134	0xbc883f0b	-0.016631624
135	0xbd8d31e0	-0.068942785
136	0xbd949083	-0.07254126
137	0x3d43e188	0.047822505
138	0x3de1e116	0.1102926
139	0xbd810a82	-0.06300832
140	0x3d867f1f	0.06567215
141	0xbcc52fa7	-0.024070574
142	0x3d8a4d07	0.06752973
143	0x3cdbfe6e	0.02685472
144	0xbde6c29e	-0.11267589
145	0xbdd1c50d	-0.102426626
146	0x3ce0af82	0.027427439
147	0xbac846b3	-0.0015279859
148	0x3dddbb1d	0.10826705
149	0xbcc02a8c	-0.023457788
150	0x3e0e844f	0.13917659
151	0xbb926901	-0.004468084
152	0x3df04fb5	0.11733953
153	0xbcf51d6f	-0.029921262
154	0x3db0645c	0.08612892
155	0x3c7829be	0.015146671
156	0xbcd2c9a1	-0.02573091
157	0xbcf527a0	-0.029926121
158	0xbc799338	-0.015232854
159	0x3d512519	0.05106077
160	0x3dcc717e	0.099825844
161	0x3daab6b1	0.08335627
162	0x3adc9f62	0.0016832168
163	0x3df4e948	0.11958557
164	0xbde9755c	-0.11399338
165	0x3df0013d	0.11718986
166	0xbd94fa18	-0.07274264
167	0x3dc4b1d3	0.0960423
168	0x3cd25049	0.025673049
169	0x3bcf51b0	0.0063268766
170	0x3dfd0b78	0.12355703
171	0x3c81c855	0.015842596
172	0xbd35e950	-0.044411957
173	0x3dc75bfa	0.0973434
174	0x3bb9dc0b	0.005671983
175	0x3d42967a	0.047506787
176	0x3d319775	0.04335733
177	0xbc1d9d77	-0.009620062
178	0x3d865766	0.06559639
179	0xbdf7deeb	-0.12103065
180	0x3d30396b	0.043023508
181	0xbd472add	-0.048624862
182	0xbd96ceec	-0.07363686
183	0xbc9271c5	-0.017876515
184	0xbcd4ebc0	-0.02599132
185	0x3dae3c00	0.08507538
186	0x3e012340	0.12611103
187	0xbdc3b7e6	-0.0955656
188	0x3d95700d	0.072967626
189	0xbda46d6b	-0.08028682
190	0x3da1ba66	0.07896881
191	0xbc656c43	-0.014002862
192	0x3dbe5773	0.09294023
193	0x3dc04ad5	0.09389273
194	0xbd9e30f2	-0.07724179
195	0xbdd6da6b	-0.10490879
196	0x3d50c04c	0.05096464
197	0xbdb3a59a	-0.0877182
198	0x3de3dbad	0.11125884
199	0x3cd7d272	0.026345465
200	0x3d755ad0	0.05990106
201	0xbb93445b	-0.0044942326
202	0x3e00073a	0.12502757
203	0xbdcba4f6	-0.09943573
204	0x3c3d317e	0.011547444
205	0xbd3dd691	-0.046347205
206	0x3d83b6cd	0.06431351
207	0xbd3657b3	-0.04451723
208	0x3dca58f7	0.0988025
209	0xbe186d91	-0.14885546
210	0xbe05c112	-0.13061932
211	0xbd6e4a3b	-0.05817626
212	0x3def81af	0.11694657
213	0xbbc42756	-0.0059861345
214	0xbc9bd055	-0.019020239
215	0xbd9a5f5e	-0.07537721
216	0x3e08c848	0.13357651
217	0x3e6d5315	0.23176225
218	0x3d62b586	0.055348895
219	0xbdb5938b	-0.08866032
220	0x3e08ce9b	0.13360064
221	0xbcf5d95f	-0.030010877
222	0x3c257676	0.010099044
223	0x3dc2d20e	0.09512721
224	0x3ada59c9	0.0016658838
225	0xbcce3d3a	-0.02517568
226	0x3b97e8c0	0.0046359003
227	0xbce14b14	-0.02750162
228	0x3da8fa19	0.08250827
229	0xba2cfc92	-0.0006598915
230	0xbdf3b6b3	-0.119000815
231	0x3e078f55	0.1323827
232	0x3d9b43df	0.07581305
233	0x3e024aeb	0.12723891
234	0x3d22ac04	0.039714828
235	0xbda1d439	-0.079018064
236	0x3d7f2c5b	0.06229816
237	0xbd803367	-0.06259804
238	0x3d94f42b	0.07273134
239	0x3d5061b5	0.05087443
240	0xbb9cf0ab	-0.004789432
241	0xbd066a7d	-0.0328164
242	0x3c48eebc	0.01226395
243	0x3dbaff16	0.09130685
244	0xbc053b73	-0.00813185
245	0x3de16e4e	0.11007367
246	0xbc15afe0	-0.00913617
247	0x3d032b98	0.032023996
248	0xbd74f749	-0.059806142
249	0x3d56f451	0.052479092
250	0x3daa499d	0.08314822
251	0x3db29b80	0.087210655
252	0x3d8f94b3	0.07010784
253	0xbd4f133f	-0.050555464
254	0x3d5bc891	0.053658072
255	0xbdcb1744	-0.09916547

transformer.layers.0.1.fn.fn.net.0.bias f4 [128]
0	0x3d9fb442	0.07798053
1	0x3d0fc38f	0.03509861
2	0x3ce1a409	0.027544038
3	0xbdaadaca	-0.08342512
4	0x3cfd93d0	0.030954272
5	0xbdc2dc02	-0.095146194
6	0xbdca8f73	-0.09890642
7	0x3d80ba00	0.06285477
8	0xbda3932f	-0.079870574
9	0x3de439cb	0.11143836
10	0x3b876d4f	0.0041329036
11	0xbd6623d0	-0.056186497
12	0x3ce217fe	0.027599331
13	0xbbdb5d56	-0.006694476
14	0xbddc45d5	-0.10755507
15	0xbced5fcb	-0.028976342
16	0xbdff72c5	-0.124730624
17	0xbd2f5b13	-0.042811465
18	0xbe07eb0d	-0.13273259
19	0x3d968437	0.07349437
20	0x3c846c37	0.016164882
21	0xbdcbecf7	-0.09957307
22	0xbdb2655b	-0.08710738
23	0xbd34a0cb	-0.044098657
24	0xbcad9fa4	-0.021194287
25	0xbd8f8f36	-0.07009737
26	0x3d5a36e6	0.05327501
27	0xbd813058	-0.06308049
28	0x3db5a1e9	0.088687725
29	0x3cfb9608	0.030711189
30	0xbd959c6a	-0.07305224
31	0x3d4e184a	0.050316133
32	0xbdfe1ae1	-0.124074705
33	0x3dd3c444	0.10340169
34	0xbd3cc00e	-0.046081595
35	0xbc83aef9	-0.016074644
36	0xbdaed987	-0.08537584
37	0xbda5d69e	-0.080975756
38	0xbded9b88	-0.11601931
39	0x3daf8109	0.085695334
40	0x3df50266	0.11963348
41	0xbd963cab	-0.0733579
42	0x3d401885	0.046898384
43	0xbda8bc9a	-0.08239098
44	0xbd1c1f18	-0.03811559
45	0xbd805af9	-0.06267352
46	0xbd23445a	-0.039860107
47	0x3d9d2bb7	0.076743536
48	0x3d3998ea	0.045311846
49	0xbe0411c6	-0.12897405
50	0x3d10c32a	0.035342373
51	0xbd8d56a5	-0.06901292
52	0x3c075513	0.008260029
53	0xbc2fb68e	-0.010724677
54	0xbd75d693	-0.060019087
55	0xbd142b5c	-0.036174163
56	0xbdb5d87d	-0.088791825
57	0xbda9f81b	-0.082992755
58	0xbe043378	-0.12910259
59	0x3dc29b7d	0.09502313
60	0x3de14d99	0.11001129
61	0xbd5741d8	-0.052553028
62	0xba8da377	-0.0010806163
63	0xbd85ce83	-0.065335296
64	0xbded7444	-0.115944415
65	0x3c89eb99	0.016835975
66	0xbcceac8e	-0.025228765
67	0x3c94cc42	0.018163804
68	0x3dc77e2f	0.097408645
69	0x3d9ac576	0.07557194
70	0xbd9bbd31	-0.07604445
71	0xbdd08614	-0.101818234
72	0x3c39cb7b	0.011340017
73	0x3c386620	0.011254817
74	0x3d690ac7	0.056895044
75	0x3ca6fbd7	0.020383758
76	0xbde6571b	-0.11247083
77	0x3deca421	0.115547426
78	0x3d3d8c7a	0.046276547
79	0xbca35755	-0.019939104
80	0x3d0b66a1	0.03403342
81	0x3dacf08b	0.084443174
82	0x3d24e5a6	0.040258072
83	0x3e15550d	0.14583226
84	0xbd04e134	-0.032441333
85	0x3d31282b	0.043251198
86	0xbdc91d68	-0.09820062
87	0x3d2d9e3d	0.042387236
88	0x3de04052	0.10949768
89	0xbdd27e87	-0.102780394
90	0x3d494be1	0.04914463
91	0xbdd68a62	-0.10475613
92	0xbe19ebbf	-0.15031336
93	0x3c151fa5	0.009101783
94	0xbb6127c1	-0.003435597
95	0x3ddb87a2	0.10719229
96	0x3d144aa5	0.036204
97	0x3d5948ec	0.05304806
98	0x3ca188fd	0.019718641
99	0xbda20027	-0.07910185
100	0xbb587a0a	-0.0033031725
101	0xbc8de502	-0.017321113
102	0xbe074e3a	-0.13213435
103	0x3d2ba7bd	0.041908015
104	0xbd3b5d01	-0.045742992
105	0xbe06b7ed	-0.131561
106	0xbd023767	-0.031791117
107	0x3b1a4444	0.0023539225
108	0xbc311460	-0.01080808
109	0xbde6466b	-0.112439
110	0xbddd8814	-0.108169705
111	0x3c778c58	0.015109144
112	0x3d34ccb0	0.044140518
113	0x3b83388b	0.004004543
114	0xbd5eee19	-0.054426286
115	0x3da90f55	0.082548775
116	0x3d950a07	0.07277303
117	0x3d163106	0.036667846
118	0xbd7f3d36	-0.062314235
119	0xbda41322	-0.08011462
120	0x3d6aefde	0.05735766
121	0xbdf1ffed	-0.11816392
122	0xbdc8d1ba	-0.09805627
123	0x3cd1c247	0.025605334
124	0xbc2ceed1	-0.010554985
125	0xbdf75f98	-0.1207878
126	0x3e08fad3	0.13376932
127	0x3c55daae	0.013052626

transformer.layers.0.1.fn.fn.net.2.weight f4 [64, 128]
0	0x3d9b7ddc	0.07592365
1	0xbb87ee95	-0.0041483142
2	0xbc50a3bb	-0.012734349
3	0xbd952309	-0.07282073
4	0xbc6fc85c	-0.014635172
5	0x3d3c8aad	0.04603069
6	0xbd91ed96	-0.07125394
7	0x3d113647	0.035452154
8	0x3d8c7f52	0.06860222
9	0xbd7d1abc	-0.061793074
10	0xbd1a7f09	-0.037718806
11	0xbcaef628	-0.02135761
12	0x3c87ce1b	0.016577771
13	0xbd1c97e5	-0.038230795
14	0xbd182a49	-0.0371497
15	0x3d49cecc	0.049269482
16	0x3dbe30d6	0.092866585
17	0xbc85d89b	-0.016338637
18	0x3e018c85	0.1265126
19	0x3d684041	0.056701902
20	0xbdb4991c	-0.08818266
21	0x3d1708c1	0.036873583
22	0x3d97aa04	0.07405475
23	0x3dccc655	0.09998766
24	0x3c52a207	0.012856013
25	0xbd60cc17	-0.054882135
26	0xbdde8952	-0.108660355
27	0xbd0d370a	-0.034476317
28	0x3c57c2fd	0.013169047
29	0xbd9cb7bb	-0.07652231
30	0x3d9bdd00	0.07610512
31	0x3dffcaaf	0.12489831
32	0x3d2b1516	0.041768156
33	0x3cbc53c4	0.022989161
34	0x3d39800c	0.04528813
35	0x3d740338	0.059573382
36	0x3da30ffb	0.079620324
37	0xbda44232	-0.08020438
38	0x3d940b3d	0.07228706
39	0x3de0fd4b	0.10985812
40	0x3c3a337a	0.011364812
41	0x3ce40177	0.02783273
42	0xbd98c9a0	-0.07460332
43	0x3c9ff488	0.019525781
44	0x3db591fa	0.088657334
45	0xbd9418a4	-0.07231262
46	0x3d219913	0.039452624
47	0xbd755509	-0.05989555
48	0x3ba82fe1	0.0051326607
49	0xbd5519b4	-0.052026466
50	0xbd06fd4e	-0.032956414
51	0x3d0d995a	0.034570076
52	0xbd878b78	-0.066183984
53	0xbd7b1466	-0.06129875
54	0x3c0ae759	0.008478009
55	0xbd9fd800	-0.078048706
56	0xbc3bea31	-0.01146941
57	0xbd247040	-0.040146112
58	0x3d64b3f4	0.05583568
59	0xbd55e282	-0.052217968
60	0x3d369496	0.044575296
61	0x3d916c21	0.07100702
62	0xbdcee7e0	-0.101028204
63	0x3b7bad32	0.0038402793
64	0x3d677704	0.056509987
65	0xbd7efb75	-0.062251527
66	0x3d75cda1	0.060010556
67	0x3b99bb1a	0.0046914937
68	0xbd6f9ec6	-0.058501028
69	0x3c686ef6	0.014186611
70	0x3d492182	0.04910422
71	0xbd589c37	-0.052883353
72	0xbbfea07b	-0.0077705956
73	0xbc008a1e	-0.00784543
74	0x3d319acd	0.04336052
75	0xbd6c0328	-0.057620198
76	0xbd13be25	-0.036070008
77	0xbd2717ac	-0.04079406
78	0x3d50845e	0.050907485
79	0x3d880f9f	0.066436045
80	0x3c97faf8	0.018552288
81	0x3c51927a	0.01279127
82	0x3d1e85b0	0.038701713
83	0xbb75f6e3	-0.003753119
84	0xbc8df673	-0.01732943
85	0xbce3e0f6	-0.02781723
86	0x3d60f43b	0.054920416
87	0xbd9416c9	-0.072309084
88	0x3d5e646c	0.05429499
89	0x3d1508cc	0.036385342
90	0xbdb3f3b7	-0.08786719
91	0x3c754220	0.014969379
92	0xbd1b4c4f	-0.03791457
93	0xbc445a82	-0.011984469
94	0x3c8b8000	0.017028809
95	0x3c22700d	0.00991441
96	0x3d7ce4fa	0.061741807
97	0xbdbeec12	-0.093223706
98	0x3d5f6c13	0.054546427
99	0xbd11b884	-0.03557636
100	0x3d4f4fa6	0.050613068
101	0x3da02159	0.078188606
102	0x3d820ff8	0.06350702
103	0x3cf7e15f	0.030258832
104	0x3ce6ccfd	0.028173918
105	0xbd0f17b1	-0.034934703
106	0x3dc1ebad	0.0946878
107	0x3d638cc2	0.05555416
108	0xbcb15015	-0.021644631
109	0xbd1594a6	-0.036518715
110	0x3de0b4a8	0.109719574
111	0x3d1a041c	0.037601575
112	0xbb95b6bb	-0.0045689023
113	0x3d92e3bc	0.07172343
114	0xbb8d0649	-0.0043037278
115	0xbdaec9c4	-0.085345775
116	0x3bfb2fe6	0.007665622
117	0x3ae08aac	0.0017131171
118	0xbd3a29df	-0.045450088
119	0xbd302d1b	-0.043011766
120	0x3da29202	0.07938005
121	0xbdac8ef3	-0.08425703
122	0xbce15fb7	-0.02751146
123	0xbd8f46cd	-0.06995926
124	0x3cb4af36	0.022056203
125	0xbbf7945e	-0.0075555285
126	0xbdc1b458	-0.09458226
127	0xbca9469b	-0.02066355
128	0x3c758c1d	0.014987019
129	0x3d902d03	0.07039835
130	0xbc256cd9	-0.010096752
131	0xbe1562b8	-0.1458844
132	0x3da49d53	0.0803782
133	0xbd5170a1	-0.051132802
134	0xbd3051dc	-0.043046817
135	0x3d982b5f	0.074301474
136	0xbd4e8b06	-0.05042555
137	0xbd8ed937	-0.06975024
138	0xbd6228bf	-0.05521464
139	0xbd1b4c64	-0.03791465
140	0x3d358024	0.044311658
141	0xba42f9f6	-0.000743776
142	0x3d42cc0e	0.047557883
143	0x3d6f2872	0.05838818
144	0x3dbf8ded	0.09353242
145	0xbdb39406	-0.087684676
146	0x3df1429f	0.11780285
147	0x3e1ae15d	0.15125032
148	0xbe163029	-0.14666809
149	0xbd39d0fb	-0.045365315
150	0xbc95d632	-0.018290613
151	0x3da3cf17	0.07998484
152	0xbde5f1f2	-0.11227788
153	0x3cf7bc88	0.030241266
154	0xbdc4cb0a	-0.09609039
155	0x3c840df9	0.016119944
156	0x3d82ac2f	0.06380498
157	0x3d07855b	0.033086162
158	0xbd42e6ef	-0.047583517
159	0x3db6bc95	0.08922688
160	0x3d556b11	0.05210406
161	0x3d62bd84	0.055356517
162	0x3d569905	0.052392025
163	0x3cfb2b40	0.030660272
164	0x3d9964d9	0.07489938
165	0x3d8549e7	0.065082364
166	0x3d1c7577	0.03819796
167	0x3d3fc307	0.046816852
168	0xbd1c2281	-0.038118843
169	0x3d50700b	0.050888103
170	0xbd82573a	-0.063642934
171	0xbd01e28d	-0.031710196
172	0x3ddf6b55	0.10909144
173	0x3c286c56	0.010279736
174	0xbe0173f7	-0.12641893
175	0xbd85c055	-0.06530825
176	0x3d9c86bf	0.07642888
177	0x3d127fea	0.03576652
178	0xbcef838f	-0.029237537
179	0x3ddf8b10	0.10915196
180	0xbdeb6e74	-0.11495677
181	0xbdb864c2	-0.09003593
182	0x3c447b09	0.0119922245
183	0x3c49f6c1	0.012326897
184	0x3d15a0fa	0.036530472
185	0x3d80673d	0.06269691
186	0x3df9ea21	0.1220286
187	0xbc76c876	-0.015062442
188	0x3cc459da	0.023968626
189	0x3dd15fb9	0.10223336
190	0xbcfd2caa	-0.030905087
191	0x3d248961	0.040170077
192	0xbd958646	-0.07301001
193	0x3d7035e7	0.058645155
194	0xbc6f4103	-0.014602902
195	0xbd13b77b	-0.036063652
196	0xbcffe19b	-0.031235507
197	0xbd382706	-0.04495909
198	0x3b2afa5f	0.0026089174
199	0x3d4efef8	0.050536126
200	0x3dc58598	0.096446216
201	0xbd762685	-0.06009533
202	0xbd897c10	-0.06713116
203	0xbc17c943	-0.009264293
204	0x3c4c386e	0.012464626
205	0xbd0ebb9e	-0.034846894
206	0x3dfcb9b4	0.123401076
207	0x3e081211	0.13288142
208	0x3ce6607e	0.028122183
209	0xbb2bfb57	-0.002624234
210	0x3d1de0d3	0.038544487
211	0x3c2edee4	0.010673258
212	0xbc846520	-0.016161501
213	0xbd599d29	-0.053128395
214	0xbcfdc02d	-0.030975426
215	0xbd76e554	-0.060277298
216	0xbc6bb4c7	-0.014386362
217	0xbd9ca641	-0.07648898
218	0xbd351dd2	-0.044217892
219	0xbd495c11	-0.049160067
220	0xbc9e37bb	-0.019313684
221	0xbd3a4eba	-0.045485236
222	0xbd1b02e4	-0.037844554
223	0xbd6d41aa	-0.05792395
224	0xbdb8b012	-0.09017958
225	0x3d086f6e	0.033309393
226	0xbcaa8f56	-0.020820301
227	0x3d8acd7c	0.06777474
228	0xbd258999	-0.040414426
229	0x3d755f72	0.059905477
230	0x3aed75d0	0.0018116776
231	0xbbdb5f29	-0.0066946936
232	0xbd8ad787	-0.0677939
233	0x3d0a12d0	0.033709347
234	0xba0bfc01	-0.00053399807
235	0x3de84c3e	0.11342667
236	0x3d137ff7	0.03601071
237	0x3cd3602a	0.02580269
238	0x3d95742e	0.0729755
239	0x3dd5386a	0.10411151
240	0x3d381cc9	0.044949327
241	0x3d9fa17f	0.07794475
242	0xbd50e00c	-0.050994918
243	0x3c1f9ed4	0.009742457
244	0xbd0a680e	-0.03379064
245	0xbdcf67f9	-0.10127253
246	0xbd3c7423	-0.046009194
247	0x3db22394	0.08698192
248	0x3d8af740	0.067854404
249	0xbd97737e	-0.07395075
250	0xbd565fe7	-0.052337553
251	0x3b1784a4	0.0023119831
252	0x3db2ce5e	0.08730768
253	0x3dae13ea	0.08499892
254	0xbdf2412f	-0.11828839
255	0x3da775f3	0.08176794

transformer.layers.0.1.fn.fn.net.2.bias f4 [64]
0	0x3cc885d4	0.024477877
1	0xbd2d5813	-0.042320322
2	0x3d22ed7e	0.03977727
3	0xbc0b0d8a	-0.008487115
4	0x3d417c5c	0.04723774
5	0x3b790a13	0.003800039
6	0xbda5f6c7	-0.0810371
7	0x3d8781e1	0.06616569
8	0x3c0d803e	0.008636532
9	0xbc52403e	-0.012832699
10	0xbc9a2630	-0.018817037
11	0xbca373a8	-0.01995261
12	0x3d3a5028	0.0454866
13	0x3d4c5073	0.04988141
14	0x3cdac0b4	0.026703216
15	0xbcf962b8	-0.03044258
16	0xbc8ea106	-0.017410766
17	0xbd007088	-0.03135732
18	0x3d36dfce	0.04464703
19	0x3b6055d9	0.0034230857
20	0x3cb8a521	0.022539677
21	0xbdd038e1	-0.10167099
22	0xbc111d5d	-0.008857098
23	0x3cd4893c	0.025944345
24	0xbdf12125	-0.117739
25	0x3da062be	0.078313336
26	0xbd361c49	-0.04446057
27	0xbd578790	-0.052619517
28	0x3a543337	0.000809479
29	0xbd89620e	-0.067081556
30	0xbd62c8b3	-0.055367183
31	0x3bb25249	0.005441938
32	0x3d1aaa77	0.037760224
33	0xbc932032	-0.017959688
34	0xbd26f8e6	-0.04076471
35	0x3c815beb	0.0157909
36	0xbda6053f	-0.08106469
37	0xbb91d802	-0.004450799
38	0xbd3a2fe0	-0.045455813
39	0x3b27cefd	0.0025605552
40	0x3da826c1	0.08210517
41	0xbcb8c370	-0.02255413
42	0x3dc125f5	0.09431068
43	0x3d98cca0	0.07460904
44	0x3d22abc7	0.0397146
45	0xbd2da209	-0.042390857
46	0xbd7e483f	-0.062080618
47	0xbd02fb70	-0.03197807
48	0xbd16d0ec	-0.036820337
49	0xbd4e884a	-0.050422944
50	0x3d6cb7c9	0.05779246
51	0x3c74e2d5	0.014946659
52	0x3dd1303d	0.10214279
53	0xbadfa393	-0.0017062299
54	0xbda954da	-0.08268137
55	0x3dbd64dc	0.09247753
56	0xbca9ba32	-0.020718668
57	0x3c82efaa	0.015983421
58	0x3dc9f97a	0.09862037
59	0xbd70425f	-0.058657046
60	0x3d230d8d	0.039807845
61	0xbd31b66a	-0.043386854
62	0xbc96208d	-0.018326068
63	0xbc4d6baf	-0.012537881
