model_training/trained_models/model_100_data_3-11.pth (torch, 453160 bytes, 18 tensors)

pos_embedding f4 [1, 1025, 64]
0	0x4001d46e	2.0285907
1	0x3fc32fa0	1.5248909
2	0x3f61f775	0.88268214
3	0xc0130c51	-2.2976267
4	0x3f475c01	0.7787476
5	0xbfaa96ca	-1.3327267
6	0x3d921e41	0.07134677
7	0xbfb7e836	-1.436774
8	0xbf41eb86	-0.75750005
9	0x3fdf3bb4	1.7440095
10	0xbeb447fd	-0.35211173
11	0xbfa2546b	-1.2682012
12	0xbf170b3b	-0.5900151
13	0xbf181a74	-0.59415364
14	0xbf42f930	-0.7616148
15	0x3f2c654b	0.6734206
16	0x3fdb5b2f	1.7137202
17	0xbd27625b	-0.040865283
18	0xbed62bfc	-0.41830432
19	0x3e9df4a6	0.30850714
20	0xbf15dbeb	-0.58538693
21	0x3f957672	1.1676772
22	0x3f472b3a	0.77800333
23	0x3fdfd144	1.7485738
24	0x3f93d605	1.1549689
25	0x3f94612a	1.1592152
26	0x3ed19027	0.40930292
27	0x3fab32d0	1.3374882
28	0xbe7fd40a	-0.2498323
29	0xbdc586f5	-0.09644882
30	0xbe3a4903	-0.18191914
31	0x3f57647e	0.84137714
32	0xbfc611e0	-1.5474205
33	0xbf8259e8	-1.0183687
34	0xbd86c8a1	-0.06581236
35	0x3fd7c2ff	1.6856383
36	0x3ec7e982	0.3904534
37	0xbed9bbaf	-0.42526004
38	0x3e49878b	0.19680612
39	0xbf7186ea	-0.9434649
40	0xbfcce9fd	-1.6008908
41	0x3f90d281	1.1314241
42	0xbf6c67f6	-0.9234613
43	0xbf32d587	-0.69857067
44	0xbfa3cd69	-1.2797061
45	0x400e83a6	2.2267852
46	0xbf93f6b3	-1.1559662
47	0xbf1a36c2	-0.60239804
48	0xbf8bcf41	-1.0922624
49	0xbf0c0d35	-0.5470765
50	0xbda1d90c	-0.079027265
51	0x3f24014e	0.6406449
52	0xbee3266e	-0.44365257
53	0x3fae25b7	1.360526
54	0xbf51b8c7	-0.8192257
55	0xbf264092	-0.64942276
56	0xbfa92c8e	-1.3216722
57	0x3c5e1dce	0.013556911
58	0xbe449bb7	-0.19200025
59	0x3f0de4ed	0.5542744
60	0xbd29562e	-0.041341953
61	0x3feecf12	1.8656943
62	0xbfad25f1	-1.3527204
63	0x3fc191bb	1.5122598
64	0x3fcac29c	1.584064
65	0x3f854699	1.041217
66	0x401dc27b	2.4649951
67	0x3ee7d248	0.4527762
68	0x3e86eefe	0.26354212
69	0xbe394bb4	-0.18095285
70	0xbf91e505	-1.1398016
71	0x3fbd9be2	1.4813197
72	0xbea4f3eb	-0.32217345
73	0x3f0f1534	0.5589173
74	0xbd1ba43d	-0.037998427
75	0x3ed64df4	0.4185635
76	0x3f3534af	0.70783514
77	0xbf4b9b05	-0.79533416
78	0xc01980f2	-2.3984952
79	0xbf589226	-0.84598005
80	0x3cfe6299	0.031052874
81	0xbeafc3f6	-0.34329194
82	0xbfcf5135	-1.6196657
83	0xbf210a0f	-0.62905973
84	0x3f1ec3fa	0.62017787
85	0x3f293da5	0.6610969
86	0x3f950b3a	1.1644051
87	0x3e05ce54	0.13066989
88	0x3f496cd0	0.7868166
89	0xbf02c49e	-0.51081264
90	0xbf7c0d34	-0.98457646
91	0x3f1f0ec9	0.62131935
92	0xbff5daa2	-1.9207346
93	0xbf669f75	-0.9008706
94	0x3fbc7405	1.4722906
95	0x3ef57e2b	0.4794782
96	0xc02b84ac	-2.6799726
97	0x3ef111b9	0.47083834
98	0x3f55609c	0.8335054
99	0xbd481518	-0.04884824
100	0x3f2a7d4e	0.6659745
101	0x3f1861ec	0.59524417
102	0x3f91f893	1.1403984
103	0xbf05bd00	-0.52241516
104	0xbe2116ee	-0.15731403
105	0x3f5f2667	0.8716797
106	0x3ef6c28c	0.48195302
107	0x3ead8b95	0.33895555
108	0x3e75665a	0.23964825
109	0x3fb2c05f	1.3964957
110	0xbc7e1db7	-0.015510014
111	0xbea61d14	-0.3244406
112	0xbfdf48a0	-1.7444038
113	0xbe46b020	-0.19403124
114	0xbf23a381	-0.6392136
115	0x3f050332	0.51958
116	0x3f3f0a5b	0.74625176
117	0x3dba5f04	0.09100154
118	0xbefa6518	-0.48905253
119	0x3f094611	0.5362254
120	0x3cec6844	0.028858311
121	0x3e400c76	0.18754753
122	0x3e4d9895	0.20077737
123	0x3f3b7dcc	0.73238826
124	0x3f9f5cac	1.2450156
125	0x3e951678	0.29118705
126	0x3f48a1e4	0.78372025
127	0x3ef1943e	0.47183412
128	0x4002166c	2.0326185
129	0x3f7db553	0.99104804
130	0xbfc6b326	-1.5523422
131	0xbfaad799	-1.3347045
132	0xbe0890e8	-0.13336527
133	0x3fe30b80	1.7737885
134	0x3f3a25ce	0.72713935
135	0x3efdc9a1	0.49567893
136	0x3f90683d	1.1281811
137	0x3c0b2d3f	0.008494674
138	0xc00226cc	-2.033618
139	0x3f80b466	1.0055053
140	0xbeba3f85	-0.36376587
141	0x3f810a15	1.0081202
142	0xbf4c3443	-0.79767245
143	0x3f2c830c	0.6738746
144	0xbf84b3e7	-1.0367402
145	0x3f98e15e	1.1943777
146	0x3fd6b45e	1.6773794
147	0x3fcbac1f	1.5911902
148	0x3e88cb24	0.26717484
149	0xbd96bd3b	-0.073603116
150	0xbf437d0c	-0.7636268
151	0x3e552095	0.2081321
152	0x3ef590b0	0.4796195
153	0x3f92bee0	1.14645
154	0xbeba2018	-0.3635261
155	0x3fd060fb	1.6279596
156	0xc0282f54	-2.6278887
157	0xbed867f7	-0.4226682
158	0xbfa814c9	-1.3131343
159	0x3f5eb9a6	0.8700203
160	0xbffce67f	-1.9757842
161	0x3e8c6016	0.27417058
162	0x3ddc631b	0.1076109
163	0xbee0bf17	-0.4389579
164	0x3e7c2055	0.24621709
165	0xbf449213	-0.7678539
166	0x3ea6ca79	0.3257635
167	0xbfa2326a	-1.2671635
168	0xbfd9366a	-1.6969731
169	0x3fc66922	1.5500834
170	0x3fae6958	1.3625898
171	0x3e492809	0.19644178
172	0xbfe27aa7	-1.769368
173	0x3f452f1e	0.7702502
174	0x3f3e0af5	0.7423547
175	0x4004df9f	2.0761487
176	0x3b44ad5c	0.0030010557
177	0x3e29805a	0.16552868
178	0xbf3cb6ea	-0.73716605
179	0xbe984edd	-0.29747668
180	0xbf847515	-1.0348231
181	0xbfe714a1	-1.805317
182	0xbf9c6f14	-1.2221398
183	0xbf1c9c7e	-0.6117629
184	0xbf075ef6	-0.52879274
185	0xbfd5b446	-1.669564
186	0xc002ff95	-2.0468495
187	0x3d37827a	0.044802167
188	0x3f96cb58	1.1780806
189	0xbf15fd8c	-0.58590007
190	0x3f4f404e	0.80957496
191	0x3f422828	0.75842524
192	0x3ff83020	1.9389687
193	0xbf883dbc	-1.064384
194	0x3f764ec9	0.96213967
195	0xbf056a43	-0.5211527
196	0xbfbd32ec	-1.4781165
197	0x3eda06e0	0.4258337
198	0x3f009755	0.50230914
199	0x3fbd6288	1.4795694
200	0x3f07ecc4	0.5309565
201	0x401186e5	2.2738583
202	0xbf472038	-0.77783537
203	0xbf895a0f	-1.0730609
204	0x3e71bd55	0.2360738
205	0x3f96efac	1.1791892
206	0x3fbb3a44	1.4627156
207	0x3ef70f9c	0.48254097
208	0xbf554bb6	-0.8331865
209	0xbf837296	-1.0269344
210	0xbf41fad7	-0.75773376
211	0xbf2e3447	-0.6804852
212	0x3e20da52	0.15708283
213	0x3f10b4b7	0.5652575
214	0xbe57b701	-0.21065904
215	0xc0264d8d	-2.5984833
216	0xbedab5e1	-0.42716888
217	0x3fa00bec	1.2503638
218	0xbfe6ac82	-1.8021395
219	0x3fc5b11c	1.5444674
220	0x3ec38776	0.38189286
221	0xbf1809d9	-0.59390026
222	0x3f87e273	1.0615982
223	0x3fe35c0b	1.7762464
224	0x3cd488f8	0.025944218
225	0x3fd77613	1.6832908
226	0x3e4dd903	0.20102315
227	0xbf9c4d2b	-1.221105
228	0xbf0b37f8	-0.54382277
229	0x3d955644	0.072918445
230	0x3f19d7e1	0.6009503
231	0x4009efff	2.1552732
232	0xbd8ad90d	-0.067796804
233	0xbf87c132	-1.0605834
234	0xc00c8520	-2.1956253
235	0xbf838732	-1.0275633
236	0x3cd775f6	0.026301365
237	0x3e4e100a	0.20123306
238	0x3dbe5c53	0.09294953
239	0x3efbd0a2	0.49182612
240	0xbf9623fa	-1.1729729
241	0x3e509448	0.20369065
242	0xbeee5dce	-0.46555942
243	0x3f0a02d2	0.53910553
244	0xbf6aadf4	-0.9167168
245	0xbd673017	-0.056442346
246	0xbef49a35	-0.477739
247	0x3fc70816	1.5549343
248	0x3fb78fca	1.4340756
249	0xbf691ed2	-0.91062653
250	0x3f76f4b6	0.9646715
251	0x3ebcf8c2	0.36908537
252	0x3ebfcc37	0.3746049
253	0x3efca252	0.4934259
254	0x3f1f7df6	0.62301576
255	0x3e94832f	0.29006335

cls_token f4 [1, 1, 64]
0	0xbf0629df	-0.5240764
1	0x3fcd6eb5	1.604941
2	0x3f75ccad	0.96015435
3	0x3e5a4567	0.21315537
4	0xbe802492	-0.250279
5	0xbf019417	-0.5061659
6	0x3ff553c9	1.9166194
7	0x3fcaf6bc	1.5856547
8	0xbfc304d0	-1.5235844
9	0x3c42debe	0.011893926
10	0x3f380c05	0.7189334
11	0x3f660250	0.8984728
12	0x3e8cf9c3	0.27534303
13	0xbfd55b69	-1.6668521
14	0xbf26c2d8	-0.6514106
15	0xbdcf52e6	-0.101232335
16	0x3fb028ca	1.3762448
17	0xbfadf73c	-1.3591075
18	0xc002fd6c	-2.0467176
19	0xbfc0d1f4	-1.5064073
20	0x3f2360b6	0.63819444
21	0x3f3e2a54	0.7428334
22	0xbf7a9522	-0.9788381
23	0x3f9027e4	1.1262174
24	0x3d8c4105	0.06848339
25	0xbf668054	-0.90039563
26	0xbfb050c0	-1.3774643
27	0x3f858631	1.0431577
28	0x3f80c23e	1.0059278
29	0x3ed26716	0.41094273
30	0x3e0449e1	0.12918808
31	0x40161037	2.3447397
32	0x3fb332a5	1.399983
33	0xbefafecf	-0.4902253
34	0xbf381854	-0.7191212
35	0xbefba0de	-0.4914617
36	0x3fc23c5e	1.5174673
37	0x3ffd7dfd	1.9804074
38	0xbfcbcd94	-1.5922112
39	0x3ebeb6dd	0.3724889
40	0xbc4171b1	-0.011806891
41	0x3f0775fc	0.52914405
42	0xbef08e86	-0.46983737
43	0xbf87dac9	-1.0613643
44	0xbf166b60	-0.5875759
45	0x3edcaf64	0.43102562
46	0x40056cea	2.0847726
47	0xbf9d74ec	-1.2301307
48	0x3fc55c8d	1.5418869
49	0x3de2d3e9	0.11075575
50	0xbf824e60	-1.0180168
51	0x3f938660	1.1525383
52	0xbf78b3e9	-0.9714952
53	0xbec98edc	-0.39366806
54	0x3f96c4e0	1.1778831
55	0x3d83f18f	0.06442558
56	0x3dec3525	0.11533574
57	0xbf64e2d7	-0.8940863
58	0xbfa328d7	-1.2746838
59	0x3fb68056	1.4257915
60	0xbf06e5dd	-0.52694494
61	0x3f75c1fa	0.9599911
62	0xbf218a93	-0.6310207
63	0x3f750a6f	0.95719045

patch_to_embedding.weight f4 [64, 64]
0	0x3d8dd3c2	0.06925155
1	0x3c8284fd	0.015932554
2	0x3bb09ae3	0.0053895577
3	0x3d19c8d5	0.037545044
4	0x3c7d0fd2	0.015445666
5	0xbd3192b7	-0.04335281
6	0xbd96b9d1	-0.073596604
7	0xbd3edc11	-0.04659659
8	0x3e268e75	0.1626528
9	0x3e100714	0.140652
10	0x3dae3b3f	0.08507394
11	0x3d9a8695	0.07545201
12	0x3e0b6a92	0.13614872
13	0x3e0cec4f	0.1376202
14	0x3dcf749a	0.10129662
15	0x3d10b417	0.035327997
16	0x3dc196f2	0.09452619
17	0xbcb46e23	-0.022025174
18	0x3dcc9b8c	0.09990606
19	0x3e0b5a6b	0.1360871
20	0x3d8f9312	0.07010473
21	0xbcef7a8a	-0.029233236
22	0x3d8f048e	0.069832906
23	0x3e13fe37	0.14452444
24	0x3d0f1a6c	0.034937307
25	0x3dc7729e	0.09738658
26	0x3d6e034f	0.058108624
27	0x3dd60235	0.1044964
28	0x3db5cf0b	0.08877381
29	0x3d6da123	0.058015
30	0xbd9059b4	-0.070483595
31	0x3e181544	0.14851862
32	0xbd902882	-0.07038976
33	0xbd7b7d39	-0.06139872
34	0x3e1dc341	0.15406515
35	0x3c5e79d8	0.0135788545
36	0xbd920a17	-0.07130831
37	0x3e0e3825	0.13888605
38	0x3ac7808d	0.0015220806
39	0x3e0955cd	0.13411637
40	0x3e0d8102	0.13818744
41	0xbd9cd261	-0.07657314
42	0xbda87896	-0.08226125
43	0x3d34227b	0.043978196
44	0x3bb0c2c2	0.0053943107
45	0xbda250f6	-0.07925598
46	0xbd0e8e12	-0.034803458
47	0x3e00820b	0.12549607
48	0x3dc7de46	0.09759192
49	0x3db1c52d	0.086801864
50	0x3dcbf31e	0.0995848
51	0x3dcbeb71	0.09957016
52	0x3dfaca59	0.12245626
53	0x3cd9c80e	0.026584651
54	0x3d0dee4f	0.034651097
55	0x3e26e4b2	0.16298178
56	0x3d514fa8	0.051101357
57	0x3cae6798	0.021289632
58	0x3e0a7757	0.13522087
59	0x3de55d86	0.11199479
60	0x3d4c0280	0.04980707
61	0x3ddc7ef3	0.10766401
62	0x3e1e1068	0.15435946
63	0x3d0e867a	0.034796216
64	0xbe14ea6d	-0.14542551
65	0xbd69f469	-0.057117853
66	0x3ce8f0d0	0.02843514
67	0xbe1f1825	-0.15536554
68	0xbe47f1e3	-0.19525866
69	0xbe07a193	-0.1324523
70	0xbd8834b6	-0.06650679
71	0xbe3e93aa	-0.18611017
72	0xbe266aff	-0.16251753
73	0xbd94fe1e	-0.072750315
74	0x3c96ea8b	0.018422386
75	0xbcc0bd0b	-0.023527643
76	0xbbc4324f	-0.0059874426
77	0xbd0ffee8	-0.035155207
78	0xbd4ba236	-0.049715243
79	0x3cfd79b7	0.030941827
80	0xbdff5edc	-0.12469265
81	0xbdc3c19e	-0.09558414
82	0xbd841fa8	-0.064513505
83	0xbd9529da	-0.07283373
84	0xbda9f359	-0.08298368
85	0xbe0a5d8b	-0.13512246
86	0x3cbbc104	0.022919185
87	0xbc5afe0f	-0.013366236
88	0xbe3e5267	-0.18586121
89	0xbd806aa5	-0.06270341
90	0xbe505217	-0.20343815
91	0x3cd0584d	0.02543273
92	0xbd1f5683	-0.038900863
93	0xbca1e606	-0.019763004
94	0x3d1dcc40	0.038524866
95	0x3c9865b7	0.018603189
96	0xbc6f8da6	-0.014621174
97	0xbe00d4a0	-0.1258111
98	0xbdcb57d5	-0.09928862
99	0xbbdb0ff1	-0.00668525
100	0x3c44f57c	0.012021419
101	0xbdf8d6f0	-0.12150371
102	0x3cb29538	0.021799669
103	0xbb502abc	-0.0031763753
104	0x3c9f3df8	0.019438729
105	0xbdc6317e	-0.09677409
106	0xbda59eb6	-0.08086912
107	0xbe1e8e2a	-0.15483919
108	0xbe4e8c1b	-0.20170633
109	0xbdd2ea43	-0.10298588
110	0xbd788554	-0.060674027
111	0xbe344885	-0.17605789
112	0xbd553044	-0.052047983
113	0xbe4adc8b	-0.19810693
114	0xbe4dc87e	-0.20096013
115	0x3ce7cf8a	0.028297205
116	0xbe379501	-0.17927934
117	0xbdb7be7b	-0.08971878
118	0xbdf9d171	-0.12198151
119	0xbd056dff	-0.032575604
120	0xbd92cb76	-0.07167713
121	0xbe0e5ac5	-0.13901813
122	0xbe209fe3	-0.15685992
123	0xbe40020d	-0.18750782
124	0xbdf058b3	-0.11735668
125	0xbccb6d57	-0.02483241
126	0xbddf29af	-0.108966224
127	0xbe3f5595	-0.1868499
128	0x3e191768	0.14950335
129	0xbbaf0176	-0.0053407503
130	0x3c05e20f	0.008171572
131	0x3e4251c4	0.18976504
132	0xba9bdaf7	-0.0011890818
133	0x3de87cc8	0.11351925
134	0x3ce4e918	0.027943179
135	0x3e54f95c	0.20798248
136	0x3d1388a9	0.036019
137	0xbb596966	-0.0033174395
138	0x3e555b6b	0.20835654
139	0x3e016f9b	0.1264023
140	0x3c9c967f	0.01911473
141	0x3e37a2f3	0.17933254
142	0x3c1a1f15	0.009406825
143	0x3e204fad	0.15655394
144	0x3d869e4a	0.0657316
145	0x3e3b5670	0.18294692
146	0x3e4a471a	0.19753686
147	0x3dcc2126	0.0996726
148	0x3e5f1d41	0.21788503
149	0x3e0c7884	0.13717848
150	0x3de33f2b	0.11096033
151	0x3e66c2b6	0.22535214
152	0x3e3e5bc4	0.18589693
153	0x3d68bd3e	0.0568211
154	0x3e2baea0	0.16765833
155	0x3d3968a5	0.045265812
156	0x3dff0e36	0.124538824
157	0x3c72ff69	0.014831402
158	0x3e48aab2	0.19596365
159	0xbb046bcd	-0.0020205856
160	0x3dbaf9d2	0.09129681
161	0x3e400982	0.18753627
162	0x3d9461a2	0.072451845
163	0x3e7531ac	0.2394473
164	0x3e1d7c02	0.15379336
165	0x3de8c1af	0.11365067
166	0x3e349744	0.17635828
167	0x3ce8657d	0.028368706
168	0x3e38491e	0.17996642
169	0xbbcf9ab5	-0.006335581
170	0x3e1e666b	0.15468757
171	0x3dcb4c11	0.09926618
172	0x3e624fb7	0.22100721
173	0x3dbbb70c	0.09165773
174	0x3e061cd1	0.1309693
175	0x3b51032f	0.0031892767
176	0x3e4cbbb4	0.19993478
177	0xbb597623	-0.0033181987
178	0x3e3bcd58	0.18340051
179	0x3e1d4cca	0.15361324
180	0x3e5e820b	0.21729295
181	0x3e6d34c5	0.23164661
182	0x3e02ab00	0.12760544
183	0x3c7a8d9b	0.01529255
184	0x3e65b4f8	0.22432315
185	0x3d477d99	0.048703764
186	0x3c3ba786	0.011453515
187	0x3e33579a	0.17513886
188	0x3d6c44c0	0.057682753
189	0x3e5176ff	0.2045555
190	0x3e52ab1e	0.20573089
191	0x3d9ce046	0.07659964
192	0xbe05bb31	-0.13059689
193	0xbe1a8ed0	-0.15093541
194	0xbe22f229	-0.1591269
195	0xbe5e11ae	-0.21686432
196	0xbe1d6aae	-0.15372726
197	0x3a6d94a7	0.00090629834
198	0xbd42fb89	-0.047603164
199	0xbdb29bd3	-0.08721127
200	0xbe59f577	-0.21285044
201	0xbd9672f3	-0.073461436
202	0xbe0ae6e5	-0.13564642
203	0xbe385252	-0.18000153
204	0xbd956cc6	-0.072961375
205	0xbe4143a0	-0.18873453
206	0xbde20a4b	-0.110371195
207	0xbe22c535	-0.15895541
208	0xbe6dcbca	-0.2322227
209	0xbd635a76	-0.055506192
210	0xbdea0763	-0.1142719
211	0xbd3ff7ac	-0.046867058
212	0xbe2500cb	-0.16113584
213	0xbdea9cef	-0.11455714
214	0xbe4634e8	-0.1935612
215	0xbd3388a0	-0.043831468
216	0xbe3bdf7b	-0.1834697
217	0xbdcd4ba9	-0.10024197
218	0xbbf3e546	-0.007443103
219	0xbe6e45a7	-0.23268758
220	0xbe3b8ab5	-0.18314631
221	0xbd780657	-0.06055292
222	0xbe1372db	-0.14399283
223	0xbe3249e8	-0.17411005
224	0xbe7a7772	-0.24459627
225	0xbbce2deb	-0.006292095
226	0xbd818c8d	-0.06325636
227	0xbe00bb06	-0.12571344
228	0xbdbbad07	-0.09163862
229	0xbd0d91a1	-0.03456271
230	0xbb51ac78	-0.0031993669
231	0xbe3af87c	-0.18258852
232	0xbe4c48ac	-0.19949597
233	0xbe5c274d	-0.21499367
234	0xbe5e85c6	-0.21730718
235	0xbd52b83e	-0.05144524
236	0xbe6ed152	-0.23322037
237	0xbcba0eea	-0.02271219
238	0xbc3271bb	-0.010891373
239	0xbe600471	-0.21876694
240	0xbc943176	-0.018089991
241	0xbd08709e	-0.033310525
242	0xbe76f06d	-0.24115153
243	0xbe2686e6	-0.16262397
244	0xbd5a0c82	-0.053234585
245	0xbe1b5d92	-0.15172413
246	0xbe247e9d	-0.16063924
247	0xbe14969b	-0.14510576
248	0xbd04a951	-0.032388035
249	0xbe5612e9	-0.20905651
250	0xbe21e3ad	-0.15809508
251	0xbe215c4f	-0.15757869
252	0xbdb61359	-0.08890409
253	0xbe400c21	-0.18754627
254	0xbe3ff524	-0.18745857
255	0xbe18f3d4	-0.14936763

patch_to_embedding.bias f4 [64]
0	0xbdc771ef	-0.09738528
1	0xbce44824	-0.02786643
2	0x3e64bc62	0.22337487
3	0x3d98eecc	0.07467422
4	0x3e2d02de	0.16895625
5	0xbcc611d7	-0.024178429
6	0xbc093219	-0.008373761
7	0xbe20fc56	-0.15721259
8	0x3d8f52d2	0.069982186
9	0x3d81de9d	0.06341288
10	0xbb193b8e	-0.0023381445
11	0xbd15f932	-0.036614604
12	0x3ddffd0d	0.109369375
13	0xbd541ccc	-0.051785275
14	0x3deae558	0.11469525
15	0x3dc7525d	0.097325064
16	0x3d16b852	0.036796875
17	0x3d0c7763	0.034293544
18	0x3da75eb6	0.081723616
19	0xbcfadfb3	-0.030624246
20	0x3d199de5	0.037504096
21	0xbc3bcb2a	-0.011462012
22	0xbda393eb	-0.079871975
23	0xbccba866	-0.024860572
24	0x3e0a510e	0.13507482
25	0x3de4c212	0.111698285
26	0xbdc28b87	-0.09499269
27	0x3dd2524f	0.10269605
28	0x3d3b68af	0.04575413
29	0x3dc9c622	0.09852244
30	0xbc962a56	-0.018330734
31	0xbd832832	-0.06404151
32	0xbd75b4ab	-0.05998675
33	0x3e025e5a	0.12731305
34	0xbc91b308	-0.017785564
35	0xbd843f17	-0.06457346
36	0x3dfd5e19	0.12371463
37	0xbe7dfcbc	-0.24803442
38	0xbe6c73f1	-0.23091103
39	0xbd0cbbe7	-0.034358885
40	0x3cba7df2	0.022765134
41	0xbd818bbb	-0.063254796
42	0xbd1b5f3a	-0.037932612
43	0xbd4e960a	-0.050436057
44	0xbd27bd84	-0.04095222
45	0xbc0bda5c	-0.008535948
46	0x3e097723	0.13424353
47	0xbc0a930e	-0.008457912
48	0xbda7a15d	-0.081850745
49	0xbda72b3f	-0.081625454
50	0xbd0462dd	-0.032320846
51	0xbe18beed	-0.14916582
52	0x3c47d14a	0.0121958945
53	0xbdd03def	-0.10168063
54	0xbe28526c	-0.16437691
55	0x3d25f431	0.040516082
56	0x3e0c5f5e	0.13708255
57	0xba1e01a1	-0.00060274644
58	0xbd851bb6	-0.06499426
59	0x3dad1971	0.08452118
60	0x3dce4726	0.10072164
61	0x3d079a69	0.03310624
62	0xbdb17928	-0.08665687
63	0x3e472ea4	0.19451386

transformer.layers.0.0.fn.norm.weight f4 [64]
0	0x3f02475e	0.5089015
1	0x3f1e1ceb	0.61762875
2	0x3f6173d4	0.88067365
3	0x3edfa500	0.43680573
4	0x3ec26482	0.37967306
5	0x3eeffc8d	0.46872368
6	0x3f410f68	0.75414133
7	0x3f261426	0.64874494
8	0x3f2b3478	0.66876936
9	0x3efb8996	0.49128407
10	0x3ec92d43	0.39292344
11	0x3f3e0d2a	0.74238837
12	0x3ed5e283	0.41774377
13	0x3f254c1d	0.64569265
14	0x3ef1833b	0.47170433
15	0x3f256457	0.6460623
16	0x3f25d004	0.6477053
17	0x3f2e611d	0.68116933
18	0x3f0ffc27	0.5624413
19	0x3f4ae00d	0.79248124
20	0x3eaaf02d	0.33386365
21	0x3f26ab66	0.65105283
22	0x3f044998	0.51674795
23	0x3e81d761	0.25359634
24	0x3f111b9f	0.5668277
25	0x3f29e307	0.6636204
26	0x3f37943e	0.71710575
27	0x3f17a197	0.5923094
28	0x3f525ca5	0.82172614
29	0x3f519f5c	0.8188379
30	0x3f149e1e	0.5805377
31	0x3f22da6a	0.63614523
32	0x3f2f0d14	0.6837933
33	0x3f3fa13f	0.74855417
34	0x3f469333	0.7756836
35	0x3f1ba261	0.60794646
36	0x3f4f655c	0.8101404
37	0x3f15d75f	0.58531755
38	0x3f4d748b	0.80255955
39	0x3ef71e6a	0.48265392
40	0x3f199780	0.59996796
41	0x3f07f76a	0.531119
42	0x3f28bb5e	0.659109
43	0x3f1a1dde	0.60201824
44	0x3ece9077	0.40344593
45	0x3f6b4c63	0.9191343
46	0x3e8f48a5	0.2798511
47	0x3f46d918	0.7767501
48	0x3f15c219	0.58499295
49	0x3f1c9d2d	0.6117733
50	0x3f429c69	0.7601991
51	0x3f29e1f5	0.6636041
52	0x3f5d6b11	0.86491495
53	0x3ecfdf4d	0.40600052
54	0x3f47cbf6	0.78045595
55	0x3f2437da	0.6414772
56	0x3f06473b	0.5245244
57	0x3ec532fc	0.3851546
58	0x3f2b5bcb	0.6693694
59	0x3f4031ad	0.750758
60	0x3ed640f5	0.41846433
61	0x3f340231	0.70315844
62	0x3f4a90d4	0.7912724
63	0x3f3a85a6	0.7286018

transformer.layers.0.0.fn.norm.bias f4 [64]
0	0xbd4cf852	-0.050041504
1	0xbe4eefcf	-0.20208667
2	0x3d7babf0	0.06144327
3	0x3d80ee9f	0.06295513
4	0x3ca64b4d	0.020299578
5	0xbdabfe92	-0.08398165
6	0xbdbcb1a8	-0.09213573
7	0xbe37125d	-0.17878099
8	0xbd462ada	-0.04838071
9	0xbde12274	-0.109928995
10	0xb9974a1c	-0.0002885618
11	0x3dddf35d	0.108374335
12	0x3da73274	0.0816392
13	0xbe06c7bf	-0.13162135
14	0x3e0ebdc3	0.13939576
15	0xbbe47432	-0.0069718594
16	0xbd062af3	-0.032755803
17	0xbc993295	-0.018700877
18	0x3b93fb9b	0.0045160777
19	0x3db115b7	0.0864672
20	0x3d3a7bff	0.04552841
21	0x3dca7aa7	0.09886675
22	0xbdd1a1c7	-0.10235935
23	0xbc879b98	-0.016553685
24	0x3da529df	0.08064627
25	0x3dc81c6f	0.09771048
26	0xbc9f6adc	-0.019460134
27	0x3b4b9370	0.0031063221
28	0x3e0fc948	0.14041626
29	0xbd3aeb53	-0.04563458
30	0x3d750159	0.05981574
31	0xbd692c32	-0.056926914
32	0x3dbc2f1f	0.09188675
33	0xbbcf415e	-0.006324931
34	0xbc9fba13	-0.019497907
35	0xbd48bca8	-0.04900804
36	0x3dd214c5	0.10257868
37	0xbe22a820	-0.15884447
38	0xbdeea07f	-0.11651706
39	0xbd531362	-0.051532157
40	0x3d9e9812	0.07743849
41	0xbc183b5f	-0.009291499
42	0x3b46db99	0.0030343293
43	0x3be43562	0.0069643715
44	0xbd0350d1	-0.032059494
45	0xbd03dcb6	-0.03219291
46	0x3de9c378	0.11414236
47	0xbdbb0a5c	-0.09132835
48	0xbca66a55	-0.020314375
49	0xbd94980d	-0.07255564
50	0xbd9afeae	-0.075681075
51	0xbe2b6d58	-0.1674093
52	0xbd251b25	-0.04030909
53	0xbe04d83b	-0.1297311
54	0xbcf79fd2	-0.030227575
55	0x3d228fc3	0.039687883
56	0x3df1309b	0.11776849
57	0x3e15bdf3	0.14623241
58	0x3cd146c2	0.025546435
59	0x3ad97d65	0.0016593157
60	0x3df737ac	0.120711654
61	0xbd749f25	-0.059722085
62	0xbcf6bb0d	-0.03011849
63	0x3d46cb88	0.048533946

transformer.layers.0.0.fn.fn.to_qkv.weight f4 [192, 64]
0	0x3d5ec88b	0.05439047
1	0xbbc47003	-0.005994798
2	0xbd303b2d	-0.043025184
3	0x3dcc0f0c	0.099638075
4	0x3d343d61	0.044003848
5	0x3e04c2b9	0.12964906
6	0xbdee5d2b	-0.11638864
7	0x3c63152f	0.013860031
8	0xbb54b790	-0.0032458045
9	0xbd32b455	-0.04362901
10	0xbdb3d120	-0.08780122
11	0x3e0e8adc	0.13920158
12	0x3d492351	0.049105946
13	0x3e33154d	0.17488594
14	0x3de45d6c	0.11150631
15	0xbe317838	-0.17331016
16	0xbd35c4f8	-0.044377297
17	0x3dcf008a	0.10107525
18	0xbcbcd5cc	-0.023051165
19	0x3d9fd64c	0.07804546
20	0x3e088f66	0.13335952
21	0xbe32c14b	-0.17456548
22	0xbd569ceb	-0.052395742
23	0xbd8a2c89	-0.06746776
24	0xbbce9f62	-0.006305621
25	0xbe22dad6	-0.15903792
26	0xbbf290f6	-0.0074025346
27	0xbdf97967	-0.12181359
28	0xbce5dbf8	-0.02805899
29	0xbe14217f	-0.14465903
30	0x3d1316fd	0.035910595
31	0xbd3dcbf6	-0.04633709
32	0x3dfa35a4	0.122172624
33	0x3d2e307d	0.04252671
34	0x3e0da7d6	0.13833556
35	0xbe274bde	-0.16337535
36	0xbd8dae02	-0.06917955
37	0xbd9af2d0	-0.07565844
38	0x3dcd304c	0.100189775
39	0xbcd545db	-0.026034286
40	0x3d9f58cc	0.077806085
41	0xbe400de6	-0.18755302
42	0x3e1eb13e	0.154973
43	0x3dac66a4	0.08418015
44	0x3d2afaeb	0.0417432
45	0xbe2a23bc	-0.16615194
46	0x3cbe3cd1	0.023222359
47	0x3e10729f	0.14106224
48	0x3c52ee0d	0.012874139
49	0xbc652792	-0.013986485
50	0x3d5c8a8e	0.053843074
51	0xbe0c936b	-0.1372811
52	0xbcbec086	-0.023285162
53	0xbe23f701	-0.16012193
54	0x3cb1931a	0.021676589
55	0x3d7b3273	0.06132741
56	0x3e05ec1d	0.13078351
57	0x3d4ba153	0.049714398
58	0x3d6972a6	0.056994103
59	0xbd85d900	-0.0653553
60	0xbc6fecc3	-0.014643851
61	0xbe2a21ee	-0.16614506
62	0x3dd41c8c	0.103570074
63	0xbd85be21	-0.06530405
64	0x3daf615a	0.0856349
65	0x3dc3f9ca	0.09569128
66	0x3dcb8e9d	0.09939311
67	0xbc9e4a83	-0.01932264
68	0x3cd267f0	0.025684327
69	0xbdfbcd2e	-0.12294994
70	0xbc18753c	-0.009305295
71	0xbd885c65	-0.06658248
72	0xbc35488f	-0.011064663
73	0x3d01f2d4	0.03172572
74	0x3cb628a2	0.022236172
75	0xbe24a902	-0.16080096
76	0x3c4c5e74	0.012473691
77	0xbe501f6b	-0.20324485
78	0xbcf1e578	-0.029528365
79	0x3cbd197b	0.02308344
80	0xbb953562	-0.004553483
81	0x3cb1a58a	0.02168538
82	0xbd818edf	-0.063260786
83	0xbd160eda	-0.036635257
84	0xbe3470c4	-0.17621142
85	0xbca2359f	-0.01980096
86	0xbd993318	-0.074804485
87	0x3e10fe89	0.14159597
88	0x3e48b9c5	0.19602115
89	0x3d93ba9f	0.072133295
90	0x3cefffa2	0.0292967
91	0x3e592828	0.21206725
92	0x3ca014a7	0.019541098
93	0x3df8fdbc	0.12157771
94	0xbcd6cb65	-0.026220033
95	0x3e0ce49e	0.13759086
96	0xbdd3ad88	-0.10335833
97	0xbe4f2e8e	-0.20232603
98	0xbe5b9483	-0.21443371
99	0x3cda17b9	0.02662264
100	0x3e12a00f	0.1431887
101	0x3d001913	0.031273913
102	0x3d0bcea3	0.03413261
103	0xbdd136e7	-0.1021555
104	0xbc88ca94	-0.01669816
105	0x3cd10dcf	0.02551928
106	0x3cc5f20c	0.024163269
107	0xbd66f710	-0.05638796
108	0x3b140c7b	0.0022590447
109	0x3e17e8fe	0.14834973
110	0xbbfb4714	-0.0076683853
111	0xbc020f9e	-0.007938294
112	0x3da79882	0.081833854
113	0xbe3635cd	-0.17793961
114	0xbbb358c1	-0.005473227
115	0xbc19898e	-0.0093711745
116	0xbd4353e4	-0.047687426
117	0xbc52ef63	-0.012874457
118	0x3b9cabd7	0.004781227
119	0xbd8ad8e6	-0.06779651
120	0xbd8e42b7	-0.069463186
121	0x3c27be3e	0.010238228
122	0xbad89cc7	-0.0016526215
123	0xbb839787	-0.004015866
124	0xbc1b45ad	-0.009477061
125	0x3e50c247	0.20386611
126	0xbdabea15	-0.08394257
127	0x3e257fc6	0.16162023
128	0x3e1f391f	0.15549134
129	0xbcf25d06	-0.029585373
130	0x3e12defa	0.14342871
131	0x3bc4f47d	0.0060105906
132	0xbe06a7da	-0.13149968
133	0xbd08c246	-0.0333884
134	0x3e0b491a	0.13602105
135	0xbcd8afd1	-0.026451023
136	0xbdd450da	-0.10366984
137	0x3dc5dd89	0.09661395
138	0x3e0042e1	0.12525512
139	0xbcb3bac5	-0.021939645
140	0xbe2e40b2	-0.17016867
141	0xbdd47337	-0.10373538
142	0x3d3bc48d	0.045841742
143	0x3e13d28a	0.14435783
144	0x3c5f7788	0.013639338
145	0xbe27bf8b	-0.16381662
146	0x3ca80039	0.020507919
147	0x3d308d0c	0.043103263
148	0xbe3bb315	-0.18330033
149	0xbcd76515	-0.026293317
150	0xbdcf0a73	-0.10109415
151	0x3d6985b3	0.05701227
152	0x3dbd9e59	0.09258718
153	0x3e2d51ed	0.16925783
154	0xbdec55da	-0.115398124
155	0x3e19335c	0.14960998
156	0xbc8a3d78	-0.016875014
157	0x3e3aecae	0.18254349
158	0xbd9ccc4d	-0.07656155
159	0x3c732b8f	0.014841928
160	0xbd4e6ae4	-0.050394908
161	0xbd32dc26	-0.04366698
162	0xbc3c7c6b	-0.011504273
163	0x3cdba51c	0.026812129
164	0x3daa26e5	0.083082
165	0x3b75c226	0.0037499755
166	0xbe0ee08e	-0.13952848
167	0xbe1357a6	-0.14388904
168	0xbcede22c	-0.029038511
169	0x3d8d117e	0.06888102
170	0xbd345b51	-0.0440324
171	0xbe046679	-0.12929715
172	0xbc7e6617	-0.01552727
173	0xbd114f67	-0.035476115
174	0x3dcee35b	0.10101958
175	0xbe282be0	-0.16422987
176	0xbd257dba	-0.040403105
177	0xbe38e7aa	-0.18057123
178	0x3d3fd842	0.0468371
179	0x3e3dc124	0.18530709
180	0xbbb9df0e	-0.005672342
181	0x3ddb3176	0.10702793
182	0x3e445fc2	0.19177154
183	0xbe296ea1	-0.16546108
184	0x3c266b15	0.010157366
185	0xbce47c41	-0.02789128
186	0x3c74094f	0.0148947975
187	0x3e076d75	0.13225348
188	0xbdc7ac82	-0.097497
189	0xbd0df20a	-0.034654655
190	0xbdf7c57c	-0.12098214
191	0x3d95944c	0.07303676
192	0x3c81d0a1	0.015846552
193	0xbdbe6226	-0.09296064
194	0x3d392cb4	0.045208648
195	0x3d565ee5	0.052336592
196	0xbe00aeb4	-0.12566644
197	0xbd26606b	-0.040619295
198	0xbd7ba772	-0.061438985
199	0x3dfda36d	0.123846866
200	0x3ce509c3	0.027958756
201	0x3d47f6fe	0.048819534
202	0x3d9b9c99	0.07598228
203	0x3e338263	0.17530207
204	0x3dcce24d	0.10004101
205	0x3d7a6a05	0.061136264
206	0xbbdc1c38	-0.006717231
207	0xbe0055d1	-0.12532736
208	0xbe1b9aee	-0.1519582
209	0xbd050db1	-0.03248376
210	0x3df3d3e1	0.11905647
211	0x3da3a8eb	0.07991203
212	0xbd1bb601	-0.03801537
213	0xbcb34384	-0.02188278
214	0x3e246a55	0.16056187
215	0xbe074ae4	-0.13212162
216	0x3c9e52ec	0.01932665
217	0xbddc5a69	-0.10759432
218	0xbd58e236	-0.052950107
219	0xbc9ea04d	-0.019363547
220	0xbd162545	-0.036656637
221	0xbe29a856	-0.16568121
222	0x3e1647aa	0.14675775
223	0xbe10ecb1	-0.1415279
224	0xbe0985c8	-0.1342994
225	0x3cd3988a	0.025829572
226	0xbcb6104b	-0.022224566
227	0xbcc0f0be	-0.023552295
228	0xbb49c81a	-0.0030789436
229	0xbe024bbc	-0.12724203
230	0x3c82cdcc	0.015967272
231	0x3e12b4c8	0.14326775
232	0xbd34a388	-0.044101268
233	0xbc2910eb	-0.010318975
234	0x3df59295	0.11990849
235	0xbd087cd8	-0.033322185
236	0xbcc44772	-0.023959849
237	0x3cfbedb0	0.030752987
238	0xbd8c3653	-0.06846299
239	0x3e0a58c5	0.13510425
240	0x3ada37b2	0.0016648679
241	0x3d2ce256	0.04220804
242	0x3d0b2843	0.033973943
243	0xbe07625f	-0.1322112
244	0x3d23f0d4	0.040024593
245	0xbdec151a	-0.11527462
246	0xbe0a7312	-0.13520458
247	0xbccc520d	-0.024941469
248	0x3d437a2e	0.04772394
249	0x3c6eb2c2	0.014568986
250	0xbc02161a	-0.00793984
251	0xbdd25857	-0.10270756
252	0x3cdfbfbd	0.027313108
253	0xbdfd5de3	-0.12371423
254	0x3c129d92	0.0089487005
255	0xbd4ca550	-0.04996234

transformer.layers.0.0.fn.fn.to_out.weight f4 [64, 64]
0	0xbe7152f9	-0.23566808
1	0x3c814dc5	0.015784154
2	0x3dff9fd0	0.12481654
3	0xbdb375b2	-0.08762683
4	0xbd516a8a	-0.051126994
5	0x3e51b491	0.20479037
6	0xbd07baf3	-0.033137273
7	0x3e24cbcc	0.16093367
8	0xbe59bffd	-0.21264644
9	0xbe9f9a4e	-0.31172413
10	0x3cab76fa	0.020930756
11	0xbd78e48c	-0.060764834
12	0xbe180e90	-0.14849305
13	0xbdcc7818	-0.099838436
14	0xbcc354f2	-0.023844216
15	0x3dc02c97	0.09383505
16	0x3cb90966	0.02258749
17	0xbe5aad99	-0.21355285
18	0xbe441e10	-0.19152093
19	0xbdce6fa1	-0.10079885
20	0xbd5bccf5	-0.05366226
21	0x3d03a8ee	0.032143526
22	0xbe61b8cd	-0.22043152
23	0xbe6a0976	-0.22855172
24	0xbbeb9942	-0.0071899006
25	0x3d29b7b1	0.041434947
26	0xbe034f3d	-0.12823196
27	0xbd9b62d2	-0.07587208
28	0xbce58bdc	-0.028020792
29	0x3de93555	0.113871254
30	0xbdd75c1a	-0.10515614
31	0xbdff5abd	-0.12468479
32	0x3db5a8e2	0.088701025
33	0x3dd0531c	0.10172102
34	0x3e0fd000	0.1404419
35	0x3c3fb003	0.011699679
36	0xbc612ef5	-0.013744106
37	0xbe1159f4	-0.1419447
38	0x3e04d248	0.12970841
39	0x3e0894c0	0.13337994
40	0x3e1f0ed6	0.15533003
41	0xbe53994c	-0.20663947
42	0xbd92a485	-0.07160286
43	0x3d51d974	0.05123277
44	0x3e3b8907	0.1831399
45	0xbe220bb3	-0.15824775
46	0x3e683cd5	0.22679456
47	0x3d358c50	0.044323266
48	0xbe4a2ec2	-0.19744399
49	0xbddf48e2	-0.10902573
50	0x3e297f99	0.16552581
51	0x3d6caa90	0.05777985
52	0xbd9e5285	-0.07730583
53	0xbe9039f2	-0.2816921
54	0x3cd057a8	0.025432423
55	0x3dd12931	0.10212935
56	0x3e24b2ea	0.16083875
57	0xbd5e451a	-0.05426512
58	0xbdab9ac5	-0.08379129
59	0xbe395f69	-0.18102802
60	0x3e5365a6	0.20644245
61	0xbe0d618b	-0.13806741
62	0xbe33ddd5	-0.17565091
63	0xbbb9e3e5	-0.005672919
64	0x3e254957	0.16141258
65	0x3db7ce90	0.089749455
66	0xbd8b970a	-0.06815918
67	0x3e42c42f	0.1902015
68	0xbe1352a0	-0.14386988
69	0x3dc8a2d5	0.09796683
70	0xbe43b176	-0.19110665
71	0x3e5ee9e4	0.2176891
72	0xbe8527a6	-0.26006812
73	0xbe75f20a	-0.24018112
74	0x3e57bd8f	0.21068405
75	0x3e886d41	0.26645854
76	0xbdc4256c	-0.0957745
77	0xbcbd38c5	-0.023098359
78	0xbd3b3da0	-0.045713067
79	0x3dbcd03e	0.092194065
80	0xbd617998	-0.0550476
81	0xbe41b02c	-0.1891486
82	0xbe98ef26	-0.29869956
83	0x3dddc2bf	0.108281605
84	0xbe750c11	-0.23930384
85	0x3e49fb90	0.1972487
86	0xbd47ff80	-0.04882765
87	0x3d634ea8	0.055494934
88	0x3d89ada5	0.06722573
89	0xbdac6dd7	-0.08419388
90	0xbe5b9a51	-0.21445586
91	0x3e33413c	0.17505354
92	0x3e728fc0	0.23687649
93	0xbd07547c	-0.033039555
94	0xbdacc9a1	-0.08436895
95	0xbe5cc8f5	-0.21561034
96	0x3c4d6546	0.0125363525
97	0xbdc06dbc	-0.0939593
98	0x3d2df141	0.042466406
99	0xbe459f1f	-0.19298981
100	0xbd4a1675	-0.049337823
101	0x3e440519	0.1914257
102	0xbe650654	-0.22365695
103	0x3e4e28e1	0.20132782
104	0xbbe8b1fe	-0.0071012964
105	0x3d7ab707	0.061209705
106	0xbd65c094	-0.05609186
107	0xbd68799e	-0.05675661
108	0x3df12b9b	0.11775895
109	0xbdb640a4	-0.08899048
110	0x3e2fa2dd	0.17151971
111	0xbe150754	-0.14553577
112	0xbda030a0	-0.078217745
113	0x3cf32ed5	0.029685417
114	0x3d715bb3	0.05892534
115	0xbd7056a0	-0.058676362
116	0x3e580cc6	0.21098623
117	0x3d83eee8	0.06442052
118	0xbe6d0d42	-0.23149589
119	0xbd958253	-0.07300248
120	0xbbb45691	-0.0055034836
121	0xbcb53c5a	-0.022123504
122	0xbe112b1e	-0.14176604
123	0x3d54234e	0.05179148
124	0x3df5dc57	0.12004917
125	0xbe30dd9b	-0.17272036
126	0x3a970345	0.001152136
127	0x3d820100	0.06347847
128	0xbd305376	-0.043048345
129	0x3e523465	0.205278
130	0xbdf44f50	-0.1192919
131	0x3de305c7	0.11085086
132	0xbe332f92	-0.17498615
133	0x3e7e49f7	0.24832903
134	0xbe587ec4	-0.21142107
135	0x3e0246da	0.1272234
136	0xbeb04ad2	-0.34432083
137	0xbe5606eb	-0.20901076
138	0x3e0d1f90	0.13781571
139	0x3e35fbaa	0.17771783
140	0xbd99514c	-0.07486209
141	0x3dcde4bb	0.100533925
142	0xbdd4270a	-0.103590086
143	0xbdfe5c08	-0.12419897
144	0x3e047b00	0.12937546
145	0xbe910aad	-0.28328457
146	0xbe73cffb	-0.23809807
147	0x3dbca84e	0.09211789
148	0xbe32807c	-0.17431825
149	0x3e0c3c9e	0.13694999
150	0xbd8fc841	-0.07020617
151	0xbd6cb651	-0.057791058
152	0x3e0f41f9	0.1399001
153	0xbcffaca9	-0.03121026
154	0xbe2ee882	-0.17080882
155	0x3e1d11e4	0.15338856
156	0x3e32e37a	0.17469588
157	0xbe3d16b3	-0.1846569
158	0xbe807227	-0.2508709
159	0xbeb03111	-0.34412435
160	0x3dda47eb	0.106582485
161	0xbe3af68f	-0.18258117
162	0xbdaabc1e	-0.08336662
163	0xbe64fc25	-0.2236181
164	0x3d0ded3b	0.03465007
165	0x3e078de2	0.13237718
166	0xbe5221ea	-0.2052075
167	0x3e7f6bb8	0.24943435
168	0xbbe4defc	-0.0069845896
169	0xbd0d7c8f	-0.034542616
170	0x3e04def8	0.12975681
171	0x3e5043ab	0.20338313
172	0x3e2cd1c2	0.16876891
173	0x3dafb99d	0.08580325
174	0x3e08c30d	0.13355656
175	0xbd5c093a	-0.053719737
176	0xbd609421	-0.054828767
177	0xbd1009b8	-0.03516552
178	0x3e99fb48	0.30074525
179	0xbdaaa051	-0.08331359
180	0x3ded7806	0.11595158
181	0x3d83af0e	0.064298734
182	0x3cbcc60f	0.02304366
183	0xbdb48be9	-0.08815748
184	0xbdf63431	-0.120216735
185	0xbd977d73	-0.073969744
186	0x3b8bcd9c	0.004266454
187	0x3dbeda2d	0.093189575
188	0x3e23fbdf	0.1601405
189	0xbe7009ab	-0.23441188
190	0x3c83d6b3	0.016093588
191	0x3dffd870	0.12492454
192	0x3e51d25c	0.20490402
193	0x3e072a1b	0.13199656
194	0xbe0d9f97	-0.1383041
195	0xbd8773bf	-0.06613874
196	0xbc63f0c2	-0.013912382
197	0xbd8857e3	-0.06657388
198	0xbd18509d	-0.037186254
199	0xbdfee70a	-0.12446411
200	0x3d85eeb3	0.06539669
201	0x3d19561b	0.037435632
202	0x3daaebb8	0.08345741
203	0x3d046c1b	0.03232966
204	0x3d2b74c3	0.0418594
205	0x3d1b969a	0.03798542
206	0x3d43bece	0.047789387
207	0xbe23d5cf	-0.1599953
208	0x3df834e5	0.12119464
209	0x3deb92e0	0.115026236
210	0x3bc3e474	0.0059781615
211	0x3dd7850c	0.105234236
212	0x3ba1fdfa	0.0049436064
213	0xb8b5228c	-8.6371874e-05
214	0x3e4d62a2	0.20057157
215	0x3db04f31	0.086088546
216	0x3d8f4b48	0.06996781
217	0xbd986dbc	-0.07442805
218	0x3e840f8e	0.25793117
219	0xbde9c482	-0.11414434
220	0x3d5a2bb6	0.053264342
221	0x3c0afd26	0.008483207
222	0xbda4bc62	-0.08043744
223	0x3dc40c52	0.095726624
224	0xbe861578	-0.26188254
225	0xbc0e8b02	-0.008700134
226	0xbd8cbb86	-0.06871705
227	0xbd264e16	-0.040601812
228	0x3d6ac88a	0.057320155
229	0xbca3c9c3	-0.019993668
230	0xbcd9633a	-0.026536573
231	0x3d035e72	0.032072492
232	0xbe244414	-0.16041595
233	0x3d116c98	0.035503954
234	0x3e26b910	0.16281533
235	0x3c98fee6	0.018676233
236	0xbe719f90	-0.23596025
237	0xbd54b85f	-0.051933642
238	0xbe5d9ffb	-0.21643059
239	0x3cac1acd	0.021008873
240	0x3e863f7c	0.2622031
241	0x3e770cab	0.24125926
242	0xbdd9258a	-0.10602863
243	0x3d1fd816	0.039024435
244	0x3d132ec1	0.03593326
245	0x3d937882	0.072007194
246	0x3d97bc16	0.074089214
247	0xbddb60b7	-0.10711806
248	0xbd6b1568	-0.05739346
249	0x3e8088f6	0.25104493
250	0x3de3980d	0.11112986
251	0xbd5fd5b7	-0.054647174
252	0xbe9271a4	-0.28602326
253	0x3e8d803c	0.27636898
254	0x3d03d363	0.032184016
255	0xbc80d0fc	-0.015724652

transformer.layers.0.0.fn.fn.to_out.bias f4 [64]
0	0x3e5a19fd	0.21298976
1	0x3d8798e8	0.066209614
2	0xbe09dd4b	-0.13463323
3	0xbe5f3a96	-0.21799693
4	0x3e5404ea	0.20705
5	0xbe56d9be	-0.209815
6	0x3e0bd67e	0.13656041
7	0x3d5c2f75	0.053756196
8	0xbe256b83	-0.16154294
9	0x3ca3a9c6	0.019978415
10	0x3de77c65	0.11303023
11	0x3e343151	0.17596938
12	0x3dd51f11	0.10406316
13	0xbe0a93f5	-0.13533004
14	0x3c850041	0.016235473
15	0xbda2614d	-0.07928715
16	0x3dfb9db0	0.12285936
17	0x3e0e6109	0.13904203
18	0x3e440902	0.19144061
19	0xbde81d6e	-0.11333738
20	0x3e87332d	0.26406232
21	0x3d08c9ec	0.033395693
22	0xbe05f4a4	-0.13081604
23	0x3e2618cf	0.16220401
24	0xbdc4f385	-0.0961676
25	0xbe43a4dd	-0.19105859
26	0xbd5f785a	-0.054558136
27	0x3dafecd0	0.0859009
28	0x3d30a4c8	0.043125898
29	0xbe399eda	-0.18127003
30	0x3e023ee7	0.12719308
31	0x3c20e8ec	0.009821158
32	0xbdc575ae	-0.09641586
33	0xbe852993	-0.2600828
34	0x3dfcf41d	0.123512484
35	0x3d1c011e	0.038087003
36	0x3d802cd3	0.062585495
37	0x3e31f2d6	0.17377791
38	0xbdb0af7e	-0.086272225
39	0xbd4460d7	-0.047943916
40	0xbdbbcc10	-0.09169781
41	0x3e5c9585	0.21541412
42	0xbda59aa6	-0.080861375
43	0xbd1db9c3	-0.038507234
44	0x3daa5260	0.08316493
45	0x3d0a3851	0.033745114
46	0x3c29e1c0	0.010368764
47	0xbe623a5c	-0.22092575
48	0xbdcf97e7	-0.10136395
49	0x3d921a53	0.07133927
50	0xbd99a689	-0.07502467
51	0x3e1289aa	0.14310327
52	0x3dc7b71d	0.09751723
53	0x3d9eb504	0.0774937
54	0x3ddd0f44	0.10793927
55	0x3d1aaceb	0.037762564
56	0x3d1bd9c4	0.038049474
57	0xbe3e6071	-0.18591477
58	0xbdc8c557	-0.098032646
59	0xbdb34584	-0.087534934
60	0x3e16b23e	0.14716431
61	0xbc03244d	-0.00800426
62	0xbe369c24	-0.17833
63	0x3dd1e43d	0.10248611

transformer.layers.0.1.fn.norm.weight f4 [64]
0	0x3f2ec5e6	0.6827072
1	0x3f1ccd6f	0.61250967
2	0x3f52c4a6	0.8233131
3	0x3f4a79c8	0.79092073
4	0x3f7709c9	0.96499306
5	0x3f3a8891	0.72864634
6	0x3f40f505	0.7537387
7	0x3f68a0d7	0.9087042
8	0x3f699bd8	0.91253424
9	0x3f432c01	0.7623902
10	0x3f87a328	1.0596666
11	0x3f611f8c	0.8793876
12	0x3f46139a	0.7737366
13	0x3f427822	0.7596456
14	0x3f310196	0.69143045
15	0x3f4f1a96	0.8089994
16	0x3f28d560	0.65950584
17	0x3f10b4d1	0.56525904
18	0x3f30b3f0	0.6902456
19	0x3f474df4	0.7785332
20	0x3f4fc3f5	0.8115838
21	0x3f2c9d47	0.67427486
22	0x3f609609	0.87728935
23	0x3f3c27fa	0.734985
24	0x3f2457c9	0.6419645
25	0x3f73e287	0.9526753
26	0x3f3eb421	0.74493605
27	0x3f22c455	0.6358083
28	0x3f5f3b9f	0.8720035
29	0x3f92e5c9	1.1476375
30	0x3f7652c8	0.96220064
31	0x3ef9a406	0.48757952
32	0x3f2abb30	0.66691875
33	0x3f1ee67a	0.6207043
34	0x3f35e47f	0.7105178
35	0x3f535675	0.825538
36	0x3f4c97aa	0.7991892
37	0x3f10e0c3	0.5659296
38	0x3f52cfbb	0.8234822
39	0x3f683a2c	0.90713763
40	0x3f45b0f7	0.7722315
41	0x3f2b8f51	0.6701556
42	0x3f2ff54d	0.68733674
43	0x3f3bb0f8	0.7331691
44	0x3f2bb2de	0.67069805
45	0x3f15d9a7	0.58535236
46	0x3f6e6319	0.9311996
47	0x3f21ba4b	0.63174886
48	0x3f37fea0	0.718729
49	0x3f38f569	0.72249466
50	0x3f2e5b15	0.6810773
51	0x3f514a82	0.81754315
52	0x3f19bffa	0.6005856
53	0x3f6e480c	0.93078685
54	0x3f835a9f	1.026203
55	0x3f2c4c2b	0.67303723
56	0x3f3a348b	0.72736424
57	0x3f2c8693	0.67392844
58	0x3f479ed2	0.77976716
59	0x3f313b01	0.6923066
60	0x3f573b5a	0.8407494
61	0x3f304717	0.68858474
62	0x3f4bce45	0.7961162
63	0x3f52151b	0.82063454

transformer.layers.0.1.fn.norm.bias f4 [64]
0	0xbe454fdd	-0.19268747
1	0xbe6f7314	-0.23383743
2	0xbddd8182	-0.10815717
3	0x3e2a7a06	0.16648111
4	0xbda847e7	-0.08216839
5	0x3e1acd05	0.15117271
6	0xbe7dbbd1	-0.24778678
7	0x3d335bd8	0.04378876
8	0x3d8171d6	0.063205406
9	0xbe24f22d	-0.16108008
10	0x3ddf665c	0.109081954
11	0x3dd47b1c	0.10375044
12	0x3e195b18	0.14976156
13	0x3dc3e69a	0.09565468
14	0x3e813305	0.25234237
15	0xbe140cd3	-0.14458017
16	0xbe270328	-0.16309798
17	0x3e2fccd3	0.17167978
18	0x3e15366e	0.14571545
19	0x3d8e10ce	0.06936799
20	0xbd1a3635	-0.037649352
21	0xbe30985d	-0.17245622
22	0x3d9e71ba	0.07736535
23	0xbe3d0998	-0.18460691
24	0xbe24f4d4	-0.1610902
25	0xbdf08d4b	-0.117456995
26	0x3e179cc1	0.1480589
27	0xbe603253	-0.21894197
28	0xbdda5e08	-0.10662466
29	0xbdeb5b92	-0.11492075
30	0xbb2a14c8	-0.0025952328
31	0xbe92df57	-0.2868602
32	0xbe043ae3	-0.12913089
33	0x3e7205b1	0.23634984
34	0x3e4e8036	0.20166096
35	0xbca9fc44	-0.020750172
36	0xbe261354	-0.1621831
37	0xbdcbd0d2	-0.09951939
38	0x3da42dfd	0.08016584
39	0xbe1537bb	-0.1457204
40	0x3e71645c	0.2357344
41	0xbe385976	-0.18002877
42	0x3e8025b4	0.25028765
43	0x3dd87e8c	0.10571012
44	0x3e21664f	0.15761684
45	0xbe922e69	-0.28551033
46	0xbd7408b3	-0.05957861
47	0x3e133728	0.14376509
48	0xbe20a8e4	-0.15689427
49	0x3e2c1c8f	0.16807769
50	0x3dbcc132	0.092165366
51	0xbd7d1a6a	-0.06179277
52	0x3e2d9ec8	0.16955101
53	0xbd241da9	-0.04006735
54	0x3d9a438c	0.07532415
55	0x3e40e4a4	0.1883722
56	0x3db4bd75	0.088251986
57	0x3e50dc0c	0.20396441
58	0x3e0189df	0.1265025
59	0xbe35991e	-0.17734191
60	0x3d2a42ce	0.041567616
61	0xbe621131	-0.2207687
62	0x3e224f75	0.15850623
63	0xbdd6775d	-0.104719855

transformer.layers.0.1.fn.fn.net.0.weight f4 [128, 64]
0	0x3e1d687f	0.15371893
1	0xbd8ce6df	-0.06879973
2	0xbc6e86ed	-0.014558536
3	0x3d8455d9	0.06461687
4	0x3d13070e	0.0358954
5	0x3e053e43	0.13012032
6	0xbe717dae	-0.23583099
7	0xbd3de59c	-0.04636155
8	0x3e1f55c3	0.15560059
9	0xbe9c916d	-0.305797
10	0x3e5f17b9	0.21786393
11	0x3c2fa128	0.010719575
12	0xbdacc4d5	-0.0843598
13	0xbe01f2a2	-0.12690213
14	0x3e431661	0.19051506
15	0xbe25669c	-0.16152424
16	0xbdd46309	-0.10370452
17	0xbd707d25	-0.058713097
18	0xbc296d85	-0.010341053
19	0x3e8c7819	0.27435377
20	0x3d16585b	0.036705356
21	0x3d8f46aa	0.069959
22	0xbe464b99	-0.19364776
23	0xbe19d68d	-0.15023251
24	0x3d593da7	0.053037312
25	0x3e2ba75e	0.16763064
26	0x3e1f6df8	0.15569293
27	0xbda12608	-0.07868582
28	0xbd1e8d8f	-0.03870922
29	0x3c86217a	0.016373385
30	0xbb7f6374	-0.003896919
31	0x3da755fc	0.08170697
32	0x3e131fb7	0.14367567
33	0x3e24cca4	0.16093689
34	0xbd97527f	-0.07388782
35	0x3d0500c3	0.03247143
36	0xbe187de7	-0.14891778
37	0xbe0e942a	-0.13923708
38	0x3ddb77a0	0.10716176
39	0x3e8fda11	0.2809606
40	0x3e6245d8	0.22096956
41	0xbd7d9c94	-0.061916903
42	0x3d0aed63	0.033917796
43	0xbde95a72	-0.11394204
44	0xbd80d9b1	-0.06291521
45	0x3d1aeede	0.037825458
46	0xbe0c52af	-0.13703416
47	0x3cff62bb	0.031175008
48	0x3d4f1733	0.050559234
49	0xbd89cd20	-0.067285776
50	0x3e014505	0.12623985
51	0xbe3739fa	-0.1789321
52	0xbdb5ea5c	-0.08882591
53	0xbe18e83d	-0.14932342
54	0x3daf55c0	0.085612774
55	0xbe1d9757	-0.15389763
56	0xbd06b3a6	-0.03288617
57	0x3ea03a6b	0.3129457
58	0x3e03d832	0.1287544
59	0x3d1bfda6	0.038083695
60	0x3db44228	0.08801681
61	0xbdc0e036	-0.09417765
62	0x3d93b727	0.07212668
63	0xbe681cb5	-0.22667201
64	0x3d8c902d	0.06863437
65	0x3d270c34	0.040783122
66	0x3e390fc6	0.18072423
67	0xbde243dc	-0.110480994
68	0xbe550687	-0.20803271
69	0xbe0e73ef	-0.13911413
70	0x3deac58a	0.11463459
71	0xbdad5194	-0.084628254
72	0xbe0d6ffe	-0.13812253
73	0x3cbccb91	0.023046287
74	0x3d255664	0.04036559
75	0xbda28420	-0.07935357
76	0xbda90474	-0.082528025
77	0xbe6c3152	-0.23065689
78	0xbdbe492c	-0.092913
79	0x3e369a68	0.17832339
80	0x3dbc072a	0.09181054
81	0xbe06bd53	-0.13158159
82	0xbda15f9f	-0.078795664
83	0xbc445e63	-0.011985394
84	0xbde6d463	-0.11270978
85	0x3e07232e	0.13197014
86	0xbcc87c90	-0.024473459
87	0x3dc3f30e	0.095678434
88	0x3e4ef4b7	0.20210539
89	0x3e09debb	0.13463871
90	0x3d0101c5	0.03149583
91	0x3ddd99d6	0.108203575
92	0x3e0d2e7d	0.13787265
93	0x3c54c4b4	0.012986351
94	0x3c09aa8d	0.008402479
95	0x3e946114	0.28980315
96	0x3db365b7	0.08759635
97	0x3c2454d4	0.01002999
98	0xbe57cde2	-0.21074632
99	0x3c7d7517	0.015469811
100	0x3e040bfc	0.12895197
101	0x3d64db6c	0.05587332
102	0x3dbfce7c	0.09365556
103	0x3e138e39	0.14409722
104	0x3a86128c	0.0010228916
105	0x3d523fca	0.051330365
106	0xbe2bdca4	-0.16783386
107	0xbdeecf3c	-0.116606206
108	0xbe1f8377	-0.15577494
109	0x3db87fe9	0.09008772
110	0x3d1ebf04	0.038756385
111	0xbdcb31fc	-0.09921643
112	0x3e0844a8	0.1330744
113	0xbe3e6ba8	-0.18595755
114	0x3de46e95	0.11153904
115	0xbcd10f3b	-0.025519958
116	0xbdbbe1d4	-0.09173933
117	0x3c8853cc	0.01664152
118	0x3db83e7c	0.08996293
119	0xbdc88ee4	-0.09792879
120	0xbd0fdb43	-0.035121214
121	0xbca53db3	-0.020171022
122	0x3c8ec874	0.017429568
123	0x3e5538d8	0.20822465
124	0xbcbd3d7e	-0.02310061
125	0x3d123bf9	0.035701726
126	0xbd95dd78	-0.073176324
127	0xbcc28529	-0.023745136
128	0xbdc56b4c	-0.09639606
129	0xbdd508bf	-0.10402059
130	0xbe09a8c0	-0.1344328
131	0x3e543cfa	0.20726386
132	0x3df1e4da	0.11811228
133	0x3dd2b455	0.10288302
134	0xbdb9be91	-0.09069551
135	0xbdbe91f1	-0.0930518
136	0x3e1f0e35	0.15532763
137	0x3c17710d	0.009243262
138	0x3e1fea81	0.156168
139	0xbd28aca7	-0.04118028
140	0x3dfe4d9a	0.12417145
141	0x3d75837c	0.059939846
142	0x3dd212a4	0.10257462
143	0x3e33bfee	0.17553684
144	0xbe84b1f7	-0.25917026
145	0xbcc80511	-0.024416478
146	0x3deeb7ab	0.11656126
147	0x3d0dbcd2	0.0346039
148	0x3e145a6c	0.14487618
149	0xbd6c8baa	-0.05775038
150	0x3e1e0894	0.1543296
151	0xbe6b9a49	-0.23008074
152	0x3d8ccb7d	0.0687475
153	0xbd91d311	-0.07120336
154	0x3ddb0206	0.10693745
155	0xbe11585e	-0.14193866
156	0x3d0f5e06	0.035001777
157	0xbdc60467	-0.096688084
158	0x3dc350c3	0.095368885
159	0xbd6b8faf	-0.057510074
160	0xbcd797b0	-0.026317447
161	0x3d34946e	0.044086866
162	0x3cff7ce9	0.031187491
163	0x3d252a74	0.04032369
164	0xbe061c57	-0.13096748
165	0x3e46551a	0.19368401
166	0xbd59e810	-0.053199828
167	0x3d783f1c	0.06060706
168	0x3e3834a2	0.17988828
169	0x3daba074	0.083802134
170	0x3e6d3efc	0.23168558
171	0x3dd7c58f	0.10535728
172	0x3cf36e1e	0.029715594
173	0xbca99707	-0.020701898
174	0xbcbe794f	-0.023251204
175	0x3e15f609	0.14644636
176	0x3bc2644a	0.0059323655
177	0x3d1ef5a1	0.03880847
178	0xbc9e1d25	-0.019301007
179	0xbe27fa3f	-0.16404055
180	0x3def57ab	0.11686643
181	0x3df2113b	0.11819693
182	0xbd655712	-0.05599124
183	0x3d6edf78	0.058318585
184	0x3d01c601	0.031682972
185	0x3df3d88a	0.11906536
186	0x3e15616b	0.14587943
187	0xbe2069f4	-0.15665418
188	0x3cabcbe3	0.020971244
189	0xbe8abbd3	-0.27096424
190	0x3e83ab49	0.25716618
191	0xbde50003	-0.11181643
192	0x3d55e2e1	0.05221832
193	0x3c9e3854	0.019313969
194	0xbdfff397	-0.12497633
195	0xbdfb255f	-0.12262987
196	0x3e5969a9	0.21231712
197	0xbe8efb26	-0.27925986
198	0x3e932038	0.28735518
199	0x3bf6cf07	0.007532004
200	0x3d418571	0.0472464
201	0x3e0927b7	0.13394056
202	0x3dd74c71	0.10512627
203	0xbd11cab9	-0.035593722
204	0x3d6fa3de	0.058505885
205	0x3b6e4fbb	0.003636344
206	0xbdf97376	-0.121802256
207	0x3e13353e	0.14375779
208	0x3dab03b6	0.08350317
209	0xbd0dda8c	-0.03463225
210	0xbd530110	-0.051514685
211	0xbe28d2fb	-0.16486733
212	0x3e2f4655	0.17116673
213	0xbd344adb	-0.0440167
214	0xbb90a9a1	-0.0044147526
215	0xbd3f12eb	-0.0466489
216	0x3d23e728	0.04001537
217	0x3e45669e	0.19277427
218	0xbd21e15d	-0.039521564
219	0xbcd70325	-0.026246617
220	0x3e517a7f	0.20456885
221	0x3d27d47b	0.04097412
222	0x3dd45fcd	0.10369835
223	0x3d7ee204	0.062227264
224	0xbdbe1844	-0.09281972
225	0xbe4c9cc4	-0.19981676
226	0x3d638866	0.05555
227	0xbe02a822	-0.1275945
228	0x3e62b378	0.22138774
229	0x3e0ffe20	0.14061785
230	0xbe66b664	-0.22530514
231	0x3d5029f4	0.05082126
232	0xbd9e02b8	-0.07715362
233	0x3eab575c	0.33465087
234	0xbda21b6e	-0.07915388
235	0xbd3ce28a	-0.046114482
236	0x3df91bd9	0.12163515
237	0xbd3de741	-0.04636312
238	0x3deb2f11	0.114835866
239	0x3d76f274	0.060289815
240	0xbdd11247	-0.10208564
241	0xbc4c4a23	-0.012468847
242	0xbda941a3	-0.08264472
243	0x3e7c4312	0.2463496
244	0x3d9220f1	0.07135189
245	0x3e776a59	0.24161662
246	0x3d1af5c0	0.03783202
247	0x3d34afb9	0.044112895
248	0xbc5b5e6b	-0.01338921
249	0xbd74dfa5	-0.059783597
250	0xbdef5802	-0.11686708
251	0x3d1b7ca2	0.037960656
252	0xbda27270	-0.079319835
253	0xbd7b8b6a	-0.061412252
254	0xbdc7fb18	-0.09764689
255	0x3dc0b570	0.094096065

transformer.layers.0.1.fn.fn.net.0.bias f4 [128]
0	0x3d9bdfae	0.07611023
1	0x3dd55bf8	0.10417932
2	0xbe407486	-0.1879445
3	0xbe1d181a	-0.15341225
4	0xbd183177	-0.03715655
5	0x3cc6e98d	0.024281288
6	0xbdca1c9d	-0.09868739
7	0xbe2950e9	-0.16534771
8	0xbdd89964	-0.10576132
9	0x3c2c6345	0.010521715
10	0xbc951f46	-0.018203389
11	0xbd12c3d1	-0.035831276
12	0xbe66b673	-0.22530536
13	0xbd2b6182	-0.041841038
14	0xbd0feb85	-0.03513672
15	0xbe87e1e6	-0.26539534
16	0xbeae1ae0	-0.3400488
17	0xbe386e2f	-0.18010782
18	0xbe958f01	-0.29210666
19	0x3d4e22e9	0.05032626
20	0xbd18f6cc	-0.03734474
21	0xbea17fbb	-0.31542763
22	0x3b2cf778	0.002639262
23	0xbcb2dfd5	-0.021835247
24	0xbe2a61f6	-0.16638932
25	0xbe68a55a	-0.22719327
26	0xbd2c4cb4	-0.042065337
27	0xbd5ba066	-0.053619765
28	0x3dc1c8b0	0.09462106
29	0xbdb7b264	-0.08969572
30	0xbdc8acc5	-0.09798578
31	0xbde7edea	-0.113246754
32	0xbd701857	-0.058616962
33	0x3dda3b57	0.106558494
34	0xbe508827	-0.20364438
35	0xbe2fa2e5	-0.17151983
36	0xbdf716a2	-0.12064864
37	0xbe88cafa	-0.2671736
38	0xbeb28ac8	-0.34871507
39	0xbd19c45b	-0.037540775
40	0x3dae1151	0.084993966
41	0xbd01e15d	-0.031709064
42	0x3c90705a	0.017631698
43	0xbe19c0a4	-0.15014893
44	0xbe7e1386	-0.24812135
45	0xbe24eb46	-0.16105375
46	0xbab4e003	-0.0013799671
47	0xbd088859	-0.033333156
48	0xbd94dac9	-0.072682925
49	0xbec4e373	-0.3845478
50	0xbe550525	-0.20802744
51	0x3d3269e0	0.043558
52	0xbe17bbaf	-0.1481769
53	0xbe76d996	-0.2410644
54	0xbe15c301	-0.1462517
55	0xbe871351	-0.26381925
56	0xbe981314	-0.29702055
57	0xbe29a753	-0.16567735
58	0xbebe7afe	-0.3720321
59	0x3e6e0f7c	0.23248094
60	0x3ddd48ce	0.10804902
61	0xbe8dfcb7	-0.2773187
62	0xbd9dbe9a	-0.0770237
63	0xbe726a5e	-0.23673388
64	0xbe71fa85	-0.23630722
65	0xbe5a52fa	-0.21320716
66	0xbe8acb3b	-0.27108178
67	0x3db08142	0.08618404
68	0x3bb60034	0.0055542234
69	0x3d1b93ba	0.03798268
70	0xbe955173	-0.29163703
71	0xbc05a5ca	-0.008157203
72	0x3d8755da	0.06608172
73	0xbe196eb5	-0.14983638
74	0x3dd22942	0.102617756
75	0xbe289717	-0.16463886
76	0xbdec1967	-0.115282826
77	0x3da60b0b	0.08107575
78	0xbda80485	-0.08203987
79	0xbe68f766	-0.22750625
80	0xbd1250dd	-0.03572165
81	0xbda03fb5	-0.07824651
82	0xbd5cf6f8	-0.053946465
83	0x3d8deb11	0.06929601
84	0xbe3ec80c	-0.18631
85	0xbba8f2c8	-0.005155895
86	0xbea44d8d	-0.32090417
87	0x3e5311e7	0.20612298
88	0x3e8b47fb	0.27203354
89	0xbde45d59	-0.11150617
90	0xbde3c3f4	-0.111213595
91	0xbe166769	-0.14687885
92	0xbeab5bfc	-0.33468616
93	0xbe60d2be	-0.21955392
94	0xbe48389c	-0.19552845
95	0x3e515c07	0.20445262
96	0xbd509d82	-0.05093146
97	0xbdd835f4	-0.10557166
98	0xbe3899cd	-0.1802742
99	0xbe97e857	-0.2966945
100	0xbe40ae4f	-0.18816493
101	0xbd99975e	-0.07499574
102	0xbe69dd69	-0.22838368
103	0xbd955bda	-0.0729291
104	0x3bbe8c99	0.0058151004
105	0xbe871ae5	-0.26387706
106	0xbd77f991	-0.06054074
107	0xbd9bfb44	-0.076162845
108	0xbe1c707e	-0.15277287
109	0xbe8ed17d	-0.27894202
110	0xbe890929	-0.267648
111	0xbe74cc46	-0.23906049
112	0xbe15e3e6	-0.14637718
113	0x3bda82cd	0.0066684247
114	0xbceaf17c	-0.028679602
115	0x3dae4167	0.08508568
116	0x3d8b6aa2	0.06807448
117	0xbd5c9011	-0.05384833
118	0xbd6cec97	-0.057842817
119	0xbd33089b	-0.04370938
120	0x3dcea744	0.10090497
121	0xbe6cb3e4	-0.23115498
122	0xbe642a70	-0.22281814
123	0xbdb790c1	-0.089631565
124	0xbd8da4e0	-0.06916213
125	0xbdf6b00b	-0.12045296
126	0xbc9c457d	-0.019076103
127	0xbe64d6f6	-0.22347626
