model_training/trained_models/model_100.pth (torch, 453160 bytes, 18 tensors)

pos_embedding f4 [1, 1025, 64]
00000000: 51d9 ef3f b2eb b93f c14c 603f 9ad3 11c0
00000010: d848 1c3f d1eb 9bbf 20eb 0abd 78f1 c9bf
00000020: 530b 35bf 389c c43f b646 d0be 772f aebf
00000030: a5c5 0abf beb7 0dbf b8e2 38bf b25c 463f
00000040: 60d4 dc3f 0774 d9bd 32a5 89be c3dc df3e
00000050: 6fcb 49bf f424 763f 2454 5d3f 8403 dc3f
00000060: 586e 943f 7f16 a23f 324b 193f f02c a03f
00000070: 27ae 89be f261 ec3c 6c43 3bbe f176 473f
00000080: 757e b9bf f849 68bf 2357 2fbe 5d06 d83f
00000090: 094b 193e c5ef ffbe 3631 8b3e 72db 56bf
000000a0: fc8b c4bf 2f76 803f d81f 6cbf adc9 20bf
000000b0: b99a 9cbf 8035 0240 e0ed 9fbf 6953 e9be
000000c0: 37bc 59bf 8ede 29bf bbce 843d 64e2 183f
000000d0: 9086 dfbe 3add 9e3f 1ca0 64bf 8a54 47bf
000000e0: 4fc8 aabf 5077 b73c 9f6b cd3d a9f6 2b3f
000000f0: 4ebc a63b 0b52 ec3f 0521 97bf c502 ac3f
00000100: 98fa af3f 8e1b 3a3f 42a5 1140 a030 1e3f
00000110: 7818 c33e 6646 17be 38ae 84bf e49f a33f
00000120: 5809 9ebe b006 063f ac98 8a3d ebfa 063f
00000130: 9630 1c3f c852 48bf 4471 17c0 ab4e 52bf
00000140: 1a4f 923c 7c42 b9be b225 b5bf 6f34 0cbf
00000150: c713 083f eb4d 0f3f b281 a13f cca5 3bbc
00000160: 5345 4a3f 29ef e5be 53d5 87bf 1102 2a3f
00000170: 03c9 d9bf f6f0 5dbf 38e3 b83f 32df fa3e
00000180: 86c7 24c0 af77 173f 4b99 5c3f 7e41 cfbd
00000190: e2e8 253f 474a 113f b775 8d3f 6c58 fdbe
000001a0: 45d7 44be d370 433f fe2f d83e fe5a 233e
000001b0: e6f3 883e 745b 973f 163a 2fbb 1d00 f4be
000001c0: a759 c1bf 9dcb 01be 5d4f 1bbf c6bd c03e
000001d0: 1bd3 253f 8ec9 ff3d c7f2 a4be 5494 243f
000001e0: a3d4 c4bc 3572 803e 3ba7 4e3e 7254 4e3f
000001f0: 30e1 933f b78a b93e 67b8 343f 7b25 c93e
00000200: 3363 f03f 3ef7 6a3f 662f bcbf cb35 8dbf
00000210: 44ee ccbd 9d4d da3f 9fd2 313f e213 0d3f
00000220: f1cf 883f fbdb bb3a 7a9e f4bf 1c06 8a3f
00000230: aed3 b7be a755 793f 248e 3cbf c766 233f
00000240: 5763 82bf 1b6b 843f 3aaa d43f ca6f c43f
00000250: 0af2 803e c23c 39be 6a2b 31bf e2e1 9d3c
00000260: 5f03 bc3e 3f12 863f 3a09 ecbe 2d2a d73f
00000270: 54fd 1dc0 1999 d5be d171 93bf 479d 523f
00000280: 36e9 f3bf 8621 ac3e 3be3 713d 219b d1be
00000290: 5a1f 983e b770 45bf e785 5e3e 93af 97bf
000002a0: dd8d d2bf a854 ae3f 2f25 ac3f efeb 113d
000002b0: 2702 d2bf dbcd 2e3f e46d 4b3f 90e1 f83f
000002c0: 00b7 b33d d530 ea3d 3cab 51bf 4f7f 91be
000002d0: c2ca 86bf b50e d0bf d98d 8abf 8cb6 e1be
000002e0: 2722 08bf c866 c9bf 50eb f8bf 0f1e 103e
000002f0: be96 8f3f f64e 10bf 9448 313f 1eb0 363f
00000300: 370b d33f ebe1 88bf 9d4f 723f ff0f 6dbe
00000310: bb4a 9abf 5c04 c73e d6e9 063f 6b0f ab3f
00000320: 3ce1 d73e 2acd 0840 f77b 08bf ccfa 53bf
00000330: e3f6 293e b576 7a3f f449 a63f 6a79 cf3e
00000340: 3375 57bf 2de7 83bf 0656 04bf 01c9 05bf
00000350: 25f6 913d a067 003f e597 82bd ce22 1ec0
00000360: 5d5f c5be 6af3 9d3f dbd5 e3bf 45d7 cc3f
00000370: 7764 c23e ba7a 0dbf ba2d 8d3f 7401 dc3f
00000380: 8c11 873d e728 e53f 05f6 753e ee3a 99bf
00000390: 6153 10bf 27e2 7e3d 9bdd db3e 1d07 0340
000003a0: 20fd 9fbd ed3a 67bf be00 04c0 e9d9 8fbf
000003b0: 3eed 673c c524 11bd da23 393e 8381 783e
000003c0: d334 6dbf 50a2 8a3e 4819 04bf fcdd a93e
000003d0: 8c8e 7bbf d3bc c8bb 523c 97be 30c9 c83f
000003e0: a4e3 a33f c653 31bf 3fd4 713f acfc 013f
000003f0: 20df 123f cb39 163f a7a0 f93e 624c 3a3e
1.8738195 1.4525054 0.8761712 -2.2785401 0.6104865 -1.218134 -0.03391564 -1.5776815
-0.70720404 1.5360174 -0.40678948 -1.3608235 -0.5420783 -0.55358493 -0.72220945 0.7748519
1.7252312 -0.106178336 -0.26883847 0.43723115 -0.7882604 0.96150136 0.86456513 1.7188573
1.1596174 1.2663115 0.59880364 1.2513714 -0.2689068 0.028855298 -0.18287438 0.77915865
-1.4491717 -0.9073787 -0.17123084 1.6876942 0.1497003 -0.49987617 0.27185982 -0.83928597
-1.535522 1.0036067 -0.9223609 -0.6280773 -1.2234718 2.0345154 -1.2494469 -0.4557145
-0.8505282 -0.66355217 0.06484743 0.59720445 -0.4365735 1.2411263 -0.8930681 -0.7786337
-1.3342379 0.02239576 0.10030293 0.6717325 0.0050883656 1.8462538 -1.1806952 1.3438345
1.374835 0.72698295 2.2757115 0.61792946 0.38104606 -0.14772949 -1.0365667 1.278317
-0.30866504 0.52353954 0.06767401 0.5272662 0.61011636 -0.78251314 -2.3662882 -0.8215129
0.017859984 -0.36183536 -1.4152129 -0.5476751 0.5315518 0.5597827 1.2617705 -0.011453103
0.7901203 -0.44909027 -1.0611976 0.66409403 -1.7014469 -0.866958 1.4444342 0.4899841
-2.574678 0.59167 0.86171407 -0.101199135 0.64808476 0.56753963 1.1051549 -0.49481523
-0.19222744 0.7634403 0.42224115 0.1595268 0.2674858 1.1824784 -0.0026737503 -0.47656336
-1.5105485 -0.12675329 -0.60667974 0.37644786 0.64775246 0.124896154 -0.32216474 0.6428883
-0.024027174 0.25087133 0.20180981 0.80597603 1.1553097 0.36238644 0.70593876 0.39286408
1.8780273 0.9178351 -1.4701965 -1.1032041 -0.10006383 1.7054936 0.6946201 0.55108464
1.0688459 0.0014332527 -1.9110863 1.0783114 -0.35903686 0.9739632 -0.7365439 0.638287
-1.0186566 1.0345186 1.6614449 1.5346615 0.2518466 -0.18089584 -0.6920687 0.019272748
0.36721322 1.0474318 -0.4610079 1.6809746 -2.468587 -0.41718367 -1.1519109 0.82271236
-1.9055545 0.33619326 0.059054594 -0.40938666 0.2971142 -0.77125114 0.21730767 -1.1850456
-1.6449543 1.3619585 1.3448848 0.035625394 -1.6406907 0.6828286 0.79464555 1.9443836
0.08775139 0.11435095 -0.8190191 -0.2841744 -1.0530627 -1.6254488 -1.0824538 -0.44084585
-0.5317711 -1.5734491 -1.9446812 0.14073966 1.1217878 -0.56370485 0.6925137 0.71362484
1.6487797 -1.0693945 0.9465273 -0.23150633 -1.2054056 0.38870513 0.52700555 1.336408
0.42164028 2.1375222 -0.53314155 -0.8280456 0.16598086 0.9783738 1.2991319 0.4052232
-0.84163207 -1.0304924 -0.5169376 -0.5225983 0.071270265 0.5015812 -0.06376628 -2.4708743
-0.3854932 1.2339909 -1.7799639 1.6003195 0.37967274 -0.5526539 1.102958 1.7187943
0.06595144 1.7903107 0.2401963 -1.1971109 -0.56377226 0.062227394 0.4294251 2.0473092
-0.07811952 -0.9032429 -2.0625453 -1.1238376 0.014155684 -0.035435457 0.18080083 0.24268155
-0.9265873 0.2707696 -0.51601076 0.33177173 -0.98264384 -0.006126025 -0.29538208 1.5686398
1.2803845 -0.69268453 0.94464487 0.5077617 0.5737171 0.58681935 0.4875538 0.181932

cls_token f4 [1, 1, 64]
00000000: 5cc9 2dbf c72a c43f f921 743f 04ce 6d3e
00000010: d14a d6be b67c c8be 65da e73f 79ed b83f
00000020: 4295 bcbf 6ecc 48be 650c 2a3f fb4b 4e3f
00000030: 5184 a53e 1d2a d0bf 62ac 1cbf 9120 4f39
00000040: fca1 b13f 5653 b6bf 8cd8 f2bf cc57 b0bf
00000050: 07e2 de3e a662 093f 386c 64bf 2c5a 8c3f
00000060: 69c7 953d 0e16 4bbf f60e 98bf 8e00 753f
00000070: 49a3 7c3f 5447 093f 5f4f 033e 5714 1240
00000080: 10c6 bf3f 752c c2be 1b15 53bf 3d93 fabe
00000090: 706b a33f e2f0 f33f 3d32 c2bf 320e f43e
000000a0: 135e 5b3d af7a cd3e a8fe efbe aea9 7dbf
000000b0: c305 08bf 4383 743e a2e1 fe3f 7cae 8abf
000000c0: b04d e43f 6c76 bbbb 55c8 5fbf fef6 8d3f
000000d0: a5e3 76bf bf58 03bf ce50 8d3f a1ab 84bd
000000e0: 4675 d23d c09f 62bf 137e 7bbf 6389 c53f
000000f0: 0d06 f6be 54c9 703f 8902 ebbe 42ec 493f
-0.67885375 1.5325555 0.9536434 0.2322312 -0.41853955 -0.39157647 1.8113524 1.4447471
-1.473305 -0.19609234 0.6642516 0.80584687 0.32327512 -1.6262852 -0.61200535 0.0001975319
1.3877559 -1.4244182 -1.8972335 -1.3776793 0.4353182 0.5366615 -0.8922763 1.0965018
0.07313425 -0.7933053 -1.1879566 0.9570397 0.98686653 0.53624463 0.12823246 2.2824914
1.4982319 -0.37924543 -0.8245408 -0.4894046 1.2767162 1.9057887 -1.5171582 0.4766708
0.053556513 0.40132663 -0.46873975 -0.99087036 -0.5313379 0.23878197 1.9912608 -1.0834498
1.7836208 -0.005720904 -0.8741506 1.1091001 -0.9644111 -0.5130729 1.1040285 -0.06478048
0.102762744 -0.8852501 -0.9823925 1.5432552 -0.4805149 0.940572 -0.45900372 0.78876126

patch_to_embedding.weight f4 [64, 64]
00000000: 55da 393e 0cc9 083e 97ed fd3d 6a42 233e
00000010: 2ac9 0e3e f0f9 a73d 2221 5c3d c240 913d
00000020: 852f 8f3e 6a69 863e 0748 553e aef3 4d3e
00000030: b554 863e c14c 883e cdac 6e3e 27d0 223e
00000040: 1278 563e cea1 c93d 10ea 623e a758 853e
00000050: 85e8 473e 1b49 c93d 53ff 4d3e 86b3 8a3e
00000060: 796e 133e 4ec5 593e 28d0 323e 8667 653e
00000070: 8228 563e ff9f 393e 75fc 673d 1270 8a3e
00000080: cbd1 173d b4ba 543d 903e 893e cb89 053e
00000090: 416a 3d3d 5e44 853e 427a 023e c7d8 823e
000000a0: ed27 7b3e 136b 133d 8d47 fb3c 3037 243e
000000b0: a82d fa3d d1a8 293d 485c bb3d a505 7f3e
000000c0: a941 543e da2a 4f3e 9829 5c3e 08ec 5e3e
000000d0: 5598 763e 308c 173e ba4a 233e 923a 923e
000000e0: b2c4 263e 1f69 0d3e 2cc1 803e 265c 6b3e
000000f0: adec 2b3e 31f7 693e 4d10 8e3e 561c 1e3e
00000100: 1011 3c3e ab2f 913e 2013 bf3e 6d46 473e
00000110: 328e 213e 48c3 633e 8c85 963e f6d1 253e
00000120: 77de 333e 6a3d 8d3e 0df1 bd3e 346b aa3e
00000130: 8779 b33e ff29 a63e 4861 a23e 9539 c63e
00000140: a311 593e 7f0f 813e eb73 923e d44c 903e
00000150: 197a 8b3e 3c60 653e 6e6e c73e fe44 b13e
00000160: 03bd 133e 9e87 8e3e 926c 103e 6fc0 bf3e
00000170: 9023 9f3e b37c ab3e d60c cd3e 4be6 be3e
00000180: f8b9 a03e 9258 593e fca4 773e 35c6 ad3e
00000190: c293 b73e 17a2 6c3e c8e1 c33e 39c8 b33e
000001a0: 3ac4 b13e 5568 753e de43 843e cade 423e
000001b0: 093d 133e 3edf 7e3e 1be5 993e 8d8a 383e
000001c0: 972d 8f3e 93b2 123e 1b50 113e 9d3b c03e
000001d0: 35f9 2b3e 907e 863e 952e 723e 2608 a53e
000001e0: 250a 873e 7381 513e 1e7e 3f3e 6f7a 213e
000001f0: d15e 693e e988 a63e a543 7b3e 8545 263e
00000200: 8109 593a f602 1cbe 7865 0dbe 6694 383d
00000210: e2ae 14be ecbf fcbc 1bbb eebd d338 773d
00000220: 80ac e0bd d69b 17be 749b 843d 1616 83bc
00000230: 1ead fdbd 311e 153d f060 08be d08d 413c
00000240: 76c0 a2bd 38fe 1f3d 02cf 5f3d f3b4 2bbd
00000250: c100 9b3d 08ee a3bb 39c7 f9bc 4bc9 a93d
00000260: 2d11 273d 84b2 b0bd a48f d13c 9f6b c3bd
00000270: dbec 88bc 2f47 01be cb63 633d 0be5 12be
00000280: 69bf 5fbd e6f4 313d c49e 90bd d57a c83d
00000290: 68be 3e3c 84ef e3bc c3c4 133d 7ec9 e6bd
000002a0: 61e0 063d 1e1f 1bbe 5732 2c3c 13dc 30bd
000002b0: a1ec 9f3d 52ff 4ebd bd46 1dbc f87a 0cbe
000002c0: 1f1d 5d3d 04b4 16be 5b30 253d 5448 433c
000002d0: 8ec8 993d f0c7 b73d 05e8 5dbc a1c8 00be
000002e0: aaf1 a13d 0e46 c2bd 89ae 06be 2643 083d
000002f0: d494 adbd 1cf3 7e3d 7506 833d 3496 86bd
00000300: eaf9 52be 91db 70be da31 80be b1df a2be
00000310: 727e 83be 7723 d4bd 34d2 22be e651 47be
00000320: c299 99be a958 2abe 16e3 70be 33e5 93be
00000330: 0e04 39be 0cd1 98be 7a09 6abe 507b 8cbe
00000340: fbe1 a1be d85a 15be 4a45 58be e7fd 1cbe
00000350: 3790 89be 1e74 66be 5ee7 9fbe ce64 26be
00000360: 69c9 84be 651a 3abe 2d55 c8bd 8c03 abbe
00000370: 6842 92be 7185 2cbe b18d 84be f27a 93be
00000380: 17d5 a2be 91f7 aabd f2db 18be 8d11 66be
00000390: 9046 44be fd0c 11be f2f1 f2bd cc7c 98be
000003a0: f4e4 89be 7d16 93be 1890 98be ef5d 15be
000003b0: 1c7e a8be 54fe 00be 2b3c ffbd ad45 abbe
000003c0: 711e c5bd 81b3 ecbd 454b a7be 99da 83be
000003d0: 05d7 18be c014 82be e1c2 8abe 3ba3 84be
000003e0: ae14 f5bd 035a 99be 6e60 7ebe 84db 7ebe
000003f0: bb80 39be 965e 92be 8de7 95be 7bf3 82be
0.18149693 0.13357943 0.12398832 0.15943304 0.13943925 0.08201969 0.053742535 0.0709243
0.27965942 0.262523 0.20828258 0.20112488 0.262365 0.2662106 0.23308106 0.15899716
0.2094424 0.09845315 0.221596 0.260442 0.19522293 0.09828397 0.2011693 0.2709009
0.1439761 0.21266672 0.17462218 0.22402772 0.2091389 0.1812744 0.056637246 0.27038628
0.03706531 0.051935866 0.26805544 0.13040845 0.04624391 0.26028723 0.1274195 0.25556013
0.24526949 0.035990786 0.030673767 0.16036677 0.122157395 0.04142076 0.091484606 0.24904497
0.20728172 0.2023119 0.21500242 0.21769726 0.24081548 0.14799571 0.15946475 0.2856031
0.16285971 0.13809632 0.25147378 0.2298437 0.16789503 0.22848202 0.27746812 0.15440497
0.18365884 0.2835668 0.3731928 0.19460459 0.157769 0.22242463 0.29398763 0.16193375
0.17565332 0.27585918 0.3709797 0.33284914 0.35053656 0.32453915 0.31714845 0.38715807
0.21198134 0.25207135 0.28604063 0.28183615 0.2724159 0.22399992 0.3895144 0.3462295
0.14427571 0.27837843 0.14103916 0.37451503 0.3108182 0.33493575 0.40048856 0.37285075
0.31391883 0.21225193 0.2418403 0.33940282 0.35854918 0.23108707 0.38258195 0.35113695
0.3472002 0.23965581 0.2583303 0.190303 0.14378752 0.24889848 0.30057606 0.18021603
0.2796447 0.14325933 0.14190714 0.3754548 0.16794284 0.26268435 0.23650582 0.3223278
0.26374927 0.20459537 0.18700454 0.15769361 0.22790076 0.3252633 0.24537523 0.16237457
0.0008279309 -0.15235505 -0.13808239 0.0450634 -0.14519837 -0.030853234 -0.11656781 0.060356926
-0.10970402 -0.1480554 0.06474963 -0.016001742 -0.12386535 0.036405746 -0.13318229 0.011813596
-0.07946865 0.0390608 0.054640777 -0.041920613 0.07568503 -0.005002741 -0.030490505 0.08290347
0.040787864 -0.08627799 0.025581188 -0.095420115 -0.016714504 -0.1262481 0.055515092 -0.14345185
-0.054625902 0.043446444 -0.07061532 0.09789053 0.011642076 -0.02782417 0.03607632 -0.112689
0.03292883 -0.15148589 0.010510049 -0.04317863 0.07808805 -0.05053646 -0.009599385 -0.13718784
0.05398285 -0.14717108 0.04032932 0.0119191 0.07508956 0.08973682 -0.013544087 -0.12576534
0.07907422 -0.09486018 -0.13152517 0.033267163 -0.08475652 0.062243566 0.06397716 -0.06571618
-0.20603147 -0.23521258 -0.25038034 -0.31811288 -0.25682408 -0.10358327 -0.15900499 -0.19464836
-0.3000012 -0.16635384 -0.23524126 -0.28885803 -0.18067953 -0.2984699 -0.22855178 -0.2743783
-0.31617722 -0.14585435 -0.21120182 -0.15331231 -0.2686784 -0.22505233 -0.31231207 -0.16249391
-0.25934914 -0.18174131 -0.09781871 -0.33401144 -0.2856629 -0.16847779 -0.25889352 -0.28804737
-0.318032 -0.08348001 -0.14927652 -0.22467633 -0.19167542 -0.14165111 -0.11862554 -0.29782712
-0.2693249 -0.28728095 -0.29797435 -0.14586614 -0.32908714 -0.12597018 -0.12462648 -0.33451596
-0.09624947 -0.11557675 -0.32674614 -0.25752714 -0.14925773 -0.25406456 -0.27101806 -0.25905785
-0.11966835 -0.29951486 -0.24841473 -0.24888426 -0.18115513 -0.28587788 -0.29278222 -0.25576386

patch_to_embedding.bias f4 [64]
00000000: e15f 34bc 423f 6a3e 3615 5b3d ad78 c2bc
00000010: c063 4b3d 5d5a 9dbd 66c9 913d 9a3c fa3d
00000020: 4285 8a3d 08ab 033e 94ff 82bd c636 80be
00000030: 1707 83ba 3d33 f33d 2f80 36be c2e9 083e
00000040: 4cc3 d1bd 7ff6 853d 7303 87bd ca59 68be
00000050: 3fea 273e 76ef 20be e2c2 8b3c 33da 583d
00000060: 91c2 68bd b725 1fbe d92d 61bd 4c52 9f3d
00000070: 4309 043b db24 d13d 1bc4 25be 8458 35be
00000080: 8656 0b3d d916 0abd 99aa 0bbe 8af8 8c3d
00000090: 8435 6dbc 54b7 acbd f59b b63c 7864 bcbd
000000a0: 2f61 f0bd ad12 5ebe 0ae5 dd3b da76 40be
000000b0: 629a 37be aff0 113e b66d ae3d 44ed 0b3e
000000c0: 25cc b73d 6f19 2ebe 46cd 083e ab3f 26bc
000000d0: 3ccb bc3d 2ead acbd 2cb5 35be 4535 883e
000000e0: 3247 ffbd 6210 4abd 57d6 a7bd 1054 543e
000000f0: f1ee 473d ca30 5f3e 3354 d8bd 7f54 7a3e
-0.011009187 0.22875693 0.053487025 -0.023739183 0.049655676 -0.07683251 0.07118492 0.1221859
0.06763698 0.12858212 -0.06396404 -0.2504179 -0.000999662 0.11875007 -0.17822336 0.13370422
-0.10242328 0.06541156 -0.06592455 -0.22690502 0.16397952 -0.15716347 0.0170607 0.052942466
-0.056826178 -0.15541731 -0.054975364 0.07779369 0.0020147122 0.10212108 -0.1618809 -0.17709547
0.034018062 -0.033713195 -0.13639297 0.068833426 -0.014478091 -0.084334046 0.022291163 -0.091988504
-0.11737286 -0.21686812 0.0067716883 -0.18795338 -0.17929986 0.1425197 0.085170195 0.13664728
0.08974484 -0.1700189 0.13359556 -0.010147016 0.092184514 -0.08431469 -0.17744893 0.2660314
-0.12464751 -0.04933203 -0.08195179 0.20735192 0.048811857 0.21795955 -0.10562935 0.24446295

transformer.layers.0.0.fn.norm.weight f4 [64]
00000000: b490 3d3f 172d 4d3f 2719 e83e 0190 553f
00000010: da62 5b3e 59e4 7d3e 64df 213f c94c 033f
00000020: 3cfa 1a3f 355e f63e 1af2 1b3f 5e52 563f
00000030: f0ec 543d 8e7a 313f 242d 133f 1fdf 0b3f
00000040: 84fd 103f 2efa fa3e 859c dd3e 6da6 6a3f
00000050: 01c2 133f 2fbe 423f 1cb9 123f 6864 fd3e
00000060: a366 663e 642c 393f c4ea 373f 1301 373f
00000070: 7877 1c3f 609c fc3e 840e 143f fb65 223f
00000080: f824 323f 2eb3 273f 3529 3b3f 892c 553f
00000090: c1cc 263f 67cb e53e 8016 393f 1921 b93e
000000a0: e92f e93e ac13 f83e 2dca 093f f1ef 8a3e
000000b0: 9db4 9d3e bd4b 373f af3d a63e 3f5c 753f
000000c0: 3ed0 b63e 998b 173f 14eb 073f ec58 323f
000000d0: a932 343f 15e5 443f e079 4a3f 74ae 3c3f
000000e0: 8c16 1d3f 8653 9d3d f386 213f 716c b33e
000000f0: 7e88 0c3f 9075 2f3f 8c13 0d3f 5554 f83e
0.74048924 0.80146927 0.4533169 0.8342286 0.21424428 0.24794139 0.6323149 0.5128904
0.6053808 0.4811875 0.6091629 0.8371943 0.051983774 0.6932763 0.57490754 0.5463733
0.56636834 0.49018997 0.43283477 0.91660196 0.577179 0.7607145 0.57313704 0.49490666
0.2250009 0.7233336 0.718426 0.71486014 0.61119795 0.49338055 0.5783465 0.6343686
0.6958766 0.6550778 0.7310975 0.8327108 0.6515618 0.44881746 0.7229996 0.36158064
0.45544365 0.48452508 0.5382412 0.27136186 0.3080186 0.7159994 0.32468936 0.9584388
0.3570575 0.59197384 0.53093076 0.69666934 0.703898 0.7691205 0.79092216 0.73703694
0.6136253 0.076819465 0.6309654 0.35043672 0.5489577 0.6853876 0.5510795 0.4850184

transformer.layers.0.0.fn.norm.bias f4 [64]
00000000: f533 793d 1bb0 543d 727f 5f3c 5f98 cbbd
00000010: fa2a 67bd b1dc 893e 6dd9 ae3d 3cc5 b13d
00000020: 69b6 33bc f10c 41bc c208 01be f0ad 9fbd
00000030: a2f8 383c 18c8 793d a5d8 babd 25bd 1e3d
00000040: 75d7 00be aec5 473d c9f9 95bd 3fe9 eabd
00000050: e093 173d 49ab 86bd 4f77 97bd b9b1 fa3a
00000060: a17b 7cbd 902a 8ebd ff32 683d d519 833d
00000070: b98b fb3d 2558 00be ff4a fa3d 4a7a 733b
00000080: 9cf2 2e3e 9948 aebc 6bf1 f3bc a170 003e
00000090: 897c a6bd a51b 8ebd 1eda 1a3e 8dc6 f63d
000000a0: d39a adbd 14b6 223e 6c0f 963d 12ec 66bd
000000b0: fa9b f9bd b222 bdbb e567 42be a760 813d
000000c0: 6ab6 de3d f53f bdbd 3b5b 1b3e 7fa2 3cbd
000000d0: 7cf6 ac3d 96ff d2bd 50c4 41bc 31d1 ad3e
000000e0: 28cb bebd a569 143e 64a0 543e 2d8c 1fbc
000000f0: b148 e7bd 19e5 41bc c0f0 fabd 3052 183d
0.060840566 0.05192576 0.013641225 -0.09941172 -0.05643747 0.26926187 0.085375644 0.086801976
-0.010968783 -0.011782871 -0.12600997 -0.07796848 0.011289747 0.06098184 -0.09123353 0.0387546
-0.1258219 0.048772506 -0.07323033 -0.114702694 0.03700626 -0.06575639 -0.07395803 0.0019126452
-0.06164134 -0.06941712 0.05668926 0.064014114 0.12282509 -0.12533624 0.122213356 0.0037151747
0.17084736 -0.021274852 -0.029778203 0.12542965 -0.08129222 -0.069388665 0.15122268 0.12049589
-0.08476796 0.1588977 0.0732716 -0.056377478 -0.12187953 -0.0057719583 -0.18984945 0.06317263
0.108746365 -0.092407145 0.1517152 -0.046053406 0.08445451 -0.103026554 -0.01182659 0.33948663
-0.09316093 0.14493425 0.20764309 -0.00973801 -0.11293162 -0.011834406 -0.12252951 0.037187755

transformer.layers.0.0.fn.fn.to_qkv.weight f4 [192, 64]
00000000: 7862 593e f6ed 203e 0691 c83d 74b5 94bd
00000010: 1feb 2a3c d558 843c 8309 323d 316c 95bd
00000020: 93a4 15be 73dc df3d e114 33be 558b 35bd
00000030: 3a47 60bd bc8b e53c 90b4 5cbd 4246 4abc
00000040: 939a cf3d ddba 09bd 2107 3cbe 83a4 bdbd
00000050: 5a87 cbbc 7aed 12bd fd84 73be bd3d b13d
00000060: b6f5 e63d a246 a7bb d6df 24be 6ce8 073d
00000070: 8735 013e 6d6a e93c 23f6 c4bd 7dd4 db3d
00000080: 7782 253e f7ed eebd 4a44 abbc 2fc2 7c3b
00000090: 3dff a03d b6b2 793d a582 32bd 57e4 dabd
000000a0: 19fc 9bbd 9c67 78bc 226f 633c 606e 86bd
000000b0: b94d dbbd af73 ecbb c358 c23d 52dc 09bc
000000c0: f126 393e 633a 3abe f839 bbbd e12e e53c
000000d0: 8c87 24be e95c 00bc 9434 d63d a815 b2bd
000000e0: ddfa 1ebd c3cc 37bd 5445 c6bd 60d8 bb3d
000000f0: f9a6 41be 4376 88bc a6f6 39bd e868 c13d
00000100: b3fe d4bc 743b 8cbc ec49 4bbb b332 cf3d
00000110: e3cc 843d ccbb 92bd 7609 f1bd b707 c9bc
00000120: 234e c33d bf43 b2bd 12c9 bf3d 5d6a 1cbd
00000130: 9f37 d33d f386 c8bd 6570 ca3d 7bfc c0bd
00000140: 6d4c edbd 8e65 ff3d d59c 863d 8c81 a43d
00000150: 098a a2bc 9fa8 f7bd ceea 7b3d 94fe a33c
00000160: edb8 c23d 6f42 9fbd 294f 143e c745 d23d
00000170: 72e3 b4bd a3df 3bbd 6606 b73d 2dcd 0b3d
00000180: 6277 6ebe 0d6b b5bd a393 cdbd 80e9 c5bd
00000190: 9091 1e3d 8024 a6bd 45c7 113e e955 a8bd
000001a0: 10a7 c63d 06d7 ccbd 9d2b fd3d a509 803d
000001b0: f27d 063e 0f0e 2f3d 7a63 6ebc 2cee bb3d
000001c0: 6e79 7ebd 29af 26bd ab7b d73d 454b ffbd
000001d0: 5d93 3e3d a22e 04be d1ea 89bd 82eb 923d
000001e0: dc0f 5e3d bd11 093d 18a0 e63d 9725 09be
000001f0: 6926 043e 9d76 c73d 1223 953c 1a63 2e3d
00000200: cc6e 653d 7247 0bbe 96fe 313d a7ce e63d
00000210: cccf 03bd 63b3 1ebb 044c f53c 75f2 893b
00000220: 5e17 2fbc d414 b3ba 41d9 5a3e 31c9 b13d
00000230: 81d7 bfbd 9edc f7bb a210 243e 8eff 163d
00000240: b82b b5bd 9594 9bbd 5dd9 023e 0bd0 1c3e
00000250: a742 43bd 922a f1bd 1196 d33c 602b 42bd
00000260: a1d9 163c 266d 4c3d 8d98 33bc 9aa5 5a3d
00000270: bb31 f9bd 98c6 643d 6e7c f5ba b64a acbd
00000280: 5bb3 92bc afa4 853d 7aa9 c33d 892f aabd
00000290: 2ecd 1bbc daf2 c6bd 41dd 24bd f304 0bbe
000002a0: 1b20 963d ce5a 4abd e10a 4f3d 855b f7bc
000002b0: 3912 b33d d058 0ebe d574 e73d 56fa 8ebd
000002c0: dc9e 24be 4721 6abd d462 153e d5ce 943d
000002d0: 00b7 aa3d eac5 4d3b cb87 2a3e 2492 61bd
000002e0: 2272 fb3d 882b 79bc 888c f03d 8e1b 9f3c
000002f0: da7c ab3c d949 04be a4ee ccbc ffaf 0dbd
00000300: 5ade 033d 8509 9dbd a4b2 903d feda 1a3d
00000310: a343 b5bc a234 fabd ed68 18bd bfed 2c3d
00000320: 3e30 443b d1f0 8d3d 1270 583e 612b 1e3e
00000330: 12b6 433d a8ee 263d c86b 53bc 882d edbd
00000340: a8d3 06be 0aec 61bd 2a34 e03d 4450 8d3d
00000350: 1696 7fbd 2dde 0b3c 8ca3 213e 47a7 00be
00000360: f0c8 533d 2285 4abd ac43 7fbd 0eee a73a
00000370: 8f5e 5bbc baa7 dfbd 254e a93d e0ee f0bd
00000380: aea7 ccbd 299a 1c3c 5dff 26bd 7507 76bc
00000390: 5ece c13c c0af e1bd 1265 35ba 895d 213d
000003a0: 3be4 81bd 05bb 103c 639a bf3d 7810 54bd
000003b0: 019a babc 65cc 5f3d e38e 853d a30b da3d
000003c0: bd26 ea3b 19fa 463d cb87 e13c 5c72 febd
000003d0: 144e 373c 5d4f dbbd 89ef 99bd 2e1e 8dbd
000003e0: d88f ec3c 2cf4 d0bd 9e66 0ebd 60ae afbd
000003f0: 2b13 d23b 396c dabd f27b 22bc b790 fabc
0.21228969 0.15715775 0.09793286 -0.07261172 0.010432034 0.01615564 0.043466102 -0.072960265
-0.14613561 0.10930719 -0.17488433 -0.04432233 -0.054755427 0.028020732 -0.053883135 -0.012345852
0.101369046 -0.033625472 -0.18362094 -0.09259894 -0.024844814 -0.035871007 -0.237812 0.08654354
0.112773344 -0.0051048556 -0.16101012 0.03318064 0.12618075 0.02849313 -0.09617259 0.10733888
0.1616305 -0.11666482 -0.020906586 0.003856789 0.07861183 0.060961448 -0.043581624 -0.106880836
-0.07616443 -0.015161421 0.013881477 -0.06564021 -0.10708184 -0.007215939 0.09489586 -0.008414345
0.18081261 -0.18186335 -0.09141916 0.027976455 -0.16067332 -0.0078346515 0.10459247 -0.08695537
-0.03881346 -0.04487301 -0.09681192 0.0917213 -0.18911351 -0.016657954 -0.045401238 0.094438374
-0.026000356 -0.017118193 -0.0031019403 0.10117092 0.064843915 -0.07164726 -0.11769383 -0.024539812
0.09536388 -0.08704328 0.09364523 -0.038187373 0.10313343 -0.097913645 0.09884719 -0.09423157
-0.11586843 0.12470542 0.06572882 0.080325216 -0.01984121 -0.12092709 0.061503224 0.020018853
0.09507928 -0.07776343 0.14483322 0.10267215 -0.08832444 -0.045867573 0.08936767 0.034131218
-0.23287728 -0.08858309 -0.10037925 -0.09663677 0.038713038 -0.081124306 0.14236172 -0.08219511
0.096998334 -0.1000195 0.12361834 0.062518395 0.13133982 0.042738017 -0.014550084 0.09176287
-0.062127523 -0.04069439 0.10521635 -0.124655284 0.046527255 -0.12908414 -0.06734241 0.07173826
0.054214343 0.033464182 0.11261004 -0.13393246 0.12905277 0.097394206 0.0182052 0.04257498
0.056013867 -0.13601473 0.043455683 0.112698846 -0.032180592 -0.002421581 0.029943474 0.0042098113
-0.0106867235 -0.0013662823 0.21371938 0.08680952 -0.09367276 -0.0075641414 0.1602197 0.03686481
-0.08846229 -0.07596699 0.1277823 0.15313737 -0.047670987 -0.11775698 0.025828393 -0.047404647
0.00920716 0.04990878 -0.010961664 0.053380586 -0.121676885 0.055853456 -0.00187291 -0.084126875
-0.017907789 0.065255515 0.095538095 -0.08309848 -0.009509368 -0.09714289 -0.040250067 -0.13576107
0.073303424 -0.049403004 0.050547484 -0.030195007 0.0874371 -0.13901067 0.11301581 -0.069813415
-0.16076225 -0.057160642 0.14588481 0.072660126 0.08335686 0.0031398484 0.16653363 -0.05507101
0.122776285 -0.015208133 0.11745554 0.019422319 0.020933557 -0.12918796 -0.025016136 -0.03459167
0.032194473 -0.07667831 0.07065323 0.037806503 -0.022126978 -0.1221707 -0.03720944 0.04221892
0.002993598 0.06930698 0.21136501 0.15446235 0.047781058 0.040754944 -0.012904115 -0.1158095
-0.13166678 -0.055156745 0.109474495 0.06900075 -0.062398992 0.008536858 0.15785044 -0.12563811
0.0517053 -0.04944337 -0.062320396 0.0012812035 -0.013389244 -0.10920663 0.08266858 -0.11764312
-0.0999292 0.009558239 -0.040770877 -0.015016426 0.023657974 -0.1101985 -0.00069196627 0.039395843
-0.0634236 0.008833651 0.09355619 -0.05177352 -0.022778513 0.054638285 0.06521394 0.10646751
0.0071457312 0.048578355 0.027530571 -0.12424156 0.011188049 -0.10708497 -0.07516391 -0.06890522
0.028877184 -0.10202822 -0.034765832 -0.08578181 0.0064109764 -0.10665173 -0.009917246 -0.030586584

transformer.layers.0.0.fn.fn.to_out.weight f4 [64, 64]
00000000: 3b5a 1e3e 68c3 92bd 316b 193e 1f93 b7bd
00000010: 84d2 a0bd 3495 4c3e f3a9 d1bd 6e2e eebb
00000020: 9c90 0cbe 26fb 8fbc cda1 e73c 0f1a b6bb
00000030: d7a2 e5bd 2f5a 7a3d d379 0b3e df23 c93d
00000040: 699f 5fbd 9d5a 81bc 719f 4d3c 60c9 983d
00000050: 7792 b8bd dc31 f9bc 4f64 1c3c a8a4 01bd
00000060: 3fe4 28bd 1723 8ebc b6cd 5f3d da30 153c
00000070: 028b 4a3d d118 abbd f301 1dbe 251a 85bd
00000080: 981e 04bd 0c1e 023e dcda 1bbd 4390 45be
00000090: c422 9fbd 2be8 b3bd 375b 0cbc a546 513d
000000a0: 916f f13c 7071 16be af19 863d 1aae 81bd
000000b0: ed18 abbd 8773 be3c 1b84 3d3c 9767 a6bd
000000c0: 2c17 4b3c 90f5 5b3d 11ff e3bc 9c90 273d
000000d0: 5e81 c03d 4e38 bcbb 567f 0ebe 6dbe 8fbd
000000e0: f284 543c 0263 a83d 3370 95bd d70a 0abd
000000f0: 1225 633d df61 cd3d 2dfc ff3b 2bb7 8b3d
00000100: 4cf5 90bc 1279 6d3c 2e01 62bd 080c 083e
00000110: cdf8 d33b ed73 c63d 4013 a6bd 57d2 cb3d
00000120: 3acc 0fbe 12b4 103e c090 143e 76a1 f43d
00000130: 02cd 36bc fbad cebd c90f 77bd a69a 993d
00000140: 03d3 08bd dd63 423d 9c66 38bd 1a01 19bd
00000150: 23a4 19be fcdd 783c 2a20 a63c dc5f 09bd
00000160: 6e99 e1bc 43cf 553d 08e2 92bc c974 5d3d
00000170: e0e3 203e f577 ef3c 38e4 a9bd d17f f7bc
00000180: b82b 37be 7301 c8bc 8aa5 4f3d 8a73 bbbd
00000190: ea6b a43b 6876 a63d 1bda adbd 73a2 72b9
000001a0: 5eb2 443d ec34 a6bd 5aeb e0bd 02af 0cbe
000001b0: a990 2abe d8a1 c5bd 2216 5fbd e6cb 69bd
000001c0: db19 9ebc 4c0b 9abc 5c4a dabd 091f 7dbd
000001d0: 5645 943d cc8b 7e3d b3d1 12be f614 9fbb
000001e0: 15fe 5f3d 8487 413d d9c8 d7bd 8153 3b3d
000001f0: 8348 4f3d 829c a9bd 14c5 9fbd 68ae 1ebd
00000200: 85ff 0c3d efa8 f03d 7c05 073c a50f fabd
00000210: cab8 a8bd 54a3 c23d 704f e3bc a87d d83c
00000220: 46a8 22be 5cb7 c13d e114 42bd 2585 4a3d
00000230: d575 e73d f620 f7b9 746f 773c 232d 093d
00000240: 7088 a53a 5658 c6bd 2c11 ecbc 6d33 30bd
00000250: de5f e93d 50bf dfbc 0a76 52bc 8c14 4b3d
00000260: 435b babd a759 513d 0f07 84bd aaaf c33c
00000270: b5ea 0b3e 309e c8bd 0436 98bb 2481 05be
00000280: 1434 873d df70 01bb 5aef 4ebd ad83 e6bd
00000290: 6a44 98ba 455b 933d 52e3 d3bd 80ef d63d
000002a0: ea7c e1bd 1a06 3abc d900 17bd c889 c23c
000002b0: 2252 0c3d 82cf 483c 3e43 83bd c337 253d
000002c0: f534 03be 5051 7cbd a735 8f3d 6aed 8b3c
000002d0: 3a4d 783c b1d6 3d3d 53b4 a53d e2e1 823c
000002e0: b15b 48bd 789f d1bd 3cf7 b93c 94c9 b2bd
000002f0: 48d6 203d 7379 2e3d be5e b5bd 947c d73d
00000300: 8fe3 2d3e 4a38 023c d1c0 e6bc 9a9a 8a3d
00000310: 1ee3 9fbd 2d31 503e 475a edbd 5d96 323e
00000320: c12d 033d 3eb1 8a3d 92db a63d 93e6 2f3d
00000330: c41c c4bd d336 40bc 7786 ed3d 6b95 3dbe
00000340: 538c 68bc 6c8f fd3c 3c60 c4bd 22c3 253e
00000350: 5929 90bd d4f6 ddbd b9fd 29bc 64ea 333e
00000360: 9788 50be fa61 b33c a4f5 6a3e 46d5 89bd
00000370: f90b 223d 939d 8d3b 787b 30bd a227 5bbd
00000380: d82e 82bc 1fe4 a03d bc6b b63d 88e4 24be
00000390: 71f9 6bbd 1eb1 72bd 4c25 2ebe 611d 72be
000003a0: 1284 cabd 441a 2e3d 6508 843e 5849 463c
000003b0: b8ce 9b3e ce01 013e c9b2 1e3e 29d7 99bd
000003c0: c488 263e c5f4 ee3c e69c cabc aa73 3abd
000003d0: e2e7 823e cd45 cc3a 3aa3 b0bd 14dc 81be
000003e0: a87c a4be 4ab3 303e c36b 25bc 0861 713d
000003f0: 1b8d cfbd 845f 32bd 84ba 243c d238 e33b
0.15464108 -0.07166177 0.14982297 -0.08963608 -0.07852653 0.19978791 -0.10237493 -0.0072687184
-0.13727039 -0.017575812 0.028275395 -0.0055573056 -0.112127 0.061121162 0.13620691 0.09821295
-0.054595385 -0.015790278 0.012550221 0.07460284 -0.09012311 -0.030419283 0.0095454 -0.03165117
-0.041233297 -0.017350717 0.05463954 0.009105885 0.049448974 -0.08354343 -0.15332775 -0.06499127
-0.03225574 0.12706774 -0.038050517 -0.19293313 -0.07770303 -0.08784517 -0.008566669 0.051092763
0.029472144 -0.1469171 0.065478675 -0.06332035 -0.083543636 0.023248447 0.011567141 -0.08125227
0.012395661 0.053700984 -0.027831586 0.040909395 0.09399675 -0.0057440167 -0.13915762 -0.07018743
0.01297115 0.08222009 -0.07296791 -0.033701744 0.055455275 0.10028433 0.007812044 0.06822046
-0.017695092 0.014494197 -0.055176906 0.1328584 0.0064688683 0.0969008 -0.081091404 0.099522285
-0.1404275 0.14131191 0.14508343 0.11944859 -0.011157276 -0.10091778 -0.06031779 0.075002
-0.03340436 0.04745852 -0.04501973 -0.037354566 -0.1500402 0.015189644 0.020279009 -0.033538684
-0.027538981 0.052199613 -0.017930046 0.054066453 0.15711927 0.029232005 -0.082954824 -0.030212315
-0.17887771 -0.024414754 0.05069498 -0.09152897 0.005017747 0.08128053 -0.08488866 -0.00023139436
0.048021667 -0.08115563 -0.1098239 -0.13738635 -0.16656746 -0.0965001 -0.054464467 -0.05707922
-0.019299438 -0.018804215 -0.10658714 -0.061797176 0.07239787 0.06214504 -0.14337806 -0.0048547937
0.05468567 0.04724838 -0.105363555 0.045733932 0.050606262 -0.082818046 -0.078012615 -0.038740546
0.03442337 0.117509715 0.008241054 -0.12210015 -0.08238371 0.095038086 -0.02774784 0.026427105
-0.15884504 0.09458801 -0.047383193 0.049443383 0.113017716 -0.0004713607 0.015102256 0.03349031
0.0012629163 -0.096848175 -0.028816782 -0.043017793 0.11395238 -0.027312905 -0.0128455255 0.049580142
-0.09099438 0.05111089 -0.06446659 0.023887474 0.13663752 -0.09795797 -0.004645111 -0.13037544
0.0660173 -0.0019751114 -0.050521232 -0.11255584 -0.0011617069 0.07195143 -0.10346092 0.104949
-0.110101536 -0.011353994 -0.036866043 0.02374734 0.034258015 0.012256505 -0.0640931 0.04033638
-0.1281317 -0.061600983 0.06992655 0.017080981 0.015155131 0.046347324 0.08091035 0.01597685
-0.04891557 -0.102354944 0.022700898 -0.08729854 0.039266855 0.04259629 -0.08855961 0.10521808
0.16981338 0.007947991 -0.028168114 0.06767769 -0.07806991 0.20331259 -0.11589485 0.17440172
0.032026056 0.067720875 0.081473485 0.042944502 -0.09575799 -0.011731821 0.11597913 -0.1851403
-0.014193612 0.030952178 -0.09588668 0.16187719 -0.070391364 -0.10838094 -0.010375434 0.17569882
-0.20364605 0.021897305 0.22945267 -0.06730132 0.0395622 0.004321763 -0.0430865 -0.053504594
-0.015891477 0.07856011 0.089072675 -0.16102803 -0.057610933 -0.059250943 -0.17006415 -0.2364402
-0.09888472 0.042505518 0.25787655 0.012102447 0.3043115 0.12598345 0.15497889 -0.07511742
0.1626311 0.02916945 -0.024733018 -0.045520462 0.25567538 0.0015584767 -0.08624883 -0.2536322
-0.32126355 0.17255893 -0.010096493 0.058930427 -0.101343356 -0.043548122 0.010054234 0.0069342637

transformer.layers.0.0.fn.fn.to_out.bias f4 [64]
00000000: 0b20 803d af36 fb3b abcb 15be b591 22be
00000010: a6d4 133d bd6a dabd 4213 98bc b419 8ebd
00000020: 791c 84bd fb69 2abe 9a40 a83d 9430 543d
00000030: d071 3f3e 808f 8ebd a748 a93d 410b 263d
00000040: 01c9 163e d3f3 eb3d a56b 9d3e bca9 333d
00000050: d9fe ee3d 0ec9 2dbe d290 56bd e120 083e
00000060: e513 bebd 8cf0 b4bd 1b0c e33d 724e 3dbc
00000070: 89d3 1a3d 64dd 42bd a79c c63d fc57 00be
00000080: b1d4 683d 35d2 1dbe f1bb b4bb 0d99 533c
00000090: 9e96 fabd 756b 0ebd 58dd 413d 0212 7a3d
000000a0: 3604 963c 225a b73d 80ec 1dbc 426f ba3c
000000b0: b8ee 073e 6b79 18be 33f9 00bd 0581 29bd
000000c0: ca2e 123e a141 f0bd c2d3 883d ad4f 823d
000000d0: aadf 093e 8735 a8bd 4778 053d 5137 bbbd
000000e0: e8de 353a 8897 c2bd fd13 c03d 0d94 993c
000000f0: ca7c 663e 878b fcbc ad49 58bc 67fc c3bc
0.06256112 0.007666431 -0.14628474 -0.15875895 0.03609147 -0.1066489 -0.01856387 -0.06938496
-0.06450743 -0.16641991 0.08215447 0.05180414 0.1869576 -0.06960964 0.082658105 0.040538076
0.14725114 0.11521115 0.3074619 0.043863043 0.11669702 -0.16971228 -0.052384205 0.13293792
-0.09281138 -0.08834943 0.11086293 -0.011554347 0.037799392 -0.047574416 0.09697848 -0.12533563
0.056843463 -0.15412219 -0.0055155684 0.012914908 -0.12235759 -0.034770448 0.04733023 0.06105233
0.018312555 0.08952738 -0.0096389055 0.02275813 0.13274658 -0.14890067 -0.031487655 -0.04138281
0.14275661 -0.11731268 0.066810146 0.06362853 0.13464227 -0.082133345 0.03258541 -0.0914141
0.00069378177 -0.095015585 0.093788125 0.018747354 0.22508541 -0.03082825 -0.013201159 -0.023924066

transformer.layers.0.1.fn.norm.weight f4 [64]
00000000: 8974 773f bda4 583f f2f5 633f 12ae 6c3f
00000010: b61c 283f 4c27 463f c05b 603f 63d3 663f
00000020: 385d 743f b27f 7e3f f6d5 553f d7a1 813f
00000030: 0207 5b3f 7ec2 6b3f 62cf 523f c2b5 703f
00000040: c6d9 593f 303d 6f3f 8418 803f 3f7a 673f
00000050: 2705 703f 938a 6d3f c2b7 823f 330d 513f
00000060: 801d 793f a9c2 773f d053 583f 98cc 5f3f
00000070: aeea 753f 6552 763f 1e42 5b3f a202 653f
00000080: d924 3a3f 1333 663f 09fa 6a3f 0bed 753f
00000090: 273a 763f ebf2 683f dce7 7c3f 91a9 763f
000000a0: 9841 5d3f 3ff2 703f b46b 653f e13c 6f3f
000000b0: 2190 563f fbd7 6f3f 32a4 713f cad8 733f
000000c0: 814c 5e3f f4ff 763f 631c 573f 57bb 643f
000000d0: 7728 583f ae03 513f 8cec 383f f08c 5c3f
000000e0: 3545 4c3f 5609 5b3f 8172 5c3f 4b21 663f
000000f0: f440 633f bac8 6b3f 725c 503f f76b 603f
0.96662194 0.8462637 0.8904716 0.9245311 0.6566881 0.7740371 0.8764 0.901663
0.9545474 0.994136 0.83529603 1.0127515 0.8555757 0.92093647 0.8234769 0.9402734
0.8509792 0.9345274 1.0007482 0.9042091 0.9375786 0.9278957 1.0212328 0.81660765
0.9731064 0.967814 0.8450289 0.8742156 0.9606122 0.96219474 0.8564776 0.8945714
0.72712475 0.89921683 0.91787773 0.96064824 0.96182483 0.90995663 0.9879129 0.9635249
0.86428213 0.9411964 0.89617467 0.9345227 0.83813673 0.93688935 0.9439117 0.9525267
0.86835486 0.96484303 0.8402769 0.8934836 0.84436744 0.8164624 0.7223594 0.86152554
0.797931 0.8556112 0.8611222 0.8989455 0.88770986 0.9210316 0.8139106 0.8766474

transformer.layers.0.1.fn.norm.bias f4 [64]
00000000: b688 3ebd 43cd 11be f532 d8bd db48 743d
00000010: fb75 cebd 7b34 2b3e 3448 a6bd ad91 973d
00000020: 8bfb 333d 17de 29bd d3bd 62bd c1f5 183d
00000030: 2525 653d 09e3 d93d 4fd1 053e 6b41 e3bd
00000040: a59d 01be 4a0d 133d e44a a53c c2ab 723d
00000050: ed25 133d 91da a1bd c9f3 633d 2222 11be
00000060: de6d e1bc 4616 21bb 0116 373e b0b8 d6bd
00000070: 3d50 89bd 7e39 09bd 9c13 033d 2bc8 dbbd
00000080: 5d2c 2cbd dc19 d03d ce88 063e fb4a 4abd
00000090: 6e50 fabd e9f5 7fbd ae0d 183d 00b1 3b3d
000000a0: 2482 d73d 41a0 7bbd 29ce 153e c8f5 4a3d
000000b0: 82fa 133e 46bd adbd c714 49bd 365a 2e3d
000000c0: e8e1 cdbd 0e03 8f3d f519 283e 69c0 72bd
000000d0: d01b 1a3e 0c0a bdbd 8956 43bd f8ff 0b3e
000000e0: 7938 fa3d 99f0 053e 688f ec3d 12ca f7bd
000000f0: 9cb5 da3d f3cf 9ebd 4543 2c3e 4a4c 00be
-0.046517096 -0.14238457 -0.10556594 0.059639793 -0.10081097 0.16719238 -0.081192404 0.07400832
0.043941062 -0.041471567 -0.05535681 0.037343744 0.055943627 0.10639007 0.13068126 -0.11096462
-0.12657793 0.035901345 0.020177312 0.059245832 0.03592484 -0.07903016 0.055652414 -0.14173177
-0.02751821 -0.0024579926 0.17879488 -0.10484445 -0.06704757 -0.033502094 0.032001123 -0.107315384
-0.042034496 0.10161182 0.13138124 -0.049387913 -0.12222372 -0.062490378 0.03712242 0.045823097
0.10522869 -0.061432127 0.14629425 0.0495508 0.1445103 -0.08483367 -0.04909208 0.0425665
-0.10052854 0.069830045 0.16416152 -0.059265528 0.15049672 -0.09230432 -0.04768995 0.13671863
0.122178026 0.13080062 0.1155079 -0.12099089 0.106791705 -0.07754507 0.16822536 -0.12529102

transformer.layers.0.1.fn.fn.net.0.weight f4 [128, 64]
00000000: 560a d23d f7e9 e9bd 6de2 3abe 3d77 883d
00000010: 54ac 253e ea4d 983d 97a8 adbd f009 ec3b
00000020: 2cf0 0e3e 4454 3bbe c19f 033e a29c cc3d
00000030: fb17 57bd 55da 90bd 057a dd3d 57f0 82be
00000040: e768 29be df7e 063e 67d1 b53d 0570 423c
00000050: 6fc5 b53e 0cf3 00be 30c6 f23a 1430 03be
00000060: cacf c4bc 0b59 17bd e42c 063e 65ad 07be
00000070: 573c 3cbd 6eb0 b73d e51e 143e a804 c5bc
00000080: 8bea 66bd 1cf9 b73d d474 9b3d 8621 55be
00000090: 7bd1 04bc db2a 11be 1696 0b3d fbe0 6a3e
000000a0: 1cda 853d abf2 dfbb 1ba5 5b3d 204d bcbd
000000b0: 051e 8e3d 5394 e0bc 6c05 08bd b9ef 293e
000000c0: a610 23bd fa39 08bd db44 853d c83c 5e3b
000000d0: 933e 593c ac2b b2bd 36d9 a43d 704e af3c
000000e0: d6ca 24bc 3f9c 373e e5b8 65bd 5166 14bd
000000f0: ecdd 5d3e cfbe 17be 0bcc 983c c6f0 2bbe
00000100: 5c03 d7bd b1ec febd 1d2c b73d 3db9 84bc
00000110: 4beb a8bd ccbe 46bd 8d20 8f3d effc fabc
00000120: 8160 51bd e849 973c d7a1 fdbd 88ae 583b
00000130: e019 8e3d 0b38 97bd f704 bbbc 8bd7 5d3d
00000140: 9524 b2bd 6e48 c63c c4a8 a83d c32c 87bd
00000150: 05c6 b93c 13a8 dcbc 8489 d43d caed b63c
00000160: ffc7 983d 60cb 783d 1be8 b73c 75b6 d8bc
00000170: ee0b b5b9 8ec6 c9bc aaa0 693d de84 df3d
00000180: d193 89bd ff82 cc3d 80f2 05be f829 12be
00000190: 4b01 d03d 3aab c3bc c86e 213d b6b9 603d
000001a0: 3bf3 293d ff8a a0bd 5a1b c4bd 8c14 593d
000001b0: 09bc 1f3b 620c 80bd 494f 9a3d 4150 873d
000001c0: 8d1f 7c3d 4f7b c93c 1f53 213e 0525 b1bc
000001d0: 65c8 393d e359 20bb 6701 003c 1c3f aa3d
000001e0: 81b7 943d a2cb 34bd 3295 9a3d ab47 503d
000001f0: 6bc7 0d3e 9739 fbbd d567 043d 0116 97bd
00000200: c1c1 71bd 8455 6ebd fd05 1fbe be07 7f3d
00000210: e6fc 10be 7a0a 3b3d 3354 90bd 8fef 3b3c
00000220: f6fd 9abc 9c27 103d 901a 343e 0319 0dbd
00000230: ffbb 133e 183a de3c 78ea b43d 4793 1b3c
00000240: e0cf 37be 9815 66bd c6fe 6d3d dd5a 853d
00000250: b814 253e a5c2 30bd aee2 0d3e 4830 77bd
00000260: a030 b63d e10d dbbb a25c b33d f6b5 ccbc
00000270: 4a73 62bd 737f a2bc 6f3f 0d3c 5e58 9d3b
00000280: 6cec be3d 3838 f23d 7b33 ca3c 84cf b93d
00000290: 684b 11be 40d6 733d 795b 59bd 2f6c 253e
000002a0: 408e b13d 6a9f 1ebd ff14 283e cba5 aa3d
000002b0: 9bbe d83a 27e7 5c3d 3bce 8bbd 2601 ed3d
000002c0: 7738 4d3d e86c ca3c e809 ee3d 23b0 2cbe
000002d0: 8d1b c43d c386 1e3d 11c4 62be c8b1 d93c
000002e0: 9522 b83c b961 033e f061 343e a922 18be
000002f0: 9392 e73d 0ebb 1bbe 8860 e83d dbd3 a9bd
00000300: ea11 0f3e 8649 ba3d c7ad 28bd 3775 b6bd
00000310: d046 933c f4a0 b1bd c05b ce3d fda6 abbb
00000320: 75b6 6c3d 711a d93c f3f9 af3d 4384 a9bd
00000330: 6edd bf3a fc36 61bd da68 263d b28c 03bd
00000340: 462d b23d 9656 10be ba97 27be 5845 18bd
00000350: f6b8 f43d 71a6 9abb 832a 8bbd 7ca3 abbd
00000360: 3b94 293e 9703 943e fe2a 5b3d bea4 99bd
00000370: 4d2b 193e 9747 2a3c f41d 4ebb 58ac c93d
00000380: e089 253c e276 bbbc 9ade 0cbd b438 193b
00000390: 9444 a93d 91c1 af3c 6109 11be ca24 1e3e
000003a0: 91ed 993d 4fed 093e a0d6 5a3d 7f9d 92bd
000003b0: 846c 7d3d 2ae9 22bd def1 b03d c776 143d
000003c0: 7c52 5cbd 6671 383c 508a d73c eb97 7e3d
000003d0: af5b c2bc 6299 f83d 3e1c 3ebd 90cf 513c
000003e0: 9404 6cbd e31e 1a3d e580 813d 1f3b a93d
000003f0: 6f7d a13c e69c 2bbd ceed 4e3d 580f d8bd
0.10255878 -0.114215784 -0.18250437 0.06663368 0.16179019 0.07436736 -0.084794216 0.007203333
0.13958806 -0.18293864 0.1285391 0.09990813 -0.052513104 -0.070728935 0.10814289 -0.2557399
-0.16543923 0.13134335 0.08877831 0.011867528 0.35502192 -0.12592715 0.0018522199 -0.12811309
-0.024024863 -0.036950152 0.13103062 -0.13249739 -0.045955982 0.08969198 0.1446491 -0.024050072
-0.05637602 0.08983061 0.075906426 -0.2081357 -0.008106585 -0.14176504 0.03407868 0.22937386
0.06535742 -0.006834348 0.053624254 -0.09194398 0.069393195 -0.027414476 -0.033208296 0.16595353
-0.0398108 -0.033258416 0.06507274 0.003391074 0.013259548 -0.08699736 0.08049242 0.021399707
-0.0100581255 0.17930697 -0.056084532 -0.03623039 0.21666688 -0.14818881 0.018651983 -0.16791067
-0.104986876 -0.12447489 0.08943961 -0.01620161 -0.082480036 -0.0485218 0.069886304 -0.030638186
-0.051117424 0.018467858 -0.12384384 0.0033063013 0.06938529 -0.07383736 -0.022829516 0.054160636
-0.08698384 0.024204459 0.082353145 -0.066003345 0.02267743 -0.026935613 0.103777915 0.022330184
0.07460021 0.06074083 0.022449544 -0.02645419 -0.000345319 -0.024630811 0.057037987 0.10914014
-0.06717647 0.09985923 -0.13080788 -0.14273822 0.101564966 -0.023885358 0.03941229 0.054864608
0.04149173 -0.078390114 -0.095755294 0.05299811 0.0024373552 -0.06252362 0.07534654 0.06607104
0.061553527 0.024594931 0.15754364 -0.021624098 0.045357127 -0.002446764 0.007812834 0.083128184
0.07261563 -0.044139512 0.07547988 0.050849598 0.13845603 -0.12266844 0.032325584 -0.07377244
-0.05902267 -0.058187023 -0.15529628 0.062263243 -0.14158973 0.045664288 -0.0704731 0.011470689
-0.018919926 0.035194024 0.17588258 -0.03444768 0.14427184 0.02712731 0.08833784 0.009495563
-0.17950392 -0.056172937 0.0581043 0.065114714 0.16121185 -0.043154377 0.13856003 -0.06034878
0.08895993 -0.006685004 0.08757903 -0.02498911 -0.05528573 -0.019836163 0.008621081 0.004801794
0.09322438 0.11827129 0.02468275 0.090727836 -0.14188921 0.059530497 -0.05306575 0.1615455
0.0866971 -0.038726248 0.1641426 0.08332404 0.0016536297 0.05393138 -0.06826445 0.11572485
0.050102677 0.024710134 0.11622983 -0.16864066 0.095755674 0.038702738 -0.22145106 0.02657403
0.022477427 0.12830247 0.17615485 -0.14856972 0.11307254 -0.15208074 0.11346537 -0.08292361
0.13971677 0.09096055 -0.041181352 -0.08909076 0.017978102 -0.086732775 0.10076094 -0.0052384124
0.057791192 0.026501866 0.08592596 -0.0827718 0.0014638135 -0.054984078 0.040627338 -0.0321166
0.087000415 -0.1409553 -0.16366473 -0.037175506 0.11949341 -0.0047195484 -0.06795218 -0.083807915
0.16560452 0.2890899 0.053507797 -0.07502125 0.14957924 0.010393045 -0.003145096 0.09847325
0.010103673 -0.022883836 -0.034391977 0.0023379745 0.08265033 0.021454604 -0.14163734 0.15443721
0.07516015 0.13469432 0.05342734 -0.07158946 0.061871067 -0.039773144 0.086398825 0.036246087
-0.0537896 0.011257505 0.02631107 0.0621566 -0.023725359 0.121386304 -0.046413653 0.012805834
-0.057621554 0.037627112 0.06323413 0.082632296 0.019713132 -0.041897677 0.050519757 -0.105498016

transformer.layers.0.1.fn.fn.net.0.bias f4 [128]
00000000: 935e 923d 6bd9 bb3c 8a63 38bd c89c a6bd
00000010: 1eeb febc eb2a f6bd 8a2e d9bd be6d 99ba
00000020: 1fed c4bd d987 ec3d 5f2a 40bd 914c 95bd
00000030: 20a9 1abc 36b7 adbc e49b 12be 0871 c6bd
00000040: b558 22be f1fd 02bd 8e56 1abe 49ad 793d
00000050: 8438 013d 0011 abbd b628 2fbe 4965 e8bc
00000060: e748 5bbc 76d8 0fbe 4fec 843d 148d 88bd
00000070: 5e78 9b3d 8a84 133d 9661 0dbe 7670 fc3b
00000080: f3b9 d0bd 08dc e53d efd1 a3bd 2de3 1ebd
00000090: f09e 5fbe e795 07be 45fc 19be 22ba 643d
000000a0: 23cc c13d cda6 d2bd f706 403d 39ef 8ebd
000000b0: ba64 10bd c07e 6ebd c94f a6bd 8305 3f3d
000000c0: 4c0b 7f3c fc3b 0fbe a16a e5bc f91f c6bd
000000d0: cf32 e03c b2cd 7dbd b9db d3bd 164b 68bc
000000e0: 8fa4 cfbd 846e 02be 2eba 3cbe 26be 793d
000000f0: 6698 ca3d f612 2bbe 1599 c639 f3d7 f3bd
00000100: db95 09be d57c c8bc 366d 65bc 9977 603b
00000110: b5ad d33d 7ae0 5bbc 41a6 d5bd 3623 c8bd
00000120: f3b4 1b3d d5a9 e4bc 884f f33b 2859 793c
00000130: f1fe 02be 7e5b e63d bfc9 523d 728c 39bd
00000140: d2ff 163d 5715 083c 0f44 283d daf3 093e
00000150: 267c 7bbd 7f91 023d 9191 2bbe 0a6e c13d
00000160: 5799 843d c005 dbbd 12ed 383d eea0 fdbd
00000170: d43c 0abe 617e 99bc 44d3 02bd c41a db3d
00000180: edc1 2e3d b177 dc3c dbb7 0f3d b9a0 afbd
00000190: aa8b 413b e7db ccbd 8efd 34be eabe 403d
000001a0: d009 86bd 0edc 18be 7199 95bd 3e40 363d
000001b0: c6cd 5fbc 4024 01be 0861 03be 6a6a d83b
000001c0: 3bbd 103d bf1b bc3b ca96 80bd 4b3c 923d
000001d0: bbcc 7a3d d803 023d 29a6 98bd 7eaa e4bd
000001e0: f129 893d bc83 09be 8234 0bbe 2af1 a73c
000001f0: 9c5f e1bd f532 13be 3cfe 003e d84a c7ba
0.07146945 0.022930821 -0.045016803 -0.081353724 -0.031117972 -0.12019905 -0.1060458 -0.0011705679
-0.0961554 0.115493484 -0.04691541 -0.072899945 -0.009439737 -0.021205526 -0.1431728 -0.09689528
-0.15854152 -0.03198046 -0.1507208 0.060956273 0.031548038 -0.08352852 -0.17105374 -0.028368609
-0.0133840805 -0.14047417 0.06490385 -0.066675335 0.075913176 0.03601507 -0.13806757 0.007703836
-0.10191717 0.11223608 -0.07999026 -0.03879087 -0.21837974 -0.13240777 -0.1503764 0.055841573
0.09462764 -0.10285721 0.046881642 -0.06979222 -0.03525231 -0.058226347 -0.081206866 0.046636116
0.015566658 -0.13987726 -0.028004946 -0.09674067 0.027367977 -0.061963744 -0.10344643 -0.014178058
-0.10138809 -0.12737471 -0.18430397 0.060972355 0.09892349 -0.16706452 0.00037879558 -0.119064234
-0.13436072 -0.024473587 -0.014003089 0.0034250973 0.10335866 -0.013420219 -0.10432101 -0.09772341
0.038014363 -0.027913013 0.0074252523 0.01521901 -0.12792565 0.112479195 0.05146193 -0.045299955
0.036865063 0.008305869 0.04108053 0.13471928 -0.061397694 0.031877037 -0.16754748 0.094448164
0.0647456 -0.10694456 0.045147963 -0.123842105 -0.13499767 -0.01873702 -0.03193976 0.106984645
0.04266541 0.026912542 0.035087448 -0.08575577 0.002953271 -0.100028805 -0.17674848 0.04705707
-0.0654484 -0.14927694 -0.07304657 0.04449486 -0.0136599 -0.12611485 -0.12829983 0.0066044824
0.035336714 0.0057406123 -0.06278761 0.07140406 0.061230402 0.031741947 -0.074535675 -0.11165331
0.06697453 -0.13429159 -0.13594249 0.020500738 -0.11004564 -0.14374907 0.12596983 -0.00152048
