model_training/trained_models/model_2_resnet.pth (torch, 223641 bytes, 17 tensors)

patch_to_embedding.weight f4 [64, 192]
0.0021106428 -0.0011596433 -0.0016749873 0.002211956 -0.0012275665 -0.0017792782 0.0020595677 -0.0011287844
-0.0014857041 0.002630897 -0.0011336535 -0.0017418072 0.002650481 -0.0011364967 -0.0017461597 0.002463136
-0.0011117504 -0.001779395 0.0025385655 -0.0009817523 -0.0018390645 0.0021249861 -0.0012423048 -0.0017780408
0.001624508 -0.0015066058 -0.0019427416 0.0017317216 -0.0015864723 -0.0020201046 0.0014990839 -0.0011549778
-0.0019863686 0.0016541524 -0.0011550362 -0.0019688907 0.0016296528 -0.0012415049 -0.0020166424 0.0020765825
-0.001187913 -0.0021595436 0.0018342675 -0.0012629721 -0.002063145 0.0016229263 -0.0016359042 -0.0019620724
0.0019194684 -0.0013363304 -0.0018082334 0.0017838646 -0.001282044 -0.0019387172 0.0017194628 -0.0010135127
-0.0017785762 0.0018969458 -0.0009729458 -0.0015145639 0.0020041585 -0.0010165175 -0.0015423561 0.0018985933
-0.0012832832 -0.0019124388 0.0023566417 -0.001325254 -0.0020134288 0.0019837108 -0.001121222 -0.0019777406
0.0015542437 -0.0011772796 -0.0014360123 0.0018719913 -0.0010133107 -0.001714262 0.001691256 -0.0007193624
-0.0016041711 0.0018923531 -0.0010989158 -0.0015659444 0.0020144258 -0.001150849 -0.0013835408 0.0024448438
-0.001147812 -0.001644621 0.0020545798 -0.0006039801 -0.0016982986 0.0023539667 -0.00055487914 -0.0015011352
0.0023144253 -0.0008766312 -0.0015502076 0.0022233778 -0.00069311826 -0.0016646995 0.002334278 -0.000665539
-0.0012459967 0.0020536091 -0.00088062463 -0.0016251385 0.0019163677 -0.0007856488 -0.0014784362 0.0019208213
-0.0008800667 -0.0018059599 0.001848321 -0.0005488944 -0.0018889611 0.0021710016 -0.0007351184 -0.0016694875
0.0028902933 -0.0006133433 -0.0012786576 0.0025887135 -0.00048072895 -0.00090921676 0.0029177724 -0.0005996746
-0.0008916909 0.0025074414 -0.0005305283 -0.0007284054 0.0026691891 -0.00019828431 -0.0011877136 0.0032154399
-0.00052057067 -0.0012999116 0.0033508143 -0.0002043916 -0.0014065492 0.0031194382 -0.00044055804 -0.0012929514
0.002889682 3.7885755e-05 -0.0009337063 0.0031238974 0.00021713717 -0.0009479046 0.003293906 0.0003059765
-0.00047697945 0.003474196 0.00015283185 -0.0008578349 0.0035735734 -0.00022945907 -0.00062440214 0.0028377245
-4.5813267e-05 -0.0007812381 0.0029454045 0.00032991217 -0.0010853382 0.0029280696 0.00028470546 -0.0013212397
0.0033701768 -0.00061201194 -0.0011142656 0.0031129557 0.00012297517 -0.0010583575 0.0033647695 -0.0004759216
-0.0006054227 0.003133795 0.00014129013 -0.0009774993 0.003797206 0.00043706593 -0.0010020027 0.0029440075
0.00037345002 -0.0010588297 0.0028484792 0.00013457474 -0.0011188829 0.0035680446 0.000494111 -0.0011973263
0.030049857 0.02962192 0.030353788 0.029832777 0.02908231 0.030262819 0.029449122 0.02882724
0.02980656 0.029329708 0.029105235 0.029880634 0.029406724 0.029509392 0.030042479 0.02934875
0.029363627 0.030006178 0.029994007 0.029605834 0.030456046 0.03011372 0.029619955 0.030382207
0.030482681 0.029788755 0.03042891 0.030283509 0.02956928 0.03026557 0.030298436 0.029422645
0.029853852 0.029984796 0.029369611 0.029875798 0.030170815 0.0297861 0.030298794 0.030286416
0.029837202 0.03026804 0.030558733 0.02983626 0.03053873 0.030895269 0.030189557 0.030549072
0.03028503 0.029876422 0.03036997 0.030355573 0.029990964 0.030302286 0.030359661 0.029824758
0.030008193 0.030357985 0.029729562 0.029918479 0.030426146 0.030044088 0.03027132 0.030679854
00000000: b652 0a3b 2cff 97ba 3f8b dbba 77f6 103b
00000010: 4ce6 a0ba ab36 e9ba d0f9 063b b8f3 93ba
00000020: f5bb c2ba 216b 2c3b 1997 94ba 5a4d e4ba
00000030: b1b3 2d3b 80f6 94ba 66df e4ba 916c 213b
00000040: 27b8 91ba 973a e9ba 105e 263b 24ae 80ba
00000050: c40c f1ba 5a43 0b3b d5d4 a2ba 260d e9ba
00000060: 71ed d43a 4d79 c5ba 97a3 feba effa e23a
00000070: 2df1 cfba bb63 04bb e97c c43a a062 97ba
00000080: bc2d 02bb 25d0 d83a 9564 97ba 8108 01bb
00000090: 139a d53a feb9 a2ba a529 04bb 4617 083b
000000a0: bfb3 9bba 2187 0dbb ce6b f03a 508a a5ba
000000b0: d435 07bb 5fb8 d43a d66b d6ba 1d96 00bb
000000c0: ac96 fb3a cf27 afba 3f02 edba 90d0 e93a
000000d0: 420a a8ba 8e1c feba 995f e13a d8d7 84ba
000000e0: 1d1f e9ba f0a2 f83a 4a0d 7fba 5584 c6ba
000000f0: 3358 033b ab3c 85ba e228 caba 38da f83a
00000100: d733 a8ba ccaa faba e371 1a3b 25b4 adba
00000110: bbf3 03bb 2501 023b f8f5 92ba fb9c 01bb
00000120: c4b7 cb3a f34e 9aba 9438 bcba 9b5d f53a
00000130: 11d1 84ba 16b1 e0ba 22ad dd3a 9893 3cba
00000140: 0d43 d2ba d508 f83a 7f09 90ba 6040 cdba
00000150: 7504 043b 16d8 96ba ed57 b5ba ac39 203b
00000160: 2e72 96ba 5390 d7ba 21a6 063b 6b54 1eba
00000170: 7299 deba 0245 1a3b 4f75 11ba bdc1 c4ba
00000180: 9dad 173b b9cd 65ba 5630 cbba 17b6 113b
00000190: 61b2 35ba 0c32 daba b0fa 183b 9177 2eba
000001a0: b650 a3ba d895 063b b8d9 66ba 9902 d5ba
000001b0: a12e fb3a 00f4 4dba 16c8 c1ba 11c4 fb3a
000001c0: 47b4 66ba f5b5 ecba 5c43 f23a aee3 0fba
000001d0: 0497 f7ba 5d47 0e3b f6b4 40ba b4d2 daba
000001e0: 136b 3d3b c6c8 20ba a198 a7ba 68a7 293b
000001f0: 590a fcb9 8158 6eba 1938 3f3b 7b33 1dba
00000200: 5dc0 69ba e353 243b 2713 0bba 75f2 3eba
00000210: 90ed 2e3b 8aea 4fb9 0ead 9bba 21ba 523b
00000220: e876 08ba cc61 aaba 5699 5b3b f451 56b9
00000230: f65b b8ba 7d6f 4c3b b3fa e6b9 4078 a9ba
00000240: d260 3d3b 85e7 1e38 f8c3 74ba 4dba 4c3b
00000250: 51af 6339 cd7c 78ba 93de 573b 786b a039
00000260: 1913 fab9 56af 633b 7d41 2039 53e0 60ba
00000270: 9d32 6a3b f39a 70b9 ebae 23ba 1ef9 393b
00000280: 9f27 40b8 00cc 4cba b007 413b 10f8 ac39
00000290: e841 8eba dbe4 3f3b 8544 9539 732d adba
000002a0: 2fde 5c3b 6d6f 20ba 8d0c 92ba bb02 4c3b
000002b0: e5f2 0039 96b8 8aba 7783 5c3b 1e85 f9b9
000002c0: 3bb5 1eba 5b60 4d3b 4827 1439 6f1f 80ba
000002d0: 8cda 783b ff25 e539 a255 83ba 40f0 403b
000002e0: 9dcb c339 6ec8 8aba 8dad 3a3b a21c 0d39
000002f0: 7ba7 92ba dbd5 693b 3a87 013a 9bef 9cba
00000300: 1e2b f63c aba9 f23c 82a8 f83c de63 f43c
00000310: 063e ee3c bbe9 f73c 493f f13c 1b27 ec3c
00000320: e32c f43c db44 f03c 1a6e ee3c 3bc8 f43c
00000330: 5fe6 f03c aebd f13c a51b f63c ca6c f03c
00000340: fd8b f03c 84cf f53c feb5 f53c ef87 f23c
00000350: f57e f93c 0cb1 f63c 8ca5 f23c 1be4 f83c
00000360: d1b6 f93c 8c07 f43c 0d46 f93c 1f15 f83c
00000370: 463b f23c 80ef f73c 6d34 f83c c207 f13c
00000380: 1190 f43c ada2 f53c 8a98 f03c 17be f43c
00000390: c928 f73c fb01 f43c 2d35 f83c 381b f83c
000003a0: 266d f43c aef4 f73c 4f56 fa3c 2c6b f43c
000003b0: 5c2c fa3c 1318 fd3c 1750 f73c 0c42 fa3c
000003c0: 5018 f83c 66bf f43c 71ca f83c 40ac f83c
000003d0: 9caf f53c 803c f83c d3b4 f83c 0d53 f43c
000003e0: bed3 f53c 4fb1 f83c 698b f33c 9917 f53c
000003f0: 4140 f93c 051f f63c 8ffb f73c 5154 fb3c

patch_to_embedding.bias f4 [64]
-0.07895671 0.25591928 0.010476562 0.0076891147 -0.12526831 -0.0008094661 0.0051820534 -0.181107
-0.0026855066 -0.1413618 0.004956734 0.007052611 0.0035889207 0.00255495 0.014836646 0.018543154
-0.070028484 -0.0023955381 0.07484654 -0.19993539 -0.0044265827 0.0096148215 0.0029800336 0.014164976
0.13823035 -0.03797656 0.17419793 0.01921839 0.009615109 0.02616406 0.014173034 0.014556825
0.00029551296 0.021045873 0.008085196 -0.023860076 0.038606364 -0.014587979 -0.008634778 0.06518966
-0.25438458 0.037224166 -0.14084743 0.012600133 0.038479883 0.23764062 -0.022705244 0.018486809
-0.07770088 -0.07731665 0.08740143 -0.0734824 0.024697965 0.00082550163 0.031653494 0.016802412
-0.06517185 0.013604512 0.008039853 0.013424655 0.018646525 0.03737777 0.003287285 0.014607764
00000000: 0eb4 a1bd da07 833e e3a5 2b3c f8f4 fb3b
00000010: 5646 00be 5a32 54ba 37ce a93b 1d74 39be
00000020: 53ff 2fbb 26c1 10be 196c a23b 9719 e73b
00000030: 1934 6b3b f370 273b 6715 733c d0e7 973c
00000040: 186b 8fbd 76fe 1cbb 2549 993d ddbb 4cbe
00000050: de0c 91bb 7c87 1d3c ab4c 433b 3714 683c
00000060: 428c 0d3e 4f8d 1bbd f160 323e e36f 9d3c
00000070: b188 1d3c 0356 d63c 0336 683c c07f 6e3c
00000080: 14ef 9a39 6568 ac3c c577 043c 3576 c3bc
00000090: b521 1e3d 6b02 6fbc e278 0dbc 2882 853d
000000a0: b23e 82be 5e78 183d 4f3a 10be ca70 4e3c
000000b0: 159d 1d3d 1058 733e 5900 babc a671 973c
000000c0: a421 9fbd 3158 9ebd 85ff b23d f17d 96bd
000000d0: 6353 ca3c 7a66 583a 18a7 013d 36a5 893c
000000e0: d278 85bd 76e5 5e3c 96b9 033c 16f3 5b3c
000000f0: 99c0 983c 6f19 193d 7e6f 573b 6755 6f3c

transformer.layers.0.0.fn.norm.weight f4 [64]
0.39159587 0.7259283 0.19852851 0.33280778 0.48690042 0.19140998 0.2624607 0.7911184
0.2556764 0.51236856 -0.010887789 0.25567746 0.16014944 0.26003182 0.2963396 0.21014526
0.3805374 0.15746546 0.36855787 0.6257852 0.19570178 0.06836474 0.22442213 0.3154076
0.61050177 0.33474374 0.6460999 0.19465983 0.22995222 0.27184296 0.21023905 0.3484767
0.2092894 0.10593878 0.22991194 0.29898423 0.3359196 0.24202074 0.27585918 0.3369701
0.90204567 0.2712488 0.5494859 0.18251261 0.36612657 0.7633672 0.23681754 0.23517779
0.52106524 0.41768664 0.40977138 0.34519634 0.22988474 0.19869915 0.2527117 0.1844223
0.52879345 0.16931653 0.10833438 0.18382066 0.14842683 0.25403482 0.1792526 0.24271308
00000000: 417f c83e 70d6 393f 0f4b 4b3e c865 aa3e
00000010: 034b f93e fa00 443e 4061 863e bc86 4a3f
00000020: 04e8 823e 962a 033f b262 32bc 28e8 823e
00000030: 37fe 233e e422 853e d3b9 973e 5230 573e
00000040: ccd5 c23e a03e 213e 9eb3 bc3e 7533 203f
00000050: 0c66 483e d002 8c3d eace 653e 1b7d a13e
00000060: d849 1c3f 8863 ab3e ce66 253f e854 473e
00000070: 9878 6b3e 002f 8b3e e848 573e 8a6b b23e
00000080: f64f 563e 6ef6 d83d 096e 6b3e 7614 993e
00000090: a7fd ab3e 49d4 773e 6a3d 8d3e 5887 ac3e
000000a0: 77ec 663f 1fe1 8a3e 1cab 0c3f 96e4 3a3e
000000b0: f174 bb3e 086c 433f 4c80 723e 72d2 703e
000000c0: 8864 053f 06db d53e 8ecd d13e 93bd b03e
000000d0: e866 6b3e ca77 4b3e 6e63 813e 33d9 3c3e
000000e0: 025f 073f 5061 2d3e 6ade dd3d 7c3b 3c3e
000000f0: 34fd 173e da10 823e fe8d 373e c789 783e

transformer.layers.0.0.fn.norm.bias f4 [64]
-0.25072184 0.2790568 -0.16090032 -0.03375043 -0.23665044 0.10443504 0.010718449 -0.27455083
-0.20333298 -0.24699321 -0.0036916446 -0.18585089 -0.07966093 -0.2035002 0.15528779 -0.09277873
-0.25695089 -0.17116381 0.2622813 -0.28361267 0.1382784 -0.17064892 0.06445194 0.08373668
0.046473786 -0.24300778 0.26944047 -0.1635082 -0.12382488 0.17373483 0.04404323 0.15014644
0.13166365 0.12640151 -0.071689844 -0.1653242 0.1577151 0.043418095 -0.24328947 0.21909477
-0.2806437 0.1981099 -0.26795694 -0.12845698 0.047022987 0.30068302 0.009783444 0.020833105
-0.25364533 -0.23349477 0.21469477 -0.25124404 0.21171978 0.040670536 -0.024120804 -0.09346662
-0.20217033 -0.10256726 0.022747248 -0.10790569 0.1050599 0.24654867 0.14226656 0.21368247
00000000: 9d5e 80be 88e0 8e3e 0ec3 24be e43d 0abd
00000010: 7e54 72be 0ae2 d53d 6f9c 2f3c ed91 8cbe
00000020: 8536 50be caeb 7cbe 85ef 71bb b24f 3ebe
00000030: 4525 a3bd 5b62 50be c303 1f3e c602 bebd
00000040: 118f 83be 9145 2fbe bc49 863e ae35 91be
00000050: da98 0d3e 97be 2ebe 61ff 833d 237e ab3d
00000060: 4c5b 3e3d 08d7 78be 1af4 893e b26e 27be
00000070: e697 fdbd 8be7 313e ad66 343d fdbf 193e
00000080: d6d2 063e 666f 013e 20d2 92bd bf4a 29be
00000090: 1180 213e 2cd7 313d e020 79be 615a 603e
000000a0: 88b0 8fbe 52dd 4a3e a731 89be 3a8a 03be
000000b0: 2d9b 403d 20f3 993e bd4a 203c 30aa aa3c
000000c0: cddd 81be 4119 6fbe f2d8 5b3e 0fa3 80be
000000d0: 12cd 583e 2696 263d fe98 c5bc 6d6b bfbd
000000e0: bd05 4fbe c90e d2bd 7058 ba3c a9fd dcbd
000000f0: a529 d73d 4177 7c3e 53ae 113e 94cf 5a3e

transformer.layers.0.0.fn.fn.to_qkv.weight f4 [192, 64]
-0.00014102082 -0.0027056125 -0.00084426557 -0.0002758569 -0.0015087248 -0.00070379156 0.00027841752 -0.0009733475
-0.0016814676 0.00030476108 0.00048434845 0.0055355043 0.00022410256 0.005581444 0.00054180296 -0.0034328443
-0.00043878367 -0.00097185734 -0.00012892834 -0.0004615035 0.0006316105 0.0011551386 -0.0005246416 0.0015091602
-0.00072947936 -0.00052398036 0.0031047908 -2.7055426e-05 -0.003965112 0.0014872227 0.0009048747 -0.0018558198
0.0007816599 -0.00012822755 -0.00056414184 0.00066970824 -0.0023962 0.0002855788 0.0009594878 0.00020678496
-0.0011386194 -0.00029581416 -0.0003883587 0.0013445597 -9.2226444e-05 -0.002779904 0.0008118599 -0.00019237038
0.0022846248 -0.00030695784 0.0008545549 -0.00035839493 0.0021726566 0.002734101 -0.00019967894 0.00072881795
-0.00020055438 -0.0017158437 0.0012627654 0.0005708512 0.001289979 -0.00041802356 0.0007183247 -0.00585263
-0.0013384498 0.001554661 0.00019292474 0.0011021635 -0.0002652862 0.00041487697 0.0012193011 0.0005411929
0.0012928677 -0.0006268992 0.0006710229 0.00011725816 0.0012079352 -6.6715475e-05 0.0021689457 0.00025775481
0.0011096777 0.0010500099 -0.0010827988 -0.00053883746 -6.9489775e-05 -0.00012200741 -0.0017078349 0.0018528278
0.00065963797 0.00021197431 7.173111e-05 -0.0019518402 0.000776212 0.00047959937 -0.0012406864 0.0017759254
0.0008137798 -0.0004754958 0.00011961751 -0.00093571737 0.0019510533 0.00019566242 -0.0028112943 -0.00016464162
-0.0012306212 0.00041698627 0.0006011393 -0.00015407984 -0.00033239194 0.0029646694 -0.0017199309 0.00032832657
-0.00091674854 -0.00080273225 0.0008269347 -0.00030720592 0.00027345444 0.0011934413 -0.00010975937 -9.2896305e-05
-0.0007326973 0.00019338846 0.00078171864 -0.00063236716 -0.000667452 0.001618296 -5.8085134e-05 3.1083604e-05
-0.0006562063 -0.0030805287 -0.00036281013 0.00073112565 0.001302041 -3.26516e-05 0.00035750738 0.0003146651
0.0020000157 -0.00025040517 0.00066729257 -0.0018735701 -0.0009996541 -0.0022313283 0.0013108769 -0.00020706464
0.00023346557 0.0013783665 -0.00047908584 0.00019044665 -0.00016403526 0.0003208357 0.00019134475 0.0013627595
0.001379043 -0.00038434684 -0.0023450484 -0.00019322846 -0.0011500192 -0.0010385631 -0.0009341375 0.0022329858
0.00040434411 0.000303658 -0.0013918334 0.0005309511 0.0022081614 0.00086190255 -0.0020621414 -0.00082499965
-0.0011165717 -0.00041125796 0.0003696047 6.691532e-05 0.00014364115 0.0035498163 -0.0007589366 -0.0007233339
-0.0018540381 0.00016344887 -8.520961e-05 -0.0006683086 -0.0009119286 -0.0017273945 -0.0002554701 0.0002543505
0.0005708319 -0.0006579429 0.0008499271 -0.00059672113 0.00090485567 0.001270203 0.00056950893 0.00041981786
-0.0024190387 0.003290332 0.0015338312 0.0020409303 -0.0013969751 0.00058994826 -0.00020495548 0.00091493805
0.0032156382 -0.003106455 0.00064317446 -0.0012824981 -0.001000009 -0.0036539035 0.003791382 -0.00018445276
0.0031656455 0.00021986516 -0.0011352842 -0.00022474542 0.00018577094 0.00021814977 0.0018710496 -9.791819e-05
0.0023379 -0.0014269521 0.001653862 0.0008464383 0.0018254182 0.0022945958 0.001420895 0.0038888864
0.00013471149 -0.0014048012 0.0001912876 -0.0012978187 0.0024060728 4.78878e-05 -0.003533875 0.002272604
-0.0015852985 6.255409e-05 0.00033180203 -0.0005242668 0.000655283 0.0020037587 -0.00047288972 -0.003111258
-0.00030354637 -0.00077186973 -0.00065782893 -0.0018405259 -0.0005958254 -0.0016048992 -0.000521898 -0.0002681735
-0.003283421 7.8424855e-05 -0.0010266316 -0.00019515185 0.00055761694 0.002714165 0.00064357277 -0.0020363345
00000000: fdde 13b9 a550 31bb b451 5dba e3a0 90b9
00000010: 67c0 c5ba a77e 38ba 91f8 9139 3f28 7fba
00000020: b164 dcba 57c8 9f39 26f0 fd39 2d63 b53b
00000030: 13fd 6a39 8ce4 b63b c807 0e3a 92f9 60bb
00000040: 8c0c e6b9 3ec4 7eba f030 07b9 f4f5 f1b9
00000050: aa92 253a 0568 973a 1a88 09ba 03cf c53a
00000060: 883a 3fba ba5b 09ba bf79 4b3b 16f5 e2b7
00000070: c5ed 81bb eaee c23a 1d35 6d3a fb3e f3ba
00000080: 4fe8 4c3a d274 06b9 ebe2 13ba 5c8f 2f3a
00000090: 9109 1dbb bdb9 9539 2386 7b3a 6ad4 5839
000000a0: ba3d 95ba 8117 9bb9 9f9c cbb9 f03b b03a
000000b0: b269 c1b8 0d2f 36bb ffd2 543a 08b7 49b9
000000c0: a5b9 153b 2fef a0b9 3504 603a f4e6 bbb9
000000d0: 2163 0e3b 9a2e 333b e860 51b9 250e 3f3a
000000e0: e84b 52b9 29e6 e0ba 6083 a53a 2da5 153a
000000f0: 8314 a93a 2c2a dbb9 f44d 3c3a 6bc7 bfbb
00000100: ec6e afba c4c5 cb3a d74b 4a39 7876 903a
00000110: 1c16 8bb9 d883 d939 f5d0 9f3a d7de 0d3a
00000120: 7175 a93a 7e56 24ba 96e7 2f3a 7fe8 f538
00000130: 9453 9e3a 99e9 8bb8 df24 0e3b 4423 8739
00000140: 9b72 913a 7ca0 893a b3ec 8dba c540 0dba
00000150: 0abb 91b8 3bde ffb8 6ed9 dfba 96da f23a
00000160: 8eeb 2c3a 6c45 5e39 596e 9638 e4d4 ffba
00000170: b57a 4b3a bd72 fb39 879e a2ba 2bc6 e83a
00000180: d753 553a f74b f9b9 29db fa38 ee4a 75ba
00000190: 7cba ff3a bb2a 4d39 b13d 38bb a6a3 2cb9
000001a0: cc4c a1ba f39e da39 c795 1d3a 7e90 21b9
000001b0: e444 aeb9 e64a 423b 4e6f e1ba 3f23 ac39
000001c0: f451 70ba 736e 52ba a6c6 583a 7b10 a1b9
000001d0: 6f5e 8f39 3f6d 9c3a 9d2e e6b8 53d1 c2b8
000001e0: 7c12 40ba 52c8 4a39 40ec 4c3a 71c5 25ba
000001f0: f2f7 2eba 011d d43a 70a0 73b8 c45f 0238
00000200: 4205 2cba b2e2 49bb 8d37 beb9 03a9 3f3a
00000210: 3fa9 aa3a 63f3 08b8 d46f bb39 a3f9 a439
00000220: b212 033b d048 83b9 3fed 2e3a 9592 f5ba
00000230: d306 83ba 7a3b 12bb bbd1 ab3a 7e1f 59b9
00000240: 70ce 7439 4eaa b43a d02d fbb9 a2b2 4739
00000250: e100 2cb9 d735 a839 b7a3 4839 9f9e b23a
00000260: 01c1 b43a 2982 c9b9 62af 19bb 5f9d 4ab9
00000270: 3ebc 96ba 6520 88ba e8e0 74ba 4957 123b
00000280: 26fe d339 4934 9f39 2e6e b6ba 862f 0b3a
00000290: cdb6 103b 4df1 613a fe24 07bb ca44 58ba
000002a0: ee59 92ba 1c9e d7b9 81c7 c139 e454 8c38
000002b0: 619e 1639 09a4 683b 60f3 46ba 1e9e 3dba
000002c0: 3203 f3ba 7963 2b39 90b2 b2b8 6e31 2fba
000002d0: 7e0e 6fba be69 e2ba 9ef0 85b9 595a 8539
000002e0: e1a3 153a cd79 2cba a4cd 5e3a 476d 1cba
000002f0: d633 6d3a f17c a63a 194b 153a 001b dc39
00000300: bc88 1ebb 9ca2 573b d60a c93a 21c1 053b
00000310: b51a b7ba c2a6 1a3a 51e9 56b9 74d8 6f3a
00000320: 75bd 523b ab95 4bbb b59a 283a 7f19 a8ba
00000330: bc12 83ba 5476 6fbb d678 783b a969 41b9
00000340: b876 4f3b 9b8b 6639 d1cd 94ba a4a9 6bb9
00000350: 82cb 4239 22bf 6439 023e f53a 6e59 cdb8
00000360: 7437 193b 9108 bbba 66c6 d83a 83e3 5d3a
00000370: df42 ef3a ee60 163b 533d ba3a b0dc 7e3b
00000380: 5741 0d39 4e21 b8ba 6094 4839 921b aaba
00000390: 34af 1d3b 22db 4838 9698 67bb f8ef 143b
000003a0: cac9 cfba 792f 8338 b7f5 ad39 f36e 09ba
000003b0: 4cc7 2b3a 7e51 033b 2fee f7b9 3fe6 4bbb
000003c0: 4e25 9fb9 4d57 4aba 2772 2cba cd3d f1ba
000003d0: 2a31 1cba 7b5b d2ba fbcf 08ba a399 8cb9
000003e0: aa2e 57bb 0678 a438 0a90 86ba ada1 4cb9
000003f0: 0a2d 123a 22e0 313b 70b5 283a 0674 05bb

transformer.layers.0.0.fn.fn.to_out.weight f4 [64, 64]
-0.05331791 0.058010433 0.004136674 -0.010173427 0.005539984 0.04967277 -0.03411887 0.00044686403
-0.06168052 0.0061802003 -0.01064344 -0.004926871 0.015401318 0.0057459734 -0.0076996973 -0.13338715
0.1005078 -0.010221476 -0.007261192 -0.031187601 -0.013480433 0.07719225 0.07075337 0.10825518
-0.048280977 -0.01991346 -0.009518921 -0.026978374 -0.002719058 -0.0026511087 -0.021407902 0.03360055
-0.015913753 -0.00080277934 0.11111488 0.096483625 -0.029152209 -0.0043782666 0.0117156 0.04288413
-4.4544966e-05 0.022986 -0.054512423 0.0068656886 -0.0146264 -0.0592716 -0.06359658 -0.00027434216
0.0114187 -0.019709978 0.060275856 -0.022508102 0.011201171 0.025080917 -0.07823026 0.06878897
0.012163884 0.04282141 -0.0405976 0.06708957 0.12183182 -0.016228713 0.011025864 -0.0016251747
0.07087849 -0.04430389 0.0682032 0.0031380786 -0.024817321 0.02604141 0.043569673 0.0029242912
-0.0042932816 -0.07104327 0.06491076 0.065460995 -0.03403874 -0.0151771195 0.022091225 0.010029388
0.01019281 0.05909955 0.07502461 -0.03033901 0.09080613 0.010765162 -0.08954677 0.008664339
-0.049266323 0.024884008 0.016849386 0.05792037 0.0069619357 0.0071312836 0.033776954 0.06275392
0.077605434 -0.0069923424 -0.21905456 -0.16153589 0.010988142 -0.04114071 -0.054553926 -0.08791185
-0.08062364 -0.02269613 0.14354405 -0.024941383 -0.056130994 0.08903655 0.16266023 0.053589705
-0.12367333 0.057325616 -0.22176996 0.10072478 -0.060118157 -0.042355724 -0.011280253 -0.045311842
-0.08571274 -0.15675457 0.05851705 -0.15727954 0.015426168 0.100822605 -0.11113888 0.034332268
-0.022132715 -0.10007583 0.03378905 -0.027528469 -0.030114975 0.069163084 0.0037593995 0.013982044
-0.11411021 -0.026064701 0.051346414 0.062802225 -0.034981713 -0.026256077 0.025296044 0.028768668
0.1102027 0.052934878 0.022491863 0.052193098 0.15056196 0.110671856 0.09610581 0.14824763
0.032745898 -0.0025278968 0.025055842 0.020985806 0.018930813 0.0008306617 0.0181955 0.076137915
0.036833517 -0.025009872 0.12268461 0.07030701 -0.008124651 -0.021597393 -0.015795756 0.024376465
-0.04290241 -0.0012116354 -0.072431095 -0.022775937 -0.040273506 -0.069668874 -0.08371092 0.054174844
-0.023537716 0.010570063 0.087999 0.053387925 -0.041537873 -0.0077021276 -0.075560376 0.03714749
-0.06535207 0.031498652 0.0020094938 0.03143111 0.07695894 -0.05000856 -0.005914037 0.03404989
0.11429778 -0.10963472 0.003546671 0.018484207 -0.024803828 -0.07983006 0.07910664 0.007831646
0.10957148 -0.01796403 0.045434233 0.02850548 -0.0411652 -0.020406082 0.029334474 0.20956665
-0.14328648 0.033123307 0.028953038 0.023319904 0.014560236 -0.1307397 -0.1262846 -0.15252781
0.027082022 0.05517678 0.03428842 0.065655105 0.013439017 0.007858808 0.050222598 -0.029299969
0.036361154 -0.012669625 -0.17968875 -0.16945347 0.083078116 -0.011621906 -0.030238578 -0.085497074
0.0026841308 -0.06728876 0.1097089 -0.03545913 0.0016692956 0.11527078 0.1588722 0.008375569
-0.029610295 0.05184636 -0.1330019 0.05918067 -0.038746018 -0.07917237 0.16272353 -0.13080147
-0.0160768 -0.07617085 0.093988016 -0.11948008 -0.24564235 0.04493314 -0.027413476 0.028195085
00000000: e163 5abd 599c 6d3d f08c 873b 72ae 26bc
00000010: c188 b53b ad75 4b3d 3ac0 0bbd 1349 ea39
00000020: b7a4 7cbd 4783 ca3b d361 2ebc 9771 a1bb
00000030: cf55 7c3c b848 bc3b be4d fcbb a496 08be
00000040: 09d7 cd3d fa77 27bc 4bef edbb 247d ffbc
00000050: 09dd 5cbc f816 9e3d 25e7 903d e4b4 dd3d
00000060: 46c2 45bd 8d21 a3bc 40f5 1bbc c001 ddbc
00000070: 3932 32bb 39be 2dbb a05f afbc bba0 093d
00000080: 8f5d 82bc 9c71 52ba 3390 e33d 3599 c53d
00000090: 9dd0 eebc 9077 8fbb caf2 3f3c 45a7 2f3d
000000a0: cbd5 3ab8 234d bc3c 6b48 5fbd 92f9 e03b
000000b0: 91a3 6fbc c7c6 72bd ec3e 82bd 95d5 8fb9
000000c0: 8015 3b3c d276 a1bc d1e3 763d e962 b8bc
000000d0: 1e85 373c 7f76 cd3c 3037 a0bd 3be1 8c3d
000000e0: 074b 473c 8165 2f3d ab49 26bd 4266 893d
000000f0: f682 f93d 14f2 84bc d3a5 343c d003 d5ba
00000100: be28 913d ff77 35bd 1fae 8b3d 39a8 4d3b
00000110: b24d cbbc cc54 d53c 1d76 323d 77a5 3f3b
00000120: a8ae 8cbb 227f 91bd efef 843d 6a10 863d
00000130: 356c 0bbd 74a9 78bc a8f8 b43c 4d52 243c
00000140: beff 263c 5f12 723d 81a6 993d 8489 f8bc
00000150: 90f8 b93d 5d60 303c 4c64 b7bd dff4 0d3c
00000160: 7ccb 49bd 8cd9 cb3c b907 8a3c e93d 6d3d
00000170: f320 e43b 8bad e93b b459 0a3d 2185 803d
00000180: 99ef 9e3d 0520 e5bb d74f 60be aa69 25be
00000190: 9c07 343c 2983 28bd f073 5fbd 210b b4bd
000001a0: 021e a5bd 3ced b9bc 36fd 123e df51 ccbc
000001b0: 9de9 65bd cb58 b63d 6790 263e e180 5b3d
000001c0: 7148 fdbd 44ce 6a3d aa17 63be cb48 ce3d
000001d0: 753e 76bd 327d 2dbd cfd0 38bc e998 39bd
000001e0: 298a afbd 4584 20be 93af 6f3d e30d 21be
000001f0: 0abe 7c3c 157c ce3d c89c e3bd fe9f 0c3d
00000200: ab4f b5bc 8ff4 ccbd 6366 0a3d 6283 e1bc
00000210: aeb3 f6bc 60a5 8d3d 4260 763b f114 653c
00000220: 9db2 e9bd a485 d5bc 9e50 523d 749e 803d
00000230: fc48 0fbd fc16 d7bc a639 cf3c 45ac eb3c
00000240: f4b1 e13d 3ed2 583d db40 b83c 6ec8 553d
00000250: ea2c 1a3e eda7 e23d 1fd3 c43d 3ace 173e
00000260: 9020 063d 12ab 25bb e941 cd3c 6dea ab3c
00000270: cb14 9b3c c3c0 593a bb0e 953c 32ee 9b3d
00000280: bede 163d 81e1 ccbc 1242 fb3d 1ffd 8f3d
00000290: 421d 05bc 04ed b0bc 1a66 81bc 27b1 c73c
000002a0: 70ba 2fbd bdcf 9eba c156 94bd 9a94 babc
000002b0: d5f5 24bd 8eae 8ebd a170 abbd 71e6 5d3d
000002c0: 2bd2 c0bc 0f2e 2d3c d238 b43d 4cad 5a3d
000002d0: 9e23 2abd 2162 fcbb 66bf 9abd f727 183d
000002e0: 4ed7 85bd bb04 013d b6b1 033b e8bd 003d
000002f0: a69c 9d3d c7d5 4cbd 8aca c1bb e677 0b3d
00000300: f414 ea3d 2b88 e0bd 446f 683b 316c 973c
00000310: 6631 cbbc f17d a3bd a902 a23d 4e50 003c
00000320: 0367 e03d 4d29 93bc 3f19 3a3d 5384 e93c
00000330: d79c 28bd a82a a7bc da4e f03c a498 563e
00000340: b1b9 12be 4eac 073d ec2e ed3c 6209 bf3c
00000350: 0e8e 6e3c a1e0 05be c050 01be 4030 1cbe
00000360: 1edb dd3c 0c01 623d 0472 0c3d 2f76 863d
00000370: 532f 5c3c 3bc2 003c 36b6 4d3d 7d06 f0bc
00000380: 6fef 143d 4294 4fbc 5400 38be 3685 2dbe
00000390: dc24 aa3d cf69 3ebc e5b6 f7bc 1719 afbd
000003a0: 3ee8 2f3b b0ce 89bd 0faf e03d 983d 11bd
000003b0: 44cc da3a 1613 ec3d 65af 223e af39 093c
000003c0: 4a91 f2bc d95c 543d a631 08be 6e67 723d
000003d0: 25b4 1ebd 2025 a2bd ffa0 263e d2f0 05be
000003e0: 7eb3 83bc 76ff 9bbd ca7c c03d f9b1 f4bd
000003f0: ab89 7bbe d00b 383d 3a92 e0bc 61f9 e63c

transformer.layers.0.0.fn.fn.to_out.bias f4 [64]
0.04320254 -0.039003532 -0.022752121 -0.044576157 0.0013619227 -0.015362987 -0.021425124 -0.008836863
0.015086033 -0.020176059 0.011624407 0.02781677 -0.018271305 -0.005669005 0.01802111 0.017713273
0.013145311 0.0010073947 -0.015118502 -0.00043087566 -0.019194871 -0.0141564915 0.04975199 -0.034979936
0.012664887 -0.03021791 -0.008146331 0.05656751 -0.0021875715 -0.009000278 0.010271828 -0.0017256549
-0.018543597 0.00044548677 0.0018095004 -0.019154351 0.038419504 0.003216507 0.022754911 -0.014295191
-0.029130483 -0.0058308756 -0.03123444 0.015648436 0.033474244 0.033139035 -0.010896234 0.0041515124
0.0018635185 -0.03106515 -0.004984958 0.025794871 0.009312332 -0.01635961 0.019382175 -0.005470155
0.0059359535 0.047304373 0.008161622 -0.0054231347 0.03611419 -0.0030266244 0.0046721203 -0.0016696254
00000000: 26f5 303d 2bc2 1fbd a862 babc 7d95 36bd
00000010: 8b82 b23a 0ab5 7bbc be83 afbc 7dc8 10bc
00000020: 692b 773c 4348 a5bc 4c74 3e3c ffdf e33c
00000030: b4ad 95bc 10c3 b9bb 02a1 933c 6d1b 913c
00000040: 6e5f 573c 8f0a 843a 98b3 77bc 27e7 e1b9
00000050: 903e 9dbc a1f0 67bc bec8 4b3d 1f47 0fbd
00000060: 6380 4f3c 8d8b f7bc 3078 05bc 55b3 673d
00000070: 5c5d 0fbb e775 13bc 2b4b 283c 5f2f e2ba
00000080: bee8 97bc 3990 e939 c22c ed3a 96e9 9cbc
00000090: c55d 1d3d 08cc 523b 8268 ba3c 6036 6abc
000000a0: 0da3 eebc ee10 bfbb 5edf ffbc 2631 803c
000000b0: 4a1c 093d ccbc 073d 1e86 32bc 6909 883b
000000c0: 4e41 f43a 577c febc dc58 a3bb c44f d33c
000000d0: c092 183c 9704 86bc 5ec7 9e3c fc3e b3bb
000000e0: 6382 c23b 3bc2 413d 53b8 053c 8db4 b1bb
000000f0: 79ec 133d 555a 46bb 9618 993b 55d7 daba

transformer.layers.0.1.fn.norm.weight f4 [64]
0.05660206 0.4861468 0.26249072 0.18635833 0.02528656 0.1396844 0.08402881 0.070625834
0.028516036 0.09268164 0.04621964 0.5269017 0.40215093 0.31329533 0.6328221 0.17863196
0.13146551 0.674817 0.054270357 0.22547935 0.0590328 0.07863187 0.07534501 0.108634815
0.062159788 0.063468575 0.11395423 0.16069151 -0.018522127 0.18834698 0.12164482 0.043321557
0.6503841 0.07072995 0.05037874 0.047842313 0.24062297 0.114121154 0.041683625 0.20833868
0.08959767 0.004210962 0.12661842 0.020155612 0.059448384 0.16198653 0.014492671 -0.02817986
0.680934 0.13507788 0.63334966 0.10127748 0.13435878 0.077714525 0.5697764 0.052355412
-0.010914016 0.47390193 0.027503096 0.11864537 0.29692084 0.0973053 0.020240745 0.42505917
00000000: 90d7 673d 3ce8 f83e 2f65 863e b8d4 3e3e
00000010: c325 cf3c 6d09 0f3e 4c17 ac3d 47a4 903d
00000020: 769a e93c dfcf bd3d ce50 3d3d 08e3 063f
00000030: bae6 cd3e 3f68 a03e a100 223f 4ceb 363e
00000040: e59e 063e cfc0 2c3f 984a 5e3d 0fe4 663e
00000050: 61cc 713d bf09 a13d 7c4e 9a3d ee7b de3d
00000060: 439b 7e3d d0fb 813d d660 e93d 518c 243e
00000070: b7bb 97bc 08de 403e eb20 f93d f271 313d
00000080: 937f 263f ddda 903d f059 4e3d 4df6 433d
00000090: de65 763e 5ab8 e93d 73bc 2a3d bc56 553e
000000a0: fc7e b73d 1cfc 893b 42a8 013e 621d a53c
000000b0: 2680 733d ccdf 253e ab72 6d3c 73d9 e6bc
000000c0: b151 2e3f db51 0a3e 3423 223f 916a cf3d
000000d0: 5995 093e cb28 9f3d dedc 113f a172 563d
000000e0: b3d0 32bc 46a3 f23e 2c4e e13c 58fc f23d
000000f0: 0206 983e 0048 c73d ebcf a53c 5ba1 d93e

transformer.layers.0.1.fn.norm.bias f4 [64]
-0.00047622414 0.49906963 -0.20145515 0.012234396 0.0065647513 -0.104974926 0.07526332 -0.06474993
-0.081066355 0.08887114 -0.025876828 -0.32315692 -0.29182196 -0.21772791 0.25239423 -0.07908781
0.072634324 -0.36714846 0.007089231 -0.19485636 0.03622072 0.10111957 0.004928947 0.10247604
0.048190247 0.028747052 0.051293828 0.12465762 0.07135236 -0.082119435 -0.035858463 0.046859168
-0.35567394 0.007418127 0.05478522 0.05676774 -0.15776765 -0.011980815 -0.026986495 -0.06643129
0.041107927 0.02072836 0.13293815 0.042242505 -0.17353585 0.14098226 -0.018027896 -0.025015445
-0.18593954 0.14333528 -0.2119408 -0.0531323 -0.009939996 0.049573794 -0.5138248 -0.19450927
0.03331479 -0.5270292 -0.06050653 0.0526113 -0.017025873 0.06511245 0.0016615777 0.5102221
00000000: b9ad f9b9 0e86 ff3e 424a 4ebe c772 483c
00000010: 201d d73b 18fd d6bd a823 9a3d 9c9b 84bd
00000020: 1e06 a6bd 1202 b63d a4fb d3bc d374 a5be
00000030: b069 95be 11f4 5ebe d139 813e caf8 a1bd
00000040: 4ec1 943d e2fa bbbe c84c e83b 6d88 47be
00000050: 2d5c 143d c717 cf3d 0183 a13b f5de d13d
00000060: 2363 453d f07e eb3c 7a19 523d 7f4c ff3d
00000070: 3021 923d 3c2e a8bd 53e0 12bd 66ef 3f3d
00000080: e51a b6be c213 f33b 7866 603d 4a85 683d
00000090: d88d 21be 2e4b 44bc c812 ddbc 210d 88bd
000000a0: c960 283d 86ce a93c f020 083e 7a06 2d3d
000000b0: 62b3 31be a75d 103e 3daf 93bc 31ed ccbc
000000c0: ef66 3ebe 7cc6 123e 0207 59be 41a1 59bd
000000d0: 5ddb 22bc e40d 4b3d 068a 03bf 702d 47be
000000e0: 1775 083d 63eb 06bf b2d5 77bd f27e 573d
000000f0: d879 8bbc ad59 853d 4cc9 d93a ea9d 023f

transformer.layers.0.1.fn.fn.net.0.weight f4 [128, 64]
0.00047297255 0.0027869814 0.0006632118 0.004674285 0.001153778 0.0019377914 0.0019510504 0.0014739868
-0.00019915352 -0.0020261607 0.0019851439 0.013055759 0.004054097 0.0010997558 0.02012833 0.002264949
0.00023431038 0.00011586135 -0.0009706441 -0.000208512 0.001519107 -0.003445533 -0.00013822388 -0.0031163644
0.0010908648 0.0029314796 0.00016953098 -0.0024713206 0.0003975365 0.0009880962 -4.3077296e-05 -0.0013100731
-0.004933273 0.0013188218 0.0018190478 0.00024324263 -0.007602126 -0.001222101 0.0009656211 -0.0007718798
0.00071672397 -0.0006591948 -0.0017185167 -0.0018780705 0.0016971906 -0.0045384835 0.0007247691 7.514208e-05
0.005201545 -0.0045557385 -0.0052951006 -8.886502e-05 -0.003130504 -0.0027608739 0.006167734 -0.00023340149
-4.686283e-05 -0.0002268975 -0.0011323333 0.00050974364 -0.004144336 -0.00070483604 0.0010320933 -0.005976261
-0.0016685695 0.06170821 -0.006877544 0.0010280178 0.001269807 0.001014724 0.0029618416 0.0011949344
-0.0029451163 0.00078078266 -0.0024555514 -0.054308336 -0.001619468 -0.007621081 -0.0015673841 0.000101188125
0.00090825715 -0.047520813 -0.000121346384 -0.0050294674 0.00045919057 0.003222732 -0.0019267806 0.0032446538
-0.0006632281 -0.0032669792 0.0011017363 -0.004318215 0.000837739 -0.00012036348 -0.0021733323 0.0015244464
4.482077e-05 -0.0025522404 -0.0035584196 0.0026583243 0.004013589 -0.0010119836 -0.0024807877 -0.0016482755
0.0029833184 -0.0020551686 -0.006007727 0.0029001804 -0.0020910944 -0.001814342 0.0015771299 -0.0024169763
-0.0030189566 0.0034556014 -0.003089931 -0.0026087614 -0.0028467819 0.0027895577 -0.042559896 -0.003171435
-0.0026189382 -0.036890313 -0.0010600166 0.00078444823 -0.002751535 -0.00018170202 -0.0022419835 0.0054601743
0.00019219228 -0.016206719 -0.00040528775 0.003044966 -0.000107580265 0.00045959392 -0.000706227 -0.00027523548
0.00010293915 -0.00011563322 -0.00031287284 0.021223044 0.0004942615 0.026105711 -0.15893872 0.0018806731
-0.001966109 0.14666554 -0.0006623286 0.005112328 -0.001180061 0.00064643525 0.00057753536 0.00045505125
0.00087154645 -0.00094496657 -0.00080516987 -0.0056780237 -0.00048313162 0.0008749084 0.00050976826 0.0006963602
0.111807264 -0.00025479431 -0.0011075182 0.0007389727 0.035616662 -0.00045361533 -0.00046081122 0.0023111994
-7.093081e-05 0.0018655924 -0.002065469 0.0013002096 0.0018570715 -0.001258567 6.54074e-05 -0.00023102785
0.21366179 0.000799811 0.14396067 -0.00885287 0.0014509147 0.0005839329 0.06463785 -0.0013772561
0.0034633244 0.010212377 -5.324317e-05 -5.154535e-05 0.00020659505 0.0010049244 0.00035315467 -0.0146674095
9.8353405e-05 0.106559806 0.00034732802 -0.009715484 0.0017522492 -0.0059685265 -0.0009990776 0.002635633
0.00026735957 -0.0012147223 -4.758308e-05 -0.053154625 -0.0076194415 -0.004904336 0.006505458 0.0050801868
-0.0013606291 -0.08870301 0.004411487 0.0012552461 0.0051591126 -0.0005060633 -0.0037641758 -0.00050719426
-0.0009794792 -0.0009975943 -0.004333644 0.008522728 -0.001541836 0.005037163 0.0026660117 -0.00028394983
0.0035047315 0.003438232 -0.00032751547 0.00072780496 0.011885025 0.0067305895 -0.00012730893 0.00022138143
-0.0035249388 -0.0015506338 0.0017225596 -0.000571869 0.002433965 -0.0037860668 0.00061597495 0.0010067591
-0.01758835 -0.0012136425 -0.0031564294 0.0046491832 0.00031460586 -0.0009993939 -0.067589104 0.00019187345
-0.0039800727 -0.059178505 0.0051056626 -0.0018867839 0.0042160302 -0.0012001938 0.0003931246 0.022069246
00000000: 4df9 f739 caa5 363b 64db 2d3a bf2a 993b
00000010: 5e3a 973a 7dfd fd3a 63ba ff3a ca32 c13a
00000020: ded3 50b9 56c9 04bb 3019 023b d2e7 553c
00000030: 3bd8 843b ae25 903a 2be4 a43c 8a6f 143b
00000040: 37b1 7539 97fa f238 d372 7eba 04a4 5ab9
00000050: c61c c73a 74ce 61bb 31f0 10b9 eb3b 4cbb
00000060: 59fb 8e3a 111e 403b 20c4 3139 e1f5 21bb
00000070: 726c d039 0283 813a e5ad 34b8 c2b6 abba
00000080: 4ba7 a1bb 51dc ac3a 1e6d ee3a f20e 7f39
00000090: 411b f9bb e82e a0ba bc21 7d3a fa57 4aba
000000a0: 88e2 3b3a d0cd 2cba da3f e1ba 9729 f6ba
000000b0: 4474 de3a 8fb7 94bb 6efe 3d3a 9995 9d38
000000c0: b971 aa3b 4e48 95bb 8682 adbb 0b5d bab8
000000d0: 2429 4dbb c7ef 34bb b41a ca3b 3cbd 74b9
000000e0: 958e 44b8 55eb 6db9 cd6a 94ba 51a0 053a
000000f0: 36cd 87bb bfc4 38ba 4e47 873a 83d4 c3bb
00000100: e7b3 daba bfc1 7c3d 055d e1bb 8ebe 863a
00000110: a76f a63a 7d00 853a 751b 423b 589f 9c3a
00000120: da02 41bb 70ad 4c3a 51ed 20bb 6b72 5ebd
00000130: 5444 d4ba 43ba f9bb af70 cdba f634 d438
00000140: 1b18 6e3a 2fa5 42bd 587b feb8 3bce a4bb
00000150: 84bf f039 7934 533b 078c fcba 42a4 543b
00000160: 7cdc 2dba d11a 56bb 2368 903a d07f 8dbb
00000170: b69b 5b3a a76b fcb8 776e 0ebb efcf c73a
00000180: effd 3b38 7d43 27bb 6034 69bb 4837 2e3b
00000190: 6d84 833b 89a4 84ba b694 22bb f30a d8ba
000001a0: c783 433b 02b0 06bb 77dc c4bb f410 3e3b
000001b0: be0a 09bb 37cf edba b3b7 ce3a 2266 1ebb
000001c0: b0d9 45bb 5f77 623b 7180 4abb c1f7 2abb
000001d0: 1391 3abb 03d1 363b 4953 2ebd dad7 4fbb
000001e0: 7ea2 2bbb 4c1a 17bd 41f0 8aba 6ea3 4d3a
000001f0: 1953 34bb 4487 3eb9 3eee 12bb 43eb b23b
00000200: 3987 4939 f4c3 84bc cd7c d4b9 0d8e 473b
00000210: b79c e1b8 a7f5 f039 1722 39ba 7b4d 90b9
00000220: 09e1 d738 1d80 f2b8 1509 a4b9 f3db ad3c
00000230: 5491 013a a5db d53c d5c0 22be eb80 f63a
00000240: d6d9 00bb 7e2f 163e 1fa0 2dba 5185 a73b
00000250: 47ac 9aba 8975 293a be65 173a f293 ee39
00000260: 7e78 643a a2b7 77ba 0912 53ba b70e babb
00000270: d44c fdb9 1c5a 653a f8a1 053a f18b 363a
00000280: 35fb e43d ea95 85b9 252a 91ba 9eb7 413a
00000290: c7e2 113d 38d3 edb9 0999 f1b9 7e77 173b
000002a0: b0c0 94b8 e586 f43a d25c 07bb cb6b aa3a
000002b0: fb68 f33a 80f6 a4ba 552b 8938 1140 72b9
000002c0: 28ca 5a3e 68aa 513a 6d6a 133e a10b 11bc
000002d0: 9e2c be3a 1313 193a d960 843d 0c85 b4ba
000002e0: f1f8 623b d051 273c 6b51 5fb8 6632 58b8
000002f0: 70a1 5839 abb7 833a 9e27 b939 934f 70bc
00000300: 1543 ce38 073c da3d 9419 b639 b22d 1fbc
00000310: baab e53a a193 c3bb 7bf3 82ba 96ba 2c3b
00000320: 652c 8c39 5137 9fba f193 47b8 aab8 59bd
00000330: 82ac f9bb 8db4 a0bb bd2b d53b b277 a63b
00000340: 2357 b2ba eca9 b5bd 3c8e 903b 1287 a43a
00000350: c60d a93b 55a9 04ba 64b0 76bb 3bf5 04ba
00000360: de61 80ba b6c1 82ba 3e01 8ebb eaa2 0b3c
00000370: 6e17 caba c90e a53b 41b8 2e3b 1adf 94b9
00000380: a3af 653b f653 613b 62b6 abb9 2aca 3e3a
00000390: 68b9 423c 478c dc3b 3b7e 05b9 a022 6839
000003a0: a902 67bb a33e cbba 82c7 e13a 7be9 15ba
000003b0: 2883 1f3b a91f 78bb 6179 213a 3bf5 833a
000003c0: 7215 90bc 1613 9fba 19dc 4ebb 2d58 983b
000003d0: aff1 a439 18fe 82ba 286c 8abd a331 4939
000003e0: 456b 82bb 2965 72bd 674d a73b f64d f7ba
000003f0: a026 8a3b d24f 9dba 4a1c ce39 90ca b43c

transformer.layers.0.1.fn.fn.net.0.bias f4 [128]
-0.00018011572 -0.015811676 -0.05716189 -0.05519078 0.0008681646 0.00033044352 0.0008628477 0.0007528706
-0.00606536 -0.00077095017 -0.059580773 -0.085662715 -0.06577708 -0.0020060418 0.020422628 -0.029900907
-0.0111600645 -0.06094906 -0.00014281116 -0.13538642 -0.042000353 -0.045535225 -0.0023554326 0.017402504
0.0033578766 -0.03365712 -0.031036973 0.00447883 -0.061050057 -0.00094181625 0.00013209121 -0.023148527
-0.0033967562 -0.04989647 -0.059443157 0.0064148027 -0.007914457 -0.007832894 -0.05080529 0.011591505
-0.11768842 -0.029870668 -0.10194132 -0.009577851 0.018004525 -0.0730617 -0.0007659739 -0.040517315
-0.0062439004 -0.04918455 -0.002415426 -0.044819355 -0.022801828 0.0020612464 -0.037282713 -0.013562425
-0.03320521 0.0067005353 0.00059460994 -0.022851273 -0.027035926 -0.012076156 -0.037307076 -0.05987014
0.0023165725 0.0014372224 -0.008021543 -0.0010991623 0.0073339455 -0.0028793532 -0.0062945313 -0.017667413
-0.019140212 -0.030531019 0.027252741 -0.04859699 -0.050635744 -0.035826653 -0.04439818 -0.05706888
-0.02265862 0.0010370422 -0.005643782 -0.006389438 0.0018483143 -0.050415184 0.0017479006 -0.012406926
0.016448688 -0.06398638 -0.034103464 -0.014078444 -0.033044226 -0.037763994 -0.012930563 -0.052757747
-0.09902586 0.0019460964 -0.020784453 0.00071408314 -0.004411399 -0.056583863 -0.03858774 -0.012018653
-0.0047454885 -0.025956545 -0.050179765 0.014557452 -0.0013069416 -0.04246886 -0.049189534 -0.016208764
-0.0035544173 -0.011411885 -0.0137512935 -0.05634467 -0.0054759607 -0.00039420772 -0.012066624 -0.054323114
-0.009431893 -7.6132645e-05 0.009901471 -0.012712665 -0.05003114 -0.016103663 -0.046279762 0.0044951267
00000000: 72dd 3cb9 7d87 81bc 9622 6abd ba0f 62bd
00000010: 8a95 633a 613f ad39 bb30 623a 4a5c 453a
00000020: edbf c6bb 9719 4aba f80a 74bd ef6f afbd
00000030: 22b6 86bd cc77 03bb 5b4d a73c bff2 f4bc
00000040: b4d8 36bc b9a5 79bd 94bf 15b9 bda2 0abe
00000050: 9008 2cbd 2583 3abd 9a5d 1abb b28f 8e3c
00000060: d20f 5c3b 0cdc 09bd 4041 febc 26c3 923b
00000070: a00f 7abd 38e4 76ba f781 0a39 fba1 bdbc
00000080: 1d9c 5ebb 3e60 4cbd ab7a 73bd 4433 d23b
00000090: a3ab 01bc 8a55 00bc 3519 50bd 4cea 3d3c
000000a0: a006 f1bd 55b3 f4bc 9cc6 d0bd 6bec 1cbc
000000b0: 3a7e 933c 5fa1 95bd a3cb 48ba 7cf5 25bd
000000c0: a299 ccbb bd75 49bd 204c 1ebb 8094 37bd
000000d0: e6ca babc fa15 073b c2b5 18bd ef34 5ebc
000000e0: 3002 08bd 2a90 db3b 99df 1b3a 9832 bbbc
000000f0: 727a ddbc 12db 45bc 4ecf 18bd 643a 75bd
00000100: a3d1 173b 2e61 bc3a ca6c 03bc c411 90ba
00000110: 9851 f03b 88b3 3cbb 5b42 cebb 40bb 90bc
00000120: efcb 9cbc 301c fabc 2441 df3c a30d 47bd
00000130: 6d67 4fbd f8be 12bd deda 35bd 0fc1 69bd
00000140: 929e b9bc 5ded 873a 7aef b8bb 7e5e d1bb
00000150: 2343 f23a 2780 4ebd d019 e53a 6b46 4bbc
00000160: 66bf 863c 4b0b 83bd 13b0 0bbd 46a9 66bc
00000170: 6259 07bd 6bae 1abd b6da 53bc 8218 58bd
00000180: 12ce cabd 2914 ff3a 2844 aabc 4f31 3b3a
00000190: 7f8d 90bb 7bc4 67bd 2e0e 1ebd e2e9 44bc
000001a0: 0b80 9bbb d2a2 d4bc 4c89 4dbd 6182 6e3c
000001b0: af4d abba d4f3 2dbd f77a 49bd 3ec8 84bc
000001c0: 3af1 68bb eaf8 3abc 1b4d 61bc abc9 66bd
000001d0: b06f b3bb aaad ceb9 17b3 45bc ea81 5ebd
000001e0: 3a88 1abc 67a9 9fb8 c839 223c c848 50bc
000001f0: 74ed 4cbd d4eb 83bc d98f 3dbd db4b 933b

transformer.layers.0.1.fn.fn.net.2.weight f4 [64, 128]
-0.003791708 -0.010366911 0.009315254 -0.002463503 -0.004217853 0.00032010506 -0.009978588 -0.007485237
-0.0031120353 -0.003773559 0.009202975 -0.007902471 0.0005113302 0.00014460532 -0.0030449096 0.0005955667
-0.008412173 0.008638538 0.0039324593 -0.00011749328 0.011727583 -0.008214131 -0.0044808257 0.0036259382
-0.0030966988 -0.010282277 -0.010096434 -0.0007419639 -0.0024125169 -0.0006288506 -0.0023765168 0.00076454564
-0.0034085081 -0.0014756129 -0.0006735905 0.0032499407 -0.0020143678 -0.0019988464 -0.0039716247 -0.008741588
-0.00087013573 -0.0017466948 -0.0018436352 0.00063143484 0.00095463643 0.0064373277 0.0012447255 -0.010035662
-0.0040671644 -0.0073915934 -0.002298956 0.008492068 -0.010155987 -0.002646641 -0.0048604794 0.00039328905
-0.002918395 -0.0035835344 0.007988738 -0.010512612 -0.010635684 -0.0077173514 0.020931836 0.0053610955
-0.0013814456 -0.0038774468 0.0037451275 -0.009824184 -0.008455001 0.00046319462 0.0025115164 0.0038410448
-0.007902551 0.011836938 0.0042276094 0.0058438377 -0.0012914672 0.014910956 0.0076059285 0.011838012
0.0028323352 0.0034817287 -0.0055164127 -0.0038542566 -0.0029423956 -0.0051668016 -0.005336308 0.0012826348
-0.009923514 -0.0030246025 -0.002084041 -0.002128233 -0.0067083547 -0.010596917 -0.00081940694 -0.0028270055
0.0015942462 -0.0017772736 -0.009718148 -0.0024980137 -0.0040144785 0.008264889 0.012381187 -4.8283737e-06
-0.0034890312 -0.0035436545 0.01185944 -0.004568048 -0.0022567394 -0.0031980847 0.01056656 -0.008878916
-0.003567632 -0.009652943 0.0009840705 0.007935394 -0.0025217123 -0.0012179534 -0.0015732326 -0.0023615942
-0.0028611775 0.000918181 -0.004226821 -0.0010692666 0.006571052 -0.008785623 0.009485282 0.0024696225
0.0019085993 0.008822969 0.004531393 0.0016413481 0.0088537615 0.0070347786 -0.003342387 0.016111396
-0.005362562 -0.0041257497 0.004043616 0.010439607 0.0055341427 -0.001108272 0.007450448 0.0013710009
-0.0017028059 0.0052832286 -0.0012146173 0.0078396415 0.003402242 0.011622039 -0.005137221 -0.0029118091
-0.00908463 0.010834248 -0.00043374035 0.0021557596 0.001429067 0.0013412785 0.0061819083 -0.00042188636
-0.0026423088 0.0041168933 0.0022487047 -0.0053179096 -0.009776745 0.00038771113 0.0014561075 0.00650345
0.006078674 -0.00058347423 0.005083984 -0.0036478254 0.009490061 0.0066917804 0.011551739 0.0105943205
0.0076486417 0.00719865 -0.010089589 0.0045298054 0.0032701516 0.0038471885 0.004430375 -0.00530284
-0.0006167996 0.0012945571 -0.007362683 0.010373781 0.009819734 -0.0035176983 0.0022320685 0.007370789
0.0023237187 0.0143148005 -0.005266155 0.009078801 -0.001387074 -1.703967e-05 -0.003150197 -0.005709008
-0.0041219094 0.0035141879 -0.004666241 0.0048539084 0.0017672887 0.0006370243 0.007122109 0.0053355847
-0.0048280037 -0.0015786772 0.005276273 0.0026201985 -0.0009480688 -0.0015508044 -0.016461195 -0.0054017855
0.00742416 0.012180208 0.001846716 -0.00057035126 0.0011879154 0.0054321615 -0.0025707125 0.0022254863
0.006744066 -0.0031408402 0.0114317285 0.0072454587 -0.008816143 0.00535885 0.0024922448 -0.00071796065
-0.007452775 -0.009468999 0.0047377967 0.0054887924 -0.002597867 0.004855211 0.0023239886 -0.0027813795
-0.011353514 0.0097951675 -0.0023727433 0.0054623554 -0.012998199 0.0016061879 -0.0038059473 0.0019019895
-0.0036201105 0.007413378 0.0064540007 -0.0059104497 0.0071550813 -0.0032150622 0.0037205855 0.0020263095
00000000: 4e7e 78bb fad9 29bc 029f 183c b972 21bb
00000010: ea35 8abb c6d3 a739 3b7d 23bc b846 f5bb
00000020: 4af3 4bbb d04d 77bb 13c8 163c 5e79 01bc
00000030: ca0a 063a 32a1 1739 1b8d 47bb ce1f 1c3a
00000040: 36d3 09bc a888 0d3c dcdb 803b b966 f6b8
00000050: 0c25 403c 9094 06bc e4d3 92bb 26a1 6d3b
00000060: fcf1 4abb ff76 28bc 836b 25bc 5b80 42ba
00000070: 511b 1ebb 73d9 24ba 56bf 1bbb ca6b 483a
00000080: 4761 5fbb 5a69 c1ba e593 30ba f5fc 543b
00000090: 7c03 04bb 14ff 02bb 6724 82bb e138 0fbc
000000a0: d219 64ba 5af1 e4ba 22a6 f1ba e086 253a
000000b0: 9140 7a3a 38f0 d23b 0f26 a33a 9e6c 24bc
000000c0: d945 85bb 2e35 f2bb 15aa 16bb 5122 0b3c
000000d0: 4c65 26bc 4573 2dbb a844 9fbb 5d32 ce39
000000e0: 8b42 3fbb bbd9 6abb 32e3 023c 173d 2cbc
000000f0: 4b41 2ebc d6e1 fcbb 3e79 ab3c 21ac af3b
00000100: 9f11 b5ba c31c 7ebb d070 753b 9df5 20bc
00000110: d886 0abc eed8 f239 4198 243b 0aba 7b3b
00000120: b479 01bc b7ef 413c c287 8a3b aa7d bf3b
00000130: 7346 a9ba 154d 743c 273b f93b 39f4 413c
00000140: b39e 393b b72d 643b 06c3 b4bb b297 7cbb
00000150: 35d5 40bb 464e a9bb 32dc aebb 151e a83a
00000160: 3c96 22bc 6938 46bb 6894 08bb d379 0bbb
00000170: c2d1 dbbb b19e 2dbc 78cd 56ba 4845 39bb
00000180: 07f6 d03a 68f3 e8ba de38 1fbc b7b5 23bb
00000190: e38b 83bb 7569 073c 76da 4a3c 6a03 a2b6
000001a0: 3ba8 64bb a83c 68bb 194e 423c 90af 95bb
000001b0: cee5 13bb f596 51bb 5d1f 2d3c df78 11bc
000001c0: efce 69bb 6127 1ebc edfb 803a 7403 023c
000001d0: 5043 25bb bca3 9fba ed34 ceba fac4 1abb
000001e0: 9882 3bbb 15b2 703a 2581 8abb a226 8cba
000001f0: fb51 d73b 93f1 0fbc 2868 1b3c 64d9 213b
00000200: f729 fa3a 378e 103c 147c 943b 8122 d73a
00000210: 5e0f 113c 0084 e63b f30b 5bbb 0cfc 833c
00000220: 6eb8 afbb 4c31 87bb 4f80 843b e30a 2b3c
00000230: c157 b53b 7043 91ba e322 f43b 28b3 b33a
00000240: af30 dfba ef1e ad3b cb33 9fba d771 003c
00000250: 26f8 5e3b 5d6a 3e3c 2256 a8bb 0dd4 3ebb
00000260: b3d7 14bc 2182 313c a567 e3b9 a547 0d3b
00000270: 884f bb3a d7cd af3a 9b91 ca3b a130 ddb9
00000280: 962a 2dbb 01e7 863b 015f 133b dc41 aebb
00000290: a42e 20bc b545 cb39 dcda be3a e51a d53b
000002a0: 9d2f c73b 4bf4 18ba 8d97 a63b 5b10 6fbb
000002b0: 337c 1b3c b946 db3b 8143 3d3c cd93 2d3c
000002c0: 75a1 fa3b a7e2 eb3b ce4e 25bc c36e 943b
000002d0: 0a50 563b 1d21 7c3b ae2c 913b 72c3 adbb
000002e0: b8b0 21ba 21ae a93a a942 f1bb cbf6 293c
000002f0: f3e2 203c 2f89 66bb e547 123b a986 f13b
00000300: 8849 183b a088 6a3c b68f acbb 40bf 143c
00000310: 7bce b5ba 6af0 8eb7 8973 4ebb a112 bbbb
00000320: 1511 87bb 4a4e 663b 44e7 98bb 890d 9f3b
00000330: 5ea4 e73a fafd 263a 9560 e93b 21d6 ae3b
00000340: 3b34 9ebb 9eeb ceba 96e4 ac3b a3b7 2b3b
00000350: d287 78ba 5c44 cbba a1d9 86bc 7601 b1bb
00000360: 5e46 f33b 7f8f 473c 820d f23a a083 15ba
00000370: d4b3 9b3a 4600 b23b 6679 28bb 77d9 113b
00000380: 53fd dc3b 8ed6 4dbb 254c 3b3c 506b ed3b
00000390: 9571 10bc 4b99 af3b ee54 233b 8635 3cba
000003a0: 6836 f4bb dc23 1bbc 853f 9b3b 54db b33b
000003b0: fa40 2abb 7618 9f3b 0f4e 183b ce47 36bb
000003c0: 1704 3abc e97b 203c 0780 1bbb 8ffd b23b
000003d0: 66f6 54bc b986 d23a 336d 79bb 2d4c f93a
000003e0: 603f 6dbb eceb f23b 157c d33b 72ac c1bb
000003f0: 2c75 ea3b cbb3 52bb 11d5 733b d5cb 043b

transformer.layers.0.1.fn.fn.net.2.bias f4 [64]
0.0077898153 -0.044150267 -0.042635553 -0.012214993 -0.0025117274 -0.014977952 -0.02490821 -0.010707735
0.01476036 -0.018862888 0.009689677 0.017787563 -0.026804622 -0.010995151 -0.03567883 0.028785104
-0.0008875772 0.050902918 -0.010771713 -0.01711037 -0.0072000655 -0.009889934 0.008123427 -0.046025302
0.0010494618 -0.03498862 -0.013040689 0.006101747 -0.003734989 -0.0074271397 0.008611586 -0.0035338555
0.0076353448 0.0012053862 -0.0010913963 -0.019115856 0.048330385 0.0034973642 0.022086402 -0.00891107
-0.013088492 -0.007753938 -0.031645454 0.0031889295 0.038364552 0.031317428 -0.012977492 0.0024169066
0.030218761 -0.042943608 0.008728974 -0.00033493762 0.013197839 -0.023796044 0.041368853 -0.010325374
0.004674109 0.039139956 0.007308007 -0.008863734 0.053054877 -0.009273741 0.00017021758 0.016001536
00000000: b541 ff3b e9d6 34bd 9ea2 2ebd 6521 48bc
00000010: cb9b 24bb 1666 75bc 4d0c ccbc 7f6f 2fbc
00000020: 70d5 713c 5886 9abc 73c1 1e3c 39b7 913c
00000030: 5e95 dbbc 0125 34bc f723 12bd bdce eb3c
00000040: 4cac 68ba 947f 503d d77b 30bc 0c2b 8cbc
00000050: 87ee ebbb 6409 22bc 1f18 053c 0785 3cbd
00000060: 188e 893a 3a50 0fbd 9da8 55bc 2af1 c73b
00000070: b8c6 74bb 5d5f f3bb 9c17 0d3c 4298 67bb
00000080: ea31 fa3b 0dfe 9d3a 2f0d 8fba db98 9cbc
00000090: 15f6 453d 0934 653b 8bee b43c bdff 11bc
000000a0: 1d71 56bc bf14 febb aa9e 01bd 5cfd 503b
000000b0: 2624 1d3d b446 003d 8c9f 54bc f764 1e3b
000000c0: 568d f73c a3e5 2fbd f803 0f3c 919a afb9
000000d0: c03b 583c ecef c2bc 6372 293d c22b 29bc
000000e0: 4529 993b 3851 203d 0278 ef3b 3239 11bc
000000f0: 1250 593d e4f0 17bc 6f7c 3239 a715 833c
