model_training/trained_models/model_60_ViT.pth (torch, 222964 bytes, 16 tensors)

patch_to_embedding.weight f4 [64, 192]
000000 79 4e 07 bd 81 97 8a bd b8 a8 8f bd 19 6f 50 bd
       -0.03303382 -0.06767178 -0.070146024 -0.0508872
000010 c9 c2 8a bd 0f 70 c9 bd 84 60 e8 bd 16 20 ce bd
       -0.067754336 -0.098358266 -0.11346534 -0.10064714
000020 21 82 ad 3c 0d 3e 28 3c 3b b2 cc bc 76 94 f3 bc
       0.021180214 0.0102687 -0.02498733 -0.029733878
000030 34 2a b3 3b 56 ed a1 3b c8 96 74 bc e6 e0 54 bd
       0.0054676775 0.0049416227 -0.014928527 -0.051972292
000040 59 96 ad bc c6 95 b1 bd c6 93 82 bc 89 b5 2c 3b
       -0.021189855 -0.08671145 -0.015939604 0.002635332
000050 67 38 05 bd eb 8f b8 bd 0b 13 0d bd 74 bf 38 3c
       -0.032524493 -0.09011825 -0.03444199 0.011276115
000060 57 d1 5f bd 1c 4c a4 bc 9d 23 20 bd 1f b2 71 bc
       -0.054643 -0.020055823 -0.039096463 -0.01475194
000070 a5 d4 cb bc 2b 2c 1f bd bf 9c eb bd 41 52 cf 3b
       -0.02488167 -0.03886048 -0.11504506 0.006326944
000080 00 8c e6 bd 75 20 e6 bd 69 30 45 3c 9d 9e 82 bd
       -0.11257172 -0.112366594 0.012035468 -0.06377909
000090 1f c2 ed bd aa c2 a1 3b e0 5d 90 bd 5a 9d e8 3b
       -0.11609291 0.004936536 -0.07049155 0.007098836
0000a0 12 f6 19 3c 57 e2 eb bd e4 6d ee bd 12 26 35 bd
       0.009397047 -0.1151778 -0.11642054 -0.04422576
0000b0 d2 16 89 bd 41 ce ec bd ec 5a ba bd ee 4e 0d 3b
       -0.06693806 -0.11562777 -0.09099373 0.0021561938
0000c0 fe 9a 93 bc df c0 c5 bc 10 89 6d bc 1f c5 80 bc
       -0.018018242 -0.02413982 -0.01449801 -0.015718995
0000d0 e8 aa 9b ba 82 31 63 bd ca 90 58 bd bf da b9 3c
       -0.0011876496 -0.055467136 -0.052872457 0.022687314
0000e0 83 56 26 bd 3b 89 74 bd f9 eb f6 3b 70 52 b5 bb
       -0.040609848 -0.059701186 0.0075354544 -0.005533509
0000f0 3c e7 2f bd 3a b4 0e bc 09 2a 9b 3c e5 a4 49 bd
       -0.04294513 -0.008709962 0.018940942 -0.04922952
000100 af d0 a4 bd ed 1c f5 bc 52 e4 ae 3c a8 a0 ad bd
       -0.08047616 -0.02992102 0.021349106 -0.084779084
000110 40 1f df bd 3e 25 8e bd 99 37 00 bd 19 46 d1 bd
       -0.10894632 -0.06940697 -0.031303022 -0.10218448
000120 74 7b c0 bd 9a ee 2e bd 79 97 2d 3c 7b 94 76 bc
       -0.09398547 -0.042708017 0.010595196 -0.015050049
000130 30 74 98 bb 78 1d ae bc 65 ae f5 bc fc ee 8d 3c
       -0.0046525225 -0.021254286 -0.029990384 0.01732587
000140 f7 60 92 bd 4c 2a 68 bd 24 d9 1d bd 2f 28 2a bd
       -0.07147401 -0.056680962 -0.03853716 -0.04154223
000150 84 52 48 bd da 41 a1 bd a6 d4 68 3c 8d 38 f3 bb
       -0.048906818 -0.07873888 0.014210856 -0.007422513
000160 17 47 d8 bd bf c6 08 bd 79 8f ea bd 78 52 92 3c
       -0.10560434 -0.033392664 -0.114531465 0.01786159
000170 03 8a 9e bc c6 9d ee bb bc a7 db 3c c2 fe 81 3c
       -0.019352918 -0.0072819917 0.02681338 0.015868548
000180 fd 59 dd bb 19 e3 92 bd 55 e4 64 bd 9e 9c e3 ba
       -0.006755112 -0.07172222 -0.055881817 -0.0017365401
000190 a5 56 0c 3c 6d 6e 8b bd a7 c5 74 3c fe ff d0 b7
       0.00856558 -0.068081714 0.014939702 -2.4914738e-05
0001a0 a7 42 6f 3c b3 a1 5a bd f2 c6 38 bd 08 5a b2 bd
       0.0146032935 -0.053376865 -0.045111604 -0.08708578
0001b0 41 3e ea bd 52 81 6c bd 3a 87 02 bd 7f 34 ca bd
       -0.11437655 -0.057740517 -0.031867243 -0.09873294
0001c0 52 6a db bc 92 a0 e1 bd ef 89 e4 bd 6b 97 a7 3c
       -0.026784096 -0.110169545 -0.11159121 0.020457944
0001d0 03 d1 c9 bd b2 fc 3e bd f6 ce 84 bd e5 f7 4b bc
       -0.09854319 -0.046627708 -0.06484787 -0.012449239
0001e0 d6 9f 1e bd a6 71 a1 bd 41 d6 ba bd 66 0a d9 bd
       -0.03872665 -0.07883005 -0.09122897 -0.105976865
0001f0 29 fa 87 bd d5 82 69 bc f2 ba 77 bd 34 fe d9 bd
       -0.06639511 -0.014252384 -0.06048102 -0.106441885
000200 fb fc f9 bc 62 98 f1 bd b0 d6 e4 bd 17 af de bb
       -0.030516138 -0.11796643 -0.11173761 -0.0067957747
000210 ab ce ec bd f1 5a 52 bd ed fb cd bd fd 11 94 3b
       -0.11562856 -0.05135626 -0.10057817 0.004518746
000220 dd 57 c6 bd 37 69 f4 bd 67 d3 b6 3b c7 79 36 bd
       -0.09684727 -0.11934131 0.0055794003 -0.04454973
000230 ea 2b d9 bd 02 f2 1a bc 7c 4b df bd 1a 43 c1 bc
       -0.10604079 -0.009457113 -0.109030694 -0.023591567
000240 52 a3 ab bd 33 97 8c bc 1e 1b 22 bc 03 d8 81 bd
       -0.0838076 -0.017161941 -0.009894161 -0.06340029
000250 62 ab 59 3b d5 fd 37 bd 7e 05 59 bd 3f 03 3b 3c
       0.0033213724 -0.044919807 -0.052983753 0.011414348
000260 d3 1c 52 bc a8 99 ac bd bc 70 ba bc 21 52 c0 bd
       -0.012824255 -0.08427745 -0.022758834 -0.09390665
000270 90 bf 39 bd da 63 e4 bd 26 d1 c1 bb cb 9e f0 bd
       -0.045348704 -0.11151858 -0.005914825 -0.11749037
000280 1b da 87 bd 70 21 21 bc 1e f5 96 bd cb df 9e 3c
       -0.06633397 -0.009834632 -0.07370971 0.019393822
000290 9f 82 ea bc 6a c4 49 bd eb 60 87 bc 14 90 ce bd
       -0.028626738 -0.04925958 -0.016525706 -0.100860745
0002a0 05 ed 79 bc f9 25 f9 bd 8c 7a 03 bd 87 e8 83 bd
       -0.015254264 -0.12165446 -0.03209929 -0.064408354
0002b0 37 8c fd 3b b6 90 8f bd 1c 11 3c bd 0e a7 f6 bd
       0.007737662 -0.07010023 -0.045914754 -0.12043582
0002c0 06 0e fd bb 65 1d 00 be 31 57 88 bc 83 af 06 bd
       -0.007722619 -0.12511213 -0.016643139 -0.032882225
0002d0 77 b5 b9 3b be c3 43 3c d8 9c 3b bd 5e 19 df bd
       0.0056673842 0.011948524 -0.045803875 -0.1089351
0002e0 66 a6 2d 3c 50 18 b5 bd d8 79 de bd b3 99 93 bc
       0.0105987545 -0.08842528 -0.108630836 -0.018017625
0002f0 8e 70 ae bd 43 25 99 3b df 50 d3 3a 69 1c 94 bd
       -0.08517562 0.0046736314 0.0016122124 -0.07231981
000300 b9 f5 a3 bd 29 ba b9 bd d6 3a be bd 32 0a 04 be
       -0.08005852 -0.0906871 -0.09288566 -0.12894514
000310 4c e8 bb bd b7 72 09 b8 9d 26 ea bc 15 b7 53 bd
       -0.091751665 -3.2770182e-05 -0.028582865 -0.051688273
000320 6e 25 fc bd b0 10 32 bd fb 12 a2 bd 4d c1 d4 bd
       -0.12311827 -0.043472946 -0.079137765 -0.10388432
000330 e1 df 2f bd 96 3f df bd 26 97 81 bd b0 01 bc bd
       -0.042938117 -0.109008 -0.063276574 -0.09180009
000340 fe fa 08 be f6 d7 01 bd b7 a8 84 bd 1b c4 d4 bc
       -0.13376996 -0.031700097 -0.06477492 -0.025972417
000350 02 d6 b9 bd 20 72 82 bd ba d8 de bd 01 d4 b5 bc
       -0.09074022 -0.06369424 -0.10881181 -0.022195818
000360 bb 08 e1 bd 07 03 78 bd 0f f1 a1 bb c7 4b 0d be
       -0.10987993 -0.060549762 -0.0049420665 -0.13798438
000370 c1 88 dc bd b6 c8 0e bd 40 50 af bd a8 fe d9 bd
       -0.10768271 -0.03485938 -0.08560228 -0.10644275
000380 68 b7 10 be f3 cb 16 bc 4a a7 2a bd 52 de 94 bd
       -0.14132464 -0.009203899 -0.041663446 -0.07268967
000390 26 ae 69 bd 44 5c c3 bc 65 fc c3 ba 9b 95 d7 bd
       -0.057050847 -0.023847707 -0.0014952539 -0.10526582
0003a0 22 21 eb bd 17 45 ff bd 49 6c fd bd bf 25 e1 bc
       -0.11480929 -0.1246435 -0.123741694 -0.027483819
0003b0 70 42 08 be e5 8b 2c bc 90 0d 67 bb 28 67 fe bd
       -0.13306594 -0.0105314 -0.0035255887 -0.12422019
0003c0 22 12 60 bc c7 e0 a3 bc 2a b1 0f be 35 36 c5 bd
       -0.013676198 -0.020004643 -0.14032426 -0.0962948
0003d0 fd f2 f7 bc 18 75 b3 bd e3 44 c1 bd 8b ca aa bd
       -0.030267233 -0.08762568 -0.09436967 -0.08339413
0003e0 68 20 9e bc 63 d7 fb bd 7c 56 bb bd 71 0b bb bd
       -0.019302562 -0.12296941 -0.09147355 -0.09133042
0003f0 29 7a 5a bd eb e6 dd bd 55 48 de bd 60 e8 b3 bd
       -0.053339157 -0.1083506 -0.1085364 -0.087845564

patch_to_embedding.bias f4 [64]
000000 77 d1 95 bd 96 5d f3 bc c7 e2 58 3d e9 e5 a6 3c
       -0.07315343 -0.029707711 0.052950647 0.020373302
000010 a0 f4 92 3c 42 53 2c bb 7e fe d2 bc b6 2a fe bc
       0.017938912 -0.0026294743 -0.025756117 -0.031026226
000020 37 0c 42 3b f2 86 99 3c 6b c9 10 3d ba 5d 11 bd
       0.0029609331 0.018741105 0.035348337 -0.035489775
000030 4d b5 73 3c 3c b0 80 3d f0 1a dd bd a7 2b fa 3c
       0.014874768 0.06283614 -0.107961535 0.030538393
000040 1b 65 0b bd f7 c6 9f 3c 3f b1 8b bc 0d b4 d9 bd
       -0.03403197 0.019504054 -0.017052291 -0.10630045
000050 42 75 be 3c c8 93 52 bc 82 1a 0b 3e 89 56 09 3d
       0.023249272 -0.012852617 0.1358433 0.033529792
000060 e6 52 46 3b 63 6a d1 3d 3c 8e d2 bc 30 0d b3 3c
       0.0030261814 0.1022537 -0.025702588 0.021856874
000070 5f ae fe bd 23 08 1e bd d3 fc a7 ba ac 43 c9 bd
       -0.124356024 -0.03858198 -0.0012816436 -0.098273605
000080 9b 63 ae bd 36 c3 a5 3d 7b 0c 3d bd 61 d0 50 3c
       -0.08515092 0.08093874 -0.04615448 0.012744994
000090 e7 56 4a bd b9 7a fc bd c8 4d b1 bc 4d cc f8 3c
       -0.049399283 -0.12328095 -0.021643534 0.030370856
0000a0 55 52 54 3d c3 72 24 bd e2 20 64 bd e0 56 20 bd
       0.05183633 -0.040148508 -0.055695422 -0.03914535
0000b0 af a4 3d 3d 42 01 9f 3d 5f f6 f1 bc 68 e2 bc 3d
       0.046299633 0.07763912 -0.029536424 0.09222871
0000c0 ef 3a 93 3d 6b 89 61 bc 85 2c 2d 3d 36 9b 24 bc
       0.07188975 -0.013765673 0.042278785 -0.010046771
0000d0 f6 b0 9c bd dd b7 8b 3c fd e1 c3 bc de 67 dc 3b
       -0.0765094 0.017055446 -0.02391147 0.006726249
0000e0 04 e1 0f 3e 58 23 26 bd c4 d1 55 bc 59 8e 60 bd
       0.1405068 -0.04056105 -0.0130505 -0.054823253
0000f0 57 e9 92 3d 50 e3 56 bd 7a 2b 92 3d cd 2d 85 3c
       0.07173412 -0.052462876 0.07137199 0.016257191

transformer.layers.0.0.fn.norm.weight f4 [64]
000000 29 ea 6b 3f 4d 1d 7b 3f 10 b7 63 3f c1 19 60 3f
       0.92154175 0.98091584 0.88951206 0.875393
000010 59 07 6d 3f ea d0 68 3f 63 6b 7b 3f 5c 8a 67 3f
       0.92589337 0.9094378 0.98210734 0.90445495
000020 c9 19 68 3f 09 39 78 3f fe f7 7d 3f 4e 06 8b 3f
       0.90664345 0.9696203 0.9920653 1.0861299
000030 7c 90 95 3f 65 4f 8a 3f 7b ec 60 3f 71 76 60 3f
       1.1684718 1.0805479 0.8786084 0.8768073
000040 7b 4b 5f 3f 64 42 8d 3f 64 87 6d 3f 4a 79 7b 3f
       0.8722455 1.1035886 0.92784715 0.9823195
000050 9c 64 6c 3f 19 f7 47 3f c1 b1 6e 3f 85 68 88 3f
       0.9234102 0.78111416 0.9323998 1.0656897
000060 68 d3 70 3f 07 3d 74 3f ae 2c 6f 3f 6f 5b 70 3f
       0.9407258 0.9540562 0.9342755 0.93889517
000070 2e 7e 86 3f 21 79 86 3f 39 e6 6c 3f c1 6a 79 3f
       1.0507257 1.0505716 0.9253879 0.9742852
000080 3e f7 74 3f bc 52 78 3f f5 d5 55 3f fc cf 85 3f
       0.9568976 0.9700124 0.835296 1.0454097
000090 e0 2b 82 3f 93 9a 77 3f 8e 63 87 3f f1 e4 61 3f
       1.016964 0.96720237 1.0577257 0.8823996
0000a0 f0 26 6a 3f da 62 78 3f a2 0f 82 3f a6 7b 6b 3f
       0.91465664 0.97025836 1.0161021 0.9198555
0000b0 73 d5 66 3f 7d 5f 7c 3f a6 e2 59 3f 2f 96 81 3f
       0.9016945 0.98583204 0.85111463 1.0123957
0000c0 a7 3e 7b 3f c6 94 5d 3f c8 3d 8a 3f 97 37 6a 3f
       0.98142475 0.86555135 1.0800104 0.91491073
0000d0 0d f3 7a 3f 0f 0f 61 3f 18 d9 72 3f d2 46 61 3f
       0.98027116 0.879136 0.9486251 0.8799869
0000e0 70 53 82 3f 89 3e 8d 3f 99 ee 6e 3f 3d 20 6c 3f
       1.0181713 1.1034709 0.9333282 0.9223669
0000f0 39 67 69 3f 50 1a 59 3f 7a 84 65 3f cd 86 7d 3f
       0.9117313 0.84805775 0.8965527 0.99033815

transformer.layers.0.0.fn.norm.bias f4 [64]
000000 2f 76 90 bd 39 4b 86 bd a4 e5 ac bc 3c 99 e9 bb
       -0.07053792 -0.06557316 -0.021105595 -0.0071288627
000010 94 ad e2 3c 44 15 e6 3c 39 93 33 3d 2f bc 53 3d
       0.02767066 0.028086312 0.043841574 0.051693138
000020 a8 36 02 bd dd 1e 0e 3d 2c 22 e6 3c 81 08 17 3d
       -0.031790406 0.034697402 0.028092466 0.036873344
000030 52 94 ae 3c 1d 73 12 bd 27 e8 19 3d 49 b0 51 3c
       0.021310959 -0.03575431 0.037574913 0.012798377
000040 67 b1 52 bd c5 2b 56 bd 47 51 1e 3d 5e a2 28 bd
       -0.051438715 -0.052287836 0.03865173 -0.04117047
000050 c9 cf 8d 3d 1d fb e9 3c 96 50 95 ba 3f ba 43 3d
       0.069243975 0.028562123 -0.0011391814 0.04778504
000060 96 19 28 3d a9 e6 90 3c c3 fa fa 3c 88 ec b2 bd
       0.041040026 0.017688112 0.03063715 -0.08736521
000070 5b b6 47 bd 4e a3 20 bd 6f f7 5b 3d 16 17 9f bd
       -0.048757892 -0.03921824 0.053702768 -0.07768075
000080 3b 04 d5 3c c2 10 0f 3d 86 59 47 3d a0 c1 05 bc
       0.026002994 0.03492809 0.04866936 -0.00816384
000090 a3 c8 24 3a cd 8b d2 3c e2 cb 88 bc cf e2 cd 3c
       0.0006286001 0.025701428 -0.016698781 0.025132565
0000a0 98 62 aa 3d 7a bb 66 3c 30 d3 46 bd 8c ab 42 bd
       0.083195865 0.014082784 -0.048541248 -0.04752688
0000b0 22 74 d4 3c 39 f7 b6 3c a3 3a b9 bc cc a1 66 3d
       0.025934283 0.022334682 -0.022610968 0.056306645
0000c0 d0 5e 64 3d 83 ba 1c bd 9b 38 86 3d 47 68 35 bd
       0.055754483 -0.03826381 0.065537654 -0.0442889
0000d0 ab 38 41 3c a3 c4 19 bd bb 2c 50 bd db b7 2b bd
       0.011793296 -0.037541043 -0.05082391 -0.041923385
0000e0 ad 42 64 3d c9 22 5b bd 39 b7 c0 3c 03 69 f1 bc
       0.05572765 -0.05349997 0.023524867 -0.029469019
0000f0 80 b6 6f 3d 7d e5 af bc 86 ca 3c 3d 5c 3c 13 3d
       0.058523655 -0.021471733 0.04609158 0.035946235

transformer.layers.0.0.fn.fn.to_qkv.weight f4 [192, 64]
000000 d8 61 46 be 4b 2b 59 bd 45 b3 00 be a8 1d d8 3c
       -0.19373262 -0.053019803 -0.12568386 0.026381329
000010 10 98 a0 bc 5e 99 7e 3d 46 fa 6c bb 4a f5 5a 3e
       -0.019603759 0.06215798 -0.0036159917 0.21382633
000020 09 4e 69 3e de 01 a0 bc 22 0d 8b 3d d1 bc 7d 3e
       0.22783674 -0.01953214 0.06789614 0.24779059
000030 c2 72 53 3e 51 45 7f 3e 61 b2 37 be 62 b1 6a 3e
       0.20649245 0.24928786 -0.1793914 0.22919229
000040 15 fd c7 bd 2d 33 42 3d 47 67 04 3d 63 ff 14 be
       -0.097650684 0.047412086 0.032325055 -0.14550547
000050 75 b6 41 3d 95 7c e8 bd f0 6b 63 be f4 54 3a be
       0.047293145 -0.11351887 -0.22209144 -0.1819647
000060 81 04 19 bd 2f ef 51 be c4 24 1a be 00 28 fb bd
       -0.03735781 -0.20501398 -0.15053087 -0.12263489
000070 cf e1 d8 3d c3 8d 6f 3b e6 60 23 3e 89 03 6b bd
       0.105899446 0.0036553002 0.15954933 -0.05737642
000080 9a 62 63 3e 82 40 84 3d 70 42 30 3e 65 ac 14 bc
       0.22205582 0.064576164 0.17212844 -0.009074305
000090 1f e4 ad bd d1 cb df 3d 74 8c 08 3e 09 62 08 3e
       -0.08490776 0.10927547 0.13334829 0.13318647
0000a0 d8 0a 03 3c b3 eb 04 3e 3c e9 de bd 76 de 71 be
       0.007998191 0.12980537 -0.1088433 -0.23620018
0000b0 3b e6 d4 3c d4 05 df bd 07 08 6f 3e 83 b5 64 3d
       0.025988689 -0.108897835 0.23342906 0.055837166
0000c0 92 6e 2a 3e 36 63 45 be 56 92 05 3e 14 59 0a be
       0.16643742 -0.19276127 0.13044104 -0.13510543
0000d0 ea 1b 28 3e 6f f3 27 bd a3 fe fb 3c b2 d3 2d be
       0.16416898 -0.04100364 0.030761069 -0.16975287
0000e0 05 20 4b 3d 6c 7c b0 3c 0a 4a 3b 3e df ce ce 3a
       0.049591083 0.021543704 0.18289962 0.0015778205
0000f0 40 7a e3 3d 8c 54 6c be 87 e8 30 3e 6a 73 ff bd
       0.11107302 -0.23079127 0.17276202 -0.12473185
000100 98 f3 bc bc 0e 5d f4 3d 42 44 70 3d 04 5b 59 3c
       -0.023065373 0.11931811 0.058658846 0.013266329
000110 dd ae 07 bd 8c 71 86 bd a7 8f 09 3e 76 14 4c 3d
       -0.033125747 -0.06564626 0.13433705 0.0498242
000120 b7 6e 96 3c 93 85 d9 3d fb bb d9 3b 6c c5 80 3d
       0.01836334 0.106211804 0.0066447235 0.06287655
000130 4b 22 27 bb aa f2 c8 3d 0c bb d1 bc d8 5d 82 3d
       -0.0025502618 0.098119095 -0.025601886 0.063655555
000140 6d a3 65 3a df f6 17 3d c3 51 0c be 84 5f b0 3d
       0.0008760009 0.03710067 -0.13703065 0.08611968
000150 0c 9b 36 bd b3 94 9b bd 7c 58 09 3e 1e e1 c5 bd
       -0.044581458 -0.075967215 0.1341266 -0.09662078
000160 c3 e5 f9 3d 68 9c 7a 3d 3f d2 13 3c 22 a5 cc 3d
       0.12202027 0.061184317 0.009022295 0.09992434
000170 47 7b c1 bd f7 2c 87 ba 53 ba dd bd c7 51 b6 bd
       -0.094473414 -0.0010313083 -0.10826554 -0.089023165
000180 7d 7d ba 3d 61 a0 d4 3c b8 7d 70 3b 7e f5 fb 3d
       0.09105966 0.02595538 0.0036696028 0.12302683
000190 9f c0 ee bc 6d 38 18 3c 55 9f d9 3d c7 5c 07 be
       -0.029144583 0.009290797 0.10626093 -0.13218985
0001a0 6b 83 87 bd 86 8a e1 3b 9b 3c fb 3d cd be 51 3d
       -0.06616863 0.0068829684 0.12267419 0.051207352
0001b0 21 9c c1 3d d4 a3 65 3d 3b 79 7a 3d cd 6d 14 3a
       0.09453607 0.05606444 0.06115077 0.00056621135
0001c0 3a 0d 0c bd 0b 16 ff 3d 54 69 33 3d b5 c9 10 bb
       -0.0341923 0.12455376 0.04380162 -0.0022092883
0001d0 0f 32 68 3d 6a 68 d9 bd 79 2b 35 3d 4d 37 13 3d
       0.056688365 -0.106156185 0.044230912 0.03594141
0001e0 e9 08 b9 3d 33 64 ac 3d ed 48 85 3d f3 28 a2 3d
       0.090349026 0.08417549 0.0650805 0.07917967
0001f0 21 62 22 bd 6d 58 6e 3d 92 06 55 bd 2a e4 ca 3b
       -0.039644364 0.0581898 -0.05200822 0.00619175
000200 e6 fe c0 3d 16 3a cf 3c 3a e7 17 3e c6 e7 a8 bd
       0.09423618 0.025296252 0.148343 -0.08247332
000210 0c 69 89 3d e0 76 04 3d e6 55 65 bd a1 8f 83 3d
       0.06709489 0.03233993 -0.055990122 0.064238794
000220 2b b2 99 bd 7d e8 b7 3d b3 f4 5c 3c f7 30 72 3c
       -0.07504686 0.089798905 0.013486075 0.014782182
000230 17 e5 86 bc e2 08 b9 3c 8a ee 94 bc 6e f1 24 3d
       -0.01646666 0.022587243 -0.01818015 0.040269308
000240 13 29 9f bc f1 fb f2 bc 2e 58 a2 3d a9 3d 12 bd
       -0.019428765 -0.02966115 0.07926975 -0.035703335
000250 85 4a fb bd 9a f1 e3 3d 5f 96 04 3e 81 c1 16 3d
       -0.12270073 0.11130066 0.12947987 0.036805633
000260 01 eb 98 bd 96 57 ac 3c 48 bf 3c bd da f2 22 3e
       -0.074666984 0.021037858 -0.046080858 0.15912953
000270 2c e8 90 3d 4e 2f 30 bd 76 a4 ef bc c4 2e 1e bc
       0.07075533 -0.043013863 -0.029253226 -0.0096547045
000280 86 b0 d9 3c e6 e8 03 be 5c b0 88 bc e9 08 10 3e
       0.02657343 -0.12881812 -0.016685657 0.14065899
000290 b8 83 c5 bc 5b 55 05 be fc ee b4 bb ce 53 2d bd
       -0.02411066 -0.13020842 -0.005521653 -0.04231625
0002a0 70 9e 9d bd 1e b4 04 be 96 dd b1 3d c7 72 72 3d
       -0.07696235 -0.12959334 0.08684842 0.05919149
0002b0 f4 f7 af bb f3 97 54 bc 2c f6 0c be c8 c1 92 bb
       -0.0053701345 -0.012975681 -0.13765782 -0.004478667
0002c0 3d cc d8 bd 55 c4 15 3e d4 b2 14 be 04 46 43 bc
       -0.1058583 0.14625676 -0.14521343 -0.0119185485
0002d0 98 8b 61 bc c3 be 0c 3e 38 80 6b bd 57 32 9f 3d
       -0.013766192 0.13744645 -0.057495326 0.077732734
0002e0 98 23 bb bd 75 d4 6e 3d 1b e3 9f 3b bb b5 d8 3d
       -0.09137648 0.058308084 0.004879368 0.10581537
0002f0 e3 c8 82 3c 22 06 40 bd b5 dc d2 bd 9b fe e1 3d
       0.01596493 -0.04688085 -0.10296003 0.1103489
000300 cf 66 4c bd 13 9e 26 3e 03 1b d8 bc 3c 70 73 3c
       -0.049902733 0.16271238 -0.026380068 0.014858302
000310 4a 87 19 3d ff 81 57 bd a7 2f fb 3d ba 78 91 3b
       0.037482537 -0.05261421 0.12264948 0.0044394406
000320 d6 52 2c 3d ae 33 3f 3e 94 80 ec bc 72 d6 6c bd
       0.042071186 0.18672058 -0.028869905 -0.0578217
000330 7a 1c 6b bd f5 6a c2 bd 9f 51 1e 3e 71 ff 86 3d
       -0.057400204 -0.09493057 0.15460823 0.0659169
000340 8f 7d 7d bc e7 77 bc 3b 4b 7c 08 be c4 91 37 3e
       -0.01547183 0.005751598 -0.13328664 0.17926699
000350 22 42 07 3d 13 f8 32 3e 60 27 80 bb de 9a 29 3d
       0.033022054 0.17477445 -0.003910944 0.04140746
000360 eb e3 c1 3d 10 a2 10 3c 75 3b 28 3e fd 12 78 bd
       0.094673 0.008827701 0.16428931 -0.060564984
000370 9c 3b 5b 3d 18 30 1f bd 15 73 c8 bd 90 6f 52 bd
       0.053523645 -0.038864225 -0.09787575 -0.051375926
000380 f7 25 87 3d e6 ce a2 bd 1c 02 4b 3d 86 c2 ef 3d
       0.06599038 -0.07949619 0.04956256 0.11707024
000390 12 6a 5b 3d 59 53 ce 3c f5 dc e1 bd fb 27 9f bd
       0.053567953 0.025186228 -0.11028472 -0.077712975
0003a0 a7 5b 27 be e9 d5 13 be 12 d0 ce 3d da 28 2a 3d
       -0.16343556 -0.14437069 0.1009828 0.041542865
0003b0 20 20 f7 3d 25 d2 3e 3d ce 4c c3 bd e2 b1 27 be
       0.12066674 0.04658713 -0.09536134 -0.1637645
0003c0 e7 d0 89 3d 0c 49 f5 3d ed c6 1e be d0 a7 4a bd
       0.06729298 0.11976823 -0.15505572 -0.049476445
0003d0 2d 41 1e 3d f2 89 76 bd 4e 35 be 3d 05 3f 4c 3d
       0.038636375 -0.06019015 0.09287511 0.049864788
0003e0 4e dd ec 3c 28 29 c6 3d 9d 04 f6 bd 5a 80 c8 3a
       0.02891412 0.09675819 -0.12012599 0.0015297041
0003f0 03 d9 1b 3d ef 34 f8 3d e2 c9 7c bd 40 96 2c 3d
       0.038048755 0.12119471 -0.061715968 0.042135477

transformer.layers.0.0.fn.fn.to_out.weight f4 [64, 64]
000000 dd 7a 34 bd b9 1a 25 bc 46 41 07 3e 63 bf eb 3d
       -0.044062484 -0.010077172 0.13208494 0.115111135
000010 94 55 91 3d f6 c6 02 3d 1a 32 e1 bd b7 09 48 3c
       0.07096401 0.031928025 -0.10995884 0.012209347
000020 5c b5 35 3d ac 03 84 bc f8 c7 1c 3d 43 26 d3 bd
       0.04436241 -0.016115032 0.038276643 -0.10310032
000030 d9 3a 64 bd de 1d 6b bd 06 f8 a0 bc 09 b3 25 be
       -0.055720184 -0.05740153 -0.019649517 -0.16181578
000040 59 8c a2 bc dc 50 ba 3d ac 4e 58 bd 85 b3 6d 3d
       -0.019842314 0.09097454 -0.052809402 0.05803253
000050 cc a2 97 3c e4 6f 79 3c 3c b2 d0 bc 74 7f 7b bd
       0.018510245 0.015224431 -0.025475614 -0.061400846
000060 51 ad 95 3d c2 a2 10 bd 1d 67 23 3d a4 8b 89 bd
       0.07308448 -0.035311468 0.03989326 -0.067160875
000070 70 f7 ad 3c 8d c0 b7 bd 35 9b 9a bd 57 02 88 3d
       0.021236151 -0.08972273 -0.07549135 0.06641071
000080 83 5d 37 bc 73 1c be bd 24 42 25 ba ee 9d ab bd
       -0.0111917285 -0.0928277 -0.0006304106 -0.08379732
000090 98 27 3e bd be 13 28 3e a4 76 94 3b ea c7 9e bd
       -0.04642448 0.16413781 0.0045307446 -0.07752974
0000a0 53 e6 ec bd db 76 1a 3d 4c 96 3d bd 19 a4 90 be
       -0.11567368 0.037711006 -0.046285912 -0.28250197
0000b0 1a 45 cc 3d 7d 77 28 bd cc d8 74 bd 9d 9f b5 3c
       0.099741176 -0.041129578 -0.059777066 0.022170836
0000c0 28 93 9d ba d4 01 8f 3d 88 7e 80 3c 02 f6 af bd
       -0.0012022005 0.069827706 0.015685335 -0.08591844
0000d0 10 db 9b bd c4 92 e9 3d 2c 46 24 bd 00 a3 89 bd
       -0.07610142 0.114049464 -0.040105984 -0.06720543
0000e0 15 6d 8c bd 0d ec 13 be 80 30 31 3e 12 79 18 be
       -0.06856743 -0.14445515 0.17303658 -0.14889935
0000f0 a0 45 17 3d 40 f2 19 be 11 f0 37 3d 23 02 d6 bd
       0.036931634 -0.15033817 0.04490668 -0.10449626
000100 3d 51 bb bc ec 96 17 be 4e e7 19 3e c6 08 7e 3d
       -0.022865886 -0.14803666 0.15029642 0.062020086
000110 e1 3a d0 3d 14 06 7a 3d e6 59 b5 bc f4 f1 51 3e
       0.1016748 0.061040953 -0.022137593 0.20502454
000120 22 b6 bc 3d 6c 38 18 3e 29 4f 81 bc 13 55 5e bd
       0.092144266 0.14865273 -0.015784817 -0.05428035
000130 c2 e5 af bd 0b dd 33 3c 1b 40 c3 bd e0 c7 1b be
       -0.08588745 0.010977994 -0.095337115 -0.15212965
000140 46 a0 81 3d cc ca 99 bd af 89 e8 bc 1a 66 37 3d
       0.06329398 -0.075093836 -0.028385965 0.044775106
000150 69 ff 81 bd de 65 1f bd c6 32 eb ba 61 f9 f7 bd
       -0.06347544 -0.038915507 -0.0017944209 -0.12108112
000160 d9 cc 93 3d 7f 13 15 be e2 97 68 bd bc 03 4d 3d
       0.07216806 -0.14558218 -0.05678547 0.05005239
000170 18 ce 05 be b8 76 ec bc 80 7b bd 3d 89 2c 45 bd
       -0.130669 -0.028865203 0.092520714 -0.048138175
000180 ae 2a 5d 3d 29 f2 a4 3d 64 47 0b bd 2f 89 dc bb
       0.05399578 0.08054001 -0.03400363 -0.0067302207
000190 cb 33 85 3d 14 ae eb 3d ef 2e 09 be a0 5f 2d be
       0.06504019 0.11507812 -0.1339681 -0.1693101
0001a0 4d 58 ec bb 4a 64 50 bd c0 09 93 3b 8f 1a c8 3c
       -0.0072126747 -0.050876893 0.0044872463 0.024426727
0001b0 b7 de c7 3d f5 0b 55 3d 71 f2 b9 3d 8a e9 37 bd
       0.09759276 0.052013356 0.09079445 -0.044900455
0001c0 0e 43 67 3d 70 1a 10 3e 2e 17 8f bd f9 ee 1e bd
       0.056460433 0.14072585 -0.06986843 -0.03880212
0001d0 29 c0 71 bd 7f 11 95 3d 05 e9 ce bd 63 17 05 be
       -0.05902115 0.07278728 -0.10103039 -0.12997203
0001e0 9d 45 01 3e 11 d4 35 bd 85 af 16 bd b4 d8 37 bc
       0.12624212 -0.044391695 -0.036788482 -0.0112211
0001f0 d3 75 9d 3c 8d b1 f1 bd 28 01 05 be 68 f6 85 3d
       0.019221222 -0.11801443 -0.12988722 0.06541139
000200 cd 37 11 bd 4d af 0b 3e de dc 07 3d 9a 90 63 bc
       -0.035453606 0.1364109 0.03316962 -0.013889456
000210 f9 48 2c 3e 6b cc fb 3c c2 5b 85 bd 1d eb 17 3e
       0.16824712 0.030737123 -0.06511642 0.14835782
000220 78 9f 07 3b 9a c2 28 3e 3f f0 2b 3d 3b fd 18 be
       0.0020694416 0.16480485 0.041977163 -0.1494035
000230 a9 23 8f 3d 74 37 e7 3c 50 4b 05 bc 89 d4 e2 bd
       0.069892235 0.028224684 -0.008135632 -0.11075694
000240 5c 25 5f bd 36 47 32 bd cf 6a 5a 3d 4a 12 1e 3e
       -0.054478988 -0.043524943 0.053324517 0.15436664
000250 c0 c5 d4 3d 56 a8 1e 3e 42 5f 04 be 60 a7 0e be
       0.1038928 0.15493903 -0.12926963 -0.13931036
000260 a2 fb cf 3d 4a f3 d7 3d 7d 68 37 bc f5 46 47 bd
       0.10155417 0.105444506 -0.011194346 -0.048651654
000270 d3 60 22 be e9 dd 0a 3d 94 16 22 3d df 0b 36 3d
       -0.15857248 0.033903036 0.039572313 0.044444915
000280 a4 8f 1a bd 52 76 94 3d 2c b7 97 3d 66 25 37 3d
       -0.037734643 0.0724913 0.07407984 0.0447134
000290 c2 71 d4 bd 86 f5 0d 3d 70 9a c3 bd 8d 0a 94 3b
       -0.1037326 0.034657978 -0.09550941 0.0045178593
0002a0 e6 96 a5 bd ee 6d 3e be eb a8 d7 3d 10 40 e0 3c
       -0.08085422 -0.18596622 0.105302654 0.027374297
0002b0 17 b8 d1 3c f3 e9 a5 3d 8a e3 d0 bd d4 fa 4d 3d
       0.025600476 0.08101263 -0.1019965 0.050288036
0002c0 bf 17 bf 3c d7 a6 3b 3d b9 77 2f bd 39 ae a4 bd
       0.023326753 0.045813408 -0.042838786 -0.08041043
0002d0 73 2c 33 3e 46 41 4b bd 50 6d be 3d 7e ea fd bd
       0.17497425 -0.049622796 0.092981935 -0.123982415
0002e0 1e 38 33 3e eb e1 fb bd bb c4 23 bd 82 13 52 3d
       0.17501876 -0.1229895 -0.03998254 0.051288135
0002f0 3f 9b 48 be b2 1e 75 3d 3f 4c 64 3b 30 75 17 be
       -0.19590472 0.059843726 0.0034835485 -0.14790797
000300 64 64 a6 bd e7 85 04 3e 6e c8 4b 3d 7f 31 12 3e
       -0.08124617 0.12941705 0.04975169 0.14276694
000310 c1 f3 0f 3d aa 41 1a bc 7b 1b 1f 3e de f3 b4 bd
       0.03514457 -0.00941507 0.15537827 -0.088355765
000320 8f 55 65 bb 95 5e b2 bd 4e 5a 0a bc 2b fc 14 3d
       -0.0034993624 -0.08709446 -0.008444382 0.0363733
000330 c3 13 64 be 44 23 cb ba 37 54 0b 3e 71 43 97 bd
       -0.22273163 -0.0015498181 0.13606344 -0.0738591
000340 33 83 0a be 86 c4 f6 3c 6e ee 46 bd 2c 45 9e bd
       -0.13526611 0.030123007 -0.048567228 -0.07728037
000350 5d 9e bc bd 73 4c e0 b9 38 65 9d 3c be 43 27 bd
       -0.09209893 -0.00042781568 0.019213304 -0.04083609
000360 f0 ac 4b 3d 91 4b 2d 3e a7 6e 4f bd 46 b1 8d 3d
       0.049725473 0.16923358 -0.050642636 0.06918578
000370 b9 02 2c 3d e7 3a 2e 3d d7 55 9d 3d 99 ac d0 bd
       0.041994784 0.042536642 0.07682388 -0.101891704
000380 5f 49 01 be 31 6f d3 bd 56 65 f7 bd 03 91 cb 3c
       -0.12625645 -0.103239425 -0.12079875 0.02484942
000390 d4 12 35 3e 05 c8 dd bd 9c c2 dc bd b3 ec f4 3d
       0.17682964 -0.10829166 -0.10779306 0.11959209
0003a0 f7 31 81 bd fc d4 3f 3a eb e7 b2 bc 42 fc 0f bd
       -0.06308358 0.0007317809 -0.021839103 -0.03515268
0003b0 7c dd 20 3c d3 61 11 3e b1 e8 d3 bd 4a 1a 7e 3d
       0.009818431 0.14197473 -0.10347117 0.06203679
0003c0 6e 54 91 bd 70 ec f7 bd 29 51 21 3e 64 27 03 be
       -0.07096182 -0.12105644 0.15753616 -0.12807995
0003d0 b3 ee a5 3d be 67 27 be 24 bc 01 be 42 ed 58 3d
       0.08102169 -0.16348168 -0.12669426 0.05296064
0003e0 97 64 e0 bc a6 9b 86 bd 70 0a 38 3d 32 1a ea 3d
       -0.027391715 -0.06572656 0.04493183 0.114307776
0003f0 23 98 07 3e 02 4a 8e 3d 57 87 3d 3e 11 54 93 3d
       0.1324163 0.069477096 0.1850866 0.07193769

transformer.layers.0.0.fn.fn.to_out.bias f4 [64]
000000 cd fc b9 bd 75 9d f1 bd af d1 fa 3c 7a 78 81 3c
       -0.09081421 -0.11797611 0.030617563 0.015804518
000010 bd af d9 bc b5 2e 24 bd 59 60 c3 bd 7a 01 93 3d
       -0.026573056 -0.040083606 -0.09539861 0.07178016
000020 8a 39 d4 3c 2c 8d 08 be 43 6a 05 3e 52 ad 5b bb
       0.025906343 -0.13335103 0.13028817 -0.0033520055
000030 90 a9 db 3d 96 16 55 bd 66 66 13 3d f1 28 2f 3e
       0.10725701 -0.052023493 0.035986327 0.17105462
000040 72 38 d5 bd 8f 09 09 3e c5 3b 8d 3c 8c 02 b1 bd
       -0.10411157 0.13382553 0.017240414 -0.08643064
000050 70 93 ed 3d 11 95 08 3d 1e 01 cd bd e9 2e 39 bd
       0.11600387 0.033345286 -0.10009979 -0.045210753
000060 b6 c9 16 be e9 d8 9d bd 6e 43 ad 3d 44 73 cc 3d
       -0.14725384 -0.07707388 0.08460127 0.09982923
000070 dd 36 2b 3d 28 ba 26 3e bb e8 a4 3b 02 12 1e be
       0.04180037 0.1628195 0.0050326264 -0.15436557
000080 6f d8 1c 3d a7 92 1c bd 39 21 c1 3d 08 5c 10 be
       0.038292345 -0.038225796 0.09430165 -0.14097607
000090 df 79 12 3d 61 57 1f 3d ee e2 0e 3e 2a 04 2e 3d
       0.035760757 0.03890169 0.13953754 0.04248444
0000a0 4c 5b 8b 3d c6 81 93 bc d6 42 be 3d 8d d9 1a 3c
       0.06804523 -0.018006217 0.09290092 0.009451282
0000b0 27 c0 a3 3b 52 18 65 3d 63 72 38 bc d1 9f 11 3e
       0.0049972716 0.055931397 -0.011257741 0.14221121
0000c0 42 27 1b 3e b9 e5 76 bd ef b1 0e 3e 73 4f 14 bd
       0.15151694 -0.060277674 0.13935064 -0.03620858
0000d0 12 86 93 3d 2b c6 93 3b a3 71 ed bd a9 a1 b5 3c
       0.07203306 0.0045097074 -0.1159394 0.022171812
0000e0 77 01 ee 3d f9 10 76 ba 97 29 1a 3e 22 27 0c be
       0.11621373 -0.00093866844 0.15054928 -0.13686803
0000f0 af 5e 0e 3e 6c 74 de 3d a5 3e 90 3d 8b 7a 92 3d
       0.13903306 0.108620495 0.070431985 0.071522795

transformer.layers.0.1.fn.norm.weight f4 [64]
000000 23 aa 6b 3f a2 e3 84 3f 7e 9b 72 3f 4a 56 6e 3f
       0.92056483 1.0381968 0.9476851 0.93100417
000010 7d 5c 76 3f 75 ca 7c 3f d8 ce 72 3f 73 7f 6d 3f
       0.96234876 0.98746425 0.9484687 0.927726
000020 e5 c9 78 3f 82 af 7e 3f b0 ac 7d 3f 68 f0 83 3f
       0.97183067 0.99486554 0.99091625 1.0307741
000030 cc 43 7d 3f 91 e5 67 3f 23 fc 75 3f 2a 0c 59 3f
       0.98931575 0.90584666 0.96087855 0.84784186
000040 dd cd 78 3f e3 b5 86 3f 57 9a 6b 3f a7 bb 63 3f
       0.9718912 1.0524257 0.9203238 0.8895821
000050 87 96 6b 3f a8 04 79 3f 98 50 79 3f e4 a3 80 3f
       0.9202656 0.9727273 0.973886 1.0050015
000060 bc 3e 6d 3f e4 7d 83 3f 65 f6 67 3f 0f dc 61 3f
       0.9267385 1.0272794 0.90610343 0.8822641
000070 5b 3a 75 3f 5d 78 70 3f 15 e5 66 3f fa 9c 84 3f
       0.9579217 0.9393366 0.901933 1.0360405
000080 9d 7c 6b 3f 08 bc 86 3f 30 c2 72 3f 8a 06 59 3f
       0.9198702 1.0526133 0.94827557 0.847756
000090 42 6a 7c 3f a2 5d 6c 3f 5a e2 6e 3f 36 16 7c 3f
       0.98599637 0.9233037 0.93314135 0.9847139
0000a0 a6 e5 63 3f 5e 80 67 3f 20 8c 70 3f 26 9c 67 3f
       0.8902229 0.9043025 0.93963814 0.9047264
0000b0 d3 9e 77 3f 5a 4f 68 3f 77 43 70 3f fc 82 73 3f
       0.9672672 0.9074608 0.93852943 0.9512174
0000c0 5f 6c 79 3f 41 49 78 3f 21 f7 87 3f cd ec 71 3f
       0.97430986 0.96986777 1.0622293 0.94501954
0000d0 72 7b 86 3f bd f3 77 3f 1b 61 86 3f fe dd 6a 3f
       1.0506423 0.9685629 1.0498384 0.91744983
0000e0 25 d9 78 3f ef 11 67 3f 3a 6f 87 3f 95 02 7b 3f
       0.97206336 0.9026174 1.0580819 0.98050815
0000f0 25 8e 6b 3f 49 13 68 3f fe bb 89 3f da cb 66 3f
       0.9201377 0.90654427 1.0760496 0.901548

transformer.layers.0.1.fn.norm.bias f4 [64]
000000 72 99 9f bd 31 5b 86 bd 42 c7 85 3d 9b 10 82 3d
       -0.07792939 -0.06560362 0.06532146 0.063508235
000010 15 bb b2 bd 2d d3 d0 3c c3 f9 15 bd ab ef 90 3d
       -0.08727089 0.025491321 -0.036615144 0.07076963
000020 c9 ee 99 3d 4c 20 99 bb 7e a7 ce 3b f6 a1 29 3d
       0.07516248 -0.0046730395 0.0063065877 0.041414224
000030 09 c8 b0 3d 3d 88 cb 3d 0f 0e 04 bd a3 92 5b bd
       0.08631904 0.09938095 -0.03223997 -0.05360664
000040 82 ee ef bc ac c8 5b bd 61 e8 a4 3d cb 62 e1 bd
       -0.029288534 -0.053658172 0.08052135 -0.110051714
000050 56 97 ac 3d 8f e1 ba bc c9 0c f4 bc 32 a1 80 bc
       0.084273025 -0.022812633 -0.029791253 -0.015701864
000060 ae 75 a0 bd bd 3b 2d bd 0a 33 be bd ea 84 e6 bd
       -0.078349456 -0.0422933 -0.09287079 -0.1125582
000070 33 c3 31 3d 8a b8 89 3d 1d 3f cb 3d 8d 9d 17 bd
       0.043399047 0.06724651 0.09924147 -0.037015487
000080 ae ba 1d 3c a6 4f bc bc 72 dc 8d 3d 64 79 fe bd
       0.009627027 -0.022987198 0.06926812 -0.12425497
000090 69 94 ab bd 30 21 9e 3d cc d7 82 3d db 25 7f 3d
       -0.08377916 0.07721174 0.06388816 0.06229196
0000a0 f3 1a e2 3d 49 5a c7 3d b1 b0 95 bd f7 1f c8 bd
       0.110402964 0.097340174 -0.07309092 -0.09771722
0000b0 29 78 8c bd 19 d1 b6 bd db 40 8b 3d 41 7b 53 3d
       -0.06858856 -0.08926601 0.067994796 0.051631216
0000c0 a1 6c b8 3c 8f d1 b2 bd 5b d1 2d 3c 08 81 a1 bd
       0.022512736 -0.087313764 0.010608996 -0.07885939
0000d0 38 e4 b5 bb 58 22 9d bd bb e9 13 3d f1 ab ad bd
       -0.0055508874 -0.07672566 0.036111575 -0.08480061
0000e0 f4 1f d8 3c 2e 70 c2 bd 3a 0e 76 3c ac f7 a7 bd
       0.026382424 -0.09494053 0.01501804 -0.082015365
0000f0 18 ab e0 bd 43 d1 b3 bd ff 88 bb 3c de 9c dc bd
       -0.109701335 -0.08780148 0.022892473 -0.107721075

transformer.layers.0.1.fn.fn.net.0.weight f4 [128, 64]
000000 7c e7 f3 3d bd 6f b0 bd d6 61 5a bc 8a f2 ec bd
       0.119093865 -0.086150624 -0.01332899 -0.11569698
000010 d4 56 42 3d 13 ae cd bd 44 eb e4 bd 25 9c 1d 3d
       0.047446087 -0.10042968 -0.11177686 0.03847899
000020 83 8c 51 bd d0 8d 1e 3e f3 d4 6b bd cf de 49 bd
       -0.051159393 0.15483785 -0.05757613 -0.049284752
000030 a2 65 6c 3d 52 55 5d bc c7 ad ac bd 5a c0 24 bd
       0.057714112 -0.0135091115 -0.08431583 -0.040222503
000040 ba 59 e3 bd 0b f6 fb 3b 99 88 14 be e6 1f 18 3e
       -0.11101098 0.0076892427 -0.14505233 0.14855918
000050 3c e3 79 bd 5d 7a b9 bc b2 91 d2 bc 82 ad 8d bd
       -0.061007723 -0.022641355 -0.025704239 -0.069178596
000060 ba c1 ca 3b de 65 9b bd 71 6f 42 3d 67 7c 33 bd
       0.006187645 -0.07587789 0.04746956 -0.04381981
000070 72 68 1e 3e 17 39 3d 3c 8a 6a 87 bd 77 0c bc 3c
       0.1546953 0.011549256 -0.066121176 0.022955162
000080 59 2a f9 bd 2c 80 42 3e a8 75 89 bd f8 5c b8 bc
       -0.1216628 0.18994206 -0.06711894 -0.022505268
000090 99 5d a0 bd 73 b8 ab bd 00 bb 32 be 21 f8 9a 3e
       -0.07830352 -0.0838479 -0.17454147 0.30267432
0000a0 7b 22 bf 3d 00 35 87 bd 19 5a e1 3d 13 6b 4b bd
       0.093327485 -0.06601906 0.11003513 -0.04966266
0000b0 b0 73 30 3d 62 18 e6 3b e1 a9 02 bc ce da 5a 3d
       0.04307908 0.0070219496 -0.007975073 0.053431325
0000c0 91 cc 37 bb 45 07 0b be 2c 11 2c 3d 0f 3f c9 bd
       -0.0028045515 -0.13576992 0.042008564 -0.098264806
0000d0 34 e9 42 3e 89 c1 a7 bd c6 77 ea 3d 68 c0 44 3d
       0.19034272 -0.08191211 0.11448626 0.048035055
0000e0 a9 e8 9b bd e4 09 8c bc 49 ab b1 bd 18 b0 fb bc
       -0.07612736 -0.01709456 -0.08675248 -0.030723616
0000f0 c4 91 62 3e f2 f1 09 bd 3a 6b 8b 3d 2a 4f 7b bc
       0.22125918 -0.033678003 0.06807561 -0.015338698
000100 25 fc 3a be 05 13 d4 3d 7d 0e e1 bc a4 a8 ad 3d
       -0.18260248 0.1035519 -0.027472729 0.08479431
000110 1c 30 1d 3d 55 c4 10 3e 13 43 e2 bd 75 b7 84 bc
       0.03837596 0.14137395 -0.1104795 -0.01620076
000120 a2 d8 9c 3d 3f 2e 93 bd 68 40 3f 3e 2d d7 ae 3d
       0.07658507 -0.07186555 0.18676913 0.08537135
000130 59 8a 38 bd 3d 45 38 3e 85 aa 02 bd 1d 1e 82 bc
       -0.045053814 0.17995162 -0.0319009 -0.0158835
000140 c3 64 04 bd e7 ad e3 3d e1 f6 fc 3d 72 c3 0d 3d
       -0.032322656 0.111171536 0.12351776 0.03461022
000150 3a 84 9d 3d bb 49 16 bd 6b ce 2c be 23 2f 1f 3d
       0.07691236 -0.03669141 -0.16875617 0.038863312
000160 6f b5 28 3d f3 cb 18 be 40 ef a6 bc 49 ca 2f be
       0.041188654 -0.1492155 -0.020377755 -0.1716701
000170 87 ea 8d bd 10 2e d6 3d 44 07 da 3d 6b 18 7d 3d
       -0.06929498 0.104580045 0.10645917 0.061790865
000180 cd 56 73 3d df 1c eb 3d 49 69 ba 3d d0 2c ad bd
       0.05940895 0.11480116 0.09102113 -0.08455813
000190 1c f7 15 3b 44 6d 54 3d 12 be 2b bd bf 23 a2 3d
       0.0022882884 0.051862016 -0.041929312 0.07916974
0001a0 02 ed 03 3d 01 a7 52 bd df 6c bf bd a2 59 92 bd
       0.03220845 -0.0514288 -0.093469374 -0.07146002
0001b0 d8 c4 2c bc 03 9a 34 be e4 f3 1b bd c8 0f b2 3d
       -0.010544978 -0.17636876 -0.03807439 0.08694416
0001c0 fa 51 1a 3e 70 4d 1c bd 39 41 24 3d 29 6c dc 3c
       0.15070334 -0.038159788 0.040101264 0.026907044
0001d0 f9 bb 90 ba 55 f9 81 bc 83 ec 10 be 83 97 0f be
       -0.0011042348 -0.015865961 -0.14152722 -0.14022641
0001e0 5a 6a 2c 3e 03 ca 35 be 2b 45 55 bd a2 eb 42 bc
       0.16837445 -0.17752843 -0.052067917 -0.011897
0001f0 7d 70 eb bd ed bc 3a be ae db 30 3e 9f ee 92 bd
       -0.11496065 -0.18236132 0.17271301 -0.071744196
000200 d7 8d ce 3d e0 34 f3 bc 23 3c 45 bb 1c 7e 3a bd
       0.100856476 -0.029688299 -0.0030095659 -0.045530424
000210 b9 62 77 3d bc 78 8e 3c 87 17 05 3c a8 69 36 3c
       0.060396884 0.017391555 0.008123285 0.011133589
000220 7c ee 7f bc de 9c 81 bd 71 b7 03 3c 9f d7 e2 bd
       -0.015620824 -0.06328748 0.008039341 -0.11076283
000230 06 37 d7 bd 98 52 81 bb 6a db d9 bd 6c f2 40 bc
       -0.10508542 -0.0039466135 -0.10637553 -0.011776548
000240 26 c2 d1 3d ee b3 94 bd fc 42 e0 3d d9 8b 9c 3b
       0.10242109 -0.07260881 0.10950276 0.0047774133
000250 ab d7 b3 bd f8 df 04 3d f6 53 fb 3d 5e 8f 35 3e
       -0.0878137 0.032440156 0.12271874 0.17730471
000260 6d fe 31 3d 9c 8e af bc 78 28 f5 bd c2 7a 34 bd
       0.04345553 -0.021430306 -0.119706094 -0.044062383
000270 e0 5c bf bd d1 82 f1 bd 63 c5 bc 3d f4 55 5b 3e
       -0.093438864 -0.117925294 0.09217336 0.21419507
000280 7d f8 1b 3e 05 09 2b bd 09 2a 8f bc 33 ef 01 3d
       0.1523151 -0.04175665 -0.017476099 0.03172226
000290 da 1a 18 3d f5 6d f7 bd c1 a8 93 3d f9 33 bf bc
       0.037134983 -0.120815195 0.07209922 -0.023340212
0002a0 29 99 03 3d 8b 5d a3 3c 79 a9 dd bd c4 33 5b 3d
       0.032128487 0.019942066 -0.1082334 0.053516164
0002b0 d8 f9 3f 3d 47 c2 b8 bd 6e 60 92 3d f7 ed b8 bd
       0.04686913 -0.090214305 0.07147299 -0.09029763
0002c0 9c 87 e2 3b f1 97 26 3a c8 9a 4c be 35 e2 1e 3d
       0.0069131386 0.00063550385 -0.1998092 0.038789947
0002d0 80 40 ba bd c3 8c ef 3c 6b 90 4a bd 38 b7 a9 bd
       -0.09094334 0.029241925 -0.049454134 -0.08286899
0002e0 ae c4 17 bd 54 3b 39 bd 11 db 55 bd 32 37 c1 3d
       -0.037052803 -0.045222595 -0.05221087 0.09434356
0002f0 e4 b6 a4 3d b7 3f 96 3d 36 d9 64 be 11 2c ea bc
       0.08042696 0.073363714 -0.22348484 -0.028585466
000300 21 fb 4c 3d d0 a4 76 bd 34 34 27 3e 1d 23 bf 3d
       0.050044183 -0.06021577 0.16328508 0.09332869
000310 69 2e f6 bc 28 35 39 bb 2a ed cb 3d 58 e1 83 bd
       -0.030051427 -0.0028260443 0.09957345 -0.06439465
000320 ab 5f b9 bd 28 74 95 bd 12 ac 20 3e f5 6f 42 bd
       -0.0905145 -0.07297546 0.1569064 -0.04747005
000330 ef fc 04 be a8 d7 d1 bc 3a df 5d bc cf 2a 13 3c
       -0.12987112 -0.025615528 -0.013541991 0.008982374
000340 09 2f 71 bd 2b f7 8c bd de 57 96 3d fe 72 57 bc
       -0.058882747 -0.06883081 0.07340978 -0.013149975
000350 22 71 a4 bb 0a ee d1 bd e3 03 51 bc aa bd c2 bc
       -0.0050183693 -0.102504805 -0.012757274 -0.02377208
000360 a6 06 28 3d 7b 42 d1 3d 46 fe 1b be 9f 69 dd bc
       0.041021965 0.10217758 -0.15233716 -0.027027903
000370 a0 6b 0f be 62 5a c0 3c 0c c0 5e 3d 24 8d 95 3d
       -0.140059 0.023480598 0.05438237 0.07302311
000380 fb fa 4c 3e cd 4b f4 bd 26 31 86 3d e4 bc 14 be
       0.20017616 -0.1192852 0.06552343 -0.14525181
000390 ca 20 53 bd 4a e9 06 3e 40 8a dc 3d c5 8a 7d 3d
       -0.051544942 0.1317493 0.107685566 0.06189992
0003a0 1a 9a 24 3e aa 53 02 bd 97 ae da 3c f2 1b a1 bc
       0.1607441 -0.03181807 0.026694579 -0.019666646
0003b0 06 47 a2 bd 04 9b a3 bd 24 71 e2 3d d7 64 bc 3d
       -0.07923703 -0.07988551 0.11056736 0.09198921
0003c0 09 04 d4 3d fe 72 28 3e b4 13 e6 bb e1 fe e5 bd
       0.10352332 0.16450116 -0.0070213918 -0.11230255
0003d0 e0 83 b1 bc 0d 06 45 3d a8 e1 f1 bd 5b 51 17 be
       -0.021669328 0.048101474 -0.11810619 -0.14777128
0003e0 90 d3 3e 3e 55 92 56 be 2c 54 72 bd ea 23 3e bd
       0.18635392 -0.20954259 -0.059162304 -0.04642097
0003f0 4c 74 c8 bd 12 6a ea bd ac 65 30 be 88 ae f5 bd
       -0.09787807 -0.114460126 -0.17226285 -0.1199618

transformer.layers.0.1.fn.fn.net.0.bias f4 [128]
000000 a6 9f ba 3c f0 5a b5 bd f8 3c a4 bb fd 34 30 be
       0.022781204 -0.088552356 -0.005012151 -0.17207713
000010 48 a8 d3 3d 9a fc 3e bd 68 b5 d0 bd bd 27 6d 3d
       0.103348315 -0.04662762 -0.101908505 0.057899226
000020 5d 31 d0 bd 19 a5 e9 3c 98 1f 25 bd 8c 4e 60 be
       -0.10165665 0.028521108 -0.040313333 -0.21904963
000030 23 a4 47 bd 84 56 97 3c f6 7b 91 bc d5 d3 90 3d
       -0.048740517 0.018473871 -0.017759304 0.07071654
000040 92 c8 9b bd e0 97 3d 3d 0d ea f6 3c 8e 2d 2d 3d
       -0.07606615 0.046287417 0.030140901 0.042279772
000050 2b 58 99 bd 86 e8 80 bd 08 7f 49 bd 68 94 d2 bd
       -0.0748752 -0.0629435 -0.049193412 -0.102822125
000060 93 1e 4c bd 5d cd 3f bb da a3 4a bd 93 64 18 be
       -0.049833845 -0.0029266693 -0.049472667 -0.14882116
000070 a2 11 05 3e 3f 29 ad bd af 9d ad bd 5e 3e 05 3e
       0.12995008 -0.08455133 -0.084773414 0.13012072
000080 25 54 8a 3d ee 80 d5 bd d0 f9 a0 bb 0d 74 4a 3c
       0.067543305 -0.10424982 -0.0049125925 0.01235677
000090 66 72 2e 3c 55 16 25 3d 85 1f 67 3c d7 ad 78 bd
       0.010647392 0.0403045 0.014106636 -0.06071266
0000a0 4f 81 fe bd 30 24 27 bd 12 7b db 3d 4b dc 5b 3c
       -0.124270074 -0.040805995 0.10716833 0.013419221
0000b0 4a f2 05 3d 0e fc cb 3d 37 c1 52 bc da 04 6c 3d
       0.032701768 0.09960185 -0.012863449 0.057621814
0000c0 e7 da 4a 3b 0d 4d a7 3d df 4c 2b be 43 d8 cd 3d
       0.003095323 0.08168993 -0.16728543 0.10051014
0000d0 12 b1 1d 3c ad 9b e3 bd 3a b3 5b bd d6 d2 ee 3c
       0.009624736 -0.11113677 -0.05363772 0.029153269
0000e0 1b d7 a9 3d 26 18 be bd c4 e2 2e 3d 20 a6 a1 bd
       0.08292981 -0.0928195 0.04269673 -0.07893014
0000f0 21 66 54 bd 6c 03 1f bd 6d 4a c9 bd a2 7d 17 be
       -0.05185521 -0.038821623 -0.09828649 -0.14794019
000100 b6 1e 8b bc 6d 2c 3a be a1 d8 c9 bd 82 3c d7 3d
       -0.016982418 -0.1818101 -0.09855772 0.10509588
000110 2d 5b a9 bd 68 5c 36 3b a7 62 ba bd 2f 65 1a bb
       -0.082693435 0.0027826075 -0.09100848 -0.0023558845
000120 8d 8d ac 3d db b8 04 be 4e 77 28 bb d5 f3 87 3c
       0.08425436 -0.12961142 -0.0025705877 0.01659576
000130 5e 4f 16 3e 1f 7e db bd 39 41 b4 bb 0b 3e 8e 3d
       0.14678714 -0.10717415 -0.005500939 0.069454275
000140 8f 57 02 3b 43 b0 87 bd 02 a5 8c bd c9 e9 d0 bd
       0.0019888615 -0.06625416 -0.0686741 -0.10200841
000150 52 29 91 bd 86 f5 5a 3d 2a f4 83 bc 38 b4 fa 3d
       -0.07087959 0.053456806 -0.016107637 0.12241405
000160 c7 4b 03 3d 61 8d 2f be 02 43 fe 3c f6 16 a4 bc
       0.03205469 -0.17143776 0.031037811 -0.02003048
000170 a8 8c f0 bb 5f 02 65 bd 8d df 50 bd d6 b5 1b bd
       -0.0073409863 -0.055910464 -0.050994445 -0.03801521
000180 f2 a4 c4 bc cf 4d f7 bc ef 9d 2e be 91 4b 33 be
       -0.024004433 -0.03018847 -0.17052434 -0.17509295
000190 c7 9c 08 be 7a 6a 8c bd a3 e5 99 3d 02 3c 98 3d
       -0.13341056 -0.06856246 0.07514503 0.074333206
0001a0 89 66 95 bc 80 d4 4a 3d 25 53 0f bd d8 48 ee bd
       -0.01823737 0.049519062 -0.034991402 -0.116349876
0001b0 0a e3 aa 3d 50 d0 8c bc 87 d8 08 3e f7 1e e6 3c
       0.083440855 -0.017189175 0.13363849 0.028090937
0001c0 d6 46 27 be 4c 96 b1 bb 8d a3 18 bc fb 0f 99 bd
       -0.16335616 -0.005419528 -0.009316337 -0.07473751
0001d0 4b f3 28 bd 0b 62 7e bd f9 97 14 be fc 12 56 bd
       -0.041247647 -0.06210522 -0.14511098 -0.0522642
0001e0 aa 92 ad bb 28 e2 c6 bd 48 c7 f2 bd 7b 82 23 bd
       -0.0052970247 -0.09711105 -0.11854416 -0.039919358
0001f0 5c cf 92 bd 1d 54 b8 3d ee 1a c4 3d c0 2e f9 bd
       -0.07168457 0.09000418 0.09575449 -0.1216712

transformer.layers.0.1.fn.fn.net.2.weight f4 [64, 128]
000000 9c 10 00 3d 7d b4 69 bd c1 73 b9 3d 1c 07 ac bc
       0.03126584 -0.057056893 0.090552814 -0.020999484
000010 e7 c3 81 3d 45 d5 83 bd a1 1b 28 bd 59 0f 1b 3d
       0.063361935 -0.06437162 -0.041041974 0.037856434
000020 59 2e 11 bd 64 84 3a 3c 98 d8 ca bc 1b db 6a bd
       -0.03544459 0.011384103 -0.024761483 -0.05733786
000030 80 f8 6c 3c d4 38 58 bc 69 79 69 3d 7c 26 00 3d
       0.014463544 -0.013197143 0.05700055 0.0312867
000040 61 ab 1e bd 94 5c a8 bd fa 1b ad 3c 6d 27 ec bc
       -0.03873766 -0.08220783 0.021131504 -0.028827393
000050 5c d4 10 3d ef 24 82 bd 6e 5c 96 3b 04 ac 03 3d
       0.03535877 -0.06354701 0.004588655 0.03214647
000060 21 91 b9 bd 5e 46 ff 3d ef f4 e3 bd d6 60 68 3d
       -0.09060884 0.12464593 -0.11130702 0.056732975
000070 2f 7e 36 3d 59 89 39 bd e3 a4 c8 bc 1e 90 a9 3d
       0.04455393 -0.045297 -0.024492687 0.08279441
000080 83 6c 73 bc 4a c6 fc bd 3a 2f f1 bc cb fe b3 3d
       -0.014857414 -0.12342508 -0.029441465 0.08788832
000090 9b 96 87 3c 78 bc 28 bd 6b 41 e9 bc 9f 68 b3 bc
       0.016551306 -0.041195363 -0.028473577 -0.021900473
0000a0 41 cd 58 bb 30 50 40 3d 5f ec 4e 3d de 27 10 3d
       -0.0033081325 0.046951473 0.05051839 0.03519427
0000b0 b2 37 67 bc b2 47 01 bd 1c 44 b0 3c 6b b9 80 bd
       -0.0141124 -0.031562515 0.021516852 -0.06285366
0000c0 77 41 8a bd 54 75 cf bd 06 e6 42 bb 35 76 54 3d
       -0.06750768 -0.101298004 -0.0029739155 0.051870544
0000d0 ca ce 17 3e 34 87 ab bc de 7d 7f bd a5 7d b6 3c
       0.14824978 -0.020938493 -0.062375896 0.022276709
0000e0 4c f1 70 bc f9 90 d8 bc 3b a3 5c 3d 62 52 5c 3c
       -0.014705967 -0.026436316 0.053866606 0.013447376
0000f0 19 c7 34 3d 71 35 1d 3c 54 69 53 3c 41 bb a7 3b
       0.044135187 0.009595261 0.01290353 0.005118758
000100 6d ea 8b bd 27 9c fe bd de af 5d bd fc 1e 6d bd
       -0.068318225 -0.124321274 -0.0541228 -0.057890877
000110 0e c2 a0 3d 89 3b 91 bd 76 53 60 bd 5b e1 b5 3b
       0.07849513 -0.070914336 -0.054767095 0.005550546
000120 84 5e 44 bc 9b 71 2e bd f7 32 88 3d 72 7d 4f 3d
       -0.011985425 -0.04258881 0.06650346 0.050656743
000130 68 50 30 3d 76 b6 0a bc 67 70 cc bd c0 b1 c2 bd
       0.04304543 -0.008466354 -0.099823765 -0.09506559
000140 54 40 03 bd 97 a2 d7 bd 47 17 33 bd fd 6f 65 3d
       -0.03204377 -0.105290584 -0.04372337 0.056015003
000150 7e 51 cc bd 51 db ae 3c 69 0c bb bc 97 4e c6 3c
       -0.09976481 0.021344813 -0.022833066 0.024207396
000160 6a 48 27 3d 12 b4 3c bd f5 d4 8d 3d d5 95 52 3d
       0.040840544 -0.046070166 0.06925384 0.051412422
000170 32 d2 89 bc 6a 43 3c 3d 4d 94 b3 bd 33 f0 df 3c
       -0.016823862 0.04596273 -0.087685205 0.027336216
000180 af 2e 3c bc 80 a7 56 bd b3 1c 18 bd e9 6a 80 3c
       -0.01148574 -0.052405834 -0.037136745 0.015675979
000190 df 97 84 3d 14 a2 13 3d df 50 26 bd 21 d1 5b bd
       0.064742796 0.03604324 -0.04060447 -0.053666238
0001a0 3b 99 d3 bc 82 98 6b 3c f2 85 74 bd 09 37 03 3c
       -0.025829902 0.014379622 -0.059698053 0.008008727
0001b0 95 f0 f1 bc 5e 09 d8 bc 4b e5 b3 bd e5 13 92 bd
       -0.029533664 -0.026371654 -0.087839685 -0.07132701
0001c0 50 61 97 bd 68 a6 c3 3d 9d 68 7a bd 2c 61 83 3c
       -0.07391608 0.09553224 -0.061134923 0.016037546
0001d0 a2 92 e5 3c d6 14 d0 3c fd 58 e4 bd 64 5a 58 bc
       0.028024022 0.02540056 -0.11149786 -0.013205145
0001e0 07 4c d9 bb 87 28 49 bd 77 eb 63 bd 2f 66 df bb
       -0.0066313776 -0.049110916 -0.05564448 -0.006817601
0001f0 59 91 c0 3d 0f 52 d9 bc 5b 80 dd 3c 5d 15 c4 3d
       0.09402723 -0.026528386 0.027038744 0.09574387
000200 92 74 63 3d 8c 31 33 bd 7b 8b af 3d 4c ca 30 3d
       0.055531092 -0.043748423 0.08571526 0.043161675
000210 b7 7a dd bc b9 76 83 bd 51 fa 6b bd af fe a8 3d
       -0.027036054 -0.06419129 -0.057611767 0.08251702
000220 f8 ac d4 3d d8 1a 7e bc 14 16 0c be 43 52 a3 3d
       0.10384554 -0.01550933 -0.13680297 0.079746746
000230 7d c4 0d 3b 45 44 0f 3e 43 6a 96 bd a9 c5 06 3e
       0.0021632009 0.13990887 -0.073444866 0.13161339
000240 8e ca 8b bc f3 f4 59 bc ba 79 0a be 23 08 08 bc
       -0.017064359 -0.013303029 -0.13522997 -0.008302721
000250 56 e0 57 bc e6 29 9a 3d 3b f0 4a bd b0 e8 e4 3d
       -0.013176044 0.07527523 -0.049545508 0.11177194
000260 e8 43 63 bc 9d 65 83 3d 47 c5 82 bc e1 b6 ea 3b
       -0.013871171 0.064158656 -0.01596321 0.007162914
000270 c1 13 4a bd 7d 9c 64 bd 71 6a ab bd dd f5 d9 3d
       -0.049335245 -0.0558133 -0.083699115 0.10642598
000280 93 0b b0 3c d0 9a 3a bd b4 4a f1 39 be ad 34 3c
       0.021489894 -0.045557797 0.0004602276 0.0110277515
000290 9e 56 f8 bd 48 c6 c6 3c 2e 51 9c bc b6 25 91 3d
       -0.12125896 0.02426447 -0.019081678 0.07087271
0002a0 04 7f 82 3d 81 1e 40 bd 6c 3c b5 3d 57 6c 82 3d
       0.063718826 -0.04690409 0.08849415 0.063683204
0002b0 ed 61 6f bb 72 ba 3c 3d 73 d7 3f 3d 00 d3 40 bb
       -0.0036526874 0.046076246 0.046836328 -0.002942264
0002c0 d6 ac de bd 06 b8 d3 3d 03 21 e1 3c e8 51 96 3c
       -0.108728096 0.10337834 0.027481562 0.018349603
0002d0 52 d7 bd bb 5a 93 41 bd 00 10 cf bd a5 fc 71 3c
       -0.0057934904 -0.047259666 -0.10110474 0.014769708
0002e0 ff a8 41 bc 8e f3 99 bc db 11 f9 bc f5 87 2a bd
       -0.011820077 -0.018792894 -0.030404022 -0.041633565
0002f0 5a 1f 0e bd aa d2 eb 3d 8e 33 10 3c 95 b5 bf 3d
       -0.034697868 0.1151479 0.008801354 0.09360806
000300 3b e1 88 3b 7c ed 81 bd 8b 51 e1 3d ce 9f 2a bd
       0.00417724 -0.06344125 0.11001881 -0.041656308
000310 a3 3f 02 3c 1b 65 c5 3c c2 2c 9c 3d 55 d3 e3 ba
       0.0079497425 0.024096062 0.076257244 -0.0017381707
000320 8c 6e a4 bd 1b 54 a1 bd 53 75 95 bd 05 4b 9f 3b
       -0.08028898 -0.0787737 -0.072977684 0.004861238
000330 5e 3b c5 3c 91 7d 12 3c a6 f3 e7 3d ec 5c 56 3d
       0.02407616 0.00894107 0.11325769 0.05233471
000340 44 48 4e 3c 3b fa a0 bc b9 5a 96 bc b3 0f 30 bd
       0.012590472 -0.01965057 -0.018353807 -0.042983722
000350 49 4c 07 3c 2c e2 2b bd f1 6b a6 3c 6f b6 66 bd
       0.008257934 -0.04196374 0.020315142 -0.056326326
000360 f3 90 62 bd 02 ae 99 3d 8f 92 2e bd 28 60 ee bd
       -0.055314016 0.075038925 -0.042620238 -0.11639434
000370 52 4e 31 3c 13 79 c5 3d 64 2a 20 bc 79 a6 1c be
       0.010821896 0.09642234 -0.009775732 -0.1529788
000380 0e 52 3e bd 89 ad c3 bd 72 7e 20 bd 7c 87 90 3d
       -0.046464972 -0.095545836 -0.039183088 0.070570916
000390 a5 36 2d bd 61 8b e2 bc 8e be 9b bd 9d 00 f8 3c
       -0.04228844 -0.027654352 -0.07604705 0.03027373
0003a0 55 6a 00 be f6 af 9b bd 16 e6 67 3d f2 a0 f1 bb
       -0.12540562 -0.07601921 0.05661591 -0.0073739225
0003b0 58 41 7f bd e3 a6 11 be 32 dc c0 3d 6e ec 19 3d
       -0.062318176 -0.14223818 0.09416999 0.037578993
0003c0 9b 2d 93 bd f3 a9 5a bd 56 7d 9b bd f3 17 70 3d
       -0.07186433 -0.053384732 -0.07592265 0.05861659
0003d0 f8 01 d3 3c b1 6b 61 bd a2 c3 b8 3d 02 fe 01 be
       0.025757775 -0.055034343 0.09021689 -0.12694553
0003e0 10 c7 09 be 19 21 f2 bc 77 ea a1 bd 26 01 8b bd
       -0.13454843 -0.029556798 -0.07906049 -0.067873284
0003f0 03 02 7e bd 86 fc 8f bc a2 d9 41 3d 1c 3a 11 bd
       -0.062013637 -0.017576467 0.04732669 -0.035455808
