model_training/trained_models/model_700.pth (torch, 453160 bytes, 18 tensors)

pos_embedding f4 [1, 1025, 64]
000000 14 f1 f8 3f e5 4c c0 3f 36 38 7a 3f d2 a5 18 c0
       1.9448571 1.5023466 0.9774202 -2.3851209
000010 8d 40 09 3f 4c 7c a3 bf 0c 04 b0 bb fb cd c9 bf
       0.5361412 -1.2772307 -0.005371576 -1.5765985
000020 e3 f0 3c bf aa 54 c9 3f bd 46 f3 be dc b2 bf bf
       -0.73805064 1.5728962 -0.47514907 -1.4976459
000030 60 fd 22 bf 31 42 31 bf 4a 4a 5a bf 04 db 54 3f
       -0.6366787 -0.69241625 -0.85269606 0.8314669
000040 23 f8 e8 3f b9 6f 2c be eb a9 c7 be 41 35 d2 3e
       1.8200725 -0.16839494 -0.38996825 0.41056255
000050 67 33 2e bf 1f 15 8a 3f 99 b1 4c 3f 14 aa ec 3f
       -0.68047184 1.0787696 0.7995849 1.8489404
000060 a9 e6 8e 3f 52 33 a3 3f f0 b4 06 3f fe d0 ad 3f
       1.1164142 1.2750037 0.5261984 1.3579404
000070 20 03 93 be 9c 59 d9 3c d7 06 8e be 5e 99 69 3f
       -0.28713322 0.026531987 -0.27739593 0.91249645
000080 59 ea bb bf df e0 7d bf 21 76 76 be 46 06 d6 3f
       -1.4680892 -0.9917125 -0.240685 1.6720665
000090 74 d9 80 3e f5 30 dd be e7 1c a1 3e c7 50 69 bf
       0.25165904 -0.43201414 0.31467363 -0.9113888
0000a0 a8 ad ca bf 13 32 89 3f a1 e5 6b bf e4 67 14 bf
       -1.5834246 1.0718406 -0.9214726 -0.57971025
0000b0 46 ba b2 bf a8 7b 07 40 22 98 99 bf d9 64 11 bf
       -1.3963096 2.1169224 -1.1999552 -0.56794506
0000c0 3c 73 44 bf 96 1d 45 bf 3b e4 01 3d ff a1 1d 3f
       -0.76738334 -0.7699827 0.0317118 0.6157531
0000d0 e6 46 eb be 8f 88 a8 3f a1 6d 60 bf 43 77 50 bf
       -0.4595253 1.3166674 -0.8766728 -0.8143198
0000e0 83 07 b6 bf 62 de 3d bd 69 0a b8 3b d8 ba 29 3f
       -1.4221042 -0.04635466 0.0056164754 0.66300726
0000f0 9b 46 85 3c 12 98 fe 3f 1c 8a 9a bf cd c2 b7 3f
       0.016269019 1.9890158 -1.2073398 1.4356323
000100 45 6b 99 3f 47 f6 01 3f 04 29 0d 40 34 e4 4d 3f
       1.1985861 0.50766414 2.2056284 0.80426335
000110 e3 95 0b 3f f6 e6 2d bc 78 ea 81 bf c2 42 9f 3f
       0.54525584 -0.010614147 -1.0149679 1.2442248
000120 a9 75 a3 be ff c0 0a 3f a5 f7 88 3e cf 1f 20 3f
       -0.31925705 0.5420074 0.26751438 0.62548536
000130 b5 3c 0a 3f 07 8e 4a bf 09 cb 17 c0 da ac 60 bf
       0.5399888 -0.79122967 -2.3717673 -0.8776375
000140 84 20 85 3d 4f 39 db be d5 ff b9 bf fa 49 1f bf
       0.065003425 -0.4281716 -1.4531199 -0.62222254
000150 32 44 05 3f 33 1d 1d 3f 38 ff b1 3f 9d 10 1a be
       0.5205718 0.6137268 1.3906012 -0.150454
000160 ce c6 52 3f bc 5b 03 bf 91 73 8c bf 49 43 43 3f
       0.823346 -0.5131185 -1.0972768 0.76274544
000170 b5 63 d5 bf 87 12 40 bf 36 4c bd 3f 5b 5e d8 3e
       -1.6671053 -0.7502827 1.4788883 0.42259488
000180 b5 2b 21 c0 a8 86 29 3f 55 c2 6f 3f 8b 3e 89 be
       -2.5182927 0.66221094 0.936559 -0.2680553
000190 31 e2 15 3f 30 6b e3 3e 79 0f 84 3f 97 d3 95 be
       0.58548266 0.44417715 1.0317222 -0.29262993
0001a0 68 c0 a1 be 58 46 42 3f 17 1f 01 3f 99 09 ab 3d
       -0.31592107 0.75888586 0.50438064 0.0835144
0001b0 a1 5c 96 3e b1 3c 7b 3f ff c1 1d 3e 50 4c f3 be
       0.29367545 0.9813948 0.15406035 -0.4751916
0001c0 fb ad c0 bf 7b ce 0c 3e d1 ce de be 17 1a 18 3e
       -1.5053095 0.13750641 -0.43517163 0.14853702
0001d0 4b 59 14 3f ea e6 95 3e 6c db 96 be 9e 22 4e 3f
       0.5794875 0.29277736 -0.2946428 0.8052157
0001e0 84 c2 2f 3e 64 4d ae 3d 2b 16 b4 3e e1 45 21 3f
       0.17164046 0.08510855 0.35173163 0.6299725
0001f0 4f aa 9f 3f ce b1 11 3f c7 ab ee 3e 18 be 8a 3e
       1.2473849 0.56911933 0.4661543 0.27098155
000200 af ae ef 3f 22 13 64 3f aa 8a be bf 4a ae 81 bf
       1.8725184 0.89091694 -1.4886067 -1.0131314
000210 f1 04 3c bd f4 83 db 3f 58 15 37 3f 54 06 e2 3e
       -0.04590315 1.7149644 0.7151694 0.44145453
000220 dd 43 7f 3f f2 55 d2 3d 98 c8 db bf 1a c4 88 3f
       0.99712926 0.10270299 -1.7170591 1.0684845
000230 72 a1 b5 be be cf 68 3f de 68 40 bf 91 12 06 3f
       -0.35474735 0.9094199 -0.75160015 0.5237208
000240 b3 d5 83 bf 99 9b 66 3f 98 77 d4 3f bc a3 c1 3f
       -1.0299591 0.90081173 1.6598997 1.5128093
000250 1b 14 87 3e 7f 3c 0f be f3 03 23 bf 53 8b 9b bc
       0.26382527 -0.13987921 -0.636779 -0.018987333
000260 bc 01 ad 3e 74 07 89 3f 1a ca e4 be 89 e1 d7 3f
       0.33790386 1.07054 -0.4468544 1.6865703
000270 2f 04 1e c0 89 8b bc be d2 20 99 bf 3e fe 53 3f
       -2.4690053 -0.36825207 -1.1963141 0.8280982
000280 3c f7 f9 bf 46 49 a8 3e a8 18 c0 3d 6d 2f f3 be
       -1.9528575 0.32868403 0.09379703 -0.4749712
000290 21 be 72 3e f4 87 55 bf 46 a5 46 3e 58 1a 8d bf
       0.23705341 -0.83410573 0.19398984 -1.1023664
0002a0 df bf d6 bf e3 6e b3 3f 38 ff af 3f 87 cb cd bb
       -1.6777304 1.4018215 1.3749762 -0.006280366
0002b0 09 78 d2 bf f6 7d 27 3f bb b2 59 3f 10 06 f6 3f
       -1.6442882 0.65426576 0.85038346 1.92206
0002c0 bd 46 3b 3e 1f cf 46 3e cf 86 45 bf 6f 71 9b be
       0.18288703 0.19414948 -0.77158827 -0.3035998
0002d0 a5 da 84 bf 61 dd c8 bf a8 34 80 bf 47 37 fb be
       -1.0379225 -1.569256 -1.001607 -0.4906561
0002e0 94 05 fe be 36 d2 ce bf f2 c0 ee bf c7 74 b3 3c
       -0.4961363 -1.6157901 -1.8652632 0.02190627
0002f0 d6 2e 85 3f fc 8f 02 bf b4 52 28 3f 0f 0a 39 3f
       1.0404918 -0.5100095 0.65751195 0.72280973
000300 ee fb c3 3f d2 2d 88 bf 66 20 6c 3f 27 5d 96 bd
       1.5311258 -1.0638983 0.92236936 -0.07341986
000310 e3 23 7b bf 7f e5 b6 3e 03 cf fb 3e 73 c4 a2 3f
       -0.98101634 0.35721967 0.49181375 1.2716202
000320 5b 67 d3 3e 62 ca 02 40 9a 53 8a be 3e d2 3e bf
       0.4128979 2.0436025 -0.27016908 -0.74539554
000330 23 b4 00 bb 22 8f 70 3f 81 a2 8a 3f 5e 97 99 3e
       -0.001963862 0.93968403 1.0830842 0.29998296
000340 64 15 40 bf 98 0f 7c bf db 94 18 bf de ac 1b bf
       -0.7503264 -0.98461294 -0.59602135 -0.6081065
000350 9f 1b 62 bd 03 15 e8 3e b0 40 95 3d df ac 1c c0
       -0.055202123 0.4532853 0.07287729 -2.4480512
000360 00 9f 94 be a8 97 71 3f 8d 22 e6 bf 6e 1a cf 3f
       -0.29027557 0.94372034 -1.7979294 1.6179941
000370 1f f8 c2 3e 8b 1b 03 bf a1 2d 94 3f a5 a2 d5 3f
       0.38079926 -0.512139 1.1576425 1.669026
000380 b0 28 1d 3e 06 0f e4 3f 6a 95 9c 3e 28 33 a0 bf
       0.15347552 1.7817085 0.30582744 -1.2515612
000390 1e 02 16 bf ed de 2c 3d 37 73 a3 3e ac 29 06 40
       -0.5859698 0.042204786 0.3192384 2.0962934
0003a0 0d ca 1e be 7c 43 60 bf 7e 47 fd bf 26 bc 93 bf
       -0.15506764 -0.87602973 -1.9787443 -1.1541793
0003b0 a3 31 36 3e 8a 32 d5 bd 4a 04 a1 3e 1a ad 96 3e
       0.17792372 -0.1041003 0.31448585 0.2942894
0003c0 84 72 85 bf 74 92 cd 3e 04 a7 bb be a3 6a 1c 3e
       -1.0425572 0.40150797 -0.3665086 0.15275054
0003d0 69 00 75 bf 40 42 ef 3d 3e e5 b4 be 86 0d cc 3f
       -0.9570375 0.11682558 -0.35331148 1.5941627
0003e0 8f 39 ae 3f 6b 0e 64 bf 3b 97 82 3f 65 b5 ba 3e
       1.3611315 -0.890845 1.0202402 0.36466518
0003f0 5b ae 45 3f 86 ec 42 3f 9d e2 9e 3e 51 b8 ca 3c
       0.7721917 0.76142156 0.31032267 0.024746092

cls_token f4 [1, 1, 64]
000000 e6 99 1b bf fb 8b ca 3f b8 06 87 3f 07 ac 00 3e
       -0.60781705 1.5823969 1.0548925 0.12565623
000010 c2 5b fc be 6a be e6 be 96 81 eb 3f f6 10 b9 3f
       -0.49288756 -0.4506715 1.8398921 1.4458301
000020 e8 87 c0 bf fa 08 23 be 59 8c 18 3f 51 45 2b 3f
       -1.5041475 -0.15921393 0.59589154 0.66902643
000030 2f 2a 6a 3e 3b ef e1 bf f4 13 3e bf 31 b6 68 3d
       0.22867654 -1.7651132 -0.74249196 0.056814376
000040 be c5 bd 3f 23 4a be bf f5 2c 01 c0 e5 c1 b3 bf
       1.4825971 -1.4866375 -2.018369 -1.4043547
000050 21 09 0b 3f 04 68 27 3f a4 0e 75 bf bc 00 9d 3f
       0.54310805 0.6539309 -0.95725465 1.2265849
000060 6b 32 f5 3c 74 dc 48 bf 1d 5a a1 bf 70 24 88 3f
       0.029931268 -0.78461385 -1.2605625 1.063612
000070 cf f8 77 3f 20 af 08 3f 18 13 0a 3d fe 9c 1a 40
       0.96864027 0.5339222 0.033709615 2.415832
000080 2c 5a bd 3f 91 5a ed be d8 dc 64 bf 7b 49 01 bf
       1.4793143 -0.4635816 -0.8939948 -0.5050275
000090 7a 78 b0 3f 71 a0 fc 3f 79 b7 bc bf ab 23 cf 3e
       1.3786767 1.9736463 -1.4743491 0.404569
0000a0 97 2c b9 3b 01 6a f0 3e fc 89 ef be e4 47 71 bf
       0.0056510675 0.46955875 -0.4678496 -0.9425032
0000b0 24 45 34 bf 3d 72 a4 3e b3 9b 02 40 17 0c 99 bf
       -0.70418 0.32118407 2.0407531 -1.1956815
0000c0 12 f2 ee 3f 4b af e5 bd 17 44 68 bf 99 56 90 3f
       1.8667624 -0.11215075 -0.90728897 1.1276428
0000d0 c7 c3 7c bf 65 04 e0 be 2f 6a 8f 3f 3d c1 cd bd
       -0.9873623 -0.43753353 1.120428 -0.10046623
0000e0 ed 18 74 3c 65 39 74 bf 87 dd 89 bf 72 6b c4 3f
       0.014898521 -0.9540008 -1.077073 1.534529
0000f0 bd 4c f0 be 8d aa 8a 3f 78 a6 f8 be f8 6b 61 3f
       -0.46933547 1.0833298 -0.48564506 0.8805537

patch_to_embedding.weight f4 [64, 64]
000000 5c 6f d6 bd 32 25 63 bc c7 5c 48 3d 87 b5 0b 3c
       -0.10470459 -0.0138638485 0.048916604 0.008527166
000010 86 e5 87 bd 4c c6 01 be 92 35 37 be 55 2c 3c be
       -0.06635575 -0.126733 -0.17891529 -0.18376286
000020 d8 eb 06 3d cb 26 08 3e 50 d2 1a 3e b4 d4 37 3e
       0.032939762 0.13296048 0.1511929 0.17952234
000030 77 a0 8b 3e a6 01 85 3e 09 91 47 3e 48 7b 6a 3d
       0.27270862 0.2597782 0.1948892 0.057246476
000040 c3 43 cf bd 3e f5 95 bd 03 c3 26 3e 5c 5f 83 3e
       -0.101203464 -0.07322167 0.16285329 0.2565869
000050 5c b3 5e 3e 4d 02 bd 3d 8e a3 13 3e f6 bf 13 3e
       0.21748108 0.092289545 0.1441786 0.14428696
000060 bc 65 1b be 34 14 5c 3d 49 52 f7 3d c3 09 5c 3e
       -0.15175527 0.053730205 0.120762415 0.21488099
000070 8d 1b 5f 3e 8f d3 37 3e ba 76 78 3c 90 76 07 3e
       0.21787854 0.17951797 0.015165025 0.13228822
000080 f2 1c 80 be e4 d1 eb bd 35 3f 4e 3e a1 74 fc 3d
       -0.25022084 -0.11514643 0.20141299 0.12326933
000090 ad 4d 8e 3d 21 ac 86 3e c7 89 a9 3d 9d 86 c2 3d
       0.06948409 0.263032 0.08278232 0.09498332
0000a0 3d 13 0c ba 2b c3 9c bd 29 57 a2 3c 4c 4d 4a 3e
       -0.0005343443 -0.07654413 0.019816952 0.19756049
0000b0 a8 f9 43 3e 01 76 c7 3d fb f1 ca 3d d8 86 05 3e
       0.19138205 0.09739304 0.09909435 0.1303972
0000c0 0f 5d a7 bd b8 4d 4d 3d d0 40 21 3e 23 95 4f 3e
       -0.081720464 0.050122947 0.1574738 0.20271735
0000d0 43 e0 83 3e 91 8f 22 3e 75 a9 f7 3d ec 23 ea 3d
       0.25757036 0.15875079 0.12092868 0.11432633
0000e0 8a 5d 5c be e3 f6 d6 bd 3a c3 ca 3d 7d 07 05 3e
       -0.21520057 -0.10496309 0.09900518 0.12991138
0000f0 6b 0b cd 3d 1b 9c 21 3e 44 7b 25 3e e0 96 af bd
       0.100119434 0.15782206 0.16160303 -0.08573699
000100 43 41 ce 3e 75 44 01 3f 58 9a 08 3f 5d 13 7d 3e
       0.40284166 0.5049508 0.5336051 0.24714418
000110 7f 6c 6c 3d 80 95 0d 3c 59 33 89 3d 59 cd 50 bd
       0.057720657 0.008641601 0.06699247 -0.050977085
000120 d1 49 c8 3d 45 59 65 3e 4d ae 89 3e 4f e9 74 3e
       0.09779704 0.22397335 0.26890793 0.23917125
000130 ea 29 70 3e 7a c7 37 3e b0 9d 11 3e 4d 5a 79 3e
       0.23453489 0.17947188 0.1422031 0.24350853
000140 d6 f3 0a 3e 1a 2d 32 3e 37 e4 f3 3d 59 4e d3 3d
       0.13569579 0.17400017 0.11908763 0.10317678
000150 c0 6e 6a 3d e8 94 1a bc a8 0b 13 3e 27 bd d4 3d
       0.057234526 -0.009434916 0.14359915 0.103876404
000160 da 20 80 3d 72 bb 52 3e fb 0b fe bc df e4 4f 3e
       0.06256266 0.20579317 -0.031011572 0.20302151
000170 16 64 00 3e 94 66 12 3e 4b 6f 66 3e e4 f7 5c 3e
       0.1253818 0.14296943 0.22503392 0.21578938
000180 d2 ca 67 3e ae af f9 3d 0e 81 97 3d 1a 88 33 3e
       0.22635964 0.12191711 0.07397662 0.17532387
000190 ae ad 39 3e 29 52 34 3d 12 60 57 3e 48 c7 45 3e
       0.1813266 0.044023667 0.21032742 0.19314301
0001a0 ad ae 73 3e 1a ad f6 3d fa 4f 86 3d 62 b4 44 3b
       0.23797102 0.12044735 0.06558223 0.0030014743
0001b0 4a 8b 6a bd 13 e5 5f 3d 96 71 fe 3d e5 a1 1d 3c
       -0.057261743 0.05466182 0.124240085 0.009621118
0001c0 b7 b5 3f 3e 21 b0 1c 3d b9 22 fc bc b4 2e 5b 3e
       0.18721662 0.038253907 -0.030778276 0.21404535
0001d0 93 00 0f bb f6 0c c7 3d 24 7e af 3d 00 1e 30 3e
       -0.002182041 0.09719269 0.08568981 0.17198944
0001e0 19 ec 43 3e 70 b5 0a 3e a0 86 59 3d 77 1d f5 3c
       0.19133033 0.13545775 0.053106904 0.029921276
0001f0 31 08 b5 3d 22 b4 33 3e 3f ce dd 3d 3e 04 c5 3c
       0.08839453 0.17549184 0.10830354 0.024049874
000200 85 e0 02 be 96 b6 42 be 2c 83 31 be 54 b0 38 3d
       -0.1278096 -0.19014964 -0.17335194 0.045090035
000210 74 d4 e3 bd 86 7c c6 3d 86 ff c5 bc 93 eb c5 3d
       -0.111245066 0.0969172 -0.024169695 0.09664073
000220 b0 ab c5 bd 3e c7 6d bc c5 3b 70 3e cd 55 25 3e
       -0.096518874 -0.014512835 0.234603 0.16146012
000230 3f b5 8f 3d d8 7f 48 3e 67 03 77 bd e2 9e 66 3c
       0.07016992 0.19580019 -0.06030598 0.014075967
000240 0e 95 6e bd 77 e5 1d 3e fe d6 27 3e 78 fd 4d 3d
       -0.05824762 0.15419565 0.16390607 0.050290555
000250 6a 2d 4f 3e 78 15 da 3d af 16 38 3d 73 05 e2 3d
       0.20232168 0.10648626 0.044943508 0.110361956
000260 15 b7 50 3e c0 ae 26 3d c7 a4 83 3d 13 19 9d bd
       0.2038234 0.040694 0.06427913 -0.07670798
000270 06 6c 4d 3d 33 2d 65 bd f0 45 d7 3d 09 5b 1e be
       0.050151847 -0.05595131 0.105113864 -0.15464415
000280 e8 57 d4 3d ed c5 ec 3d 74 0d 43 bd c3 9d f3 3d
       0.10368329 0.11561189 -0.04762025 0.11895325
000290 5b d3 a6 3d f2 9d 20 3d b5 14 8f 3d b2 47 10 be
       0.081457816 0.03921313 0.069863714 -0.1408985
0002a0 f4 9d 4f 3e fd a5 92 bd ca 1f 34 3d 70 36 14 bc
       0.20275098 -0.07160566 0.04397563 -0.009046182
0002b0 74 fc 22 3e 68 f0 71 3c a3 f7 9e 3c 71 40 2e be
       0.15916616 0.01476679 0.019405192 -0.1701677
0002c0 78 95 7d 3e 91 d8 94 bd ba 7e ad 3d 59 74 7c 3d
       0.24764049 -0.07267869 0.08471437 0.061634395
0002d0 73 5a 3c 3e 2f 01 39 3e c9 6b 25 3d cd 3c 08 be
       0.18393879 0.18066858 0.040385995 -0.13304444
0002e0 29 d6 8f 3e 5c 0b 0a ba b9 a2 bc bd 83 98 98 3d
       0.2809308 -0.0005265975 -0.092107244 0.07450964
0002f0 a0 7a c1 3c 2b d4 37 3e d6 38 1f 3e df a6 40 bd
       0.023618042 0.1795203 0.15549025 -0.04703414
000300 95 70 87 3c db 4d 65 be d2 11 9f be 40 fe 8c be
       0.016533175 -0.22392981 -0.31068283 -0.27537727
000310 18 ab 00 be 2d 6e 2a 3d 64 9d 3b 3d 5a c2 0e 3d
       -0.12565267 0.041608978 0.045804396 0.034853317
000320 e2 dd a5 bd 77 6c 21 be 51 09 a5 be 0d a8 cc be
       -0.080989614 -0.15764032 -0.3223367 -0.39971963
000330 64 38 96 be b5 3e ba be 82 34 22 be 0c 9d 0f be
       -0.29339898 -0.36375967 -0.15840343 -0.14024752
000340 e7 4c 44 bd 10 63 9e bd 57 01 6f be 3b 0f 24 be
       -0.047924902 -0.077337384 -0.23340355 -0.16021435
000350 ab 49 69 be 0f 6a 04 be b6 95 10 be ee 1e 9d 3d
       -0.22782008 -0.12931083 -0.1411961 0.07671915
000360 01 b4 44 be 24 3a 1e be b6 90 f4 bc 53 e4 75 be
       -0.19209291 -0.15451866 -0.02985416 -0.2401288
000370 42 33 3b be 56 f5 7b bd 88 c5 e8 bd f5 35 42 bd
       -0.18281272 -0.061513267 -0.11365801 -0.04741474
000380 66 8a 7c be f5 d1 59 3d a2 f1 f4 bc 3e 57 f8 bd
       -0.2466217 0.053178746 -0.029900376 -0.12126015
000390 fa ac c0 bd b0 4d c8 bc 13 0c 5b 3d 02 75 ce bc
       -0.09407993 -0.024451107 0.05347831 -0.025202278
0003a0 29 81 7d be e1 ff 51 be 53 02 6d be af a1 b7 bd
       -0.24756302 -0.20507766 -0.23145418 -0.089663856
0003b0 c6 a5 90 be bb f3 8e bd c0 16 59 bc 62 32 e5 bd
       -0.28251475 -0.06980082 -0.013250053 -0.111912504
0003c0 67 a9 5a bd 72 69 7f 3c 4e b1 6b be 88 a1 32 be
       -0.05338421 0.015589105 -0.23016855 -0.17444432
0003d0 9f 21 bb bd 70 c3 43 be cd 5f 1b be c2 7d 95 bc
       -0.09137272 -0.19117522 -0.15173264 -0.018248443
0003e0 f9 0d 34 3d 17 2e 8f bd fc d3 04 bd 6c 06 5b bd
       0.043958638 -0.06991213 -0.032428727 -0.05347292
0003f0 e6 e4 90 bc bd 54 0b be fc 07 c1 bd ef 8f 43 3d
       -0.017687272 -0.13606544 -0.09425351 0.047744688

patch_to_embedding.bias f4 [64]
000000 4e b9 59 be a4 59 97 bd d5 29 40 3e 7a f8 b1 3e
       -0.21262094 -0.073901445 0.18765958 0.34759885
000010 22 ab f8 3c e3 1c 3d 3e f3 38 7f 3e 7a f6 7c be
       0.03035504 0.1846805 0.24924068 -0.24703398
000020 cd 5f b8 3d 53 f3 b4 bc e6 28 ee bb 5b 86 c4 3d
       0.090026475 -0.022088682 -0.007268059 0.09595939
000030 28 4e 41 3e 14 3e 82 bd bb 58 46 3d 9f 2d be bd
       0.1887747 -0.06359497 0.048424464 -0.09286045
000040 30 a2 46 3e fb 13 29 bd 04 69 52 bd fe ed 6d 3d
       0.19397807 -0.04127882 -0.051369682 0.058088295
000050 73 85 98 be 89 0b 21 be 0f 87 7e 3e 8f b5 94 be
       -0.29789314 -0.15727057 0.24856208 -0.29044768
000060 b8 fb 05 3e e6 aa c9 bd 80 52 53 be 6c ec 56 3e
       0.13084304 -0.098470494 -0.2063694 0.20988625
000070 5f 75 e2 3d a1 72 43 bc fc a4 ef bb 65 a0 83 b9
       0.11057543 -0.011929185 -0.007313369 -0.0002510577
000080 bf 87 60 bd ea ad 99 3e 29 43 51 3e 58 d4 57 be
       -0.054816958 0.30015498 0.20435776 -0.21077096
000090 c6 1a 7a 3c 84 20 eb bd 79 0a bf be dd 37 bc 3d
       0.015265172 -0.11480811 -0.37312678 0.091903426
0000a0 a9 19 b2 bd 3c ff 66 be 2e cb 1d bd 7e a7 a6 be
       -0.086963005 -0.22558302 -0.038523845 -0.3254966
0000b0 36 60 2f 3e e5 14 69 be 50 8e 7f 3e a8 2c d7 bd
       0.17126545 -0.22761877 0.24956632 -0.105065644
0000c0 dc d9 d0 bb 03 d5 cc 3d 89 43 5d 3e d5 a8 81 be
       -0.006373627 0.10001566 0.21607794 -0.2532412
0000d0 33 df 0a be ca cc 2f bd f2 84 2c 3c be 6f 66 3e
       -0.13561706 -0.04291991 0.0105297435 0.22503564
0000e0 80 02 6a 3d 37 98 ad be 08 5f 35 3e 4b db 07 3e
       0.05713129 -0.33905193 0.17712033 0.13267247
0000f0 05 1f 29 3e 80 93 91 3e 49 86 3a be 84 de 59 bd
       0.1651574 0.28432846 -0.18215288 -0.053190723

transformer.layers.0.0.fn.norm.weight f4 [64]
000000 27 63 56 3f ee 02 82 3f 5e 97 05 3f d4 11 a0 3f
       0.83745044 1.0157144 0.52184093 1.2505441
000010 5a f7 d3 3e e8 22 96 3e ec 77 45 3e a8 db 22 3f
       0.41399652 0.29323506 0.19284028 0.6361642
000020 29 4d 1f 3f 98 1d 78 3f e8 bb 3b 3f 23 e6 3c 3f
       0.6222711 0.96920156 0.733336 0.7378866
000030 2c 28 43 3f e4 85 0b 3f 18 fe 7f 3e 7d 10 0f 3f
       0.7623317 0.54501176 0.24999273 0.55884534
000040 70 c5 72 3e 9c c4 e3 3e 77 b0 af 3e e6 a3 04 3f
       0.23708129 0.4448594 0.3431432 0.5181259
000050 86 0e 70 3f 3d cc 05 3f 5f 9a 54 3f be 41 53 3f
       0.9377216 0.5226477 0.8304805 0.8252219
000060 19 88 16 3f 8f 90 55 3f 48 98 1d 3f d5 8a 67 3f
       0.5880142 0.83423704 0.6156049 0.90446216
000070 f7 0e 1d 3f ea a0 29 3f ae ba d8 3e 77 4b f8 3e
       0.6135096 0.6626116 0.42329925 0.48495075
000080 e4 85 48 3f d4 20 a2 3f 28 75 60 3f 91 04 4a 3f
       0.783293 1.2666268 0.87678766 0.7891322
000090 eb f8 02 3f 50 e8 e6 3e 75 24 4c 3f 82 ba 0f 3f
       0.5116107 0.45099115 0.7974313 0.56143963
0000a0 35 64 04 3f 46 4f 31 3f 59 9d 3c 3f 31 cf 84 3f
       0.51715404 0.69261587 0.73677593 1.037573
0000b0 a2 f4 43 3f fd e0 87 3f 9d 37 1b 3e 55 71 4d 3f
       0.76545155 1.0615536 0.15157934 0.80251056
0000c0 8d c7 bf 3e 8a 3e 29 3f 90 14 73 3f 44 12 0c 3f
       0.37456933 0.6611105 0.9495325 0.5471537
0000d0 5f 2d 92 3f 08 ab 3d 3e 80 ef 1c 3f 50 ad 7e 3f
       1.1420096 0.18522274 0.6130295 0.99483204
0000e0 11 f3 73 3e e0 49 82 3f 70 c3 56 3f 06 38 35 3f
       0.23823191 1.0178795 0.83891964 0.7078861
0000f0 b0 18 11 3f 8f df 14 3f a3 e8 14 3f d7 90 e7 3e
       0.56678295 0.58153623 0.58167475 0.45227692

transformer.layers.0.0.fn.norm.bias f4 [64]
000000 f9 01 cc bd 6d 4c e8 bd cd 85 89 be 94 42 06 3e
       -0.09961314 -0.11342702 -0.26859894 0.13111335
000010 d8 e7 dc 3d 7d 0c 15 3e 5a 41 a7 bd d9 da df bd
       0.10786408 0.14555545 -0.08166762 -0.10930414
000020 51 c3 60 be d4 a2 2b 3d 12 00 e0 3d aa bf 19 3e
       -0.21949507 0.041903332 0.109375134 0.1501452
000030 94 30 4e 3e bb 37 e7 bd 09 a2 6e be b7 5a 63 be
       0.20135719 -0.112899266 -0.23303999 -0.22202574
000040 c5 12 a0 bd ec 42 95 bd 27 45 a4 3c 21 7f 46 3d
       -0.0781608 -0.07288155 0.020052506 0.048461083
000050 7d 96 90 3d 1e 4a 13 3e 01 30 49 3e 54 f3 39 be
       0.07059953 0.14383742 0.19647218 -0.18159229
000060 6c 56 f0 bd f0 47 0c 3e e1 1b 77 3d e8 fe d0 3d
       -0.11735234 0.13699317 0.06032932 0.102048695
000070 d5 ee 2f 3c ad e9 d7 3b cf 75 38 3e 42 e1 db bc
       0.010738094 0.0065891356 0.1801369 -0.02684081
000080 80 c0 8d ba b4 73 3e 3e 04 2c f5 3d 75 78 09 be
       -0.0010814816 0.18598825 0.11971286 -0.13424857
000090 f9 ac e1 bd 9b 7b c2 3d 63 9b 7f 3e 51 1b 2e 3e
       -0.1101932 0.09496232 0.24961619 0.17002608
0000a0 66 d2 da bc 92 54 14 be 42 7a 1d 3e 7b b9 af 3b
       -0.026711654 -0.14485386 0.15378669 0.005362687
0000b0 93 69 47 3d f5 62 5a be b0 ff 62 bc 48 45 62 be
       0.048684668 -0.21326812 -0.013854906 -0.22096741
0000c0 cf eb a4 3d cf dd 9b 3d 0d b6 e7 3c c6 f3 28 be
       0.080527894 0.07610666 0.02828505 -0.16499242
0000d0 f0 8f ea bc 7f 0c 18 3d 0c 3a 05 3e fa e7 01 3e
       -0.028633088 0.037121292 0.13010424 0.12686148
0000e0 65 90 9f 3d ac 93 ab bd 58 24 e2 3d 6c 7e 85 be
       0.07791213 -0.083777755 0.11042088 -0.26073015
0000f0 56 83 b7 3d 97 19 a3 3d a2 a5 0f 3e 20 db d5 3c
       0.08960597 0.07963865 0.14028028 0.026105464

transformer.layers.0.0.fn.fn.to_qkv.weight f4 [192, 64]
000000 19 ba 20 3e 2b bf c3 3d ca 53 59 3d 17 73 8e ba
       0.1569599 0.09557947 0.053058423 -0.001086804
000010 22 e8 b7 3d 74 16 68 3c 61 af e3 bc 03 f3 ab bd
       0.08979823 0.0141655095 -0.027793588 -0.0839596
000020 65 1b d5 bd 94 5e 55 3d 44 e5 f3 3b 84 85 13 3d
       -0.10405616 0.05209215 0.007443102 0.036016002
000030 9c d1 cc bd 58 5e a8 3d 46 cc 22 3c f8 e9 b1 bd
       -0.10000917 0.0822112 0.009936398 -0.08687204
000040 57 ef 5a 3d e6 25 88 3c fc 69 e3 bd 37 0b c9 bc
       0.05345091 0.016619634 -0.11104199 -0.02454148
000050 04 36 45 3d 3c 0f a2 bd 63 9a 91 bd 18 60 02 3d
       0.048147216 -0.07913062 -0.07109525 0.031829923
000060 9a af ab 3d c1 42 4c bd 3f 01 bc bd f0 db ac bc
       0.08383103 -0.04986835 -0.09179925 -0.021100968
000070 e0 9f 8a 3d e0 92 a7 bc f5 9c 2c bd 2f 16 71 3d
       0.06768775 -0.020455778 -0.042141873 0.058859047
000080 ea 35 e3 3d be 6d 56 bd cb 7a 1d 3d 7b 82 87 bd
       0.11094268 -0.052350752 0.038447183 -0.06616684
000090 2a d5 2e 3d 4d 70 fa 3c c1 dc 17 3c 42 ef 87 bd
       0.042683758 0.030571127 0.00926894 -0.06637432
0000a0 de 91 b6 bc b0 a9 a6 bd 54 7b 5c 3d 58 a0 93 bc
       -0.022286352 -0.08137834 0.053828552 -0.018020794
0000b0 63 52 28 bd ea ae 86 bd 50 ca ba 3d 9c b3 44 3d
       -0.041094195 -0.06576331 0.09120619 0.04802285
0000c0 1c 95 c3 3d 79 c4 0b be dc 00 30 bd 42 47 1c bd
       0.09549925 -0.13649167 -0.04296957 -0.038153894
0000d0 a9 a5 f3 bd a6 bb 93 bb 10 4e e5 3d e0 11 87 bd
       -0.118968315 -0.0045084534 0.1119653 -0.06595206
0000e0 dc c1 1b 3c 19 fe 69 bd 84 c3 6f bd d4 36 21 3d
       0.009506669 -0.057127092 -0.058536068 0.03935893
0000f0 67 2d e7 bd cd a1 93 bd 66 36 19 3c 30 de e1 3c
       -0.11287957 -0.072085954 0.0093513485 0.027571768
000100 63 38 89 3e 4a 94 95 3e 9a 55 88 3e 03 c0 60 be
       0.26800832 0.29214698 0.2662781 -0.21948247
000110 f3 0c 5f 3e 3b 9f 87 be 06 bd 10 3e 2f a6 8c be
       0.21782283 -0.2648867 0.14134607 -0.27470538
000120 0c c2 4e be 3c c0 5a 3e 73 f8 69 3e 7e d3 a9 be
       -0.2019121 0.21362394 0.22848682 -0.33169168
000130 19 bf a8 bd 0f 7d c8 be 08 27 47 be 65 a3 15 3e
       -0.08239574 -0.39157912 -0.19448483 0.14613111
000140 f1 38 17 3e 7e 21 1e be 26 1e 65 be b9 57 46 be
       0.14767815 -0.15442464 -0.22374782 -0.19369401
000150 15 39 90 be 02 1c 28 3e 24 bd 0f be 08 a0 a9 3e
       -0.2816855 0.16416934 -0.14036995 0.33129907
000160 ad 7d b7 3e 81 02 5d 3e 0c a9 23 be d1 4d cf 3e
       0.3583807 0.21582986 -0.15982455 0.40489057
000170 db 75 4e 3e 42 5a 62 3e 4c 30 b5 3c 80 d7 a0 3e
       0.20162146 0.22104743 0.022117756 0.31414413
000180 2b 3d a2 be f1 1d cd be f6 4b ca be 57 92 51 3e
       -0.31687292 -0.40061906 -0.3951108 0.2046598
000190 89 15 a1 3e 73 69 54 3e de fe 0f be c2 7d 85 be
       0.31461743 0.2074335 -0.14062068 -0.26072508
0001a0 7a b9 3d be ee a2 3c 3e 79 dc 21 be 8c b1 81 be
       -0.18527785 0.18421528 -0.1580676 -0.2533077
0001b0 9c 3b 3a be 64 3d af 3e d1 e7 f3 3d 36 13 55 be
       -0.18186802 0.34226525 0.1190945 -0.2080811
0001c0 fd e9 69 3e 59 0e b8 be 39 11 4e be e2 82 26 3e
       0.22843166 -0.35948446 -0.20123757 0.16260865
0001d0 71 eb 81 be fa a6 29 3e e8 eb 40 3e c1 de 60 be
       -0.2537494 0.16567603 0.18839991 -0.21959974
0001e0 f1 65 56 be 40 8f 3d be 8f ca 38 be 82 2d 30 3e
       -0.20937325 -0.18511677 -0.1804602 0.1720486
0001f0 71 18 0e be 26 9e c8 3e 3c 8d 89 be 92 00 ab 3e
       -0.13876511 0.39183158 -0.26865566 0.33398873
000200 f7 ac ac 3d d0 ae fc bd 15 d3 5b 3d 37 f9 c6 3d
       0.08431428 -0.1233803 0.0536681 0.09715503
000210 11 98 05 be 8e d4 1c 3d 68 e2 91 3d f7 e0 9a 3d
       -0.1304629 0.038288645 0.07123262 0.0756244
000220 5f ca 8a bc ed 24 31 3c e4 12 e6 3c 6b 29 71 3d
       -0.016942201 0.010812026 0.02808518 0.05887739
000230 a3 ac 9e bd be 0c ea bc f8 46 f7 3d b7 83 c8 3d
       -0.077477716 -0.02857053 0.12074083 0.097907476
000240 46 f3 4f bd 3e 87 ce bd c9 59 a4 3d 62 44 ee 3d
       -0.050769113 -0.10084389 0.08024938 0.11634137
000250 eb 25 cd bd dd 07 d2 bd 38 40 c1 bd 54 f9 01 bd
       -0.10016998 -0.10255406 -0.09436077 -0.03173192
000260 48 83 78 3c fa 45 7a 3d 59 83 0e bd 87 bd 70 3d
       0.015168019 0.06110189 -0.03479323 0.058774497
000270 fd bd e4 bd dd a3 72 3d 42 d8 89 bd 57 5b 8e bd
       -0.1116905 0.059238303 -0.06730701 -0.069510154
000280 e7 d6 8c bc b1 2f 40 3d 86 a9 9a 3d 57 45 61 bd
       -0.017192317 0.046920482 0.07551865 -0.05499777
000290 a2 94 23 bc f5 9f bb bd 2c 72 92 bd 97 4f e9 bd
       -0.009984167 -0.09161369 -0.07150683 -0.11392134
0002a0 f3 35 54 3d ba 80 9f bc 49 15 02 3d b0 3c 0c bd
       0.051809262 -0.019470561 0.03175858 -0.034237564
0002b0 43 ea 5a 3d bc 2c fc bd 6e c4 68 3d 11 75 9d bd
       0.053446066 -0.1231322 0.056827955 -0.07688344
0002c0 97 17 e8 bd 85 f8 58 bd c5 36 0d 3e 7e e3 db 3d
       -0.113326244 -0.05297138 0.13790424 0.1073675
0002d0 95 51 a2 3d b1 80 8b bc fc 56 e9 3d e6 5c 3a bd
       0.07925717 -0.017029138 0.11393544 -0.04549875
0002e0 fc db c0 3d 1e 43 ac 3d 5b 81 d8 3d 47 7e 4a 3d
       0.09416959 0.08411239 0.105715476 0.049436834
0002f0 7f 16 04 bd 15 f9 f0 bd 68 5c 3e bd f4 d4 5c 3b
       -0.032248016 -0.117662586 -0.046474844 0.0033696266
000300 80 5b 8d 3d e9 dc 15 bd 78 b5 b4 3d 14 26 14 bc
       0.06902218 -0.03658763 0.08823675 -0.009042282
000310 87 31 99 bd 8e e8 cc bd 1f a6 08 bd f0 34 74 3d
       -0.0748015 -0.10005294 -0.03336155 0.059620798
000320 c0 fe d7 bc 68 1b c4 3d cc 5e 24 3e 4f e2 fd 3d
       -0.026366591 0.0957554 0.16051787 0.123966806
000330 09 4c 99 3c 8b eb 72 3c 25 90 35 bd 82 9f ae bd
       0.018713014 0.014826666 -0.04432692 -0.085265175
000340 0b 30 f3 bd e8 f5 83 bd 5d e8 a3 3d 5c b9 24 3d
       -0.11874398 -0.06443387 0.08003304 0.040215835
000350 67 53 59 bd e2 a2 c3 3c fa 95 3b 3e 13 50 af bd
       -0.053058054 0.02388138 0.1831893 -0.08560195
000360 a2 32 93 3d 42 3e 17 bd f7 f0 b2 bd 85 a0 14 3d
       0.07187392 -0.036924608 -0.08737367 0.036285896
000370 8d 66 91 3c f4 d9 f3 bd 66 1f 23 3e a7 78 a1 bd
       0.017749095 -0.11906806 0.15929946 -0.07884341
000380 00 7c a5 bd f0 80 fa bc cf 2d a3 bd bf e1 a8 3c
       -0.08080292 -0.03057906 -0.07967722 0.020615457
000390 9d bd 7d 3d 82 cd 9c bd 51 7d b3 bc a9 2b 06 3e
       0.061948407 -0.07656385 -0.021910341 0.13102593
0003a0 46 8e b1 bd bc 89 28 3d 4a 11 88 3d fa 37 bf bd
       -0.08669715 0.04114698 0.066439226 -0.093368486
0003b0 8b e1 85 bd 8d fe ac 3d 2a 5f 90 bd b9 21 b3 3d
       -0.065371595 0.08446989 -0.07049401 0.087466665
0003c0 5f c1 67 3c a7 f0 07 bd 9f 48 96 bc 95 e6 c3 bd
       0.014145224 -0.03318849 -0.018345175 -0.095654644
0003d0 73 01 a2 bc 34 9d 8e bc b0 eb d0 bd f2 82 c6 bd
       -0.019776082 -0.017408945 -0.10201204 -0.096929446
0003e0 b1 6a 74 bc ad 56 46 bd 6b 70 8d bd 0f 21 4f bd
       -0.014918015 -0.048422504 -0.06906208 -0.050568637
0003f0 6e 87 0a bc 30 bd 92 bd de 0c f6 bc 6c 3a 15 bc
       -0.0084551405 -0.07164991 -0.030035432 -0.009108167

transformer.layers.0.0.fn.fn.to_out.weight f4 [64, 64]
000000 f2 d0 ec bd fe d6 b4 3c 0c c0 37 3d 4c 2f 9b bd
       -0.11563291 0.022075173 0.044860885 -0.075773805
000010 1e a5 2f 3d 1d 41 4b 3e 1e 6c 51 bd b0 c8 4a 3d
       0.042882077 0.19849057 -0.0511285 0.049507797
000020 05 ef 20 3d f5 5b 12 bd 4f 78 62 bc 67 bf ba 3c
       0.039290447 -0.03573223 -0.013822629 0.022796346
000030 5b 47 49 3d 03 9d fe 3b a2 4a 1b 3e f9 ca 8c 3d
       0.049140316 0.007770182 0.15165189 0.068746515
000040 df 08 30 3d 19 28 91 bd e9 fb 26 bd c2 4e b1 bd
       0.04297721 -0.07087726 -0.040767584 -0.086576
000050 82 e4 2c bd bc 39 1f 3d d9 ee 1a bd 2c 00 9c bd
       -0.04221011 0.03887342 -0.03782544 -0.0761722
000060 d2 9b d8 3d e0 d4 d1 bd e3 62 01 3e d2 79 33 3c
       0.10576595 -0.10245681 0.12635379 0.010954337
000070 28 25 8a 3d e7 3f 0a be 8f a1 b7 bd f6 74 f2 bd
       0.06745368 -0.1350094 -0.08966362 -0.11838715
000080 a4 51 02 be 6e e0 03 3d f1 81 9c bd fe a8 68 be
       -0.12726456 0.032196455 -0.07641972 -0.22720715
000090 85 ec b4 bd 9f 87 e4 bd 46 83 bf bc c8 99 9c bc
       -0.08834175 -0.1115868 -0.023378026 -0.019116297
0000a0 6b 66 13 be 96 14 58 be 20 65 56 3e eb 07 0b be
       -0.14394538 -0.21101603 0.20937014 -0.13577239
0000b0 c1 a2 07 be 0e 23 10 3e 8b e9 e6 3d b6 4e 90 be
       -0.1324568 0.14075872 0.112750135 -0.28185052
0000c0 70 30 80 3e 3a be da 3a 6c 28 f6 3d c3 cd 77 bc
       0.25036955 0.0016688772 0.120194286 -0.015124741
0000d0 30 68 26 3e d9 77 48 bd 12 dd 2a 3c a2 f7 21 be
       0.16250682 -0.04894242 0.010428684 -0.1581712
0000e0 6a d2 73 bc 14 1f 28 3e 46 25 16 be 30 e8 9d bc
       -0.01488171 0.16418105 -0.14662656 -0.019275755
0000f0 a8 88 a1 bb 3f 70 8a 3d 82 1d 33 3d 96 ec 00 3e
       -0.004929621 0.067596905 0.043729313 0.1259025
000100 4f f1 fb 3d fa 29 a2 bd 60 e0 8c bd 2a 13 2c 3c
       0.12301885 -0.07918163 -0.06878734 0.010502616
000110 88 c8 c0 bd 9b 12 8d bd e4 4a 63 bd f1 78 1c bd
       -0.09413248 -0.06888314 -0.055491343 -0.038201276
000120 6d dd 48 be 09 05 16 3d 5c 41 68 3e b3 af be 3d
       -0.19615717 0.036625896 0.22681183 0.09310856
000130 e9 eb 18 bd 84 29 51 bd d3 7d c7 bd bb ae 30 3e
       -0.037334356 -0.051064983 -0.09740796 0.17254154
000140 e5 95 aa bd ea 01 49 3e e5 ea 3e 3c 07 4a a3 3b
       -0.08329371 0.19629636 0.011652683 0.00498319
000150 be 70 69 be 0c ad 9b 3e a4 b3 34 3e 07 52 5e ba
       -0.22796914 0.30405462 0.17646652 -0.0008480851
000160 49 20 e2 3d b8 63 6a bd bd 02 84 bb 0b 03 9f 3d
       0.11041314 -0.057224005 -0.0040286467 0.07764252
000170 34 33 8f 3d 31 56 be 3d 32 fc 90 bd 39 58 05 3c
       0.06992188 0.092937835 -0.070793524 0.00813871
000180 eb eb 99 bd ed a8 3b 3e 1f dd 1c 3d 0d ee 26 be
       -0.07515701 0.18326159 0.038296815 -0.16301747
000190 b9 a1 63 3e 9f c5 23 3e 2d 7d e7 bd 70 3c 8c 3d
       0.22229661 0.15993355 -0.11303172 0.06847465
0001a0 e3 db 91 3d 33 01 f1 3d 35 ff 23 be 88 94 77 bc
       0.07122018 0.11767807 -0.16015323 -0.015111096
0001b0 13 87 0e be 70 ae b7 bc bd 67 79 3d 3f 38 05 3c
       -0.13918714 -0.022422045 0.06088995 0.008131086
0001c0 40 7a 01 be 40 46 48 3d d1 aa d8 3d 2d 00 33 be
       -0.12644291 0.04889512 0.10579456 -0.17480536
0001d0 18 2f a4 3d 60 82 d8 bb f4 cf c9 bc 41 21 be bc
       0.08016795 -0.006607339 -0.024635293 -0.023209216
0001e0 ac c9 b8 3d c1 4f 4f be eb 14 c3 3d 83 34 95 bd
       0.09022841 -0.20245267 0.09525474 -0.072854064
0001f0 9c dd 1f 3e 04 bd 8e bc 24 bc 56 bd 87 37 0a be
       0.15611881 -0.017424114 -0.05242552 -0.13497745
000200 8e a1 a1 3c dc 4b 0d 3e 9d dc 0a 3e ed 3d 3e be
       0.019730356 0.1379847 0.1356072 -0.1857831
000210 d8 a7 18 3d 0d 53 bf 3d 0a 4c 9a bd 92 eb 4b 3e
       0.037269443 0.093420126 -0.075340346 0.19914082
000220 6f cf 86 bd 76 3e 8a 3d 3b 93 a2 bd f4 cd fc bc
       -0.065825336 0.06750195 -0.07938238 -0.030859925
000230 27 94 84 3c 0e d2 1d 3d 01 80 fb bd 8d f1 c9 3d
       0.016183926 0.038530402 -0.12280274 0.09860525
000240 2d e8 12 be 4a cc 98 be 8f ae 51 be f6 2a 68 3e
       -0.1434638 -0.2984336 -0.20476745 0.22672638
000250 22 3e 25 3e 64 da df be 7f c9 7b 3d d0 2d b3 bd
       0.16136983 -0.43721306 0.06147146 -0.087489724
000260 d2 7f 81 3d 8c ec 9c 3d 0a 34 87 be 8e 4a 26 3d
       0.06323208 0.07662305 -0.2640689 0.040598445
000270 16 a9 08 3e 93 6f 2b be 9d 40 2c bd 73 a1 20 be
       0.13345751 -0.16741781 -0.042053808 -0.15686588
000280 79 c7 95 bd 4f e6 90 3c af d7 af bd dc 84 3a be
       -0.07313437 0.017687945 -0.0858606 -0.18214744
000290 a6 05 ae bc e0 22 71 3d e2 6d bb bd 02 37 da bd
       -0.021242928 0.05887115 -0.09151818 -0.10655023
0002a0 1c 16 31 3d 03 24 27 3d aa 82 12 3d 9b ac 83 bd
       0.043233976 0.040805828 0.035769142 -0.06429406
0002b0 0b dd 06 3e 5f 31 35 3e 01 c3 25 3e 04 40 32 3b
       0.13170259 0.17694615 0.1618767 0.00271988
0002c0 1c ca 0d 3e c2 bb 49 3d d8 9e 5a ba 26 00 23 bc
       0.1384663 0.049251325 -0.00083397096 -0.009948766
0002d0 79 a7 90 bd be 79 a6 3d 95 0d 8a 3e a2 d0 f3 bc
       -0.07063193 0.08128689 0.26963487 -0.02976257
0002e0 e5 2f f7 bd 33 80 dc 3d 3c 5f 6b 3e 32 41 02 3d
       -0.12069682 0.107666396 0.22985548 0.031800456
0002f0 01 6d d2 3d 66 40 95 3d 12 5a 51 3e 92 01 5f 3e
       0.10274697 0.07287674 0.20444515 0.21777943
000300 2a 37 08 3e 10 35 05 bb 1f 57 82 bc a7 22 d4 bc
       0.13302293 -0.0020325817 -0.015910683 -0.02589543
000310 b7 50 f5 bd d5 96 85 3d 35 23 0c be c3 2c 42 3c
       -0.11978286 0.065229096 -0.13685305 0.011851492
000320 34 06 50 bc 72 c1 c6 bc 7a 62 80 3e d0 93 ce 3d
       -0.012696791 -0.024262164 0.25075132 0.10086787
000330 7d 16 39 be ce 5e 88 bc 02 ca 3c bd 81 12 31 bd
       -0.18074985 -0.016646769 -0.046091087 -0.043230537
000340 5b 60 14 3d bc 6a ca bd 4b 65 12 be 8b f5 af 3d
       0.036224704 -0.09883639 -0.14296453 0.085917555
000350 f0 c6 3c bd 4b ae 37 bd 0a be 4c 3e 68 5a c0 3d
       -0.04608816 -0.044843953 0.19994369 0.093922436
000360 99 19 c8 3d d1 47 f6 bc 55 d4 00 3e 35 e7 32 bd
       0.09770507 -0.030063542 0.12580998 -0.043677527
000370 3e 98 d5 3d 53 ff 34 bd 08 85 a5 bd 68 41 ae bd
       0.104294285 -0.04418881 -0.08082014 -0.08508569
000380 32 04 61 bd 10 d5 e2 bc f5 0e a1 3d 3f c2 8e bb
       -0.05493564 -0.027689487 0.07864181 -0.004356652
000390 13 78 98 bb 85 1a a8 bd ff d1 8c bd db 67 e4 bd
       -0.004652986 -0.08208183 -0.06875991 -0.11152621
0003a0 8a ec 8c bb ad 08 98 bc 93 bd 1a 3e e0 91 1c be
       -0.0043006586 -0.018558824 0.1511138 -0.15290022
0003b0 f8 d5 41 3e fa 19 21 be ff 8e 84 be 1e 87 1f 3e
       0.18929279 -0.15732566 -0.25890347 0.15578887
0003c0 ff 6d 23 3d ca fe 69 3c 84 c7 10 be 62 5e 85 3d
       0.039899822 0.014281938 -0.14138609 0.06512143
0003d0 ca 2e e9 3d 66 9f ee bc c0 24 b3 bc 37 9a 90 bd
       0.113858774 -0.029128741 -0.02186811 -0.07060664
0003e0 80 68 40 be 22 12 1e 3e 17 c7 b4 bb e5 d4 d8 3d
       -0.18789864 0.15436605 -0.0055168974 0.105874814
0003f0 ac 01 00 3e 62 9e 37 3e 23 02 41 3e f1 98 f0 3d
       0.12500638 0.17931512 0.18848471 0.11747921

transformer.layers.0.0.fn.fn.to_out.bias f4 [64]
000000 5f 6c 19 3e db 1e 9f 3c 6c 2c fa bc 2d e5 89 be
       0.14982747 0.019423893 -0.03053876 -0.2693266
000010 76 7c fe 39 b8 5a 1e be df 13 44 3c de 37 90 bd
       0.00048539386 -0.15464294 0.011967628 -0.07041906
000020 cf 64 a2 bd 65 cd ef bd 09 ba 54 3b c7 fa 4c bd
       -0.07929384 -0.11709098 0.0032459518 -0.050043847
000030 52 a9 14 3e 50 79 5d be fc f2 30 bc ea 04 d8 3d
       0.14517716 -0.21628308 -0.0108001195 0.10547812
000040 9a d4 7b 3e f0 d0 52 3d 43 50 5c 3e cf 93 e2 bc
       0.2459282 0.05146879 0.21514992 -0.027658371
000050 9a b6 0a 3e ce 26 07 bd 25 43 d4 bd 11 71 7a 3e
       0.1354622 -0.03299599 -0.10364369 0.24457194
000060 f6 11 0d be 25 60 13 bd d4 09 0e 3d 1a 16 e1 3d
       -0.13776383 -0.035980362 0.03467734 0.10990544
000070 67 a2 dd 3c 52 d0 53 bd 99 9c f1 3c f7 9f 30 bb
       0.027054979 -0.05171234 0.029493617 -0.0026950815
000080 cc b3 3d 3d 46 6c 58 be 43 53 68 bd 06 b2 24 3d
       0.046314046 -0.21135053 -0.05672003 0.04020884
000090 de 67 61 bd 6f c1 31 3d b7 0b 5f bb e6 53 c5 bc
       -0.055030696 0.043397363 -0.0034034082 -0.024087857
0000a0 37 da c6 bc ec 5b 1d 3e d3 9e 56 bd 98 9a 0a 3c
       -0.024273975 0.15367097 -0.05239756 0.00845971
0000b0 b1 3d f4 bc dd 1c d1 bd 27 5a 1d 3d 83 bb 3b be
       -0.029814573 -0.10210583 0.038416054 -0.18333249
0000c0 4d ab 73 3e 6f aa 4b be 95 da 76 3d f0 4e ea 3d
       0.23795815 -0.19889234 0.06026705 0.114408374
0000d0 61 b2 9d 3d fe e4 85 3c b6 88 b1 3d 11 44 16 be
       0.07700039 0.016344544 0.08668654 -0.14674403
0000e0 35 42 dc bc 64 01 57 be c9 68 1c 3d 98 5c 1a 3d
       -0.026887039 -0.20996624 0.03818587 0.03768596
0000f0 8d 7d 65 3e 7c 3f b1 3d 6d 81 0f bd 9e 28 46 3d
       0.22411175 0.08654687 -0.03503554 0.04837858

transformer.layers.0.1.fn.norm.weight f4 [64]
000000 4d 77 82 3f ef b1 83 3f 8c fd 38 3f fb 7f 5c 3f
       1.0192658 1.0288676 0.7226188 0.8613278
000010 15 bd 61 3f 95 7c 7f 3f 7a c2 43 3f 60 3c 4e 3f
       0.8817914 0.9979947 0.7646862 0.80560875
000020 8e 44 7f 3f e2 c3 55 3f 7c ca 6f 3f 44 71 80 3f
       0.9971398 0.8350202 0.9366834 1.0034566
000030 eb 0a 45 3f d8 d5 7d 3f ed c5 22 3f 72 ed 45 3f
       0.76969784 0.99154425 0.6358326 0.7731544
000040 82 1f 80 3f 08 b8 70 3f fa 3c 81 3f 9a 00 59 3f
       1.0009615 0.9403081 1.0096734 0.8476654
000050 bb ae 4d 3f 94 14 87 3f ca f1 5a 3f cc a2 35 3f
       0.8034474 1.0553155 0.8552519 0.70951533
000060 7d 14 50 3f 3e ea 81 3f bd 6c 3e 3f 87 6e 75 3f
       0.8128126 1.014961 0.7438467 0.95871776
000070 af 64 7d 3f f7 e6 6c 3f 70 4b 20 3f e2 cf 80 3f
       0.98981756 0.92539924 0.6261511 1.0063441
000080 69 9d 2d 3f 1d d1 80 3f 15 78 45 3f dd 55 75 3f
       0.67818314 1.0063816 0.77136356 0.9583414
000090 33 60 5e 3f e6 bc 5f 3f cf 1f 82 3f 36 52 69 3f
       0.8686554 0.8739761 1.0165957 0.9114107
0000a0 b0 a5 8b 3f ed 34 84 3f 57 4a 2e 3f e7 8f 8b 3f
       1.0909939 1.0328652 0.68082184 1.090329
0000b0 9a e7 33 3f 0d 3e 4c 3f a7 ae 57 3f f5 c1 81 3f
       0.7027527 0.7978218 0.84250873 1.0137316
0000c0 63 c8 43 3f 75 0a 8d 3f 14 6c 89 3f c2 8a 73 3f
       0.7647764 1.1018816 1.0736108 0.951336
0000d0 5b 4c 51 3f 2d 5d 8f 3f 40 7b 14 3f 7b ca 82 3f
       0.81757134 1.120031 0.58000565 1.0218042
0000e0 f0 f5 6c 3f d3 f5 4b 3f 89 3f 75 3f b5 99 4b 3f
       0.9256277 0.79671973 0.9580007 0.79531413
0000f0 90 8e 58 3f 42 36 5d 3f c0 23 42 3f 1c e1 64 3f
       0.84592533 0.86410916 0.758358 0.8940599

transformer.layers.0.1.fn.norm.bias f4 [64]
000000 ad 73 99 3d 87 c6 41 be af 03 3d be 83 ed d2 3c
       0.074927665 -0.18923388 -0.18458436 0.02574802
000010 25 74 39 3c 95 d4 a7 3d 1e 6a 7c bd 4b 59 75 3d
       0.011319195 0.08194844 -0.06162464 0.05989961
000020 f2 35 ad 3d bc 97 ce 3c d7 1b 89 bd 87 8f a3 bd
       0.08457555 0.025218837 -0.06694763 -0.0798636
000030 c5 e6 d4 3d b7 63 12 bd 32 a3 eb 3d f3 bf 3b be
       0.10395578 -0.035739627 0.115057364 -0.18334942
000040 9e f6 e0 bd 29 9a 89 3d b6 1b 43 bd 40 5f 63 3d
       -0.109845385 0.06718857 -0.04763385 0.05551076
000050 74 46 66 3d dd 40 b2 3c 8b 7a 51 bc 13 a1 0e be
       0.056219533 0.021759445 -0.012785564 -0.13928632
000060 12 af d0 bc 16 ba ee bd 21 6a 34 3e f1 18 00 bd
       -0.025474105 -0.11656587 0.1761861 -0.031273786
000070 2c 35 8f bd 9b 6c 7b 3c 72 98 62 3d 7d 3d 68 3d
       -0.069925636 0.015345718 0.055321164 0.056699265
000080 50 ae 8b bc 20 f1 94 3d 8e 01 c8 3d 72 e2 d6 bd
       -0.017050892 0.072725534 0.097659215 -0.1049241
000090 f2 57 b2 bd 81 09 f7 3c 67 04 14 3e 15 87 f4 3d
       -0.087081805 0.030155899 0.14454804 0.11939827
0000a0 be 5b 5c 3c 5c 48 bb 3c 43 74 33 3d 01 58 5a 3d
       0.013449607 0.022861652 0.043812048 0.053306583
0000b0 5f 86 0e 3e 89 52 ac bc 5d f7 23 bd a4 9b 60 bd
       0.13918446 -0.02103545 -0.040030826 -0.05483593
0000c0 91 bb 02 be b5 f5 c5 3d c9 59 e8 3c ac 47 d0 bd
       -0.12766863 0.096660055 0.028363125 -0.1016992
0000d0 25 d0 4f 3d 75 06 a7 bd 71 70 a8 3c ea 59 81 3d
       0.05073561 -0.081555285 0.020561429 0.06315978
0000e0 26 14 14 bc a2 ae 00 3e f1 06 43 ba 94 5c 1e be
       -0.009038007 0.12566617 -0.0007439694 -0.15465003
0000f0 19 a9 21 3e 87 f3 ce bd 02 0f 94 3d 02 cf 1c bd
       0.15787162 -0.10105043 0.07229425 -0.038283356

transformer.layers.0.1.fn.fn.net.0.weight f4 [128, 64]
000000 de 76 72 3e 5c 27 20 be f9 c1 09 be 9f e7 99 3e
       0.23678157 -0.15640014 -0.13452901 0.30059525
000010 04 6b f3 3e 90 ba 8e 3d 7c 1f 9e be fd 70 eb 3d
       0.47542584 0.06969178 -0.30883396 0.1149616
000020 b8 e3 dc 3a 4d ea 0b bf ef c6 26 3e 11 d7 bb 3e
       0.0016852533 -0.5465439 0.16286825 0.3668752
000030 7d ca 1a be 02 78 a8 bd a9 1c 10 3e ee 86 b5 be
       -0.15116306 -0.08226015 0.14073433 -0.35454506
000040 eb 9e b4 be 50 ce fa bc 78 08 c5 bb 7a 31 c9 bd
       -0.35277495 -0.030615956 -0.0060129724 -0.0982389
000050 16 5f 4e 3e 5d be 12 3d 13 65 64 3e 2c 42 a6 be
       0.2015346 0.035826076 0.22304182 -0.3247236
000060 f2 81 c8 3d 78 c8 9a be 93 e9 a7 3e cd e0 d4 bc
       0.0979041 -0.3023107 0.3279539 -0.0259861
000070 84 1b 42 3e 45 8b e1 3d fd 16 5b bc 1d 0a 88 3d
       0.18955809 0.11012892 -0.01337218 0.06642554
000080 12 5a 8c bd 7f 65 89 3e d4 bb a1 3d b7 c7 03 bc
       -0.06853117 0.26835248 0.078971535 -0.008043221
000090 8d e1 09 bc 6b 69 59 bd a0 53 a8 3e 13 80 b3 3e
       -0.008415592 -0.05307905 0.328763 0.3505865
0000a0 59 64 b3 3e 3a dd 1a be b0 96 f8 bd 87 19 66 3d
       0.35037497 -0.15123454 -0.12138116 0.05617669
0000b0 cd 74 03 3e 83 50 bd bc 2e 4f 87 be b0 60 b0 3e
       0.12837525 -0.02310968 -0.26427597 0.34448767
0000c0 54 ec a6 be 14 46 6f 3c f7 1c 62 3e be ab 82 be
       -0.3260218 0.01460411 0.22081362 -0.25521654
0000d0 8a f5 91 be fc a1 b0 be 73 c9 9c 3e f6 88 32 3e
       -0.28507644 -0.34498584 0.30622444 0.17435059
0000e0 ce 52 06 bd e6 71 e9 3e d3 d8 cf be a7 5a d8 3d
       -0.032793812 0.4559471 -0.4059511 0.105641656
0000f0 b4 9f 6e 3e dc e5 0e be c6 6e 50 3c ee ec 0d bd
       0.2330311 -0.13954872 0.012721723 -0.034649782
000100 30 e9 56 bd 71 09 37 be b8 01 c9 3c 44 11 aa bc
       -0.05246848 -0.17874695 0.024536952 -0.020760186
000110 a1 6e 38 bc f5 45 bf 3d 26 c8 9f bd 39 94 50 3d
       -0.011256845 0.09339515 -0.07801847 0.050922606
000120 35 e8 3b 39 d9 9c 1a be 78 7a af bd 57 3c d0 3d
       0.00017920214 -0.15098895 -0.08568281 0.10167759
000130 d3 65 6d 3d 1a ad cf bd 4d e8 f6 3c 58 71 21 3e
       0.057958435 -0.101404384 0.030140067 0.15765893
000140 e9 91 1c be 03 ee b1 3d af 4e 10 3e 7a 34 a5 bd
       -0.15290035 0.08687975 0.14092515 -0.0806665
000150 d1 ed 94 3c 0b a0 aa bd ad 1c 3a 3e 00 c9 84 3d
       0.018179806 -0.08331307 0.18175001 0.0648365
000160 4c bd 2e 3d eb c0 8f bd ce 63 91 3d 27 c2 b6 bd
       0.042660996 -0.07019218 0.07099114 -0.0892375
000170 19 4d 80 3d 6f d7 03 be e4 36 f1 3c a9 c9 6d 3d
       0.06264705 -0.1287515 0.02944512 0.058053646
000180 72 15 a3 bd eb 07 e7 3d ab a0 8b bc 95 bc 9f be
       -0.07963075 0.11280807 -0.017044386 -0.31198564
000190 4a 69 dc 3c 64 11 19 be 81 29 1e 3e ef ca fa bc
       0.026905674 -0.1494804 0.1544552 -0.030614344
0001a0 db ee e1 3d 05 e8 0b be 1c 06 c4 bd 1a 9a 36 3e
       0.11031886 -0.13662727 -0.09571478 0.17832223
0001b0 cf 4a ba 3c cd 22 cf bd b0 7d d4 bc ca 1a 9c 3d
       0.02274075 -0.101140596 -0.025938839 0.07622297
0001c0 2f eb 83 bc 83 3c f7 3d 5e 0b 42 3e b2 f4 a3 bd
       -0.016103355 0.120720886 0.18949649 -0.08005656
0001d0 3b 11 7c b9 f3 b9 e8 bd 24 df 7a 3d 98 a8 55 3e
       -0.00024039012 -0.11363592 0.06124796 0.20865095
0001e0 68 d9 b8 3d b8 c7 c8 bc f2 7b eb 3d 22 de 15 38
       0.09025842 -0.024509296 0.1149825 3.5731246e-05
0001f0 e3 2f 51 3e ba f6 e9 bd 76 62 cd 3c 31 03 90 bc
       0.20428424 -0.114240125 0.025071364 -0.017579647
000200 a4 23 f9 3d f9 1c 20 be 12 c5 e2 bd be f5 31 3d
       0.12165001 -0.15636052 -0.110727444 0.04344725
000210 d7 e4 82 3e d9 da 5a 3e e2 9d 2a be d2 2b b6 bd
       0.25565216 0.21372546 -0.1666179 -0.08895077
000220 ca ee dc 3b a6 ec 4a be 2a c3 ea 3c 63 64 ad 3d
       0.006742333 -0.19816837 0.028657515 0.08466413
000230 1f 98 be 3d 41 f8 3e bd 97 16 b0 3d 36 f3 9d 3d
       0.093063585 -0.046623472 0.08598059 0.077124044
000240 ef c9 86 be 79 d1 8f bd 68 78 b0 39 e0 2e f7 bb
       -0.26325938 -0.070223756 0.00033659046 -0.0075434297
000250 a3 63 44 3e 9d 19 15 bd fa 8c 9d 3e eb 67 34 bc
       0.19178633 -0.03640138 0.3077162 -0.011011104
000260 af 02 93 3d d3 3e 14 be cb e0 b3 3e e8 c4 86 3d
       0.07178246 -0.1447709 0.3513244 0.06580526
000270 30 73 8f bd 6c d9 f3 bc fe a4 8b be 0d 21 e8 3d
       -0.07004392 -0.02976676 -0.27274317 0.11334429
000280 69 4d 80 3c 15 7c 86 3e ab 03 42 3d d5 49 1e be
       0.015661912 0.26266542 0.04736678 -0.15457852
000290 c2 42 81 be 65 86 a3 bc 55 e6 62 3e 7b 50 8e 3e
       -0.25246245 -0.019961545 0.22158177 0.27795777
0002a0 5c 45 f5 3d b3 96 41 be c9 37 8e 3b 6c 47 71 3e
       0.1197612 -0.18905143 0.004340146 0.23562402
0002b0 98 6f c0 bd 7b 9b b6 3d 2d be 7a be 80 69 d0 3c
       -0.09396285 0.08916374 -0.24486609 0.025440931
0002c0 2f d8 40 be 2c 21 55 3e 83 8b ac 3e e0 84 99 be
       -0.18832467 0.20813435 0.3370019 -0.29984188
0002d0 b7 2f cb bd d3 c4 a0 be d7 f1 92 3d 99 b7 7d 3e
       -0.0992121 -0.31400165 0.071750335 0.24777068
0002e0 01 52 38 be e1 64 d8 3d 88 59 c1 3d 6a 79 02 be
       -0.18000032 0.10566116 0.09440905 -0.12741628
0002f0 fa ca 00 3e ba b7 e6 bc ce 61 e2 39 de 3e 42 3d
       0.1257743 -0.02816378 0.0004317895 0.047423236
000300 3d ee e7 3a 86 ee 91 3d d1 f6 a9 bd 72 5b 88 bd
       0.0017694902 0.07125573 -0.082990296 -0.06658067
000310 6b b1 41 3c ee 53 98 bd 40 49 bc 3d 16 e0 f8 3b
       0.011822085 -0.07437883 0.09193659 0.0075950725
000320 f0 56 b7 3d 1c 1d d8 bc f1 82 47 3d 6d 2d f7 3c
       0.08952129 -0.026381068 0.04870886 0.030173028
000330 d3 27 61 bd 00 95 a6 bc 24 11 12 3e c6 40 0f be
       -0.05496962 -0.02033472 0.14264351 -0.13989553
000340 f4 e7 70 3d 95 df bd bd ae df b8 bd e6 40 0f 3c
       0.058814958 -0.092711605 -0.090270385 0.0087435
000350 91 53 f3 3d 6c db 92 bd 52 50 db bc c1 e5 e2 bd
       0.118811734 -0.07170758 -0.026771698 -0.11078978
000360 94 b4 b9 3d 46 48 ca 3d 1d 8e 74 3c 13 f7 3f be
       0.09067646 0.09877066 0.014926461 -0.18746595
000370 29 37 d4 3d 7c bd 29 bd 88 13 fb 3d 69 66 89 3c
       0.103620835 -0.041440472 0.12259585 0.016772466
000380 dd c9 a6 bc 75 b2 62 3c 62 58 f1 3d e7 8c 17 3d
       -0.020359928 0.013836493 0.11784436 0.03699961
000390 21 22 4a 3c 36 bd 3b 3c 64 44 fe bd de 29 1a 3e
       0.0123372385 0.011458686 -0.12415388 0.15055034
0003a0 cf 8e c6 3d d8 44 41 3d 2a a2 05 3e 0e 18 28 bd
       0.09695207 0.047184795 0.13050142 -0.041038565
0003b0 72 b3 00 3e 0a 3b 03 be b8 50 2e 3e 8d e3 e4 3d
       0.12568453 -0.1281549 0.1702298 0.11176214
0003c0 8f 83 b3 bd 76 92 73 3d 10 22 c4 3c 26 c0 13 3d
       -0.08765327 0.059465848 0.023942024 0.03607192
0003d0 f9 01 6b 3d 4b 2f c3 3d c5 05 34 be 8c 12 cd 3d
       0.05737493 0.09530505 -0.17580326 0.10013303
0003e0 18 1c 8c bc 95 ad 9f 3d 6b 10 b2 3d c3 71 cb 3c
       -0.01710324 0.0779678 0.08694538 0.02483452
0003f0 5e 8b d8 3d be 39 df bd 1d f5 ec 3d 16 db a9 bd
       0.10573457 -0.10899685 0.11570189 -0.082937405
