model_training/trained_models/model_200_resnet.pth (torch, 223129 bytes, 16 tensors)

patch_to_embedding.weight f4 [64, 192]
000000 36 19 39 3c fb 28 a1 bc 11 31 d3 bc 5e f9 ee bb
       0.011297515 -0.019672861 -0.025780233 -0.0072929105
000010 52 9a a5 bc 2d c9 5d bd 62 61 92 bd 34 06 65 bd
       -0.020215187 -0.054146934 -0.071474805 -0.05591412
000020 f5 0c 85 3d e8 51 56 3d 5e c0 a3 3c e5 6d 6b 3c
       0.06496612 0.052324206 0.019989189 0.014369463
000030 6f bb 4a 3d 4b 6c 4d 3d 05 39 f0 3c 8f f5 0c bc
       0.049495157 0.050152104 0.029324064 -0.008603468
000040 76 c4 cd 3c 10 92 2c bd f4 6a e7 3c 81 0f 48 3d
       0.025118094 -0.042131484 0.028249241 0.04884291
000050 25 00 31 3c 8e 95 3e bd af d0 2d 3c d2 cf 5c 3d
       0.010803257 -0.046529345 0.010608836 0.05390913
000060 3f 6b 18 bc 75 b7 d9 3c 34 19 80 3b ef a9 fa 3c
       -0.009302913 0.026576737 0.0039092544 0.030598609
000070 46 fd ae 3c b8 98 70 3b 7f 37 90 bd 53 13 65 3d
       0.021361005 0.0036712121 -0.07041835 0.055926632
000080 f1 56 8f bd f4 9f 84 bd ea 5f 73 3d d7 38 b2 bc
       -0.06999005 -0.06475821 0.059417643 -0.021755619
000090 68 cd 90 bd 26 be 4e 3d 1a 94 eb bc 0a 47 44 3d
       -0.07070428 0.05047431 -0.028757144 0.04791931
0000a0 33 65 50 3d 2c 98 95 bd 73 65 9c bd 41 81 77 bb
       0.05087776 -0.07304415 -0.076365374 -0.003776625
0000b0 85 03 d5 bc c5 3a 99 bd ef d0 49 bd f4 de 31 3d
       -0.026002655 -0.074819125 -0.04927152 0.043425515
0000c0 85 f9 e2 3c 81 20 ae 3c 2a d2 ea 3c 60 d0 e9 3c
       0.02770687 0.021255733 0.028664667 0.028541744
0000d0 68 50 2a 3d ed 6b 5f bc ea 0b 11 bc 75 72 85 3d
       0.041580588 -0.013636571 -0.008852938 0.065159716
0000e0 2f 2f 87 3a 0c 0a 85 bc 17 f9 49 3d 2d e0 12 3d
       0.0010313744 -0.016240142 0.049309816 0.035858322
0000f0 46 c1 37 b8 41 f2 07 3d a9 01 77 3d 1c c6 0c bc
       -4.38106e-05 0.033190016 0.060304318 -0.008592155
000100 35 97 25 bd 26 3a 2a 3c 4f 13 75 3d d2 02 3f bd
       -0.040427405 0.01038984 0.059832867 -0.04663355
000110 a4 90 8e bd 03 ea 08 bd 28 d1 96 3b 6e ab 82 bd
       -0.06961182 -0.033426296 0.00460257 -0.06380354
000120 4a 59 4f bd 9b 43 47 3a 41 34 5b 3d 38 46 ee 3c
       -0.050622262 0.00076013216 0.05351663 0.029086217
000130 92 a4 1f 3d 10 b8 b5 3c 16 08 65 3c b6 64 79 3d
       0.038975306 0.022182494 0.013978979 0.06088706
000140 a2 c9 ef bc 8e 17 50 bc 16 a9 a6 3b 1c 81 de 38
       -0.02927095 -0.012700928 0.0050860746 0.000106098334
000150 fd 4b c0 bb a9 46 14 bd ff 6e 62 3d de d6 0e 3d
       -0.0058684335 -0.0362002 0.055281635 0.034872882
000160 fe 8e 82 bd 9c 17 eb 3b a8 7f 97 bd c5 3b 6c 3d
       -0.0637493 0.0071744453 -0.07397395 0.05767419
000170 3b 9d a7 3c 7f 54 01 3d f2 6b 85 3d ed ec 5d 3d
       0.020460716 0.031574722 0.065147296 0.05418103
000180 04 6a 11 3d 0c b7 ee bc 9e d1 5f bc 55 1f 22 3d
       0.035501495 -0.029140018 -0.0136608165 0.03958066
000190 2e 11 4d 3d 8d fb dc bc 9b 2f 65 3d 6b 12 2b 3d
       0.050065212 -0.026975418 0.055953603 0.04176561
0001a0 99 4e 63 3d 43 5a 40 bc 17 89 2d bb 95 9f 3a bd
       0.05549488 -0.01174027 -0.0026479417 -0.045562346
0001b0 6f fb 94 bd df 2c 82 bc ae 59 0f 3c dd 1d 6b bd
       -0.0727452 -0.015890537 0.008749409 -0.057401527
0001c0 db c5 6a 3c a7 99 8f bd ca b4 92 bd d9 f0 76 3d
       0.014329399 -0.07011729 -0.07163389 0.060288284
0001d0 39 6d 74 bd 05 c1 00 bc f2 2b d9 bc 4c d7 d1 3c
       -0.059674475 -0.007858519 -0.026510213 0.025615357
0001e0 5d 3a 81 3b 7d 3b 11 bd 87 f3 3a bd 84 33 82 bd
       0.003943725 -0.035457123 -0.045642402 -0.06357482
0001f0 a9 46 bf bc 75 ca f6 3c f0 cc 95 bc da e3 80 bd
       -0.023349123 0.030125836 -0.018286198 -0.06293459
000200 8f fa 5b 3c a4 90 9b bd e1 eb 8b bd 9a 99 15 3d
       0.013426437 -0.075959474 -0.068321 0.03652344
000210 0b ff 96 bd 53 1e fd bb 1f 9f 69 bd ce 3c 41 3d
       -0.07372864 -0.007724562 -0.057036515 0.04717713
000220 50 7d 56 bd e1 d6 99 bd 30 1c 41 3d 52 13 da b9
       -0.0523656 -0.07511688 0.047146022 -0.00041594595
000230 b1 a2 7f bd 47 8a f6 3c c9 7b 8b bd ff 73 8c 3c
       -0.062411014 0.030095233 -0.068107195 0.017145155
000240 a7 75 0f bd 7d a7 04 3d d2 1e 27 3d 77 ed 80 bc
       -0.03502431 0.03238629 0.040800877 -0.015738232
000250 e6 31 56 3d af 5e ba 3b 0a f1 18 bc aa aa 68 3d
       0.05229368 0.0056875567 -0.009334812 0.056803383
000260 f0 9d 0c 3d ab be 24 bd 12 f6 c0 3c 3f 5a 41 bd
       0.03433031 -0.040220898 0.023554835 -0.047205206
000270 0c e5 bb ba ce fd 84 bd 75 8c 22 3d bf 51 98 bd
       -0.0014335229 -0.06493722 0.03968473 -0.07437467
000280 2f cf a7 bc 48 6b 0f 3d 90 92 00 bd ab c5 84 3d
       -0.020484535 0.03501442 -0.031389773 0.06483015
000290 ad 6c 7b 3c 84 3e 00 bc 8b ab e7 3c 2f 6d 69 bd
       0.015345735 -0.007827405 0.02828004 -0.05698889
0002a0 f7 2a fc 3c 80 b0 9d bd f2 1b 83 3c 94 de 82 bc
       0.030782206 -0.0769968 0.016004536 -0.015975274
0002b0 9e 9d 5d 3d 07 88 a8 bc 79 02 12 3b 6d 79 92 bd
       0.054105394 -0.020572675 0.0022279306 -0.071520664
0002c0 30 25 2d 3d 6d c1 99 bd f2 4a 05 3d f5 8d 7a 3c
       0.042271793 -0.07507596 0.032542177 0.015292634
0002d0 af 1a 55 3d 58 41 76 3d 42 50 1c 39 48 0b 84 bd
       0.0520274 0.06012091 0.00014907218 -0.06447464
0002e0 df 46 67 3d d6 34 38 bd 85 27 88 bd 73 82 e3 3c
       0.056464072 -0.044972263 -0.06648163 0.027772164
0002f0 95 2c 24 bd c8 32 37 3d c7 a1 39 3d 2b ef ed bc
       -0.04008158 0.044726163 0.0453203 -0.029044708
000300 22 da 20 bc 6a 8e b0 bc 59 c9 d6 bc 6e c5 72 bd
       -0.009817632 -0.021552283 -0.026219057 -0.059270315
000310 83 f2 bb bc c8 33 88 3d 33 45 1e 3d dc b1 78 3c
       -0.022942787 0.066505015 0.038640212 0.015179124
000320 e0 49 68 bd 39 31 c4 3c 5b 4a 47 bc 7b b1 19 bd
       -0.056711078 0.023949252 -0.012163724 -0.037522774
000330 c9 59 c8 3c dd ee 2d bd db ac 3c 3b 2e b5 d0 bc
       0.024456875 -0.042464126 0.0028789553 -0.025477018
000340 2a 95 8a bd e5 27 0d 3d 84 a3 0f 3a 09 b8 21 3d
       -0.06766732 0.034461875 0.0005479383 0.03948215
000350 51 b1 d7 bc de 64 48 3a 95 54 38 bd 84 b4 28 3d
       -0.026329668 0.0007644425 -0.04500254 0.041187778
000360 4c 51 25 bd 43 b5 f5 3b de d9 79 3d b6 be 8c bd
       -0.040360734 0.0074984147 0.06099879 -0.06872313
000370 86 9b 24 bd d9 62 fb 3c 11 b6 8d bc 7c fb 0f bd
       -0.04018738 0.030686783 -0.01729873 -0.035151944
000380 af b5 9b bd fc 67 7c 3d 9a dc e8 3c ae f4 f2 bb
       -0.07603013 0.061622605 0.028425504 -0.007414422
000390 a2 1d 4b 3c cb 80 39 3d 49 25 82 3d 6d b1 24 bd
       0.012397202 0.045288842 0.06354768 -0.04020827
0003a0 de ab 4d bd 46 5e 72 bd de 27 78 bd 55 26 10 3d
       -0.050212733 -0.059171937 -0.060584895 0.035192806
0003b0 22 7e 8e bd 2e 94 55 3d d2 ea 70 3d cd 7e 7b bd
       -0.06957652 0.05214327 0.058817692 -0.061400224
0003c0 2d 34 5e 3d 65 31 39 3d 55 40 99 bd 91 b6 ef bc
       0.054248977 0.045213122 -0.074829735 -0.02926186
0003d0 b7 d4 0a 3d 00 78 ba bc 9d 91 e3 bc b5 c5 9d bc
       0.033894267 -0.022762299 -0.027779395 -0.019259313
0003e0 4b 1d 39 3d 3a 43 68 bd 66 91 e1 bc 5e 86 dc bc
       0.04519395 -0.056704737 -0.027535152 -0.02691954
0003f0 63 ba 53 3c 68 d5 34 bd bc 21 34 bd d9 be b5 bc
       0.012922856 -0.044148833 -0.043977484 -0.02218573

patch_to_embedding.bias f4 [64]
000000 f2 a7 50 bd a5 ea bc 3c dd 83 91 3d 31 7e 88 3d
       -0.050941415 0.023061106 0.07105229 0.06664694
000010 56 cb 32 3c 34 3e 26 3d 49 51 f7 bc 79 40 33 bd
       0.010912737 0.040586665 -0.030190127 -0.043762658
000020 31 9c 23 3d f0 eb a1 bc e7 3e 99 3b d9 e7 db bc
       0.039943878 -0.019765824 0.004676688 -0.026843952
000030 c4 de e7 bc 0b 15 8e 3d 9d 9d 79 bd c1 d4 d5 3c
       -0.028304465 0.069376074 -0.060941327 0.026102426
000040 e2 c6 4d bb b2 a3 fd 3c c4 24 43 bd 93 78 90 bd
       -0.003139906 0.030961845 -0.047642484 -0.07054248
000050 36 69 4b bc 18 18 3e bd 0f 62 76 3d 1e d2 ec 3c
       -0.012415221 -0.046409696 0.06015211 0.028908785
000060 1f d2 4b bc df 77 7e 3d d7 bb 78 bd 64 be 9b 3b
       -0.0124402335 0.062126037 -0.060726013 0.004752921
000070 1b 4c 94 bd e8 ab d7 bc 66 a7 01 bd be ce 5b bd
       -0.072410785 -0.026327088 -0.031653784 -0.05366396
000080 87 fc 7d bd 62 16 87 3d fd 4b 01 bd 28 02 96 3c
       -0.062008407 0.06596066 -0.03156661 0.018311575
000090 09 00 52 3b 5e 42 ac bd f4 26 4d bd 4b 71 33 bc
       0.0032043478 -0.08411096 -0.050085977 -0.010952304
0000a0 f0 39 bd bc e4 5d 34 bd bb 57 15 bd d2 31 c8 3b
       -0.023098916 -0.044034854 -0.03646062 0.0061094547
0000b0 07 73 b5 3c 8b a2 71 3c 12 aa 90 3c 27 6e 31 3d
       0.022149576 0.014748226 0.01765922 0.04331794
0000c0 74 e1 60 3d b1 f0 91 3c ab 11 5b 3d 28 53 9b 3c
       0.05490251 0.017814966 0.053483646 0.01896055
0000d0 eb d5 21 bd 54 75 01 3d 62 0b 9a 3b 69 11 f4 3c
       -0.03951065 0.031606033 0.004701064 0.029793458
0000e0 bc 24 aa 3d 29 e1 89 bc bd ec 85 bd 2e d3 4f bd
       0.08307788 -0.016830998 -0.06539295 -0.050738506
0000f0 87 5e 88 3c e1 60 21 bd 80 e5 fc 3b 98 75 ea 3c
       0.016646637 -0.03939903 0.007717788 0.028620526

transformer.layers.0.0.fn.norm.weight f4 [64]
000000 34 50 7e 3f ee 18 80 3f c0 06 80 3f 52 12 80 3f
       0.9934113 1.0007608 1.000206 1.0005591
000010 99 1e 80 3f d1 43 7f 3f 40 ac 7f 3f cf 04 80 3f
       1.0009338 0.99712855 0.9987221 1.0001467
000020 a4 12 80 3f 19 19 80 3f db 52 7f 3f 6b c0 7f 3f
       1.0005689 1.0007659 0.997358 0.9990298
000030 54 f2 7f 3f 83 20 80 3f 51 f6 7f 3f 5a d7 7f 3f
       0.9997914 1.0009922 0.99985224 0.99937975
000040 69 03 80 3f 62 9b 7e 3f d5 05 80 3f a5 89 7f 3f
       1.0001041 0.99455845 1.000178 0.99819404
000050 7a ce 7f 3f 60 c2 7f 3f 38 20 80 3f 81 22 80 3f
       0.99924433 0.9990597 1.0009832 1.001053
000060 25 52 7f 3f 0d 5a 80 3f f0 07 80 3f 87 ea 7f 3f
       0.9973472 1.0027481 1.0002422 0.99967235
000070 51 e7 7f 3f 9a 06 80 3f bd e6 7f 3f d4 d2 7f 3f
       0.99962336 1.0002015 0.99961454 0.99931073
000080 d0 86 80 3f c0 29 7f 3f 68 25 80 3f e1 c9 7f 3f
       1.0041142 0.9967308 1.0011415 0.9991742
000090 a8 e6 7f 3f 58 58 80 3f 5c 07 80 3f 6e 91 7f 3f
       0.9996133 1.002696 1.0002246 0.99831283
0000a0 72 d0 7f 3f cb dc 7f 3f 81 54 80 3f 88 38 7f 3f
       0.9992744 0.9994628 1.0025789 0.99695635
0000b0 cb ba 7f 3f 0e 21 7f 3f 4c b3 80 3f ff 36 80 3f
       0.998944 0.9965981 1.0054717 1.0016783
0000c0 b2 17 80 3f 3d 25 80 3f 65 e5 7f 3f a1 1d 80 3f
       1.0007231 1.0011364 0.99959403 1.0009042
0000d0 8b fa 7f 3f 43 21 80 3f 48 bf 7e 3f c4 a6 7e 3f
       0.99991673 1.0010151 0.9951062 0.99473214
0000e0 8a e2 7f 3f 14 cf 7f 3f fd b8 7f 3f 8f af 7f 3f
       0.99955046 0.9992535 0.99891645 0.99877256
0000f0 ce 50 7f 3f 6e b2 7f 3f 62 e7 7f 3f 03 02 80 3f
       0.99732673 0.9988164 0.9996244 1.0000614

transformer.layers.0.0.fn.norm.bias f4 [64]
000000 a5 42 8c bc 82 68 51 bc 69 51 f2 3a 2f cb 41 3b
       -0.017121622 -0.012781264 0.0018487397 0.002957057
000010 22 5d e1 3b 96 c4 e2 3b d1 3f 7f 3c 49 43 e5 3b
       0.0068775574 0.0069204075 0.01557918 0.0069965464
000020 44 33 a7 3b 67 0a 68 bb ff 0f 3a 3b 38 bf 21 3b
       0.005102547 -0.003540659 0.0028390882 0.0024680626
000030 15 04 74 bb 3e 91 aa 3b a7 8e f8 3a 35 5d 53 ba
       -0.0037233878 0.0052053025 0.0018963412 -0.00080629
000040 db 20 dd bb f5 af 5d bc d7 39 8d 3b d0 d2 3a bc
       -0.0067483014 -0.013530721 0.0043098736 -0.011402801
000050 f0 40 5a 3a b1 47 f7 ba 7d 7b 38 3c 30 b1 92 bb
       0.00083257165 -0.001886597 0.011259911 -0.004476689
000060 8a 93 71 3c 4a bb 85 3c 07 f5 c1 3b 4f 06 ad bc
       0.014744649 0.016324658 0.005919102 -0.021121172
000070 7c 25 5f bc 99 d3 9b bc 9f 1b 35 3b df cb 28 bb
       -0.013619777 -0.019021796 0.0027634872 -0.0025756282
000080 57 44 12 bc 59 d2 3c 3c 2f 42 89 3c 9c fb 2f ba
       -0.008927426 0.01152476 0.016755192 -0.0006713213
000090 69 6e 74 3b 7f 8e 7d bc de 94 6e bc 3c d6 3d 3b
       0.0037297255 -0.015475868 -0.01456186 0.0028966805
0000a0 42 5d 80 ba cb b8 f8 3b f9 df ef bc 79 ae 50 bc
       -0.0009793418 0.0075903884 -0.029281603 -0.01273691
0000b0 33 15 79 3b db 87 78 3c ad 4d 77 bc c7 fb 35 3c
       0.003800702 0.015169109 -0.015094203 0.011107392
0000c0 09 ab 4f 3c b5 73 39 3c 79 c0 45 3b ae f5 93 3a
       0.012675055 0.011319091 0.0030174537 0.0011288428
0000d0 2b 7b c6 bb a5 3d cb 3b b6 9b 6b bc 41 39 b6 bc
       -0.0060571632 0.006202417 -0.014380386 -0.022244098
0000e0 f1 58 54 3c 92 12 a8 bb 19 98 a3 3b 84 1d a0 bb
       0.012960658 -0.005129167 0.0049924967 -0.004886331
0000f0 a7 46 89 3c fa 61 01 bb a9 f8 e8 3b 39 9a 4c 3c
       0.016757322 -0.0019742236 0.0071097207 0.012487941

transformer.layers.0.0.fn.fn.to_qkv.weight f4 [192, 64]
000000 31 85 95 bd 79 b7 7f 3d 42 9d 89 39 b3 d1 c5 bd
       -0.07300795 0.062430833 0.00026247842 -0.096591376
000010 8f fa d6 3d ed 07 78 bd e0 b4 fc 3d e3 84 c0 3d
       0.10497009 -0.060554434 0.12339187 0.09400346
000020 49 fd cf 3d 06 85 d7 3d 40 b0 61 bd a6 59 ff 3d
       0.10155732 0.10523419 -0.055099726 0.12468271
000030 b1 80 b3 3d 0a 6e f1 3d 66 32 56 bd b8 a4 e9 3d
       0.0876478 0.117885664 -0.052294157 0.11408371
000040 b4 32 bc 3c cd 19 b1 bd 3c 27 b9 bd cd 9b ce bc
       0.022973396 -0.08647499 -0.090406865 -0.025220776
000050 39 9a 97 bd cf 7a 30 3c 3b 5b cb bd 20 25 65 bd
       -0.074024625 0.010771467 -0.0992951 -0.05594361
000060 98 79 b1 3d f1 c6 a9 bd 6b 53 c7 bc 53 37 0c bb
       0.0866577 -0.08289898 -0.024331769 -0.002139528
000070 00 de a0 bc 00 7c f9 bd 15 d2 23 3d 69 a5 88 3d
       -0.019637108 -0.12181854 0.03999527 0.066721745
000080 77 11 de 3d f5 9c 70 bd f0 e9 5b 3d 8a 42 e1 3d
       0.10843175 -0.058743436 0.053689897 0.109990194
000090 3d 56 29 3d 2e 46 49 bc 56 91 19 3c f4 90 54 3c
       0.04134201 -0.012284799 0.00937303 0.012974013
0000a0 4a b2 e1 bd 3d 37 bc 3b 9d 3a 33 3c 0a ac e7 bd
       -0.11020334 0.0057438896 0.010939267 -0.11312111
0000b0 1d 1f 42 bc 6f 18 72 3c d6 80 e2 3d ed 59 88 bd
       -0.011848238 0.014776333 0.1105973 -0.06657777
0000c0 17 4d 67 3d e9 d7 92 bd ba dd 54 3c 1d 6e 3c bc
       0.056470003 -0.07170088 0.012992317 -0.011500862
0000d0 d2 d3 23 3d 58 8c a3 3d c5 17 ff 3d 85 fb 4b bd
       0.03999693 0.07985753 0.124557056 -0.049800415
0000e0 ad af 8e bd d9 2e ef 3d 38 04 88 3d 8f 05 fd 3d
       -0.06967101 0.11678857 0.0664143 0.12354576
0000f0 db 0a 65 3d a0 f7 e0 bd 99 e3 57 3d 77 d5 ad ba
       0.055918556 -0.10984731 0.05270729 -0.001326247
000100 38 ec 15 bd bb de d4 3d 59 ab 22 3d a1 44 dc 3c
       -0.03660223 0.10394045 0.03971419 0.026888194
000110 8e 23 40 bd 9a 56 57 bd 25 7d f6 3d dd e9 80 3d
       -0.046908908 -0.052572824 0.12035588 0.06294606
000120 eb b2 06 3d fb aa bc 3d 9d 8c ab 3c 8a fc 9e 3d
       0.032885473 0.092122994 0.020941073 0.07763012
000130 c0 11 3f 3c 6e 0c e5 3d ae 9f 21 bd 31 21 a5 3d
       0.011661947 0.111840114 -0.039458923 0.080629714
000140 8a df 59 bc 51 00 4f 3d 92 22 fe bd 65 7b 93 3d
       -0.013297925 0.05053741 -0.124089375 0.0720127
000150 9f dd f9 bc 86 52 b7 bd 5f 95 f7 3d e8 8c e2 bd
       -0.030501185 -0.08951287 0.12089037 -0.11062032
000160 5e 6c dd 3d 4f ca 48 3d 5f 35 9e bb cf aa b0 3d
       0.10811685 0.04902106 -0.0048281397 0.08626329
000170 39 40 a6 bd 99 bf 52 3c a2 07 c0 bd 33 8c d1 bd
       -0.08117718 0.012863063 -0.09376456 -0.10231819
000180 5e 36 d1 3d b1 1d 22 3d a3 27 90 3c 13 df de 3d
       0.10215448 0.039579097 0.017597025 0.10882392
000190 92 a6 2e bd bc 55 bb 3c cc 28 f6 3d 44 40 f1 bd
       -0.042639323 0.02286803 0.120195 -0.11779836
0001a0 80 c9 5b bd 93 c4 a6 3c ca 75 dd 3d 36 08 1c 3d
       -0.053658962 0.020357406 0.10813482 0.038093768
0001b0 83 3e f0 3d 56 b6 33 3d 61 ee 98 3d d9 90 70 3c
       0.11730673 0.04387506 0.07467342 0.014682972
0001c0 75 ab 98 bc 1e fd e1 3d 36 97 6e 3d 60 8d 7e bc
       -0.018636445 0.110346064 0.058249675 -0.015536636
0001d0 c3 36 92 3d dd eb f6 bd b2 23 e0 3c 11 22 b1 3c
       0.07139351 -0.12056706 0.02736077 0.02162269
0001e0 ef dc d6 3d 17 07 8b 3d ad 19 a4 3d 4e 50 87 3d
       0.104913585 0.06788462 0.0801271 0.06607114
0001f0 f2 e6 ba bc 8e e0 3d 3d 63 b9 19 bd 39 5d f3 bb
       -0.022815201 0.04635673 -0.037530314 -0.0074268845
000200 4e 63 49 3d 9a 46 9f bc 57 59 d1 3d ef 1c 18 bd
       0.04916697 -0.019442845 0.10222118 -0.03713697
000210 14 f4 af 3c c1 14 9f 3d ae d9 d0 bd 51 ba df 3d
       0.02147869 0.0776763 -0.10197769 0.10924209
000220 69 c0 ee bc 22 b6 34 3d 98 7b 71 3d f3 0c 77 3d
       -0.029144483 0.044119008 0.05895576 0.060315084
000230 dd 72 e9 3c 95 f4 8d 3d 99 74 83 bd 1f 28 ae 3d
       0.028497154 0.06931416 -0.064187236 0.08503746
000240 1f 30 84 bd 8d 85 8e 3c ff 24 ff 3d 79 95 a5 bd
       -0.06454491 0.017397666 0.12458228 -0.0808515
000250 57 b8 9e bd d3 96 86 3d c9 61 ac 3d db 99 14 bc
       -0.07750004 0.06571736 0.084170885 -0.009069885
000260 8b 28 f6 bd f7 29 c6 bc 8e 56 bc bd 80 a0 e9 3d
       -0.12019452 -0.024189932 -0.091961965 0.11407566
000270 19 76 ee 3d 35 c0 31 3b fd 58 81 3c 98 04 62 bd
       0.11643619 0.002712262 0.015789503 -0.055180162
000280 3c 2a 91 3d 0e b4 aa bd 97 ab e6 3c 59 01 c4 3d
       0.07088134 -0.08335124 0.028157992 0.095705695
000290 27 7e 8f bd 43 f0 ad bd d7 f2 23 3d 8f a4 36 3b
       -0.070064835 -0.08493092 0.040026512 0.002786908
0002a0 5a 10 04 bd 53 1f ac bd 5a e9 2a 3d 5b 4d 62 3c
       -0.032242157 -0.08404412 0.041726448 0.013812388
0002b0 ad 97 0c 3d 40 3e 6f bd d2 0e bd bd f2 8f 27 3d
       0.034324337 -0.058408976 -0.092313424 0.04090876
0002c0 b0 c5 7c bd ad f1 ce 3d 63 94 cd bd 70 cb 6a bd
       -0.061711967 0.1010469 -0.10038068 -0.05732292
0002d0 e6 9a 02 3d 5a f3 bc 3d ca c9 cd bd 68 ca 05 3d
       0.031886004 0.09226103 -0.10048254 0.032663733
0002e0 bf e3 3d bd 72 6f 7c 3c 58 50 4b 3d 29 0d 78 3d
       -0.046359774 0.01540743 0.04963717 0.060559426
0002f0 f4 f9 65 3d 0c 4c bc bd b3 00 6d bd 2f 9d 84 3d
       0.056146577 -0.09194192 -0.057861995 0.06475293
000300 68 ac e1 bd 29 40 e1 3d f5 17 b4 bd 83 16 9f 3d
       -0.11019212 0.10998566 -0.08793632 0.07767966
000310 26 86 db bc f4 6e 26 3c 39 a6 64 3d 94 ec 82 3d
       -0.026797365 0.010158289 0.055822585 0.0639278
000320 d0 94 dc 3d c0 bb fa 3d c7 db 07 3d 70 18 79 3b
       0.10770571 0.12242842 0.03316858 0.003800895
000330 fd 73 0f 39 c0 58 bd bc bd 87 b3 3d aa 00 f0 3d
       0.00013680752 -0.023113608 0.087661244 0.11718877
000340 a3 2d 9a bd dd 53 a5 3d 25 35 90 bd 78 2f f6 3d
       -0.07528236 0.08072636 -0.070413865 0.12020773
000350 73 9c bf 3d 49 8b e2 3d 53 9d 88 bd 29 bc c6 bc
       0.09356012 0.11061723 -0.06670632 -0.024259644
000360 13 cc fd 3c 15 a1 5e bd 3f 64 c9 3d 9c de f6 bd
       0.0309811 -0.05435284 0.098335735 -0.12054178
000370 b4 90 f4 3d 91 ea d7 3c 0d 15 22 bd cc 60 ec bd
       0.119416624 0.026356967 -0.039570857 -0.115419
000380 d9 62 f5 3d 7e d1 87 bc 2a 4e db 3d 0f 8b 73 3d
       0.11981744 -0.016579386 0.10708268 0.05945879
000390 e3 27 50 bc 31 f2 b0 3d 74 51 3f bd 7e 61 98 bc
       -0.012704822 0.08639944 -0.04670854 -0.018601175
0003a0 b0 66 d7 bd 6d c8 a4 bd c6 fb 2e 3d b3 68 b0 bc
       -0.10517633 -0.08046041 0.04272058 -0.0215343
0003b0 9e 5a a0 3d d0 1a 94 bc ab 8d 06 bd 9f 32 d1 bd
       0.07829784 -0.018079191 -0.03284995 -0.10214733
0003c0 63 e8 e9 3d b7 e6 74 3d 64 e6 ca bd ae 90 e7 bd
       0.114212774 0.05979034 -0.09907225 -0.11306892
0003d0 28 51 d0 3d 4b c7 f5 bd c9 8d 87 3d d2 17 14 bc
       0.10171729 -0.12000903 0.0661884 -0.009038882
0003e0 fb e5 b1 3d 28 16 87 3d 12 62 86 bd f6 ed 76 bd
       0.086864434 0.06596023 -0.06561674 -0.06028553
0003f0 cb 04 bb 3c e9 05 73 3d 8b 23 3a bb 1f 8b a3 bc
       0.022829434 0.05933181 -0.0028402533 -0.019963799

transformer.layers.0.0.fn.fn.to_out.weight f4 [64, 64]
000000 4e 37 d1 bd 91 cc 0c 3d a9 51 b2 3d 11 21 b3 3d
       -0.10215627 0.034374777 0.08706982 0.08746541
000010 f6 c1 7d 3c d2 b0 f7 3c 09 bf df bd 60 86 d8 bd
       0.015488138 0.030235682 -0.10925109 -0.10572505
000020 a6 f8 12 3d d7 19 75 bd d2 80 91 bc 36 f3 a6 bd
       0.03588166 -0.059839096 -0.017761622 -0.081518576
000030 38 40 7c bd 2f 7a fb bc 79 70 6b bd fa cd e5 bd
       -0.06158468 -0.03069791 -0.05748031 -0.112209275
000040 3d 20 29 bd b1 e2 f1 3d e5 7e 51 bd 5c 68 7b 3d
       -0.04129051 0.11810816 -0.051146407 0.06137882
000050 c3 de b0 3d 31 87 6f bd 55 fa d7 3c 74 22 22 bd
       0.086362384 -0.058478538 0.026364485 -0.03958364
000060 12 d9 23 3d db 20 68 bc 1b 1d 8f bc fb 55 ed bd
       0.040001936 -0.01416799 -0.017469933 -0.11588665
000070 ee ad 01 3d cd 3b bf bd 61 c4 eb bd 32 31 ec 3d
       0.031660013 -0.09337578 -0.11512066 0.11532821
000080 bb 18 81 3c ae 47 ae bd 22 9c 55 bd 8e f1 cd bd
       0.015758863 -0.085097656 -0.052150853 -0.100558385
000090 20 9a 4e bd cc e8 8d 3d 15 94 80 bc 56 fd 48 bd
       -0.050439954 0.06929168 -0.015695611 -0.049069725
0000a0 78 7f 12 bd 90 ba d2 3d 67 c4 90 bd 6e 16 c3 bc
       -0.035766095 0.1028949 -0.07068711 -0.023814406
0000b0 a1 d8 dc 3d 82 ff 7d bd 4a 27 d5 bc ea df 07 3d
       0.10783506 -0.06201125 -0.026019711 0.033172525
0000c0 8a bc ef 3c fe 7e 96 3d 79 4c 0d 3d 28 8b fb bc
       0.029264707 0.073484406 0.034496758 -0.030706003
0000d0 d1 c0 c2 bd 0c 9c 05 3d 6c 18 5a bd 2e bc f7 bc
       -0.09509433 0.03261952 -0.053245947 -0.030241098
0000e0 58 12 e6 bd 95 65 e1 bd 63 4c a0 3d f0 b1 97 bd
       -0.112339675 -0.11005703 0.078270696 -0.07406986
0000f0 c1 48 17 3d bd 7a a3 bd 94 ae 12 3d 10 a7 47 bd
       0.036934618 -0.07982395 0.035811022 -0.048743308
000100 96 cd d2 bd d6 66 da bd 14 07 d6 3d d3 73 fb 3c
       -0.10293119 -0.10664146 0.10450569 0.030694878
000110 06 70 f3 3c 96 17 8d 3d d8 cd 16 bc dd 84 ff 3d
       0.029716503 0.06889264 -0.00920435 0.124765135
000120 c1 fb d5 3d aa 5a f2 3d ea be 27 3d 84 36 a2 bc
       0.10448409 0.11833699 0.040953554 -0.019801386
000130 7e ff ec bd bb ea 63 3d d1 31 fa bd e2 23 ed bd
       -0.11572169 0.05564378 -0.12216533 -0.1157911
000140 ce 45 24 3d 77 c5 1b bd 0f 58 3f bd f6 52 d4 3c
       0.040105633 -0.038030114 -0.04671484 0.025918465
000150 42 be db bd 63 4a e7 bd 44 f3 ff 3c d7 3c a1 bd
       -0.10729648 -0.11293485 0.031243928 -0.078729324
000160 fa 94 02 3d 2f 09 f6 bd 37 3f f2 bd 88 be 8e 3b
       0.031880356 -0.120134704 -0.118284635 0.004356209
000170 56 a7 ce bd db 66 70 bc fa 7d 4d 3d d2 c7 00 3c
       -0.100905105 -0.01467296 0.05016897 0.007860141
000180 88 09 ca 3d 25 0d 80 3d e9 f3 c1 bc 38 c0 49 3d
       0.09865099 0.06252507 -0.023675876 0.04925558
000190 b8 1e b5 3d 4e da b5 3d c9 fe af bd c9 4c e9 bd
       0.0884375 0.08879529 -0.08593518 -0.11391599
0001a0 39 c2 6a 3d 58 58 53 3c c9 08 1e bd c6 f5 46 bd
       0.05731413 0.012899481 -0.038582597 -0.04857423
0001b0 ca dd a4 3d ba 0e 83 3d b1 86 a3 3d 3a 62 34 bd
       0.080501154 0.06399293 0.07984675 -0.04403899
0001c0 38 fc f8 3d 31 be b5 3d 45 45 28 bd ad 65 d7 3a
       0.12157482 0.08874167 -0.041081686 0.00164335
0001d0 e1 99 d5 bd 2a 88 f5 3c c2 24 db bd 99 fd a8 bd
       -0.10429741 0.029972155 -0.1070037 -0.08251495
0001e0 aa b3 6a 3d 4a 57 f2 3c 20 00 66 bd 95 f2 1b 3d
       0.057300247 0.029582638 -0.056152463 0.03807314
0001f0 ec c1 4c 3d 35 f0 a7 bd 6c ab e5 bd 8a 59 ec 3d
       0.049989626 -0.08200113 -0.11214337 0.11540516
000200 42 f8 b1 bd c6 95 c3 3d 6d 1d 3a bd ca fc dd bd
       -0.086899295 0.095500514 -0.04543822 -0.10839231
000210 1a 25 e8 3d 43 bc e6 bb 76 2c 7c bd 4d 20 d5 3d
       0.113352016 -0.0070414855 -0.06156584 0.104065515
000220 de bf 1f bd c2 96 a3 3d ba db be 3d c8 88 87 bd
       -0.03900134 0.07987739 0.09319253 -0.06617886
000230 1e 00 45 3d 6f 6f dd 3c 45 ea 37 3d 21 33 1a bd
       0.048095815 0.027030675 0.04490115 -0.037646417
000240 7a 2b 93 bc e7 25 a5 bd 37 0d 9a 3d 8b c0 fc 3d
       -0.017965067 -0.0806387 0.07522052 0.12341412
000250 6a cb 69 3d 47 6a dc 3d 5d b8 66 bd b1 62 ed bd
       0.057078756 0.10762458 -0.056328166 -0.115910895
000260 ce ae 6f 3c ee 42 26 3d 2e 2c a4 bd 06 71 f8 bd
       0.014629079 0.040591173 -0.08016239 -0.121309325
000270 e8 34 be bd fa 99 2c 3d e2 84 2a bd 06 59 db 3d
       -0.09287435 0.04213903 -0.041630633 0.10710339
000280 f5 14 94 3d 6c 67 67 3d 50 79 bb 3d 90 04 d6 3d
       0.0723056 0.056495115 0.09153998 0.10450089
000290 4b fa bd bd e9 42 1d bc 2b d3 82 bc 00 e2 aa 3d
       -0.09276255 -0.009598472 -0.015969833 0.08343887
0002a0 4d f2 28 bd 5c 55 ed bd e1 66 bc 3d 7f da 3c bd
       -0.0412467 -0.11588547 0.0919931 -0.04610681
0002b0 ae b4 47 3c ab 27 90 3d d0 e5 df bd ee 7e 05 bd
       0.0121890735 0.07038816 -0.10932505 -0.032591753
0002c0 1f 16 f7 3d fb 82 06 3d 19 b4 5c bd 4b fc 9f bc
       0.12064766 0.032839756 -0.053882692 -0.019529482
0002d0 e9 0c cc 3d 0d cb a3 bd 3d 4e b6 3d c6 fe c3 bd
       0.099634 -0.07997713 0.089016415 -0.095700786
0002e0 34 45 c8 3d d7 84 7c bd 64 a0 d2 bd d3 7f e2 3d
       0.097788244 -0.061650123 -0.10284498 0.11059537
0002f0 d5 bc d3 bd 34 ef ee 3d b0 fc b8 3c 0e 16 d5 bd
       -0.10338751 0.11666718 0.022581428 -0.10404597
000300 22 9d 0a ba d2 4a 6d 3d bb f1 53 3d 8a 34 e0 3d
       -0.0005287697 0.057932682 0.051744204 0.10947521
000310 84 1f e4 3d 00 e5 ce bd c7 5a 34 3d ae 85 7a 3b
       0.11138824 -0.10102272 0.044031885 0.0038226652
000320 fd 8e a6 bd e5 22 81 bd c7 72 cf bd f9 e6 18 bc
       -0.081327416 -0.06305484 -0.10129314 -0.009332412
000330 b9 af f7 bd 8d f1 c5 bd ea e1 d7 3d 1c a4 9c bd
       -0.12094063 -0.09665213 0.105411366 -0.07648489
000340 7b e6 c1 bd 70 bf 36 bd 7e c3 28 3d fc cd 6f bd
       -0.09467789 -0.044616163 0.04120206 -0.05854605
000350 0c 2f d0 bd 6f 0c c5 3d 8e e2 23 bd fb c8 dd bd
       -0.101652235 0.09621512 -0.04001098 -0.108293496
000360 83 0b b1 3c 5f ff ba 3d 86 53 91 bc c3 cb a8 3d
       0.021611935 0.091307394 -0.017740022 0.082419895
000370 8a 95 56 3d cb 1b 1a bd 85 ad 0b 3d 67 70 00 be
       0.052388705 -0.03762416 0.034101028 -0.12542878
000380 73 d8 43 bd e4 d5 d4 bc 6b c7 bc bd 06 0a c9 3c
       -0.047813844 -0.025980897 -0.092177235 0.024540912
000390 94 c5 9f 3d f6 6c b7 bd dc 09 bb bd d5 ed aa 3c
       0.07801357 -0.089563295 -0.0913274 0.02086536
0003a0 bc 19 1c bd 30 b8 e5 bc b7 90 b0 3d f0 9e 7e 3d
       -0.03811048 -0.028041929 0.08621352 0.062163293
0003b0 8a cc cb 3d 5a e8 96 3d f2 56 38 bd 23 85 fa 3c
       0.09951122 0.07368536 -0.045004793 0.030581063
0003c0 a7 b4 9e bd 05 74 79 bd 3e a0 65 3d 0f e3 c6 bd
       -0.077493005 -0.06090166 0.056061022 -0.09711277
0003d0 a7 23 7d 3d 12 39 c8 bd ad e8 ec bc 0a 94 18 bd
       0.06180158 -0.0977651 -0.028919542 -0.037250556
0003e0 5a 70 7d bd cd e1 ba bd 96 4a a6 3d b5 bc c6 3d
       -0.061874725 -0.09125099 0.08119695 0.09703962
0003f0 2c 20 da 3d 79 3e da 3c 8b 85 00 3e 7e 97 46 3a
       0.106506675 0.026641117 0.12550943 0.00075756747

transformer.layers.0.0.fn.fn.to_out.bias f4 [64]
000000 5c fb b0 bd b1 35 a8 bd 52 94 58 3d af 68 a8 bd
       -0.08641693 -0.08213366 0.052875824 -0.08223092
000010 06 ae d0 3c 4a 53 b2 bd c8 88 5a bd 56 88 fe 3c
       0.025473606 -0.087072924 -0.0533531 0.03107087
000020 6a df 43 ba 95 e8 94 bd dc 0f 50 3d da 13 6f bd
       -0.0007471951 -0.07270924 0.050796375 -0.05836854
000030 50 37 d0 3d 33 ee 9b bd 86 33 9f 3d 78 85 04 3e
       0.101668 -0.07613792 0.07773499 0.1294154
000040 80 6f dc bd 65 d3 d2 3d 44 8b 33 bd 77 12 ad bc
       -0.107634544 0.102942266 -0.043833986 -0.021126969
000050 20 e8 e1 3d 97 0f 97 3d 32 b5 32 bb 5a f7 0c 3c
       0.110306025 0.073760204 -0.0027268645 0.008603895
000060 d3 20 9e bd 0b 18 b1 bc af 04 ee 3d 31 e7 c8 3d
       -0.077211045 -0.02161791 0.11621987 0.09809721
000070 9d 16 30 3d 98 de 0f 3e 24 74 77 bd fc a4 10 be
       0.042990316 0.14049757 -0.060413495 -0.14125437
000080 1a a2 2d 3c a0 f9 57 bd d5 f2 80 3d 8a 6c 84 bd
       0.01059773 -0.052728295 0.062963165 -0.06466015
000090 fa 71 49 3b 02 d8 bd bb 27 3a 01 3e bd fb ee 3b
       0.0030738101 -0.0057935724 0.1261984 0.007293193
0000a0 c6 2c 96 3d e8 37 24 bd 1d 1e db 3d b2 71 92 3d
       0.073327586 -0.04009238 0.10699103 0.07150592
0000b0 f3 37 0a 3c c5 b6 ed 3d 82 ab 98 bc 43 8d c7 3d
       0.008436191 0.11607126 -0.018636469 0.097437404
0000c0 43 28 ab 3d 61 ce 00 bd 1d e8 98 3d c9 f9 c8 bb
       0.08357289 -0.03144682 0.07466147 -0.0061332923
0000d0 ba f8 8a 3d 0a b7 3f 3d 69 85 ad bd a1 bd 91 3d
       0.06785722 0.04680542 -0.084727116 0.07116247
0000e0 6c f7 be 3c b0 a0 a1 bc 68 e5 d1 3d ac 37 b8 bd
       0.02331134 -0.019729942 0.10248834 -0.089949936
0000f0 33 8b 0f 3e b5 9f ad 3d ad 02 8f 3d 44 bf b3 3c
       0.14017944 0.08477727 0.06982932 0.021941788

transformer.layers.0.1.fn.norm.weight f4 [64]
000000 c5 28 7f 3f 09 e5 7f 3f 57 1d 80 3f 22 d2 81 3f
       0.99671584 0.99958855 1.0008954 1.0142252
000010 47 77 7f 3f 23 74 7e 3f be ca 7e 3f af de 7e 3f
       0.9979138 0.9939596 0.9952811 0.9955854
000020 12 80 7e 3f 45 2f 80 3f ad f5 7f 3f 28 0a 80 3f
       0.9941417 1.0014426 0.99984246 1.00031
000030 28 06 80 3f cd 1b 80 3f 1a 25 80 3f 86 f9 7f 3f
       1.0001879 1.0008484 1.0011322 0.9999012
000040 18 fa 80 3f cb fe 7f 3f d3 45 81 3f e0 3c 80 3f
       1.0076323 0.9999816 1.0099434 1.0018578
000050 a0 07 80 3f 6e b4 80 3f 12 06 82 3f 35 46 80 3f
       1.0002327 1.0055063 1.0158103 1.0021425
000060 7b 5d 80 3f da 9a 80 3f 83 77 7f 3f a1 a8 7d 3f
       1.0028528 1.0047257 0.99791735 0.9908543
000070 e5 7f 7e 3f 4a 84 7f 3f 05 01 7d 3f 64 a4 7f 3f
       0.994139 0.9981123 0.9882968 0.99860215
000080 db 36 80 3f 13 57 80 3f 91 98 80 3f 6d 84 7f 3f
       1.001674 1.0026573 1.004656 0.9981144
000090 ac d7 7f 3f 84 b4 7f 3f fe 08 80 3f 8c 2b 80 3f
       0.99938464 0.9988482 1.0002744 1.001329
0000a0 1d de 7d 3f 7c 5d 7e 3f 7e c7 7f 3f 26 6b 7e 3f
       0.9916704 0.99361396 0.99913776 0.99382246
0000b0 22 02 80 3f bf 4b 7f 3f d8 0c 80 3f 7d 53 7f 3f
       1.0000651 0.99724954 1.000392 0.9973677
0000c0 c1 27 80 3f 89 a9 7e 3f 85 2c 80 3f ab 78 7f 3f
       1.0012132 0.9947744 1.0013586 0.997935
0000d0 ec e7 7f 3f d6 97 7f 3f 48 ea 7f 3f 90 2a 7f 3f
       0.9996326 0.9984106 0.9996686 0.9967432
0000e0 6c 9f 80 3f b8 a4 7f 3f f2 45 80 3f e8 7c 7f 3f
       1.0048652 0.99860716 1.0021346 0.99799967
0000f0 a9 f3 7f 3f 1e 39 7f 3f 81 2b 80 3f 49 b6 7f 3f
       0.9998117 0.9969653 1.0013276 0.9988752

transformer.layers.0.1.fn.norm.bias f4 [64]
000000 1a 63 e2 ba 57 8e f9 ba a6 76 ac 3b 47 24 bf bb
       -0.0017271966 -0.0019039613 0.0052631674 -0.005833182
000010 e8 67 fc ba 97 60 8c 3b 13 b6 f0 bb af c9 62 3b
       -0.0019257041 0.0042839753 -0.0073459237 0.0034605076
000020 a5 bc 20 3c 73 7b bb 3a af c5 12 3a 0e 99 70 ba
       0.009810601 0.0014303759 0.0005598915 -0.00091780804
000030 84 a6 91 b5 ab 39 df ba ae bf ba 3a dc 13 a0 bb
       -1.0851804e-06 -0.0017030736 0.0014247799 -0.00488518
000040 49 9a b0 3b aa 98 08 b8 7a ac f7 bb b7 26 ae 3b
       0.005389486 -3.2567106e-05 -0.0075584026 0.0053146738
000050 ed 7c 9e b9 8a 4a 07 3c 94 aa 10 3c d5 52 4f 3b
       -0.00030229185 0.008257518 0.0088297315 0.0031635065
000060 ca 6b 14 3b 25 6a 0d 3c 8c 22 89 bb d2 df 82 bb
       0.0022647255 0.008631264 -0.0041850265 -0.0039939666
000070 d6 24 bf 3b f2 af ff 3a f8 d6 3a 3c 37 16 bb ba
       0.0058332486 0.0019507392 0.011403792 -0.0014273588
000080 53 fb 01 bc a6 50 71 bb c0 33 69 bb b4 c6 62 bb
       -0.0079334555 -0.0036821752 -0.0035583824 -0.00346033
000090 d3 14 1b ba 18 ed bb 3a f6 ee fb b9 e8 d7 a8 ba
       -0.0005915884 0.0014337627 -0.0004805249 -0.0012881728
0000a0 e2 ad 88 3b 0d 5f cd 3b 4c 29 59 3a f8 3e 99 bb
       0.004171119 0.0062674345 0.0008284047 -0.004676696
0000b0 67 ca b3 ba b0 40 34 bb 4c 79 4f b9 49 01 a0 3b
       -0.0013716937 -0.0027504377 -0.00019786245 0.0048829657
0000c0 78 a3 ff bb 19 54 03 bc db 54 32 bb e0 25 87 ba
       -0.0078014694 -0.008015656 -0.0027211222 -0.001031097
0000d0 65 12 53 3a d3 a2 d1 ba 44 78 f8 3b fe ba 2f bb
       0.0008051752 -0.001599396 0.007582696 -0.0026814337
0000e0 44 3c dc bb 82 7c 3e bc ba df db bb 89 d8 01 bb
       -0.0067210514 -0.011626365 -0.00671002 -0.0019812903
0000f0 84 e9 a1 bb 3d b2 5a bb dd f8 13 bb 34 db c1 bb
       -0.0049411673 -0.0033370398 -0.0022578754 -0.0059160236

transformer.layers.0.1.fn.fn.net.0.weight f4 [128, 64]
000000 6f f9 ff 3d a5 1f 41 3d 07 be f4 3c f4 1a d2 bd
       0.124987476 0.04714932 0.029875768 -0.10259047
000010 ad 29 29 3d 62 a4 ba bd bc 2b b5 bd 97 c0 83 3d
       0.04129951 -0.09113385 -0.08846232 0.06433218
000020 c1 a6 95 bd 35 05 ed 3d 55 05 08 3c c7 3a 2d bd
       -0.073071964 0.11573259 0.0083020525 -0.042292383
000030 c5 1d 20 3d 14 6b 4a bc 4a d1 cf bd eb d3 88 bc
       0.03909089 -0.012354631 -0.101473406 -0.016702613
000040 76 8d f7 bd 5e 0e 46 bd 6c 80 f2 bd 64 c0 b9 3d
       -0.120875284 -0.048353545 -0.11840901 0.09069899
000050 07 ef f4 bb 32 2c 96 bd c4 7b a7 bd 90 be 0b bd
       -0.0074747833 -0.07332648 -0.08177903 -0.03411728
000060 f7 f7 fb bc a3 30 72 bd 65 13 4f 3d 69 d8 50 bd
       -0.030757887 -0.059128415 0.050555605 -0.050987635
000070 37 f1 cb 3d 40 ec 32 3d d4 03 07 bd dd f9 86 3d
       0.099581175 0.043682337 -0.032962635 0.065906264
000080 c7 24 f0 bd d1 d9 d8 3d 48 66 b5 bc 4f c9 ba bb
       -0.11725765 0.1058842 -0.022143498 -0.0057002674
000090 0f cf a7 bd 41 ad a4 bd 46 5a f1 bd d5 9f be 3d
       -0.0819379 -0.08040858 -0.117847964 0.09307829
0000a0 93 b3 ee 3d de d7 23 bd f2 6c 8a 3d 67 f2 98 bd
       0.11655345 -0.04000079 0.06759061 -0.074681096
0000b0 06 cd 53 3b ad 26 78 bd 9d 49 28 bd 8b fa a0 3d
       0.0032318248 -0.06058376 -0.041085828 0.07860287
0000c0 e7 89 6d 3d b0 02 cb bd 44 9a 42 3d f1 d5 47 bd
       0.057992842 -0.09912622 0.0475104 -0.048788015
0000d0 9e d9 70 3b 6f a4 bb 3a af c4 5b bd b5 cd c5 bc
       0.0036750804 0.0014315973 -0.05365437 -0.02414594
0000e0 ff 0b 86 bd bb c8 97 bd 5f f0 e3 bd 56 55 d0 3d
       -0.06545257 -0.07411333 -0.111298315 0.101725265
0000f0 64 3d f8 3d c7 3b 3f bd f7 06 2d 3c 41 c9 84 bd
       0.12121084 -0.046687867 0.010560743 -0.06483699
000100 5a d1 d9 bd 53 b1 a0 3c 64 26 e1 bc 2c 97 35 3c
       -0.10635634 0.019615805 -0.027484126 0.011083405
000110 75 a8 d6 3d b1 a7 95 3d e0 9a 8f bd aa ea c1 bd
       0.104813494 0.07307375 -0.07011962 -0.09468587
000120 8d b4 83 3c af ec 82 3c 71 b7 9b 3d 0f b6 36 3c
       0.016077304 0.015982 0.07603348 0.011151805
000130 9b 0a d2 bd f3 6b fe 3d 0a 4a 2e 3d f8 ff 83 bc
       -0.10255929 0.124229334 0.042551078 -0.016113266
000140 09 9d 36 3d a0 79 af 3d c9 72 2a 3d c4 d8 fa 3d
       0.044583354 0.0856812 0.041613374 0.12248376
000150 6f c9 42 bc c3 39 5d 3d bf aa ae bd 48 66 71 3d
       -0.011888846 0.054010164 -0.08528661 0.058935434
000160 70 95 01 3e 93 86 d2 bd 39 d7 49 3d 5c 70 c0 bd
       0.12654662 -0.10279574 0.049277518 -0.09396431
000170 33 1b f2 bd 3b 63 9d 3c 89 bb e1 3c 09 1f ea 3d
       -0.11821594 0.019212356 0.027555244 0.11431701
000180 83 63 32 3d 94 fd 62 3d b2 3f 9a 3c 9c f0 3d bd
       0.043551933 0.055417612 0.0188292 -0.04637204
000190 64 c5 ab 3b f4 7a b4 bc bb 1f fa bd 0d 04 69 3c
       0.0052420367 -0.022031285 -0.12213083 0.014222157
0001a0 d1 f6 53 bd 28 07 02 be 6f 0a 8d bc 24 fc 44 3c
       -0.051749054 -0.12698042 -0.01721689 0.012023006
0001b0 68 75 51 ba b5 f0 c9 bd 4b 67 ca bd b6 63 42 3c
       -0.0007990212 -0.09860364 -0.09882983 0.011864593
0001c0 43 bf 45 3d 98 8b ac 3c 7a 5d 0f bd 18 41 c3 3d
       0.048278105 0.021062657 -0.035001256 0.095339
0001d0 6b 01 b1 3d 15 d2 43 3d b9 7d fb bc 8e 68 87 bd
       0.086428486 0.04780777 -0.030699598 -0.06611739
0001e0 86 41 ac 3d c2 17 b9 bd f9 29 a1 bd 68 65 51 3d
       0.08410935 -0.090377346 -0.07869334 0.0511221
0001f0 97 92 bf bb 4a 13 e5 bd 3f 66 f9 3d ec 4c c4 3b
       -0.0058463323 -0.1118532 0.12177705 0.005990615
000200 e5 d6 be 3d 4c 89 5e bd a7 58 51 bd c6 46 f4 bc
       0.09318332 -0.054330155 -0.051109936 -0.029818904
000210 60 ec 63 bd af f4 1a 3d b1 00 b1 bd d8 55 8e 3c
       -0.055645347 0.037831005 -0.0864271 0.017374918
000220 3b 58 ba 3d 25 56 7e bd 94 bd 05 3c 0c 85 62 bc
       0.0909886 -0.062093873 0.008162875 -0.013825666
000230 a3 ee 31 38 8a 66 98 bb 18 d7 dc bd 0c 27 ed 3c
       4.2422336e-05 -0.0046508955 -0.107832134 0.028949283
000240 cc c5 c8 3d d1 ae 36 3c 8b 42 e2 3d 08 62 e5 3b
       0.09803352 0.011150078 0.11047848 0.0070002116
000250 b5 32 b1 bd d4 10 eb 3c 29 29 f4 3d 8d 32 db 3d
       -0.0865225 0.028694548 0.11921913 0.10703001
000260 10 b9 25 3d 77 fa e9 bd e5 d4 f1 bd 2c 73 48 bd
       0.040459692 -0.114247255 -0.118081845 -0.04893796
000270 54 e4 45 3c 2d 4e ea bd ac 76 c4 3d 76 e6 de 3d
       0.012078363 -0.11440692 0.09592947 0.10883801
000280 33 ee a5 3d d5 ba 5a 3d 64 03 2a 3d 10 5d 89 3d
       0.081020735 0.053400833 0.04150714 0.067072034
000290 7c 68 af 3d 36 c7 d6 bd 80 83 a6 3d 9a b5 fb 3d
       0.08564851 -0.10487215 0.081305504 0.12290497
0002a0 77 be 0b 3d eb a3 b4 3c 7f e9 d6 bd 5a 06 4f 3d
       0.03411719 0.022050818 -0.104937546 0.050543167
0002b0 15 ad c9 3d 7d 3f c2 bd da 54 c8 3d 15 d9 a5 bd
       0.09847466 -0.09484766 0.09781809 -0.08098046
0002c0 a2 95 a7 3b 19 33 d8 bd 28 88 ab bd ca 66 47 3b
       0.005114273 -0.10556621 -0.08375579 0.0030426257
0002d0 a5 1f 8b bd 91 65 8d bd e6 55 26 bc d5 b3 d8 bd
       -0.06793145 -0.06904138 -0.010152316 -0.10581175
0002e0 8a 73 04 bd 2b 1b c8 bd 20 29 4c 3d 99 59 e0 bc
       -0.03233675 -0.09770807 0.049843907 -0.027386473
0002f0 1c 7f a9 3d 05 35 8b 3d 8f 7e e9 bd b9 a6 db bc
       0.08276197 0.06797222 -0.11401092 -0.026812898
000300 ab d5 ca 3d 66 1f 96 bd 95 0a d3 3d ef 45 86 3d
       0.09904035 -0.073302075 0.10304753 0.065563075
000310 44 2c 8f bd 81 0d 0b bc 44 d4 11 3d bd 58 e8 bd
       -0.06990865 -0.008487106 0.035602823 -0.113450505
000320 eb bf 26 bd 34 36 0e bb 41 d4 90 3d 2f 76 47 bd
       -0.04071037 -0.0021699788 0.07071734 -0.048696693
000330 f9 05 cb bd 7e a9 c3 bd d9 22 1e 3d 5f 53 7c 3d
       -0.099132486 -0.095538124 0.038607452 0.061602946
000340 fe cd 49 bc f3 2f 20 3b 23 c4 b4 3c 12 87 08 3d
       -0.012317179 0.0024442642 0.022066182 0.033331938
000350 51 74 8c bd 93 b3 d3 bc b6 5d 32 3d d2 c5 ab bd
       -0.06858123 -0.025842464 0.0435464 -0.083873406
000360 19 e8 ca 3d eb c6 64 3d c6 a4 cd bd ae c0 a3 3c
       0.0990755 0.055853765 -0.10041194 0.019989338
000370 61 30 92 bd 45 c3 3c bd 1f 08 1b bb 68 51 ac 3c
       -0.07138134 -0.04608466 -0.0023655964 0.021034911
000380 df 2b e3 3d 99 8c ed bd 29 02 49 3d 19 10 8b bd
       0.11092352 -0.115990825 0.049074326 -0.0679018
000390 6b 1e 17 3d 98 c6 a7 3d 1e c9 47 3d 2d 1a ce 3d
       0.036894243 0.081921756 0.048775785 0.100635864
0003a0 76 1e dd 3d ab 90 a7 bd d4 9d bd 3d 8f fc 0f 3d
       0.107968256 -0.0818189 0.09258619 0.035152968
0003b0 03 a9 c3 bb 27 01 ec bc b2 5e e6 3d 06 3e 28 3d
       -0.0059710755 -0.028809143 0.112485304 0.041074775
0003c0 c4 69 ac 3c 44 1f e3 3d 4e 7a 08 3c 53 26 d5 bd
       0.021046527 0.11089948 0.008329941 -0.104077004
0003d0 4b cc d1 3c 65 96 52 b9 b1 f2 ab bd 6e 64 f3 bd
       0.02561011 -0.00020083187 -0.08395899 -0.1188439
0003e0 bc 1a fc 3d 1d 0c fa bd bf 7d e6 bc b3 06 c3 bd
       0.12309787 -0.12209342 -0.028136132 -0.09522762
0003f0 b8 4c 18 ba d2 3b 80 bd 14 a2 c7 bd 59 6c 62 bd
       -0.0005809772 -0.0626141 -0.09747711 -0.05527911

transformer.layers.0.1.fn.fn.net.0.bias f4 [128]
000000 2b e4 f3 ba 0f ff 47 bc bd ce f4 bb 16 3a ff bd
       -0.0018607428 -0.012206807 -0.007470934 -0.12462251
000010 57 3a f4 3d 8d ca 06 bd e3 16 cc bd 99 b1 80 3d
       0.1192519 -0.03290801 -0.09965303 0.06283874
000020 b1 3b e4 bd fa 63 9e 3d 28 32 3d bb 2b 02 00 be
       -0.11144198 0.07733913 -0.0028869007 -0.12500827
000030 dc 02 c9 3b 4b 65 3a bc 28 8a 2f bb 03 85 a9 3d
       0.006134374 -0.011376689 -0.0026785228 0.08277323
000040 4f bd 10 bd 05 f3 d3 3c 66 4c c1 3d 3b a6 cb 3d
       -0.03533679 0.025872717 0.094384 0.09943815
000050 2c e7 cf bd 27 c3 1c bd 14 d5 21 bd 4f 3e de bd
       -0.101515144 -0.03827205 -0.039509848 -0.10851728
000060 b4 91 3a bd 68 07 bf 3d 23 2e 7d bb 85 08 bc bd
       -0.04554911 0.093275845 -0.0038632236 -0.091813125
000070 93 be ee 3d f3 5f 1c bd d9 06 13 bd eb 5e e2 3d
       0.11657443 -0.03817744 -0.035895202 0.110532604
000080 2a 13 81 3d 99 9f bd bd 97 10 0c ba 46 27 2d bc
       0.063024834 -0.092589565 -0.0005343048 -0.010568446
000090 00 76 96 3d b3 7f 97 3d 99 de e7 3b e8 2c 6a 3b
       0.073467255 0.073974036 0.0070760963 0.0035732333
0000a0 a7 85 ba bd 69 a2 4d 3a 90 05 ca 3d 1c 0a 39 3d
       -0.091075234 0.00078443304 0.09864342 0.045175657
0000b0 59 68 eb 3d 9b 64 90 3d 5b 6c 3c 3d 2a 98 8f 3d
       0.11494512 0.07050439 0.046001773 0.07011445
0000c0 d7 c7 5e 3d 52 74 c6 3d 06 84 dc bd 36 97 97 3d
       0.0543898 0.09690155 -0.10767369 0.07401888
0000d0 2b 4a b8 3d db 49 67 bd 01 b1 fc 3c 15 c4 de 3c
       0.089985214 -0.05646692 0.03084612 0.027193109
0000e0 9f a4 af 3d 66 7b 8c bc db a0 ea 3d 61 9a a9 bd
       0.08576321 -0.017148685 0.11456462 -0.082813986
0000f0 23 17 01 3d 6f 15 3d bd 1f a7 ce bd 91 00 b1 bd
       0.031516206 -0.04616302 -0.100904696 -0.08642686
000100 c5 36 aa 3d 18 91 e7 bd dd b7 8b bd d4 19 fc 3d
       0.08311228 -0.11306971 -0.068221785 0.12309614
000110 9a 6e ab bd e2 aa 3c 3d 18 6d bb bd c0 2e 8e 3d
       -0.08370705 0.046061404 -0.09151667 0.069425106
000120 fc 65 bc 3d 67 c7 84 bd 3a 15 f5 3a 27 7f a5 3d
       0.091991395 -0.064833455 0.0018698343 0.08080893
000130 e2 77 f7 3d e8 26 ce bd ed 3e 13 bd 10 f5 35 3d
       0.12083413 -0.100660145 -0.035948683 0.044423163
000140 08 dd 99 3d a7 72 14 bd eb de 09 bd 7b 2f 79 bd
       0.075128615 -0.036242153 -0.033659857 -0.060836297
000150 32 ae 92 bc 0a 7a c9 3d 93 ea a7 ba 50 c5 02 3e
       -0.017905328 0.0983773 -0.0012810997 0.12770581
000160 8b c5 e3 3d 02 ef ba bd 00 62 be 3d 03 b9 6a bb
       0.11121663 -0.09127618 0.09296036 -0.0035815842
000170 e7 b8 1e bc d4 a3 0a bb 5a 62 0b bd de a1 8c 3c
       -0.009687639 -0.0021154778 -0.034029342 0.017167028
000180 cf 5f 8f 3d 18 a5 1b 3d d5 ba e8 bd c8 52 96 bd
       0.07000696 0.037999243 -0.113637604 -0.07340008
000190 ec be 87 bd 5e 25 fd bc 46 2d 88 3d f8 a7 c2 3d
       -0.06628212 -0.030901607 0.0664926 0.09504694
0001a0 b0 63 09 3d 91 8b 6c 3d bf 59 1e bd 62 f9 2c bd
       0.033542335 0.05775029 -0.038659807 -0.042230017
0001b0 96 a7 94 3d ca b2 1a 3d 36 7d d0 3d f3 93 db 3d
       0.07258527 0.037768163 0.10180132 0.107215784
0001c0 e6 38 f6 bd e2 c0 1f 3c ea 0f f7 ba 9c 42 e4 bd
       -0.12022571 0.009750577 -0.0018849347 -0.11145517
0001d0 e1 82 88 bb dd 68 98 3c 61 f5 f3 bd f6 f8 37 3b
       -0.0041659926 0.01860469 -0.11912037 0.0028071976
0001e0 90 c5 a7 3d ea 10 8e bd 07 dd 45 bd 2d a5 43 bd
       0.08191979 -0.0693682 -0.04830649 -0.047764946
0001f0 d7 2e b7 bc 73 51 b8 3d 1e 4c dd 3d 39 78 ed bd
       -0.022361202 0.0899991 0.10805534 -0.11595196

transformer.layers.0.1.fn.fn.net.2.weight f4 [64, 128]
000000 9d b5 4e 3d 34 c2 9f ba 14 39 75 3d 95 9e 44 3b
       0.05046617 -0.0012188614 0.059868887 0.0030001749
000010 0f 35 4d 3d f8 db 55 bd 51 2b 77 bd 4a 89 82 3d
       0.05009943 -0.05221173 -0.060344044 0.06373842
000020 fb e7 52 bd 00 e1 19 3c 1a f5 e2 bb 90 32 02 bd
       -0.051490765 0.009392023 -0.006926191 -0.0317865
000030 9c 78 c4 3c f4 fc 89 3c da 9a 9c bb 0a 24 a1 bc
       0.023983292 0.01684425 -0.004779202 -0.019670505
000040 91 5b 18 3c f3 c7 6c bd 7b 4d b1 bb c2 1c 01 bd
       0.009299175 -0.057807874 -0.0054108477 -0.031521566
000050 41 c4 8b 3c 7a 9d 65 bd d0 fe f5 39 fa 61 34 3d
       0.017061355 -0.056058384 0.00046919892 0.04403875
000060 78 30 a2 bd a8 8c a1 3d c2 2a 70 bd 1c a4 69 3c
       -0.07919401 0.07888156 -0.058634527 0.014260318
000070 db f0 e2 3b 3e 01 6e bd 20 a6 91 bd 16 64 30 3d
       0.006925685 -0.058106653 -0.07111764 0.0430642
000080 e9 1a 3d 3d 9e 92 41 bd f5 df 41 bd 5f d5 09 3d
       0.04616824 -0.047258966 -0.047332723 0.033650752
000090 e8 25 07 bd eb e5 af 3c 5a 13 84 bd 6c 16 98 3b
       -0.032995135 0.021471938 -0.064490035 0.004641345
0000a0 19 5b f2 3c 0e d5 14 bc 6b c0 a3 3d 48 68 89 3d
       0.029584454 -0.009083999 0.07995685 0.06709343
0000b0 bf 55 df bb 46 68 29 bc 8a 86 50 bd a2 a5 98 bd
       -0.0068156417 -0.010339802 -0.050909556 -0.07453467
0000c0 87 d2 24 bd a8 52 81 bd f3 dd 17 3d 1c 6c 6f 3d
       -0.040239837 -0.063145936 0.0370769 0.05845271
0000d0 8f 33 af 3d 32 83 b6 3a 42 de 92 bd 03 fc a2 3d
       0.08554756 0.0013924597 -0.071712986 0.07958224
0000e0 ae d1 78 bd 19 47 2d 3c 49 09 56 3d a6 57 00 bd
       -0.06074684 0.010576033 0.05225495 -0.031333588
0000f0 cf 11 4e 3b 78 f4 f8 bc cd 25 ee bc dc b5 09 3d
       0.003144372 -0.03039001 -0.02907076 0.0336207
000100 ec 09 17 bd 47 36 e2 bd d4 a7 90 bd cb 9e 39 bd
       -0.036874697 -0.11045509 -0.07063261 -0.045317452
000110 65 12 35 3d af a1 a8 bd 36 a4 a4 bb ab d2 c5 bc
       0.044206996 -0.08233964 -0.0050244583 -0.024148306
000120 84 69 0b 3d 1c 8a 80 bd 64 26 84 3d 6d a0 a9 3d
       0.034036174 -0.06276342 0.06452635 0.08282552
000130 79 9a 9b 3c 1c 85 83 3c f2 2c 9f 3c 20 e9 99 bd
       0.018994557 0.016054682 0.019430611 -0.07515168
000140 4a 36 73 bd c5 2e a9 bd 18 f4 45 bd 42 da 8f 3d
       -0.059377946 -0.08260874 -0.04832849 0.07024051
000150 50 6c 46 bd e7 96 5e 3d e4 c3 1b bb 09 82 0b 3c
       -0.04844314 0.05434313 -0.0023767883 0.0085148895
000160 df 3c 60 3d fd ce 03 bd e4 e7 78 3c 7f e2 18 bd
       0.05474555 -0.03217982 0.015192006 -0.03732538
000170 5a 0e 95 3d 9d c6 6c 3d f7 1e 9b 3b 92 26 fa 3c
       0.07278128 0.0578066 0.004733916 0.03053597
000180 28 c1 28 bc a6 f5 cb bd d6 09 97 bd 40 9f a7 3d
       -0.010299958 -0.09958963 -0.07374923 0.081846714
000190 20 99 88 3d ea ea 94 3d 16 0a a8 bd d7 95 f3 bc
       0.06669831 0.07271369 -0.08205049 -0.029734535
0001a0 9e cd 6d bc 84 d8 37 bc 5c a7 03 bd 81 ed a0 3c
       -0.014514355 -0.011221055 -0.03214203 0.0196445
0001b0 5c cd 8a bd 6d af 9b 3b 01 74 4a bd 22 07 af bd
       -0.067774504 0.004751137 -0.049427036 -0.08546282
0001c0 fd 53 70 bd c0 e6 87 3d 8e 86 a5 bd 5a 10 a4 3c
       -0.058673847 0.06635809 -0.08082305 0.020027328
0001d0 bd f0 05 bc 99 ec 7c bc 7c ab a7 bd 2d f0 37 bb
       -0.008175072 -0.015437269 -0.08187005 -0.002806674
0001e0 26 9e 9e bc 38 dd 57 3c 2e d2 ab bd 1f 5e 44 bd
       -0.01936252 0.013175301 -0.08389698 -0.047941323
0001f0 9f 4e a5 3d 44 ac 81 bd 1d c8 45 3d 19 86 ae 3d
       0.080716364 -0.06331685 0.048286546 0.08521671
000200 d8 b1 f4 3b ca f1 7f bd 18 db 99 3d e8 73 4f bb
       0.0074674897 -0.062486447 0.07512492 -0.003165478
000210 fd c7 cf bb 0e 44 cc bc 01 3b 29 bd aa 12 8b 3d
       -0.006340979 -0.024934795 -0.041316036 0.06790669
000220 de 51 8a 3d c0 2d 42 3d 37 71 9c bd 9b da 64 3c
       0.06753896 0.04740691 -0.076387815 0.013968135
000230 fd 5b 7d 3d d6 be 3e 3d a9 a9 24 bd c3 16 9c 3d
       0.061855305 0.046568714 -0.040200863 0.07621529
000240 04 cc a0 bc 27 90 67 bd 74 dd 96 bd 9c 9d 24 3d
       -0.019628532 -0.05653396 -0.073664576 0.04018937
000250 8a 31 77 bd e6 6f 2f 3d ed bc c2 bb a6 f4 9e 3d
       -0.06034998 0.042831324 -0.005942932 0.07761507
000260 b3 9b 33 bd 3e 8b 83 3d 10 d6 d3 bc d2 e4 c3 3c
       -0.04384966 0.06423043 -0.025858909 0.023912821
000270 20 f2 79 bd e0 01 83 bc 2b e8 25 bd 3c 1f 70 3d
       -0.061021924 -0.015992105 -0.040504616 0.058623537
000280 f6 ea 0b bc 81 af 12 bd 3b 36 63 bc 60 2e 35 3d
       -0.008539906 -0.035811905 -0.01386791 0.04423368
000290 ee 20 88 bd 58 5f 6f 3c 6b 3d 0b bd 05 40 22 3d
       -0.06646906 0.014610134 -0.03399412 0.039611835
0002a0 e4 dd 2d 3d 18 1c 82 bd f7 58 56 3d 3d 3c d0 3c
       0.04244794 -0.06353015 0.052330937 0.025419349
0002b0 86 b7 0e bd 1e 8a 85 bc 91 6d 5a 3d f3 73 96 bd
       -0.03484299 -0.016301211 0.053327147 -0.07346334
0002c0 de 10 4a bd d6 e6 9d 3d bd 1d a0 3d 5d fa 9c bc
       -0.049332492 0.07710044 0.07818172 -0.019162351
0002d0 f9 1a 06 3d 4a b6 9d 3c 12 c9 2b bd aa 05 38 bc
       0.032740567 0.019251961 -0.041939802 -0.011231819
0002e0 b9 4c 20 bc 56 5a 6d bd 37 b6 7e 3d 50 8d 00 bd
       -0.009783917 -0.05794748 0.062185492 -0.031384766
0002f0 7f 65 2d bd 94 c9 18 3d 2d b1 0f 3c 89 c2 7f 3d
       -0.042333122 0.037301615 0.008770269 0.062441383
000300 d7 ae 1e bd 4f 01 27 bc e8 46 43 3d de 38 e2 bc
       -0.03874096 -0.010193183 0.047675043 -0.027615007
000310 c7 61 11 3c 03 63 87 3d 86 a7 e2 3c 12 3f 45 3d
       0.00887341 0.06610682 0.027667772 0.04815585
000320 ee b4 ae bd a7 fc 32 bd 63 75 95 bd cb f5 9d 3d
       -0.08530603 -0.04369798 -0.0729778 0.07712897
000330 54 05 06 bd 3a 6f 04 bd 33 c2 81 3d 2d 1a a2 3c
       -0.032719925 -0.032332636 0.06335869 0.019787872
000340 a8 64 0b 3d aa d2 32 3d a9 94 ec bc 41 54 c5 3c
       0.03403154 0.043657936 -0.02887948 0.024088027
000350 5f c8 30 3b ef af 26 bd 15 cf d5 bc f1 51 1c bd
       0.00269749 -0.040695127 -0.026099721 -0.038164083
000360 13 c6 30 3c 87 1b 59 3d e9 b0 37 bc b2 8d 84 bd
       0.010789412 0.053004768 -0.011211612 -0.06472339
000370 a3 5a bd bb 2a 92 98 3d 5b dd e1 bc 3b d5 ab bd
       -0.005778627 0.074497536 -0.02757137 -0.0839028
000380 d5 f7 98 bd 33 7c 47 bd 2b f3 12 bd c2 7d 47 3d
       -0.07469145 -0.04870243 -0.035876434 0.048703916
000390 00 0d 96 3c d6 f2 89 bd 9e d5 9d bd 2e 3a c5 3c
       0.018316746 -0.067357704 -0.0770676 0.024075594
0003a0 54 cb 84 bd c4 71 51 bd 4d d3 64 3c ac 4e 84 3d
       -0.06484094 -0.051133886 0.013966394 0.06460318
0003b0 a3 33 85 bd 58 a7 9d bd 7d 7d 37 3d 99 62 63 3d
       -0.065039895 -0.07697934 0.04479741 0.055513952
0003c0 60 f4 9a bb 2f f8 79 bd 84 ba 58 bd 7c df 50 3b
       -0.004728839 -0.061027702 -0.05291225 0.0031871488
0003d0 42 66 2d 3d f7 83 6f bd 08 4f 4b 3d ee 74 6e bd
       0.04233385 -0.05847546 0.049635917 -0.05821698
0003e0 fa ff c1 bd 22 d8 c1 bc 67 89 10 bd 60 9d 98 bd
       -0.09472652 -0.02366263 -0.035287287 -0.07451892
0003f0 36 73 56 bc fe fa c7 bc 5a ac a2 3c 69 a3 63 bd
       -0.013088992 -0.024411675 0.019857574 -0.055575762
