model_training/trained_models/model_3.pth (torch, 453421 bytes, 18 tensors)

pos_embedding f4 [1, 1025, 64]
000000 f2 8a f4 3f 17 3f b7 3f b4 37 60 3f 06 82 07 c0
       1.9104903 1.4316128 0.87584996 -2.117311
000010 0b 0c 2a 3f 8c e5 99 bf 0f f1 6a bd d4 74 cf bf
       0.66424626 -1.2023177 -0.057358798 -1.6207528
000020 bb 98 36 bf f3 6a cd 3f d7 7c d6 be 50 3f b4 bf
       -0.713268 1.6048263 -0.4189212 -1.4081821
000030 bd 90 35 bf 42 b7 0b bf 2d 6a 3f bf 83 fc 41 3f
       -0.7092398 -0.54576504 -0.74771386 0.7577593
000040 70 b4 d3 3f 9d 8a f9 bd 8b e7 d8 be 9f 8a e7 3e
       1.653944 -0.121846415 -0.42364153 0.45222947
000050 b8 f3 3e bf 1f 37 87 3f 36 c9 4c 3f 7c 91 d5 3f
       -0.74590635 1.0563697 0.79994524 1.6685023
000060 6b d5 99 3f ff d5 a1 3f b0 77 1e 3f 46 f8 a3 3f
       1.2018255 1.2643431 0.6190138 1.2810142
000070 8a e4 80 be f0 eb 74 3d e4 63 74 be cc ab 4d 3f
       -0.2517436 0.05979532 -0.2386623 0.80340266
000080 14 26 b1 bf 2d 6d 5b bf a7 0c 3a be 1b e0 d7 3f
       -1.3839746 -0.85713464 -0.18168889 1.6865267
000090 87 34 96 3e d1 c2 ec be f7 d9 a6 3e 9b 52 4f bf
       0.2933695 -0.46242383 0.3258817 -0.8098542
0000a0 81 50 c3 bf 06 c0 7f 3f ec 65 62 bf 6f 3d 13 bf
       -1.5258943 0.9990238 -0.8843677 -0.57515615
0000b0 44 bf 9e bf a4 0f 05 40 bb a6 9e bf 85 56 ef be
       -1.240212 2.0790796 -1.2394632 -0.46745697
0000c0 84 62 65 bf f1 2b 2a bf 54 a6 7e 3d 3b 94 06 3f
       -0.8960345 -0.664733 0.06217034 0.5256993
0000d0 d3 7d e8 be d7 07 97 3f 14 2a 52 bf 0b 35 3c bf
       -0.45408496 1.1799268 -0.82095456 -0.7351844
0000e0 0f d3 b0 bf f3 cf e2 3c 8f 39 f4 bc 26 d5 2a 3f
       -1.381441 0.027687049 -0.029812602 0.6673149
0000f0 1a 50 7a bd e3 18 ec 3f 6e 44 93 bf 2d 5d ae 3f
       -0.061111547 1.8445095 -1.1505258 1.3622185
000100 9b fa b8 3f 26 3f 5b 3f f1 f4 0d 40 67 ee 05 3f
       1.4451479 0.8564323 2.218075 0.523169
000110 53 7a b1 3e 4c 0f 4a be 5e fc 86 bf 3d 95 a3 3f
       0.34663638 -0.19732398 -1.0545766 1.2779919
000120 f5 51 30 be fc 16 06 3f 08 dd 67 3d 6e 43 da 3e
       -0.17218764 0.5237882 0.056607276 0.4262957
000130 af 33 13 3f f8 47 24 bf c7 35 0d c0 29 34 40 bf
       0.5750074 -0.64172316 -2.2064073 -0.7507959
000140 a3 4d 32 3c 67 6e ad be 2c 9b ab bf 88 db 15 bf
       0.010882768 -0.33873293 -1.340673 -0.58538103
000150 c2 43 09 3f 5c 4d 06 3f 6a 12 92 3f 0e 87 53 3d
       0.53619015 0.5246179 1.141187 0.05164247
000160 4d 73 3e 3f c3 94 f6 be 5d 55 86 bf 8a 98 1a 3f
       0.74394685 -0.4816037 -1.0494801 0.60389006
000170 e6 73 dc bf e4 e8 53 bf 6c d7 aa 3f 05 93 f7 3e
       -1.7222869 -0.8277724 1.3346992 0.48354355
000180 53 9c 20 c0 15 d8 f9 3e 7b d9 48 3f 55 e0 ea 3c
       -2.5095413 0.4879767 0.7845685 0.028671423
000190 f5 07 24 3f e2 50 15 3f ec 90 88 3f 04 7c e6 be
       0.6407464 0.5832654 1.0669227 -0.4501649
0001a0 d5 b2 3d be 54 b5 40 3f 96 3e cf 3e bb be 36 3e
       -0.1852525 0.75276685 0.40477437 0.17846195
0001b0 80 a1 87 3e 4e f7 a2 3f 86 5b ad ba 0c 6d 9b be
       0.26490402 1.2731721 -0.0013226129 -0.30356634
0001c0 09 80 ba bf 83 96 d1 bd 04 62 19 bf b7 3f f4 3e
       -1.4570323 -0.10233786 -0.59915185 0.4770486
0001d0 40 e7 39 3f a4 a9 ba 3d 98 33 c7 be 57 25 07 3f
       0.72618484 0.09114388 -0.3890655 0.5279135
0001e0 46 17 50 bc af 9d 76 3e 0d b2 07 3e 55 a6 43 3f
       -0.012700861 0.24083589 0.13251515 0.7642568
0001f0 59 29 8c 3f 7a 05 ae 3e fe 4f 38 3f 23 a5 d2 3e
       1.0950118 0.33988553 0.7199706 0.41141614
000200 e4 30 f7 3f 23 85 81 3f 03 dc b7 bf c2 9e 90 bf
       1.9311795 1.0118755 -1.4364017 -1.1298449
000210 d9 4b 0b be 7a 55 d1 3f d4 9c 27 3f af 75 13 3f
       -0.13603152 1.635421 0.65473676 0.57601446
000220 eb 1c 92 3f 7f 0a 98 3c e1 24 e7 bf 25 e9 6c 3f
       1.1415075 0.018559692 -1.805813 0.9254325
000230 9d 2b c0 be 2c 3c 84 3f 24 c9 2f bf 5d 06 23 3f
       -0.37533274 1.0330863 -0.6866629 0.63681585
000240 ac 00 79 bf 41 5d 75 3f e8 41 cf 3f e6 ac b9 3f
       -0.9726665 0.9584542 1.6191988 1.450589
000250 8a f9 89 3e 77 6c 57 be 2a 99 3b bf ac 9b d5 3d
       0.26948196 -0.2103747 -0.73280585 0.10430083
000260 16 8e b2 3e bf b2 77 3f 7e 70 ee be 09 6a cd 3f
       0.34874028 0.9675712 -0.465702 1.6047984
000270 3e ba 1e c0 da c8 d5 be 6e 04 99 bf 5f f5 4f 3f
       -2.4801173 -0.417548 -1.1954477 0.8123378
000280 f9 44 f3 bf fc 0a 6a 3e 16 7b cb 3c 3f 1d b1 be
       -1.9005424 0.22855753 0.024838965 -0.34592625
000290 ec da 92 3e 9e 17 3b bf a2 01 33 3e 1b 06 8c bf
       0.2868265 -0.7308291 0.17481092 -1.0939363
0002a0 20 13 cd bf 6e 2b ad 3f 84 f8 a4 3f 8d 32 56 3d
       -1.6021461 1.3528879 1.2888341 0.052294303
0002b0 36 ff c5 bf af b7 41 3f 7e 87 46 3f 48 b3 01 40
       -1.5468509 0.75670904 0.77550495 2.0265675
0002c0 4c ab 12 3d bf f6 f6 3d 79 3f 4e bf a6 91 54 be
       0.035807893 0.12058782 -0.805656 -0.20758685
0002d0 f3 93 6e bf a6 a4 cb bf 86 67 91 bf 9f c8 05 bf
       -0.931945 -1.5909622 -1.1359718 -0.5225925
0002e0 06 cf 04 bf da 29 c0 bf 07 9d f6 bf e9 ee 02 3e
       -0.5187839 -1.5012772 -1.9266671 0.1278645
0002f0 c3 ee 82 3f c6 48 0e bf 5c 4b 34 3f 58 ba 35 3f
       1.0229114 -0.55579793 0.7042749 0.70987463
000300 78 1f e3 3f 12 ea 6b bf 46 63 76 3f d8 8d ac be
       1.7743979 -0.9215404 0.9624523 -0.33701968
000310 b5 71 96 bf d0 53 b7 3e 70 22 f5 3e 02 46 ad 3f
       -1.1753451 0.3580613 0.47877836 1.353699
000320 43 ac 06 3f b2 2b 07 40 d2 50 05 bf 31 98 6e bf
       0.526066 2.112042 -0.52076447 -0.93200976
000330 55 9a 3d 3e 11 cb 88 3f 6e 3c a7 3f 5a 70 eb 3e
       0.18515904 1.0686971 1.3065317 0.45984155
000340 b7 8a 50 bf bc b7 82 bf 4d 66 fd be 26 9e 17 bf
       -0.8146166 -1.0212321 -0.49492112 -0.5922569
000350 d1 05 1e 3e 07 ac e1 3e 05 dc 17 be 61 61 14 c0
       0.15431906 0.4407656 -0.14830025 -2.3184435
000360 95 c6 cb be 17 4d 8a 3f b7 f3 e3 bf 50 07 c1 3f
       -0.39799944 1.0804776 -1.7808751 1.5080357
000370 31 6e 9e 3e 6a 14 00 bf d8 7a 84 3f 7a 46 d8 3f
       0.30943444 -0.5003115 1.0349989 1.6896508
000380 55 b7 93 bb 0b 59 d5 3f be 9b 1d 3e 0f b6 87 bf
       -0.004507939 1.6667799 0.15391442 -1.0602435
000390 31 9a 12 bf 3c 2b ab 3d ed c0 cc 3e 32 9e fe 3f
       -0.5726653 0.08357856 0.3999094 1.9892027
0003a0 cb 68 93 bd 58 f5 67 bf 0b 1e 03 c0 21 60 8a bf
       -0.07197722 -0.9060874 -2.0487087 -1.0810586
0003b0 1a 51 90 3c 84 38 a0 3d 70 ca 45 3e 7b c3 d1 3e
       0.017616797 0.078232795 0.19315505 0.40969452
0003c0 c3 db 6d bf a1 68 8d 3e 3a f4 09 bf 1d d7 ec 3e
       -0.92913455 0.27618888 -0.53888285 0.46257868
0003d0 a9 33 5f bf 21 33 de bc 1f dd b4 be 9f 5f bb 3f
       -0.871882 -0.02712399 -0.35324952 1.4638556
0003e0 c2 b1 a0 3f 73 07 37 bf ae 99 5a 3f 20 54 03 3f
       1.2554247 -0.7149574 0.85390747 0.5130024
0003f0 22 2c 0a 3f ad c4 10 3f 9a 7b 01 3f f7 cc 63 3e
       0.5397359 0.56550103 0.50579226 0.22246157

cls_token f4 [1, 1, 64]
000000 46 66 24 bf 2c 7e c1 3f ec 0c 74 3f e9 73 c9 3e
       -0.64218557 1.511663 0.9533222 0.39346245
000010 a5 c4 ba be 34 63 c0 be 29 da e4 3f 1d 6a b3 3f
       -0.36478153 -0.37575686 1.7879077 1.4016758
000020 de 5b bd bf c6 56 02 be 70 f1 26 3f 6e 2c 42 3f
       -1.4793661 -0.12728414 0.65212154 0.75849044
000030 9f dc 1f 3e b6 29 cf bf d6 33 23 bf 4f 67 8a bc
       0.15611504 -1.6184604 -0.6375097 -0.016894965
000040 0b 82 a8 3f c0 54 b8 bf 85 54 03 c0 87 6c ae bf
       1.3164686 -1.4400864 -2.0520337 -1.362687
000050 7d 91 f4 3e d7 ab 21 3f 26 f7 74 bf 24 e8 85 3f
       0.4776725 0.6315283 -0.9568962 1.0461469
000060 ab 38 ec 3d f5 96 4b bf be 78 95 bf 79 97 7c 3f
       0.11534246 -0.7952722 -1.1677473 0.9866863
000070 fa 83 80 3f 0f 33 11 3f 6b 5d 94 3d a3 a1 13 40
       1.0040276 0.56718534 0.072443806 2.3067405
000080 71 1e c8 3f ee 72 a8 be 7b c2 55 bf 93 2b fb be
       1.563429 -0.32900184 -0.8349988 -0.49056682
000090 35 cf b5 3f 0c bc f8 3f 1e 48 bb bf f7 8f 01 3f
       1.420386 1.9432387 -1.4631383 0.506103
0000a0 fe 66 81 3d 15 22 cb 3e af 8a dc be 6f 1d 70 bf
       0.06318472 0.3967444 -0.43074557 -0.9379491
0000b0 d0 4e 0c bf 19 12 91 3e 5b 14 00 40 53 2f 8c bf
       -0.5480776 0.2833412 2.0012424 -1.0951942
0000c0 85 7a de 3f 16 26 e2 bb d6 77 60 bf e8 cf 84 3f
       1.738114 -0.006901513 -0.87682855 1.0375948
0000d0 55 5f 7b bf 92 03 13 bf e7 8b 96 3f f9 bd ae bc
       -0.9819234 -0.5742732 1.1761445 -0.02133082
0000e0 a2 94 63 3d ed 44 61 bf 99 66 8e bf 9f f8 c4 3f
       0.05556167 -0.879958 -1.112506 1.5388373
0000f0 80 f5 0b bf e8 56 70 3f e1 8f db be 0a a1 4e 3f
       -0.5467148 0.9388261 -0.42883208 0.80714476

patch_to_embedding.weight f4 [64, 64]
000000 46 e6 10 3d 1b 55 93 bc 67 38 eb bc fd 45 51 3b
       0.035375856 -0.017984917 -0.028713418 0.0031932585
000010 38 0a 9b bc 53 67 9f bd ee 26 dd bd 30 6f a5 bd
       -0.018925771 -0.077833794 -0.10798441 -0.08077848
000020 37 8b 03 3e e3 ef d9 3d 68 91 4f 3d 0f 29 27 3d
       0.12846075 0.10641458 0.05067578 0.04081064
000030 1c e8 cf 3d cc c7 d2 3d c8 a1 88 3d 9b 7d 68 3a
       0.10151693 0.102920145 0.06671482 0.00088688143
000040 c9 ea 73 3d 90 be 69 bd b4 81 84 3d 3c 14 ce 3d
       0.05955008 -0.0570665 0.064700514 0.10062453
000050 ad c7 0d 3d d1 bf 84 bd ec e1 0c 3d 5e c8 df 3d
       0.034614254 -0.064818986 0.034395143 0.10926889
000060 8d b4 70 b9 61 bb 7e 3d b4 79 ba 3c 25 11 8d 3d
       -0.00022955444 0.062190417 0.02276311 0.06888036
000070 0b 9f 59 3d 09 15 b7 3c d0 4c d9 bd ba 5f e7 3d
       0.05313019 0.022348898 -0.10610354 0.11297555
000080 8c 8e d7 bd ea 36 c5 bd c2 c6 f3 3d cd d2 b1 bc
       -0.105252355 -0.09629615 0.119031444 -0.021706963
000090 28 52 da bd 23 0c d4 3d cf 9e 0a bd 4a 75 ca 3d
       -0.10660201 0.103538774 -0.033842858 0.09885652
0000a0 6c 71 d5 3d c4 74 e2 bd 9a 79 ee bd a7 36 1c 3c
       0.10422024 -0.110574275 -0.116442874 0.0095345145
0000b0 0d 78 ee bc 42 fc e8 bd 33 de 8d bd 0e ab ba 3d
       -0.029109979 -0.11376239 -0.06927147 0.09114657
0000c0 81 bd 82 3d 59 d1 58 3d 0d 42 86 3d f8 b0 85 3d
       0.06383801 0.052934024 0.06555567 0.06527895
0000d0 a0 79 b4 3d 8d bc fc bb bd 1e 01 3a 01 07 04 3e
       0.08812261 -0.0077129067 0.000492554 0.12893297
0000e0 8e ac 90 3c d0 e4 49 bc 78 d0 cf 3d dd b5 9f 3d
       0.017660405 -0.01232262 0.10147184 0.077983595
0000f0 91 d0 80 3c b3 a0 96 3d a6 68 f6 3d 57 18 6d 3a
       0.015724452 0.0735487 0.12031679 0.00090444594
000100 6e fa 5d bd cb bd 09 3d c5 18 f4 3d 5b 0a 85 bd
       -0.054193906 0.033628266 0.11918787 -0.06496116
000110 e3 f1 d6 bd cf 60 2d bd 77 c7 c2 3c a8 53 c2 bd
       -0.10495355 -0.042328652 0.023776753 -0.094886124
000120 94 d4 93 bd 09 06 8c 3c ef bc dd 3d de e6 86 3d
       -0.072182804 0.017092722 0.10827052 0.06587003
000130 60 84 aa 3d d1 26 5d 3d 83 9a 22 3d 98 37 f8 3d
       0.0832603 0.053992096 0.039698135 0.12119979
000140 57 f4 0f bd 1a 32 d6 bb bb fd c8 3c b7 e1 80 3c
       -0.03514513 -0.0065367343 0.02453505 0.01573263
000150 1b 45 ad 3b 41 74 40 bd 29 ef e3 3d 9e 56 9b 3d
       0.005287779 -0.04698587 0.111296006 0.0758488
000160 47 f4 c1 bd 55 1c e5 3c 52 c9 e6 bd 6d b8 ec 3d
       -0.0947042 0.027967611 -0.112688676 0.11558614
000170 de b4 50 3d 52 a1 8f 3d 74 9e 03 3e 44 fd df 3d
       0.05095374 0.07013191 0.12853414 0.109369785
000180 69 5c 9d 3d 6d c2 0e bd 9f 88 06 bc b2 d7 ab 3d
       0.076836415 -0.034853388 -0.008211284 0.0839075
000190 0b 8e d1 3d 35 17 00 bd 49 e2 e5 3d 05 15 b4 3d
       0.10232171 -0.031272132 0.11224801 0.08793072
0001a0 b4 6c e4 3d 5d 9c a4 bb 62 f3 33 3c 51 0a 82 bd
       0.11153546 -0.005023523 0.01098332 -0.06349624
0001b0 82 b3 e2 bd 56 11 44 bc 57 69 fa 3c c9 47 ac bd
       -0.11069395 -0.011967024 0.030567808 -0.084121294
0001c0 2f 4f 25 3d 66 30 d9 bd 76 d1 de bd 0b ad f5 3d
       0.04035872 -0.106049344 -0.10879795 0.11995896
0001d0 5d 26 b4 bd 1b fc d9 3a 9b f5 f8 bc e1 bb 74 3d
       -0.0879638 0.0016630919 -0.030390551 0.059749488
0001e0 a5 a2 b3 3c e3 be 3c bd 71 bc 82 bd c0 96 c2 bd
       0.02192814 -0.04608048 -0.063835986 -0.095014095
0001f0 b3 cc cd bc 70 08 8a 3d 8b c6 87 bc 4a e1 bf bd
       -0.025122022 0.067398906 -0.016574165 -0.09369142
000200 00 b5 12 3d 17 f6 f3 bd d8 65 d8 bd 60 4f 9b 3d
       0.035817146 -0.11912172 -0.105663 0.07583499
000210 f8 11 ec bd 8a 3d 3b ba 11 92 b0 bd 93 cd c0 3d
       -0.11526865 -0.0007142654 -0.0862161 0.0941421
000220 87 d6 9f bd f4 b8 f0 bd 7a ae c0 3d a0 88 43 3c
       -0.0780459 -0.11754027 0.09408279 0.011934429
000230 2d ab c3 bd 7c 35 84 3d 63 b1 d7 bd 9d 17 2d 3d
       -0.095541336 0.06455514 -0.10531881 0.042258848
000240 6f d8 45 bd 58 a9 8c 3d bd 4c aa 3d 5d 02 74 bc
       -0.04830211 0.06868237 0.08315418 -0.014893142
000250 9d 44 d3 3d 3d f5 b6 3c f1 34 79 bb ef 43 e3 3d
       0.10315821 0.022333736 -0.003802594 0.11096942
000260 4a 59 93 3d 2d b5 6a bd 33 ad 5a 3d 74 d8 8d bd
       0.07194765 -0.05730169 0.053387832 -0.06926051
000270 66 e3 21 3c bc 8b cc bd df 63 a6 3d 1f 7e ee bd
       0.009880876 -0.0998759 0.08124518 -0.116451494
000280 31 89 bb bc 1a ce 95 3d be 15 2c bd 2d bd ff 3d
       -0.022892566 0.073147014 -0.042012922 0.12487254
000290 41 07 20 3d 76 f1 9c ba a1 21 7c 3d 31 91 b0 bd
       0.039069418 -0.0011973816 0.06155551 -0.08621443
0002a0 74 55 86 3d 93 79 f7 bd d1 4c 24 3d 4c 08 7c bc
       0.06559268 -0.12083735 0.04011232 -0.0153828375
0002b0 3b 8d d9 3d 4e 64 be bc 99 2b 84 3c d6 17 e4 bd
       0.10622641 -0.023241188 0.01613407 -0.11137359
0002c0 c9 4c af 3d e2 35 f1 bd c4 0a 8d 3d 4c 3e 1f 3d
       0.085595675 -0.117778555 0.06886819 0.03887777
0002d0 ee a7 d1 3d 15 dd ee 3d 4c 39 4f 3c 5a 96 cb bd
       0.10237108 0.11663262 0.012647938 -0.09940787
0002e0 6a de e1 3d f2 2b 86 bd 59 bb d2 bd 93 23 78 3d
       0.1102875 -0.06551351 -0.1028964 0.0605808
0002f0 39 b1 69 bd c6 c4 b7 3d 06 52 ba 3d 34 5b 1b bd
       -0.05705378 0.089730784 0.09097676 -0.037928775
000300 ad 51 06 bc c0 1e e7 bc ea 31 15 bd 44 30 c0 bd
       -0.008198184 -0.028212905 -0.036424555 -0.09384206
000310 54 da fa bc 7c 55 fe 3d d3 17 9b 3d 59 fa 10 3d
       -0.030621685 0.124186486 0.075729035 0.035395
000320 3b c1 b6 bd eb f1 4d 3d 33 13 44 bc 39 6b 65 bd
       -0.089235745 0.05027954 -0.011967468 -0.05601046
000330 05 9a 51 3d 35 fb 83 bd 65 02 65 3c 03 a4 10 bd
       0.051172275 -0.06444398 0.013977622 -0.035312664
000340 93 61 dd bd 54 a7 8c 3d a3 df 1f 3c 78 b0 9e 3d
       -0.108096264 0.06867853 0.009757909 0.077485025
000350 9a fd 15 bd 75 d5 25 3c 1c 06 8d bd 9e 79 a4 3d
       -0.036618806 0.010121693 -0.06885931 0.08031009
000360 85 05 7a bd 3e 8d b5 3c 69 e3 ea 3d d9 9f e1 bd
       -0.06104042 0.022162076 0.11469156 -0.11016817
000370 54 a2 77 bd db b2 7e 3d 8b fd ac bc d3 fa 53 bd
       -0.060457543 0.06218229 -0.021116992 -0.051752876
000380 e7 38 fb bd 44 ba ec 3d 55 1f 6f 3d 90 4e 7a bb
       -0.12266713 0.11558965 0.05837949 -0.00381938
000390 41 74 f8 3c 6a 60 b3 3d 09 e4 f3 3d 5a f3 78 bd
       0.030328872 0.08758624 0.11908729 -0.060778953
0003a0 8d 60 9f bd 6c 70 bf bd 24 c3 c4 bd 9c 92 8f 3d
       -0.077820875 -0.09347615 -0.096075326 0.070103854
0003b0 23 59 e4 bd a4 1a cb 3d 8c 5c e3 3d 80 57 c7 bd
       -0.11149814 0.09917191 0.11101636 -0.09733486
0003c0 47 9f d2 3d 70 31 b3 3d 02 ff f6 bd 3a 3d 2b bd
       0.10284286 0.08749664 -0.12060358 -0.041806437
0003d0 be 01 8b 3d 31 45 f9 bc b3 cb 20 bd e8 51 c6 bc
       0.06787442 -0.0304285 -0.039256763 -0.024208978
0003e0 fe b3 b2 3d fb fb b6 bd 1f d3 1d bd f7 22 1a bd
       0.08725737 -0.0893478 -0.03853142 -0.037631
0003f0 06 fe ff 3c 8e d8 89 bd cd 95 89 bd ec 2f f2 bc
       0.031249058 -0.06730758 -0.06718025 -0.029563867

patch_to_embedding.bias f4 [64]
000000 73 e7 72 bd ff f1 fc 3d 68 f3 e9 3d 04 c6 d7 3d
       -0.05930276 0.123508446 0.11423379 0.10535815
000010 d7 c8 86 3d f3 8b 0f 3d 8e ab f8 3c b3 53 88 3c
       0.06581276 0.035045575 0.030355241 0.016641473
000020 cd 61 00 3e 49 57 de 3d 7e 92 a6 bc ba 5b c7 bd
       0.12537308 0.10856492 -0.020333525 -0.09734292
000030 12 ac 5b 3d 73 81 79 3d 68 8b 7d bc 4f 5b c1 3d
       0.053630896 0.060914468 -0.015475132 0.09441244
000040 f4 1c 8e 3d cd a8 97 bd 74 2e fb 3d bd ff e3 bd
       0.06939116 -0.07405243 0.122647196 -0.111327626
000050 e6 68 51 3c 87 66 b3 bd af 71 75 3d 5b 0a 2a bd
       0.012781357 -0.0875979 0.05992287 -0.041513782
000060 28 06 eb 3c a5 21 06 bd 4e 30 9c bd 8d 0c ae 3d
       0.028689459 -0.03274693 -0.07626401 0.084984876
000070 34 1a 8c bd 67 84 ca 3d 56 69 d7 bd fc e0 e8 bd
       -0.06840935 0.09888535 -0.10518138 -0.11371037
000080 52 b7 e5 bd 73 c8 ae 3c 88 17 a1 bc 96 91 92 bc
       -0.11216606 0.021335816 -0.01966454 -0.017891686
000090 58 a5 bb 3b 42 8a a7 bd ad d2 cb bd 30 10 64 3c
       0.0057264976 -0.081806675 -0.099522926 0.013919875
0000a0 ab b3 83 bd 36 d4 a8 bd fb 16 5c ba ac 24 70 bd
       -0.06430753 -0.08243601 -0.00083957583 -0.058628723
0000b0 ca 41 01 bd 43 fb 75 3d 40 82 93 3d 39 55 6b 3d
       -0.031556882 0.060054075 0.072025776 0.05745432
0000c0 43 52 9c bd 9e dc 8a 3c 19 65 8b 3d 4a 1b 82 bd
       -0.07632878 0.016950902 0.06806392 -0.06352861
0000d0 28 b6 9d 3d 67 73 1d 3d 09 de ef bd 8d 7e a9 3c
       0.07700759 0.038440134 -0.11712272 0.020690227
0000e0 eb 36 2d 3c 08 6f a7 bd 73 57 70 bd 04 f8 91 3d
       0.0105721755 -0.081754744 -0.058677148 0.07127383
0000f0 f6 22 41 3d 82 03 d3 3d 2e 28 3d bd ea 04 02 3e
       0.047152482 0.103034034 -0.046180896 0.12697187

transformer.layers.0.0.fn.norm.weight f4 [64]
000000 60 5f 80 3f 96 36 80 3f 67 2d 80 3f 63 02 80 3f
       1.0029106 1.0016658 1.0013856 1.0000728
000010 89 05 80 3f 47 ae 7f 3f bb 6b 7f 3f 23 12 80 3f
       1.0001689 0.998753 0.9977376 1.0005535
000020 c4 19 80 3f 74 f4 7f 3f 1a a7 7f 3f 6e 18 80 3f
       1.0007863 0.9998238 0.9986435 1.0007455
000030 ab d0 7f 3f d8 1c 80 3f 1d 13 80 3f c1 06 80 3f
       0.9992778 1.0008802 1.0005833 1.0002061
000040 0b ca 7e 3f 8d 81 7f 3f 4b cf 7f 3f 74 58 80 3f
       0.99527043 0.99807054 0.9992568 1.0026994
000050 a0 10 80 3f 93 0e 80 3f d5 e9 7f 3f 73 06 80 3f
       1.0005074 1.0004448 0.99966174 1.0001968
000060 94 f4 7f 3f 64 b8 7e 3f d6 49 80 3f 88 0a 80 3f
       0.9998257 0.9950011 1.0022533 1.0003214
000070 cc 9d 7f 3f 66 e2 7f 3f 09 06 80 3f 18 ca 7f 3f
       0.99850154 0.9995483 1.0001842 0.99917746
000080 90 0d 80 3f d5 16 80 3f 02 25 80 3f 9a 31 80 3f
       1.0004139 1.0006968 1.0011294 1.0015137
000090 24 77 7f 3f ac ac 7f 3f c0 01 80 3f 05 52 80 3f
       0.9979117 0.9987285 1.0000534 1.002503
0000a0 07 be 7f 3f 3b 8b 7f 3f 1a a6 7f 3f e5 1e 80 3f
       0.99899334 0.99821824 0.99862826 1.0009428
0000b0 4c 29 80 3f 49 25 80 3f 26 15 80 3f e7 74 80 3f
       1.0012603 1.0011379 1.0006454 1.0035676
0000c0 72 29 80 3f a7 f3 7f 3f 4a d3 7f 3f ac 54 7f 3f
       1.0012648 0.9998116 0.99931777 0.99738574
0000d0 b1 09 80 3f 82 d2 7f 3f 6b f2 7f 3f c5 2b 80 3f
       1.0002958 0.99930584 0.99979275 1.0013357
0000e0 80 1e 80 3f 3f ff 7f 3f 73 74 7f 3f b5 25 80 3f
       1.0009308 0.9999885 0.9978706 1.0011507
0000f0 04 fc 7f 3f ab cd 7f 3f ba 05 80 3f 6f ec 7f 3f
       0.9999392 0.999232 1.0001748 0.99970144

transformer.layers.0.0.fn.norm.bias f4 [64]
000000 c8 17 62 3c bb c4 46 3c 9b c8 8b 3b ce 94 a6 39
       0.013799615 0.012131865 0.0042658574 0.00031772855
000010 9c 9c 1e bc a1 a0 c3 3b 3c 0e 9c 3b cb 33 27 bb
       -0.009680893 0.005970076 0.004762439 -0.0025513049
000020 ec 44 4b 3b 5a 77 13 ba 5c 63 35 bc 92 ac 0e bb
       0.0031016422 -0.000562539 -0.011071052 -0.002177034
000030 dc 1e 5b 3b 30 c8 03 3b 86 3d 2e bc 28 95 92 3b
       0.0033435142 0.0020108335 -0.0106347855 0.004473347
000040 de 29 37 3c 10 5a a5 3b 51 b0 5d 3a 42 77 3d bc
       0.0111794155 0.0050461367 0.0008456754 -0.011564078
000050 53 7c 23 3b 13 d2 26 bb 57 85 16 bc b7 58 89 3a
       0.002494593 -0.0025454804 -0.009187064 0.001047871
000060 ed ef c5 bb 77 f5 9e bc ac 79 7c bc ea 30 10 bc
       -0.0060405643 -0.019404156 -0.015409868 -0.0088007245
000070 b9 8b cb 3b 77 73 e7 ba 8f 7a 43 bb da e2 c7 39
       0.0062117246 -0.0017658313 -0.002982769 0.00038125255
000080 1d 6e 10 bb 78 e7 9f bc 49 6e 73 bc 37 d9 86 3c
       -0.002203829 -0.019519553 -0.014857837 0.016460998
000090 4f 64 59 bc a3 9f 3e 3c 38 5e 96 ba 28 21 17 bc
       -0.013268544 0.01163474 -0.0011472171 -0.009224214
0000a0 c3 f0 4c 3c 17 f1 3d 3b 5e 37 13 3c 6d f8 ca bb
       0.012508574 0.0028982812 0.008985369 -0.0061941654
0000b0 68 07 da bb 97 96 87 3b e7 42 13 bc 6a bd dd 3c
       -0.006653715 0.0041378248 -0.008988119 0.027067859
0000c0 83 9e e1 bb 14 b7 a4 bb 99 b0 5c bb 45 8f 03 bc
       -0.006885351 -0.0050267074 -0.0033674596 -0.008029764
0000d0 a8 93 73 3b 18 93 a1 bb 0e 64 3c ba 79 92 9f bb
       0.0037166867 -0.004930865 -0.000718654 -0.004869756
0000e0 f7 c6 52 bc 18 ee 91 bb d6 6f 8c bc 09 d9 66 3c
       -0.01286482 -0.004453432 -0.017143171 0.014089831
0000f0 82 3a 84 3b 47 dc c8 bb b1 4c 1e ba a3 09 b5 3b
       0.004035295 -0.0061297747 -0.00060386496 0.0055248304

transformer.layers.0.0.fn.fn.to_qkv.weight f4 [192, 64]
000000 5a 8e e4 3d 30 f4 53 3d a0 1a 6a 3c 2b 24 0e 3d
       0.11159964 0.051746547 0.014288574 0.03470246
000010 21 ba 98 3c ca 2a 8d 3d f3 c8 6a bd ef 39 0d bd
       0.01864344 0.06892927 -0.057320546 -0.034479078
000020 98 0b 73 bd dc a8 bf 3c fe 6a 89 bd cf 25 88 3d
       -0.05933723 0.023395948 -0.0670986 0.066478364
000030 ed 38 c8 bc b0 ff f9 3d 92 97 41 3d 93 37 ef bd
       -0.024441207 0.12206972 0.04726369 -0.11680522
000040 c4 28 9d 3c af 62 47 3d 60 5d a5 bd d0 5e 97 3c
       0.019184478 0.048678096 -0.080744505 0.018477827
000050 80 7f 33 3d 08 d6 f2 bd c9 50 e2 bd fb aa d9 bb
       0.043822765 -0.118572295 -0.11050565 -0.006642697
000060 bd 32 3d 3d ec a2 8b bd fe e3 88 bd 32 94 82 bd
       0.046190966 -0.06818184 -0.06684111 -0.06375922
000070 ab e3 e0 3c 85 ce 38 bd 48 bb 5e bd ab 16 2b 3c
       0.02745231 -0.045118827 -0.054377824 0.010442416
000080 f2 ed 6f bc 0d cd 91 bc 72 e2 a2 3d e4 e5 cc bd
       -0.014644133 -0.017797971 0.07953347 -0.10004786
000090 11 31 5a bc 35 f3 60 bc 94 60 43 3d f9 36 90 bd
       -0.013317362 -0.01372986 0.047699526 -0.07041735
0000a0 fe 0e 95 3c 95 e3 ee bd cf ff cb 3d 3f 36 c2 3c
       0.018195625 -0.116645016 0.09960901 0.023707507
0000b0 67 7c 7f bc bc 85 dd bd 14 62 bd 3d 3e 9a af 3d
       -0.015593625 -0.108165234 0.092472225 0.08574341
0000c0 15 3e b2 3d f4 2c a8 bd 95 3d 63 ba 21 5e 9c bd
       0.087032475 -0.08211699 -0.0008668539 -0.07635141
0000d0 4b e9 96 bd bf c3 c3 bd d9 8c a2 3d ff 59 d2 bc
       -0.07368716 -0.0955882 0.07937021 -0.02567768
0000e0 79 eb 83 3d 57 1d c0 bc e2 12 22 bc 68 fa b8 ba
       0.06441397 -0.02345149 -0.009892197 -0.0014112713
0000f0 3d 3f c3 bd 89 ee e7 bd 99 53 4c 3d f0 a8 87 bb
       -0.09533546 -0.11324794 0.049884412 -0.004140012
000100 f0 18 3b bb 2c 9e be 3b 9c ef 15 3c 8e 0d 96 3d
       -0.00285488 0.0058171954 0.009151366 0.07326804
000110 ff db bc bc 43 8f 04 bd 9a 36 d4 bd fa f2 a0 3c
       -0.023054121 -0.032363188 -0.10361977 0.01964711
000120 34 62 a1 3d 51 00 87 bd b5 76 43 bd be 72 81 bd
       0.07880059 -0.06591857 -0.04772063 -0.063207135
000130 6d 9a f5 3d 74 47 ec bd fe e7 89 3d a5 a5 91 bd
       0.11992345 -0.11537066 0.06733702 -0.07111672
000140 02 80 cb bd 5d 73 dd 3d 20 79 cf 3c 70 d4 6c 3d
       -0.09936525 0.108130194 0.025326312 0.057819784
000150 a4 30 16 bd b3 1f e1 bd 28 73 a1 3c 2b 74 49 3d
       -0.03666748 -0.10992374 0.019708231 0.049183052
000160 2e 21 df 3d 94 39 8d bd ed 20 f7 3d 86 92 fa 3d
       0.108950004 -0.06895748 0.12066827 0.122349784
000170 f9 ad 98 bd 35 b2 2b bd 96 8c e2 3d e6 96 44 3d
       -0.07455058 -0.041918 0.11061971 0.04799547
000180 de d1 d8 bd f8 73 e4 bd e2 61 f6 bd 63 fd 89 bd
       -0.10586904 -0.11154932 -0.120303884 -0.06737783
000190 16 4f 52 3d 2a 47 7c bd 07 e1 f7 3d dd e6 8a bc
       0.051344953 -0.061591305 0.121034674 -0.016955787
0001a0 b0 bd 9b 3d cf eb 98 bd 97 c8 e4 3d ad 78 0c 3d
       0.076045394 -0.07466852 0.11171072 0.034294773
0001b0 5e 98 bc 3d af b6 6d 3d 23 3c d2 bd 8c bd a8 3d
       0.09208749 0.05803555 -0.102653764 0.08239278
0001c0 a4 0c 11 bd af 48 9f bd 76 f1 a6 3d 70 8d d0 bd
       -0.035412446 -0.07777535 0.08151524 -0.10183227
0001d0 90 6d 1f 3d 0c 27 dd bd b9 4e cc bd eb 26 69 3d
       0.038922846 -0.10798463 -0.09975953 0.05692188
0001e0 7b 84 00 3d d2 bc e7 3d a2 69 c1 3d 00 3c d0 bd
       0.031376343 0.113153115 0.09443976 -0.10167694
0001f0 99 33 d3 3d 3a e1 ed 3d 80 ee 4c 3b f8 38 8d 3d
       0.10312576 0.11615224 0.0031270087 0.068956316
000200 7d dc b8 3d fc d5 ca bd de c0 95 3d 0f 92 a1 3d
       0.0902643 -0.099040955 0.07312177 0.078891866
000210 7d e3 f3 bd 87 12 0f 3d 5e 65 76 3d 3b 7f 20 3d
       -0.11908624 0.03492978 0.060155265 0.039183836
000220 65 a7 0f bd 7f d7 b4 3c 3d b8 aa 3d b8 d4 51 3d
       -0.03507175 0.022075413 0.08335922 0.051228255
000230 b8 a8 b6 bd a2 cb 17 bd 18 de fa 3d 88 c6 9e 3d
       -0.08918899 -0.037059434 0.12249392 0.077527106
000240 4a 21 7d bd 7c 6f cd bd 68 aa b1 3d 9e 1e ef 3d
       -0.061799325 -0.100310296 0.086750805 0.11675762
000250 79 1b 9f bd 2d 2c c4 bd d4 58 c3 bc e6 50 69 bc
       -0.07768912 -0.09578738 -0.023846067 -0.014240479
000260 08 88 f7 3c d0 e2 8a 3d 31 24 2d bd ef 44 a6 3d
       0.030216232 0.06781542 -0.042270843 0.08118617
000270 03 5c b7 bd 23 29 8d 3d 18 59 96 3c d8 96 62 bd
       -0.08953097 0.06892612 0.01835303 -0.055319637
000280 7c db 87 3c 66 1c e9 3c 6f a8 6f 3d d1 fc 34 bd
       0.01658415 0.028455924 0.05851024 -0.044186417
000290 37 42 5c 3c eb 24 91 bd 57 d7 96 bd e9 5b bb bd
       0.013443521 -0.0708712 -0.073652916 -0.0914839
0002a0 14 57 31 3d ab b9 6b bc 56 ad bd 3c 8b a5 70 bd
       0.043295935 -0.014387528 0.023153942 -0.058751624
0002b0 5e 3c 47 3d 77 08 d8 bd c3 f0 d0 3c 00 33 c2 bd
       0.048641555 -0.105484895 0.02550543 -0.09482384
0002c0 ef 30 fd bd b0 34 cc bd 5b 76 ea 3d 24 6a e6 3d
       -0.12362849 -0.09970987 0.11448356 0.112507135
0002d0 47 ec 71 3d 7a df 02 3d b4 35 e9 3d 58 c3 86 bd
       0.059063222 0.031951405 0.11387196 -0.065802276
0002e0 14 1c b1 3d dd 2c 60 3d 48 3f b7 3d b8 7a 6a 3d
       0.086479336 0.054730285 0.08947617 0.05724594
0002f0 57 79 50 bc 5d 16 d2 bd ab 4a 5c bd 16 9e b8 39
       -0.012724242 -0.10258172 -0.053782146 0.00035212998
000300 88 7d 8f 3d 0b 38 1e bd de e8 cd 3d c4 14 ce bb
       0.07006365 -0.038627665 0.100541815 -0.0062890965
000310 e6 2c d8 bd 51 e1 c7 bd 19 4c 0b bc 4d ef a0 3d
       -0.10555439 -0.097597726 -0.00850203 0.07858143
000320 0a 8f d2 bc da 58 d5 3d b5 2a b2 3d d5 99 e6 3d
       -0.025702972 0.10417338 0.08699552 0.1125981
000330 9f f1 52 3d 99 ed 12 3c e9 6f 76 bd eb 79 90 bd
       0.05149996 0.0089677805 -0.06016532 -0.07054504
000340 87 61 cb bd 66 51 ac bd cf 50 79 3d 77 ea f0 3c
       -0.09930711 -0.08413963 0.06086808 0.029408677
000350 8a 3b cf bd c7 4b 02 3d a6 39 ce 3d ea b4 a7 bd
       -0.10118778 0.03181055 0.10069589 -0.081888035
000360 7a bb 9d 3d a6 4f bd bc 26 d7 dd bd b1 9b 0c 3d
       0.07701774 -0.023109268 -0.10832052 0.034328166
000370 84 db 97 3c 8f c0 c4 bd 72 a2 b8 3d c0 e7 b4 bd
       0.01853729 -0.0960704 0.09015359 -0.08833265
000380 3d 66 d3 bc 6d fb f4 bc ce a1 a2 bd 80 fa 07 3d
       -0.025805587 -0.029905045 -0.07941018 0.03319788
000390 74 a0 50 3d 84 f2 9a bd 4c f9 0b bd 7c f8 a8 3d
       0.05093427 -0.075657874 -0.034173295 0.0825052
0003a0 99 3e c4 bd d7 dc 4e 3d 72 ce 8c 3d b4 3d b8 bd
       -0.09582252 0.050503578 0.06875314 -0.08996144
0003b0 fc 80 a6 bd 6a 9b b1 3d dc 0e 36 bc c0 97 a9 3d
       -0.081300706 0.08672221 -0.011111941 0.08280897
0003c0 31 db 53 3d 62 30 60 bc 7c 55 8c bc cb a2 a4 bd
       0.05172271 -0.01368341 -0.017130606 -0.08038863
0003d0 a0 40 45 bc f4 80 91 bd d7 dc d3 bd 35 55 bd bd
       -0.012039334 -0.07104674 -0.10344856 -0.092447676
0003e0 14 91 0f bc 33 db 35 bd a1 3a 88 bd ff 2c 32 bd
       -0.008762617 -0.044398498 -0.066518076 -0.043499943
0003f0 8a 9d 11 bd 32 6e 92 bd 3a e4 28 bd f4 7d e4 3b
       -0.03555063 -0.07149924 -0.04123328 0.0069730226

transformer.layers.0.0.fn.fn.to_out.weight f4 [64, 64]
000000 6a b1 6b bd 7c 30 d8 bd 7e a5 82 3d 2e 8b 9b bd
       -0.057542242 -0.10556123 0.063792214 -0.07594906
000010 b7 5a d3 3c 07 b7 c2 3d 35 a5 9f 3c 9b 06 29 3d
       0.025800092 0.09507566 0.019487957 0.041266065
000020 07 97 3e bc 7a 80 db bc ea c5 19 bb ec 9c db bd
       -0.011632687 -0.02679466 -0.0023463913 -0.1072329
000030 10 4f 00 bd b2 97 b6 3d 15 bd 1d 3d 57 9c b6 3d
       -0.0313254 0.08915652 0.0385104 0.08916538
000040 8c ce 3d bd 68 7f b4 bc 97 4b 04 3a a6 72 22 bd
       -0.046339557 -0.022033408 0.0005046664 -0.03966012
000050 51 de 44 bd 82 e3 5b bd a9 31 48 bd 3b 4b da bd
       -0.04806358 -0.053683765 -0.048875485 -0.1065888
000060 44 9c 35 3d 90 67 19 bd 69 6c c8 3d 3f 83 07 bd
       0.04433848 -0.03745228 0.097863026 -0.03308415
000070 06 6c 6d 3d 46 d1 82 3c 94 6a cb bd fa a8 49 3b
       0.057964347 0.01596893 -0.099324375 0.0030770884
000080 79 10 7f bd 9d 9f e7 3c 4e 43 8f 3d 8c 0f fc bd
       -0.06227157 0.028274352 0.06995259 -0.12307653
000090 c4 f7 31 bd e2 57 0c bd cd ed 95 3d 26 66 8f ba
       -0.04344918 -0.0342635 0.073207475 -0.0010940477
0000a0 d8 29 6a bb 43 c6 d0 bd 7a 54 ee 3d 86 74 c7 bd
       -0.0035730507 -0.101940654 0.116372064 -0.09739022
0000b0 16 22 89 bd a1 47 ca 3a b3 54 6e 3d d0 a6 d5 bd
       -0.066959545 0.0015432724 0.058186244 -0.104322076
0000c0 cc fd 8c 3d b8 e9 bf bc 68 c4 34 3d 06 bd 92 3d
       0.068843454 -0.023426875 0.04413262 0.071649596
0000d0 60 56 02 3d f2 b7 f5 bd a2 17 62 bd 02 00 8d 3c
       0.031820655 -0.119979754 -0.05519832 0.017211918
0000e0 67 bb d6 3d 2c 06 de 3d b3 14 c8 bd 6b 3a fd bd
       0.10484963 0.10841021 -0.09769573 -0.12364658
0000f0 91 19 cb bc 06 9b 6a 3d 66 90 df 3c 17 6f a2 3d
       -0.024792464 0.057276748 0.027290534 0.07931345
000100 17 04 c4 3d 58 2e 1c bb 32 fc 70 3c ba f8 77 3d
       0.095710926 -0.0023831334 0.014708566 0.06053994
000110 b0 76 e1 3d 1d f2 95 bd f2 ac d1 3d 23 d2 9a 3d
       0.11008966 -0.0732157 0.10238065 0.07559612
000120 4b 16 a4 bc 33 a6 56 3d 2c 66 a1 3d 87 89 98 3d
       -0.020030161 0.052404594 0.07880816 0.07448106
000130 15 c1 cf 3d 14 60 84 3d 94 e8 9c bd f0 15 d9 3d
       0.10144249 0.06463638 -0.07661548 0.10599887
000140 19 ce 95 bd 7f 04 f8 bc d2 8b 8a bd 32 b1 a6 bc
       -0.07314701 -0.030275581 -0.0676495 -0.020348165
000150 07 4b 37 bd 90 9f a1 3d b0 17 53 bc 22 f1 48 bc
       -0.044749286 0.07891762 -0.0128840655 -0.012264522
000160 fe f5 c7 bc db d5 00 bd 3c 5d e5 bd 6a b6 03 bd
       -0.02440929 -0.03145395 -0.11199424 -0.032156385
000170 7f 11 97 3d d2 f6 e7 3d 14 47 3c 3d d8 73 b6 3d
       0.07376384 0.11326374 0.045966223 0.08908814
000180 9e 24 f9 bd e6 f6 f6 3d d7 9d b6 3d c2 08 cf bd
       -0.12165187 0.12058811 0.08916824 -0.10109092
000190 91 75 d0 bc 0d 67 08 3e 7e fa de bd ba 1b 7b bc
       -0.025446685 0.13320561 -0.10887621 -0.015326435
0001a0 7c ca 10 bd 6a 09 2f 3d 78 19 7a bd 9d 1a d9 bd
       -0.035349354 0.042733587 -0.061059445 -0.10600779
0001b0 69 2a ac bd 68 a6 d9 bd 9f 5a 05 3d 34 7c e8 bd
       -0.084065266 -0.106274426 0.032557126 -0.11351815
0001c0 25 5b b7 bc 92 a2 3c bd 62 c7 ed bc 72 f5 3d bc
       -0.022382328 -0.046053477 -0.029025737 -0.011594163
0001d0 26 7c c9 3d a1 0c 2a 3d 63 e6 eb bd 83 8c 23 bb
       0.098381326 0.04151595 -0.11518552 -0.0024955578
0001e0 00 42 b7 3d e6 7a b6 bd 57 1c 08 be 70 1e c9 bb
       0.089481354 -0.0891016 -0.13292061 -0.0061376616
0001f0 42 1b ae bc 73 c6 a6 3b 70 18 fa bc 3d 05 ee bd
       -0.021253232 0.005089575 -0.03052923 -0.11622093
000200 b7 f2 93 bc 98 77 bd 3d 01 30 ec 3c e5 5b c0 bd
       -0.018060071 0.09251326 0.028831484 -0.093925275
000210 79 94 b6 3c 22 be c1 3d 4c a2 23 3c 96 26 b9 3d
       0.022287594 0.09460093 0.009987425 0.09040563
000220 03 a8 b3 bd 88 2c ff 3d 0b 6c 3e bd 67 e9 75 bd
       -0.0877228 0.124596655 -0.046489757 -0.060037043
000230 62 84 f5 3d b1 02 c3 bd 0a c2 57 bd d6 84 20 bd
       0.11988141 -0.09521998 -0.052675284 -0.039189182
000240 aa f1 e7 3d 2c 3b ca bc f7 80 02 bd dc 85 b5 bd
       0.11325391 -0.024686418 -0.03186127 -0.08863422
000250 ff 8f f2 3d 28 a7 da bd 17 8e 28 3d 8a bb ac 3d
       0.11843871 -0.10676414 0.041151132 0.08434208
000260 f6 0f a5 bc 1e 63 e6 3d 31 dd 1e bd 1f ca 44 3d
       -0.020149212 0.11249374 -0.038785163 0.04804432
000270 3e 92 dd 3d 15 d8 c5 bd e5 6e 1c 3c 21 ef 97 bd
       0.10818909 -0.09660355 0.009547924 -0.07418657
000280 ba e3 5e bd e6 09 3e bd 38 b4 f7 bd 04 cb ca bd
       -0.054416396 -0.04639616 -0.12094921 -0.099020034
000290 9e 13 c7 3d 25 28 f9 3d 7f 26 b7 bd 0f f4 8e bc
       0.097205386 0.1216586 -0.089428894 -0.01745036
0002a0 96 dc 1d bd 9b c7 84 3d 68 0c d5 3d d2 03 cc 3d
       -0.038540445 0.06483384 0.10402757 0.09961666
0002b0 a9 7a dd 3d a7 cb 7c 3d 9a a3 21 bd dd 41 ed 3b
       0.10814411 0.061717656 -0.039462663 0.0072405175
0002c0 39 90 4c 3c 7a 1b fa bd 4c f1 d5 3d 42 bb ca bd
       0.012485557 -0.12212272 0.10446414 -0.09898998
0002d0 f0 46 d1 bb de 6d 53 bb ac d0 b4 3d 0f c5 29 bc
       -0.0063866302 -0.003226153 0.088288635 -0.010361924
0002e0 c3 35 94 bd 67 b8 ec ba e0 0b bb 3d ca 38 cf 3d
       -0.07236817 -0.0018060327 0.09133124 0.101182535
0002f0 f1 64 8f 3d 30 d7 12 bd d2 b9 d0 3c 9b 96 1f 3d
       0.07001675 -0.03584975 0.025479231 0.038961988
000300 dd 35 49 3d bb 5a b5 3d 50 d7 e5 bd 7b 69 2c bd
       0.049123634 0.08855196 -0.11222708 -0.04209278
000310 19 6e e0 ba 72 85 f5 3d 49 8e 77 bd 7f c4 5e 3d
       -0.0017122655 0.11988343 -0.060438428 0.054386612
000320 b1 20 d6 bc cd bc de bd 8c 43 e6 3d 07 55 54 3d
       -0.026138635 -0.10875855 0.11243352 0.0518389
000330 c8 c4 9e bd b3 af 9d 3d a5 7c cf 3d 5f 2e ad bc
       -0.07752377 0.076995276 0.10131196 -0.021140276
000340 20 86 b7 3d 9e a4 e6 bd d9 ea e8 bd 99 87 bd 3d
       0.08961129 -0.11261867 -0.11372919 0.09254379
000350 f6 99 04 3d c1 92 83 3d 36 3c b8 39 06 39 06 3d
       0.03237339 0.064244755 0.00035140075 0.032769226
000360 0d 99 f9 bd f4 72 ea bd 79 ce b6 3d 36 38 f6 bd
       -0.12187395 -0.11447707 0.089261 -0.1202244
000370 f9 e5 56 3d d5 76 87 3c e6 c5 89 3c d6 ed 72 bc
       0.052465413 0.016536156 0.016817998 -0.014827212
000380 73 59 09 bb 65 e5 91 3d 45 86 74 3c 8d ee b2 3d
       -0.0020957857 0.07123832 0.0149245905 0.08736906
000390 43 01 e5 3d 78 de a4 bd 5a 96 09 3d a7 8c bd bd
       0.11181881 -0.08050245 0.033590652 -0.09255343
0003a0 8a b1 d8 bd 1e 1e 05 bd 0a 60 d5 3d 0e 56 20 bd
       -0.10580738 -0.032499425 0.104187086 -0.03914457
0003b0 d2 9b 86 3c 8e 80 d7 bd db ae 43 bd 09 0b fa 3d
       0.016431723 -0.10522567 -0.047774177 0.12209136
0003c0 33 cc de 3d 10 94 2a bb f6 c2 ac bd 08 56 95 bc
       0.10878792 -0.0026028194 -0.08435623 -0.0182295
0003d0 e1 c1 bc 3c 3a 16 cf bd b1 22 15 3d 68 63 80 bc
       0.023041667 -0.10111661 0.036410037 -0.0156724
0003e0 67 01 f8 bd d7 55 fd 3d f1 6c 22 bd de fd e8 3c
       -0.121096425 0.12369888 -0.039654676 0.028441366
0003f0 bb 1c 34 3d d7 47 dd 3d 63 84 87 3c a1 95 5d 3d
       0.043972712 0.10804718 0.01654262 0.054097775

transformer.layers.0.0.fn.fn.to_out.bias f4 [64]
000000 0f ed d6 3d 33 a8 6b bc 65 38 16 be 34 1f b4 bc
       0.10494434 -0.014383364 -0.1466995 -0.021987535
000010 e4 30 b7 3d 5a 6e ae bd ef fa 1e bd f7 6b e5 bd
       0.08944872 -0.08517142 -0.038813528 -0.11202233
000020 55 9d 91 bd 46 d9 cf bd a9 b1 18 3d 3f 7d 2b 3d
       -0.07110087 -0.101488635 0.037278805 0.04186749
000030 ee e5 aa 3c 25 86 90 bd 15 9e a4 3d e7 12 a6 3c
       0.020861592 -0.07056836 0.08037964 0.020272685
000040 a7 6c bd 3d 39 50 b4 3d b5 db 20 3e e5 5d f6 3c
       0.092492394 0.08804364 0.15708812 0.03007407
000050 19 09 09 3e f4 c7 99 bd cb a9 dd bd 23 bf ab 3d
       0.13382377 -0.07508841 -0.10823401 0.08386066
000060 04 99 41 bd d4 64 8f bd 56 03 07 3e 1b b3 1c 3d
       -0.047265068 -0.07001653 0.13184866 0.038256746
000070 bc 4d 14 3d a1 4a b5 bc 47 b5 89 3d 9b 82 d9 bd
       0.036206946 -0.022130312 0.06724029 -0.10620614
000080 40 7e fe 3d cf db d7 bd 7a c1 de bb 43 29 0d 3d
       0.12426424 -0.10539972 -0.0067979665 0.03446318
000090 44 ed 8b bc 30 29 27 3c d2 3b 25 3d 53 4c b8 3d
       -0.01708091 0.010202691 0.040340252 0.08998933
0000a0 10 48 b4 3c 26 24 ba 3d 85 d1 a4 3c 81 91 9c 3d
       0.022007018 0.09088926 0.020119438 0.0764494
0000b0 ff 5a cd 3d aa 63 f4 bd 3b 0b 9a bc 88 79 9d bd
       0.10027122 -0.11933072 -0.018804183 -0.07689196
0000c0 95 d0 a9 3d 82 b4 c8 bd 16 b2 88 3d 33 86 d3 3c
       0.08291737 -0.09800054 0.06674592 0.025820827
0000d0 d9 81 02 3e f1 bc 01 be 62 b6 ce 3d eb 01 5a bd
       0.12744845 -0.12669732 0.100933805 -0.053224485
0000e0 4c a2 13 bc 61 c7 b9 bd 91 a7 e0 3b 17 f8 ca 3b
       -0.009010863 -0.09071232 0.006855913 0.0061941254
0000f0 f2 fd 12 3e ea 0d 4b bd 5f 2f 71 3c ae 85 8f bc
       0.14354685 -0.049573816 0.014720767 -0.017519798

transformer.layers.0.1.fn.norm.weight f4 [64]
000000 2a ef 80 3f cf 56 7c 3f b8 69 7f 3f 67 87 7e 3f
       1.0072987 0.9856996 0.9977069 0.9942536
000010 9c 13 80 3f 51 64 7e 3f 5e 1d 80 3f 4f 10 80 3f
       1.0005984 0.9937182 1.0008962 1.0004977
000020 d1 e5 7c 3f 08 0c 80 3f da d4 7f 3f 8d 34 80 3f
       0.9878817 1.0003672 0.9993416 1.0016037
000030 9f 99 7e 3f 79 49 80 3f 86 38 80 3f 11 21 7e 3f
       0.9945316 1.0022422 1.001725 0.99269205
000040 e1 25 80 3f 82 cc 7f 3f 1d 05 7d 3f c3 5b 7f 3f
       1.001156 0.9992143 0.9883593 0.9974939
000050 1f 2d 80 3f 38 0c 7f 3f 56 eb 7f 3f 50 81 7f 3f
       1.001377 0.9962802 0.9996847 0.9980669
000060 30 f5 7d 3f 56 18 80 3f 15 a3 7f 3f 54 74 7a 3f
       0.9920225 1.0007427 0.9985822 0.9783375
000070 37 73 80 3f 39 9a 7f 3f 2b 1b 80 3f f8 6d 7d 3f
       1.0035161 0.998447 1.0008291 0.98995924
000080 3f e5 7f 3f eb 8e 7f 3f 5b c6 7f 3f 2b 9d 7e 3f
       0.99959177 0.9982745 0.9991204 0.9945857
000090 a9 72 7c 3f 1c b5 80 3f 7f 09 80 3f 7f d7 7f 3f
       0.9861246 1.005527 1.0002898 0.99938196
0000a0 c6 48 7c 3f 7c 06 7e 3f a7 c7 7d 3f 2e a4 80 3f
       0.98548543 0.99228644 0.9913277 1.0050104
0000b0 2e 3f 7b 3f 9f 05 7f 3f 84 3b 80 3f 42 42 7d 3f
       0.9814328 0.9961795 1.0018163 0.98929226
0000c0 7d 50 7f 3f 04 ed 7f 3f ee 20 80 3f b6 c1 7f 3f
       0.9973219 0.9997103 1.0010049 0.99904954
0000d0 02 a8 7d 3f e8 d2 7f 3f 5a 23 80 3f 00 82 80 3f
       0.99084485 0.9993119 1.0010788 1.0039673
0000e0 09 b2 80 3f f7 6e 7e 3f e3 6d 7d 3f f6 f8 7e 3f
       1.0054332 0.9938807 0.989958 0.99598634
0000f0 e9 e1 7f 3f b2 b0 7b 3f 02 16 7e 3f ce 75 81 3f
       0.99954087 0.9831649 0.9925233 1.0114076

transformer.layers.0.1.fn.norm.bias f4 [64]
000000 52 1d 0b 3c 9b 35 fd bb 4c 1a 10 bb 0d aa 92 3b
       0.008490877 -0.0077273375 -0.002198833 0.004475838
000010 cf 07 88 3b 39 a0 ab 3b 66 c6 8d 3a e6 33 14 bb
       0.0041513215 0.005237606 0.0010816574 -0.0022613942
000020 c8 ab ee 3b a7 19 11 39 56 db ac bb 8d 7b 5c bb
       0.0072836615 0.00013837834 -0.0052751703 -0.0033642978
000030 d5 92 36 3c ed 1e cf ba e0 27 e2 ba 98 04 87 bc
       0.011143406 -0.0015802063 -0.0017254315 -0.016481683
000040 78 ee 95 3a 60 3f 56 3a 5a 8d f1 3b b4 87 65 3b
       0.0011438867 0.0008172896 0.0073715867 0.0035023512
000050 26 27 88 bb 72 2a 80 bb 71 02 9d 3a 3d 35 59 ba
       -0.0041550575 -0.00391131 0.0011978877 -0.0008285826
000060 06 09 1c bc 58 71 43 3b 69 10 29 3b 15 c9 6f bc
       -0.009523636 0.0029822197 0.0025797135 -0.014635344
000070 57 4e 02 3c ec 72 a1 bb 2c 9f a6 bb c3 26 aa bb
       0.007953248 -0.00492703 -0.0050848927 -0.005192609
000080 1d 2d bf bb 40 0c e4 3a a0 8b 96 3a 14 1d 01 bc
       -0.0058342353 0.001739867 0.0011485703 -0.007880468
000090 6f 84 4e bc fc 53 a9 3b ea 43 87 b9 db f8 30 3b
       -0.012604817 0.0051674824 -0.00025799806 0.0027003798
0000a0 a9 da 5a 3c fa a8 1d bc 8f 60 1b 3c db ec 8a bb
       0.013357797 -0.009622807 0.009483471 -0.004239661
0000b0 ae 44 77 3c a8 90 34 bb 79 86 89 3b ab 50 18 3c
       0.015092058 -0.0027552042 0.0041969386 0.0092965765
0000c0 91 e5 9d bb 60 71 b9 39 78 1e ee ba 45 35 39 ba
       -0.004818626 0.0003537042 -0.0018167039 -0.0007065128
0000d0 7b ff 1f 3c c0 ec 72 bb c3 d4 b3 3b 24 f4 dc bb
       0.009765501 -0.0037067384 0.0054880097 -0.006742971
0000e0 c1 1e a8 bb ef 5a 11 3c 01 4e 38 3c 18 6b 4a bb
       -0.0051306193 0.008871778 0.011249066 -0.0030886587
0000f0 ff fe b2 3a 26 55 24 bc 37 de d1 3b e4 bf 0d 3c
       0.0013656317 -0.010030067 0.006404664 0.008651707

transformer.layers.0.1.fn.fn.net.0.weight f4 [128, 64]
000000 21 49 d1 3d 08 d3 cf bd a8 51 d1 bd df a4 94 3c
       0.10219026 -0.10147673 -0.10220653 0.018145023
000010 3b 6b c9 3d 4f b4 1f bd c3 64 31 bd c0 83 d9 3c
       0.09834906 -0.038990315 -0.043308984 0.026552081
000020 b3 47 c6 3d 80 c6 b3 bd 2e e8 e8 3b c2 48 ad 3d
       0.09681644 -0.08778095 0.007107756 0.08461143
000030 d4 32 f2 bb 34 e1 9d bd 02 ca b2 bc 79 f4 ef bd
       -0.007391313 -0.0770897 -0.02182484 -0.11716551
000040 bc 4f f6 bd 3b f7 78 bc 33 8a 0a 3d d5 5f 61 3d
       -0.12026927 -0.015195663 0.033823203 0.055023033
000050 df c2 f4 3d 28 6e bc ba d2 9e 6e bd 48 a7 87 bd
       0.11951231 -0.0014376091 -0.05825693 -0.06623703
000060 7f 29 00 bc f0 c0 83 3d a1 79 50 bd e5 df af bd
       -0.007822393 0.06433284 -0.050897244 -0.08587626
000070 59 c9 c6 bd 22 d1 ee bd e9 5f ac 3d 3c 21 56 3d
       -0.09706373 -0.11660983 0.08416731 0.05227779
000080 68 d5 87 3d ab e8 3e bc ea 1d 10 3c a8 ab e1 bb
       0.06632501 -0.011652152 0.008796195 -0.006886918
000090 75 98 8a 3d 79 f6 33 3b 39 5d d4 bd 8a c6 e7 3d
       0.0676736 0.0027460142 -0.10369343 0.11317165
0000a0 f6 e7 8b 3d fc ac 64 3b ec 89 7a 3c d8 e8 93 bd
       0.068313524 0.0034893146 0.015291672 -0.07222146
0000b0 18 ac f2 bb 14 9f 7a 3c 11 fe 97 3d fc b5 92 3d
       -0.007405769 0.015296716 0.07421506 0.07163617
0000c0 bc a0 d4 bc 19 14 95 b9 8f 7d 12 bc 3b e6 09 3d
       -0.02595555 -0.0002843447 -0.008941068 0.03366683
0000d0 75 46 f7 bc cc 11 a8 bd cb 81 51 3b 29 28 cc bd
       -0.030184964 -0.082065195 0.0031968232 -0.099685974
0000e0 8b 57 07 3d 7e 56 d1 3d 22 d2 79 bd 54 1e b9 bc
       0.03304247 0.10221575 -0.060991414 -0.02259747
0000f0 9a 1d c2 3d 79 d2 89 bd 01 6c 0a bd b2 8a 64 bd
       0.09478302 -0.067295976 -0.033794407 -0.055796333
000100 b0 a9 ee bd a3 b1 12 be 1e b1 a9 3d b2 25 9d 3b
       -0.11653459 -0.14325576 0.082857355 0.0047957534
000110 80 18 dd bd ea b2 89 bd 18 57 79 3d 70 9b 8b bc
       -0.10795689 -0.06723578 0.060874075 -0.017041892
000120 ce dc 48 bd 4f 76 04 3c 70 80 3b bd be 90 19 3d
       -0.0490387 0.008084848 -0.045776784 0.037491553
000130 b9 a0 3e 3d 0e de 3b bd 53 43 84 bd eb a1 b0 3d
       0.046539996 -0.045866065 -0.064581536 0.086246334
000140 f5 5c e1 bd 0a 31 98 3b cb 46 c5 3d 68 58 45 bd
       -0.11004058 0.004644518 0.09632643 -0.048180014
000150 20 77 23 bd 50 e2 56 bb 5f eb 8a 3d 5b 96 dd 3b
       -0.03990853 -0.0032788701 0.06783175 0.0067623085
000160 af d6 a5 3d 70 60 a6 3d 77 a0 9d bc 5d 30 67 bd
       0.08097588 0.08123863 -0.019241555 -0.056442607
000170 7a 40 1a 3d 33 27 80 bd 87 e8 75 3d d8 03 bd 3d
       0.037659146 -0.06257477 0.06003621 0.09229249
000180 35 8e 61 3c 8f b7 c0 3d b0 4b d8 bd 79 71 f2 bd
       0.013766815 0.09410011 -0.10561311 -0.118380494
000190 13 bc bc 3d 33 28 c6 bc 48 6c 09 3d 5f fe 9a bc
       0.0921556 -0.02418909 0.03355053 -0.018920122
0001a0 26 9d 8f 3d 37 19 ac bd 66 3d 60 bd c5 ae 9d 3d
       0.070123956 -0.08403247 -0.054746054 0.0769935
0001b0 42 c7 aa 3b 63 1e aa bd bb ec ca 3d 41 79 ca 3d
       0.0052117417 -0.08306577 0.09908434 0.098864086
0001c0 d3 b2 c5 3c 87 9a f7 3b c3 ae 05 3e 97 72 44 bd
       0.024133122 0.007556263 0.13054948 -0.047960844
0001d0 70 89 48 3d d9 b8 25 3d 93 d9 84 3c 71 41 c2 3d
       0.048959196 0.040459488 0.016217029 0.09485138
0001e0 f7 05 e6 3d fb 46 2b bd 39 52 91 3d a6 37 45 3d
       0.112316065 -0.04181574 0.07095761 0.048148774
0001f0 82 71 01 3e ff 31 05 be 7c b7 d8 3c d4 e4 6e bd
       0.12640956 -0.13007353 0.02645468 -0.058323696
000200 02 fe 64 bc 9a 11 16 3c 78 c6 ca bd 66 d8 6c bc
       -0.013976576 0.00915947 -0.09901136 -0.01445589
000210 4f 2c e4 bc 1f 8d ac ba 5a 9b 31 bc 1e 1f 9d bd
       -0.02785316 -0.0013164616 -0.010840261 -0.07671951
000220 d0 be 9d bd 40 61 51 3d 55 e0 fa 3d 3f 45 7e bd
       -0.0770241 0.051118135 0.12249819 -0.062077757
000230 02 7d 73 3d d4 4e f8 bc 40 c4 76 3d f0 15 f3 3c
       0.05944539 -0.030311026 0.060245752 0.029673547
000240 98 d4 d6 bd e7 be d9 bd 4c 34 b2 3c ed ed 84 bb
       -0.10489768 -0.10632115 0.021753453 -0.0040566833
000250 06 dd c8 3d d2 b1 a9 bc 97 a6 f2 3d 5d 62 83 3b
       0.09807782 -0.020714674 0.11848181 0.0040095286
000260 eb 39 f4 3d 08 cf de bc 9e 2a 9e 3d 9d aa 98 3c
       0.119251095 -0.02719833 0.07722972 0.018636042
000270 f7 43 a3 bc 73 ef bb bc cc 90 bf bc 15 ba 6b 3d
       -0.01992987 -0.022941327 -0.023384474 0.05755051
000280 b6 e2 c2 3d 85 07 a1 3d c5 4e 3f bb ac e7 00 3e
       0.09515898 0.07862762 -0.0029191237 0.12588376
000290 1a d1 df bd 96 82 fb 3d 0b 90 96 bd db 36 b8 3d
       -0.10928555 0.12280767 -0.07351693 0.08994838
0002a0 b2 db b8 3c 16 ce 17 3c a9 3b f1 3d 05 a8 22 3c
       0.022565696 0.009265443 0.117789574 0.009927754
0002b0 b0 38 4d bd 79 c4 d3 3d a7 fe cf 3b 5b 09 39 3d
       -0.05010289 0.103402086 0.0063474956 0.045174938
0002c0 5b 31 35 3d 4b cc 3a bc 7c db 84 3d a8 d8 ea bd
       0.044236522 -0.011401246 0.06487176 -0.11467105
0002d0 ef 5f 1a 3d e8 d4 47 bd b0 a2 70 bd 7b fc b0 bc
       0.037689146 -0.048787028 -0.0587489 -0.021604767
0002e0 a0 54 fc bc 09 d7 a5 3d 8c 10 f1 3d 8b b4 ba bd
       -0.030802071 0.08097655 0.11770734 -0.09116467
0002f0 6a 0b 8b 3d d3 ef 96 bd 85 85 99 3d 77 e3 1b bc
       0.067892864 -0.073699616 0.0749617 -0.009514681
000300 d1 20 a5 3d 64 aa db 3d 1d ab ab bd 30 df e7 bd
       0.080629 0.10725859 -0.08382247 -0.113218665
000310 fb 65 83 3d 07 ce ad bd 74 f7 04 3e 57 47 8e 3d
       0.064159356 -0.08486562 0.12985021 0.06947201
000320 69 bf 66 3d 06 98 16 bd ea e9 a7 3c 11 92 84 bd
       0.056334887 -0.036766075 0.020497281 -0.064731725
000330 24 c8 ed 3c 4b 3a 44 bd 0d 34 9c 3d b0 46 4b bd
       0.029026099 -0.047907155 0.076271154 -0.04962796
000340 b2 09 f7 3d f0 bb 07 be a2 2a fd bd 60 c6 5d bd
       0.12062396 -0.13255286 -0.12361647 -0.054144263
000350 4c ad d6 3d d1 c2 a1 bc f2 5f ab bb 42 c5 60 bd
       0.104822725 -0.019746216 -0.0052299434 -0.05487562
000360 b0 29 c5 3d e9 0f fc 3d 59 96 16 3d 9d 61 c0 bd
       0.09627092 0.12307722 0.036764476 -0.09393618
000370 66 b8 fa 3d e2 16 95 bd a0 18 87 3d 11 cc c3 3d
       0.122422025 -0.07279755 0.06596494 0.09560407
000380 ae b4 8b bd 11 29 ba bc d8 db 24 3d cd 5e 3d bd
       -0.06821571 -0.02272466 0.04024872 -0.046232987
000390 01 9b 7b 3d 4a ba 5f b9 ac 6a d0 bd 25 68 f2 3d
       0.06142712 -0.00021336335 -0.10176596 0.1183627
0003a0 33 f1 a2 3d 90 bb f4 3d 53 13 28 3d ac f2 9e bd
       0.07956161 0.11949837 0.041034054 -0.0776113
0003b0 31 6a 56 3d 2b 63 82 bd 1b f7 88 3d 9a 38 68 3d
       0.052347366 -0.06366571 0.06687757 0.056694604
0003c0 73 67 51 bd e9 2d 5a bc 7a 47 6a 3c e4 d5 cf 3d
       -0.051124047 -0.01331661 0.014299268 0.10148218
0003d0 31 a3 49 3b 75 e6 c3 3d 7c 89 c5 bd e0 7e 35 3d
       0.0030767436 0.095654406 -0.09645364 0.04431045
0003e0 c2 8c 77 bd 68 e1 54 3d fc 01 95 3d a6 0f aa 3d
       -0.06043697 0.051972777 0.07275769 0.08303766
0003f0 6e 50 c6 3d 30 06 2f bd 7f ce 77 3d 8a 7b c0 bd
       0.096833095 -0.04273051 0.060499664 -0.09398563
