model_training/trained_models/model_100_ViT_horiz_flip_dataset_3.pth (torch, 173192 bytes, 16 tensors)

patch_to_embedding.weight f4 [64, 192]
00000000: dd40 f226 644e 2ca5 dcea 00a6 1a91 57a5
00000010: b4be 3e26 dfd5 1c26 0cc1 53a6 8793 d424
00000020: 3da4 f1a6 fce2 bd26 7a7c b0a6 458d 8026
00000030: 4669 1ea6 ef40 6ea5 5a13 85a6 df46 3226
00000040: c9a8 3ca6 bbc0 6ba5 be9f bd26 15ed e6a5
00000050: 8bce ff25 98f3 a625 094b f326 91aa 8126
00000060: f357 32a6 25c4 fd25 9450 5926 34c7 9626
00000070: 6cf8 8b26 cefd dc26 dffe 92a6 6ca1 01a6
00000080: 837d 33a6 487f 82a6 f3a6 a926 d6c3 0025
00000090: 6589 24a6 2a21 d7a6 7469 39a5 8a0d b426
000000a0: 1a92 a4a6 60ae 8e26 3567 9626 9989 0aa4
000000b0: fbf9 1ba6 dead a325 dcfc c525 8108 8e26
000000c0: c550 c926 7432 6a26 b26e b8a6 6dc4 c826
000000d0: a35a 69a6 4027 80a5 ee5f 9526 cd48 7ea6
000000e0: c949 7ea6 448b e925 8c3b cd26 699f cf26
000000f0: 86b3 ce26 6de1 7526 fd14 06a6 3d1a 2ca6
00000100: 1b2f 9d25 3e4e ca26 9462 cb26 3fcc aea5
00000110: dce5 0ba6 b86c ce24 4417 b1a6 126d 6e26
00000120: 71c2 0923 ac11 d925 cefe cc26 0a14 b226
00000130: dc12 c9a6 3fc1 4926 f9c4 dfa6 6b20 a8a6
00000140: 07cf eba5 bcbe a7a5 a17e 71a6 477f 65a6
00000150: 28c0 b4a6 90c7 eb24 0485 83a6 5503 c326
00000160: 82df 2fa6 4622 45a3 d9b1 fea4 6ecc b5a6
00000170: ea6e eea5 8f5a c8a1 54c7 0da6 f952 3b25
00000180: b0ce ca26 161b caa5 74ce 47a6 c981 b5a6
00000190: acde cd26 9f74 01a6 af3b 8ea6 63b5 cfa6
000001a0: 9ee7 89a6 9972 9926 ccb3 8aa5 4de9 c2a5
000001b0: f7e7 97a6 5a3a 8aa6 be00 99a5 feb3 4026
000001c0: 8a6a 1126 7a00 7326 fd6e 95a6 e6c0 94a6
000001d0: e3d5 4e26 166c 2aa6 e922 20a6 bf57 95a6
000001e0: 5418 8526 385d 3b25 a3f9 c9a5 12be c8a4
000001f0: 4d97 52a6 0229 cda6 923c 22a6 f5c9 7126
00000200: 38cf d925 0edf a726 0835 5126 32c8 b826
00000210: 32d0 29a6 186c b026 fba4 e1a5 b25c d8a6
00000220: 9860 20a6 7d96 8026 dda4 d6a6 3e5a 38a6
00000230: 3edc 6c26 839c 9226 172f 32a6 6d7a e026
00000240: 1f46 dba5 cc02 34a5 23fc 93a6 d6b5 3fa6
00000250: d92a 3226 68ea 2a25 fe3f 8a26 0262 a6a5
00000260: f198 6725 18c4 42a5 2958 c6a6 758e 3525
00000270: 3e3b b2a6 18ca 6326 83b6 d126 d729 4e26
00000280: 4d27 0c26 0ec8 bea6 fca2 ff25 86ce ea26
00000290: 194a 9e26 6486 dfa5 822e bd26 3c24 8aa5
000002a0: cd7f 3da5 b1a3 7fa6 e8b0 d6a6 3099 8b26
000002b0: a582 e0a6 6f77 65a5 8dcc b626 b3fb 65a6
000002c0: 6442 a726 7493 a2a6 a243 9da5 3233 c926
000002d0: 6456 d6a6 dfb4 ef26 07f6 1c25 fad1 39a5
000002e0: 2fe8 e2a6 f391 a925 4ae5 85a6 cf1e 9226
000002f0: 7866 ada5 efd5 eca5 0481 1126 79f0 24a6
00000300: 53f7 0f26 4fc4 7726 438f 9024 e44a 17a6
00000310: dfea 7526 d989 d026 4408 94a6 daf2 eea6
00000320: fda0 ac25 0842 9626 3104 0f26 d2fc 78a6
00000330: 28f9 4626 51a5 7ea6 7265 7626 45d9 6426
00000340: a55f dea3 4e3c 6d26 876d b0a6 0003 d4a5
00000350: b18a d225 a6c0 a8a5 cc19 2926 cfb8 98a6
00000360: 106d 63a6 3c2c 9526 1c64 59a4 5507 c826
00000370: 4a9d 95a5 b42e 5ea6 eb9b c4a5 23f1 cca5
00000380: 375e 61a6 bc19 0725 f925 98a6 3ee1 2e26
00000390: 35de 4ba6 7507 68a6 4af2 b426 80e5 6ea6
000003a0: c35b 2c26 795f ada6 61d4 af26 0053 26a6
000003b0: cd07 c7a6 a51e a226 e774 afa6 ee77 82a6
000003c0: 3af1 8e26 96a5 71a6 58d7 3c26 78c9 5a26
000003d0: deb1 9e26 48bc 7526 dabe 3ea6 1429 b5a5
000003e0: e298 0ca6 327c 9d26 e624 07a6 090a 5fa6
000003f0: 7452 e726 4d58 6ea6 c3bf 3326 6a9d fc24
1.6809704e-15 -1.4945182e-16 -4.4727215e-16 -1.869744e-16 6.6177943e-16 5.441322e-16 -7.346696e-16 9.2190265e-17
-1.6767251e-15 1.3176034e-15 -1.2246193e-15 8.920075e-16 -5.4959934e-16 -2.066521e-16 -9.233974e-16 6.1852204e-16
-6.545435e-16 -2.04483e-16 1.3157808e-15 -4.0059293e-16 4.4375408e-16 2.8961475e-16 1.688185e-15 8.997405e-16
-6.187535e-16 4.4021417e-16 7.53962e-16 1.0462335e-15 9.712397e-16 1.533436e-15 -1.0199868e-15 -4.4974633e-16
-6.22732e-16 -9.055062e-16 1.1771982e-15 1.1168582e-16 -5.7085134e-16 -1.4927611e-15 -1.6081921e-16 1.2493679e-15
-1.1419387e-15 9.900494e-16 1.0436315e-15 -3.004053e-17 -5.4115214e-16 2.839381e-16 3.4345397e-16 9.855534e-16
1.3969069e-15 8.1253435e-16 -1.2797569e-15 1.3931029e-15 -8.096095e-16 -2.2231057e-16 1.0364954e-15 -8.8222616e-16
-8.822395e-16 4.0513427e-16 1.4240873e-15 1.4406719e-15 1.4342781e-15 8.530696e-16 -4.6519034e-16 -5.9710047e-16
2.7267078e-16 1.4037773e-15 1.4112674e-15 -3.032259e-16 -4.853683e-16 8.9522436e-17 -1.2288148e-15 8.2720655e-16
7.4679595e-18 3.7655474e-16 1.4224409e-15 1.2356663e-15 -1.3952289e-15 6.999778e-16 -1.5527123e-15 -1.1666129e-15
-4.090629e-16 -2.909913e-16 -8.3785286e-16 -7.962283e-16 -1.2542093e-15 1.02253076e-16 -9.126005e-16 1.3531746e-15
-6.101823e-16 -1.0686649e-17 -1.10456226e-16 -1.2614809e-15 -4.1361577e-16 -1.3576498e-18 -4.918934e-16 1.6247777e-16
1.4072588e-15 -3.5059768e-16 -6.932179e-16 -1.2594576e-15 1.4285088e-15 -4.4913917e-16 -9.869407e-16 -1.4412675e-15
-9.569065e-16 1.0647569e-15 -2.406102e-16 -3.3811726e-16 -1.0540604e-15 -9.59149e-16 -2.6541772e-16 6.6857316e-16
5.045137e-16 8.4308207e-16 -1.0369035e-15 -1.0321848e-15 7.176048e-16 -5.912708e-16 -5.5558463e-16 -1.0362736e-15
9.235323e-16 1.6251248e-16 -3.5037102e-16 -8.7058165e-17 -7.3063437e-16 -1.4235848e-15 -5.628713e-16 8.3887374e-16
3.7783916e-16 1.1648412e-15 7.258331e-16 1.2821828e-15 -5.891581e-16 1.2241752e-15 -3.9143073e-16 -1.5013136e-15
-5.564206e-16 8.922574e-16 -1.4893919e-15 -6.3960125e-16 8.217743e-16 1.0173208e-15 -6.1819974e-16 1.5576306e-15
-3.803796e-16 -1.5613459e-16 -1.0268516e-15 -6.651287e-16 6.1814225e-16 1.482457e-16 9.593019e-16 -2.8862822e-16
2.0087875e-16 -1.6893257e-16 -1.3762906e-15 1.5747514e-16 -1.2367289e-15 7.9030334e-16 1.4551758e-15 7.152731e-16
4.862552e-16 -1.3238123e-15 4.434589e-16 1.629299e-15 1.0983537e-15 -3.87754e-16 1.3127115e-15 -2.3963737e-16
-1.6436437e-16 -8.869274e-16 -1.4897183e-15 9.686584e-16 -1.5578534e-15 -1.990305e-16 1.268423e-15 -7.979145e-16
1.1605948e-15 -1.1280975e-15 -2.7280988e-16 1.3961053e-15 -1.4872649e-15 1.6632982e-15 1.36142e-16 -1.6117335e-16
-1.5744834e-15 2.9415726e-16 -9.290878e-16 1.0139136e-15 -3.0080152e-16 -4.108444e-16 5.048183e-16 -5.722483e-16
4.994828e-16 8.596139e-16 6.269274e-17 -5.2490145e-16 8.531976e-16 1.4470263e-15 -1.0271803e-15 -1.6580393e-15
2.9946334e-16 1.0426239e-15 4.961877e-16 -8.638492e-16 6.903272e-16 -8.8348e-16 8.548588e-16 7.9397846e-16
-2.4109795e-17 8.230762e-16 -1.2242141e-15 -3.677817e-16 3.6523174e-16 -2.9273898e-16 5.8668615e-16 -1.0597211e-15
-7.8904253e-16 1.0350942e-15 -4.713917e-17 1.3879775e-15 -2.5953963e-16 -7.7085017e-16 -3.4106234e-16 -3.555176e-16
-7.819024e-16 1.1718103e-16 -1.0557411e-15 6.0673637e-16 -7.073092e-16 -8.0501275e-16 1.2555682e-15 -8.288387e-16
5.979885e-16 -1.2030164e-15 1.220063e-15 -5.7705305e-16 -1.3810513e-15 1.1249314e-15 -1.2174751e-15 -9.053069e-16
9.918614e-16 -8.383808e-16 6.551745e-16 7.5906985e-16 1.1011663e-15 8.525662e-16 -6.6178144e-16 -3.142633e-16
-4.877945e-16 1.0927727e-15 -4.688754e-16 -7.7382267e-16 1.6051194e-15 -8.2692507e-16 6.2362986e-16 1.0955425e-16

patch_to_embedding.bias f4 [64]
00000000: 704d 1b26 296c fda5 c592 d2a6 2ec4 f0a6
00000010: 0904 a3a6 8775 bb24 ceaa bc26 6f5d 99a5
00000020: 3ffd 7aa6 79a9 e826 cacf 72a6 5353 7024
00000030: 791f 88a6 bc9e eba6 0bea 14a6 4221 f326
00000040: ca6d 5c26 0d8a 14a6 cb4d eaa4 7b85 9aa6
00000050: 5e02 dba6 9ce6 57a6 d4b4 63a6 a4c2 9c25
00000060: 089f cd26 4f84 0da6 012c 85a6 4e74 5ba5
00000070: a39e 9825 df06 9c26 93f9 8326 464a 1a26
00000080: 30f0 8024 ac05 4aa6 e42d 9a26 514d 8226
00000090: 2c6a ac26 6670 a7a6 3864 3d26 c11e b725
000000a0: 9be0 f826 45a3 0fa4 be40 a6a6 4fb7 b4a6
000000b0: 3462 42a6 2c34 14a7 3590 9926 6c0f b725
000000c0: 042b 6723 a2fb a026 423e dea5 f3e8 b123
000000d0: d5dc 3aa6 ecb5 5ea5 3e65 24a6 f2b1 1c26
000000e0: 1ce4 f8a6 81e9 44a6 8c47 a8a6 0da2 24a6
000000f0: ab61 1e27 5fdd 8c26 7f18 1726 8127 af24
5.3881375e-16 -4.3961796e-16 -1.4611459e-15 -1.670652e-15 -1.1311491e-15 8.129742e-17 1.3091417e-15 -2.6604582e-16
-8.7079386e-16 1.614417e-15 -8.4242223e-16 5.2112283e-17 -9.445426e-16 -1.6349426e-15 -5.1665e-16 1.6870527e-15
7.6476625e-16 -5.153491e-16 -1.0161311e-16 -1.0722077e-15 -1.5196819e-15 -7.4905643e-16 -7.9001514e-16 2.719358e-16
1.4267838e-15 -4.9098514e-16 -9.240656e-16 -1.9034628e-16 2.6475293e-16 1.0826537e-15 9.157598e-16 5.353014e-16
5.5918045e-17 -7.0090515e-16 1.0698335e-15 9.041519e-16 1.1963675e-15 -1.1618418e-15 6.570837e-16 3.176628e-16
1.7269336e-15 -3.1146477e-17 -1.1536112e-15 -1.2539695e-15 -6.744036e-16 -2.0567408e-15 1.0655595e-15 3.175589e-16
1.2531644e-17 1.1170435e-15 -3.855305e-16 1.9289036e-17 -6.4830997e-16 -1.9317068e-16 -5.703614e-16 5.4364533e-16
-1.7270286e-15 -6.8317617e-16 -1.1676735e-15 -5.711855e-16 2.197985e-15 9.774454e-16 5.242185e-16 7.5961074e-17

transformer.layers.0.0.fn.norm.weight f4 [64]
00000000: d7c7 91a7 74e4 56a8 5ca1 2925 42b0 e224
00000010: 7e13 5ba7 8446 33a6 f830 c324 c323 79a4
00000020: 937b c126 1ac7 a026 b9ed 80a6 d5ec 3fa6
00000030: ed4e 62a6 8573 a5a7 a4e0 51a5 455e a727
00000040: 24b1 dea4 1fbc 1327 51d2 5b26 e70c 5aa5
00000050: a724 7ca7 c8eb 00a6 8961 84a7 5748 3926
00000060: 91c6 93a6 43c4 fa25 f1d4 1626 84c8 76a5
00000070: 5b66 8fa7 9581 c9a6 a266 9626 9ae2 5a26
00000080: c3f5 2226 eddb 72a7 7aac a524 a1ff fca6
00000090: 855e 6aa7 42be 07a6 462a 4226 dc3e 3b25
000000a0: cf51 0aa7 90bb 0325 2998 3326 d339 44a7
000000b0: c643 f6a6 d720 9f25 3ffb 21a6 9cab aaa7
000000c0: dd2c 55a6 2bd2 b6a5 db05 1b24 994d 0626
000000d0: 8b4b 4626 725e a826 0bad 73a6 44a2 3fa6
000000e0: d008 0826 db6d 1024 7488 eea7 768d ee25
000000f0: aebb 2e27 40e1 1a27 279a 9b26 7491 0026
-4.046225e-15 -1.1928924e-14 1.4713084e-16 9.831047e-17 -3.0402922e-15 -6.2198667e-16 8.4650726e-17 -5.402356e-17
1.342556e-15 1.1156197e-15 -8.946219e-16 -6.6587404e-16 -7.8516465e-16 -4.5921946e-15 -1.8203972e-16 4.645402e-15
-9.657724e-17 2.0502329e-15 7.626592e-16 -1.8912857e-16 -3.4991895e-15 -4.4728464e-16 -3.6743108e-15 6.428281e-16
-1.0253996e-15 4.350108e-16 5.2330294e-16 -2.1405036e-16 -3.9801447e-15 -1.39823e-15 1.043616e-15 7.5941046e-16
5.653811e-16 -3.3703468e-15 7.184953e-17 -1.7555301e-15 -3.2525263e-15 -4.709538e-16 6.736456e-16 1.6240962e-16
-1.9195696e-15 1.1425987e-16 6.2309316e-16 -2.723181e-15 -1.7088049e-15 2.7604356e-16 -5.61986e-16 -4.7370538e-15
-7.396002e-16 -3.1714383e-16 3.3615227e-17 4.6595754e-16 6.879743e-16 1.1682941e-15 -8.454208e-16 -6.648635e-16
4.719642e-16 3.1318074e-17 -6.6206213e-15 4.1382276e-16 2.4249092e-15 2.1493901e-15 1.0797069e-15 4.4606047e-16

transformer.layers.0.0.fn.norm.bias f4 [64]
00000000: 4a99 dfa6 143d f525 b5ba 25a6 1d87 9a26
00000010: 6498 2ba6 7665 3fa6 4362 6326 e524 18a6
00000020: 9fc9 f1a5 4930 1626 c702 4ea6 8019 5ba6
00000030: fde3 d225 69e5 92a6 0c0a be25 65da 9ea5
00000040: dced a526 c2d6 aaa6 2a5c ad26 a8cd 4626
00000050: a720 6ba6 1247 8126 2182 b925 bcf1 7fa4
00000060: 64de 92a6 df48 7824 0a64 8ea6 6987 f726
00000070: 22da dd26 2b27 4626 6137 a1a6 3b7e a826
00000080: 4655 bba6 a6cf 93a6 e730 97a5 318b b2a6
00000090: ff21 ba26 7451 3e26 a866 32a6 be8e 1e26
000000a0: 039b 83a6 d17e 5226 ecf4 cc24 11a2 b1a6
000000b0: 5ed6 9026 55a7 4226 b81d 5325 0eef e525
000000c0: 410e d1a6 4564 8926 c856 81a6 56a5 4a26
000000d0: 75df 09a6 f970 69a2 20c3 d3a3 0dcd 5aa5
000000e0: 0fca 2aa3 65cd 3f23 3d8e 8aa6 2710 63a6
000000f0: d806 2126 d589 6f24 e12c ae26 5f51 8fa6
-1.5515282e-15 4.2542113e-16 -5.749891e-16 1.0722519e-15 -5.953407e-16 -6.640394e-16 7.8889615e-16 -5.2785595e-16
-4.194346e-16 5.2107143e-16 -7.147437e-16 -7.6015447e-16 3.6583684e-16 -1.0192967e-15 3.2966554e-16 -2.755662e-16
1.1513647e-15 -1.185433e-15 1.2029268e-15 6.8973766e-16 -8.1576256e-16 8.970437e-16 3.2180563e-16 -5.5499068e-17
-1.0191064e-15 5.3838152e-17 -9.880345e-16 1.7175771e-15 1.5394081e-15 6.874813e-16 -1.118663e-15 1.1691557e-15
-1.2998845e-15 -1.0256457e-15 -2.6227462e-16 -1.2388959e-15 1.2915557e-15 6.602988e-16 -6.189528e-16 5.5010714e-16
-9.131967e-16 7.3030254e-16 8.888581e-17 -1.232577e-15 1.0050112e-15 6.753405e-16 1.8311402e-16 3.9887157e-16
-1.4506152e-15 9.533463e-16 -8.974695e-16 7.03069e-16 -4.7834264e-16 -3.1637195e-18 -2.2959304e-17 -1.897796e-16
-9.258506e-18 1.0397625e-17 -9.614227e-16 -7.8778336e-16 5.586737e-16 5.1941612e-17 1.208584e-15 -9.944674e-16

transformer.layers.0.0.fn.fn.to_qkv.weight f4 [192, 64]
00000000: 17e7 56a3 f416 e6a5 818e 6326 01de ef26
00000010: 8d17 98a6 b4e6 c4a6 cecc 48a6 43c8 c126
00000020: 2379 92a6 b880 09a7 4b10 a926 2ab0 0ea7
00000030: 4bdd 08a7 e02d 2a27 91bb aa26 b2d5 2527
00000040: 3e3e 49a6 3e06 07a7 6163 0527 c6b1 4926
00000050: 6025 ea26 c864 67a6 380d a826 5f96 49a6
00000060: f0a8 0627 a689 c826 1339 29a6 ef35 e8a4
00000070: 81bf 0024 4cdd 17a7 e517 8da6 042e dda5
00000080: 496a f5a6 053a 9fa6 6f09 8da6 f891 5826
00000090: 9835 2525 a99d 48a6 7c52 3c26 1d87 53a6
000000a0: 2652 9aa6 b35a 17a6 4e6e 3c24 d21f 1826
000000b0: 21ea c025 e22a 7325 e359 2727 bed6 3926
000000c0: e39f b6a6 b722 e526 3023 4425 bb3a 5fa6
000000d0: 5270 81a6 d57f d825 605f 27a7 7f1f 9926
000000e0: a81c 6926 ab09 c9a6 aa92 53a6 4898 a7a6
000000f0: c76a a826 be1f 6ca6 aeea 1c26 73eb 9926
00000100: 6879 5526 0e53 1c27 06b8 4e26 3c58 4926
00000110: 46ca 94a6 4e46 ae26 663a 36a7 ed43 d124
00000120: c356 4fa6 5e52 0527 44d8 4426 17b0 3aa6
00000130: 15e6 4ba6 5bc9 d4a6 0725 82a5 58f4 ada6
00000140: 3467 4b26 631f a226 f064 0927 897a cda6
00000150: 22ac 3726 27ad 86a4 1f9a 28a7 5e55 22a7
00000160: a449 8c26 1cb9 b224 e41c 60a6 5a67 1aa5
00000170: 2388 afa3 c0f1 44a6 7bbf a926 4b54 cd26
00000180: ff50 1da7 c202 7126 4cc8 b925 76e4 19a7
00000190: 0f7d 8ba6 6762 a225 bae2 1aa7 9d37 caa6
000001a0: e5ba 7125 f782 2a25 f7ae 86a5 747d 81a6
000001b0: 2211 3926 4542 1aa5 b102 e526 c253 4ea6
000001c0: 2857 17a4 7d46 e626 b2be bba5 85e0 2726
000001d0: 0a40 57a6 5f4d 9c26 c975 5ca6 1f2c 4aa6
000001e0: f8c2 04a7 6f89 caa6 bad6 e3a6 b861 81a6
000001f0: 133e 4ba6 1d23 a1a6 731d 42a5 1806 81a6
00000200: 7e56 6026 700f 4426 f7e6 16a7 9a2b 80a6
00000210: d9c9 f125 d52e 7626 4807 9126 aa38 f3a6
00000220: 0142 3124 6b82 96a6 27b5 1026 a3d0 aa25
00000230: db9f 1d26 28db ac26 665b bba6 53e3 e1a6
00000240: 8a39 36a3 8d69 a4a5 dac9 26a7 9143 d226
00000250: 126f 5f24 371d baa6 2459 c2a6 6640 8e24
00000260: bd16 d826 cfbc 4b26 c683 0ba7 c21d 4625
00000270: 9471 23a7 b7e6 0d26 99fe 9f25 9963 7c26
00000280: 4aa9 cf26 3232 03a7 0e0e b925 c091 11a7
00000290: 34fa d326 83a0 db26 db09 3926 3381 4926
000002a0: 50fc 8826 189b 8026 d87c 88a6 0c0d 5026
000002b0: 63ff 6fa6 3d5a cba5 f1db 0f27 ff0d 8ea6
000002c0: c117 caa6 a5fe a1a5 c0a5 17a7 86e0 af26
000002d0: c69e 5226 80f9 00a7 9c59 16a7 ea84 8426
000002e0: a562 9226 5f1d 05a3 a7fb 8726 419a 6d23
000002f0: f96e 5e26 bded a0a6 86f4 baa6 797d 0725
00000300: 0064 cba6 9bf3 9126 16c8 eb26 19cf 13a6
00000310: 945f 0525 b5bd 6da6 b80e a926 843d 7ca4
00000320: 10f6 ab26 3ea1 2227 d2f5 80a6 14cd b5a5
00000330: e2e2 52a6 0907 1ea6 29cc 07a7 9978 0925
00000340: 0227 0ca6 d4bc 94a6 d522 7aa5 8667 35a7
00000350: f1c0 c0a6 c7f3 2927 35e3 58a6 b0bb 4a26
00000360: 10b2 6da6 3cdb b5a6 38f4 f9a5 93b4 2027
00000370: 6330 8da6 6bb7 4526 2d5a 8b26 a0c7 1e26
00000380: 5071 24a7 cd9c 7525 6427 2127 a093 a9a6
00000390: 4415 b825 1597 0527 b9bf 6426 8d73 df25
000003a0: 2c36 1a27 8e8d f126 2712 8626 2402 4824
000003b0: 65d9 d0a6 b0aa fa25 b9ee 7826 60ba 1d27
000003c0: 8387 2d27 512e 84a6 415d 1727 ea2a d826
000003d0: aeec c4a6 88f1 3227 80a9 d5a6 7506 4aa6
000003e0: 86d8 8b26 4b3b 93a6 a02d 49a6 242b c1a6
000003f0: a9fd 1a26 abcb 1ea6 47e3 28a6 c6f6 3f26
-1.16498984e-17 -3.9914194e-16 7.8949575e-16 1.6644131e-15 -1.0553502e-15 -1.3662764e-15 -6.96665e-16 1.3446346e-15
-1.0163619e-15 -1.9082348e-15 1.1731147e-15 -1.9801957e-15 -1.8993755e-15 2.3617108e-15 1.184696e-15 2.3014194e-15
-6.982024e-16 -1.8738397e-15 1.8511331e-15 6.997681e-16 1.6247142e-15 -8.028081e-16 1.1660925e-15 -6.9939675e-16
1.8687817e-15 1.3915097e-15 -5.8711003e-16 -1.0070533e-16 2.7917786e-17 -2.1075425e-15 -9.790317e-16 -3.836857e-16
-1.7029099e-15 -1.1048568e-15 -9.786397e-16 7.513788e-16 1.4329627e-16 -6.960261e-16 6.533739e-16 -7.3388443e-16
-1.0708163e-15 -5.251157e-16 4.0859433e-17 5.277872e-16 3.3465343e-16 2.109142e-16 2.3224633e-15 6.44758e-16
-1.2672124e-15 1.5899477e-15 1.7012212e-16 -7.744826e-16 -8.981618e-16 3.755665e-16 -2.3227609e-15 1.0625045e-15
8.087695e-16 -1.3949797e-15 -7.34041e-16 -1.1629229e-15 1.1686284e-15 -8.1921967e-16 5.4441423e-16 1.0680326e-15
7.4063756e-16 2.1694373e-15 7.1720005e-16 6.9855464e-16 -1.0324389e-15 1.2092732e-15 -2.5289232e-15 9.075437e-17
-7.1935136e-16 1.850211e-15 6.8294255e-16 -6.477036e-16 -7.074159e-16 -1.4765033e-15 -2.2576496e-16 -1.2070516e-15
7.056964e-16 1.1249516e-15 1.9067288e-15 -1.4257946e-15 6.3724163e-16 -5.840657e-17 -2.3398233e-15 -2.2528294e-15
9.734412e-16 7.750878e-17 -7.7754766e-16 -1.3392388e-16 -1.9031194e-17 -6.832879e-16 1.1778632e-15 1.424758e-15
-2.1832035e-15 8.361741e-16 3.222811e-16 -2.1356864e-15 -9.67896e-16 2.81692e-16 -2.1494702e-15 -1.403164e-15
2.096674e-16 1.4789522e-16 -2.3363855e-16 -8.985177e-16 6.420799e-16 -1.3379824e-16 1.5890797e-15 -7.158412e-16
-3.281673e-17 1.5978562e-15 -3.256855e-16 5.8244045e-16 -7.46799e-16 1.0845646e-15 -7.648746e-16 -7.0142624e-16
-1.8424373e-15 -1.4053817e-15 -1.5809491e-15 -8.97766e-16 -7.05139e-16 -1.1181137e-15 -1.6836796e-16 -8.952825e-16
7.783283e-16 6.802208e-16 -2.0941888e-15 -8.893602e-16 4.1943613e-16 8.5411864e-16 1.006337e-15 -1.6876871e-15
3.8436664e-17 -1.0443691e-15 5.0205543e-16 2.9631677e-16 5.468696e-16 1.19943e-15 -1.3000505e-15 -1.5674128e-15
-9.878424e-18 -2.852099e-16 -2.3146552e-15 1.4589991e-15 4.8449497e-17 -1.2914261e-15 -1.3485616e-15 6.169178e-17
1.4994174e-15 7.0685656e-16 -1.936156e-15 1.7183845e-16 -2.2682365e-15 4.923188e-16 2.7754625e-16 8.7565043e-16
1.4409396e-15 -1.8207113e-15 3.2101908e-16 -2.0201804e-15 1.4708884e-15 1.5239684e-15 6.4198125e-16 6.991098e-16
9.505285e-16 8.923822e-16 -9.470735e-16 7.218218e-16 -8.3265896e-16 -3.5276034e-16 1.9964467e-15 -9.857023e-16
-1.4023004e-15 -2.8101602e-16 -2.1045313e-15 1.2203922e-15 7.3073564e-16 -1.7898823e-15 -2.086526e-15 9.195366e-16
1.0157523e-15 -7.216164e-18 9.435717e-16 1.288046e-17 7.717212e-16 -1.1166669e-15 -1.2972621e-15 1.1751895e-16
-1.411306e-15 1.0127426e-15 1.6360634e-15 -5.128154e-16 1.1568294e-16 -8.2482994e-16 1.173072e-15 -5.4695895e-17
1.1932204e-15 2.2569426e-15 -8.948414e-16 -3.153746e-16 -7.316587e-16 -5.4826796e-16 -1.884569e-15 1.1923716e-16
-4.8625123e-16 -1.0320745e-15 -2.1695845e-16 -2.5174916e-15 -1.3374973e-15 2.3585613e-15 -7.5247977e-16 7.033719e-16
-8.246721e-16 -1.2618822e-15 -4.3360104e-16 2.230235e-15 -9.796956e-16 6.8596683e-16 9.669505e-16 5.5087804e-16
-2.2820999e-15 2.1303489e-16 2.2364592e-15 -1.1766745e-15 3.1933322e-16 1.853936e-15 7.9363223e-16 3.8762634e-16
2.140116e-15 1.6761103e-15 9.303038e-16 4.33699e-17 -1.4491824e-15 4.348375e-16 8.6365814e-16 2.188916e-15
2.4082034e-15 -9.171894e-16 2.1006013e-15 1.4999643e-15 -1.3664384e-15 2.4833397e-15 -1.4825787e-15 -7.009158e-16
9.703751e-16 -1.0216245e-15 -6.9797717e-16 -1.3403759e-15 5.3773257e-16 -5.5093283e-16 -5.8594727e-16 6.6600877e-16

transformer.layers.0.0.fn.fn.to_out.weight f4 [64, 64]
00000000: 0e09 91a5 8bf9 5da4 a790 9826 cfdb 03a5
00000010: eadd caa5 90b8 4fa6 3ffc fea6 4fe4 0025
00000020: 8bd8 b2a6 7ac2 4125 c026 6926 9a98 eca6
00000030: edbd 1127 2ce4 08a6 37b6 55a6 f14f d226
00000040: 38d4 e626 8747 02a6 90fa 9526 de43 84a6
00000050: 66aa 22a6 7715 be25 d7be 8aa6 c014 28a6
00000060: 94b2 b826 5e3a e326 560d 3fa6 bbba 0427
00000070: 0f23 c625 e87f e026 81f3 89a6 e091 1ea7
00000080: a10f 6f26 6857 4324 c64e c326 669b d726
00000090: 5400 eb26 efb7 1225 a6af e9a6 a444 fb26
000000a0: 3902 3a26 0fcc e426 810e d426 f7c9 e3a6
000000b0: ad62 37a7 e6ed 48a6 b8dc 85a6 d797 fd26
000000c0: 510b 8ba6 f267 b7a6 04c6 82a5 538c c825
000000d0: cc26 bfa6 bf9b c426 1854 3026 b46b 0fa6
000000e0: e60a 30a6 e78d 0527 a747 5fa6 d713 f026
000000f0: 4333 dda6 f659 1ba7 cb05 9226 130e d7a5
00000100: 947b 15a7 f7db 2a25 855e 2125 9c0a e726
00000110: 3a52 dca6 1dee 2aa6 4eff 7326 e8c7 b8a6
00000120: 0976 95a6 8e43 b0a6 f52f 5f26 7152 4226
00000130: a6b4 1a27 cb0b e926 e766 3d27 2728 4525
00000140: 85ca b2a5 de8c 80a6 1807 e6a6 29e6 1226
00000150: 1b8a 4926 982e 3027 c240 7026 0d93 eaa5
00000160: 7027 bca6 71da d4a6 299b 3827 7eff a025
00000170: 69da 0aa7 e247 1ba6 f7cc b3a6 cca2 9da5
00000180: 0f48 12a7 b381 c026 961f 0227 6615 8625
00000190: 213d be26 789b 0ea6 230b bda6 7b57 28a7
000001a0: 9894 82a3 9cbe dc26 8fa7 1da6 40aa cba5
000001b0: 4c7f a6a5 1a20 a9a6 efab 2627 5d2f dd25
000001c0: 8059 8f26 c8e5 8ea5 f18d b9a5 0061 37a6
000001d0: 90db 2ca7 0ec4 8926 aa5e a4a5 ac41 33a6
000001e0: 27fa 3da6 ef2d 9fa6 2e77 80a6 10b3 9e26
000001f0: 405f 4f25 3869 a5a6 ab31 d226 f93a eca6
00000200: 239e 0da7 4866 26a7 604a 8826 467a 72a6
00000210: fc87 0aa7 4eec b9a5 64c8 7d25 0b26 d0a5
00000220: abb5 9aa6 2f48 0fa6 7556 ad25 b53b 10a7
00000230: ea48 96a6 e6f5 b0a6 8b5b a3a6 93aa 80a5
00000240: 48ec f7a5 2305 b8a5 e8ea d725 8467 8ea6
00000250: 8f35 1726 a98c 1aa7 2cc3 05a7 2849 e426
00000260: 2444 d525 bb32 9226 bab8 aba5 702d c2a5
00000270: 9ca8 08a7 09ec 8226 4970 50a6 db13 9723
00000280: 7597 b4a6 a08b d725 5298 dc26 9b3d 1d27
00000290: d3f7 32a7 02d2 12a5 f216 2126 06b2 ca24
000002a0: 3cea 2d26 d8c8 3ca7 523c aa26 915e fd26
000002b0: 78e9 0126 4fc0 a8a6 c5b7 2ca7 63c0 73a4
000002c0: d818 5026 2446 0926 0890 72a6 3eb4 d3a3
000002d0: c6aa c6a5 fec7 9c26 ff0a 9826 9563 b3a6
000002e0: d969 6026 4080 11a6 204d bc26 fd63 faa6
000002f0: 5aff b326 e58c 4da6 0267 4a26 b568 4b26
00000300: a335 8923 e169 10a5 021c 74a4 dd3b 8e26
00000310: b606 4727 4340 f126 0c92 4627 0007 1826
00000320: 9c46 1da4 d124 8ea6 af0a 8e26 e2a4 4c25
00000330: f51d 87a6 f3fc 11a6 e732 fa26 e936 90a6
00000340: 8abc 5f27 3af9 2327 af53 63a6 1b9c aba6
00000350: 382d 0e27 1897 e926 785a 96a5 eb7b eca6
00000360: 9e91 aca6 ef80 2227 1274 1f25 f011 71a6
00000370: 6b28 17a6 4f41 0b26 5392 0627 6c73 bd25
00000380: e16a f226 9f1b 0f25 5822 e026 8179 0e26
00000390: ac18 0fa6 1755 31a5 a334 1227 5462 ad26
000003a0: dac8 1ba7 78a6 5ba5 73e5 51a6 cf10 49a6
000003b0: ee02 3da7 ed07 e025 bafe fa26 c7d3 ada5
000003c0: a77d b226 3bc1 0927 cc99 41a6 d738 75a6
000003d0: 6d51 e725 3120 46a7 6d0c 9e26 c175 1da5
000003e0: e6ed 1f26 d088 cb24 6fd6 5826 7126 cd26
000003f0: a5c8 7f26 cd18 b4a6 b09f 52a7 6cc9 f026
-2.5159626e-16 -4.8133107e-17 1.0586327e-15 -1.1436913e-16 -3.519179e-16 -7.206768e-16 -1.7693162e-15 1.1179584e-16
-1.2409925e-15 1.6805973e-16 8.089063e-16 -1.6417152e-15 2.0225751e-15 -4.749371e-16 -7.4146167e-16 1.4593345e-15
1.6016978e-15 -4.519975e-16 1.0406867e-15 -9.177735e-16 -5.6435974e-16 3.297429e-16 -9.627401e-16 -5.831483e-16
1.2815968e-15 1.576711e-15 -6.628451e-16 1.8419907e-15 3.4371281e-16 1.5577791e-15 -9.572287e-16 -2.2005984e-15
8.2940963e-16 4.235792e-17 1.3552195e-15 1.4960743e-15 1.630649e-15 1.27258e-16 -1.6215232e-15 1.7435229e-15
6.4534726e-16 1.5875988e-15 1.4714386e-15 -1.5806032e-15 -2.5449844e-15 -6.971135e-16 -9.288555e-16 1.7596558e-15
-9.64813e-16 -1.272635e-15 -2.2685586e-16 3.4789557e-16 -1.3263803e-15 1.3642447e-15 6.1176235e-16 -4.9759056e-16
-6.1077036e-16 1.8534383e-15 -7.7465774e-16 1.6658723e-15 -1.534885e-15 -2.155934e-15 1.0132355e-15 -3.7306092e-16
-2.0744896e-15 1.4819677e-16 1.3996548e-16 1.6031721e-15 -1.5287854e-15 -5.93033e-16 8.4653563e-16 -1.282175e-15
-1.0370945e-15 -1.2230764e-15 7.743366e-16 6.7419e-16 2.1469723e-15 1.6170819e-15 2.6284802e-15 1.710063e-16
-3.101531e-16 -8.919966e-16 -1.5961379e-15 5.096585e-16 6.992305e-16 2.4450165e-15 8.335449e-16 -4.0692175e-16
-1.305581e-15 -1.4769664e-15 2.5619242e-15 2.7928704e-16 -1.9269748e-15 -5.3873847e-16 -1.2476176e-15 -2.7345474e-16
-2.0300633e-15 1.3357831e-15 1.8058247e-15 2.3259795e-16 1.3200467e-15 -4.9476846e-16 -1.3117528e-15 -2.3362107e-15
-1.415756e-17 1.5317231e-15 -5.46974e-16 -3.5330252e-16 -2.888267e-16 -1.1735432e-15 2.3130333e-15 3.8369483e-16
9.946877e-16 -2.478878e-16 -3.2188568e-16 -6.362234e-16 -2.398882e-15 9.559425e-16 -2.8513612e-16 -6.21921e-16
-6.5911567e-16 -1.1045292e-15 -8.914088e-16 1.1011987e-15 1.798666e-16 -1.1477695e-15 1.458514e-15 -1.6391774e-15
-1.9653407e-15 -2.3092575e-15 9.457055e-16 -8.412633e-16 -1.9225064e-15 -3.225251e-16 2.2012147e-16 -3.6108027e-16
-1.0735138e-15 -4.971092e-16 3.0069302e-16 -2.0016382e-15 -1.0428104e-15 -1.2279104e-15 -1.133521e-15 -2.2320046e-16
-4.300778e-16 -3.1922393e-16 3.7455733e-16 -9.881287e-16 5.2461234e-16 -2.1448045e-15 -1.856326e-15 1.5840507e-15
3.6995784e-16 1.0144536e-15 -2.9788947e-16 -3.3684425e-16 -1.8965195e-15 9.08454e-16 -7.231667e-16 1.6379862e-17
-1.2531062e-15 3.7391168e-16 1.5306853e-15 2.1821523e-15 -2.4836808e-15 -1.2734635e-16 5.588919e-16 8.790512e-17
6.033888e-16 -2.6199119e-15 1.181247e-15 1.7581034e-15 4.5072275e-16 -1.1709467e-15 -2.3969417e-15 -5.2855183e-17
7.2198166e-16 4.762648e-16 -8.4155815e-16 -2.2953001e-17 -3.4463245e-16 1.0878882e-15 1.0550099e-15 -1.2447612e-15
7.785906e-16 -5.048079e-16 1.3066025e-15 -1.7374337e-15 1.2489833e-15 -7.131461e-16 7.022243e-16 7.057168e-16
1.4876286e-17 -1.2525882e-16 -5.293279e-17 9.869455e-16 2.7620436e-15 1.6740152e-15 2.7557192e-15 5.274508e-16
-3.4103757e-17 -9.863208e-16 9.856125e-16 1.7750044e-16 -9.375627e-16 -5.064979e-16 1.7361032e-15 -1.0006891e-15
3.1049674e-15 2.27559e-15 -7.886986e-16 -1.1907821e-15 1.9730972e-15 1.6208577e-15 -2.6082156e-16 -1.6409378e-15
-1.1974367e-15 2.2551911e-15 1.3830378e-16 -8.363798e-16 -5.2443426e-16 4.831382e-16 1.8675558e-15 3.2864487e-16
1.6821093e-15 1.2412631e-16 1.5552431e-15 4.9430815e-16 -4.964653e-16 -1.5381132e-16 2.0290105e-15 1.2030938e-15
-2.1619453e-15 -1.9051624e-16 -7.2822403e-16 -6.9758664e-16 -2.6230607e-15 3.8863177e-16 1.7416279e-15 -3.0154222e-16
1.2385289e-15 1.911732e-15 -6.716876e-16 -8.5078483e-16 4.0127289e-16 -2.749547e-15 1.096682e-15 -1.3657476e-16
5.548662e-16 8.8268986e-17 7.5230666e-16 1.4235152e-15 8.874282e-16 -1.2496731e-15 -2.9229921e-15 1.6707941e-15

transformer.layers.0.0.fn.fn.to_out.bias f4 [64]
00000000: a10d 87b9 fbe0 deb7 5c7f 7c36 8d32 f8b8
00000010: 1ec1 dcb6 1eab f6b6 aab6 8ab8 1eed fe38
00000020: c8df 5a37 6d66 d238 6f81 fa37 cc66 5537
00000030: 5f96 abb8 ccb1 2f38 72d5 d3b8 97f0 ddb7
00000040: f976 7ab8 0c81 0937 1253 37b9 2a6d 8d37
00000050: 177e 8438 e86d eab8 b297 2539 931a 6638
00000060: 99c9 9038 deea c3b8 3bf8 75b8 a7f0 2339
00000070: a470 98b8 b4a0 ba37 90c9 a338 a19e f438
00000080: 9038 c3b7 1caf 4c38 f59d f6b8 5209 3f37
00000090: 7e55 9e36 f3ae c838 b91b 6f38 44c8 6138
000000a0: a30c 5db8 583d 15b9 3264 c537 b5de a238
000000b0: 90b7 6738 f8cd f7b8 85bd d937 4953 df38
000000c0: f2f4 a437 b7d8 13b9 ef3d a7b8 82cb 1339
000000d0: 0262 0439 d6c5 b1b8 26d1 3638 8550 8d38
000000e0: 0d05 9838 e5e0 5e37 f76e 8438 ad10 3ab7
000000f0: 040a e7b4 cf1b dfb7 5cee ed36 7e6b 3d37
-0.0002575936 -2.6569227e-05 3.762506e-06 -0.00011834977 -6.5789927e-06 -7.351292e-06 -6.6143766e-05 0.0001215583
1.3045916e-05 0.000100326586 2.9862595e-05 1.2719724e-05 -8.181924e-05 4.1888838e-05 -0.00010101021 -2.6457286e-05
-5.9715447e-05 8.195882e-06 -0.00017483186 1.6859343e-05 6.3177366e-05 -0.00011178461 0.00015792137 5.4861022e-05
6.9040056e-05 -9.342072e-05 -5.8643735e-05 0.00015634541 -7.268906e-05 2.2247761e-05 7.8099896e-05 0.000116643736
-2.327215e-05 4.8800473e-05 -0.00011759616 1.1386657e-05 4.7187195e-06 9.56933e-05 5.700786e-05 5.3830692e-05
-5.2702275e-05 -0.000142326 2.3530887e-05 7.7662444e-05 5.5245648e-05 -0.000118162425 2.5956668e-05 0.00010648982
1.9664385e-05 -0.00014099745 -7.9747166e-05 0.00014094825 0.00012625012 -8.4768675e-05 4.3586966e-05 6.738402e-05
7.2488656e-05 1.32845935e-05 6.314919e-05 -1.1090347e-05 -4.303439e-07 -2.6596621e-05 7.090899e-06 1.1290305e-05

transformer.layers.0.1.fn.norm.weight f4 [64]
00000000: d807 5ba8 6abd 9725 1454 a626 d0b4 8da8
00000010: 3c4b aea7 1344 3027 c475 2627 ee5d 91a6
00000020: 7a48 2da7 fead 8627 2210 db26 cd4b c825
00000030: a151 a0a5 7faa 7ca5 e81f bda6 ac24 eaa5
00000040: 7f49 43a8 121b 0325 ea7b 1ea8 9d92 5e25
00000050: b393 dda6 6f94 3c27 3cfa eaa7 cae9 0ba6
00000060: 00fd f5a7 a6d5 9a27 dfe0 21a7 5da3 8ea8
00000070: 5741 a726 2595 a426 2d84 aca7 90d6 4125
00000080: bb76 a126 9c55 d227 d89b aca7 aa1e 1aa7
00000090: c64a 9226 334f 2fa7 3a3c 4da7 c2fc f625
000000a0: 738d 7228 6ab2 25a8 79a3 bda6 d7e5 a4a7
000000b0: 5012 8223 1322 0aa8 daf0 a9a6 d765 2c26
000000c0: 952d a626 9ffe 7aa7 84e0 0ca5 1d80 0b28
000000d0: 0fdf 05a7 d7db b4a6 7807 2c26 a316 9ca7
000000e0: e859 1d27 bd1b 3626 7bf4 c3a4 19da 12a8
000000f0: 1dd4 cd25 28b4 eea5 faa7 9327 6bd3 3226
-1.2158643e-14 2.6322676e-16 1.1541353e-15 -1.573256e-14 -4.837627e-15 2.446181e-15 2.3100969e-15 -1.0086856e-15
-2.4047863e-15 3.7381114e-15 1.520055e-15 3.4745834e-16 -2.781089e-16 -2.1915282e-16 -1.3123158e-15 -4.061738e-16
-1.0840611e-14 1.137161e-16 -8.7976315e-15 1.9305105e-16 -1.537499e-15 2.6170707e-15 -6.521935e-15 -4.8542156e-16
-6.8275463e-15 4.2975225e-15 -2.2465141e-15 -1.5836014e-14 1.1605663e-15 1.1420212e-15 -4.7882895e-15 1.6812778e-16
1.1203801e-15 5.8379527e-15 -4.7908556e-15 -2.1388416e-15 1.0151052e-15 -2.4329063e-15 -2.8482114e-15 4.2845473e-16
1.34643705e-14 -9.198027e-15 -1.3158819e-15 -4.5768337e-15 1.4102384e-17 -7.6679275e-15 -1.1792014e-15 5.9812506e-16
1.1530919e-15 -3.48325e-15 -1.2219133e-16 7.74383e-15 -1.8578378e-15 -1.2549597e-15 5.968461e-16 -4.332324e-15
2.1836865e-15 6.3181527e-16 -8.4981935e-17 -8.1519205e-15 3.5705565e-16 -4.1408497e-16 4.0982817e-15 6.204268e-16

transformer.layers.0.1.fn.norm.bias f4 [64]
00000000: ed6d 90a6 1cc5 a626 5801 9ca6 3e45 8da6
00000010: abcf aa26 7808 1324 e697 62a6 07fe 2e26
00000020: 2206 0e25 1049 8326 a4b4 88a6 71c8 7526
00000030: 9603 80a6 33ec ed24 772a 4026 4634 8226
00000040: 433b a7a6 8064 b4a6 e3e6 e025 492d 8f26
00000050: fceb 9da6 a63f b7a5 b050 5c26 d3d6 3b26
00000060: 0a66 1126 39d5 42a6 5023 0ba6 e9b6 5ca5
00000070: ca02 ae26 3856 bca2 1b40 0ea6 21e9 83a5
00000080: 2176 85a6 6946 b6a5 0339 e725 3eee 42a6
00000090: 778c dca5 2e8a c825 3004 8223 8c9b 9da5
000000a0: 4129 5a26 226d 2d26 4736 1726 5dba 1ba5
000000b0: 35a9 8f23 c8dd 0f27 e3ef 9726 bf8b 8aa6
000000c0: 896f 2526 7565 d4a5 ee0b 7ba3 1ea9 72a6
000000d0: 88d9 82a6 cc4c 2126 0657 63a5 02e1 5fa6
000000e0: 9c12 a0a6 fe88 6a26 630e bb26 14d2 fa25
000000f0: eedd 90a6 aba7 2524 7d10 9d26 59fd 9b26
-1.0021803e-15 1.157199e-15 -1.0825039e-15 -9.802609e-16 1.1852408e-15 3.1882717e-17 -7.861536e-16 6.071265e-16
1.2318615e-16 9.109755e-16 -9.485858e-16 8.52731e-16 -8.882756e-16 1.031825e-16 6.667093e-16 9.034731e-16
-1.1604016e-15 -1.251725e-15 3.901426e-16 9.934893e-16 -1.0958027e-15 -3.178857e-16 7.6437185e-16 6.51698e-16
5.044527e-16 -6.759624e-16 -4.827317e-16 -1.914393e-16 1.2074431e-15 -5.104879e-18 -4.9353026e-16 -2.2882852e-16
-9.260748e-16 -3.161968e-16 4.0110745e-16 -6.763015e-16 -3.82591e-16 3.4788104e-16 1.4096402e-17 -2.734056e-16
7.5689853e-16 6.0169335e-16 5.246221e-16 -1.3507249e-16 1.5575753e-17 1.9965464e-15 1.0542751e-15 -9.613552e-16
5.7397033e-16 -3.6844888e-16 -1.36092635e-17 -8.4189813e-16 -9.079524e-16 5.5962175e-16 -1.9718596e-16 -7.767361e-16
-1.1107274e-15 8.137072e-16 1.2979631e-15 4.3510441e-16 -1.0052161e-15 3.5920692e-17 1.0898533e-15 1.0823956e-15

transformer.layers.0.1.fn.fn.net.0.weight f4 [64, 64]
00000000: 2751 5027 762a 2aa6 fc94 a0a6 dc78 3a27
00000010: 133e e626 03c4 1aa6 a06f 96a5 1ad9 1fa6
00000020: 562b f626 908f 4c26 bb74 44a6 c8d6 b8a5
00000030: c9e1 8225 bf0f 26a6 12de cd26 b82e 3225
00000040: 9a87 2527 079f 3726 d8f3 f4a5 396a 1127
00000050: 9dfc 95a6 11b2 8226 9df0 7da6 e5d1 8725
00000060: 25ff b6a3 258a 85a6 82f5 9a26 f6a3 2626
00000070: 1706 ce26 4c54 8825 16d1 5826 e77d f7a4
00000080: 12a9 2227 19a0 10a7 9df6 6b26 4819 9826
00000090: 7cb7 a6a6 5511 f0a6 9dff 35a7 74eb 74a6
000000a0: 71be 11a7 24c8 0ea6 aed7 c025 5872 3ca6
000000b0: 11f0 38a6 eab7 4025 23f8 d1a6 ab42 c726
000000c0: ab80 9e26 d3c6 9626 b745 2ca3 49f3 6aa6
000000d0: 26d9 ee23 827c 89a3 e395 9ca6 0358 a025
000000e0: 52de fd26 da10 5625 cd26 ce26 819b fca6
000000f0: bb99 cb26 641e d7a4 739d 22a4 4c32 99a5
00000100: b7dd 98a6 bcfd 5aa6 a1c6 ed23 bddb 3f26
00000110: 0448 bd26 36d6 2fa5 3740 b2a6 7eae 19a7
00000120: 13e6 1a26 4d9b 8fa6 fb6e cf26 e4d6 3326
00000130: 9f3b 94a5 c6a3 d824 5eb6 58a6 163f 5aa6
00000140: 7717 ba26 2b90 ae24 5e90 3025 7bcd 0327
00000150: 34cc 0b26 43c9 9226 c29c 3e26 3f00 d7a6
00000160: 1621 f426 f92a 12a7 f23e 53a6 4805 5025
00000170: 703c 3aa7 02d8 1da5 7dd1 8725 639e b526
00000180: 6e35 8126 3a83 7ba6 9fdf 6aa6 54ce e2a4
00000190: 3a58 34a5 b878 96a6 8dc6 2227 a322 80a6
000001a0: ca2c 96a6 c38f 4327 4d82 3025 56a8 9126
000001b0: 6c7f 5b26 7e19 df26 914a d9a6 4e85 a5a5
000001c0: dbcb 0b26 60ee 8ca6 52f3 9fa6 9e29 44a6
000001d0: 8d0c f9a6 9a50 aca6 b407 2c26 7ce5 64a6
000001e0: 3bb8 0c26 2b68 c0a6 4d65 8525 523e e5a6
000001f0: 0322 2c26 59dc 4026 4375 2427 b8b4 2826
00000200: a0ba 9725 7a51 d3a5 bfc1 8aa6 26d4 dc26
00000210: cdf7 2fa6 7637 b425 00d3 74a6 3f5a 9123
00000220: bb83 c126 050d 84a6 4ed7 5126 daf2 c025
00000230: 01a4 73a6 45c2 7326 4b4c 1827 568f 2ea6
00000240: bdc8 df26 2363 6b26 5a1a 56a6 94c4 6226
00000250: 1cb2 29a7 0745 01a4 4989 0fa7 c29e 9126
00000260: 2b00 de26 1ea1 d126 e795 4b26 c7a0 15a6
00000270: d443 9f26 4745 3927 9c54 6a26 bfa1 01a7
00000280: 01c9 e626 831e c525 b103 1ca5 e87f faa6
00000290: 93b6 d326 0ea9 e326 a8b9 02a6 0b22 dc26
000002a0: cc8f 7e26 8ae0 17a6 3717 1ba7 e3a5 d726
000002b0: 24d0 17a5 154f c4a6 3830 9126 fd81 d626
000002c0: 298c d024 80bb 1227 93b0 0a26 3c5c 0ca7
000002d0: f89f df26 f837 8ba6 6171 2aa6 c1ae 0427
000002e0: 158b a8a6 928b 91a6 ccbe 5526 4f0f 1ba6
000002f0: 5c0c f2a6 86dc 0427 a651 32a7 7a8c 2aa6
00000300: c252 08a7 3216 c226 7685 ee26 779a e625
00000310: c09f a4a6 e7f5 8e25 bce8 6826 cdd6 63a6
00000320: b398 a2a5 ea9b 3826 92c6 1c26 ef1e b426
00000330: 95fb 90a6 32d0 1327 c42d 9826 97ee 65a6
00000340: 4964 4ba6 effb a226 8409 ec26 a972 9125
00000350: 3e5d 0ba7 3733 a8a6 f445 5ba6 91dc 8c26
00000360: 8701 2fa7 a075 cfa5 f509 c224 2e70 f324
00000370: 7c15 0c27 f5fa c726 122a 5c25 d8da ff25
00000380: a2fa f8a5 9604 ec26 6fa4 1ea6 23d6 aea6
00000390: 2246 c0a5 e5b2 9826 7c2f f6a4 5484 a826
000003a0: 67f8 d8a6 f6fe 1027 c529 bb24 c9cf 99a6
000003b0: 9171 4c26 cf78 a426 e130 dc25 90e0 fb24
000003c0: 2e2c 55a6 9898 3127 06c4 9426 fb7c be26
000003d0: 534e 8b26 c6b5 25a5 6ba1 8ea6 d545 a8a5
000003e0: a970 18a7 0698 c4a6 2023 4f26 a192 5725
000003f0: 7156 8b26 854c 8da5 c4e4 7726 539f 44a6
2.8909791e-15 -5.9038143e-16 -1.1142613e-15 2.5878203e-15 1.5976281e-15 -5.369513e-16 -2.6096492e-16 -5.5458434e-16
1.7081425e-15 7.097128e-16 -6.815936e-16 -3.2064453e-16 2.2704403e-16 -5.761416e-16 1.4284925e-15 1.5454868e-16
2.297186e-15 6.37064e-16 -4.2492488e-16 2.0180376e-15 -1.0407423e-15 9.068827e-16 -8.81031e-16 2.3560997e-16
-1.9840537e-17 -9.266173e-16 1.0752442e-15 5.781503e-16 1.4295772e-15 2.364936e-16 7.522342e-16 -1.0733246e-16
2.257367e-15 -2.0070804e-15 8.1866227e-16 1.0553971e-15 -1.1568297e-15 -1.6658043e-15 -2.5257364e-15 -8.4973604e-16
-2.022603e-15 -4.953739e-16 3.345284e-16 -6.538057e-16 -6.4163175e-16 1.6715658e-16 -1.4569546e-15 1.3826469e-15
1.0998328e-15 1.0462232e-15 -9.338901e-18 -8.151477e-16 2.5895978e-17 -1.4906301e-17 -1.0865301e-15 2.7815215e-16
1.7615662e-15 1.8567251e-16 1.4304638e-15 -1.7528162e-15 1.4127623e-15 -9.329287e-17 -3.5261515e-17 -2.6575352e-16
-1.0607215e-15 -7.597782e-16 2.5779714e-17 6.656424e-16 1.3134029e-15 -1.5251408e-16 -1.2368637e-15 -2.1327608e-15
5.374129e-16 -9.964713e-16 1.4393592e-15 6.239433e-16 -2.5714308e-16 9.395251e-17 -7.518721e-16 -7.571944e-16
1.2912703e-15 7.57047e-17 1.531448e-16 1.8291293e-15 4.850206e-16 1.0185337e-15 6.613194e-16 -1.4918689e-15
1.6939869e-15 -2.0284866e-15 -7.329064e-16 1.8042914e-16 -2.5845449e-15 -1.3690766e-16 2.3560722e-16 1.2602329e-15
8.965655e-16 -8.7260964e-16 -8.148812e-16 -9.836141e-17 -1.5642404e-16 -1.0441062e-15 2.258965e-15 -8.891172e-16
-1.0420481e-15 2.713962e-15 1.5309714e-16 1.0107024e-15 7.6153577e-16 1.5480643e-15 -1.5077611e-15 -2.8713268e-16
4.850159e-16 -9.779063e-16 -1.1098793e-15 -6.805756e-16 -1.7281248e-15 -1.1956745e-15 5.9684927e-16 -7.94144e-16
4.8821936e-16 -1.3350911e-15 2.3140466e-16 -1.5906959e-15 5.972058e-16 6.691201e-16 2.282314e-15 5.853163e-16
2.6320787e-16 -3.6657876e-16 -9.628189e-16 1.532307e-15 -6.1051154e-16 3.1262604e-16 -8.4940464e-16 1.5759152e-17
1.3427771e-15 -9.162869e-16 7.2803234e-16 3.3471253e-16 -8.452983e-16 8.4570845e-16 2.1135596e-15 -6.0562633e-16
1.5528144e-15 8.166636e-16 -7.428188e-16 7.8675914e-16 -2.3550015e-15 -2.8030884e-17 -1.991966e-15 1.0104428e-15
1.540439e-15 1.4545959e-15 7.063293e-16 -5.1912654e-16 1.1051226e-15 2.5711463e-15 8.1299726e-16 -1.799003e-15
1.6013938e-15 3.4194728e-16 -1.3532094e-16 -1.7381904e-15 1.4690553e-15 1.5797112e-15 -4.535442e-16 1.5274794e-15
8.8318834e-16 -5.2692956e-16 -2.1523156e-15 1.4963586e-15 -1.3167683e-16 -1.3621667e-15 1.0074466e-15 1.4884466e-15
9.044306e-17 2.0363214e-15 4.811767e-16 -1.9478903e-15 1.5517093e-15 -9.660233e-16 -5.9134255e-16 1.8413414e-15
-1.169504e-15 -1.0099227e-15 7.41578e-16 -5.3797175e-16 -1.6795473e-15 1.8438226e-15 -2.4746724e-15 -5.917098e-16
-1.8918655e-15 1.346747e-15 1.6550742e-15 4.000331e-16 -1.1423086e-15 2.4799703e-16 8.0806583e-16 -7.9047555e-16
-2.8205993e-16 6.4049127e-16 5.4392485e-16 1.2498394e-15 -1.0060199e-15 2.051321e-15 1.0559524e-15 -7.9773685e-16
-7.0565685e-16 1.1309295e-15 1.6378369e-15 2.5231187e-16 -1.9340672e-15 -1.1671224e-15 -7.607569e-16 9.774236e-16
-2.4286957e-15 -3.5988482e-16 8.4150956e-17 1.0557449e-16 1.944055e-15 1.3876421e-15 1.9096212e-16 4.4383743e-16
-4.3190978e-16 1.6377033e-15 -5.504011e-16 -1.2131717e-15 -3.3354215e-16 1.0595608e-15 -1.06765935e-16 1.1693209e-15
-1.505534e-15 2.012223e-15 8.116908e-17 -1.0672828e-15 7.093063e-16 1.1412531e-15 3.8197038e-16 1.0923432e-16
-7.3959095e-16 2.4646406e-15 1.0322695e-15 1.3217774e-15 9.666292e-16 -1.4373056e-16 -9.896982e-16 -2.9190674e-16
-2.115531e-15 -1.3641438e-15 7.1865155e-16 1.8697957e-16 9.668493e-16 -2.4511453e-16 8.6005375e-16 -6.8217085e-16

transformer.layers.0.1.fn.fn.net.0.bias f4 [64]
00000000: 8892 b7a5 3659 0c2f d2a9 18a7 450d 72a6
00000010: 8f5e f4a5 8906 a026 e6dd ae25 c954 1027
00000020: 5b27 c026 2c3c 8224 2ef7 1ba6 5834 92a6
00000030: 0dd8 f326 397e 4527 f8de 8fa4 7f24 be26
00000040: 0bed d325 518d aca6 0ad2 39a6 ca05 8826
00000050: a47a 98a6 113c d4a6 f650 1f27 304a dea5
00000060: 0140 0ba7 bbc5 6c25 89b4 0f26 1ed7 5f26
00000070: baa7 d7a4 e6d2 4ea6 fe84 26a7 2463 6c26
00000080: 5b4a 2d26 f113 41a6 e62b 1927 8ffc 4f26
00000090: 0e50 fd26 79ce 7aa6 d82d b2a6 b7ca f8a4
000000a0: 4f4b 9f26 aac7 9e26 ce47 08a7 d5ed 5a26
000000b0: aec9 9fa6 5a2d 3526 ac46 3e26 dd53 fca6
000000c0: 9d0e 0ca7 3fa3 1f23 087f 21a6 16ba cd25
000000d0: f2dc 9ba6 039e ed26 b174 0026 ade5 0ca7
000000e0: 83bf ba26 6846 77a6 aa63 01a6 057a b6a6
000000f0: 457e 4fa7 b15e a3a5 45ee 0433 7ecd 2b26
-3.1844733e-16 1.276462e-10 -2.1186297e-15 -8.39786e-16 -4.2391328e-16 1.1104002e-15 3.0334553e-16 2.0029977e-15
1.3333344e-15 5.648045e-17 -5.411142e-16 -1.0144973e-15 1.6920073e-15 2.7407667e-15 -6.239409e-17 1.3193791e-15
3.6763292e-16 -1.1973201e-15 -6.4469425e-16 9.438465e-16 -1.0580361e-15 -1.4726736e-15 2.2109572e-15 -3.8561133e-16
-1.9324822e-15 2.0536731e-16 4.985776e-16 7.7660205e-16 -9.3525527e-17 -7.175643e-16 -2.3109223e-15 8.201331e-16
6.0122203e-16 -6.698735e-16 2.1256813e-15 7.215983e-16 1.75771e-15 -8.7015996e-16 -1.2363657e-15 -1.0789627e-16
1.1053254e-15 1.1017571e-15 -1.8912717e-15 7.5956266e-16 -1.1087507e-15 6.2858453e-16 6.601527e-16 -1.7508744e-15
-1.9436825e-15 8.653976e-18 -5.6030255e-16 3.5687928e-16 -1.0815173e-15 1.6488008e-15 4.4567067e-16 -1.955341e-15
1.2958252e-15 -8.579076e-16 -4.4890936e-16 -1.266186e-15 -2.8795472e-15 -2.8340158e-16 3.095035e-08 5.9606037e-16

transformer.layers.0.1.fn.fn.net.2.weight f4 [64, 64]
00000000: fac1 28a7 e1d9 2b27 92b8 afa6 e826 e826
00000010: a4f0 01a7 7c97 8a26 4b50 1627 ac2c dda6
00000020: 636b be26 a9c6 aa25 d5fc 78a6 85a1 a224
00000030: 4211 5126 1290 e926 baeb ac26 0d34 88a4
00000040: 116b 1027 b3cd 87a5 8326 01a7 b1ea a5a6
00000050: d927 c2a5 0c58 0a26 d939 b226 7342 ee26
00000060: ba8b 2ca6 5599 0fa6 881b 7ea6 a6d4 a125
00000070: adb9 d025 ef6a fda6 d4ee e8a6 7c58 9424
00000080: edbb 1f26 b5af ca25 ee73 20a6 9b1a 2223
00000090: fa66 0627 fb77 aa26 62d3 26a7 1e3a 2fa7
000000a0: fc86 9e26 4b11 19a7 e4dc 45a6 ece9 3aa6
000000b0: e8fe 48a6 075f 27a6 6238 f0a6 7133 a926
000000c0: 582e 3da7 3d34 0ba6 aad5 88a6 76a9 34a7
000000d0: d053 0f27 c5e5 d8a5 b20f a125 dd75 1227
000000e0: 6535 a225 9cd9 b825 81b3 da26 fc9e 0b27
000000f0: da7c 67a5 a24a afa6 b621 edad ab4e 97a6
00000100: 48a0 9426 311b 2aa7 a53a d0a6 85dc 6426
00000110: 29bf f9a6 654f c926 6006 b226 88b6 a026
00000120: b46a 5f26 052d 6a26 9e5c d6a6 ce6f 1027
00000130: 8c24 caa3 aeb2 b1a6 302c e0a6 7eb0 16a5
00000140: 08ca ad26 3bd7 64a5 f4cd fe26 a542 08a7
00000150: 08a9 9026 e1c1 81a6 c855 5026 c332 f0a6
00000160: 67a0 3e27 4e31 a4a6 9474 1327 7e30 01a6
00000170: f083 12a7 56c6 51a6 57d9 82a7 a040 cfa6
00000180: 17b4 0e27 8068 4aa7 9e27 8624 0b02 37a6
00000190: be62 5626 c2a9 d2a6 ef6d 3825 6990 b0a6
000001a0: 1dda bc25 3175 cda6 283a 8ca6 abf9 53a6
000001b0: 943f 37a6 db1b f926 4600 0527 eaf5 aca6
000001c0: f169 ea26 49f8 d6a6 4419 a5a6 ec2c 85a5
000001d0: fe1d dd24 3110 11a7 78f0 0826 eeea 32a7
000001e0: 9e83 65a6 3e58 8226 cbca cba6 c6c7 8426
000001f0: b9ef 1226 ed1e 3327 5390 12ac e5fe 1aa6
00000200: ebd4 91a6 bd4e ea25 341a 26a6 679b 8726
00000210: 3418 9c26 5050 c5a6 8d5f d826 7fe1 fba4
00000220: 12ba bf26 e913 51a7 df69 4ea6 7172 c9a6
00000230: 1df0 4027 4cfb 9d25 10d5 27a6 0ef9 9a26
00000240: 245a 2426 090f 0ca6 3df3 10a7 f4a1 bf26
00000250: 8217 7f26 8aab 8726 8475 1727 eabf 87a6
00000260: 8718 8ca6 adee 85a6 417c 0927 3af8 a7a6
00000270: bd9b 8126 424a 8a26 d6ca b226 bee2 21a6
00000280: 8428 c826 9798 db26 a98d bc24 cfb2 efa6
00000290: 2c1d db26 5264 3027 a23a f2a6 e20e 8226
000002a0: d0e1 c626 1ec4 d2a6 40f1 1a26 6bff a726
000002b0: 67cd d6a6 3b75 4b25 214c daa6 d3f8 de26
000002c0: 083f 9526 df66 dda6 8201 e3a6 bd8e 8ca4
000002d0: b512 e926 e5b6 9c26 79a4 60a5 ddf0 8e26
000002e0: b6c8 afa4 9332 eb26 c60d 1627 7a89 b7a5
000002f0: 2e0c 52a7 3f41 aaa5 11e4 c62a 7a2b 00a6
00000300: 2398 4126 f91a e4a6 003a 39a6 f725 8d25
00000310: 9b9b 57a5 8533 0e27 d4e0 60a6 ede7 61a5
00000320: 39b1 19a5 1df7 1926 bff9 33a7 a2e1 4ca6
00000330: cb87 0c26 27d4 c326 d552 efa5 fe74 80a5
00000340: 22fe 74a6 2822 cba6 40ac 44a6 69bb 1ea6
00000350: c46e 4625 0317 2d27 2c2a 61a5 9d45 9b25
00000360: 6abb 49a7 81da a726 a0ed b926 62b4 99a4
00000370: 0c8e 8226 bd3f 1b26 c768 89a6 809a 2ca5
00000380: 59a1 3927 9bf2 4926 9d8c 3d26 5a4f 87a6
00000390: 5268 d9a6 4a8b 3aa7 aa59 12a7 ce23 99a6
000003a0: e113 3526 f16a 4327 8abe 90a5 e99d 23a7
000003b0: 5dae 08a6 7642 4326 168e 39a7 5e40 7425
000003c0: c336 0327 493f 7726 82ba 0027 9048 ea26
000003d0: fde2 2426 83b1 81a6 460b 0c27 2fe1 cca6
000003e0: fe2b 09a7 1da4 be26 0d53 df26 487a 06a6
000003f0: a553 0526 5e31 bc26 31e4 a027 4fd3 a2a5
-2.3419838e-15 2.384913e-15 -1.2193092e-15 1.6108779e-15 -1.8032798e-15 9.616734e-16 2.0860209e-15 -1.5347064e-15
1.3213006e-15 2.9624916e-16 -8.6384936e-16 7.0529926e-17 7.253483e-16 1.6206673e-15 1.1998791e-15 -5.9068776e-17
2.0042055e-15 -2.3558154e-16 -1.7923224e-15 -1.1512788e-15 -3.3680637e-16 4.7997694e-16 1.2366911e-15 1.6532579e-15
-5.986385e-16 -4.9820895e-16 -8.8161264e-16 2.8073144e-16 3.6208067e-16 -1.7584386e-15 -1.6162968e-15 6.433467e-17
5.5418893e-16 3.5160478e-16 -5.5668265e-16 8.7876715e-18 1.865206e-15 1.182864e-15 -2.3151719e-15 -2.4317634e-15
1.100004e-15 -2.124239e-15 -6.864747e-16 -6.4848737e-16 -6.97344e-16 -5.806855e-16 -1.6668628e-15 1.1740674e-15
-2.6254142e-15 -4.829611e-16 -9.494809e-16 -2.5071883e-15 1.9890671e-15 -3.7625725e-16 2.7939684e-16 2.0325464e-15
2.8138702e-16 3.206637e-16 1.5175443e-15 1.937631e-15 -2.0078358e-16 -1.2163294e-15 -2.6958751e-11 -1.0499053e-15
1.0313007e-15 -2.360698e-15 -1.4448795e-15 7.940225e-16 -1.732966e-15 1.3968697e-15 1.2352959e-15 1.1151705e-15
7.7513277e-16 8.124607e-16 -1.4874337e-15 2.0044624e-15 -2.1916362e-17 -1.2330273e-15 -1.5555099e-15 -1.3070224e-16
1.2059047e-15 -1.984877e-16 1.7680614e-15 -1.890992e-15 1.0037823e-15 -9.003724e-16 7.228075e-16 -1.6667104e-15
2.6454751e-15 -1.139315e-15 2.0463545e-15 -4.4821585e-16 -2.0333094e-15 -7.2780237e-16 -3.631789e-15 -1.4381027e-15
1.9804086e-15 -2.808978e-15 5.818035e-17 -6.349365e-16 7.4379985e-16 -1.461769e-15 1.5996703e-16 -1.2251596e-15
3.27606e-16 -1.4256497e-15 -9.730215e-16 -7.3543694e-16 -6.3577044e-16 1.7285396e-15 1.8457606e-15 -1.2001553e-15
1.6265727e-15 -1.4916531e-15 -1.1456023e-15 -2.3102262e-16 9.589428e-17 -2.013157e-15 4.7510374e-16 -2.4829818e-15
-7.962871e-16 9.04448e-16 -1.4140922e-15 9.213489e-16 5.097881e-16 2.4858005e-15 -2.0827964e-12 -5.377493e-16
-1.0119108e-15 4.0645884e-16 -5.762833e-16 9.409629e-16 1.0831235e-15 -1.369139e-15 1.501391e-15 -1.09235903e-16
1.3303722e-15 -2.901537e-15 -7.161409e-16 -1.3978196e-15 2.6775518e-15 2.7405444e-16 -5.822852e-16 1.0753403e-15
5.7021093e-16 -4.8592634e-16 -2.0115874e-15 1.3297185e-15 8.8502756e-16 9.414003e-16 2.1019165e-15 -9.419525e-16
-9.7211e-16 -9.293422e-16 1.9079927e-15 -1.1655235e-15 8.993386e-16 9.595801e-16 1.240621e-15 -5.616539e-16
1.388877e-15 1.5237537e-15 8.1771985e-17 -1.6632423e-15 1.5204085e-15 2.447929e-15 -1.6808016e-15 9.024596e-16
1.3800217e-15 -1.4624835e-15 5.375644e-16 1.1657184e-15 -1.4904907e-15 1.7647163e-16 -1.5147423e-15 1.5471788e-15
1.0356037e-15 -1.5362839e-15 -1.5751698e-15 -6.095713e-17 1.6172693e-15 1.0874248e-15 -1.9484628e-16 9.918515e-16
-7.623417e-17 1.6320109e-15 2.0824148e-15 -3.1838597e-16 -2.9149957e-15 -2.9534512e-16 3.5330118e-13 -4.4467843e-16
6.716651e-16 -1.5827989e-15 -6.4263373e-16 2.4485327e-16 -1.8700999e-16 1.9734387e-15 -7.802031e-16 -1.9594219e-16
-1.333068e-16 5.341744e-16 -2.4976628e-15 -7.1082507e-16 4.875629e-16 1.3588347e-15 -4.151602e-16 -2.2283737e-16
-8.499892e-16 -1.4095213e-15 -6.82346e-16 -5.507125e-16 1.7211291e-16 2.4021048e-15 -1.9529927e-16 2.6935386e-16
-2.799595e-15 1.1647178e-15 1.2901362e-15 -6.6658753e-17 9.059064e-16 5.386281e-16 -9.534685e-16 -1.4970969e-16
2.5761374e-15 7.0064675e-16 6.5763114e-16 -9.389015e-16 -1.5085676e-15 -2.5888194e-15 -2.0310177e-15 -1.0626213e-15
6.282393e-16 2.711966e-15 -2.5109132e-16 -2.2706397e-15 -4.7420785e-16 6.7744287e-16 -2.5750932e-15 2.1185435e-16
1.8209588e-15 8.5781107e-16 1.7864674e-15 1.625668e-15 5.7206556e-16 -8.999288e-16 1.9435014e-15 -1.421638e-15
-1.9036418e-15 1.3228381e-15 1.5496244e-15 -4.665631e-16 4.6257004e-16 1.3058502e-15 4.4656327e-15 -2.8245709e-16

transformer.layers.0.1.fn.fn.net.2.bias f4 [64]
00000000: 75f8 28b9 956a 8f37 2826 2d37 dafa 2ab9
00000010: 0f3b bbb8 ad4e 7cb8 a861 5eb8 2936 1139
00000020: 64df 9238 322d dd38 d790 9036 be9a 9a36
00000030: 7c15 adb8 de80 4c38 9c8b 42b8 53a0 49b8
00000040: ea88 e338 db1c bb36 cb80 1cb9 fd48 5638
00000050: 5a65 6839 e3e7 14b9 7583 0b39 8516 8e38
00000060: 1a93 e1b6 857c a3b7 3043 a5b8 0efc 9238
00000070: 54db d8b8 121f 0738 78a9 2a38 aff0 5838
00000080: 9175 5fb7 6ece 9537 7dd5 58b9 7c55 47b8
00000090: b1f9 06b8 f705 1e38 f676 6c38 2d14 f5b8
000000a0: 37ed c6b8 4d5d a6b8 f127 c737 19e6 8cb7
000000b0: 6af9 6638 c54a 5138 4922 b4b8 8d7c d038
000000c0: af50 9738 0290 ebb8 8757 b638 0c9d 3139
000000d0: 5472 1539 acce bbb8 b6b5 3438 62b2 bab8
000000e0: f0a9 b437 f4a0 d0b6 a641 e938 76b8 4838
000000f0: bb42 9037 b828 00b8 8b42 d337 cca5 fab6
-0.00016114286 1.709656e-05 1.03204875e-05 -0.00016305913 -8.9278554e-05 -6.0154754e-05 -5.3019874e-05 0.00013848454
7.003432e-05 0.000105465195 4.308396e-06 4.607572e-06 -8.2532846e-05 4.8757407e-05 -4.6383226e-05 -4.8071448e-05
0.00010849706 5.5763935e-06 -0.00014925298 5.108955e-05 0.00022163 -0.00014200764 0.00013305045 6.775282e-05
-6.7226474e-06 -1.9489098e-05 -7.880328e-05 7.008771e-05 -0.00010340536 3.2215445e-05 4.068899e-05 5.1722567e-05
-1.3319209e-05 1.785831e-05 -0.00020678896 -4.752491e-05 -3.2180633e-05 3.767569e-05 5.6377576e-05 -0.000116862684
-9.4855604e-05 -7.9328755e-05 2.3741248e-05 -1.6796448e-05 5.5068558e-05 4.9899118e-05 -8.589455e-05 9.941412e-05
7.2152696e-05 -0.00011232497 8.6947395e-05 0.0001693854 0.00014252338 -8.9553505e-05 4.3084576e-05 -8.9023975e-05
2.1536805e-05 -6.2176205e-06 0.00011122534 4.785551e-05 1.7197211e-05 -3.05555e-05 2.5184147e-05 -7.469882e-06
