model_training/trained_models/model_200_ViT.pth (torch, 223129 bytes, 16 tensors)

patch_to_embedding.weight f4 [64, 192]
000000 6d 2a 62 3c 26 9f 8b bc cf 13 bf bc 16 95 9c bb
       0.01380406 -0.017043661 -0.023324875 -0.0047785146
000010 ab 0e 90 bc 99 b6 53 bd 42 3d 8d bd c0 46 5a bd
       -0.01758512 -0.05168781 -0.068964496 -0.05329013
000020 0a 14 8a 3d 81 92 60 3d f6 30 b9 3c 82 c8 89 3c
       0.067421034 0.054827217 0.022606354 0.016819242
000030 7d fd 54 3d ea 23 58 3d 22 26 02 3d 43 af c7 bb
       0.051999558 0.052768625 0.031774648 -0.006093891
000040 b5 36 e3 3c 99 86 22 bd 3f f6 fb 3c 3c c5 52 3d
       0.027736047 -0.039679144 0.030757068 0.05145763
000050 77 3e 59 3c 03 48 34 bd 8f b9 58 3c e3 e7 66 3d
       0.013259522 -0.04401399 0.013227834 0.05637349
000060 bc 3a de bb 21 63 ef 3c 10 0a d1 3b fa b0 07 3d
       -0.006781904 0.029222073 0.0063793734 0.033127762
000070 05 a7 c4 3c aa 66 c9 3b 9d 0b 8b bd 4e e0 6f 3d
       0.024005422 0.0061462717 -0.067893244 0.058563523
000080 e3 48 8a bd 55 e6 7e bd dc 2b 7e 3d c1 fb 9d bc
       -0.06752183 -0.06223138 0.062053546 -0.019285085
000090 24 9f 8b bd 74 8a 59 3d c8 58 d7 bc 6c a4 4e 3d
       -0.06817463 0.053110555 -0.026287451 0.050449774
0000a0 16 30 5b 3d d8 89 90 bd 33 39 97 bd 78 5f 96 ba
       0.053512655 -0.070575416 -0.07383957 -0.0011472544
0000b0 1e cc c0 bc e2 0a 94 bd 64 06 3f bd fa 05 3c 3d
       -0.02353483 -0.07228638 -0.046636954 0.045904137
0000c0 83 95 f7 3c 51 bf c3 3c ef f5 fe 3c be 73 fe 3c
       0.03022266 0.023894938 0.03112313 0.03106105
0000d0 49 20 35 3d 21 0e 37 bc 18 7c cf bb a9 d9 8a 3d
       0.044220243 -0.011172802 -0.006331932 0.06779797
0000e0 36 fa 64 3b a8 bd 60 bc a5 c6 54 3d f8 f8 1c 3d
       0.0034939176 -0.013717093 0.051947255 0.038323373
0000f0 55 96 22 3b 7a bd 12 3d 8e 8c 80 3d ae e2 c6 bb
       0.0024808843 0.03582523 0.06276809 -0.006069503
000100 b3 d0 1a bd 19 95 52 3c 18 66 7f 3d 86 41 34 bd
       -0.037796687 0.01285293 0.062353224 -0.0440078
000110 9e 86 89 bd ef 1b fd bc ab 09 ed 3b d4 38 7b bd
       -0.06715129 -0.030897109 0.0072338185 -0.061333492
000120 9a 16 45 bd 15 36 5e 3b b4 45 65 3d 11 65 01 3d
       -0.048117258 0.0033906747 0.055974677 0.031590525
000130 b9 65 2a 3d 1b db c9 3c af 11 87 3c a6 14 82 3d
       0.041600917 0.02464061 0.016487924 0.063515946
000140 27 a4 db bc 86 13 27 bc b6 8a fc 3b 4b f7 27 3b
       -0.026811672 -0.010197526 0.0077069653 0.0025629576
000150 6e 91 5c bb 13 90 09 bd 36 7e 6c 3d 84 1a 19 3d
       -0.0033656019 -0.033584666 0.05773755 0.037378803
000160 38 66 7a bd 9d d9 1d 3c 43 5e 92 bd 36 ec 76 3d
       -0.06113264 0.009634403 -0.07146885 0.060283862
000170 0b b6 bb 3c 3c 9b 0b 3d f5 c6 8a 3d 20 01 68 3d
       0.022913953 0.03408359 0.06776229 0.056641698
000180 d5 96 1b 3d b8 5b d9 bc 75 cf 37 bc 68 52 2c 3d
       0.03798564 -0.026532993 -0.011218895 0.042070776
000190 9b c0 57 3d da f0 c8 bc 83 5e 6f 3d 58 be 35 3d
       0.052673917 -0.02452891 0.058439743 0.04437098
0001a0 5f 51 6d 3d 17 a9 17 bc 55 7e 44 b8 6e 9c 30 bd
       0.05793893 -0.009256623 -4.6847697e-05 -0.043117933
0001b0 db e6 8f bd ff dc 59 bc b1 4f 37 3c 1f f0 60 bd
       -0.07026454 -0.0132973185 0.0111884335 -0.054916497
0001c0 bc a5 8a 3c d2 98 8a bd 98 9c 8d bd 8d c9 80 3d
       0.016924731 -0.067674294 -0.069146335 0.06288443
0001d0 35 68 6a bd ff 1b b0 bb a2 f2 c3 bc 14 de e5 3c
       -0.057228286 -0.005374431 -0.023919407 0.028059997
0001e0 09 59 d1 3b f5 c3 06 bd 48 1c 31 bd 95 61 7a bd
       0.0063887876 -0.032901723 -0.04323986 -0.061128218
0001f0 8a 59 aa bc 18 40 05 3d 10 bb 81 bc 67 4e 77 bd
       -0.020794649 0.032531828 -0.015836269 -0.060377505
000200 78 b8 81 3c c0 8a 96 bd a4 ae 86 bd 8f 7d 1f 3d
       0.015835032 -0.07350683 -0.06576279 0.0389381
000210 57 fa 91 bd 69 64 a9 bb e7 bc 5f bd 0b 42 4b 3d
       -0.07127827 -0.0051694405 -0.05462351 0.04962353
000220 5b 0b 4c bd 98 e7 94 bd d3 27 4b 3d 91 18 0c 3b
       -0.049815517 -0.072707355 0.049598526 0.0021376947
000230 97 bf 75 bd 39 51 05 3d f1 43 86 bd 17 3a a0 3c
       -0.059997167 0.032548163 -0.065559275 0.01955895
000240 4e 83 05 bd 44 0c 0f 3d 6e e4 30 3d 01 0c 5a bc
       -0.032595925 0.034923807 0.043186598 -0.013308526
000250 6c 96 60 3d 96 49 04 3c 14 28 e2 bb 63 10 73 3d
       0.054830953 0.008074185 -0.0069017503 0.0593418
000260 9c 68 16 3d bb c0 1a bd 8c ce d5 3c 6a 85 37 bd
       0.036720857 -0.03778146 0.026099466 -0.044804968
000270 5a 57 84 3a 54 8a 7f bd 77 65 2c 3d 5b 4f 93 bd
       0.0010096834 -0.06238778 0.042088952 -0.0719287
000280 2b f1 92 bc 98 44 19 3d 03 20 ed bc da fb 89 3d
       -0.017937263 0.03741893 -0.028945928 0.0673749
000290 b7 62 91 3c 57 77 b0 bb 46 76 fc 3c d5 96 5f bd
       0.017747266 -0.00538532 0.030818116 -0.054587204
0002a0 a0 f1 07 3d 1c 85 98 bd 4a 7b 96 3c 65 39 5e bc
       0.033189416 -0.074472636 0.018369336 -0.013563489
0002b0 61 f3 67 3d a6 27 95 bc 27 e0 97 3b 5a 51 8d bd
       0.05662859 -0.018207382 0.0046348753 -0.06900282
0002c0 fd d2 36 3d 2a d3 94 bd 15 9d 0f 3d cc ab 90 3c
       0.044634808 -0.07266839 0.035061914 0.017660044
0002d0 cd fd 5e 3d 2c 4c 80 3d 11 4c 25 3b d0 2a 7e bd
       0.054441262 0.06264529 0.002522234 -0.062052548
0002e0 f6 a1 71 3d cc 75 2e bd 34 31 83 bd 5b 33 f8 3c
       0.05899235 -0.04259281 -0.06405869 0.030297926
0002f0 8b 6f 1a bd 1d 24 41 3d 57 fc 43 3d 58 6b da bc
       -0.037704032 0.04715358 0.047848072 -0.026662514
000300 8d bb f8 bb b4 1d 9d bc 0b 8c c4 bc 32 9b 69 bd
       -0.007590717 -0.019179203 -0.023992559 -0.05703277
000310 01 7c a8 bc 02 c6 8c 3d 28 67 27 3d c5 bf 8f 3c
       -0.020566942 0.068737045 0.04086986 0.017547498
000320 00 2c 5f bd 41 63 d6 3c b2 9e 20 bc f4 9a 10 bd
       -0.05448532 0.026170375 -0.009803461 -0.035304025
000330 9b 93 da 3c 68 43 24 bd f0 26 a7 3b 06 6e be bc
       0.026681712 -0.040103346 0.0051010773 -0.023245823
000340 80 be 85 bd c5 44 16 3d 24 16 36 3b 70 64 2b 3d
       -0.065304756 0.036686677 0.0027784193 0.04184383
000350 ff 6e c5 bc fd aa 44 3b b5 a4 2e bd 51 dc 31 3d
       -0.024100779 0.0030009144 -0.042637546 0.043423
000360 99 27 1c bd db ed 21 3c 73 82 81 3d 04 25 88 bd
       -0.0381237 0.009883369 0.06323709 -0.06647685
000370 fa d7 1a bd 03 e1 06 3d e6 bb 76 bc de 3f 06 bd
       -0.037803628 0.03292943 -0.015059447 -0.032775752
000380 37 22 97 bd 72 ca 82 3d 9c 52 fc 3c f4 ad a9 bb
       -0.07379573 0.0638627 0.03080111 -0.0051782075
000390 3d e5 6f 3c ec 3d 43 3d 74 ba 86 3d a8 7a 1b bd
       0.014642057 0.047666475 0.06578532 -0.03795877
0003a0 13 ee 43 bd 38 33 69 bd 37 f4 6e bd 2f e1 19 3d
       -0.047834467 -0.05693361 -0.05833837 0.037568267
0003b0 6b e8 89 bd a8 cc 5e 3d f6 a8 7a 3d 85 4a 72 bd
       -0.06733783 0.054394394 0.06119629 -0.0591531
0003c0 3f 58 67 3d 9e ef 42 3d 6f b2 94 bd 26 66 dd bc
       0.056480642 0.047591798 -0.07260596 -0.027026247
0003d0 0e 92 14 3d a0 37 a8 bc 52 44 d1 bc f2 50 8a bc
       0.0362721 -0.020534337 -0.025545273 -0.0168843
0003e0 ed 39 42 3d 3b 19 5f bd 11 19 ce bc ad 41 ca bc
       0.047418524 -0.05446742 -0.025158437 -0.02468952
0003f0 c2 6e 78 3c 8e 19 2b bd d9 ff 2a bd a6 62 a3 bc
       0.0151631255 -0.041772418 -0.0417479 -0.0199445

patch_to_embedding.bias f4 [64]
000000 51 1d 37 bd 10 bd f4 3c 31 8f 97 3d 44 1e 83 3d
       -0.044705693 0.029875308 0.074003585 0.06402257
000010 fc 81 0d 3c b7 39 25 3d 6e 2c 12 bd c7 62 3d bd
       0.008636948 0.040338244 -0.035686903 -0.04623678
000020 97 39 22 3d 1c 2b b4 bc b5 96 ad 3b f3 08 e3 bc
       0.039605703 -0.021993212 0.0052975067 -0.027714228
000030 7f b6 ea bc cc 63 8e 3d b2 6a 78 bd 97 43 bf 3c
       -0.028651474 0.069526285 -0.060648628 0.023347659
000040 50 17 cd b9 1f da 0e 3d 02 45 55 bd 5c dd 85 bd
       -0.00039118016 0.034875985 -0.052067764 -0.065363616
000050 11 19 84 bc 9a e4 3a bd ff 8a 6b 3d 77 e7 ef 3c
       -0.016125234 -0.045628168 0.057505604 0.029285176
000060 31 8a 91 bc ac 32 68 3d a4 df 79 bd f8 8c 4b 3c
       -0.01776609 0.05668895 -0.061004296 0.012423746
000070 29 d9 84 bd a7 61 8a bc 72 3a 13 bd 20 1b 52 bd
       -0.064867325 -0.016892267 -0.03594441 -0.0512954
000080 b5 a3 7d bd 98 d6 73 3d 76 7e 07 bd 4d 5b 8f 3c
       -0.0619237 0.059530824 -0.033079587 0.01749959
000090 8d 09 08 3b 7b 32 a0 bd ad a3 3f bd 4d 3d 6b bc
       0.0020757646 -0.078221284 -0.046786953 -0.014357877
0000a0 c6 79 d4 bc e9 11 3f bd c7 46 e7 bc 94 9f 34 3c
       -0.025936972 -0.04664794 -0.028231991 0.0110243745
0000b0 e9 34 a2 3c 2b 43 13 3c 3b 49 c7 3c ed 9d 24 3d
       0.01980062 0.008988182 0.024326911 0.040189672
0000c0 c8 97 4a 3d ba 50 7a 3c 4c bc 47 3d a7 34 90 3c
       0.049461156 0.015278036 0.04876356 0.017603232
0000d0 61 2a 1f bd 79 b9 01 3d 66 8f 23 3c 37 7c 15 3d
       -0.038858775 0.03167102 0.009982919 0.036495414
0000e0 3e 1f a2 3d 71 8f 6f bc c0 89 89 bd 4f ca 50 bd
       0.07916115 -0.014621601 -0.06715727 -0.050974187
0000f0 25 0d 37 3c 75 73 24 bd be e8 ef 3b 17 cc f4 3c
       0.0111725675 -0.04014917 0.007321446 0.029882474

transformer.layers.0.0.fn.norm.weight f4 [64]
000000 92 e7 7e 3f 8a 09 80 3f 4d 3b 80 3f 41 0f 80 3f
       0.995721 1.0002911 1.0018097 1.0004655
000010 13 1d 80 3f 77 78 7f 3f a9 e9 7f 3f aa f6 7f 3f
       1.0008873 0.9979319 0.9996591 0.99985754
000020 d0 16 80 3f d2 2a 80 3f 8c a5 7f 3f ed d5 7f 3f
       1.0006962 1.0013068 0.9986198 0.999358
000030 e2 f9 7f 3f b6 27 80 3f e0 fe 7f 3f d0 ad 7f 3f
       0.99990666 1.0012119 0.99998283 0.9987459
000040 eb 04 80 3f 9e fd 7e 3f 88 08 80 3f c8 9a 7f 3f
       1.0001501 0.9960574 1.0002604 0.9984555
000050 28 ba 7f 3f a2 e4 7f 3f b8 1d 80 3f bd 33 80 3f
       0.99893427 0.9995824 1.000907 1.0015789
000060 db 84 7f 3f 73 41 80 3f 54 02 80 3f 9e 0b 80 3f
       0.99812096 1.0019974 1.000071 1.0003545
000070 be c4 7f 3f ab f8 7f 3f 90 10 80 3f 25 ea 7f 3f
       0.9990958 0.9998881 1.0005054 0.9996665
000080 99 b8 80 3f a9 7c 7f 3f d8 44 80 3f 40 ce 7f 3f
       1.0056335 0.9979959 1.002101 0.9992409
000090 ca f2 7f 3f 76 4d 80 3f 0f 09 80 3f 89 dd 7f 3f
       0.9997984 1.0023639 1.0002764 0.9994741
0000a0 2b af 7f 3f b4 03 80 3f f5 6c 80 3f c1 82 7f 3f
       0.9987666 1.000113 1.0033251 0.9980889
0000b0 12 e2 7f 3f 46 80 7f 3f db 79 80 3f 71 25 80 3f
       0.9995433 0.99805105 1.0037187 1.0011426
0000c0 79 03 80 3f 63 22 80 3f 9a 0b 80 3f b4 0f 80 3f
       1.000106 1.0010494 1.000354 1.0004792
0000d0 c6 0c 80 3f 77 3d 80 3f 52 52 7f 3f 1e 2b 7f 3f
       1.0003898 1.0018758 0.99734986 0.99675167
0000e0 d4 00 80 3f e9 ea 7f 3f 5e d3 7f 3f 60 c1 7f 3f
       1.0000253 0.9996782 0.99931896 0.9990444
0000f0 6c 83 7f 3f 7d f6 7f 3f 74 e6 7f 3f 4c 33 80 3f
       0.9980991 0.99985486 0.9996102 1.0015655

transformer.layers.0.0.fn.norm.bias f4 [64]
000000 1d 2d 35 bc d2 ad d5 bb d5 f3 9b 3b ea 27 0c b9
       -0.011058119 -0.006520965 0.0047592917 -0.0001336631
000010 44 85 9c 3b 75 eb ca 3b 6b e2 26 3c f2 03 8e 3b
       0.0047766287 0.0061926194 0.010185818 0.0043339664
000020 eb e0 99 3b 49 5e d0 bb e8 8f 58 3b 49 62 ba 3a
       0.0046960018 -0.006358896 0.003304476 0.0014219965
000030 34 80 92 bb 8b 43 a8 3b f6 3d e3 3a 47 a1 7a bb
       -0.0044708494 0.005135005 0.0017337191 -0.0038243101
000040 4c d5 89 bb 40 63 1c bc 77 c8 3f ba 1d d1 cf bb
       -0.004206335 -0.009545147 -0.00073159434 -0.006342067
000050 73 2c 5c bb d8 e3 dc ba f0 6b 0b 3c 51 00 a6 bb
       -0.003359583 -0.0016852571 0.008509621 -0.0050659557
000060 bd 49 14 3c 53 2b 30 3c 9e 87 ad 3b 35 13 6b bc
       0.009050784 0.010752517 0.005295708 -0.014347841
000070 51 82 d8 bb 66 89 25 bc 28 18 08 bb 7e 19 87 b9
       -0.006607332 -0.010103559 -0.0020766351 -0.000257682
000080 c8 ff 1d bc 76 01 9a 3b b4 97 79 3c cd 4a e2 ba
       -0.0096435025 0.004699881 0.015233923 -0.0017264724
000090 52 28 08 3b 75 af 28 bc 9a 2e 40 bc 26 cd ab ba
       0.0020775986 -0.0102957385 -0.011729861 -0.0013107404
0000a0 9f bd 87 bb 5b 3e a1 3b 3c 55 b2 bc 99 5a 09 bc
       -0.0041424776 0.0049207634 -0.021769159 -0.008383417
0000b0 c7 28 27 3a d2 b6 17 3c 4b 5b 18 bc fa f0 fe 3b
       0.0006376621 0.009259896 -0.00929911 0.0077801915
0000c0 81 88 df 3b 13 57 0a 3c 31 b0 21 bb 10 90 26 ba
       0.0068216925 0.008443612 -0.0024671669 -0.00063538644
0000d0 3a 6d c2 bb 9a a9 d1 3b f7 7e 1b bc ee b7 82 bc
       -0.005933431 0.006398392 -0.00949072 -0.015956845
0000e0 1b 80 10 3c d5 50 52 bb 41 7b 34 3b 73 37 a7 bb
       0.008819605 -0.0032091637 0.0027539285 -0.0051030456
0000f0 77 f1 33 3c ca be 53 bb e7 62 cf 3b 79 79 5b 3c
       0.010982863 -0.0032309764 0.0063289288 0.013395661

transformer.layers.0.0.fn.fn.to_qkv.weight f4 [192, 64]
000000 80 7c 94 bd 57 e8 7f 3d bb 6b 9a 39 cb 0a c7 bd
       -0.07250309 0.062477436 0.00029453434 -0.097188555
000010 83 87 d7 3d 2c 65 79 bd af 07 fd 3d 8c c7 bf 3d
       0.10523894 -0.0608875 0.12354981 0.093642324
000020 d2 b8 cf 3d 36 fc d7 3d 7d 23 62 bd 27 31 ff 3d
       0.101426736 0.10546152 -0.055209626 0.12460547
000030 33 37 b3 3d 87 4b f1 3d 90 ab 55 bd 61 8f e9 3d
       0.08750763 0.11781984 -0.052165568 0.114043005
000040 b2 43 bf 3c 06 34 b1 bd 95 e0 b9 bd fd f1 cd bc
       0.02334771 -0.08652501 -0.09076039 -0.025139803
000050 35 60 98 bd f2 63 33 3c 04 5e ca bd 71 71 64 bd
       -0.07440225 0.010949122 -0.09881213 -0.05577225
000060 6d 34 b2 3d 9d 72 a9 bd 4d 3c c6 bc 18 d5 d1 ba
       0.08701406 -0.08273814 -0.024198676 -0.0016008941
000070 77 f7 a2 bc 07 0a fa bd 20 f0 22 3d 02 3d 89 3d
       -0.019893391 -0.12208944 0.039779782 0.067010894
000080 62 f7 dd 3d b7 63 71 bd fc 99 5a 3d 17 9e e1 3d
       0.108382 -0.058932986 0.053369507 0.11016481
000090 df ad 29 3d e9 5e 4c bc 92 44 15 3c 88 2a 50 3c
       0.041425582 -0.0124738 0.009110587 0.012705453
0000a0 42 cc e2 bd 87 a7 b3 3b 8a 6e 34 3c c6 0c e7 bd
       -0.11074115 0.0054826173 0.011012683 -0.11281733
0000b0 ba 3d 42 bc 42 64 75 3c ed c5 e1 3d 1a a3 88 bd
       -0.011855537 0.014977517 0.110240795 -0.06671734
0000c0 43 1b 67 3d f5 7b 92 bd 5a 9a 52 3c 69 be 33 bc
       0.056422483 -0.07152549 0.012854183 -0.01097069
0000d0 26 5f 23 3d dc 13 a4 3d dd 20 ff 3d 2c d3 4a bd
       0.039885662 0.080116004 0.1245744 -0.049517795
0000e0 7f 16 8f bd db 3c ef 3d 66 d1 87 3d e7 83 fd 3d
       -0.06986713 0.11681529 0.066317365 0.12378674
0000f0 a8 fe 64 3d 94 7a e0 bd 5f ed 56 3d bc c1 a7 ba
       0.05590692 -0.1096088 0.05247247 -0.0012798826
000100 e6 7a 16 bd 7e d7 d4 3d c7 a2 22 3d 17 8e dd 3c
       -0.0367383 0.103926644 0.039706018 0.027045293
000110 7a 6c 40 bd d1 f9 56 bd ec 68 f6 3d d5 1b 81 3d
       -0.04697845 -0.052484337 0.12031731 0.06304137
000120 cd d7 06 3d a3 8b bc 3d ca c9 ab 3c 7a 07 9f 3d
       0.032920647 0.09206321 0.020970244 0.07765098
000130 25 ab 3f 3c a2 15 e5 3d bd c2 21 bd 08 27 a5 3d
       0.011698519 0.11185767 -0.039492358 0.08064085
000140 93 7e 5b bc c0 0c 4f 3d 83 f1 fd bd 70 6f 93 3d
       -0.013396877 0.05054927 -0.1239958 0.071989894
000150 5e 0c f9 bc 3d 6b b7 bd e4 53 f7 3d ac a4 e2 bd
       -0.030401405 -0.08956001 0.12076548 -0.11066565
000160 18 3c dd 3d 9e a0 48 3d 6d 53 9f bb 97 5f b0 3d
       0.108024776 0.0489813 -0.00486224 0.08611982
000170 29 1e a6 bd e1 dc 53 3c 74 e9 bf bd 0d b4 d1 bd
       -0.08111221 0.01293108 -0.093706995 -0.1023942
000180 8e 3c d1 3d 20 54 22 3d 82 db 90 3c a1 c6 de 3d
       0.10216628 0.03963101 0.017682794 0.10877729
000190 f7 bc 2e bd 38 b8 bb 3c fa 4b f6 3d 09 1b f1 bd
       -0.04266068 0.02291499 0.1202621 -0.11772735
0001a0 00 35 5b bd af 56 a7 3c cd 69 dd 3d cc b2 1b 3d
       -0.05351734 0.020427076 0.108111955 0.03801231
0001b0 4e 3f f0 3d 75 80 33 3d 77 1d 99 3d 1b 30 71 3c
       0.117308244 0.043823678 0.07476323 0.014720942
0001c0 3b 8e 98 bc b2 e5 e1 3d 9d bd 6e 3d 98 69 80 bc
       -0.018622508 0.11030139 0.058286298 -0.015675351
0001d0 d5 45 92 3d 0a 0f f7 bd a9 15 e0 3c d7 7f b0 3c
       0.07142226 -0.12063415 0.027354078 0.021545334
0001e0 f0 f8 d6 3d ee 02 8b 3d 77 27 a4 3d ca 2e 87 3d
       0.104967 0.06787668 0.0801534 0.06600721
0001f0 97 db ba bc 9d 9e 3d 3d f8 77 19 bd 7e b9 f3 bb
       -0.022809787 0.046293844 -0.037467927 -0.007437884
000200 83 69 47 3d 12 a0 9f bc fd 48 d1 3d 9f c1 15 bd
       0.04868461 -0.019485507 0.102189995 -0.036561605
000210 f6 cf ad 3c 6f bc 9f 3d 41 2b d1 bd 1c 70 e0 3d
       0.021217328 0.07799613 -0.10213328 0.10958883
000220 d4 b9 ed bc 2c d0 33 3d f8 e9 71 3d c0 5a 77 3d
       -0.029019274 0.0438997 0.05906102 0.06038928
000230 df 8f ea 3c 6e 15 8e 3d be b5 83 bd ed 3c ae 3d
       0.028633056 0.06937681 -0.06431149 0.085077144
000240 29 ed 84 bd d6 ee 8e 3c 7f d7 ff 3d aa bd a5 bd
       -0.06490547 0.01744787 0.124922745 -0.08092816
000250 d5 f9 9d bd 9e 3d 86 3d af 6c ab 3d 37 4c 17 bc
       -0.07713667 0.06554721 0.08370339 -0.00923448
000260 df dd f6 bd e9 75 c7 bc 68 9a bc bd b6 91 e8 3d
       -0.12054037 -0.024348216 -0.09209138 0.11355917
000270 20 f9 ee 3d 5a 25 43 3b 42 0b 83 3c 84 28 63 bd
       0.116686106 0.0029776902 0.01599658 -0.05545856
000280 2c 44 91 3d 54 55 aa bd a2 2f e9 3c af a8 c3 3d
       0.07093081 -0.08317056 0.028465096 0.09553658
000290 b5 a8 8f bd ff 8e ad bd 9b fe 24 3d 92 96 47 3b
       -0.070146 -0.0847454 0.040281873 0.0030454737
0002a0 17 f0 01 bd f2 9b ab bd 99 a3 2a 3d 22 8c 5d 3c
       -0.03172311 -0.083793536 0.041659925 0.01352218
0002b0 67 9e 0c 3d 07 0c 70 bd 59 58 bc bd a8 1b 28 3d
       0.03433075 -0.05860522 -0.091965385 0.041042
0002c0 be 97 7c bd 78 97 ce 3d 41 4e cd bd 0d e5 6c bd
       -0.06166815 0.10087484 -0.100246914 -0.057835627
0002d0 72 0c 03 3d 9e 6f bc 3d a3 d1 cd bd 06 b1 04 3d
       0.03199429 0.09200977 -0.10049751 0.032395385
0002e0 2c 20 3d bd 84 05 7c 3c 22 b1 4b 3d ff 19 77 3d
       -0.04617326 0.015382174 0.049729474 0.060327526
0002f0 42 03 66 3d 70 c4 bc bd 61 14 6c bd f9 84 84 3d
       0.05615545 -0.09217155 -0.057636622 0.06470675
000300 00 f0 e0 bd 39 52 e1 3d 80 0c b4 bd e8 38 9e 3d
       -0.10983276 0.11002011 -0.08791447 0.07725698
000310 99 f8 d9 bc 7a 90 22 3c e7 19 65 3d 67 66 82 3d
       -0.026607798 0.009922141 0.055932906 0.06367188
000320 06 64 dc 3d 7c 10 fb 3d 37 8a 07 3d e1 74 75 3b
       0.107612655 0.122590035 0.033090796 0.0037453698
000330 c5 c3 1d 38 4d bb bd bc 96 b7 b3 3d 6f f1 ef 3d
       3.761404e-05 -0.023160601 0.087752506 0.11715972
000340 af a2 99 bd a5 41 a5 3d be b8 90 bd e1 4d f6 3d
       -0.075017326 0.08069161 -0.07066487 0.12026573
000350 d7 0f bf 3d 53 cd e2 3d 47 eb 87 bd 19 bd c5 bc
       0.09329193 0.11074319 -0.066366725 -0.02413802
000360 8a da ff 3c 76 2b 5e bd 36 95 c9 3d 29 16 f6 bd
       0.031232137 -0.054240666 0.09842913 -0.120159455
000370 5e 32 f4 3d b2 5d d6 3c 25 b5 22 bd 73 f5 eb bd
       0.11923669 0.026167724 -0.039723534 -0.11521425
000380 b8 50 f5 3d 87 ec 88 bc 0f d7 da 3d 42 0d 74 3d
       0.119782865 -0.016714348 0.106855504 0.059582956
000390 f7 30 4f bc f0 ac b0 3d 54 13 40 bd d0 f0 99 bc
       -0.0126459515 0.08626735 -0.046893433 -0.018791586
0003a0 84 2e d8 bd f2 29 a5 bd 3e 34 2f 3d 55 a3 ae bc
       -0.10555747 -0.08064641 0.04277443 -0.021318117
0003b0 bf 57 a0 3d d5 f1 92 bc a1 93 07 bd 28 67 d1 bd
       0.07829236 -0.01793758 -0.033099774 -0.102247536
0003c0 4d d6 e9 3d 01 68 75 3d 06 1a cb bd 3f cc e6 bd
       0.11417828 0.05991364 -0.09917073 -0.112694256
0003d0 c0 27 d0 3d 1b 67 f5 bd d5 94 87 3d 1e cb 10 bc
       0.10163832 -0.119825564 0.06620184 -0.008837489
0003e0 f0 9c b1 3d 30 20 87 3d 0b 86 86 bd 4c 3b 76 bd
       0.086725116 0.06597936 -0.065685354 -0.060115144
0003f0 c3 ef ba 3c 86 b7 73 3d ef 09 45 bb 87 47 a3 bc
       0.022819405 0.059501193 -0.0030065735 -0.019931568

transformer.layers.0.0.fn.fn.to_out.weight f4 [64, 64]
000000 a8 20 d2 bd 9f 1a 07 3d 70 69 af 3d 0c f9 aa 3d
       -0.10260135 0.032984372 0.085650325 0.08348283
000010 b8 13 6a 3c 44 12 e5 3c d5 43 e5 bd a0 a1 d8 bd
       0.014286928 0.027962811 -0.111945786 -0.105777025
000020 1b b2 0d 3d bd 6d 76 bd 3f 1e 88 bc b7 89 a5 bd
       0.034593683 -0.06016325 -0.016615985 -0.08082908
000030 b5 27 76 bd ba 73 07 bd a4 d2 66 bd 3f f5 e1 bd
       -0.06009646 -0.03306935 -0.056353226 -0.11033105
000040 01 4e 27 bd 92 bc f2 3d 5b af 48 bd 21 48 74 3d
       -0.040845875 0.11852373 -0.048995357 0.0596391
000050 9a b7 b2 3d bf f2 6f bd 56 41 e0 3c 2e 41 23 bd
       0.087264255 -0.05858111 0.027374905 -0.039857082
000060 c0 7c 19 3d 01 7f 84 bc af ef a7 bc 90 98 f1 bd
       0.037472486 -0.016173841 -0.020500032 -0.11796677
000070 32 d3 05 3d 92 91 c0 bd 7b b3 f1 bd 02 51 ef 3d
       0.032672115 -0.09402765 -0.11801811 0.11685373
000080 fe 19 8b 3c fc 6f a8 bd 68 ba 5d bd 46 c6 cd bd
       0.016980167 -0.08224484 -0.05413285 -0.10047583
000090 6d 8b 57 bd 31 f8 8a 3d c6 0f 5e bc a7 59 45 bd
       -0.0526232 0.0678562 -0.013553565 -0.048181202
0000a0 97 c6 15 bd 96 c1 d3 3d 53 a6 90 bd b5 70 c1 bc
       -0.036566343 0.10339658 -0.07062974 -0.023613313
0000b0 2d c2 dd 3d 74 8a 81 bd 46 6c c7 bc d9 aa 04 3d
       0.10828052 -0.06325236 -0.024343621 0.032389496
0000c0 5c 3e f1 3c 19 7c 94 3d 84 e0 06 3d 8e a2 f4 bc
       0.02944868 0.07250232 0.03292896 -0.029862668
0000d0 7d f5 c5 bd b3 92 f8 3c 84 11 57 bd 74 c5 e8 bc
       -0.09665964 0.03034339 -0.05250694 -0.028414465
0000e0 e2 5a e6 bd 32 74 e0 bd df cd 9f 3d 75 b5 94 bd
       -0.11247803 -0.109596625 0.07802939 -0.07261173
0000f0 b0 53 19 3d 1e 5e 9e bd d2 3f 0e 3d 55 e4 44 bd
       0.037433326 -0.07732795 0.034728833 -0.048069317
000100 d4 a9 da bd 37 51 d8 bd 9c 36 d7 3d f0 41 e4 3c
       -0.106769234 -0.105623655 0.10508463 0.027863473
000110 14 f7 fa 3c 12 c5 8f 3d 6f b7 d5 bb ee b6 f9 3d
       0.030635394 0.0702001 -0.006522111 0.12193094
000120 bb f2 d5 3d ac 58 f6 3d 25 ae 30 3d be 62 aa bc
       0.10446688 0.120286316 0.043134827 -0.020799037
000130 78 56 eb bd 24 cd 70 3d 25 cd fc bd 64 e8 e8 bd
       -0.11491102 0.058789387 -0.12343816 -0.1137245
000140 f3 bb 1e 3d 48 47 18 bd 51 59 43 bd 67 2f cf 3c
       0.03875346 -0.037177354 -0.0476926 0.025291158
000150 5a 0f dd bd b7 ba eb bd e7 ff 03 3d 33 44 9f bd
       -0.10793944 -0.115102224 0.03222647 -0.0777668
000160 df e2 04 3d be 9b ef bd 87 da f3 bd 8a a3 68 3b
       0.032442924 -0.11699627 -0.11906915 0.0035497868
000170 af 20 d3 bd 2c 37 85 bc 39 62 4f 3d 06 e9 26 3c
       -0.10308968 -0.01626166 0.05063078 0.010187393
000180 e1 6b ca 3d 57 68 80 3d 09 dd d7 bc f8 a1 4b 3d
       0.098838575 0.06269901 -0.026350515 0.049715012
000190 4b 5e b3 3d 7c cd b6 3d d4 94 ad bd b8 04 e8 bd
       0.08758219 0.08925912 -0.08475652 -0.11329025
0001a0 8c 5d 72 3d a4 1d 4d 3c b1 3a 30 bd 62 d8 4b bd
       0.059171245 0.012519274 -0.043024722 -0.049766906
0001b0 53 73 a5 3d 5d 10 82 3d c8 97 a4 3d c2 2a 2e bd
       0.08078637 0.06350777 0.080367625 -0.042521246
0001c0 51 fa f5 3d 10 fd b4 3d 61 23 21 bd f1 af 28 3b
       0.12010635 0.0883733 -0.03934038 0.0025739635
0001d0 d6 2c d9 bd 4a 80 f0 3c d7 68 dc bd 8d e0 a6 bd
       -0.10604255 0.029358048 -0.10762184 -0.081482984
0001e0 54 25 69 3d b3 62 01 3d f1 c8 65 bd f2 6d 1e 3d
       0.056920364 0.031588268 -0.056099836 0.03867907
0001f0 ab 8b 41 3d ba f6 a4 bd 67 3f ea bd 64 05 ec 3d
       0.04725234 -0.08054872 -0.11437874 0.11524466
000200 39 5b be bd f8 4a c6 3d 2d aa 34 bd e8 1a e1 bd
       -0.09294743 0.09682268 -0.044107605 -0.1099146
000210 7c bc ea 3d 90 ce 83 bb e1 99 66 bd 9d 5a ce 3d
       0.11461732 -0.004022427 -0.056299094 0.10075877
000220 66 23 1c bd 2e bc a8 3d ad 0b c4 3d 07 2c 8a bd
       -0.038119696 0.082390174 0.095725395 -0.06746679
000230 85 3e 42 3d c3 9b 05 3d 44 2e 2e 3d 29 7b 11 bd
       0.047422905 0.03261925 0.04252459 -0.035517845
000240 42 b3 a6 bc 3f 2f a5 bd 85 40 95 3d 65 e1 fd 3d
       -0.020349149 -0.08065652 0.07287697 0.12396506
000250 a8 9c 62 3d f8 e5 d7 3d e1 34 65 bd fa 3f ea bd
       0.05532518 0.1054191 -0.055958632 -0.11437984
000260 1e f8 84 3c 5a 4e 40 3d 0c 93 a3 bd 96 5e f9 bd
       0.016231593 0.046949722 -0.07987031 -0.12176244
000270 c4 dd c5 bd be 60 27 3d 73 78 20 bd 24 2a df 3d
       -0.09661439 0.040863745 -0.03917737 0.108967096
000280 92 24 93 3d 5a 99 60 3d db 30 b8 3d be 3e d7 3d
       0.071847096 0.054833747 0.089936934 0.10510014
000290 f6 17 bd bd d0 5a 15 bc 44 9c 7d bc 69 ac ac 3d
       -0.09233086 -0.00911589 -0.015479151 0.08431322
0002a0 56 ea 1c bd ad fc ee bd 48 60 b0 3d 55 02 46 bd
       -0.038309418 -0.11669288 0.08612114 -0.048342068
0002b0 fd d5 48 3c 0c 32 90 3d 0d 24 e2 bd 5f e6 fa bc
       0.01225805 0.07040796 -0.110420324 -0.030627428
0002c0 57 ff f1 3d 80 df 06 3d 2a 7b 4f bd b4 fb 9d bc
       0.1181628 0.03292799 -0.050654568 -0.01928506
0002d0 e4 ba ca 3d 1d fe a2 bd 53 fd b2 3d c6 8e c4 bd
       0.09898928 -0.079586245 0.08739724 -0.09597544
0002e0 2c 25 c8 3d 1d 2b 72 bd cc 8f d2 bd 01 6b e3 3d
       0.09772715 -0.059123147 -0.10281333 0.11104394
0002f0 39 2c da bd 10 6e f0 3d e6 93 a3 3c 45 33 d5 bd
       -0.10652966 0.11739743 0.019967984 -0.104101695
000300 83 0e e3 bb c8 89 7c 3d fb 5f 63 3d fa 51 e4 3d
       -0.00692922 0.061654836 0.055511456 0.11148448
000310 e4 08 eb 3d f9 9e c1 bd 69 ca 5b 3d f4 92 51 ba
       0.11476305 -0.0945415 0.05365983 -0.0007994615
000320 c2 d4 a0 bd 77 6c 73 bd 4b ae cb bd 74 d7 50 bc
       -0.0785308 -0.059429612 -0.09945353 -0.0127466805
000330 b9 91 fa bd b6 f1 b2 bd 14 0c cf 3d 35 e7 9b bd
       -0.12234826 -0.08737509 0.101097256 -0.076124586
000340 50 e0 c8 bd d4 aa 35 bd bb 14 13 3d e0 02 66 bd
       -0.09808409 -0.044352368 0.035908442 -0.056155086
000350 22 31 d5 bd 2a 07 bf 3d df 3c 23 bd d3 be d9 bd
       -0.10409762 0.09327538 -0.039852973 -0.106321
000360 10 e8 d7 3c ec 61 d0 3d 2f 60 5d bc 12 79 ac 3d
       0.026355773 0.10174927 -0.0135117015 0.0842153
000370 5f 01 3e 3d 66 8b 1e bd 0b e5 25 3d e1 06 00 be
       0.046388026 -0.03870716 0.040501636 -0.12502624
000380 d7 27 4d bd d6 bb fc bc 84 6f be bd 39 61 cd 3c
       -0.050086822 -0.030851286 -0.09298614 0.025070773
000390 86 a0 a5 3d 36 e4 b2 bd 53 8f bd bd 14 45 ad 3c
       0.08087258 -0.08734934 -0.092558526 0.021151103
0003a0 43 9e 0a bd f2 57 f4 bc 8d da a0 3d 9c 72 73 3d
       -0.033842336 -0.029827092 0.07854185 0.059435472
0003b0 30 8f cc 3d d0 d5 98 3d f0 84 41 bd 8e 01 0e 3d
       0.09988248 0.074626565 -0.04724592 0.03466945
0003c0 1a dc a6 bd 9c f2 72 bd fd 65 7f 3d cc 91 c7 bd
       -0.0814745 -0.0593134 0.062353123 -0.097446054
0003d0 8e 3b 7b 3d bd 20 c3 bd 86 f5 00 bd f6 1a 1f bd
       0.061336093 -0.09527729 -0.03148415 -0.03884407
0003e0 ce be 7b bd 59 15 b6 bd 0e df a8 3d 32 b1 c3 3d
       -0.061461262 -0.088907905 0.08245669 0.09555282
0003f0 25 91 ce 3d af c2 ca 3c 4f 69 fc 3d 59 6a 1d ba
       0.10086278 0.024751035 0.123247735 -0.0006004922

transformer.layers.0.0.fn.fn.to_out.bias f4 [64]
000000 cc 39 9f bd 2f 23 96 bd 1f e4 82 3d 29 22 9b bd
       -0.07774696 -0.073309295 0.06391167 -0.07574875
000010 ef dc ce 3c 2e b6 d3 bd 72 10 1e bd aa b4 9c 3c
       0.025251834 -0.103374824 -0.038589902 0.019129116
000020 c0 99 5d bc 70 08 84 bd 99 93 3d 3d d0 57 84 bd
       -0.013525426 -0.06446922 0.04628334 -0.064620614
000030 be e0 9b 3d 44 f3 91 bd 63 23 a2 3d 88 5e f3 3d
       0.076112255 -0.07126477 0.07916906 0.11883265
000040 18 28 de bd 5d 8a c9 3d 77 ea 37 bd 67 13 53 bc
       -0.10847491 0.09840844 -0.044901337 -0.012883044
000050 6b 4a c0 3d 5a dd bf 3d 27 14 b4 b8 62 f3 b1 3c
       0.09389194 0.09368391 -8.5868225e-05 0.0217225
000060 85 8a 8a bd 6b a2 31 bc 7a 5a e0 3d 32 c9 df 3d
       -0.06764702 -0.010841946 0.10954757 0.10927047
000070 4f 4a e1 3c 64 d4 0c 3e e6 7f 7f bd e6 8b 01 be
       0.027501253 0.13752896 -0.062377833 -0.12651023
000080 c0 6c 6d 3c 44 21 5b bd 10 26 45 3d 5d 1e 76 bd
       0.01449126 -0.05349852 0.048132002 -0.06008755
000090 db dd 81 39 4f e4 63 bc e5 dc e1 3d 14 ad a8 bb
       0.00024770093 -0.0139094135 0.110284604 -0.0051475856
0000a0 41 9e 80 3d 79 6d 58 bd 4b 22 bd 3d 04 4e 94 3d
       0.062801845 -0.052838776 0.092350565 0.07241443
0000b0 a5 45 a8 3b d5 92 ec 3d 39 63 d6 bc 54 4a c2 3d
       0.0051352554 0.115514435 -0.02617036 0.09486833
0000c0 70 b0 aa 3d 34 9b 52 bc 06 8d 6d 3d 5a 7b a2 39
       0.08334434 -0.012854386 0.05799582 0.00030990952
0000d0 8e 6c 87 3d c8 99 52 3d 99 60 b1 bd 71 f3 bd 3d
       0.06612502 0.05141619 -0.08661003 0.092749484
0000e0 67 8b 99 3c 98 c2 12 bc fe 9c b7 3d af 45 aa bd
       0.01874323 -0.008957528 0.08965491 -0.08314072
0000f0 49 e6 0d 3e 1c cf bc 3d 07 bf 40 3d c9 67 5d 3c
       0.13857378 0.092191905 0.047057178 0.013513514

transformer.layers.0.1.fn.norm.weight f4 [64]
000000 08 2b 80 3f 6c 0a 80 3f 14 16 80 3f 7e 3a 81 3f
       1.0013132 1.000318 1.0006738 1.0095975
000010 6b f7 7f 3f d9 31 7f 3f c8 67 7f 3f b3 4f 7f 3f
       0.99986905 0.99685436 0.9976773 0.99730986
000020 85 0e 7f 3f 3d 67 80 3f cb d6 7f 3f fb e8 7f 3f
       0.9963153 1.0031506 0.99937123 0.99964875
000030 0e 2d 80 3f 48 1e 80 3f 29 2d 80 3f b6 f8 7f 3f
       1.001375 1.0009241 1.0013782 0.9998888
000040 64 5d 80 3f 3a 02 80 3f 24 0d 81 3f 66 22 80 3f
       1.00285 1.000068 1.0082135 1.0010498
000050 2d 92 7f 3f 1d 78 80 3f 8b 66 81 3f 11 1e 80 3f
       0.9983242 1.0036656 1.0109419 1.0009176
000060 9b 8b 80 3f 4c 79 80 3f 2b dc 7f 3f 90 98 7d 3f
       1.0042604 1.0037017 0.99945325 0.99060917
000070 97 49 7e 3f ee 7c 7f 3f 97 f3 7d 3f 5c 75 7f 3f
       0.9933104 0.998 0.99199814 0.9978845
000080 60 29 80 3f b2 29 80 3f a2 38 80 3f 23 db 7f 3f
       1.0012627 1.0012724 1.0017283 0.9994375
000090 31 00 80 3f 93 d7 7f 3f 2f ec 7f 3f af 4f 80 3f
       1.0000058 0.99938315 0.9996976 1.0024318
0000a0 97 2c 7f 3f 09 cb 7f 3f 8d 07 80 3f 03 87 7f 3f
       0.99677414 0.9991918 1.0002304 0.99815387
0000b0 d6 03 80 3f e0 ad 7f 3f 22 9a 80 3f 87 38 7f 3f
       1.0001171 0.9987469 1.0047038 0.9969563
0000c0 2c 19 80 3f fb 3e 7f 3f b1 15 80 3f 81 ae 7f 3f
       1.0007682 0.99705476 1.000662 0.99875647
0000d0 f9 cc 7f 3f 83 bb 7f 3f 02 f4 7f 3f 59 62 7f 3f
       0.9992214 0.99895495 0.999817 0.9975944
0000e0 27 6e 80 3f 41 c1 7f 3f bc 4b 80 3f 21 f1 7f 3f
       1.0033616 0.9990426 1.0023112 0.9997731
0000f0 57 f4 7f 3f 81 1f 7f 3f 0e 4e 80 3f 7c cc 7f 3f
       0.9998221 0.99657446 1.002382 0.99921393

transformer.layers.0.1.fn.norm.bias f4 [64]
000000 cf bf 3b 3a 22 87 c7 3a 54 08 87 3b 60 21 7c bb
       0.00071620656 0.0015222768 0.004120866 -0.0038472041
000010 f4 5a b5 39 21 5e 11 3b 76 44 5e bb 06 02 03 3b
       0.00034590776 0.002218135 -0.0033915318 0.001999022
000020 f0 9f c6 3b 8f da 5a 3b 8b 5c 37 3b ff 94 6a 3a
       0.0060615465 0.0033394431 0.0027978744 0.0008948594
000030 d3 9f 54 bb 6f 70 0b bb 9f 66 0e 3b 1d cc 89 bb
       -0.0032443895 -0.0021276732 0.0021728647 -0.0042052404
000040 b9 83 02 3b cd 5f 8d b8 3c 34 c3 bb 39 25 46 3b
       0.0019914939 -6.741248e-05 -0.0059571546 0.0030234589
000050 fb 9a 90 3a 22 8a ae 3b 89 47 cc 3b e8 ff 84 3a
       0.0011032516 0.0053265253 0.0062341136 0.0010147067
000060 4e 99 57 3b c8 47 dc 3b c5 ba a9 ba f0 57 88 bb
       0.0032897773 0.006722424 -0.0012949338 -0.0041608736
000070 82 73 d7 3b fa 84 0b 3b e5 3e 02 3c 17 da 0e bb
       0.006575049 0.0021288977 0.007949566 -0.0021797472
000080 53 43 c3 bb 5f 73 df ba 28 0c ab ba 7e b2 4e ba
       -0.0059589534 -0.0017047933 -0.0013049887 -0.0007884874
000090 66 43 27 3a d5 06 4c 3a 73 db 43 39 a1 78 19 bb
       0.00063805876 0.00077830005 0.000186784 -0.0023417848
0000a0 cb 50 d4 3a e2 be 8f 3a 4d c3 a6 3a 24 54 c9 ba
       0.0016198395 0.0010966922 0.0012722999 -0.0015360159
0000b0 92 c3 35 bb 5a c2 b4 ba e8 a1 51 bb a4 20 ba 3b
       -0.0027734977 -0.0013790831 -0.0031987373 0.0056801606
0000c0 aa 87 a6 bb 09 1b 91 bb 4f 24 a9 ba 96 7c 1c ba
       -0.0050820904 -0.0044282717 -0.0012904498 -0.00059694925
0000d0 82 2d 07 3b be bc 84 ba 7a 4a 8a 3b 6a be eb ba
       0.002062649 -0.001012705 0.004220304 -0.0017985825
0000e0 c7 e3 98 bb 85 2e ed bb 5d e0 dd bb 20 4c a5 b9
       -0.004665825 -0.0072382116 -0.006771131 -0.0003152797
0000f0 e3 c6 5a bb 7d 91 79 bb 59 85 58 bb ee 26 9c bb
       -0.0033382706 -0.0038081103 -0.0033038466 -0.004765383

transformer.layers.0.1.fn.fn.net.0.weight f4 [128, 64]
000000 66 03 04 3e 4d ad 42 3d fc f3 f8 3c a3 c8 dc bd
       0.12891921 0.047528554 0.030389778 -0.10780456
000010 5d 20 31 3d 19 01 c1 bd b9 84 b2 bd 4d 92 7b 3d
       0.043243755 -0.094240375 -0.08716721 0.06141882
000020 e3 4b 98 bd b6 e2 f0 3d dd 87 f9 3b fa 6e 30 bd
       -0.07436349 0.11761992 0.007615073 -0.043074585
000030 1d b5 1b 3d f6 c6 54 bc f5 86 cd bd b1 b5 89 bc
       0.03801452 -0.012986889 -0.10035507 -0.01681027
000040 2b b1 f1 bd ec 1c 47 bd 97 eb f8 bd 5e 70 bb 3d
       -0.1180137 -0.048611566 -0.1215431 0.09152292
000050 dc ce 2c bc 33 6a 93 bd 14 f7 9f bd 96 0d 06 bd
       -0.010547366 -0.0719799 -0.07810798 -0.0327278
000060 db 9c e4 bc fa 2e 6d bd 80 c6 53 3d 34 96 3d bd
       -0.027906826 -0.05790613 0.051702976 -0.046285823
000070 c1 57 c7 3d e7 71 2b 3d 8e 5a 0f bd ad 16 8b 3d
       0.097335346 0.041856673 -0.03499847 0.067914344
000080 ad 03 f1 bd 88 ed d5 3d a2 5d cb bc 00 25 96 bb
       -0.11768279 0.10445696 -0.024824921 -0.0045820475
000090 e6 a9 a6 bd ab 17 a8 bd 41 eb f4 bd 06 1b ba 3d
       -0.08137874 -0.08207639 -0.119589336 0.090871856
0000a0 c4 da e5 3d 9c 83 2d bd ec 49 8c 3d ca 4a 93 bd
       0.11223367 -0.04236184 0.06850037 -0.07191999
0000b0 c6 75 4b 3b 5b a1 70 bd 96 90 34 bd ea c8 9e 3d
       0.003104554 -0.05874763 -0.0440832 0.07753165
0000c0 28 d9 6c 3d 21 e0 c7 bd d7 4d 3d 3d 39 57 36 bd
       0.057824284 -0.09759546 0.046216812 -0.044516776
0000d0 c8 79 42 3b 4a 6b 74 3b b7 a7 5b bd 8b 8f b1 bc
       0.0029674638 0.0037295395 -0.053626742 -0.021674892
0000e0 b2 20 89 bd 47 e1 96 bd e7 a3 e5 bd c9 b0 d4 3d
       -0.06695689 -0.07367187 -0.112129025 0.103852816
0000f0 bc 82 f8 3d a4 3b 37 bd fc 82 0e 3c 9d 5c 84 bd
       0.121343106 -0.044734612 0.008698221 -0.06462977
000100 cf 3c de bd 38 19 9f 3c 35 25 e3 bc 5e 9b 64 3c
       -0.10851442 0.019421205 -0.027727703 0.013953058
000110 62 7b d4 3d 2b 12 99 3d 2b 15 91 bd bd c9 be bd
       0.10375096 0.074741684 -0.070841156 -0.09315822
000120 67 6d 89 3c f8 f3 74 3c d9 5c 9c 3d 4b b7 3d 3c
       0.0167758 0.014950745 0.07634897 0.011579345
000130 2a e9 d0 bd 1d 2e ff 3d 47 0d 2c 3d ef 4f 83 bc
       -0.102007225 0.12459967 0.04200485 -0.016029326
000140 55 14 30 3d 25 aa af 3d 78 42 31 3d 66 f7 f9 3d
       0.04298814 0.08577374 0.04327628 0.12205391
000150 b3 98 27 bc a0 64 5a 3d 6f bb b2 bd 30 5e 6e 3d
       -0.010229277 0.05331862 -0.08727156 0.058195293
000160 e2 00 00 3e 5f dd d3 bd 24 53 47 3d ec bf c5 bd
       0.12500337 -0.103449576 0.048663273 -0.09655747
000170 d4 b2 ef bd 73 9a a5 3c 68 18 eb 3c e8 ea e7 3d
       -0.11704031 0.020215249 0.028698161 0.11324102
000180 02 62 33 3d 38 45 66 3d 47 10 a6 3c b3 74 40 bd
       0.04379464 0.056218356 0.020271434 -0.046986293
000190 ba 98 a2 3b af fe ac bc 90 3a f8 bd c3 32 7c 3c
       0.004962054 -0.021117536 -0.12120545 0.015392962
0001a0 03 87 4a bd 1b bf 00 be c3 5a 91 bc 92 79 2c 3c
       -0.049445163 -0.12572901 -0.017743474 0.0105270315
0001b0 5b b7 39 ba a3 0a cc bd 64 06 c7 bd 95 47 4c 3c
       -0.0007084512 -0.09962966 -0.09718016 0.012468238
0001c0 37 32 46 3d 53 3b a6 3c cd c1 0c bd 26 85 be 3d
       0.048387732 0.02029196 -0.03436451 0.0930274
0001d0 20 d5 b1 3d f7 03 3f 3d 26 56 fb bc b5 1f 8a bd
       0.086832285 0.04663464 -0.030680727 -0.06744329
0001e0 ce e8 ad 3d 69 82 b9 bd c9 45 a0 bd d5 c1 4c 3d
       0.084916696 -0.09058077 -0.078258105 0.04998954
0001f0 35 68 c3 bb 43 32 e7 bd e3 7a fb 3d ae be be 3b
       -0.00596335 -0.112888835 0.12279298 0.0058210706
000200 eb 7c be 3d 65 af 5e bd c9 50 51 bd 26 35 f2 bc
       0.0930117 -0.054366488 -0.051102433 -0.029566359
000210 8a 11 64 bd 08 71 1b 3d a9 05 b1 bd 3b 6e 8f 3c
       -0.05568079 0.037949592 -0.08643658 0.017508617
000220 9e 63 ba 3d 90 b7 7e bd 3e f3 05 3c e2 de 61 bc
       0.09101032 -0.062186778 0.008175669 -0.01378605
000230 fa 85 71 38 a5 8c 96 bb a8 07 dd bd 6a cc ec 3c
       5.7583653e-05 -0.004594403 -0.10792476 0.028906066
000240 f2 82 c8 3d c6 d9 36 3c 28 b0 e2 3d 72 59 e4 3b
       0.09790601 0.01116032 0.110687554 0.0069686705
000250 22 e2 b0 bd fc ec ea 3c 2a cc f3 3d 71 36 db 3d
       -0.086368814 0.028677456 0.119041756 0.10703743
000260 de 2b 25 3d 38 1b ea bd 4d fb f1 bd 8c 44 49 bd
       0.040325038 -0.11430973 -0.1181551 -0.049137637
000270 4b f4 46 3c 7d 21 ea bd c2 a8 c4 3d 66 d7 de 3d
       0.012143205 -0.11432169 0.096025005 0.10880928
000280 69 03 a6 3d ff f1 5a 3d 13 7a 2a 3d 4f 4c 89 3d
       0.08106119 0.05345344 0.041620325 0.06704008
000290 8c 45 af 3d 3a ab d6 bd 1c a9 a6 3d 6b f1 fb 3d
       0.08558187 -0.104818776 0.08137724 0.12301906
0002a0 58 96 0c 3d 19 9c b5 3c 7e 23 d7 bd 11 70 4e 3d
       0.034323066 0.02216916 -0.105048165 0.050399844
0002b0 0a a7 c9 3d 35 74 c2 bd 06 9a c8 3d 6d c3 a5 bd
       0.09846313 -0.09494821 0.09795003 -0.08093915
0002c0 c7 6e a7 3b b1 3e d8 bd 33 6f ab bd 00 d7 3b 3b
       0.0051096412 -0.105588324 -0.08370819 0.0028662086
0002d0 a5 11 8b bd 1a 96 8d bd b2 b0 26 bc cb c6 d8 bd
       -0.06790475 -0.06913395 -0.010173963 -0.10584792
0002e0 e3 1d 04 bd 35 25 c8 bd 61 49 4c 3d 51 59 e1 bc
       -0.032255065 -0.09772722 0.049874667 -0.02750841
0002f0 b5 74 a9 3d ba 0c 8b 3d 75 7d e9 bd bc c9 db bc
       0.08274213 0.06789537 -0.11400882 -0.026829593
000300 08 80 cd 3d 15 fc 95 bd b0 6a d3 3d 59 d4 82 3d
       0.10034186 -0.073234715 0.103230834 0.06388158
000310 4e 94 8d bd 18 6e 1b bc 67 d2 13 3d 19 3c ea bd
       -0.069130525 -0.009486698 0.036089327 -0.11437244
000320 98 9a 28 bd 11 1f cf ba c2 52 90 3d e0 73 48 bd
       -0.041163057 -0.0015802105 0.07047035 -0.048938632
000330 56 d0 cb bd 94 00 c4 bd f8 2e 1f 3d e8 b0 7b 3d
       -0.09951846 -0.09570423 0.038863152 0.061448008
000340 25 12 3a bc 63 75 1c 3b 8b eb ad 3c c7 75 09 3d
       -0.011356865 0.002387368 0.02123048 0.033559587
000350 e1 68 8e bd e2 71 cf bc cd 53 37 3d e7 94 aa bd
       -0.06953598 -0.025322858 0.044757653 -0.08329182
000360 fc c0 cc 3d df 54 66 3d a2 f2 cc bd ce 80 b0 3c
       0.09997746 0.056233283 -0.10007216 0.021545794
000370 1c b1 93 bd 9f 57 3f bd 4e c8 44 bb 7b 9e b2 3c
       -0.07211515 -0.04671442 -0.0030026617 0.021804085
000380 c6 eb e2 3d 25 a5 ee bd e7 6a 45 3d cb 2b 8a bd
       0.110801265 -0.116525926 0.048197653 -0.06746634
000390 a7 94 17 3d 0a a0 a6 3d de 5c 45 3d be b2 cc 3d
       0.037007 0.08135994 0.04818427 0.0999503
0003a0 d0 52 da 3d 53 02 a9 bd e7 00 be 3d a1 70 13 3d
       0.106603265 -0.082523964 0.09277516 0.035996083
0003b0 9e f3 c5 bb c5 65 e7 bc 9f 60 e4 3d ab b7 26 3d
       -0.0060410043 -0.02824677 0.111512415 0.040702503
0003c0 29 98 ab 3c 5f 27 e4 3d 75 bd 02 3c 13 45 d2 bd
       0.020946579 0.11140322 0.00797974 -0.10267081
0003d0 d3 76 cf 3c 5c 29 05 3a 56 10 ac bd ad 80 f1 bd
       0.025325214 0.00050797104 -0.08401553 -0.11792121
0003e0 bb 27 fb 3d 8f e2 f9 bd 5d 74 e8 bc 6c d9 c1 bd
       0.12263437 -0.12201416 -0.028375799 -0.09465298
0003f0 ac b8 11 ba d0 d0 7d bd 04 27 c9 bd b5 09 62 bd
       -0.0005558829 -0.061966717 -0.09821895 -0.05518504

transformer.layers.0.1.fn.fn.net.0.bias f4 [128]
000000 66 a3 83 39 9b cf 5a bc 5e d4 f7 bb bf d0 fd bd
       0.00025108008 -0.013355161 -0.007563158 -0.12393331
000010 e7 7e f0 3d 24 6b 13 bd 8d 45 dd bd 81 75 81 3d
       0.11742955 -0.03599085 -0.108042814 0.0632124
000020 fc d1 e3 bd 9a 59 a9 3d 70 5e e8 b9 70 74 ff bd
       -0.11124036 0.08269043 -0.0004432085 -0.124733806
000030 90 27 bb 3b 10 83 39 bc cd c2 a3 ba d1 f2 a9 3d
       0.0057115033 -0.011322752 -0.0012493968 0.08298267
000040 d6 c2 05 bd ed 88 d3 3c f5 5b c3 3d 6a 69 cf 3d
       -0.032656513 0.025822127 0.09539024 0.10127528
000050 3a bc cf bd 1c 08 1d bd f7 c3 2e bd 94 4f de bd
       -0.10143323 -0.03833781 -0.042667355 -0.10855022
000060 d3 6f 40 bd c1 54 b3 3d 4a 76 43 bb 85 0a bb bd
       -0.046981644 0.087564 -0.0029825144 -0.09132866
000070 6f 9f ee 3d a1 e0 19 bd 0b 70 ef bc de 45 e2 3d
       0.11651503 -0.03756774 -0.029228231 0.11048482
000080 06 e1 7f 3d 54 20 bd bd ec f3 fa b9 14 24 41 bc
       0.06247046 -0.09234682 -0.00047865452 -0.011788387
000090 24 a8 98 3d 89 c1 91 3d 48 63 f9 3b 3a 23 87 3b
       0.07453945 0.07116992 0.007610712 0.0041240724
0000a0 7e 8f ba bd a3 0c 47 b9 0a 4e ce 3d 21 63 3d 3d
       -0.091094 -0.00018982826 0.100734785 0.046237115
0000b0 22 54 eb 3d ed 2c 8f 3d f3 30 3f 3d cd a3 90 3d
       0.114906564 0.06990991 0.04667754 0.070624925
0000c0 09 25 6f 3d a6 bb c7 3d 01 17 d1 bd eb 4f 98 3d
       0.05838493 0.09752588 -0.10209466 0.07437118
0000d0 94 7d b9 3d fe 5c 6d bd 20 c0 05 3d 91 ee f5 3c
       0.09057155 -0.057950012 0.032653928 0.030020984
0000e0 5e 37 af 3d d7 04 87 bc da 02 f6 3d 10 0a ae bd
       0.08555482 -0.0164818 0.12012263 -0.08498013
0000f0 7d af 0d 3d ba 16 3e bd 6b 09 d3 bd c9 8e b0 bd
       0.034591187 -0.046408392 -0.10304531 -0.08620984
000100 3a b1 a8 3d b6 bb df bd bd f6 8d bd 00 28 f1 3d
       0.08236928 -0.10924475 -0.06931827 0.117752075
000110 8e 6c ac bd 2e 5e 47 3d 1d 15 bd bd 67 9e 91 3d
       -0.08419143 0.0486738 -0.09232543 0.07110291
000120 73 7a be 3d ce 71 83 bd 1c f9 10 3b 21 6b a8 3d
       0.09300699 -0.06418191 0.0022121137 0.08223558
000130 7d 61 f7 3d ac 47 ce bd 7b 27 13 bd 7d f3 35 3d
       0.12079141 -0.10072264 -0.035926323 0.04442166
000140 12 50 a1 3d df d4 e6 bc c6 42 06 bd 9d 35 62 bd
       0.078766 -0.028177677 -0.032778524 -0.05522691
000150 14 b1 3e bc 50 c9 c9 3d f0 5f f5 bb 1f e7 fb 3d
       -0.011638898 0.098528504 -0.0074882433 0.12299942
000160 72 0f de 3d a9 9f bb bd 7c 10 c2 3d 60 dc 74 bb
       0.1084279 -0.09161312 0.094758004 -0.00373628
000170 7b d8 36 bc 78 97 16 bb 47 22 16 bd a1 21 99 3c
       -0.011160011 -0.0022978466 -0.036653783 0.018692793
000180 74 50 90 3d 17 93 21 3d ee f2 eb bd 95 60 98 bd
       0.07046595 0.039446916 -0.115209445 -0.074402966
000190 3e 08 85 bd 8e 00 fc bc 44 96 87 3d 08 cf bd 3d
       -0.06495713 -0.030761983 0.06620458 0.09268004
0001a0 c3 f7 11 3d 78 10 6b 3d e1 d8 1e bd cf d3 1e bd
       0.035636675 0.057388753 -0.03878105 -0.038776215
0001b0 23 97 92 3d 95 10 1f 3d 14 fb cf 3d 48 f4 dd 3d
       0.07157733 0.038834173 0.10155311 0.108376086
0001c0 ff e4 f2 bd 1a b1 15 3c 58 33 55 bc 28 94 e7 bd
       -0.11860084 0.009136463 -0.01301273 -0.113075554
0001d0 6b ce 9e bb dc 7f 86 3c 3b bd f5 bd 8a 26 89 3b
       -0.0048463843 0.01641839 -0.119989835 0.0041855024
0001e0 c9 0b af 3d 73 23 91 bd f8 f0 4b bd 26 07 41 bd
       0.0854717 -0.070868395 -0.049790353 -0.047125958
0001f0 e5 bd b3 bc 04 c6 b1 3d 47 76 dd 3d d9 e3 ed bd
       -0.021941135 0.086803466 0.10813575 -0.11615724

transformer.layers.0.1.fn.fn.net.2.weight f4 [64, 128]
000000 53 fe 4a 3d e9 f7 ba ba 3b 92 73 3d c7 12 0e 3b
       0.04955895 -0.0014264557 0.059465628 0.0021678673
000010 e6 f0 64 3d 5a 75 4f bd ae d8 84 bd 12 fb 82 3d
       0.0558938 -0.050649025 -0.06486641 0.06395544
000020 bc b6 57 bd d0 7b 6f 3c 63 86 c9 bb 9c 62 07 bd
       -0.052664503 0.014616922 -0.0061500533 -0.033053026
000030 a0 20 c8 3c df e0 7e 3c 79 cb a3 bb dc 42 ab bc
       0.02442962 0.015556543 -0.004998621 -0.020905904
000040 98 52 42 3c 61 d0 70 bd 01 ff 85 bb b7 23 03 bd
       0.011860512 -0.058792476 -0.0040892367 -0.032016482
000050 5f 1f 81 3c fd da 6a bd c9 13 4e b7 8a 7b 30 3d
       0.01576203 -0.05733775 -1.2283163e-05 0.043086566
000060 f6 61 a2 bd 93 a6 a1 3d a6 16 6c bd b8 d8 6c 3c
       -0.07928841 0.078931 -0.057638787 0.014455967
000070 15 7d de 3b 93 a5 72 bd 25 de 79 bd a9 1c 2b 3d
       0.0067898133 -0.059239935 -0.06100287 0.04177538
000080 fe 89 3d 3d c1 63 42 bd 95 2b 47 bd f6 d2 06 3d
       0.046274178 -0.047458414 -0.048625547 0.03291603
000090 3f a5 dd bc b8 2f ae 3c 88 35 86 bd 7d 14 90 3b
       -0.027056335 0.021262988 -0.06553179 0.0043969736
0000a0 45 c8 e7 3c de 70 24 bc ee c6 a3 3d 02 12 88 3d
       0.028293738 -0.010036675 0.07996927 0.0664406
0000b0 79 f4 04 bc ac c2 38 bc f6 9e 51 bd 08 e0 98 bd
       -0.008114927 -0.011276882 -0.051176988 -0.074646056
0000c0 e3 f2 11 bd 2c a7 82 bd f7 79 34 3d 98 c7 6f 3d
       -0.035632025 -0.06379542 0.044061627 0.058539957
0000d0 e2 49 ae 3d e2 20 4f 3a 12 f6 91 bd 8e d3 a7 3d
       0.08510186 0.0007901323 -0.07127012 0.08194648
0000e0 cd fe 7c bd 5b 58 24 3c d6 8f 79 3d 09 ef 03 bd
       -0.061766434 0.010030831 0.06092819 -0.032210384
0000f0 57 4a 53 3c ed 54 f3 bc ba f1 fa bc 1b 6e 04 3d
       0.012896142 -0.029703582 -0.030632842 0.032331567
000100 17 c0 1c bd 40 0d cc bd d6 d8 91 bd 51 22 37 bd
       -0.03826913 -0.09963465 -0.07121436 -0.04471046
000110 5f 92 30 3d a4 fe a7 bd b2 ca b4 bb 33 3e 7e bc
       0.04310834 -0.08202866 -0.005517327 -0.015517759
000120 11 da 13 3d 33 aa 82 bd f1 65 82 3d 39 36 ab 3d
       0.036096636 -0.06380119 0.063671 0.083599515
000130 e5 38 90 3c 3d dd 71 3c 04 98 94 3c 8c 39 9c bd
       0.017605254 0.01476222 0.018138893 -0.07628164
000140 cb 94 6e bd 52 e0 97 bd 0e b7 4a bd 39 39 98 3d
       -0.05824737 -0.074158326 -0.04949098 0.07432789
000150 7d 8a 2b bd 95 dd 5f 3d 3c 62 a2 bb 81 f6 e1 3b
       -0.04188012 0.054654676 -0.004955558 0.0068958406
000160 e0 54 59 3d a7 2a 09 bd 32 dc 83 3c 8c 53 1b bd
       0.05305946 -0.033487942 0.016096208 -0.037921473
000170 87 47 94 3d 1a b4 67 3d 24 4f 8c 3b 93 cc 08 3d
       0.07240205 0.056568243 0.0042818952 0.033398222
000180 b9 e8 35 bc 2c 2f c1 bd cb 44 98 bd 71 8b a6 3d
       -0.011102849 -0.094328254 -0.07434996 0.08132065
000190 8a 4a 96 3d 71 69 93 3d c3 05 ab bd ea 80 e7 bc
       0.07338436 0.07197846 -0.08350708 -0.028259713
0001a0 8b be 5c bc 16 e4 44 bc 85 cf 07 bd 74 e2 a3 3c
       -0.013473163 -0.012017271 -0.03315689 0.020005442
0001b0 55 54 8c bd ed 7e db 3b 0d fd 4e bd 3b de ad bd
       -0.068520226 0.0066984803 -0.050534297 -0.08489653
0001c0 3a 1b 64 bd 84 f5 84 3d ab 21 b0 bd 80 cb 9a 3c
       -0.055690028 0.06492141 -0.08600172 0.018895864
0001d0 aa 67 ca bb 21 de 50 bc be d4 a9 bd d2 24 17 bb
       -0.0061769085 -0.012748272 -0.082925305 -0.0023062718
0001e0 34 44 4d bc 10 f6 5e 3c 81 ae a8 bd 3a 74 48 bd
       -0.012528468 0.013608471 -0.08236409 -0.048938967
0001f0 40 eb a3 3d 79 7c 85 bd 8d 05 41 3d f0 ac ab 3d
       0.08003855 -0.06517882 0.047124434 0.083825946
000200 53 70 e2 3b 72 bd 7f bd a6 a8 98 3d e4 4d 83 bb
       0.0069103627 -0.06243653 0.07454042 -0.004007088
000210 bf 92 c2 ba 62 6e b6 bc f2 ba 1c bd a4 f6 8a 3d
       -0.0014844759 -0.022269432 -0.038264222 0.06785324
000220 c1 66 88 3d 98 38 4b 3d 28 78 9c bd 0f 64 53 3c
       0.06660224 0.04961452 -0.076401055 0.012902274
000230 9f 3d 7d 3d d5 18 3a 3d 5f 34 27 bd d2 d6 99 3d
       0.061826345 0.045433838 -0.04082143 0.07511677
000240 4b e7 98 bc ab 6e 6b bd 9d ee 94 bd ef 48 22 3d
       -0.018664977 -0.057478588 -0.07272074 0.039620336
000250 8d ce 7b bd 66 de 2a 3d 51 13 06 ba 0c 5e 9d 3d
       -0.06147628 0.041716002 -0.00051145727 0.07683954
000260 fa 86 2c bd 78 88 8f 3d 20 9d d0 bc 6d 10 c7 3c
       -0.04212091 0.07008451 -0.025465548 0.024299825
000270 57 e9 7b bd a2 5b 8b bc 63 30 12 bd 06 7e 6b 3d
       -0.061501827 -0.017011467 -0.035690676 0.057493232
000280 ed 26 09 bc 7b 47 0c bd f9 c5 75 bc 5f 1d 32 3d
       -0.008371097 -0.034247857 -0.015000814 0.04348504
000290 0e b2 7f bd f6 56 92 3c f1 f5 0e bd 55 af 20 3d
       -0.062425666 0.017863732 -0.034902517 0.03922971
0002a0 94 3c 29 3d b1 0b 83 bd 2b 34 54 3d 83 6e c9 3c
       0.041317537 -0.06398714 0.051807564 0.024588829
0002b0 12 54 13 bd aa 66 8d bc 63 5c 59 3d 48 49 94 bd
       -0.035968848 -0.017260868 0.053066622 -0.0724054
0002c0 ad 60 41 bd 0b 67 9c 3d 37 dc a5 3d aa 6f 9d bc
       -0.047211338 0.076368414 0.08098643 -0.019218285
0002d0 54 ee 03 3d 57 20 ab 3c 42 47 26 bd 94 ac 2e bc
       0.03220971 0.020889444 -0.0405953 -0.010661263
0002e0 1e c5 2f bc db 4e 70 bd 81 52 88 3d 28 a3 00 bd
       -0.010728149 -0.058668952 0.06656361 -0.031405598
0002f0 ef 02 10 bd e3 26 1c 3d 54 92 04 3c 68 28 7b 3d
       -0.035159048 0.038123023 0.008091528 0.06131783
000300 ed 2f 22 bd ce 96 2f bb 7c 28 41 3d 54 72 cd bc
       -0.039596487 -0.0026792767 0.04715775 -0.02507893
000310 6e b7 05 3c ee b8 86 3d 74 20 dd 3c 4d dd 5f 3d
       0.008161409 0.06578241 0.026993014 0.05465441
000320 5a 1f ad bd 09 2c 37 bd 6d 41 97 bd 3e 85 9e 3d
       -0.084532455 -0.04471973 -0.07385526 0.07740258
000330 19 3a 0a bd fe 12 09 bd e5 f4 7e 3d 3b bc 99 3c
       -0.033746812 -0.033465378 0.06224527 0.018766513
000340 7b 75 0f 3d 3d 9c 42 3d 27 4b f5 bc 87 30 d3 3c
       0.035024147 0.04751228 -0.029943062 0.025779976
000350 4f 07 ab 3b 75 cc 24 bd 3b 4d ca bc 7f 5e 14 bd
       0.005219377 -0.040234048 -0.02469503 -0.03622293
000360 9d f4 39 3c ce 97 54 3d b9 66 35 bc a6 ef 85 bd
       0.011349824 0.051902585 -0.011071854 -0.0653985
000370 8a 9e c1 bb 82 55 96 3d cd 31 d7 bc 52 19 a7 bd
       -0.005908792 0.07340528 -0.026268864 -0.08159126
000380 ca 81 9a bd f5 1d 39 bd 31 d5 11 bd 44 d2 4c 3d
       -0.075442865 -0.045194585 -0.035603706 0.050005212
000390 23 d4 cd 3c 9b 29 8b bd 27 95 9f bd 10 57 e2 3c
       0.025125569 -0.06795045 -0.077921204 0.027629405
0003a0 6b c6 84 bd e1 66 53 bd 27 60 55 3c 12 be 83 3d
       -0.06483158 -0.051611785 0.013023413 0.064327374
0003b0 2f 87 84 bd d7 9f 9a bd c2 42 33 3d 8b 7b 70 3d
       -0.06471097 -0.07550018 0.043764837 0.05871157
0003c0 c8 d7 4f bb 83 d3 7c bd 3a 42 43 bd 80 8f 10 3b
       -0.003171431 -0.06172515 -0.04767058 0.002205819
0003d0 83 14 38 3d 34 7a 60 bd b8 25 47 3d 58 f7 6e bd
       0.044941436 -0.054804042 0.048619956 -0.058341354
0003e0 aa 9e b3 bd 2e 4a c2 bc 68 af 0a bd 28 f4 99 bd
       -0.08770497 -0.023717012 -0.033858687 -0.07517272
0003f0 3c 7b 63 bc 51 c7 c7 bc bd fa 99 3c ae 1b 67 bd
       -0.013884362 -0.024387034 0.01879632 -0.05642288
