model_training/trained_models/model_30.pth (torch, 453160 bytes, 18 tensors)

pos_embedding f4 [1, 1025, 64]
1.9002348 1.4463644 0.87619835 -2.1030397 0.6440418 -1.1882571 -0.061664008 -1.6018817
-0.6735449 1.6065044 -0.42942718 -1.3790733 -0.6917401 -0.51218736 -0.7108042 0.75016034
1.6225287 -0.12772837 -0.42844063 0.4746285 -0.7391942 1.0179265 0.80974185 1.666636
1.232473 1.2810655 0.6250838 1.2767136 -0.24126247 0.033454895 -0.2610912 0.82840425
-1.3973076 -0.83169407 -0.20697364 1.666563 0.21830738 -0.45680174 0.36407807 -0.7737871
-1.5088918 0.9717523 -0.8566197 -0.5891295 -1.2177141 2.0882442 -1.2655528 -0.45826086
-0.9604492 -0.61683846 0.09053777 0.49261683 -0.4630404 1.1850728 -0.832658 -0.72025293
-1.3563576 0.04484531 -0.03143575 0.6369151 -0.079325676 1.8228076 -1.1654027 1.3445672
1.4461498 0.84223825 2.2548018 0.53658485 0.35977733 -0.18014432 -1.0527233 1.2825253
-0.19887829 0.51575154 0.06476058 0.43651274 0.5802911 -0.6789581 -2.2689688 -0.7758715
0.021436937 -0.35365576 -1.372737 -0.58124334 0.54358095 0.53293455 1.1846832 0.030692773
0.7587003 -0.49939817 -1.0535023 0.61623454 -1.7272656 -0.85552275 1.3731401 0.4831915
-2.5514026 0.50372976 0.8090822 -0.020812778 0.63726497 0.5894419 1.0766575 -0.44958463
-0.18927784 0.76171 0.41340908 0.17732598 0.25125867 1.2741338 0.008899721 -0.32093698
-1.496221 -0.11141756 -0.6219325 0.4584027 0.71646607 0.10442826 -0.37983274 0.53611827
-0.0062543643 0.23632036 0.136595 0.78366756 1.1300122 0.34498537 0.71992224 0.40738893
1.9320831 1.00722 -1.4451163 -1.1351098 -0.10098727 1.6611632 0.6646162 0.5688944
1.1273516 -0.0032238888 -1.8428841 0.9537316 -0.37032363 1.0275759 -0.68531775 0.6362037
-1.0012887 0.9887773 1.6422205 1.4667351 0.25208563 -0.20582004 -0.72385633 0.08257556
0.3501073 0.96845144 -0.46263906 1.628229 -2.4853978 -0.4254409 -1.1883837 0.8114512
-1.9008219 0.24133044 0.023591792 -0.36715063 0.2817936 -0.7381684 0.17217304 -1.1096365
-1.6226206 1.350072 1.3222625 0.053779084 -1.599183 0.75256276 0.7901743 2.0245821
0.029829355 0.120425865 -0.83746094 -0.22989762 -0.95517814 -1.6043037 -1.1192781 -0.52664393
-0.5081705 -1.5429109 -1.9462415 0.13208614 1.0849792 -0.5558647 0.7045065 0.7095774
1.7838883 -0.95734066 0.9676473 -0.32395172 -1.1727468 0.35752812 0.49072593 1.3640383
0.5066624 2.1121776 -0.51800734 -0.94749445 0.13530196 1.0648803 1.3265738 0.45058656
-0.82711977 -1.0326787 -0.50340927 -0.5890168 0.12348086 0.44362724 -0.12584044 -2.4045684
-0.39590514 1.096127 -1.7863255 1.5351826 0.3095985 -0.5242303 1.0484853 1.6942233
0.0083801625 1.6868713 0.16381988 -1.1247375 -0.57924616 0.08038692 0.39757696 2.02724
-0.085403495 -0.9248872 -2.0548053 -1.0885319 -0.0039931387 0.080324754 0.20124981 0.412805
-0.95722294 0.28068984 -0.55702186 0.4514791 -0.885878 -0.01806386 -0.36966276 1.4856194
1.2857937 -0.7322678 0.86673516 0.5263968 0.5624506 0.5804156 0.5007186 0.21430393
00000000: e53a f33f 7822 b93f 894e 603f 3498 06c0
00000010: ecdf 243f cf18 98bf 6693 7cbd 760a cdbf
00000020: 706d 2cbf f0a1 cd3f e1dd dbbe 7985 b0bf
00000030: e115 31bf b61e 03bf 44f7 35bf 820a 403f
00000040: 05af cf3f 3acb 02be 925c dbbe 8202 f33e
00000050: d53b 3dbf 6a4b 823f 3e4b 4f3f 5454 d53f
00000060: adc1 9d3f f4f9 a33f 7e05 203f 5a6b a33f
00000070: 820d 77be 0008 093d bfad 85be 4d12 543f
00000080: fada b2bf e7e9 54bf e6f0 53be f051 d53f
00000090: f88b 5f3e ebe1 e9be 7168 ba3e e916 46bf
000000a0: 5e23 c1bf c2c4 783f 6e4b 5bbf 31d1 16bf
000000b0: 0ede 9bbf cba5 0540 a2fd a1bf 2ba1 eabe
000000c0: 00e0 75bf 20e9 1dbf de6b b93d 4638 fc3e
000000d0: a213 edbe 77b0 973f 1329 55bf 7f62 38bf
000000e0: 209d adbf b7af 373d c6c2 00bd de0c 233f
000000f0: 8075 a2bd c251 e93f ea2b 95bf c71a ac3f
00000100: 701b b93f ed9c 573f ac4e 1040 a05d 093f
00000110: bc34 b83e c177 38be a3bf 86bf ca29 a43f
00000120: c0a6 4bbe 4b08 043f 32a1 843d 997e df3e
00000130: f58d 143f 33d0 2dbf c936 11c0 849f 46bf
00000140: 849c af3c 5e12 b5be d9b5 afbf 5dcc 14bf
00000150: 1f28 0b3f 666e 083f b3a3 973f 696f fb3c
00000160: 2f3a 423f 1eb1 ffbe 2ad9 86bf 8cc1 1d3f
00000170: 0a17 ddbf 8a03 5bbf 0ec3 af3f e064 f73e
00000180: 2e4a 23c0 6ff4 003f 0320 4f3f 8f7f aabc
00000190: cc23 233f aae5 163f eacf 893f f52f e6be
000001a0: 0dd2 41be 6dff 423f 5baa d33e f194 353e
000001b0: faa4 803e d116 a33f 23d0 113c da51 a4be
000001c0: 2b84 bfbf e42e e4bd f836 1fbf c2b3 ea3e
000001d0: 526a 373f 7cde d53d 7079 c2be 0c3f 093f
000001e0: 69f1 ccbb f7fd 713e 8fdf 0b3e 709e 483f
000001f0: 3da4 903f eca1 b03e d34c 383f 4895 d03e
00000200: 804e f73f 96ec 803f 92f9 b8bf 474b 91bf
00000210: 6ad2 cebd ffa0 d43f 4a24 2a3f 10a3 113f
00000220: 0f4d 903f e147 53bb a0e3 ebbf c127 743f
00000230: 0f9b bdbe 9b87 833f fc70 2fbf 3fde 223f
00000240: 3a2a 80bf 8220 7d3f 4834 d23f fabd bb3f
00000250: 5e11 813e 7dc2 52be a64e 39bf 601d a93d
00000260: 4441 b33e 6fec 773f 07df ecbe cf69 d03f
00000270: c210 1fc0 64d3 d9be f51c 98bf 44bb 4f3f
00000280: 224e f3bf 541f 773e 9343 c13c 2bfb bbbe
00000290: 4047 903e 9bf8 3cbf 214e 303e 9208 8ebf
000002a0: 08b2 cfbf 29cf ac3f e63f a93f 7547 5c3d
000002b0: 07b2 ccbf f4a7 403f dd48 4a3f c192 0140
000002c0: b15c f43c d6a1 f63d d763 56bf 486a 6bbe
000002d0: 8e86 74bf d359 cdbf 8144 8fbf 23d2 06bf
000002e0: 7617 02bf 1b7e c5bf 711e f9bf 9741 073e
000002f0: 99e0 8a3f 264d 0ebf 8a5a 343f dda6 353f
00000300: 7456 e43f 4714 75bf bcb7 773f 00dd a5be
00000310: 911c 96bf ed0d b73e 6e40 fb3e cf98 ae3f
00000320: a1b4 013f eb2d 0740 219c 04bf ff8e 72bf
00000330: 998c 0a3e ff4d 883f 2ccd a93f 48b3 e63e
00000340: 1fbe 53bf d12e 84bf 6edf 00bf cec9 16bf
00000350: 88e3 fc3d 1c23 e33e 51dc 00be 73e4 19c0
00000360: 14b4 cabe e44d 8c3f 50a6 e4bf dd80 c43f
00000370: b283 9e3e f533 06bf c434 863f 4fdc d83f
00000380: f34c 093c 66eb d73f 66c0 273e 66f7 8fbf
00000390: 7a49 14bf e6a1 a43d 358f cb3e 4dbe 0140
000003a0: 07e8 aebd 68c5 6cbf ee81 03c0 0355 8bbf
000003b0: e0d8 82bb 4e81 a43d 6e14 4e3e 2d5b d33e
000003c0: 900c 75bf 94b6 8f3e fc98 0ebf 4528 e73e
000003d0: e7c8 62bf a9fa 93bc 7044 bdbe c728 be3f
000003e0: e394 a43f e775 3bbf 5be2 5d3f f1c1 063f
000003f0: c3fc 0f3f 1e96 143f 182f 003f 7d72 5b3e

cls_token f4 [1, 1, 64]
-0.6524388 1.5264145 0.95367056 0.40773284 -0.38498506 -0.3617005 1.7836025 1.4205469
-1.4396442 -0.12560749 0.6416159 0.78759956 0.17361504 -1.5848838 -0.6006001 -0.024493871
1.2850533 -1.4459702 -2.0568342 -1.3402878 0.4843846 0.593086 -0.94709957 1.0442805
0.14598888 -0.7785513 -1.1616757 0.9823833 1.0145121 0.54084516 0.05001518 2.3317366
1.5500959 -0.3035613 -0.86028236 -0.51053244 1.3453215 1.9488624 -1.4249427 0.5421701
0.08018791 0.36947325 -0.40299758 -0.9519225 -0.52557826 0.29251018 1.9751546 -1.0859977
1.673699 0.04099255 -0.84846133 1.004514 -0.9908788 -0.56912875 1.1644416 -0.006398766
0.0806434 -0.8627997 -1.1141287 1.5084367 -0.56492907 0.9171256 -0.44370928 0.789495
00000000: 3b06 27bf 8d61 c33f c123 743f 5cc2 d03e
00000010: c31c c5be cf30 b9be 164d e43f 7bd4 b53f
00000020: 4346 b8bf 409f 00be f140 243f 20a0 493f
00000030: 24c8 313e 79dd cabf eec0 19bf 5fa7 c8bc
00000040: a07c a43f 8d15 b9bf 2ca3 03c0 8d8e abbf
00000050: 4201 f83e 7cd4 173f 1e75 72bf fcaa 853f
00000060: 1c7e 153e 234f 47bf cab1 94bf 797d 7b3f
00000070: 88db 813f d474 0a3f b8dc 4c3d 2c3b 1540
00000080: 8b69 c63f 636c 9bbe 773b 5cbf 41b2 02bf
00000090: 7f33 ac3f 5374 f93f 8664 b6bf a9cb 0a3f
000000a0: 8f39 a43d 992b bd3e b355 cebe 31b1 73bf
000000b0: 4c8c 06bf e5c3 953e ded1 fc3f f901 8bbf
000000c0: c53b d63f cee7 273d c334 59bf ea93 803f
000000d0: 3caa 7dbf 6cb2 11bf 6c0c 953f bdac d1bb
000000e0: 5e28 a53d 71e0 5cbf c59b 8ebf 7414 c13f
000000f0: 319f 10bf bec8 6a3f dd2d e3be 581c 4a3f

patch_to_embedding.weight f4 [64, 64]
0.037650615 -0.015678393 -0.026310164 0.005771587 -0.016371839 -0.07540563 -0.105428964 -0.07821559
0.13084634 0.108836316 0.053173438 0.043449998 0.10414917 0.105435535 0.06934343 0.0035290984
0.0616369 -0.05494313 0.06693228 0.102996275 0.036978144 -0.06257494 0.0367226 0.111595936
0.0016681807 0.064136 0.02479917 0.07105622 0.055297304 0.024420029 -0.103913 0.11514885
-0.10348432 -0.094461024 0.120979905 -0.019653393 -0.1045503 0.105521984 -0.031780038 0.10090126
0.1060313 -0.10871249 -0.11447328 0.011641772 -0.02700804 -0.111746974 -0.067180425 0.093211025
0.06590651 0.05503148 0.06776292 0.067635976 0.09047069 -0.0054636938 0.0028480126 0.13127597
0.019949516 -0.01000599 0.10388353 0.080549374 0.018271074 0.075990774 0.12287485 0.0034631062
-0.040799033 0.047065455 0.13276543 -0.051123504 -0.091188066 -0.028743133 0.03760299 -0.080993176
-0.05860447 0.030735914 0.12201711 0.0798207 0.09713511 0.067705564 0.05363853 0.13520367
-0.022004135 0.0066834562 0.0379155 0.029314531 0.018818239 -0.03364456 0.124814585 0.08940328
-0.08187946 0.04087315 -0.09967216 0.12881899 0.06411873 0.08314527 0.14179261 0.12262748
0.089454845 -0.022132441 0.004634542 0.0968835 0.11524696 -0.018442703 0.12523298 0.100925654
0.12414955 0.007649778 0.023779748 -0.050496694 -0.09774051 0.0008713852 0.04355118 -0.071141586
0.05326592 -0.09311193 -0.095720336 0.13327648 -0.07470963 0.014777458 -0.01707964 0.07308154
0.03511787 -0.03287216 -0.050497025 -0.08142116 -0.011596544 0.08079957 -0.002950805 -0.08004752
0.035233386 -0.1196974 -0.10620099 0.07532971 -0.11579543 -0.0012803941 -0.086714216 0.093650416
-0.07852636 -0.118019074 0.093635164 0.011510076 -0.09598479 0.064083 -0.10572296 0.04186737
-0.04900568 0.06798194 0.08251275 -0.015509511 0.102529824 0.021670355 -0.0044025155 0.11036903
0.07113897 -0.058102038 0.05261054 -0.07002059 0.0091251675 -0.100657836 0.08052754 -0.11717561
-0.023763381 0.07230507 -0.04282127 0.12406006 0.038249634 -0.0020054583 0.060780954 -0.087000616
0.064734966 -0.12167623 0.039306246 -0.016157022 0.105436005 -0.024024772 0.015396854 -0.112117484
0.08488129 -0.11847831 0.06821281 0.038257536 0.1017441 0.11600277 0.012068368 -0.100002214
0.10970347 -0.066100635 -0.103434734 0.060084403 -0.057580303 0.08917831 0.090494886 -0.03840946
-0.020150758 -0.040242434 -0.048560537 -0.10616826 -0.04294803 0.111930825 0.063366085 0.023050534
-0.10140423 0.038027663 -0.02430595 -0.06848389 0.038709395 -0.07685918 0.0014716883 -0.047810286
-0.119968474 0.056729253 -0.0023167594 0.06529254 -0.04881149 -0.0020045908 -0.081074834 0.06810033
-0.07257241 0.010515667 0.10295774 -0.12203852 -0.07233431 0.05036368 -0.03304207 -0.063633874
-0.13402845 0.10407499 0.04674629 -0.015573025 0.018588819 0.07586052 0.10730703 -0.072493024
-0.08919171 -0.104947954 -0.107646585 0.058365252 -0.12323489 0.08746147 0.099255174 -0.10903957
0.09125718 0.0758319 -0.13237554 -0.053752337 0.055931583 -0.042323045 -0.051230695 -0.036132094
0.07543546 -0.10124823 -0.050532766 -0.049819306 0.019075423 -0.079429165 -0.07937168 -0.041694745
00000000: 8837 1a3d f96f 80bc 6a88 d7bc 951f bd3b
00000010: 3c1e 86bc 446e 9abd 24eb d7bd 7f2f a0bd
00000020: 95fc 053e 93e5 de3d 64cc 593d a0f8 313d
00000030: 294c d53d 96ee d73d ee03 8e3d 7248 673b
00000040: f976 7c3d 0c0c 61bd cb13 893d b6ef d23d
00000050: 6576 173d 4a27 80bd 706a 163d 698c e43d
00000060: dba6 da3a bc59 833d a127 cb3c ec85 913d
00000070: 6d7f 623d 830c c83c 57d0 d4bd 29d3 eb3d
00000080: 96ef d3bd c874 c1bd 50c4 f73d 2700 a1bc
00000090: 781e d6bd e91b d83d c92b 02bd 52a5 ce3d
000000a0: f026 d93d a7a4 debd f870 eabd 22bd 3e3c
000000b0: f73f ddbc 99db e4bd e495 89bd 6ce5 be3d
000000c0: fef9 863d b068 613d 49c7 8a3d bb84 8a3d
000000d0: b248 b93d c908 b3bb b9a5 3a3b 356d 063e
000000e0: 2b6d a33c 2af0 23bc e3c0 d43d 12f7 a43d
000000f0: 38ad 953c 0da1 9b3d cfa5 fb3d 48f5 623b
00000100: e31c 27bd b5c7 403d a9f3 073e e166 51bd
00000110: cfc0 babd b876 ebbc 9805 1a3d c0df a5bd
00000120: 3e0b 70bd e2c9 fb3c 1be4 f93d 0979 a33d
00000130: c6ee c63d 37a9 8a3d 13b4 5b3d d572 0a3e
00000140: 0442 b4bc e500 db3b 494d 1b3d 0725 f03c
00000150: b528 9a3c e1ce 09bd ca9e ff3d 1119 b73d
00000160: 6bb0 a7bd 9b6a 273d eb20 ccbd 20e9 033e
00000170: ae50 833d 1148 aa3d 1532 113e 1e24 fb3d
00000180: 1a34 b73d 184f b5bc 5bdd 973b db6a c63d
00000190: 9906 ec3d 2715 97bc 133d 003e 1cb2 ce3d
000001a0: 1f42 fe3d fdaa fa3b bfcd c23c 9fd5 4ebd
000001b0: 2d2c c8bd ac6d 643a b962 323d aeb2 91bd
000001c0: 5e2d 5a3d 78b1 bebd 0609 c4bd a179 083e
000001d0: 5d01 99bd 271d 723c 9aea 8bbc c6ab 953d
000001e0: c1d7 0f3d f5a4 06bd f8d5 4ebd 23c0 a6bd
000001f0: 6eff 3dbc 3f7a a53d 4b62 41bb f4ef a3bd
00000200: e250 103d e923 f5bd e87f d9bd 7746 9a3d
00000210: 2826 edbd e6d2 a7ba 3997 b1bd cacb bf3d
00000220: 6ed2 a0bd fcb3 f1bd cbc3 bf3d c294 3c3c
00000230: ac93 c4bd f33d 833d 4785 d8bd 1f7d 2b3d
00000240: 2eba 48bd 1e3a 8b3d 72fc a83d 9b1b 7ebc
00000250: 28fb d13d 0786 b13c fa42 90bb 2809 e23d
00000260: 4fb1 913d 67fc 6dbd 267e 573d f566 8fbd
00000270: ba81 153c b225 cebd 9feb a43d c4f9 efbd
00000280: 6cab c2bc ae14 943d 5b65 2fbd 3313 fe3d
00000290: a6ab 1c3d 026e 03bb 73f5 783d 612d b2bd
000002a0: c493 843d 6331 f9bd 96ff 203d bb5b 84bc
000002b0: d5ee d73d 99cf c4bc 1643 7c3c da9d e5bd
000002c0: 3ed6 ad3d c2a4 f2bd 28b3 8b3d efb3 1c3d
000002d0: 365f d03d dc92 ed3d 67ba 453c f6cd ccbd
000002e0: 36ac e03d c55f 87bd 97d5 d3bd 101b 763d
000002f0: 53d9 6bbd 1ea3 b63d 6255 b93d 3d53 1dbd
00000300: 3413 a5bc 40d5 24bd 6ae7 46bd bf6e d9bd
00000310: 46ea 2fbd fd3b e53d 14c6 813d 79d4 bc3c
00000320: 05ad cfbd e5c2 1b3d 461d c7bc 4841 8cbd
00000330: be8d 1e3d 5968 9dbd aae5 c03a b8d4 43bd
00000340: 08b2 f5bd ef5c 683d c6d4 17bb 18b8 853d
00000350: 8fee 47bd 745f 03bb 900a a6bd 3078 8b3d
00000360: d8a0 94bd e749 2c3c 82db d23d 55ef f9bd
00000370: 0324 94bd 254a 4e3d 1f57 07bd 7a52 82bd
00000380: c13e 09be 4525 d53d 0a79 3f3d 0026 7fbc
00000390: 9447 983c c35c 9b3d cac3 db3d 3977 94bd
000003a0: 25aa b6bd f4ee d6bd d075 dcbd 6710 6f3d
000003b0: 9362 fcbd 001f b33d 4c46 cb3d 2350 dfbd
000003c0: 0be5 ba3d c14d 9b3d 748d 07be 692b 5cbd
000003d0: 8418 653d ee5a 2dbd 47d7 51bd 3fff 13bd
000003e0: e87d 9a3d 3b5b cfbd 72fb 4ebd 540f 4cbd
000003f0: 1044 9c3c c2ab a2bd 9f8d a2bd 1cc8 2abd

patch_to_embedding.bias f4 [64]
-0.0819749 0.09600769 0.10672332 0.11233842 0.09274352 0.046781387 0.029651668 0.0015124539
0.101926446 0.09561526 -0.014082729 -0.09684974 0.04464929 0.045110963 -0.0056171142 0.08049768
0.06505432 -0.05922083 0.13146867 -0.096624404 -0.017735288 -0.08756648 0.08213335 -0.07601815
0.03737257 -0.030579088 -0.058251545 0.104593955 -0.071675435 0.090594836 -0.09489517 -0.12005283
-0.10209533 0.03984056 -0.013401004 -0.042393304 0.012547415 -0.0922774 -0.099141054 0.018090257
-0.082512945 -0.09273419 -0.0041929767 -0.04951089 -0.029840356 0.05376984 0.085502334 0.04400014
-0.074297234 0.017725775 0.06891601 -0.07429997 0.06679376 0.047254324 -0.10839883 0.028234702
0.031222135 -0.07687645 -0.05146457 0.06255677 0.052635998 0.10798447 -0.050596893 0.11284927
00000000: 75e2 a7bd ae9f c43d c291 da3d af11 e63d
00000010: 51f0 bd3d d79d 3f3d 0ee8 f23c 883d c63a
00000020: d0be d03d efd1 c33d 3fbb 66bc 2859 c6bd
00000030: 2de2 363d 46c6 383d c50f b8bb f8db a43d
00000040: 333b 853d 8b91 72bd b99f 063e 04e3 c5bd
00000050: 9849 91bc 0e56 b3bd 8835 a83d 67af 9bbd
00000060: fb13 193d ff80 fabc 2c99 6ebd 5b35 d63d
00000070: 92ca 92bd c989 b93d 6658 c2bd 42de f5bd
00000080: 5b17 d1bd db2f 233d e28f 5bbc 9aa4 2dbd
00000090: ac93 4d3c effb bcbd 770a cbbd 0532 943c
000000a0: 8cfc a8bd 6ceb bdbd 3d65 89bb eecb 4abd
000000b0: c373 f4bc c43d 5c3d d91b af3d 7e39 343d
000000c0: 2629 98bd a535 913c d623 8d3d 952a 98bd
000000d0: 2bcb 883d c08d 413d 3500 debd 764c e73c
000000e0: 90c5 ff3c 6671 9dbd 83cc 52bd c41d 803d
000000f0: d898 573d f626 dd3d b03e 4fbd 851d e73d

transformer.layers.0.0.fn.norm.weight f4 [64]
0.96459824 0.93635106 0.9454005 0.92708933 0.839901 0.79607713 0.97803295 0.9287841
0.9563499 0.9254996 0.8590308 0.9598176 0.86098355 0.9522352 0.9191456 0.9438809
0.9462969 0.93700576 0.92089033 0.97310746 0.88113856 0.9713763 0.8897196 0.9058965
0.92354566 0.9277544 0.9751899 0.9412206 0.9750254 0.9450015 0.9211393 0.95479906
0.9382067 0.93020976 0.9829522 0.90576535 0.98042214 0.9491989 0.9746595 0.8690054
0.96466595 0.9127872 0.96859384 0.882191 0.85807955 0.97382116 0.9300533 0.967265
0.9111155 0.9251752 0.9355823 0.9636808 0.9789147 0.93431246 0.9146886 0.9453743
0.9035589 0.83998406 0.889171 0.91834915 0.87075216 0.95821005 0.9348019 0.9201167
00000000: e9ef 763f b4b4 6f3f c405 723f ba55 6d3f
00000010: c003 573f b6cb 4b3f 5e60 7a3f cbc4 6d3f
00000020: 59d3 743f 8bed 6c3f 71e9 5b3f 9bb6 753f
00000030: 6b69 5c3f b0c5 733f 204d 6b3f 2ea2 713f
00000040: 8340 723f 9cdf 6f3f 78bf 6b3f 921d 793f
00000050: 4c92 613f 1eac 783f aac4 633f d5e8 673f
00000060: 7d6d 6c3f 5081 6d3f 0ca6 793f d5f3 703f
00000070: 449b 793f 9eeb 713f c9cf 6b3f b66d 743f
00000080: 502e 703f 3a22 6e3f c1a2 7b3f 3de0 673f
00000090: f2fc 7a3f b3fe 723f 4983 793f 2377 5e3f
000000a0: 59f4 763f 6cac 693f c4f5 773f 45d7 613f
000000b0: 1aab 5b3f 584c 793f f917 6e3f ae9e 773f
000000c0: de3e 693f 48d8 6c3f 5282 6f3f c9b3 763f
000000d0: 279a 7a3f 1a2f 6f3f 0829 6a3f 0d04 723f
000000e0: a34f 673f 3209 573f b6a0 633f ee18 6b3f
000000f0: 9de9 5e3f 414d 753f 2d4f 6f3f c58c 6b3f

transformer.layers.0.0.fn.norm.bias f4 [64]
-0.010477153 -0.012212194 -0.0029207054 0.022956623 0.040896863 0.021987775 0.009526729 -0.018503685
-0.01714201 -0.013893322 0.011636322 0.0121373385 0.005935481 -0.010917743 0.010838646 -0.0129962955
0.0076956623 0.0365477 0.017193023 0.009549223 -0.031325858 0.006527004 0.02497188 -0.050244324
0.011563207 -0.0042099804 0.006637288 0.013738411 0.0083611645 -0.009292162 0.014699036 -0.0024430456
0.019063449 0.011042605 0.0028119218 0.00037295063 -0.002711306 0.0047790688 0.0056314426 0.0012588288
-0.0019888792 0.0012528414 0.012712675 0.012954248 0.0011158495 -0.004171903 0.008306053 0.011831241
0.006055489 0.008175984 0.008517946 -0.014475785 -0.0058714305 0.016499175 0.019703735 0.011409278
0.015368967 0.0073307552 0.0076927003 0.0067635295 0.024773855 0.0035065592 0.0012630689 -0.007044407
00000000: 5da8 2bbc a715 48bc 4e69 3fbb 870f bc3c
00000010: 7883 273d b51f b43c ff15 1c3c 0a95 97bc
00000020: 676d 8cbc d1a0 63bc 46a6 3e3c b0db 463c
00000030: 6c7e c23b 55e0 32bc 9494 313c 6aee 54bc
00000040: e52b fc3b 0bb3 153d 62d8 8c3c 5874 1c3c
00000050: 8b4f 00bd 7ae0 d53b d491 cc3c fecc 4dbd
00000060: 9b73 3d3c e0f3 89bb 9b7d d93b 1217 613c
00000070: 44fd 083c 273e 18bc 3ad4 703c 811b 20bb
00000080: f32a 9c3c 0bec 343c 3848 383b 9688 c339
00000090: 2bb0 31bb bc99 9c3b f787 b83b 49ff a43a
000000a0: db57 02bb 6236 a43a d348 503c 0e3e 543c
000000b0: b241 923a 75b4 88bb 1c16 083c d2d7 413c
000000c0: 206d c63b 90f4 053c db8e 0b3c d82b 6dbc
000000d0: 2165 c0bb 4729 873c ba69 a13c fbed 3a3c
000000e0: 1fce 7b3c d536 f03b 0c13 fc3b 99a0 dd3b
000000f0: 8af2 ca3c 4dce 653b 8f8d a53a c5d4 e6bb

transformer.layers.0.0.fn.fn.to_qkv.weight f4 [192, 64]
0.12358725 0.06418693 0.026373291 0.022295924 0.027806617 0.057779543 -0.044866256 -0.047463264
-0.07128661 0.035379928 -0.06001393 0.054926936 -0.035033718 0.10982545 0.035431128 -0.10439584
0.03148406 0.036886144 -0.0928511 0.006482464 0.032607537 -0.106616355 -0.12408983 0.005518273
0.057880837 -0.057889197 -0.07902441 -0.051870402 0.039704613 -0.033458322 -0.06731656 0.022897072
0.01017696 -0.029626489 0.066704124 -0.08759021 -0.001698421 -0.0015759611 0.03614599 -0.08416536
0.0064295554 -0.10493958 0.087550476 0.01147314 -0.027022056 -0.09591847 0.10389185 0.07371314
0.09870999 -0.093679115 -0.013118639 -0.06486747 -0.08620273 -0.08420211 0.0902218 -0.03755235
0.052906718 -0.035139218 -0.021849759 0.010694251 -0.105991565 -0.10094146 0.037797276 0.007928483
0.023717545 0.031981867 0.035068832 0.046780363 0.0022144972 -0.05888388 -0.07744769 -0.0067301528
0.052666128 -0.039603975 -0.029482808 -0.08955497 0.09436332 -0.14124596 0.040941868 -0.044318326
-0.07337174 0.081912674 -0.000638644 0.031162895 -0.063128754 -0.08374211 -0.008049833 0.07531461
0.13482888 -0.043371547 0.094269305 0.14850537 -0.048340857 -0.016015079 0.08486529 0.0738275
-0.07866999 -0.13807103 -0.14673083 -0.04102444 0.07764593 -0.035381448 0.095860235 -0.045014206
0.05001476 -0.0483321 0.0856316 0.0081023155 0.0661771 0.08413309 -0.07642781 0.056354847
-0.010248885 -0.10399215 0.054898553 -0.07543061 0.012838575 -0.08178211 -0.07578074 0.0309541
0.004832579 0.08676157 0.067537874 -0.07563346 0.076463245 0.14197071 -0.02315035 0.095204964
0.10213338 -0.08762175 0.085089825 0.06702658 -0.09705519 0.022931231 0.0719541 0.027161231
-0.047046248 0.03459767 0.09781173 0.03882291 -0.10184829 -0.04880745 0.10951102 0.09051867
-0.05019955 -0.11281238 0.07531991 0.10463167 -0.09118752 -0.08339684 -0.03158699 -0.0027702232
0.042880077 0.082379416 -0.054811936 0.09294904 -0.07733026 0.0821767 0.004853339 -0.044075355
0.029947639 0.016262619 0.0470518 -0.031894155 0.026434824 -0.058909215 -0.08603627 -0.102791
0.030976372 -0.0016950488 0.011701987 -0.0701966 0.03551391 -0.09386993 0.03766799 -0.10686766
-0.112609856 -0.11087154 0.10226544 0.12428271 0.04736297 0.04614283 0.12925315 -0.07866442
0.074338965 0.042620867 0.0782584 0.069264375 -0.024766877 -0.09087366 -0.066087715 0.012099047
0.06638001 -0.04265884 0.09688552 -0.0023642525 -0.10678707 -0.09423562 -0.012029115 0.08252827
-0.022102078 0.10081804 0.08642227 0.11619621 0.05407915 0.012368422 -0.056628592 -0.074525386
-0.10285596 -0.08115376 0.063963644 0.03302072 -0.097787395 0.028445588 0.102820925 -0.085528165
0.073862456 -0.02547174 -0.10490517 0.031168712 0.014982763 -0.0984692 0.09370221 -0.09185026
-0.020235866 -0.026284346 -0.07520564 0.029260602 0.04762084 -0.07919994 -0.031346653 0.08499431
-0.09219318 0.04744454 0.0720229 -0.086526744 -0.0780984 0.08310586 -0.014785932 0.08632561
0.04914505 -0.010681133 -0.0132881105 -0.083755754 -0.008539039 -0.074807726 -0.10345835 -0.08930026
-0.005559836 -0.040830705 -0.062740766 -0.04698461 -0.031683844 -0.07501185 -0.03762066 0.003381252
00000000: 501b fd3d 7074 833d cd0c d83c f1a5 b63c
00000010: b4ca e33c 3eaa 6c3d aec5 37bd d768 42bd
00000020: b7fe 91bd 8bea 103d 2bd1 75bd 11fb 603d
00000030: 847f 0fbd 2aec e03d 3b20 113d 7ccd d5bd
00000040: 6ef5 003d ed15 173d b828 bebd d96a d43b
00000050: 7b8f 053d ad59 dabd cf22 febd a1d2 b43b
00000060: 7514 6d3d 391d 6dbd 8dd7 a1bd 0f76 54bd
00000070: 4ea1 223d 980b 09bd 44dd 89bd a492 bb3c
00000080: 44bd 263c 40b3 f2bc 2c9c 883d 7f62 b3bd
00000090: 8d9d deba 7b90 ceba d10d 143d e35e acbd
000000a0: 05af d23b 90ea d6bd aa4d b33d d6f9 3b3c
000000b0: 5c5d ddbc e770 c4bd 40c5 d43d eaf6 963d
000000c0: 7728 ca3d d6da bfbd 8fef 56bc 3cd9 84bd
000000d0: 0f8b b0bd 2872 acbd 35c6 b83d 7ed0 19bd
000000e0: b7b4 583d 24ee 0fbd 44fe b2bc f136 2f3c
000000f0: 1b12 d9bd 65ba cebd 51d1 1a3d 78e6 013c
00000100: 4c4b c23c 6bff 023d 56a4 0f3d c49c 3f3d
00000110: 1921 113b 3930 71bd e59c 9ebd 9d88 dcbb
00000120: 70b8 573d c737 22bd ee85 f1bc 9968 b7bd
00000130: 8e41 c13d c8a2 10be a9b2 273d 2287 35bd
00000140: ec43 96bd d5c1 a73d ac6a 27ba 5449 ff3c
00000150: a649 81bd fc80 abbd 72e3 03bc 8c3e 9a3d
00000160: 9510 0a3e 5da6 31bd 4410 c13d cb11 183e
00000170: 1001 46bd 0e32 83bc dacd ad3d df32 973d
00000180: bb1d a1bd 7e62 0dbe 9b40 16be 3e09 28bd
00000190: d404 9f3d 23ec 10bd 5f52 c43d d160 38bd
000001a0: 47dc 4c3d e1f7 45bd 9f5f af3d 93bf 043c
000001b0: dc87 873d f84d ac3d 2f86 9cbd 57d4 663d
000001c0: f0ea 27bc d6f9 d4bd 4edd 603d 5d7b 9abd
000001d0: e358 523c 617d a7bd ef32 9bbd 7493 fd3c
000001e0: 9c5a 9e3b 0db0 b13d 4c51 8a3d b7e5 9abd
000001f0: c398 9c3d c560 113e cea5 bdbc d2fa c23d
00000200: 4e2b d13d 0873 b3bd 9343 ae3d 3b45 893d
00000210: dfc4 c6bd 47da bb3c ac5c 933d 3b81 de3c
00000220: 91b3 40bd 49b6 0d3d 8451 c83d c604 1f3d
00000230: d695 d0bd 52ea 47bd 5047 e03d da61 b93d
00000240: 0b9e 4dbd 2d0a e7bd 5341 9a3d 2149 d63d
00000250: 86c0 babd f6cb aabd 5c61 01bd a28c 35bb
00000260: 05a3 2f3d 8ab6 a83d 7b82 60bd 115c be3d
00000270: 545f 9ebd 424c a83d c208 9f3b 5c88 34bd
00000280: c054 f53c 2f39 853c 63b9 403d 72a3 02bd
00000290: d88d d83c ca4a 71bd c933 b0bd 1684 d2bd
000002a0: 29c2 fd3c 662c deba b1b9 3f3c 3cc3 8fbd
000002b0: 0977 113d e13e c0bd c049 1a3d 6fdd dabd
000002c0: ff9f e6bd 9e10 e3bd 8b70 d13d ef87 fe3d
000002d0: acff 413d 4400 3d3d f05a 043e d01a a1bd
000002e0: 073f 983d 3893 2e3d f145 a03d 7bda 8d3d
000002f0: e8e3 cabc f81b babd ff58 87bd 153b 463c
00000300: 3ef2 873d 09bb 2ebd ea6b c63d 93f1 1abb
00000310: 2eb3 dabd 9bfe c0bd c415 45bc 9504 a93d
00000320: 6b0f b5bc b079 ce3d 29fe b03d 47f8 ed3d
00000330: 1982 5d3d eca4 4a3c 62f3 67bd c4a0 98bd
00000340: 25a6 d2bd f133 a6bd 5fff 823d bc40 073d
00000350: c244 c8bd b906 e93c c793 d23d 6429 afbd
00000360: 3345 973d 1caa d0bc 86d8 d6bd 8755 ff3c
00000370: 437a 753c 38aa c9bd f2e6 bf3d fd1b bcbd
00000380: b0c5 a5bc 4552 d7bc 6a05 9abd eeb3 ef3c
00000390: 120e 433d 9433 a2bd 5965 00bd 7f11 ae3d
000003a0: c7cf bcbd 3555 423d be80 933d ef34 b1bd
000003b0: 0ef2 9fbd 6833 aa3d b240 72bc 7bcb b03d
000003c0: 524c 493d ebff 2ebc 60b6 59bc 2388 abbd
000003d0: 53e7 0bbc cb34 99bd f9e1 d3bd 0ee3 b6bd
000003e0: 492f b6bb 193e 27bd 3b7e 80bd ef72 40bd
000003f0: ebc6 01bd d09f 99bd 1f18 1abd ff97 5d3b

transformer.layers.0.0.fn.fn.to_out.weight f4 [64, 64]
-0.014241693 -0.10186939 0.047699753 -0.064332 -0.0351469 0.1366752 -0.09384572 0.004826392
-0.08898744 -0.019524813 0.02193079 -0.06301521 -0.03380419 0.09229333 0.050623134 0.09108764
-0.036575012 -0.012880619 -0.009585724 -0.08068958 -0.081013314 -0.056639217 -0.02800575 -0.1166992
0.030634098 -0.01374026 0.10580857 0.020542689 0.07546006 -0.04098322 -0.1641615 -0.08194958
-0.09011155 0.064714156 0.06117566 -0.1772287 -0.038021058 -0.019095896 0.010783271 0.0058235703
-0.024195137 -0.10047436 0.14797343 -0.09977496 -0.062513575 0.041524116 0.0333875 -0.13475172
0.11428466 -0.012688662 0.060784306 0.05617298 0.07850268 -0.052951414 -0.14451769 -0.028212206
0.07557958 0.13947135 -0.10337341 -0.12789303 -0.019599773 0.03183139 0.020086033 0.1066228
0.09388249 0.0050171837 -0.018674592 0.0973333 0.052605454 -0.019487865 -0.021400927 0.04114134
-0.06358968 0.006180763 0.10544552 0.11825276 0.07806738 0.019817762 -0.06704586 0.09642171
-0.048413206 0.009286795 -0.07299856 0.024805157 -0.07537446 0.09080462 0.026448846 -0.04715199
-0.027091587 0.02017776 -0.080963 0.028334321 0.087232 0.053374346 -0.032442097 0.015658004
-0.1124534 0.0787486 0.07608232 -0.16572414 -0.063476816 0.1388101 -0.16231324 0.02374653
-0.039617877 0.09854259 -0.03798655 -0.105091855 -0.010533752 -0.06622982 0.041383877 -0.13697423
0.013704434 -0.004113235 -0.022786846 -0.040003143 0.13207172 0.078443564 -0.19815774 -0.044218518
0.06179282 -0.03337219 -0.1207816 -0.010431777 -0.009279824 -0.0076777297 -0.031869907 -0.09442153
-0.020329045 0.06532377 0.011714322 -0.068846226 -0.046715852 0.14244254 -0.086289786 0.08982677
-0.14591882 0.11108851 0.003529303 0.00020181641 0.08748958 -0.07668106 -0.041267287 -0.048560992
0.11221425 -0.055784 -0.054576635 -0.055413045 0.05912828 -0.06528649 -0.013545354 0.07702455
0.010534472 0.062571675 -0.045964535 0.083880424 0.14624766 -0.14273413 -0.05711293 -0.14528105
-0.03678646 -0.035298068 -0.11327462 -0.17802253 0.014420841 0.12895402 -0.14604922 -0.034492888
-0.053500343 -0.00017355935 0.12118724 0.09612217 0.13223341 0.09098151 -0.048642915 -0.022957807
0.04333939 -0.07920607 0.11397562 -0.08839364 0.04581478 0.022645371 0.011553123 -0.06508781
-0.1024149 0.013452533 0.07481817 0.0994009 0.059821803 -0.03327608 0.022810293 0.113368645
0.0005425949 0.08748271 -0.028260972 -0.042805925 0.006808007 0.067919426 -0.0487606 0.056135893
0.029874297 -0.07122474 0.08681085 0.029974438 -0.0355984 0.08222848 0.09662759 -0.016845409
0.0860362 -0.11523641 -0.0942419 0.039699193 0.05257792 0.0073906938 0.07011097 0.07568881
-0.08366464 -0.09540408 0.061629247 -0.1330617 0.046102263 -0.006814265 0.004873454 0.00022490072
0.023464262 0.02575288 0.027439212 0.12504281 0.11547916 -0.058900468 0.040569305 0.0060236547
-0.0953288 0.045900293 0.052122563 -0.013535126 -0.013754795 -0.11584726 -0.14226975 0.11708513
0.11371473 -0.014020382 -0.06134936 0.0131783625 0.03977745 -0.06531418 0.082379416 -0.008887547
-0.12097316 0.08650378 -0.03857901 -0.006624503 0.05604964 0.108870044 0.009816697 0.053631905
00000000: fd55 69bc e6a0 d0bd d160 433d 7fc0 83bd
00000010: 32f6 0fbd 95f4 0b3e 2f32 c0bd b626 9e3b
00000020: 0c3f b6bd 80f2 9fbc 33a8 b33c 1e0e 81bd
00000030: 4376 0abd 4904 bd3d 345a 4f3d 288c ba3d
00000040: aecf 15bd 3b09 53bc 710d 1dbc 9440 a5bd
00000050: 4fea a5bd 86fe 67bd 516c e5bc fdff eebd
00000060: 5cf4 fa3c d41e 61bc 2ab2 d83d 2449 a83c
00000070: ce8a 9a3d 05de 27bd f419 28be 2ed5 a7bd
00000080: 688c b8bd db88 843d 5493 7a3d 717b 35be
00000090: f8bb 1bbd ff6e 9cbc 51ac 303c a6d3 be3b
000000a0: e134 c6bc 80c5 cdbd 5986 173e d056 ccbd
000000b0: 1e07 80bd 3115 2a3d 55c1 083d 5bfc 09be
000000c0: 130e ea3d 1be4 4fbc f7f8 783d a415 663d
000000d0: 03c6 a03d 95e3 58bd 72fc 13be 491d e7bc
000000e0: 78c9 9a3d 94d1 0e3e 70b5 d3bd 64f6 02be
000000f0: b48f a0bc a261 023d 778b a43c 0e5d da3d
00000100: 7745 c03d 3067 a43b 75fb 98bc ae56 c73d
00000110: d178 573d 04a5 9fbc ff50 afbc d283 283d
00000120: 4e3b 82bd ff87 ca3b d2f3 d73d 812e f23d
00000130: cae1 9f3d dc58 a23c 574f 89bd bf78 c53d
00000140: ed4c 46bd a427 183c 4580 95bd 2f34 cb3c
00000150: ed5d 9abd c6f7 b93d 40ab d83c 7222 41bd
00000160: 2def ddbc d44b a53c eecf a5bd 611d e83c
00000170: b1a6 b23d 0f9f 5a3d 01e2 04bd 3745 803c
00000180: f84d e6bd f246 a13d 0cd1 9b3d 97b3 29be
00000190: 2200 82bd 3c24 0e3e 7135 26be 1588 c23c
000001a0: 5b46 22bd b3d0 c93d c997 1bbd 663a d7bd
000001b0: c295 2cbc 80a3 87bd 2482 293d f942 0cbe
000001c0: 9088 603c 51c8 86bb 7bab babc 56da 23bd
000001d0: cf3d 073e 05a7 a03d dde9 4abe 7a1e 35bd
000001e0: 781a 7d3d 47b1 08bd 585c f7bd 0bea 2abc
000001f0: 670a 18bc 7795 fbbb 058a 02bd 1360 c1bd
00000200: 1989 a6bc 78c8 853d 6ded 3f3c 40ff 8cbd
00000210: 1f59 3fbd 75dc 113e b3b8 b0bd 19f7 b73d
00000220: be6b 15be 5f82 e33d e14b 673b ae9e 5339
00000230: bd2d b33d f60a 9dbd e307 29bd e4e7 46bd
00000240: 96d0 e53d c37d 64bd c08b 5fbd caf8 62bd
00000250: 7f30 723d ecb4 85bd 55ed 5dbc 0cbf 9d3d
00000260: c798 2c3c 9425 803d 4f45 3cbd 80c9 ab3d
00000270: f2c1 153e e528 12be 3fef 69bd 8ec4 14be
00000280: 66ad 16bd b594 10bd 86fc e7bd 8a4b 36be
00000290: 6445 6c3c 860c 043e ed8d 15be 6a48 0dbd
000002a0: 2d23 5bbd 7cfd 35b9 0431 f83d b3db c43d
000002b0: 3268 073e 8454 ba3d cb3d 47bd 0312 bcbc
000002c0: a584 313d cb36 a2bd 0d6c e93d ba07 b5bd
000002d0: 47a8 3b3d c982 b93c 4f49 3d3c c24c 85bd
000002e0: e7be d1bd 0368 5c3c 453a 993d b392 cb3d
000002f0: b507 753d 804c 08bd a7dc ba3c d22d e83d
00000300: ed3c 0e3a 232a b33d 8e83 e7bc 4455 2fbd
00000310: b415 df3b 5719 8b3d 32b9 47bd c0ee 653d
00000320: f1ba f43c 47de 91bd e3c9 b13d f48c f53c
00000330: a1cf 11bd 6867 a83d b0e4 c53d 62ff 89bc
00000340: bf33 b03d 1101 ecbd e601 c1bd 9f9b 223d
00000350: f25b 573d a22d f23b 5796 8f3d bc02 9b3d
00000360: 5e58 abbd 3763 c3bd f36e 7c3d 5441 08be
00000370: bad5 3c3d 334a dfbb 7fb1 9f3b 54d3 6b39
00000380: 2038 c03c b4f7 d23c 33c8 e03c 390b 003e
00000390: 5680 ec3d 9e41 71bd 002c 263d 1462 c53b
000003a0: bf3b c3bd f201 3c3d 787e 553d 6fc2 5dbc
000003b0: cb5b 61bc 5441 edbd 29af 11be 54ca ef3d
000003c0: 45e3 e83d bfb5 65bc 7749 7bbd 0fea 573c
000003d0: aeed 223d 71c3 85bd 8ab6 a83d 139d 11bc
000003e0: c7c0 f7bd e528 b13d 0605 1ebd 5c12 d9bb
000003f0: 4f94 653d 42f7 de3d 36d6 203c 21ad 5b3d

transformer.layers.0.0.fn.fn.to_out.bias f4 [64]
0.09491942 -0.00016154825 -0.14619683 -0.007768143 0.06921621 -0.070890516 -0.043061353 -0.09278539
-0.023599872 -0.09967854 0.028076116 0.070740275 0.03816297 -0.043992497 0.11740781 0.012871069
0.060853224 0.08226364 0.15244898 0.052283637 0.14020248 -0.11323527 -0.09824603 0.0820518
-0.016227847 -0.053368375 0.13757628 0.03388064 0.046846054 -0.04799864 0.044582374 -0.081468694
0.110943995 -0.07999702 -0.031958945 0.021500746 -0.09301053 0.016193278 0.077737644 0.12556723
0.03838903 0.06387754 0.047749437 0.06219437 0.12245604 -0.11043778 -0.045160323 -0.06811183
0.019448109 -0.050597027 0.09519607 -0.007302052 0.118534386 -0.121457554 0.08948887 -0.03868938
0.015813734 -0.073611975 0.0047378107 -0.024184812 0.12535208 -0.0714622 -0.00019967704 -0.035073876
00000000: 1d65 c23d 4765 29b9 9fb4 15be e88b febb
00000010: 3ac1 8d3d 0c2f 91bd 1a61 30bd 4406 bebd
00000020: 8554 c1bc 4324 ccbd e2ff e53c 47e0 903d
00000030: c650 1c3d 7a31 34bd 8273 f03d 2de1 523c
00000040: 3b41 793d d779 a83d 961b 1c3e 5e27 563d
00000050: 3d91 0f3e e5e7 e7bd 3735 c9bd c60a a83d
00000060: 43f0 84bc cc98 5abd cce0 0c3e 6dc6 0a3d
00000070: a6e1 3f3d 399a 44bd 029c 363d 0fd9 a6bd
00000080: 9b36 e33d 7ad5 a3bd 62e7 02bd 5522 b03c
00000090: 4e7c bebd c4a7 843c ea34 9f3d b294 003e
000000a0: d13d 1d3d 3ad2 823d ea94 433d 86bf 7e3d
000000b0: 3bca fa3d 342d e2bd 08fa 38bd 377e 8bbd
000000c0: a451 9f3c d43e 4fbd 28f6 c23d 0d46 efbb
000000d0: 28c2 f23d bdbe f8bd f145 b73d c178 1ebd
000000e0: ce8b 813c e0c1 96bd a33f 9b3b 3a1f c6bc
000000f0: 4c5c 003e c65a 92bd 6660 51b9 a0a9 0fbd

transformer.layers.0.1.fn.norm.weight f4 [64]
0.984073 0.9220012 0.9457963 0.9753152 0.87336355 0.89688057 0.93726486 0.9700905
0.9739902 0.9906548 0.9858238 1.0081418 0.9828199 0.9830311 0.96239394 0.9491957
0.9379045 0.9935056 0.99623185 0.96333796 0.979442 0.95917434 0.98475915 0.9214953
0.998368 1.0276603 0.92080194 0.9494864 0.9774288 1.0002271 1.0272856 0.9475785
0.8857417 0.9606978 0.9999298 0.98632455 0.9610798 0.960046 0.98942244 0.9618954
0.9626625 0.97666115 0.9247607 0.98533005 0.9290665 0.9760427 0.9753677 0.9848534
0.98587596 0.9713124 0.9219623 0.9584504 0.9557523 0.909974 1.064501 0.94503415
0.9469494 0.89752823 0.9395973 0.9725206 0.97175354 0.96934575 0.92025036 0.938322
00000000: 35ec 7b3f 4508 6c3f b51f 723f 42ae 793f
00000010: c194 5f3f f799 653f 97f0 6f3f da57 783f
00000020: 6c57 793f 8e9b 7d3f f35e 7c3f ca0a 813f
00000030: 169a 7b3f eda7 7b3f 735f 763f 7dfe 723f
00000040: 821a 703f 6256 7e3f 0d09 7f3f 519d 763f
00000050: b6bc 7a3f 738c 753f 2d19 7c3f 1ee7 6b3f
00000060: 0c95 7f3f 5f8a 833f adb9 6b3f 8a11 733f
00000070: c638 7a3f 7107 803f 187e 833f 8194 723f
00000080: f8bf 623f 4bf0 753f 66fb 7f3f c47f 7c3f
00000090: 5309 763f 93c5 753f ca4a 7d3f c73e 763f
000000a0: 0d71 763f 7706 7a3f 1ebd 6c3f 973e 7c3f
000000b0: 4dd7 6d3f efdd 793f b3b1 793f 5a1f 7c3f
000000c0: 5e62 7c3f eea7 783f b905 6c3f 015d 753f
000000d0: 2fac 743f 0ef4 683f 9241 883f c2ed 713f
000000e0: 476b 723f 69c4 653f 7389 703f 1cf7 783f
000000f0: d7c4 783f 0b27 783f 8795 6b3f df35 703f

transformer.layers.0.1.fn.norm.bias f4 [64]
-0.028600028 -0.073405206 -0.054048877 0.022853898 -0.07120457 0.09518211 -0.04378343 0.053559236
0.02957269 -0.02589444 -0.014753088 0.016424783 0.023182102 0.0237945 0.049683936 -0.051009074
-0.04744902 0.01791907 0.016235035 0.03388265 0.024528919 -0.053332668 0.03707172 -0.06505823
-0.020984476 -0.0008145302 0.067464136 -0.049145527 -0.02787878 -0.029385714 -0.0055206376 -0.061508246
-0.08789545 0.03928555 0.038659 -0.02197676 -0.061289165 -0.0361616 0.018948248 0.046520423
0.038307358 -0.022544425 0.07418977 0.01732641 0.06396287 -0.028129026 -0.02892809 0.015874503
-0.04691486 0.031198861 0.0665614 -0.027563496 0.0531863 -0.09400974 0.008167397 0.057513945
0.0504183 0.090618365 0.055572093 -0.03846594 0.06319257 -0.029310042 0.07655184 -0.057290144
00000000: 9b4a eabc 7855 96bd 5b62 5dbd 1938 bb3c
00000010: b4d3 91bd d7ee c23d 4156 33bd ee60 5b3d
00000020: 6d42 f23c 9420 d4bc f0b6 71bc 448d 863c
00000030: 64e8 bd3c afec c23c 6281 4b3d e4ee 50bd
00000040: e759 42bd 03cb 923c 56ff 843c 89c8 0a3d
00000050: dff0 c83c 5b73 5abd 84d8 173d 403d 85bd
00000060: a3e7 abbc 3286 55ba a32a 8a3d d24c 49bd
00000070: 0a62 e4bc 4fba f0bc 77e6 b4bb 12f0 7bbd
00000080: 8802 b4bd e3e9 203d e658 1e3d 9b08 b4bc
00000090: 590a 7bbd 301e 14bd 5b39 9b3c 338c 3e3d
000000a0: 2de8 1c3d 16af b8bc cef0 973d 1ef0 8d3c
000000b0: f7fe 823d d86e e6bc 9afa ecbc 3f0b 823c
000000c0: cc29 40bd c194 ff3c 5851 883d d7cc e1bc
000000d0: e1d9 593d 2e88 c0bd 8cd0 053c be93 6b3d
000000e0: 6b83 4e3d 1f96 b93d 909f 633d 768e 1dbd
000000f0: 1b6b 813d 9d1b f0bc 36c7 9c3d 12a9 6abd

transformer.layers.0.1.fn.fn.net.0.weight f4 [128, 64]
0.06510817 -0.14288002 -0.14425924 0.06291802 0.06629028 0.00495006 -0.08817446 0.058218554
0.13905393 -0.12610112 0.028959809 0.1306205 0.026821299 -0.03641663 0.015836122 -0.16295877
-0.16460449 0.02541631 0.07138519 0.09570106 0.15910643 -0.04345147 -0.028645094 -0.11047001
-0.04363028 0.037565645 -0.0063814367 -0.12743546 -0.13719945 -0.14852974 0.13044536 0.011834424
0.056400467 0.031133533 0.044389877 -0.04114624 0.03036576 -0.037966724 -0.06482394 0.15962873
0.10937718 -0.040714256 0.05630077 -0.028740082 0.03468707 -0.026743788 0.032510944 0.11348955
-0.06222877 0.035140198 0.03632274 -0.010191768 0.008348782 -0.12958364 -0.017176723 -0.055946454
0.07357182 0.14459905 -0.020291809 -0.063240975 0.1372511 -0.10973448 0.007840463 -0.09686185
-0.11375559 -0.12524112 0.08779409 -0.0029906537 -0.12114178 -0.075282216 0.06417451 -0.0077871243
-0.0651559 0.013518151 -0.059563525 0.039768483 0.05086641 -0.05912825 -0.070476465 0.07920772
-0.0927255 -0.003752452 0.07877521 -0.048588306 -0.030128794 0.0014659724 0.075422734 0.022277147
0.08604289 0.07715189 -0.01219678 -0.042642675 0.031520467 -0.072639406 0.07824389 0.11353864
0.0010570962 0.09031668 -0.1100459 -0.11605921 0.09988878 -0.020414539 0.031093834 -0.008000244
0.06327637 -0.080462106 -0.056871716 0.070332915 -0.0027753974 -0.07070374 0.095271304 0.09008368
0.020275844 0.008525797 0.13330634 -0.04543825 0.045306373 0.03519924 0.0039713937 0.096752234
0.10841184 -0.04123609 0.06926223 0.05870559 0.13123079 -0.11430536 0.017657511 -0.047563888
-0.019297874 0.00076249585 -0.10403571 -0.008179093 -0.03167724 0.0062517733 -0.017065352 -0.07206037
-0.07091795 0.046883516 0.11079798 -0.06279246 0.06820639 -0.023450803 0.06453177 0.026832243
-0.114508495 -0.101078734 0.02689984 0.0009324717 0.10768296 -0.024294825 0.12556615 -0.005529415
0.119549386 -0.024913864 0.083704665 0.011434347 -0.024349634 -0.029887555 -0.011822469 0.04886196
0.09479361 0.08560374 0.0002626282 0.123778656 -0.11091595 0.11652526 -0.07077724 0.097627506
0.027213044 0.0051589194 0.124497175 0.017514324 -0.043767024 0.09703178 0.0025514362 0.04898856
0.03831029 -0.0018329166 0.06670844 -0.12526013 0.040538535 -0.049821265 -0.06454542 -0.020488132
-0.02496177 0.08837406 0.126136 -0.096919686 0.07140431 -0.08073845 0.0811729 -0.0154399155
0.09295984 0.09408595 -0.07823996 -0.10546872 0.06466885 -0.08175449 0.11073636 0.035077915
0.06307716 -0.011457912 0.12586229 -0.086623445 0.013195169 -0.044924278 0.058947597 -0.04976318
0.09875549 -0.14171523 -0.1305099 -0.055304334 0.113088496 -0.013457172 -0.035507046 -0.07662849
0.1285314 0.2243977 0.051187616 -0.09270426 0.13152152 -0.048901178 0.032308683 0.091189675
-0.045463856 -0.02152173 0.008059474 -0.021110794 0.08287261 -0.00059389113 -0.108571745 0.12291228
0.07635241 0.12408753 0.04355454 -0.07535499 0.060340136 -0.06507871 0.068832956 0.05355438
-0.022041868 -0.024335813 0.013259267 0.08693153 -0.0062648337 0.11222807 -0.019482354 0.037317976
-0.058625657 0.05516624 0.078808844 0.08745027 0.08343595 -0.052104138 0.054411795 -0.09849799
00000000: 6f57 853d 244f 12be b2b8 13be 2adb 803d
00000010: 33c3 873d 1d34 a23b d094 b4bd 9476 6e3d
00000020: 2764 0e3e a720 01be 1f3d ed3c 61c1 053e
00000030: 57b8 db3c 9b29 15bd c1ba 813c aade 26be
00000040: 148e 28be de35 d03c 6632 923d ebfe c33d
00000050: ccec 223e 2bfa 31bd 1ea9 eabc 1a3e e2bd
00000060: aab5 32bd 6fde 193d 5f1b d1bb 717e 02be
00000070: 037e 0cbe 2e18 18be 7893 053e 2ce5 413c
00000080: 2d04 673d c00b ff3c 29d2 353d f688 28bd
00000090: 9dc1 f83c ff82 1bbd 6ac2 84bd b775 233e
000000a0: 2501 e03d fec3 26bd a39b 663d 5270 ebbc
000000b0: 0714 0e3d ca15 dbbc 322a 053d 366d e83d
000000c0: 98e3 7ebd 2bef 0f3d 27c7 143d 60fb 26bc
000000d0: 54c9 083c 93b1 04be 33b6 8cbc 1c28 65bd
000000e0: d3ac 963d c611 143e 023b a6bc 7c84 81bd
000000f0: 8d8b 0c3e 79bc e0bd 4975 003c 815f c6bd
00000100: b1f8 e8bd 353f 00be 63cd b33d d8fe 43bb
00000110: 2e19 f8bd 902d 9abd ed6d 833d 222b ffbb
00000120: 7570 85bd 3c7b 5d3c e2f8 73bd 47e4 223d
00000130: 4c59 503d 7730 72bd f755 90bd a837 a23d
00000140: dee6 bdbd b3eb 75bb e654 a13d 8804 47bd
00000150: a9d0 f6bc df25 c03a 3c77 9a3d 907e b63c
00000160: 4137 b03d cf01 9e3d 01d5 47bc 16aa 2ebd
00000170: 9b1b 013d f8c3 94bd 553e a03d f286 e83d
00000180: 438e 8a3a f4f7 b83d bf5f e1bd 73b0 edbd
00000190: 7d92 cc3d 643c a7bc 7fb8 fe3c 7513 03bc
000001a0: 0b97 813d 51c9 a4bd 51f2 68bd b40a 903d
000001b0: 71e3 35bb 1fcd 90bd 9a1d c33d cb7d b83d
000001c0: 8719 a63c c9af 0b3c 7581 083e 751d 3abd
000001d0: 2d93 393d 142d 103d 7722 823b 0926 c63d
000001e0: 0707 de3d 2de7 28bd 5bd9 8d3d 4675 703d
000001f0: 5d61 063e ee18 eabd 7ca6 903c 5ad2 42bd
00000200: 9316 9ebc 3be2 473a ad10 d5bd 9a01 06bc
00000210: febf 01bd addb cc3b a3cc 8bbc 6394 93bd
00000220: 6e3d 91bd ee08 403d 0dea e23d 5599 80bd
00000230: cbaf 8b3d e61b c0bc 3c29 843d 4bcf db3c
00000240: 6e83 eabd 5e02 cfbd 0e5d dc3c 1e71 743a
00000250: e288 dc3d f105 c7bc 6a94 003e 1830 b5bb
00000260: 4fd6 f43d 2918 ccbc 5a6d ab3d 2157 3b3c
00000270: e278 c7bc bfd6 f4bc 07b3 41bc 7b23 483d
00000280: 2723 c23d 0351 af3d 5cb1 8939 aa7f fd3d
00000290: e727 e3bd cca4 ee3d a8f3 90bd eef0 c73d
000002a0: e4ed de3c 270c a93b 60f8 fe3d 337a 8f3c
000002b0: 0d45 33bd 99b8 c63d ff35 273b 3aa8 483d
000002c0: 40eb 1c3d 7a3e f0ba 6f9e 883d 3144 00be
000002d0: bc0b 263d 6211 4cbd 6430 84bd bad6 a7bc
000002e0: a07c ccbc 76fd b43d cc29 013e d47d c6bd
000002f0: 6c3c 923d 335a a5bd fa3d a63d b3f7 7cbc
00000300: bb61 be3d 22b0 c03d 463c a0bd fcff d7bd
00000310: 1a71 843d e66e a7bd bfc9 e23d dcad 0f3d
00000320: 992e 813d f7b9 3bbc 0be2 003e a267 b1bd
00000330: 8d30 583c 8502 38bd 0973 713d 7ad4 4bbd
00000340: 5140 ca3d cc1d 11be 63a4 05be cc86 62bd
00000350: f19a e73d 787b 5cbc d66f 11bd 66ef 9cbd
00000360: bc9d 033e 83c8 653e 1baa 513d bbdb bdbd
00000370: 94ad 063e 9a4c 48bd 1c56 043d a7c1 ba3d
00000380: 4f38 3abd 574e b0bc e20b 043c 8bf0 acbc
00000390: 1db9 a93d 5caf 1bba dd5a debd 6fb9 fb3d
000003a0: a75e 9c3d 9a21 fe3d 3f66 323d b853 9abd
000003b0: 3827 773d fd47 85bd 4bf8 8c3d d65b 5b3d
000003c0: 2691 b4bc e65b c7bc 663d 593c 2809 b23d
000003d0: 3c49 cdbb d5d7 e53d 7599 9fbc bcda 183d
000003e0: 7521 70bd fff5 613d 8866 a13d 2119 b33d
000003f0: 78e0 aa3d 266b 55bd e7de 5e3d 50b9 c9bd

transformer.layers.0.1.fn.fn.net.0.bias f4 [128]
0.078026615 0.03537473 0.026005268 -0.08496006 0.032424007 -0.092790134 -0.10034882 0.062924325
-0.07958117 0.1119463 0.004307934 -0.05772027 -0.016534459 -0.0031831122 -0.105203964 -0.025097316
-0.1284871 -0.045402292 -0.12797807 0.07606363 0.014587268 -0.10232498 -0.08688532 -0.04338792
-0.023676744 -0.06930181 0.054159064 -0.060515203 0.09023965 0.028267888 -0.07475034 0.048721813
-0.1234393 0.103249356 -0.046927813 -0.0134079205 -0.12431505 -0.08055595 -0.11551397 0.09002354
0.11501302 -0.07728356 0.062352736 -0.08167945 -0.038315553 -0.0628353 -0.038339384 0.07544941
0.05011811 -0.13377798 0.047184374 -0.06885318 0.0075843963 -0.012412386 -0.05357194 -0.034655355
-0.08452378 -0.0823258 -0.11874794 0.09705214 0.109237395 -0.05285671 0.0031928767 -0.06874323
-0.11145127 0.019521875 -0.02172444 0.020985764 0.103196695 0.05589342 -0.076374695 -0.10167871
0.00983404 0.010192714 0.05993297 0.017692897 -0.113306046 0.116143264 0.046777193 -0.019913675
0.03367703 0.08266463 0.041155368 0.14415196 -0.032265205 0.043729335 -0.10089968 0.044386793
0.09378063 -0.10653523 0.048791826 -0.10463238 -0.1489127 -0.023617126 -0.0049054692 0.10600892
0.034766484 0.05261572 0.020112768 -0.08316644 -0.0012251465 -0.07439454 -0.13116293 0.04303393
-0.049496915 -0.13190322 -0.026473075 0.0041324357 -0.011757147 -0.110168904 -0.10930952 0.011401183
0.040347505 0.003541716 -0.055112563 0.081104286 0.07138342 0.037134424 -0.06749673 -0.07977051
0.053589415 -0.11867601 -0.09549583 0.026024435 -0.01269154 -0.120969556 0.13231145 0.010903701
00000000: 6bcc 9f3d 18e5 103d 0009 d53c 8aff adbd
00000010: 09cf 043d c108 bebd af83 cdbd 78de 803d
00000020: 74fb a2bd 1a44 e53d 9229 8d3b 176c 6cbd
00000030: 4673 87bc c39b 50bb 2d75 d7bd e398 cdbc
00000040: 1f92 03be c1f7 39bd af0c 03be 40c7 9b3d
00000050: 70ff 6e3c c28f d1bd eef0 b1bd 88b7 31bd
00000060: bbf5 c1bc 1bee 8dbd e5d5 5d3d cade 77bd
00000070: 91cf b83d 0f92 e73c b516 99bd 8690 473d
00000080: becd fcbd 6674 d33d 6137 40bd e5ac 5bbc
00000090: e498 febd 85fa a4bd 9792 ecbd 435e b83d
000000a0: f28b eb3d d846 9ebd 9565 7f3d 8e47 a7bd
000000b0: c5f0 1cbd cbaf 80bd c209 1dbd 3885 9a3d
000000c0: a648 4d3d 18fd 08be 6744 413d e502 8dbd
000000d0: 8786 f83b 525d 4bbc 406e 5bbd c6f2 0dbd
000000e0: ce1a adbd 6e9a a8bd 1f32 f3bd 46c3 c63d
000000f0: dbb7 df3d 4780 58bd 953f 513b 40c9 8cbd
00000100: 9040 e4bd 57ec 9f3c 74f7 b1bc 56ea ab3c
00000110: ca58 d33d 80f0 643d 566a 9cbd ed3c d0bd
00000120: f41e 213c 57ff 263c 467c 753d b2f0 903c
00000130: 000d e8bd 85dc ed3d 7199 3f3d 0122 a3bc
00000140: edf0 093d 134c a93d 8892 283d 929c 133e
00000150: 8528 04bd 881d 333d 7ea4 cebd edce 353d
00000160: 0f10 c03d 252f dabd f0d9 473d 8049 d6bd
00000170: 927c 18be b478 c1bc 0fbe a0bb 341b d93d
00000180: 4d67 0e3d 9583 573d 88c3 a43c 2b53 aabd
00000190: 1895 a0ba 2a5c 98bd 934f 06be 5944 303d
000001a0: 47bd 4abd a311 07be 10de d8bc 6269 873b
000001b0: 0ca1 40bc 3ca0 e1bd abdd dfbd 07cc 3a3c
000001c0: 6d43 253d 221c 683b b6bd 61bd 011a a63d
000001d0: 7831 923d 441a 183d ba3b 8abd b95e a3bd
000001e0: 9380 5b3d 680c f3bd 5193 c3bd 3231 d53c
000001f0: 2df0 4fbc e3be f7bd a77c 073e 70a5 323c
