model_training/trained_models/multicolor_data/model_20_ViT.pth (torch, 223472 bytes, 17 tensors)

patch_to_embedding.weight f4 [64, 192]
0	0x3d6c479b	0.057685476
1	0x3d1fe160	0.039033294
2	0x3ca93492	0.02065495
3	0x3d06231f	0.032748338
4	0x3d0b4d08	0.03400901
5	0xbc5b4914	-0.013384122
6	0xbd1a31fc	-0.037645325
7	0xbc27639c	-0.01021662
8	0x3dcff58c	0.10154256
9	0x3da20d96	0.079127476
10	0x3d61a65a	0.055090286
11	0x3d373e0d	0.04473691
12	0x3d8c5b07	0.068532996
13	0x3d896ab5	0.06709806
14	0x3d366917	0.044533815
15	0x3c4df7f4	0.012571324
16	0x3d434bf7	0.047679868
17	0xbcea01e9	-0.028565364
18	0x3d585da2	0.05282367
19	0x3d93c021	0.0721438
20	0x3cd12efc	0.0255351
21	0xbd1c3a1f	-0.038141366
22	0x3c8f540b	0.01749613
23	0x3d50bb8c	0.05096011
24	0x3c8f2011	0.017471345
25	0x3d58f15b	0.05296455
26	0x3cb55406	0.022134792
27	0x3d2c5532	0.042073436
28	0x3d2160f0	0.039399087
29	0x3c5ad38c	0.013356101
30	0xbd1413ba	-0.036151625
31	0x3dbd6d7f	0.092494
32	0xbd201009	-0.039077792
33	0xbcd105f5	-0.025515536
34	0x3dc714a5	0.097207345
35	0x3beda98b	0.007252877
36	0xbd083e2e	-0.033262424
37	0x3daf3f03	0.085569404
38	0x3a879ded	0.0010346748
39	0x3da268d5	0.079301514
40	0x3da6e529	0.081491776
41	0xbd3e4c1b	-0.0464593
42	0xbd2c8c3b	-0.04212592
43	0x3cde8b8d	0.027166152
44	0x3a4259b5	0.000741388
45	0xbd22abf8	-0.039714783
46	0xbcb91535	-0.02259312
47	0x3d90be46	0.07067542
48	0x3d8d14f0	0.06888759
49	0x3d7bef37	0.06150743
50	0x3d79f52c	0.06102483
51	0x3d9f1b66	0.07768898
52	0x3dc0dcf5	0.09417144
53	0x3cd5eb98	0.026113316
54	0x3d249bf9	0.04018781
55	0x3de1011f	0.10986542
56	0x3d1e0834	0.03858204
57	0x3d18da29	0.03731743
58	0x3dbebc58	0.093132675
59	0x3d9d5ba5	0.076834954
60	0x3d481de5	0.048856635
61	0x3d90cea5	0.07070664
62	0x3dbaefb9	0.09127755
63	0x3cb3d855	0.021953741
64	0xbc81b404	-0.015832908
65	0x3cfc3c11	0.03079036
66	0x3db761f9	0.08954234
67	0xbcaf5326	-0.021401953
68	0xbd481aff	-0.04885387
69	0xba2fbcbf	-0.00067038456
70	0x3d080e01	0.03321648
71	0xbd1e5303	-0.038653385
72	0xbc243ae8	-0.01002381
73	0x3d0645f4	0.032781556
74	0x3da6827f	0.08130359
75	0x3d8cca8a	0.06874569
76	0x3d889901	0.06669808
77	0x3d4d0c1d	0.05006038
78	0x3d6b8425	0.05749907
79	0x3db6d9ff	0.08928298
80	0x3b0544b6	0.0020335144
81	0x3d00d19e	0.031449907
82	0x3d10ad63	0.035321604
83	0x3d0e4027	0.03472915
84	0x3cf463e6	0.029832792
85	0xbc671697	-0.014104507
86	0x3da373f4	0.07981101
87	0x3d6fff3a	0.058593012
88	0xbd45263a	-0.04813216
89	0x3cbf62af	0.023362486
90	0xbd494c5b	-0.049145084
91	0x3d99ae5c	0.075039595
92	0x3d15b6fd	0.036551464
93	0x3d84d871	0.064865954
94	0x3dba4b9c	0.090964526
95	0x3da31aec	0.07964119
96	0x3d7ac8d0	0.061226666
97	0xbc31bb7e	-0.010847924
98	0x3b72c00a	0.0037040734
99	0x3d9df48e	0.07712661
100	0x3d99bf12	0.07507147
101	0xbbaa31ac	-0.0051939096
102	0x3dc2d35f	0.09512972
103	0x3d8c2914	0.068437725
104	0x3dac342e	0.0840839
105	0x3ce0f03c	0.027458303
106	0x3cd110b3	0.025520658
107	0xbc3aaa42	-0.011393132
108	0xbd0d3b89	-0.034480605
109	0x3c4d2712	0.012521522
110	0x3d2571af	0.04039162
111	0xbcda9187	-0.026680721
112	0x3d0175a6	0.03160634
113	0xbd4660ed	-0.04843228
114	0xbd2057b1	-0.03914613
115	0x3d9c2228	0.07623702
116	0xbd15097d	-0.036386
117	0x3cc0de9a	0.023543645
118	0xbc116f12	-0.008876579
119	0x3d45d163	0.04829539
120	0x3cee67f4	0.029102303
121	0xbcc2e9fa	-0.02379321
122	0xbcac714d	-0.02105012
123	0xbce5f60a	-0.028071422
124	0xbba16c19	-0.0049262163
125	0x3d5bf7d8	0.05370316
126	0x3c9437ff	0.018093107
127	0xbd31f006	-0.043441795
128	0x3d1b7036	0.03794881
129	0xbd1f5c1e	-0.03890621
130	0xbd416163	-0.047212016
131	0x3d7ae654	0.061254814
132	0xbd0f9676	-0.0350556
133	0x3c5997c2	0.013280811
134	0xbcf1a7b7	-0.029498918
135	0x3db0a5e4	0.08625391
136	0xbce52025	-0.02796943
137	0xbd45e39b	-0.048312765
138	0x3db406e3	0.08790376
139	0x3ccda43a	0.025102723
140	0xbd0596d2	-0.032614537
141	0x3d711202	0.058855064
142	0xbd48775e	-0.048941962
143	0x3d38e78d	0.0451427
144	0x3ba1872b	0.0049294434
145	0x3d2e25bf	0.042516466
146	0x3d7ae9d1	0.06125814
147	0x3c60d778	0.013723247
148	0x3d746885	0.05966999
149	0x3cc5522c	0.024087034
150	0x3ccf8b01	0.025334837
151	0x3d89960e	0.06718074
152	0x3d677b63	0.056514155
153	0xbaeeb5ca	-0.0018212136
154	0x3d34e55d	0.04416405
155	0xbcb62b47	-0.022237433
156	0x3d2459a1	0.04012454
157	0xbd2a2472	-0.041538663
158	0x3d872ad1	0.065999635
159	0xbd1902e7	-0.037356284
160	0xba1d5b66	-0.0006002694
161	0x3d820aab	0.06349691
162	0x3b8dd83f	0.004328757
163	0x3db47f74	0.08813372
164	0x3d3ac1fe	0.04559516
165	0x3cb7f3dc	0.022455148
166	0x3d37a87b	0.04483841
167	0xbcf59338	-0.029977426
168	0x3daff10c	0.08590898
169	0xbd71d0ea	-0.059037127
170	0x3d553715	0.052054483
171	0x3ce0303d	0.027366752
172	0x3d9064d3	0.07050481
173	0x3c63692b	0.0138800545
174	0x3d3f673f	0.046729323
175	0xbd523886	-0.051323436
176	0x3d969f7e	0.073546395
177	0xbce8e74c	-0.028430603
178	0x3d63a235	0.055574615
179	0x3d47a707	0.048743274
180	0x3dc72bef	0.097251765
181	0x3db59441	0.08866168
182	0x3ce338d0	0.027737051
183	0xbd005d0f	-0.031338748
184	0x3d922e87	0.07137781
185	0xbc979bb5	-0.018506864
186	0xbd375769	-0.044761095
187	0x3d223ca5	0.039608616
188	0xbc80366c	-0.01565095
189	0x3d776db8	0.06040737
190	0x3d5e16e7	0.05422106
191	0xbb49581a	-0.0030722679
192	0xbcf91785	-0.030406723
193	0xbd5a315c	-0.05326973
194	0xbd8199e8	-0.063281834
195	0xbdbb9e73	-0.09161081
196	0xbdb0f653	-0.086407326
197	0x3c9fb03e	0.019493219
198	0x3cc2bdff	0.023772238
199	0xbcdc8469	-0.026918607
200	0xbdc3fba6	-0.095694825
201	0xba3f824e	-0.00073054887
202	0xbd6191e2	-0.055070765
203	0xbda2a9c9	-0.0794254
204	0x3d0ca06d	0.03433268
205	0xbd284984	-0.041085735
206	0xbb879cab	-0.0041385493
207	0x3c6874b3	0.0141879795
208	0xbd2456b1	-0.040121738
209	0x3d256cf9	0.040387128
210	0x3d89361d	0.066997744
211	0x3dac995b	0.08427688
212	0x3b9181d3	0.004440525
213	0x3d97ea91	0.07417787
214	0x3be6c634	0.0070426706
215	0x3dae2955	0.08503977
216	0xbda6bdd8	-0.081416786
217	0xbd60d66c	-0.05489199
218	0x3ce99df4	0.0285177
219	0xbdd7b5cd	-0.105327226
220	0xbde3d7d8	-0.11125153
221	0xbc3ef503	-0.011655095
222	0xbd475f7a	-0.048675038
223	0xbdbc6645	-0.09199194
224	0xbdee94e0	-0.116494894
225	0x3c1ac095	0.009445329
226	0xbd6ed2b8	-0.058306426
227	0xbd854d9c	-0.065089434
228	0xbbb4ba98	-0.005515408
229	0xbc290932	-0.010317134
230	0x3c892646	0.016741883
231	0xbc99b574	-0.018763281
232	0xbd61825a	-0.055055954
233	0xbd9f95ff	-0.07792281
234	0xbc5016f2	-0.012700783
235	0x3d8735f7	0.0660209
236	0xbd84571d	-0.06461928
237	0x3dc44769	0.09583933
238	0x3daff5b0	0.08591783
239	0xbd38f5a2	-0.04515613
240	0x3cbc7155	0.02300326
241	0x3bb0bba5	0.0053934627
242	0xbdf356cb	-0.11881789
243	0xbd84a173	-0.064761065
244	0xbcef3884	-0.029201753
245	0xbd89593a	-0.06706472
246	0xbd517739	-0.05113909
247	0xbd7b492e	-0.061349086
248	0x3be4d66a	0.006983568
249	0xbdb5ebff	-0.08882903
250	0xbda0d138	-0.07852405
251	0xbd979e57	-0.07403248
252	0x3c8d2d3f	0.01723349
253	0xbd80d984	-0.06291488
254	0xbd3725c0	-0.044713736
255	0x3c996607	0.018725408

patch_to_embedding.bias f4 [64]
0	0x3ce82c70	0.028341502
1	0x3d3a5dbe	0.045499556
2	0x3dd52643	0.104076885
3	0x3d70bd65	0.05877437
4	0x3d2744a9	0.040836964
5	0x3d169349	0.036761556
6	0x3d9aa814	0.075515896
7	0x3c24979b	0.010045911
8	0x3d609299	0.054827306
9	0x3c75c457	0.015000424
10	0xbe0e5c75	-0.13902457
11	0xbd942dc8	-0.072352946
12	0x3ce7b522	0.028284613
13	0x3e0aaf17	0.13543354
14	0xbd73b953	-0.05950291
15	0x3cb26aca	0.021779437
16	0x3dbe2459	0.092842765
17	0x3e944ca3	0.2896472
18	0xbdd3d66d	-0.10343633
19	0xbd815c90	-0.06316483
20	0xbe0edfa0	-0.13952494
21	0xbc8a5eb4	-0.016890861
22	0x3cd74792	0.026279245
23	0xbd48ac4a	-0.048992433
24	0xbd6d0de7	-0.057874586
25	0x3db8f41b	0.090309344
26	0xbdfbdbe0	-0.12297797
27	0xbd2e9ecf	-0.04263192
28	0xbd7c3b36	-0.061579905
29	0x3d8bceb8	0.06826538
30	0xbd81f1d6	-0.06344955
31	0x3dbc7482	0.092019096
32	0xbe26b001	-0.16278078
33	0x3d316742	0.043311365
34	0xbe3a939b	-0.1822037
35	0x3d81e45b	0.063423835
36	0x3d073c01	0.03301621
37	0xbd5af3e5	-0.053455252
38	0xbe12973d	-0.14315505
39	0xbe2c2c61	-0.16813804
40	0xbdb9575d	-0.09049866
41	0xbd6daa09	-0.058023486
42	0xbbceac2a	-0.0063071446
43	0x3dedb1c1	0.116061695
44	0xbb1c6cec	-0.0023868633
45	0xbdbd3042	-0.0923772
46	0xbd10267f	-0.035192963
47	0xbdffeacb	-0.12495955
48	0x3cd38841	0.025821807
49	0x3d168442	0.036747225
50	0xbd27124a	-0.040788926
51	0x3daf3905	0.085557975
52	0xbd2f7292	-0.042833872
53	0x3d4946dc	0.049139842
54	0x3d929194	0.07156673
55	0x3dd93ae7	0.10606938
56	0x3e36a904	0.17837912
57	0xbd10bc76	-0.03533598
58	0xbe49bdc4	-0.19701296
59	0xbd9262f9	-0.07147784
60	0xbcc3d222	-0.02390391
61	0xbd295f4f	-0.04135066
62	0xbda22dca	-0.0791889
63	0x3ddfcac8	0.10927349

transformer.layers.0.0.fn.norm.weight f4 [64]
0	0x3f6aead5	0.91764575
1	0x3f53fb1a	0.82805026
2	0x3f6e7f7a	0.93163264
3	0x3f11773c	0.5682256
4	0x3f591174	0.84792256
5	0x3f39f815	0.7264417
6	0x3f260547	0.648518
7	0x3f60d9f3	0.87832564
8	0x3ef8893c	0.48542202
9	0x3f4e652d	0.8062313
10	0x3f6f7d87	0.93550915
11	0x3f5170a2	0.8181249
12	0x3ef9736f	0.4872088
13	0x3f30b1e4	0.6902144
14	0x3f687459	0.9080253
15	0x3f570a2f	0.83999914
16	0x3f4d2de9	0.8014818
17	0x3f706019	0.93896633
18	0x3f3eefb3	0.745845
19	0x3f55d965	0.8353484
20	0x3f3eb453	0.744939
21	0x3f47ac82	0.779976
22	0x3f3c0635	0.7344697
23	0x3f5049cd	0.8136261
24	0x3f63b4a8	0.88947535
25	0x3f431345	0.7620128
26	0x3f61442e	0.8799466
27	0x3f4aa90e	0.79164207
28	0x3f313891	0.6922694
29	0x3f3e214a	0.74269545
30	0x3f7186e5	0.9434646
31	0x3f8c08e5	1.0940214
32	0x3f1fb430	0.6238432
33	0x3f681c5c	0.9066827
34	0x3f5a31bd	0.85232145
35	0x3f5eb452	0.86993897
36	0x3f584dce	0.8449372
37	0x3f593ed2	0.8486148
38	0x3f20f273	0.6286995
39	0x3f5f3918	0.87196493
40	0x3f857293	1.042559
41	0x3f558fc0	0.8342247
42	0x3f62e0e9	0.88624436
43	0x3f3a0d2c	0.7267635
44	0x3f5eb066	0.8698791
45	0x3f6a921b	0.9162919
46	0x3f27a3f1	0.6548453
47	0x3f42e189	0.7612539
48	0x3f4020cf	0.7505006
49	0x3f5e1981	0.86757666
50	0x3f5ad92e	0.8548764
51	0x3f5ba8c4	0.8580439
52	0x3f714e52	0.9426013
53	0x3f833735	1.0251223
54	0x3f6b55d1	0.9192782
55	0x3f643dac	0.89156604
56	0x3f4b641e	0.7944964
57	0x3f56436f	0.83696645
58	0x3f572a16	0.84048593
59	0x3f298908	0.6622472
60	0x3f05d7ad	0.5228222
61	0x3f2d8b3a	0.6779057
62	0x3f430669	0.76181656
63	0x3f4b991c	0.795305

transformer.layers.0.0.fn.norm.bias f4 [64]
0	0xbd366751	-0.044532124
1	0x3dafa48b	0.08576306
2	0xbd5b6496	-0.053562723
3	0xbcd977af	-0.026546327
4	0xbdcf9878	-0.10136503
5	0x3dbbc6ea	0.09168799
6	0x3da1b698	0.07896155
7	0xbc82bc58	-0.01595895
8	0xbd8d0c95	-0.068871655
9	0xbd27d6ef	-0.04097646
10	0x3c21139d	0.009831336
11	0x3dc05377	0.0939092
12	0x3e18dd0e	0.14928076
13	0xbc300912	-0.01074435
14	0xbdc15b52	-0.09441246
15	0x3e1b4a3e	0.1516504
16	0xbdbc4ba8	-0.09194118
17	0xbdd1a276	-0.10236065
18	0x3e1570df	0.14593838
19	0xbcb79473	-0.022409653
20	0xbd53d612	-0.051717825
21	0x3d1a6786	0.037696384
22	0xbe05ce6a	-0.13067022
23	0x3d102c1e	0.035198323
24	0x3b12e21b	0.0022412601
25	0x3d0f4f6c	0.034987852
26	0x3c66a324	0.014076982
27	0xbdaad147	-0.08340698
28	0x3ce018ec	0.027355634
29	0xbd290afd	-0.041270245
30	0x3d22ca02	0.03974343
31	0xbdc1ef50	-0.09469473
32	0xbdde8d54	-0.108668
33	0x3d29cf6b	0.041457575
34	0x3db4c69b	0.088269435
35	0xbdd14794	-0.102187306
36	0x392f167e	0.0001669768
37	0x3d90076e	0.07032667
38	0xbdef5117	-0.116853885
39	0x3d89af28	0.067228615
40	0xb93f21b7	-0.00018227739
41	0x3da8df31	0.082456954
42	0xbcdef7cb	-0.027217766
43	0x3bc4d17b	0.0060064173
44	0x3d888f07	0.06667905
45	0x3cae4709	0.021274107
46	0x3d75bc3d	0.05999397
47	0x3cc00dea	0.023444135
48	0x3cb78906	0.022404205
49	0xbd67e133	-0.05661125
50	0x3dc42f04	0.0957928
51	0xbd0ebcfb	-0.034848195
52	0x3e0e21a4	0.1388002
53	0xbd82f755	-0.06394831
54	0xbbd92e89	-0.006627862
55	0xbd2579f7	-0.040399518
56	0x3d122676	0.03568121
57	0x3ce994e0	0.028513372
58	0xbd203e32	-0.039121814
59	0xbd93e2dc	-0.07221004
60	0xbcf6a987	-0.030110134
61	0xbe218fee	-0.15777561
62	0x3da9adf5	0.08285133
63	0x3bd99238	0.006639745

transformer.layers.0.0.fn.fn.to_qkv.weight f4 [192, 64]
0	0xbde76512	-0.112985745
1	0x3c7dd4f0	0.015492663
2	0xbd362747	-0.04447105
3	0xbd70b8a6	-0.058769844
4	0x3d8a4ffa	0.067535356
5	0xbc9fe170	-0.019516677
6	0x3da166d1	0.07880939
7	0x3e075e25	0.13219507
8	0x3e0623b7	0.13099562
9	0x3d98e6a7	0.074658684
10	0xbc83c026	-0.016082834
11	0x3e2531f7	0.16132341
12	0x3de3b061	0.11117626
13	0x3e27c4aa	0.16383615
14	0xbdbde111	-0.09271444
15	0x3dfaa355	0.12238184
16	0xbc8ba2c6	-0.01704539
17	0xbd3e30d0	-0.04643327
18	0xbd5c441c	-0.05377589
19	0xbd878a7e	-0.06618212
20	0xbd0bedb8	-0.034162253
21	0xbcf4f5c5	-0.029902348
22	0xbe0a33ca	-0.13496318
23	0xbdc02235	-0.093815245
24	0x3d4045fe	0.04694175
25	0xbe00db61	-0.12583686
26	0xbd7be52a	-0.061497845
27	0xbd1ea89d	-0.03873502
28	0x3c8ee474	0.01744292
29	0xbda7274f	-0.081617944
30	0x3da11594	0.07865444
31	0x3cdd2b2c	0.026998125
32	0x3e1e6d4d	0.15471382
33	0xbca2e4cd	-0.019884491
34	0x3dbc5238	0.091953695
35	0x3d902015	0.07037369
36	0x3b201f2d	0.0024432645
37	0x3cd784d2	0.02630845
38	0x3d55b9c9	0.05217913
39	0x3d52aa20	0.051431775
40	0xbd96fa6e	-0.073719844
41	0x3d3bad34	0.045819476
42	0xbcf8a963	-0.030354207
43	0xbe1df3f9	-0.154251
44	0xbcb8a93a	-0.022541631
45	0xbcc3d04e	-0.023903038
46	0x3e1d694e	0.15372202
47	0xbcde3724	-0.027125902
48	0x3dc5fc6f	0.096672885
49	0xbde52880	-0.111893654
50	0x3d5cb55b	0.05388389
51	0xbd58a454	-0.05289109
52	0x3da0b1e4	0.0784643
53	0x3d26ceda	0.040724613
54	0x3daba60e	0.08381282
55	0xbdb3da4c	-0.08781871
56	0xbcf4a0e4	-0.029861875
57	0x3d9aa0ba	0.075501874
58	0x3ddf0028	0.10888702
59	0x3db222bb	0.086980306
60	0x3dc78007	0.09741216
61	0xbe159ae5	-0.14609869
62	0x3dc04960	0.09388995
63	0xbd078453	-0.03308518
64	0xbd0cb9ed	-0.034357
65	0x3de15a72	0.11003579
66	0x3d40ebfe	0.04710006
67	0x3ce4df1e	0.027938422
68	0xbd2eda53	-0.04268868
69	0xbd541d8a	-0.051785983
70	0x3df8a1fc	0.12140271
71	0x3d7c5cb6	0.061611854
72	0x3cd31f5f	0.025771795
73	0x3dc9ed08	0.09859663
74	0x3c8caa70	0.017171115
75	0x3d95ed91	0.07320703
76	0x3b86f486	0.004118505
77	0x3df53a1c	0.11973974
78	0xbcf32590	-0.029680997
79	0x3e050f68	0.12994158
80	0xbc1ac898	-0.009447239
81	0x3d4b632e	0.049655132
82	0xbe04cfd7	-0.1296991
83	0x3d9d7470	0.07688224
84	0xbcf5ee09	-0.03002073
85	0xbdb90456	-0.0903403
86	0x3df78677	0.12086194
87	0xbde64387	-0.112433486
88	0x3ddf1f95	0.10894696
89	0x3d3fdae9	0.04683963
90	0xbabbeb36	-0.0014337066
91	0x3dae1069	0.08499224
92	0xbdae56e3	-0.08512666
93	0x3c1ebc52	0.009688454
94	0xbdc2a89a	-0.095048144
95	0xbdc19673	-0.09452524
96	0x3de78ff3	0.11306753
97	0x3d15f978	0.036614865
98	0x3c684449	0.014176437
99	0x3dea33a8	0.11435634
100	0xbccc791c	-0.024960093
101	0x3c6563bc	0.014000829
102	0x3df18c73	0.11794367
103	0xbdf9b0b8	-0.121919096
104	0xbd6d4cc8	-0.057934552
105	0x3c8f8e28	0.01752384
106	0x3de6b810	0.11265576
107	0x3d0fbb4a	0.035090722
108	0x3de0352d	0.109476425
109	0x3d3d8ad1	0.046274964
110	0x3d9b446b	0.07581409
111	0x3c5184de	0.012788026
112	0xbd54545f	-0.051838275
113	0x3de709e1	0.11281181
114	0x3d50df25	0.050994057
115	0xbc5bcca2	-0.0134154875
116	0x3d7c792c	0.061638996
117	0xbde9e2a5	-0.11420182
118	0x3d0e7f7b	0.034789544
119	0x3cb6dcbb	0.02232205
120	0x3dcd9e95	0.10040013
121	0x3da30980	0.07960796
122	0x3da0caae	0.07851158
123	0x3d8bf475	0.06833736
124	0xbd740515	-0.05957516
125	0x3d61ec77	0.05515715
126	0xbd2aa759	-0.0416635
127	0xbc482cce	-0.0122177135
128	0x3daac753	0.08338799
129	0x3c968f25	0.018378804
130	0x3e14832a	0.1450316
131	0xbd9374ed	-0.07200036
132	0x3d5aefb3	0.05345125
133	0x3d154c02	0.03644944
134	0xbd670b07	-0.056407
135	0x3d9b4054	0.07580629
136	0xbd724db4	-0.059156135
137	0x3d8da517	0.06916254
138	0x3cd235ef	0.025660483
139	0x3cf33e18	0.029692695
140	0x3c0d4635	0.008622696
141	0x3cdd3618	0.027003333
142	0xbd071455	-0.032978375
143	0x3d2ef300	0.04271221
144	0xbceede20	-0.029158652
145	0xbc6e19b2	-0.014532493
146	0x3dbf1172	0.09329499
147	0xbd36d0ea	-0.04463283
148	0xbde6d085	-0.11270241
149	0x3dd4b3f3	0.10385885
150	0x3dee0bae	0.116233215
151	0x3ce68959	0.028141664
152	0xbdad6536	-0.0846657
153	0x3ca05e19	0.01957612
154	0xbd7d1981	-0.0617919
155	0x3e1792b9	0.14802064
156	0x3daf669d	0.08564494
157	0xbcf8a818	-0.03035359
158	0xbc96a9bf	-0.018391488
159	0xbccca7ba	-0.024982322
160	0x3cc89150	0.024483353
161	0xbdef7951	-0.11693061
162	0xbbd01374	-0.0063499752
163	0x3e04d3d1	0.12971427
164	0xbd511709	-0.05104736
165	0xbde79e52	-0.11309494
166	0x3b5c8574	0.003364888
167	0xbcf7260a	-0.030169506
168	0xbd77d157	-0.060502376
169	0xbdf31fee	-0.118713245
170	0x3d9d065b	0.07667228
171	0x3d5d7790	0.0540691
172	0x3dbbef66	0.09176521
173	0xbcd1866f	-0.025576798
174	0xbe09e555	-0.1346639
175	0x3b845575	0.0040385076
176	0xbdb21778	-0.086958826
177	0x3e0ad7fe	0.13558957
178	0xbe08d128	-0.13361037
179	0xbc9d580d	-0.019207025
180	0x3b23f6c3	0.0025018908
181	0x3dfff134	0.12497178
182	0xbd78605f	-0.06063878
183	0x3d8aaaa1	0.06770826
184	0xbd9f8fba	-0.077910855
185	0x3d0fde4f	0.03512412
186	0x3c043bfc	0.008070942
187	0x3dbffcd1	0.09374393
188	0x3cdbb11b	0.026817849
189	0xbd80d47a	-0.06290527
190	0xbdc50205	-0.09619526
191	0x3dcda537	0.10041278
192	0x3e301eef	0.171993
193	0x3ed4e8ea	0.4158395
194	0x3e15e6af	0.1463878
195	0xbe3dfc2a	-0.18553224
196	0x3e77be70	0.2419374
197	0xbe84c4d2	-0.25931412
198	0x3eac30a6	0.33630866
199	0xbe620402	-0.22071841
200	0xbe11b228	-0.14228117
201	0x3ec8b040	0.39196968
202	0xbe7d6518	-0.24745595
203	0xbe7d848d	-0.24757595
204	0xbe571c28	-0.21006835
205	0xbe98913b	-0.29798302
206	0x3eb5e092	0.35522896
207	0xbcd44545	-0.025911937
208	0x3e47bd0d	0.19505711
209	0xbe6b2e49	-0.22966875
210	0xbeaa7544	-0.33292592
211	0x3ec7dbaa	0.39034778
212	0xbe3ce197	-0.1844543
213	0x3ec91311	0.3927236
214	0x3e4e86f4	0.20168668
215	0x3e859274	0.26088297
216	0x3ea0c803	0.31402597
217	0x3e66f4d6	0.22554335
218	0x3ec4f00d	0.38464394
219	0x3e20ce08	0.15703595
220	0xbe16feba	-0.14745608
221	0xbe7e15f0	-0.24813056
222	0xbea40dea	-0.32041866
223	0x3e2ab781	0.16671564
224	0xbe431055	-0.19049199
225	0xbe9715e1	-0.2950888
226	0xbe2a3cac	-0.16624707
227	0x3ea7808c	0.3271526
228	0x3e83a4bb	0.25711617
229	0xbe3a2657	-0.18178688
230	0xbea6f5e1	-0.32609466
231	0xbe96fa4c	-0.29487836
232	0xbeca52d8	-0.3951633
233	0xbeb41a93	-0.35176525
234	0x3ea1bfd0	0.31591654
235	0x3e815341	0.2525883
236	0x3ea9e314	0.3318106
237	0x3e89567d	0.26823798
238	0xbe991184	-0.29896176
239	0xbebf5e08	-0.37376428
240	0xbded0028	-0.115722954
241	0x3eab4238	0.33448958
242	0xbeb96d7d	-0.36216345
243	0x3e2a5792	0.16634968
244	0xbe1a82e6	-0.15088996
245	0x3e258b77	0.16166483
246	0x3ea6aea2	0.3255511
247	0x3e8bbdf3	0.27293357
248	0xbe3dade4	-0.18523365
249	0x3eb9339e	0.36172193
250	0xbeb2911b	-0.34876332
251	0x3e4e7a69	0.20163883
252	0xbe862c8d	-0.26205865
253	0x3e9ba87c	0.3040198
254	0xbe8a53c0	-0.2701702
255	0x3e7af78a	0.24508491

transformer.layers.0.0.fn.fn.to_out.weight f4 [64, 64]
0	0xbe0a4203	-0.13501744
1	0x3c8762f1	0.016526671
2	0x3da8a22a	0.08234055
3	0x3d128658	0.03577265
4	0xbca5d563	-0.020243352
5	0x3ca70210	0.020386726
6	0xbe0de993	-0.13858633
7	0xbdce9b61	-0.1008823
8	0x3c7d360c	0.01545478
9	0xbd75283f	-0.059852835
10	0xbd0f53db	-0.03499208
11	0xbdb70439	-0.08936352
12	0xbd4e2bf6	-0.050334893
13	0xbcdc8350	-0.026918083
14	0xbd86d966	-0.06584434
15	0xbdc3d4e9	-0.09562094
16	0xbd344255	-0.04400857
17	0x3de7c75b	0.11317321
18	0xbd1363ce	-0.035983853
19	0x3d6d812c	0.057984516
20	0x3da5c4c2	0.08094169
21	0xbd6a9b64	-0.0572771
22	0x3d57280d	0.05252843
23	0xbce87b5c	-0.028379135
24	0x3d782203	0.06057931
25	0x3bef7b31	0.0073083867
26	0xbd219741	-0.039450888
27	0xbe114dca	-0.1418983
28	0x3c532424	0.012887035
29	0xbda11460	-0.07865214
30	0xbe0b91aa	-0.13629785
31	0x3ddd5efc	0.108091325
32	0x3cb243f3	0.021760916
33	0xbd0d7f1d	-0.034545053
34	0xbd9deb81	-0.077109344
35	0xbd76f7e5	-0.060295004
36	0xbdabedd3	-0.08394971
37	0x3d19d570	0.037557065
38	0xbc232c3d	-0.009959278
39	0xbc91534b	-0.017739912
40	0xbcf84c2c	-0.03030976
41	0x3dfe0cc6	0.1240478
42	0xbdc4002f	-0.095703475
43	0xbcbf840f	-0.0233784
44	0x3e0e284d	0.13882561
45	0xbd922a98	-0.0713703
46	0xbc816210	-0.01579383
47	0x3d03d688	0.032187015
48	0x3c4e3378	0.012585513
49	0x3d9866a4	0.07441452
50	0x3d9c9d30	0.07647169
51	0xbb8cabf8	-0.004292961
52	0xbe0543c8	-0.13014138
53	0x3c14da11	0.009085194
54	0xbd15e21a	-0.03659258
55	0xbc5af983	-0.013365152
56	0xbdc5b3a3	-0.096534036
57	0xbdb26876	-0.087113306
58	0x3df5f293	0.12009158
59	0xbd4e00cc	-0.05029373
60	0x3ce5889f	0.028019248
61	0xbda51a9f	-0.08061718
62	0x3c25ea17	0.010126612
63	0xbd4b2096	-0.049591623
64	0xbdf81439	-0.12113232
65	0xbdd3efc1	-0.10348464
66	0x3ddd2407	0.10797887
67	0x3c53ae54	0.012919981
68	0x3be6bb03	0.0070413365
69	0x3d8a9ff3	0.06768789
70	0xbc355ff6	-0.011070242
71	0x3df1e85e	0.11811899
72	0x3dca7e64	0.09887388
73	0x3e011f10	0.12609506
74	0x3d1e7407	0.03868487
75	0xbd3a87ef	-0.045539793
76	0xbddf3bf0	-0.10900104
77	0x3d6a7e6d	0.057249475
78	0xbe1020da	-0.14075032
79	0xbddaa89e	-0.106766924
80	0x3cf70b8c	0.030156873
81	0xbce24f70	-0.02762577
82	0xbd309bb4	-0.04311724
83	0x3cc62c41	0.024191024
84	0xbddada6f	-0.10686194
85	0xbdf0e8c1	-0.11763144
86	0x3d349926	0.044091366
87	0xbd85f6a7	-0.06541186
88	0x3d27623d	0.04086517
89	0xbdaac32c	-0.08338007
90	0xbdfebebf	-0.12438726
91	0xbad37875	-0.0016133921
92	0xbdf94b71	-0.121725924
93	0x3c024365	0.007950638
94	0x3d4cee7c	0.050032124
95	0xbb68c71e	-0.0035519074
96	0x3dcaab08	0.09895903
97	0x3dae521b	0.08511754
98	0xbd3edc1c	-0.04659663
99	0x3d88ca97	0.06679266
100	0x3d958b7c	0.07301995
101	0x3da60ce3	0.08107927
102	0xbdb82c2d	-0.08992801
103	0xbdcdb7b3	-0.100448035
104	0x3d76d815	0.060264666
105	0x3cb8dd4a	0.022566456
106	0xbd7f02da	-0.06225858
107	0xbd546ae7	-0.051859763
108	0x3dc0623e	0.09393738
109	0x3d76af8b	0.060226005
110	0x3d989db6	0.07451956
111	0xbcfdaf2a	-0.030967314
112	0x3d9f2609	0.077709265
113	0x3da974a5	0.08274201
114	0xbbbc8697	-0.005753349
115	0x3c71e760	0.014764637
116	0xbdeca7d3	-0.115554474
117	0x3c288b16	0.010287067
118	0xbdd0a2f7	-0.10187333
119	0xbd84be5b	-0.0648162
120	0x3d6f0511	0.05835444
121	0x3d290c3b	0.04127143
122	0xbd1cb56f	-0.038258966
123	0x3d4e1dae	0.050321274
124	0x3cc688fa	0.024235237
125	0xbd734253	-0.059389424
126	0xbdfd9a3d	-0.12382934
127	0x3deb92f5	0.11502639
128	0xbddba167	-0.107241444
129	0x3dc4d126	0.096102044
130	0xbd44e791	-0.0480724
131	0xbe03436a	-0.12818685
132	0x3d93d01d	0.07217429
133	0xbc47321f	-0.012157946
134	0xbd917e3b	-0.07104155
135	0x3dc009be	0.09376858
136	0xbd506437	-0.050876822
137	0x3d9bbdcf	0.076045625
138	0x3daef5ed	0.08543
139	0xbd931a9b	-0.07182809
140	0x3d6d21db	0.057893615
141	0x3d2957af	0.041343387
142	0x3d0743d8	0.033023685
143	0xbcce4ffb	-0.025184622
144	0xbcdf6e89	-0.027274387
145	0xbd90122f	-0.07034718
146	0x3d9c3cb7	0.07628768
147	0x3df711c2	0.12063934
148	0x3d3c2ce9	0.045941267
149	0x3dc8fd2c	0.09813914
150	0xbd38e2f5	-0.045138318
151	0xbded8052	-0.11596741
152	0x3bd41b99	0.0064730165
153	0x3d81ee56	0.06344287
154	0xbdc00af1	-0.09377087
155	0xbe07bbd8	-0.1325525
156	0xbdf2d3d0	-0.11856806
157	0x3da8b4dd	0.08237622
158	0xbd31984d	-0.043358136
159	0x3da749f5	0.08168403
160	0x3da4b888	0.08043009
161	0x3daa121d	0.08304236
162	0x3d833eaf	0.0640844
163	0x3df4ede2	0.11959435
164	0xbde91c1a	-0.11382313
165	0xbcc63fb1	-0.024200292
166	0xbcd4d6ea	-0.025981385
167	0x3dc17841	0.09446765
168	0xbd7580d0	-0.0599373
169	0xbdd1db82	-0.10246946
170	0x3d893011	0.06698621
171	0xbd4b4b82	-0.049632557
172	0x3d07cfce	0.033157162
173	0x3d87f590	0.06638634
174	0xbda4549b	-0.0802395
175	0xbd06d01a	-0.032913305
176	0x3dc18308	0.0944882
177	0x3cf2bb66	0.029630374
178	0xbcc29937	-0.0237547
179	0xbcd15d74	-0.025557257
180	0x3d9f74af	0.077859275
181	0xbda97c27	-0.08275633
182	0x3dd29759	0.102827735
183	0xbda8fbf1	-0.08251179
184	0x3ddedaa6	0.10881548
185	0xbce92266	-0.028458785
186	0xbda901d5	-0.082523026
187	0x3dfd59d2	0.123706475
188	0xbdbf5a1f	-0.09343361
189	0x3df5eb4a	0.120077685
190	0x3b24cf8a	0.0025148117
191	0xbdcb1c2a	-0.09917481
192	0xbce6626b	-0.028123101
193	0x3dab6895	0.08369557
194	0x3bdd5ef1	0.0067557027
195	0x3dc3969d	0.095502116
196	0x3de7187c	0.11283967
197	0xbe078814	-0.13235503
198	0x3d26e485	0.040745277
199	0xbd86cf05	-0.065824546
200	0xbde17cf5	-0.11010162
201	0xbd703c3c	-0.058651194
202	0xbdbb1e83	-0.09136679
203	0x3c012780	0.007882953
204	0xbd9caa3a	-0.07649656
205	0xbd335e58	-0.043791145
206	0x3d9a02a3	0.07520034
207	0xbd2ea0d3	-0.042633843
208	0xbdbb31be	-0.09140347
209	0xbcc0c983	-0.023533588
210	0x3d8cde07	0.06878286
211	0xbddc05f8	-0.10743326
212	0xbe00a059	-0.12561168
213	0x3d28e1cb	0.041230958
214	0xbc909045	-0.017646918
215	0xbe1afbf3	-0.15135173
216	0xbd0a46c7	-0.033758905
217	0x3d8e640b	0.069526754
218	0xbd624b6f	-0.05524772
219	0x3d698643	0.057012808
220	0x3ca6474b	0.020297667
221	0xbd207a3b	-0.039179068
222	0x3cabaad1	0.020955475
223	0xbdeed64e	-0.11661969
224	0xbc00fbb0	-0.007872507
225	0xbcd5cb6f	-0.026097981
226	0xbdf7e38a	-0.121039465
227	0x3c67364e	0.014112068
228	0x3d5d885a	0.054085113
229	0xbdae2e54	-0.0850493
230	0xbd6d28e9	-0.057900343
231	0x3cee0759	0.029056238
232	0x394cd9da	0.00019536112
233	0xbaa98e51	-0.001293609
234	0x3d35795f	0.0443052
235	0x3db1415b	0.08655044
236	0x3dff4a5c	0.12465355
237	0x3cf327fd	0.029682154
238	0xbc46aec2	-0.012126626
239	0x3bbdcdd3	0.0057923584
240	0xbdb4e598	-0.08832854
241	0xbcf49850	-0.029857785
242	0x3da85bf4	0.08220664
243	0xbda85c54	-0.08220735
244	0x3d4270a1	0.047470693
245	0xbd4c1513	-0.049824785
246	0x3a1ad39b	0.00059061655
247	0xbc865ac0	-0.016400695
248	0xbd250273	-0.04028554
249	0xbda30a26	-0.0796092
250	0x3d924575	0.07142154
251	0x3df8a86f	0.12141501
252	0x3d85ed13	0.06539359
253	0x3d275e82	0.040861614
254	0x3dbc0434	0.09180489
255	0xbce868d1	-0.028370293

transformer.layers.0.0.fn.fn.to_out.bias f4 [64]
0	0x3ce4980d	0.027904535
1	0xbc1fe746	-0.00975973
2	0x3e079d14	0.13243514
3	0xbdb20500	-0.0869236
4	0x3de4ae76	0.11166088
5	0xbd94392b	-0.072374664
6	0xba8d3340	-0.001077272
7	0xbc037d0a	-0.008025417
8	0xbcc10423	-0.023561543
9	0xbce2e974	-0.02769921
10	0xbd268158	-0.040650696
11	0xbe104738	-0.14089668
12	0x3cb77efc	0.022399418
13	0xbd9741bb	-0.07385584
14	0xbbe2c87c	-0.0069208723
15	0x3da38d5e	0.07985948
16	0xbe42fc5f	-0.19041584
17	0x3e00fd2c	0.12596577
18	0xbbce8b9d	-0.0063032643
19	0x3d818ec5	0.06326059
20	0x3d86a72f	0.065748565
21	0x3e2d6287	0.16932116
22	0xbccd0391	-0.025026115
23	0x3de7c968	0.11317712
24	0xbd880fb3	-0.066436194
25	0x3cc585bf	0.024111627
26	0x3dd14859	0.10218877
27	0x3e336762	0.17519906
28	0xbdd76912	-0.105180874
29	0x3e1afc6c	0.15135354
30	0xbc971e56	-0.018447082
31	0x3c28dc58	0.01030644
32	0x3d76e623	0.06027807
33	0xbe04c5c0	-0.1296606
34	0xbd51b3c1	-0.051196817
35	0xbc200da7	-0.00976888
36	0xbd8aac58	-0.06771153
37	0xbd523e7c	-0.05132912
38	0x3c31df1f	0.010856419
39	0xbcd94e73	-0.026526665
40	0x3c08880d	0.008333218
41	0xbdee73ec	-0.11643204
42	0x3d21c051	0.039490048
43	0x3df3005a	0.118653014
44	0xbd17e0aa	-0.03707949
45	0x3d3de89f	0.046364423
46	0x3cdddd3c	0.027083032
47	0x3b147c74	0.0022657188
48	0x3dfdda0f	0.12395107
49	0xbd13cd2b	-0.036084335
50	0x3e153cd0	0.1457398
51	0x3db95daa	0.09051068
52	0x3c8d6256	0.017258804
53	0x3de74c5e	0.11293863
54	0xbdfc3d2b	-0.12316354
55	0x3e421357	0.1895269
56	0xbda84d32	-0.08217849
57	0xbdca464e	-0.09876691
58	0xbc329b3b	-0.010901268
59	0xbdf48476	-0.119393274
60	0x3df3fce2	0.11913468
61	0x3dfdff76	0.12402241
62	0xbda3406f	-0.07971274
63	0xbda35ce8	-0.07976705

transformer.layers.0.1.fn.norm.weight f4 [64]
0	0x3f74bf26	0.9560417
1	0x3f75733b	0.9587895
2	0x3f7185db	0.9434487
3	0x3f753c82	0.9579545
4	0x3f783a6d	0.9696415
5	0x3f752b74	0.9576943
6	0x3f7a3de1	0.9775067
7	0x3f777bea	0.9667345
8	0x3f796aba	0.97428477
9	0x3f75f147	0.96071285
10	0x3f6adc24	0.9174216
11	0x3f75bb0b	0.9598853
12	0x3f6af736	0.91783464
13	0x3f76c381	0.96392065
14	0x3f750316	0.95707834
15	0x3f7b685f	0.9820613
16	0x3f503a76	0.81339204
17	0x3f6d1901	0.9261628
18	0x3f6e7fe6	0.9316391
19	0x3f709feb	0.93994015
20	0x3f6fffed	0.93749887
21	0x3f76505d	0.96216375
22	0x3f66c37a	0.90142024
23	0x3f57f2d9	0.8435493
24	0x3f6b312f	0.91871923
25	0x3f65775e	0.89635265
26	0x3f775993	0.96621054
27	0x3f7ae14d	0.9800003
28	0x3f7221ff	0.94583124
29	0x3f73e6dc	0.9527414
30	0x3f7914cf	0.97297376
31	0x3f64f3e0	0.89434624
32	0x3f3ed3d9	0.74542004
33	0x3f78879f	0.9708194
34	0x3f767b75	0.9628213
35	0x3f778cf7	0.9669947
36	0x3f777e4c	0.9667709
37	0x3f666d80	0.90010834
38	0x3f66e029	0.9018579
39	0x3f70162f	0.9378385
40	0x3f75b6b3	0.959819
41	0x3f7833a3	0.9695379
42	0x3f6e807b	0.93164796
43	0x3f74b8c5	0.95594436
44	0x3f7a04bd	0.9766348
45	0x3f76dffc	0.96435523
46	0x3f765e8b	0.9623801
47	0x3f7b47f0	0.9815664
48	0x3f760b97	0.96111435
49	0x3f78df15	0.97215396
50	0x3f578bc6	0.8419765
51	0x3f7b63c2	0.98199093
52	0x3f765385	0.9622119
53	0x3f4b02c3	0.7930109
54	0x3f80d878	1.0066061
55	0x3f78ef1e	0.97239864
56	0x3f729870	0.9476385
57	0x3f7f48ab	0.9972026
58	0x3f72647f	0.94684595
59	0x3f7978f5	0.9745019
60	0x3f772c10	0.9655161
61	0x3f62f2d9	0.88651806
62	0x3f4fb579	0.8113628
63	0x3f86e17e	1.0537565

transformer.layers.0.1.fn.norm.bias f4 [64]
0	0xbd4429bf	-0.047891375
1	0xbc956915	-0.018238584
2	0xbd9ff9c2	-0.078113094
3	0x3d4e58bc	0.050377592
4	0xbcd84369	-0.026399331
5	0x3d3f62ba	0.046725012
6	0xbc999dd0	-0.018752009
7	0x3d12e4be	0.035862677
8	0x3cb26990	0.021778852
9	0xbd157ced	-0.03649609
10	0x3dcaf2af	0.099095695
11	0x3d174780	0.036933422
12	0x3d75b3f7	0.05998608
13	0x3c8ae1b4	0.016953327
14	0xbd1dcfc6	-0.038528226
15	0x3c92509d	0.017860705
16	0xbe2b1619	-0.16707648
17	0xbc939bf3	-0.018018698
18	0x3daa616f	0.08319365
19	0xbd8e0a78	-0.069355905
20	0x3d77c1f2	0.060487695
21	0xbd5f4735	-0.054511268
22	0xbde088ff	-0.1096363
23	0xbe3e83d4	-0.18604976
24	0xbdaa1091	-0.08303941
25	0xbdcc27f4	-0.09968558
26	0xbcdf562b	-0.027262768
27	0xbcf877cf	-0.030330567
28	0x3d59e97a	0.053201176
29	0x3d270616	0.04077729
30	0x3d14b136	0.036301814
31	0xbde270be	-0.1105666
32	0xbad823b9	-0.0016490138
33	0x3d28a774	0.04117532
34	0x3d18241f	0.037143823
35	0xbcd0d801	-0.025493624
36	0xbd4ebc2d	-0.050472427
37	0x3dbe9a34	0.09306756
38	0x3daa7164	0.08322409
39	0x3d7068bb	0.05869363
40	0x3d45dffe	0.04830932
41	0x3ce2ab3d	0.027669543
42	0xbda03334	-0.07822266
43	0xbd36208c	-0.044464633
44	0x3b5f2d91	0.003405426
45	0xbd19db0f	-0.037562426
46	0x3d46dd74	0.048551038
47	0x3cbd6e52	0.023123894
48	0x3cadc2ba	0.021211017
49	0xbd08509a	-0.033279993
50	0x3dd1c8da	0.102433875
51	0xbcb7549b	-0.02237921
52	0x3ce0e6ee	0.027453866
53	0xbe47f6c1	-0.19527723
54	0x3c840e9d	0.01612025
55	0xbcc94636	-0.024569612
56	0x3d7d8e44	0.061903253
57	0x3cf04565	0.029329965
58	0x3db0e6ef	0.08637797
59	0xbcfdd8e7	-0.030987216
60	0xbbe387ce	-0.0069436794
61	0xbde0f49a	-0.10984154
62	0x3e31046c	0.17286843
63	0x3bf9686b	0.0076113245

transformer.layers.0.1.fn.fn.net.0.weight f4 [128, 64]
0	0x3df88204	0.121341735
1	0x3d1bc024	0.038025036
2	0x3ca36d0b	0.019949457
3	0xbdd16234	-0.10223809
4	0x3d1346fa	0.03595636
5	0xbdc5dec4	-0.0966163
6	0xbdba0481	-0.0908289
7	0x3d80180c	0.062545866
8	0xbd8ed593	-0.0697433
9	0x3de3cb94	0.11122814
10	0x3c74f220	0.014950305
11	0xbd07c08c	-0.03314261
12	0x3d274f05	0.040846843
13	0xbc74ef86	-0.014949685
14	0xbe036843	-0.12832741
15	0x3b85a3b0	0.004078351
16	0xbde0443b	-0.10950514
17	0xbd5f6759	-0.05454192
18	0xbe0a25ba	-0.13490954
19	0x3da5b075	0.08090297
20	0xbbc88bd2	-0.0061201835
21	0xbd8f3f05	-0.06994442
22	0xbd623593	-0.055226874
23	0xbd16cc1d	-0.03681575
24	0xbd09078f	-0.033454474
25	0xbd7d0498	-0.06177196
26	0x3d469c85	0.048489112
27	0xbd5f4508	-0.054509193
28	0x3dd6da86	0.10490899
29	0x3d2748bf	0.04084086
30	0xbcea0c27	-0.028570248
31	0x3d7893f8	0.06068799
32	0xbe189660	-0.14901114
33	0x3ddb7354	0.107153565
34	0xbc993646	-0.018702637
35	0xbbf37a6e	-0.0074303662
36	0xbd145d9f	-0.036222097
37	0xbd97a6eb	-0.07404884
38	0xbdee266d	-0.11628423
39	0x3dbf1770	0.09330642
40	0x3df2bfc1	0.118529804
41	0xbd2311dc	-0.039811954
42	0x3d856796	0.06513898
43	0xbda18de9	-0.07888395
44	0x3c9326aa	0.017962772
45	0xbd3ce95b	-0.046120983
46	0xbd37a816	-0.044838034
47	0x3da8497f	0.08217143
48	0x3cdabda1	0.02670175
49	0xbdcf4fb9	-0.10122628
50	0x3d8cecaf	0.06881081
51	0xbd59da1f	-0.053186532
52	0x3bd68a16	0.006547223
53	0x3a7b4e13	0.0009586524
54	0xbd2baa4f	-0.041910466
55	0xbcebe102	-0.028793816
56	0xbd7da5e3	-0.06192578
57	0xbd54618f	-0.05185085
58	0xbdd630dd	-0.10458539
59	0x3dc739b4	0.09727803
60	0x3e0f1305	0.13972099
61	0xbd4275a6	-0.04747548
62	0x3c75dc5b	0.01500615
63	0xbd342a5c	-0.04398571
64	0xbe2491e0	-0.16071272
65	0xbd4ea737	-0.050452437
66	0xbdb72fdd	-0.08944676
67	0x3d8839c8	0.06651646
68	0x3d5722c1	0.05252338
69	0x3df4e638	0.11957973
70	0xbe071459	-0.13191356
71	0xbcfcb57b	-0.030848255
72	0x3d82a28b	0.06378659
73	0xbd3fd0f2	-0.046830125
74	0x3e0c8cc3	0.13725571
75	0x3d840bb6	0.06447546
76	0xbce4521c	-0.027871184
77	0x3e55cedc	0.20879692
78	0xbba07a2c	-0.0048973765
79	0xbca7ff15	-0.020507375
80	0xbc8293e1	-0.015939655
81	0x3d232321	0.039828423
82	0x3dd83319	0.10556621
83	0x3d733836	0.05937978
84	0x3d0eab74	0.03483148
85	0xbc8b5a75	-0.017010907
86	0xbe12e48f	-0.14345
87	0x38fdb1c6	0.00012097093
88	0x3d972a42	0.07381107
89	0xbe2651e9	-0.16242184
90	0x3b5b0959	0.003342232
91	0xbe173856	-0.14767584
92	0xbd646a61	-0.055765513
93	0x3da8be40	0.08239412
94	0x3dbff966	0.09373741
95	0x3d62b895	0.055351812
96	0xbd9e144c	-0.07718715
97	0x3df181d7	0.11792343
98	0x3d8cb1e0	0.068698645
99	0xbde9a9a9	-0.11409313
100	0xbd51dfe2	-0.051238902
101	0x3ceaad50	0.028647095
102	0xbd6b60d5	-0.057465393
103	0x3daa6e8b	0.08321866
104	0x3b962b7a	0.0045828195
105	0xbd8664af	-0.065621726
106	0xbd13e981	-0.03611136
107	0xbd3b0014	-0.04565437
108	0x3d030554	0.031987503
109	0xbe1656ea	-0.14681593
110	0xbd19b76d	-0.037528444
111	0x3d89c1f3	0.06726446
112	0x3d1d8530	0.038457096
113	0xbd64d102	-0.055863388
114	0x3d7eef1f	0.062239762
115	0x3cfaeac7	0.030629529
116	0x3e103cc7	0.14085685
117	0xbbfd56bc	-0.007731287
118	0x3d177ef1	0.036986295
119	0xbe015aad	-0.12632246
120	0x3e0def01	0.13860704
121	0xbd01887b	-0.0316243
122	0xbc146a83	-0.0090585975
123	0xbc6a9285	-0.01431716
124	0x3cf1e74a	0.029529233
125	0xbe2d3c33	-0.16917495
126	0x3e2d1c88	0.16905415
127	0x3d84aaac	0.064778656
128	0x3d1a394f	0.03765231
129	0xbe07ffa3	-0.13281111
130	0xbded11db	-0.11575671
131	0x3cb04d04	0.021521099
132	0xbdee1b85	-0.11626343
133	0x3db9dab9	0.09074921
134	0xbe15bdf7	-0.14623247
135	0x3d93d17b	0.072176896
136	0x3e19b1ea	0.15009275
137	0xbdf68ff6	-0.12039177
138	0x3d8a8179	0.06762976
139	0x3d3b9559	0.045796726
140	0x3d891c0d	0.066948034
141	0x3d795203	0.060869228
142	0xbe227c27	-0.15867673
143	0x3dbd50e6	0.09243946
144	0x3d3de6a5	0.046362538
145	0xbcc3f606	-0.023921024
146	0x3e17bd37	0.14818273
147	0xbd715d9c	-0.058927163
148	0xbcf64c1e	-0.030065592
149	0xbd092906	-0.03348639
150	0x3da103b8	0.078620374
151	0x3d4980c8	0.04919508
152	0xbc95df36	-0.018294912
153	0xbe38886b	-0.1802079
154	0xbe33588f	-0.17514251
155	0xbdd443ed	-0.10364518
156	0x3d8fddf8	0.07024759
157	0xbd75ff2c	-0.060057804
158	0x3e1454b3	0.14485435
159	0x3d491c24	0.049099103
160	0x3dd5309e	0.104096636
161	0x3deb056c	0.114756435
162	0x3dc824f6	0.09772675
163	0x3bc7eec5	0.0061014616
164	0x3e0e623f	0.13904665
165	0xbd23bf76	-0.039977513
166	0x3e09a9c9	0.13443674
167	0x3e37ce3a	0.17949763
168	0x3db14340	0.08655405
169	0x3da939a7	0.082629494
170	0xbe1ebfac	-0.15502805
171	0xbc11a28b	-0.008888851
172	0x3e25e1a6	0.1619936
173	0xbe015376	-0.12629494
174	0x3e1ab351	0.15107466
175	0xbc54bd61	-0.012984605
176	0xbcc61471	-0.02417967
177	0xbe221873	-0.15829639
178	0xbd9a43c2	-0.07532455
179	0xbd5128d1	-0.051064316
180	0xbc0af8e5	-0.008482193
181	0xbe016fae	-0.12640259
182	0x3d5393fd	0.051654804
183	0xbe2a6d08	-0.16643155
184	0x3cea0cd4	0.02857057
185	0xbd3dedb8	-0.046369284
186	0x3de4eb77	0.11177724
187	0xbd9f03f8	-0.07764429
188	0x3db1dd34	0.08684769
189	0x3bcb5677	0.006205376
190	0xbd6288c0	-0.055306196
191	0x3c3ae737	0.011407665
192	0x3d3361ca	0.04379443
193	0xbe177995	-0.14792474
194	0x3d1c1506	0.038105987
195	0x3dedb3a1	0.11606527
196	0xbe060cf8	-0.13090885
197	0x3d252715	0.040320475
198	0xbcd1aeef	-0.02559611
199	0xbd6ed94f	-0.05831271
200	0x3c944e6f	0.018103806
201	0xbd7b9886	-0.061424755
202	0x3e07ecc6	0.13273916
203	0x3c6158f9	0.013754123
204	0xbd15b376	-0.0365481
205	0xbd0c92a8	-0.03431955
206	0x3bbf7ffc	0.0058441143
207	0x3df1769d	0.11790202
208	0xbd6edbb6	-0.058315
209	0x3b030afa	0.0019995556
210	0x3d6c2737	0.057654586
211	0xbd0db34d	-0.034594823
212	0xbc5d50f2	-0.013508068
213	0xbdb38c1a	-0.087669566
214	0x3be61a9a	0.007022214
215	0xbe10cd1b	-0.14140742
216	0x3d2d9046	0.042373918
217	0xbbc26f36	-0.0059336675
218	0xbe22eb93	-0.15910177
219	0xbd08f691	-0.03343827
220	0xbc326748	-0.010888882
221	0x3bab032e	0.005218885
222	0x3d3a293c	0.04544948
223	0xbd238ba3	-0.03992809
224	0x3e10a8d7	0.14126907
225	0xbd5ee8d1	-0.05442125
226	0x3dd969b0	0.106158614
227	0xbe022fc5	-0.12713535
228	0x3dac32a0	0.084080935
229	0x3e130fdd	0.1436152
230	0x3dce46d3	0.100721024
231	0x3e1f00fa	0.15527716
232	0x3e238355	0.15968068
233	0xbcb32c80	-0.021871805
234	0x3d1e9b4b	0.038722318
235	0xbccbc83b	-0.02487575
236	0x3d67efb2	0.056625076
237	0xbd5fb719	-0.054617975
238	0x3e273b77	0.16331278
239	0x3ddaca56	0.10683124
240	0xbc0b32a5	-0.008495961
241	0x3d62de4c	0.05538778
242	0x3c8ffc1d	0.017576272
243	0xbe228091	-0.15869357
244	0x3dad6bcd	0.08467827
245	0xbd65aa03	-0.05607034
246	0xbc850a0d	-0.016240144
247	0xbe3848bc	-0.17996496
248	0x3e3ebd68	0.1862694
249	0xbd9b32ac	-0.07578024
250	0x3d13c887	0.03607991
251	0xbe15676b	-0.14590232
252	0x3be877ba	0.0070943506
253	0xbdf69334	-0.120397955
254	0xbd19d34a	-0.037555017
255	0xbc956636	-0.018237215

transformer.layers.0.1.fn.fn.net.0.bias f4 [128]
0	0xbba09b62	-0.0049013356
1	0xbd8f14c7	-0.06986385
2	0xbd87a7be	-0.06623791
3	0xbe3b96cc	-0.18319243
4	0x3de3af57	0.11117428
5	0xbd3a81c6	-0.045533918
6	0xbe3e187f	-0.18564032
7	0x3d5ba7c7	0.0536268
8	0xbe201f74	-0.15636998
9	0x3da3f12a	0.08004983
10	0xbd605ea8	-0.05477777
11	0xbe248cd3	-0.16069345
12	0xbd694b9c	-0.056956872
13	0xbd6e8d5e	-0.058240287
14	0xbd7c5cdc	-0.061611995
15	0x3cf1a8e4	0.029499479
16	0xbcfbe270	-0.030747622
17	0xbc727232	-0.014797734
18	0x3dbef3fe	0.093238816
19	0x3d13c9e3	0.036081206
20	0xbe1c47d9	-0.15261783
21	0xbdacbb47	-0.08434158
22	0xbe0ef839	-0.13961877
23	0xbe11f4da	-0.1425356
24	0xbd8002a0	-0.06250501
25	0x3bdfdff7	0.0068321186
26	0xbd9327e1	-0.07185341
27	0xbe0bb200	-0.1364212
28	0x3d5a1d02	0.05325032
29	0xbdb1ce8b	-0.08681973
30	0xbdb748c1	-0.089494236
31	0x3d7b9763	0.06142367
32	0x3c02f43a	0.007992798
33	0xbe2bece4	-0.16789585
34	0xbd468a8f	-0.048471984
35	0xbd92559e	-0.071452364
36	0x3d8ba1bc	0.06817958
37	0xbc650764	-0.013978813
38	0xbd2c6e72	-0.042097516
39	0xbd3fe353	-0.046847653
40	0xbe08e6f7	-0.13369356
41	0xbd6110cc	-0.05494766
42	0x3d127c6f	0.0357632
43	0xbc961b56	-0.018323582
44	0x3d8cb8f2	0.06871213
45	0x3cf204b9	0.029543268
46	0x3ceac234	0.028657056
47	0x387bccdf	6.0033864e-05
48	0x3d5c53a4	0.053790703
49	0x3d3fefad	0.046859432
50	0xbdf20d71	-0.1181897
51	0x3c73f18c	0.014889132
52	0x3cf1e872	0.029529784
53	0xbd91f04d	-0.07125912
54	0xbd301966	-0.04299297
55	0x3c852eff	0.016257761
56	0x3d046efc	0.032332405
57	0xbc9e460e	-0.019320514
58	0x3e06bc83	0.13157849
59	0xbe10d964	-0.14145428
60	0x3c1a9ca0	0.009436756
61	0xbddac583	-0.106822036
62	0xbe28e8dd	-0.1649508
63	0xbe0d0562	-0.13771585
64	0x3cebff8b	0.028808376
65	0xbe08cb2c	-0.13358754
66	0xbe01c6f9	-0.12673558
67	0x3d31f217	0.043443765
68	0xbe130862	-0.14358667
69	0x3d35621f	0.04428303
70	0xbe171398	-0.14753568
71	0x3ce94078	0.028473124
72	0x3ca5f230	0.020257086
73	0xbdf0a3d5	-0.117499985
74	0xbd61c060	-0.055115104
75	0x3c6b4a1a	0.014360929
76	0x3da71e74	0.08160105
77	0xbe14847f	-0.14503668
78	0xbd98eec8	-0.07467419
79	0x3b5a4780	0.0033306777
80	0x3c1f4ea8	0.009723343
81	0xbd033771	-0.032035295
82	0xbdaed67a	-0.08537002
83	0xbd317b1f	-0.043330308
84	0xbc783d83	-0.015151384
85	0x3cf0ce2e	0.02939519
86	0xbdac4275	-0.08411113
87	0x3d434ead	0.047682453
88	0x3d2d0a1f	0.04224598
89	0xbe00cbb4	-0.12577707
90	0x3ce6b006	0.028160106
91	0xbd81f470	-0.06345451
92	0xbd9afc8c	-0.07567701
93	0xbd8bd8a2	-0.06828429
94	0xbddfc402	-0.109260574
95	0xbc072a4a	-0.008249829
96	0x3c23c93b	0.009996708
97	0x3cdc7258	0.026909992
98	0xbe2d68fd	-0.16934581
99	0xbdb66370	-0.08905685
100	0xbd9846dc	-0.0743539
101	0xbd64af8b	-0.055831473
102	0x3d0d139d	0.034442533
103	0x3da4fe2c	0.08056292
104	0xbcbe0a3d	-0.023198241
105	0x3ac8dd8a	0.0015324813
106	0xbda00a7a	-0.07814498
107	0xbd27c09f	-0.040955182
108	0x3c78fa44	0.015196387
109	0xbd2fa36a	-0.042880453
110	0x3d79b0d5	0.060959656
111	0x3cea7942	0.028622273
112	0xbdf574bf	-0.11985158
113	0xbd1e5649	-0.038656507
114	0xbdd2bed0	-0.10290301
115	0xbe2ebbe7	-0.17063867
116	0xbc8b717a	-0.017021883
117	0xb9b1746f	-0.0003384682
118	0xbe2888c2	-0.16458419
119	0xbd7c3daf	-0.061582264
120	0x3d5fc3a9	0.054629955
121	0xbdc6a31a	-0.09699078
122	0xbdfffa0a	-0.12498863
123	0xbdc33cf7	-0.095331125
124	0xbd98ac49	-0.07454736
125	0x3c8ab8f4	0.016933896
126	0x3d754778	0.05988261
127	0xbe27877f	-0.16360281

transformer.layers.0.1.fn.fn.net.2.weight f4 [64, 128]
0	0x3d117e32	0.03552074
1	0xbc457024	-0.012050662
2	0x3cf97a70	0.03045389
3	0xbccc09bc	-0.024906985
4	0x3dbc7bbd	0.09203289
5	0xbccb9ed7	-0.024856014
6	0xbd85ffc7	-0.06542926
7	0x3d7ed9de	0.062219493
8	0xbda2385e	-0.079209074
9	0x3d030d71	0.03199524
10	0xbca068a1	-0.019581141
11	0xbd539743	-0.051657926
12	0x3c46b32a	0.012127677
13	0xbc358967	-0.011080123
14	0xbd2ff2ee	-0.042956285
15	0xbd640856	-0.055672012
16	0x3ce443f2	0.02786443
17	0xbdb33b86	-0.087515876
18	0x3b3293de	0.002724878
19	0xbd9a2de6	-0.07528286
20	0xbccd4c6f	-0.02506086
21	0xbdaca582	-0.084300056
22	0x3c5ccb65	0.013476227
23	0x3c76853f	0.015046417
24	0xbd59b0bc	-0.053147063
25	0x3d8cc8a1	0.068742044
26	0xbd7060ab	-0.05868594
27	0x3ca6436e	0.020295825
28	0xbbda4cb4	-0.0066619758
29	0xbdc0231e	-0.09381698
30	0xbd5f94be	-0.05458521
31	0x3c21e6d8	0.009881698
32	0x3d54cbab	0.051952045
33	0xbd1cf520	-0.038319707
34	0xbda8d72b	-0.08244165
35	0x3bc62624	0.006047027
36	0xbb6ef4f4	-0.0036461921
37	0x3b8dd8b2	0.0043288106
38	0xbdc1eef4	-0.09469405
39	0xbc05f642	-0.008176388
40	0xb8dfa17b	-0.00010663547
41	0xbd164a3d	-0.036691893
42	0x3d42df13	0.04757602
43	0x3d09f419	0.033680055
44	0xbd2227b7	-0.039588656
45	0xbd271e6d	-0.0408005
46	0xbd9ba1b9	-0.075992055
47	0xbdad76dd	-0.08469937
48	0xbc610e4c	-0.013736319
49	0xbdb5d223	-0.08877971
50	0x3d8606c6	0.06544261
51	0x3d0fa106	0.035065673
52	0x3cd6bc93	0.026212966
53	0x3ca88c69	0.020574765
54	0xbd9576dc	-0.07298061
55	0x3db886ba	0.09010072
56	0xbdb84de9	-0.08999235
57	0x3b3160f4	0.0027065845
58	0x3dbed038	0.09317058
59	0xbd337774	-0.04381509
60	0x3d3816a9	0.044943485
61	0xbcfa783c	-0.03057491
62	0xbd672f87	-0.05644181
63	0xbb112ff2	-0.0022153822
64	0xbd8155ed	-0.06315217
65	0xbd730937	-0.05933496
66	0xbdb3cf4f	-0.08779775
67	0xbd084c89	-0.033276115
68	0x3c75aef6	0.014995327
69	0xbda55b3e	-0.08074044
70	0xbcff1002	-0.031135563
71	0xbbdf54c9	-0.006815527
72	0x3b8eaeb4	0.0043543223
73	0xbdc81015	-0.097686924
74	0x3ca5797e	0.020199534
75	0x3d2da519	0.042393778
76	0xbc491315	-0.012272616
77	0xbc1b4029	-0.009475746
78	0xbba60725	-0.0050667697
79	0xbdd159c8	-0.102222025
80	0xbda052cf	-0.078282945
81	0xbd6abe70	-0.05731052
82	0xbda471a1	-0.080294855
83	0x3db0d1f5	0.08633796
84	0xbcbedcef	-0.023298709
85	0x3d0dd617	0.034628
86	0x3cbaf3ab	0.022821268
87	0x3bf93aab	0.0076058707
88	0x3d810f74	0.063017756
89	0xbd8f5950	-0.06999457
90	0x3b7f4b0d	0.0038954646
91	0xbd801e10	-0.06255734
92	0x3d5cd7a6	0.053916596
93	0x3cb377bb	0.021907678
94	0x3bbb3796	0.0057134135
95	0x3cf5e831	0.030017944
96	0xbd1312cb	-0.035906594
97	0xbd97b6e6	-0.07407932
98	0xbdb7ced4	-0.08974996
99	0x3dc259d2	0.09489788
100	0x3dda366d	0.10654912
101	0x3d10b0dc	0.035324916
102	0xbdf3ddeb	-0.11907562
103	0x3a953530	0.0011383649
104	0xbbb41c1f	-0.0054965164
105	0xbd1cf348	-0.03831795
106	0xbd60fef1	-0.05493063
107	0x3b15f4c6	0.0022881492
108	0xbd9245d7	-0.07142227
109	0xbc926ef7	-0.017875178
110	0xbda9e24c	-0.08295116
111	0xbda4990d	-0.080370046
112	0xbd0b01a0	-0.033937097
113	0x3d0ab722	0.033866055
114	0xbd8d3a8e	-0.06895934
115	0xbba73bf6	-0.0051035834
116	0x3c9cfaf4	0.019162633
117	0x3c62eab1	0.0138499
118	0xbdd64022	-0.10461451
119	0xbca5d50b	-0.020243188
120	0x3c830b44	0.015996583
121	0x3c864fc2	0.016395453
122	0xbd7a999f	-0.06118166
123	0xbd98dc62	-0.0746391
124	0x3d33b92b	0.04387776
125	0xbdac5893	-0.08415332
126	0x3ca260c8	0.01982154
127	0x3d479279	0.04872367
128	0xbb2386a5	-0.002495208
129	0xbd91141c	-0.07083914
130	0x3d4e0609	0.050298724
131	0xbce6b1b1	-0.028160902
132	0x3cc8c4a1	0.024507822
133	0xba99e78f	-0.0011741983
134	0xbd0b3d63	-0.03399409
135	0x3d962034	0.07330361
136	0x3d30f0b3	0.0431983
137	0x3d774ccc	0.060375974
138	0xbdbdbe80	-0.092648506
139	0xbc0ab4a3	-0.008465919
140	0x3d50c0a1	0.050964955
141	0x3cbab08b	0.02278926
142	0xbd874458	-0.066048324
143	0x3d3c3ae3	0.045954596
144	0xbbdbfbfc	-0.0067133885
145	0xbdb0955e	-0.086222395
146	0xbd81b6c3	-0.06333687
147	0x3b935931	0.0044967164
148	0xbdbf9caf	-0.09356057
149	0x3c7d6db7	0.015468053
150	0x3ce2c7ac	0.027683102
151	0x3d576780	0.05258894
152	0xbcac9922	-0.021069113
153	0x3d947367	0.07248574
154	0xbc9f8e72	-0.019477103
155	0x3d137356	0.035998665
156	0xbd98416d	-0.07434354
157	0xbd46fb69	-0.048579607
158	0xbc848917	-0.01617865
159	0x3d038327	0.0321075
160	0x3bb1f484	0.00543076
161	0xbcb1af91	-0.021690162
162	0xbd3b3dd5	-0.045713264
163	0x3cc2846d	0.023744786
164	0xbd3f21c5	-0.046663065
165	0x3c88f7b1	0.016719671
166	0xbd712fc2	-0.058883436
167	0x3d00c765	0.031440157
168	0x3c8ea5cc	0.017413042
169	0xbdb79715	-0.089643635
170	0x3cd01429	0.025400238
171	0xbb4104b0	-0.0029452257
172	0xbd760215	-0.06006058
173	0xbd2d565f	-0.042318698
174	0x3d45db1b	0.04830466
175	0xbd9f226e	-0.07770239
176	0xbd00a8d5	-0.03141101
177	0x3d613b73	0.054988336
178	0x3dc896dc	0.09794399
179	0xbd1d99d0	-0.038476765
180	0xbc16cf17	-0.0092046475
181	0x3d19fa89	0.037592445
182	0xbd24357c	-0.04009007
183	0xbb972ae2	-0.0046132663
184	0xbd06e9cb	-0.032937806
185	0xbd887b4f	-0.06664144
186	0x3db4678a	0.08808811
187	0xbd223f83	-0.03961135
188	0xbc18a508	-0.00931669
189	0x3d31b441	0.043384794
190	0xbc97d0be	-0.018532153
191	0x3d083eef	0.033263143
192	0xbd6b0137	-0.057374205
193	0x3ced12bf	0.028939603
194	0x3d0b38fb	0.033989888
195	0xbc135673	-0.008992779
196	0xbc5ba33c	-0.013405617
197	0x3d843335	0.064550795
198	0x3b56fa64	0.0032803053
199	0x3d991c7a	0.074761346
200	0xbdc6b5f2	-0.09702672
201	0xbd9facfb	-0.07796665
202	0xbdd01235	-0.10159723
203	0x3d2ace75	0.0417008
204	0xbd6d26f1	-0.057898466
205	0xbd740eb1	-0.059584323
206	0x3d2fc1ac	0.04290931
207	0xba912350	-0.0011073146
208	0x3c911d1d	0.017714078
209	0x3d6b9770	0.05751747
210	0xbd439c4a	-0.04775647
211	0x3cff1aec	0.031140767
212	0x3c94fc87	0.01818682
213	0xbd63e656	-0.055639587
214	0x3b54469d	0.0032390722
215	0xbd1382ff	-0.0360136
216	0x3cbe477d	0.023227448
217	0x3cbd7e39	0.023131477
218	0xbcdbd0bb	-0.026832929
219	0xbdaf81e1	-0.08569694
220	0xbcb5e916	-0.02220587
221	0x3d2b092c	0.041756794
222	0xbcc5abdd	-0.024129802
223	0xbd93daf0	-0.072194934
224	0xbdc5beb7	-0.096555166
225	0xbce54fd7	-0.027992172
226	0xbd478c53	-0.048717808
227	0x3d810d1a	0.06301327
228	0x3d4e1afc	0.050318703
229	0xbdcdd729	-0.10050804
230	0xbdd76add	-0.105184294
231	0x3d4edaac	0.05050151
232	0xbd5d8a99	-0.054087255
233	0xbd974761	-0.07386661
234	0xbbff2e51	-0.007787504
235	0x3d5b6ec9	0.05357245
236	0xbd89634d	-0.06708393
237	0xbdb953e4	-0.09049204
238	0x3c5b54e2	0.013386937
239	0x3d9320f1	0.071840174
240	0x3c3b0e7e	0.011417029
241	0xbdb53de4	-0.08849695
242	0xbca4747b	-0.020075073
243	0xbcbff6ba	-0.023433078
244	0x3d92f834	0.07176247
245	0xbd00c57c	-0.031438336
246	0x3cd635d1	0.026148709
247	0xbd976eb5	-0.073941626
248	0xbd743d6f	-0.0596289
249	0xbc474829	-0.0121632
250	0xbc34008f	-0.010986461
251	0xbdbf395f	-0.093371145
252	0xbd35e4c4	-0.04440762
253	0xbd1e0919	-0.038582895
254	0xbb9d1f0c	-0.004794961
255	0xbdadd29a	-0.08487435

transformer.layers.0.1.fn.fn.net.2.bias f4 [64]
0	0x3e0d478a	0.13796821
1	0x3e188dd1	0.14897849
2	0x3d99d416	0.07511155
3	0x3d1aa6f1	0.037756864
4	0x3e143b7d	0.14475818
5	0x3d4db2aa	0.050219215
6	0x3e035882	0.12826732
7	0xbd92b3f2	-0.07163228
8	0x3da5f8ac	0.08104071
9	0x3d6c6042	0.057708986
10	0xbd5b2cc1	-0.053509478
11	0xbcf529fb	-0.029927244
12	0xbdc43796	-0.09580915
13	0xbd4ee292	-0.050509043
14	0xbdd1b951	-0.102404244
15	0xbd6153d2	-0.055011578
16	0xbdb0a53e	-0.086252674
17	0x3bf7c551	0.0075613637
18	0x3b5c141c	0.0033581322
19	0x3d49c754	0.04926236
20	0xbdabd5da	-0.08390398
21	0x3da0313b	0.0782189
22	0x3c525a0d	0.012838853
23	0x3de6cb97	0.112693004
24	0xbca27399	-0.019830512
25	0x3da55855	0.080734886
26	0xbd4dd22d	-0.050249267
27	0x3e11a9b7	0.14224897
28	0xbbe14f33	-0.0068758964
29	0xbc4a1ff8	-0.0123367235
30	0x3e1cccd9	0.15312518
31	0xbaeb7c57	-0.0017966133
32	0x3dd66265	0.10467986
33	0x3c819105	0.015816221
34	0xbdc5c000	-0.09655762
35	0x3d0c6088	0.034271747
36	0xbd926fd0	-0.07150233
37	0xbda3d8b3	-0.080003165
38	0xbd270daf	-0.040784534
39	0xbdabd62d	-0.0839046
40	0xbd8046d9	-0.06263513
41	0xbe09f899	-0.13473739
42	0x3c8f6379	0.017503487
43	0x3dc3b778	0.09556478
44	0x3d50c52c	0.050969288
45	0xbd150baa	-0.036388077
46	0x3d78e643	0.06076647
47	0xbe1158ca	-0.14194027
48	0x3d9a59e0	0.075366735
49	0xbdb0ff03	-0.086423896
50	0x3dc05844	0.09391835
51	0x3ddba02b	0.10723909
52	0xbd7723cb	-0.06033687
53	0x3d54de15	0.051969606
54	0xbd981cc0	-0.074273586
55	0x3d8fca7a	0.07021041
56	0xbde1a0ed	-0.11017022
57	0xbdb35a66	-0.087574765
58	0x3bab37a2	0.005225138
59	0xbdc54b85	-0.09633545
60	0xbd4442ea	-0.047915377
61	0x3d1fda69	0.03902665
62	0xbde9c0dc	-0.11413738
63	0xbca577d8	-0.020198748
