model_training/trained_models/multicolor_data/model_26_ViT_60_early_stopping.pth (torch, 223129 bytes, 16 tensors)

patch_to_embedding.weight f4 [64, 192]
00000000: 87cf 5e85 6431 2605 d471 7405 fd10 3d03
00000010: a60f 2d05 fca5 1606 cc98 4d06 78fc 1b06
00000020: dd60 6186 8633 3986 5f3b a785 6e40 8385
00000030: 6746 3086 5fd6 3286 5cad e185 ff18 e403
00000040: 0a9b c785 ff83 e105 7761 da85 caac 2e86
00000050: 7267 5985 bac4 fd05 f6d5 5785 6f6f 3e86
00000060: 4076 1204 fe40 d185 fe08 0385 29a5 e985
00000070: 0a40 b085 6808 0085 d71d 4a06 7136 4586
00000080: 3b93 4806 f83e 3806 203d 5086 ae28 4105
00000090: ae05 4b06 1701 3486 1fd0 8c05 b679 2b86
000000a0: 6e46 3586 c03b 5206 b0eb 5c06 2137 0b84
000000b0: 8ffa 7605 e608 5806 9fef 0606 4775 1d86
000000c0: bd6d d785 a4b1 af85 a4b1 dd85 89b1 dc85
000000d0: dffc 1786 c097 b504 a17e f703 6b64 6286
000000e0: 7ea5 bc84 9c82 f804 165b 3086 d988 0586
000000f0: 1576 a084 26eb fa85 62b2 5286 6bf2 dd03
00000100: 69eb d505 0369 5485 f70d 5186 702b fd05
00000110: 787c 4706 1cae aa05 e29f 0c85 1a20 3506
00000120: 68bd 0b06 66e5 b784 7c2a 3d86 b1c7 df85
00000130: 5598 0f86 9e77 b485 9d5d 8085 51c0 5486
00000140: 0672 9005 c099 a004 6944 1285 c620 a484
00000150: f8e7 bd82 d994 bb05 0cb2 4286 2019 0286
00000160: 22c3 3406 5c47 2b85 a98b 5506 2789 4a86
00000170: df73 a985 a45e ef85 cf22 6286 8233 3f86
00000180: 5de7 0386 f054 8f05 1dea b804 3acb 1086
00000190: 535e 3286 8248 8205 7f73 4486 6324 1886
000001a0: c72f 4386 8614 8a04 79c9 3e84 a8ae f705
000001b0: c2db 5106 833a ef04 2e71 3e85 cc6b 2106
000001c0: 7304 8385 e25b 4906 475d 4e06 1998 5286
000001d0: f763 2806 a0c9 a003 f9c3 7d05 03b5 c985
000001e0: 1291 ff84 0a03 b805 4ac1 f805 3833 3506
000001f0: e331 5705 80a6 e585 f3e7 1805 dec4 3206
00000200: 306b 7885 af4c 5c06 09c3 4306 4c0a 0786
00000210: 2e46 5506 192c 8f03 f853 2006 da69 2886
00000220: c069 1106 3669 5906 8450 2886 53ba 9484
00000230: f54f 3106 0afd e485 5420 4306 a4b3 9385
00000240: 3e65 b605 1511 f485 7266 1486 476e f204
00000250: 6fe0 3886 dd2e 1685 a576 2104 c21b 4786
00000260: 0bf4 ff85 3d33 d705 ca4f bc85 4f67 0106
00000270: 2ea6 6d84 8831 3906 7deb 1086 9569 5706
00000280: 3175 3305 292c 0286 0e73 9f05 9375 6086
00000290: 101f 8885 5e8a aa03 991b da85 1a4b 2006
000002a0: 5bdc e885 e25d 5f06 dcf5 8b85 4654 f904
000002b0: 0b80 3e86 77f6 3505 b63b d284 491e 4e06
000002c0: aee6 1886 47c8 5906 3ed7 f485 587e 8785
000002d0: 537b 3786 627b 5186 fa7e 9f84 084d 3806
000002e0: 8eed 4586 d406 f505 b3a5 3e06 fda7 d685
000002f0: de2d d605 c673 2086 7eba 2286 ee77 9005
00000300: 2930 8004 4a13 5205 4cf2 8605 d51f 2c06
00000310: 81a3 6305 1645 6186 b8f3 0886 d6af 7d85
00000320: 84bb 2306 c020 b585 2a42 b704 7857 ce05
00000330: 4062 b885 f11b ed05 802e c384 72e0 8205
00000340: 8b1f 4606 8630 f885 3fa2 8584 3622 0c86
00000350: 5ea9 8705 35f3 8a84 d434 fd05 9c4c 1186
00000360: c2ae e005 592e 1d85 b3f5 4f86 51e2 4906
00000370: 3b96 de05 cc81 e085 ce46 1e05 bfd7 be05
00000380: 6dad 6006 d197 5186 199b d285 a5d7 0004
00000390: a6c3 5885 d689 1e86 45f8 5786 a3ba df05
000003a0: f1f1 0e06 2677 2b06 0433 3006 7a5a fd85
000003b0: b750 4c06 8cac 3386 d03f 4986 ab7e 3206
000003c0: 825f 3a86 1f63 1e86 61e7 5c06 168d 9a05
000003d0: c43d f585 732b 6205 0b41 9105 1adb 3405
000003e0: 88f7 1d86 50ec 2306 13a3 8e05 6555 8b05
000003f0: 0088 5f85 1589 f705 040c f705 7ed1 5b05
-1.04765066e-35 7.814354e-36 1.1493732e-35 5.556161e-37 8.137295e-36 2.833381e-35 3.8668472e-35 2.9337745e-35
-4.238896e-35 -3.4832486e-35 -1.5726414e-35 -1.2342849e-35 -3.3153644e-35 -3.3635574e-35 -2.122258e-35 1.3406374e-36
-1.8770822e-35 2.1207386e-35 -2.0536424e-35 -3.2852708e-35 -1.0222291e-35 2.3864272e-35 -1.014855e-35 -3.5816897e-35
1.7216515e-36 -1.967814e-35 -6.161242e-36 -2.1971885e-35 -1.6574485e-35 -6.020075e-36 3.80139e-35 -3.709158e-35
3.7723987e-35 3.4652816e-35 -3.916536e-35 9.082288e-36 3.818423e-35 -3.3855038e-35 1.3241988e-35 -3.2250945e-35
-3.409406e-35 3.9540508e-35 4.1550557e-35 -1.6364685e-36 1.1612885e-35 4.0631622e-35 2.5378645e-35 -2.961458e-35
-2.0258814e-35 -1.6522176e-35 -2.0847995e-35 -2.0753917e-35 -2.8585724e-35 4.2692256e-36 1.4546428e-36 -4.257965e-35
-4.4350568e-36 5.8424466e-36 -3.316884e-35 -2.511506e-35 -3.772426e-36 -2.3596267e-35 -3.9627665e-35 1.3044869e-36
2.01169e-35 -9.98748e-36 -3.931879e-35 2.3807962e-35 3.7519185e-35 1.6050681e-35 -6.612134e-36 3.40659e-35
2.6282148e-35 -4.3233762e-36 -3.5578162e-35 -2.1044174e-35 -2.7007227e-35 -1.6971059e-35 -1.207145e-35 -4.001406e-35
1.358358e-35 3.7757016e-36 -6.877452e-36 -3.8586312e-36 -2.7904198e-37 1.7640073e-35 -3.6618153e-35 -2.446874e-35
3.3997598e-35 -8.053488e-36 4.0163454e-35 -3.809274e-35 -1.5935248e-35 -2.2510217e-35 -4.253145e-35 -3.596095e-35
-2.480834e-35 1.3478856e-35 4.347319e-36 -2.7232697e-35 -3.3547378e-35 1.2251776e-35 -3.6948356e-35 -2.8614755e-35
-3.6710525e-35 3.2462492e-36 -2.2426904e-36 2.3291927e-35 3.9469984e-35 5.6242364e-36 -8.954545e-36 3.035993e-35
-1.2320815e-35 3.7871403e-35 3.8812823e-35 -3.9608354e-35 3.167073e-35 9.450246e-37 1.1931997e-35 -1.8968442e-35
-6.0083438e-36 1.7304393e-35 2.3392811e-35 3.4079946e-35 1.0118414e-35 -2.1596219e-35 7.189608e-36 3.3622714e-35
-1.1680591e-35 4.143374e-35 3.6818713e-35 -2.5398243e-35 4.0112407e-35 8.414909e-37 3.0154346e-35 -3.1675056e-35
2.7349162e-35 4.089046e-35 -3.1656442e-35 -3.4965745e-36 3.3348743e-35 -2.1533969e-35 3.6699175e-35 -1.3889803e-35
1.7152388e-35 -2.2951925e-35 -2.791097e-35 5.69952e-36 -3.4771441e-35 -7.0615735e-36 1.8979938e-36 -3.7448133e-35
-2.4069732e-35 2.0237325e-35 -1.7708745e-35 2.4338103e-35 -2.7935522e-36 3.4831023e-35 -2.72564e-35 4.0514575e-35
8.438064e-36 -2.4482726e-35 1.4994553e-35 -4.2216097e-35 -1.2800789e-35 1.00234695e-36 -2.0510759e-35 3.014783e-35
-2.1898121e-35 4.2010613e-35 -1.3161812e-35 5.861701e-36 -3.58291e-35 8.5558475e-36 -4.94256e-36 3.8766544e-35
-2.87575e-35 4.0960304e-35 -2.3024717e-35 -1.274175e-35 -3.450908e-35 -3.9399178e-35 -3.749733e-36 3.4663147e-35
-3.722611e-35 2.3042198e-35 3.5856765e-35 -2.0186172e-35 2.0141312e-35 -3.0177712e-35 -3.0605826e-35 1.358575e-35
3.0136883e-36 9.8776954e-36 1.2690305e-35 3.237299e-35 1.07035196e-35 -4.2368553e-35 -2.5757813e-35 -1.1928299e-35
3.0794657e-35 -1.7033189e-35 4.3083855e-36 1.9404278e-35 -1.7339368e-35 2.2297637e-35 -4.5886983e-36 1.230759e-35
3.7262835e-35 -2.3339633e-35 -3.141715e-36 -2.6356208e-35 1.2757555e-35 -3.2666994e-36 2.3811412e-35 -2.7327753e-35
2.1129055e-35 -7.390617e-36 -3.9112884e-35 3.797017e-35 2.0931966e-35 -2.1112539e-35 7.442129e-36 1.7946767e-35
4.225713e-35 -3.9420068e-35 -1.9805279e-35 1.5145347e-36 -1.0192206e-35 -2.9817763e-35 -4.0619405e-35 2.1039379e-35
2.6884982e-35 3.2249062e-35 3.31394e-35 -2.3825242e-35 3.8427436e-35 -3.3792926e-35 -3.785078e-35 3.357114e-35
-3.505288e-35 -2.978932e-35 4.1547392e-35 1.4533917e-35 -2.3062378e-35 1.0634449e-35 1.3659627e-35 8.503802e-36
-2.9710275e-35 3.0830508e-35 1.341352e-35 1.3102866e-35 -1.0510389e-35 2.3278124e-35 2.3232182e-35 1.0335808e-35

patch_to_embedding.bias f4 [64]
00000000: 1c28 dc05 2455 e285 ecb5 5986 ced9 4886
00000010: f9fa 2184 6a2b d885 d79f 1006 a694 2006
00000020: 167e db85 2164 5105 a232 b883 0435 b905
00000030: f336 9c05 69b0 4a86 2469 4506 4eaa a585
00000040: 97cc 2284 0f0c 0986 3a19 2306 1b77 3d06
00000050: b06a 2505 e0c1 0b06 c3c0 1986 5297 d585
00000060: 5154 aa05 e2cb 1086 57cd 5106 8f24 a285
00000070: 6c8f 3906 a21d c304 1d27 db05 edba 2306
00000080: d39d 2706 06f6 2b86 bbbb 1706 0a38 6885
00000090: 8b46 7402 110c 5906 2974 e405 03d0 2b05
000000a0: 5ab9 8d05 7351 2506 10db c404 4245 6a85
000000b0: 2c78 6d85 66c1 d502 0e74 d085 5ae7 cb85
000000c0: 4cc4 0486 cb7c a984 8ec8 2086 5fd2 6185
000000d0: 0550 d405 5e31 9d85 007a 6d85 f6c2 2186
000000e0: 302b 5e86 76b8 1a05 38b7 5d06 d777 1406
000000f0: 7e36 2801 4ace eb05 c3c8 0c83 8b37 5685
2.0703434e-35 -2.1284214e-35 -4.094682e-35 -3.7775837e-35 -1.90407e-36 -2.032849e-35 2.7200822e-35 3.0201865e-35
-2.0640978e-35 9.8455235e-36 -1.0826173e-36 1.7416791e-35 1.4690355e-35 -3.8121583e-35 3.7128827e-35 -1.5579085e-35
-1.9136952e-36 -2.5775695e-35 3.0675426e-35 3.5634454e-35 7.777858e-36 2.628543e-35 -2.891772e-35 -2.008601e-35
1.6017696e-35 -2.723318e-35 3.945939e-35 -1.5247836e-35 3.4900003e-35 4.5871493e-36 2.0609029e-35 3.0794224e-35
3.152516e-35 -3.2342275e-35 2.8537866e-35 -1.091888e-35 1.7946534e-37 4.082203e-35 2.1483687e-35 8.078587e-36
1.3327664e-35 3.109289e-35 4.6280556e-36 -1.1015348e-35 -1.11657585e-35 3.1408542e-37 -1.9602858e-35 -1.9175013e-35
-2.4970657e-35 -3.9846313e-36 -3.024e-35 -1.0618088e-35 1.9965779e-35 -1.4782344e-35 -1.1166094e-35 -3.042397e-35
-4.1785289e-35 7.274925e-36 4.1700088e-35 2.792375e-35 3.0895823e-38 2.2175072e-35 -4.1372765e-37 -1.0072433e-35

transformer.layers.0.0.fn.norm.weight f4 [64]
00000000: 054d 4588 4850 4588 324f 4588 9d4f 4588
00000010: 6c4f 4588 864e 4588 794f 4588 cc4f 4588
00000020: dc4f 4588 f84f 4588 cc4e 4588 364f 4588
00000030: a94f 4588 1150 4588 994f 4588 074f 4588
00000040: c94f 4588 e44d 4588 864f 4588 534f 4588
00000050: 254f 4588 eb4e 4588 9f4f 4588 f34f 4588
00000060: f74e 4588 6450 4588 a850 4588 c34f 4588
00000070: f04f 4588 c94f 4588 5b4f 4588 734f 4588
00000080: fe50 4588 964e 4588 eb4f 4588 524f 4588
00000090: d14f 4588 1951 4588 a74f 4588 8b4f 4588
000000a0: 2f4f 4588 424f 4588 e34f 4588 d84e 4588
000000b0: 2e4f 4588 ba4e 4588 b150 4588 c54f 4588
000000c0: 974f 4588 a64f 4588 8c4f 4588 cc4f 4588
000000d0: c24f 4588 9650 4588 474e 4588 cf4d 4588
000000e0: f34f 4588 554f 4588 b24f 4588 294f 4588
000000f0: 004f 4588 bb4e 4588 a14f 4588 0b4f 4588
-5.9373067e-34 -5.93769e-34 -5.9375625e-34 -5.9376116e-34 -5.937589e-34 -5.9374835e-34 -5.937595e-34 -5.937633e-34
-5.9376405e-34 -5.9376534e-34 -5.9375156e-34 -5.9375643e-34 -5.937617e-34 -5.937665e-34 -5.9376098e-34 -5.9375427e-34
-5.937632e-34 -5.937409e-34 -5.937601e-34 -5.9375776e-34 -5.9375565e-34 -5.93753e-34 -5.9376125e-34 -5.937651e-34
-5.9375354e-34 -5.937703e-34 -5.937734e-34 -5.937629e-34 -5.9376497e-34 -5.937632e-34 -5.9375813e-34 -5.9375923e-34
-5.9377737e-34 -5.937491e-34 -5.9376474e-34 -5.937577e-34 -5.9376355e-34 -5.937786e-34 -5.937616e-34 -5.9376033e-34
-5.937561e-34 -5.93757e-34 -5.9376437e-34 -5.937521e-34 -5.9375606e-34 -5.9375074e-34 -5.9377383e-34 -5.93763e-34
-5.937609e-34 -5.9376157e-34 -5.937604e-34 -5.937633e-34 -5.9376286e-34 -5.937726e-34 -5.9374546e-34 -5.9373995e-34
-5.937651e-34 -5.9375785e-34 -5.9376212e-34 -5.9375583e-34 -5.9375395e-34 -5.937508e-34 -5.9376134e-34 -5.9375446e-34

transformer.layers.0.0.fn.norm.bias f4 [64]
00000000: 7f76 f101 48b9 ed01 4781 e700 6966 0481
00000010: 704d 6f00 6a4f e281 81a4 6e81 974e f480
00000020: 9f26 0181 1219 6f00 efde 9b81 7d13 7a80
00000030: 977a cf00 8b43 2081 f2e8 4400 dc18 1a01
00000040: f412 3301 2a92 5c01 ac2a 2881 14f5 5d01
00000050: ca28 5100 999e 8401 e6c6 8581 a7ad ec00
00000060: b552 9180 10b8 de81 a8cc 8e01 da1d 0602
00000070: 5cdc ef01 abae ad01 3545 1080 1845 ae00
00000080: 24d5 7301 6051 e981 416f 1181 fd73 a500
00000090: 1b41 a801 702b d501 a219 9000 e293 8300
000000a0: ff4d 6a00 b2be be81 7fad 1e02 037b d301
000000b0: c67b 5780 2897 ea81 7455 b600 a896 4d81
000000c0: c4ab 1681 8932 2381 3fea 5700 fe0a cd80
000000d0: 1a31 3c01 19be 8881 5b85 0702 c2b5 0402
000000e0: deed 3981 9a32 4c00 56dd 7d80 0d12 3701
000000f0: 364f 4380 d2f0 8381 4dae 7000 260e ca81
8.869945e-38 8.7325916e-38 2.1260376e-38 -2.4318047e-38 1.022152e-38 -8.313324e-38 -4.3831722e-38 -2.2436054e-38
-2.3721267e-38 1.0202734e-38 -5.72579e-38 -1.1210922e-38 1.9053925e-38 -2.9435818e-38 6.328379e-39 2.8303169e-38
3.2890706e-38 4.0512486e-38 -3.0887342e-38 4.0767124e-38 7.453308e-39 4.871672e-38 -4.914189e-38 2.1735472e-38
-1.3345817e-38 -8.181404e-38 5.245623e-38 9.853332e-38 8.8110935e-38 6.38008e-38 -1.494195e-39 1.6004162e-38
4.4784972e-38 -8.570745e-38 -2.6712115e-38 1.5194466e-38 6.1806875e-38 7.830617e-38 1.3233507e-38 1.20835e-38
9.762542e-39 -7.006861e-38 1.1657798e-37 7.768567e-38 -8.03409e-39 -8.6174923e-38 1.6744715e-38 -3.7760644e-38
-2.7673885e-38 -2.997463e-38 8.07372e-39 -1.883022e-38 3.4565375e-38 -5.0231287e-38 9.956505e-38 9.74999e-38
-3.4149795e-38 6.99765e-39 -1.1558837e-38 3.3624742e-38 -6.181394e-39 -4.846736e-38 1.0348103e-38 -7.4223383e-38

transformer.layers.0.0.fn.fn.to_qkv.weight f4 [192, 64]
00000000: bb3f 6506 1e35 4586 6cf5 6782 3732 9906
00000010: 6205 a686 82fb 3f06 eef6 c286 61f1 9386
00000020: ca25 a086 4763 a686 a537 2e06 40b7 c486
00000030: 142e 8a86 0700 ba86 34c7 2406 ca07 b486
00000040: 59e1 9285 728f 8806 1723 8f06 77d8 9e05
00000050: 539d 6a06 ccc1 0985 ec25 9c06 bb31 3006
00000060: e138 8986 c8a8 8206 89fb 9805 0003 ae03
00000070: 9578 7a05 549e c006 d879 fb85 fe57 5386
00000080: 2619 ab86 69ea 3906 bdb6 2886 06d5 ad86
00000090: 1fb8 0286 8ef6 1c05 cd9f e784 7f37 2185
000000a0: 339c ae06 4cf6 8b84 b4df 0a85 4d30 b206
000000b0: 0cb1 1505 428c 3c85 b924 ae86 ef86 5206
000000c0: 3f28 3286 95ee 6106 8ab8 2285 2110 0c05
000000d0: daff fb85 44bc 7c86 9fa2 c486 8d86 1c06
000000e0: 1e6e 5c06 0b62 b886 766e 5186 444f c386
000000f0: 7080 3086 4c1a ad06 34d2 2586 5c70 8203
00000100: 00ce eb05 75f4 a386 1477 fa85 a43d af85
00000110: 5f50 1506 d66e 2406 f0a0 bd86 6261 4886
00000120: b1d8 d085 1fe4 9086 1d3d 8585 7f6f 7586
00000130: cbd2 1585 e9b0 b086 2a51 fa05 dabb 7e86
00000140: 66d1 2e05 32c3 1f86 e10f c306 85f5 6286
00000150: 351e bd05 75b4 8d06 26b9 bd86 0302 af06
00000160: e5d9 a986 b30a 1a86 8983 7d04 63eb 8686
00000170: 681d 7f06 704d 2785 6e82 9306 aa2b a206
00000180: c65b a186 73ab fb85 f227 6485 8f5f ab86
00000190: 55fd 0606 8612 9285 ca51 be86 8b53 b906
000001a0: ebee 2606 99f2 8285 2181 aa86 4db3 ed85
000001b0: 7d2f b986 4e9b 0986 bf58 6d86 a404 3c85
000001c0: 4f69 6a05 7ec8 ad86 e886 3886 a8e5 4d05
000001d0: 2fe3 6186 cbe6 be06 688c ac85 70de 8585
000001e0: e20f a686 a92d 5686 fc68 7d86 5579 4f86
000001f0: f2e6 8f05 0d41 1186 40cb ea05 a627 bd04
00000200: a39a 1a86 b9b7 7505 8155 a186 7dfb e805
00000210: bdec 8685 23a2 7586 4b13 a106 66a9 ac86
00000220: 1eb2 b705 a6ff 0a86 a041 3a86 ed81 3e86
00000230: da49 b485 1ae7 5a86 f9cc 4a06 eb41 8686
00000240: 5b3c 4c06 ddf9 5b85 3cdf c486 2b57 7f06
00000250: 4e31 7406 723f 4f86 ea8d 8486 ebc3 e604
00000260: 10f4 bd06 9f2a 9905 0d3f 9106 32bc b386
00000270: d0f5 b786 8db8 0e84 ed76 4885 4190 2e06
00000280: 46d7 5f86 5074 8306 b993 b285 f2f5 9686
00000290: 9f4c 5d06 b2ef 8506 3f67 fd85 ae29 1284
000002a0: 0a39 ca05 4980 8406 dda7 0386 11f1 2c85
000002b0: 6abc d885 69a8 3806 9b7b 9106 0f51 0186
000002c0: 58c5 4206 ed62 9f86 e55c 9e06 3ba3 3506
000002d0: 5c9d c985 4477 9186 c39d 9e06 d68f cd85
000002e0: 851e 1206 7e71 4285 5bd2 1c86 6ee2 3e86
000002f0: 0d42 3186 4547 9106 b560 3606 5f5b 4c86
00000300: ce76 ad06 5fa8 ad86 37c7 8a06 c722 7486
00000310: 5d38 a805 879d fb84 9582 3086 9626 4986
00000320: e2e3 a986 8076 c186 3404 d185 67ab 3d84
00000330: cb3c 3481 922f 9205 9a7d 8a86 79f1 b886
00000340: 6df9 6c06 d3c3 7e86 8ef2 5e06 cfd2 bd86
00000350: d255 9386 acc5 ae86 ceb5 5106 048a 9805
00000360: eee8 c485 394e 2b06 7657 9b86 f2c5 bd06
00000370: 4644 bc86 d372 a585 50a5 fa05 e5eb b506
00000380: 8a16 bd86 92c8 5205 e9ba a886 9b08 3c86
00000390: bcd4 1f05 a036 8886 b8ee 1306 07df 6c05
000003a0: a083 a606 2c7f 7e06 0505 0786 61d4 8605
000003b0: 112b 7786 f9da 6205 60b1 d005 b25e a106
000003c0: 863c b486 6912 3d86 dc82 9c06 e2fd b106
000003d0: 6375 a086 a732 bd06 7eff 5086 3d01 e004
000003e0: 37ee 8886 d949 5086 9b54 4f06 efdf 3d06
000003f0: 0a14 9085 b7bf 3b86 0d71 1604 e2c9 7b05
4.3116935e-35 -3.7090606e-35 -1.7041632e-37 5.762599e-35 -6.245017e-35 3.6107886e-35 -7.333752e-35 -5.564993e-35
-6.0240837e-35 -6.2588135e-35 3.2766644e-35 -7.399627e-35 -5.1977536e-35 -6.9965464e-35 3.0991323e-35 -6.771992e-35
-1.3812554e-35 5.136829e-35 5.384218e-35 1.4937765e-35 4.4126092e-35 -6.477304e-36 5.87364e-35 3.3138457e-35
-5.161725e-35 4.9148567e-35 1.4386411e-35 1.022749e-36 1.1777091e-35 7.2455015e-35 -2.3648685e-35 -3.9749336e-35
-6.4360003e-35 3.496685e-35 -3.1731543e-35 -6.5388377e-35 -2.4585553e-35 7.38037e-36 -5.4454593e-36 -7.580377e-36
6.568104e-35 -3.290493e-36 -6.5298166e-36 6.702713e-35 7.038465e-36 -8.865479e-36 -6.5505485e-35 3.9595744e-35
-3.3507647e-35 4.249308e-35 -7.651098e-36 6.585731e-36 -2.3697912e-35 -4.7534248e-35 -7.3965956e-35 2.943919e-35
4.1458302e-35 -6.935717e-35 -3.9389685e-35 -7.346732e-35 -3.3196282e-35 6.5114007e-35 -3.1187484e-35 7.66651e-37
2.2174966e-35 -6.167298e-35 -2.355363e-35 -1.6479564e-35 2.8082833e-35 3.09264e-35 -7.1330375e-35 -3.7687365e-35
-1.9639826e-35 -5.4501974e-35 -1.252971e-35 -4.6161293e-35 -7.044663e-36 -6.646379e-35 2.3539702e-35 -4.7910102e-35
8.219901e-36 -3.0047983e-35 7.337418e-35 -4.2686255e-35 1.7784571e-35 5.3303463e-35 -7.136595e-35 6.583064e-35
-6.38909e-35 -2.897204e-35 2.9800405e-36 -5.075107e-35 4.7981774e-35 -7.866525e-36 5.5486903e-35 6.1001786e-35
-6.069632e-35 -2.3666907e-35 -1.0727845e-35 -6.446346e-35 2.5388718e-35 -1.3736578e-35 -7.1590235e-35 6.971202e-35
3.139666e-35 -1.2314258e-35 -6.413663e-35 -2.2353238e-35 -6.9659043e-35 -2.5880936e-35 -4.4639946e-35 -8.84057e-36
1.1021969e-35 -6.5369964e-35 -3.4705667e-35 9.681235e-36 -4.2484705e-35 7.1809176e-35 -1.622638e-35 -1.258897e-35
-6.24656e-35 -4.0282472e-35 -4.7661142e-35 -3.9021514e-35 1.3532491e-35 -2.731926e-35 2.2079917e-35 4.4470098e-36
-2.907779e-35 1.1553589e-35 -6.0687106e-35 2.1909557e-35 -1.2688263e-35 -4.6198498e-35 6.058982e-35 -6.494812e-35
1.7274667e-35 -2.6142736e-35 -3.5030926e-35 -3.5830483e-35 -1.6954247e-35 -4.117103e-35 3.8142568e-35 -5.0502056e-35
3.8412478e-35 -1.0343223e-35 -7.405502e-35 4.802421e-35 4.5927523e-35 -3.8978985e-35 -4.9861405e-35 5.4252662e-36
7.1452516e-35 1.4403707e-35 5.463558e-35 -6.7608845e-35 -6.919814e-35 -1.6776761e-36 -9.425798e-36 3.2831744e-35
-4.2099796e-35 4.944763e-35 -1.6793304e-35 -5.6785113e-35 4.1621773e-35 5.038124e-35 -2.3829932e-35 -1.7181356e-36
1.9016942e-35 4.984138e-35 -2.4761688e-35 -8.131678e-36 -2.0381755e-35 3.4730282e-35 5.472456e-35 -2.4321756e-35
3.663233e-35 -5.995451e-35 5.956949e-35 3.416224e-35 -1.8959754e-35 -5.4718183e-35 5.9664804e-35 -1.9330944e-35
2.748197e-35 -9.1426814e-36 -2.9494884e-35 -3.5901383e-35 -3.3338526e-35 5.464766e-35 3.4301445e-35 -3.8435264e-35
6.5249935e-35 -6.5322766e-35 5.220255e-35 -4.591685e-35 1.5819349e-35 -5.9154482e-36 -3.3197857e-35 -3.7832247e-35
-6.390558e-35 -7.277265e-35 -1.965581e-35 -2.2295547e-36 -3.3104395e-38 1.3747249e-35 -5.2094385e-35 -6.956792e-35
4.4569916e-35 -4.791596e-35 4.193176e-35 -7.1403654e-35 -5.5421356e-35 -6.574198e-35 3.94421e-35 1.434471e-35
-1.8517316e-35 3.2218994e-35 -5.843303e-35 7.138475e-35 -7.081806e-35 -1.5558705e-35 2.3570613e-35 6.843125e-35
-7.1127017e-35 9.9109915e-36 -6.3469216e-35 -3.5365192e-35 7.515217e-36 -5.123778e-35 2.782301e-35 1.113763e-35
6.2635665e-35 4.7865522e-35 -2.5394366e-35 1.2679315e-35 -4.6487177e-35 1.0666688e-35 1.9625383e-35 6.070061e-35
-6.7797406e-35 -3.5560475e-35 5.887296e-35 6.695305e-35 -6.0357795e-35 7.1168325e-35 -3.9308158e-35 5.2663284e-36
-5.150754e-35 -3.9174707e-35 3.899453e-35 3.571147e-35 -1.3549056e-35 -3.531164e-35 1.7684326e-36 1.1839043e-35

transformer.layers.0.0.fn.fn.to_out.weight f4 [64, 64]
00000000: b3dd a406 a177 ce85 269b 8686 bc0e 7586
00000010: ee91 2b85 79cb a685 e052 b206 2c47 aa06
00000020: f244 d685 d840 3d06 51e8 3a05 ea00 8106
00000030: 69c0 3506 4cdf d705 310d 3006 662b aa06
00000040: e167 0206 b6a5 be86 f814 1606 5f81 3586
00000050: d953 8b86 05b7 3e06 03a5 bb85 f2a9 fb05
00000060: 3713 e085 cb14 4e05 4f14 9205 891c be06
00000070: c012 cd85 673f 9706 5faf bd06 6318 bc86
00000080: 4bd0 6385 5a35 7906 6c40 3a06 f8bb 9d06
00000090: 81c4 2e06 f7ca 5286 6c72 0205 fb0e 1306
000000a0: b329 ea05 0c78 a386 a9a7 6606 d494 9305
000000b0: fcbb ad86 1314 4e06 9caa 8605 cbfb d185
000000c0: f822 b285 c1e1 6186 8d7f d085 c7e7 af05
000000d0: 952a 9f06 fbe5 a385 8018 2406 3fe1 9c05
000000e0: 5cd8 b106 eef1 aa06 48ea 7986 3013 6006
000000f0: 569a e285 9b49 6a06 10c5 c885 3dca 1606
00000100: 7732 ac06 b770 a606 759b a586 9308 9b85
00000110: 66e2 c185 9c25 5d86 d83f 9604 3ca9 bd86
00000120: f457 a486 b543 bf86 5125 0d86 653c 8605
00000130: d0a3 b306 9650 3c86 7426 c306 4cab b006
00000140: 6bf3 ef85 c232 e505 5eca 1506 1836 9985
00000150: 4c7e aa06 aee9 b706 1c05 d285 5f62 7406
00000160: 28f7 c885 0bf0 b606 d864 be06 d60e de83
00000170: 2631 a406 07dd 5d05 e6a5 1d86 0d86 1785
00000180: 7ddf 9c86 3ec9 4986 5b33 b705 8f4d 1e86
00000190: 53ff 8786 6b8f 8c86 6656 8306 89a6 b106
000001a0: ee28 3d86 99c5 1c85 7218 1006 dee0 1e06
000001b0: 6da4 8086 98e5 4586 459a 8086 1d29 0406
000001c0: 8b2b bc86 d192 8a86 ded6 f405 e6f9 3484
000001d0: fb71 aa06 bf91 af85 f500 aa06 6a61 7c06
000001e0: afde 3286 b52e d085 069c 3006 8a85 fa85
000001f0: 4269 1086 339a 7806 c373 b706 4e10 b686
00000200: c6c4 8f06 2b4a 9886 2c71 0c06 ffae ac06
00000210: e077 b486 c490 7204 52c9 3606 b08a a086
00000220: 6e2f f205 3ec5 8086 6aeb 9586 a8f0 5306
00000230: 9770 1686 a8fa c285 3a70 0886 fdc1 e405
00000240: 59a5 7805 9a6c 7e06 130f 6886 797f c386
00000250: f984 3086 ff7a a786 d7e2 3006 8c58 b506
00000260: fe60 4785 f4e3 0d86 8472 7c06 bcea bf06
00000270: a497 9606 a54a 0286 d74c fc05 4e32 ab86
00000280: 2c3b 6386 d283 2e86 c4b3 8e86 158f a586
00000290: 3dd5 9106 32fb e704 65c9 4405 6dab 8486
000002a0: 610b f705 f8b3 b706 6ad4 8a86 1665 1606
000002b0: 22d3 1985 e200 5e86 8db1 ad06 a810 c505
000002c0: 31df bb86 acb6 cf85 27df 2206 0bf5 7405
000002d0: 646b 9c86 1b67 7b06 1adf 8a86 b758 9706
000002e0: fc53 9a86 8de6 3c06 072c a206 d80b af86
000002f0: 14de a606 33e3 b886 62f3 8385 407a a406
00000300: c607 5a05 ddb2 4a86 d714 3386 147d ac86
00000310: 681e b986 f32b 8e06 798d 4586 5e6e 9704
00000320: f66b 7406 6f75 2c06 5a49 9606 d98a 2e05
00000330: 6108 c306 b557 7306 a032 9a86 b562 6506
00000340: 0c34 a106 412d 1006 7978 c985 a795 2e06
00000350: fdc1 aa06 4759 8d86 5623 fe05 988a a306
00000360: 2d44 b985 9c36 b186 8017 2905 421a 8486
00000370: 4a1f fa85 88c1 0206 73f8 0c86 77fa bf06
00000380: 70cd 1f06 4a94 d805 0f6b 9606 ec41 a885
00000390: 3f1e 8086 4142 8706 0fb7 9206 83d1 8a85
000003a0: ebac b005 7ad9 c705 34eb 5786 b65c 2d86
000003b0: c864 9d86 4395 6e86 32b2 1e06 5f38 ed85
000003c0: 17a6 8606 0ce7 3b06 6547 5486 8f4c 9906
000003d0: f9b0 4186 0f9c 9206 6421 d905 d5cf fe05
000003e0: d876 4306 8b7d 8406 5897 8086 c766 9886
000003f0: 9c50 9786 9ef2 a285 c928 bc86 eab4 d702
6.20157e-35 -1.9416092e-35 -5.063317e-35 -4.6090204e-35 -8.0671844e-36 -1.5685309e-35 6.707793e-35 6.405147e-35
-2.014979e-35 3.559459e-35 8.788348e-36 4.852575e-35 3.4183677e-35 2.0300529e-35 3.3111612e-35 6.401066e-35
2.45266e-35 -7.1713547e-35 2.822727e-35 -3.4137363e-35 -5.240919e-35 3.586949e-35 -1.7646011e-35 2.3666355e-35
-2.1071917e-35 9.6898925e-36 1.3737234e-35 7.1511985e-35 -1.9284995e-35 5.689305e-35 7.1351583e-35 -7.0753573e-35
-1.0711746e-35 4.6870891e-35 3.5030042e-35 5.933303e-35 3.287013e-35 -3.9645725e-35 6.1335866e-36 2.7658633e-35
2.2020572e-35 -6.149018e-35 4.338137e-35 1.3878484e-35 -6.5351585e-35 3.8759042e-35 1.2663971e-35 -1.974676e-35
-1.6751885e-35 -4.2483654e-35 -1.9607081e-35 1.6542062e-35 5.987172e-35 -1.5412928e-35 3.0862972e-35 1.4752912e-35
6.689791e-35 6.4302376e-35 -4.7003818e-35 4.2143814e-35 -2.1309632e-35 4.4064585e-35 -1.8880299e-35 2.8360446e-35
6.477336e-35 6.260788e-35 -6.2294525e-35 -1.457928e-35 -1.8232798e-35 -4.159311e-35 3.532346e-36 -7.1342566e-35
-6.181918e-35 -7.19457e-35 -2.6546568e-35 1.2623485e-35 6.757302e-35 -3.5418075e-35 7.340735e-35 6.645554e-35
-2.256487e-35 2.1553702e-35 2.817246e-35 -1.4407922e-35 6.413247e-35 6.918031e-35 -1.9750182e-35 4.596357e-35
-1.88987e-35 6.88135e-35 7.1618233e-35 -1.30513935e-36 6.176216e-35 1.04319664e-35 -2.96503e-35 -7.124607e-36
-5.9009065e-35 -3.7951748e-35 1.7228102e-35 -2.9773478e-35 -5.115652e-35 -5.287288e-35 4.9403674e-35 6.68247e-35
-3.557702e-35 -7.371378e-36 2.710135e-35 2.9881704e-35 -4.838985e-35 -3.722026e-35 -4.837493e-35 2.4856646e-35
-7.078172e-35 -5.212556e-35 2.302458e-35 -2.1273646e-36 6.411437e-35 -1.651046e-35 6.39483e-35 4.74675e-35
-3.364168e-35 -1.9577383e-35 3.321655e-35 -2.3558942e-35 -2.716072e-35 4.6756904e-35 6.9007046e-35 -6.848475e-35
5.4079754e-35 -5.7285025e-35 2.641422e-35 6.495634e-35 -6.7884615e-35 2.8513436e-36 3.4378302e-35 -6.0389094e-35
2.2774994e-35 -4.843807e-35 -5.639348e-35 3.9861496e-35 -2.8294582e-35 -1.8335749e-35 -2.5661208e-35 2.1512277e-35
1.16912735e-35 4.7851878e-35 -4.3645425e-35 -7.353815e-35 -3.3199614e-35 -6.2999145e-35 3.3268577e-35 6.821474e-35
-9.37475e-36 -2.6686626e-35 4.7480065e-35 7.2191126e-35 5.6646545e-35 -2.4505123e-35 2.3726193e-35 -6.4396967e-35
-4.2737427e-35 -3.282261e-35 -5.3678605e-35 -6.227634e-35 5.4856263e-35 5.4538525e-36 9.252866e-36 -4.990477e-35
2.3231948e-35 6.910139e-35 -5.2221945e-35 2.828613e-35 -7.2328044e-36 -4.1754208e-35 6.5336255e-35 1.853191e-35
-7.066953e-35 -1.953329e-35 3.063276e-35 1.1517832e-35 -5.8838474e-35 4.7283603e-35 -5.223765e-35 5.693024e-35
-5.8051766e-35 3.5528252e-35 6.100232e-35 -6.5845086e-35 6.2768574e-35 -6.9546947e-35 -1.2408586e-35 6.1869574e-35
1.02517385e-35 -3.8123385e-35 -3.368147e-35 -6.4882995e-35 -6.9633944e-35 5.347904e-35 -3.715552e-35 3.5601286e-36
4.5970617e-35 3.243588e-35 5.653151e-35 8.206943e-36 7.336316e-35 4.5767657e-35 -5.800275e-35 4.3142631e-35
6.0637945e-35 2.7116637e-35 -1.8946204e-35 3.283571e-35 6.423193e-35 -5.3169486e-35 2.3899026e-35 6.151743e-35
-1.742236e-35 -6.666024e-35 7.950658e-36 -4.9691464e-35 -2.3521381e-35 2.4592467e-35 -2.6513605e-35 7.221424e-35
3.0055508e-35 2.0367015e-35 5.658104e-35 -1.582286e-35 -4.819269e-35 5.087871e-35 5.5188076e-35 -1.305442e-35
1.661448e-35 1.8793758e-35 -4.0609806e-35 -3.2605797e-35 -5.920492e-35 -4.4872485e-35 2.9847414e-35 -2.230808e-35
5.0649245e-35 3.5340537e-35 -3.992522e-35 5.7664696e-35 -3.6429285e-35 5.5148404e-35 2.0418848e-35 2.396239e-35
3.6762736e-35 4.983735e-35 -4.837063e-35 -5.7327063e-35 -5.691833e-35 -1.532353e-35 -7.077767e-35 3.169525e-37

transformer.layers.0.0.fn.fn.to_out.bias f4 [64]
00000000: 0eb5 4b06 3e7d 4e06 62a6 3e86 b02d 4d06
00000010: 69a6 f485 0f56 8806 503e e205 1c1d 5f85
00000020: 1cf5 d505 990c 6d06 be71 1d86 af8a 6906
00000030: a35d 0d86 dbc4 6906 36ec 2186 449b 9386
00000040: fd0a b606 6023 a986 1571 a905 3db6 5705
00000050: 288d 9f86 7bff bf86 bc66 ed04 7508 f185
00000060: 274d 5d06 c4bc 7205 eaef a086 db81 ad86
00000070: 5340 a403 95f5 c186 6d65 5006 2abb 9506
00000080: 3160 9a85 93b0 6d06 8ec3 a785 f5e3 2706
00000090: 198e 1005 8962 8705 8e5a 5786 d1a8 c483
000000a0: f4ba 3186 5c18 1706 19b5 0686 09b0 4186
000000b0: 9680 0d04 c789 ae86 c4d5 eb04 fcb3 6c86
000000c0: 9dbd 7786 2571 0405 8486 5b86 2772 dd04
000000d0: 2c57 3486 9bd6 0886 d9e6 8f06 78ba ae86
000000e0: d955 6485 d1cb aa05 1a2a 8286 6891 9106
000000f0: d96b be86 6cc0 9c86 194d b285 f03a ed84
3.8313074e-35 3.8836307e-35 -3.5857267e-35 3.858978e-35 -2.3006779e-35 5.1283966e-35 2.1275828e-35 -1.0490756e-35
2.0120463e-35 4.4584e-35 -2.9611983e-35 4.3924318e-35 -2.6587946e-35 4.3967056e-35 -3.0454275e-35 -5.5523397e-35
6.8476937e-35 -6.3622713e-35 1.5934223e-35 1.0142723e-35 -6.0016563e-35 -7.222161e-35 5.581278e-36 -2.2666638e-35
4.1622163e-35 1.1413456e-35 -6.053783e-35 -6.526617e-35 9.653822e-37 -7.295938e-35 3.9194968e-35 5.6322584e-35
-1.4517426e-35 4.4704472e-35 -1.577644e-35 3.1576685e-35 6.796947e-36 1.2731535e-35 -4.0503535e-35 -1.1558603e-36
-3.3427351e-35 2.841784e-35 -2.5335648e-35 -3.6428596e-35 1.6633514e-36 -6.565397e-35 5.5444547e-36 -4.4518898e-35
-4.6594843e-35 6.2273915e-36 -4.1288149e-35 5.2061683e-36 -3.391828e-35 -2.5736424e-35 5.412982e-35 -6.5725517e-35
-1.0736276e-35 1.6061593e-35 -4.896243e-35 5.4756593e-35 -7.1628524e-35 -5.8963417e-35 -1.6767361e-35 -5.5772558e-36

transformer.layers.0.1.fn.norm.weight f4 [64]
00000000: a34f 4588 514f 4588 b24f 4588 8354 4588
00000010: 704c 4588 b04b 4588 644d 4588 9150 4588
00000020: 9d4d 4588 5c4f 4588 ea4f 4588 cc4f 4588
00000030: 194f 4588 9b4e 4588 a94e 4588 b74f 4588
00000040: 2d50 4588 974f 4588 1253 4588 f64f 4588
00000050: 7050 4588 f851 4588 1753 4588 bb50 4588
00000060: 2351 4588 2b52 4588 b64d 4588 e446 4588
00000070: a84c 4588 4e4f 4588 e14b 4588 f84e 4588
00000080: 4e50 4588 2450 4588 dd52 4588 c44d 4588
00000090: 3550 4588 c24e 4588 cc51 4588 a14e 4588
000000a0: b04c 4588 dc49 4588 3950 4588 5a4d 4588
000000b0: 864f 4588 7b4e 4588 204e 4588 fa4f 4588
000000c0: 1a50 4588 c34c 4588 b94f 4588 a14d 4588
000000d0: f44e 4588 794f 4588 8c4f 4588 144c 4588
000000e0: f350 4588 584f 4588 3d50 4588 674e 4588
000000f0: 624f 4588 484f 4588 be4f 4588 384f 4588
-5.9376144e-34 -5.9375767e-34 -5.9376212e-34 -5.9381874e-34 -5.9372383e-34 -5.93715e-34 -5.9373503e-34 -5.9377236e-34
-5.9373765e-34 -5.9375818e-34 -5.937647e-34 -5.937633e-34 -5.937551e-34 -5.937493e-34 -5.9374996e-34 -5.9376235e-34
-5.9376777e-34 -5.937609e-34 -5.938018e-34 -5.9376525e-34 -5.9377085e-34 -5.9378885e-34 -5.9380203e-34 -5.937743e-34
-5.9377907e-34 -5.937912e-34 -5.937388e-34 -5.9365863e-34 -5.937264e-34 -5.9375753e-34 -5.9371726e-34 -5.937536e-34
-5.937693e-34 -5.9376736e-34 -5.9379936e-34 -5.9373944e-34 -5.9376814e-34 -5.937511e-34 -5.9378683e-34 -5.937496e-34
-5.9372677e-34 -5.9369352e-34 -5.9376832e-34 -5.9373457e-34 -5.937601e-34 -5.9374784e-34 -5.9374367e-34 -5.9376543e-34
-5.937669e-34 -5.9372764e-34 -5.9376245e-34 -5.9373783e-34 -5.937534e-34 -5.937595e-34 -5.937604e-34 -5.937196e-34
-5.9377686e-34 -5.93758e-34 -5.937685e-34 -5.9374693e-34 -5.9375845e-34 -5.9375726e-34 -5.9376268e-34 -5.937565e-34

transformer.layers.0.1.fn.norm.bias f4 [64]
00000000: 87a1 0480 aebd 0c01 b13a 2180 2d0f 0201
00000010: 5899 3f01 6c77 3781 bfec 5301 1f02 4800
00000020: ce81 5681 e3f2 3400 6ab0 8000 ab9f 5500
00000030: 592e 8180 ce79 5281 83bc 0601 0cb6 7900
00000040: 3d9a 3680 dc14 5d80 a86c 2101 cf40 8180
00000050: 6d4b 4700 c251 4881 ff05 ef80 e6c0 c080
00000060: 6de2 9980 5b3b 8e81 2716 6701 7011 7c01
00000070: de01 3881 c933 2a80 d11d 8381 6664 4f00
00000080: d765 8101 005f 6000 e396 1f01 04a4 4b01
00000090: 6d0d 1481 bf3d 9780 15cb 1401 6714 8080
000000a0: 311c b980 be72 b181 4f26 d080 6bcb ec00
000000b0: 8e17 9780 4b31 a600 4df4 8b80 2938 6300
000000c0: b5dd 4c01 0663 8c01 de50 1c00 7d81 7b00
000000d0: 8352 b780 1044 1700 264d 0f81 bfc0 3d01
000000e0: d7ef e800 4c7d 6601 a1be d000 11a8 a500
000000f0: 676c 6b01 15c9 2a00 3142 0080 9b8e 0601
-4.25287e-40 2.5850027e-38 -3.051626e-39 2.3888117e-38 3.5191178e-38 -3.3697473e-38 3.8924436e-38 6.612917e-39
-3.9398723e-38 4.862577e-39 1.1818229e-38 7.863295e-39 -1.1863405e-38 -3.86583e-38 2.4747163e-38 1.1177401e-38
-5.014447e-39 -8.548184e-39 2.9648987e-38 -1.1870028e-38 6.547378e-39 -3.6792857e-38 -2.1950835e-38 -1.7701614e-38
-1.4132057e-38 -5.224773e-38 4.2443893e-38 4.62976e-38 -3.3796802e-38 -3.875668e-39 -4.8164584e-38 7.29102e-39
4.753325e-38 8.850287e-39 2.9311944e-38 3.7402887e-38 -2.719294e-38 -1.388931e-38 2.732901e-38 -1.1762262e-38
-1.699968e-38 -6.518418e-38 -1.9115526e-38 2.174615e-38 -1.387561e-38 1.5262375e-38 -1.2852773e-38 9.11186e-39
3.762795e-38 5.156997e-38 2.600404e-39 1.1342218e-38 -1.6835495e-38 2.136633e-39 -2.6320303e-38 3.4852106e-38
2.1391873e-38 4.2334224e-38 1.9170168e-38 1.5213148e-38 4.3240458e-38 3.929225e-39 -2.3745e-41 2.4714227e-38

transformer.layers.0.1.fn.fn.net.0.weight f4 [128, 64]
00000000: 191f be86 f544 1386 c66d bb85 1a1d 9806
00000010: 2aed f885 9899 8a06 f591 8d06 c0b3 5486
00000020: 5e9c 6206 5645 b386 2b5f da84 7996 0206
00000030: 8b09 fc85 72ec 0e05 833d a206 3f75 5505
00000040: c835 c406 3851 1806 cbb3 b406 cece 8d86
00000050: deaa 4904 aeaa 6a06 879c 8706 f98f dd05
00000060: 2a31 d605 08dd 3e06 330e 1b86 bd03 3206
00000070: e3c3 a086 5989 1086 d5fa bf05 1433 4a86
00000080: a524 b806 59a1 a986 15f6 7205 8471 ab04
00000090: 9b80 8206 7d1c 7806 7d26 b706 29c3 9686
000000a0: 1a88 bf86 2923 ec05 a744 5086 ba16 7606
000000b0: 8988 2784 92a9 4606 9b82 ed05 cb4a 7c86
000000c0: 0381 3786 358c 9e06 7f86 1986 b407 2906
000000d0: 4ffe 6284 a44b 2c03 a296 2906 7737 a605
000000e0: bcfa 4806 6b3e 6b06 0939 ae06 a58d 9c86
000000f0: 5e9e be86 66b0 1906 a8b2 1985 2c5a 4e06
00000100: 1a7c af06 f1ee 7385 0d78 b005 69f2 5885
00000110: 724f a186 22c7 7186 58a3 6206 fb40 9006
00000120: 8777 5e85 1203 2f85 e4a6 7286 b161 1885
00000130: 8ce2 9f06 4b3e c586 0027 0386 5375 4705
00000140: 3db8 0186 b878 8786 c5c9 0d86 ecff bf86
00000150: 8fce d404 7eec 2486 6697 8d06 1553 3486
00000160: 4da2 c286 f45f a406 da5e 1786 9810 9d06
00000170: 9188 b606 8ecd 8785 5cfb bc85 1a45 b086
00000180: badf 0a86 b31f 3586 ed0a 8b85 ab32 1706
00000190: ee52 6d84 7958 7d05 9f47 bd06 be3e 5285
000001a0: c2a7 1306 cf6d c406 3073 6305 85ea e184
000001b0: 91a4 f002 4603 9f06 f492 9606 90b0 2685
000001c0: 82ac 1986 5e2a 7585 0339 d505 8e81 8e86
000001d0: fdf2 8986 d6d7 0e86 b5d8 c005 b33b 5a06
000001e0: 4a90 8786 760b 8f06 9cb3 7506 224d 1a86
000001f0: f59c 9604 8a52 b406 d118 c486 74c2 8c84
00000200: a787 9486 eb6b 2b06 ad0d 2106 474c c305
00000210: bee1 2d06 38a3 ea85 48e1 8706 e237 5385
00000220: 7f23 8f86 d8e9 4206 2251 c984 f7a5 3005
00000230: b115 3b02 3935 7004 63f0 a906 7920 b685
00000240: 24cb 9b86 f311 0c85 ed81 ad86 366b b484
00000250: 0f8f 8906 2b94 b785 ca80 bd86 9990 a986
00000260: 2597 0186 4cf1 b306 6908 ba06 bd3f 1706
00000270: 0606 1285 204a b506 20c8 9686 4dad ac86
00000280: 5fa3 7f86 035d 2786 7b2d 0186 d2b0 5486
00000290: 3c4e 8786 1e22 a606 7d3d 7f86 7347 c186
000002a0: bb90 d185 405e 8885 3287 a506 cf53 2186
000002b0: 2260 9b86 bf1d 9506 5861 9986 ca39 8006
000002c0: d5d3 7d84 fe0f a606 3a92 8406 f6a9 4a84
000002d0: c103 5706 b05d 5806 55ba 0005 fe09 a606
000002e0: 6e31 ce05 5c2c 9a06 78e6 1c86 428f aa05
000002f0: 4ea4 8286 ca12 5886 ffce b406 f9bd a805
00000300: fd88 a186 aefe 6606 823f a386 dfe9 4186
00000310: d96d 5606 1cc1 0905 cc6f e885 6cac b606
00000320: a5f8 0306 9faa 1603 2236 5d86 45a2 1b06
00000330: 22f7 9d06 f776 9706 3090 f785 6a41 4186
00000340: 2b77 fa04 8ac6 ec83 fe0c 7d85 fcd1 d585
00000350: c7e8 5f06 8da2 9a05 de2f 1386 a619 8206
00000360: 3edf 9f86 d838 3386 6424 9d06 5b3e 9685
00000370: 66f3 6606 289d 1606 6bf2 4504 1437 9185
00000380: 1da6 ae86 ab51 b906 2203 1486 9dc2 5206
00000390: cde0 ea85 904b 7e86 c112 1586 8439 9c86
000003a0: b415 a586 f5cd 8306 b4c3 9286 4eea ea85
000003b0: 3921 9b04 0d1f ad05 bfd8 ad86 9e79 fd85
000003c0: 44e4 8285 22e5 b086 94d4 bd84 22c6 9e06
000003d0: 4417 9d85 5045 9c83 39cd 8406 9e09 b806
000003e0: 0c74 c086 5887 c006 8725 b505 4427 9406
000003f0: 0c71 df02 e265 4006 aad0 9c06 659f 2d06
-7.151575e-35 -2.769829e-35 -1.762572e-35 5.7218806e-35 -2.3408928e-35 5.2135516e-35 5.325277e-35 -4.0004828e-35
4.2620756e-35 -6.7434196e-35 -5.133895e-36 2.4560832e-35 -2.3701472e-35 6.720236e-36 6.102801e-35 1.00367466e-35
7.380603e-35 2.8647693e-35 6.7972657e-35 -5.334218e-35 2.3705895e-36 4.4135904e-35 5.101135e-35 2.0835627e-35
2.0142523e-35 3.5897416e-35 -2.9162692e-35 3.3480826e-35 -6.047314e-35 -2.7184297e-35 1.8053695e-35 -3.8029504e-35
6.926695e-35 -6.3807814e-35 1.14239834e-35 4.0306154e-36 4.9089534e-35 4.6664546e-35 6.88935e-35 -5.671049e-35
-7.20462e-35 2.2206249e-35 -3.917089e-35 4.6284154e-35 -1.969345e-36 3.7364242e-35 2.233535e-35 -4.745088e-35
-3.4513257e-35 5.963901e-35 -2.8874914e-35 3.1791027e-35 -2.6682945e-36 5.063309e-37 3.1896035e-35 1.563094e-35
3.780003e-35 4.4244445e-35 6.553533e-35 -5.8888806e-35 -7.1702756e-35 2.89057e-35 -7.2268394e-36 3.8810542e-35
6.6010035e-35 -1.1469692e-35 1.659506e-35 -1.0200795e-35 -6.0678203e-35 -4.5473362e-35 4.2625882e-35 5.426226e-35
-1.04603435e-35 -8.2290244e-36 -4.5637753e-35 -7.164949e-36 6.0142033e-35 -7.4194695e-35 -2.4667014e-35 9.378484e-36
-2.439756e-35 -5.0958736e-35 -2.666739e-35 -7.222226e-35 5.0030655e-36 -3.101872e-35 5.3260765e-35 -3.3915276e-35
-7.321317e-35 6.1830934e-35 -2.846963e-35 5.908122e-35 6.866146e-35 -1.2770848e-35 -1.777177e-35 -6.630538e-35
-2.6119284e-35 -3.4065605e-35 -1.307551e-35 2.8437168e-35 -2.7897296e-36 1.1912253e-35 7.1199136e-35 -9.8856765e-36
2.7770876e-35 7.3888355e-35 1.0694645e-35 -5.3112618e-36 3.5359287e-37 5.981396e-35 5.6639657e-35 -7.837712e-36
-2.890284e-35 -1.1527626e-35 2.0051367e-35 -5.3604827e-35 -5.189071e-35 -2.6865803e-35 1.8135199e-35 4.1045103e-35
-5.099337e-35 5.380746e-35 4.6211335e-35 -2.902085e-35 3.5408973e-36 6.7829755e-35 -7.376347e-35 -3.309242e-36
-5.5870736e-35 3.224081e-35 3.0290782e-35 1.8365732e-35 3.2703533e-35 -2.2065211e-35 5.1112377e-35 -9.9314364e-36
-5.384278e-35 3.6659146e-35 -4.732938e-36 8.305963e-36 1.3744815e-37 2.8236303e-36 6.392395e-35 -1.7127126e-35
-5.860301e-35 -6.586065e-36 -6.5266276e-35 -4.2416254e-36 5.174388e-35 -1.7263666e-35 -7.1283137e-35 -6.37832e-35
-2.4373247e-35 6.768687e-35 6.997778e-35 2.844677e-35 -6.865993e-36 6.819355e-35 -5.6717786e-35 -6.495385e-35
-4.8080196e-35 -3.1477543e-35 -2.4295617e-35 -4.0002675e-35 -5.089631e-35 6.249239e-35 -4.8005344e-35 -7.2703516e-35
-1.9707431e-35 -1.2824e-35 6.2264753e-35 -3.0342307e-35 -5.8445774e-35 5.609128e-35 -5.769524e-35 4.823316e-35
-2.9837276e-36 6.246576e-35 4.986774e-35 -2.3823028e-36 4.0439764e-35 4.0693915e-35 6.052755e-36 6.245694e-35
1.9390305e-35 5.799354e-35 -2.950966e-35 1.6039348e-35 -4.914199e-35 -4.063889e-35 6.801263e-35 1.5868429e-35
-6.0762755e-35 4.34453e-35 -6.14071e-35 -3.6471087e-35 4.032963e-35 6.4771776e-36 -2.1858243e-35 6.871414e-35
2.4821037e-35 4.42769e-37 -4.160525e-35 2.9271477e-35 5.9419965e-35 5.697469e-35 -2.3280734e-35 -3.6347324e-35
5.8884156e-36 -1.3916416e-36 -1.1898389e-35 -2.010756e-35 4.2112656e-35 1.4541802e-35 -2.7682794e-35 4.893825e-35
-6.013718e-35 -3.370792e-35 5.911031e-35 -1.4128838e-35 4.3437013e-35 2.8327325e-35 2.3268552e-36 -1.3655967e-35
-6.5695607e-35 6.9709266e-35 -2.7838008e-35 3.963959e-35 -2.2087833e-35 -4.7827605e-35 -2.8037564e-35 -5.876519e-35
-6.209799e-35 4.957935e-35 -5.5206656e-35 -2.2091324e-35 3.6470835e-36 1.6280248e-35 -6.5393847e-35 -2.3836681e-35
-1.2308993e-35 -6.654052e-35 -4.462891e-36 5.9724124e-35 -1.4772755e-35 -9.184769e-37 4.995443e-35 6.922724e-35
-7.239289e-35 7.242124e-35 1.7034944e-35 5.572911e-35 3.283179e-37 3.6186038e-35 5.898728e-35 3.2654788e-35

transformer.layers.0.1.fn.fn.net.0.bias f4 [128]
00000000: e307 5604 0a7a 3905 21e8 b004 2807 c206
00000010: c6e8 c486 33c2 ce05 326a b706 752f 4f86
00000020: 09f3 ae06 dec5 8986 bff4 0384 2acb c406
00000030: 914d a384 9fad 0f05 7aec 7503 8f41 8386
00000040: 6ee9 a505 160e a685 86c7 9986 d545 a186
00000050: f01b a006 0379 f205 d4d7 2706 d298 ab06
00000060: 1792 1f06 fade 8386 df8c 4604 a7fd 8806
00000070: 480b b686 7a3e e705 42bc 8605 724e ae86
00000080: 7635 4286 afec 9b06 ae9c ae02 1a6c 2005
00000090: 254b 7986 9e5b 4486 88e6 b884 4b09 db84
000000a0: a696 8f06 b39c 4483 dc9f 9b86 489a 1486
000000b0: c24e b586 a478 5c86 c232 1686 173b 5386
000000c0: 5574 4786 6ee4 9986 edc1 9f06 b965 6e86
000000d0: 69e3 8e86 3ac6 3f06 2391 ab85 401f b985
000000e0: 15f4 8586 df77 3905 a899 be86 38e5 8506
000000f0: a47d d285 adaf 0806 a64b a406 b7e0 8706
00000100: 5c80 7786 a6cd af06 587d 5706 4765 bc86
00000110: 825e 8506 2b8c 1d86 ad6e 9406 53df 6186
00000120: d736 9c86 f53a 4a06 39f7 0f84 5d41 8886
00000130: adc2 be86 2e14 9f06 0b08 e205 6d3b 0c86
00000140: 3d75 7586 b70b 2f05 d1a8 c805 a1a8 0e06
00000150: 38be 1305 c41b 9486 ef6b 0505 4ccb bb86
00000160: ecde a186 ed0f 9106 c735 9b86 982c 2804
00000170: d386 f404 02e5 0804 67f3 ec05 cae4 4685
00000180: 4e69 6186 c50e fc85 c0b8 ad06 a9be 7b06
00000190: 8a5d 5506 6846 b405 055b 4c86 0d6b 9686
000001a0: c3b0 e585 162d 3086 802f fb05 8d24 0206
000001b0: fdc6 6586 a2fd d985 1480 9f86 1ad8 9a86
000001c0: edf6 ad06 0384 d984 0f27 8905 b9c0 b206
000001d0: 0812 0904 a1e4 5385 791e bc06 b1fb c384
000001e0: 8533 6e86 85a1 5906 2560 1106 012f 1f06
000001f0: 5e90 9105 daad 8586 6a69 ab86 4c1d ba06
2.51592e-36 8.721073e-36 4.1590578e-36 7.2985204e-35 -7.4069036e-35 1.9443484e-35 6.899299e-35 -3.896724e-35
6.5808634e-35 -5.182441e-35 -1.5511358e-36 7.402553e-35 -3.839235e-36 6.755717e-36 7.227049e-37 -4.9373053e-35
1.5602274e-35 -1.561574e-35 -5.7845377e-35 -6.066408e-35 6.022636e-35 2.2802023e-35 3.1567775e-35 6.45476e-35
3.0011906e-35 -4.960436e-35 2.3339473e-36 5.153022e-35 -6.847737e-35 2.1746086e-35 1.2670454e-35 -6.556679e-35
-3.6526622e-35 5.8652295e-35 2.5656932e-37 7.543019e-36 -4.6886902e-35 -3.6930813e-35 -4.34699e-36 -5.1495187e-36
5.401198e-35 -5.7779105e-37 -5.853941e-35 -2.7949054e-35 -6.8200357e-35 -4.1466034e-35 -2.8249155e-35 -3.9728102e-35
-3.7513207e-35 -5.788785e-35 6.00941e-35 -4.483756e-35 -5.374861e-35 3.606874e-35 -1.6134078e-35 -1.7408796e-35
-5.0387686e-35 8.720675e-36 -7.1695834e-35 5.0365846e-35 -1.9794458e-35 2.5707823e-35 6.18011e-35 5.1111545e-35
-4.654984e-35 6.6129857e-35 4.0529094e-35 -7.0866554e-35 5.0167906e-35 -2.9631397e-35 5.5834036e-35 -4.248187e-35
-5.876126e-35 3.8035292e-35 -1.6923088e-36 -5.1253557e-35 -7.1756107e-35 5.9838804e-35 2.1255892e-35 -2.6374733e-35
-4.6165512e-35 8.230612e-36 1.8869923e-35 2.683112e-35 6.9468444e-36 -5.571221e-35 6.273454e-36 -7.06403e-35
-6.0889023e-35 5.456634e-35 -5.838354e-35 1.9768782e-36 5.748794e-36 1.6091878e-36 2.2282745e-35 -9.351937e-36
-4.2395162e-35 -2.3703392e-35 6.5346833e-35 4.7347928e-35 4.012957e-35 1.6952982e-35 -3.8435006e-35 -5.6581026e-35
-2.1599989e-35 -3.3135045e-35 2.3621375e-35 2.4477136e-35 -4.3216307e-35 -2.0499752e-35 -5.9997346e-35 -5.8245894e-35
6.543819e-35 -5.113769e-36 1.2897766e-35 6.723934e-35 1.6112552e-36 -9.963165e-36 7.0762516e-35 -4.607542e-36
-4.4800675e-35 4.093183e-35 2.7342105e-35 2.993911e-35 1.3688767e-35 -5.028449e-35 -6.4477943e-35 7.000847e-35

transformer.layers.0.1.fn.fn.net.2.weight f4 [64, 128]
00000000: 7b51 1586 3457 9b03 0131 3986 5282 bd82
00000010: a248 5886 d115 0b06 0b97 4806 d1fc 4a86
00000020: ccb9 2c06 32df 7685 d775 9104 1896 de05
00000030: 25e8 9f85 fa08 2785 8712 9c04 e534 9205
00000040: 5d00 4085 8d89 3f06 76e6 df03 7876 d205
00000050: a4ba 2985 1946 3c06 f287 6184 def2 0286
00000060: f828 7106 6507 8a86 c77e 3406 de44 4c85
00000070: c759 9a84 a9af 4106 00a3 1a06 ca2c f985
00000080: 829c 1486 b5b3 0f06 c3d5 2006 3680 c685
00000090: 40bb 5905 e152 9985 5850 5506 25e6 4984
000000a0: e4fc a385 4b84 0d05 18f6 7886 05e4 4c86
000000b0: 10c8 0305 f5b9 2505 8dc2 2306 74e2 6a06
000000c0: 2f94 bd05 fcc9 4d06 0e61 2186 3f46 3986
000000d0: 849e 8486 3242 1584 7cb8 6206 cf07 8486
000000e0: a508 4906 042c dd84 c934 5b86 f7a7 cb05
000000f0: df4a a885 2441 ac05 ef86 cc05 7694 bd85
00000100: 775d 0006 1251 8606 4835 6206 7aa7 fa05
00000110: e2f1 0286 f32a 8206 0de3 a704 fadf 2404
00000120: 7f13 f585 97d3 4f06 81d4 4386 337c 8586
00000130: 01ac 4085 fc26 1d85 9cfe 4785 bd65 7706
00000140: fab4 3606 6ca0 4906 940f 2306 bc39 7986
00000150: a6f6 e505 bf9c 2a86 a999 0004 7ef5 ea84
00000160: 6efd 2586 10f9 e105 4330 5885 6787 f705
00000170: cde7 6486 ba8c 2b86 db74 9c84 98e3 e485
00000180: 7f8f 1f05 0918 8906 0c3b 6606 a0a8 8186
00000190: 47d9 8486 f433 5f86 f051 8706 20e6 8705
000001a0: b2e4 2205 f13d 2805 c9da dc05 05af 6c85
000001b0: 3abb 5806 cfd1 d584 eaef 2506 94e5 8406
000001c0: 2ee8 2106 1031 4686 b914 8006 670b 5785
000001d0: b7ec 6e02 6690 7304 cc02 8606 7175 c903
000001e0: 024e 0304 e636 3985 a1a2 7606 f2fe 2006
000001f0: 0bbf 7786 36dd 4e06 3018 0e86 fbcf 8086
00000200: 1464 9984 9d6d 4406 23d0 6886 f702 8304
00000210: 5a60 7284 f84d 6d05 9a07 df05 58d6 5586
00000220: 3f09 4e86 a2eb 2486 a7a2 7106 8860 1085
00000230: d78d 4386 c588 0a86 d453 0306 7956 6886
00000240: d8f0 5b05 6c71 3906 5bbc 6206 6699 f485
00000250: 6afb 4606 5ba4 fd85 6614 9784 a023 6f86
00000260: 92bd f805 4896 7286 9935 9d05 803e 9d85
00000270: 1f2d 4306 4346 6905 4ffa b905 cb9c 3086
00000280: 5ca2 c304 1e1a c705 230a 5105 641f 0686
00000290: 2008 3506 7c06 8a85 ac50 e405 5d46 f485
000002a0: 0716 fb85 eabd 4c06 e0ba 2186 67e2 9385
000002b0: b9e9 ec05 75f1 6905 7138 2686 df85 6006
000002c0: 202b 0c06 af1a 6e86 24a0 8686 c0a6 7305
000002d0: 1fe6 c685 7237 9185 5b5e f605 9346 f704
000002e0: 5b92 1705 3261 3c06 5412 6486 a188 c605
000002f0: f959 a105 cf76 f685 2206 b084 a6b1 3c86
00000300: 6cce 0006 8702 cc84 0119 1386 7b56 8c05
00000310: deb4 b484 6839 4e86 c45e a585 bd77 4686
00000320: 7220 8406 1797 1106 58d1 6c06 743e 7586
00000330: fbb3 de05 8519 dd05 09aa 3f86 7083 5b85
00000340: d6ce e485 31fa 2386 b267 c605 048b ad85
00000350: 1f7b dd84 85b6 fa05 6056 9005 a3d0 d605
00000360: 74be 1785 ba02 1f86 2f60 0805 4f5e 5106
00000370: df4d 9b04 3103 6386 9794 9b05 12f0 7706
00000380: 9796 7106 f2ea ff05 0552 df05 bb0d 2386
00000390: c7ee d285 1913 5906 a42e 7a06 5ebd c885
000003a0: 408d 4b06 f3e9 2406 447a 1485 3e0d 4a86
000003b0: 28c0 4b06 dd6d 6806 c3bc 0586 59d9 4586
000003c0: 69ce 8303 38db 4606 994f 0506 7d98 3583
000003d0: fab1 1886 22f6 1c06 8a2e 1586 70a6 3806
000003e0: 68b5 7406 939a 9405 25d2 c905 bce7 6f06
000003f0: 1700 3c05 1440 9a05 49f5 5a85 c541 3606
-2.8083648e-35 9.130102e-37 -3.4830635e-35 -2.7845854e-37 -4.0678447e-35 2.6159023e-35 3.7726788e-35 -3.8177718e-35
3.2486107e-35 -1.1607859e-35 3.4197555e-36 2.0931915e-35 -1.5037565e-35 -7.853951e-36 3.669244e-36 1.3749204e-35
-9.027863e-36 3.6024164e-35 1.3159673e-36 1.9791824e-35 -7.980622e-36 3.541037e-35 -2.6511046e-36 -2.4628713e-35
4.535716e-35 -5.1920696e-35 3.394738e-35 -9.604683e-36 -3.6287673e-36 3.642832e-35 2.9083934e-35 -2.34323e-35
-2.795069e-35 2.702734e-35 3.0249703e-35 -1.8666928e-35 1.0237683e-35 -1.4418496e-35 4.0119875e-35 -2.3733114e-36
-1.5421344e-35 6.6540865e-36 -4.6824417e-35 -3.8535658e-35 6.196336e-36 7.7924176e-36 3.0799826e-35 4.417688e-35
1.7827909e-35 3.870461e-35 -3.035204e-35 -3.4846241e-35 -4.98858e-35 -1.7545261e-36 4.2641413e-35 -4.9664355e-35
3.781025e-35 -5.1997272e-36 -4.1228102e-35 1.9151729e-35 -1.5826147e-35 1.6198731e-35 1.9233635e-35 -1.782801e-35
2.414279e-35 5.052432e-35 4.254502e-35 2.3571408e-35 -2.462799e-35 4.8963673e-35 3.9470025e-36 1.9380952e-36
-2.3046851e-35 3.9087825e-35 -3.6831547e-35 -5.0211534e-35 -9.059389e-36 -7.389265e-36 -9.4036994e-36 4.6530282e-35
3.4363356e-35 3.7921758e-35 3.0668338e-35 -4.6874111e-35 2.1625661e-35 -3.2088605e-35 1.5116885e-36 -5.5238585e-36
-3.1219242e-35 2.125039e-35 -1.01651355e-35 2.3277507e-35 -4.3052334e-35 -3.2264915e-35 -3.678274e-36 -2.1524622e-35
7.5025e-36 5.156899e-35 4.3301573e-35 -4.877218e-35 -4.997214e-35 -4.1979808e-35 5.090175e-35 1.2779874e-35
7.659208e-36 7.910699e-36 2.076907e-35 -1.1128813e-35 4.0762637e-35 -5.0268738e-36 3.1209312e-35 4.9990216e-35
3.0451313e-35 -3.7275706e-35 4.81787e-35 -1.0111346e-35 1.7553412e-37 2.8630817e-36 5.040931e-35 1.18406815e-36
1.5434795e-36 -8.7087414e-36 4.6386938e-35 3.027996e-35 -4.6595893e-35 3.8906814e-35 -2.6725002e-35 -4.845385e-35
-3.6062034e-36 3.6944034e-35 -4.3787265e-35 3.0800675e-36 -2.8491206e-36 1.1158007e-35 2.0973612e-35 -4.0218322e-35
-3.8751087e-35 -3.1018087e-35 4.544656e-35 -6.7885775e-36 -3.677963e-35 -2.6055398e-35 2.469995e-35 -4.369788e-35
1.03415665e-35 3.4877962e-35 4.2644257e-35 -2.3002e-35 3.742437e-35 -2.385238e-35 -3.5518662e-36 -4.4977077e-35
2.3391445e-35 -4.562555e-35 1.4783898e-35 -1.4787168e-35 3.6708573e-35 1.09685124e-35 1.7489265e-35 -3.3217114e-35
4.5993383e-36 1.8723464e-35 9.8289946e-36 -2.522566e-35 3.4048286e-35 -1.297984e-35 2.1470651e-35 -2.2971497e-35
-2.3612018e-35 3.8507662e-35 -3.0418029e-35 -1.390698e-35 2.227919e-35 1.0999956e-35 -3.1262597e-35 4.222807e-35
2.6362757e-35 -4.478243e-35 -5.0640503e-35 1.1456432e-35 -1.8704364e-35 -1.3656102e-35 2.316839e-35 5.8134233e-36
7.126867e-36 3.5430278e-35 -4.28955e-35 1.867002e-35 1.5173418e-35 -2.3177372e-35 -4.1383033e-36 -3.5489386e-35
2.422578e-35 -4.796249e-36 -2.7665997e-35 1.3197305e-35 -4.2483897e-36 -3.878647e-35 -1.5551337e-35 -3.732763e-35
4.9700555e-35 2.7382472e-35 4.4540468e-35 -4.6125262e-35 2.0942894e-35 2.0792115e-35 -3.604803e-35 -1.0321472e-35
-2.1516996e-35 -3.0840704e-35 1.8657922e-35 -1.6319908e-35 -5.206992e-36 2.3576934e-35 1.3573424e-35 2.0201104e-35
-7.1349666e-36 -2.990658e-35 6.4123554e-36 3.9377818e-35 3.6511838e-36 -4.26963e-35 1.4630713e-35 4.6631913e-35
4.5437698e-35 2.406639e-35 2.1000948e-35 -3.066698e-35 -1.9836018e-35 4.0827195e-35 4.705404e-35 -1.8877472e-35
3.828383e-35 3.101685e-35 -6.981383e-36 -3.8001706e-35 3.832123e-35 4.3715065e-35 -2.51532e-35 -3.7211264e-35
7.746877e-37 3.7400718e-35 2.5073e-35 -5.3366167e-37 -2.871878e-35 2.952117e-35 -2.8057977e-35 3.4728833e-35
4.6024576e-35 1.3974635e-35 1.8979144e-35 4.5121156e-35 8.839734e-36 1.4505629e-35 -1.02953625e-35 3.4278715e-35

transformer.layers.0.1.fn.fn.net.2.bias f4 [64]
00000000: 2db1 1e86 5da1 8586 31b4 7785 51a5 6986
00000010: 1911 5e86 a1a8 2186 b3e9 8986 e4cc d505
00000020: 9654 3c86 6baa 8b85 e6be 7a85 83ff f785
00000030: 26b8 5206 9741 2e06 1f0e 0306 6aa8 0106
00000040: 3a72 d505 fb48 ae05 704f 0285 7a6c 7205
00000050: 30a7 d705 be29 d985 38cf 1105 badf 0086
00000060: 5de3 1306 1227 d785 29ae 1d06 2ffa 6586
00000070: 50c3 8686 afd5 e605 a7ee 8986 7460 8706
00000080: d94c 7386 d476 4286 1852 3905 b789 9a04
00000090: 3dd8 2906 d131 0f06 ad82 b985 02b8 1506
000000a0: 50e7 0905 95cd 3b06 7d4b a203 81bd 9985
000000b0: 241d 8886 798e 1886 8c86 f385 78f5 6106
000000c0: 0e4f 0986 2dcc 2a06 6ab1 0985 2e6f 3385
000000d0: 2cd6 5905 1ab0 4105 5de0 f005 8dda 3405
000000e0: 27c7 c405 01d1 b705 cf4d 8286 4b03 7e06
000000f0: ef62 c005 3d48 aa84 9012 c405 cfa2 b985
-2.9846665e-35 -5.026614e-35 -1.164698e-35 -4.3943885e-35 -4.176612e-35 -3.0404623e-35 -5.187706e-35 2.0105689e-35
-3.5421014e-35 -1.3134099e-35 -1.1790006e-35 -2.3321629e-35 3.96319e-35 3.277395e-35 2.4648736e-35 2.4385935e-35
2.0072384e-35 1.638969e-35 -6.127161e-36 1.1398709e-35 2.0279918e-35 -2.0421916e-35 6.855927e-36 -2.4238493e-35
2.7814667e-35 -2.0232855e-35 2.965637e-35 -4.325392e-35 -5.0692184e-35 2.1707591e-35 -5.188434e-35 5.092308e-35
-4.575968e-35 -3.6574646e-35 8.7137364e-36 3.6331697e-36 3.1944234e-35 2.693191e-35 -1.7445319e-35 2.8158973e-35
6.4841944e-36 3.532183e-35 9.5388355e-37 -1.4457664e-35 -5.120033e-35 -2.8692695e-35 -2.2901035e-35 4.249814e-35
-2.5824916e-35 3.212345e-35 -6.474295e-36 -8.43696e-36 1.0242628e-35 9.107161e-36 2.265191e-35 8.503701e-36
1.8504908e-35 1.7286013e-35 -4.9014894e-35 4.777451e-35 1.8091936e-35 -4.003315e-36 1.843857e-35 -1.7457123e-35
