model_training/trained_models/multicolor_data/model_56_ViT_1000_early_stopping.pth (torch, 223472 bytes, 17 tensors)

patch_to_embedding.weight f4 [64, 192]
-1.85e-43 -2.07e-43 1.85e-43 -2.31e-43 -2.38e-43 -1.96e-43 1.26e-43 2.05e-43
-4.2e-44 2.5e-44 -1.2e-43 -7.6e-44 -1.4e-43 -1.46e-43 5.5e-44 -1.72e-43
2.21e-43 1.06e-43 1.51e-43 5.5e-44 -1.47e-43 -9.2e-44 1.25e-43 -1.3e-44
-1.72e-43 -1.49e-43 -7.1e-44 -1.02e-43 2.42e-43 -8.7e-44 -1.26e-43 2.17e-43
1.36e-43 2.8e-44 -1.7e-44 9.1e-44 -1.58e-43 2.05e-43 -1.61e-43 1.23e-43
5.3e-44 1.05e-43 -1.88e-43 -1.46e-43 1e-45 -1.68e-43 4.5e-44 4.3e-44
-1.96e-43 9.4e-44 7e-44 1.4e-44 7.4e-44 -1.64e-43 2.35e-43 1.43e-43
-3.1e-44 1.7e-43 1.68e-43 2.34e-43 1.29e-43 -1.2e-43 -1.37e-43 1.95e-43
4.8e-44 1.12e-43 -3.4e-44 1.25e-43 -1.77e-43 -1.42e-43 -1.49e-43 -4.3e-44
1.72e-43 -1.22e-43 -1.15e-43 -1e-43 1.78e-43 -4.9e-44 -1.86e-43 6e-45
-1.49e-43 2.12e-43 2.16e-43 -1.7e-44 1.32e-43 -5.3e-44 2.1e-44 -1.7e-43
-5.7e-44 -1.1e-44 1.7e-43 1.44e-43 -2.31e-43 -1.63e-43 3e-44 1.28e-43
-7.4e-44 -1.39e-43 1e-44 -4.3e-44 -6e-44 -5.3e-44 9.2e-44 1.37e-43
-1.58e-43 1.84e-43 -5.3e-44 -3.9e-44 -2.2e-44 -3.6e-44 2.02e-43 1.14e-43
1.3e-43 -2.09e-43 1.02e-43 -1.88e-43 -1.25e-43 -1.65e-43 -5e-44 -3.2e-44
1.86e-43 9.1e-44 -8.1e-44 1e-45 6.9e-44 1.25e-43 1.93e-43 -9.5e-44
1.26e-43 1.08e-43 1.78e-43 -2.03e-43 -1.16e-43 4e-44 2.19e-43 1.96e-43
9e-44 1.37e-43 4.2e-44 -7.6e-44 -9.1e-44 -5.3e-44 1.88e-43 7e-44
1.96e-43 2.19e-43 1.89e-43 -7e-44 -3.6e-44 -8e-45 -1.61e-43 1.71e-43
-6e-45 1.32e-43 1.23e-43 9.4e-44 6.4e-44 -5.9e-44 -1.26e-43 1.5e-43
2.1e-43 -4.9e-44 -1.95e-43 -1.64e-43 1.8e-44 1.84e-43 -1.95e-43 1e-44
-1.84e-43 1.43e-43 -2.05e-43 -2.28e-43 -4.6e-44 -1.88e-43 -2.42e-43 1e-44
1.35e-43 -2.7e-44 -6.7e-44 -2.05e-43 1.92e-43 -1.11e-43 -1.14e-43 -1.5e-44
8e-44 1.88e-43 -1.5e-44 -1.5e-44 4e-44 -1.98e-43 1.67e-43 -1.82e-43
-3.42e-43 -3.74e-43 2.37e-43 -1.05e-43 2.2e-44 1.5e-43 2.62e-43 1.8e-43
-8.7e-44 -1.7e-43 -1.67e-43 -5e-44 -2.96e-43 1.5e-43 -3.21e-43 -1.16e-43
1.57e-43 -1.4e-44 -3.12e-43 2.62e-43 -1.95e-43 -4.02e-43 2.47e-43 -6.7e-44
-2.62e-43 -1.78e-43 1.54e-43 2.12e-43 2.73e-43 3.85e-43 -4e-45 1.29e-43
2.07e-43 -2.42e-43 -1.1e-43 1.65e-43 1.98e-43 1.12e-43 1.95e-43 1.4e-43
-7.6e-44 -2.02e-43 1.63e-43 -1.26e-43 0.0 5.6e-44 1.43e-43 -1.06e-43
1.6e-43 8.4e-44 1.71e-43 2.56e-43 -2.16e-43 1.23e-43 -2e-44 4.3e-43
2.73e-43 -8.3e-44 3.63e-43 -3.49e-43 4.6e-43 3.08e-43 -2.07e-43 -3.14e-43
00000000: 8400 0080 9400 0080 8400 0000 a500 0080
00000010: aa00 0080 8c00 0080 5a00 0000 9200 0000
00000020: 1e00 0080 1200 0000 5600 0080 3600 0080
00000030: 6400 0080 6800 0080 2700 0000 7b00 0080
00000040: 9e00 0000 4c00 0000 6c00 0000 2700 0000
00000050: 6900 0080 4200 0080 5900 0000 0900 0080
00000060: 7b00 0080 6a00 0080 3300 0080 4900 0080
00000070: ad00 0000 3e00 0080 5a00 0080 9b00 0000
00000080: 6100 0000 1400 0000 0c00 0080 4100 0000
00000090: 7100 0080 9200 0000 7300 0080 5800 0000
000000a0: 2600 0000 4b00 0000 8600 0080 6800 0080
000000b0: 0100 0000 7800 0080 2000 0000 1f00 0000
000000c0: 8c00 0080 4300 0000 3200 0000 0a00 0000
000000d0: 3500 0000 7500 0080 a800 0000 6600 0000
000000e0: 1600 0080 7900 0000 7800 0000 a700 0000
000000f0: 5c00 0000 5600 0080 6200 0080 8b00 0000
00000100: 2200 0000 5000 0000 1800 0080 5900 0000
00000110: 7e00 0080 6500 0080 6a00 0080 1f00 0080
00000120: 7b00 0000 5700 0080 5200 0080 4700 0080
00000130: 7f00 0000 2300 0080 8500 0080 0400 0000
00000140: 6a00 0080 9700 0000 9a00 0000 0c00 0080
00000150: 5e00 0000 2600 0080 0f00 0000 7900 0080
00000160: 2900 0080 0800 0080 7900 0000 6700 0000
00000170: a500 0080 7400 0080 1500 0000 5b00 0000
00000180: 3500 0080 6300 0080 0700 0000 1f00 0080
00000190: 2b00 0080 2600 0080 4200 0000 6200 0000
000001a0: 7100 0080 8300 0000 2600 0080 1c00 0080
000001b0: 1000 0080 1a00 0080 9000 0000 5100 0000
000001c0: 5d00 0000 9500 0080 4900 0000 8600 0080
000001d0: 5900 0080 7600 0080 2400 0080 1700 0080
000001e0: 8500 0000 4100 0000 3a00 0080 0100 0000
000001f0: 3100 0000 5900 0000 8a00 0000 4400 0080
00000200: 5a00 0000 4d00 0000 7f00 0000 9100 0080
00000210: 5300 0080 1d00 0000 9c00 0000 8c00 0000
00000220: 4000 0000 6200 0000 1e00 0000 3600 0080
00000230: 4100 0080 2600 0080 8600 0000 3200 0000
00000240: 8c00 0000 9c00 0000 8700 0000 3200 0080
00000250: 1a00 0080 0600 0080 7300 0080 7a00 0000
00000260: 0400 0080 5e00 0000 5800 0000 4300 0000
00000270: 2e00 0000 2a00 0080 5a00 0080 6b00 0000
00000280: 9600 0000 2300 0080 8b00 0080 7500 0080
00000290: 0d00 0000 8300 0000 8b00 0080 0700 0000
000002a0: 8300 0080 6600 0000 9200 0080 a300 0080
000002b0: 2100 0080 8600 0080 ad00 0080 0700 0000
000002c0: 6000 0000 1300 0080 3000 0080 9200 0080
000002d0: 8900 0000 4f00 0080 5100 0080 0b00 0080
000002e0: 3900 0000 8600 0000 0b00 0080 0b00 0080
000002f0: 1d00 0000 8d00 0080 7700 0000 8200 0080
00000300: f400 0080 0b01 0080 a900 0000 4b00 0080
00000310: 1000 0000 6b00 0000 bb00 0000 8000 0000
00000320: 3e00 0080 7900 0080 7700 0080 2400 0080
00000330: d300 0080 6b00 0000 e500 0080 5300 0080
00000340: 7000 0000 0a00 0080 df00 0080 bb00 0000
00000350: 8b00 0080 1f01 0080 b000 0000 3000 0080
00000360: bb00 0080 7f00 0080 6e00 0000 9700 0000
00000370: c300 0000 1301 0000 0300 0080 5c00 0000
00000380: 9400 0000 ad00 0080 4e00 0080 7600 0000
00000390: 8d00 0000 5000 0000 8b00 0000 6400 0000
000003a0: 3600 0080 9000 0080 7400 0000 5a00 0080
000003b0: 0000 0000 2800 0000 6600 0000 4c00 0080
000003c0: 7200 0000 3c00 0000 7a00 0000 b700 0000
000003d0: 9a00 0080 5800 0000 0e00 0080 3301 0000
000003e0: c300 0000 3b00 0080 0301 0000 f900 0080
000003f0: 4801 0000 dc00 0000 9400 0080 e000 0080

patch_to_embedding.bias f4 [64]
1.02e-43 -2.56e-43 -8e-45 -1.63e-43 3.9e-44 -1.2e-43 1.72e-43 -1.82e-43
-6.9e-44 8e-45 1.16e-43 1.37e-43 2.91e-43 1.43e-43 1.23e-43 -1.37e-43
1.23e-43 1.04e-43 -1.7e-44 -1.2e-43 3.9e-44 8.1e-44 2.23e-43 4.8e-44
-5.6e-44 -1.3e-43 -6.6e-44 1.28e-43 1.74e-43 -1.42e-43 -1e-43 -1.51e-43
-1.7e-43 -5.6e-44 -1.82e-43 8.4e-44 -2.65e-43 -1.9e-43 -8.5e-44 -2.4e-44
5e-44 6.6e-44 -1.5e-44 1.72e-43 1.8e-44 1.1e-44 1.71e-43 -7.1e-44
-1.42e-43 -6.3e-44 3.6e-44 -1.43e-43 1.29e-43 -3.4e-44 4.6e-44 1.43e-43
-1.65e-43 8e-45 8.4e-44 1.06e-43 -3.45e-43 7e-44 -3.1e-44 -2.2e-44
00000000: 4900 0000 b700 0080 0600 0080 7400 0080
00000010: 1c00 0000 5600 0080 7b00 0000 8200 0080
00000020: 3100 0080 0600 0000 5300 0000 6200 0000
00000030: d000 0000 6600 0000 5800 0000 6200 0080
00000040: 5800 0000 4a00 0000 0c00 0080 5600 0080
00000050: 1c00 0000 3a00 0000 9f00 0000 2200 0000
00000060: 2800 0080 5d00 0080 2f00 0080 5b00 0000
00000070: 7c00 0000 6500 0080 4700 0080 6c00 0080
00000080: 7900 0080 2800 0080 8200 0080 3c00 0000
00000090: bd00 0080 8800 0080 3d00 0080 1100 0080
000000a0: 2400 0000 2f00 0000 0b00 0080 7b00 0000
000000b0: 0d00 0000 0800 0000 7a00 0000 3300 0080
000000c0: 6500 0080 2d00 0080 1a00 0000 6600 0080
000000d0: 5c00 0000 1800 0080 2100 0000 6600 0000
000000e0: 7600 0080 0600 0000 3c00 0000 4c00 0000
000000f0: f600 0080 3200 0000 1600 0080 1000 0080

transformer.layers.0.0.fn.norm.weight f4 [64]
-8.089352e-31 -7.1629195e-32 -2.0566929e-31 -7.0877413e-32 -2.6737216e-31 -1.6021513e-31 -8.7841484e-32 -9.2364645e-32
-6.919692e-32 -9.0846106e-32 -2.9639935e-31 -1.1100795e-31 -6.0355275e-32 -9.789648e-32 -6.4975315e-32 -2.8231994e-31
-7.5243746e-32 -4.1505596e-31 -6.915543e-32 -3.4570892e-31 -6.8238405e-32 -1.4149321e-31 -6.0104225e-32 -1.1466317e-31
-1.0994606e-30 -7.141685e-32 -7.9390056e-32 -7.9524714e-32 -1.2930922e-31 -1.3720833e-31 -1.275764e-31 -1.6526449e-31
-6.817418e-32 -6.66538e-31 -9.36822e-32 -9.3599443e-32 -5.886349e-32 -6.2622575e-32 -8.321432e-32 -1.1934839e-31
-7.5079024e-32 -2.1139265e-31 -5.79164e-31 -1.5215098e-31 -1.7921375e-31 -2.3738262e-31 -1.091537e-31 -9.968661e-32
-8.842929e-32 -2.1336635e-31 -1.3959424e-31 -8.188135e-32 -6.7113363e-32 -8.7323343e-32 -6.493911e-31 -1.4097422e-31
-1.1917818e-31 -7.076748e-32 -1.1656067e-31 -1.0561071e-31 -5.824016e-32 -6.898839e-32 -7.4353885e-32 -6.4730853e-32
00000000: db41 838d c4f5 b98b ac7c 858c 1f02 b88b
00000010: d288 ad8c 9cf8 4f8c ae0c e48b d6ca ef8b
00000020: 3ea5 b38b 98d9 eb8b ca5f c08c b818 108c
00000030: f6b0 9c8b 5f27 fe8b 81af a88b 723c b78c
00000040: 0c58 c38b 80b1 068d ab89 b38b bf60 e08c
00000050: 3328 b18b 2fab 378c 1c0a 9c8b 60d7 148c
00000060: ce65 b28d a368 b98b be1b ce8b 3d75 ce8b
00000070: 5cda 278c 4a1b 328c 889a 258c 8c86 568c
00000080: 84fd b08b d04d 588d 8036 f38b 80ff f28b
00000090: 80d1 988b d793 a28b 6709 d88b 4eec 1a8c
000000a0: 92ea c28b a133 898c 10f3 3b8d d680 458c
000000b0: fca1 688c f411 9a8c 8ab0 0d8c 8f66 018c
000000c0: 5893 e58b 917b 8a8c 2534 358c 7e93 d48b
000000d0: 7b3c ae8b 51b4 e28b 4dbd 528d b8fe 368c
000000e0: beb3 1a8c 0fb9 b78b ed4d 178c 2e17 098c
000000f0: 3a33 978b a61a b38b a208 c18b 080d a88b

transformer.layers.0.0.fn.norm.bias f4 [64]
-3.4e-44 -4e-44 -9.8e-44 2.52e-43 2.1e-44 -2.1e-44 5.2e-44 -1.44e-43
-2.48e-43 1.57e-43 -1.7e-44 7.4e-44 1.36e-43 9.1e-44 9.8e-44 1.7e-44
-1.06e-43 4.3e-44 -1.78e-43 -6.7e-44 1.61e-43 1.05e-43 2e-43 -4.8e-44
-1.1e-44 2.13e-43 -9.4e-44 -3e-45 7e-45 7.1e-44 5.6e-44 9.2e-44
-8.7e-44 -2.2e-44 -1.3e-44 -1.37e-43 -1.92e-43 1.05e-43 -1.74e-43 1.1e-43
-2e-44 1.05e-43 3e-45 8.8e-44 5e-44 1.1e-43 2.5e-44 1.14e-43
5e-44 6.9e-44 -1e-43 -8e-44 1.18e-43 1.53e-43 -1.4e-44 1.02e-43
-5.7e-44 -1.53e-43 -7.3e-44 1.44e-43 3.2e-43 -1.43e-43 8e-45 5.2e-44
00000000: 1800 0080 1d00 0080 4600 0080 b400 0000
00000010: 0f00 0000 0f00 0080 2500 0000 6700 0080
00000020: b100 0080 7000 0000 0c00 0080 3500 0000
00000030: 6100 0000 4100 0000 4600 0000 0c00 0000
00000040: 4c00 0080 1f00 0000 7f00 0080 3000 0080
00000050: 7300 0000 4b00 0000 8f00 0000 2200 0080
00000060: 0800 0080 9800 0000 4300 0080 0200 0080
00000070: 0500 0000 3300 0000 2800 0000 4200 0000
00000080: 3e00 0080 1000 0080 0900 0080 6200 0080
00000090: 8900 0080 4b00 0000 7c00 0080 4e00 0000
000000a0: 0e00 0080 4b00 0000 0200 0000 3f00 0000
000000b0: 2400 0000 4e00 0000 1200 0000 5100 0000
000000c0: 2400 0000 3100 0000 4700 0080 3900 0080
000000d0: 5400 0000 6d00 0000 0a00 0080 4900 0000
000000e0: 2900 0080 6d00 0080 3400 0080 6700 0000
000000f0: e400 0000 6600 0080 0600 0000 2500 0000

transformer.layers.0.0.fn.fn.to_qkv.weight f4 [192, 64]
-4.8e-44 2.55e-43 -5.503202e-22 -1.2e-43 -1.64e-43 -2.28e-43 -2e-44 1.2e-43
-1.19e-43 -5.6e-44 7.7e-44 4.8e-44 -1.8e-43 -3.2e-44 1.58e-43 -6.9e-44
4.99e-43 9.5e-44 -1.2e-43 3.69e-43 1.93e-43 -4.97e-43 -9.7e-44 -3.35e-43
1.96e-43 -1.4e-43 3.8e-43 -1.65e-43 1.96e-43 -1.2e-43 3.4e-43 1.81e-43
1.18e-43 9.7e-44 1.78e-43 9.8e-44 -9e-44 2.12e-43 -1.32e-43 -3.87e-43
-1.57e-43 6e-44 -6.2e-44 -1.26e-43 -1.164e-42 -9.2e-44 -1.6e-43 2.86e-43
-2.66e-43 1.5e-43 3.38e-43 2.52e-43 8.5e-44 -1.19e-43 1.71e-43 -1.96e-43
2.87e-43 1.84e-43 -1.33e-43 -9.5e-44 9.5e-44 1.53e-43 -2e-44 6.38e-43
1.25e-43 1.05e-43 -1.14e-43 2.4e-43 -1.82e-43 4.3e-44 1.67e-43 1.11e-43
1.44e-43 -1.4e-44 1.77e-43 -1.77e-43 4.08e-43 1.61e-43 -1.37e-43 -1.22e-43
-6.01e-43 1.22e-43 -8.1e-44 1.44e-43 -3.25e-43 -1.4e-43 -6.2e-44 -1.47e-43
1.43e-43 1.54e-43 2.762e-42 8.4e-44 -1.95e-43 -4.02e-43 3.8e-44 -1.44e-43
3.6e-44 -3.62e-43 6.04e-43 -2.2e-44 -2.5e-43 5.23e-43 1.47e-43 1.5e-44
-1.39e-43 -3.05e-43 4.5e-44 3.55e-43 -1e-43 8.5e-44 -1.02e-43 -5.75e-43
5.28e-43 -1.49e-43 -2.26e-43 4e-43 1.06e-43 1.1e-44 -9.7e-44 2.8e-44
-1.63e-43 5.5e-44 -1.9e-43 2.1e-44 -2.34e-43 7.6e-44 -2.6e-43 -1.9e-43
2.76e-43 4.39e-43 1.12e-43 -3.3e-43 -2.31e-43 1e-45 -9.4e-44 1.71e-43
-1.23e-43 1.05e-43 -1.19e-43 1.11e-43 3.85e-43 2.6e-43 2.37e-43 -1.77e-43
-2.31e-43 -4.27e-43 -1.2e-43 -1.85e-43 1.23e-43 1.36e-43 2.21e-43 3.1e-44
1.7e-43 1.14e-43 -1.33e-43 1.25e-43 1.39e-43 4.54e-43 -4.62e-43 8.5e-44
-1.61e-43 -1.75e-43 8.7e-44 -1.18e-43 1.71e-43 8.5e-44 1.67e-43 2.77e-43
-3.63e-43 -1.25e-43 3.24e-43 2.44e-43 3.2e-43 2e-43 -1e-45 2.8e-43
1.96e-43 -1.29e-43 -1.51e-43 -2.94e-43 1.23e-43 -1.04e-43 1.72e-43 -4.65e-43
2.48e-43 2.6e-43 2.7e-44 2.75e-43 1.56e-43 1.23e-43 1.65e-43 -2.5e-43
1.26e-43 1.1e-43 -7e-44 2.02e-43 3.67e-43 2.93e-43 7.4e-44 1.36e-43
-1.22e-43 1.06e-43 1.12e-43 7.55e-43 -8.6e-43 -6.01e-43 -9.5e-44 1.25e-43
-1.96e-43 2.24e-43 7.4e-44 -1.26e-43 -1.75e-43 1.1e-43 -1.8e-44 -1.92e-43
0.0 -2.51e-43 -1.68e-43 1.25e-43 8.1e-44 -1.74e-43 4.09e-43 -4e-44
-6.3e-44 -4.7e-43 1.1e-44 -3e-44 4.78e-43 -5e-44 1.99e-43 -2.89e-43
1.46e-43 -5.7e-44 2.84e-43 -6e-44 3.2e-44 -1.63e-43 3.12e-43 5.6e-44
9e-44 -1.71e-43 -6.7e-44 -5.5e-44 9.7e-44 1.46e-43 -1.23e-43 3.67e-43
3.5e-44 2.12e-43 -2.33e-43 2.28e-43 -3.11e-43 8.8e-44 -7.06e-43 1.6e-43
00000000: 2200 0080 b600 0000 f752 269c 5600 0080
00000010: 7500 0080 a300 0080 0e00 0080 5600 0000
00000020: 5500 0080 2800 0080 3700 0000 2200 0000
00000030: 8000 0080 1700 0080 7100 0000 3100 0080
00000040: 6401 0000 4400 0000 5600 0080 0701 0000
00000050: 8a00 0000 6301 0080 4500 0080 ef00 0080
00000060: 8c00 0000 6400 0080 0f01 0000 7600 0080
00000070: 8c00 0000 5600 0080 f300 0000 8100 0000
00000080: 5400 0000 4500 0000 7f00 0000 4600 0000
00000090: 4000 0080 9700 0000 5e00 0080 1401 0080
000000a0: 7000 0080 2b00 0000 2c00 0080 5a00 0080
000000b0: 3f03 0080 4200 0080 7200 0080 cc00 0000
000000c0: be00 0080 6b00 0000 f100 0000 b400 0000
000000d0: 3d00 0000 5500 0080 7a00 0000 8c00 0080
000000e0: cd00 0000 8300 0000 5f00 0080 4400 0080
000000f0: 4400 0000 6d00 0000 0e00 0080 c701 0000
00000100: 5900 0000 4b00 0000 5100 0080 ab00 0000
00000110: 8200 0080 1f00 0000 7700 0000 4f00 0000
00000120: 6700 0000 0a00 0080 7e00 0000 7e00 0080
00000130: 2301 0000 7300 0000 6200 0080 5700 0080
00000140: ad01 0080 5700 0000 3a00 0080 6700 0000
00000150: e800 0080 6400 0080 2c00 0080 6900 0080
00000160: 6600 0000 6e00 0000 b307 0000 3c00 0000
00000170: 8b00 0080 1f01 0080 1b00 0000 6700 0080
00000180: 1a00 0000 0201 0080 af01 0000 1000 0080
00000190: b200 0080 7501 0000 6900 0000 0b00 0000
000001a0: 6300 0080 da00 0080 2000 0000 fd00 0000
000001b0: 4700 0080 3d00 0000 4900 0080 9a01 0080
000001c0: 7901 0000 6a00 0080 a100 0080 1d01 0000
000001d0: 4c00 0000 0800 0000 4500 0080 1400 0000
000001e0: 7400 0080 2700 0000 8800 0080 0f00 0000
000001f0: a700 0080 3600 0000 ba00 0080 8800 0080
00000200: c500 0000 3901 0000 5000 0000 eb00 0080
00000210: a500 0080 0100 0000 4300 0080 7a00 0000
00000220: 5800 0080 4b00 0000 5500 0080 4f00 0000
00000230: 1301 0000 ba00 0000 a900 0000 7e00 0080
00000240: a500 0080 3101 0080 5600 0080 8400 0080
00000250: 5800 0000 6100 0000 9e00 0000 1600 0000
00000260: 7900 0000 5100 0000 5f00 0080 5900 0000
00000270: 6300 0000 4401 0000 4a01 0080 3d00 0000
00000280: 7300 0080 7d00 0080 3e00 0000 5400 0080
00000290: 7a00 0000 3d00 0000 7700 0000 c600 0000
000002a0: 0301 0080 5900 0080 e700 0000 ae00 0000
000002b0: e400 0000 8f00 0000 0100 0080 c800 0000
000002c0: 8c00 0000 5c00 0080 6c00 0080 d200 0080
000002d0: 5800 0000 4a00 0080 7b00 0000 4c01 0080
000002e0: b100 0000 ba00 0000 1300 0000 c400 0000
000002f0: 6f00 0000 5800 0000 7600 0000 b200 0080
00000300: 5a00 0000 4e00 0000 3200 0080 9000 0000
00000310: 0601 0000 d100 0000 3500 0000 6100 0000
00000320: 5700 0080 4c00 0000 5000 0000 1b02 0000
00000330: 6602 0080 ad01 0080 4400 0080 5900 0000
00000340: 8c00 0080 a000 0000 3500 0000 5a00 0080
00000350: 7d00 0080 4e00 0000 0d00 0080 8900 0080
00000360: 0000 0000 b300 0080 7800 0080 5900 0000
00000370: 3a00 0000 7c00 0080 2401 0000 1d00 0080
00000380: 2d00 0080 4f01 0080 0800 0000 1500 0080
00000390: 5501 0000 2400 0080 8e00 0000 ce00 0080
000003a0: 6800 0000 2900 0080 cb00 0000 2b00 0080
000003b0: 1700 0000 7400 0080 df00 0000 2800 0000
000003c0: 4000 0000 7a00 0080 3000 0080 2700 0080
000003d0: 4500 0000 6800 0000 5800 0080 0601 0000
000003e0: 1900 0000 9700 0000 a600 0080 a300 0000
000003f0: de00 0080 3f00 0000 f801 0080 7200 0000

transformer.layers.0.0.fn.fn.to_out.weight f4 [64, 64]
1e-43 -2.84e-43 -1.51e-43 -5.6e-44 9.7e-44 -9.2e-44 -9e-44 -1.4e-43
-7.1e-44 -1.8e-43 -1.72e-43 9.4e-44 -1.12e-43 8.7e-44 7.7e-44 -2.1e-44
1.1e-43 1.1e-43 1.5e-44 2.4e-44 1.2e-43 -1.18e-43 2.2e-44 1.47e-43
-1.71e-43 -8.4e-44 1.5e-44 1.22e-43 1.51e-43 -6.9e-44 1.05e-43 -1.28e-43
-8.3e-44 6.7e-44 2.05e-43 -1.42e-43 9.7e-44 7.6e-44 1.29e-43 -1.19e-43
-1.1e-44 9.4e-44 -2.21e-43 7.6e-44 -1.11e-43 -5.5e-44 1.74e-43 -1.32e-43
1.7e-43 1.47e-43 4.6e-44 1.2e-43 1.39e-43 -3.6e-44 1.28e-43 1e-45
-1.02e-43 -1.35e-43 -2.7e-44 -1.29e-43 -8.3e-44 -1.29e-43 1.42e-43 8.4e-44
-9.1e-44 -7.7e-44 1.14e-43 -3e-45 -2.23e-43 -7.1e-44 2.7e-44 1.28e-43
6.4e-44 -7e-44 -5.7e-44 -3.9e-44 -2e-44 -1.53e-43 -1.22e-43 5.5e-44
-1.06e-43 6.6e-44 -1.57e-43 -1.02e-43 1.58e-43 5.3e-44 1.86e-43 -4.3e-44
-9.4e-44 -3.2e-44 4.6e-44 -1.32e-43 -6.9e-44 2.1e-44 -1.1e-43 -1.56e-43
-9.7e-44 -7e-44 -1.72e-43 1.7e-43 -8.3e-44 1.67e-43 -7.6e-44 -5.7e-44
2e-43 -2.2e-44 -1.67e-43 -1.3e-44 -8.1e-44 9.4e-44 2.8e-44 -1e-44
1.35e-43 -1.7e-43 1.39e-43 1.3e-44 6.6e-44 1.02e-43 1.1e-44 -1.39e-43
-5.9e-44 -2.4e-44 -3e-44 1.12e-43 -1e-43 -2.24e-43 -9.1e-44 -1.42e-43
1.29e-43 1.65e-43 -1.67e-43 -1.23e-43 1.49e-43 -1.72e-43 1.3e-44 1.51e-43
-7e-45 1.54e-43 -5.2e-44 -1.92e-43 6.4e-44 2e-43 1.2e-43 2.38e-43
-5.6e-44 1.7e-44 -1.64e-43 8.5e-44 1.47e-43 7.3e-44 4.9e-44 -1.19e-43
1.43e-43 -1.25e-43 9.5e-44 -8.5e-44 -2.17e-43 -2.66e-43 -1.23e-43 1.6e-43
1.61e-43 1.37e-43 -1.5e-44 1.36e-43 1.19e-43 4.2e-44 -1.15e-43 1.01e-43
2.33e-43 9.1e-44 -1.4e-44 -2.17e-43 -1.11e-43 7.4e-44 1.14e-43 1.37e-43
-1.15e-43 -6e-45 1.54e-43 -2.41e-43 -1.1e-44 9.5e-44 9.2e-44 1.84e-43
1.46e-43 3e-45 -1.71e-43 -2.7e-44 -3.6e-44 2e-44 1.68e-43 -9.7e-44
1.19e-43 1.18e-43 1e-43 1.5e-44 1.02e-43 1.46e-43 6.4e-44 3.59e-43
1.16e-43 1.04e-43 -1.19e-43 -2e-43 9.7e-44 1.29e-43 -1.99e-43 -1.86e-43
-1.15e-43 8.5e-44 8.5e-44 -1.36e-43 1.02e-43 9.5e-44 1.95e-43 -1.23e-43
1.22e-43 1.47e-43 1.02e-43 1.19e-43 1.16e-43 2.75e-43 -1.12e-43 -1.35e-43
1.56e-43 1.06e-43 1.14e-43 3.15e-43 1.42e-43 -1.92e-43 1.05e-43 -1.14e-43
-6.6e-44 2.54e-43 1.12e-43 -1.05e-43 -1.72e-43 8.3e-44 1.46e-43 -1.61e-43
-1.88e-43 -1.64e-43 2.06e-43 -1.04e-43 1.88e-43 -1.36e-43 8.4e-44 1.92e-43
1.23e-43 2.2e-44 1.71e-43 -1.06e-43 5.2e-44 -1.77e-43 -4.6e-44 8.7e-44
00000000: 4700 0000 cb00 0080 6c00 0080 2800 0080
00000010: 4500 0000 4200 0080 4000 0080 6400 0080
00000020: 3300 0080 8000 0080 7b00 0080 4300 0000
00000030: 5000 0080 3e00 0000 3700 0000 0f00 0080
00000040: 4e00 0000 4e00 0000 0b00 0000 1100 0000
00000050: 5600 0000 5400 0080 1000 0000 6900 0000
00000060: 7a00 0080 3c00 0080 0b00 0000 5700 0000
00000070: 6c00 0000 3100 0080 4b00 0000 5b00 0080
00000080: 3b00 0080 3000 0000 9200 0000 6500 0080
00000090: 4500 0000 3600 0000 5c00 0000 5500 0080
000000a0: 0800 0080 4300 0000 9e00 0080 3600 0000
000000b0: 4f00 0080 2700 0080 7c00 0000 5e00 0080
000000c0: 7900 0000 6900 0000 2100 0000 5600 0000
000000d0: 6300 0000 1a00 0080 5b00 0000 0100 0000
000000e0: 4900 0080 6000 0080 1300 0080 5c00 0080
000000f0: 3b00 0080 5c00 0080 6500 0000 3c00 0000
00000100: 4100 0080 3700 0080 5100 0000 0200 0080
00000110: 9f00 0080 3300 0080 1300 0000 5b00 0000
00000120: 2e00 0000 3200 0080 2900 0080 1c00 0080
00000130: 0e00 0080 6d00 0080 5700 0080 2700 0000
00000140: 4c00 0080 2f00 0000 7000 0080 4900 0080
00000150: 7100 0000 2600 0000 8500 0000 1f00 0080
00000160: 4300 0080 1700 0080 2100 0000 5e00 0080
00000170: 3100 0080 0f00 0000 4e00 0080 6f00 0080
00000180: 4500 0080 3200 0080 7b00 0080 7900 0000
00000190: 3b00 0080 7700 0000 3600 0080 2900 0080
000001a0: 8f00 0000 1000 0080 7700 0080 0900 0080
000001b0: 3a00 0080 4300 0000 1400 0000 0700 0080
000001c0: 6000 0000 7900 0080 6300 0000 0900 0000
000001d0: 2f00 0000 4900 0000 0800 0000 6300 0080
000001e0: 2a00 0080 1100 0080 1500 0080 5000 0000
000001f0: 4700 0080 a000 0080 4100 0080 6500 0080
00000200: 5c00 0000 7600 0000 7700 0080 5800 0080
00000210: 6a00 0000 7b00 0080 0900 0000 6c00 0000
00000220: 0500 0080 6e00 0000 2500 0080 8900 0080
00000230: 2e00 0000 8f00 0000 5600 0000 aa00 0000
00000240: 2800 0080 0c00 0000 7500 0080 3d00 0000
00000250: 6900 0000 3400 0000 2300 0000 5500 0080
00000260: 6600 0000 5900 0080 4400 0000 3d00 0080
00000270: 9b00 0080 be00 0080 5800 0080 7200 0000
00000280: 7300 0000 6200 0000 0b00 0080 6100 0000
00000290: 5500 0000 1e00 0000 5200 0080 4800 0000
000002a0: a600 0000 4100 0000 0a00 0080 9b00 0080
000002b0: 4f00 0080 3500 0000 5100 0000 6200 0000
000002c0: 5200 0080 0400 0080 6e00 0000 ac00 0080
000002d0: 0800 0080 4400 0000 4200 0000 8300 0000
000002e0: 6800 0000 0200 0000 7a00 0080 1300 0080
000002f0: 1a00 0080 0e00 0000 7800 0000 4500 0080
00000300: 5500 0000 5400 0000 4700 0000 0b00 0000
00000310: 4900 0000 6800 0000 2e00 0000 0001 0000
00000320: 5300 0000 4a00 0000 5500 0080 8f00 0080
00000330: 4500 0000 5c00 0000 8e00 0080 8500 0080
00000340: 5200 0080 3d00 0000 3d00 0000 6100 0080
00000350: 4900 0000 4400 0000 8b00 0000 5800 0080
00000360: 5700 0000 6900 0000 4900 0000 5500 0000
00000370: 5300 0000 c400 0000 5000 0080 6000 0080
00000380: 6f00 0000 4c00 0000 5100 0000 e100 0000
00000390: 6500 0000 8900 0080 4b00 0000 5100 0080
000003a0: 2f00 0080 b500 0000 5000 0000 4b00 0080
000003b0: 7b00 0080 3b00 0000 6800 0000 7300 0080
000003c0: 8600 0080 7500 0080 9300 0000 4a00 0080
000003d0: 8600 0000 6100 0080 3c00 0000 8900 0000
000003e0: 5800 0000 1000 0000 7a00 0000 4c00 0080
000003f0: 2500 0000 7e00 0080 2100 0080 3e00 0000

transformer.layers.0.0.fn.fn.to_out.bias f4 [64]
0.021049423 -0.00873463 0.006582283 -0.03086109 0.006891623 -0.01508643 0.000111844674 -0.016678981
-0.0033700587 0.0046070586 -0.002164065 -3.2641437e-05 -0.003870798 0.0009458286 -0.0021387695 0.0032185349
0.013017477 0.002566713 -0.016189458 -0.0070788483 -0.01762924 0.0016720456 0.019295448 0.0012508075
0.011820518 0.0002879026 -0.0016803346 0.022966864 -0.010447558 -0.011176816 -0.008208238 0.008071077
0.0025766555 -0.006845818 -0.014385743 0.0014685348 -0.0076802503 -0.0065098368 -0.010746033 -0.011225399
-0.027292741 -0.010892836 -0.008009292 0.0090655405 0.0075457366 0.0028669857 -0.016143247 -0.003966447
0.0024540683 0.0013407073 -0.0037623406 0.02221745 -0.0020788999 0.0062790844 0.010826215 0.007984784
-0.0072054355 0.0075629344 -0.0013534675 0.005383456 0.0066388696 0.005171243 -0.0093785785 -0.006759244
00000000: d76f ac3c b21b 0fbc 31b0 d73b 66d0 fcbc
00000010: 20d3 e13b 132d 77bc 278e ea38 5ca2 88bc
00000020: 34dc 5cbb cff6 963b fcd2 0dbb 7ae8 08b8
00000030: 37ad 7dbb 7cf1 773a 992a 0cbb 0eee 523b
00000040: 4147 553c 4c36 283b c19f 84bc aff5 e7bb
00000050: 326b 90bc 8a28 db3a 7d11 9e3c 23f2 a33a
00000060: d9aa 413c a2f1 9639 ac3e dcba 0125 bc3c
00000070: 3c2c 2bbc f71e 37bc d87b 06bc 8d3c 043c
00000080: 1bdd 283b e252 e0bb 2eb2 6bbc da7b c03a
00000090: 9caa fbbb 7850 d5bb 2110 30bc bcea 37bc
000000a0: 0795 dfbc de77 32bc 6839 03bc a287 143c
000000b0: 3a42 f73b 0ae4 3b3b d83e 84bc f8f8 81bb
000000c0: 6fd4 203b acba af3a 9a91 76bb 5f01 b63c
000000d0: 273e 08bb c7c0 cd3b 7060 313c 9dd2 023c
000000e0: 931b ecbb 7ed2 f73b d566 b1ba b467 b03b
000000f0: e08a d93b 8873 a93b 9ca8 19bc a67c ddbb

transformer.layers.0.1.fn.norm.weight f4 [64]
-5.4660234e-27 -1.1243448e-31 -7.7468745e-32 1.891065e-22 5.1098075e-29 -1.1467557e-30 -4.704601e-31 6.549075e-30
-3.4480656e-31 -6.8857455e-31 -1.6947523e-31 -1.1447315e-31 -1.126868e-31 -5.8412095e-32 -8.1750025e-32 -7.7548444e-32
-7.500987e-31 -6.657749e-32 -1.02412745e-30 -1.0970952e-31 9.829039e-30 -2.8640212e-31 1.5524975e-29 -2.3661754e-31
-7.1771905e-31 -1.3721939e-31 -3.3708471e-31 1.9539626e-21 -1.2300497e-30 -4.1813256e-31 -1.1045075e-30 -1.01216985e-30
-6.6905453e-32 -1.934896e-31 -3.318019e-31 -3.745951e-31 -8.4706005e-32 -1.3815698e-31 -3.5976355e-31 -1.152929e-30
-9.110708e-26 8.303541e-30 -1.010194e-31 2.0272302e-28 -6.595558e-32 -2.4657783e-31 1.9514227e-30 -1.3666922e-31
-9.893831e-32 -3.8711394e-31 -1.0488144e-31 7.516899e-22 -1.4814266e-31 -2.8877876e-31 -7.2407055e-32 -5.269343e-27
-1.7641148e-31 -7.067662e-32 -1.415733e-31 -4.802296e-31 -5.456807e-32 -1.4969785e-31 -3.0548935e-31 -2.9880552e-32
00000000: 1088 d893 c4f2 118c d01e c98b a19d 641b
00000010: 8c8c 8110 5e12 ba8d 4cac 188d bed4 040f
00000020: d1ca df8c 8974 5f8d cefd 5b8c 3b98 148c
00000030: 9d46 128c 7fa5 978b 363c d48b c853 c98b
00000040: c36b 738d 55d8 ac8b 972c a68d 3e69 0e8c
00000050: 4a5b 470f b7e2 b98c 2471 9d0f d592 998c
00000060: c4e9 688d f71e 328c cec7 da8c 22a3 131d
00000070: 4496 c78d 18b1 078d 7237 b38d e43b a48d
00000080: 4db2 ad8b f329 7b8c 0c5a d78c 4920 f38c
00000090: cce8 db8b 8856 338c f97f e98c cc12 bb8d
000000a0: f991 e195 736a 280f 7421 038c b17d 8011
000000b0: 003b ab8b c509 a08c 7751 1e0e 2368 318c
000000c0: e56d 008c 5640 fb8c d624 088c 302f 631c
000000d0: d84c 408c 9a6d bb8c befa bb8b 7dbd d093
000000e0: c5fe 648c ac7c b78b ccc5 378c ead7 1b8d
000000f0: b4aa 8d8b a551 428c 2046 c68c 1126 1b8b

transformer.layers.0.1.fn.norm.bias f4 [64]
-5.5e-44 1.04e-43 1.05e-43 -7.6e-44 -3e-45 5.2e-44 6.9e-44 1e-45
2.2e-44 5.3e-44 -9.7e-44 -5.3e-44 -7.3e-44 4.9e-44 -3.6e-44 -4e-45
-3.6e-44 -6e-45 2e-44 7.4e-44 -5e-44 1.8e-44 -3.5e-44 1.33e-43
-6.7e-44 9.5e-44 8e-45 7.3e-44 -7.7e-44 -2.7e-44 8e-44 -8.7e-44
1.06e-43 -1.64e-43 1.8e-44 -5.3e-44 7.3e-44 1.04e-43 -3.5e-44 1.5e-44
5e-44 -2.8e-44 -1.01e-43 -6.2e-44 1.18e-43 -1.4e-44 -6.3e-44 4.3e-44
-1.25e-43 -8.5e-44 6.3e-44 5.7e-44 9.1e-44 -1.22e-43 -1.04e-43 7.1e-44
1.3e-43 -1.53e-43 -4.9e-44 -5e-44 2.7e-44 -2.1e-44 9e-44 -1.8e-44
00000000: 2700 0080 4a00 0000 4b00 0000 3600 0080
00000010: 0200 0080 2500 0000 3100 0000 0100 0000
00000020: 1000 0000 2600 0000 4500 0080 2600 0080
00000030: 3400 0080 2300 0000 1a00 0080 0300 0080
00000040: 1a00 0080 0400 0080 0e00 0000 3500 0000
00000050: 2400 0080 0d00 0000 1900 0080 5f00 0000
00000060: 3000 0080 4400 0000 0600 0000 3400 0000
00000070: 3700 0080 1300 0080 3900 0000 3e00 0080
00000080: 4c00 0000 7500 0080 0d00 0000 2600 0080
00000090: 3400 0000 4a00 0000 1900 0080 0b00 0000
000000a0: 2400 0000 1400 0080 4800 0080 2c00 0080
000000b0: 5400 0000 0a00 0080 2d00 0080 1f00 0000
000000c0: 5900 0080 3d00 0080 2d00 0000 2900 0000
000000d0: 4100 0000 5700 0080 4a00 0080 3300 0000
000000e0: 5d00 0000 6d00 0080 2300 0080 2400 0080
000000f0: 1300 0000 0f00 0080 4000 0000 0d00 0080

transformer.layers.0.1.fn.fn.net.0.weight f4 [128, 64]
1.08e-43 -2.34e-43 -2.34e-43 -1.4e-44 -8.1e-44 8.3e-44 1.23e-43 6e-44
-1.88e-43 -6.9e-44 1.05e-43 3.04e-43 1.04e-43 1.63e-43 -1.72e-43 -2.28e-43
-1.3e-44 -1.67e-43 1.19e-43 -1.25e-43 1.42e-43 1.57e-43 1.33e-43 1.72e-43
9.5e-44 -2.05e-43 -9.7e-44 -3.6e-44 -1.75e-43 2.14e-43 -2.06e-43 -1.84e-43
6e-44 5.2e-44 -1.22e-43 6e-44 1.1e-43 9.2e-44 7.3e-44 -1.67e-43
-3e-44 -1.88e-43 -1.23e-43 1.19e-43 3.9e-43 1.86e-43 -7.7e-44 -1.89e-43
2.98e-43 -1.32e-43 -1.74e-43 -4.6e-44 2.86e-43 5.5e-44 -2.4e-44 -2.07e-43
7.6e-44 1.14e-43 5.7e-44 1.11e-43 -1.64e-43 7.3e-44 -4.3e-44 -2.03e-43
1.14e-43 1.5e-43 1.06e-43 -1.9e-43 1e-44 -7.4e-44 9.4e-44 -5.6e-44
3.6e-44 -2.3e-43 6.4e-44 -1.43e-43 -7.1e-44 1.36e-43 1.82e-43 3.4e-44
-1.74e-43 -1.35e-43 1.9e-43 -1.51e-43 1.3e-43 -1.61e-43 9.4e-44 1.58e-43
6.9e-44 -1.29e-43 2.91e-43 -1.5e-43 -1.18e-43 -1.4e-43 -2.75e-43 1.25e-43
-1.98e-43 2.93e-43 1.3e-43 -1.86e-43 4.34e-43 7.4e-44 -7e-45 2.47e-43
-1.71e-43 -1.57e-43 -2.06e-43 -1.2e-43 -3.74e-43 -1.3e-43 -1.42e-43 2.87e-43
5.6e-44 -2.14e-43 -7.6e-44 -1.37e-43 1.54e-43 -1e-43 -2.84e-43 1.72e-43
-1.82e-43 -1.82e-43 1.15e-43 -6.4e-44 1.54e-43 -1.61e-43 8e-44 3.46e-43
1.04e-43 -1.82e-43 1.99e-43 5.7e-44 -1.19e-43 1.93e-43 1.35e-43 1.3e-43
-4e-44 -1.78e-43 -1.49e-43 -3.97e-43 2.66e-43 -3.74e-43 1.53e-43 2.66e-43
8.1e-44 -2.4e-43 -1.33e-43 3.08e-43 -1.53e-43 -2.2e-44 1.51e-43 1.05e-43
1.68e-43 -1.86e-43 -1.1e-43 1.18e-43 -8.5e-44 1.15e-43 1.02e-43 -6.9e-44
1.18e-43 8.3e-44 5.2e-44 -1.9e-43 -1.02e-43 -1.65e-43 -1.47e-43 -9e-44
-8.4e-44 -8.7e-44 1.06e-43 9.7e-44 -1.08e-43 8e-45 1.5e-44 -1.72e-43
-2.66e-43 -8.7e-44 -1.04e-43 -2.4e-44 2.42e-43 -2.2e-44 -4.58e-43 -1.6e-43
2.8e-44 1.72e-43 2.84e-43 -2e-44 1.63e-43 4.5e-44 3.8e-44 5.52e-43
-3.6e-44 2.23e-43 1.58e-43 1.98e-43 1.29e-43 -6.4e-44 -5e-44 -1.19e-43
8.5e-44 1.23e-43 1.54e-43 1.5e-43 -2.14e-43 1.18e-43 2.93e-43 3.4e-44
-1.53e-43 5.47e-43 -2.33e-43 -3.28e-43 -1.29e-43 9e-44 1.15e-43 2.3e-43
-7e-45 2.66e-43 1.58e-43 1.39e-43 2.16e-43 -3e-45 2.34e-43 2.1e-44
1.9e-43 -1.4e-44 1.57e-43 1.04e-43 1.01e-43 8.3e-44 2.9e-43 -6.4e-44
7.4e-44 -1.12e-43 9.5e-44 -1.16e-43 2.68e-43 3.69e-43 6.6e-44 2.7e-43
3.1e-43 1.32e-43 -2.73e-43 1.63e-43 3.73e-43 2.07e-43 -3.8e-44 1.78e-43
-8e-44 7.3e-44 1.57e-43 -3.6e-44 -9.4e-43 9.4e-44 3.2e-44 -2.45e-43
00000000: 4d00 0000 a700 0080 a700 0080 0a00 0080
00000010: 3a00 0080 3b00 0000 5800 0000 2b00 0000
00000020: 8600 0080 3100 0080 4b00 0000 d900 0000
00000030: 4a00 0000 7400 0000 7b00 0080 a300 0080
00000040: 0900 0080 7700 0080 5500 0000 5900 0080
00000050: 6500 0000 7000 0000 5f00 0000 7b00 0000
00000060: 4400 0000 9200 0080 4500 0080 1a00 0080
00000070: 7d00 0080 9900 0000 9300 0080 8300 0080
00000080: 2b00 0000 2500 0000 5700 0080 2b00 0000
00000090: 4e00 0000 4200 0000 3400 0000 7700 0080
000000a0: 1500 0080 8600 0080 5800 0080 5500 0000
000000b0: 1601 0000 8500 0000 3700 0080 8700 0080
000000c0: d500 0000 5e00 0080 7c00 0080 2100 0080
000000d0: cc00 0000 2700 0000 1100 0080 9400 0080
000000e0: 3600 0000 5100 0000 2900 0000 4f00 0000
000000f0: 7500 0080 3400 0000 1f00 0080 9100 0080
00000100: 5100 0000 6b00 0000 4c00 0000 8800 0080
00000110: 0700 0000 3500 0080 4300 0000 2800 0080
00000120: 1a00 0000 a400 0080 2e00 0000 6600 0080
00000130: 3300 0080 6100 0000 8200 0000 1800 0000
00000140: 7c00 0080 6000 0080 8800 0000 6c00 0080
00000150: 5d00 0000 7300 0080 4300 0000 7100 0000
00000160: 3100 0000 5c00 0080 d000 0000 6b00 0080
00000170: 5400 0080 6400 0080 c400 0080 5900 0000
00000180: 8d00 0080 d100 0000 5d00 0000 8500 0080
00000190: 3601 0000 3500 0000 0500 0080 b000 0000
000001a0: 7a00 0080 7000 0080 9300 0080 5600 0080
000001b0: 0b01 0080 5d00 0080 6500 0080 cd00 0000
000001c0: 2800 0000 9900 0080 3600 0080 6200 0080
000001d0: 6e00 0000 4700 0080 cb00 0080 7b00 0000
000001e0: 8200 0080 8200 0080 5200 0000 2e00 0080
000001f0: 6e00 0000 7300 0080 3900 0000 f700 0000
00000200: 4a00 0000 8200 0080 8e00 0000 2900 0000
00000210: 5500 0080 8a00 0000 6000 0000 5d00 0000
00000220: 1d00 0080 7f00 0080 6a00 0080 1b01 0080
00000230: be00 0000 0b01 0080 6d00 0000 be00 0000
00000240: 3a00 0000 ab00 0080 5f00 0080 dc00 0000
00000250: 6d00 0080 1000 0080 6c00 0000 4b00 0000
00000260: 7800 0000 8500 0080 4e00 0080 5400 0000
00000270: 3d00 0080 5200 0000 4900 0000 3100 0080
00000280: 5400 0000 3b00 0000 2500 0000 8800 0080
00000290: 4900 0080 7600 0080 6900 0080 4000 0080
000002a0: 3c00 0080 3e00 0080 4c00 0000 4500 0000
000002b0: 4d00 0080 0600 0000 0b00 0000 7b00 0080
000002c0: be00 0080 3e00 0080 4a00 0080 1100 0080
000002d0: ad00 0000 1000 0080 4701 0080 7200 0080
000002e0: 1400 0000 7b00 0000 cb00 0000 0e00 0080
000002f0: 7400 0000 2000 0000 1b00 0000 8a01 0000
00000300: 1a00 0080 9f00 0000 7100 0000 8d00 0000
00000310: 5c00 0000 2e00 0080 2400 0080 5500 0080
00000320: 3d00 0000 5800 0000 6e00 0000 6b00 0000
00000330: 9900 0080 5400 0000 d100 0000 1800 0000
00000340: 6d00 0080 8601 0000 a600 0080 ea00 0080
00000350: 5c00 0080 4000 0000 5200 0000 a400 0000
00000360: 0500 0080 be00 0000 7100 0000 6300 0000
00000370: 9a00 0000 0200 0080 a700 0000 0f00 0000
00000380: 8800 0000 0a00 0080 7000 0000 4a00 0000
00000390: 4800 0000 3b00 0000 cf00 0000 2e00 0080
000003a0: 3500 0000 5000 0080 4400 0000 5300 0080
000003b0: bf00 0000 0701 0000 2f00 0000 c100 0000
000003c0: dd00 0000 5e00 0000 c300 0080 7400 0000
000003d0: 0a01 0000 9400 0000 1b00 0080 7f00 0000
000003e0: 3900 0080 3400 0000 7000 0000 1a00 0080
000003f0: 9f02 0080 4300 0000 1700 0000 af00 0080

transformer.layers.0.1.fn.fn.net.0.bias f4 [128]
8.07e-43 6.90188e-32 -9.327786e-28 2.07e-43 3.1e-44 6e-44 1.3e-44 9.4e-44
5.5e-44 3.5e-44 3.1e-44 -2.1e-44 -3.1288544e-37 6.641208e-37 -1.08e-43 9.11641e-40
-6.4e-44 7.743179e-27 -3e-45 -1.14953e-40 2.5e-43 -7.0102906e-36 8.3e-44 -4.8e-44
1.5e-44 -6.4e-44 5.9e-44 2.624277e-39 1.16e-43 -4.3404335e-32 7.8e-44 -3.9e-44
1.867763e-39 8.265e-42 4.2053177e-30 -1.2322487e-29 4.3e-44 2.44e-43 -6.879917e-27 -3.231985e-36
3.11e-43 5.090457e-28 -8.82e-42 6.24e-43 1.33e-43 -1.9815185e-37 -1.44e-43 -7.6e-44
5.5e-44 1.47e-43 6.9e-44 8.4486e-41 -8.981e-42 -3.5e-44 1.682932e-36 1e-44
-1.04e-43 1.3e-43 -7.979387e-37 -2.2625e-40 1.4e-44 5.1114547e-35 -8.1e-43 3.74e-43
1.01e-43 5e-44 -8.346509e-38 -1.39e-43 3.3761e-41 -1.04e-43 -6.22e-43 1.4e-44
7e-44 1.3672e-41 -8.6940126e-36 -1.9044e-41 1.99e-43 -4e-44 6.6702306e-38 -1.9420276e-34
-7.33e-43 4.6e-44 1.3037552e-37 3.2e-44 -3e-44 9.1e-44 -1.0392483e-38 -4.47e-43
-3.6453e-41 -1.341e-42 6e-45 -3.3390088e-29 2.9345731e-35 2.2914745e-37 3.2126094e-35 7.7e-44
-1.223097e-39 2.8e-44 -1.26e-43 7.1e-44 6.9e-44 -7.3368025e-34 8e-45 -8e-44
-2.1111732e-35 -2.8783057e-38 1.0876287e-30 -1.5e-44 3.07547e-40 -1.2e-43 -8.8e-44 -9.7e-44
7.7e-44 -3.6903414e-27 -5.654e-42 1.36e-43 4.6e-44 -6e-44 -2.14e-43 -4.282804e-28
-5.3e-44 -7.4e-44 -1.5e-44 8.5653424e-33 1.4723211e-37 -1.02e-43 4.78e-43 1.39e-43
00000000: 4002 0000 dc2e b30b ffcd 9392 9400 0000
00000010: 1600 0000 2b00 0000 0900 0000 4300 0000
00000020: 2700 0000 1900 0000 1600 0000 0f00 0080
00000030: 55f0 d482 15fd 6103 4d00 0080 49ed 0900
00000040: 2e00 0080 955e 1914 0200 0080 7140 0180
00000050: b200 0000 a717 1585 3b00 0000 2200 0080
00000060: 0b00 0000 2e00 0080 2a00 0000 6b93 1c00
00000070: 5300 0000 425e 618b 3800 0000 1c00 0080
00000080: 9056 1400 0a17 0000 8496 aa0e 03ee 798f
00000090: 1f00 0000 ae00 0000 5345 0894 3379 8984
000000a0: de00 0000 b252 2112 9618 0080 bd01 0000
000000b0: 5f00 0000 ecda 8682 6700 0080 3600 0080
000000c0: 2700 0000 6900 0000 3100 0000 83eb 0000
000000d0: 0919 0080 1900 0080 032b 0f04 0700 0000
000000e0: 4a00 0080 5d00 0000 22c3 8783 b176 0280
000000f0: 0a00 0000 c2e2 8706 4202 0080 0b01 0000
00000100: 4800 0000 2400 0000 ae36 e381 6300 0080
00000110: 1d5e 0000 4a00 0080 bc01 0080 0a00 0000
00000120: 3200 0000 1d26 0000 b5e6 3885 1635 0080
00000130: 8e00 0000 1d00 0080 b994 b501 e311 8187
00000140: 0b02 0080 2100 0000 3d75 3102 1700 0000
00000150: 1500 0080 4100 0000 042a 7180 3f01 0080
00000160: 9e65 0080 bd03 0080 0400 0000 d04e 2990
00000170: 5707 1c06 1ef3 9b02 c6cf 2a06 3700 0000
00000180: 7f51 0d80 1400 0000 5a00 0080 3300 0000
00000190: 3100 0000 9dce 7388 0600 0000 3900 0080
000001a0: 9a7f e085 bab5 1c81 547a b00d 0b00 0080
000001b0: 5159 0300 5600 0080 3f00 0080 4500 0080
000001c0: 3700 0000 8230 9293 c30f 0080 6100 0000
000001d0: 2100 0000 2b00 0080 9900 0080 3cba 0792
000001e0: 2600 0080 3500 0080 0b00 0080 2ce5 310a
000001f0: e766 4802 4900 0080 5501 0000 6300 0000

transformer.layers.0.1.fn.fn.net.2.weight f4 [64, 128]
-1.04e-43 1.0610026e-32 2.7432973e-29 1.11e-43 -7e-44 4.8e-44 -1.15e-43 4.6e-44
4.2e-44 2.7e-44 4e-44 1.8e-44 -4.088829e-39 6.0291853e-38 4.5e-44 -3.87969e-40
3.4e-44 1.2852755e-27 3.1e-44 1.736e-42 -1.01e-43 -2.8352326e-37 -1.3e-44 1.3e-44
3.4e-44 -1.08e-43 -1.15e-43 4.73745e-40 1.01e-43 -2.5871332e-33 -3.2e-44 2.1e-44
-9.38021e-40 1.246e-42 -1.001257e-30 7.1130174e-31 -2.5e-44 6.7e-44 -2.2761834e-27 -7.228558e-37
6.2e-44 3.7253338e-29 -3.55e-43 -4.36e-43 2.8e-44 -6.72171e-38 1.57e-43 -3.9e-44
3e-45 1.5e-44 6.6e-44 3.0969e-41 3.43e-42 -4e-45 2.057749e-38 3.9e-44
-1.49e-43 3.8e-44 2.4504652e-37 -3.2761e-41 -6.7e-44 2.439792e-35 -3.9e-44 -1.4e-44
-1.93e-43 -5.7e-44 -1.7027913e-38 -5.3e-44 -2.231e-42 4.2e-44 1.53e-43 0.0
3e-45 -1.1634e-41 -2.4763105e-37 5.14e-42 -1.56e-43 -4.3e-44 -2.0743194e-38 -1.2082478e-35
7.4e-44 1.1e-44 1.2669334e-38 3.5e-44 5.9e-44 1.75e-43 3.569292e-38 -3.87e-43
7e-44 3.2e-43 1.06e-43 1.5786358e-31 -3.913443e-39 4.853e-39 -1.04013645e-36 -4.5e-44
9.38806e-40 -4e-45 -6.3e-44 1e-44 1.3e-44 -6.45226e-35 6e-44 -6.7e-44
-8.5569804e-36 -1.137766e-39 -2.8803018e-32 2.1e-44 -3.1019e-41 -1.2e-43 -4e-45 8.1e-44
2.2e-44 -3.9533566e-28 -5.633e-42 1.75e-43 7.7e-44 -5e-44 -1.36e-43 1.12515355e-29
-7.3e-44 1.5e-44 -2.7e-44 -3.906599e-34 -5.213396e-39 1e-45 1.445e-42 6.9e-44
-4.2e-44 4.017971e-34 -1.5639609e-29 -7.7e-44 7.3e-44 -6.9e-44 1.82e-43 -1.42e-43
3.8e-44 3.4e-44 -3.1e-44 -1.02e-43 -2.180506e-39 9.799373e-39 -1.5e-43 5.8387e-41
-9.8e-44 -2.4776606e-29 -2.8e-44 3.869e-42 -1.12e-43 -8.345131e-38 -6.4e-44 -2e-43
-3.6e-44 6.3e-44 -7.8e-44 -5.8325e-41 6e-44 4.0502764e-34 1.11e-43 9.4e-44
-3.7764e-41 6.3e-44 2.5900626e-31 6.434025e-32 7.7e-44 4.2e-44 -4.13277e-29 3.5740605e-38
-1.3e-44 -5.383139e-32 -1.86e-43 -1.04e-43 2.56e-43 -5.493519e-39 5.3e-44 -1.18e-43
7.3e-44 -1.86e-43 -5.2e-44 -2.892e-42 -1.47e-43 8.4e-44 -5.065229e-39 -1.3e-44
-1.5e-43 2.5e-44 -1.5648918e-38 -9.972e-42 -8.4e-44 -1.2008283e-36 1.02e-43 1.22e-43
-5.5e-44 1.8e-44 -1.273217e-39 -1.15e-43 -1.656e-42 -6.7e-44 -2.35e-43 -5.6e-44
-1.5e-44 -8.74e-43 -6.662756e-38 3.91e-43 6.4e-44 -9.1e-44 -1.003739e-39 -3.0230663e-36
-2.94e-43 4.8e-44 -1.361305e-39 7.1e-44 6.4e-44 -7.4e-44 2.35153e-40 1.37e-43
2.05e-43 1.01e-43 -3.3e-43 -1.3210242e-31 4.351506e-37 4.856666e-39 3.4421164e-37 -7.7e-44
-6.2854e-41 -4.5e-44 1.42e-43 -1.8e-44 -2e-44 -1.0714696e-35 -2.5e-44 7.7e-44
-5.356355e-37 2.21824e-40 1.024809e-32 9.8e-44 -2.762e-42 -1.8e-43 1.49e-43 1.04e-43
7.1e-44 -1.0612379e-29 -3.62e-43 -2.7e-44 -2.1e-44 -6e-44 1.64e-43 1.9524335e-30
-1.5e-44 -1.8e-43 1.35e-43 1.8170629e-34 1.322574e-39 6.7e-44 -1.19e-43 -1.93e-43
00000000: 4a00 0080 935c 5c0a 091a 0b10 4f00 0000
00000010: 3200 0080 2200 0000 5200 0080 2100 0000
00000020: 1e00 0000 1300 0000 1d00 0000 0d00 0000
00000030: fe85 2c80 4a21 a401 2000 0000 8039 0480
00000040: 1800 0000 f8a8 cb12 1600 0000 d704 0000
00000050: 4800 0080 b8f4 c082 0900 0080 0900 0000
00000060: 1800 0000 4d00 0080 5200 0080 9c28 0500
00000070: 4800 0000 3dee 5689 1700 0080 0f00 0000
00000080: d236 0a80 7903 0000 9776 a28d a3d4 660d
00000090: 1200 0080 3000 0000 7c56 3493 9ff9 7583
000000a0: 2c00 0000 99e5 3c10 fd00 0080 3701 0080
000000b0: 1400 0000 7bfb b681 7000 0000 1c00 0080
000000c0: 0200 0000 0b00 0000 2f00 0000 5456 0000
000000d0: 9009 0000 0300 0080 ac11 e000 1c00 0000
000000e0: 6a00 0080 1b00 0000 20c5 a602 535b 0080
000000f0: 3000 0080 bab8 0106 1c00 0080 0a00 0080
00000100: 8a00 0080 2900 0080 e56a b980 2600 0080
00000110: 3806 0080 1e00 0000 6d00 0000 0000 0000
00000120: 0200 0000 6e20 0080 6a87 a882 540e 0000
00000130: 6f00 0080 1f00 0080 96df e180 a27b 8085
00000140: 3500 0000 0800 0000 f3f4 8900 1900 0000
00000150: 2a00 0000 7d00 0000 ab54 4201 1401 0080
00000160: 3200 0000 e400 0000 4c00 0000 2ceb 4c0c
00000170: 169d 2a80 31d8 3400 55f8 b083 2000 0080
00000180: 0239 0a00 0300 0080 2d00 0080 0700 0000
00000190: 0900 0000 ce87 ab86 2b00 0000 3000 0080
000001a0: a2fc 3585 a163 0c80 c78d 158b 0f00 0000
000001b0: 7856 0080 5600 0080 0300 0080 3a00 0000
000001c0: 1000 0000 e192 fa91 b40f 0080 7d00 0000
000001d0: 3700 0000 2400 0080 6100 0080 5035 640f
000001e0: 3400 0080 0b00 0000 1300 0080 abd1 0188
000001f0: d4c4 3880 0100 0000 0704 0000 3100 0000
00000200: 1e00 0080 1e85 0508 bf9a 9e8f 3700 0080
00000210: 3400 0000 3100 0080 8200 0000 6500 0080
00000220: 1b00 0000 1800 0000 1600 0080 4900 0080
00000230: 5dbe 1780 aab4 6a00 6b00 0080 c2a2 0000
00000240: 4600 0080 bf43 fb8f 1400 0080 c90a 0000
00000250: 5000 0080 132d e381 2e00 0080 8f00 0080
00000260: 1a00 0080 2d00 0000 3800 0080 96a2 0080
00000270: 2b00 0000 f197 0608 4f00 0000 4300 0000
00000280: 4569 0080 2d00 0000 cc1a a80c 6e09 a70b
00000290: 3700 0000 1e00 0000 6c8e 5190 2297 4201
000002a0: 0900 0080 18c1 8b8b 8500 0080 4a00 0080
000002b0: b700 0000 b2d1 3b80 2600 0000 5400 0080
000002c0: 3400 0000 8500 0080 2500 0080 1008 0080
000002d0: 6900 0080 3c00 0000 cc27 3780 0900 0080
000002e0: 6b00 0080 1200 0000 d166 aa80 cc1b 0080
000002f0: 3c00 0080 734f cc83 4900 0000 5700 0000
00000300: 2700 0080 0d00 0000 36dd 0d80 5200 0080
00000310: 9e04 0080 3000 0080 a800 0080 2800 0080
00000320: 0b00 0080 7002 0080 a260 b581 1701 0000
00000330: 2e00 0000 4100 0080 04ee 0a80 4796 8084
00000340: d200 0080 2200 0000 c4d2 0e80 3300 0000
00000350: 2e00 0000 3500 0080 838f 0200 6200 0000
00000360: 9200 0000 4800 0000 eb00 0080 8f7a 2b8c
00000370: f712 1403 69e2 3400 2042 ea02 3700 0080
00000380: 36af 0080 2000 0080 6500 0000 0d00 0080
00000390: 0e00 0080 5be0 6385 1200 0080 3700 0000
000003a0: 6f44 3683 5b6a 0200 31d8 540a 4600 0000
000003b0: b307 0080 8000 0080 6a00 0000 4a00 0000
000003c0: 3300 0000 9f3e 578f 0201 0080 1300 0080
000003d0: 0f00 0080 2b00 0080 7500 0000 7566 1e0e
000003e0: 0b00 0080 8000 0080 6000 0000 7287 7107
000003f0: cc66 0e00 3000 0000 5500 0080 8a00 0080

transformer.layers.0.1.fn.fn.net.2.bias f4 [64]
0.021049561 -0.008906385 0.0065569724 -0.030861082 0.0068916613 -0.015086435 0.00010811338 -0.016678987
-0.003367534 0.004607156 -0.0021695455 -2.4415938e-05 -0.0038699957 0.0009582433 -0.002144613 0.0032270222
0.0130174905 0.0025689234 -0.016189538 -0.007045317 -0.017629258 0.0016805539 0.019295668 0.0012597111
0.011820514 0.00029024374 -0.0017045055 0.022966575 -0.010447545 -0.011176835 -0.008208339 0.00807099
0.0025760147 -0.00684579 -0.014385765 0.0014632731 -0.0077131707 -0.006509845 -0.010746008 -0.0112254135
-0.02729273 -0.01089291 -0.007970592 0.009065693 0.007549373 0.0028657895 -0.016143205 -0.003966558
0.0024613824 0.0013352624 -0.0037626082 0.02221722 -0.0020757045 0.006279163 0.010833804 0.0079850415
-0.007205363 0.0075451354 -0.0013594838 0.0053833816 0.0066411286 0.0051713823 -0.009378545 -0.0067417524
00000000: 2170 ac3c 16ec 11bc dfdb d63b 61d0 fcbc
00000010: 72d3 e13b 182d 77bc eeba e238 5fa2 88bc
00000020: d8b1 5cbb a0f7 963b ef2e 0ebb d4d0 ccb7
00000030: c19f 7dbb 9f32 7b3a a38c 0cbb 737c 533b
00000040: 5047 553c 625b 283b ec9f 84bc 67dc e6bb
00000050: 3c6b 90bc 0846 dc3a f311 9e3c e41c a53a
00000060: d4aa 413c db2b 9839 b769 dfba 6624 bc3c
00000070: 2e2c 2bbc 0b1f 37bc 457c 06bc 303c 043c
00000080: 5bd2 283b a652 e0bb 46b2 6bbc 4ccb bf3a
00000090: c4be fcbb 8a50 d5bb 0610 30bc ccea 37bc
000000a0: 0195 dfbc 2d78 32bc 1697 02bc 4688 143c
000000b0: bb60 f73b f8cf 3b3b c13e 84bc e6f9 81bb
000000c0: 254f 213b f903 af3a 1796 76bb e300 b63c
000000d0: 8b08 08bb 70c1 cd3b 4480 313c b1d3 023c
000000e0: f71a ecbb 2f3d f73b b530 b2ba 1467 b03b
000000f0: d39d d93b b374 a93b 78a8 19bc ebe9 dcbb

mlp_head.0.weight f4 [128, 64]
-2.9092332e-21 3.0202664e-18 -1.658319e-18 7.981719e-18 2.211771e-17 -6.580982e-18 3.3477207e-17 -4.6913904e-18
-3.65775e-17 3.286952e-17 -3.511223e-17 -3.9210128e-17 -3.4021383e-17 -2.8611946e-17 3.228938e-17 -2.886966e-17
9.5329125e-18 -3.0069762e-17 -5.456681e-18 1.24458505e-17 -3.7131724e-18 3.3359953e-17 1.3019514e-18 3.6798794e-17
1.130381e-17 3.6673886e-17 3.5088307e-17 -1.7928803e-18 -1.2961521e-17 -1.1628313e-17 -1.9902965e-17 2.02282e-17
-3.173675e-17 -2.2942665e-17 -6.641988e-18 3.9993948e-17 8.4649875e-18 -2.4986857e-17 -1.1400623e-17 -1.1910861e-17
5.645576e-18 -1.2803558e-17 5.3054504e-18 1.6581396e-17 -8.7833785e-18 3.7880534e-17 -4.864295e-18 -3.3645323e-17
-3.2270546e-17 3.2731262e-17 -3.5554082e-17 -1.1205921e-18 -3.756002e-17 2.661565e-17 -5.0804536e-18 2.0167285e-17
-2.2044057e-17 -2.8265727e-18 -3.9407126e-17 2.887081e-17 -1.4275804e-17 2.9992212e-17 -1.6225464e-17 1.538092e-18
4.0385287e-37 -3.3776188e-36 1.2100702e-36 3.6377816e-37 -8.436529e-36 1.3569561e-35 -1.6806851e-35 2.5994224e-35
2.3858872e-35 -3.071418e-35 1.9418132e-35 1.9024496e-35 2.1480671e-35 4.029502e-35 -1.2976539e-34 3.1146132e-35
-2.8757192e-35 -3.767955e-36 1.5651334e-35 -4.2834558e-36 3.081808e-35 -1.9938073e-35 -3.203533e-35 -1.618424e-35
-1.0420893e-35 -1.241695e-35 -9.4285036e-36 4.436238e-36 2.0918449e-35 3.6085998e-35 4.1039802e-35 -1.1187721e-35
-3.5441517e-36 1.5964948e-35 2.4888504e-35 -1.3639633e-35 -1.7527708e-35 2.657908e-35 9.712168e-36 1.3896212e-35
-8.3825e-36 2.0907306e-35 -4.7155077e-36 -9.067543e-36 -1.0679978e-35 -5.2117895e-35 1.3673429e-35 1.4538028e-35
-3.980621e-35 -3.6570327e-35 2.6224826e-35 7.086116e-36 2.1475458e-35 -1.9402245e-35 7.594177e-36 -1.05663985e-35
9.5010185e-36 1.3039546e-36 1.8843393e-35 -2.3485122e-35 2.406173e-35 -2.9910864e-35 1.2753909e-35 -7.1557214e-37
0.00095848955 -8.103491e-06 1.0292432e-05 -0.0014243326 0.0003849796 -0.00070562557 0.00015126994 -0.00077123224
-0.0002553939 0.00029984704 -0.00021483663 -0.0001485905 -0.00027295016 -0.00012251409 9.490072e-05 -7.308018e-05
0.00062225334 -8.6250555e-05 -0.00075089827 2.062277e-05 -0.0008109421 0.00019889636 0.00088168296 0.00018518188
0.0005749969 0.00015613763 0.000104764884 0.0010438523 -0.0005216268 -0.0005495322 -0.00043439335 0.00042981515
-8.62171e-05 -0.00038303089 -0.00067750167 0.00019169362 1.4726546e-05 -0.00037034135 -0.0005328422 -0.0005516366
-0.0012460924 -0.000538792 1.406397e-05 0.00046791468 -1.5587884e-05 0.00023792357 -0.00074894837 -0.00027719207
-8.846655e-05 0.00018771026 -0.0002693571 0.0010104775 -0.00021154556 0.00036193864 1.531165e-05 0.0004265548
-0.00039708347 6.4451588e-06 -0.00018860315 0.00032815768 -2.6071217e-05 0.0003206363 -0.00047999373 -9.134913e-06
1.8667348e-09 -1.7236608e-12 1.2246274e-11 -2.8799807e-09 6.591551e-10 -1.2864979e-09 2.549322e-10 -1.4397681e-09
-4.1313716e-10 4.862334e-10 -3.5947384e-10 -2.6074592e-10 -4.3816864e-10 -1.6110392e-10 1.4804255e-11 -1.2408424e-11
1.1094926e-09 1.638725e-11 -1.3895377e-09 -2.9398578e-12 -1.5337088e-09 3.3624872e-10 1.6699577e-09 3.1680003e-10
1.0271417e-09 2.5996155e-10 1.5548157e-10 2.0443467e-09 -9.615244e-10 -9.597275e-10 -7.235601e-10 7.4072815e-10
1.4242566e-11 -6.446791e-10 -1.2573117e-09 3.1672048e-10 -1.7084784e-10 -6.1886374e-10 -9.499029e-10 -9.761969e-10
-2.4714784e-09 -9.818979e-10 -9.262142e-12 8.256468e-10 1.5127588e-10 3.809788e-10 -1.379531e-09 -4.624417e-10
-8.041235e-12 3.0199562e-10 -4.3014975e-10 1.9838653e-09 -3.4942488e-10 6.0781835e-10 4.919272e-11 7.4896e-10
-6.938759e-10 -5.852662e-12 -3.2053996e-10 5.26786e-10 2.7366606e-10 5.242772e-10 -8.6110297e-10 -1.817084e-11
00000000: c1d0 5b9d 38db 5e22 85b9 f4a1 9a3c 1323
00000010: f7ff cb23 9ecb f2a2 e962 1a24 ee14 ada2
00000020: 17af 28a4 7b95 1724 34ed 21a4 26d3 34a4
00000030: 5ce5 1ca4 06f3 03a4 92e8 1424 4723 05a4
00000040: e8d9 2f23 1cac 0aa4 e550 c9a2 de95 6523
00000050: ecfd 88a2 7bd8 1924 5522 c021 59b4 2924
00000060: bc84 5023 e220 2924 f6d0 2124 8d4a 04a2
00000070: 0d19 6fa3 2881 56a3 8c92 b7a3 7d92 ba23
00000080: 245c 12a4 d69b d3a3 ce0b f5a2 8570 3824
00000090: c626 1c23 8c76 e6a3 ec4d 52a3 73b7 5ba3
000000a0: f548 d022 182f 6ca3 90bc c322 b7ef 9823
000000b0: 5506 22a3 71b1 2e24 f875 b3a2 6329 1ba4
000000c0: 56d2 14a4 41f2 1624 daf6 23a4 c65e a5a1
000000d0: 0b37 2da4 6d7c f523 876f bba2 a802 ba23
000000e0: 0f52 cba3 7390 50a2 b9bb 35a4 a324 0524
000000f0: caab 83a3 8e50 0a24 4ba7 95a3 79fb e221
00000100: 8c6c 0903 03ab 8f84 fee1 cd03 1893 f702
00000110: d56c 3385 dc4b 9005 9ab8 b285 8135 0a06
00000120: 07b6 fd05 fa4d 2386 2f7d ce05 9b4d ca05
00000130: f36b e405 bd3e 5606 e07c 2c87 eb99 2506
00000140: 43e6 1886 6645 a084 fc6e a605 b432 b684
00000150: 66db 2306 9904 d485 3b54 2a86 b119 ac85
00000160: bda0 5d85 270a 8485 a885 4885 5bb2 bc04
00000170: 6f71 de05 b7dd 3f06 7c34 5a06 bfef 6d85
00000180: 65c0 9684 b9c4 a905 7a54 0406 9d0a 9185
00000190: f662 ba85 9251 0d06 128e 4e05 16c5 9305
000001a0: ac46 3285 1a53 de05 5593 c884 66d8 4085
000001b0: 5523 6385 9a8d 8a86 9d66 9105 4798 9a05
000001c0: 68a5 5386 f370 4286 626f 0b06 7cb4 1605
000001d0: c25d e405 ef51 ce85 a282 2105 f2b8 6085
000001e0: 7710 4a05 3cdb dd03 9860 c805 95bc f985
000001f0: 42de ff05 8f08 1f86 719f 8705 207f 7383
00000200: 2543 7b3a 3bf4 07b7 a9ad 2c37 acb0 baba
00000210: 16d7 c939 bbf9 38ba 379e 1e39 852c 4aba
00000220: 64e6 85b9 ca34 9d39 c545 61b9 f5ce 1bb9
00000230: c01a 8fb9 2077 00b9 7005 c738 9f42 99b8
00000240: b71e 233a 6ae1 b4b8 eed7 44ba 10ff ac37
00000250: 6795 54ba d68e 5039 be20 673a 622d 4239
00000260: 64bb 163a e0b8 2339 38b5 db38 dfd1 883a
00000270: c8bd 08ba 7b0e 10ba 4abf e3b9 d058 e139
00000280: 74cf b4b8 89d1 c8b9 5e9a 31ba 5d01 4939
00000290: 0912 7737 602a c2b9 6fae 0bba b59b 10ba
000002a0: ec53 a3ba b83d 0dba 4bf4 6b37 7252 f539
000002b0: bac2 82b7 1f7b 7939 1355 44ba 1754 91b9
000002c0: 1e87 b9b8 17d4 4439 7f38 8db9 0072 843a
000002d0: 54d2 5db9 95c2 bd39 8571 8037 37a3 df39
000002e0: a42f d0b9 7e43 d836 c6c3 45b9 940c ac39
000002f0: 83b3 dab7 131b a839 aba7 fbb9 2742 19b7
00000300: f247 0031 6d95 f2ab 5170 572d 28e9 45b1
00000310: eb2f 3530 9fd0 b0b0 8426 8c2f 56e1 c5b0
00000320: e31f e3af a2a7 0530 729f c5af ba58 8faf
00000330: c1e2 f0af b922 31af 3838 822d 934a 5aad
00000340: cd7c 9830 ce24 902d 03fa beb0 c5df 4eac
00000350: 95ca d2b0 cdda b82f 6a84 e530 a429 ae2f
00000360: 562b 8d30 56ea 8e2f 2cf4 2a2f 877c 0c31
00000370: a226 84b0 69e7 83b0 04e4 46b0 1c9c 4b30
00000380: d18e 7a2d 4235 31b0 b9cd acb0 721e ae2f
00000390: 64d9 3baf aa1c 2ab0 bd8d 82b0 e02a 86b0
000003a0: b5d6 29b1 76f3 86b0 fbf0 22ad baf3 6230
000003b0: 6054 262f 0072 d12f ef99 bdb0 e23a feaf
000003c0: 8176 0dad 1b06 a62f 327a ecaf 8754 0831
000003d0: 2e19 c0af 6a13 2730 145a 582e 60df 4d30
000003e0: 2dbb 3eb0 18ec cdac fd37 b0af 45cd 1030
000003f0: 1373 962f ba1c 1030 bcb2 6cb0 18d5 9fad
